hyperopt_results/models/arch_larger_capacity_20250906_230524/dqn_racing_episode_200.pth (torch, 741333 bytes, 36 tensors)

hidden_nets.0.weight f4 [256, 11]
0.038890544 0.10938927 0.04652735 -0.035854705 0.16745807 0.012802763 -0.023629123 -0.20939744
0.084535114 -0.032033026 0.015987566 -0.13558118 0.058632363 -0.08215548 -0.2673319 -0.20989066
-0.10003156 0.0166818 0.1716437 0.097547784 -0.11339783 -0.14724131 -0.20348133 -0.15520379
-0.010431983 0.09516369 -0.0840427 -0.10974834 0.0723356 -0.04644012 0.14796054 0.12093413
0.1217413 0.069810204 -0.049018517 0.19378956 0.0139207 -0.23135142 0.0085814195 -0.040611554
0.0242252 -0.029385123 -0.06834102 0.05471499 -0.174221 0.005288387 0.09163632 -0.33431137
-0.081880115 0.043404475 0.020545492 -0.101912834 -0.07179371 -0.13255653 0.093412526 -0.20722467
-0.035064112 0.056445505 -0.22097333 0.0144038955 -0.017968332 0.065181226 -0.15705705 0.00553818
0.109704375 0.10344606 -0.023150057 -0.07098219 0.15858552 -0.0528267 -0.0071090567 -0.051942926
0.049096085 -0.09918475 0.08212399 -0.17855412 0.04847859 0.19475444 -0.17595717 0.11420902
-0.015646555 0.124681674 -0.025465954 0.028114345 -0.04498876 -0.08856621 -0.047731604 -0.01732191
0.1023203 0.0012551189 -0.10779981 -0.064583845 0.0015537079 0.09526799 -0.030694928 -0.17466493
-0.03238187 0.023991292 -0.06749819 -0.080195725 -0.022259548 -0.145905 0.11067735 -0.092351265
-0.12655647 -0.062544495 0.030946545 -0.10727383 -0.15116496 0.06297115 0.13747457 -0.06878919
0.034778178 -0.010463588 0.067038506 -0.027083749 -0.013008184 -0.22013113 0.14464016 0.009891813
-0.080653235 0.14044122 -0.06494926 -0.04967273 -0.3355462 -0.18517587 -0.10281488 -0.10054414
0.009552312 0.102278106 0.0092110885 0.1288261 -0.024007278 -0.13193962 -0.048450373 -0.13686001
0.08729925 -0.0800728 0.013032962 0.0515592 -0.07523457 -0.053129606 -0.012789258 0.081849106
-0.19204439 -0.1456722 -0.16501716 -0.036969516 0.10359584 -0.03341937 -0.030871933 0.13005312
0.085901715 -0.13457493 -0.0637389 -0.013654559 0.17745721 -0.30574003 -0.11099368 -0.18381253
-0.12434346 -0.08982532 -0.05230798 -0.008855046 -0.04068142 -0.11832704 -0.111199684 -0.20416145
-0.17531502 -0.09121587 0.1118726 0.039367467 0.007307831 -0.07210276 -0.0139146345 -0.05113349
0.007837995 0.07907978 0.076308236 -0.12787205 -0.1698122 -0.040282257 0.083463915 -0.074625574
0.10329973 -0.34649122 -0.01215574 -0.11124343 0.07542626 -0.08781874 0.13989376 -0.094026804
-0.123840585 -0.08843218 -0.18925369 0.096387684 0.018467464 -0.008929992 0.054209832 -0.05151815
0.02891988 0.032550726 0.20225722 -0.0032087918 -0.02229366 -0.058192883 0.013365322 -0.03175598
-0.012620905 -0.018678956 0.11463905 -0.21587792 -0.07165165 -0.2339104 -0.0075800684 -0.015650613
0.20786817 -0.01266531 -0.041521065 -0.013064357 0.104850374 -0.14490727 -0.10579345 -0.02634773
0.10063411 0.026831714 0.005907459 -0.022327373 0.014280761 0.0139327515 0.03195208 0.024976648
-0.04789373 0.09182912 -0.091694914 -0.014386549 -0.34563324 0.012108481 -0.15109754 -0.12010053
-0.4011148 0.08634334 -0.03552623 0.116606735 0.07879507 0.10415505 -0.33022878 -0.025036095
-0.014071929 9.691261e-05 0.14102684 -0.007078413 0.06272295 -0.23514722 0.026027294 0.11884828
00000000: b14b 1f3d 7b07 e03d 7693 3e3d 62dc 12bd
00000010: 217a 2b3e aec2 513c dd91 c1bc 486c 56be
00000020: bf20 ad3d 1035 03bd 5bf8 823c cbd5 0abe
00000030: 7d28 703d 2241 a8bd badf 88be 94ed 56be
00000040: 59dd ccbd 45a8 883c 5ec3 2f3e 22c7 c73d
00000050: 1f3d e8bd 6dc6 16be 695d 50be beed 1ebe
00000060: e8ea 2abc 2ee5 c23d 941e acbd bdc3 e0bd
00000070: b024 943d ff37 3ebd f882 173e 50ac f73d
00000080: 8153 f93d a7f8 8e3d a4c7 48bd c570 463e
00000090: a613 643c 63e7 6cbe 1599 0c3c 4d58 26bd
000000a0: ed73 c63c 12b9 f0bc 60f6 8bbd d31c 603d
000000b0: fd66 32be 354a ad3b d3ab bb3d dc2a abbe
000000c0: c3b0 a7bd e4c8 313d 054f a83c adb7 d0bd
000000d0: 9508 93bd e6bc 07be 114f bf3d b432 54be
000000e0: 639f 0fbd 6733 673d d546 62be 51fe 6b3c
000000f0: 5332 93bc bc7d 853d 90d3 20be 9f79 b53b
00000100: b0ac e03d 87db d33d 30a5 bdbc 1c5f 91bd
00000110: 3e64 223e cf60 58bd 17f3 e8bb 1bc2 54bd
00000120: fa18 493d 6021 cbbd 9f30 a83d e4d6 36be
00000130: 7c91 463d b56d 473e 1e2e 34be 6be6 e93d
00000140: 342d 80bc 1b59 ff3d fa9d d0bc 0e50 e63c
00000150: 2246 38bd 3362 b5bd 3782 43bd aee6 8dbc
00000160: 4e8d d13d cd82 a43a 26c6 dcbd 8944 84bd
00000170: c9a5 cb3a dd1b c33d ee73 fbbc 5ddb 32be
00000180: daa2 04bd 6389 c43c 7e3c 8abd a83d a4bd
00000190: a859 b6bc 1f68 15be ceaa e23d a922 bdbd
000001a0: 0598 01be 5417 80bd 9c83 fd3c 62b2 dbbd
000001b0: fdca 1abe 05f7 803d 22c6 0c3e 59e1 8cbd
000001c0: 9073 0e3d 786f 2bbc 7c4b 893d bdde ddbc
000001d0: 4720 55bc 0e6a 61be 8d1c 143e 4511 223c
000001e0: 862d a5bd d3cf 0f3e 1e04 85bd a275 4bbd
000001f0: b6cc abbe be9e 3dbe 9c90 d2bd 16ea cdbd
00000200: 4d81 1c3c 2f77 d13d 1bea 163c fdea 033e
00000210: e9aa c4bc 2e1b 07be e673 46bd 0825 0cbe
00000220: f3c9 b23d 35fd a3bd 3488 553c bd2f 533d
00000230: 9514 9abd 6e9e 59bd 098a 51bc 81a0 a73d
00000240: 49a7 44be 182b 15be 42fa 28be 596d 17bd
00000250: 0e2a d43d c0e2 08bd 23e7 fcbc a52c 053e
00000260: 3ded af3d 03ce 09be 8a89 82bd 5fb7 5fbc
00000270: 58b7 353e f589 9cbe a850 e3bd 5a39 3cbe
00000280: c9a7 febd 56f6 b7bd e440 56bd c114 11bc
00000290: 90a1 26bd 7255 f2bd a9bc e3bd b30f 51be
000002a0: c885 33be 63cf babd 761d e53d c83f 213d
000002b0: 8876 ef3b 9daa 93bd 35fa 63bc 5a71 51bd
000002c0: ef6a 003c 94f4 a13d 7e47 9c3d e4f0 02be
000002d0: 40e3 2dbe 02ff 24bd 21ef aa3d 4bd5 98bd
000002e0: cf8e d33d 4c67 b1be de28 47bc 98d3 e3bd
000002f0: 1579 9a3d 50da b3bd 4f40 0f3e 2091 c0bd
00000300: 22a0 fdbd ee1b b5bd b8cb 41be e866 c53d
00000310: 1449 973c 1a4f 12bc 210b 5e3d b204 53bd
00000320: 62e9 ec3c e953 053d 841c 4f3e 984a 52bb
00000330: 32a1 b6bc a95b 6ebd 39fa 5a3c 8f12 02bd
00000340: eac7 4ebc 9c04 99bc e1c7 ea3d 1a0f 5dbe
00000350: 1abe 92bd 3586 6fbe 3962 f8bb b735 80bc
00000360: 65db 543e 2982 4fbc fe11 2abd e30b 56bc
00000370: cbbb d63d 9262 14be 3caa d8bd 32d7 d7bc
00000380: 4219 ce3d 2fce db3c 5c93 c13b e5e7 b6bc
00000390: daf9 693c 3246 643c 2fe0 023d d49b cc3c
000003a0: 372c 44bd e810 bc3d 8bca bbbd 8fb5 6bbc
000003b0: d7f6 b0be a662 463c 50b9 1abe 44f7 f5bd
000003c0: eb5e cdbe c7d4 b03d f483 11bd 83cf ee3d
000003d0: 4f5f a13d 3e4f d53d bf13 a9be 7f18 cdbc
000003e0: f38d 66bc 903d cb38 5769 103e 08f2 e7bb
000003f0: e474 803d 6fca 70be 3137 d53c ba66 f33d

hidden_nets.0.bias f4 [256]
-0.07118717 0.050761133 -0.07275836 0.002362513 -0.026958434 -0.03881931 -0.08821371 -0.109820075
-0.13483489 -0.07237445 -0.095792934 0.011067945 -0.09645538 -0.13161 -0.016281674 -0.08898816
-0.07780639 -0.06884335 -0.120883964 0.080701 -0.14737484 -0.0027846133 0.08098012 -0.028361281
0.004324394 -0.031662684 -0.05709129 -0.08945117 0.014162334 -0.13530454 -0.035908293 -0.11901475
0.020854816 -0.0690623 -0.08169173 -0.047832515 0.056125224 -0.028518943 0.08130005 -0.098979995
-0.12007996 -0.008446224 -0.09715772 -0.031756163 -0.17714004 -0.13988551 -0.074311815 -0.0848048
-0.06918776 -0.05395277 -0.038180478 0.1020855 -0.0066772117 0.0 -0.113395795 -0.13933805
-0.026477862 -0.021616407 -0.06564752 -0.019095046 -0.011179073 -0.051603362 -0.009263338 -0.04287797
-0.15654609 -0.08647951 0.019239012 -0.10732736 -0.012836426 0.012189039 -0.093101256 0.087991476
-0.14429511 -0.1653634 -0.017729089 -0.11926977 -0.083070174 0.081474364 0.0 0.0
-0.048525892 -0.08536466 -0.033183888 0.06295667 -0.061313484 -0.012744902 -0.03477067 0.0
-0.065337956 -0.10778843 0.0 -0.112347156 0.017948868 -0.0120154265 -0.030382207 -0.08573179
-0.13509157 -0.10188243 -0.08720376 -0.070871554 0.0 -0.04497666 -0.12709382 0.038697973
-0.031305306 -0.0007446843 -0.030652136 -0.042058766 0.13369662 -0.04107936 0.021151377 -0.017306505
-0.07638649 -0.06651437 -0.06185496 0.019868374 0.031084372 0.0 -0.08064768 -0.10484401
-0.101875566 0.017826114 -0.1028655 0.02122938 -0.12399275 -0.042938236 0.07909567 0.09925751
-0.14260316 -0.007596361 -0.043333307 0.070853435 0.023366993 0.05299741 -0.023576522 -0.09187361
0.05005483 0.0 -0.039769784 -0.09376031 -0.07136656 -0.08455842 0.056646906 -0.072660685
0.0 -0.0818214 0.0 -0.0367363 -0.007512116 0.0015729823 -0.08992316 -0.10463293
0.03641313 -0.096211694 -0.13334064 -0.058302026 -0.11553261 -0.051072463 0.0133145405 0.0020957633
0.0021797067 -0.052494142 -0.01580119 -0.02250439 -0.13947174 -0.050601713 -0.01021345 -0.08445266
-0.11289404 0.0068507735 -0.023210544 -0.13082056 -0.047854457 0.10793964 -0.030417806 -0.124826185
-0.09486673 -0.03675075 -0.11504606 0.044242125 -0.10189666 0.05384113 -0.032332473 -0.07865138
-0.17656808 -0.122973636 -0.041180123 0.0 -0.07062511 -0.049142312 0.0017247826 -0.108363554
-0.011035991 -0.13226183 -0.104787834 0.044011958 -0.14103438 -0.13206387 -0.11134432 -0.00886626
-0.034032863 -0.007473012 -0.0019853532 0.03167707 0.0066876425 -0.060414627 -0.015388928 -0.13945824
0.04341286 -0.0028989424 -0.0906792 -0.13686804 -0.14027704 -0.13711603 -0.072612405 -0.008672071
-0.07854267 -0.062232427 -0.08372794 -0.11505448 -0.08006157 0.0063197995 -0.07069576 -0.03293209
-0.021580216 0.03516885 -0.009617228 -0.13042466 -0.14786161 0.004901902 -0.032732613 -0.1218872
-0.059394963 0.0 -0.019780112 -0.10794635 0.028747028 -0.026681367 -0.015844451 0.0
-0.10491473 0.026581211 -0.0014934136 -0.09101945 0.0 -0.09281091 -0.13856338 -0.08406862
-0.086958826 0.013114964 0.070465185 -0.10939068 -0.12004491 -0.021828646 -0.05882975 -0.1507282
00000000: 94ca 91bd e8ea 4f3d 5602 95bd 64d4 1a3b
00000010: efd7 dcbc ff00 1fbd 64a9 b4bd 59e9 e0bd
00000020: 2812 0abe 0e39 94bd 162f c4bd 5356 353c
00000030: 668a c5bd c6c4 06be 2561 85bc 6d3f b6bd
00000040: f558 9fbd befd 8cbd 0392 f7bd 9146 a53d
00000050: 6ee9 16be 0f7e 36bb e8d8 a53d eb55 e8bc
00000060: a5b3 8d3b bbb0 01bd 8ed8 69bd 2d32 b7bd
00000070: 2209 683c 468d 0abe 9314 13bd 01be f3bd
00000080: b8d7 aa3c 8970 8dbd fe4d a7bd 07ec 43bd
00000090: 90e3 653d 8fa0 e9bc a480 a63d 06b6 cabd
000000a0: 7bec f5bd 0862 0abc a0fa c6bd c012 02bd
000000b0: 3364 35be 263e 0fbe cb30 98bd 24ae adbd
000000c0: 50b2 8dbd 94fd 5cbd 2263 1cbd 3412 d13d
000000d0: 83cc dabb 0000 0000 0e3c e8bd a2ae 0ebe
000000e0: 1ae8 d8bc e414 b1bc 3572 86bd 376d 9cbc
000000f0: 6e28 37bc 0c5e 53bd 41c5 17bc cfa0 2fbd
00000100: 9e4d 20be 2b1c b1bd 229b 9d3c 72ce dbbd
00000110: df4f 52bc 89b4 473c dfab bebd e034 b43d
00000120: 19c2 13be 0655 29be 983c 91bc b643 f4bd
00000130: b220 aabd 08dc a63d 0000 0000 0000 0000
00000140: 16c3 46bd abd3 aebd d4eb 07bd 6def 803d
00000150: d923 7bbd fecf 50bc b16b 0ebd 0000 0000
00000160: e8cf 85bd 2ec0 dcbd 0000 0000 4416 e6bd
00000170: 8109 933c 5adc 44bc 1be4 f8bc 2694 afbd
00000180: 7255 0abe bca7 d0bd e397 b2bd 1b25 91bd
00000190: 0000 0000 7239 38bd e224 02be c481 1e3d
000001a0: fe39 00bd eb36 43ba 301a fbbc d045 2cbd
000001b0: c4e7 083e d542 28bd a745 ad3c 5fc6 8dbc
000001c0: 8570 9cbd b038 88bd a05b 7dbd 00c3 a23c
000001d0: a7a4 fe3c 0000 0000 9c2a a5bd 75b8 d6bd
000001e0: 23a4 d0bd 1208 923c 26ab d2bd 3de9 ad3c
000001f0: e9ef fdbd 01e0 2fbd e9fc a13d 8547 cb3d
00000200: 9006 12be e5ea f8bb 447e 31bd 9b1b 913d
00000210: 236c bf3c d013 593d 8d23 c1bc 3b28 bcbd
00000220: 4b06 4d3d 0000 0000 a4e5 22bd 6805 c0bd
00000230: a228 92bd f72c adbd 9606 683d 20cf 94bd
00000240: 0000 0000 fa91 a7bd 0000 0000 cd78 16bd
00000250: 3228 f6bb 872c ce3a a229 b8bd ca49 d6bd
00000260: ef25 153d a30a c5bd 738a 08be 1bce 6ebd
00000270: 5c9c ecbd 5c31 51bd 3b25 5a3c 1359 093b
00000280: 69d9 0e3b 1904 57bd 7f71 81bc 205b b8bc
00000290: aed1 0ebe be43 4fbd 5056 27bc 84f5 acbd
000002a0: fe34 e7bd 747c e03b 0a24 bebc d3f5 05be
000002b0: 0903 44bd 750f dd3d c32e f9bc dfa4 ffbd
000002c0: 7d49 c2bd f487 16bd 459d ebbd 3b37 353d
000002d0: 32af d0bd 8488 5c3d 0e6f 04bd fa13 a1bd
000002e0: 43ce 34be 9ad9 fbbd 7dac 28bd 0000 0000
000002f0: e6a3 90bd 7349 49bd 1a12 e23a b6ed ddbd
00000300: 4dd0 34bc a56f 07be 019b d6bd e245 343d
00000310: 516b 10be c03b 07be 7e08 e4bd ca43 11bc
00000320: 0b66 0bbd 2be0 f4bb b31c 02bb d1bf 013d
00000330: 0324 db3b 5475 77bd d821 7cbc 24ce 0ebe
00000340: afd1 313d 2ffc 3dbb 04b6 b9bd 2327 0cbe
00000350: c9a4 0fbe 2568 0cbe d0b5 94bd 4d15 0ebc
00000360: fbda a0bd 6ee7 7ebd 8e79 abbd afa1 ebbd
00000370: 52f7 a3bd 5216 cf3b f0c8 90bd cde3 06bd
00000380: fec8 b0bc 360d 103d 9491 1dbc 0b8e 05be
00000390: 0969 17be 22a0 a03b a212 06bd ff9f f9bd
000003a0: 2248 73bd 0000 0000 e709 a2bc fa12 ddbd
000003b0: e37e eb3c e292 dabc 39cc 81bc 0000 0000
000003c0: 89dd d6bd d7c0 d93c a5be c3ba 6868 babd
000003d0: 0000 0000 a513 bebd 8fe3 0dbe 2b2c acbd
000003e0: 7817 b2bd 25e0 563c 0d50 903d 3908 e0bd
000003f0: 1bda f5bd fdd1 b2bc 77f7 70bd 7e58 1abe

hidden_nets.1.weight f4 [128, 256]
0.1189499 -0.17343667 -0.010944521 0.033356294 -0.22689332 0.033911895 -0.036745504 -0.009840832
0.077927746 -0.13708079 0.13030854 -0.211942 -0.056655668 -0.06682849 0.06727579 -0.3068969
-0.19750497 -0.2144621 0.040098563 -0.00013690855 -0.1116001 0.011387816 0.037131853 -0.19938548
-0.026513757 -0.012624685 0.01981984 -0.062686004 -0.016923102 0.07359067 -0.10259976 0.0048796106
-0.5087554 0.08971662 0.016663425 -0.13866405 -0.3828727 0.051738277 -0.12548012 0.039594598
-0.10998732 0.04216191 -0.08699521 -0.38885075 0.18767692 -0.031577382 0.06826268 -0.056892123
-0.21596435 0.021255786 -0.21577168 -0.09735593 -0.10130189 -0.00996238 0.1229996 0.043589413
0.051553756 0.03815946 -0.14225769 0.04452163 -0.073438436 0.08693102 -0.12450678 -0.19752973
0.09563304 0.08386263 -0.07904707 -0.1961542 0.12145325 -0.4006826 -0.07486906 -0.083796166
0.17213643 -0.14062782 -0.0298221 -0.07556549 0.03628226 0.0088602835 -0.07644071 -0.02111806
-0.12674277 0.10631582 -0.008600991 -0.122222275 -0.29756984 0.028976645 -0.5945501 0.03357199
-0.07076452 0.016859012 -0.01923354 -0.1755954 -0.17694457 -0.21212335 -0.02881516 -0.2918388
-0.024314286 0.13557643 -0.017003255 -0.12598433 0.07949385 0.0004965106 0.15351412 -0.09221718
-0.0017372872 -0.33789635 -0.13260663 0.04332181 -0.0028494778 0.12125724 0.06315691 0.1370474
-0.024064079 0.22644077 0.11455408 -0.21939227 -0.05082027 0.015949786 -0.2629221 -0.030367324
0.08098476 0.060694724 0.034634337 -0.31201836 0.0884109 -0.43953797 0.09660293 -0.027765078
0.1795694 -0.04273146 -0.08575302 -0.54461104 -0.08952758 -0.20107049 -0.10105935 -0.07757614
-0.2671714 -0.018066138 0.12220759 -0.33215764 -0.019789467 0.15394878 -0.2969367 0.06782843
0.08032054 0.048924476 -0.043251336 -0.18819098 0.012103022 -0.15923099 -0.057657596 0.18033564
-0.13442431 -0.062144037 0.105228394 -0.22191323 0.07436597 0.07758023 0.012419673 -0.009141912
-0.27409256 0.03579963 -0.015606737 0.030619085 -0.00561593 -0.13626522 0.054822102 0.025430914
-0.05591624 0.034782663 0.007661052 0.06923947 -0.051112752 0.023279201 -0.058780614 -0.1659094
-0.03281321 0.007164805 -0.084567934 0.028910972 0.055980142 -0.40964025 -0.19827788 -0.24979046
-0.023327028 -0.11465885 -0.18780407 0.035379604 0.14817186 -0.046271704 -0.16750543 0.040913317
-0.10201843 -0.081388354 0.2578865 0.06408155 0.059915487 0.0027720898 -0.08196983 0.110429615
-0.1255396 -0.28606385 -0.025901923 -0.38472098 -0.039740752 -0.21371354 -0.23516189 0.14327335
-0.32823542 -0.0692046 -0.21574137 0.26894748 -0.16081838 0.017701363 -0.01597972 0.011130446
0.008161851 -0.11757618 -0.013061283 -0.019094676 0.11031534 -0.37141913 -0.0722578 -0.16644512
-0.034730643 -0.45364666 0.1014615 0.076741666 0.0053162887 -0.457692 -0.14925268 0.0031099822
-0.17684221 -0.052355796 0.12195815 0.083684675 0.018144816 -0.31309736 -0.04297383 0.024189547
-0.17702013 -0.1324508 -0.06203598 0.077995345 -0.009704322 -0.2079894 0.02397367 0.030080725
-0.0017083208 0.040379316 -0.14959994 0.015749257 -0.032329965 -0.029690856 -0.39561304 -0.022235958
00000000: 019c f33d 6299 31be a650 33bc 9ca0 083d
00000010: b956 68be 33e7 0a3d 7482 16bd 713b 21bc
00000020: 9598 9f3d e85e 0cbe 9a6f 053e 5307 59be
00000030: c60f 68bd 60dd 88bd e4c7 893d 9721 9dbe
00000040: be3e 4abe f49b 5bbe 643e 243d 1c8f 0fb9
00000050: 988e e4bd f693 3a3c 9217 183d b52b 4cbe
00000060: 6133 d9bc c4d7 4ebc 385d a23c 8561 80bd
00000070: 51a2 8abc b5b6 963d d31f d2bd 24e5 9f3b
00000080: cb3d 02bf 59bd b73d bc81 883c f3fd 0dbe
00000090: e407 c4be 84eb 533d dc7d 00be f22d 223d
000000a0: 0841 e1bd f8b1 2c3d 8b2a b2bd 7217 c7be
000000b0: 612e 403e 4957 01bd 4ecd 8b3d b707 69bd
000000c0: c225 5dbe 9d20 ae3c 40f3 5cbe 8c62 c7bd
000000d0: 5e77 cfbd 4039 23bc 37e7 fb3d d08a 323d
000000e0: 082a 533d 184d 1c3d 00ac 11be 505c 363d
000000f0: e466 96bd e408 b23d 69fd febd 3c45 4abe
00000100: 41db c33d 2cc0 ab3d 6ee3 a1bd a6dc 48be
00000110: 7bbc f83d 4526 cdbe f354 99bd 539d abbd
00000120: 8844 303e bd00 10be 7a4d f4bc 14c2 9abd
00000130: b59c 143d b92a 113c f28c 9cbd c8ff acbc
00000140: dbc8 01be 1cbc d93d 2ceb 0cbc ac4f fabd
00000150: 135b 98be 6e60 ed3c 6f34 18bf c882 093d
00000160: fdec 90bd e91b 8a3c a88f 9dbc 48cf 33be
00000170: f530 35be dd36 59be c50d ecbc e56b 95be
00000180: c12e c7bc 8cd4 0a3e 694a 8bbc 0902 01be
00000190: accd a23d 4328 023a ce32 1d3e 5cdc bcbd
000001a0: afb5 e3ba c000 adbe 08ca 07be 3672 313d
000001b0: 4ebe 3abb b755 f83d 6958 813d 2756 0c3e
000001c0: 0822 c5bc 17e0 673e 549b ea3d 5ea8 60be
000001d0: ea28 50bd 20a9 823c ba9d 86be e5c4 f8bc
000001e0: 56db a53d 089b 783d bcdc 0d3d dfc0 9fbe
000001f0: c610 b53d 1f0b e1be c2d7 c53d 9773 e3bc
00000200: 0ae1 373e 2f07 2fbd 489f afbd a16b 0bbf
00000210: 3c5a b7bd 6ce5 4dbe 34f8 cebd 3de0 9ebd
00000220: b1ca 88be 70ff 93bc f947 fa3d 9110 aabe
00000230: 851d a2bc c0a4 1d3e 1608 98be a2e9 8a3d
00000240: 187f a43d 0865 483d 5028 31bd 23b5 40be
00000250: c14b 463c 730d 23be 5f2a 6cbd e8a9 383e
00000260: 87a6 09be bf8a 7ebd fc81 d73d 393d 63be
00000270: 304d 983d 62e2 9e3d e27b 4b3c f5c7 15bc
00000280: dc55 8cbe a2a2 123d 66b3 7fbc e0d4 fa3c
00000290: d605 b8bb 1c89 0bbe 248d 603d 7e54 d03c
000002a0: 6d08 65bd 4478 0e3d 9009 fb3b 6ccd 8d3d
000002b0: 9b5b 51bd 06b4 be3c f1c3 70bd 27e4 29be
000002c0: 2567 06bd bec6 ea3b f431 adbd b4d6 ec3c
000002d0: 6f4b 653d 5ebc d1be 5b09 4bbe 12c9 7fbe
000002e0: 5318 bfbc 42d2 eabd b64f 40be 34ea 103d
000002f0: 5dba 173e 6687 3dbd 8b86 2bbe b994 273d
00000300: 0aef d0bd f0ae a6bd b309 843e 303d 833d
00000310: f169 753d f3ab 353b ccdf a7bd ec28 e23d
00000320: 748d 00be f676 92be 4530 d4bc 26fa c4be
00000330: 33c7 22bd b9d7 5abe 47ce 70be 40b6 123e
00000340: 790e a8be 24bb 8dbd 4eeb 5cbe 7cb3 893e
00000350: 93ad 24be 7302 913c e7e7 82bc 795c 363c
00000360: 49b9 053c c8cb f0bd fefe 55bc 706c 9cbc
00000370: 02ed e13d a62a bebe e6fb 93bd 9770 2abe
00000380: b841 0ebd 6044 e8be 0ccb cf3d bc2a 9d3d
00000390: 4334 ae3b 9b56 eabe b2d5 18be d8d0 4b3b
000003a0: 2016 35be 0873 56bd 32c5 f93d df62 ab3d
000003b0: 70a4 943c 4c4e a0be 5405 30bd 2829 c63c
000003c0: c444 35be 2fa1 07be 7119 7ebd 06bc 9f3d
000003d0: e0fe 1ebc 2cfb 54be 6e64 c43c da6b f63c
000003e0: bce9 dfba c864 253d ba30 19be 9604 813c
000003f0: 6d6c 04bd 3d3a f3bc cb8d cabe 2f28 b6bc

hidden_nets.1.bias f4 [128]
0.027432354 0.105681576 0.0563534 -0.12639457 0.13113661 0.09790769 0.10281047 0.13543822
0.09837425 0.18969338 -0.12837282 0.06614947 0.022736596 0.120320074 0.13833919 0.09845257
0.108996004 0.089262 0.1040772 0.043938242 0.10637081 0.10208746 -0.034422547 0.11952931
0.09593097 -0.086225435 -0.028111223 0.10880825 0.07058032 0.12406099 -0.06300772 -0.106792964
-0.03508417 0.11481947 -0.056568615 -0.072439454 0.10443193 -0.0074356114 0.08081105 0.09287167
0.13000034 0.08659467 0.10934311 0.024469716 0.12178917 0.17553213 0.11795467 0.07924225
0.11974449 0.11296523 0.02959939 0.12657262 -0.06527167 0.008747875 0.08358453 0.08258009
0.047247533 0.08683361 0.07327158 0.1236506 0.09770255 0.10638409 -0.07330216 -0.032250196
0.02237465 0.12009951 0.06106244 0.06834382 -0.12597235 0.008732102 0.014032623 0.10987419
0.111220315 -0.05790844 0.0672131 -0.050716404 0.09628931 0.14646828 -0.060096905 0.13337362
0.108703375 0.12672675 0.10907738 0.11023727 -0.066432446 -0.0857788 0.06885482 0.09690589
0.10628485 0.079431646 0.07357419 -0.07944765 0.13559444 0.11900171 0.084926 -0.044021413
0.08927064 0.0772059 0.10259905 0.101017945 0.09253375 0.030544562 0.033839513 0.13335438
0.0770884 0.08107386 0.15250163 0.14373916 -0.049232267 -0.10214042 0.111083604 0.06397548
-0.11326947 -0.07520991 0.052007627 -0.097645 0.056272786 -0.06377456 -0.10802143 0.11126895
0.042880107 0.10097601 0.04271798 0.07935277 0.12867835 0.08956418 0.12438916 0.11496601
00000000: d1b9 e03c 956f d83d d3d2 663d 946d 01be
00000010: ad48 063e d483 c83d 4c8e d23d 51b0 0a3e
00000020: 7078 c93d fb3e 423e 2a74 03be 6079 873d
00000030: 1942 ba3c 5f6a f63d caa8 0d3e 80a1 c93d
00000040: 4c39 df3d ffce b63d 6d26 d53d 96f8 333d
00000050: f0d8 d93d 3b13 d13d a8fe 0cbd c8cb f43d
00000060: 7577 c43d f696 b0bd 8249 e6bc dcd6 de3d
00000070: 6a8c 903d b013 fe3d 310a 81bd 45b6 dabd
00000080: 6bb4 0fbd 7826 eb3d 7eb4 67bd 235b 94bd
00000090: 68e0 d53d 6ea6 f3bb 4480 a53d 8133 be3d
000000a0: cf1e 053e 8c58 b13d 48ef df3d b774 c83c
000000b0: 9a6c f93d b2be 333e 3892 f13d c349 a23d
000000c0: 993c f53d 515a e73d 6c7a f23c 419c 013e
000000d0: 27ad 85bd 3f53 0f3c 5e2e ab3d c01f a93d
000000e0: a186 413d d2d5 b13d 690f 963d 873c fd3d
000000f0: 4618 c83d e7df d93d 711f 96bd c818 04bd
00000100: 0b4b b73c bbf6 f53d 9c1c 7a3d d8f7 8b3d
00000110: e5fe 00be 1711 0f3c 16e9 653c b805 e13d
00000120: 7ac7 e33d 6631 6dbd 06a7 893d 01bc 4fbd
00000130: 5433 c53d c8fb 153e 2c28 76bd 1893 083e
00000140: e09f de3d a8c4 013e f663 df3d 14c4 e13d
00000150: bc0d 88bd ccac afbd c203 8d3d 9876 c63d
00000160: dfab d93d 0fad a23d 11ae 963d 73b5 a2bd
00000170: 45d9 0a3e 2bb7 f33d afed ad3d cc4f 34bd
00000180: 86d3 b63d 201e 9e3d 731f d23d 7fe2 ce3d
00000190: 5682 bd3d 9738 fa3c 4d9b 0a3d 0d8e 083e
000001a0: 86e0 9d3d 0d0a a63d 6329 1c3e 5c30 133e
000001b0: c6a7 49bd ff2e d1bd cd7f e33d 9405 833d
000001c0: d3f9 e7bd a707 9abd f305 553d 1afa c7bd
000001d0: 4b7e 663d 3d9c 82bd 573a ddbd fae0 e33d
000001e0: 0da3 2f3d 83cc ce3d 0cf9 2e3d b483 a23d
000001f0: 42c4 033e 6d6d b73d bebf fe3d 4d73 eb3d

hidden_nets.2.weight f4 [64, 128]
-0.13610335 -0.15113752 -0.2856501 0.1461516 -0.011095714 -0.19280468 0.112986036 0.031707894
-0.049314592 0.04380323 -0.24204846 -0.01958452 0.13630587 -0.06740566 0.16581012 -0.1607165
-0.1921356 -0.1026468 -0.04625107 -0.26356438 -0.048080456 -0.03410365 0.052688397 -0.17147924
-0.08946417 0.021976965 -0.030072644 0.110905275 0.14997044 -0.23339878 -0.039240733 0.21005327
-0.0010346646 -0.0738123 -0.034540027 0.112917796 0.07588854 -0.100354895 -0.21547374 -0.032970406
-0.07334763 -0.3731449 0.028398514 -0.11447646 0.1189966 -0.2647085 -0.13652913 -0.3186341
-0.19919431 -0.092757404 -0.02588075 -0.06214342 -0.101272106 0.10658685 0.10529785 0.12864707
-0.119916484 -0.07971608 -0.06367809 -0.20906852 -0.097611636 -0.17422016 -0.008357821 0.13692343
-0.04020055 0.0019677295 -0.15392429 -0.21365349 -0.1291698 -0.012283846 0.02412448 -0.1185353
0.015233429 -0.056805104 -0.32429045 0.0948609 -0.056824684 0.10549504 -0.016349005 0.02845091
-0.17548704 -0.066292316 0.11076634 -0.31947577 0.18405335 0.032119967 -0.15023522 -0.06183065
-0.1493721 -0.09600786 -0.24192649 -0.06679436 0.18961199 0.073512055 -0.0163586 0.0033756923
-0.20804064 -0.10336142 0.095892236 -0.011148426 0.028329762 -0.18399636 -0.2932015 0.18431509
-0.06451353 -0.0765748 -0.15595783 0.061062258 0.13079281 0.0430745 -0.19920927 0.10504259
0.047313415 -0.16551821 -0.1565678 -0.06846329 -0.23156115 0.27210173 0.17947438 0.12169327
-0.05594213 -0.048975628 -0.36240798 -0.06271729 -0.09008048 -0.026006468 0.048126888 0.15044741
-0.05800869 -0.16046087 -0.059824575 0.13626817 0.010091835 0.050024234 0.19455265 0.05761754
-0.014586264 0.231404 -0.3342199 -0.039017603 -0.040784452 -0.15822251 0.14068653 -0.20811597
-0.1741409 -0.04749893 0.08764205 -0.20969899 0.062614635 0.14042121 0.11005214 -0.1400103
0.024934888 -0.24194407 -0.012693911 0.038358614 -0.1199013 -0.0045883153 -0.07139151 -0.05011298
-0.020011825 -0.000993785 0.104883224 -0.12490088 -0.0558303 -0.21474686 -0.17461036 0.18051012
0.014131817 -0.11537905 0.08202076 0.055632725 -0.015486569 -0.15451698 -0.09744176 -0.10469799
-0.1836409 -0.031341907 -0.21402605 0.018238468 -0.05165341 -0.013284029 -0.1332275 -0.11418375
-0.07813186 -0.22498299 -0.03698561 0.021803183 -0.25318512 -0.121976264 0.11941495 0.0831712
0.061800234 -0.16318394 -0.106355876 -0.18074402 -0.049811624 0.048264198 -0.010290207 0.04648906
-0.09111942 0.039653305 -0.065215394 0.13077372 0.05563654 0.02228261 0.05445415 0.13538682
0.044393495 -0.2405715 -0.015575031 -0.24912497 -0.05228911 0.02351356 -0.15788658 -0.120291084
-0.056278154 -0.18715544 0.013240375 -0.0033195335 -0.03276089 -0.060639594 -0.03087955 -0.06091251
-0.0986857 -0.010935092 0.039408963 0.050117787 0.19828206 -0.038593482 -0.1269045 -0.042572442
0.07001228 -0.25328365 0.061211918 -0.10105836 0.108353205 -0.055715412 -0.043633886 -0.029203337
0.23801127 0.0803357 0.07206406 -0.005235032 -0.12611559 0.15893315 0.11137532 -0.14749542
-0.043304857 0.08709018 -0.35885146 -0.019294992 0.0903815 -0.23006085 -0.16171092 -0.18501757
00000000: ad5e 0bbe cbc3 1abe bb40 92be c4a8 153e
00000010: ccca 35bc 976e 45be 3965 e73d 23e0 013d
00000020: 19fe 49bd 046b 333d 8ddb 77be b76f a0bc
00000030: c493 0b3e fb0b 8abd 21ca 293e de92 24be
00000040: 32bf 44be 7c38 d2bd c371 3dbd e9f1 86be
00000050: 03f0 44bd 45b0 0bbd cacf 573d 4198 2fbe
00000060: fe38 b7bd 0909 b43c e85a f6bc 4e22 e33d
00000070: da91 193e 1700 6fbe e4ba 20bd 3418 573e
00000080: 959d 87ba e72a 97bd d879 0dbd 7241 e73d
00000090: 736b 9b3d de86 cdbd 26a5 5cbe fa0b 07bd
000000a0: 4837 96bd d90c bfbe 00a4 e83c a272 eabd
000000b0: 7db4 f33d df87 87be 4bce 0bbe 0224 a3be
000000c0: 98f9 4bbe 98f7 bdbd de03 d4bc 198a 7ebd
000000d0: c067 cfbd 354a da3d 66a6 d73d 0fbc 033e
000000e0: c696 f5bd 2f42 a3bd a969 82bd 0f16 56be
000000f0: 9ce8 c7bd c566 32be 3eef 08bc a835 0c3e
00000100: 55a9 24bd 06f5 003b 549e 1dbe fbc7 5abe
00000110: 1745 04be 2f42 49bc b4a0 c53c a3c2 f2bd
00000120: a295 793c 78ac 68bd 6609 a6be 6e46 c23d
00000130: 00c1 68bd c90d d83d 59ee 85bc e211 e93c
00000140: e0b2 33be 44c4 87bd 76d9 e23d 5492 a3be
00000150: 7b78 3c3e 3a90 033d 43d7 19be 2342 7dbd
00000160: 00f5 18be c59f c4bd 94bb 77be 7bcb 88bd
00000170: a529 423e 7d8d 963d 7902 86bc b83a 5d3b
00000180: 9b08 55be 27af d3bd 2663 c43d e3a7 36bc
00000190: d113 e83c 8b69 3cbe 821e 96be 18bd 3c3e
000001a0: ab1f 84bd 40d3 9cbd 69b3 1fbe 6b1c 7a3d
000001b0: 8dee 053e e36e 303d 84fd 4bbe 9220 d73d
000001c0: b6cb 413d 9b7d 29be 4f53 20be 7b36 8cbd
000001d0: 5e1e 6dbe eb50 8b3e 22c8 373e 523a f93d
000001e0: 9323 65bd ab9a 48bd 8a8d b9be ec71 80bd
000001f0: 1d7c b8bd 840b d5bc b320 453d e30e 1a3e
00000200: 859a 6dbd db4f 24be 9d0a 75bd e289 0b3e
00000210: 3958 253c 36e6 4c3d cf38 473e 5f00 6c3d
00000220: 3afb 6ebc 2cf5 6c3e df1e abbe ecd0 1fbd
00000230: 990d 27bd 1505 22be 2110 103e 5a1c 55be
00000240: fe51 32be 3d8e 42bd ad7d b33d 55bb 56be
00000250: 1a3c 803d 94ca 0f3e 0463 e13d dc5e 0fbe
00000260: 4044 cc3c 30c0 77be 1ffa 4fbc ec1d 1d3d
00000270: d08e f5bd 9459 96bb b635 92bd 4543 4dbd
00000280: d7ef a3bc e441 82ba 04cd d63d 08cc ffbd
00000290: 50ae 64bd 9ae6 5bbe 0fcd 32be a5d7 383e
000002a0: 2389 673c da4b ecbd 80fa a73d 24df 633d
000002b0: 61bb 7dbc b339 1ebe 8c8f c7bd e66b d6bd
000002c0: 5c0c 3cbe 5f60 00bd a529 5bbe d768 953c
000002d0: 8792 53bd 42a5 59bc ca6c 08be 2bd9 e9bd
000002e0: 9903 a0bd f161 66be 397e 17bd 979c b23c
000002f0: 7ba1 81be b1ce f9bd d38f f43d a955 aa3d
00000300: 3e22 7d3d b119 27be 1cd1 d9bd f614 39be
00000310: 4607 4cbd aeb0 453d 4298 28bc 506b 3e3d
00000320: d29c babd 816b 223d a68f 85bd 8ce9 053e
00000330: 24e3 633d 058a b63c 510b 5f3d d8a2 0a3e
00000340: f4d5 353d 6058 76be 6a2e 7fbc 9e1a 7fbe
00000350: 1b2d 56bd 829f c03c 05ad 21be 2c5b f6bd
00000360: ec83 66bd ada5 3fbe 28ee 583c 888c 59bb
00000370: 4830 06bd 3961 78bd 1cf7 fcbc 657f 79bd
00000380: ba1b cabd 1a29 33bc 4b6b 213d 4f48 4d3d
00000390: 740a 4b3e 3314 1ebd 41f3 01be 7160 2ebd
000003a0: 9962 8f3d 65ae 81be 59b9 7a3d aff7 cebd
000003b0: 49e8 dd3d d835 64bd 72b9 32bd d63b efbc
000003c0: 3ab9 733e 0b87 a43d 5296 933d a28a abbb
000003d0: 7224 01be 5fbf 223e be18 e43d 0a09 17be
000003e0: 6f60 31bd 565c b23d 61bb b7be 8810 9ebc
000003f0: f019 b93d 1295 6bbe 8c97 25be 3f75 3dbe

hidden_nets.2.bias f4 [64]
-0.044556376 -0.014742216 0.82215106 0.9869923 1.0077374 -0.08662768 0.038540803 0.9767797
1.0057149 0.8340218 -0.074349456 1.0235304 -0.07124844 0.96804434 1.0294522 -0.063027725
-0.060239796 1.0085365 1.0003815 0.9851189 0.9478133 0.3681587 1.0322503 1.0067343
-0.10398911 -0.08031044 0.60692155 0.99831057 0.9966642 0.5413114 0.9851278 0.9876347
1.0243795 0.99743354 -0.05283399 1.0171472 0.70421875 1.0931104 0.98461753 0.93135345
0.9955039 -0.06079723 -0.07864295 -0.065286085 1.0941846 0.36150655 -0.10024154 0.1523857
0.63983494 0.9945907 0.89165336 -0.03991659 -0.02016595 -0.07891249 1.0126343 1.0672044
1.0041461 1.008503 0.9882092 1.0818214 -0.03881471 -0.049981304 1.0269822 0.9836884
00000000: bf80 36bd 5689 71bc 7e78 523f 87ab 7c3f
00000010: 8afd 803f da69 b1bd f6dc 1d3d 3c0e 7a3f
00000020: 44bb 803f 7482 553f 8744 98bd 0b03 833f
00000030: b4ea 91bd c1d1 773f 17c5 833f ae14 81bd
00000040: 01be 76bd b917 813f 800c 803f c130 7c3f
00000050: e4a3 723f 4c7f bc3e c720 843f abdc 803f
00000060: 3ef8 d4bd cd79 a4bd 365f 1b3f 4891 7f3f
00000070: 6325 7f3f 6293 0a3f 5631 7c3f a1d5 7c3f
00000080: de1e 833f ce57 7f3f 7468 58bd e131 823f
00000090: ae47 343f 0beb 8b3f e50f 7c3f 2e6d 6e3f
000000a0: 58d9 7e3f 8406 79bd 8e0f a1bd b6b4 85bd
000000b0: 3e0e 8c3f 6317 b93e 704b cdbd ff0a 1c3e
000000c0: 39cc 233f 7f9d 7e3f 6543 643f 947f 23bd
000000d0: 1033 a5bc df9c a1bd 009e 813f 279a 883f
000000e0: dc87 803f a016 813f 47fb 7c3f 2079 8a3f
000000f0: 2cfc 1ebd 32b9 4cbd 2774 833f 01d3 7b3f

value_stream.weight f4 [1, 64]
-0.14020249 -0.11101499 0.60948193 0.6750153 0.756732 -0.27608544 0.069503985 0.7758517
0.7156848 0.71401036 -0.10322268 0.5755288 -0.15154031 0.71318376 0.77260095 -0.30844748
-0.22320789 0.7823334 0.71879387 0.7924841 0.5913323 0.6740326 0.650999 0.7358118
-0.22107263 -0.21212271 0.5459045 0.65129375 0.80616885 0.5875832 0.55469656 0.71755975
0.6514931 0.6221742 -0.21102418 0.68206435 0.59634477 0.5328906 0.5538911 0.50013185
0.7879972 -0.22846943 -0.26117653 -0.23061873 0.62678504 0.5782249 -0.09947635 0.41003415
0.4850972 0.7310861 0.47584528 -0.25545618 -0.13263676 -0.30775538 0.83586854 0.5104514
0.60859865 0.7762189 0.7550405 0.5353028 -0.18119912 -0.03390234 0.61137944 0.7633941
00000000: 3e91 0fbe d45b e3bd 0207 1c3f cdcd 2c3f
00000010: 30b9 413f 125b 8dbe 1b58 8e3d 389e 463f
00000020: 1e37 373f 62c9 363f 6a66 d3bd db55 133f
00000030: 622d 1bbe 3693 363f 2dc9 453f d4ec 9dbe
00000040: 9c90 64be 0047 483f e002 383f 3de0 4a3f
00000050: 8e61 173f 678d 2c3f dfa7 263f 2a5e 3c3f
00000060: dd60 62be b236 59be 66c0 0b3f 30bb 263f
00000070: 1561 4e3f da6b 163f 9800 0e3f ffb1 373f
00000080: 40c8 263f cf46 1f3f b916 58be c59b 2e3f
00000090: 0daa 183f 856b 083f cfcb 0d3f a408 003f
000000a0: 2fba 493f e4f3 69be eeb8 85be 5127 6cbe
000000b0: fc74 203f 8c06 143f 42ba cbbd ffef d13e
000000c0: a95e f83e 7528 3b3f fea1 f33e 27cb 82be
000000d0: eed1 07be 1d92 9dbe 7bfb 553f f1ac 023f
000000e0: 1fcd 1b3f 48b6 463f 564a 413f 9b09 093f
000000f0: 438c 39be 2edd 0abd 5d83 1c3f cc6d 433f

advantage_stream.weight f4 [5, 64]
0.19269589 0.10509229 0.007337071 -0.03142249 -0.013281231 -0.16270347 -0.059100676 0.07435772
-0.05578551 -0.004950604 -0.09573109 0.013224465 0.24727203 0.03818045 -0.072519906 -0.104500234
-0.064173415 -0.104829535 -0.09863433 -0.08819121 -0.08683111 -0.13506314 0.065550424 -0.038606707
0.18061845 -0.13535286 -0.1790958 -0.037268776 -0.010825917 -0.16299169 -0.099487506 -0.17633241
0.023513112 -0.0077469493 -0.13255067 -0.10371413 -0.089878604 0.16503194 -0.026769098 0.1574531
0.030254139 -0.071220815 0.028802097 0.16731875 0.1420171 -0.10636801 -0.019258374 -0.010853695
-0.028028075 0.017086726 0.12581721 0.14300832 -0.3198177 -0.029528996 0.09024586 0.10485311
0.0726688 -0.00066540134 0.17308787 0.12397177 -0.20030618 0.11015492 0.06692754 0.06526522
0.14047666 -0.13295107 0.012888656 -0.056361996 -0.06457512 0.10703567 -0.25139308 0.10683548
-0.05466394 0.011251017 -0.11807601 0.007756271 0.1783239 0.028532237 -0.09350262 -0.10016514
-0.056758575 -0.12107796 -0.09336143 -0.08605697 -0.11588433 -0.061515205 0.019387528 -0.090557605
0.0545662 -0.2410696 -0.13438697 -0.038391482 -0.058861323 -0.08020862 -0.09103123 -0.15622833
0.012811178 -0.0025642305 -0.17167012 -0.09601202 -0.094316736 0.121379435 -0.02303256 0.14064692
0.016655892 -0.009439395 0.067155555 -0.16179438 0.15728357 -0.101644464 0.022996811 -0.19335648
-0.037007615 -0.005396586 0.122653514 0.3425853 0.040742736 0.10018311 0.09333937 0.11688447
0.057986848 -0.05207348 0.15738514 0.10180088 0.27103442 -0.119692735 0.07004199 0.05310162
-0.17507194 0.14260957 0.019439802 -0.02785173 -0.026359502 -0.11659386 0.32883218 0.07672805
-0.091703005 0.010145867 -0.2878945 0.0071178204 0.13561639 0.023464141 -0.08509935 0.010660261
0.08138495 -0.10482293 -0.11036121 -0.10465686 -0.05788393 -0.11269065 0.070510425 -0.024586916
-0.20291522 -0.21012247 -0.12308594 -0.035935998 -0.029469421 -0.08963045 -0.11946006 -0.20148462
0.015126558 -0.01775386 -0.27392134 -0.0543064 -0.08866588 0.13534953 -0.036057893 0.15968496
0.014599403 0.035298698 -0.055127088 0.039895527 0.15615144 0.039061435 -0.30700344 -0.22387575
-0.063231595 -0.0105481455 0.0861261 -0.053967685 0.4197049 0.27174187 0.134167 0.10578356
0.06467721 -0.029306594 0.19824073 0.096679986 -0.25790346 0.16410683 0.058128893 0.023939371
-0.13800135 -0.057981424 -0.00793827 -0.014782647 -0.039323926 -0.07175323 -0.19521675 0.08162349
-0.061942097 0.007583912 -0.20975614 0.016997723 0.27896217 0.040597606 -0.07753682 0.28579694
0.11503723 -0.10619233 -0.11225868 -0.124095276 -0.10613077 0.037678506 0.029737579 -0.056384496
0.06381371 -0.116232954 -0.117933884 -0.050860338 -0.06005712 -0.14522283 -0.10129959 -0.19264694
-0.007970984 -0.04724489 0.10955761 -0.11184198 -0.10402579 0.12736244 -0.064606026 0.13252558
-0.01799325 0.25236195 0.07967294 0.10602298 0.11624895 -0.07825201 -0.10874564 0.16315769
-0.005174858 -0.014870288 0.109662354 -0.27205652 -0.3421715 0.29444116 0.108385794 0.09873347
0.03620141 -0.061029043 0.15169032 0.08571233 -0.2120326 -0.276542 0.04919834 0.03921246
00000000: 1252 453e a03a d73d d06b f03b deb4 00bd
00000010: 8599 59bc bd9b 26be 8d13 72bd dc48 983d
00000020: 597f 64bd ad38 a2bb a90e c4bd 6dab 583c
00000030: e134 7d3e 1b63 1c3d 5185 94bd 3804 d6bd
00000040: 5a6d 83bd deb0 d6bd cc00 cabd 989d b4bd
00000050: 82d4 b1bd fe4d 0abe 4d3f 863d 1122 1ebd
00000060: 0bf4 383e f199 0abe e464 37be 25a7 18bd
00000070: 305f 31bc 4be7 26be 1bc0 cbbd 7c90 34be
00000080: 929e c03c 1fda fdbb 5dbb 07be 1368 d4bd
00000090: 4612 b8bd 22fe 283e de4a dbbc 633b 213e
000000a0: 87d7 f73c 38dc 91bd 60f2 eb3c 9b55 2b3e
000000b0: ee6c 113e 79d7 d9bd bdc3 9dbc b2d3 31bc
000000c0: 229b e5bc 76f9 8b3c 3ad6 003e c670 123e
000000d0: 25bf a3be cbe6 f1bc d2d2 b83d 3abd d63d
000000e0: 61d3 943d 546e 2eba f23d 313e e9e4 fd3d
000000f0: 101d 4dbe e798 e13d 4e11 893d c6a9 853d
00000100: 1dd9 0f3e 5324 08be f12a 533c d6db 66bd
00000110: f63f 84bd 8435 db3d 98b6 80be 8fcc da3d
00000120: 4ce7 5fbd 3056 383c d6d1 f1bd 5128 fe3b
00000130: 8a9a 363e 70bc e93c 4d7e bfbd 6223 cdbd
00000140: ae7b 68bd b9f7 f7bd 4734 bfbd a33e b0bd
00000150: c354 edbd 5ef7 7bbd 98d2 9e3c 4476 b9bd
00000160: cf80 5f3d f3da 76be bd9c 09be 6340 1dbd
00000170: 9218 71bd 6b44 a4bd 956e babd 52fa 1fbe
00000180: fae5 513c a60c 28bb 4bca 2fbe f3a1 c4bd
00000190: 2229 c1bd c895 f83d c7ae bcbc bf05 103e
000001a0: f071 883c b1a7 1abc da88 893d 6dad 25be
000001b0: f20e 213e f92a d0bd cf63 bc3c 3eff 45be
000001c0: 4c95 17bd d8d5 b0bb c431 fb3d 5767 af3e
000001d0: dbe1 263d cd2c cd3d b628 bf3d 2061 ef3d
000001e0: 9e83 6d3d 004b 55bd 9229 213e fb7c d03d
000001f0: 06c5 8a3e 7721 f5bd 2d72 8f3d 1681 593d
00000200: 0f46 33be 3e08 123e 3840 9f3c 5029 e4bc
00000210: e2ef d7bc c3c8 eebd b15c a83e 9923 9d3d
00000220: c9ce bbbd da3a 263c e866 93be 9b3c e93b
00000230: 06df 0a3e df37 c03c 9148 aebd 60a8 2e3c
00000240: 27ad a63d 68ad d6bd 0f05 e2bd 5656 d6bd
00000250: b317 6dbd 5bca e6bd c567 903d 806a c9bc
00000260: 02c9 4fbe 582a 57be 7b14 fcbd a031 13bd
00000270: db69 f1bc 2b90 b7bd 7aa7 f4bd fc51 4ebe
00000280: 62d5 773c 8b70 91bc 6b3f 8cbe 6370 5ebd
00000290: 7596 b5bd 1199 0a3e 71b1 13bd 7484 233e
000002a0: 5632 6f3c 5e95 103d f1cc 61bd 7e69 233d
000002b0: 2ae6 1f3e e2fe 1f3d 8e2f 9dbe af3f 65be
000002c0: 917f 81bd 21d2 2cbc e162 b03d 380d 5dbd
000002d0: 90e3 d63e c021 8b3e 1363 093e 0da5 d83d
000002e0: 7c75 843d 6214 f0bc 9eff 4a3e 2800 c63d
000002f0: ec0b 84be 9f0b 283e 9018 6e3d 801c c43c
00000300: 3a50 0dbe ee7d 6dbd 850f 02bc ea32 72bc
00000310: 2012 21bd 5cf3 92bd e6e6 47be 372a a73d
00000320: ffb6 7dbd 7782 f83b 50ca 56be cf3e 8b3c
00000330: 21d4 8e3e ad49 263d a0cb 9ebd fa53 923e
00000340: a498 eb3d 5d7b d9bd e1e7 e5bd aa25 febd
00000350: 175b d9bd c754 1a3d 399c f33c 6ef3 66bd
00000360: c3b0 823d 8b0b eebd 5287 f1bd ee52 50bd
00000370: 74fe 75bd 4bb5 14be 2976 cfbd 3d45 45be
00000380: bb98 02bc dc83 41bd bd5f e03d 680d e5bd
00000390: 790b d5bd 4d6b 023e 2a50 84bd c9b4 073e
000003a0: 9566 93bc 9635 813e 912b a33d 9322 d93d
000003b0: ee13 ee3d 9742 a0bd 09b6 debd cf12 273e
000003c0: db91 a9bb 82a2 73bc a896 e03d fe4a 8bbe
000003d0: 1a31 afbe fec0 963e 5ff9 dd3d c634 ca3d
000003e0: ee47 143d 97f9 79bd b554 1b3e f289 af3d
000003f0: 131f 59be ea96 8dbe 3384 493d 3f9d 203d

advantage_stream.bias f4 [5]
-0.21598485 0.18472679 -0.17133456 0.36164394 -0.27911273
00000000: 222b 5dbe 0529 3d3e 5472 2fbe 6529 b93e
00000010: dde7 8ebe

hidden_nets.0.weight f4 [256, 11]
0.03725774 0.10203752 0.038660374 -0.042284936 0.15951854 0.0066356664 -0.026094794 -0.21680778
0.084535114 -0.0361764 0.020788644 -0.13404226 0.056729883 -0.08396781 -0.2658869 -0.2120058
-0.100817345 0.02177803 0.16946855 0.097547784 -0.11593058 -0.14506577 -0.20348133 -0.15520379
-0.010431983 0.09516369 -0.0840427 -0.10974834 0.0723356 -0.04644012 0.14796054 0.12093413
0.1217413 0.07502187 -0.044522554 0.19721848 0.020023974 -0.22843249 0.010616256 -0.043546632
0.028263105 -0.029385123 -0.06360228 0.04914427 -0.174221 0.005288387 0.09163632 -0.33431137
-0.081880115 0.043404475 0.020545492 -0.101912834 -0.07179371 -0.13255653 0.093412526 -0.20722467
-0.035064112 0.056445505 -0.22097333 0.0144038955 -0.017968332 0.065181226 -0.15705705 0.00553818
0.109704375 0.10344606 -0.023150057 -0.07098219 0.15858552 -0.0528267 -0.0071090567 -0.051942926
0.049096085 -0.09918475 0.08212399 -0.17855412 0.04847859 0.18958858 -0.17875694 0.10911924
-0.016251614 0.12477789 -0.03504123 0.025131553 -0.047583684 -0.08856621 -0.051757243 -0.014683585
0.1023203 0.0012551189 -0.10779981 -0.064583845 0.0015537079 0.09526799 -0.030694928 -0.17466493
-0.03238187 0.023991292 -0.06749819 -0.080195725 -0.022259548 -0.145905 0.11067735 -0.092351265
-0.12655647 -0.062544495 0.030946545 -0.10727383 -0.15116496 0.06297115 0.13747457 -0.06878919
0.034778178 -0.010463588 0.067038506 -0.027083749 -0.013008184 -0.22013113 0.14464016 0.009891813
-0.080653235 0.13674131 -0.07088029 -0.05458133 -0.3355462 -0.19042379 -0.10809468 -0.09464511
0.003690028 0.102278106 0.0067257313 0.11765328 -0.024007278 -0.13193962 -0.048450373 -0.13686001
0.08729925 -0.0800728 0.013032962 0.0515592 -0.07523457 -0.053129606 -0.012789258 0.0853515
-0.18816447 -0.14492457 -0.16501716 -0.03477313 0.107338466 -0.037322972 -0.02705089 0.13005312
0.08827229 -0.13843606 -0.060023703 -0.010753777 0.18210879 -0.30486852 -0.108438425 -0.17816298
-0.12735255 -0.08681627 -0.05230798 -0.0023137648 -0.04232949 -0.11832704 -0.111199684 -0.20416145
-0.17531502 -0.09121587 0.1118726 0.039367467 0.007307831 -0.07210276 -0.0139146345 -0.05113349
0.007837995 0.07907978 0.076308236 -0.12787205 -0.1698122 -0.040282257 0.083463915 -0.074625574
0.10329973 -0.34649122 -0.01215574 -0.11124343 0.07542626 -0.08781874 0.13989376 -0.094026804
-0.123840585 -0.08843218 -0.18925369 0.096387684 0.018467464 -0.008929992 0.05240232 -0.054252442
0.026892398 0.031102508 0.19701271 -0.006622308 -0.02590263 -0.061445482 0.013365322 -0.033339486
-0.011432456 -0.018481301 0.11353691 -0.21647193 -0.07281402 -0.23594674 -0.0064517423 -0.016030379
0.20648453 -0.01266531 -0.04318473 -0.008183078 0.104850374 -0.14490727 -0.10579345 -0.02634773
0.10063411 0.026831714 0.005907459 -0.022327373 0.014280761 0.0139327515 0.03195208 0.024976648
-0.04789373 0.09182912 -0.091694914 -0.014386549 -0.34563324 0.012108481 -0.15109754 -0.12010053
-0.4011148 0.08634334 -0.029781496 0.12060686 0.08228042 0.10473032 -0.32950187 -0.023120742
-0.016390538 0.004579933 0.14102684 -0.0023117643 0.05103947 -0.23514722 0.026027294 0.11884828
00000000: 929b 183d 0cf9 d03d 575a 1e3d f832 2dbd
00000010: d458 233e 0170 d93b c0c4 d5bc dc02 5ebe
00000020: bf20 ad3d b42d 14bd f24c aa3c 6042 09be
00000030: 985d 683d 51f7 abbd 5422 88be 0c18 59be
00000040: 5379 cebd d767 b23c 2a89 2d3e 22c7 c73d
00000050: 036d edbd 1f8c 14be 695d 50be beed 1ebe
00000060: e8ea 2abc 2ee5 c23d 941e acbd bdc3 e0bd
00000070: b024 943d ff37 3ebd f882 173e 50ac f73d
00000080: 8153 f93d 11a5 993d 485d 36bd a4f3 493e
00000090: 5109 a43c 35ea 69be ceef 2d3c f45d 32bd
000000a0: 0788 e73c 12b9 f0bc ea41 82bd 814b 493d
000000b0: fd66 32be 354a ad3b d3ab bb3d dc2a abbe
000000c0: c3b0 a7bd e4c8 313d 054f a83c adb7 d0bd
000000d0: 9508 93bd e6bc 07be 114f bf3d b432 54be
000000e0: 639f 0fbd 6733 673d d546 62be 51fe 6b3c
000000f0: 5332 93bc bc7d 853d 90d3 20be 9f79 b53b
00000100: b0ac e03d 87db d33d 30a5 bdbc 1c5f 91bd
00000110: 3e64 223e cf60 58bd 17f3 e8bb 1bc2 54bd
00000120: fa18 493d 6021 cbbd 9f30 a83d e4d6 36be
00000130: 7c91 463d 8223 423e 0f0c 37be e879 df3d
00000140: 1b22 85bc 8d8b ff3d 6587 0fbd b0e0 cd3c
00000150: 1ce7 42bd 3362 b5bd 67ff 53bd 6b93 70bc
00000160: 4e8d d13d cd82 a43a 26c6 dcbd 8944 84bd
00000170: c9a5 cb3a dd1b c33d ee73 fbbc 5ddb 32be
00000180: daa2 04bd 6389 c43c 7e3c 8abd a83d a4bd
00000190: a859 b6bc 1f68 15be ceaa e23d a922 bdbd
000001a0: 0598 01be 5417 80bd 9c83 fd3c 62b2 dbbd
000001b0: fdca 1abe 05f7 803d 22c6 0c3e 59e1 8cbd
000001c0: 9073 0e3d 786f 2bbc 7c4b 893d bdde ddbc
000001d0: 4720 55bc 0e6a 61be 8d1c 143e 4511 223c
000001e0: 862d a5bd ea05 0c3e af29 91bd ac90 5fbd
000001f0: b6cc abbe 74fe 42be be60 ddbd 4cd5 c1bd
00000200: 66d4 713b 2f77 d13d 8663 dc3b 34f4 f03d
00000210: e9aa c4bc 2e1b 07be e673 46bd 0825 0cbe
00000220: f3c9 b23d 35fd a3bd 3488 553c bd2f 533d
00000230: 9514 9abd 6e9e 59bd 098a 51bc c4cc ae3d
00000240: 30ae 40be 1b67 14be 42fa 28be 456e 0ebd
00000250: 45d4 db3d f9df 18bd d499 ddbc a52c 053e
00000260: 1ac8 b43d 2fc2 0dbe 6adb 75bd 9c30 30bc
00000270: ba7a 3a3e ba17 9cbe f714 debd 5b70 36be
00000280: b568 02be bbcc b1bd e440 56bd 88a2 17bb
00000290: b061 2dbd 7255 f2bd a9bc e3bd b30f 51be
000002a0: c885 33be 63cf babd 761d e53d c83f 213d
000002b0: 8876 ef3b 9daa 93bd 35fa 63bc 5a71 51bd
000002c0: ef6a 003c 94f4 a13d 7e47 9c3d e4f0 02be
000002d0: 40e3 2dbe 02ff 24bd 21ef aa3d 4bd5 98bd
000002e0: cf8e d33d 4c67 b1be de28 47bc 98d3 e3bd
000002f0: 1579 9a3d 50da b3bd 4f40 0f3e 2091 c0bd
00000300: 22a0 fdbd ee1b b5bd b8cb 41be e866 c53d
00000310: 1449 973c 1a4f 12bc d1a3 563d cf37 5ebd
00000320: 724d dc3c b0ca fe3c b3bd 493e f2ff d8bb
00000330: c131 d4bc 42ae 7bbd 39fa 5a3c fc8e 08bd
00000340: 324f 3bbc 1966 97bc 0a86 e83d d1aa 5dbe
00000350: 841f 95bd 069c 71be 2369 d3bb 2452 83bc
00000360: ae70 533e 2982 4fbc 79e2 30bd 5112 06bc
00000370: cbbb d63d 9262 14be 3caa d8bd 32d7 d7bc
00000380: 4219 ce3d 2fce db3c 5c93 c13b e5e7 b6bc
00000390: daf9 693c 3246 643c 2fe0 023d d49b cc3c
000003a0: 372c 44bd e810 bc3d 8bca bbbd 8fb5 6bbc
000003b0: d7f6 b0be a662 463c 50b9 1abe 44f7 f5bd
000003c0: eb5e cdbe c7d4 b03d 53f8 f3bc bb00 f73d
000003d0: a382 a83d da7c d63d 78b4 a8be b667 bdbc
000003e0: 7345 86bc 4313 963b 5769 103e f880 17bb
000003f0: c30e 513d 6fca 70be 3137 d53c ba66 f33d

hidden_nets.0.bias f4 [256]
-0.07859756 0.048585955 -0.07275836 0.006400413 -0.026958434 -0.03881931 -0.08821371 -0.112414956
-0.13483489 -0.07237445 -0.095792934 0.0052056625 -0.09645538 -0.12778905 -0.013272633 -0.08898816
-0.07780639 -0.06884335 -0.124136575 0.07931739 -0.14737484 -0.0027846133 0.085463196 -0.028361281
-0.0015463749 -0.03333344 -0.057528563 -0.08945117 0.014162334 -0.12874399 -0.037862517 -0.11901475
0.021593748 -0.0690623 -0.08169173 -0.054039493 0.058212172 -0.028480126 0.08346546 -0.095706195
-0.12007996 -0.008446224 -0.09715772 -0.031756163 -0.17096588 -0.13988551 -0.074311815 -0.08725914
-0.06776901 -0.05395277 -0.038180478 0.09857842 -0.0066772117 0.0 -0.111428045 -0.14095938
-0.02719718 -0.021616407 -0.06564752 -0.019095046 -0.011179073 -0.051603362 -0.01172501 -0.0383005
-0.15654609 -0.087828234 0.017024778 -0.10732736 -0.01305213 0.010676084 -0.093101256 0.09320754
-0.14429511 -0.1653634 -0.017729089 -0.11926977 -0.083070174 0.079990916 0.0 0.0
-0.048525892 -0.08335883 -0.033183888 0.065505795 -0.059030786 -0.00974708 -0.033599034 0.0
-0.065337956 -0.10778843 0.0 -0.112347156 0.023879709 -0.0120154265 -0.030382207 -0.08573179
-0.13509157 -0.10188243 -0.08720376 -0.070871554 0.0 -0.04497666 -0.12709382 0.03631821
-0.031305306 -0.0037559909 -0.030652136 -0.042058766 0.13591246 -0.04107936 0.02145478 -0.017306505
-0.07638649 -0.06254087 -0.06185496 0.020471042 0.031184247 0.0 -0.08064768 -0.10484401
-0.101875566 0.018608438 -0.1028655 0.024660435 -0.12399275 -0.04171976 0.07907784 0.098588884
-0.13743281 -0.007596361 -0.043333307 0.067810185 0.01906985 0.051732644 -0.023576522 -0.09187361
0.050818395 0.0 -0.039769784 -0.09376031 -0.07136656 -0.08455842 0.057234745 -0.06897666
0.0 -0.0818214 0.0 -0.038810056 -0.007512116 -0.0010283346 -0.08992316 -0.10231334
0.033834405 -0.096211694 -0.13185208 -0.058302026 -0.12052423 -0.052120674 0.008011646 0.0020957633
-0.0032808182 -0.052494142 -0.01580119 -0.02250439 -0.13947174 -0.05264602 -0.01021345 -0.08445266
-0.11289404 0.0068507735 -0.023210544 -0.13082056 -0.05089979 0.10445563 -0.03151424 -0.124826185
-0.094307065 -0.03675075 -0.11504606 0.04227041 -0.10189666 0.050539892 -0.032332473 -0.07865138
-0.17656808 -0.122973636 -0.041180123 0.0 -0.07046967 -0.049142312 -0.0013512991 -0.108363554
-0.011035991 -0.13226183 -0.106796905 0.043192003 -0.13702297 -0.13206387 -0.11134432 -0.00886626
-0.034032863 -0.008014976 -0.007944131 0.028545247 0.011390812 -0.060414627 -0.012499945 -0.14150168
0.044354964 -0.003689237 -0.0906792 -0.14134768 -0.14027704 -0.13711603 -0.07652269 -0.008672071
-0.07854267 -0.062232427 -0.082132824 -0.11505448 -0.08006157 0.0018324229 -0.06844693 -0.033749525
-0.021580216 0.035863798 0.0021170026 -0.13042466 -0.14786161 0.005358017 -0.02942482 -0.1218872
-0.059394963 0.0 -0.019780112 -0.10794635 0.026025595 -0.026681367 -0.015844451 0.0
-0.10491473 0.029058551 -0.0014934136 -0.09101945 0.0 -0.09281091 -0.13856338 -0.08406862
-0.086958826 -0.0011890718 0.06790365 -0.10939068 -0.12004491 -0.021828646 -0.05882975 -0.1507282
00000000: c2f7 a0bd 1102 473d 5602 95bd 8eba d13b
00000010: efd7 dcbc ff00 1fbd 64a9 b4bd d039 e6bd
00000020: 2812 0abe 0e39 94bd 162f c4bd 4394 aa3b
00000030: 668a c5bd 22db 02be 7575 59bc 6d3f b6bd
00000040: f558 9fbd befd 8cbd 513b febd 2871 a23d
00000050: 6ee9 16be 0f7e 36bb 5407 af3d eb55 e8bc
00000060: bbaf caba a588 08bd 12a3 6bbd 2d32 b7bd
00000070: 2209 683c 77d5 03be ba15 1bbd 01be f3bd
00000080: 5fe5 b03c 8970 8dbd fe4d a7bd 8458 5dbd
00000090: e36f 6e3d 274f e9bc f0ef aa3d 9c01 c4bd
000000a0: 7bec f5bd 0862 0abc a0fa c6bd c012 02bd
000000b0: ae11 2fbe 263e 0fbe cb30 98bd ecb4 b2bd
000000c0: 7bca 8abd 94fd 5cbd 2263 1cbd 7ce3 c93d
000000d0: 83cc dabb 0000 0000 6334 e4bd a857 10be
000000e0: 9fcc debc e414 b1bc 3572 86bd 376d 9cbc
000000f0: 6e28 37bc 0c5e 53bd 421a 40bc fce0 1cbd
00000100: 9e4d 20be 4adf b3bd 8c77 8b3c 72ce dbbd
00000110: 9ad8 55bc beea 2e3c dfab bebd 98e3 be3d
00000120: 19c2 13be 0655 29be 983c 91bc b643 f4bd
00000130: b220 aabd 47d2 a33d 0000 0000 0000 0000
00000140: 16c3 46bd 09b8 aabd d4eb 07bd e727 863d
00000150: 44ca 71bd 37b2 1fbc 249f 09bd 0000 0000
00000160: e8cf 85bd 2ec0 dcbd 0000 0000 4416 e6bd
00000170: 619f c33c 5adc 44bc 1be4 f8bc 2694 afbd
00000180: 7255 0abe bca7 d0bd e397 b2bd 1b25 91bd
00000190: 0000 0000 7239 38bd e224 02be 67c2 143d
000001a0: fe39 00bd 1227 76bb 301a fbbc d045 2cbd
000001b0: a32c 0b3e d542 28bd efc1 af3c 5fc6 8dbc
000001c0: 8570 9cbd 6d15 80bd a05b 7dbd e3b2 a73c
000001d0: 1b76 ff3c 0000 0000 9c2a a5bd 75b8 d6bd
000001e0: 23a4 d0bd b970 983c 26ab d2bd ae04 ca3c
000001f0: e9ef fdbd 57e2 2abd 90f3 a13d f8e8 c93d
00000200: 30bb 0cbe e5ea f8bb 447e 31bd 11e0 8a3d
00000210: 6038 9c3c 9ce5 533d 8d23 c1bc 3b28 bcbd
00000220: f326 503d 0000 0000 a4e5 22bd 6805 c0bd
00000230: a228 92bd f72c adbd fb6e 6a3d a343 8dbd
00000240: 0000 0000 fa91 a7bd 0000 0000 4bf7 1ebd
00000250: 3228 f6bb 2fc9 86ba a229 b8bd a889 d1bd
00000260: f295 0a3d a30a c5bd 3b04 07be 1bce 6ebd
00000270: 68d5 f6bd 7d7c 55bd 4743 033c 1359 093b
00000280: ff02 57bb 1904 57bd 7f71 81bc 205b b8bc
00000290: aed1 0ebe 5aa3 57bd 5056 27bc 84f5 acbd
000002a0: fe34 e7bd 747c e03b 0a24 bebc d3f5 05be
000002b0: 4c7c 50bd d5ec d53d 1315 01bd dfa4 ffbd
000002c0: 1024 c1bd f487 16bd 459d ebbd bd23 2d3d
000002d0: 32af d0bd eb02 4f3d 0e6f 04bd fa13 a1bd
000002e0: 43ce 34be 9ad9 fbbd 7dac 28bd 0000 0000
000002f0: 6752 90bd 7349 49bd 131e b1ba b6ed ddbd
00000300: 4dd0 34bc a56f 07be 56b8 dabd 19ea 303d
00000310: c04f 0cbe c03b 07be 7e08 e4bd ca43 11bc
00000320: 0b66 0bbd 3f51 03bc 1a28 02bc b9d7 e93c
00000330: 87a0 3a3c 5475 77bd 92cc 4cbc d1e5 10be
00000340: 8dad 353d 20c7 71bb 04b6 b9bd 72bd 10be
00000350: c9a4 0fbe 2568 0cbe eeb7 9cbd 4d15 0ebc
00000360: fbda a0bd 6ee7 7ebd 4135 a8bd afa1 ebbd
00000370: 52f7 a3bd e92d f03a e72d 8cbd f13c 0abd
00000380: fec8 b0bc ebe5 123d 69bd 0a3b 0b8e 05be
00000390: 0969 17be 4e92 af3b 520c f1bc ff9f f9bd
000003a0: 2248 73bd 0000 0000 e709 a2bc fa12 ddbd
000003b0: a133 d53c e292 dabc 39cc 81bc 0000 0000
000003c0: 89dd d6bd 330c ee3c a5be c3ba 6868 babd
000003d0: 0000 0000 a513 bebd 8fe3 0dbe 2b2c acbd
000003e0: 7817 b2bd a1da 9bba 1211 8b3d 3908 e0bd
000003f0: 1bda f5bd fdd1 b2bc 77f7 70bd 7e58 1abe
