models/verify_tmp/dqn_racing_final.pth (torch, 452805 bytes, 36 tensors)

hidden_nets.0.weight f4 [128, 11]
0.13985951 0.031992417 -0.15199085 -0.08862185 0.04533324 0.11571355 0.038345788 -0.050951112
0.113771275 -0.06493478 -0.053677775 0.1662226 0.102451995 -0.12754549 -0.07643287 0.042927794
-0.029135067 -0.14923087 -0.25139233 -0.1758896 -0.092397325 -0.0046771127 -0.09752787 -0.13734992
-0.08941179 0.037010152 0.23473604 0.0056176437 0.02877647 0.09352931 -0.1334906 -0.008364532
-0.014487437 -0.07858905 -0.051788934 -0.018679075 -0.11339255 0.23852348 -0.15665773 0.09132036
-0.016347498 0.069605 0.20711902 0.024405036 0.1800188 0.08095295 -0.11506607 -0.03355999
-0.23115215 -0.09934803 -0.011022027 -0.03340294 0.0071587595 0.005188737 -0.14827752 0.06054239
-0.17644733 -0.099634625 -0.3683795 0.12123588 -0.16545798 -0.11700296 -0.0662182 0.10748033
0.03950285 0.14399523 -0.17636439 0.030207502 -0.19118544 0.021724422 -0.017681092 -0.033400293
-0.14160055 -0.032589197 -0.13832478 -0.1948126 -0.18222283 -0.10712798 -0.045843553 -0.040760286
-0.13638699 -0.08280619 0.1076204 0.118291356 -0.040843762 0.13473244 -0.24117523 0.06038827
-0.117256865 0.015864639 -0.10423777 0.061193522 -0.0074683167 -0.29864445 -0.16938293 -0.07492509
-0.1192122 -0.18300763 0.03878207 -0.14479874 -0.22957133 0.1463444 0.07095394 0.29505476
0.06654495 -0.04881666 0.07184254 0.038777187 -0.047520835 -0.042273335 -0.070096396 0.13489495
-0.13274792 0.09032791 -0.23205537 0.05228488 -0.1004676 0.059808366 -0.14319733 0.028010426
0.121502794 -0.14880674 -0.17899542 0.19758514 -0.15386984 0.01173552 -0.1321141 -0.10938247
-0.23024409 0.06302785 0.067790315 -0.12196834 -0.26833752 -0.034784336 0.08086582 -0.16026323
0.07304876 0.0669879 0.10853113 0.034194186 0.078979336 0.10577285 -0.070838675 -0.072667345
-0.12527771 0.2537711 0.19842741 0.2764046 0.027395751 -0.042888395 -0.17311756 0.14780305
-0.00065637584 0.049837444 0.11211381 -0.12386578 -0.105957136 -0.019083878 0.1420575 -0.02483702
-0.07762019 -0.07754351 -0.12930626 0.08375354 -0.13725889 -0.04220275 0.037274785 -0.17342785
-0.083243616 -0.1695917 0.09695927 0.048690766 -0.10491997 0.12228032 -0.17560868 0.10548602
0.070478715 -0.1398199 0.02635897 0.10763676 -0.27814206 0.00806859 0.03621673 0.10153539
0.006342207 0.16303664 0.09045026 0.081153244 -0.059411366 -0.22572394 0.057791136 -0.021876633
-0.1252516 -0.15530317 -0.1740954 -0.11999551 -0.056732513 -0.08363132 -0.054749828 -0.13862385
0.031459857 -0.0077238297 0.2118229 0.06698066 0.005701718 0.025417674 0.13903357 0.087541535
0.014821269 0.18958098 0.01807455 -0.07605507 -0.37080547 -0.23527 0.08056787 0.042458337
-0.16131152 0.00019192164 0.12462614 -0.0801772 0.08609852 -0.012456066 0.055389266 0.038968742
0.16527756 -0.059786458 -0.024183344 -0.24287282 0.094771996 0.00951941 -0.057339024 0.064265445
-0.014505022 -0.068478055 -0.103014596 0.17052086 0.035612706 0.00015226268 -0.0521861 -0.17497957
0.06864021 -0.025072472 -0.22308612 0.070979305 -0.11529748 0.18292649 0.10424099 -0.15851858
-0.0004922496 0.06975452 -0.1498497 -0.05984618 0.017764544 -0.14556058 -0.017757822 0.12280679
00000000: 5537 0f3e 7b0a 033d 7da3 1bbe 5f7f b5bd
00000010: 59af 393d 3afb ec3d 7910 1d3d 1db2 50bd
00000020: ea00 e93d 87fc 84bd 3add 5bbd 4236 2a3e
00000030: 5ad2 d13d 499b 02be d688 9cbd 0ed5 2f3d
00000040: aaac eebc facf 18be 7fb6 80be 671c 34be
00000050: cf3a bdbd 7742 99bb b1bc c7bd 75a5 0cbe
00000060: 871d b7bd f597 173d a55e 703e 3614 b83b
00000070: a2bc eb3c 4b8c bf3d c3b1 08be 640b 09bc
00000080: b75c 6dbc 4cf3 a0bd a220 54bd dc04 99bc
00000090: 5a3a e8bd 803f 743e e26a 20be 2b06 bb3d
000000a0: 30eb 85bc 118d 8e3d 0217 543e 12ed c73c
000000b0: d956 383e a9ca a53d c2a7 ebbd 3376 09bd
000000c0: 26b3 6cbe fb76 cbbd bb95 34bc 85d1 08bd
000000d0: 0794 ea3b 4806 aa3b 10d6 17be 4cfb 773d
000000e0: 9cae 34be 3d0d ccbd 3d9c bcbe 844a f83d
000000f0: d16d 29be 3f9f efbd 689d 87bd a61e dc3d
00000100: becd 213d 7c73 133e de98 34be b975 f73c
00000110: 1ec6 43be 6af7 b13c f0d7 90bc bfce 08bd
00000120: bcff 10be 407c 05bd 03a5 0dbe f47c 47be
00000130: 9f98 3abe ea65 dbbd 73c6 3bbd 42f4 26bd
00000140: 08a9 0bbe 4b96 a9bd 1668 dc3d bd42 f23d
00000150: ca4b 27bd 4df7 093e a4f6 76be b159 773d
00000160: 5e24 f0bd 8ff6 813c 9d7a d5bd 0fa6 7a3d
00000170: c8b8 f4bb ede7 98be b872 2dbe 5372 99bd
00000180: 8725 f4bd 5a66 3bbe f3d9 1e3d 1f46 14be
00000190: bf14 6bbe 4edb 153e 4d50 913d 6b11 973e
000001a0: b848 883d faf3 47bd 2e22 933d d4d4 1e3d
000001b0: 35a5 42bd ce26 2dbd b38e 8fbd e721 0a3e
000001c0: 12ef 07be d7fd b83d ec9f 6dbe ac28 563d
000001d0: f5c1 cdbd 9ef9 743d 52a2 12be 1f76 e53c
000001e0: 75d6 f83d cb60 18be 934a 37be c253 4a3e
000001f0: 0e90 1dbe 5746 403c eb48 07be eb03 e0bd
00000200: 1bc5 6bbe bf14 813d a6d5 8a3d 89ca f9bd
00000210: 8963 89be 057a 0ebd fb9c a53d 0b1c 24be
00000220: 979a 953d f430 893d 9245 de3d 340f 0c3d
00000230: ebbf a13d 709f d83d de13 91bd 9ed2 94bd
00000240: cd48 00be 49ee 813e 8e30 4b3e e784 8d3e
00000250: 0e6d e03c beab 2fbd bb45 31be af59 173e
00000260: a310 2cba 5922 4c3d ed9b e53d 58ad fdbd
00000270: 0e00 d9bd cb55 9cbc 8577 113e 0277 cbbc
00000280: 56f7 9ebd 22cf 9ebd dc68 04be fa86 ab3d
00000290: 988d 0cbe cadc 2cbd 72ad 183d 1297 31be
000002a0: a17b aabd 72a9 2dbe 9592 c63d f86f 473d
000002b0: 48e0 d6bd 1b6e fa3d c3d2 33be 0e09 d83d
000002c0: 2557 903d f32c 0fbe c4ee d73c a970 dc3d
000002d0: a368 8ebe 1f32 043c fe57 143d c9f1 cf3d
000002e0: 4ad2 cf3b 14f3 263e fc3d b93d ac33 a63d
000002f0: 5559 73bd 2d24 67be 66b6 6c3d a036 b3bc
00000300: f541 00be cb07 1fbe 1146 32be 35c0 f5bd
00000310: 5a60 68bd e646 abbd 5b41 60bd 69f3 0dbe
00000320: 0ddc 003d 2e18 fdbb 1ae8 583e 282d 893d
00000330: 7ad5 ba3b ba38 d03c d15e 0e3e fa48 b33d
00000340: e8d4 723c 8421 423e 1411 943c c3c2 9bbd
00000350: 37da bdbe 9eea 70be c400 a53d cbe8 2d3d
00000360: d92e 25be 933e 4939 fd3b ff3d f233 a4bd
00000370: 6c54 b03d 8714 4cbc dbdf 623d b09d 1f3d
00000380: 853e 293e a5e2 74bd 261c c6bc a7b3 78be
00000390: d217 c23d 4df7 1b3c 53dc 6abd 9a9d 833d
000003a0: 79a6 6dbc 393e 8cbd 51f9 d2bd 059d 2e3e
000003b0: a1de 113d b4a8 1f39 18c1 55bd d82d 33be
000003c0: 3d93 8c3d c964 cdbc b070 64be 995d 913d
000003d0: 1621 ecbd 1551 3b3e 4d7c d53d b252 22be
000003e0: 500a 01ba 75db 8e3d 3372 19be 4521 75bd
000003f0: f386 913c d50d 15be da78 91bc 2082 fb3d

hidden_nets.0.bias f4 [128]
-0.029243048 -0.08571363 -0.095755294 -0.045937467 0.048455648 -0.03297761 -0.02621701 -0.03773034
-0.010089893 -0.11322979 -0.01536625 -0.03827421 -0.10271427 -0.011286109 -0.0670999 -0.013234837
-0.059680637 -0.02631365 -0.09139927 -0.03990834 -0.050975088 -0.116255134 -0.102868 -0.08835144
-0.0066444906 -0.013415986 -0.061371468 -0.057482865 -0.03520529 -0.019164499 -0.06596613 -0.0160462
-0.044732448 -0.043136735 -0.09442411 -0.036803667 -0.04560702 -0.016141765 -0.01781206 -0.11286054
-0.07837259 -0.07851904 -0.05803556 -0.08406469 0.017598107 0.014186976 -0.1276346 0.029604781
0.046194255 -0.093453705 0.07840587 -0.09480042 -0.026880505 -0.061331324 -0.019551978 -0.06836506
-0.09400816 -0.06687588 0.0010733892 0.03290098 -0.024392834 -0.08880248 -0.05718205 -0.10800608
-0.012235409 -0.055802397 -0.008120924 -0.092017956 -0.026962897 -0.01968486 0.0018806643 0.0013979193
0.04541778 -0.0611788 -0.056762226 0.011739415 -0.007814487 -0.027900247 0.0 -0.08869291
-0.08621714 -0.052633803 -0.024142157 -0.083807334 -0.059921227 0.0 -0.014920366 -0.13775668
0.006145128 -0.0410193 0.013796121 0.07802235 -0.03922779 -0.026162136 -0.02082632 -0.07493116
-0.043949116 -0.02804426 -0.05443824 0.013487428 -0.047782004 -0.054473035 -0.016901998 0.0035240157
0.032301188 0.01885865 -0.04619027 -0.0008290813 -0.11974771 -0.0183025 -0.06120899 -0.13551809
0.0020562804 0.04625282 -0.016336197 -0.09898839 -0.090526216 -0.046581298 0.004664547 -0.07834953
-0.036621697 -0.08857119 0.020677647 -0.042131912 -0.018030953 0.0069364277 -0.0030704634 0.018899217
00000000: 1e8f efbc a18a afbd 5a1b c4bd ed28 3cbd
00000010: 6e79 463d 8813 07bd 0ec5 d6bc 218b 1abd
00000020: 1450 25bc 05e5 e7bd b9c2 7bbc 6bc5 1cbd
00000030: dc5b d2bd 5fe9 38bc ac6b 89bd eed6 58bc
00000040: af73 74bd b98f d7bc 8a2f bbbd ed76 23bd
00000050: 41cb 50bd 2c17 eebd 75ac d2bd 9af1 b4bd
00000060: 07ba d9bb b9ce 5bbc a660 7bbd 2773 6bbd
00000070: 6c33 10bd defe 9cbc 4019 87bd 5273 83bc
00000080: 5f39 37bd 25b0 30bd 6e61 c1bd 71bf 16bd
00000090: 6dce 3abd bc3b 84bc 99ea 91bc 6d23 e7bd
000000a0: cf81 a0bd 97ce a0bd b2b6 6dbd 1c2a acbd
000000b0: e829 903c 7d70 683c a5b2 02be ba85 f23c
000000c0: 3036 3d3d a864 bfbd 4293 a03d b926 c2bd
000000d0: 8134 dcbc 8e36 7bbd 782b a0bc fb02 8cbd
000000e0: 5a87 c0bd 39f6 88bd f7b0 8c3a 2ec3 063d
000000f0: 7bd3 c7bc 13de b5bd ba37 6abd 4b32 ddbd
00000100: 0677 48bc 0e91 64bd a00d 05bc e973 bcbd
00000110: 4be1 dcbc 2542 a1bc 9f80 f63a 633a b73a
00000120: fe07 3a3d 9f96 7abd 827f 68bd ad56 403c
00000130: 5608 00bc 0f8f e4bc 0000 0000 a1a4 b5bd
00000140: 9d92 b0bd 8b96 57bd c6c5 c5bc 2ea3 abbd
00000150: f66f 75bd 0000 0000 8d74 74bc 1610 0dbe
00000160: 125d c93b db03 28bd 2009 623c 2fca 9f3d
00000170: 52ad 20bd fa51 d6bc f59b aabc 8275 99bd
00000180: fd03 34bd 13bd e5bc a2fa 5ebd 60fa 5c3c
00000190: 10b7 43bd 1e1f 5fbd 0f76 8abc 2cf3 663b
000001a0: 404e 043d 757d 9a3c 0232 3dbd b456 59ba
000001b0: 4a3e f5bd 20ef 95bc 47b6 7abd 41c5 0abe
000001c0: a9c2 063b 9973 3d3d 7dd3 85bc 6dba cabd
000001d0: cf65 b9bd 08cc 3ebd 0ed9 983b b875 a0bd
000001e0: a200 16bd d064 b5bd 2b64 a93c 8392 2cbd
000001f0: a6b5 93bc f94a e33b d439 49bb 88d2 9a3c

hidden_nets.1.weight f4 [128, 128]
0.0073921997 -0.020683374 -0.018353617 -0.09052886 0.091042824 -0.1423523 0.020115435 -0.15716405
0.14911976 0.09355855 0.062018752 -0.17020346 0.0435131 -0.2218817 0.15189245 -0.021123772
-0.13810405 -0.060186163 -0.11114186 0.055475615 -0.06778565 -0.056299895 0.08026474 -0.10447181
-0.15212224 0.11080799 -0.043604575 -0.039800752 -0.013866598 0.012216557 0.14010586 0.0013033231
-0.11071207 -0.15889025 -0.029677201 -0.10429681 0.16609353 -0.044150196 0.16133434 -0.08699542
-0.15947512 -0.0475776 0.09946145 -0.026756737 -0.023451116 -0.19299185 -0.058664132 -0.0362859
0.062103357 -0.026459772 0.16676787 0.14393282 0.12702867 -0.2171665 -0.035124116 -0.121809825
-0.16870768 -0.07538899 0.15061651 0.17627873 0.12740447 0.026581373 0.12218637 -0.10796944
0.14648156 0.067228206 0.08806376 -0.1692871 -0.10358056 -0.08409775 -0.023897756 -0.011326929
-0.11067613 0.15023957 -0.11014126 -0.017267099 0.1339484 -0.054873727 0.119334675 -0.10034886
-0.117055885 -0.062037162 0.04585763 -0.16659756 -0.19568038 -0.04767503 0.088181935 0.13165739
-0.09573616 -0.023522591 -0.15503734 -0.025050757 0.054603823 -0.10131711 0.05993829 -0.10296814
-0.05008909 0.054325547 -0.107714064 0.007887137 -0.040367257 0.0816585 -0.03703299 -0.115169495
0.1383689 -0.1259088 -0.10728669 0.07340415 0.12194478 -0.09733778 -0.07106314 -0.1763302
0.040738694 -0.19600028 -0.032339994 0.014820236 -0.11197011 -0.029153872 0.011471596 -0.06423099
0.042320233 -0.115362845 0.10700949 -0.10108973 0.1812893 0.0365551 -0.021930266 0.13217284
0.06361046 0.20867078 0.12043977 -0.025942232 -0.22677407 0.010707354 -0.05285868 0.14175464
-0.14194602 -0.072336495 -0.06976373 -0.012029333 -0.1401751 0.14494555 -0.0033047886 0.14204799
-0.17639698 -0.094587944 0.038287863 -0.05570201 0.027343212 0.13598494 0.104466006 0.014323427
-0.20652707 -0.084218055 -0.036706112 -0.015357636 0.079098836 -0.030997934 -0.05952359 -0.04579886
-0.11462221 -0.14393252 0.12031401 0.026635341 0.041234855 -0.09389351 -0.15632705 -0.0673782
-0.09051128 0.0437138 0.21295859 0.087805875 -0.12615258 -0.31479472 0.076102644 -0.26396197
-0.031851582 -0.12152903 -0.16380446 -0.02039822 -0.06444707 0.024060717 -0.11849928 -0.020999514
-0.14179166 0.025833016 0.1525214 -0.15634237 0.14726543 -0.115744315 0.1787154 -0.010591429
0.14488764 -0.13574153 -0.22447619 -0.06933536 -0.16111284 -0.09420862 -0.009916092 0.0013145838
-0.05649428 -0.016819907 0.11598117 0.055159796 -0.04871911 -0.125373 0.0582486 0.15605986
-0.121893324 -0.07893518 0.028845614 -0.066567466 -0.055918623 0.13945723 -0.041289445 0.0019977563
0.030659942 -0.09601818 -0.099465325 -0.08263682 0.037035447 -0.11529897 -0.0006783572 0.12283685
0.11602542 0.10951288 -0.08195066 -0.22547182 -0.22292669 0.08508282 -0.007185341 -0.14806849
-0.019774608 -0.038750067 0.044813592 0.03886722 -0.07769932 0.011799223 -0.07964079 0.098678306
0.08199915 -0.19452927 0.008817776 -0.117312744 0.1471408 -0.21781829 -0.047224212 0.028758612
-0.109778136 -0.14435646 0.09126424 -0.05905912 -0.1395515 -0.2140824 0.1414227 -0.0777052
00000000: 443a f23b 2e70 a9bc 535a 96bc 3267 b9bd
00000010: a974 ba3d cdc4 11be 20c9 a43c 9def 20be
00000020: dab2 183e a09b bf3d 6007 7e3d d149 2ebe
00000030: cb3a 323d f534 63be b289 1b3e c30b adbc
00000040: 266b 0dbe c485 76bd 589e e3bd 663a 633d
00000050: 34d3 8abd b89a 66bd d761 a43d 51f5 d5bd
00000060: efc5 1bbe 4def e23d b69a 32bd 1d06 23bd
00000070: ba30 63bc f427 483c e977 0f3e 44d4 aa3a
00000080: 02bd e2bd 20b4 22be 9a1d f3bc 9199 d5bd
00000090: 6c14 2a3e d6d6 34bd d434 253e a82a b2bd
000000a0: 724d 23be bbe0 42bd 72b2 cb3d f230 dbbc
000000b0: 8e1c c0bc a89f 45be cd49 70bd 86a0 14bd
000000c0: 1760 7e3d 2ac2 d8bc 32c5 2a3e 2063 133e
000000d0: ce13 023e e560 5ebe 4ede 0fbd 6e77 f9bd
000000e0: b5c1 2cbe 8b65 9abd 373b 1a3e 6982 343e
000000f0: 5176 023e 2ec1 d93c d93c fa3d 151f ddbd
00000100: 43ff 153e f1ae 893d c65a b43d 9959 2dbe
00000110: 0b22 d4bd 713b acbd 3ac5 c3bc 9594 39bc
00000120: 2baa e2bd 67d8 193e be91 e1bd bb73 8dbc
00000130: c529 093e 46c3 60bd bd65 f43d b483 cdbd
00000140: ffba efbd ae1a 7ebd 36d5 3b3d 8d98 2abe
00000150: 7060 48be e446 43bd bb98 b43d 32d1 063e
00000160: 5211 c4bd 73b2 c0bc 1cc2 1ebe 3f37 cdbc
00000170: 42a8 5f3d 587f cfbd da81 753d f6e0 d2bd
00000180: 382a 4dbd 7784 5e3d 3199 dcbd 0d39 013c
00000190: 2358 25bd 923c a73d e8af 17bd fcdd ebbd
000001a0: 94b0 0d3e 3dee 00be 20b9 dbbd ea54 963d
000001b0: 2fbe f93d 0859 c7bd 8d89 91bd e78f 34be
000001c0: 9edd 263d 4cb4 48be f176 04bd 93d0 723c
000001d0: 9650 e5bd 1ad4 eebc 5cf3 3b3c 8a8b 83bd
000001e0: fb57 2d3d 5b43 ecbd cb27 db3d 2208 cfbd
000001f0: e7a3 393e cdba 153d 1aa7 b3bc 5158 073e
00000200: 3346 823d cbad 553e 20a9 f63d ce84 d4bc
00000210: 7637 68be e66d 2f3c 5882 58bd 2128 113e
00000220: 4c5a 11be 2825 94bd 49e0 8ebd ae16 45bc
00000230: 108a 0fbe 9b6c 143e 2795 58bb 0775 113e
00000240: 69a1 34be 53b7 c1bd bcd3 1c3d ca27 64bd
00000250: dffe df3c a33f 0b3e 46f2 d53d cfac 6a3c
00000260: d57b 53be 847a acbd 2659 16bd 989e 7bbc
00000270: 92fe a13d 61ef fdbc 02cf 73bd 9697 3bbd
00000280: 0dbf eabd 0c63 13be 3167 f63d 5c32 da3c
00000290: e1e5 283d 3e4b c0bd 3314 20be 95fd 89bd
000002a0: fa5d b9bd 3e0d 333d d111 5a3e 91d3 b33d
000002b0: 242e 01be c62c a1be b4db 9b3d 0626 87be
000002c0: ce76 02bd 36e4 f8bd 5bbc 27be 2b1a a7bc
000002d0: d3fc 83bd fb1a c53c c0af f2bd 2c07 acbc
000002e0: d531 11be c39f d33c 922e 1c3e 3718 20be
000002f0: c0cc 163e 5b0b edbd 2b01 373e ac87 2dbc
00000300: 6d5d 143e d4ff 0abe 16dd 65be b2ff 8dbd
00000310: c4fa 24be 73f0 c0bd 1b77 22bc 1d4e ac3a
00000320: 8c66 67bd e7c9 89bc 8987 ed3d 3def 613d
00000330: b18d 47bd c861 00be 1696 6e3d 28ce 1f3e
00000340: 35a3 f9bd c5a8 a1bd a34d ec3c 8654 88bd
00000350: ed0a 65bd e0cd 0e3e 1f1f 29bd caec 023b
00000360: 8f2a fb3c 2ea5 c4bd 7ab4 cbbd 7e3d a9bd
00000370: 7bb2 173d de21 ecbd c8d3 31ba e391 fb3d
00000380: bc9e ed3d 4a48 e03d bfd5 a7bd 16e2 66be
00000390: e546 64be e73f ae3d 0273 ebbb 449f 17be
000003a0: 5cfe a1bc 64b8 1ebd 758e 373d 3c33 1f3d
000003b0: d220 9fbd 8751 413c b61a a3bd da17 ca3d
000003c0: 2cef a73d ae32 47be 6f78 103c aa41 f0bd
000003d0: 14ac 163e c20b 5fbe 2d6e 41bd 2e97 eb3c
000003e0: 5cd3 e0bd 2ed2 13be bfe8 ba3d fae7 71bd
000003f0: 97e6 0ebe 6b38 5bbe 1dd1 103e e723 9fbd

hidden_nets.1.bias f4 [128]
-0.041881263 0.17356128 0.16343203 0.15863039 0.0028155325 0.12384225 0.013098196 0.0123919295
0.14523828 0.12375091 0.15840948 0.010217468 0.08589033 0.12667552 0.16676871 0.12807526
0.0016489362 0.13443677 -0.052438714 0.16262183 0.15609534 0.09908206 0.1484149 0.10782654
0.15794063 -0.01928537 0.14426677 0.14469692 0.13582833 0.016515365 0.10119275 -0.047613576
-0.031623133 0.13926785 -0.0023138572 -0.016930021 0.16609877 0.11342994 0.14132246 0.16374893
0.13078277 0.009224404 0.14070494 0.15163921 0.018859765 0.15572543 0.16370653 0.13118863
0.14263238 -0.03630206 0.1544075 0.15886128 0.03313917 0.14899607 0.028458709 0.13184093
0.12416525 0.14530179 0.11082928 0.14273302 -0.026295051 0.15204296 0.1732643 0.09788402
-0.028425612 0.1874623 -0.03419552 -0.015609885 -0.07505596 0.14222777 0.12893118 -0.07189955
0.01499337 0.16595975 0.12449934 -0.05430854 0.16838905 0.12036967 -0.0036749856 -0.019278271
0.1164949 0.13501865 0.19502664 -0.018158281 0.14123744 0.17898636 0.15529104 -0.053837337
-0.0047799856 0.12848164 -0.028418474 0.14226209 0.10002371 -0.040269237 0.14298911 0.1525619
0.032861035 0.15361737 -0.024597906 0.082632124 0.14994216 0.105179444 0.18262261 0.13412727
0.15715349 0.11668239 0.15767758 0.13399737 -0.034729425 0.1231713 0.1495651 0.031669606
0.14734721 -0.0154039655 0.17924178 -0.012003627 0.16258802 0.19601001 -0.05076567 0.16772868
0.15776192 0.024722757 -0.04214776 0.15238166 0.16620328 0.10227777 0.15536803 -0.010098004
00000000: b08b 2bbd 0cba 313e ba5a 273e 0170 223e
00000010: cc84 383b 01a1 fd3d d199 563c 8507 4b3c
00000020: 58b9 143e 1e71 fd3d 1836 223e 2b67 273c
00000030: 45e7 af3d 3ab7 013e 6bc5 2a3e 2926 033e
00000040: 1e21 d83a cba9 093e fac9 56bd 5686 263e
00000050: 75d7 1f3e 89eb ca3d 13fa 173e 29d4 dc3d
00000060: 30bb 213e 5afc 9dbc abba 133e 6e2b 143e
00000070: 9516 0b3e 3b4b 873c 253e cf3d 7406 43bd
00000080: 4287 01bd 3b9c 0e3e 15a4 17bb d4b0 8abc
00000090: cc15 2a3e f54d e83d d6b6 103e cdad 273e
000000a0: ebeb 053e f421 173c f514 103e 4f47 1b3e
000000b0: cb7f 9a3c 7d76 1f3e afa2 273e 5056 063e
000000c0: 390e 123e 78b1 14bd 001d 1e3e 88ac 223e
000000d0: f0bc 073d 6d92 183e 3d22 e93c 4f01 073e
000000e0: 5a4a fe3d fec9 143e 76fa e23d 9b28 123e
000000f0: b868 d7bc 26b1 1b3e 326c 313e 6b77 c83d
00000100: d4dc e8bc 1ef6 3f3e 9a10 0cbd 9ac0 7fbc
00000110: f0b6 99bd 28a4 113e 8906 043e 1240 93bd
00000120: c0a6 753c 5af1 293e 83f9 fe3d a272 5ebd
00000130: 2e6e 2c3e 6084 f63d 07d8 70bb 77ed 9dbc
00000140: e194 ee3d 5442 0a3e 10b5 473e adc0 94bc
00000150: 8ca0 103e 3348 373e 9d04 1f3e 8a84 5cbd
00000160: 6da1 9cbb b190 033e dccd e8bc 27ad 113e
00000170: 3bd9 cc3d 5bf1 24bd bd6b 123e 3039 1c3e
00000180: 4b99 063d df4d 1d3e 8c81 c9bc 083b a93d
00000190: 708a 193e 5268 d73d 6c01 3b3e a958 093e
000001a0: d8ec 203e 2df7 ee3d 3b76 213e 9b36 093e
000001b0: 7140 0ebd 3c41 fc3d 9827 193e fdb7 013d
000001c0: 30e2 163e ea60 7cbc 288b 373e dcaa 44bc
000001d0: 797d 263e d9b6 483e aaef 4fbd 11c1 2b3e
000001e0: 578c 213e 6187 ca3c 21a3 2cbd f009 1c3e
000001f0: 3131 2a3e 0277 d13d cc18 1f3e 1972 25bc

hidden_nets.2.weight f4 [64, 128]
0.017062293 0.15826161 -0.19300883 -0.14376864 0.062079955 -0.19154672 -0.1277038 0.22893149
-0.120061755 -0.12314036 -0.011257568 0.02768887 -0.09431686 -0.021078894 -0.03174595 0.047139347
-0.21776631 -0.027482403 -0.024196843 0.0643318 0.014852443 0.08349784 0.0010303318 -0.047531575
-0.098609366 0.2669882 0.15311095 -0.14872435 -0.020176722 0.23876986 -0.094529785 -0.0691149
-0.019103732 0.135648 -0.0087473495 0.1291391 0.009453862 0.04212622 -0.09443388 -0.31477782
0.025407935 0.076946974 0.018881204 -0.1399737 0.124840766 0.06741814 0.05266462 -0.17832981
-0.097187266 0.10150008 -0.11498853 0.037286192 0.19149402 0.09368019 -0.008978962 -0.12041211
0.092997275 -0.14378643 -0.031871017 -0.110563405 0.09441335 -0.1661454 0.017373381 0.11600603
-0.034091797 0.1053377 -0.11566136 0.028992759 -0.051522065 0.08560892 -0.15667759 -0.10204852
-0.15065908 0.14869642 -0.12829055 0.1051014 0.013320503 0.03573805 0.06994838 0.1004549
-0.03899185 -0.10399691 0.062862724 -0.13139492 -0.22761501 -0.10387327 -0.19514276 0.10723721
0.20579778 -0.19171898 0.21245484 -0.15922433 -0.14915524 -0.06986397 0.010227635 -0.042132746
0.097345695 -0.13611816 0.0016169959 -0.0950961 -0.0039713834 -0.17722315 -0.045318134 -0.0067930045
0.05543739 -0.18992284 -0.07433583 0.019749053 0.11422984 -0.08258458 -0.20334353 0.042646423
0.089394145 0.16354623 -0.16555402 0.061802763 -0.16956872 0.029775752 -0.13396132 -0.013438521
-0.1483921 0.04012923 0.097040325 0.13971482 0.13094577 -0.2078864 -0.11907115 0.080923505
-0.113865465 0.13187684 -0.02947943 -0.05709746 0.17882098 -0.056120604 0.092825815 -0.07537183
0.07263781 -0.12775105 -0.01901059 -0.069992706 -0.023717327 -0.11393442 -0.12842485 0.0191661
-0.23290114 -0.059888184 0.17609327 0.021712588 -0.07648769 0.012211345 -0.15292881 -0.1845803
-0.022060009 0.21157365 -0.053372603 -0.33113095 0.16074497 0.09488674 0.12679084 0.104856834
0.18296276 0.06033405 -0.03843433 0.10025696 0.06892035 -0.09860376 -0.04651687 -0.100115344
-0.060707163 -0.038682487 -0.009162224 -0.15216127 -0.01173911 0.04329904 0.091713615 -0.16180752
-0.019198142 0.046224408 0.0970629 -0.08176362 0.021177707 -0.13426828 0.115937576 -0.18363567
0.0049874578 0.069274865 -0.14888519 0.07074344 -0.0095469 -0.00999683 -0.09142247 0.017180935
0.09720044 -0.02905989 -0.0006946047 -0.040549465 0.18382977 -0.059047375 -0.017029284 -0.0069661518
-0.012908196 0.014503577 0.0069383457 -0.089290105 0.13798964 -0.025059614 -0.01739058 0.14120068
1.6131855e-05 0.15844014 -0.11954228 -0.008435597 0.05024229 -0.05820674 -0.06755383 -0.0030831143
0.19991474 0.030258587 -0.012455612 0.016768318 0.0042180675 0.2089373 -0.06426 -0.090484165
0.027342705 -0.053507045 -0.13153145 -0.051215272 -0.01453666 -0.04502565 0.08478061 -0.041491713
-0.0975244 -0.10609593 0.1258557 -0.1855117 -0.08070838 -0.0066658105 -0.03818966 -0.05482701
-0.032353435 0.011281715 -0.002709843 0.055060547 -0.07917026 -0.16008672 0.14723825 -0.007108015
-0.18951361 0.20699038 -0.04441805 -0.045127947 -0.020108191 -0.16142435 -0.17321885 -0.07571296
00000000: 39c6 8b3c 550f 223e 1ba4 45be 1638 13be
00000010: 8d47 7e3d d324 44be c9c4 02be 046d 6a3e
00000020: f0e2 f5bd 0331 fcbd aa71 38bc c5d3 e23c
00000030: 3329 c1bd a5ad acbc 0b08 02bd 3015 413d
00000040: 22fe 5ebe c722 e1bc 7538 c6bc 64c0 833d
00000050: a957 733c ea00 ab3d 330c 873a 78b0 42bd
00000060: b5f3 c9bd adb2 883e 1ec9 1c3e 324b 18be
00000070: a749 a5bc 1680 743e d598 c1bd 1d8c 8dbd
00000080: 6e7f 9cbc 4fe7 0a3e 0b51 0fbc 0a3d 043e
00000090: 5fe4 1a3c 8b8c 2c3d 8d66 c1bd 8f2a a1be
000000a0: 4d24 d03c 6096 9d3d c1ac 9a3c 4455 0fbe
000000b0: 84ac ff3d 8612 8a3d dbb6 573d 179c 36be
000000c0: 1e0a c7bd 46df cf3d 1b7f ebbd 68b9 183d
000000d0: 0217 443e 66db bf3d 7f1c 13bc a09a f6bd
000000e0: 5b75 be3d c03c 13be 2f8b 02bd 116f e2bd
000000f0: c95b c13d 0522 2abe 9f52 8e3c 9294 ed3d
00000100: d7a3 0bbd 4bbb d73d dddf ecbd 3982 ed3c
00000110: cd08 53bd bb53 af3d 1770 20be d1fe d0bd
00000120: 6046 1abe e043 183e 995e 03be 673f d73d
00000130: 3d3e 5a3c 1062 123d 1941 8f3d 4cbb cd3d
00000140: ebb5 1fbd 55fc d4bd 2cbe 803d 648c 06be
00000150: e913 69be 82bb d4bd 81d3 47be 2f9f db3d
00000160: a7bc 523e fb51 44be c38d 593e b40b 23be
00000170: 27bc 18be d714 8fbd cf91 273c 6393 2cbd
00000180: 2e5d c73d 8f62 0bbe 61f1 d33a bec1 c2bd
00000190: 6122 82bb fc79 35be 829f 39bd da97 debb
000001a0: 5112 633d 227b 42be 623d 98bd c4c8 a13c
000001b0: 56f1 e93d 1b22 a9bd 4939 50be 04ae 2e3d
000001c0: 4714 b73d aa78 273e fe86 29be e524 7d3d
000001d0: 6ca3 2dbe 47ec f33c 282d 09be 3e2d 5cbc
000001e0: 19f4 17be 8c5e 243d 14bd c63d 6711 0f3e
000001f0: a616 063e 2ce0 54be 93db f3bd 39bb a53d
00000200: 4c32 e9bd b90a 073e d87e f1bc 07df 69bd
00000210: d91c 373e b8de 65bd 761b be3d 8c5c 9abd
00000220: 22c3 943d 2cd1 02be 19bc 9bbc 5658 8fbd
00000230: d74a c2bc 7356 e9bd ce81 03be 3a02 9d3c
00000240: a37d 6ebe 504d 75bd cb51 343e 99de b13c
00000250: 94a5 9cbd 1812 483c 5f99 1cbe 9e02 3dbe
00000260: 31b7 b4bc c3a6 583e 3b9d 5abd ff89 a9be
00000270: 549a 243e fb53 c23d 75d5 013e 2ebf d63d
00000280: 975a 3b3e d620 773d 516d 1dbd 8553 cd3d
00000290: 1d26 8d3d c5f0 c9bd 7988 3ebd 4609 cdbd
000002a0: 13a8 78bd 8771 1ebd 271d 16bc 2ad0 1bbe
000002b0: 6555 40bc 565a 313d 59d4 bb3d dfb0 25be
000002c0: 6c45 9dbc ce55 3d3d eac8 c63d af73 a7bd
000002d0: df7c ad3c a07d 09be ae70 ed3d fd0a 3cbe
000002e0: d46d a33b fbdf 8d3d 5c75 18be f0e1 903d
000002f0: 9a6a 1cbc bec9 23bc b43b bbbd 08bf 8c3c
00000300: 0611 c73d 020f eebc 2216 36ba 3217 26bd
00000310: df3d 3c3e a9db 71bd ff80 8bbc 5144 e4bb
00000320: e67c 53bc 69a0 6d3c 105b e33b bbdd b6bd
00000330: 284d 0d3e d249 cdbc b176 8ebc e996 103e
00000340: e552 8737 223e 223e 95d2 f4bd 7535 0abc
00000350: dcca 4d3d 316a 6ebd aa59 8abd 130e 4abb
00000360: 73b6 4c3e dbe0 f73c a012 4cbc b65d 893c
00000370: b737 8a3b a9f3 553e bf9a 83bd c34f b9bd
00000380: cffd df3c 342a 5bbd 2eb0 06be 1bc7 51bd
00000390: 2c2b 6ebc d16c 38bd 75a1 ad3d 37f3 29bd
000003a0: dfba c7bd d348 d9bd 51e0 003e c7f6 3dbe
000003b0: 6f4a a5bd df6c dabb c36c 1cbd 4992 60bd
000003c0: 0985 04bd f1d6 383c 9f97 31bb 2b87 613d
000003d0: 0424 a2bd c6ed 23be a0c5 163e 5aea e8bb
000003e0: db0f 42be 49f5 533e b4ef 35bd 15d8 38bd
000003f0: efb9 a4bc 6d4c 25be 4860 31be 650f 9bbd

hidden_nets.2.bias f4 [64]
-0.0065741558 0.004197591 0.40742213 0.33872816 0.38716248 0.38424686 0.012920937 0.34500805
-0.045416962 0.27921382 0.00476631 0.36837244 0.0049841213 0.000848521 0.011270121 0.37561855
0.2437008 -0.0610203 0.2542235 0.048274357 -0.020272443 -0.015714403 0.34644246 0.025642782
0.015968628 0.34594545 0.375293 0.3924343 0.39935362 -0.023054859 0.32542711 0.35729477
0.37566146 -0.048231054 0.27829304 0.32682005 0.41773722 0.36120144 -0.0041613937 0.339382
-0.013637707 0.35990778 -0.008906532 0.36857074 0.41681066 -0.011682217 -0.004308835 0.35487363
0.25571284 0.37389806 0.37140724 0.38644743 -0.022445604 -0.014958629 0.38619697 0.37925762
0.35467407 -0.015307916 0.26831988 -0.052040327 -0.040444124 -0.03623901 -0.011182025 0.009910039
00000000: 046c d7bb f28b 893b a299 d03e c76d ad3e
00000010: 293a c63e 01bc c43e 56b2 533c e5a4 b03e
00000020: 2307 3abd 1df5 8e3e b52e 9c3b 509b bc3e
00000030: d751 a33b 486f 5e3a 50a6 383c 1351 c03e
00000040: b48c 793e 6cf0 79bd 9529 823e 55bb 453d
00000050: 6512 a6bc 7ebb 80bc e860 b13e d010 d23c
00000060: a4d0 823c c31f b13e 6726 c03e 26ed c83e
00000070: 1478 cc3e 8bdd bcbc 629e a63e 57ef b63e
00000080: b356 c03e ed8d 45bd 6d7c 8e3e f554 a73e
00000090: a7e1 d53e 65ef b83e 4d5c 88bb 7ac3 ad3e
000000a0: b070 5fbc d545 b83e b4ec 11bc 4eb5 bc3e
000000b0: 3568 d53e c566 3fbc 2131 8dbb ffb1 b53e
000000c0: cbec 823e 916f bf3e 1729 be3e 70dc c53e
000000d0: d8df b7bc 0a15 75bc 9cbb c53e 0e2e c23e
000000e0: d797 b53e 0ece 7abc 3961 893e 3d28 55bd
000000f0: bda8 25bd 5b6f 14bd d034 37bc b75d 223c

value_stream.weight f4 [1, 64]
-0.27077183 -0.21449263 0.2542806 0.3302921 0.27845645 0.3771592 -0.21730414 0.3697659
-0.088017344 0.40309858 -0.20845458 0.43582374 -0.21148083 -0.2837221 -0.20372951 0.37423408
0.29444882 -0.061557453 0.29565606 -0.06729446 -0.16688646 -0.20184775 0.42471555 -0.19991986
-0.12781051 0.3909043 0.38852656 0.34699407 0.34126687 -0.22921115 0.2936259 0.35948825
0.30067572 -0.13705477 0.41724572 0.36076623 0.244909 0.35875022 -0.2279488 0.40277457
-0.043363787 0.41190046 -0.2121205 0.40061253 0.3491156 -0.30729556 -0.3479702 0.37749338
0.26553488 0.347096 0.31508076 0.32576326 0.106221065 -0.24977128 0.28306663 0.31436375
0.30296376 -0.26023793 0.28404856 -0.15813628 -0.17120592 0.0625281 -0.05750514 -0.1820751
00000000: 9ba2 8abe f5a3 5bbe 1131 823e 0c1c a93e
00000010: d891 8e3e 031b c13e fa84 5ebe f551 bd3e
00000020: 7042 b4bd f062 ce3e 1e75 55be 4a24 df3e
00000030: 6e8e 58be 0644 91be 789e 50be 9c9b bf3e
00000040: ffc1 963e ab23 7cbd 3b60 973e aed1 89bd
00000050: 49e4 2abe 2db1 4ebe 5174 d93e cbb7 4cbe
00000060: c2e0 02be 9c24 c83e f4ec c63e 35a9 b13e
00000070: 88ba ae3e 54b6 6abe 2256 963e d80e b83e
00000080: 2bf2 993e 1658 0cbe 3ba1 d53e 5ab6 b83e
00000090: 6dc9 7a3e 1cae b73e 696b 69be 7838 ce3e
000000a0: 3a9e 31bd 9ee4 d23e 1e36 59be 161d cd3e
000000b0: 48bf b23e d855 9dbe 2629 b2be d046 c13e
000000c0: 30f4 873e 91b6 b13e 4452 a13e 71ca a63e
000000d0: 6e8a d93d 0bc4 7fbe 1cee 903e 49f4 a03e
000000e0: 111e 9b3e e83d 85be d06e 913e 7aee 21be
000000f0: 9b50 2fbe bc0e 803d 828a 6bbd e571 3abe

advantage_stream.weight f4 [5, 64]
-0.0882993 -0.08251049 0.07136547 -0.13089433 0.1069389 -0.04660342 -0.29350036 -0.06258814
0.14697771 0.109035015 -0.19853759 0.12037341 -0.20091303 0.019807775 0.074872024 -0.06754026
0.19561267 0.019705962 -0.010258686 -0.09603885 0.09087178 0.15839688 -0.05828022 -0.16230704
0.13492061 0.042336058 0.08326682 0.011017893 0.03995017 -0.0479151 -0.030648917 0.026916979
-0.048560917 0.16876842 0.0767116 0.025513489 0.061251752 0.14600429 -0.15605892 0.038208224
-0.014494605 0.14001387 -0.08537176 0.14028312 0.04863571 0.18900335 0.07867004 0.056238048
0.0611771 -0.10982822 0.067815825 -0.02360242 -0.07578927 0.06520877 -0.055204134 0.0035380523
0.053251594 0.074146375 -0.12223269 0.0201537 -0.0008626444 -0.24940538 -0.0044136927 0.14157422
-0.15967537 0.08992819 0.03246248 -0.13905439 -0.010431173 0.02644429 -0.24265945 -0.08285071
0.30109033 0.15053234 0.18644042 -0.020782428 0.06993963 0.15886143 -0.19627169 -0.007461497
0.14816284 -0.017165132 0.1716063 -0.013970335 0.053381175 -0.037444964 -0.15307122 -0.046850983
0.22249496 0.04795348 0.107169926 -0.032776702 -0.09580085 0.031573243 -0.17667228 0.08883507
-0.11272832 0.082708314 0.096184656 0.16503502 0.061137654 0.065045975 -0.052640837 0.13341948
0.0071537923 0.17317647 0.09930024 -0.02847614 0.10196821 -0.12083855 -0.19331837 0.10636815
-0.08380067 0.0279361 0.11304618 -0.018756432 0.00982494 -0.094848454 -0.04187504 0.03651238
-0.08354936 0.090725586 0.015381641 0.03522138 -0.110537715 -0.1979098 0.05343421 -0.13696162
0.025990114 -0.119964324 0.077999346 0.028387545 0.05676585 -0.10770713 -0.043145556 0.14570355
-0.059960317 0.19003724 0.024759522 0.1033978 -0.024557536 -0.028932728 0.11847648 -0.0012323887
0.007746766 -0.07738232 0.019110534 0.11009192 -0.22094426 -0.12882288 -0.076793104 0.117219225
-0.022129685 -0.08877233 0.051773652 -0.047754925 -0.07059726 -0.21317975 -0.16617586 0.041903973
0.061049484 0.15237331 -0.12290929 0.20379078 0.08669922 -0.053133536 0.09809505 0.14154902
-0.18113796 0.0942742 0.0037910978 0.18136047 0.13408442 0.047995083 -0.012634578 0.13306202
0.16688232 -0.06935664 -0.06574438 -0.035372064 -0.23816831 0.18202141 0.011028751 -0.0016761945
-0.023341881 0.10025107 -0.118675776 -0.094578385 0.1964627 0.1847479 0.010040857 -0.14342344
0.14046358 0.017045932 0.0493648 -0.092334166 0.10557398 -0.061421674 -0.2319551 -0.055121984
-0.11612907 -0.029812247 -0.031376313 0.002998851 0.2615269 0.2548777 0.27978766 -0.08946427
0.09475767 -0.24205384 0.16642848 0.12378995 -0.18295717 -0.09605823 -0.13490015 0.026190603
0.2653431 0.11292882 0.054059643 0.0039351485 0.024192583 0.18212873 -0.11120809 -0.05371276
-0.010922827 -0.06981407 -0.059112053 0.14351721 0.05887054 0.19356674 -0.15281582 0.055738922
0.28115976 0.19636932 -0.21899493 0.17283602 0.04619351 -0.22327426 -0.18160515 0.03554486
0.06477715 0.039034832 0.08674795 -0.07345903 0.1192769 -0.12676208 -0.09046401 -0.0028123097
-0.022739686 0.038475297 0.032135285 0.25424907 0.12101581 -0.1690057 0.33210003 0.21623696
00000000: 43d6 b4bd 43fb a8bd 0f28 923d 2a09 06be
00000010: c802 db3d 3ae3 3ebd ae45 96be 362e 80bd
00000020: 5381 163e c04d df3d 704d 4bbe 5686 f63d
00000030: 25bc 4dbe ea43 a23c 8156 993d 8c52 8abd
00000040: b04e 483e 666e a13c 0c14 28bc 04b0 c4bd
00000050: fc1a ba3d cb32 223e 3db7 6ebd d133 26be
00000060: a128 0a3e 9368 2d3d cb87 aa3d 6584 343c
00000070: caa2 233d a042 44bd 7013 fbbc ff80 dc3c
00000080: d0e7 46bd a1d1 2c3e f91a 9d3d aa01 d13c
00000090: 1ee3 7a3d 2682 153e e9cd 1fbe 3a80 1c3d
000000a0: c87a 6dbc cc5f 0f3e 64d7 aebd 61a6 0f3e
000000b0: 3d36 473d 188a 413e c21d a13d de59 663d
000000c0: d794 7a3d 9eed e0bd 06e3 8a3d dd59 c1bc
000000d0: 6837 9bbd 2d8c 853d bb1d 62bd abde 673b
000000e0: 581e 5a3d 0eda 973d 2255 fabd 5f19 a53c
000000f0: 1623 62ba 2064 7fbe bda0 90bb d5f8 103e
00000100: f181 23be 452c b83d 61f7 043d 4664 0ebe
00000110: 83e7 2abc b2a1 d83c b87b 78be a2ad a9bd
00000120: 8328 9a3e 2625 1a3e 3dea 3e3e e93f aabc
00000130: 823c 8f3d 92ac 223e 72fb 48be 937f f4bb
00000140: 00b8 173e e49d 8cbc 90b9 2f3e d5e3 64bc
00000150: 38a6 5a3d e45f 19bd b4be 1cbe d1e6 3fbd
00000160: b8d5 633e de6a 443d e87b db3d dd40 06bd
00000170: 3c33 c4bd f252 013d 94e9 34be 29ef b53d
00000180: 1bde e6bd fa62 a93d 76fc c43d f1fe 283e
00000190: 7a6b 7a3d d336 853d eb9d 57bd 1e9f 083e
000001a0: 5c6a ea3b 2c55 313e ed5d cb3d cb46 e9bc
000001b0: b5d4 d03d 347a f7bd 40f5 45be 8bd7 d93d
000001c0: b09f abbd 3fda e43c c184 e73d 17a7 99bc
000001d0: c9f8 203c e83f c2bd 2985 2bbd 018e 153d
000001e0: ed1b abbd 56ce b93d 4703 7c3c 4b44 103d
000001f0: 9961 e2bd dea8 4abe d5dd 5a3d ab3f 0cbe
00000200: 38e9 d43c dbaf f5bd 1fbe 9f3d ff8c e83c
00000210: 4f83 683d 8e95 dcbd 65b9 30bd 5033 153e
00000220: f398 75bd 1f99 423e 7bd4 ca3c 3ac2 d33d
00000230: e32c c9bc 5404 edbc cca3 f23d 1a88 a1ba
00000240: 95d8 fd3b 9f7a 9ebd b28d 9c3c df77 e13d
00000250: 363f 62be 25ea 03be b445 9dbd a210 f03d
00000260: 5049 b5bc 44ce b5bd 9c10 543d ab9a 43bd
00000270: 4c95 90bd cb4b 5abe 012a 2abe 80a3 2b3d
00000280: 060f 7a3d c007 1c3e deb7 fbbd 88ae 503e
00000290: 5c8f b13d 8da2 59bd 0fe6 c83d 3af2 103e
000002a0: 3b7c 39be d512 c13d 1174 783b 8fb6 393e
000002b0: 6d4d 093e 7e96 443d 4301 4fbc 6941 083e
000002c0: 33e3 2a3e db0a 8ebd fda4 86bd 4ce2 10bd
000002d0: 65e2 73be d263 3a3e efb1 343c c1b3 dbba
000002e0: 7937 bfbc 6f50 cd3d 490c f3bd 50b2 c1bd
000002f0: 852d 493e 8e2e 3d3e 6882 243c 98dd 12be
00000300: afd5 0f3e e9a3 8b3c bf32 4a3d b219 bdbd
00000310: 2c37 d83d 4b95 7bbd a385 6dbe 97c7 61bd
00000320: 14d5 edbd d038 f4bc 7384 00bd 5f88 443b
00000330: dbe6 853e 547f 823e 5440 8f3e 0b39 b7bd
00000340: 4f10 c23d f6dc 77be 3a6c 2a3e 9685 fd3d
00000350: 2059 3bbe 2dba c4bd 4423 0abe ad8d d63c
00000360: 0ddb 873e 3a47 e73d a56d 5d3d 6bf2 803b
00000370: 862f c63c f47f 3a3e 11c1 e3bd e901 5cbd
00000380: a8f5 32bc aefa 8ebd 7b1f 72bd 2df6 123e
00000390: 3c22 713d 5c36 463e c07b 1cbe 7f4e 643d
000003a0: 2cf4 8f3e 0a15 493e 3540 60be edfb 303e
000003b0: 6835 3d3d 02a2 64be b3f6 39be 7d97 113d
000003c0: e2a9 843d fde2 1f3d e9a8 b13d b071 96bd
000003d0: 7347 f43d ebcd 01be 3245 b9bd ba4e 38bb
000003e0: 9448 babc 4698 1d3d 4aa0 033d ef2c 823e
000003f0: 23d7 f73d d50f 2dbe 0409 aa3e 396d 5d3e

advantage_stream.bias f4 [5]
-0.02923836 0.017573208 0.03522852 0.019561145 -0.072525024
00000000: 4985 efbc b0f5 8f3c c84b 103d b23e a03c
00000010: 0088 94bd

hidden_nets.0.weight f4 [128, 11]
0.13612132 0.03131897 -0.14815713 -0.09024408 0.043479588 0.11486525 0.037943367 -0.050814178
0.113771275 -0.064251475 -0.059706546 0.16453639 0.10139513 -0.12771134 -0.07997842 0.042367678
-0.03059017 -0.14868796 -0.2519315 -0.1758896 -0.093530916 -0.0040540057 -0.09718907 -0.13865387
-0.09128774 0.037303783 0.23262523 0.0036401304 0.029529849 0.09229097 -0.1334906 -0.0063704946
-0.02026536 -0.07973339 -0.053151406 -0.015683573 -0.11295442 0.23726827 -0.16133997 0.091416
-0.017651673 0.069605 0.21005459 0.02304674 0.17517993 0.07550261 -0.12082675 -0.039495394
-0.23583658 -0.102459155 -0.017992219 -0.03887693 0.0071587595 0.00085413014 -0.14158057 0.061754514
-0.1724885 -0.098643124 -0.3683795 0.1253184 -0.16164248 -0.12050747 -0.062163185 0.10748033
0.04129097 0.14946812 -0.1745942 0.035429865 -0.1810837 0.024328977 -0.012346371 -0.028030846
-0.14745578 -0.02766521 -0.13832478 -0.1992734 -0.18714736 -0.10296761 -0.04153617 -0.041624345
-0.13638699 -0.075029194 0.111533396 0.12238562 -0.036749583 0.13473244 -0.23941918 0.0644766
-0.11574274 0.017334985 -0.10396607 0.06238896 -0.006111708 -0.297383 -0.17068714 -0.07362083
-0.1192122 -0.18293433 0.040039387 -0.14552858 -0.23175259 0.1440913 0.06974164 0.28862855
0.06568281 -0.050227955 0.06996863 0.038777187 -0.046678517 -0.04597862 -0.07113506 0.13368681
-0.13459344 0.08209234 -0.23072812 0.04994022 -0.100833826 0.059902333 -0.14319733 0.02400896
0.12972423 -0.14998075 -0.17911802 0.19742885 -0.15386984 0.012075602 -0.13275701 -0.1092278
-0.23039873 0.06302785 0.06711551 -0.121784285 -0.26524785 -0.03524042 0.07886912 -0.15907697
0.07319447 0.06732115 0.11365545 0.033905994 0.078979336 0.10377483 -0.07373951 -0.07301782
-0.12669143 0.25015453 0.19797766 0.27449533 0.02922721 -0.046127647 -0.17440993 0.14780305
0.0018339716 0.055580247 0.11520289 -0.118860155 -0.10400658 -0.014647912 0.14725041 -0.020238489
-0.080210514 -0.072407946 -0.12930626 0.0864737 -0.14181252 -0.04220275 0.037274785 -0.17342785
-0.083243616 -0.1695917 0.09695927 0.048690766 -0.10491997 0.12228032 -0.17560868 0.10548602
0.07859734 -0.13311912 0.03341814 0.1127999 -0.27296352 0.009586093 0.036647383 0.10821458
0.006342207 0.16924104 0.0881879 0.081153244 -0.059411366 -0.22572394 0.057791136 -0.021876633
-0.1252516 -0.15530317 -0.1740954 -0.11999551 -0.056732513 -0.08363132 -0.05336507 -0.13624838
0.035269 -0.0027514754 0.21249337 0.06892015 0.004030533 0.027753606 0.13903357 0.091486186
0.009803831 0.19085741 0.018989833 -0.07455523 -0.37080547 -0.2346647 0.079760365 0.046384517
-0.16035295 0.00019192164 0.12309838 -0.08309512 0.0901649 -0.008540696 0.05636501 0.042651914
0.16889226 -0.05760049 -0.019822896 -0.23889497 0.094771996 0.012489086 -0.059916902 0.06470782
-0.015988437 -0.067714185 -0.1028737 0.16862628 0.037004076 -0.000113510076 -0.05381801 -0.17497957
0.06799057 -0.02519028 -0.2223516 0.07203407 -0.11455396 0.1848384 0.10590133 -0.15667193
-0.00090687297 0.070803046 -0.1498497 -0.058384832 0.017001778 -0.1437617 -0.015641872 0.12525052
00000000: 6363 0b3e 5248 003d 81b6 17be e3d1 b8bd
00000010: a717 323d 793e eb3d 816a 1b3d 8722 50bd
00000020: ea00 e93d 4796 83bd da8e 74bd 3a7c 283e
00000030: 40a8 cf3d c3c6 02be bacb a3bd bb89 2d3d
00000040: 3c98 fabc a841 18be 2afd 80be 671c 34be
00000050: 238d bfbd 77d7 84bb 100b c7bd 48fb 0dbe
00000060: 11f5 babd dacb 183d 4f35 6e3e 418f 6e3b
00000070: 95e8 f13c 0c03 bd3d c3b1 08be 95bf d0bb
00000080: 8a03 a6bc 424b a3bd 4ab5 59bd d67a 80bc
00000090: a654 e7bd 74f6 723e 4e36 25be 5038 bb3d
000000a0: 3e9a 90bc 118d 8e3d 8d18 573e 84cc bc3c
000000b0: 5e62 333e 1da1 9a3d 0474 f7bd ecc5 21bd
000000c0: 257f 71be 1bd6 d1bd 6b64 93bc 6a3d 1fbd
000000d0: 0794 ea3b b4e7 5f3a 7ffa 10be 4df2 7c3d
000000e0: d3a0 30be 6805 cabd 3d9c bcbe 7753 003e
000000f0: 9b85 25be 9fcc f6bd d39e 7ebd a61e dc3d
00000100: b820 293d 2c0e 193e d2c8 32be e81e 113d
00000110: 016e 39be 904d c73c 6f48 4abc f2a0 e5bc
00000120: a6fe 16be 27a2 e2bc 03a5 0dbe 530e 4cbe
00000130: 8fa3 3fbe afe0 d2bd d521 2abd 4a7e 2abd
00000140: 08a9 0bbe e8a8 99bd 9f6b e43d 50a5 fa3d
00000150: bb86 16bd 4df7 093e 4d2a 75be 4f0c 843d
00000160: 880a edbd 1902 8e3c 2aec d4bd 918b 7f3d
00000170: b944 c8bb 9642 98be 9cc8 2ebe 85c6 96bd
00000180: 8725 f4bd 2353 3bbe 5700 243d 7205 15be
00000190: 8d50 6dbe ab8c 133e b4d4 8e3d 1fc7 933e
000001a0: b684 863d d4bb 4dbd b74b 8f3d d4d4 1e3d
000001b0: f931 3fbd 1454 3cbd 42af 91bd 32e5 083e
000001c0: ddd2 09be 0720 a83d fe43 6cbe 1e8e 4c3d
000001d0: f781 cebd 265c 753d 52a2 12be 70ae c43c
000001e0: 6ed6 043e 8e94 19be b76a 37be ca2a 4a3e
000001f0: 0e90 1dbe bfd8 453c 74f1 07be d3b2 dfbd
00000200: a5ed 6bbe bf14 813d db73 893d 0a6a f9bd
00000210: 91ce 87be 4258 10bd 2286 a13d 13e5 22be
00000220: fbe6 953d acdf 893d 30c4 e83d 03e1 0a3d
00000230: ebbf a13d e687 d43d bd04 97bd 5e8a 95bd
00000240: 66bb 01be 4114 803e a8ba 4a3e a78a 8c3e
00000250: e76d ef3c 58f0 3cbd 8498 32be af59 173e
00000260: e061 f03a 1da8 633d 7eef eb3d f46c f3bd
00000270: 6701 d5bd ccfd 6fbc d0c8 163e 30cb a5bc
00000280: 6945 a4bd 9e4a 94bd dc68 04be 2019 b13d
00000290: 4d37 11be cadc 2cbd 72ad 183d 1297 31be
000002a0: a17b aabd 72a9 2dbe 9592 c63d f86f 473d
000002b0: 48e0 d6bd 1b6e fa3d c3d2 33be 0e09 d83d
000002c0: a4f7 a03d 6150 08be 76e1 083d a203 e73d
000002d0: e0c1 8bbe fd0e 1d3c 911b 163d 9b9f dd3d
000002e0: 4ad2 cf3b 864d 2d3e dc9b b43d ac33 a63d
000002f0: 5559 73bd 2d24 67be 66b6 6c3d a036 b3bc
00000300: f541 00be cb07 1fbe 1146 32be 35c0 f5bd
00000310: 5a60 68bd e646 abbd 5595 5abd b284 0bbe
00000320: 3a76 103d 1952 34bb dd97 593e 0226 8d3d
00000330: 9012 843b 885b e33c d15e 0e3e 1c5d bb3d
00000340: 3fa0 203c 2070 433e 9190 9b3c 6ab0 98bd
00000350: 37da bdbe f14b 70be 6759 a33d b1fd 3d3d
00000360: 9033 24be 933e 4939 011b fc3d c62d aabd
00000370: 60a8 b83d 47ee 0bbc ffde 663d c6b3 2e3d
00000380: 18f2 2c3e 7eee 6bbd a063 a2bc e2a0 74be
00000390: d217 c23d 069f 4c3c 6d6b 75bd 8985 843d
000003a0: 2ffa 82bc bcad 8abd 72af d2bd 5eac 2c3e
000003b0: 9691 173d 420c eeb8 4670 5cbd d82d 33be
000003c0: a43e 8b3d d95b cebc 23b0 63be 9986 933d
000003d0: 449b eabd 4746 3d3e cce2 d83d 9b6e 20be
000003e0: 37bb 6dba 3001 913d 3372 19be ef24 6fbd
000003f0: 5047 8b3c 4436 13be 6223 80bc ac41 003e

hidden_nets.0.bias f4 [128]
-0.029106122 -0.08625287 -0.096993625 -0.047241617 0.042981658 -0.028922569 -0.021293039 -0.033636156
-0.008785602 -0.1151037 -0.015272314 -0.038428877 -0.10300251 -0.012578567 -0.061964326 -0.013234837
-0.05300146 -0.02631365 -0.08906331 -0.038949806 -0.04699713 -0.11788708 -0.10181947 -0.0860298
-0.004098461 -0.007976051 -0.057160933 -0.060860123 -0.037964195 -0.017977387 -0.061709754 -0.0160462
-0.05063811 -0.040747136 -0.09493631 -0.02931682 -0.03865479 -0.017331129 -0.021679824 -0.11355313
-0.0794148 -0.07445806 -0.053066753 -0.0859546 0.019284422 0.015334354 -0.12402375 0.022879176
0.045457404 -0.09014882 0.08325367 -0.100124754 -0.026880505 -0.06125757 -0.017061625 -0.06267308
-0.09154552 -0.06480406 0.0010733892 0.029255329 -0.030830646 -0.08548547 -0.054410625 -0.10114112
-0.012235409 -0.055802397 -0.008654645 -0.08989991 -0.020227132 -0.019186039 0.0072376886 0.0034054937
0.042923503 -0.05855553 -0.05852859 0.01452034 -0.0077614137 -0.027165992 0.0 -0.08658575
-0.081359886 -0.050881207 -0.02502409 -0.08309336 -0.056568496 0.0 -0.014920366 -0.13644347
0.0055907806 -0.04035953 0.015136668 0.080216475 -0.03820375 -0.03591815 -0.020994252 -0.078497134
-0.050813757 -0.024127021 -0.05644502 0.005579882 -0.045659747 -0.052424267 -0.016901998 0.002346422
0.025517276 0.015918182 -0.04576812 -0.00542872 -0.116415255 -0.01571196 -0.057126794 -0.13194619
0.0062563336 0.049772356 -0.016607514 -0.09630487 -0.09745501 -0.046248194 0.0052392054 -0.08026161
-0.036621697 -0.09113616 0.019608514 -0.035229165 -0.021435201 -0.00013019174 -0.0036620533 0.021676028
00000000: f66f eebc 58a5 b0bd 98a4 c6bd 6d80 41bd
00000010: 890d 303d 06ef ecbc bd6e aebc 11c6 09bd
00000020: 7cf1 0fbc 7dbb ebbd ba38 7abc 9967 1dbd
00000030: fbf2 d2bd 5516 4ebc 4ece 7dbd eed6 58bc
00000040: 0f18 59bd b98f d7bc d366 b6bd d589 1fbd
00000050: 1080 40bd c86e f1bd ba86 d0bd 6430 b0bd
00000060: 624c 86bb fcad 02bc 9521 6abd 7748 79bd
00000070: 5880 1bbd 5045 93bc 5ec3 7cbd 5273 83bc
00000080: e869 4fbd 78e6 26bd f86d c2bd d429 f0bc
00000090: 7c54 1ebd 03fa 8dbc e399 b1bc 8b8e e8bd
000000a0: 3aa4 a2bd 787d 98bd 865c 59bd f708 b0bd
000000b0: 5dfa 9d3c f13c 7b3c 2a00 febd 1c6d bb3c
000000c0: 8b31 3a3d f29f b8bd e680 aa3d 350e cdbd
000000d0: 8134 dcbc 38e9 7abd d2c4 8bbc be5a 80bd
000000e0: 387c bbbd feb7 84bd f7b0 8c3a dfa8 ef3c
000000f0: 8d90 fcbc 0213 afbd addd 5ebd 1323 cfbd
00000100: 0677 48bc 0e91 64bd 36cc 0dbc 721d b8bd
00000110: 5fb3 a5bc 0a2c 9dbc 222a ed3b b42e 5f3b
00000120: 8ed0 2f3d ecd7 6fbd adbb 6fbd b8e6 6d3c
00000130: 7553 febb 378b debc 0000 0000 df53 b1bd
00000140: 03a0 a6bd d068 50bd 52ff ccbc da2c aabd
00000150: 5eb4 67bd 0000 0000 8d74 74bc d6b7 0bbe
00000160: de32 b73b 0950 25bd caff 773c 8948 a43d
00000170: 897b 1cbd e91e 13bd 23fc abbc 1bc3 a0bd
00000180: 1622 50bd 08a6 c5bc e532 67bd 71d7 b63b
00000190: b705 3bbd d4ba 56bd 0f76 8abc 6ec6 193b
000001a0: 9b09 d13c d966 823c 5a77 3bbd 67e3 b1bb
000001b0: 1f6b eebd 5eb6 80bc c9fd 69bd e71c 07be
000001c0: ee01 cd3b 19de 4b3d 7b0c 88bc 7d3b c5bd
000001d0: 7e96 c7bd bf6e 3dbd a4ad ab3b 3360 a4bd
000001e0: a200 16bd 98a5 babd 09a2 a03c 754c 10bd
000001f0: e098 afbc 1484 08b9 0fff 6fbb ed91 b13c
