hyperopt_results/lr_experiments/lr_0.0001/dqn_racing_episode_200.pth (torch, 454549 bytes, 36 tensors)

hidden_nets.0.weight f4 [128, 11]
00000000: aa92 e43d 8057 e1bb f025 46be ef56 bbbd
00000010: 38a5 a93c 102b 963d 3fb2 e43c fd09 bcbd
00000020: ea00 e93d 3459 f1bd 51df e73b c69c 803e
00000030: 6a16 823d 5682 79bd 05e3 d4bd 368b b63b
00000040: 38f7 99bc 8fd7 fbbd a501 9cbe 671c 34be
00000050: 59ef 67bd b7b2 4abd f172 f6bd abac 5bbe
00000060: 92a4 f5bd 809c abbd 8c46 2e3e e668 dbbd
00000070: 5731 8b3d b245 993c c3b1 08be 41d5 8abd
00000080: 39a5 5d3d d7db 01be 029c 13be fa0d 5abd
00000090: 15a7 86be db9d 1e3e b597 23be db8d ca3d
000000a0: f008 dabd 118d 8e3d 074c 813d 96c5 ca3d
000000b0: 24f1 f73d 1b14 543d adfb 53be 2890 69bd
000000c0: d62e 95be e928 1dbe ad57 7ebc 7ee4 80bd
000000d0: 0794 ea3b 1ce9 75bc a6de c7bd f521 8b3d
000000e0: ebc5 57be 4837 44be 3d9c bcbe d78d b03d
000000f0: fa7e 40be 0fff aebd c8b5 d0bd a61e dc3d
00000100: 1b14 5d3c 3fa6 d23d 21da 10be 3f49 eabb
00000110: 08ac 76be ee34 63bd a53e 4fbd bfc3 93bc
00000120: bcd0 9ebd 882d 88bd 03a5 0dbe d66c 40be
00000130: ed1f f0bd 4163 fdbd 2188 80bd 1385 60bd
00000140: 1d9b 0dbe 5f54 f0bd fe80 bf3d a559 cf3d
00000150: 621e 6dbd 4df7 093e ddda 72be e643 223d
00000160: cde0 28be 73ad 823b 301c c5bd 41ff aa3d
00000170: 6c4d 1abd b971 98be c6e7 1ebe a488 b6bd
00000180: 8725 f4bd e417 11be 45ba 2f3c 09cc 23be
00000190: 471e 9fbe d067 bd3d 4a91 833c 3de2 543e
000001a0: 2efc cf3b fe9a f2ba b0c3 76bc d4d4 1e3d
000001b0: 2a93 dcbd 2bda a23c 2ffb 61be 3208 fe3d
000001c0: db33 54be 0d1d 223d 94ed 81be 4760 e73d
000001d0: 19b1 86bc c056 9b3d 52a2 12be da87 b83d
000001e0: b8d1 003e 426a 22be 9e72 42be f920 3e3e
000001f0: 0e90 1dbe 39ad a83b 6ad8 0dbe b914 c9bd
00000200: 183c 77be bf14 813d 2c14 663d 073e dfbd
00000210: 87ac a5be 51fc 8dbd 21ed 853d fb57 58be
00000220: 6f0d 923b 2dc8 313d 80cd db3d 0ac4 3ebb
00000230: ebbf a13d 523e a23d a92e 14bd 364e 01be
00000240: 4304 60be b879 153e da07 983d 8fe3 223e
00000250: 1b40 1ebd 2666 febc fc70 89be af59 173e
00000260: fc1c 3bbd 1cd2 893d 2344 803e 6026 0abe
00000270: ec15 81bd 09e8 9e3c 6401 0f3e 6fb6 543c
00000280: c78e fabc e441 e6bd dc68 04be 8d0d 233e
00000290: b301 5e3c b7d2 6dbd 0c5d af3c cfbe 41be
000002a0: a17b aabd 79e7 3dbe f411 a63d c16c 063d
000002b0: e261 f7bd 1b6e fa3d 89ff 43be 7487 b73d
000002c0: d031 9b3c 0079 3abe 2b34 15ba 61f7 a23d
000002d0: c8f5 a0be 4327 363c 172c 293d 536e 8c3d
000002e0: 4ad2 cf3b 1ffb 043e a90b f53d a92e 8f3d
000002f0: f1a9 90bd 80f9 71be ffef 453d afd5 bebb
00000300: d919 0abe af33 14be 2d1a 3dbe 35c0 f5bd
00000310: af9a 82bd b29e 95bd 1a0f 54bd fa2a 43be
00000320: e432 163c bbdc 0fbd 079a 273e 6d2d a83b
00000330: 457b 8c3c 13d4 e8bc d15e 0e3e 303b 223d
00000340: 9b89 c33c f277 3e3e 90e0 da3c c7d5 d1bd
00000350: 72f9 f8be 0b7f 59be bdf3 093e e7c4 d4bc
00000360: 95ed 1abe 933e 4939 9891 1d3e bfc5 1abe
00000370: b742 ed3d b52f 55bd 2911 223d 1d6b f4ba
00000380: d1f9 033e 86f2 75bd e7f9 c2ba 0702 8fbe
00000390: d217 c23d dfd5 ffbb c563 30bd 67be 8e3d
000003a0: f2b3 80bd d4f7 a4bd 28d4 f4bd 8b17 fd3d
000003b0: 3180 2dbc 3210 17bc 89e1 cebd d82d 33be
000003c0: f414 363d b400 96bc b909 a1be cdb3 853c
000003d0: d06d 04be 1229 023e d477 2d3d 8d56 83be
000003e0: e36e 7b3c 148e 893c 3372 19be 527e 84bd
000003f0: 3a9c 6e3c fbcb 33be eb49 b3bd e148 943d
0.111607864 -0.006876886 -0.1935041 -0.09147441 0.020708665 0.07332432 0.027917026 -0.091815926
0.113771275 -0.11784592 0.007076182 0.2511961 0.063519314 -0.060915314 -0.10394863 0.0055707945
-0.01879464 -0.12296974 -0.30470005 -0.1758896 -0.056624744 -0.049486842 -0.12033642 -0.21452586
-0.1199428 -0.083794594 0.17019099 -0.10713367 0.0679652 0.018709991 -0.1334906 -0.06778956
0.054112647 -0.12681518 -0.14414981 -0.053235985 -0.26299348 0.15489905 -0.1597584 0.09890338
-0.10646236 0.069605 0.06313329 0.09900968 0.12106541 0.051776987 -0.20701475 -0.057022244
-0.29137295 -0.15347637 -0.015523833 -0.062935814 0.0071587595 -0.015009191 -0.09759264 0.06793586
-0.21071593 -0.19161713 -0.3683795 0.08620804 -0.18798438 -0.08544742 -0.10190922 0.10748033
0.013493563 0.10285615 -0.1414571 -0.007149845 -0.24089062 -0.0554704 -0.05059685 -0.018037675
-0.07754657 -0.066493094 -0.13832478 -0.18791518 -0.11724839 -0.12372447 -0.062759645 -0.05481441
-0.13828702 -0.117348425 0.09350775 0.1012452 -0.057890303 0.13473244 -0.23716302 0.039615534
-0.16492005 0.003987962 -0.09624517 0.08349467 -0.03767149 -0.29774264 -0.15518102 -0.08912781
-0.1192122 -0.1416927 0.010725562 -0.15995802 -0.31077787 0.09248316 0.01606049 0.20789428
0.006347201 -0.0018509326 -0.015061304 0.038777187 -0.10770257 0.019879421 -0.22068475 0.12403907
-0.20722906 0.039578486 -0.2537657 0.1129766 -0.016441869 0.075849056 -0.14319733 0.09010287
0.12580001 -0.15860847 -0.18989035 0.18567266 -0.15386984 0.005147603 -0.13852087 -0.09818406
-0.24144018 0.06302785 0.05617158 -0.10900503 -0.3235819 -0.06932891 0.065393694 -0.21127312
0.004457168 0.043403793 0.107325554 -0.0029108548 0.078979336 0.07922043 -0.03617731 -0.12627491
-0.21876626 0.14597213 0.074233726 0.15907119 -0.038635354 -0.031054568 -0.26844013 0.14780305
-0.04568194 0.06729528 0.25051984 -0.13491201 -0.063030094 0.019397752 0.13965374 0.012982949
-0.03058566 -0.112430364 -0.12930626 0.15923138 0.01355021 -0.05806228 0.021406673 -0.18920444
-0.083243616 -0.18545331 0.08108893 0.03281856 -0.120792165 0.12228032 -0.19140448 0.089613825
0.01894465 -0.1821022 -0.00056916726 0.0795734 -0.31437516 0.011117759 0.041301813 0.0685698
0.006342207 0.1298642 0.119651146 0.069913216 -0.07063664 -0.23630333 0.04832458 -0.005823813
-0.13486423 -0.1447284 -0.18467017 -0.11999551 -0.0637716 -0.07305659 -0.051772214 -0.19059363
0.009167407 -0.035122614 0.1636735 0.0051323683 0.017148623 -0.028421437 0.13903357 0.039607227
0.023869326 0.18600443 0.026718408 -0.10245853 -0.48627812 -0.2123987 0.13471885 -0.025972797
-0.15129693 0.00019192164 0.15387571 -0.15114497 0.115849905 -0.05204745 0.039567146 -0.0018647645
0.12888266 -0.06004574 -0.0014875502 -0.27931234 0.094771996 -0.007807478 -0.043063898 0.0696991
-0.06284322 -0.08055082 -0.11954528 0.12358006 -0.010589645 -0.00922017 -0.10101611 -0.17497957
0.044453576 -0.018310882 -0.3145273 0.016321087 -0.12932515 0.1271098 0.042350605 -0.2565197
0.015346262 0.016791381 -0.1498497 -0.06469406 0.0145636145 -0.17558281 -0.08754333 0.07240463

hidden_nets.0.bias f4 [128]
00000000: e794 8fbd ba5b 0ebe 4fab 2ebe 3551 0bbe
00000010: 6504 9b3c 27a2 8cbd 2d41 76bd b55d 60bd
00000020: e401 c7bc e4ef 4cbe b4dc 303a a9a1 4abd
00000030: ce2c 0fbe e956 dabd 72de d0bd eb71 eebc
00000040: 45bd bdbd 5018 17bd 7cb9 14be 8be2 f4bc
00000050: 6106 b3bd e50b 29be 3292 1fbe e2e6 22be
00000060: 465c 1dbd e7cf 153d 06f7 02be c59f e3bd
00000070: 5a7e 4bbd bbd4 f0bb 6fc6 e7bd 5354 a8bc
00000080: e9f2 1fbd 0ab0 97bd 990f 4bbe 3cb9 b2bd
00000090: e3a1 28bd a870 8bbd 1a21 09bd 3243 65be
000000a0: f76b bebd 5b54 18be 095b ebbd 1722 07be
000000b0: f923 6a3d 260b 703b 820b 5abe a1cd 483d
000000c0: c360 a83d e091 01be bce3 0a3e bd64 25be
000000d0: 8134 dcbc a79a 94bd bc97 4f3d 7b40 9bbd
000000e0: 72d9 32be 3079 35be f7b0 8c3a 3ae0 d23d
000000f0: 6de5 9dbd 41fe 1dbe 9a9e c5bd cee4 41be
00000100: 0677 48bc 0e91 64bd ecb4 cd3c ae08 24be
00000110: 31c5 0f3c b77e 39bd 19ac 8ebc 7130 b53c
00000120: 4114 46bc 0017 02be ff85 eebd fd9d 223b
00000130: 72b9 92bc bb38 d9bd 0000 0000 a90e 22be
00000140: dbcf 07be 6255 6fbd 2b8d eebc d7ad 0fbe
00000150: 7095 c5bd 0000 0000 8d74 74bc f474 3bbe
00000160: 67f9 3c3d 1bfd 0abe 7159 1a3d 4d30 043e
00000170: 97da e3bd 2f73 99bd 1533 d63c da03 09be
00000180: 954f 293d 614a 44bd ecc7 e4bd a54d 0cbd
00000190: fdee 76bd 6102 80bc 0f76 8abc a031 40bd
000001a0: 27b9 dd3d f74f 453d 6d62 10be 2299 2abd
000001b0: 5aa9 25be 1784 bbbd 4667 99bd 3cc4 55be
000001c0: 866c 78bd 4838 873d 1f6d e9bc acea 05be
000001d0: a520 23be 3f5c a9bd 9270 48bc b382 fabd
000001e0: 971c 30bd bc95 03be 4934 25bd 01d7 9dbd
000001f0: 14c6 1bbc d4a7 6abb 94f9 81bd c02d 853c
-0.07010823 -0.13902178 -0.17057537 -0.13605197 0.018922994 -0.068668656 -0.06012075 -0.054776866
-0.024292894 -0.20013386 0.00067467545 -0.049470577 -0.13981935 -0.10661108 -0.10198678 -0.029107055
-0.09264616 -0.03688842 -0.14523882 -0.02989318 -0.08741451 -0.16508444 -0.15583113 -0.15908387
-0.038418077 0.036575224 -0.12789544 -0.11114458 -0.049681045 -0.007349578 -0.11317145 -0.020548021
-0.039050017 -0.07406624 -0.19830169 -0.08726737 -0.041170012 -0.06808597 -0.033478834 -0.22388914
-0.092979364 -0.14875929 -0.11491973 -0.13196598 0.057163212 0.0036627739 -0.21293452 0.049024228
0.08221581 -0.12653303 0.13563436 -0.1615171 -0.026880505 -0.0725606 0.050681815 -0.07580658
-0.17465761 -0.1772201 0.0010733892 0.10296674 -0.07709775 -0.15429021 -0.096493915 -0.18934938
-0.012235409 -0.055802397 0.025110684 -0.16018936 0.008775041 -0.04528686 -0.017416047 0.022117825
-0.01208979 -0.12704086 -0.116466515 0.0024813407 -0.017910693 -0.106065236 0.0 -0.15825905
-0.13262884 -0.058431037 -0.029120049 -0.14031158 -0.096476436 0.0 -0.014920366 -0.18306333
0.046136286 -0.13573115 0.037682954 0.1290905 -0.11125677 -0.07492673 0.026147405 -0.13380376
0.04133566 -0.047922496 -0.111709446 -0.034253735 -0.06028651 -0.015626134 -0.016901998 -0.046922326
0.10826331 0.048171964 -0.14100046 -0.041649945 -0.16177884 -0.091560535 -0.07490401 -0.20875639
-0.06065037 0.06602532 -0.028494416 -0.13077801 -0.15930422 -0.08269548 -0.01223387 -0.1223196
-0.042996015 -0.12850088 -0.040333066 -0.07707024 -0.009507675 -0.00358056 -0.063464314 0.016257167

hidden_nets.1.weight f4 [128, 128]
00000000: 8270 57bd d1a9 13bd 4dac 683d aa7f debd
00000010: 5504 d03c f76f 1cbe abdb 773d 9def 20be
00000020: fd6a 983e 549e 893d 4b3d d13d d149 2ebe
00000030: 27de 103c a1e7 98be 5b84 3e3e c30b adbc
00000040: 99ea 19be 60af 36bd 5591 0abe 8fae e53d
00000050: 206c d0bd 6f61 0ebd 61a7 053d f62a e9bd
00000060: 79a8 2abe 1b8d 87bd d8d4 bdbd 9bf7 94bc
00000070: 8c37 bcbc 6ba5 abbd d513 643e 2ef3 d939
00000080: 72e3 2fbd 5aa5 17be ea5e b33d bf2a e8bd
00000090: c6f2 193d 492f c0bd 01d5 c93d 8ea3 dd3c
000000a0: 2edc 20be 67b1 2bbd afa3 c23d 09c5 c03d
000000b0: 4fa4 43be 55c2 38be b84f 1f3c 03ba c3bc
000000c0: 41ff 2a3d 47bc 5bbd 7805 443e aa1d 123e
000000d0: ce13 023e 0233 2dbe 6066 debc 6e77 f9bd
000000e0: c6dc febd 1cc6 c3bd 373b 1a3e bdb9 503c
000000f0: abdd 613d f809 903d 1bb8 cb3b 93a8 1cbe
00000100: 43ff 153e f1ae 893d 388b d23c 098a 2cbe
00000110: 74a3 9c3c 713b acbd c9ac 123d bc1a 24be
00000120: b4b8 09be 15b4 873e a6ff 8cbd 3107 4d3d
00000130: 145b 033e 8859 323c bd65 f43d 994f 02be
00000140: 2fa8 37be b65a ccbd f4bd 463d 5343 e8bd
00000150: dcb0 01be e446 43bd bb98 b43d 153e 433e
00000160: dfe2 14be 717b 863c d6ba a3bd 51a2 afbc
00000170: 8f4f 883d 587f cfbd a315 b83c 230f d6bd
00000180: a1e7 2cbd ec36 c73d dfd4 52be c58d adbd
00000190: 2c25 16bd 403c 8f3d e8af 17bd b748 35be
000001a0: 31f3 0f3e 3c60 66bd 82da 2ebe 565c 073b
000001b0: 17c5 b93c 8a97 1abe 619d 283e b3c3 57be
000001c0: f3dd cebd 4a6c 77be 9e14 99bd e728 213d
000001d0: bf25 80bd 571a 79bc 7f95 123e ba4c b0bc
000001e0: fb57 2d3d 4e94 00be 0b1a 9a3c c88b cebd
000001f0: cbe7 173e f20a 003d 903c 57bd 1dd9 3b3e
00000200: 9b9e 073d a441 7a3e 1590 c73d 6248 88bd
00000210: cb18 8abe c5a9 9e3c 8736 3fba c0ea 2a3e
00000220: a3f8 e8bd 54bd acbd a1df cbbd dd79 61bc
00000230: 767d 2cbe b13d 0a3e f3e8 27bc 0775 113e
00000240: d3a1 48be 179c e1bd 53a5 ad3b 9a3c d2bd
00000250: 28c6 6b3c d071 ef3d cb59 bc3d 91d8 0dbc
00000260: 1552 81be dea0 a7bd 57d7 5cbd e08c a4bd
00000270: ae7c f83d 8f6a 2dbe 56b1 d5bd 9697 3bbd
00000280: 57e7 babd ad9b c9bd 5433 a93d ae4f f93c
00000290: 1e51 513c b716 cfbd e769 01be eba5 01be
000002a0: b7db bcbd d052 a93c 22da 4c3e a20d 313d
000002b0: 8a9f 6abe 1576 a5be 8c05 a23b f8ff a1be
000002c0: 0a61 95be 9488 6fbd f76b 88be 58a9 b3bc
000002d0: d3fc 83bd 2af8 d03c 2420 e0be 1933 b2bc
000002e0: 5ace 18be 2d83 6ebc 922e 1c3e 477a 01be
000002f0: 0d2c 993d ed76 1abe 3ed8 2a3e 16c3 77bd
00000300: 6d5d 143e d4ff 0abe 5788 f5be ea34 e8bd
00000310: d502 96be 69d8 94bd e67f 98bd 718b 37bd
00000320: 2503 5ebd 9e59 c3bd 4bea a63d 2bba 323c
00000330: 7f05 e7bc 49d0 bdbd 1696 6e3d 3089 043e
00000340: b22a 22bd 371e dabd ce5f 8dbd 5370 e8bd
00000350: fc56 f2bd e0cd 0e3e 1f1f 29bd 6d63 8bbd
00000360: d320 8a3e 3c1c cabd 9788 3cbe 8847 c7be
00000370: 4503 a13c 25be 17be 925a 943c 0ddc 7d3d
00000380: 93df 1b3e 6e7c 58bd a132 d1bc 5ddc 9cbe
00000390: 97d3 8bbe 2b53 863c 0273 ebbb 4b91 77be
000003a0: a1f8 eabd dfd9 aabe dd11 afbb 0600 1bbd
000003b0: ca5b d5bd bf85 cabd f30e 9c3b 71a3 ae3d
000003c0: 5f2e debd a0b5 f5be 38aa f0bb 49d7 f4bd
000003d0: 69d5 043e 64e3 77be 6dcd 07be e013 1b3d
000003e0: 5cd3 e0bd ad12 1cbe 5c7e 353d 5498 82bd
000003f0: 294c 22bd 5162 04be 2529 ac3d 5884 c2bc
-0.05259753 -0.03605062 0.056804944 -0.10864194 0.02539269 -0.15277086 0.060512226 -0.15716405
0.29769126 0.06719652 0.10216769 -0.17020346 0.008842028 -0.2986422 0.18605177 -0.021123772
-0.15030898 -0.044600844 -0.13532002 0.11214935 -0.10176873 -0.03476089 0.032630328 -0.11385147
-0.1666583 -0.066187106 -0.09269112 -0.018184474 -0.022975706 -0.0838116 0.2227319 0.00041570648
-0.042941518 -0.1480917 0.08758338 -0.11336278 0.037585042 -0.09384019 0.098550804 0.027055528
-0.15708992 -0.04191723 0.095038764 0.094125815 -0.19105648 -0.18042882 0.009723596 -0.023892408
0.041747335 -0.053646352 0.19142711 0.14269128 0.12702867 -0.16913989 -0.027148426 -0.121809825
-0.12444453 -0.09559271 0.15061651 0.012739596 0.05514304 0.070331514 0.0062170154 -0.15298681
0.14648156 0.067228206 0.02570115 -0.16849531 0.01912091 -0.08409775 0.035809312 -0.16025823
-0.13449365 0.2650458 -0.068846986 0.050055686 0.12827712 0.010885604 0.119334675 -0.12725677
-0.1793525 -0.09978239 0.048520997 -0.11340966 -0.12665123 -0.04767503 0.088181935 0.19066651
-0.1453967 0.016416283 -0.079946205 -0.021439703 0.066557996 -0.10131711 0.022471255 -0.10452106
-0.042213086 0.097272724 -0.20589016 -0.08474306 -0.036656544 0.06993914 -0.03703299 -0.1770352
0.14057614 -0.05624412 -0.17075542 0.0020654402 0.022676988 -0.1509687 0.16466285 -0.21070747
-0.10100927 -0.24162403 -0.074746355 0.03934565 -0.062571995 -0.015204034 0.1431484 -0.021520961
0.042320233 -0.12556574 0.018811246 -0.10085255 0.14834516 0.03126044 -0.05254799 0.18344541
0.033110242 0.24439102 0.09744278 -0.06654431 -0.2697204 0.019368062 -0.0007294197 0.16691113
-0.11375549 -0.08434549 -0.09954763 -0.013761965 -0.16844735 0.13500096 -0.0102484105 0.14204799
-0.19592981 -0.110161 0.005299249 -0.10265465 0.014390506 0.1169163 0.09196814 -0.0086575905
-0.25257936 -0.0818498 -0.0539163 -0.08034682 0.12133156 -0.1693518 -0.10434215 -0.04579886
-0.09126156 -0.09844146 0.08261743 0.030433502 0.0127756875 -0.101117544 -0.12638055 -0.12660949
-0.09221595 0.02066937 0.20005086 0.043225892 -0.22912422 -0.32316652 0.004944509 -0.316406
-0.29175597 -0.05847986 -0.2664487 -0.021931335 -0.06444707 0.025508959 -0.4377452 -0.02175288
-0.14922467 -0.014557642 0.1525214 -0.12644301 0.07479105 -0.15084429 0.16684052 -0.060488783
0.14488764 -0.13574153 -0.47955582 -0.113382176 -0.29299036 -0.072678395 -0.0744627 -0.044810716
-0.054202218 -0.095385775 0.081501566 0.010908644 -0.028200863 -0.09268243 0.0582486 0.12942958
-0.0395915 -0.10650294 -0.06903039 -0.11349549 -0.11832997 0.13945723 -0.041289445 -0.06806073
0.26978168 -0.098686665 -0.1841148 -0.38921762 0.01965488 -0.14818628 0.018109594 0.061977435
0.15222006 -0.05285304 -0.025536837 -0.30636874 -0.27309868 0.01639708 -0.007185341 -0.24176519
-0.114732035 -0.33369347 -0.0053427056 -0.03784182 -0.10417898 -0.09888791 0.0047625243 0.08527268
-0.10848688 -0.4799013 -0.0073445104 -0.11955125 0.12972035 -0.24207836 -0.13261957 0.03786075
-0.109778136 -0.15241499 0.04430996 -0.063767105 -0.039623413 -0.1292813 0.08406285 -0.023744747

hidden_nets.1.bias f4 [128]
00000000: cc01 aebd 98be ef3d 5ef2 153e 8e06 253e
00000010: 9590 a33d 62cb af3d d345 513d ccc0 abbd
00000020: 1f4f 1b3e 5867 1e3e 1369 0b3e fb80 8d3d
00000030: 39ad e63d ed4c d73d 2bf4 fc3d d5b9 033e
00000040: aec2 553d cd62 f33d b9b1 c9bd ff90 f53d
00000050: 9dfd f83d f530 033e 8b44 063e f826 f13d
00000060: b678 0d3e 9fa5 8cbd 21b3 e73d a2eb ec3d
00000070: be5f f93d 89e0 8c3d 9a85 d03d 5ce6 e9bd
00000080: d15d b0bd aef9 be3d a42e 123d ac35 c4bd
00000090: 7980 143e d962 8a3d a477 003e d8c7 0b3e
000000a0: 107f 083e 6e1c b5bd 59e2 0d3e 4f4d ce3d
000000b0: 7dc6 ec3d e636 e63d 8e40 063e 0b7a df3d
000000c0: ccc3 013e 5fc8 e5bd c455 9d3d 2d88 173e
000000d0: 2706 f53d 90ad 053e 39e5 283d 2ff6 d13d
000000e0: 7291 0c3e 2bd2 073e 53e5 0b3e 06e1 0a3e
000000f0: 03ff 963d 92da bf3d 8d6a 103e 81ef ac3d
00000100: ffcd f3bd 711d 273e 505c a9bd 029e e0bc
00000110: ddd6 2ebd 9785 183e d336 143e 4c63 00be
00000120: c353 303d 1bc8 213e f45f 183e 4781 a03d
00000130: df25 e13d 3201 f13d 284a d63c c7da d53c
00000140: 8790 ef3d dcd5 f53d 2eea 293e 5f09 e6bd
00000150: bb92 d63d 094d 023e 255e d03d 4a11 cbbd
00000160: a57a b83d 6845 c53d 3421 bc3d 04ed 053e
00000170: 6a09 e53d 75a2 c2bd 94b3 df3d 497e f93d
00000180: ec4d ce3d 1e5a 043e 6bbd 91bd 093d a83d
00000190: 21f2 e83d 8c68 e13d 471d 203e 0932 f33d
000001a0: 03e6 ea3d 0b6b a43d 1603 f63d 84a7 dd3d
000001b0: 71c5 a7bd 28af 073e 750f 033e e39a 2abd
000001c0: 1258 f03d 837a fbbd eab9 013e 12a2 c4bd
000001d0: 9c56 0f3e 6192 293e 7005 84bd c7c6 d83d
000001e0: 761b 0e3e 0b5b 573d 83a5 2d3d 4629 213e
000001f0: a679 133e fa75 003e ae6d 093e dd9f 98bb
-0.084964365 0.11706275 0.14643237 0.16115782 0.07986561 0.08583714 0.05109198 -0.083863825
0.15166901 0.1546911 0.13614301 0.06909367 0.11263508 0.10512719 0.12351259 0.12863858
0.052187614 0.11884079 -0.09848351 0.119905464 0.12157748 0.12811644 0.13112085 0.11775011
0.13815579 -0.06867527 0.11313463 0.11568381 0.121764645 0.06878764 0.101817325 -0.11420891
-0.08611644 0.09324966 0.03568901 -0.095805496 0.14502133 0.06757135 0.1254564 0.13650453
0.1332972 -0.08843313 0.13855876 0.10073339 0.11561296 0.1124094 0.13110563 0.1091195
0.12672347 -0.112198584 0.07682374 0.1479804 0.11964064 0.1305449 0.04123423 0.10252034
0.13727358 0.13263766 0.13661699 0.13562402 0.073728584 0.09367861 0.14103146 0.08444119
-0.11904525 0.16319825 -0.0826956 -0.027419094 -0.04268538 0.1489471 0.14474039 -0.12537879
0.04304863 0.1579899 0.14880353 0.07837158 0.109935515 0.11767806 0.026158407 0.026105298
0.11697488 0.12003681 0.16593239 -0.11232256 0.10477205 0.12724699 0.10174207 -0.09915407
0.090077676 0.09632379 0.091860205 0.13078696 0.11183436 -0.095036425 0.10922924 0.1218229
0.10073456 0.12925002 -0.07116207 0.082147665 0.113743074 0.11006269 0.15636168 0.11874778
0.114696525 0.08028229 0.12012307 0.10822967 -0.08191956 0.1325041 0.12798865 -0.041651618
0.11735548 -0.12279227 0.12668577 -0.09601225 0.13997883 0.16559745 -0.064463496 0.10584789
0.13877663 0.05257706 0.042394172 0.15738401 0.14401874 0.12545004 0.13420746 -0.004657729

hidden_nets.2.weight f4 [64, 128]
00000000: 2a62 35bd fd0c de3d 02c7 f5bd bf03 1b3d
00000010: 8025 d93d fd37 c2bd 8d57 aabd 45d7 7c3e
00000020: 3fc3 39be 6856 093e f092 453e 75b7 373c
00000030: 5d58 24be cb31 8b3d ccaf cbbd 90dc c7bb
00000040: 1101 e9bd 8e93 5fbc 062b 1ebd 6210 253e
00000050: 8a6f cd3d 8dfb 853d 69ee 9bbd 45df d33d
00000060: ee2a 983d 4d6b 7e3e c92f 303e e5ae b6bc
00000070: b61a 923d c0b1 853e 78e1 983d 1890 8dbd
00000080: d34d 4a3c 5cec 513d 87ca 67bc 1585 ed3d
00000090: df94 033e c706 a83d bdbf 29be b0ea 41be
000000a0: 51cb 073e d3ba ea3d 160d 413e 4637 1dbe
000000b0: 91de a93e 1738 773e 7587 173d f72c fabd
000000c0: 1cb2 28be 32a3 313e 6cd5 9bbe 3c23 2c3e
000000d0: 2654 b73e 11b4 5c3e a828 7c3e 8d24 adbc
000000e0: 1028 5a3d c874 fbbc 4383 9abd 767a a1bc
000000f0: a49b 863e 979b e6bd 5bd7 373e cff9 223e
00000100: 2bbc cfbc 25e7 8f3e df71 36bd ae0c 633e
00000110: e7e3 9c3c 98fd b83c 6097 8abe c89f 6bbd
00000120: 98be 87bd bedc 9a3e 0a29 40be 9e55 813e
00000130: 1662 d33d ccba f73d e968 a23d 3777 9c3e
00000140: 6b19 1a3d d479 7c3d feaf 703e c5b3 d7bc
00000150: 4d96 4bbe e96b 19b9 9f56 27be 2df7 a83d
00000160: 3dd5 af3e 6534 19be d5ca 523e 0c22 a7bb
00000170: af32 47be 32f6 8fbd fe1f 1dbc 012a f53c
00000180: d91a 9e3e 3fd2 54bd 6225 76bd 9a6e 3ebe
00000190: 26a6 27bd fb47 81be a2a0 a73d f002 923d
000001a0: 41b9 4b3d 4fb8 e9bd 5f60 e1bd fbea bf3d
000001b0: a85c bc3d 850f 173e 0f32 6bbd fe08 02bd
000001c0: ef0f ff3b 0b78 363e afd7 23be dcfe a73d
000001d0: 95cc bbbd 72b4 363e 1576 d9bc ddc5 3abe
000001e0: 8438 a5bd 48d2 4f3e 5534 17bd 4843 283e
000001f0: 131c 853e 9526 8dbe 065a 31bc fb5c 983e
00000200: 22df 0ebe 01e3 043e 449c 94bd 0096 2abd
00000210: 6591 383e 2ed0 c5bd 72da f23d 2a66 253c
00000220: b133 e13d 08ea f2bd 8b95 2abd df22 b9bd
00000230: 092d 62bd de63 12be 43a1 f1bd 06bf 3cbc
00000240: 60db 88be 23bb 08be 053e 343e 1c48 68bb
00000250: 7a23 89bd 4a4d b2bb 9b3e 07be fd90 8fbe
00000260: e32c a9bd b07a 533e 99ab 5bbc ffa1 b5be
00000270: 8b6c e63d c352 083d 4c80 233e aeb7 d63d
00000280: 9c4b 1e3e 4167 243d f8ae b4bd 8553 cd3d
00000290: ad78 9e3d ee16 d5bd fa32 bbbc 195a cfbd
000002a0: c0ea 6fbd caf0 24bd 8609 5f3b fcf9 39be
000002b0: 5887 dabc 7aa2 383d 2f4d b33d d585 30be
000002c0: 8513 ebbc 6741 dc3c 610f e73d 7b16 cabd
000002d0: f369 aebb 73f9 15be d438 533d 0f0a 42be
000002e0: cfa4 363c 1b53 ee3c 181a 05be c015 323d
000002f0: 1218 823c 1b9c 7cbd 8c3f d7bd bf94 37bd
00000300: 2eaa c63d b204 29bd e5ec 5e3d c212 ac3c
00000310: b9c6 493e 296e ecbc 7168 3fbc ff06 06bc
00000320: d118 b63c 0a64 9c3c 6e84 f73c b15f 69bd
00000330: 0e21 dd3d 8296 39bb b381 0b3d a4ef 0f3e
00000340: 08f4 f53a 4a18 f83d ee6e 86bd 92f1 463d
00000350: 789a d8bb b631 94bd b521 8bbd 4c66 263d
00000360: bf82 4b3e 4a1c 433b 9013 9dbd cc12 263d
00000370: 6954 ba3b a9f3 553e 2932 aebd 81a0 16be
00000380: ee7c 2e3d e44b 6fbd d532 3cbe 8232 71bd
00000390: 1b94 36ba 3590 7abd e638 c53d 17ae 6fbd
000003a0: 3c4a d2bd ca61 e2bd dc3b d93d abc2 42be
000003b0: 6f4a a5bd ddb9 8fbc ff34 f0bc 39c4 1d3c
000003c0: 1c2a 51bd 0bfe ba3c 9ff2 f93c b029 673d
000003d0: a071 8cbd 839c 20be 8d50 243e decc e23b
000003e0: c0e6 3ebe c48d 5e3e e863 87bd 8a83 0cbd
000003f0: d35f a4bd 0dc4 1cbe 3bf2 2bbe 2d44 f9bd
-0.04428307 0.10842321 -0.12000848 0.03784537 0.10602856 -0.09483335 -0.0831748 0.24691494
-0.18140887 0.13411868 0.19294333 0.011213173 -0.16049333 0.06796607 -0.0994564 -0.006099291
-0.113771565 -0.01364602 -0.03861525 0.16119531 0.1003104 0.0654212 -0.076138325 0.1034532
0.07430063 0.2484562 0.17205729 -0.022300193 0.07134001 0.26112175 0.0746488 -0.06912249
0.012347656 0.0512508 -0.014147407 0.11597649 0.12849759 0.08204418 -0.16577049 -0.18937182
0.13261153 0.11461415 0.18852648 -0.15353116 0.33177617 0.2414249 0.036994416 -0.122156076
-0.16474193 0.1734741 -0.30436265 0.16810316 0.35806388 0.21553065 0.24624884 -0.021135593
0.053260863 -0.030695334 -0.075445674 -0.019711714 0.2629062 -0.11260145 0.17953245 0.15915607
-0.02535828 0.28106037 -0.04454219 0.22172806 0.019151641 0.02258186 -0.27068615 -0.057525426
-0.0662815 0.30246538 -0.18765655 0.25260633 0.10321443 0.120961756 0.07930166 0.30559704
0.037621897 0.06163962 0.23504636 -0.026330838 -0.19881554 -0.00014631417 -0.16341637 0.0825027
0.34342375 -0.14961393 0.20585187 -0.0051004943 -0.19452928 -0.0702938 -0.009590147 0.029927256
0.30879858 -0.05195832 -0.060094245 -0.18596879 -0.040929936 -0.2525023 0.08184935 0.071294665
0.04973722 -0.11412107 -0.110047095 0.09370991 0.0919736 0.14752014 -0.057420786 -0.031746857
0.007783882 0.1781923 -0.16000246 0.082029074 -0.0916988 0.17842272 -0.026545564 -0.18239541
-0.0806742 0.2029506 -0.036915142 0.16431916 0.2599798 -0.27568498 -0.010824686 0.29758438
-0.13952306 0.1297722 -0.07256368 -0.041646957 0.18024214 -0.09658848 0.118580714 0.010095159
0.109961875 -0.11861044 -0.04164652 -0.09039854 -0.05521873 -0.14295909 -0.11798336 -0.011520153
-0.2672987 -0.13352637 0.17601784 -0.003544337 -0.0669622 -0.0054413425 -0.13207476 -0.28040305
-0.082605146 0.2065227 -0.013407611 -0.35475156 0.11251172 0.033282053 0.1596691 0.10484253
0.1545853 0.040137533 -0.08822435 0.10025696 0.07737861 -0.10404764 -0.022851456 -0.10124607
-0.058573484 -0.040268697 0.0034032776 -0.18161768 -0.026675865 0.045076825 0.08754956 -0.17238553
-0.028695831 0.026886655 0.1128223 -0.09867569 -0.0053226887 -0.14645939 0.051567867 -0.1894915
0.011147692 0.029092362 -0.12998235 0.043477774 0.015880618 -0.06167231 -0.105101675 -0.04481959
0.09700428 -0.041264243 0.05442514 0.021005038 0.19704713 -0.028861122 -0.011682616 -0.008180379
0.02222863 0.019090671 0.030214515 -0.056976024 0.1079732 -0.002831847 0.034059238 0.1405626
0.0018764744 0.12114008 -0.06564127 0.048570223 -0.006610211 -0.07236044 -0.067935385 0.0406249
0.19874094 0.00297715 -0.07669747 0.04054527 0.005686332 0.2089373 -0.08505661 -0.14709665
0.04259961 -0.058421984 -0.18378766 -0.05888606 -0.00069648185 -0.061172683 0.09629993 -0.058515634
-0.10268065 -0.11053808 0.106071204 -0.19019572 -0.08070838 -0.017544681 -0.029322146 0.009629303
-0.05106555 0.022826215 0.030511199 0.05643624 -0.0685761 -0.15684704 0.16046353 0.0069213947
-0.18642712 0.21733767 -0.066108525 -0.034305133 -0.080260895 -0.15309162 -0.16791622 -0.121712066

hidden_nets.2.bias f4 [64]
00000000: 6ecd 703e 7762 9f3b 57c6 823f c9fd 733f
00000010: f6ca 7d3f dd46 7b3f 3cd0 b2bb e9b2 6f3f
00000020: 5fc1 acbd aa9f 5e3f 923d afbb 445b 6f3f
00000030: 163a e83e 10ee 30bd 33bf 053f c571 753f
00000040: 9d52 613f 4566 9bbd 2773 603f 4995 2f3f
00000050: 7cda b6bd 7ebb 80bc ac6f 703f 49b1 86bc
00000060: e7fa 21bd ba01 6f3f dcc0 773f f431 7e3f
00000070: 9080 7d3f a84b 9cbd 9a1a 713f 0297 753f
00000080: 2500 7e3f d93e 83bd 60b3 593f f22b 6b3f
00000090: a0b0 853f d255 753f d1e4 85bd 65fd 6d3f
000000a0: 6226 203f 2d3e 6f3f b1dc 2939 a339 743f
000000b0: 9d80 803f 993f c4bd e5e6 a7bc 90fa 743f
000000c0: b9cf 593f 9c67 743f c143 793f cb06 803f
000000d0: 52f1 1cbd e438 0cbd 677b 803f 4ead 7a3f
000000e0: 17cd 763f 20f0 bcbc e618 623f 2a77 5d3e
000000f0: 1b12 84bd 1e13 55bd c38b 1dbd 98a6 46bd
0.23515865 0.004864033 1.0216779 0.9530912 0.9913782 0.98155004 -0.0054569524 0.9363237
-0.0843532 0.8696238 -0.005347916 0.93498635 0.45356816 -0.043195784 0.5224487 0.95876724
0.8801668 -0.07587866 0.8767571 0.68587166 -0.08928391 -0.015714403 0.939204 -0.016441958
-0.03954592 0.9336201 0.96778655 0.9929497 0.99024296 -0.07631618 0.94181216 0.95933545
0.9921897 -0.064084716 0.8503933 0.9186393 1.0444527 0.95834076 -0.06537784 0.92964774
0.6255857 0.9345425 0.0001619931 0.95400447 1.003925 -0.09582443 -0.020495841 0.9569483
0.85082585 0.95470595 0.9736901 1.0002073 -0.03831608 -0.034233943 1.003766 0.9792069
0.9640669 -0.02306372 0.8831924 0.21627489 -0.06448766 -0.052020185 -0.038463365 -0.04849872

value_stream.weight f4 [1, 64]
00000000: 4c0d 7c3e f15b 27be ad43 f43e 3e8c 163f
00000010: 5bed 003f 6b16 273f 34d4 7cbe c1a3 213f
00000020: 0f2a 6cbd fbb3 293f 2e0d 54be 49f8 373f
00000030: 4018 f63e 1a68 85be 918f 053f abca 1f3f
00000040: 0177 043f 542e 9dbd 29e7 023f 1ac9 f93e
00000050: 437f e8bd 2db1 4ebe 2295 383f 2b38 47be
00000060: bf31 fabd 9b27 2c3f 130b 2d3f e6d8 203f
00000070: e94c 163f e8ad 3dbe d16b 053f 78dd 1c3f
00000080: ddb9 0b3f 85a6 f9bd 0a91 293f 3488 223f
00000090: 2be4 f13e f856 253f 34b4 2abe 303a 2e3f
000000a0: dc6f f63e d6dd 2e3f bd57 6dbe 7996 343f
000000b0: 1c5f 1d3f c8e6 8cbe 5559 b1be 952e 253f
000000c0: 8dfc 1a3f 4fdc 183f 431f 113f f356 173f
000000d0: f148 b93d f4c7 75be b900 053f 384d 0e3f
000000e0: 6fe1 093f 3656 6dbe 7752 003f 663c b93e
000000f0: 4a12 17be 4f66 733d 305d a2bd 318f f2bd
0.24614447 -0.16343667 0.47707883 0.5880774 0.50362176 0.6526858 -0.24690324 0.63140494
-0.057657298 0.66290253 -0.20708153 0.7186323 0.48065376 -0.26055986 0.5217219 0.6241862
0.51744086 -0.07674852 0.5113397 0.4878624 -0.11352398 -0.20184775 0.7210256 -0.1945502
-0.122165196 0.67247933 0.6759502 0.6283096 0.58711106 -0.18523371 0.5211764 0.61275434
0.5458048 -0.12189964 0.6623694 0.6348908 0.4724439 0.6458583 -0.16670305 0.6805754
0.48132217 0.68307245 -0.23178001 0.70542103 0.6147325 -0.27519822 -0.34638467 0.64524204
0.6054161 0.59711164 0.56688327 0.5911705 0.090471156 -0.24002057 0.5195423 0.55586576
0.5385961 -0.23177418 0.5012583 0.36178893 -0.1475307 0.05942374 -0.0792793 -0.11843718

advantage_stream.weight f4 [5, 64]
00000000: 31db 46be 40bd 0abe 249d 913d 464f 97bd
00000010: 9248 9a3d 396e 0abd e624 9dbe 8e10 3a3c
00000020: cd7e db3d 4631 e63d 26f8 42be 7ecc d03d
00000030: da05 94bd 32d1 a03c 4a4e 8b3c 8231 2ebc
00000040: 6e79 103e a1b4 053d 315d df3d 9762 30bc
00000050: 4277 8f3d cb32 223e 0c02 68bd 6ca4 14be
00000060: cf26 233e b380 763d a884 cd3d d801 23bc
00000070: 1313 91bc 8dae b0bd 19ad f5bd 9607 183d
00000080: 1c6b d8ba 39b4 1f3e dc5b 243b f9c8 f33d
00000090: 4e29 ad3d 72f6 053e ea22 50be 3835 c33d
000000a0: 0a0c 883c 0cf7 363e 4bd6 1fbe 1cb2 1e3e
000000b0: d808 ce3d c970 143e f0f8 9a3d ee90 013e
000000c0: 10f4 033d c27c b1bb f357 b53d 97a0 85bd
000000d0: 4103 78bd fa85 a83d 2ba6 4ebd ac23 a23c
000000e0: 077a 44bc 4e4a 713d 06d8 7fbc 8a27 d8bc
000000f0: 2aeb c3bc 2ea3 7ebe 3194 723c 4abf a73d
00000100: 3296 8d3d 7299 04bc 16f2 483d be62 02be
00000110: 6f2a 103d ed60 26bd dead 3abe 89d7 55bc
00000120: 50f7 883e 0797 c93d e069 493e 1196 533d
00000130: df84 273c 67e8 0f3e 9601 cd3c d085 06bd
00000140: 75c0 023e 6bdc 03bd b655 c83d c2ca d1bc
00000150: 2b6a 263e e45f 19bd 881a 9abd 237d 8ebd
00000160: f9be 683e af90 6c3c 7d89 b23d 209b 17bc
00000170: 8814 d4bc 3f77 603c cd04 08be cc5e dd3c
00000180: c444 f0bc 1d28 8f3d a83d 38bc 8ad2 dd3d
00000190: 325a 7c3d 4095 e53d 830e 9abd 93b7 d13d
000001a0: 2ab0 1c3d 0d30 123e ba3e 853c cc8c dc3d
000001b0: cc0f bf3d da5f 39be b007 49be 71e1 853d
000001c0: 28df 0bbd 512a 0bbd cd0a 943d aa68 4cbd
000001d0: db11 c1bb 596b e3bd 0b51 cfbc 367d 8c3c
000001e0: 2a90 14bd 8b50 4fbd 4ec8 c1bc ee59 d43d
000001f0: 0142 01be fee7 49be 794a 903d 32ef e8bd
00000200: cbe4 7f3d ee84 eabd 3a1a 7b3d ea91 87bd
00000210: 322c 773d a789 49bd cd6b 80bd b4e7 b83c
00000220: 017b a6bd 45f0 a73d 50a3 e03c 3383 eb3d
00000230: eb90 dfbb 9039 4bbd d2b7 8d3d 798c ecbc
00000240: 1845 243e f5fb 83bd 7112 e43d f6dd 54bc
00000250: 81cf 9cbe 25ea 03be eccd 6fbd 555c eb3d
00000260: 343a 7abc d14e 073b aa73 b63d 6154 f6bc
00000270: 4c64 ddbb a1ed 80be 1208 dcbd 93db 6b3d
00000280: e02b b4bc 58ea 0e3e f77a 21bd af7f f03d
00000290: 267b be3d dbf0 823d f44b a13c 26a8 993d
000002a0: b3a6 e2bc b94c ec3d 8d0e fabd a8c5 163e
000002b0: 1459 c53d 6654 073c dead e33a f791 a13d
000002c0: 0b14 68bc a170 d0bc a2ac 823c 5bc0 36bc
000002d0: 8a47 64be 5ff3 1e3e 213f 17bd d7b6 84bb
000002e0: 1e47 0abd 6c05 fc3d 660a f1bc b2f9 0dbe
000002f0: d5db 4a3e 7bef 3d3e 7580 fb3c 74ea e7bd
00000300: 7f95 8f3e b9ba b33d ca9c 7b3d 43e6 cfbd
00000310: 3738 833d ef5b 7abd d096 55be e1c9 74bd
00000320: 46c9 b2bd fe6c 723d f659 40bd 4f5d a53c
00000330: e007 d13c f76d 893e dbab ea3d 513f 73bd
00000340: 017b ac3d 9b9d 6abe 6cc8 a73d 3fce 4bbd
00000350: 37b7 9cbc 2dba c4bd c40c c4bd 75db ab3d
00000360: c545 6e3e 2bb0 f53b 5505 363d 3e72 d7bc
00000370: a124 21bd 7f98 543e 16e0 0cbe 96ed 8c3b
00000380: 6411 45bd 1496 60bd 5d4b 11bd ba89 5f3d
00000390: dd10 733d d1bc b23d de50 52bd bded 4a3d
000003a0: e8d7 913d 3eca ef3d e66b b7bd 9cef f43d
000003b0: 859a c93d 05a0 2ebe 8db4 3fbe 98bd 353d
000003c0: f788 9abd 48c0 84bc bbbd 573c c551 a7bd
000003d0: 95be 093e 1c44 d5bd d627 80bd 2ab8 e9bc
000003e0: 7691 94bd 95af 1b3e 6de0 05bd 2389 4a3e
000003f0: e25a dc3d eb4e 2cbe ee86 9b3e 85e5 1f3e
-0.19419552 -0.13548756 0.0711005 -0.07388167 0.07533373 -0.033796523 -0.30692214 0.011356486
0.10717545 0.11239867 -0.19039974 0.10195254 -0.072276786 0.019631002 0.017005105 -0.010631921
0.14108822 0.032642964 0.10906447 -0.010765693 0.070051685 0.15839688 -0.056642577 -0.14515847
0.15932773 0.06018133 0.10035068 -0.00994917 -0.01770929 -0.08627043 -0.119959064 0.03711661
-0.0016511413 0.15596093 0.0025079167 0.11903567 0.08455144 0.13082293 -0.20325819 0.09531635
0.016607303 0.17867678 -0.1560909 0.15497631 0.100602806 0.14496149 0.07567012 0.12652943
0.032215178 -0.0054164836 0.088546656 -0.06524771 -0.06054998 0.08228679 -0.05045144 0.0197924
-0.011991984 0.058908753 -0.015615469 -0.026386041 -0.023915846 -0.24866936 0.014805839 0.08190782
0.06913413 -0.008093225 0.049058996 -0.1273298 0.035196718 -0.04061978 -0.18230388 -0.013051876
0.26751184 0.09843259 0.19669294 0.051656786 0.01022455 0.14053498 0.02502517 -0.032842457
0.12768729 -0.03219263 0.09781973 -0.025609378 0.16251437 -0.037444964 -0.07524592 -0.06957462
0.227291 0.014438792 0.0871763 -0.009253293 -0.025888696 0.0137003055 -0.13283081 0.027022742
-0.029329665 0.06990073 -0.011245169 0.10831173 0.061609454 0.11210108 -0.07522299 0.10240092
0.03825394 0.14276142 0.016265262 0.107690424 0.09329185 -0.1810297 -0.19631839 0.0653714
-0.034148365 -0.033975903 0.072286226 -0.049904503 -0.005892021 -0.11104459 -0.025307199 0.017149549
-0.036270298 -0.05061392 -0.023655083 0.10368715 -0.12622835 -0.19717404 0.070454545 -0.11373748
0.062474053 -0.114511356 0.06130431 -0.06619628 0.060344882 -0.04920354 -0.06270561 0.022571422
-0.0812893 0.08200125 0.027421623 0.11499634 -0.0068226955 -0.049615443 0.069198266 -0.028875576
0.16041982 -0.06444541 0.1113633 -0.012992373 -0.30627063 -0.12882288 -0.05854599 0.1149222
-0.015272666 0.0020646343 0.0890878 -0.030069532 -0.006756341 -0.25181296 -0.10743727 0.05758245
-0.021993577 0.13956583 -0.03942391 0.11743104 0.093008325 0.06393596 0.019689538 0.07502775
-0.027667379 0.11538071 -0.122098066 0.14723837 0.09636131 0.008259868 0.0017370542 0.07889169
-0.014164935 -0.02544433 0.015951458 -0.01115426 -0.22292915 0.15522526 -0.03692544 -0.0040501165
-0.03375923 0.12305722 -0.029423904 -0.13864782 0.19810422 0.18548386 0.030700902 -0.11324015
0.28043744 0.08775849 0.061428823 -0.10151341 0.064072065 -0.06112283 -0.20858312 -0.05976284
-0.08729796 0.059185974 -0.046960793 0.020186095 0.02551645 0.2684171 0.1145856 -0.059386555
0.08421899 -0.22911684 0.08192524 -0.04975724 -0.019130332 -0.09605823 -0.09572747 0.083914675
0.23268802 0.0074978075 0.04443868 -0.026299592 -0.039341573 0.20761298 -0.13757357 0.0043007834
-0.048112288 -0.054830626 -0.035472263 0.054574706 0.059342254 0.0872742 -0.051346652 0.04954313
0.07121259 0.117084965 -0.08956127 0.11959764 0.098439254 -0.1705323 -0.18721218 0.044370264
-0.07545655 -0.016204968 0.013167794 -0.08169893 0.13451608 -0.104133815 -0.06257598 -0.0285302
-0.07254307 0.15203698 -0.032684732 0.19778876 0.10759522 -0.1682698 0.3037638 0.15614899

advantage_stream.bias f4 [5]
00000000: 2e6c d5be 9aa9 cc3d 82ec 2bbd 28f0 013f
00000010: acb0 fcbe
-0.41684097 0.099932864 -0.0419736 0.50757074 -0.4935354

hidden_nets.0.weight f4 [128, 11]
00000000: aa92 e43d 8057 e1bb f025 46be ef56 bbbd
00000010: 38a5 a93c 102b 963d 3fb2 e43c fd09 bcbd
00000020: ea00 e93d 3459 f1bd 51df e73b c69c 803e
00000030: 6a16 823d 5682 79bd 05e3 d4bd 368b b63b
00000040: 38f7 99bc 8fd7 fbbd a501 9cbe 671c 34be
00000050: 59ef 67bd b7b2 4abd f172 f6bd abac 5bbe
00000060: 92a4 f5bd 809c abbd 8c46 2e3e e668 dbbd
00000070: 5731 8b3d b245 993c c3b1 08be 41d5 8abd
00000080: 39a5 5d3d d7db 01be 029c 13be fa0d 5abd
00000090: 15a7 86be db9d 1e3e b597 23be db8d ca3d
000000a0: f008 dabd 118d 8e3d 074c 813d 96c5 ca3d
000000b0: 24f1 f73d 1b14 543d adfb 53be 2890 69bd
000000c0: d62e 95be e928 1dbe ad57 7ebc 7ee4 80bd
000000d0: 0794 ea3b 1ce9 75bc a6de c7bd f521 8b3d
000000e0: ebc5 57be 4837 44be 3d9c bcbe d78d b03d
000000f0: fa7e 40be 0fff aebd c8b5 d0bd a61e dc3d
00000100: 1b14 5d3c 3fa6 d23d 21da 10be 3f49 eabb
00000110: 08ac 76be ee34 63bd a53e 4fbd bfc3 93bc
00000120: bcd0 9ebd 882d 88bd 03a5 0dbe d66c 40be
00000130: ed1f f0bd 4163 fdbd 2188 80bd 1385 60bd
00000140: 1d9b 0dbe 5f54 f0bd fe80 bf3d a559 cf3d
00000150: 621e 6dbd 4df7 093e ddda 72be e643 223d
00000160: cde0 28be 73ad 823b 301c c5bd 41ff aa3d
00000170: 6c4d 1abd b971 98be c6e7 1ebe a488 b6bd
00000180: 8725 f4bd e417 11be 45ba 2f3c 09cc 23be
00000190: 471e 9fbe d067 bd3d 4a91 833c 3de2 543e
000001a0: 2efc cf3b fe9a f2ba b0c3 76bc d4d4 1e3d
000001b0: 2a93 dcbd 2bda a23c a8a5 5fbe a98c 013e
000001c0: 55f3 50be 93ea 273d 8d98 80be 5b6d eb3d
000001d0: e751 8ebc 8813 a03d 52a2 12be c49e b83d
000001e0: 001b 063e 426a 22be 9e72 42be f920 3e3e
000001f0: 0e90 1dbe 39ad a83b 6ad8 0dbe b914 c9bd
00000200: 183c 77be bf14 813d 2c14 663d 073e dfbd
00000210: 87ac a5be 51fc 8dbd 21ed 853d fb57 58be
00000220: 6f0d 923b 2dc8 313d 80cd db3d 0ac4 3ebb
00000230: ebbf a13d 523e a23d a92e 14bd 364e 01be
00000240: 4304 60be b879 153e da07 983d 8fe3 223e
00000250: 1b40 1ebd 2666 febc fc70 89be af59 173e
00000260: fc1c 3bbd 1cd2 893d 2143 7a3e 6ccf 0ebe
00000270: e4c7 8ebd 99bc 3c3c c385 0b3e c5fc 093a
00000280: 05e4 1ebd e8e7 ecbd dc68 04be f471 203e
00000290: 113a 993c b7d2 6dbd 0c5d af3c cfbe 41be
000002a0: a17b aabd 79e7 3dbe f411 a63d c16c 063d
000002b0: e261 f7bd 1b6e fa3d 89ff 43be 7487 b73d
000002c0: d031 9b3c 0079 3abe 2b34 15ba 61f7 a23d
000002d0: c8f5 a0be 4327 363c 172c 293d 536e 8c3d
000002e0: 4ad2 cf3b 1ffb 043e a90b f53d a92e 8f3d
000002f0: f1a9 90bd 80f9 71be ffef 453d afd5 bebb
00000300: d919 0abe af33 14be 2d1a 3dbe 35c0 f5bd
00000310: af9a 82bd b29e 95bd 1a0f 54bd fa2a 43be
00000320: e432 163c bbdc 0fbd 079a 273e 6d2d a83b
00000330: 457b 8c3c 13d4 e8bc d15e 0e3e 303b 223d
00000340: 9b89 c33c b5c5 473e 4e9d 1d3d 9754 cabd
00000350: 6a04 fbbe 8e8c 4ebe 7f2d 173e dbcb 97bc
00000360: 55e1 0ebe 933e 4939 5000 2b3e 6205 20be
00000370: b742 ed3d b52f 55bd 2911 223d 1d6b f4ba
00000380: d1f9 033e 86f2 75bd e7f9 c2ba 0702 8fbe
00000390: d217 c23d dfd5 ffbb c563 30bd 67be 8e3d
000003a0: f2b3 80bd d4f7 a4bd 28d4 f4bd 8b17 fd3d
000003b0: 3180 2dbc 3210 17bc 89e1 cebd d82d 33be
000003c0: f414 363d b400 96bc b909 a1be cdb3 853c
000003d0: d06d 04be 1229 023e d477 2d3d 8d56 83be
000003e0: e36e 7b3c 148e 893c 3372 19be 527e 84bd
000003f0: 3a9c 6e3c fbcb 33be eb49 b3bd e148 943d
0.111607864 -0.006876886 -0.1935041 -0.09147441 0.020708665 0.07332432 0.027917026 -0.091815926
0.113771275 -0.11784592 0.007076182 0.2511961 0.063519314 -0.060915314 -0.10394863 0.0055707945
-0.01879464 -0.12296974 -0.30470005 -0.1758896 -0.056624744 -0.049486842 -0.12033642 -0.21452586
-0.1199428 -0.083794594 0.17019099 -0.10713367 0.0679652 0.018709991 -0.1334906 -0.06778956
0.054112647 -0.12681518 -0.14414981 -0.053235985 -0.26299348 0.15489905 -0.1597584 0.09890338
-0.10646236 0.069605 0.06313329 0.09900968 0.12106541 0.051776987 -0.20701475 -0.057022244
-0.29137295 -0.15347637 -0.015523833 -0.062935814 0.0071587595 -0.015009191 -0.09759264 0.06793586
-0.21071593 -0.19161713 -0.3683795 0.08620804 -0.18798438 -0.08544742 -0.10190922 0.10748033
0.013493563 0.10285615 -0.1414571 -0.007149845 -0.24089062 -0.0554704 -0.05059685 -0.018037675
-0.07754657 -0.066493094 -0.13832478 -0.18791518 -0.11724839 -0.12372447 -0.062759645 -0.05481441
-0.13828702 -0.117348425 0.09350775 0.1012452 -0.057890303 0.13473244 -0.23716302 0.039615534
-0.16492005 0.003987962 -0.09624517 0.08349467 -0.03767149 -0.29774264 -0.15518102 -0.08912781
-0.1192122 -0.1416927 0.010725562 -0.15995802 -0.31077787 0.09248316 0.01606049 0.20789428
0.006347201 -0.0018509326 -0.015061304 0.038777187 -0.10770257 0.019879421 -0.21840537 0.12651314
-0.20405324 0.04099519 -0.25116387 0.11495467 -0.017373038 0.07816225 -0.14319733 0.09014657
0.13096237 -0.15860847 -0.18989035 0.18567266 -0.15386984 0.005147603 -0.13852087 -0.09818406
-0.24144018 0.06302785 0.05617158 -0.10900503 -0.3235819 -0.06932891 0.065393694 -0.21127312
0.004457168 0.043403793 0.107325554 -0.0029108548 0.078979336 0.07922043 -0.03617731 -0.12627491
-0.21876626 0.14597213 0.074233726 0.15907119 -0.038635354 -0.031054568 -0.26844013 0.14780305
-0.04568194 0.06729528 0.2443967 -0.13946313 -0.0697172 0.011519575 0.13625245 0.0005263801
-0.038791675 -0.1156767 -0.12930626 0.1566847 0.018704446 -0.05806228 0.021406673 -0.18920444
-0.083243616 -0.18545331 0.08108893 0.03281856 -0.120792165 0.12228032 -0.19140448 0.089613825
0.01894465 -0.1821022 -0.00056916726 0.0795734 -0.31437516 0.011117759 0.041301813 0.0685698
0.006342207 0.1298642 0.119651146 0.069913216 -0.07063664 -0.23630333 0.04832458 -0.005823813
-0.13486423 -0.1447284 -0.18467017 -0.11999551 -0.0637716 -0.07305659 -0.051772214 -0.19059363
0.009167407 -0.035122614 0.1636735 0.0051323683 0.017148623 -0.028421437 0.13903357 0.039607227
0.023869326 0.19509013 0.038480096 -0.098794155 -0.49026805 -0.20170805 0.14763449 -0.018529823
-0.13953145 0.00019192164 0.16699338 -0.15627053 0.115849905 -0.05204745 0.039567146 -0.0018647645
0.12888266 -0.06004574 -0.0014875502 -0.27931234 0.094771996 -0.007807478 -0.043063898 0.0696991
-0.06284322 -0.08055082 -0.11954528 0.12358006 -0.010589645 -0.00922017 -0.10101611 -0.17497957
0.044453576 -0.018310882 -0.3145273 0.016321087 -0.12932515 0.1271098 0.042350605 -0.2565197
0.015346262 0.016791381 -0.1498497 -0.06469406 0.0145636145 -0.17558281 -0.08754333 0.07240463

hidden_nets.0.bias f4 [128]
00000000: e794 8fbd ba5b 0ebe 4fab 2ebe 3551 0bbe
00000010: 6504 9b3c 27a2 8cbd 2d41 76bd b55d 60bd
00000020: e401 c7bc e4ef 4cbe adcf 433b a9a1 4abd
00000030: ce2c 0fbe e956 dabd 7584 d7bd eb71 eebc
00000040: 45bd bdbd 5018 17bd 7cb9 14be 9780 94bc
00000050: 6106 b3bd e50b 29be 3292 1fbe e2e6 22be
00000060: 465c 1dbd fa16 163d 06f7 02be c59f e3bd
00000070: 8930 43bd 891b eebb ed6b e7bd 5354 a8bc
00000080: 2f96 66bd 0ab0 97bd 990f 4bbe 3cb9 b2bd
00000090: aea1 26bd a870 8bbd 1a21 09bd 67bf 6abe
000000a0: f76b bebd 5b54 18be 095b ebbd f04a 07be
000000b0: b7fa 5a3d 3f66 4fbb 820b 5abe 731a 493d
000000c0: 7caa ac3d e091 01be aa69 083e bd64 25be
000000d0: 8134 dcbc a79a 94bd b0f8 5d3d 7b40 9bbd
000000e0: 72d9 32be 3079 35be f7b0 8c3a 65d7 d03d
000000f0: 6de5 9dbd 41fe 1dbe d98e c6bd cee4 41be
00000100: 0677 48bc 0e91 64bd 9803 bc3c ae08 24be
00000110: dcad 433c b77e 39bd bb86 86bc c75b ac3c
00000120: 4114 46bc 88c4 fabd ff85 eebd fd9d 223b
00000130: e815 8abc a11e dabd 0000 0000 a90e 22be
00000140: dbcf 07be 6255 6fbd 2b8d eebc d7ad 0fbe
00000150: 7095 c5bd 0000 0000 8d74 74bc cc74 3cbe
00000160: dce1 393d 1bfd 0abe 1d17 2f3d a229 033e
00000170: 97da e3bd 2f73 99bd f633 ee3c da03 09be
00000180: 7983 153d 1963 60bd ecc7 e4bd a54d 0cbd
00000190: fdee 76bd d3fa 49bc 0f76 8abc a031 40bd
000001a0: 723e d53d f34f 373d 6d62 10be 2299 2abd
000001b0: 5aa9 25be aded b9bd 7add 91bd 3cc4 55be
000001c0: 866c 78bd 4fc9 8a3d 260a d3bc acea 05be
000001d0: a520 23be 3f5c a9bd 9270 48bc b382 fabd
000001e0: 971c 30bd bc95 03be 4934 25bd 01d7 9dbd
000001f0: 9533 0cbc 6579 1cbc 94f9 81bd 4928 793c
-0.07010823 -0.13902178 -0.17057537 -0.13605197 0.018922994 -0.068668656 -0.06012075 -0.054776866
-0.024292894 -0.20013386 0.0029878423 -0.049470577 -0.13981935 -0.10661108 -0.10523311 -0.029107055
-0.09264616 -0.03688842 -0.14523882 -0.018127723 -0.08741451 -0.16508444 -0.15583113 -0.15908387
-0.038418077 0.036643006 -0.12789544 -0.11114458 -0.04765371 -0.007266466 -0.11299882 -0.020548021
-0.05629557 -0.07406624 -0.19830169 -0.08726737 -0.040681534 -0.06808597 -0.033478834 -0.22924577
-0.092979364 -0.14875929 -0.11491973 -0.1321218 0.053461757 -0.0031646637 -0.21293452 0.04909749
0.08430955 -0.12653303 0.13321558 -0.1615171 -0.026880505 -0.0725606 0.054192245 -0.07580658
-0.17465761 -0.1772201 0.0010733892 0.10197333 -0.07709775 -0.15429021 -0.09695215 -0.18934938
-0.012235409 -0.055802397 0.022950932 -0.16018936 0.011943307 -0.04528686 -0.016421666 0.021039857
-0.01208979 -0.122445166 -0.116466515 0.0024813407 -0.016856149 -0.10650373 0.0 -0.15825905
-0.13262884 -0.058431037 -0.029120049 -0.14031158 -0.096476436 0.0 -0.014920366 -0.1840393
0.045381412 -0.13573115 0.042746652 0.1280885 -0.11125677 -0.07492673 0.029077511 -0.13380376
0.036502335 -0.054782007 -0.111709446 -0.034253735 -0.06028651 -0.012327868 -0.016901998 -0.046922326
0.10412301 0.04475398 -0.14100046 -0.041649945 -0.16177884 -0.09078536 -0.071223214 -0.20875639
-0.06065037 0.06776678 -0.025761675 -0.13077801 -0.15930422 -0.08269548 -0.01223387 -0.1223196
-0.042996015 -0.12850088 -0.040333066 -0.07707024 -0.00855722 -0.009550427 -0.063464314 0.015207359

hidden_nets.1.weight f4 [128, 128]
00000000: 8270 57bd d1a9 13bd 4dac 683d aa7f debd
00000010: 5504 d03c f76f 1cbe abdb 773d 9def 20be
00000020: fd6a 983e 549e 893d d1b1 da3d d149 2ebe
00000030: 27de 103c a1e7 98be 1be9 363e c30b adbc
00000040: 99ea 19be 60af 36bd 5591 0abe c1d6 ef3d
00000050: 206c d0bd 6f61 0ebd 61a7 053d f62a e9bd
00000060: 79a8 2abe 4690 5ebd d8d4 bdbd 9bf7 94bc
00000070: 8c37 bcbc 6ba5 abbd 3319 5d3e 2ef3 d939
00000080: 72e3 2fbd 5aa5 17be ea5e b33d bf2a e8bd
00000090: 91ec 513d 492f c0bd 01d5 c93d 8ea3 dd3c
000000a0: 2edc 20be 67b1 2bbd afa3 c23d 3183 ab3d
000000b0: fdb6 3bbe 55c2 38be b84f 1f3c 7fc9 8cbc
000000c0: 86aa 2d3d 47bc 5bbd 8aeb 4b3e aa1d 123e
000000d0: ce13 023e 0233 2dbe 96d5 98bc 6e77 f9bd
000000e0: c6dc febd 1cc6 c3bd 373b 1a3e b8cd 763c
000000f0: abdd 613d f809 903d 314f 073c 93a8 1cbe
00000100: 43ff 153e f1ae 893d 5377 0e3d 098a 2cbe
00000110: fbb4 4f3c 713b acbd c9ac 123d 31fb 23be
00000120: b4b8 09be fe86 863e a6ff 8cbd 3107 4d3d
00000130: fc28 f93d c30d c23a bd65 f43d 994f 02be
00000140: 2fa8 37be b65a ccbd f4bd 463d 5343 e8bd
00000150: dcb0 01be e446 43bd bb98 b43d 4be4 3a3e
00000160: f088 1bbe 717b 863c 1c32 c4bd daf0 48bc
00000170: 8f4f 883d 587f cfbd 9d05 f03c 230f d6bd
00000180: 7634 3fbd ec36 c73d dfd4 52be c58d adbd
00000190: 2c25 16bd 6bf9 873d e8af 17bd b748 35be
000001a0: d9fb 153e 654a 47bd 82da 2ebe 565c 073b
000001b0: 17c5 b93c 988c 1fbe 619d 283e b3c3 57be
000001c0: f3dd cebd 7d40 71be f7de a0bd e728 213d
000001d0: bf25 80bd 571a 79bc 7f95 123e ba4c b0bc
000001e0: fb57 2d3d 4e94 00be 0b1a 9a3c c88b cebd
000001f0: e1eb 0a3e f20a 003d 903c 57bd f9fe 3d3e
00000200: 9b9e 073d a441 7a3e 1590 c73d 6248 88bd
00000210: cb18 8abe c5a9 9e3c 8736 3fba c0ea 2a3e
00000220: a3f8 e8bd 54bd acbd 34ca c6bd dd79 61bc
00000230: 767d 2cbe b13d 0a3e 9403 15bc 0775 113e
00000240: d3a1 48be 179c e1bd 53a5 ad3b 5627 d6bd
00000250: 28c6 6b3c d071 ef3d cb59 bc3d 91d8 0dbc
00000260: 1552 81be dc16 a0bd 57d7 5cbd e08c a4bd
00000270: 50f1 f63d 8f6a 2dbe 51f5 d4bd 9697 3bbd
00000280: 57e7 babd ad9b c9bd 5433 a93d ae4f f93c
00000290: 4614 983b b716 cfbd e769 01be ae8d fbbd
000002a0: b7db bcbd d052 a93c 22da 4c3e abb5 283d
000002b0: eab1 64be 1576 a5be 8c05 a23b b980 9fbe
000002c0: b2be 96be 9488 6fbd 8e04 8abe 58a9 b3bc
000002d0: d3fc 83bd 2af8 d03c df41 debe 1933 b2bc
000002e0: 5ace 18be 2d83 6ebc 922e 1c3e 1138 f4bd
000002f0: 0d2c 993d ed76 1abe a863 2a3e 16c3 77bd
00000300: 6d5d 143e d4ff 0abe 38fd f3be ea34 e8bd
00000310: c366 96be 69d8 94bd 6e18 97bd f7f2 2bbd
00000320: 2503 5ebd 6c8d c5bd 4bea a63d 2bba 323c
00000330: bee7 aebc c5d4 bdbd 1696 6e3d 3089 043e
00000340: b22a 22bd 371e dabd ce5f 8dbd 5370 e8bd
00000350: fc56 f2bd e0cd 0e3e 1f1f 29bd 5cd7 97bd
00000360: aabd 8b3e 3c1c cabd b7c7 42be a2f2 cbbe
00000370: 4503 a13c 25be 17be ac2e 393c 0ddc 7d3d
00000380: 30a9 203e 6e7c 58bd a132 d1bc 5ddc 9cbe
00000390: 97d3 8bbe f23e af3c 0273 ebbb 4b91 77be
000003a0: ba7a e4bd f1fd a5be dd11 afbb 0600 1bbd
000003b0: ca5b d5bd 2f30 bebd f30e 9c3b 71a3 ae3d
000003c0: 5f2e debd 547c f4be c4a6 0abc 49d7 f4bd
000003d0: 69d5 043e 64e3 77be 6dcd 07be e013 1b3d
000003e0: 5cd3 e0bd ad12 1cbe 5c7e 353d 5498 82bd
000003f0: 200d 08bd 5162 04be 2529 ac3d f38e 81bc
-0.05259753 -0.03605062 0.056804944 -0.10864194 0.02539269 -0.15277086 0.060512226 -0.15716405
0.29769126 0.06719652 0.10678447 -0.17020346 0.008842028 -0.2986422 0.1786236 -0.021123772
-0.15030898 -0.044600844 -0.13532002 0.11710883 -0.10176873 -0.03476089 0.032630328 -0.11385147
-0.1666583 -0.05433681 -0.09269112 -0.018184474 -0.022975706 -0.0838116 0.21591644 0.00041570648
-0.042941518 -0.1480917 0.08758338 -0.11336278 0.051250998 -0.09384019 0.098550804 0.027055528
-0.15708992 -0.04191723 0.095038764 0.08374632 -0.18331523 -0.18042882 0.009723596 -0.017185925
0.042398952 -0.053646352 0.1991407 0.14269128 0.12702867 -0.16913989 -0.018656533 -0.121809825
-0.12444453 -0.09559271 0.15061651 0.015063696 0.05514304 0.070331514 0.008258627 -0.15298681
0.14648156 0.067228206 0.034781765 -0.16849531 0.012677426 -0.08409775 0.035809312 -0.1601379
-0.13449365 0.26274866 -0.068846986 0.050055686 0.1216602 0.0014805127 0.119334675 -0.12725677
-0.1793525 -0.09978239 0.048520997 -0.11340966 -0.12665123 -0.04767503 0.088181935 0.1825115
-0.15188956 0.016416283 -0.0957987 -0.012264455 0.066557996 -0.10131711 0.029299552 -0.10452106
-0.04668089 0.097272724 -0.20589016 -0.08474306 -0.036656544 0.066393696 -0.03703299 -0.1770352
0.14646854 -0.048654933 -0.17075542 0.0020654402 0.022676988 -0.15580976 0.16466285 -0.21070747
-0.10100927 -0.23559757 -0.07855027 0.03934565 -0.062571995 -0.015204034 0.1431484 -0.021520961
0.042320233 -0.12556574 0.018811246 -0.10085255 0.13566543 0.03126044 -0.05254799 0.18554296
0.033110242 0.24439102 0.09744278 -0.06654431 -0.2697204 0.019368062 -0.0007294197 0.16691113
-0.11375549 -0.08434549 -0.09706536 -0.013761965 -0.16844735 0.13500096 -0.009095091 0.14204799
-0.19592981 -0.110161 0.005299249 -0.104567215 0.014390506 0.1169163 0.09196814 -0.0086575905
-0.25257936 -0.0781686 -0.0539163 -0.08034682 0.120577455 -0.1693518 -0.10398353 -0.04579886
-0.09126156 -0.09844146 0.08261743 0.030433502 0.0046410887 -0.101117544 -0.12638055 -0.12282883
-0.09221595 0.02066937 0.20005086 0.041188877 -0.22333494 -0.32316652 0.004944509 -0.31152895
-0.29442364 -0.05847986 -0.269566 -0.021931335 -0.06444707 0.025508959 -0.4340963 -0.02175288
-0.14922467 -0.014557642 0.1525214 -0.11924756 0.07479105 -0.15084429 0.16639578 -0.060488783
0.14488764 -0.13574153 -0.47654128 -0.113382176 -0.29375276 -0.072678395 -0.073777065 -0.041979756
-0.054202218 -0.09646115 0.081501566 0.010908644 -0.021350738 -0.09269098 0.0582486 0.12942958
-0.0395915 -0.10650294 -0.06903039 -0.11349549 -0.11832997 0.13945723 -0.041289445 -0.074141234
0.2729314 -0.098686665 -0.19021498 -0.39833552 0.01965488 -0.14818628 0.011302631 0.061977435
0.1568954 -0.05285304 -0.025536837 -0.30636874 -0.27309868 0.02139232 -0.007185341 -0.24176519
-0.11156221 -0.32420304 -0.0053427056 -0.03784182 -0.10417898 -0.09286534 0.0047625243 0.08527268
-0.10848688 -0.47751105 -0.008462612 -0.11955125 0.12972035 -0.24207836 -0.13261957 0.03786075
-0.109778136 -0.15241499 0.04430996 -0.063767105 -0.033215642 -0.1292813 0.08406285 -0.015815234
