hyperopt_results/lr_experiments/lr_0.0001/dqn_racing_episode_150.pth (torch, 454101 bytes, 36 tensors)

hidden_nets.0.weight f4 [128, 11]
0	0x3de492aa	0.111607864
1	0xbbe15780	-0.006876886
2	0xbe4625f0	-0.1935041
3	0xbdbb56ef	-0.09147441
4	0x3ca9a538	0.020708665
5	0x3d962b10	0.07332432
6	0x3ce4b23f	0.027917026
7	0xbdbc09fd	-0.091815926
8	0x3de900ea	0.113771275
9	0xbdf15934	-0.11784592
10	0x3be7df51	0.007076182
11	0x3e861590	0.26188326
12	0x3dd117ff	0.10209655
13	0xbc8d1561	-0.017222108
14	0xbdbdba6d	-0.092640735
15	0x3cec7af0	0.028867215
16	0x3c8d6820	0.017261565
17	0xbe29e3e8	-0.16590846
18	0xbe84bcfc	-0.25925434
19	0xbe341c67	-0.1758896
20	0xbd3fc595	-0.04681929
21	0xbdd52841	-0.104080684
22	0xbdaab703	-0.08335688
23	0xbe2e461d	-0.17018934
24	0xbe04be1c	-0.12963146
25	0xbd77fc50	-0.06054336
26	0x3e5d8e1e	0.21636245
27	0xbd9262ed	-0.07147775
28	0x3dcb5a10	0.099292874
29	0x3d859066	0.065216824
30	0xbe08b1c3	-0.1334906
31	0xbc365aef	-0.011130079
32	0x3d8994c8	0.06717831
33	0xbdcf4f99	-0.10122604
34	0xbe0814d4	-0.13289195
35	0xbd911671	-0.070843585
36	0xbe517e3e	-0.20458314
37	0x3e2404fb	0.16017525
38	0xbe3293bf	-0.17439173
39	0x3dd34d48	0.103174746
40	0xbdcca8b9	-0.09993119
41	0x3d8e8d11	0.069605
42	0x3df704b4	0.12061444
43	0x3d0d51b2	0.03450174
44	0x3e1691fb	0.14704125
45	0x3dbedd17	0.09319513
46	0xbe261b57	-0.16221367
47	0xbd6ccf7b	-0.057815056
48	0xbe85c64e	-0.26127857
49	0xbe293363	-0.16523509
50	0x3bc4ae99	0.006002259
51	0xbc77befa	-0.015121216
52	0x3bea9407	0.0071587595
53	0x3cae4728	0.021274164
54	0xbe114e18	-0.14189947
55	0x3d8b21f5	0.06793586
56	0xbe57c5eb	-0.21071593
57	0xbe443748	-0.19161713
58	0xbebc9c3d	-0.3683795
59	0x3db08dd7	0.08620804
60	0xbe407efa	-0.18798438
61	0xbdaeff0f	-0.08544742
62	0xbdd0b5c8	-0.10190922
63	0x3ddc1ea6	0.10748033
64	0x3c5d141b	0.013493563
65	0x3dd2a63f	0.10285615
66	0xbe10da21	-0.1414571
67	0xbbea493f	-0.007149845
68	0xbe76ac08	-0.24089062
69	0xbd6334ee	-0.0554704
70	0xbd4f3ea5	-0.05059685
71	0xbc93c3bf	-0.018037675
72	0xbd9ed0bc	-0.07754657
73	0xbd882d88	-0.066493094
74	0xbe0da503	-0.13832478
75	0xbe406cd6	-0.18791518
76	0xbdf01fed	-0.11724839
77	0xbdfd6341	-0.12372447
78	0xbd808821	-0.062759645
79	0xbd608513	-0.05481441
80	0xbe0d9b1d	-0.13828702
81	0xbdf0545f	-0.117348425
82	0x3dbf80fe	0.09350775
83	0x3dcf59a5	0.1012452
84	0xbd6d1e62	-0.057890303
85	0x3e09f74d	0.13473244
86	0xbe72dadd	-0.23716302
87	0x3d2243e6	0.039615534
88	0xbe1da116	-0.1539348
89	0x3c2ab8a6	0.01042
90	0xbd9d7af2	-0.076894656
91	0x3da74c73	0.081688784
92	0xbd232f29	-0.039839897
93	0xbeaedf90	-0.3415494
94	0xbe254791	-0.16140582
95	0xbda9c8cd	-0.08290253
96	0xbdf42587	-0.1192122
97	0xbe135d93	-0.14391164
98	0x3d125bf1	0.035732213
99	0xbe23cc09	-0.15995802
100	0xbe9f1e47	-0.31077787
101	0x3dbd67d0	0.09248316
102	0x3c83914a	0.01606049
103	0x3e54e23d	0.20789428
104	0x3bcffc2e	0.006347201
105	0xbaf29afe	-0.0018509326
106	0xbc76c3b0	-0.015061304
107	0x3d1ed4d4	0.038777187
108	0xbddc932a	-0.10770257
109	0x3ca2da2b	0.019879421
110	0xbe561969	-0.2090813
111	0x3de28741	0.11060954
112	0xbe229b56	-0.15879568
113	0x3c90eb23	0.017690247
114	0xbe8d9ba5	-0.2765781
115	0x3dd58866	0.104264066
116	0xbd3f1cd1	-0.04665834
117	0x3d7552dd	0.059893478
118	0xbe12a252	-0.14319733
119	0x3dcbcd60	0.099512815
120	0x3d77c765	0.06049289
121	0xbe226a42	-0.15860847
122	0xbe42729e	-0.18989035
123	0x3e3e20f9	0.18567266
124	0xbe1d900e	-0.15386984
125	0x3ba8ad39	0.005147603
126	0xbe0dd86a	-0.13852087
127	0xbdc914b9	-0.09818406
128	0xbe773c18	-0.24144018
129	0x3d8114bf	0.06302785
130	0x3d66142c	0.05617158
131	0xbddf3e07	-0.10900503
132	0xbea5ac87	-0.3235819
133	0xbd8dfc51	-0.06932891
134	0x3d85ed21	0.065393694
135	0xbe5857fb	-0.21127312
136	0x3b920d6f	0.004457168
137	0x3d31c82d	0.043403793
138	0x3ddbcd80	0.107325554
139	0xbb3ec40a	-0.0029108548
140	0x3da1bfeb	0.078979336
141	0x3da23e52	0.07922043
142	0xbd142ea9	-0.03617731
143	0xbdf77c6c	-0.120842785
144	0xbe586786	-0.21133241
145	0x3e1d60ff	0.15369032
146	0x3daa55cb	0.08317145
147	0x3e2a8a26	0.16654262
148	0xbd0be1dd	-0.034150947
149	0xbd1e9e52	-0.038725205
150	0xbe85ad46	-0.2610876
151	0x3e1759af	0.14780305
152	0xbd39e903	-0.045388233
153	0x3d9af7cf	0.07566797
154	0x3e3e72e0	0.18598509
155	0xbe026728	-0.12734663
156	0xbe31e812	-0.17373684
157	0xbd133db0	-0.0359475
158	0x3e0ba611	0.13637568
159	0xbcdda5bb	-0.027056566
160	0xbce8c4ff	-0.028414248
161	0xbdb4a9f9	-0.08821482
162	0xbe0468dc	-0.12930626
163	0x3e024aef	0.12723897
164	0xbd662951	-0.056191746
165	0xbd2cdcca	-0.04220275
166	0x3d18ad72	0.037274785
167	0xbe319712	-0.17342785
168	0xbdaa7ba1	-0.083243616
169	0xbe2da972	-0.1695917
170	0x3dc69295	0.09695927
171	0x3d476ff8	0.048690766
172	0xbdd6e048	-0.10491997
173	0x3dfa6e1b	0.12228032
174	0xbe33d2c3	-0.17560868
175	0x3dd8090e	0.10548602
176	0x3c9b31d0	0.01894465
177	0xbe3a7900	-0.1821022
178	0xba15342b	-0.00056916726
179	0x3da2f761	0.0795734
180	0xbea0f5c8	-0.31437516
181	0x3c362743	0.011117759
182	0x3d292c17	0.041301813
183	0x3d8c6e53	0.0685698
184	0x3bcfd24a	0.006342207
185	0x3e04fb1f	0.1298642
186	0x3df50ba9	0.119651146
187	0x3d8f2ea9	0.069913216
188	0xbd90a9f1	-0.07063664
189	0xbe71f980	-0.23630333
190	0x3d45efff	0.04832458
191	0xbbbed5af	-0.005823813
192	0xbe0a19d9	-0.13486423
193	0xbe1433af	-0.1447284
194	0xbe3d1a2d	-0.18467017
195	0xbdf5c035	-0.11999551
196	0xbd829aaf	-0.0637716
197	0xbd959eb2	-0.07305659
198	0xbd540f1a	-0.051772214
199	0xbe432afa	-0.19059363
200	0x3c1632e4	0.009167407
201	0xbd0fdcbb	-0.035122614
202	0x3e279a07	0.1636735
203	0x3ba82d6d	0.0051323683
204	0x3c8c7b45	0.017148623
205	0xbce8d413	-0.028421437
206	0x3e0e5ed1	0.13903357
207	0x3d223b30	0.039607227
208	0x3cc3899b	0.023869326
209	0x3e1d334a	0.15351596
210	0xbb0ad176	-0.0021181977
211	0xbe016a1a	-0.12638131
212	0xbf05586b	-0.5208804
213	0xbe7bdce2	-0.24595979
214	0x3dae337b	0.08505913
215	0xbcc368d6	-0.0238537
216	0xbe35ee5e	-0.17766711
217	0x39493e93	0.00019192164
218	0x3db5f1e6	0.08884029
219	0xbdcbd17d	-0.09952066
220	0x3ded42b7	0.115849905
221	0xbd552fb5	-0.05204745
222	0x3d221129	0.039567146
223	0xbaf46b1d	-0.0018647645
224	0x3e03f9d1	0.12888266
225	0xbd75f286	-0.06004574
226	0xbac2f9e7	-0.0014875502
227	0xbe8f0207	-0.27931234
228	0x3dc217d2	0.094771996
229	0xbbffd5df	-0.007807478
230	0xbd3063c5	-0.043063898
231	0x3d8ebe67	0.0696991
232	0xbd80b3f2	-0.06284322
233	0xbda4f7d4	-0.08055082
234	0xbdf4d428	-0.11954528
235	0x3dfd178b	0.12358006
236	0xbc2d8031	-0.010589645
237	0xbc171032	-0.00922017
238	0xbdcee189	-0.10101611
239	0xbe332dd8	-0.17497957
240	0x3d3614f4	0.044453576
241	0xbc9600b4	-0.018310882
242	0xbe9f8128	-0.31153226
243	0x3cb1bb35	0.021695713
244	0xbe0291ec	-0.12750977
245	0x3e075563	0.13216166
246	0x3d41e017	0.04733285
247	0xbe820403	-0.25393686
248	0x3c2b7b90	0.010466471
249	0x3cb1bfac	0.021697842
250	0xbe197233	-0.1498497
251	0xbd69ff65	-0.05712833
252	0x3ca410dd	0.020027572
253	0xbe1c09fe	-0.15238187
254	0xbd92d443	-0.07169392
255	0x3db6d5b6	0.08927481

hidden_nets.0.bias f4 [128]
0	0xbd8f94e7	-0.07010823
1	0xbdbfa498	-0.09357566
2	0xbdfe17c5	-0.124068774
3	0xbe04a114	-0.12952071
4	0x3d88ada5	0.06673745
5	0xbd8ca227	-0.068668656
6	0xbd76412d	-0.06012075
7	0xbd605db5	-0.054776866
8	0xbc9402a7	-0.018067671
9	0xbe4cefe4	-0.20013386
10	0xbc7a5ddd	-0.015281168
11	0xbd4aa1a9	-0.049470577
12	0xbe0f2cce	-0.13981935
13	0xbdcb47fd	-0.0992584
14	0xbd9f467e	-0.07777117
15	0xbc58d6ee	-0.013234837
16	0xbdbdbd45	-0.09264616
17	0xbd171850	-0.03688842
18	0xbe14b97c	-0.14523882
19	0xbd6673f9	-0.056262944
20	0xbdb30661	-0.08741451
21	0xbe290be5	-0.16508444
22	0xbe1a8bfc	-0.15092462
23	0xbe11a07e	-0.14221379
24	0xbd1d5c46	-0.038418077
25	0xbb8dc2ea	-0.004326214
26	0xbdfd2eb1	-0.12362421
27	0xbde39fc5	-0.11114458
28	0xbd818cff	-0.06325721
29	0xbc26a9b0	-0.010172293
30	0xbdc1caea	-0.09462531
31	0xbca85453	-0.020548021
32	0xbd0c7e8b	-0.03430037
33	0xbd97b00a	-0.07406624
34	0xbe3ddca1	-0.18541194
35	0xbd923df4	-0.07140723
36	0xbd7a36c2	-0.061087377
37	0xbd8b70a8	-0.06808597
38	0xbd09211a	-0.033478834
39	0xbe44dfd4	-0.19226009
40	0xbdbe6bf7	-0.092979364
41	0xbe18545b	-0.14875929
42	0xbdeb5b09	-0.11491973
43	0xbe03d53f	-0.12874316
44	0x3d5e116f	0.054215845
45	0x3bafb0be	0.0053616455
46	0xbe428525	-0.18996103
47	0x3d3b87b8	0.04578373
48	0x3d7c1405	0.06154253
49	0xbe0191e0	-0.12653303
50	0x3e04faed	0.12986346
51	0xbe21c1f5	-0.15796645
52	0xbcdc3481	-0.026880505
53	0xbd949aa7	-0.0725606
54	0x3cc11c63	0.023573106
55	0xbd9b407b	-0.07580658
56	0xbe1bc1a9	-0.15210594
57	0xbe0f04d1	-0.13966681
58	0x3a8cb0f7	0.0010733892
59	0x3d30b29a	0.043139078
60	0xbd6beeab	-0.05760066
61	0xbe1dfe41	-0.15429021
62	0xbdca1eb1	-0.09869135
63	0xbe360fee	-0.17779514
64	0xbc487706	-0.012235409
65	0xbd64910e	-0.055802397
66	0x3d3c1a16	0.045923315
67	0xbe2408ae	-0.16018936
68	0xbc65e2af	-0.014031096
69	0xbd397eb7	-0.04528686
70	0xbca5204c	-0.020157002
71	0x3b0145d1	0.0019725452
72	0x3b328d1b	0.002724475
73	0xbdda1d63	-0.10650136
74	0xbdee85ff	-0.116466515
75	0x3b229dfd	0.0024813407
76	0xbbae835c	-0.005325718
77	0xbdb754c6	-0.08951716
78	0x00000000	0.0
79	0xbe220ea9	-0.15825905
80	0xbe07cfdb	-0.13262884
81	0xbd6f5562	-0.058431037
82	0xbced58ff	-0.0289731
83	0xbe0ba8c1	-0.13638593
84	0xbdc59570	-0.096476436
85	0x00000000	0.0
86	0xbc74748d	-0.014920366
87	0xbe19f1ce	-0.15033647
88	0x3d52af4e	0.051436715
89	0xbe03a96d	-0.128576
90	0x3ca7d3d6	0.020486753
91	0x3dd45ed6	0.10369651
92	0xbdc620cb	-0.096742235
93	0xbd725e23	-0.059171807
94	0xb90a7d21	-0.0001320732
95	0xbe0903da	-0.13380376
96	0xbaa2c0c8	-0.0012417072
97	0xbd4ee0a4	-0.050507203
98	0xbde4c7ec	-0.111709446
99	0xbd0c4da5	-0.034253735
100	0xbd76eefd	-0.06028651
101	0xbd10a6f4	-0.03531547
102	0xbc8a760f	-0.016901998
103	0xbd4031a0	-0.046922326
104	0x3d5bfbd7	0.05370697
105	0x3d4a7628	0.04942909
106	0xbe10626d	-0.14100046
107	0xbc0e9ca1	-0.008704335
108	0xbe25a95a	-0.16177884
109	0xbd70130e	-0.058611922
110	0xbd64eb50	-0.055888474
111	0xbe55c43c	-0.20875639
112	0xbcb64a7a	-0.02225231
113	0x3d383093	0.0449682
114	0xbd441e97	-0.047880735
115	0xbe05eaac	-0.13077801
116	0xbe1dbcd1	-0.15404059
117	0xbda95c3f	-0.08269548
118	0x3c355e4b	0.0110698445
119	0xbdfa82b3	-0.1223196
120	0xbd301c97	-0.042996015
121	0xbe0395bc	-0.12850088
122	0xbd253449	-0.040333066
123	0xbd9dd701	-0.07707024
124	0xbce0d1e0	-0.027443826
125	0x3bb750ca	0.0055943476
126	0xbd4e017a	-0.050294377
127	0x3b366c9b	0.002783573

hidden_nets.1.weight f4 [128, 128]
0	0xbd577082	-0.05259753
1	0x3ac5e064	0.0015096781
2	0x3d2e8783	0.042609703
3	0xbde9182b	-0.11381563
4	0xbb83cad7	-0.004021983
5	0xbe1c6ff7	-0.15277086
6	0x3d77dbab	0.060512226
7	0xbe20ef9d	-0.15716405
8	0x3e82811f	0.25489137
9	0x3d899e54	0.06719652
10	0x3dcd12e5	0.100133695
11	0xbe2e49d1	-0.17020346
12	0x3c10de27	0.008842028
13	0xbe98e7a1	-0.2986422
14	0x3e4a9b81	0.19785883
15	0xbcad0bc3	-0.021123772
16	0xbe19ea99	-0.15030898
17	0xbd36af60	-0.044600844
18	0xbe0a9155	-0.13532002
19	0x3d830dd7	0.06399124
20	0xbdd06c20	-0.10176873
21	0xbd0e616f	-0.03476089
22	0x3d05a761	0.032630328
23	0xbde92af6	-0.11385147
24	0xbe2aa879	-0.1666583
25	0xbd2e615e	-0.042573325
26	0xbd9e5f1f	-0.07732987
27	0xbc94f79b	-0.018184474
28	0xbd94aad2	-0.07259144
29	0xbdaba56b	-0.0838116
30	0x3e44f435	0.19233783
31	0x39d9f32e	0.00041570648
32	0xbd55ff0f	-0.052245196
33	0xbe17a55a	-0.1480917
34	0x3db35eea	0.08758338
35	0xbde82abf	-0.11336278
36	0x3d6b7dd9	0.057493065
37	0xbdc02f49	-0.09384019
38	0x3dc9d501	0.098550804
39	0x3d3b1b59	0.045680378
40	0xbe20dc2e	-0.15708992
41	0xbd2bb167	-0.04191723
42	0x3dc2a3af	0.095038764
43	0x3c12f91e	0.008970527
44	0xbddb010f	-0.10693561
45	0xbe38c255	-0.18042882
46	0x3c4890a7	0.012241519
47	0x3d54bd46	0.051938318
48	0x3d6b3b61	0.057429675
49	0xbd5bbc47	-0.053646352
50	0x3e403b79	0.18772687
51	0x3dfb136f	0.12259566
52	0x3e0213ce	0.12702867
53	0xbe2d3302	-0.16913989
54	0xbd0810fd	-0.033219326
55	0xbdf9776e	-0.121809825
56	0xbdc97b2b	-0.098379456
57	0xbdd01d3c	-0.10161826
58	0x3e1a3b37	0.15061651
59	0x3d5cd092	0.053909846
60	0x3d36f18a	0.044663943
61	0x3d9009f8	0.070331514
62	0xbc734216	-0.014847299
63	0xbe1813eb	-0.14851348
64	0x3e15ff43	0.14648156
65	0x3d89aef1	0.067228206
66	0x3cb09674	0.021556117
67	0xbe2c8a09	-0.16849531
68	0xbc10b9b0	-0.008833334
69	0xbdac3b71	-0.08409775
70	0x3d868f70	0.06570327
71	0xbd87e7a2	-0.06635977
72	0xbde67ceb	-0.11254295
73	0x3e521bb1	0.20518376
74	0xbd8cffa6	-0.068846986
75	0x3d4d0731	0.050055686
76	0x3e2bf0ac	0.16791028
77	0x3bdf19d1	0.0068084975
78	0x3df465bd	0.119334675
79	0xbe024f99	-0.12725677
80	0xbe37a82f	-0.1793525
81	0xbdcc5ab6	-0.09978239
82	0x3d46bdf4	0.048520997
83	0xbdfbece5	-0.123010434
84	0xbe01b0dc	-0.12665123
85	0xbd4346e4	-0.04767503
86	0x3db498bb	0.088181935
87	0x3e2dbc11	0.16966273
88	0xbe0fdd7c	-0.14049333
89	0x3c867b71	0.016416283
90	0xbdf507fe	-0.11964415
91	0xbcbdae33	-0.023154354
92	0x3d4faa41	0.050699476
93	0xbdcf7f58	-0.10131711
94	0x3d8841ba	0.06653161
95	0xbdd60f23	-0.10452106
96	0xbc423ea0	-0.011855751
97	0x3dedd2db	0.11612483
98	0xbe52d4df	-0.20589016
99	0xbdad8dc5	-0.08474306
100	0xbd16252c	-0.036656544
101	0x3ddebb32	0.108755484
102	0xbd17afe8	-0.03703299
103	0xbe3548b7	-0.1770352
104	0x3e3074b0	0.17232013
105	0xbd63b548	-0.055592805
106	0xbe2eda82	-0.17075542
107	0x3b075c56	0.0020654402
108	0x3cb9c517	0.022676988
109	0xbe162cc4	-0.14665514
110	0x3e10c0b7	0.14136015
111	0xbe57c3b3	-0.21070747
112	0xbdcb46dd	-0.099256255
113	0xbe5053d9	-0.20344485
114	0xbd4e1ea9	-0.05032221
115	0x3d2128e7	0.03934565
116	0xbdb9a02b	-0.09063753
117	0xbc791a57	-0.015204034
118	0x3e0dd47d	0.13850589
119	0xbcb04cba	-0.021520961
120	0x3d2d57fb	0.042320233
121	0xbe00944e	-0.12556574
122	0x3c9a1a0b	0.018811246
123	0xbdce8bc8	-0.10085255
124	0x3e38d169	0.18048634
125	0xbc165b16	-0.00917699
126	0xbd573c90	-0.05254799
127	0x3e76af32	0.24090269
128	0x3d079e9b	0.033110242
129	0x3e577afa	0.21043006
130	0x3dd67046	0.10470633
131	0xbd6c5b5b	-0.05770431
132	0xbe859573	-0.26090583
133	0x3c9ea9c5	0.019368062
134	0xba3f3687	-0.0007294197
135	0x3e2aeac0	0.16691113
136	0xbdf95ffe	-0.12176512
137	0xbdacbd54	-0.08434549
138	0xbdfaf745	-0.12254194
139	0xbc6179dd	-0.013761965
140	0xbe2c7d76	-0.16844735
141	0x3e0945d8	0.1340555
142	0x3b8a0a45	0.00421265
143	0x3e117507	0.14204799
144	0xbe48a1d3	-0.19592981
145	0xbde19c17	-0.110161
146	0x3bada553	0.005299249
147	0xbdbc5c18	-0.09197253
148	0x3c6bc628	0.014390506
149	0x3def71d0	0.1169163
150	0x3db30f7b	0.08743187
151	0xbb809996	-0.003924559
152	0xbe815215	-0.25257936
153	0x3c123ffa	0.008926386
154	0xbd0e7c60	-0.034786582
155	0xbda48ce0	-0.08034682
156	0x3db28b88	0.0871802
157	0xbe2feae6	-0.1717945
158	0xbd9735a3	-0.07383277
159	0xbd3b9796	-0.04579886
160	0xbe07f9b9	-0.13278855
161	0xbdc99bad	-0.09844146
162	0x3da9bf32	0.08288421
163	0x3c940669	0.018069463
164	0x3c81f440	0.015863538
165	0xbdcf16b7	-0.101117544
166	0xbe0169e7	-0.12638055
167	0xbd94dd83	-0.072688125
168	0xbdbcdbb7	-0.09221595
169	0x3ca952d0	0.02066937
170	0x3e4cda22	0.20005086
171	0x3ceaaf18	0.028647944
172	0xbe991b97	-0.29903862
173	0xbe9885af	-0.29789492
174	0x3cc4783d	0.023983115
175	0xbe9c8cd7	-0.30576202
176	0xbe9e94b0	-0.30972815
177	0xbd6f8894	-0.05847986
178	0xbe9c00d2	-0.30469376
179	0xbd1a8142	-0.037720926
180	0xbd83fcd3	-0.06444707
181	0x3cd0f82a	0.025508959
182	0xbeadd3ca	-0.33950645
183	0xbcb23319	-0.02175288
184	0xbded014a	-0.115725115
185	0x3aee259a	0.0018169165
186	0x3e1c2e92	0.1525214
187	0xbe3712a3	-0.17878203
188	0x3d9e3ce9	0.077264614
189	0xbe1a76ed	-0.15084429
190	0x3e309180	0.17243004
191	0xbd75de0a	-0.060026206
192	0x3e145d6d	0.14488764
193	0xbe0affd4	-0.13574153
194	0xbee22668	-0.44169927
195	0xbde834ea	-0.113382176
196	0xbe8a9886	-0.2706949
197	0xbd94d869	-0.072678395
198	0xbe019176	-0.12653145
199	0xbd03945e	-0.032123916
200	0xbd6655bc	-0.056234106
201	0xbc89a9ad	-0.01680454
202	0x3da6ea4b	0.081501566
203	0x3c32ba2b	0.010908644
204	0xbd9d41e4	-0.07678583
205	0xbdd86caf	-0.10567605
206	0x3d6e9616	0.0582486
207	0x3e048930	0.12942958
208	0xbd222ab2	-0.0395915
209	0xbdda1e37	-0.10650294
210	0xbd8d5fce	-0.06903039
211	0xbdd7264d	-0.10505352
212	0xbdf256fc	-0.11832997
213	0x3e0ecde0	0.13945723
214	0xbd291f1f	-0.041289445
215	0xbd378f55	-0.044814426
216	0x3e7d29d9	0.24722995
217	0xbdbf6934	-0.09346238
218	0xbe415ecc	-0.18883818
219	0xbeb3f251	-0.3514581
220	0x3cef94fb	0.029245844
221	0xbe135a64	-0.1438995
222	0x3c96b2fb	0.018395891
223	0x3d7ddc0d	0.061977435
224	0x3e1d9e10	0.15392327
225	0xbd14d969	-0.03634015
226	0xbcd132a1	-0.025536837
227	0xbe9cdc5d	-0.30636874
228	0xbe8bd397	-0.27309868
229	0x3da3d17c	0.0799894
230	0xbbeb7302	-0.007185341
231	0xbe77914b	-0.24176519
232	0xbdde2977	-0.108477525
233	0xbe8fdb94	-0.28097212
234	0xbbaf11dd	-0.0053427056
235	0xbd4f0362	-0.050540335
236	0xbdd55bca	-0.10417898
237	0xbdcdedbb	-0.10055109
238	0xbbcc55e7	-0.0062358263
239	0x3daea371	0.08527268
240	0xbd9cf617	-0.076641254
241	0xbee23f03	-0.441887
242	0x3d7b2907	0.061318424
243	0xbdf4d749	-0.11955125
244	0x3e177470	0.14790511
245	0xbe77e364	-0.24207836
246	0xbdfb6fc6	-0.122771785
247	0x3d1b13e0	0.03786075
248	0xbde0d35c	-0.109778136
249	0xbe1c12ad	-0.15241499
250	0x3d357e5c	0.04430996
251	0xbd829854	-0.063767105
252	0xbd6dea1a	-0.058084585
253	0xbe27beee	-0.16381428
254	0x3dbeda7a	0.09319015
255	0xbd37875a	-0.044806816

hidden_nets.1.bias f4 [128]
0	0xbda078db	-0.07835551
1	0x3e0e0bd3	0.13871698
2	0x3e2a1d2e	0.16612694
3	0x3e29b269	0.16571964
4	0x3d945f87	0.07244783
5	0x3df76519	0.1207983
6	0xbbff2013	-0.007785806
7	0xbd85b5d4	-0.065288216
8	0x3e1c5110	0.15265298
9	0x3e356344	0.17713648
10	0x3e25a58b	0.16176431
11	0x3d8c8d28	0.06862861
12	0x3e00170e	0.12508795
13	0x3e08f374	0.1337412
14	0x3e1d9bea	0.15391508
15	0x3e03d801	0.12875368
16	0x3d8e858a	0.06959064
17	0x3e04dbbd	0.12974449
18	0xbdc9b1b9	-0.09848351
19	0x3e075e55	0.13219579
20	0x3e0772f4	0.13227445
21	0x3e0e5e8b	0.13903253
22	0x3e1b4347	0.15162383
23	0x3e02760c	0.12740344
24	0x3e265e78	0.16246974
25	0xbd3eab4a	-0.046550073
26	0x3e165e41	0.14684393
27	0x3e0ddfda	0.13854924
28	0x3e040d55	0.12895711
29	0x3d8b453b	0.06800314
30	0x3ddfc160	0.10925555
31	0xbde9e65c	-0.11420891
32	0xbdb66209	-0.089054175
33	0x3e01bf07	0.12670527
34	0xbd827d01	-0.06371499
35	0xbdc435ac	-0.095805496
36	0x3e214313	0.15748243
37	0x3dd42d96	0.10360257
38	0x3e1779e2	0.14792588
39	0x3e1e6509	0.1546823
40	0x3e172dba	0.14763537
41	0xbd571f78	-0.052520245
42	0x3e1c9c2a	0.15293947
43	0x3e1d2d30	0.15349269
44	0x3dcce9a7	0.10005503
45	0x3e12b882	0.14328197
46	0x3e2a4996	0.16629633
47	0x3e1f0bc1	0.15531828
48	0x3e0cd725	0.13753946
49	0xbd99ac64	-0.07503584
50	0x3dfcfca1	0.12352873
51	0x3e286ba1	0.16447307
52	0x3dd0468f	0.10169708
53	0x3e133774	0.14376622
54	0x3c762895	0.015024324
55	0x3df739f1	0.12071598
56	0x3e22fa05	0.15915687
57	0x3e283955	0.1642812
58	0x3e1bcccf	0.15214847
59	0x3e23e1c4	0.16004092
60	0x3d9abeed	0.075559475
61	0x3dfc7e28	0.1232875
62	0x3e234314	0.15943557
63	0x3dede459	0.116158195
64	0xbdd3e1aa	-0.103457764
65	0x3e2dd28e	0.16974851
66	0xbd92351f	-0.07139038
67	0xbc9d5a16	-0.019207995
68	0xbcc0db47	-0.02354206
69	0x3e25214b	0.16125982
70	0x3e1f757c	0.1557216
71	0xbde5a781	-0.112135895
72	0x3d7c4fc5	0.06159951
73	0x3e2f424d	0.17115135
74	0x3e280101	0.16406633
75	0x3d7626cd	0.060095597
76	0x3e0640a9	0.13110603
77	0x3dfae1b2	0.12250079
78	0x3c79e820	0.015253097
79	0xbb39f86a	-0.0028376826
80	0x3e06ebe1	0.13175918
81	0x3e04b7ce	0.12960741
82	0x3e277e96	0.16356882
83	0xbdd18be2	-0.10231759
84	0x3e053fad	0.13012572
85	0x3e2daddb	0.16960852
86	0x3e128d1e	0.14311644
87	0xbddfe4db	-0.109323226
88	0x3d98b601	0.074565895
89	0x3e03f217	0.12885319
90	0x3d8f00bc	0.06982562
91	0x3e1d4e8f	0.15361999
92	0x3e0d56bd	0.1380262
93	0xbdc2a275	-0.095036425
94	0x3e10afa8	0.14129508
95	0x3e0d062f	0.1377189
96	0x3dd8fd08	0.10595137
97	0x3e251a32	0.16123274
98	0xbd9fcba6	-0.07802515
99	0x3dba174f	0.09086477
100	0x3e251dbe	0.16124627
101	0x3e0b8ddb	0.13628332
102	0x3e26f9d3	0.16306238
103	0x3e0e9bae	0.13926575
104	0x3e0f7584	0.14009672
105	0x3dd18b80	0.10231686
106	0x3e173a51	0.1476834
107	0x3e068745	0.13137539
108	0xbd74cbb4	-0.05976458
109	0x3e0aa6f6	0.13540253
110	0x3e2004a2	0.15626767
111	0xbd50c471	-0.05096859
112	0x3e17ea45	0.1483546
113	0xbd991207	-0.074741416
114	0x3e2885d8	0.16457307
115	0xbda41e3d	-0.0801358
116	0x3e1e75fd	0.15474696
117	0x3e3e7fa8	0.18603384
118	0xbd3fa183	-0.04678489
119	0x3e0d555f	0.13802098
120	0x3e2499b6	0.16074261
121	0x3d7682e4	0.06018342
122	0x3d1b8075	0.037964303
123	0x3e1ce58c	0.1532194
124	0x3e20ed57	0.15715538
125	0x3e11a1b5	0.14221843
126	0x3e288a38	0.16458976
127	0x3c70da35	0.014700462

hidden_nets.2.weight f4 [64, 128]
0	0x3cb90155	0.022583643
1	0x3df7fdcb	0.12108954
2	0xbe67855c	-0.22609466
3	0xbdb05a25	-0.08610944
4	0x3de51fd5	0.11187712
5	0xbe65dd70	-0.22447753
6	0xbd3ddcd4	-0.046353176
7	0x3e6f4b24	0.23368508
8	0xbe209610	-0.15682244
9	0xbd8ea0f7	-0.06964295
10	0x3cf2b612	0.029627834
11	0x3d9c2572	0.076243296
12	0xbde2310d	-0.11044512
13	0x3d4293e4	0.04750432
14	0xbdb4485a	-0.088028625
15	0xbc1c39da	-0.009535277
16	0xbe1a568a	-0.15072075
17	0xbcc178e9	-0.023617225
18	0xbd1e2b06	-0.03861525
19	0x3db6e7ec	0.08930954
20	0x3d5b5eb4	0.053557113
21	0x3dbcf9cd	0.09227333
22	0xbd45f206	-0.048326515
23	0xbc152518	-0.009103082
24	0xbd3c075d	-0.04590546
25	0x3e76c3f6	0.2409819
26	0x3de70c13	0.112816
27	0xbddf9370	-0.10916793
28	0xbbe68935	-0.0070353993
29	0x3e956ab4	0.2918297
30	0xbd43b27d	-0.04777764
31	0xbd8d9018	-0.06912249
32	0xbcf4918b	-0.029854557
33	0x3db662e6	0.08905582
34	0xbc079814	-0.008276004
35	0x3ded8515	0.11597649
36	0x3d46fbcc	0.048579976
37	0x3d271f31	0.04080123
38	0xbe13f4aa	-0.144488
39	0xbea5d4cb	-0.3238891
40	0x3af90844	0.0018999656
41	0x3dfe9a5b	0.12431785
42	0x3d4acfa0	0.049514413
43	0xbe28645d	-0.16444536
44	0x3e341e22	0.1758962
45	0x3dca5c8a	0.09880932
46	0x3ca40117	0.02002005
47	0xbe362d30	-0.17790675
48	0xbe0ea1f3	-0.13928966
49	0x3e105ef8	0.14098728
50	0xbe37a5fe	-0.17934415
51	0x3d2c1099	0.042008016
52	0x3e815095	0.25256792
53	0x3ddc8d61	0.107691534
54	0x3d013143	0.03154112
55	0xbdbfe7c6	-0.09370379
56	0x3d323351	0.04350597
57	0xbdec46bc	-0.11536929
58	0xbd762941	-0.060097937
59	0xbdcdb38c	-0.100440115
60	0x3dfc1116	0.123079464
61	0xbe600929	-0.21878494
62	0x3d95818d	0.073001005
63	0x3df05874	0.11735621
64	0xbccfbc2b	-0.02535828
65	0x3e14fc7a	0.14549437
66	0xbda84165	-0.08215598
67	0x3ce098ca	0.027416606
68	0xbd9a191e	-0.07524322
69	0x3d1c9ff6	0.03823849
70	0xbe6694bf	-0.2251768
71	0xbda0f9d1	-0.07860149
72	0xbe4c53c0	-0.19953823
73	0x3e3949a6	0.18094501
74	0xbe448e73	-0.19194965
75	0x3e165f98	0.14684904
76	0x3d9adca5	0.07561616
77	0x3d1bc053	0.03802521
78	0x3c984f69	0.018592553
79	0x3dec3d58	0.11535138
80	0xbbbff360	-0.00585787
81	0xbd81b4b0	-0.063332915
82	0x3dc36ddd	0.09542439
83	0xbe06f250	-0.13178372
84	0xbe69c228	-0.22827971
85	0xbdfce461	-0.12348247
86	0xbe52dac4	-0.20591265
87	0x3dd9eb23	0.10640552
88	0x3e5f3d2d	0.2180068
89	0xbe56fb1d	-0.2099423
90	0x3e67abca	0.22624126
91	0xbe050f1f	-0.1299405
92	0xbe4b8425	-0.19874628
93	0xbd8ff632	-0.0702938
94	0x3bec3154	0.007208029
95	0xbd4d7956	-0.050164543
96	0x3e025b3f	0.1273012
97	0xbe110c16	-0.14164767
98	0xbb4a63f4	-0.003088233
99	0xbde4f104	-0.111787826
100	0xbd6cc769	-0.05780736
101	0xbe624a20	-0.22098589
102	0xbc1dbe70	-0.009627923
103	0x3cb89982	0.022534136
104	0x3cbb81f1	0.02288911
105	0xbe3e46ea	-0.18581739
106	0xbdc7ece3	-0.097619794
107	0x3d464586	0.048406146
108	0x3db44e9e	0.088040575
109	0xbcc0f3b8	-0.023553714
110	0xbe62c473	-0.22145252
111	0x3d80c805	0.06288151
112	0x3d6d0e16	0.05787476
113	0x3e4e4fd3	0.20147638
114	0xbe3dc759	-0.18533076
115	0x3da7fedc	0.082029074
116	0xbe2f042b	-0.17091434
117	0x3d4fc896	0.050728403
118	0xbe1c0679	-0.15236844
119	0xbd0bf595	-0.034169752
120	0xbe08e3f6	-0.1336821
121	0x3d9ee189	0.07757861
122	0x3cf8892c	0.030338846
123	0x3e1dabf1	0.15397622
124	0x3e2439cb	0.16037671
125	0xbe82b9b7	-0.25532314
126	0xbe050310	-0.1298945
127	0x3df8b299	0.1214344
128	0xbe2af561	-0.16695167
129	0x3e06df6c	0.13171166
130	0xbd9206eb	-0.07130226
131	0xbd8cc948	-0.06874329
132	0x3e169823	0.14706473
133	0xbd9c68e9	-0.076371975
134	0x3d620806	0.055183433
135	0xbddd587c	-0.10807893
136	0x3d94c322	0.07263781
137	0xbe19cecb	-0.15020292
138	0xbda517d5	-0.08061186
139	0xbd9dc951	-0.07704414
140	0xbcc24ad7	-0.023717327
141	0xbe1c3d49	-0.15257753
142	0xbe03a11a	-0.12854424
143	0x3c9d023a	0.0191661
144	0xbe6570bf	-0.2240629
145	0xbd799953	-0.060937237
146	0x3e343e05	0.17601784
147	0x3c470ee4	0.012149546
148	0xbdb6d8dc	-0.089280814
149	0xbad6d94f	-0.0016391667
150	0xbe1c995f	-0.15292881
151	0xbe6a4025	-0.22876032
152	0xbd41cdf2	-0.047315545
153	0x3e537ab0	0.2065227
154	0xbd185912	-0.03719432
155	0xbeb75406	-0.35806292
156	0x3e1a0516	0.15041003
157	0x3d7c8f71	0.061660234
158	0x3dc9020a	0.09814842
159	0x3dd6b7ae	0.10484253
160	0x3e45c9ca	0.19315258
161	0x3d758f52	0.059951134
162	0xbd1d6d51	-0.03843433
163	0x3dcd5385	0.10025696
164	0x3d8132ef	0.06308543
165	0xbdea5c60	-0.114434004
166	0xbd3e88fb	-0.046517354
167	0xbde7ac26	-0.113121316
168	0xbda287a3	-0.07936027
169	0xbd24f0ca	-0.040268697
170	0xbd0ffb00	-0.03515148
171	0xbe1cbbe2	-0.15306047
172	0xbd85ff4f	-0.06542837
173	0x3ce4b11f	0.02791649
174	0x3dbda310	0.09259617
175	0xbe25b0df	-0.16180752
176	0xbc9d456c	-0.019198142
177	0x3d24e5b9	0.040258143
178	0x3dc718dd	0.09721539
179	0xbdeb1678	-0.11478895
180	0xbb4c2860	-0.0031151995
181	0xbe1afb62	-0.15134957
182	0x3d7f50b7	0.062332835
183	0xbe3c7da0	-0.18407297
184	0x3ba36dd4	0.0049874578
185	0x3d9c110d	0.0762044
186	0xbe18755c	-0.14888519
187	0x3d0ab536	0.033864222
188	0xbcb7e0b3	-0.022446012
189	0xbd2c1767	-0.042014506
190	0xbde0446f	-0.10950553
191	0xbbd0a51e	-0.0063673398
192	0x3dc6aa2e	0.09700428
193	0xbd486c53	-0.04893143
194	0x3b9e132f	0.004824064
195	0xbb4c090f	-0.003113333
196	0x3e29af39	0.16570748
197	0xbd71dba9	-0.059047375
198	0xbc8b80ff	-0.017029284
199	0xbc0606ff	-0.008180379
200	0x3c9e8fb5	0.019355634
201	0xbd12f27e	-0.03587579
202	0x3be35b10	0.0069383457
203	0xbd923095	-0.071381725
204	0x3e0d64e6	0.13808021
205	0xbd2f220a	-0.04275707
206	0x3c523df7	0.012832156
207	0x3e081781	0.13290216
208	0xbc9a07e6	-0.018802594
209	0x3e01fe3f	0.12694643
210	0xbdebd795	-0.115157284
211	0xbc0d46b1	-0.008622811
212	0x3d22a2e6	0.039706133
213	0xbd6ba652	-0.057531662
214	0xbd8b21b5	-0.067935385
215	0xbb4a0e13	-0.0030831143
216	0x3e381e9b	0.17980425
217	0x3ca0f8f4	0.01964996
218	0xbd068de4	-0.03285016
219	0x3cfcb835	0.030849556
220	0xbc395940	-0.011312783
221	0x3e55f3a9	0.2089373
222	0xbda41062	-0.08010937
223	0xbdffd8ff	-0.124925606
224	0x39411a46	0.00018415702
225	0xbd410317	-0.047122087
226	0xbe06aa77	-0.13150965
227	0xbd560a8c	-0.052256152
228	0xbc67a9ef	-0.014139636
229	0xbd386cd1	-0.04502565
230	0x3dacf66b	0.08445438
231	0xbd80b730	-0.0628494
232	0xbdc7badf	-0.0975244
233	0xbdf4b6df	-0.119489424
234	0x3e00e051	0.1258557
235	0xbe6390b9	-0.22223176
236	0xbda54a6f	-0.08070838
237	0xbd812a0f	-0.0630685
238	0xbd47b121	-0.048752908
239	0xbd7d21ce	-0.061799817
240	0xbd048509	-0.032353435
241	0x3ccba3c3	0.024858361
242	0x3a9a6cc7	0.0011781686
243	0x3d6729b0	0.05643624
244	0xbd68c388	-0.056827098
245	0xbe34cfd0	-0.17657399
246	0x3e14504c	0.14483756
247	0x3be2ccde	0.0069213947
248	0xbe471aa3	-0.19443755
249	0x3e3ad650	0.18245816
250	0xbd35efb4	-0.04441805
251	0xbd46fc62	-0.048580535
252	0xbd844440	-0.0645833
253	0xbe254c6d	-0.16142435
254	0xbe35245c	-0.17689651
255	0xbdd01f33	-0.10162201

hidden_nets.2.bias f4 [64]
0	0x3c7ef826	0.015562093
1	0xbc8087fd	-0.015689844
2	0x3f653b1b	0.8954331
3	0x3f52778b	0.8221366
4	0x3f5ce2c7	0.86283535
5	0x3f5a3910	0.8524332
6	0xbd201ff3	-0.03909297
7	0x3f4ef49d	0.80842
8	0xbd795786	-0.060874484
9	0x3f411727	0.7542595
10	0xbbcb2a01	-0.0062000756
11	0x3f53b5c5	0.82699233
12	0x3e9f09cf	0.3106217
13	0xbccf6227	-0.025315357
14	0x3ebacbc8	0.36483598
15	0x3f568bf5	0.8380731
16	0x3f3e958d	0.74446946
17	0xbd79f06c	-0.0610203
18	0x3f3e4e34	0.7433808
19	0x3f0b21c2	0.54348385
20	0x3b2fa80d	0.0026803047
21	0xbc80bb7e	-0.015714403
22	0x3f54d278	0.8313365
23	0xbcf55cb8	-0.029951438
24	0xbcc21b28	-0.02369459
25	0x3f513613	0.81723136
26	0x3f59d9d2	0.8509799
27	0x3f60c855	0.8780568
28	0x3f5f1b29	0.8715082
29	0xbd77b639	-0.060476515
30	0x3f51dcc4	0.81977487
31	0x3f587166	0.8454803
32	0x3f5d727a	0.865028
33	0xbd458ded	-0.048231054
34	0x3f406d66	0.7516693
35	0x3f49df73	0.7885658
36	0x3f691dd1	0.9106112
37	0x3f58f285	0.84745055
38	0xbd29af07	-0.041426685
39	0x3f50ab87	0.8151173
40	0x3ef5d394	0.48012984
41	0x3f524a3c	0.8214452
42	0xbd0d2b8e	-0.034465365
43	0x3f56a6b4	0.8384812
44	0x3f62c772	0.8858558
45	0xbd6edf56	-0.05831846
46	0xbb8d3121	-0.004308835
47	0x3f54c504	0.8311312
48	0x3f397492	0.724435
49	0x3f55b602	0.83480847
50	0x3f571cb8	0.84028196
51	0x3f5eeab7	0.87076896
52	0xbcb7dfd8	-0.022445604
53	0xbc0dbe79	-0.008651369
54	0x3f5ec196	0.8701414
55	0x3f58a573	0.84627455
56	0x3f57c863	0.8429014
57	0xbd3e613f	-0.04647946
58	0x3f4115ab	0.7542369
59	0xbd6b7635	-0.057485778
60	0xbd48a3fb	-0.04898451
61	0xbd55131e	-0.052020185
62	0xbcdd80b8	-0.027038917
63	0xbd039225	-0.032121796

value_stream.weight f4 [1, 64]
0	0xbe865f85	-0.2624475
1	0xbe26a59d	-0.16274114
2	0x3ed07ca9	0.40720108
3	0x3f03a25e	0.5141963
4	0x3eddcd11	0.43320516
5	0x3f10949b	0.56476754
6	0xbe35b276	-0.17743859
7	0x3f0de93b	0.55434006
8	0xbdb7b6a3	-0.08970382
9	0x3f189099	0.5959564
10	0xbe5ab869	-0.2135941
11	0x3f24f1d1	0.6443148
12	0x3ecc84c3	0.3994504
13	0xbe8b0466	-0.27151793
14	0x3eeb561a	0.45964128
15	0x3f0ca05e	0.549322
16	0x3ee8c7e2	0.45464998
17	0xbd7c23ab	-0.061557453
18	0x3ee7336e	0.45156425
19	0x3edd47bb	0.43218789
20	0xbe1e7a1a	-0.15476266
21	0xbe4eb12d	-0.20184775
22	0x3f24ad7d	0.6432722
23	0xbe2ba8e4	-0.16763645
24	0xbdda80ca	-0.10669096
25	0x3f182d10	0.5944376
26	0x3f182bb6	0.594417
27	0x3f0da3d0	0.55328083
28	0x3f055fe8	0.52099466
29	0xbe4aa5cf	-0.19789813
30	0x3eeb8d72	0.46006352
31	0x3f0bfe74	0.5468514
32	0x3ef11b65	0.47091213
33	0xbe0c5816	-0.13705477
34	0x3f1caa6f	0.6119756
35	0x3f0eb5ab	0.55745953
36	0x3ecf7faa	0.40527087
37	0x3f13ae35	0.57687694
38	0xbe586c15	-0.2113498
39	0x3f1aad28	0.60420465
40	0x3edddb21	0.43331245
41	0x3f1b1739	0.6058231
42	0xbe48d992	-0.19614246
43	0x3f1f0917	0.62123245
44	0x3f0840d9	0.5322395
45	0xbe8da1cd	-0.27662507
46	0xbeb22926	-0.3479702
47	0x3f0fe5e3	0.56210154
48	0x3f0a5305	0.5403293
49	0x3f06732c	0.5251949
50	0x3ef8d901	0.4860306
51	0x3f02bcb1	0.5106917
52	0x3dd98a6e	0.106221065
53	0xbe80cbf6	-0.2515561
54	0x3ee255c3	0.44206056
55	0x3ef44180	0.47706223
56	0x3ef2f4e5	0.47452465
57	0xbe6a1956	-0.22861227
58	0x3ee19cf9	0.44065073
59	0xbdf246a7	-0.11829882
60	0xbe2bf8ac	-0.1679408
61	0x3d73664f	0.05942374
62	0xbd836082	-0.06414892
63	0xbe267b78	-0.16258037

advantage_stream.weight f4 [5, 64]
0	0xbde760d7	-0.112977676
1	0xbe0090e7	-0.12555276
2	0x3d6dd33a	0.05806277
3	0xbdb64d69	-0.089014836
4	0x3da8e77b	0.082472764
5	0xbd2229b5	-0.039590556
6	0xbea89a4b	-0.32930216
7	0x3b0e60ad	0.0021725104
8	0x3e171c1f	0.14756821
9	0x3def0ced	0.11672387
10	0xbe43be17	-0.19115482
11	0x3dc134d7	0.094339065
12	0xbe2d9318	-0.16950643
13	0x3c1c01a3	0.009521875
14	0xbbdb0771	-0.0066842367
15	0xbcbfbcb3	-0.023405408
16	0x3e0da4dc	0.1383242
17	0x3ca16e66	0.019705962
18	0x3df0ee05	0.117641486
19	0xbcf72379	-0.030168282
20	0x3e1370e9	0.1439854
21	0x3e2232cb	0.15839688
22	0xbd86f4ef	-0.06589686
23	0xbe2f764f	-0.17134975
24	0x3e14f3fc	0.14546198
25	0x3d535072	0.05159039
26	0x3dc6de86	0.09710412
27	0xbd256c4e	-0.04038649
28	0x3c3fca17	0.011705897
29	0xbd9fd862	-0.078049436
30	0xbdd69321	-0.10477281
31	0x3d666ab5	0.056254108
32	0xbd0e2080	-0.034698963
33	0x3e2cd1a1	0.16876842
34	0xba142676	-0.0005651483
35	0x3db7770a	0.08958252
36	0x3d939d67	0.072077565
37	0x3de32217	0.110904865
38	0xbe2ed641	-0.17073919
39	0x3dcaae3f	0.09896516
40	0x3d030db3	0.031995486
41	0x3e23cb89	0.15995611
42	0xbdcefbda	-0.101066306
43	0x3e0feae2	0.14054444
44	0x3dc1ab97	0.09456556
45	0x3e1bb708	0.1520654
46	0x3da11dc2	0.07867004
47	0x3dea6985	0.114459075
48	0x3c29bffe	0.010360716
49	0xbb89b559	-0.0042025265
50	0x3d87ac85	0.06624702
51	0xbd3a6ff7	-0.045516934
52	0xbd9b3768	-0.07578927
53	0x3dbdd2b1	0.09268702
54	0xbd2e4d77	-0.042554345
55	0x3c02ec96	0.007990977
56	0xbc4faad5	-0.012675007
57	0x3dac3459	0.08408422
58	0xbc722e69	-0.014781573
59	0x3d6a96b9	0.057272647
60	0xbb4a2d51	-0.0030849765
61	0xbe7ea32e	-0.24866936
62	0xb95aaaa9	-0.00020853676
63	0x3e038ff9	0.1284789
64	0xbbe38a53	-0.0069439798
65	0x3d336818	0.043800443
66	0x3d251382	0.040301807
67	0xbdf0c328	-0.11755973
68	0x3d5f809f	0.054566022
69	0xbd02b436	-0.031910144
70	0xbe795a44	-0.2435084
71	0xbd131447	-0.03590801
72	0x3e98c2bf	0.2983608
73	0x3dc1a37d	0.09455011
74	0x3e36a15f	0.17834996
75	0x3cf0e29f	0.029404936
76	0x3e032ee5	0.12810858
77	0x3e1a3013	0.15057401
78	0xbd5424ff	-0.051793095
79	0xbcdf4b67	-0.027257634
80	0x3e0d0261	0.13770439
81	0xbc8c9de4	-0.017165132
82	0x3dde4f2f	0.10854947
83	0xbc57833e	-0.013153849
84	0x3e241470	0.16023421
85	0xbd195fe4	-0.037444964
86	0xbde77fb8	-0.11303657
87	0xbdc42e1c	-0.09579107
88	0x3e5a50d2	0.21319893
89	0x3cf7c0d4	0.030243315
90	0x3d95ac1b	0.07308217
91	0xbcb19458	-0.021677181
92	0xbcc5810e	-0.02410939
93	0x3cb393ad	0.021921003
94	0xbe019039	-0.12652673
95	0x3d3881de	0.045045726
96	0xbd253878	-0.040337056
97	0x3da962fa	0.082708314
98	0x3b6fbf1b	0.0036582414
99	0x3de82ee3	0.11337068
100	0x3daea9d2	0.085284844
101	0x3de299f9	0.11064524
102	0xbd891c8b	-0.06694897
103	0x3db6e033	0.08929481
104	0x3c8b421f	0.016999302
105	0x3e038a68	0.12845767
106	0x3dab745d	0.08371804
107	0x3de65817	0.112472706
108	0x3dc33f6d	0.09533582
109	0xbe2d4a50	-0.16922879
110	0xbe45f540	-0.19331837
111	0x3d92d15f	0.071688406
112	0xbcf20dff	-0.02954769
113	0xbd19125a	-0.037371017
114	0x3d89e27a	0.0673265
115	0xbd3a69f8	-0.045511216
116	0x3c20f8c9	0.00982494
117	0xbde7093a	-0.11281057
118	0xbd266a88	-0.04062894
119	0x3ab03a5e	0.0013445129
120	0xbcbc5557	-0.022989912
121	0x3d2209f6	0.03956028
122	0xbcb75bfb	-0.022382727
123	0x3bb79a52	0.005603113
124	0xbdd7daa4	-0.10539749
125	0xbe49e7fe	-0.19717404
126	0x3d63155b	0.055440288
127	0xbdff4ab5	-0.12465421
128	0x3c0e678f	0.0086916825
129	0xbe296809	-0.16543593
130	0x3d95f3b8	0.07321876
131	0xbd98883b	-0.07447859
132	0x3d3f7d4a	0.046750344
133	0xbd8ecee4	-0.06973055
134	0xbd76b71d	-0.060233224
135	0x3cd0ad27	0.02547319
136	0xbd718d2b	-0.05897252
137	0x3db64cf8	0.089013994
138	0x3cda9aae	0.026685085
139	0x3dcb24a0	0.09919095
140	0xbc068e57	-0.008212647
141	0xbd221fa7	-0.039580967
142	0x3dd3d8ce	0.103440866
143	0xbd3d902d	-0.046280075
144	0x3dff449f	0.1246426
145	0xbd9e7a9f	-0.07738232
146	0x3dd37710	0.10325444
147	0x3c910042	0.017700318
148	0xbe99d8e2	-0.3004828
149	0xbe03ea25	-0.12882288
150	0xbd817b1a	-0.06322308
151	0x3ddd65f0	0.10810459
152	0xbcf08e43	-0.02936471
153	0xbc5d14db	-0.013493742
154	0x3d88c651	0.06678451
155	0xbd03085a	-0.031990387
156	0xbcd507a5	-0.026004622
157	0xbe797032	-0.24359205
158	0xbdee72e0	-0.116430044
159	0x3cfbea77	0.03075145
160	0xbbd2f1a0	-0.0064374954
161	0x3e1c07c0	0.15237331
162	0xbd91bdf2	-0.07116307
163	0x3dc74ee1	0.09731842
164	0x3dad31ff	0.084568016
165	0x3d886554	0.06659952
166	0x3d84d653	0.064861916
167	0x3da98615	0.08277527
168	0xbd54b81f	-0.051933404
169	0x3df2234d	0.11823139
170	0xbc427067	-0.011867619
171	0x3e19280f	0.14956687
172	0x3db2580d	0.087082006
173	0x3c8d7cc6	0.01727141
174	0xbc4f0143	-0.012634578
175	0x3da3f52f	0.080057494
176	0xbb68ea30	-0.0035539977
177	0xbc9a080e	-0.018802669
178	0x3d05584f	0.03255492
179	0xbd091035	-0.03346272
180	0xbe73e265	-0.23816831
181	0x3e40b553	0.1881917
182	0xbd35927d	-0.044329155
183	0xb8ec3a15	-0.000112641756
184	0xbd4547fd	-0.048164356
185	0x3d8f74d6	0.070047066
186	0xbd13a769	-0.036048327
187	0xbdcf4508	-0.101205885
188	0x3e47bfd2	0.19506767
189	0x3e3def7b	0.18548386
190	0x3c808106	0.015686523
191	0xbdc36d9b	-0.0954239
192	0x3e227ea4	0.15868622
193	0x3dbb0753	0.09132256
194	0x3d9762a0	0.07391858
195	0xbdb66bc2	-0.08907272
196	0x3d87aa73	0.066243075
197	0xbd67a6db	-0.05655561
198	0xbe65c5d3	-0.22438745
199	0xbd14265f	-0.036169406
200	0xbdeb95d2	-0.11503185
201	0x3d7b5c3e	0.061367266
202	0xbce9ccad	-0.02853998
203	0x3d84ac49	0.06478173
204	0x3df4895b	0.11940261
205	0x3e8a9f6e	0.2707476
206	0x3e481c30	0.19542003
207	0xbd450b20	-0.048106313
208	0x3dd0e1a0	0.101992846
209	0xbe77dcf6	-0.24205384
210	0x3da2f36a	0.07956584
211	0xbd199b10	-0.037501395
212	0xbdc65f24	-0.096861154
213	0xbdc4ba2d	-0.09605823
214	0xbd93b5bc	-0.072123975
215	0x3dbe3437	0.09287303
216	0x3e7e0a18	0.24808538
217	0x3c97c8c4	0.01852835
218	0x3d8b1fb0	0.06793153
219	0xbbcf476d	-0.0063256533
220	0xbcd4f49d	-0.025995547
221	0x3e480d05	0.19536217
222	0xbe0d8845	-0.13821514
223	0x3b7677f2	0.0037608114
224	0xbcfb852d	-0.030703152
225	0xbd8efaae	-0.06981407
226	0xbca5f55d	-0.0202586
227	0x3dcdb659	0.10044546
228	0x3d70a0fe	0.058747284
229	0x3de52b01	0.11189843
230	0xbdd501e6	-0.10400753
231	0x3d6c92d6	0.05775722
232	0x3db7bd03	0.08971598
233	0x3e0ddbcd	0.13853379
234	0xbe4fc858	-0.20291269
235	0x3df4588d	0.11930952
236	0x3d9dccaa	0.07705052
237	0xbe2dfc9c	-0.16990894
238	0xbe39f6b3	-0.18160515
239	0x3d635422	0.055500157
240	0xbd0fc409	-0.035099063
241	0xbc814453	-0.01577965
242	0x3cbc6354	0.022996582
243	0xbd92235f	-0.07135653
244	0x3df44773	0.1192769
245	0xbde52134	-0.111879736
246	0xbd49183a	-0.04909537
247	0xbc90d6a6	-0.017680477
248	0xbd81e908	-0.06343275
249	0x3dc7da17	0.09758394
250	0xbc7fdc52	-0.015616493
251	0x3e84161a	0.25798112
252	0x3df413fb	0.119178735
253	0xbe2c4eeb	-0.1682698
254	0x3ea34520	0.31888676
255	0x3e2fe4ad	0.17177077

advantage_stream.bias f4 [5]
0	0xbe5892b0	-0.21149707
1	0x3dab4375	0.08362476
2	0xb9dba392	-0.00041892804
3	0x3e93c1dc	0.2885884
4	0xbebbcee8	-0.36681294

hidden_nets.0.weight f4 [128, 11]
0	0x3de492aa	0.111607864
1	0xbbe15780	-0.006876886
2	0xbe4625f0	-0.1935041
3	0xbdbb56ef	-0.09147441
4	0x3ca9a538	0.020708665
5	0x3d962b10	0.07332432
6	0x3ce4b23f	0.027917026
7	0xbdbc09fd	-0.091815926
8	0x3de900ea	0.113771275
9	0xbdf15934	-0.11784592
10	0x3be7df51	0.007076182
11	0x3e83d294	0.25746596
12	0x3dcde829	0.10054047
13	0xbcaec360	-0.021333396
14	0xbdc7a359	-0.09747953
15	0x3cf0c798	0.029392049
16	0x3c9648d4	0.018345274
17	0xbe25b52c	-0.16182393
18	0xbe851b79	-0.25997522
19	0xbe341c67	-0.1758896
20	0xbd50c622	-0.050970204
21	0xbdda73fd	-0.10666654
22	0xbdb00ce6	-0.0859621
23	0xbe2f9b6f	-0.17149137
24	0xbe06aee3	-0.13152651
25	0xbd7934de	-0.060841434
26	0x3e5c3035	0.21502765
27	0xbd8d8bea	-0.06911452
28	0x3dc97a13	0.09837737
29	0x3d82d5fc	0.063884705
30	0xbe08b1c3	-0.1334906
31	0xbc7e680d	-0.015527737
32	0x3d85da4f	0.0653578
33	0xbdcf4f99	-0.10122604
34	0xbe0814d4	-0.13289195
35	0xbd911671	-0.070843585
36	0xbe517e3e	-0.20458314
37	0x3e2404fb	0.16017525
38	0xbe3293bf	-0.17439173
39	0x3dd34d48	0.103174746
40	0xbdcca8b9	-0.09993119
41	0x3d8e8d11	0.069605
42	0x3df704b4	0.12061444
43	0x3d0d51b2	0.03450174
44	0x3e139ff1	0.14416482
45	0x3db703d5	0.08936278
46	0xbe303ae6	-0.17209968
47	0xbd8968b7	-0.06709426
48	0xbe84ca5d	-0.2593564
49	0xbe334e3a	-0.1751031
50	0x3bef0130	0.0072938427
51	0xbc96169b	-0.018321326
52	0x3bea9407	0.0071587595
53	0x3cbd9020	0.023140013
54	0xbe0e01a8	-0.1386782
55	0x3d8b21f5	0.06793586
56	0xbe57c5eb	-0.21071593
57	0xbe443748	-0.19161713
58	0xbebc9c3d	-0.3683795
59	0x3db08dd7	0.08620804
60	0xbe407efa	-0.18798438
61	0xbdaeff0f	-0.08544742
62	0xbdd0b5c8	-0.10190922
63	0x3ddc1ea6	0.10748033
64	0x3c5d141b	0.013493563
65	0x3dd2a63f	0.10285615
66	0xbe10da21	-0.1414571
67	0xbbea493f	-0.007149845
68	0xbe76ac08	-0.24089062
69	0xbd6334ee	-0.0554704
70	0xbd4f3ea5	-0.05059685
71	0xbc93c3bf	-0.018037675
72	0xbd9ed0bc	-0.07754657
73	0xbd882d88	-0.066493094
74	0xbe0da503	-0.13832478
75	0xbe406cd6	-0.18791518
76	0xbdf01fed	-0.11724839
77	0xbdfd6341	-0.12372447
78	0xbd808821	-0.062759645
79	0xbd608513	-0.05481441
80	0xbe0d9b1d	-0.13828702
81	0xbdf0545f	-0.117348425
82	0x3dbf80fe	0.09350775
83	0x3dcf59a5	0.1012452
84	0xbd6d1e62	-0.057890303
85	0x3e09f74d	0.13473244
86	0xbe72dadd	-0.23716302
87	0x3d2243e6	0.039615534
88	0xbe1da116	-0.1539348
89	0x3c2ab8a6	0.01042
90	0xbd9d7af2	-0.076894656
91	0x3da74c73	0.081688784
92	0xbd232f29	-0.039839897
93	0xbeaedf90	-0.3415494
94	0xbe254791	-0.16140582
95	0xbda9c8cd	-0.08290253
96	0xbdf42587	-0.1192122
97	0xbe135d93	-0.14391164
98	0x3d125bf1	0.035732213
99	0xbe23cc09	-0.15995802
100	0xbe9f1e47	-0.31077787
101	0x3dbd67d0	0.09248316
102	0x3c83914a	0.01606049
103	0x3e54e23d	0.20789428
104	0x3bcffc2e	0.006347201
105	0xbaf29afe	-0.0018509326
106	0xbc76c3b0	-0.015061304
107	0x3d1ed4d4	0.038777187
108	0xbddc932a	-0.10770257
109	0x3ca2da2b	0.019879421
110	0xbe542930	-0.20718837
111	0x3de8dd67	0.11370354
112	0xbe1e15e6	-0.15438041
113	0x3c944ea3	0.018103903
114	0xbe8ba6bc	-0.27275646
115	0x3ddba51b	0.10724851
116	0xbd491326	-0.049090527
117	0x3d826802	0.06367494
118	0xbe12a252	-0.14319733
119	0x3dd00504	0.10157207
120	0x3d881950	0.06645453
121	0xbe226a42	-0.15860847
122	0xbe42729e	-0.18989035
123	0x3e3e20f9	0.18567266
124	0xbe1d900e	-0.15386984
125	0x3ba8ad39	0.005147603
126	0xbe0dd86a	-0.13852087
127	0xbdc914b9	-0.09818406
128	0xbe773c18	-0.24144018
129	0x3d8114bf	0.06302785
130	0x3d66142c	0.05617158
131	0xbddf3e07	-0.10900503
132	0xbea5ac87	-0.3235819
133	0xbd8dfc51	-0.06932891
134	0x3d85ed21	0.065393694
135	0xbe5857fb	-0.21127312
136	0x3b920d6f	0.004457168
137	0x3d31c82d	0.043403793
138	0x3ddbcd80	0.107325554
139	0xbb3ec40a	-0.0029108548
140	0x3da1bfeb	0.078979336
141	0x3da23e52	0.07922043
142	0xbd142ea9	-0.03617731
143	0xbdf77c6c	-0.120842785
144	0xbe586786	-0.21133241
145	0x3e1d60ff	0.15369032
146	0x3daa55cb	0.08317145
147	0x3e2a8a26	0.16654262
148	0xbd0be1dd	-0.034150947
149	0xbd1e9e52	-0.038725205
150	0xbe85ad46	-0.2610876
151	0x3e1759af	0.14780305
152	0xbd39e903	-0.045388233
153	0x3d9af7cf	0.07566797
154	0x3e39fefc	0.18163675
155	0xbe040aa2	-0.12894681
156	0xbe31025d	-0.17286058
157	0xbd3a3c96	-0.045467936
158	0x3e0c511c	0.13702816
159	0xbcb74048	-0.022369519
160	0xbd0e777b	-0.034781914
161	0xbdb4277c	-0.087965935
162	0xbe0468dc	-0.12930626
163	0x3e02aa33	0.12760238
164	0xbd6871ef	-0.05674928
165	0xbd2cdcca	-0.04220275
166	0x3d18ad72	0.037274785
167	0xbe319712	-0.17342785
168	0xbdaa7ba1	-0.083243616
169	0xbe2da972	-0.1695917
170	0x3dc69295	0.09695927
171	0x3d476ff8	0.048690766
172	0xbdd6e048	-0.10491997
173	0x3dfa6e1b	0.12228032
174	0xbe33d2c3	-0.17560868
175	0x3dd8090e	0.10548602
176	0x3c9b31d0	0.01894465
177	0xbe3a7900	-0.1821022
178	0xba15342b	-0.00056916726
179	0x3da2f761	0.0795734
180	0xbea0f5c8	-0.31437516
181	0x3c362743	0.011117759
182	0x3d292c17	0.041301813
183	0x3d8c6e53	0.0685698
184	0x3bcfd24a	0.006342207
185	0x3e04fb1f	0.1298642
186	0x3df50ba9	0.119651146
187	0x3d8f2ea9	0.069913216
188	0xbd90a9f1	-0.07063664
189	0xbe71f980	-0.23630333
190	0x3d45efff	0.04832458
191	0xbbbed5af	-0.005823813
192	0xbe0a19d9	-0.13486423
193	0xbe1433af	-0.1447284
194	0xbe3d1a2d	-0.18467017
195	0xbdf5c035	-0.11999551
196	0xbd829aaf	-0.0637716
197	0xbd959eb2	-0.07305659
198	0xbd540f1a	-0.051772214
199	0xbe432afa	-0.19059363
200	0x3c1632e4	0.009167407
201	0xbd0fdcbb	-0.035122614
202	0x3e279a07	0.1636735
203	0x3ba82d6d	0.0051323683
204	0x3c8c7b45	0.017148623
205	0xbce8d413	-0.028421437
206	0x3e0e5ed1	0.13903357
207	0x3d223b30	0.039607227
208	0x3cc3899b	0.023869326
209	0x3e1d06f8	0.1533469
210	0xbb1551e0	-0.0022784397
211	0xbe017025	-0.12640436
212	0xbf05586b	-0.5208804
213	0xbe7c01d7	-0.24610077
214	0x3dadd26c	0.084874004
215	0xbcc368d6	-0.0238537
216	0xbe361919	-0.17783011
217	0x39493e93	0.00019192164
218	0x3db59104	0.0886555
219	0xbdcb740f	-0.09934246
220	0x3ded42b7	0.115849905
221	0xbd552fb5	-0.05204745
222	0x3d221129	0.039567146
223	0xbaf46b1d	-0.0018647645
224	0x3e03f9d1	0.12888266
225	0xbd75f286	-0.06004574
226	0xbac2f9e7	-0.0014875502
227	0xbe8f0207	-0.27931234
228	0x3dc217d2	0.094771996
229	0xbbffd5df	-0.007807478
230	0xbd3063c5	-0.043063898
231	0x3d8ebe67	0.0696991
232	0xbd80b3f2	-0.06284322
233	0xbda4f7d4	-0.08055082
234	0xbdf4d428	-0.11954528
235	0x3dfd178b	0.12358006
236	0xbc2d8031	-0.010589645
237	0xbc171032	-0.00922017
238	0xbdcee189	-0.10101611
239	0xbe332dd8	-0.17497957
240	0x3d3614f4	0.044453576
241	0xbc9600b4	-0.018310882
242	0xbe9e9d9c	-0.3097962
243	0x3cd65d78	0.026167616
244	0xbe018883	-0.12649731
245	0x3e0c3fde	0.13696238
246	0x3d54eeb0	0.051985443
247	0xbe818416	-0.25296086
248	0x3bc5126b	0.0060141585
249	0x3cd6a272	0.026200507
250	0xbe197233	-0.1498497
251	0xbd564ce4	-0.052319422
252	0x3c9ea131	0.019363971
253	0xbe1c09fe	-0.15238187
254	0xbd92d443	-0.07169392
255	0x3db6d5b6	0.08927481

hidden_nets.0.bias f4 [128]
0	0xbd8f94e7	-0.07010823
1	0xbdc11e85	-0.09429649
2	0xbe006918	-0.1254009
3	0xbe04a114	-0.12952071
4	0x3d821fd8	0.0635373
5	0xbd8ca227	-0.068668656
6	0xbd76412d	-0.06012075
7	0xbd605db5	-0.054776866
8	0xbc9402a7	-0.018067671
9	0xbe4cefe4	-0.20013386
10	0xbc3c6932	-0.01149969
11	0xbd4aa1a9	-0.049470577
12	0xbe0f2cce	-0.13981935
13	0xbdcb47fd	-0.0992584
14	0xbd9ec400	-0.07752228
15	0xbc58d6ee	-0.013234837
16	0xbdbdbd45	-0.09264616
17	0xbd171850	-0.03688842
18	0xbe14b97c	-0.14523882
19	0xbd671ee5	-0.056425948
20	0xbdb30661	-0.08741451
21	0xbe290be5	-0.16508444
22	0xbe15efaa	-0.14642206
23	0xbe11a07e	-0.14221379
24	0xbd1d5c46	-0.038418077
25	0xbc06595c	-0.008200016
26	0xbdfd2eb1	-0.12362421
27	0xbde39fc5	-0.11114458
28	0xbd88ad3c	-0.06673667
29	0xbb008dc9	-0.001961576
30	0xbdb87652	-0.09006943
31	0xbca85453	-0.020548021
32	0xbd108117	-0.03527936
33	0xbd97b00a	-0.07406624
34	0xbe3ddca1	-0.18541194
35	0xbd923df4	-0.07140723
36	0xbd7a92e7	-0.061175253
37	0xbd8b70a8	-0.06808597
38	0xbd09211a	-0.033478834
39	0xbe48098f	-0.19534896
40	0xbdbe6bf7	-0.092979364
41	0xbe18545b	-0.14875929
42	0xbdeb5b09	-0.11491973
43	0xbe06851c	-0.13136715
44	0x3d2b2b4e	0.041789345
45	0x3c0166bd	0.00789803
46	0xbe4378d1	-0.19089057
47	0x3d3d2211	0.046175066
48	0x3d661fe3	0.056182753
49	0xbe0191e0	-0.12653303
50	0x3e043723	0.12911658
51	0xbe21c1f5	-0.15796645
52	0xbcdc3481	-0.026880505
53	0xbd949aa7	-0.0725606
54	0x3cfb00c1	0.030640008
55	0xbd9b407b	-0.07580658
56	0xbe15a9cc	-0.14615554
57	0xbe0f717f	-0.14008139
58	0x3a8cb0f7	0.0010733892
59	0x3d3b4f02	0.045729645
60	0xbd6bceb2	-0.057570167
61	0xbe1dfe41	-0.15429021
62	0xbdca1eb1	-0.09869135
63	0xbe366116	-0.17810473
64	0xbc487706	-0.012235409
65	0xbd64910e	-0.055802397
66	0x3d3a6880	0.045509815
67	0xbe2408ae	-0.16018936
68	0xbc14bc65	-0.00907812
69	0xbd397eb7	-0.04528686
70	0xbca789ef	-0.020451514
71	0x3b775e9c	0.00377456
72	0x3b328d1b	0.002724475
73	0xbdcba342	-0.09943248
74	0xbdee85ff	-0.116466515
75	0x3b229dfd	0.0024813407
76	0xbb8a4579	-0.0042197076
77	0xbdc30785	-0.095229186
78	0x00000000	0.0
79	0xbe220ea9	-0.15825905
80	0xbe07cfdb	-0.13262884
81	0xbd6f5562	-0.058431037
82	0xbced58ff	-0.0289731
83	0xbe0a1dc5	-0.13487919
84	0xbdc59570	-0.096476436
85	0x00000000	0.0
86	0xbc74748d	-0.014920366
87	0xbe1e44d6	-0.15455946
88	0x3d531192	0.05153043
89	0xbe037495	-0.12837441
90	0x3d036817	0.03208169
91	0x3dd7c712	0.105360165
92	0xbdc620cb	-0.096742235
93	0xbd725e23	-0.059171807
94	0x3ad8fbaa	0.0016554494
95	0xbe0903da	-0.13380376
96	0xbb8a3e60	-0.0042188615
97	0xbd4da66a	-0.050207533
98	0xbde4c7ec	-0.111709446
99	0xbd0c4da5	-0.034253735
100	0xbd76eefd	-0.06028651
101	0xbcfa92b6	-0.030587535
102	0xbc8a760f	-0.016901998
103	0xbd4031a0	-0.046922326
104	0x3d6f1b9f	0.05837595
105	0x3d60cc52	0.054882355
106	0xbe10626d	-0.14100046
107	0xbb305ec4	-0.0026911953
108	0xbe25a95a	-0.16177884
109	0xbd7b26b5	-0.06131621
110	0xbd528511	-0.051396433
111	0xbe55c43c	-0.20875639
112	0xbcba43bf	-0.022737382
113	0x3d602034	0.05471821
114	0xbd4dbd73	-0.0502295
115	0xbe05eaac	-0.13077801
116	0xbe1dbcd1	-0.15404059
117	0xbda95c3f	-0.08269548
118	0x3c600a03	0.013674262
119	0xbdfa82b3	-0.1223196
120	0xbd301c97	-0.042996015
121	0xbe0395bc	-0.12850088
122	0xbd253449	-0.040333066
123	0xbd9dd701	-0.07707024
124	0xbd0c3e38	-0.034239024
125	0x3a461ddb	0.00075575494
126	0xbd50a428	-0.0509378
127	0x3bb1571b	0.005411995
