hyperopt_results/models/replay_large_20250906_230524/dqn_racing_final.pth (torch, 455045 bytes, 36 tensors)

hidden_nets.0.weight f4 [128, 11]
0	0x3c7eb6e0	0.0155465305
1	0xbaafd5d4	-0.0013415166
2	0xbe3764ba	-0.17909518
3	0xbe803a89	-0.2504466
4	0xbe0c36da	-0.13692799
5	0x3e394fe9	0.1809689
6	0x3e3b2d26	0.18278942
7	0xbd231423	-0.039814126
8	0x3de900ea	0.113771275
9	0xbd729010	-0.05921942
10	0xbdfa43a1	-0.122199304
11	0x3e4d523a	0.20050898
12	0x3dcdfebb	0.100583516
13	0xbea3d550	-0.31998682
14	0xbbb308d0	-0.005463697
15	0x3d5e5543	0.05428053
16	0xbd9a02b2	-0.07520045
17	0xbdbc5de4	-0.09197596
18	0xbe8061ba	-0.2507456
19	0xbe341c67	-0.1758896
20	0xbe4dd49e	-0.20100638
21	0xbb673cf2	-0.003528413
22	0x3e27b46a	0.16377416
23	0xbe440dab	-0.19145839
24	0xbe5c19f5	-0.21494277
25	0x3e5e3de3	0.21703295
26	0x3e112657	0.14174782
27	0xbb3c64a1	-0.0028746503
28	0xbd284b4e	-0.04108744
29	0xbbff8604	-0.0077979583
30	0xbe08b1c3	-0.1334906
31	0xbd48d1f3	-0.04902835
32	0xbc926275	-0.017869214
33	0xbd4ea1c3	-0.050447237
34	0xbdf0d07b	-0.117585145
35	0xbd98e76d	-0.07466016
36	0xbe4df903	-0.20114522
37	0x3e23b1e8	0.15985835
38	0xbe2e91b5	-0.1704777
39	0x3d8620f6	0.065492555
40	0xbdc490d7	-0.095979385
41	0x3d8e8d11	0.069605
42	0x3dc4c288	0.096074164
43	0x3ca7189f	0.020397482
44	0x3ebd5586	0.36979312
45	0x3d61e483	0.055149566
46	0xbccb2965	-0.024800012
47	0xbda48948	-0.08033997
48	0xbde08cc1	-0.10964347
49	0xbe3364f0	-0.17518973
50	0xbdd2ac54	-0.10286775
51	0xbe10c534	-0.14137727
52	0x3bea9407	0.0071587595
53	0xbe0853b2	-0.13313177
54	0xbe122d3e	-0.14275071
55	0xbe0ec96a	-0.13944021
56	0xbe35e173	-0.17761783
57	0xbe657598	-0.2240814
58	0xbe1d3310	-0.1535151
59	0x3e0092a7	0.12555943
60	0xbe8773dd	-0.26455584
61	0xbdc213f0	-0.09476459
62	0xbdbbb2ac	-0.09164938
63	0x3ddc1ea6	0.10748033
64	0x3cad88bc	0.021183364
65	0x3d846685	0.064648665
66	0xbe43cc9a	-0.19121018
67	0xbc8aff00	-0.016967297
68	0x3addfa0f	0.0016935485
69	0xbd20c983	-0.039254677
70	0x3c3c33f5	0.011486997
71	0xbd0bc4aa	-0.0341231
72	0xbe77e574	-0.24208623
73	0xbcd4ab7c	-0.025960676
74	0xbe0da503	-0.13832478
75	0xbeccafe5	-0.39977947
76	0xbe34a558	-0.17641199
77	0xbe0d1739	-0.1377839
78	0xbd427c0c	-0.04748158
79	0xbccb9dc3	-0.0248555
80	0x3b632768	0.003466094
81	0xbdd38ce7	-0.10329609
82	0xbdbbf547	-0.09177642
83	0x3e042c15	0.12907441
84	0xbcd42cd1	-0.025900276
85	0x3e09f74d	0.13473244
86	0xbecec020	-0.40380955
87	0x3d9c5d99	0.0763504
88	0x3ea4a185	0.3215448
89	0xbd05317b	-0.03251789
90	0xbb95cdc0	-0.0045716465
91	0x3cac93b4	0.021066524
92	0xbb8043aa	-0.003914316
93	0x3d9eb0d8	0.07748574
94	0xbe04f294	-0.12983161
95	0xbe3758fc	-0.17905039
96	0xbdf42587	-0.1192122
97	0xbe2b2833	-0.16714554
98	0xbd95aa3a	-0.07307859
99	0xbe6cddfc	-0.23131555
100	0xbe590aeb	-0.21195571
101	0xbd2b34af	-0.04179829
102	0x3a9aba6e	0.0011804828
103	0x3e98d1a3	0.2984744
104	0x3d6ab53b	0.05730174
105	0x3b32f019	0.0027303754
106	0x3d7f1559	0.062276218
107	0x3d1ed4d4	0.038777187
108	0x3ba744d6	0.0051046414
109	0x3b29fc19	0.0025937615
110	0xbdbebf7a	-0.09313865
111	0x3dfbe73c	0.12299964
112	0xbe07fe70	-0.13280654
113	0xbcb4229c	-0.02198916
114	0xbead886f	-0.33893153
115	0x3d060e1d	0.032728303
116	0xbcd6770b	-0.026179811
117	0x3dcf47b5	0.10121099
118	0xbe12a252	-0.14319733
119	0x3d1b3ec5	0.03790166
120	0x3e54dff8	0.20788562
121	0xbec24139	-0.37940386
122	0xbe1900d7	-0.14941727
123	0x3d3873eb	0.045032423
124	0xbe8c9f28	-0.27465177
125	0x3db6a5c0	0.08918333
126	0xbe663210	-0.22480035
127	0xbe071620	-0.13192034
128	0xbe551fcc	-0.20812911
129	0x3d8114bf	0.06302785
130	0xbd394f83	-0.045241844
131	0xbcda2c0a	-0.026632328
132	0xbe7a26c4	-0.2442885
133	0xbcf752f4	-0.030190922
134	0x3ddebc65	0.10875777
135	0xbed73de7	-0.42039415
136	0xbd8c6bb3	-0.068564795
137	0x3da1dff1	0.079040416
138	0x3dac8d78	0.084254205
139	0x3cc8daf2	0.024518464
140	0x3da1bfeb	0.078979336
141	0xbb148755	-0.0022663672
142	0xbde003a3	-0.10938194
143	0xbdbadae6	-0.09123783
144	0xbe4e46ef	-0.20144247
145	0x3e1b4f36	0.15166935
146	0x3b0eafde	0.0021772305
147	0x3dd580c3	0.1042495
148	0xbe06a43a	-0.13148585
149	0xbddc520e	-0.10757838
150	0xbe7c0ce2	-0.2461429
151	0x3e1759af	0.14780305
152	0x3daeccfe	0.08535193
153	0x3da3ce4c	0.079983324
154	0x3e3345b5	0.1750706
155	0xbe29d1c5	-0.16583927
156	0xbdc177a1	-0.094466455
157	0x3d1d0ba2	0.038341172
158	0x3dca93a4	0.098914415
159	0x3d045400	0.03230667
160	0xbd8af793	-0.06785502
161	0xbe28615c	-0.1644339
162	0xbe0468dc	-0.12930626
163	0xbacf7225	-0.0015826864
164	0xbc1f4204	-0.009720329
165	0xbd34048e	-0.043949656
166	0x3d37cd00	0.044873238
167	0xbe0be668	-0.13662112
168	0xbd330f45	-0.043715734
169	0xbe27862e	-0.16359779
170	0x3bb3343a	0.0054688724
171	0x3d54875e	0.05188691
172	0xbdca1816	-0.09867875
173	0x3dfa6e1b	0.12228032
174	0xbe122365	-0.14271314
175	0x3de4d141	0.111727245
176	0x3e445a44	0.19175059
177	0xbe6a9a44	-0.2291041
178	0xbd71f76f	-0.05907386
179	0xbcb01966	-0.021496486
180	0xbe9fe222	-0.31227213
181	0xbd784a4a	-0.060617723
182	0x3de7c41b	0.11316701
183	0x3dfcd20f	0.12344753
184	0x3bcfd24a	0.006342207
185	0x3e3ea232	0.1861656
186	0x3ddb4999	0.10707397
187	0x3d271c7c	0.04079865
188	0xbd5f8e08	-0.05457881
189	0xbeac4427	-0.33645746
190	0x3e35c42e	0.17750618
191	0xbe5b05a6	-0.21388873
192	0xbe815111	-0.2525716
193	0xbe47ce3e	-0.19512269
194	0xbe08a2fb	-0.13343422
195	0xbdf5c035	-0.11999551
196	0xbda0344f	-0.07822477
197	0xbb963257	-0.0045836377
198	0xbc0edbd5	-0.008719404
199	0xbe2c9d9f	-0.16857003
200	0xbddb198a	-0.106982306
201	0x3cdf2c9b	0.02724295
202	0x3dea1097	0.114289455
203	0xbc71270d	-0.014718783
204	0x3c388351	0.011261777
205	0xbd122cbf	-0.035687204
206	0x3e0e5ed1	0.13903357
207	0x3dbf9599	0.09354705
208	0xbcc0a434	-0.023515798
209	0x3e6eacc5	0.23308094
210	0x3caeacd5	0.021322647
211	0x3c54b611	0.012982861
212	0xbf1994b2	-0.59992516
213	0xbe9a6322	-0.30153757
214	0xbd654518	-0.055974096
215	0x3d71c492	0.059025355
216	0xbe1fc330	-0.15601802
217	0x39493e93	0.00019192164
218	0x3dca864d	0.09888897
219	0xbd41c19f	-0.047303792
220	0x3ebfbc99	0.37448576
221	0x3d23f435	0.040027816
222	0x3dae2cb3	0.085046194
223	0xbc424d3f	-0.011859237
224	0x3b00a2be	0.0019628252
225	0xbd2c576b	-0.042075556
226	0x3b0c120c	0.0021373061
227	0xbe923d56	-0.2856242
228	0x3dc217d2	0.094771996
229	0x3ccc5200	0.024941444
230	0xbd008cb5	-0.03138419
231	0x3eb478bd	0.35248366
232	0xbc5eb05a	-0.01359185
233	0x3be4943c	0.0069756787
234	0xbc164912	-0.009172695
235	0x3db0334e	0.086035356
236	0xbb3fcf46	-0.0029267832
237	0x3a4ca17a	0.00078060443
238	0xbe084f5a	-0.1331152
239	0xbe332dd8	-0.17497957
240	0x3ce184cb	0.027529141
241	0xbd6ae63d	-0.05734848
242	0xbebddbeb	-0.37081847
243	0x3dac245d	0.08405373
244	0x3d7bb93e	0.061455958
245	0x3d254941	0.040353063
246	0x39c0cbe1	0.00036772995
247	0xbcda87f7	-0.026676161
248	0xbd0f4a86	-0.03498318
249	0x3e543118	0.20721853
250	0xbe197233	-0.1498497
251	0xbdb955b3	-0.09049549
252	0x3a4c0922	0.00077833433
253	0xbec22539	-0.37919024
254	0x3c09f2d1	0.008419708
255	0x3c2a4c19	0.01039412

hidden_nets.0.bias f4 [128]
0	0xbc9453c3	-0.018106347
1	0xbdae3840	-0.085068226
2	0xbe49d01f	-0.19708298
3	0xbe00953a	-0.12556925
4	0xbd73c981	-0.05951834
5	0xbd6f3ef7	-0.058409657
6	0xbca0780e	-0.019588497
7	0xbcbaab89	-0.022786872
8	0xbde9e981	-0.114214905
9	0xbdfb7cfa	-0.12279697
10	0x3cd54a7e	0.026036497
11	0xbc8461a9	-0.01615985
12	0xbde62d6f	-0.112391345
13	0xbdacabb4	-0.08431187
14	0xbe1dafca	-0.1539909
15	0xbbe52ab5	-0.0069936165
16	0xbd1ab3bf	-0.037769075
17	0x3c6b0da7	0.014346517
18	0xbe1c29f6	-0.15250382
19	0xbd0dc6b8	-0.03461334
20	0xbdbff256	-0.09372394
21	0xbe49ea2a	-0.19718233
22	0x3d0db4ef	0.03459638
23	0xbd7ef529	-0.06224552
24	0xbd0974f9	-0.03355882
25	0x3dc44ee6	0.09585361
26	0xbd8f43e3	-0.0699537
27	0xbdf2cfd8	-0.11856049
28	0x3dd3bcc9	0.10338742
29	0x3db00cef	0.08596217
30	0xbd932b9c	-0.07186052
31	0xbcd574ce	-0.026056673
32	0x3be36b0d	0.0069402517
33	0x3dbaf9ee	0.091297016
34	0xbe3dacd3	-0.18522958
35	0xbdb9db02	-0.090749756
36	0x3c9e9aea	0.019360978
37	0xbe2202ec	-0.15821427
38	0x3df9356d	0.12168393
39	0xbe67d89f	-0.22641228
40	0x3d858acd	0.06520615
41	0xbe18ce58	-0.14922464
42	0xbe1da8f6	-0.15396485
43	0xbe001fa1	-0.12512065
44	0x3e12acfb	0.143238
45	0xbd990e71	-0.074734576
46	0xbe7503b8	-0.239272
47	0x3db7ed3f	0.08980798
48	0x3ddade30	0.1068691
49	0xbe341e05	-0.17589577
50	0x3d8fd2c0	0.07022619
51	0xbe5441f8	-0.2072829
52	0x3cf4c7a2	0.029880349
53	0xbdb14555	-0.08655802
54	0xbbb47935	-0.005507613
55	0xbcb81cda	-0.022474695
56	0xbe048c5d	-0.1294417
57	0xbde57c8b	-0.11205395
58	0xbc34e1ce	-0.011040164
59	0x3d4c7c93	0.04992349
60	0xbd80fdf0	-0.06298435
61	0xbe0642b9	-0.1311139
62	0xbe0b1f57	-0.13586174
63	0xbe3d2b4d	-0.18473549
64	0xbc58567c	-0.013204213
65	0xbe129a6b	-0.14316718
66	0x3de077fa	0.10960384
67	0xbdb49c33	-0.08818855
68	0x3d01c724	0.031684056
69	0x3d1d4e42	0.03840471
70	0x3d390472	0.045170255
71	0x3d12788f	0.035759505
72	0x3d09c6ca	0.033636846
73	0xbe48930e	-0.19587347
74	0xbda7de62	-0.08196713
75	0xbc4a562f	-0.012349649
76	0xbd20f8ac	-0.039299652
77	0xbde79061	-0.11306835
78	0x00000000	0.0
79	0xbe1bba01	-0.15207674
80	0xbd71eacb	-0.059061807
81	0xbda6d5b0	-0.081462264
82	0xbd4752ab	-0.048662823
83	0xbe0759e7	-0.13217889
84	0x3c06991d	0.008215216
85	0x00000000	0.0
86	0xbc6201cf	-0.0137943765
87	0xbe57c37b	-0.21070664
88	0x3d9c95c3	0.07645752
89	0xbd26afda	-0.04069505
90	0x3dcd029a	0.10010262
91	0x3e04b933	0.12961273
92	0xbe2aff18	-0.16698873
93	0xbdad5952	-0.08464302
94	0x3d94e5f4	0.072704226
95	0xbded510e	-0.115877256
96	0x3d2d4fd8	0.042312473
97	0xbd3a8777	-0.045539346
98	0xbe44b73b	-0.19210522
99	0x3df854dc	0.12125561
100	0xbd045714	-0.032309607
101	0xbb0dc452	-0.0021631909
102	0x3e08d0a5	0.13360842
103	0x3c66865c	0.01407012
104	0x3da6ef3e	0.081511006
105	0x3d228c50	0.039684594
106	0xbe048d61	-0.12944557
107	0x3d9caf4d	0.076506235
108	0xbe22114c	-0.1582691
109	0xbdfef4f8	-0.12449068
110	0xbd8f19d5	-0.06987349
111	0xbe7b2b4d	-0.24528237
112	0xbd5d0c7f	-0.053966995
113	0xbc54ec4c	-0.012995791
114	0xbd169554	-0.036763504
115	0xbc5c64bc	-0.013451751
116	0xbe11c92a	-0.14236894
117	0xbc571402	-0.013127329
118	0xbcb4d53d	-0.022074336
119	0xbd8adfb8	-0.06780952
120	0x3ce17383	0.0275209
121	0xbe25ac94	-0.16179115
122	0xbc95e94f	-0.018299727
123	0xbcce15ea	-0.025156934
124	0x3c2b08a8	0.0104390755
125	0x3cbe03b5	0.023195127
126	0x3d4f5ac4	0.05062367
127	0x3d2e9459	0.042621944

hidden_nets.1.weight f4 [128, 128]
0	0x3dba8961	0.09108234
1	0x3a5c30c7	0.00083996024
2	0xbd6229fd	-0.055215824
3	0x3dc627bf	0.0967555
4	0x3e6835a4	0.22676712
5	0xbdbaa614	-0.09113708
6	0xbef18a23	-0.47175702
7	0xbd8f692f	-0.07002484
8	0x3e8a8051	0.27051023
9	0x3e121225	0.14264734
10	0xbe2e90bd	-0.17047401
11	0xbe00efee	-0.12591526
12	0x3cee07a8	0.029056385
13	0xbeb68da8	-0.3565495
14	0x3ddba20d	0.10724268
15	0x3d308cb0	0.04310292
16	0xbe12973c	-0.14315504
17	0xbe695fd0	-0.22790456
18	0xbc213b71	-0.009840832
19	0xbba4e5a5	-0.0050322586
20	0x3cffe2ea	0.03123613
21	0xbdb381a9	-0.08764965
22	0xbf26aa6a	-0.6510378
23	0xbecd3b3e	-0.4008426
24	0xbe82c9ef	-0.25544688
25	0xbe8dcb4b	-0.27694163
26	0xbe75e906	-0.24014673
27	0xbcf3db68	-0.029767707
28	0xbdfea5be	-0.124339566
29	0xbe0cd0ed	-0.13751574
30	0xbe1dc4c5	-0.15407093
31	0x3c6f584e	0.014608456
32	0xbf14974c	-0.5804336
33	0xbe6edcec	-0.23326463
34	0x3d2241e1	0.03961361
35	0xbc08deb5	-0.008353879
36	0x3dacaed7	0.084317856
37	0xbde0d391	-0.10977853
38	0x3da9cbae	0.08290802
39	0x3d3ef561	0.04662073
40	0xbe9668fd	-0.29376975
41	0xbc88dc1b	-0.016706517
42	0x3df0915e	0.117464766
43	0xbd188b56	-0.037242256
44	0xbdf86cbc	-0.121301144
45	0xbe6cc003	-0.23120122
46	0xbd8c2e91	-0.06844819
47	0x3be22223	0.006901042
48	0xba95336a	-0.001138312
49	0x3da348dd	0.07972882
50	0xbea4c7c9	-0.32183674
51	0x3e5a08e7	0.21292458
52	0x3d0a04c8	0.033695966
53	0xbe32af5d	-0.17449708
54	0x3cd6f20d	0.026238466
55	0xbec13ca8	-0.3774159
56	0xbc1d127d	-0.0095869275
57	0xbe71a42a	-0.2359778
58	0x3e02f87f	0.12790106
59	0x3d5042d8	0.050844997
60	0x3e87a0a1	0.26489738
61	0x3d14dbe9	0.036342535
62	0x3de74531	0.11292494
63	0x3d29edec	0.041486666
64	0x3e05c05e	0.13061664
65	0x3e8d037b	0.27541718
66	0x3d1690b5	0.036759097
67	0xbe821121	-0.25403693
68	0xbe24decd	-0.16100617
69	0xbe62c6bd	-0.22146125
70	0xbe6fac23	-0.23405509
71	0xbe0b0457	-0.13575874
72	0xbe53387e	-0.20627019
73	0x3e1e2d33	0.1544693
74	0xbd4f8278	-0.050661534
75	0x3d1458d5	0.03621753
76	0xbcfef6ce	-0.031123545
77	0x3e69b290	0.22822022
78	0x3df465bd	0.119334675
79	0xbe19fbdf	-0.15037487
80	0xbf1a3063	-0.6023008
81	0xbddfdf7b	-0.109312974
82	0xbdd1ed8b	-0.10250386
83	0xbdabb2a0	-0.083836794
84	0xbeaf5fba	-0.3425272
85	0xbd4346e4	-0.04767503
86	0x3d1d48ee	0.03839963
87	0x3d6fee6b	0.058576982
88	0xbdfee543	-0.12446072
89	0xbeb448ef	-0.35211894
90	0xbd7ffea7	-0.062498715
91	0x3d2ab33e	0.041674845
92	0xbda29980	-0.07939434
93	0xbd4964e3	-0.04916848
94	0x3dbde4c6	0.09272151
95	0xbccb2d9e	-0.024802025
96	0xbf07ecf6	-0.5309595
97	0xbe8b292d	-0.27179852
98	0xbbf36eae	-0.0074289655
99	0x3c648baf	0.013949319
100	0xbdfd9698	-0.12382239
101	0xbdfeffe7	-0.12451153
102	0xbf1ca209	-0.61184746
103	0x3c2c63f7	0.01052188
104	0xbe90bf89	-0.2827113
105	0xbe2e5134	-0.17023164
106	0x3d5e8546	0.05432632
107	0x3ceb9a67	0.028760148
108	0x3e2bc444	0.16774088
109	0xbefa200f	-0.48852584
110	0xbef7b75f	-0.4838209
111	0xbbf92474	-0.0076032225
112	0x3e3666fd	0.17812724
113	0xbd18690d	-0.03720956
114	0xbd47b491	-0.048756186
115	0xbe894115	-0.26807466
116	0xbcfb1a82	-0.030652288
117	0xbe53f82b	-0.20700137
118	0xbd4abe56	-0.049497925
119	0xbdceecd5	-0.10103766
120	0xbe5dc1e6	-0.21655998
121	0xbd7e5668	-0.062094122
122	0x3e815a33	0.2526413
123	0xbe56a22b	-0.209603
124	0x3da8deec	0.08245644
125	0xbe2c218f	-0.16809677
126	0x3dccf79d	0.10008166
127	0xbeefaae5	-0.4681007
128	0x3ccb2797	0.024799151
129	0x3e5337c9	0.20626749
130	0x3e1a12f9	0.150463
131	0xbd8c9c62	-0.06865765
132	0xbe9c89c9	-0.30573872
133	0x3d241d60	0.040067077
134	0x3e09d285	0.13459213
135	0x3d048e3e	0.032362215
136	0xbe29b50f	-0.16572975
137	0xbe1a5e44	-0.15075022
138	0xbe8752f3	-0.26430473
139	0x3dde77fa	0.108627275
140	0xbd9da029	-0.07696564
141	0x3e1aa078	0.15100276
142	0xbd99cc31	-0.075096495
143	0x3e1185e6	0.14211234
144	0xbec35366	-0.38149565
145	0xbb44b10c	-0.0030012755
146	0x3cc21b63	0.0236947
147	0xbe94fdef	-0.29099986
148	0x3c076a1f	0.008265047
149	0x3e97ca49	0.2964652
150	0x3dd765f3	0.10517492
151	0xbd000886	-0.03125813
152	0xbe44afb9	-0.19207658
153	0x3e30b118	0.17255056
154	0xbd95f64d	-0.07322369
155	0x3cd78f1c	0.026313357
156	0x3e16dda7	0.14732991
157	0xbdb8a51f	-0.09015869
158	0xbe2d1f56	-0.16906485
159	0xbcf5851b	-0.029970696
160	0x3d1c6bf5	0.038188893
161	0xbdcab675	-0.09898082
162	0x3e328073	0.17431812
163	0xbd8d18e8	-0.06889516
164	0x3e12020a	0.1425859
165	0xbdaae273	-0.08343973
166	0xbe85776e	-0.2606768
167	0xbcb38ce1	-0.021917762
168	0x3d95fe22	0.073238626
169	0x3d0b8257	0.03405985
170	0xbda023c9	-0.078193255
171	0x3d7fd873	0.06246228
172	0xbf31fac4	-0.6952326
173	0xbdd2db7c	-0.102957696
174	0x3d95ef22	0.073210016
175	0xbef2e10f	-0.4743733
176	0xbf09e33d	-0.53862363
177	0x3ad0cf5b	0.0015930937
178	0xbc2cce94	-0.010547299
179	0xbca1631d	-0.019700581
180	0xbe01e116	-0.1268352
181	0x3df32090	0.11871445
182	0xbee018b4	-0.43768847
183	0xbe0640c8	-0.1311065
184	0xbe0c81fd	-0.13721462
185	0xbd977023	-0.07394435
186	0x3dfa40aa	0.12219365
187	0xbe0597df	-0.13046215
188	0x3c7f996d	0.015600544
189	0xbdc413f3	-0.095741175
190	0x3da6c677	0.08143323
191	0xbca69ad5	-0.020337502
192	0x3e065642	0.13118842
193	0xbd484ef0	-0.048903406
194	0xbead94d2	-0.33902603
195	0xbe076bc2	-0.132247
196	0xbd7413de	-0.05958926
197	0xbc949ca2	-0.018141095
198	0x3e695bf4	0.22788984
199	0xbe2ef776	-0.17086586
200	0x3cfb8e0a	0.030707378
201	0xbd693f0b	-0.056944888
202	0x3d59892a	0.053109325
203	0x3d1a17ad	0.037620235
204	0x3cffee18	0.031241462
205	0xbe8f1056	-0.2794215
206	0x3d6e9616	0.0582486
207	0x3e343b61	0.17600776
208	0xbd0fb16f	-0.035081323
209	0xbd4c1d0c	-0.04983239
210	0x3c7d98b2	0.0154783
211	0xbdc8727b	-0.097874604
212	0xbe03374d	-0.12814064
213	0x3e0ecde0	0.13945723
214	0xbe04bf88	-0.12963688
215	0x3d8a7f0b	0.06762513
216	0xbd9f11f3	-0.077670954
217	0xbc701d8a	-0.01465548
218	0xbe46ad73	-0.19402103
219	0xbee844ef	-0.45365092
220	0x3cc6cca7	0.024267508
221	0xbdf1868e	-0.117932424
222	0xbde97886	-0.11399941
223	0x3df9beb4	0.12194577
224	0x3e54c598	0.20778501
225	0xbb0f3d74	-0.0021856697
226	0xbdb6ab30	-0.0891937
227	0xbf17cda7	-0.59298176
228	0x3c723adf	0.014784544
229	0x3de118cf	0.1099106
230	0x3dde380a	0.10850532
231	0xbe2c8daa	-0.16850916
232	0xbe1c71d9	-0.15277804
233	0xbe8dd9fa	-0.27705365
234	0x3e030e3e	0.12798402
235	0xbe99ef2a	-0.3006528
236	0xbde8952d	-0.11356578
237	0x3db9ea90	0.09077942
238	0x3c2dc017	0.01060488
239	0x3d86fa51	0.06590713
240	0xbe8459f9	-0.25849894
241	0xbf42a196	-0.7602781
242	0x3c91cf86	0.01779915
243	0xbd5a7c74	-0.053341344
244	0x3de33549	0.11094148
245	0xbe25a718	-0.16177022
246	0x3d331ec3	0.04373051
247	0x3df3a988	0.1189757
248	0xbedcb0f3	-0.43103752
249	0xbdfaae9b	-0.122403346
250	0xbcf4639e	-0.029832657
251	0x3d03ed36	0.032208644
252	0xbe17f53f	-0.14839648
253	0x3d87c16a	0.06628688
254	0xbe21d1ac	-0.1580264
255	0xbe22e197	-0.15906368

hidden_nets.1.bias f4 [128]
0	0x3d99448c	0.074837774
1	0x3df308b6	0.11866896
2	0x3d800cd6	0.06252448
3	0x3d861fbf	0.06549024
4	0xbdc89e4b	-0.09795817
5	0x3d9a0218	0.075199306
6	0xbdc744f9	-0.09729952
7	0x3da8cbb2	0.08241977
8	0x3dc48947	0.09596496
9	0x3d93e325	0.07221059
10	0x3dbd43cb	0.09241446
11	0xbcaa5637	-0.020793064
12	0x3d9fa360	0.07794833
13	0xbdb0bda0	-0.08629918
14	0x3dc48e70	0.0959748
15	0x3dcd1cac	0.10015234
16	0xbd5cf3b0	-0.053943336
17	0x3da422eb	0.080144726
18	0xbdd10f67	-0.10208016
19	0x3e02f1a3	0.1278749
20	0x3d8d4261	0.068974264
21	0xbd85a607	-0.06525808
22	0x3db54676	0.0885133
23	0x3d2b210d	0.041779567
24	0x3db48823	0.088150285
25	0x3e007c01	0.12547304
26	0x3da845e5	0.08216456
27	0x3de6ff98	0.112792194
28	0x3d42c17a	0.047547795
29	0x3df91838	0.121628225
30	0x3d4179f4	0.047235444
31	0xbd8ce636	-0.06879847
32	0xbce2d246	-0.027688157
33	0x3dbb595b	0.091479026
34	0x3dba2283	0.09088614
35	0x3db9026e	0.090336666
36	0x3da708ca	0.08155973
37	0x3dcee69a	0.101025775
38	0x3daf2876	0.08552639
39	0x3e175f18	0.14782369
40	0x3d0553cd	0.03255062
41	0x3da4d76c	0.08048901
42	0x3de857a0	0.11344838
43	0x3d6c03eb	0.057620924
44	0x3da265f9	0.07929606
45	0x3da842a1	0.082158335
46	0x3db2aa02	0.08723833
47	0x3dca9530	0.098917365
48	0x3d9ea9f5	0.077472605
49	0x3d1bbf8b	0.038024466
50	0x3ddcc408	0.107795775
51	0x3be18a55	0.0068829455
52	0x3c994b2b	0.0187126
53	0x3d4ef838	0.05052969
54	0xbdc671fb	-0.09689709
55	0x3db3bdca	0.08776434
56	0x3ddbef3c	0.1073899
57	0x3d532194	0.051545694
58	0x3cca76c7	0.02471484
59	0x3e1f30d7	0.15545975
60	0x3dd50cb1	0.10402811
61	0x3d8d06f1	0.068860896
62	0x3a99dd06	0.0011738844
63	0xbd77b207	-0.060472514
64	0x3dee4070	0.11633384
65	0x3d80f051	0.06295837
66	0x3d4f33fd	0.05058669
67	0x3da78d22	0.08181216
68	0x3d997984	0.074938804
69	0x3d939591	0.07206262
70	0x3dc63db8	0.09679741
71	0x3d855435	0.06510202
72	0x3c21cb6f	0.0098751625
73	0x3dbe7e2f	0.09301411
74	0x3dc1fa8f	0.094716184
75	0x3e29fc6a	0.16600195
76	0x3ddee0b9	0.10882706
77	0x3dbecee6	0.093168065
78	0x3e082869	0.13296665
79	0x3cc1967f	0.023631332
80	0x3d086e1d	0.033308137
81	0x3dc709a6	0.09718637
82	0x3e0079f1	0.12546517
83	0xbd3bc87f	-0.045845505
84	0x3d6917c5	0.056907434
85	0xba8a1f1f	-0.0010537839
86	0x3d393ad5	0.045222122
87	0x3d5fee33	0.054670524
88	0x3dd4e89a	0.10395928
89	0x3d869f32	0.06573333
90	0x3d90d440	0.070717335
91	0x3d5b1892	0.05349023
92	0x3d89e85b	0.067337714
93	0x3db6c4cd	0.089242555
94	0x3db94cf3	0.0904788
95	0x3ce287db	0.027652672
96	0x3d1d75be	0.038442366
97	0x3dc29307	0.095006995
98	0x3d846bf7	0.06465905
99	0x3d4b3b6b	0.049617212
100	0x3dd7c76e	0.10536085
101	0x3dc7bd4c	0.097529024
102	0x3dd21d2a	0.10259469
103	0x3dcf7b41	0.10130931
104	0x3d72ce3a	0.059278704
105	0x3d89c03b	0.06726118
106	0x3dfc7b91	0.12328256
107	0xbe04a95e	-0.12955233
108	0x3dc27619	0.094951816
109	0xbc8eda8b	-0.017438194
110	0x3de15097	0.110016994
111	0x3dcf989d	0.101365305
112	0x3d956f2c	0.07296595
113	0x3dcb8cff	0.09939002
114	0x3dcebb4e	0.10094319
115	0x3d894a1a	0.06703587
116	0x3cdf979c	0.027293973
117	0x3e1541de	0.14575908
118	0x3da2b409	0.07944495
119	0x3daee826	0.085403726
120	0x3d62b3a2	0.055347092
121	0x3d03b79b	0.03215752
122	0xbc3b7c10	-0.011443153
123	0x3d97c21c	0.0741007
124	0x3db295bf	0.08719968
125	0x3d294993	0.04132993
126	0x3d971c13	0.073784016
127	0x3dcdea74	0.10054484

hidden_nets.2.weight f4 [64, 128]
0	0x3cc93222	0.024560038
1	0x3e5c7ea1	0.2153268
2	0xbe636220	-0.222054
3	0x3e1120bb	0.14172642
4	0x3e665a38	0.22495353
5	0xbd4ea14f	-0.050446805
6	0xbd8b94f3	-0.06815519
7	0x3e0cec8b	0.13762109
8	0xbda0d1e4	-0.078525335
9	0xbd008382	-0.031375416
10	0x3e2f6322	0.1712766
11	0xbd8ec7a4	-0.06971672
12	0x3d0f51ab	0.034989994
13	0x3de2d4c9	0.11075742
14	0x3e4d8192	0.20068958
15	0xbc929afc	-0.017896168
16	0xbe1021fd	-0.14075466
17	0x3e3058ae	0.17221329
18	0x3d830f52	0.063994065
19	0x3ec0ef1b	0.37682423
20	0x3de02946	0.10945372
21	0x3e116672	0.14199236
22	0x3d9352a1	0.071934946
23	0x3d069c32	0.032863803
24	0xbe08fb54	-0.13377124
25	0x3e7ec7f6	0.24880967
26	0x3e2a05d6	0.16603789
27	0x3e083ad9	0.13303699
28	0x3d697c01	0.057003025
29	0x3e113457	0.14180122
30	0x3d072b20	0.03300011
31	0xbda41f69	-0.080138035
32	0x3bb1d9ae	0.005427561
33	0x3deb3837	0.114853315
34	0xbdb7a2f6	-0.08966629
35	0xbd7bf3e6	-0.061511897
36	0x3c0f002d	0.008728069
37	0x3d9ad54d	0.07560215
38	0x3d5d4272	0.054018445
39	0xbd8c5e48	-0.0685392
40	0x3dfe878b	0.124281965
41	0x3d9469d3	0.07246747
42	0x3e1b633e	0.15174577
43	0xbde560e9	-0.11200125
44	0x3e0081a1	0.1254945
45	0xbb2d49b9	-0.0026441647
46	0x3dee09d9	0.11622972
47	0xbe2ffb98	-0.17185819
48	0xbd66bea8	-0.056334168
49	0x3da43f85	0.08019928
50	0x3dcf6018	0.1012575
51	0x3ceb4cc7	0.028723134
52	0x3d5a8874	0.053352788
53	0x3dc3314a	0.095308855
54	0x3d95266c	0.07282719
55	0xbdf460f2	-0.11932553
56	0x3ddcdfce	0.10784875
57	0x39231482	0.00015552531
58	0x3cc51376	0.024057131
59	0x3d6390a0	0.055557847
60	0x3e34b21c	0.17646068
61	0xbe182eff	-0.14861678
62	0x3d2b5c6a	0.04183618
63	0x3d49018d	0.049073745
64	0x3d1607ed	0.036628652
65	0x3d9db069	0.07699663
66	0xbdb9244c	-0.09040126
67	0x3e0c656e	0.13710567
68	0x3d02fd98	0.031980127
69	0x3dc4258e	0.095774755
70	0xbde05562	-0.109537855
71	0x3a21343d	0.00061494467
72	0x3db8df0a	0.09026916
73	0x3e07d8f9	0.13266362
74	0xbcb7a9cc	-0.022419833
75	0x3e08c1b2	0.13355139
76	0x3d86abdc	0.06575748
77	0x3deae3eb	0.11469253
78	0x3d8ba753	0.06819024
79	0x3d86bc82	0.06578924
80	0xbd2bac7d	-0.041912545
81	0xbc1645d2	-0.00917192
82	0x3daab8d4	0.083360344
83	0xbe203bb2	-0.15647772
84	0xbe254aa1	-0.1614175
85	0xbd8b2a74	-0.06795207
86	0xbce99fb4	-0.028518535
87	0x3e6c01fb	0.2304763
88	0x3e3c3480	0.18379402
89	0xbe457ef2	-0.19286707
90	0x3dfcc3e1	0.123420484
91	0x3d599672	0.05312199
92	0xbd378340	-0.044802904
93	0x3db777ad	0.08958373
94	0x3ddc48f1	0.107561
95	0x3d3e3bec	0.046443865
96	0x3e3b9e62	0.18322137
97	0xbd1cf287	-0.03831723
98	0x3dbfd607	0.09366994
99	0xbc2695c6	-0.010167545
100	0x3d172f3b	0.036910277
101	0xbe28c6f9	-0.16482152
102	0x3d5525b6	0.052037917
103	0x3ddd1ac3	0.1079612
104	0x3e625741	0.22103597
105	0xbd21e678	-0.039526433
106	0x3bb251c0	0.0054418743
107	0x3d8595c2	0.06522705
108	0x3e644246	0.22290906
109	0x3c39eb38	0.011347584
110	0x3d47a9bb	0.048745852
111	0x3d68b85b	0.05681644
112	0x3e0d1559	0.13777675
113	0x3e682f7d	0.22674365
114	0xbdeed4ad	-0.116616584
115	0x3e21cd07	0.15800868
116	0xbd1d7a0d	-0.038446475
117	0x3d9f29c6	0.077716395
118	0x3a16ccfe	0.0005752592
119	0x3e0a0905	0.13480003
120	0x3c1ba3ca	0.0094995
121	0xbd36740d	-0.04454427
122	0x3cb3a419	0.021928834
123	0x3e6894fc	0.22713083
124	0x3e610a5e	0.21976611
125	0xbda2dd8f	-0.07952415
126	0x3d0618b9	0.03273842
127	0x3e0b3f95	0.13598473
128	0xbe335cf5	-0.17515929
129	0x3ec549b5	0.38532797
130	0xbd08f6bc	-0.03343843
131	0x3cd3e7bd	0.025867337
132	0x3e6e6c38	0.2328347
133	0x3d567ac0	0.052363157
134	0x3db4ad2c	0.088220924
135	0xbdd6502f	-0.104645126
136	0x3de943de	0.11389898
137	0x3e21233c	0.15736097
138	0x3cc4ca2b	0.024022182
139	0x3c349247	0.011021203
140	0x3cf23a22	0.029568736
141	0x3d0bca0f	0.034128245
142	0x3d046031	0.032318298
143	0xbe14d4d6	-0.14534315
144	0xbe3e29a2	-0.18570569
145	0xbd22461a	-0.039617635
146	0x3e27c883	0.16385083
147	0x3eab6eaa	0.33482867
148	0x3cc35a2f	0.023846714
149	0x3eacd7c6	0.33758372
150	0xbe4432e4	-0.19160038
151	0xbdf27aec	-0.11839852
152	0x3d64492f	0.055733856
153	0x3e8aee0a	0.27134734
154	0x350fe9a0	5.361162e-07
155	0xbd23d42c	-0.039997265
156	0xbd517a33	-0.05114193
157	0x3e53f4dd	0.20698877
158	0x3e35a983	0.17740445
159	0x3e57a46e	0.21058819
160	0x3ee54a97	0.4478347
161	0xbdf010a4	-0.11721924
162	0x3d0477d2	0.032340832
163	0x3ca84091	0.0205386
164	0x3e3ef924	0.18649727
165	0x3e8553f0	0.26040602
166	0x3da7f60b	0.08201226
167	0x3eb3c48a	0.35110885
168	0x3c994a80	0.018712282
169	0x3dad7a95	0.08470646
170	0x3e856daf	0.26060244
171	0x3caeddbd	0.021345967
172	0xbd31f2aa	-0.043444313
173	0xbcd64878	-0.026157603
174	0x3d38cff0	0.04512018
175	0xbc01ee33	-0.007930326
176	0xbaadf513	-0.001327189
177	0x3dd08ba6	0.10182886
178	0x3e971d7b	0.2951468
179	0xbdc816aa	-0.09769948
180	0x3d23b3a3	0.039966237
181	0xbe0e4fb9	-0.138976
182	0x3e9690b1	0.29407266
183	0xbe35bd0d	-0.17747898
184	0xbd103094	-0.035202578
185	0x3d8d37f9	0.068954416
186	0xbe0ee972	-0.1395624
187	0x3e82ead4	0.25569785
188	0x3e618dd0	0.22026753
189	0x3e4d3adc	0.20041984
190	0xbe58adf9	-0.21160115
191	0xbc074b34	-0.008257676
192	0x3eb6f8fa	0.3573683
193	0x3dafb1b0	0.08578813
194	0x3e23bc38	0.15989769
195	0x3e39f416	0.18159518
196	0x3e4af2f2	0.19819239
197	0x3db88936	0.09010546
198	0xbbc3bad0	-0.0059731975
199	0x3e30a306	0.17249689
200	0x3e9e641a	0.30935746
201	0x3e04acb5	0.12956508
202	0x3daa042c	0.08301577
203	0x3e7e8ed6	0.24859175
204	0x3ea61035	0.3243424
205	0x3e49911d	0.19684263
206	0xbcf0cd53	-0.029394781
207	0x3e5b99c4	0.21445376
208	0x3d05e278	0.03268668
209	0x3e0532cf	0.13007663
210	0x3daff30c	0.085912794
211	0x3dc90cea	0.09816916
212	0x3e1a5366	0.15070876
213	0xbd480111	-0.048829142
214	0xbdcb1df6	-0.09917824
215	0x3e5e7863	0.21725611
216	0x3ebf31fd	0.37342826
217	0xbd7bca41	-0.06147218
218	0xbde58103	-0.11206248
219	0x3e368e69	0.17827763
220	0xbd47c43b	-0.048771124
221	0x3e97df49	0.2966254
222	0x3de362c4	0.111028224
223	0xbd119718	-0.035544485
224	0x3ec0508c	0.37561452
225	0x3cc20497	0.02368383
226	0xbdd13c51	-0.102165826
227	0x3de964af	0.11396157
228	0x3d437c6e	0.047726087
229	0xbd57b19f	-0.052659627
230	0x3e2a3f80	0.16625786
231	0x3d869b93	0.06572642
232	0xbc9305c1	-0.01794708
233	0x3d9eb34a	0.077490404
234	0x3e8cfc9a	0.2753647
235	0x3cad9b3e	0.02119219
236	0x3e244c19	0.16044654
237	0x3e98bdfe	0.29832453
238	0x3ea374bf	0.31925008
239	0x3cc207c8	0.023685351
240	0xbe2272ed	-0.15864153
241	0x3dfb7b8e	0.122794256
242	0x3babe57c	0.0052458625
243	0x3e271b92	0.16319111
244	0xbdc95439	-0.09830517
245	0x3dba5104	0.09097484
246	0x3e9c96ca	0.30583793
247	0x3da53703	0.08067133
248	0xbda4f8e6	-0.08055286
249	0x3d0d55d2	0.034505673
250	0xbdc30882	-0.09523107
251	0x3dbbe714	0.09174934
252	0x3dec7120	0.115450144
253	0xbca3ea99	-0.020009326
254	0xbe3bffdd	-0.18359323
255	0x3e212932	0.15738371

hidden_nets.2.bias f4 [64]
0	0x3f3bcf25	0.7336295
1	0x3eee2130	0.46509695
2	0x3f8f32e9	1.1187412
3	0x3f832b57	1.0247601
4	0x3f8b13e1	1.0865442
5	0x3f7bad00	0.9831085
6	0x3f3b36dc	0.73130584
7	0x3f7bb402	0.98321545
8	0xbd7480ea	-0.059693255
9	0x3f784aaa	0.9698893
10	0x3f37751c	0.7166307
11	0x3f810521	1.007969
12	0x3f2d88a2	0.6778661
13	0x3f0410e7	0.5158829
14	0x3f16a75a	0.5884911
15	0x3f83105a	1.0239365
16	0xbd854c0c	-0.065086454
17	0x3f65b2ba	0.8972584
18	0x3f556a62	0.8336545
19	0x3f6ad321	0.9172841
20	0xbe0d10ca	-0.13775936
21	0xbcf1513f	-0.029457686
22	0x3f81eb1d	1.0149876
23	0x3eaf775a	0.34270746
24	0x3f640ba8	0.89080286
25	0x3f8336c7	1.0251092
26	0x3f8668aa	1.0500691
27	0x3f879e00	1.0595093
28	0x3f81d536	1.0143192
29	0x3e934a3e	0.2876758
30	0x3f85ff1e	1.046848
31	0x3f85f41a	1.0465119
32	0x3f88b125	1.067906
33	0x3f12224f	0.570836
34	0x3f80c3ab	1.0059713
35	0x3f820d9d	1.0160404
36	0x3f8f133d	1.1177746
37	0x3f875c57	1.0575055
38	0x3ef9d6a0	0.48796558
39	0x3f7ebd71	0.99507815
40	0x3f0d6e74	0.55246663
41	0x3f82825c	1.0196033
42	0x3e971bed	0.29513493
43	0x3f818d05	1.0121161
44	0x3f86f415	1.0543238
45	0x3d0828ce	0.03324204
46	0x3d7ea988	0.062173396
47	0x3f817141	1.0112687
48	0xbd46a6bd	-0.048498858
49	0x3f85dee8	1.045865
50	0x3f86bdc4	1.0526662
51	0x3f87748e	1.0582445
52	0x3f88d81c	1.0690951
53	0xbde15086	-0.11001687
54	0x3f8ba083	1.0908359
55	0x3f8a9ab0	1.0828457
56	0x3f6e85a7	0.9317269
57	0xbdf44866	-0.119278714
58	0x3f84c0bd	1.0371319
59	0x3ed5c33f	0.41750523
60	0x3f2c09fc	0.67202735
61	0x3f82db7b	1.022323
62	0xbd348d80	-0.044080257
63	0x3ef86ee8	0.48522115

value_stream.weight f4 [1, 64]
0	0x3f268224	0.6504233
1	0x3f27c409	0.655335
2	0x3f223fa9	0.6337839
3	0x3f36b9ca	0.7137724
4	0x3f259d15	0.64692813
5	0x3f548ead	0.83030206
6	0x3f1ba8fc	0.60804725
7	0x3f54c18b	0.83107823
8	0xbdd6f1d2	-0.10495342
9	0x3f50291d	0.81312734
10	0x3f38338e	0.71953666
11	0x3f63e119	0.89015347
12	0x3f1d0fd0	0.6135225
13	0x3f1d0beb	0.6134631
14	0x3f308c2a	0.68963873
15	0x3f475b53	0.77873725
16	0xbd02ebb2	-0.031963058
17	0x3f0eb0c6	0.55738485
18	0x3f0c7518	0.5486617
19	0x3f256fba	0.64623606
20	0xbe1f8533	-0.15578155
21	0xbeb9c791	-0.3628507
22	0x3f68df58	0.90965796
23	0x3ef44b4e	0.47713703
24	0x3f3d42d1	0.7393008
25	0x3f5376cb	0.8260314
26	0x3f586002	0.84521496
27	0x3f49feed	0.7890461
28	0x3f3d53cc	0.7395599
29	0x3f22b61a	0.63559115
30	0x3f314e4c	0.69260097
31	0x3f4b8524	0.7950003
32	0x3f2d815f	0.6777553
33	0x3f1d2012	0.6137706
34	0x3f57666a	0.84140646
35	0x3f5695b5	0.83822185
36	0x3f12260c	0.57089305
37	0x3f4e9e69	0.80710465
38	0x3f127c3f	0.57220834
39	0x3f5ba3ce	0.8579682
40	0x3f0a5e64	0.5405028
41	0x3f530a2f	0.82437414
42	0x3f259c2d	0.6469143
43	0x3f56cebc	0.839092
44	0x3f463016	0.77417123
45	0xbea29ed2	-0.31761795
46	0xbf3da5d5	-0.74081165
47	0x3f580545	0.8438304
48	0xbd08d89a	-0.033409692
49	0x3f428d8e	0.75997245
50	0x3f3d8365	0.7402862
51	0x3f3dc224	0.7412436
52	0x3f4aff20	0.7929554
53	0xbe45a848	-0.19302475
54	0x3f2702be	0.6523856
55	0x3f2d0cac	0.6759746
56	0x3f3c240a	0.7349249
57	0xbe580c29	-0.21098389
58	0x3f3d6d65	0.7399505
59	0x3f20c06e	0.62793624
60	0x3f111fbf	0.56689066
61	0x3f4ac283	0.7920305
62	0xbd7a6249	-0.06112889
63	0x3f335967	0.7005829

advantage_stream.weight f4 [5, 64]
0	0xbcb1d511	-0.021708043
1	0x3c478717	0.012178204
2	0x3d291467	0.041279223
3	0xbd8490ad	-0.06472907
4	0x3d97526e	0.07388769
5	0xbb54c901	-0.003246844
6	0xbe786696	-0.24257883
7	0xba14ffa3	-0.0005683845
8	0x3e079d0e	0.13243505
9	0x3e3c9d67	0.18419419
10	0xbd7a3332	-0.06108398
11	0x3ded349f	0.11582302
12	0x3c64c91c	0.013963964
13	0x3e08a210	0.13343072
14	0x3d375dbc	0.044767126
15	0xbc344f56	-0.011005243
16	0x3e904957	0.28180954
17	0xbdaabf3f	-0.083372585
18	0x3de82ddc	0.11336872
19	0x3b08c4fa	0.002086936
20	0xbd2b555c	-0.041829452
21	0x3db112d8	0.08646172
22	0xbc6fbd78	-0.014632575
23	0xbe49469c	-0.19655842
24	0x3dd7abf1	0.10530842
25	0x3d282373	0.041049432
26	0x3dbf390b	0.09337052
27	0xbcf8c57f	-0.030367611
28	0x3ce17104	0.02751971
29	0xbd9865e6	-0.074413106
30	0xbdb188bf	-0.0866866
31	0x3d24f5b9	0.040273402
32	0x3b9e2a09	0.0048267883
33	0x3c8fb959	0.017544435
34	0x3c535c65	0.012900447
35	0x3e0fc35f	0.14039372
36	0x3dd743d2	0.105109826
37	0x3e0ecf14	0.13946182
38	0xbe05dac3	-0.13071732
39	0x3df43bc7	0.11925464
40	0x3b85fa7e	0.004088699
41	0x3e3b3f00	0.18285751
42	0xbdda06e0	-0.106458426
43	0x3e3e6fb6	0.18597302
44	0x3e121ae9	0.14268078
45	0x3ebb49d3	0.3657976
46	0x3eeaabb8	0.45834136
47	0x3dd9db85	0.10637573
48	0x3d3192ac	0.043352768
49	0x3cbf2c31	0.023336502
50	0x3daf22dd	0.085515715
51	0xbcd156bf	-0.02555406
52	0x3c1b9a4d	0.009497237
53	0x3db49ef6	0.08819382
54	0xbcb56b93	-0.022146022
55	0x3c7ca443	0.015420022
56	0xbc917578	-0.017756209
57	0x3e0459fa	0.12924948
58	0xbc017693	-0.007901805
59	0xbc310a05	-0.0108056115
60	0x3d2f8f53	0.042861294
61	0xbd5c6fc9	-0.053817544
62	0x3c136b70	0.008997783
63	0x3d94968b	0.07255276
64	0xbd733f92	-0.059386797
65	0xbc5fea29	-0.013666668
66	0x3d343e04	0.044004455
67	0xbdc288a7	-0.094987206
68	0x3d5e9696	0.05434283
69	0xbd921d22	-0.07134463
70	0xbe7b11e0	-0.24518538
71	0xbcaff43a	-0.021478761
72	0x3e861f52	0.2619577
73	0x3dd4b6c2	0.10386421
74	0xbd81412a	-0.06311257
75	0x3d41b906	0.047295593
76	0x3c46d3d7	0.0121354675
77	0x3de3c77b	0.11122032
78	0x3d3619bc	0.044458136
79	0xbd251feb	-0.040313642
80	0x3de4a34f	0.11163961
81	0xbdabe117	-0.08392542
82	0x3de41273	0.111363314
83	0xbc90dca1	-0.017683329
84	0x3d7099db	0.058740478
85	0xbe5c6ab4	-0.21525079
86	0xbdc2e179	-0.09515662
87	0x3db61d50	0.0889231
88	0x3dac323d	0.0840802
89	0xbd0c5c66	-0.034267806
90	0x3d8e4606	0.0694695
91	0xbca78154	-0.02044741
92	0xbd43269c	-0.047644243
93	0xbd25c0a6	-0.040466927
94	0xbe047d74	-0.12938482
95	0x3d0137a9	0.031547222
96	0xbd2976b2	-0.041372962
97	0x3ce590fc	0.028023235
98	0xbd0979aa	-0.033563294
99	0x3d56c730	0.052436054
100	0x3d8f2fd9	0.06991548
101	0x3d827028	0.06369048
102	0xbdc614cb	-0.09671935
103	0x3d4b59e8	0.04964629
104	0x3c69dfb9	0.014274531
105	0x3de0a6d7	0.10969322
106	0x3cf7dc79	0.030256497
107	0x3e04962d	0.12947913
108	0x3db73837	0.08946269
109	0xbee61266	-0.44935912
110	0xbe619203	-0.22028355
111	0x3d888376	0.06665699
112	0xbe257f10	-0.16161752
113	0xbc5575ec	-0.013028603
114	0x3d33759c	0.043813333
115	0xbd83f007	-0.06442266
116	0xbc9ffb31	-0.019528957
117	0xbe099a41	-0.1343775
118	0xbd40efee	-0.047103815
119	0xbc27a9e8	-0.01023338
120	0xbd9dfc82	-0.07714178
121	0xbd894289	-0.06702144
122	0xbcf8a75b	-0.030353239
123	0x3a9fde1d	0.0012196932
124	0x3d0e8c97	0.034802046
125	0xbdd0cabc	-0.101949185
126	0xbb79bd73	-0.0038107305
127	0x3b63af10	0.0034741797
128	0xbd759bde	-0.0599631
129	0xbd42e0e7	-0.047577765
130	0x3d2b9cff	0.04189777
131	0xbdd1cf25	-0.10244588
132	0x3d78016c	0.06054823
133	0xbd2f2ce8	-0.042767435
134	0xbe88faa0	-0.26753712
135	0x3c9c8acb	0.01910915
136	0xbd31d6ef	-0.043417867
137	0x3de0a297	0.109685116
138	0xbdbbc65d	-0.09168694
139	0x3dabda97	0.08391302
140	0x3c003cd1	0.007827
141	0x3e014baa	0.1262652
142	0x3d701031	0.05860919
143	0xbcb8ed15	-0.022573987
144	0x3d609f7d	0.0548396
145	0xbdeed9bc	-0.11662623
146	0x3df13188	0.117770255
147	0xbc7086b0	-0.0146805495
148	0xbe6086b7	-0.2192639
149	0x3d9dc879	0.07704253
150	0xbd470f73	-0.048598718
151	0x3dbe859e	0.09302829
152	0x3dbdb32a	0.092626885
153	0x3c387aec	0.011259776
154	0x3da70102	0.08154489
155	0xbcc8a15f	-0.02449101
156	0xbcc868e3	-0.024464076
157	0xbcd70b4d	-0.026250506
158	0xbdcd4df6	-0.100246355
159	0x3d61a14a	0.055085458
160	0xbcf4114a	-0.0297934
161	0x3cef162e	0.02918538
162	0xbc82bd4e	-0.015959408
163	0x3dfeff64	0.12451056
164	0x3d4c14b5	0.049824435
165	0x3df7759d	0.1208298
166	0xbe09fe6e	-0.13475963
167	0x3db8220e	0.089908704
168	0x3b177e56	0.0023116074
169	0x3dfb5bf6	0.122733995
170	0xbcf64993	-0.03006438
171	0x3dda2375	0.10651294
172	0x3d96f5cd	0.073711015
173	0x3e95d961	0.2926741
174	0x3cbb2abe	0.02284753
175	0x3dd61158	0.10452527
176	0x3e271a51	0.16318633
177	0x3b8a22e4	0.004215585
178	0x3d8e82d7	0.069585495
179	0xbd2376b6	-0.039908133
180	0xbbba6a06	-0.0056889085
181	0x3e063d8c	0.13109416
182	0xbcfcf720	-0.030879557
183	0x3c28945d	0.010289279
184	0xbd32bf74	-0.043639615
185	0x3d952642	0.07282688
186	0xbc9f46c7	-0.019442929
187	0xbd295fa9	-0.041350994
188	0x3ce078e5	0.027401397
189	0xbd5e8cc0	-0.05433345
190	0x3e43814f	0.19092296
191	0x3cccaed2	0.024985705
192	0xbdaeac67	-0.08528977
193	0x3b9f81e7	0.0048677805
194	0x3d759a5b	0.059961658
195	0xbde98348	-0.11401993
196	0x3d63365b	0.05547176
197	0xbd7e1d21	-0.0620395
198	0xbe90d5c9	-0.28288105
199	0xbcbc84fc	-0.02301263
200	0xbda0723b	-0.07834288
201	0x3e16284b	0.14663808
202	0xbdd41ca3	-0.103570245
203	0x3d64bfba	0.055846907
204	0xbc492704	-0.012277368
205	0x3dccd8c7	0.100022845
206	0x3c32c3a6	0.010910904
207	0xbd2ba3bd	-0.0419042
208	0xbd1d3a94	-0.038385943
209	0xbdf05e64	-0.117367536
210	0x3dd23ac4	0.10265115
211	0xbd5e45cc	-0.054265782
212	0xbe2bb5c6	-0.1676856
213	0x3e281a80	0.16416359
214	0xbdcd7c6a	-0.10033496
215	0x3da80ccc	0.08205566
216	0x3d70a99c	0.058755502
217	0xbbf4f7f6	-0.0074758483
218	0x3d539fea	0.051666178
219	0xbd5a4621	-0.053289536
220	0xbd582672	-0.05277104
221	0x3e124960	0.14285803
222	0xbe0d34ab	-0.13789622
223	0x39e228a2	0.00043136353
224	0xbd77adef	-0.06046861
225	0xbc549763	-0.0129755465
226	0xbd125f5c	-0.035735473
227	0x3d714499	0.05890331
228	0x3d5b4a89	0.05353788
229	0x3d99d768	0.075117886
230	0xbdec17b6	-0.1152796
231	0x3d0f1e8e	0.03494125
232	0xbc9b23dc	-0.018937998
233	0x3e00d3c9	0.1258079
234	0xbdbe1093	-0.09280505
235	0x3dda647c	0.10663697
236	0x3d849f24	0.06475666
237	0x3e1b4e20	0.15166521
238	0xbe59a4ee	-0.21254322
239	0x3d5f72ed	0.05455296
240	0x3e3db2cb	0.18525235
241	0xbd2c51a3	-0.042070042
242	0x3c999e99	0.018752383
243	0xbd9dc879	-0.07704253
244	0xbd152ea2	-0.036421426
245	0xbbc8f67c	-0.006132899
246	0xbd90df33	-0.07073822
247	0xbc684b0f	-0.014178052
248	0xbd933364	-0.07187536
249	0x3e6ef95d	0.23337312
250	0xbd307126	-0.043076657
251	0xbc240b6c	-0.010012489
252	0x3c91884e	0.01776519
253	0xbe0bc3ea	-0.13648954
254	0x3e5b3817	0.21408115
255	0x3c92a39e	0.017900284

advantage_stream.bias f4 [5]
0	0xbf512990	-0.81704044
1	0x3e985aea	0.29756862
2	0xbe8cfc6e	-0.2753634
3	0x3f52e577	0.82381386
4	0xbe9cdd70	-0.30637693

hidden_nets.0.weight f4 [128, 11]
0	0x3c3f93cd	0.011692953
1	0xbbb63bc6	-0.005561325
2	0xbe3870ff	-0.18011855
3	0xbe842f56	-0.25817364
4	0xbe0ec192	-0.13941029
5	0x3e34a164	0.1763969
6	0x3e342e7d	0.17595859
7	0xbd334877	-0.04377028
8	0x3de900ea	0.113771275
9	0xbd8e8496	-0.069588825
10	0xbdf1e86b	-0.11811908
11	0x3e552592	0.20815113
12	0x3de1fdb7	0.110347204
13	0xbe9e3d3a	-0.30906087
14	0xbbb6c68e	-0.005577869
15	0x3d85c0f1	0.06530941
16	0xbd8134d6	-0.06308906
17	0xbdd35baf	-0.10320222
18	0xbe7545c3	-0.23952393
19	0xbe341c67	-0.1758896
20	0xbe48f8bf	-0.19626139
21	0xbc729365	-0.014805649
22	0x3e2685c8	0.16261971
23	0xbe466e9e	-0.19378135
24	0xbe5ba141	-0.21448232
25	0x3e5d7a80	0.21628761
26	0x3e0ef552	0.1396077
27	0xbbf22602	-0.007389785
28	0xbd1ea140	-0.038728
29	0xbc219105	-0.0098612355
30	0xbe08b1c3	-0.1334906
31	0xbd4d197b	-0.05007313
32	0xbc7111d3	-0.014713722
33	0xbd4ea1c3	-0.050447237
34	0xbdf0d07b	-0.117585145
35	0xbd98e76d	-0.07466016
36	0xbe4df903	-0.20114522
37	0x3e23b1e8	0.15985835
38	0xbe2e91b5	-0.1704777
39	0x3d8620f6	0.065492555
40	0xbdc490d7	-0.095979385
41	0x3d8e8d11	0.069605
42	0x3dc4c288	0.096074164
43	0x3ca7189f	0.020397482
44	0x3ebeef6a	0.37292033
45	0x3d70f32a	0.05882565
46	0xbcae2eaf	-0.021262495
47	0xbd9c4aa6	-0.076314256
48	0xbdd925cd	-0.10602913
49	0xbe31baf9	-0.1735648
50	0xbdcdfcc5	-0.100579776
51	0xbe0d3061	-0.13787986
52	0x3bea9407	0.0071587595
53	0xbe06412b	-0.13110797
54	0xbe15fd17	-0.14647327
55	0xbe0ec96a	-0.13944021
56	0xbe35e173	-0.17761783
57	0xbe657598	-0.2240814
58	0xbe1d3310	-0.1535151
59	0x3e0092a7	0.12555943
60	0xbe8773dd	-0.26455584
61	0xbdc213f0	-0.09476459
62	0xbdbbb2ac	-0.09164938
63	0x3ddc1ea6	0.10748033
64	0x3cad88bc	0.021183364
65	0x3d846685	0.064648665
66	0xbe3f4a49	-0.18680681
67	0xbc636dee	-0.01388119
68	0x3b063957	0.0020480955
69	0xbd247cb4	-0.04015799
70	0x3c6d3d2c	0.014479917
71	0xbcf89f1c	-0.030349307
72	0xbe7b088e	-0.24514982
73	0xbcb75dd7	-0.022383614
74	0xbe0da503	-0.13832478
75	0xbecb0898	-0.39654994
76	0xbe384f08	-0.17998898
77	0xbe0d1739	-0.1377839
78	0xbd427c0c	-0.04748158
79	0xbccb9dc3	-0.0248555
80	0x3b632768	0.003466094
81	0xbdd38ce7	-0.10329609
82	0xbdbbf547	-0.09177642
83	0x3e042c15	0.12907441
84	0xbcd42cd1	-0.025900276
85	0x3e09f74d	0.13473244
86	0xbecec020	-0.40380955
87	0x3d9c5d99	0.0763504
88	0x3ea5ae76	0.32359666
89	0xbceaf41d	-0.028680855
90	0xbb0a91c9	-0.0021144024
91	0x3cd4d458	0.02598016
92	0xba371f34	-0.00069855456
93	0x3da4c3a8	0.08045131
94	0xbe08ec26	-0.13371333
95	0xbe345b4e	-0.17612955
96	0xbdf42587	-0.1192122
97	0xbe2686a8	-0.16262305
98	0xbd980f97	-0.074248485
99	0xbe6e42b5	-0.23267634
100	0xbe59627d	-0.21228977
101	0xbd2ed284	-0.042681232
102	0x3a883bb6	0.0010393772
103	0x3e98442c	0.2973951
104	0x3d6bd0da	0.057572223
105	0x3b6cb527	0.0036118717
106	0x3d7c16b4	0.06154509
107	0x3d1ed4d4	0.038777187
108	0x3b29114d	0.0025797666
109	0x3b0082b8	0.0019609164
110	0xbdc9eb82	-0.09859373
111	0x3df756d9	0.12077112
112	0xbe0b0f22	-0.13579991
113	0xbcab305e	-0.020897087
114	0xbeae2984	-0.3401605
115	0x3d026690	0.031836092
116	0xbd0018e5	-0.03127374
117	0x3dc8c15e	0.09802507
118	0xbe12a252	-0.14319733
119	0x3d0f9273	0.035051774
120	0x3e52a9e3	0.20572619
121	0xbec24139	-0.37940386
122	0xbe1900d7	-0.14941727
123	0x3d3873eb	0.045032423
124	0xbe8c9f28	-0.27465177
125	0x3db6a5c0	0.08918333
126	0xbe663210	-0.22480035
127	0xbe071620	-0.13192034
128	0xbe551fcc	-0.20812911
129	0x3d8114bf	0.06302785
130	0xbd394f83	-0.045241844
131	0xbcda2c0a	-0.026632328
132	0xbe758fa7	-0.2398058
133	0xbcefbbf5	-0.02926443
134	0x3de2e669	0.110791035
135	0xbed73de7	-0.42039415
136	0xbd907ef8	-0.07055467
137	0x3da6e116	0.081484005
138	0x3dab7a04	0.08372882
139	0x3cd0052e	0.025393095
140	0x3da1bfeb	0.078979336
141	0x3921092a	0.0001535757
142	0xbde18123	-0.11010959
143	0xbdbb45eb	-0.09144195
144	0xbe4f535e	-0.20246646
145	0x3e1a268e	0.1505377
146	0x3ad77f01	0.0016441048
147	0x3dd33875	0.10313503
148	0xbe06a08b	-0.1314718
149	0xbdda0ece	-0.10647355
150	0xbe7d2e86	-0.24724779
151	0x3e1759af	0.14780305
152	0x3dac7771	0.08421219
153	0x3da3ce4c	0.079983324
154	0x3e3345b5	0.1750706
155	0xbe29d1c5	-0.16583927
156	0xbdc177a1	-0.094466455
157	0x3d1d0ba2	0.038341172
158	0x3dca93a4	0.098914415
159	0x3d045400	0.03230667
160	0xbd8af793	-0.06785502
161	0xbe28615c	-0.1644339
162	0xbe0468dc	-0.12930626
163	0xbacf7225	-0.0015826864
164	0xbc1f4204	-0.009720329
165	0xbd34048e	-0.043949656
166	0x3d37cd00	0.044873238
167	0xbe0be668	-0.13662112
168	0xbd330f45	-0.043715734
169	0xbe27862e	-0.16359779
170	0x3bb3343a	0.0054688724
171	0x3d54875e	0.05188691
172	0xbdca1816	-0.09867875
173	0x3dfa6e1b	0.12228032
174	0xbe122365	-0.14271314
175	0x3de4d141	0.111727245
176	0x3e445648	0.19173539
177	0xbe6a351e	-0.22871825
178	0xbd72c1a7	-0.059266713
179	0xbc7e604b	-0.015525888
180	0xbe9e4aed	-0.3091654
181	0xbd6e2e81	-0.05814982
182	0x3de7a786	0.113112494
183	0x3dfda25c	0.12384483
184	0x3bcfd24a	0.006342207
185	0x3e3e4b13	0.18583326
186	0x3de61aa6	0.112355515
187	0x3d271c7c	0.04079865
188	0xbd5f952c	-0.05458562
189	0xbeac44a0	-0.33646107
190	0x3e35c25d	0.17749925
191	0xbe5b075d	-0.21389528
192	0xbe815111	-0.2525716
193	0xbe47cc80	-0.19511604
194	0xbe08a4b9	-0.13344087
195	0xbdf5c035	-0.11999551
196	0xbda0361a	-0.07822819
197	0xbb95ebb0	-0.0045752153
198	0xbc0edbd5	-0.008719404
199	0xbe2c9d9f	-0.16857003
200	0xbddb198a	-0.106982306
201	0x3cdf2c9b	0.02724295
202	0x3dea1097	0.114289455
203	0xbc71270d	-0.014718783
204	0x3c388351	0.011261777
205	0xbd122cbf	-0.035687204
206	0x3e0e5ed1	0.13903357
207	0x3dbf9599	0.09354705
208	0xbcc0a434	-0.023515798
209	0x3e6e628b	0.23279779
210	0x3cad4837	0.021152599
211	0x3c448c20	0.011996299
212	0xbf1994b2	-0.59992516
213	0xbe9a8078	-0.3017614
214	0xbd62a14f	-0.055329617
215	0x3d70bd4b	0.058774274
216	0xbe1ffed7	-0.15624557
217	0x39493e93	0.00019192164
218	0x3dc36374	0.095404536
219	0xbd476f64	-0.048690215
220	0x3ebf9f70	0.3742633
221	0x3d23dbbd	0.04000448
222	0x3dafa1e8	0.08575803
223	0xbc004654	-0.0078292675
224	0x3b88298b	0.004155343
225	0xbd3737f8	-0.04473111
226	0x3bc52f04	0.0060175676
227	0xbe928171	-0.2861438
228	0x3dc217d2	0.094771996
229	0x3cbe0ff9	0.023200976
230	0xbd0b026b	-0.033937853
231	0x3eb4ede7	0.35337755
232	0xbc4de9ec	-0.012567978
233	0x3c1f8817	0.009737036
234	0xbbccd11e	-0.0062505146
235	0x3db032c0	0.0860343
236	0xbbc2190d	-0.0059233964
237	0xbb3bf7e9	-0.0028681702
238	0xbe0721ea	-0.13196531
239	0xbe332dd8	-0.17497957
240	0x3cde64f4	0.027147748
241	0xbd7589cb	-0.059945863
242	0xbebe0d49	-0.3711951
243	0x3dad878c	0.08473119
244	0x3d807750	0.06272757
245	0x3d280c5c	0.04102741
246	0x3b81ad44	0.0039574225
247	0xbca913e8	-0.020639375
248	0xbcd7c022	-0.026336733
249	0x3e54a702	0.20766833
250	0xbe197233	-0.1498497
251	0xbdba9cbe	-0.091119274
252	0xbb39df2c	-0.002836178
253	0xbec237dc	-0.37933242
254	0x3c01b3db	0.007916416
255	0x3c3d84b1	0.011567281

hidden_nets.0.bias f4 [128]
0	0xbcb4bc72	-0.022062514
1	0xbd973cd9	-0.07384653
2	0xbe4bed00	-0.19914627
3	0xbe00953a	-0.12556925
4	0xbd657640	-0.056020975
5	0xbd6f3ef7	-0.058409657
6	0xbc832a69	-0.016011434
7	0xbcbaab89	-0.022786872
8	0xbde3ee21	-0.11129404
9	0xbdfcfc4e	-0.12352811
10	0x3cbb311c	0.022850566
11	0xbc8461a9	-0.01615985
12	0xbde462e2	-0.11151673
13	0xbdaeeeec	-0.085416645
14	0xbe1dafca	-0.1539909
15	0xbbe52ab5	-0.0069936165
16	0xbd191329	-0.03737179
17	0x3c6af185	0.014339809
18	0xbe1c29f6	-0.15250382
19	0xbd0eb546	-0.034840845
20	0xbdc102cc	-0.094243616
21	0xbe48bcbb	-0.19603245
22	0x3d0f8c7e	0.035046093
23	0xbd80c4df	-0.0628755
24	0xbd0974f9	-0.03355882
25	0x3dc8dd6d	0.098078586
26	0xbd8ef658	-0.0698058
27	0xbdf2cfd8	-0.11856049
28	0x3dd1b2c3	0.10239174
29	0x3da66cdc	0.08126232
30	0xbd91642b	-0.07099184
31	0xbcd574ce	-0.026056673
32	0x3b81645b	0.003948731
33	0x3dbf7367	0.09348183
34	0xbe3dacd3	-0.18522958
35	0xbdb9db02	-0.090749756
36	0x3cb6164a	0.022227425
37	0xbe20f797	-0.15719448
38	0x3de98ce7	0.11403828
39	0xbe65af7e	-0.22430226
40	0x3d7f0158	0.06225714
41	0xbe18ce58	-0.14922464
42	0xbe21cd47	-0.15800963
43	0xbe001fa1	-0.12512065
44	0x3e111319	0.14167441
45	0xbd990e71	-0.074734576
46	0xbe7503b8	-0.239272
47	0x3dce511d	0.10074065
48	0x3de15ef8	0.11004442
49	0xbe325c06	-0.17417917
50	0x3d9df05e	0.07711862
51	0xbe532e02	-0.2062302
52	0x3cefbf20	0.02926594
53	0xbda85a68	-0.082203686
54	0xbb34f465	-0.002761149
55	0xbca9370f	-0.020656137
56	0xbe086034	-0.13317949
57	0xbde354ee	-0.111001834
58	0xbc34e1ce	-0.011040164
59	0x3d47053a	0.04858897
60	0xbd80fdf0	-0.06298435
61	0xbe0642b9	-0.1311139
62	0xbe0b1f57	-0.13586174
63	0xbe3d2b4d	-0.18473549
64	0xbc58567c	-0.013204213
65	0xbe15ab56	-0.1461614
66	0x3dcfb389	0.101416655
67	0xbdaeaef3	-0.08529463
68	0x3d083726	0.03325572
69	0x3d08d33c	0.033404574
70	0x3d4c6aaf	0.04990643
71	0x3d092b5c	0.033488616
72	0x3cd03330	0.025415033
73	0xbe49836e	-0.19679043
74	0xbda7de62	-0.08196713
75	0xbc4a562f	-0.012349649
76	0xbd20f8ac	-0.039299652
77	0xbdea2e6a	-0.11434634
78	0x00000000	0.0
79	0xbe1bba01	-0.15207674
80	0xbd80755b	-0.06272384
81	0xbd97bb7a	-0.07408805
82	0xbd4752ab	-0.048662823
83	0xbe056f42	-0.13030723
84	0x3be3ff7f	0.0069579477
85	0x00000000	0.0
86	0xbc6201cf	-0.0137943765
87	0xbe57c37b	-0.21070664
88	0x3da092ab	0.07840475
89	0xbd167354	-0.03673108
90	0x3dcf63b5	0.101264395
91	0x3e00cc74	0.12577993
92	0xbe2aff18	-0.16698873
93	0xbdad5952	-0.08464302
94	0x3d8f79dd	0.070056655
95	0xbded510e	-0.115877256
96	0x3d327e6b	0.043577593
97	0xbd2cfb48	-0.042231828
98	0xbe468be9	-0.19389309
99	0x3dfd8502	0.12378885
100	0xbcd00659	-0.025393652
101	0xbbcf334b	-0.0063232533
102	0x3e07d727	0.13265668
103	0x3c607ffc	0.013702389
104	0x3d9cbeb0	0.07653558
105	0x3d37a663	0.044836413
106	0xbe02fd66	-0.12791976
107	0x3d9ee57c	0.077586144
108	0xbe22114c	-0.1582691
109	0xbdf5f611	-0.12009824
110	0xbd87cfca	-0.066314295
111	0xbe7934c7	-0.24336539
112	0xbd522284	-0.051302448
113	0xbc427418	-0.011868499
114	0xbd191ba5	-0.03737988
115	0xbc4e6424	-0.012597118
116	0xbe11c92a	-0.14236894
117	0xbca4755e	-0.020075496
118	0xbcb4d53d	-0.022074336
119	0xbd8a2092	-0.067444935
120	0x3d00ada4	0.031415597
121	0xbe25ac94	-0.16179115
122	0xbc95e94f	-0.018299727
123	0xbce690d6	-0.028145235
124	0x3bf0ed4a	0.007352506
125	0x3cc52a6a	0.024068076
126	0x3d5d8457	0.054081287
127	0x3d2ff324	0.042956486
