hyperopt_results/models/replay_large_20250906_230524/dqn_racing_episode_200.pth (torch, 454549 bytes, 36 tensors)

hidden_nets.0.weight f4 [128, 11]
00000000: 58b3 1b3c a87f 25bc 0942 2cbe b78a 92be
00000010: 6aff eabd f38d 183e 0fef 263e 10c1 38bd
00000020: ea00 e93d 966e b5bd 7755 f1bd aaeb 623e
00000030: b8ad 0d3e 65f9 83be c7a6 fabb 4260 af3d
00000040: bf69 23bd 34b8 07be b73e 5abe 671c 34be
00000050: 4840 e2bd ad92 80ba b76b 003e a9c9 40be
00000060: 4a5e 72be edba 0f3e 1ce7 223e 5205 c13c
00000070: 4215 f3bc 5256 883c c3b1 08be 9f66 63bd
00000080: 5dd2 853c c3a1 4ebd 7bd0 f0bd 6de7 98bd
00000090: 03f9 4dbe e8b1 233e b591 2ebe f620 863d
000000a0: d790 c4bd 118d 8e3d 88c2 c43d 9f18 a73c
000000b0: 8682 b33e 2d95 a23d 12cf ebbc c2fb c1bd
000000c0: 3bed 01be bb45 50be 0966 9cbd 05b8 d4bd
000000d0: 0794 ea3b e8a5 edbd 81d5 07be 6ac9 0ebe
000000e0: 73e1 35be 9875 65be 1033 1dbe a792 003e
000000f0: dd73 87be f013 c2bd acb2 bbbd a61e dc3d
00000100: bc88 ad3c 8566 843d 80c9 3dbe c2b8 3bbc
00000110: 6253 0d3b bd7d 6f3c 69b9 4e3c b532 61bd
00000120: 04c7 58be d6f5 bdbc 03a5 0dbe bb47 b9be
00000130: 1390 37be 3917 0dbe 0c7c 42bd c39d cbbc
00000140: 6827 633b e78c d3bd 47f5 bbbd 152c 043e
00000150: d12c d4bc 4df7 093e 20c0 cebe 995d 9c3d
00000160: 9c2c 973e b9b6 c0bc cecb 4dbd 45d1 953d
00000170: 4e37 c13c d748 033d 05b2 07be 7ab0 31be
00000180: 8725 f4bd 9811 21be 1115 12bd f1b8 25be
00000190: a681 60be 378d 5ebc 7fde 24bc b16b 8d3e
000001a0: 6259 793d b046 abbc c38a 473d d4d4 1e3d
000001b0: 70ef 81bb 35da 343c e62d 70bd 7ed4 0b3e
000001c0: c170 e2bd f76c 0cbd 64d3 a2be 5245 bdbc
000001d0: 5544 b0bc c299 c73d 52a2 12be 4045 1a3d
000001e0: 03ff 193e 3941 c2be d700 19be eb73 383d
000001f0: 289f 8cbe c0a5 b63d 1032 66be 2016 07be
00000200: cc1f 55be bf14 813d 834f 39bd 0a2c dabc
00000210: eb74 47be d0ed 2ebd 0455 f23d bf82 abbe
00000220: eac5 4ebd 48c2 773d 4dae ae3d cfac 8b3c
00000230: ebbf a13d f929 713d 34a6 dfbd 7c10 f7bd
00000240: c27a 31be dcb3 293e 1618 123d 9b4f 093e
00000250: e2a8 9cbd 47c3 0abe 6cc9 5dbe af59 173e
00000260: 37e0 bc3d 779d 9f3d b545 333e c5d1 29be
00000270: a177 c1bd a20b 1d3d a493 ca3d 0054 043d
00000280: 93f7 8abd 5c61 28be dc68 04be 2572 cfba
00000290: 0442 1fbc 8e04 34bd 00cd 373d 68e6 0bbe
000002a0: 450f 33bd 2e86 27be 3a34 b33b 5e87 543d
000002b0: 1618 cabd 1b6e fa3d 6523 12be 41d1 e43d
000002c0: 1243 1d3e cb92 62be c6d7 46bd 0288 9c3d
000002d0: e3c4 a4be 6ddb 11bd 9c7a 9c3d ed3f ec3d
000002e0: 4ad2 cf3b e732 273e 28df 053e 9da2 623d
000002f0: 1ad2 0cbd 7141 94be db80 513e df1b 4cbe
00000300: a268 5bbe 2506 55be 1ed6 f6bd 35c0 f5bd
00000310: 841b 31bd 7a98 9f3c d5db 0ebc 9f9d 2cbe
00000320: 8a19 dbbd 9b2c df3c 9710 ea3d 0d27 71bc
00000330: 5183 383c bf2c 12bd d15e 0e3e 9995 bf3d
00000340: 34a4 c0bc 8329 5f3e 7e2a 6f3d a0a9 413d
00000350: 725a 0ebf 1ad1 88be 03ac a6bc 425b 5dbc
00000360: 4fb9 ffbd 933e 4939 d9a9 d03d 3d2b abbd
00000370: 4a91 a33e 4490 023d aee7 c63d 6574 0c3d
00000380: eb5d e73c 2a98 37bd d358 8f3c 44c3 90be
00000390: d217 c23d f331 9d3c 8f1f ddbb 3727 843e
000003a0: f43a 0bbd 4a79 debc 7b13 143d 5218 003e
000003b0: b8db b4bc 0e1d f43b 5c1e 0fbe d82d 33be
000003c0: aeb0 253d b687 babc df88 a7be 616a b23d
000003d0: 10b8 903d 3294 573d 7425 873c c681 d8bd
000003e0: 6b26 2fbd 9dd2 3e3e 3372 19be 9524 cbbd
000003f0: cfb7 adbc 980c a5be 2879 f43a 1952 593d
0.009503208 -0.010101236 -0.16822065 -0.28621456 -0.114744976 0.148979 0.16302131 -0.045105994
0.113771275 -0.08858983 -0.11783879 0.22160211 0.138358 -0.2577621 -0.007649276 0.085632816
-0.03989577 -0.13253862 -0.21312986 -0.1758896 -0.11047417 -0.0009809338 0.1254109 -0.18826927
-0.23668781 0.1403615 0.15908474 0.023562107 -0.029673222 0.016642723 -0.1334906 -0.05551779
0.01633566 -0.050447237 -0.117585145 -0.07466016 -0.20114522 0.15985835 -0.1704777 0.065492555
-0.095979385 0.069605 0.096074164 0.020397482 0.3506052 0.07938609 -0.028785262 -0.09471847
-0.12688152 -0.203391 -0.07636649 -0.103866614 0.0071587595 -0.1160391 -0.13265039 -0.13944021
-0.17761783 -0.2240814 -0.1535151 0.12555943 -0.26455584 -0.09476459 -0.09164938 0.10748033
0.021183364 0.064648665 -0.18533897 -0.011457624 0.0021564593 0.014617381 0.012617447 -0.05498
-0.21169668 -0.023188513 -0.13832478 -0.36187539 -0.17926054 -0.1377839 -0.04748158 -0.0248555
0.003466094 -0.10329609 -0.09177642 0.12907441 -0.025900276 0.13473244 -0.40380955 0.0763504
0.29526222 -0.023524629 -0.05024319 0.073153056 0.023585942 0.032051887 -0.13251503 -0.17352477
-0.1192122 -0.15729368 -0.03566462 -0.16183831 -0.21924457 -0.013583473 -0.010062813 0.27621225
0.060876258 -0.02090773 0.048716318 0.038777187 -0.0039653108 0.011038353 -0.058637522 0.13655278
-0.11056662 -0.034283604 -0.31801903 -0.023104344 -0.021516958 0.09746124 -0.14319733 0.0376637
0.15038686 -0.37940386 -0.14941727 0.045032423 -0.27465177 0.08918333 -0.22480035 -0.13192034
-0.20812911 0.06302785 -0.045241844 -0.026632328 -0.19478194 -0.042707264 0.11832622 -0.3349819
-0.050481714 0.060488015 0.08529339 0.017050175 0.078979336 0.05887792 -0.109203726 -0.12063691
-0.17331985 0.16572517 0.0356675 0.13409273 -0.07649399 -0.13551055 -0.21658868 0.14780305
0.09222453 0.07793706 0.1750706 -0.16583927 -0.094466455 0.038341172 0.098914415 0.03230667
-0.06785502 -0.1644339 -0.12930626 -0.0015826864 -0.009720329 -0.043949656 0.044873238 -0.13662112
-0.043715734 -0.16359779 0.0054688724 0.05188691 -0.09867875 0.12228032 -0.14271314 0.111727245
0.15357617 -0.2212631 -0.04854562 0.07643129 -0.32181463 -0.03560965 0.076405734 0.115356304
0.006342207 0.16328011 0.13073409 0.05533086 -0.034380056 -0.28956178 0.2045931 -0.19932507
-0.21426633 -0.20803125 -0.12052558 -0.11999551 -0.04323913 0.019481886 -0.008719404 -0.16857003
-0.106982306 0.02724295 0.114289455 -0.014718783 0.011261777 -0.035687204 0.13903357 0.09354705
-0.023515798 0.21793179 0.058390133 0.047280908 -0.5560676 -0.26722032 -0.020345693 -0.013510527
-0.12486517 0.00019192164 0.10188646 -0.083578564 0.31946784 0.031875864 0.09712158 0.03429069
0.028243026 -0.04482285 0.01749841 -0.28273976 0.094771996 0.019188857 -0.006748147 0.2581117
-0.03399177 -0.027157445 0.03615139 0.12509277 -0.022077426 0.0074497527 -0.13976425 -0.17497957
0.040451698 -0.02276979 -0.32721612 0.087116964 0.07066357 0.052631564 0.016497351 -0.10571627
-0.042761248 0.1863503 -0.1498497 -0.09919087 -0.02120581 -0.3223617 0.001865183 0.05305681

hidden_nets.0.bias f4 [128]
00000000: 8bad bfbc cb5d 42bd 53c9 30be 3a95 00be
00000010: b249 b4bc f73e 6fbd 76c2 89bc 89ab babc
00000020: 5698 debd 00a1 0bbe 7b92 b63c a961 84bc
00000030: 9778 f5bd 1949 60bd caaf 1dbe b52a e5bb
00000040: 72d8 3bbd 0048 df3c f629 1cbe 21c5 62bb
00000050: 6709 babd 2eb9 50be 77e9 603c 73be 98bd
00000060: 7e26 52bc 4b01 993d f1fb 72bd d8cf f2bd
00000070: d993 9c3d 9ace 7d3d 1f4f 7fbd ce74 d5bc
00000080: 881d 32bc 32dc 973d d3ac 3dbe 02db b9bd
00000090: 8b9d a1bc b74e 10be 1d1b e23d 4b25 5cbe
000000a0: 712d 543d 58ce 18be 08b2 12be d517 febd
000000b0: b33d c53d 710e 99bd b803 75be 4312 a03d
000000c0: 7945 993d e789 2dbe d4bb ae3d 9a67 3fbe
000000d0: fabb c43c 0901 9cbd 5286 623b 71b5 0bbd
000000e0: e40e f6bd 51f1 dcbd cee1 34bc f8f8 663d
000000f0: 74e4 46bd b942 06be 89a1 f0bd 4d2b 3dbe
00000100: 7c56 58bc f4b3 e6bd 3047 a83d e0d8 9abd
00000110: dffc fb3c 1bd3 cf3c 5c6f 033d c634 c73c
00000120: c95b b63c 0157 28be 62de a7bd 2f56 4abc
00000130: 3d5d 0dbd 3d1e dbbd 0000 0000 01ba 1bbe
00000140: e235 3fbd fec4 76bd ab52 47bd ca44 f0bd
00000150: e38f b3bc 0000 0000 cf01 62bc 7bc3 57be
00000160: bba5 8f3d db58 b3bc f43a 983d c727 e73d
00000170: 18ff 2abe 5259 adbd 46d0 593d 0e51 edbd
00000180: 1de4 fa3c cbaa b7bc a042 36be c575 f63d
00000190: 62a8 a2bb aefc 8bbc bafe f23d e9d9 a63c
000001a0: 5959 063d 714a 033d 8bd3 e8bd 1e9f 823d
000001b0: 4c11 22be 2218 afbd 35fe 8cbd f498 74be
000001c0: 184f 79bc 82f3 b73c 45a3 f0bc 5d51 bfbc
000001d0: b533 dfbd bf0a bbbc 3dd5 b4bc 5a51 78bd
000001e0: da8d bd3c 94ac 25be 4fe9 95bc a38e 15bd
000001f0: 9bcd 943b 845d 1b3d b89c 473d be7a 0f3d
-0.023398181 -0.04745273 -0.17264299 -0.12556925 -0.022007797 -0.058409657 -0.016816359 -0.022786872
-0.108688995 -0.13635635 0.022286644 -0.01615985 -0.11985891 -0.05475721 -0.1539909 -0.0069936165
-0.045860715 0.027256012 -0.15250382 -0.0034602361 -0.090838246 -0.2038314 0.013727537 -0.074582
-0.01282656 0.0747095 -0.0593223 -0.11856049 0.07645387 0.06196461 -0.062331315 -0.026056673
-0.010871299 0.07415046 -0.18522958 -0.090749756 -0.019728443 -0.14092527 0.11040328 -0.21498601
0.05180115 -0.14922464 -0.14325726 -0.12406889 0.09630909 -0.074734576 -0.239272 0.07815983
0.07483954 -0.16947137 0.08531919 -0.18691865 0.024015415 -0.07617385 0.0034564924 -0.034108583
-0.12014559 -0.10788215 -0.011040164 0.05638978 -0.048557714 -0.1311139 -0.117495604 -0.18473549
-0.013204213 -0.11264792 0.08216703 -0.07560897 0.030760227 0.025369218 0.032088622 0.024317157
0.022260563 -0.1643944 -0.08196713 -0.012349649 -0.034512747 -0.10699127 0.0 -0.15207674
-0.046682246 -0.06024646 -0.048662823 -0.117318705 -0.021919196 0.0 -0.0137943765 -0.21070664
0.070140325 -0.021892956 0.074331194 0.11286884 -0.16698873 -0.08464302 0.05317714 -0.115877256
0.030626351 -0.022420308 -0.17798853 0.120341815 -0.0049639205 -0.01708826 0.118649915 0.02036758
0.032800052 0.032053415 -0.113684736 0.063780054 -0.1582691 -0.08549525 -0.06884424 -0.23886472
-0.015216611 0.02245498 -0.029374728 -0.023354227 -0.10898534 -0.022832273 -0.022074336 -0.060624458
0.02313893 -0.16179115 -0.018299727 -0.036512982 0.0045411116 0.03793098 0.048733443 0.035029165

hidden_nets.1.weight f4 [128, 128]
00000000: e575 3a3d 646d 30bd 5642 1abe bf27 c63d
00000010: dbf6 3f3e 14a6 babd e531 dcbe 2f69 8fbd
00000020: 4dfe 4f3e f28b d73d 5575 89bd eeef 00be
00000030: 2c34 b93b 4faa b5be 0da2 db3d b08c 303d
00000040: c347 65be 283a 34be 713b 21bc 475c eb3c
00000050: d0ef 373d bbc8 94bd c7d6 ecbe e113 bebe
00000060: efc9 82be 3796 12be 13a0 b0bd 68db f3bc
00000070: 4ab8 5cbd 9c0a 99bb fe10 50be 4e58 6f3c
00000080: ce18 14bf 0afd dfbe e141 223d b5de 08bc
00000090: 9304 523e e77d 09be 1595 d23d f2f9 303d
000000a0: bc61 7bbe 1bdc 88bc ee67 cf3d 568b 18bd
000000b0: ccca 6bbd 03c0 6cbe 912e 8cbd 72fb db3c
000000c0: a1b0 123b daea 0b3e cd8b 87be ea12 373e
000000d0: 1239 5a3e 9b64 0abe 3509 6a3b f4be babe
000000e0: 0c1c 46bd 01ec 50be 7ff8 023e f35e 683d
000000f0: a1a0 873e e9db 143d 76fd e93d eced 293d
00000100: 5ec0 053e 9f3a 833e 60b2 8a3d a5c5 8bbe
00000110: 4c70 1fbe fff5 9abd eb60 5abe b250 14be
00000120: 7e38 53be ddb7 cb3d 7882 4fbd d558 143d
00000130: dd68 fabc a01e 823e bd65 f43d dffb 19be
00000140: bf91 dcbe 93ca cdbd 8bed d1bd 7e36 46bd
00000150: 90a4 2ebe e446 43bd ee48 1d3d 6bee 6f3d
00000160: 5d4e 0bbe 501b a7be a9cf fcbd bc60 663d
00000170: 8099 a2bd e364 49bd 3755 f43d 9e2d cbbc
00000180: b326 02bf 9c68 03be 5d86 32bd a7af 5e3d
00000190: 46a2 33be ca47 44be 6b01 12bf 1509 453c
000001a0: 24fa 41be 01c0 24be e23e 073d 586a 9a3c
000001b0: 44c4 2b3e ac28 d7be 10b6 c5be ad1d 00bd
000001c0: ffa4 213e 187f 61bd ef50 c0bd 6e17 9bbe
000001d0: 9853 16bd 8a3c 1dbe 56be 4abd 5cd3 0dbd
000001e0: 053a 81be 6856 7ebd 335a 813e c59d 93be
000001f0: 17ec 853d 04c3 00be c46d 2e3d 47f3 aabe
00000200: 0e2e b53c 1656 313e 5980 fc3d 629c 8cbd
00000210: 4bd4 d9be 601d 243d 8e51 043e 3e8e 043d
00000220: f87b 4fbe 2312 2bbe be8f 39be fa77 de3d
00000230: 9863 e5bd 907d 1b3e 31cc 99bd e685 113e
00000240: 44dd 9bbe b54f 443b 631b c23c 564e 9abe
00000250: 6ff3 163d a992 883e 7470 bc3d 26c9 57bd
00000260: dff5 42be 22ec 133e a880 39bd 1c8f d73c
00000270: 4268 df3d ff03 2bbd 931e cabd 1b85 f5bc
00000280: 4e47 7e3c 3477 92bd 7380 323e e818 8dbd
00000290: c187 bb3d 3e76 d9bd 103a 72be 89c4 86bd
000002a0: 3d3a ae3d 5782 0b3d 1920 b0bd 73d8 7f3d
000002b0: e210 1ebf 7cdb d2bd 22ef 953d 8dfc c7be
000002c0: 39d5 f1be 386b 21bc acdf c2bc 00e9 64bd
000002d0: eb65 58bd 7a27 e63d e009 b8be 4741 18be
000002e0: 12a8 0dbe 985c 85bd aa40 fa3d 640c a9bd
000002f0: d652 b239 f313 c4bd bcaa 993d d59a a6bc
00000300: 4256 063e f920 97bd bb42 8abe 1669 05be
00000310: f530 e0bd 4462 4abc 2ebb 283e 7034 28be
00000320: fc31 103d fb02 fbbd 2a89 593d ad17 1a3d
00000330: 6992 063d 1cfd 77be 1696 6e3d 613b 343e
00000340: 9983 7fbd 801c 86bd b298 7d3c 77de 07be
00000350: efb1 efbd e0cd 0e3e 88bf 04be 0b7f 8a3d
00000360: e5eb 2cbe 9021 c7bc e671 34be 6fae bcbe
00000370: a7cc c63c 8e86 f1bd 9c80 80bd b4be f93d
00000380: 686b 2f3e 8dfa 643d 9df7 f2bd 3f87 25bf
00000390: 3e1a 47bd 0a6e 113e 8ee6 8d3d f252 65be
000003a0: d061 e5bd cfce 70be eb87 c23d de3d 49be
000003b0: 2d95 e8bd 0761 d53d 788e 543d 3ad2 8a3d
000003c0: 08a3 7cbe 3896 00bf 081e 8dbc e015 6bbd
000003d0: f089 d63d 8ac9 79bd c31e 333d aba1 f73d
000003e0: 6c09 92be 9bae fabd 9e63 f4bc 61e3 7dbd
000003f0: 7e82 f3bd 934e 9f3c 2785 1ebe 779f d5bd
0.04552259 -0.043073073 -0.15064368 0.0967555 0.18746512 -0.09113708 -0.43006817 -0.07002484
0.20311852 0.10524739 -0.067118324 -0.12591526 0.0056519713 -0.35481498 0.10724268 0.04310292
-0.22390656 -0.1760031 -0.009840832 0.028730525 0.044906437 -0.07264849 -0.46257612 -0.3712454
-0.25544688 -0.14315115 -0.08624282 -0.029767707 -0.05388669 -0.004670454 -0.20318982 0.014608456
-0.5785035 -0.4374774 0.03961361 -0.008353879 0.20509557 -0.13426934 0.102823414 0.043207116
-0.24549001 -0.016706517 0.10127245 -0.037242256 -0.05756645 -0.23120122 -0.06844819 0.026853297
0.002238311 0.13663808 -0.26473847 0.17878309 0.21310833 -0.1351494 0.0035711054 -0.3647381
-0.04836659 -0.20402528 0.12790106 0.056731176 0.26489738 0.036342535 0.11425297 0.041486666
0.13061664 0.25630662 0.067723036 -0.27299228 -0.15570182 -0.07566451 -0.21326034 -0.14483908
-0.20627019 0.099471785 -0.050661534 0.03621753 -0.03056758 0.2541399 0.119334675 -0.15037487
-0.43079945 -0.100484036 -0.10250386 -0.04839181 -0.17054963 -0.04767503 0.03839963 0.058576982
-0.13604112 -0.32638025 -0.123442955 0.056244597 -0.07939434 -0.04916848 0.11930316 -0.024802025
-0.508403 -0.12832874 -0.04358517 0.054366734 -0.17542371 -0.1916801 -0.57033414 0.012026091
-0.18943077 -0.16088869 0.033018954 0.018849537 0.16774088 -0.42023218 -0.38615465 -0.0312783
0.15785597 -0.055052847 -0.09390437 -0.30291313 -0.036700815 -0.15355125 -0.049497925 -0.034625396
-0.25239578 -0.062094122 0.2526413 -0.28831306 0.06539171 -0.12574393 0.04258515 -0.3338873
0.022116687 0.17317995 0.12329168 -0.06865765 -0.4254478 0.040067077 0.12921736 0.032362215
-0.20262134 -0.16706137 -0.1812124 0.108627275 -0.112006366 0.15184617 -0.075096495 0.14211234
-0.3044225 0.0029954736 0.0236947 -0.3013789 0.03685325 0.26674393 0.09201136 -0.052682064
-0.19039105 0.14445546 -0.04528871 0.026313357 0.109085575 -0.041751858 -0.09869113 -0.029970696
0.01551993 -0.071516424 0.17431812 -0.06889516 0.091567524 -0.10618256 -0.23654962 -0.06580455
0.08507202 0.03405985 -0.08599872 0.06246228 -0.6174451 -0.102957696 0.073210016 -0.39059868
-0.47232988 -0.009852223 -0.023788296 -0.05588627 -0.05283157 0.11237998 -0.35945034 -0.14868651
-0.13833645 -0.065118015 0.12219365 -0.082543164 0.00034012523 -0.095741175 0.07503268 -0.020337502
0.13118842 -0.07379336 -0.27004036 -0.13028368 -0.10946838 -0.01235253 0.16477653 -0.16426253
0.03520392 -0.12256428 0.053109325 0.037620235 0.03285447 -0.24217647 0.0582486 0.17600776
-0.06238136 -0.06548405 0.0154783 -0.13268457 -0.1170386 0.13945723 -0.12963688 0.06762513
-0.16886862 -0.024307996 -0.17621574 -0.36851832 0.024267508 -0.117932424 -0.0627453 0.12194577
0.17130816 0.055903006 -0.11863635 -0.64659494 -0.04860901 0.14202133 0.069287404 -0.22394922
-0.11200297 -0.23516391 0.094985805 -0.19652507 -0.11356578 0.10418897 0.05189368 0.06778379
-0.24671566 -0.50229216 -0.017226234 -0.05739391 0.10475528 -0.06098322 0.04373051 0.120913826
-0.28522813 -0.122403346 -0.029832657 -0.061984424 -0.11890124 0.019446647 -0.15480481 -0.10430806

hidden_nets.1.bias f4 [128]
00000000: a28c 283d 7369 f03d 4401 243d bc21 a63d
00000010: 4f41 a8bd e0ac ad3d 5377 9cbd 5f84 683d
00000020: e144 e53d c8d8 bf3d 79c8 b93d 8cd6 c03a
00000030: b9b7 cc3d 0e79 47bd 6042 bd3d 6cc3 343d
00000040: 3cdb a7bd fc2f c63d 7e9b b0bd e11e 103e
00000050: bc2a 9b3d 53b1 57bd 7c8a 9b3d 72ef 8c3d
00000060: 49f5 963d 9b29 d03d 32a4 703d 418f 063e
00000070: 3f52 f83c cc21 0f3e 4d06 883d 0cc7 59bd
00000080: 0798 e6bc f735 903d 4f3a fd3d f167 873d
00000090: dcd8 d23d 6655 e13d 2af6 b03d c0ed f63d
000000a0: 8a25 983c f63d 4d3d a12b f93d defe 863d
000000b0: e3fc a53d 8b38 7f3d 617f cc3d a38d bc3d
000000c0: eafb d33d 3eaa 8c3c 412b ff3d 2f87 0f3c
000000d0: df2f cbbb f6fc 6e3d a2d3 3dbd 9523 9e3c
000000e0: ce2d f53d 5fea 883d c716 8b3d 9d6f 1e3e
000000f0: b5cc e23d c15b 9a3d 15d2 483d 07b2 77bd
00000100: 663a e33d 4386 903d c52a cb3c d3ac 163d
00000110: e854 c23d c8d8 ad3d 0286 d73d f1ca 403d
00000120: e9d5 943c e803 c33d 76fb e23d 9e7c 163e
00000130: 7609 e43d b5df f83d 01a6 e93d d326 ad3d
00000140: 4f02 bb3d f8e8 a83d 7053 083e c410 a5bd
00000150: 1eb0 573d bd93 b0bb 4c6f 873d 85cc 2e3d
00000160: 60a9 a93d a122 7a3d 5f86 803d 788b 563d
00000170: 5283 6b3d 1f18 af3d 0066 df3d 5284 5e3d
00000180: b550 cabc 4b06 a63d 501f 753d 6c56 633d
00000190: 9478 013e 4fa8 323d 3504 023e 58c7 df3d
000001a0: b7f3 8b3d 4f57 ba3d fabb 113e aa3a 55bd
000001b0: 7180 ae3d 5f51 23bd 26c2 bc3d bd86 ae3d
000001c0: 2a84 373d ff4a c63d ad10 a63d ab03 973d
000001d0: f05a 203d e0ee 153e b355 aa3d 0214 b53d
000001e0: 0d6f 673d 3fd0 19bd 842a a8bd 685c ae3d
000001f0: ae61 c93d a613 a53d 7b0b a03d e5d0 e83d
0.041149743 0.11738863 0.04004027 0.08111903 -0.082155816 0.08480239 -0.07639947 0.056766864
0.11194778 0.093675196 0.0907144 0.0014712377 0.0999598 -0.04869943 0.09241176 0.04413168
-0.081961125 0.09677121 -0.08623408 0.1407428 0.0757651 -0.052659344 0.07594773 0.06881608
0.07371003 0.101641856 0.05875034 0.13140585 0.030312655 0.13977736 0.06641827 -0.05316834
-0.028148664 0.07041543 0.12364637 0.06611622 0.10295269 0.110026166 0.08640702 0.12057066
0.018572588 0.05010792 0.12166525 0.06591581 0.08104875 0.062309783 0.09985233 0.092067026
0.10350783 0.017171022 0.12459422 0.008760258 -0.006200775 0.05834671 -0.046344407 0.019304076
0.11971627 0.06685328 0.06791454 0.15472265 0.11074201 0.07537032 0.049028475 -0.060472514
0.11095123 0.070568584 0.024800668 0.03678591 0.09488851 0.08488613 0.10523607 0.04706854
0.018168407 0.095222294 0.110831186 0.14695975 0.11134617 0.12152044 0.11408616 0.08454671
0.091313 0.0824756 0.13313079 -0.080598384 0.052658193 -0.0053887055 0.06613025 0.042675514
0.08284259 0.06106818 0.06275629 0.0523791 0.057498284 0.085495226 0.10908127 0.05432541
-0.024696687 0.08106669 0.059844315 0.05550234 0.12643653 0.043617543 0.12696917 0.10926694
0.06833594 0.09098684 0.14231864 -0.0520579 0.08520592 -0.039872523 0.092167184 0.08521793
0.044803776 0.09682273 0.081086494 0.073737465 0.039149225 0.14641905 0.08317127 0.08841707
0.05650239 -0.037552115 -0.08211234 0.08513719 0.09833084 0.08060388 0.0781469 0.113679685

hidden_nets.2.weight f4 [64, 128]
00000000: 66b6 17bc 1ba1 5b3e ad3b 4ebe 0a37 073e
00000010: 8045 753e cfcc 9fbd c59a aabd a885 053e
00000020: 3dd2 b1bd 5794 57bd c6be 363e e017 9ebd
00000030: 7fec 313d 73be e23d 24c3 4c3e 6d4e c6bc
00000040: bb8e acbd fe60 2f3e 520f 833d 5a60 c63e
00000050: 4999 d63d f20c 033e 5fe0 fc3d ac57 523d
00000060: b120 1ebe 4a4c 833e 44b2 4b3e 3e85 163e
00000070: 3567 953d 2e3b 213e cc84 893d 4133 ffbd
00000080: d535 c03b 95be f73d 17d5 98bd 3612 4abd
00000090: 35fa 9f3c 1899 873d 5dc7 573d c552 c9bd
000000a0: c183 1a3e 4cb0 de3d c03f 153e 455e 0fbe
000000b0: f304 0e3e 12b5 973c b1e7 e33d 0608 57be
000000c0: 09b1 77bd cd4b 973d 42c6 f13d db8c 3f3d
000000d0: 4b39 b03d 3752 e33d 7e8a f03d bcf8 c3bd
000000e0: beaf 083e 8d37 803c f109 8d3d a910 833d
000000f0: df7e 333e 8777 1cbe d6f1 a03d 8d01 493d
00000100: f1ca 193d 611c c13d 2b1b 39bd 9cf8 163e
00000110: 8d98 1e3d 3479 c63d dbf6 c3bd bf92 d43c
00000120: 6406 a43d a80e 193e 6b62 c9bc 1364 fe3d
00000130: 5418 7e3d 3bb7 1a3e 0531 903d f383 8d3d
00000140: 962d 83bc 378d 88bc a696 8f3d 12ed 31be
00000150: bea9 12be 17e0 86bd d3b1 17bd 2c5b 913e
00000160: 5073 5d3e 9bac 25be a96a d33d dfcc 3b3d
00000170: 0158 71bd e9e4 ba3d 6776 da3d 0727 653d
00000180: e7c1 6a3e 7993 cdbc b44d cf3d 61a5 26bc
00000190: 2c7e 533c 8d2b 55be e7e0 903d acb8 0b3e
000001a0: 9afc 653e acaf 8fbd d466 e43c 5afa 4a3d
000001b0: 04f9 863e e725 293d 25f9 4d3d 526b a53d
000001c0: f7cf e33d 3b5a 793e eabd 11be ccd6 293e
000001d0: 7fb6 a6bc 4e6f 9c3d b536 0d3c 7941 033e
000001e0: c9be a2bc 2e89 85bd 9a02 cb3c 97a7 4c3e
000001f0: fe7e 733e f96b 5dbd 8267 0a3d 0bcd e73d
00000200: cf2d 4cbe 4a42 cb3e 9e8c 83bc 8fa5 abbb
00000210: 5a56 7d3e 0a27 983d 785e de3d fa88 a1bd
00000220: 69a1 043e 7741 fa3d 35f9 323c 60b7 de3c
00000230: 0d4b ba3d dfae 38bc 4d3d 623d 383e 10be
00000240: 9120 2cbe 889b f7bc 8520 363e 973b ac3e
00000250: 3560 493b 2adc 9b3e 29f8 2ebe b57f f2bd
00000260: 9fb6 b03d e129 963e 6ea9 c3bb c2ea 00bc
00000270: d82a 91bd 5b02 4a3e 6851 393e be77 293e
00000280: 8067 e73e 9c94 bfbd 3373 b23c 919a bf3c
00000290: e96d 363e 48c0 963e d5c6 073e e62b bc3e
000002a0: 08b6 163d a7fa d83d faa7 953e d279 c43c
000002b0: 016c 7ebd a26e 853c 33ef 673d c1e9 873c
000002c0: 2e7d 213d b129 fc3d f9a8 973e 0484 ccbd
000002d0: a699 a93d 4a91 ffbd 0a24 913e 232a 1cbe
000002e0: b16f 51bd 3959 af3d 7a3a e0bd c64a 6d3e
000002f0: 460c 6d3e f5e4 7b3e 47ed 31be 344b 07bc
00000300: 89f7 bf3e c2c1 b53d f934 313e 2bdc 523e
00000310: c03d 313e 1d39 f73d ff3c 313d 6ed4 2a3e
00000320: 32ac ab3e 8be6 f63d b17a f93d b773 573e
00000330: 8fae b53e 36b9 4d3e 9ea5 88bc f970 593e
00000340: d7d6 553d 053c 283e f90f 9a3d dd13 0f3e
00000350: e0a5 493e d353 58bd e7ae 96bd a854 643e
00000360: 51c7 d13e c412 03bd 369e abbd b8b8 3e3e
00000370: 7cab 62bc d715 973e 6125 033e c6d1 f8bc
00000380: 33f7 ac3e 1502 823d 4948 09be ad66 ee3d
00000390: 41bd 8f3d bb76 6ebd 2e5d 213e 5442 c83d
000003a0: 701d 743b 46da b63d f20b 863e ff90 9bbc
000003b0: f788 1c3e 86b1 883e 6406 a33e 660c 8d3d
000003c0: 801c 04be 4b60 343e f9c9 3d3d 990d 293e
000003d0: 5e01 c0bd 60f9 9f3d 858e 953e 3bf2 cd3d
000003e0: 66cb 87bd 000e af3d 7e2b 0cbe 4374 cf3d
000003f0: ce0e 183e c1ff 6b3b b6ff 18be e91b 3f3e
-0.009259796 0.21448176 -0.20139952 0.1320459 0.23952293 -0.07802736 -0.08330301 0.13039267
-0.08682678 -0.052631702 0.17846212 -0.077193975 0.04343843 0.110714816 0.19996315 -0.024207318
-0.08425661 0.17126843 0.063994065 0.38745385 0.104784556 0.12797907 0.12347483 0.05135314
-0.15442158 0.2564414 0.19892222 0.14699265 0.07295076 0.15745232 0.06714782 -0.12460948
0.0058657923 0.120968975 -0.07462519 -0.049333774 0.019528488 0.06620997 0.052680362 -0.0983024
0.15089323 0.1087347 0.145751 -0.14000805 0.13869075 0.018518958 0.11128176 -0.20999154
-0.06047157 0.07387505 0.11805393 0.04676519 0.08604678 0.110996656 0.11745165 -0.09568927
0.1334829 0.015651489 0.06886662 0.06399662 0.17528866 -0.15279971 0.078586265 0.049073745
0.037547056 0.09429241 -0.045191925 0.14743274 0.038719703 0.096910864 -0.09568568 0.02594888
0.080090314 0.14946997 -0.024583062 0.124214314 0.06203492 0.1510896 0.070406 0.06909933
-0.016012948 -0.016668899 0.07011156 -0.17375591 -0.14322564 -0.065857105 -0.03703482 0.2838987
0.2162602 -0.16179125 0.10323078 0.045849677 -0.058921818 0.091256924 0.10667115 0.055945423
0.2292553 -0.025094735 0.101222426 -0.010171265 0.0129085 -0.20817395 0.07074147 0.13644665
0.22459641 -0.070159286 0.027881064 0.04955516 0.2636186 0.041295912 0.05028643 0.0807711
0.111236505 0.24350826 -0.14232603 0.16585845 -0.020350693 0.07638417 0.008619 0.12817945
-0.019866364 -0.065203056 0.024781514 0.19985805 0.23778912 -0.05405805 0.03379012 0.11318406
-0.1993935 0.39699012 -0.016058262 -0.005238242 0.24739972 0.07429321 0.10857862 -0.07887454
0.12952198 0.12219518 0.010923673 0.02718705 0.09096346 -0.011272161 0.055234242 -0.14086235
-0.16809298 -0.03022553 0.17785843 0.33639213 0.003072751 0.3044141 -0.17086853 -0.118407644
0.08628582 0.29328826 -0.0059711253 -0.007868471 -0.0708825 0.19727461 0.1809746 0.16549584
0.45196152 -0.09354517 0.021783447 0.023389133 0.17815365 0.29443574 0.13259442 0.36752242
0.036794692 0.10594683 0.29229718 0.02398387 -0.06211472 0.016288105 0.056624603 0.016590955
0.03942602 0.123126395 0.29621103 -0.099861175 0.08281259 -0.124788836 0.28347808 -0.15250449
-0.051131908 0.0856194 -0.109486535 0.23173055 0.23149213 0.24599059 -0.1737567 -0.008257676
0.37493542 0.08874847 0.17305364 0.205918 0.17308712 0.1207144 0.04327106 0.16682598
0.33529812 0.12055691 0.12181605 0.21040235 0.3548474 0.20090184 -0.016680535 0.21234502
0.05220684 0.16429146 0.07522578 0.13972421 0.19692183 -0.052814316 -0.07357579 0.22297919
0.4097238 -0.03200032 -0.08379786 0.18625152 -0.01383483 0.2950885 0.12807228 -0.030373465
0.33782348 0.06348053 -0.13406481 0.116406776 0.07018519 -0.0582187 0.15758201 0.09778276
0.0037248991 0.08928351 0.2618099 -0.018990038 0.15286623 0.2669794 0.31840813 0.068871304
-0.12901497 0.17614858 0.046335194 0.16509093 -0.09375261 0.078112364 0.29210296 0.100559674
-0.06630592 0.08547592 -0.13688466 0.10129597 0.14849398 0.0036010596 -0.14941296 0.1866299

hidden_nets.2.bias f4 [64]
00000000: 5f66 273f 279e bb3e 9fbc 883f e3f3 773f
00000010: e901 833f 9b7c 6f3f f2b5 213f 37b8 6d3f
00000020: ea80 74bd ef07 6b3f b4cc 243f 8432 763f
00000030: 0abc 173f 300b d43e 8783 033f 676c 7a3f
00000040: a1a9 b1bd f171 533f 59f7 3e3f 88eb 563f
00000050: 28d4 fabd 7034 13bd 626f 733f cb7b 39bd
00000060: 20a7 533f fd3f 793f 4f8c 7b3f eb9b 813f
00000070: 3124 713f 57ec 8c3c 0150 7e3f f4d5 7a3f
00000080: 6009 813f 13d7 f33e b792 763f e4f4 773f
00000090: c10e 883f 04a3 813f 3ee9 bd3e 03c0 743f
000000a0: a276 de3e 7050 753f 99b9 0b3e a3fb 753f
000000b0: 2c89 7e3f b4e2 21bd f446 eebc 0311 763f
000000c0: bda6 46bd 2f23 7c3f ed35 803f 5be2 7f3f
000000d0: 7c21 823f 8650 e1bd c2ef 813f 3d88 833f
000000e0: db47 613f 9df0 e0bd 48e1 773f 36b7 a53e
000000f0: 4d32 143f 240e 783f 808d 34bd 0520 c13e
0.6539058 0.36644098 1.0682563 0.96856517 1.0234958 0.9354951 0.6316825 0.92859215
-0.059693255 0.9180898 0.6437485 0.9617083 0.592713 0.41414785 0.5137257 0.9782166
-0.08674932 0.82595736 0.7459617 0.8395314 -0.12247497 -0.03593868 0.9509183 -0.045284074
0.8267689 0.97363263 0.9826097 1.0125707 0.9419585 0.01720254 0.99340826 0.97982717
1.0080986 0.47625026 0.9631762 0.9685805 1.0629503 1.0127873 0.37092012 0.95605487
0.43449885 0.9582586 0.13645019 0.9608709 0.9942806 -0.03952284 -0.029086567 0.9611971
-0.048498858 0.98491186 1.0016457 0.99954766 1.0166469 -0.11001687 1.0151293 1.0275952
0.8800027 -0.10983393 0.96828127 0.3236634 0.5788925 0.96896577 -0.044080257 0.3771974

value_stream.weight f4 [1, 64]
00000000: bab5 1d3f 8b58 203f 43f3 173f 2cf3 2c3f
00000010: baf7 183f 5a7e 4a3f 8256 0f3f dd2e 493f
00000020: d2f1 d6bd e42d 463f e7cf 2f3f d134 5a3f
00000030: fd09 143f 897a 143f 459d 2a3f a9c8 3d3f
00000040: a6e4 9bbc 6451 043f 30d9 013f c9c1 183f
00000050: 3af9 2dbe 14d1 b0be fe91 5a3f cab2 0ebe
00000060: 85d4 323f f01e 493f da2c 493f 26d5 403f
00000070: 5dc5 2e3f 4a90 313e 1621 273f 390d 3d3f
00000080: 7a43 223f 9940 143f 1028 4e3f bcea 4c3f
00000090: 38e9 073f 231c 443f 02f0 073f 5e13 533f
000000a0: fb80 fa3e 20ed 443f aea7 fb3e 73da 4b3f
000000b0: 22bb 393f b340 9dbe d7ee edbe 8d36 4d3f
000000c0: 9ad8 08bd 0191 353f c47e 333f 99fb 303f
000000d0: 6332 3f3f 48a8 45be c9ff 173f ff59 223f
000000e0: 76d6 333f 0645 66be d468 2e3f e5f7 163f
000000f0: 02e7 073f 247b 403f 4962 7abd a962 2a3f
0.6160542 0.62635106 0.5935556 0.6755855 0.59753 0.7909905 0.55991375 0.7858713
-0.10495342 0.77413774 0.6867661 0.8523684 0.5782774 0.57999474 0.66646224 0.7413431
-0.019029927 0.5168669 0.50722027 0.5967069 -0.16989604 -0.34534514 0.85379016 -0.1393539
0.6985553 0.7856283 0.78584063 0.7532524 0.682699 0.17340198 0.6528486 0.738483
0.6338421 0.5791107 0.8052988 0.80045676 0.5309024 0.76605433 0.531006 0.82451427
0.4892653 0.76924324 0.49151367 0.796302 0.72551167 -0.30713424 -0.46471283 0.8016136
-0.033409692 0.70924383 0.70115304 0.6913391 0.7468626 -0.19302475 0.5937467 0.63418573
0.70249116 -0.22487268 0.68128705 0.5897201 0.53086865 0.751879 -0.06112889 0.66556793

advantage_stream.weight f4 [5, 64]
00000000: ae74 04bd 346e 17bb 90ce 623d 770b a4bd
00000010: cfde a93d 0863 b8bc 2cf8 81be c444 683c
00000020: 0e9d 073e 309d 2f3e 6849 cdbd 8e17 da3d
00000030: 389b ccbb 1da6 c23d 4833 f83c c48d afba
00000040: 233c 663e 2ec6 b5bd 9650 043e 187b 1bbb
00000050: f55a 03bd b7e8 b33d b6d7 1cbd 7366 2abe
00000060: 038f d63d 34e3 a2ba 51ec ba3d 8002 f1bc
00000070: 15c8 9b3c 8529 83be ea49 a6bd 5ff7 ed3c
00000080: a29d e1bc 0326 59bc 2033 793c 5929 ed3d
00000090: b5ab aa3d d165 e63d 5cd1 27be 5b85 dd3d
000000a0: 34f9 293b 345d 213e 0357 98be 714f 233e
000000b0: 70c2 da3d 0472 923e 06d7 233e a2d0 ae3d
000000c0: ac92 313d de1f b13a 0803 9b3d 69d0 71bd
000000d0: dc9c fcb9 f69e b43d b07e 0dbd aaf5 b83c
000000e0: af90 b5bc 6790 113e 55bb 843c dbb3 cdbc
000000f0: 559e 533d e1c7 a6bd 706b 133c f6b1 943d
00000100: 5028 b0bd a898 17bd 0592 193d b817 d1bd
00000110: b06c 7a3d 9d3d 2dbd 6f57 86be a95c 73bd
00000120: 521f 863e 81d2 063e 7829 1ebd 4ce9 ad3d
00000130: ba5e 223c 2010 e63d d9b7 1b3d e061 32bc
00000140: aa55 4a3e 940a b0bd e551 dc3d c265 92bc
00000150: 9358 383d ead7 47be 7234 b0bd ee57 8e3d
00000160: aec2 bd3d 76d5 bdb9 5b59 5e3d ba31 20bd
00000170: d088 56bd 813b 2ebe 4dac febd 20d8 f93c
00000180: 2e20 25bd b5a2 803d 1c31 debc 96b2 963d
00000190: 4a04 763d f11a 913d a4a2 a5bd 4264 3a3d
000001a0: 1907 7f3c b57a 0c3e 30e5 8e3e e2d8 e03d
000001b0: 9aeb 973d 3b58 eabe cbc8 58be 3e34 9b3d
000001c0: 107f 25be 0480 aebb c758 883d d5b8 80bd
000001d0: 4cb5 82bb 419a 09be 74ec 26bd d57d 8bbc
000001e0: 518e 8bbd 2611 40bd e58b 5dbd f442 90bc
000001f0: 1622 a03c 75bc babd 73bd 79bb 7f77 72bd
00000200: 09ff 58bd c78c a6bd 6f3a 633d a907 cbbd
00000210: 70b2 7a3d 22cb 5ebd 1067 7fbe 7539 f03c
00000220: efd6 31bd 49af e53d e737 c0bd e215 a03d
00000230: f957 763c fa7d b13d 854c 4b3d 42be 11bd
00000240: e63b 403c 1827 ecbd 80af d73d bab1 fdbc
00000250: 2f86 56be 2d70 f3bb ccde 43bd 340b 2e3e
00000260: b17a bb3d 3894 463c 75bc 8c3d 6a87 06bd
00000270: 9a6a 69bc 0ad5 78bd 43bb 0bbe e058 413d
00000280: 4f9c c2bc 87fb a13d dd1e 91bc a43e f03d
00000290: 9e01 8c3d 473c dc3d 0331 86bd 9245 bd3d
000002a0: e78c 5fbd ff8c 103e ce9e 0f3e 47bc 063e
000002b0: 5ce8 f63d 3e7c 3e3e d992 b7bd 1e99 d13d
000002c0: 511a 273e 77cd 233c 5a2c 143d 3f44 43bd
000002d0: b2f3 fabc 8c3d 063e e96e 1dbd 0d86 8c3b
000002e0: cc18 bfbc 7802 943d 9c37 5cbc 926c 053d
000002f0: 3710 0e3d 2dff 87bd 4f81 433e 5eb5 473c
00000300: 5242 53bd 379b 9b3d 19e3 853d 1e8f c0bd
00000310: ab8a 2f3d 4cfa 84bd 0d9a 8fbe 03a2 a3bc
00000320: 3b72 a0bd 6a3b 053e 0a6e c6bd 8e82 1e3d
00000330: 3c54 05bc ddec 213e 4d06 1f3d b14c 58bd
00000340: 9087 81bd e746 dabd 89d7 cb3d e641 e2bc
00000350: 17b5 21be f531 1e3e 2a3f b5bd 4876 e6bc
00000360: c20b 633d c676 103b 61e2 8f3d 1602 42bd
00000370: b1c6 4fbd d34e 113f fa83 05be 53e7 aa3c
00000380: 267b 24bd 0ef8 fd3c 9aa8 95bc 37bb 9c3d
00000390: 7287 773d 28ca e23d 94b1 f5bd 264b 3e3d
000003a0: 3e3b 2b3c 8a88 f43d c1dc 35be 4c0b 093e
000003b0: f3fd 9a3d efda 203e 72e9 b7bc a0c1 a53d
000003c0: cbb2 3d3e 2234 eabc 0180 583d 7c5e 58bd
000003d0: 105a 303b 7cf6 c8bb f52c 20bd 51bf 98bb
000003e0: 5fd4 7fbd ac48 613e bcb9 09bd 1461 f33d
000003f0: 5967 293c fde4 06be 1738 5b3e de91 bc3d
-0.032337837 -0.0023106458 0.055372775 -0.08009999 0.082944505 -0.02250816 -0.25384653 0.014176551
0.13243505 0.17149806 -0.10023767 0.10649024 -0.0062440895 0.0950434 0.03029789 -0.001339369
0.22483878 -0.088756904 0.12921366 -0.0023724493 -0.032069165 0.08784621 -0.038291655 -0.16640644
0.10476496 -0.0012427331 0.09127105 -0.029420137 0.019016305 -0.25617614 -0.08119567 0.02904862
-0.027540985 -0.013253692 0.015209943 0.11580152 0.08333532 0.11249889 -0.16388458 0.10816451
0.002593589 0.1575821 -0.29753885 0.15948273 0.10681617 0.28602612 0.15999994 0.08535887
0.043352768 0.0013513525 0.075689375 -0.059036646 -0.00048182055 0.08819382 -0.034544647 0.02257808
-0.022163717 0.14215241 0.016202608 -0.025110176 0.05166467 -0.081435926 0.008997783 0.07260506
-0.08601439 -0.03701082 0.03749277 -0.10209602 0.06113881 -0.042295087 -0.26238582 -0.05941454
0.2619577 0.13166238 -0.038613766 0.084917635 0.00991028 0.11233544 0.038017128 -0.010887593
0.19759241 -0.085957676 0.10757808 -0.017870788 0.045006346 -0.19515958 -0.08603753 0.06950365
0.09265648 -0.0003620793 0.054284435 -0.039109923 -0.05237657 -0.17014886 -0.124352075 0.030498564
-0.040313892 0.06281034 -0.027123027 0.07358281 0.060062684 0.07085217 -0.08087662 0.04550577
0.015565657 0.13718684 0.2790923 0.10978867 0.07417984 -0.4577044 -0.21170346 0.07578324
-0.16161752 -0.0053253192 0.06657558 -0.06285254 -0.0039888974 -0.1343775 -0.040752843 -0.017027775
-0.06814254 -0.046891354 -0.054088492 -0.01761005 0.019547503 -0.091179766 -0.0038107305 -0.05919599
-0.052977595 -0.0813232 0.05547565 -0.099135704 0.061205328 -0.05439294 -0.24941659 0.029324273
-0.043417867 0.112150736 -0.093856625 0.07816674 0.015035623 0.08666606 0.04963352 -0.035581835
0.011733031 -0.11530894 0.10531521 -0.030968536 -0.20949624 -0.007429144 -0.047819898 0.16996461
0.09154261 0.012120299 0.06871883 -0.032843985 -0.014246607 -0.060750045 -0.13645653 0.0472039
-0.023756174 0.07909303 -0.017714912 0.11730698 0.06836246 0.107536845 -0.06552317 0.09241785
-0.054577734 0.14116286 0.14025423 0.1315776 0.12056038 0.18602082 -0.08963556 0.10234283
0.16318633 0.009997717 0.03617511 -0.047672506 -0.030633781 0.13109416 -0.03843585 0.004288441
-0.023327254 0.072270334 -0.013440993 0.032574244 0.034683432 -0.06640468 0.19092296 0.012189237
-0.05157692 0.07597964 0.06537456 -0.094022974 0.042856853 -0.06493053 -0.2804722 -0.019974714
-0.07834288 0.13010946 -0.09688957 0.038698725 -0.008137759 0.15813012 0.03882437 -0.052807514
-0.063246846 -0.10658055 0.099532194 -0.027619313 -0.15791737 0.15448745 -0.08849938 -0.028132573
0.055431135 0.002204345 0.070256 -0.04736527 -0.050726596 0.567609 -0.13038626 0.020862257
-0.040156506 0.03100207 -0.018268872 0.07652896 0.060431905 0.110737145 -0.11996761 0.046458386
0.010451136 0.11940105 -0.17759992 0.13383216 0.07567968 0.15708517 -0.022450183 0.08093572
0.18525235 -0.028589312 0.05285645 -0.052824482 0.002690915 -0.006132899 -0.039105374 -0.0046614786
-0.062458392 0.22000378 -0.033624396 0.118837506 0.010339581 -0.1317329 0.21408115 0.092075095

advantage_stream.bias f4 [5]
00000000: 822a d2be 4177 963e c000 61be e3f1 8a3e
00000010: 8513 15bd
-0.41048056 0.2938786 -0.21972942 0.2713767 -0.03639557

hidden_nets.0.weight f4 [128, 11]
00000000: 87e7 323c 41ca 0abc b9df 29be a75a 92be
00000010: f7c4 e8bd fda3 193e e6c1 283e f44e 32bd
00000020: ea00 e93d 11bb b2bd 6e8e f4bd 032d 653e
00000030: 4ce5 0f3e 7a3e 83be c8f1 8abb f62f b23d
00000040: 0419 1dbd ee42 0abe b27f 58be 671c 34be
00000050: 5025 dcbd 8a0a f7b9 1f87 023e 0303 3fbe
00000060: 691c 71be d784 113e 1c86 243e 478a c83c
00000070: 0c1b d5bc eae0 953c c3b1 08be d1ad 64bd
00000080: 36d2 a93c c3a1 4ebd 7bd0 f0bd 6de7 98bd
00000090: 03f9 4dbe e8b1 233e b591 2ebe f620 863d
000000a0: d790 c4bd 118d 8e3d 88c2 c43d 9f18 a73c
000000b0: a2b8 b43e 5abd a63d 0828 d9bc 4b7c bcbd
000000c0: 5452 febd ff3c 4ebe 612e 9abd c3d0 d0bd
000000d0: 0794 ea3b c1fd ebbd 254d 0bbe 6ac9 0ebe
000000e0: 73e1 35be 9875 65be 1033 1dbe a792 003e
000000f0: dd73 87be f013 c2bd acb2 bbbd a61e dc3d
00000100: bc88 ad3c 8566 843d 7016 3dbe 078a 3dbc
00000110: ded1 cd3a 4a3a 543c b49e 543c 2202 61bd
00000120: 30db 58be da94 bdbc 03a5 0dbe 489d b9be
00000130: 329c 37be 3917 0dbe 0c7c 42bd c39d cbbc
00000140: 6827 633b e78c d3bd 47f5 bbbd 152c 043e
00000150: d12c d4bc 4df7 093e 20c0 cebe 995d 9c3d
00000160: cabf 983e 3589 abbc 59d0 3ebd 64a7 993d
00000170: 70f2 da3c 5ab8 0d3d 3ae3 09be 07db 2ebe
00000180: 8725 f4bd b37b 1fbe d33b 21bd e78a 24be
00000190: fa06 5fbe 5a8b 6abc cd41 81bb 6cef 8d3e
000001a0: bd85 7f3d 0d57 abbc da4d 4c3d d4d4 1e3d
000001b0: 64a8 0cbb eed7 463c 1e1a 66bd ccf4 0c3e
000001c0: 7d1a e0bd 8ce4 0dbd 0d0c a2be e10b a9bc
000001d0: e486 b6bc 5c64 ca3d 52a2 12be 1053 273d
000001e0: 3282 193e 3941 c2be d700 19be eb73 383d
000001f0: 289f 8cbe c0a5 b63d 1032 66be 2016 07be
00000200: cc1f 55be bf14 813d 834f 39bd 0a2c dabc
00000210: 0760 48be 9eae 34bd b53f ef3d bf82 abbe
00000220: 88ea 56bd e980 733d 2c2c ac3d ffef 7f3c
00000230: ebbf a13d 283c 6a3d fca7 dcbd bd53 f3bd
00000240: 4a4b 2fbe a85b 2b3e 954f 213d c750 0b3e
00000250: 2a37 99bd a1c3 0cbe 8ef6 5bbe af59 173e
00000260: 4258 c03d 3171 9f3d b545 333e c5d1 29be
00000270: a177 c1bd a20b 1d3d a493 ca3d 0054 043d
00000280: 93f7 8abd 5c61 28be dc68 04be 2572 cfba
00000290: 0442 1fbc 8e04 34bd 00cd 373d 68e6 0bbe
000002a0: 450f 33bd 2e86 27be 3a34 b33b 5e87 543d
000002b0: 1618 cabd 1b6e fa3d 6523 12be 41d1 e43d
000002c0: 08c2 1b3e c301 65be 5f84 4abd 325f 983d
000002d0: cd08 a6be 4537 16bd 1691 963d 41ea e63d
000002e0: 4ad2 cf3b 2dbb 263e ce44 013e c62a 5e3d
000002f0: be05 15bd fcb8 94be b016 4f3e e5d0 4dbe
00000300: 9807 5ebe b90d 53be fac6 fabd 35c0 f5bd
00000310: ddb6 32bd e2cc 893c d5db 0ebc 9f9d 2cbe
00000320: 8a19 dbbd 9b2c df3c 9710 ea3d 0d27 71bc
00000330: 5183 383c bf2c 12bd d15e 0e3e 9995 bf3d
00000340: 34a4 c0bc f0e5 5f3e e20e 763d 7ccb 473d
00000350: 725a 0ebf 02e6 87be b97e a4bc 170b d1bb
00000360: 76f9 fbbd 933e 4939 f037 d43d 769c acbd
00000370: 7be2 a33e 3471 053d a9f0 c63d 235c 0b3d
00000380: acfa f43c 1558 39bd 4e2a 883c 1c46 90be
00000390: d217 c23d ca56 9f3c be9f eabb a555 853e
000003a0: d7f7 01bd ad07 d7bc 0089 153d 2c9d 013e
000003b0: 8b7c 9abc 8b69 023b 3ece 0cbe d82d 33be
000003c0: 0962 313d a302 c2bc 6ed5 a8be 62ee ad3d
000003d0: be08 883d be2d 4f3d 42b1 6e3c 555f debd
000003e0: 1dff 30bd bdb0 3c3e 3372 19be 49b7 ccbd
000003f0: 8500 9abc 48fe a3be ae10 c93a 7da9 5a3d
0.010919458 -0.008471073 -0.1658925 -0.28584787 -0.11365693 0.15003963 0.16480216 -0.043532327
0.113771275 -0.08727086 -0.11941229 0.22380452 0.14052314 -0.25633603 -0.0042402484 0.08700554
-0.038353935 -0.13502094 -0.21142462 -0.1758896 -0.10749304 -0.00047119363 0.12746857 -0.18653493
-0.23545994 0.1421083 0.16066784 0.024479998 -0.026013874 0.018295724 -0.1334906 -0.055829827
0.02073012 -0.050447237 -0.117585145 -0.07466016 -0.20114522 0.15985835 -0.1704777 0.065492555
-0.095979385 0.069605 0.096074164 0.020397482 0.35297114 0.08141585 -0.026508346 -0.092033945
-0.124180466 -0.20140456 -0.07528377 -0.10196068 0.0071587595 -0.11523009 -0.13603647 -0.13944021
-0.17761783 -0.2240814 -0.1535151 0.12555943 -0.26455584 -0.09476459 -0.09164938 0.10748033
0.021183364 0.064648665 -0.1846559 -0.011568553 0.0015702804 0.01295335 0.012977291 -0.054933675
-0.21177363 -0.023142267 -0.13832478 -0.3625281 -0.17930678 -0.1377839 -0.04748158 -0.0248555
0.003466094 -0.10329609 -0.09177642 0.12907441 -0.025900276 0.13473244 -0.40380955 0.0763504
0.29833823 -0.020939449 -0.046585415 0.0750263 0.026726931 0.03459964 -0.13465586 -0.1707574
-0.1192122 -0.15574531 -0.039363693 -0.16068612 -0.21780005 -0.014315451 -0.0039446116 0.27721727
0.062383402 -0.020915532 0.049878933 0.038777187 -0.0021462673 0.012136443 -0.05617725 0.13765258
-0.10942552 -0.034641787 -0.3164982 -0.020635547 -0.022281118 0.09882423 -0.14319733 0.0408507
0.14991072 -0.37940386 -0.14941727 0.045032423 -0.27465177 0.08918333 -0.22480035 -0.13192034
-0.20812911 0.06302785 -0.045241844 -0.026632328 -0.19567882 -0.04411184 0.11682073 -0.3349819
-0.05246976 0.05944911 0.084068626 0.015621184 0.078979336 0.057186276 -0.10774228 -0.11881206
-0.17118564 0.16734183 0.039382536 0.13605033 -0.07481225 -0.13746502 -0.21480772 0.14780305
0.09391834 0.077852614 0.1750706 -0.16583927 -0.094466455 0.038341172 0.098914415 0.03230667
-0.06785502 -0.1644339 -0.12930626 -0.0015826864 -0.009720329 -0.043949656 0.044873238 -0.13662112
-0.043715734 -0.16359779 0.0054688724 0.05188691 -0.09867875 0.12228032 -0.14271314 0.111727245
0.15210736 -0.22363953 -0.049442645 0.07440032 -0.3242859 -0.036673803 0.07351892 0.11275149
0.006342207 0.1628234 0.12623903 0.05424001 -0.03638243 -0.29047382 0.20223498 -0.20099218
-0.21682584 -0.20610704 -0.12244983 -0.11999551 -0.043631423 0.016821329 -0.008719404 -0.16857003
-0.106982306 0.02724295 0.114289455 -0.014718783 0.011261777 -0.035687204 0.13903357 0.09354705
-0.023515798 0.21865058 0.060072787 0.048778042 -0.5560676 -0.2654267 -0.020079957 -0.006379496
-0.1230344 0.00019192164 0.10362232 -0.0842828 0.32008728 0.032578662 0.09713871 0.034023415
0.029904686 -0.045250017 0.016621735 -0.2817849 0.094771996 0.019450564 -0.007160156 0.26041904
-0.0317305 -0.026248777 0.036507607 0.12657613 -0.018858215 0.0019899334 -0.1375055 -0.17497957
0.043306384 -0.023682898 -0.32975334 0.084927335 0.066422924 0.050580733 0.014568629 -0.10858027
-0.043212045 0.18426795 -0.1498497 -0.09995896 -0.018799076 -0.3202994 0.0015340054 0.053384293

hidden_nets.0.bias f4 [128]
00000000: 49c9 b2bc b661 3bbd fc17 2fbe 3a95 00be
00000010: b0ac a4bc f73e 6fbd 7961 89bc 89ab babc
00000020: 7ced d8bd 3a70 0abe debc c13c a961 84bc
00000030: cd65 f8bd 9dfd 58bd caaf 1dbe b52a e5bb
00000040: c783 46bd 9884 cf3c f629 1cbe b894 d5ba
00000050: c914 b8bd 1069 4ebe 5acb 3e3c c21c 9abd
00000060: ae6d 64bc bdc8 973d 132c 70bd d8cf f2bd
00000070: 1016 983d 72a6 753d 4373 89bd ce74 d5bc
00000080: 4b82 25bc 2b3a 913d d3ac 3dbe 02db b9bd
00000090: ae8c 8abc f7fd 10be 4d3a e93d 620d 5dbe
000000a0: 086a 533d 58ce 18be 3f1b 10be d517 febd
000000b0: f3e0 c13d 710e 99bd b803 75be 847c a53d
000000c0: 6f4e 9d3d 8e56 2ebe 6cb4 b13d e9e4 39be
000000d0: d329 e03c 269e a0bd 6fac 943b 6048 00bd
000000e0: ab1a f3bd 1cca dfbd cee1 34bc fdb6 643d
000000f0: 74e4 46bd b942 06be 1f7e f1bd 4d2b 3dbe
00000100: 7c56 58bc 8ea1 ebbd 82b2 ac3d af7b 9dbd
00000110: 2d05 f63c 78af dc3c 1b86 143d a8f9 dc3c
00000120: fd6c 053d a1a0 27be 62de a7bd 2f56 4abc
00000130: 3b91 0cbd 8e15 e3bd 0000 0000 01ba 1bbe
00000140: 640b 3cbd 2a57 69bd ab52 47bd b88c f7bd
00000150: 091f cdbc 0000 0000 cf01 62bc 7bc3 57be
00000160: 6f19 8e3d 4d6f d3bc 438f 953d 743c f63d
00000170: 18ff 2abe 5259 adbd b0ba 5b3d 0e51 edbd
00000180: 2827 d93c bfca b6bc 70e4 35be f5ec f63d
00000190: ac64 cbbb 9438 85bc 8a97 f63d 1eec a53c
000001a0: 4514 0a3d 3c8b f13c 8715 ebbd 8020 873d
000001b0: 4c11 22be c504 acbd fe59 8abd 866f 70be
000001c0: 50d2 37bc 51ae bf3c 56e6 e8bc 1775 c3bc
000001d0: 4489 eebd 50e3 a9bc 3dd5 b4bc 991b 76bd
000001e0: 7e2c ef3c 94ac 25be 4fe9 95bc 391d 07bd
000001f0: f704 7a3b fb3e 1c3d f9b5 453d b463 f13c
-0.021824496 -0.04574748 -0.17098993 -0.12556925 -0.020101875 -0.058409657 -0.016770111 -0.022786872
-0.105921715 -0.13519374 0.02364963 -0.01615985 -0.12128792 -0.05297624 -0.1539909 -0.0069936165
-0.048465516 0.02533178 -0.15250382 -0.0016294932 -0.089883395 -0.20157266 0.0116451625 -0.07525016
-0.013942165 0.07411335 -0.058635782 -0.11856049 0.07426083 0.059973188 -0.067114376 -0.026056673
-0.010101865 0.07091173 -0.18522958 -0.090749756 -0.016912784 -0.1415938 0.11388073 -0.21587136
0.05161479 -0.14922464 -0.14072894 -0.12406889 0.09466734 -0.074734576 -0.239272 0.0808039
0.07680976 -0.17025205 0.08676991 -0.18153729 0.027363693 -0.078426644 0.0045371572 -0.031319022
-0.11870321 -0.10927221 -0.011040164 0.055838574 -0.048557714 -0.1311139 -0.11791634 -0.18473549
-0.013204213 -0.115054235 0.08432485 -0.076896064 0.030031765 0.026939139 0.036260705 0.026974514
0.032574642 -0.16369869 -0.08196713 -0.012349649 -0.03431819 -0.110880956 0.0 -0.15207674
-0.0459093 -0.05696789 -0.048662823 -0.12087387 -0.025039213 0.0 -0.0137943765 -0.21070664
0.06938445 -0.025809908 0.07302716 0.12023249 -0.16698873 -0.08464302 0.053644836 -0.115877256
0.026507929 -0.022313474 -0.17762923 0.12056915 -0.0062070694 -0.01626233 0.120406225 0.020254191
0.033710737 0.029485337 -0.114787154 0.06597996 -0.1582691 -0.08399347 -0.06755446 -0.23480043
-0.011219576 0.02339855 -0.028430145 -0.023859544 -0.11647275 -0.020738274 -0.022074336 -0.060084913
0.02919602 -0.16179115 -0.018299727 -0.032986853 0.0038149932 0.038146 0.048269246 0.029466487

hidden_nets.1.weight f4 [128, 128]
00000000: 3cc7 363d b022 33bd 6066 1bbe bf27 c63d
00000010: 3d4d 403e 14a6 babd 2033 ddbe 2f69 8fbd
00000020: 5c54 503e a3e9 d93d 0ea6 89bd eeef 00be
00000030: 7f15 713b 1046 b6be 0da2 db3d b08c 303d
00000040: 8016 66be 283a 34be 713b 21bc 1031 de3c
00000050: 4b49 2a3d e607 97bd f718 ecbe 03b5 bebe
00000060: efc9 82be 6d5c 14be 3fc0 a8bd 68db f3bc
00000070: 6f8d 5bbd 8fe9 96bb fe10 50be 4e58 6f3c
00000080: 1b25 14bf f43b e0be e141 223d b5de 08bc
00000090: 5cc5 513e 16ab 0bbe 653e d93d 0baf 2b3d
000000a0: 57b0 7cbe 1bdc 88bc e2ba cf3d 568b 18bd
000000b0: 42cd 6bbd 03c0 6cbe 912e 8cbd 6f14 cf3c
000000c0: 2f94 06ba 17a5 093e 29dd 89be bc0d 373e
000000d0: 72bb 593e 5916 0fbe be45 263a f4be babe
000000e0: 332a 3ebd 8354 51be 7ff8 023e 3be8 6a3d
000000f0: a1a0 873e e9db 143d d0fa e63d eced 293d
00000100: 5ec0 053e 9d26 813e 05d1 823d 42e5 8abe
00000110: 041a 26be a25c 9dbd ae6d 5fbe a86e 15be
00000120: 7e38 53be 4dc7 ca3d 7882 4fbd d558 143d
00000130: a2ef fabc 69be 7f3e bd65 f43d dffb 19be
00000140: 733d dabe c6b5 ccbd 8bed d1bd 5640 50bd
00000150: e67b 2ebe e446 43bd ee48 1d3d 6bee 6f3d
00000160: 6e16 10be 33f1 a6be bf0a febd ca45 593d
00000170: 8099 a2bd e364 49bd ce1f f23d 9e2d cbbc
00000180: b326 02bf dd84 03be d594 33bd ff9c 533d
00000190: aa15 35be 805f 46be 1e40 12bf 8a3c 173c
000001a0: 8a7e 44be 970e 27be 00c3 ee3c e479 593c
000001b0: 44c4 2b3e b328 d9be 7c29 c6be 2c98 f7bc
000001c0: d891 203e 61f2 6fbd ef50 c0bd cf44 9bbe
000001d0: f44f 17bd 84d1 1fbe 56be 4abd 56b6 03bd
000001e0: 6ba9 81be 6856 7ebd 335a 813e 3a6a 93be
000001f0: b4ec 863d 2322 fcbd 2137 323d 7736 acbe
00000200: 92a6 cb3c 41e5 313e 1248 003e 629c 8cbd
00000210: bdf4 dabe 601d 243d 0e20 093e 3e8e 043d
00000220: d5e3 4bbe 56e2 2abe 70dc 39be fa77 de3d
00000230: ea77 e2bd ce0a 1c3e 31cc 99bd e685 113e
00000240: 0153 9bbe b54f 443b 631b c23c 564e 9abe
00000250: dc3e 0d3d f167 883e 6899 c63d bc5e 4dbd
00000260: 5050 41be 7381 143e f7cf 3dbd 1c8f d73c
00000270: b5ce e73d 2d1e 1bbd 973f cfbd 1b85 f5bc
00000280: 7559 a03c f98c 71bd 7380 323e e818 8dbd
00000290: ac7f bb3d 1851 d2bd df64 71be 2c36 85bd
000002a0: 1a8e b43d 5782 0b3d 9ab5 acbd 73d8 7f3d
000002b0: 3b20 1ebf 7cdb d2bd 22ef 953d d9bf c7be
000002c0: d335 f4be fff3 3dbc 40c6 a4bc 9647 52bd
000002d0: 165e 58bd fa55 e23d ca18 b7be 24ac 16be
000002e0: 6c76 0bbe 5e8f 84bd aa40 fa3d 2d12 a6bd
000002f0: d652 b239 f313 c4bd 340d a23d d59a a6bc
00000300: 4256 063e e253 99bd 2824 8abe a26c 01be
00000310: f55e cdbd 4462 4abc b990 2c3e 3374 28be
00000320: 0f01 243d 73c1 f3bd 2a89 593d ad17 1a3d
00000330: fd45 073d abf7 7bbe 1696 6e3d 613b 343e
00000340: 5296 7ebd 315c 82bd b298 7d3c ec12 0abe
00000350: 23bd efbd e0cd 0e3e 88bf 04be 0b7f 8a3d
00000360: cf9e 2dbe 8a09 88bc a89f 33be 35c3 bdbe
00000370: a7cc c63c 8e86 f1bd 7a74 7dbd b4be f93d
00000380: 5c37 313e d69e 663d 0247 eebd 9e65 24bf
00000390: e5da 4fbd 8d46 133e aaed 883d 378a 67be
000003a0: b068 e0bd dc8a 6cbe 4741 c33d 3435 4abe
000003b0: 2d95 e8bd 6231 d43d 3acc 553d a97e 903d
000003c0: 03f5 7abe 06f1 ffbe efeb 8dbc 9e94 6dbd
000003d0: 3628 d53d e872 7abd c31e 333d 575a f93d
000003e0: 335b 90be 9bae fabd 9e63 f4bc db23 8abd
000003f0: 1515 edbd ff52 a73c a315 1fbe d689 c9bd
0.0446236 -0.043734252 -0.15175772 0.0967555 0.18779464 -0.09113708 -0.43203068 -0.07002484
0.2034468 0.10640266 -0.067211255 -0.12591526 0.0036786494 -0.35600328 0.10724268 0.04310292
-0.2246952 -0.1760031 -0.009840832 0.027123004 0.041573804 -0.073745534 -0.46112797 -0.37247476
-0.25544688 -0.14488383 -0.08239793 -0.029767707 -0.05360168 -0.004605479 -0.20318982 0.014608456
-0.5786912 -0.4379574 0.03961361 -0.008353879 0.20485443 -0.13639483 0.10607604 0.04191498
-0.24676643 -0.016706517 0.10143067 -0.037242256 -0.057568796 -0.23120122 -0.06844819 0.025278298
-0.00051337754 0.13441883 -0.26926544 0.17876333 0.21262911 -0.13973369 0.000634279 -0.3647381
-0.046426963 -0.20442395 0.12790106 0.05735038 0.26489738 0.036342535 0.112783074 0.041486666
0.13061664 0.25224772 0.063875236 -0.27128035 -0.16220862 -0.07683684 -0.21819183 -0.14592993
-0.20627019 0.09901295 -0.050661534 0.03621753 -0.030631844 0.2497498 0.119334675 -0.15037487
-0.42625007 -0.09995608 -0.10250386 -0.050842606 -0.17039451 -0.04767503 0.03839963 0.058576982
-0.14071056 -0.32605895 -0.124043934 0.05304507 -0.07939434 -0.04916848 0.118224725 -0.024802025
-0.508403 -0.12843652 -0.04384311 0.051663395 -0.17684045 -0.19372368 -0.57129085 0.009230742
-0.19188896 -0.1631416 0.029145718 0.01327369 0.16774088 -0.42413864 -0.38703525 -0.030223928
0.15680635 -0.05858076 -0.09390437 -0.30325934 -0.036941484 -0.15607268 -0.049497925 -0.03215631
-0.25324568 -0.062094122 0.2526413 -0.28791982 0.06588116 -0.123111986 0.043509606 -0.33635303
0.0248597 0.1737261 0.12527493 -0.06865765 -0.42764845 0.040067077 0.13391134 0.032362215
-0.1991113 -0.16687903 -0.18150496 0.108627275 -0.11058028 0.15238497 -0.075096495 0.14211234
-0.30336764 0.0029954736 0.0236947 -0.3013789 0.034483775 0.266418 0.09697229 -0.050139174
-0.18878293 0.14502506 -0.04634091 0.026313357 0.11318723 -0.037870575 -0.10119551 -0.029970696
0.019573906 -0.058972333 0.17431812 -0.06889516 0.09155211 -0.10269374 -0.23573636 -0.06504473
0.08816166 0.03405985 -0.08433075 0.06246228 -0.6176793 -0.102957696 0.073210016 -0.39013556
-0.47697315 -0.011593818 -0.020114064 -0.0513378 -0.052824102 0.11051555 -0.357611 -0.14714104
-0.13619393 -0.064726576 0.12219365 -0.081089355 0.00034012523 -0.095741175 0.079126745 -0.020337502
0.13118842 -0.074867025 -0.2698071 -0.12639096 -0.10027877 -0.01235253 0.16852082 -0.16450576
0.040040072 -0.11902132 0.053109325 0.037620235 0.03302573 -0.24606197 0.0582486 0.17600776
-0.062155075 -0.0636524 0.0154783 -0.1348378 -0.11705997 0.13945723 -0.12963688 0.06762513
-0.16955112 -0.016606111 -0.17541373 -0.37062994 0.024267508 -0.117932424 -0.06187866 0.12194577
0.17306274 0.05630382 -0.116346374 -0.64217556 -0.050745863 0.14382382 0.06685956 -0.22611319
-0.109574676 -0.23099846 0.09533935 -0.19746858 -0.11356578 0.103609815 0.05219672 0.070554085
-0.24507527 -0.49988574 -0.017324416 -0.05800306 0.1040806 -0.06114474 0.04373051 0.12175434
-0.2819458 -0.122403346 -0.029832657 -0.0674512 -0.11576287 0.020425318 -0.15535598 -0.09840743
