hyperopt_results/lr_experiments/lr_0.0005/dqn_racing_episode_100.pth (torch, 453653 bytes, 36 tensors)

hidden_nets.0.weight f4 [128, 11]
000000 dc 16 02 3e 88 86 93 ba 09 74 38 be e1 e2 c5 bd
       0.12704033 -0.0011255303 -0.18013014 -0.09662414
000010 9e f2 e8 3c 6b e5 a1 3d c4 f0 dc 3c d0 ad a9 bd
       0.028436001 0.07905086 0.026970275 -0.08285105
000020 ea 00 e9 3d 59 29 ca bd 36 ec 95 38 a2 ef 6d 3e
       0.113771275 -0.09871168 7.1488714e-05 0.23235944
000030 fc fb e5 3d f4 c7 3d bd 85 e5 6a bd c8 bb 4f 3d
       0.11229703 -0.04633327 -0.057347793 0.05071619
000040 1d 52 51 bc 96 91 27 be e8 56 7c be 67 1c 34 be
       -0.012775925 -0.1636413 -0.24642527 -0.1758896
000050 6f 9b 8e bd a4 a0 b8 bd c4 a5 c0 bd 50 a3 32 be
       -0.0696324 -0.09015015 -0.09406617 -0.17445111
000060 9a 5e ae bd db 36 dc bc 47 ac 58 3e 66 e2 81 bd
       -0.085141376 -0.026881626 0.21159469 -0.0634201
000070 be 22 b5 3d 83 a0 78 3d c3 b1 08 be 37 4f df bb
       0.08844517 0.06069995 -0.1334906 -0.006814863
000080 45 62 77 3c 9d 3c 99 bd ad 59 da bd 08 ae 1a bd
       0.015099113 -0.07482264 -0.106616355 -0.037763625
000090 60 cf 33 be 5e 1a 40 3e 39 78 34 be 55 29 10 3e
       -0.17559576 0.18760058 -0.17623986 0.14078267
0000a0 64 83 90 bd 11 8d 8e 3d a2 80 e2 3d 7d ae ad 3d
       -0.07056311 0.069605 0.11059691 0.084805466
0000b0 2b 15 03 3e 8a 15 bb 3d 5b 05 36 be 99 55 90 39
       0.12801044 0.091349676 -0.1777548 0.00027529596
0000c0 1f 83 7d be 1c c2 21 be d6 c7 1e 3c 90 f4 af bc
       -0.2475705 -0.15796703 0.009691199 -0.021478921
0000d0 07 94 ea 3b 6a 79 ff 3c 90 7b 08 be f7 a2 a0 3d
       0.0071587595 0.031185824 -0.13328385 0.07843583
0000e0 3a 61 4a be 55 53 3f be 3d 9c bc be e9 8e cc 3d
       -0.19763651 -0.18684132 -0.3683795 0.099881954
0000f0 ae 00 2a be d5 ff ca bd 03 b5 b4 bd a6 1e dc 3d
       -0.16601822 -0.09912077 -0.08823588 0.10748033
000100 f9 17 de 3c 3f a6 d2 3d e3 24 07 be ee 3c 07 3d
       0.02711104 0.10285615 -0.13197665 0.03301709
000110 9d c1 68 be fd 1b db bc b5 47 81 bc d3 69 60 3c
       -0.22730108 -0.026746744 -0.015781263 0.013697105
000120 6a b8 f6 bd b7 b0 d1 bc 03 a5 0d be 48 9b 30 be
       -0.12046893 -0.02559696 -0.13832478 -0.17246735
000130 2e 28 22 be 06 01 e0 bd 73 30 47 bd 57 36 2f bd
       -0.1583564 -0.10937695 -0.04863019 -0.042776432
000140 1d 9b 0d be a6 5a d5 bd 63 c4 dc 3d 63 bb ec 3d
       -0.13828702 -0.104176804 0.10779645 0.11559179
000150 dc 5a 32 bd 4d f7 09 3e 11 09 70 be de 00 5d 3d
       -0.04354368 0.13473244 -0.23440959 0.053955905
000160 16 a1 1d be a6 b8 2a 3c f2 7a 9d bd 73 4c a7 3d
       -0.1539348 0.01042 -0.076894656 0.081688784
000170 29 2f 23 bd 90 df ae be 91 47 25 be cd c8 a9 bd
       -0.039839897 -0.3415494 -0.16140582 -0.08290253
000180 87 25 f4 bd 93 5d 13 be f1 5b 12 3d da 0a 23 be
       -0.1192122 -0.14391164 0.035732213 -0.15922108
000190 f2 80 9b be 7f 79 ce 3d 4d ed be 3c f9 ae 5c 3e
       -0.30371815 0.10081767 0.023306513 0.21551122
0001a0 fa a5 27 3c 4a 6d 25 bc 02 cd f7 bb d4 d4 1e 3d
       0.010232443 -0.010096857 -0.0075622806 0.038777187
0001b0 1d 39 db bd 2f 4a 44 3c 56 e3 c9 bd c8 fa 07 3e
       -0.10704253 0.011980577 -0.09857814 0.13279259
0001c0 2d 16 1d be ec 6e 83 3d 7c ce 78 be 5a c9 72 3d
       -0.1534049 0.06417641 -0.24297518 0.059274055
0001d0 6c 57 9c bd 52 84 98 3d 52 a2 12 be c8 b5 8e 3d
       -0.07633862 0.07447113 -0.14319733 0.06968266
0001e0 89 58 f9 3d 42 6a 22 be 9e 72 42 be f9 20 3e 3e
       0.1217509 -0.15860847 -0.18989035 0.18567266
0001f0 0e 90 1d be 39 ad a8 3b 6a d8 0d be b9 14 c9 bd
       -0.15386984 0.005147603 -0.13852087 -0.09818406
000200 18 3c 77 be bf 14 81 3d 2c 14 66 3d 07 3e df bd
       -0.24144018 0.06302785 0.05617158 -0.10900503
000210 87 ac a5 be 51 fc 8d bd 21 ed 85 3d fb 57 58 be
       -0.3235819 -0.06932891 0.065393694 -0.21127312
000220 6f 0d 92 3b 2d c8 31 3d 80 cd db 3d 0a c4 3e bb
       0.004457168 0.043403793 0.107325554 -0.0029108548
000230 eb bf a1 3d 52 3e a2 3d a9 2e 14 bd 87 26 dd bd
       0.078979336 0.07922043 -0.03617731 -0.10798364
000240 f2 89 41 be cd aa 36 3e da 1c ce 3d 78 ae 42 3e
       -0.18900278 0.17838593 0.10064097 0.19011867
000250 d9 80 fe bb d2 76 6b bd f9 84 73 be af 59 17 3e
       -0.0077668247 -0.057486363 -0.23781194 0.14780305
000260 2a e5 e8 bc 69 75 cc 3d 74 df 06 3e 1e 4c 20 be
       -0.028429586 0.09983332 0.13171178 -0.15654036
000270 d8 05 05 be 1f 46 86 bd 1e c0 f5 3d a9 7d 0f bd
       -0.1299051 -0.06556343 0.11999534 -0.03503195
000280 68 43 35 bc 1b 36 db bd dc 68 04 be e8 d4 ac 3d
       -0.011063434 -0.10703679 -0.12930626 0.08439046
000290 60 3a 82 bd ca dc 2c bd 72 ad 18 3d 12 97 31 be
       -0.063587904 -0.04220275 0.037274785 -0.17342785
0002a0 a1 7b aa bd 72 a9 2d be 95 92 c6 3d f8 6f 47 3d
       -0.083243616 -0.1695917 0.09695927 0.048690766
0002b0 48 e0 d6 bd 1b 6e fa 3d c3 d2 33 be 0e 09 d8 3d
       -0.10491997 0.12228032 -0.17560868 0.10548602
0002c0 d0 31 9b 3c 00 79 3a be 2b 34 15 ba 61 f7 a2 3d
       0.01894465 -0.1821022 -0.00056916726 0.0795734
0002d0 c8 f5 a0 be 43 27 36 3c 17 2c 29 3d 53 6e 8c 3d
       -0.31437516 0.011117759 0.041301813 0.0685698
0002e0 4a d2 cf 3b 1f fb 04 3e a9 0b f5 3d ac 33 a6 3d
       0.006342207 0.1298642 0.119651146 0.081153244
0002f0 55 59 73 bd 2d 24 67 be 66 b6 6c 3d a0 36 b3 bc
       -0.059411366 -0.22572394 0.057791136 -0.021876633
000300 f5 41 00 be cb 07 1f be 11 46 32 be 35 c0 f5 bd
       -0.1252516 -0.15530317 -0.1740954 -0.11999551
000310 5a 60 68 bd e6 46 ab bd 1a 0f 54 bd fa 2a 43 be
       -0.056732513 -0.08363132 -0.051772214 -0.19059363
000320 e4 32 16 3c bb dc 0f bd 07 9a 27 3e 6d 2d a8 3b
       0.009167407 -0.035122614 0.1636735 0.0051323683
000330 45 7b 8c 3c 13 d4 e8 bc d1 5e 0e 3e 30 3b 22 3d
       0.017148623 -0.028421437 0.13903357 0.039607227
000340 9b 89 c3 3c f4 2e 3d 3e 71 2f 05 3d 0a 1e e1 bd
       0.023869326 0.18474942 0.032515947 -0.109920576
000350 8a 0c 06 bf c4 d6 4d be ad 0a d1 3d e2 c1 18 bd
       -0.52362883 -0.20101458 0.10207114 -0.037294276
000360 36 e4 14 be 93 3e 49 39 05 63 f6 3d d9 4e 0f be
       -0.1454018 0.00019192164 0.12030605 -0.13994922
000370 b7 42 ed 3d b5 2f 55 bd 29 11 22 3d 1d 6b f4 ba
       0.115849905 -0.05204745 0.039567146 -0.0018647645
000380 d1 f9 03 3e 86 f2 75 bd e7 f9 c2 ba 07 02 8f be
       0.12888266 -0.06004574 -0.0014875502 -0.27931234
000390 d2 17 c2 3d df d5 ff bb c5 63 30 bd 04 d8 a6 3d
       0.094771996 -0.007807478 -0.043063898 0.081466705
0003a0 79 08 55 bd 9b ff 94 bd 61 2b f1 bd 15 a4 09 3e
       -0.052010033 -0.072753154 -0.11775852 0.13441499
0003b0 ce 3a ec bb 68 17 92 bc be b6 b8 bd d8 2d 33 be
       -0.0072091585 -0.017833427 -0.0901923 -0.17497957
0003c0 6b d9 67 3d e9 2f 8d bc d1 ce 95 be 4a 7e 30 3d
       0.05660383 -0.01723476 -0.2925935 0.04308919
0003d0 6e 44 b1 bd 68 5f 24 3e 7a b4 79 3d 63 a6 73 be
       -0.0865563 0.1605202 0.06096313 -0.2379394
0003e0 98 d8 96 bc 7f 03 27 3d 33 72 19 be 62 d5 09 bd
       -0.018413827 0.04077482 -0.1498497 -0.033650763
0003f0 a4 6b ed 3c cb fe 1b be b6 22 92 bd e4 97 b7 3d
       0.028981991 -0.15233915 -0.07135527 0.08964518

hidden_nets.0.bias f4 [128]
000000 73 71 7a bd 4d 5e a5 bd c5 ab 03 be ef 1c cd bd
       -0.06114335 -0.08074627 -0.12858494 -0.10015284
000010 c3 50 77 3d e8 42 61 bd 15 7d 9d bc 2f 9a 25 bd
       0.060379755 -0.054995447 -0.019224683 -0.040430244
000020 a7 02 94 bc 17 42 45 be db 66 38 ba a9 a1 4a bd
       -0.018067671 -0.19263493 -0.00070343696 -0.049470577
000030 ce 2c 0f be 00 9c 9b bd a3 d2 c5 bd ee d6 58 bc
       -0.13981935 -0.07598114 -0.096593164 -0.013234837
000040 45 bd bd bd b9 8f d7 bc 7c b9 14 be fb 97 c4 bc
       -0.09264616 -0.02631365 -0.14523882 -0.023998251
000050 61 06 b3 bd 9d f6 1d be 20 03 07 be ad 4d 11 be
       -0.08741451 -0.15426107 -0.13184786 -0.14189787
000060 7b 5a 10 bd ee 5a cf 3b 0f 11 d0 bd 20 c1 bc bd
       -0.03524254 0.0063279783 -0.10159504 -0.09216523
000070 7e 9d 60 bd 0a 85 e7 bc 85 68 cd bd 52 73 83 bc
       -0.054837696 -0.02826168 -0.10029701 -0.0160462
000080 a5 ce b3 bc 42 6f 66 bd 43 7f 21 be 36 ba 91 bd
       -0.021949122 -0.056258447 -0.15771203 -0.07115595
000090 c2 85 8c bd dd 52 58 bd 1a 21 09 bd bf f0 27 be
       -0.0686145 -0.0528134 -0.033478834 -0.16400431
0000a0 f7 6b be bd ab 69 0f be 42 02 cd bd b1 44 ed bd
       -0.092979364 -0.14005153 -0.10010196 -0.115853675
0000b0 ab 38 3a 3d 53 a0 2a bc 0e d5 2e be bd 1e 05 3d
       0.0454642 -0.010414201 -0.17073461 0.032500017
0000c0 84 c6 3c 3d 7f 6c d0 bd df 4b df 3d 39 43 20 be
       0.046087757 -0.10176944 0.10903143 -0.15650643
0000d0 81 34 dc bc a7 9a 94 bd b9 3d 13 3c 7b 40 9b bd
       -0.026880505 -0.0725606 0.008986884 -0.07580658
0000e0 75 db 0e be 8e b1 fd bd f7 b0 8c 3a ae 1d 4e 3d
       -0.13950904 -0.123873815 0.0010733892 0.050321274
0000f0 9d b7 52 bd f8 a0 02 be b1 1e ca bd 05 7d 21 be
       -0.05144464 -0.12756717 -0.09869135 -0.15770347
000100 06 77 48 bc 0e 91 64 bd 86 e5 44 3c ad 06 1c be
       -0.012235409 -0.055802397 0.012017613 -0.15236922
000110 3e 82 b1 bc b7 7e 39 bd 40 60 87 b9 b9 bf 89 3c
       -0.02166855 -0.04528686 -0.00025820918 0.016815053
000120 b2 10 1e 3c 67 03 01 be 8d 6e cf bd b6 a2 00 3c
       0.009647535 -0.12598954 -0.10128508 0.007851293
000130 5b 10 80 bc 6b 57 92 bd 00 00 00 00 5c c3 0e be
       -0.015632799 -0.0714558 0.0 -0.13941711
000140 e5 6c f3 bd 5a 63 11 bd f8 78 8e bb 84 43 cd bd
       -0.11886004 -0.03549514 -0.0043479167 -0.10022643
000150 56 fc b0 bd 00 00 00 00 8d 74 74 bc bf df 23 be
       -0.08641879 0.0 -0.014920366 -0.16003321
000160 a9 1a 14 3d ee 9c bb bd a1 97 0c 3d 41 35 d4 3d
       0.036158238 -0.09160791 0.034324292 0.1036172
000170 cb 20 c6 bd f2 81 52 bd 54 c1 7c bb 26 6f 01 be
       -0.096742235 -0.051393457 -0.003856738 -0.12640056
000180 a4 65 bd bc 57 18 f0 bc 0c 10 ce bd d4 10 83 bb
       -0.023119755 -0.029308481 -0.100616544 -0.003999809
000190 82 2e 0d bd 46 67 2b bd 0f 76 8a bc c9 c1 97 bb
       -0.03446818 -0.041846536 -0.016901998 -0.0046312553
0001a0 55 23 57 3d 2f 88 fd 3c fb 50 e0 bd 74 b4 0e 3c
       0.05252393 0.030948726 -0.10952946 0.008710016
0001b0 f9 9c 17 be 6b 07 6e bd 49 3b 9c bd cf 4a 37 be
       -0.14805974 -0.058112543 -0.07628495 -0.17899631
0001c0 fb 8c a0 bc 4c 0c 72 3d 24 30 c4 bc 74 86 eb bd
       -0.019598475 0.05909376 -0.023948736 -0.11500254
0001d0 9e e4 ec bd c7 2a 9d bd f8 16 42 3d 11 5d ce bd
       -0.11567043 -0.07674175 0.047385186 -0.10076345
0001e0 97 1c 30 bd f3 a7 f9 bd 1e 5c 0f bd 0d d9 7a bd
       -0.042996015 -0.12190237 -0.03499996 -0.061242152
0001f0 58 65 e6 bc 99 1e 01 bd 6d 48 f5 bc f5 f5 25 ba
       -0.028124496 -0.03152332 -0.029941762 -0.0006330901

hidden_nets.1.weight f4 [128, 128]
000000 d4 1d 22 bd 74 0c 95 3c 71 14 0d bd e5 29 f8 bd
       -0.039579228 0.018194415 -0.034443323 -0.12117366
000010 0c ca a9 3c 54 c3 18 be ac 11 90 3d 9d ef 20 be
       0.020726226 -0.14918262 0.07034621 -0.15716405
000020 1f 81 82 3e 54 9e 89 3d 6b 1c b6 3d d1 49 2e be
       0.25489137 0.06719652 0.08892139 -0.17020346
000030 27 de 10 3c f5 91 98 be 48 e7 60 3e c3 0b ad bc
       0.008842028 -0.29798856 0.21963227 -0.021123772
000040 99 ea 19 be c4 85 76 bd 55 91 0a be 25 97 9e 3d
       -0.15030898 -0.060186163 -0.13532002 0.07743672
000050 20 6c d0 bd 8d 93 b2 bc 5a 16 32 3d f6 2a e9 bd
       -0.10176873 -0.021798873 0.043478347 -0.11385147
000060 79 a8 2a be 0f 70 97 3c 49 05 9f bd 87 f4 94 bc
       -0.1666583 0.01848605 -0.0776468 -0.018183006
000070 8e 52 3d bd c3 7e 86 bd 0e 9b 34 3e 44 d4 aa 3a
       -0.04622131 -0.06567147 0.17637274 0.0013033231
000080 70 8a 8d bd 5a a5 17 be b9 97 af 3d bf 2a e8 bd
       -0.069111705 -0.1480917 0.08573861 -0.11336278
000090 a8 3b e9 3c 49 2f c0 bd 01 d5 c9 3d d0 3b f0 3a
       0.02847083 -0.09384019 0.098550804 0.0018328372
0000a0 2e dc 20 be 1a 4b 04 bd 91 4a ac 3d a6 17 58 3d
       -0.15708992 -0.032298185 0.0841266 0.052756928
0000b0 e8 56 87 bd 55 c2 38 be 04 42 bd bb 04 eb 30 bd
       -0.06608373 -0.18042882 -0.005775692 -0.04319288
0000c0 02 17 44 3d 14 6a 53 bd c7 bf e1 3d 6f 13 fb 3d
       0.047873504 -0.051614836 0.11022907 0.12259566
0000d0 ce 13 02 3e 02 33 2d be e6 06 8a bd 6e 77 f9 bd
       0.12702867 -0.16913989 -0.06739597 -0.121809825
0000e0 2b e6 b8 bd c6 1c e1 bd 37 3b 1a 3e 1a a3 bf 3d
       -0.09028276 -0.10991816 0.15061651 0.09357281
0000f0 7a 94 22 bd da d9 8f 3d 16 42 73 bc 7f a1 28 be
       -0.03969238 0.07023974 -0.014847299 -0.16467856
000100 43 ff 15 3e f1 ae 89 3d 86 16 85 3d fc 91 2c be
       0.14648156 0.067228206 0.06498437 -0.16852564
000110 56 12 41 be 71 3b ac bd d0 2b 87 3a e0 7b 6c bd
       -0.18854651 -0.08409775 0.001031274 -0.057735324
000120 39 6d 03 be a8 40 6a 3e 2d c6 88 bd 31 07 4d 3d
       -0.12834634 0.22876227 -0.06678424 0.050055686
000130 bd cc 4c 3e 03 a1 22 3c bd 65 f4 3d 46 67 e6 bd
       0.19999976 0.0099260835 0.119334675 -0.112501666
000140 14 f6 f3 bd f0 ab da bd b0 2b 06 3d 22 58 1d be
       -0.1191217 -0.10677326 0.032756507 -0.15365651
000150 aa e8 00 be e4 46 43 bd bb 98 b4 3d 22 b6 59 3e
       -0.12588754 -0.04767503 0.088181935 0.21260884
000160 cc a0 cf bd f9 75 0a 3d bc e2 a8 bd b9 c0 51 bd
       -0.101380914 0.033803914 -0.08246371 -0.051209185
000170 41 aa 4f 3d 58 7f cf bd ff 79 34 3d 0f eb 6f bd
       0.050699476 -0.10131711 0.044061657 -0.05857378
000180 b9 7d a7 bc 3e a9 06 3d 5a 6c 52 be df 2d f0 bd
       -0.020445691 0.032876246 -0.20549145 -0.11727499
000190 6a a9 b7 bc 94 b1 87 3d e8 af 17 bd 2b ee 2e be
       -0.02241965 0.06625667 -0.03703299 -0.17083041
0001a0 a0 bb 40 3e ef 33 04 be 80 7e 2f be 5b 8e a7 bb
       0.18821573 -0.12910436 -0.171381 -0.0051134056
0001b0 75 04 b1 3c ce 67 f5 bd d1 d0 77 3d c9 79 45 be
       0.02160857 -0.1198269 0.060501877 -0.19284739
0001c0 7b 30 47 bc d2 2c 69 be 29 13 f8 bd e7 28 21 3d
       -0.012157555 -0.22771004 -0.121130295 0.03934565
0001d0 4a f9 de bd 57 1a 79 bc 03 cd a0 3d 3f b2 ef bb
       -0.10887392 -0.015204034 0.07851603 -0.0073149498
0001e0 fb 57 2d 3d 4e 94 00 be 0b 1a 9a 3c c8 8b ce bd
       0.042320233 -0.12556574 0.018811246 -0.10085255
0001f0 e3 4b 3b 3e 29 b8 a5 bc 85 f7 a7 bd d1 eb 53 3e
       0.18290667 -0.020229416 -0.082015075 0.20695426
000200 9d be 0b 3d f9 4e 62 3e b9 cb c0 3d 9f 3f 2d bd
       0.03411733 0.22100438 0.09413857 -0.042297002
000210 ca 33 7e be 58 9b a0 3c f1 c4 e3 bb c0 ea 2a 3e
       -0.24824443 0.019605324 -0.0069509675 0.16691113
000220 fe 5f f9 bd 7d 03 ad bd 97 c4 ee bd dd 79 61 bc
       -0.12176512 -0.08447931 -0.1165859 -0.013761965
000230 76 7d 2c be 9d 17 f9 3d ce 84 3f bc 07 75 11 3e
       -0.16844735 0.12162707 -0.011689378 0.14204799
000240 d3 a1 48 be 53 b7 c1 bd 53 a5 ad 3b ff e8 e1 bd
       -0.19592981 -0.094587944 0.005299249 -0.110307686
000250 28 c6 6b 3c b4 a8 da 3d 91 43 bd 3d 16 9e 80 bb
       0.014390506 0.10676709 0.09241403 -0.0039250953
000260 79 42 86 be 4a 93 07 bd 80 8e 5c bd c0 ea a4 bd
       -0.2622259 -0.03309945 -0.053846836 -0.080525875
000270 19 b9 f3 3d 38 08 71 bd 5a b1 b0 bd 96 97 3b bd
       0.11900539 -0.05884573 -0.08627577 -0.04579886
000280 e2 9d 2a be ad 9b c9 bd b2 1e a7 3d 8f 42 96 3c
       -0.1666179 -0.09844146 0.081601515 0.018342284
000290 6b a7 d1 bc b7 16 cf bd e7 69 01 be 9c fe c9 bd
       -0.025592526 -0.101117544 -0.12638055 -0.09863016
0002a0 b7 db bc bd 1d 2d 19 3c b0 b9 46 3e 31 50 59 3d
       -0.09221595 0.009349135 0.19406772 0.053054992
0002b0 e3 00 5d be 65 4e a5 be 2d 84 7d 3c 99 8c 84 be
       -0.2158237 -0.32286373 0.015473408 -0.25888517
0002c0 84 82 59 be 6a ec 6f bd a3 67 83 be d5 c4 17 bd
       -0.21241194 -0.05857507 -0.25665006 -0.037052948
0002d0 d3 fc 83 bd 2a f8 d0 3c dc fb 88 be 19 33 b2 bc
       -0.06444707 0.025508959 -0.26754653 -0.02175288
0002e0 72 a6 1f be d6 7f 1b 3b 92 2e 1c 3e 44 bc 27 be
       -0.15590838 0.002372732 0.1525214 -0.16380411
0002f0 ce c4 b5 3d b1 6a 16 be 80 91 30 3e 81 e4 28 bd
       0.08875428 -0.14689137 0.17243004 -0.041233543
000300 6d 5d 14 3e d4 ff 0a be a5 97 a1 be 48 6c e8 bd
       0.14488764 -0.13574153 -0.31561008 -0.11348778
000310 56 8c 7a be 69 d8 94 bd 19 85 39 bd 7d a9 2c 3d
       -0.24467596 -0.072678395 -0.045292947 0.042153824
000320 3a 3b 31 bd 9d 80 03 bd 2f 0a 9d 3d 2b ba 32 3c
       -0.043269373 -0.032105077 0.07667958 0.010908644
000330 3b 7e 89 bd e2 83 13 be 16 96 6e 3d 86 a1 ec 3d
       -0.0671353 -0.14405778 0.0582486 0.11554246
000340 c2 af c6 bd 0a 78 e4 bd 94 99 d3 3c 27 46 70 bd
       -0.09701492 -0.11155708 0.025830068 -0.058660652
000350 fc 56 f2 bd e0 cd 0e 3e 1f 1f 29 bd 41 99 bd bc
       -0.11832997 0.13945723 -0.041289445 -0.023144366
000360 56 97 21 3e fb c3 da bd 6b 84 88 be 9b ab 57 be
       0.15780386 -0.106819116 -0.26663527 -0.21061556
000370 fb 94 ef 3c b3 34 10 be 92 4f 9e bc c1 4f 9b 3d
       0.029245844 -0.14082603 -0.019325051 0.07583571
000380 3e f7 00 3e ac c6 5d bb 8c 32 d1 bc 0f f9 9c be
       0.12594315 -0.0033840341 -0.025536798 -0.30658767
000390 f9 44 87 be c3 e6 59 3d 02 73 eb bb fb 0e 64 be
       -0.2641981 0.053198587 -0.007185341 -0.2227134
0003a0 3f a7 76 bd cc 33 41 be 2b 39 3f bb 94 19 da bb
       -0.060218092 -0.18867415 -0.0029178362 -0.006655881
0003b0 0b 5a ef bd 75 a6 9e bc 90 c3 0a be 46 67 96 3d
       -0.11687096 -0.019366482 -0.13551164 0.073439166
0003c0 9e 4c 03 bd 69 1d ae be 2a 5d d5 3b 49 d7 f4 bd
       -0.03205549 -0.34006813 0.00651135 -0.11955125
0003d0 fa 64 00 3e 64 e3 77 be e8 94 0f be 3a 04 20 3d
       0.1253852 -0.24207836 -0.14021647 0.03906653
0003e0 5c d3 e0 bd c6 30 1d be d3 3d 2f 3d 54 98 82 bd
       -0.109778136 -0.15350637 0.04278357 -0.063767105
0003f0 71 42 ab bd f6 96 54 be af 2f 9e 3d a6 c3 b8 bd
       -0.08362282 -0.20760712 0.07723939 -0.09021692

hidden_nets.1.bias f4 [128]
000000 44 78 14 bd 66 91 19 3e 31 8f 43 3e d4 9c 46 3e
       -0.036247507 0.14996871 0.19097592 0.19395763
000010 11 71 26 3d c1 a6 16 3e ee 77 f6 b9 99 b9 12 bc
       0.040635172 0.14712049 -0.0004701013 -0.008955383
000020 30 df 3b 3e cf 4b 35 3e 90 2b 3f 3e eb a2 26 3d
       0.18346858 0.177047 0.18668962 0.040682714
000030 64 26 18 3e af a9 16 3e 1d bf 2d 3e 3d 58 1d 3e
       0.14858395 0.14713167 0.16967435 0.15365691
000040 7d b6 8b 3d 6e 92 27 3e d7 b9 ab bd 1a 83 39 3e
       0.06821916 0.16364452 -0.083850555 0.18116418
000050 e0 61 27 3e 14 76 0a 3e e3 f9 35 3e c2 1b 09 3e
       0.1634593 0.13521606 0.17771105 0.13389495
000060 0b f2 37 3e c2 be a2 ba 69 06 1a 3e d4 a7 2f 3e
       0.17963426 -0.0012416469 0.15041508 0.17153865
000070 e8 57 29 3e 07 ba a0 3c fc f8 0e 3e 06 9d ae bd
       0.1653744 0.019619955 0.13962168 -0.085260436
000080 d6 df 81 bc 1b 44 17 3e ee c8 5a bd d3 df 96 bd
       -0.015853804 0.14772074 -0.053414278 -0.0736691
000090 97 7d 36 3e ba ad f5 3d af ab 22 3e 73 21 37 3e
       0.17821346 0.11996026 0.15885805 0.17883854
0000a0 ed 79 33 3e ea 49 2c 3c a1 f6 24 3e f5 e9 25 3e
       0.1752698 0.010515669 0.16109706 0.16202529
0000b0 ae 81 11 3d 62 5a 2b 3e b4 97 3f 3e 1d ff 2e 3e
       0.035524063 0.16733697 0.18710214 0.17089505
0000c0 e2 32 25 3e 88 1f a5 bd 98 bd 34 3e f5 4c 42 3e
       0.16132692 -0.08062655 0.1765045 0.1897467
0000d0 56 84 c3 3d 77 57 3a 3e b3 b5 50 3c d4 c0 16 3e
       0.095467255 0.18197428 0.012738633 0.14721996
0000e0 86 e3 3e 3e 1f 18 3c 3e a5 66 2c 3e 35 c2 44 3e
       0.18641481 0.18368576 0.16836031 0.19214709
0000f0 42 46 6c 3d 34 c7 20 3e 9d cf 3f 3e b5 2d 0b 3e
       0.05768419 0.1570099 0.18731542 0.13591655
000100 90 cb c1 bd 50 7b 46 3e 92 46 1f bd 3d a8 60 bd
       -0.094626546 0.19382977 -0.03888566 -0.054847945
000110 c8 e1 23 bc 8f e7 3e 3e 33 93 33 3e ac a7 e5 bd
       -0.010002561 0.1864302 0.17536621 -0.112136215
000120 0c 25 17 3d e9 be 39 3e 44 17 3a 3e bc e7 a4 3c
       0.036900565 0.18139233 0.18172938 0.02013003
000130 16 88 38 3e f6 1d 1a 3e ab f4 85 ba 35 a7 91 bd
       0.18020663 0.15050492 -0.0010220011 -0.0711197
000140 d3 20 18 3e 38 61 1e 3e 13 c1 4d 3e 1f f7 46 bd
       0.14856271 0.15466774 0.20093183 -0.048575517
000150 08 07 1b 3e 29 99 4f 3e 8d a0 2a 3e 93 54 d4 bd
       0.15139401 0.2027327 0.16662808 -0.10367694
000160 ef 3c 9b 3d 19 47 23 3e 23 b3 14 3d 85 3d 38 3e
       0.075799815 0.1594509 0.03630365 0.17992218
000170 41 51 1e 3e db 6d aa bd 14 07 38 3e f8 d0 32 3e
       0.15460683 -0.083217345 0.1797145 0.17462528
000180 71 d4 de 3d cc 97 30 3e b2 00 71 bd 15 02 ee 3d
       0.10880364 0.17245406 -0.058838554 0.11621491
000190 cc 96 39 3e 3c 83 0f 3e 3b 31 52 3e 9c 3b 27 3e
       0.1812393 0.14014906 0.20526592 0.16331333
0001a0 2c 0c 26 3e d5 0a 00 3e 37 15 28 3e c1 c4 15 3e
       0.1621558 0.12504132 0.16414343 0.14625837
0001b0 ca cc 76 bd a8 bd 23 3e 40 4a 2c 3e 77 b8 99 bb
       -0.060253896 0.15990317 0.16825199 -0.0046911794
0001c0 51 01 26 3e cf e0 32 bd fa 4c 4e 3e 6c 4b 87 bd
       0.1621144 -0.043671425 0.20146552 -0.066061825
0001d0 c4 77 30 3e 24 fc 51 3e 18 10 02 bc e0 fc 2c 3e
       0.17233187 0.2050634 -0.007938407 0.16893339
0001e0 3e 5b 44 3e af 61 9a 3d 04 5b 09 bd eb 10 2a 3e
       0.19175431 0.07538163 -0.033534065 0.16608016
0001f0 25 a7 4b 3e 03 12 29 3e 5b d3 33 3e af 3f 56 bd
       0.1988798 0.16510777 0.17561094 -0.052306827

hidden_nets.2.weight f4 [64, 128]
000000 38 ce e1 3c fd 77 2c 3e 77 3d 59 be 8d 12 17 be
       0.027564153 0.16842647 -0.21214853 -0.1475317
000010 8f 38 76 3d 38 b3 5e be 89 ae ff bd 92 8d 63 3e
       0.060112532 -0.21748054 -0.12484462 0.22221974
000020 5c e3 f5 bd fc 1b 02 be 00 46 bd bb 79 af 23 3d
       -0.12006256 -0.12705988 -0.005776167 0.039962266
000030 53 a9 c1 bd 28 12 f4 bc b3 cf d1 bc b9 df 4d 3d
       -0.09456124 -0.029793814 -0.025611734 0.050262187
000040 ab 31 60 be 6d fd 2d bd 06 2b 1e bd 0b d2 6c 3d
       -0.21893947 -0.042478014 -0.03861525 0.0578175
000050 de 32 a6 3c 0d 05 b8 3d 32 ba 86 3a 82 9d 8f bd
       0.020287927 0.08985338 0.0010278879 -0.07012464
000060 a7 2d c8 bd 2a ab 71 3e be ae 19 3e 58 71 17 be
       -0.097743325 0.2360045 0.15008065 -0.14789331
000070 d2 2f bc bc 39 f3 78 3e d6 d1 c4 bd 18 90 8d bd
       -0.022972021 0.24311532 -0.096103355 -0.06912249
000080 ff 34 c6 bc 42 dd 09 3e 14 98 07 bc 15 85 ed 3d
       -0.024195192 0.1346331 -0.008276004 0.11597649
000090 56 90 73 bb ab e4 24 3d b4 67 c1 bd 45 a0 ac be
       -0.0037164888 0.040257137 -0.09443608 -0.33716026
0000a0 7a 6a 92 3b 31 9f a8 3d 37 73 46 3c 3f ac 0d be
       0.0044682594 0.08233488 0.01211243 -0.13835238
0000b0 06 e2 fb 3d c1 d0 75 3d 6f c7 58 3d 3a f8 3b be
       0.1229897 0.060013536 0.05292457 -0.1835641
0000c0 1e 0a c7 bd d9 fe c0 3d 3e 7e 01 be 18 1b db 3c
       -0.097187266 0.09423608 -0.12645814 0.026746318
0000d0 d6 6d 49 3e 89 5c b1 3d 38 3c 89 bc 3a a6 05 be
       0.19670805 0.08660228 -0.016752347 -0.13051692
0000e0 6b 74 be 3d 5a 8d 16 be 8a c9 01 bd 93 a0 0f be
       0.09299549 -0.14702359 -0.031686343 -0.14026098
0000f0 29 92 bd 3d c0 f0 64 be 1a df 83 3c 67 05 df 3d
       0.092563935 -0.22357464 0.016097594 0.10889702
000100 2b bc cf bc fe fb e0 3d 74 db f9 bd 66 af f2 3c
       -0.02535828 0.10985564 -0.122000605 0.029624652
000110 cb eb 5d bd bb 53 af 3d 80 70 20 be d1 f9 a0 bd
       -0.054179948 0.08560892 -0.15667915 -0.07860149
000120 b0 5f 20 be 34 71 0f 3e 76 e5 06 be aa 86 ec 3d
       -0.15661502 0.14008027 -0.1317347 0.11549123
000130 e7 4a 45 ba c1 8c d9 3c c9 cd 8e 3d 12 b6 d0 3d
       -0.0007526115 0.026556375 0.06972844 0.10190977
000140 ac eb 78 bd 0b 4f cb bd 7f e7 35 3d 31 8d 0d be
       -0.06077163 -0.099271856 0.044410225 -0.13823391
000150 2d e8 8a be b1 91 c4 bd 8c 40 56 be c0 0a db 3d
       -0.2713026 -0.09598101 -0.2092306 0.1069541
000160 cc 92 47 3e ec 10 4a be ef 23 5b 3e f4 97 37 be
       0.19489592 -0.19733018 0.21400426 -0.1792906
000170 33 bc 18 be 97 09 94 bd 24 10 2d 3c 4a 54 50 bd
       -0.14915542 -0.072283916 0.01056293 -0.050861634
000180 c5 a2 b8 3d 45 42 1f be f4 63 4a bb 0f 3b d2 bd
       0.09015421 -0.15552624 -0.003088233 -0.10265171
000190 9a a1 7b bb a4 7a 35 be 9b ca 25 bd cc 72 1f bb
       -0.0038395883 -0.17722565 -0.040476423 -0.00243299
0001a0 51 12 63 3d 18 18 3f be cb 3d 98 bd 44 61 4a 3c
       0.05543739 -0.18661535 -0.07433661 0.0123522915
0001b0 56 f1 e9 3d fd b7 8e bd 70 3f 85 be 8a e1 1e 3d
       0.11422984 -0.06968687 -0.2602496 0.03878931
0001c0 cc da b6 3d 46 5f 2c 3e f4 52 39 be 8f 1c a1 3d
       0.08928451 0.16833219 -0.1809805 0.07866775
0001d0 1a dd 37 be ce f8 0c 3c 84 7c 2d be 5f 40 a2 bc
       -0.17955437 0.008604242 -0.1694203 -0.019806085
0001e0 49 95 35 be 62 41 0b 3d 14 bd c6 3d 28 a4 c1 3d
       -0.17732729 0.0339979 0.097040325 0.094551384
0001f0 24 f3 00 3e 8e e0 54 be 1b 72 04 be 96 11 9e 3d
       0.12592751 -0.20788786 -0.12934153 0.07718198
000200 16 2a fe bd 6c df 06 3e bc f1 08 bd c1 25 95 bd
       -0.12410371 0.13171166 -0.03343366 -0.072825916
000210 eb 4e 1c 3e 57 75 81 bd 55 cc af 3d f6 e2 c1 bd
       0.1526448 -0.06321209 0.08583895 -0.094671175
000220 22 c3 94 3d 2c d1 02 be c6 5c 0e bd b0 70 ae bd
       0.07263781 -0.12775105 -0.034756444 -0.08517587
000230 d7 4a c2 bc c8 42 ef bd 1a a1 03 be 3a 02 9d 3c
       -0.023717327 -0.116826594 -0.12854424 0.0191661
000240 ed ef 6e be 53 99 79 bd 05 3e 34 3e 8e 80 35 3c
       -0.23333712 -0.060937237 0.17601784 0.011078013
000250 89 c1 ae bd d5 ad c2 bb 5f 99 1c be ca a6 3e be
       -0.08533008 -0.0059411325 -0.15292881 -0.18618312
000260 78 cf 10 bd b0 7a 53 3e e3 48 58 bd 8d e4 b3 be
       -0.035354108 0.2065227 -0.052803885 -0.35135308
000270 f2 ee 14 3e e3 a3 be 3d df eb e2 3d ae b7 d6 3d
       0.14544275 0.09308603 0.11080145 0.10484253
000280 27 35 3b 3e 52 8f 75 3d 51 6d 1d bd 85 53 cd 3d
       0.18281995 0.059951134 -0.03843433 0.10025696
000290 22 8e 77 3d 41 64 ca bd fb 88 3e bd 46 fb eb bd
       0.060438283 -0.09882403 -0.046517354 -0.11522536
0002a0 8f 91 99 bd 9d 7a 51 bd 9b cc 97 bc e2 bb 1c be
       -0.07498466 -0.051142324 -0.01853018 -0.15306047
0002b0 b8 df ff bc 94 5e cf 3c 10 a3 bd 3d df b0 25 be
       -0.031234607 0.025313653 0.09259617 -0.16180752
0002c0 6c 45 9d bc a0 55 3d 3d dd 18 c7 3d a0 24 ae bd
       -0.019198142 0.046224236 0.09721539 -0.085030794
0002d0 56 f8 4b 3b d6 8e 19 be cf 9c cf 3d ed e7 3e be
       0.0031123362 -0.14995894 0.10137331 -0.1864316
0002e0 d4 6d a3 3b fb df 8d 3d 5c 75 18 be 99 c5 67 3d
       0.0049874578 0.069274865 -0.14888519 0.05658493
0002f0 97 6a 1c bc 95 e0 e3 bc 73 79 da bd 1a a2 7c 3c
       -0.009546897 -0.02781705 -0.10667696 0.015419507
000300 2e aa c6 3d 8a a4 1f bd 89 8f 30 bc 65 b4 41 bd
       0.09700428 -0.038975276 -0.010776409 -0.04729118
000310 ca 8f 37 3e a9 db 71 bd ff 80 8b bc ff 06 06 bc
       0.17925945 -0.059047375 -0.017029284 -0.008180379
000320 e6 7c 53 bc 7d 0e 21 bb 10 5b e3 3b fc 73 ca bd
       -0.012908196 -0.0024575286 0.0069383457 -0.098854035
000330 4e a5 04 3e a2 08 d3 bc 45 cd 8e bc 16 cf 0e 3e
       0.12953684 -0.025760952 -0.017431865 0.13946185
000340 71 50 4f ba 81 71 0e 3e 47 61 06 be f4 2b ca bc
       -0.000790841 0.13910486 -0.13123046 -0.024679162
000350 f3 40 36 3d fc 44 8b bd b5 21 8b bd 13 0e 4a bb
       0.044495534 -0.06800267 -0.067935385 -0.0030831143
000360 93 de 3c 3e 99 5c d8 3c a6 21 8a bc d4 35 37 3c
       0.1844428 0.026411342 -0.016861748 0.011182267
000370 b7 37 8a 3b a9 f3 55 3e bf 9a 83 bd 2f f6 dc bd
       0.0042180675 0.2089373 -0.06426 -0.10789143
000380 16 1c 2d 3c c9 91 5b bd 77 aa 06 be 8c 0a 56 bd
       0.010565778 -0.05360583 -0.13150965 -0.052256152
000390 ef a9 67 bc d1 6c 38 bd dc 56 8b 3d 01 40 7b bd
       -0.014139636 -0.04502565 0.068036765 -0.061340336
0003a0 df ba c7 bd df b6 f4 bd 51 e0 00 3e 46 8d 49 be
       -0.0975244 -0.119489424 0.1258557 -0.19682798
0003b0 6f 4a a5 bd 49 56 b1 bc f6 3b 45 bd 21 9d 64 bd
       -0.08070838 -0.02164759 -0.048152886 -0.055813912
0003c0 09 85 04 bd 4d 83 02 3c a6 41 68 bc 3d 12 56 3d
       -0.032353435 0.007965875 -0.014175808 0.052263487
0003d0 99 ab a3 bd 19 3e 2e be 3d 36 0d 3e a3 2f f7 bb
       -0.07991714 -0.17015876 0.13790222 -0.0075435205
0003e0 84 64 45 be 08 52 40 3e b4 ef 35 bd c7 64 41 bd
       -0.19276625 0.18781292 -0.04441805 -0.04721525
0003f0 07 4f f4 bc 6d 4c 25 be 54 ae 37 be e8 be 9a bd
       -0.02982284 -0.16142435 -0.17937595 -0.07555944

hidden_nets.2.bias f4 [64]
000000 ac e6 81 bc 28 9b 0d bc 2a 2f 33 3f 27 e4 21 3f
       -0.015857063 -0.008642949 0.6999384 0.6323876
000010 56 70 2d 3f ed f0 2a 3f 56 ba fc bb 22 d4 20 3f
       0.67749536 0.66773874 -0.0077126427 0.6282369
000020 86 57 79 bd 47 c8 11 3f 01 2a cb bb d6 9d 27 3f
       -0.060874484 0.56946224 -0.0062000756 0.65475214
000030 47 69 ec 3c 2f ce 8f bb a3 5c 20 3e c8 fd 27 3f
       0.028858794 -0.0043885927 0.15660338 0.65621614
000040 55 7b 0f 3f 6c f0 79 bd 2f 1e 0f 3f 59 ba b6 3e
       0.56047565 -0.0610203 0.5590543 0.35689047
000050 6f ef 1b bd 7e bb 80 bc 6a 83 25 3f 0a 5d 9a 3a
       -0.03807014 -0.015714403 0.64653647 0.0011776995
000060 91 19 43 3b b4 13 24 3f e6 4a 2c 3f 4d 3f 33 3f
       0.0029769877 0.64092565 0.67301786 0.70018464
000070 8c 5d 2d 3f 23 c3 22 bd 11 15 20 3f 0f c4 26 3f
       0.67720866 -0.039736878 0.62532145 0.6514291
000080 2c 92 2a 3f ed 8d 45 bd 48 83 0e 3f dd 57 1b 3f
       0.6662929 -0.048231054 0.5566907 0.60680944
000090 74 e8 36 3f 88 9a 26 3f 59 57 af bc d6 5a 22 3f
       0.71448445 0.65079546 -0.021403955 0.63419855
0000a0 ee f9 95 3e 59 15 25 3f 2d 41 98 bc 7e 06 29 3f
       0.29292244 0.644857 -0.018585766 0.6602553
0000b0 af 05 34 3f c7 a0 05 bd 21 31 8d bb 8a 32 26 3f
       0.7032117 -0.032624032 -0.004308835 0.64920866
0000c0 80 fd 08 3f 88 8e 25 3f 36 0a 27 3f 76 0c 2e 3f
       0.5351181 0.6467061 0.65249956 0.67987764
0000d0 d8 df b7 bc a5 4a 8a bc 16 fc 2d 3f 41 67 2b 3f
       -0.022445604 -0.016881296 0.6796278 0.6695443
0000e0 11 4b 29 3f 0e 19 10 bd eb e6 13 3f 3d 28 55 bd
       0.6613017 -0.035180144 0.5777423 -0.052040327
0000f0 fb a3 48 bd 5b 6f 14 bd b8 80 dd bc 0b b1 c3 bb
       -0.04898451 -0.03623901 -0.027038917 -0.005972033

value_stream.weight f4 [1, 64]
000000 94 25 75 be fd bc 56 be e2 21 aa 3e 3a 00 de 3e
       -0.23940116 -0.20970531 0.33228976 0.43359548
000010 cc 6c bb 3e ef d8 f2 3e fa 5b 53 be 17 de f2 3e
       0.36606443 0.47431132 -0.20640555 0.47435066
000020 a3 b6 b7 bd 2c 50 03 3f 69 b8 5a be 9e 63 0e 3f
       -0.08970382 0.5129421 -0.2135941 0.55620754
000030 f7 23 24 be 1c a6 91 be 76 2f 81 3e 57 70 ef 3e
       -0.16029344 -0.28447044 0.25231522 0.46765396
000040 ce 1f cb 3e ab 23 7c bd 2a 1a cc 3e d4 1f b7 3e
       0.39672703 -0.061557453 0.39863712 0.3576647
000050 15 4f 29 be 2d b1 4e be c3 46 0c 3f 16 26 41 be
       -0.16534074 -0.20184775 0.54795474 -0.18862185
000060 12 b1 f6 bd 0c 0d 03 3f dd 90 00 3f a9 24 f2 3e
       -0.12045492 0.5119178 0.50221044 0.47293594
000070 46 10 db 3e 1b 6e 63 be 59 45 c5 3e d0 ef ea 3e
       0.42785853 -0.2220997 0.3852947 0.45886087
000080 ec 44 c8 3e 16 58 0c be 7a d8 04 3f e8 99 f1 3e
       0.39115083 -0.13705477 0.5189282 0.47187734
000090 2a 74 a6 3e 6b da f3 3e 0d c8 65 be 64 14 04 3f
       0.325105 0.47627577 -0.22439595 0.51593614
0000a0 bb 61 ba 3e c6 b4 03 3f cd 0d 59 be 0e c9 06 3f
       0.36402687 0.51447713 -0.21196671 0.52650535
0000b0 0f a0 e6 3e a0 19 9e be 26 29 b2 be d0 3b f6 3e
       0.4504399 -0.30878925 -0.3479702 0.48092508
0000c0 e7 3b e9 3e 64 f2 e0 3e dc 35 cf 3e 42 7a d7 3e
       0.45553514 0.4393493 0.4047078 0.42085463
0000d0 6e 8a d9 3d 80 50 7f be 72 a2 bb 3e cc 81 d1 3e
       0.106221065 -0.24933052 0.36647373 0.4091934
0000e0 ae 50 d0 3e b2 ef 83 be 3f cf c5 3e 7a ee 21 be
       0.40686554 -0.2576881 0.3863468 -0.15813628
0000f0 ac f8 2b be bc 0e 80 3d 82 60 83 bd d9 01 2e be
       -0.1679408 0.0625281 -0.06414892 -0.16992892

advantage_stream.weight f4 [5, 64]
000000 4d 04 df bd 92 4c af bd bf 75 87 3d 39 7c ec bd
       -0.10889492 -0.085595265 0.06614255 -0.11547131
000010 f8 55 99 3d 47 4b d6 bc 71 a1 9a be 2c 85 42 bc
       0.074871 -0.026158942 -0.30201295 -0.011872571
000020 1f 1c 17 3e ef c5 b8 3d 17 be 43 be 20 9a f0 3d
       0.14756821 0.09022128 -0.19115482 0.11748147
000030 0e bb 76 be 8b e9 a6 3c d9 5b 9a bd de c8 12 bd
       -0.24094793 0.020375034 -0.0753705 -0.035836093
000040 f5 cc 21 3e 66 6e a1 3c 22 ca c2 3d 86 3a cc bd
       0.15800841 0.019705962 0.0951121 -0.099721
000050 8a 16 b8 3d cb 32 22 3e 6e b3 89 bd a8 56 2c be
       0.08988674 0.15839688 -0.067236766 -0.16829932
000060 1c fc 04 3e 33 0a 4b 3d 83 0c b4 3d ac 5f e8 bc
       0.12986797 0.049570274 0.08791449 -0.028365932
000070 cd 0c 61 3b 09 85 5e bd 15 c1 bd bd 82 7b 32 3d
       0.0034339905 -0.05432609 -0.09265343 0.043574817
000080 97 93 f4 bc a1 d1 2c 3e 6f db f1 3c 83 ce 8b 3d
       -0.029855533 0.16876842 0.02952358 0.06826498
000090 64 86 6f 3d 8b 87 00 3e 18 61 22 be e4 06 94 3d
       0.058477774 0.12551706 -0.15857351 0.07227877
0000a0 d8 77 e8 bc 07 b5 2b 3e 9e 0a af bd 29 f1 0e 3e
       -0.028377458 0.16768275 -0.08546947 0.13959183
0000b0 16 82 b4 3d 43 d1 3d 3e c2 1d a1 3d fe 1e c3 3d
       0.088138744 0.18536858 0.07867004 0.09527396
0000c0 13 ec ae 3c b6 98 d9 bc d6 aa 89 3d d9 4c 50 bd
       0.021352803 -0.026562076 0.067220375 -0.050854538
0000d0 68 37 9b bd 37 f3 84 3d ed d0 11 bd de 0b bf b9
       -0.07578927 0.06491702 -0.035599638 -0.000364392
0000e0 f7 d3 e5 3b 7c c1 99 3d d9 c5 f2 bc 5f 19 a5 3c
       0.0070137936 0.07507607 -0.029635357 0.0201537
0000f0 51 2d 4a bb 20 64 7f be a9 aa 5a b9 6f 86 09 3e
       -0.0030849765 -0.24940538 -0.00020853676 0.13430189
000100 80 68 3d be 0e a5 b4 3d 8e 1b 50 3d 2c f4 e4 bd
       -0.18496895 0.08820544 0.05080753 -0.111793846
000110 5c fa 47 3d c0 ab 47 bc 93 99 78 be d6 ad 14 bd
       0.048822746 -0.0121869445 -0.24277334 -0.036298595
000120 bf c2 98 3e 15 80 05 3e 5f a1 36 3e 0e 1d 9b 3c
       0.2983608 0.1303714 0.17834996 0.018934753
000130 48 36 7d 3d 3c 03 23 3e 25 99 7b be cf 41 c9 bc
       0.061819345 0.15919203 -0.24570139 -0.024567513
000140 78 de 1c 3e e4 9d 8c bc 60 a9 e8 3d 0a 8d 17 3c
       0.1531924 -0.017165132 0.11360431 0.009249935
000150 d9 4f 62 3d e4 5f 19 bd 9e 55 d9 bd c2 5a 99 bd
       0.05525193 -0.037444964 -0.10612033 -0.07488014
000160 7a 5e 66 3e dc 6b 93 3c 8a 53 97 3d 4b ab 2b bd
       0.22496977 0.017995767 0.07388981 -0.041911405
000170 3b a7 41 bd d3 b0 33 3d 78 fb 0d be 37 00 a6 3d
       -0.047278624 0.043869805 -0.13865459 0.0810551
000180 89 b2 32 bd fa 62 a9 3d 2d 7e 16 3d 28 2f 0a 3e
       -0.043627296 0.082708314 0.036741424 0.13494551
000190 c3 03 d0 3d 12 50 c4 3d bb fd 5b bd 79 8f e3 3d
       0.101569675 0.09585585 -0.053708773 0.111113496
0001a0 df e2 a8 3c 7c 31 15 3e 6b 63 cb 3d 8b 60 60 3d
       0.020615993 0.14569658 0.09931072 0.05477957
0001b0 44 13 b9 3d 5b ef 06 be 40 f5 45 be 66 61 da 3d
       0.09036878 -0.13177244 -0.19331837 0.106631085
0001c0 04 07 2e bd c7 10 59 ba 87 da a6 3d 24 8a 8f bc
       -0.04248716 -0.0008280393 0.081471495 -0.017521925
0001d0 c9 f8 20 3c d8 87 c0 bd 41 e9 34 bd e6 b0 e5 3c
       0.00982494 -0.0940091 -0.04416776 0.028038453
0001e0 15 8d 28 bd 18 2a b7 3d ab d4 1f bc 4b 44 10 3d
       -0.04115017 0.089435756 -0.009755294 0.03522138
0001f0 a4 da d7 bd de a8 4a be 5b 15 63 3d e7 60 0e be
       -0.10539749 -0.1979098 0.055440288 -0.13904153
000200 c2 1c e3 3b 2e f7 f9 bd 18 4c 92 3d 27 c0 33 bd
       0.0069309184 -0.12205349 0.0714342 -0.043884423
000210 81 af 55 3d 31 1b a1 bd 28 1f 12 bd f9 f0 33 3d
       0.052169327 -0.078665145 -0.035674244 0.04393098
000220 2b 8d 71 bd 50 04 04 3e ae 9a da 3c 7a cc a2 3d
       -0.05897252 0.1289227 0.026685085 0.07949157
000230 d1 5e 99 bd 4d ff 01 bd 50 67 21 3e 03 45 21 bd
       -0.07488788 -0.031737614 0.15762067 -0.039372455
000240 11 6e a8 3d 9f 7a 9e bd 32 44 88 3d 1d f3 96 3d
       0.082241185 -0.07738232 0.06653632 0.07370589
000250 06 ed 62 be 25 ea 03 be cd e3 4e bd 95 1d 04 3e
       -0.2216073 -0.12882288 -0.050510217 0.1290191
000260 db 09 90 bc 34 5c bb bc e5 b6 70 3d 20 ea 44 bd
       -0.017582824 -0.022871114 0.05876817 -0.04807484
000270 78 53 32 bd cf 49 61 be df 24 00 be 82 56 93 3c
       -0.043536633 -0.22000812 -0.12514065 0.017985586
000280 e7 26 85 3c c0 07 1c 3e 1a 16 90 bd 4c 6d fa 3d
       0.016253902 0.15237331 -0.070354655 0.12227878
000290 6e 26 94 3d fb 76 27 3d d4 48 c6 3d e7 d7 d5 3d
       0.072338924 0.040884953 0.096818596 0.10441571
0002a0 e9 35 d5 bd de 3b f9 3d b8 28 74 3b 8b c1 3d 3e
       -0.10410673 0.12169622 0.0037255716 0.18530862
0002b0 92 72 e2 3d a9 e9 53 3d 43 01 4f bc f7 b7 aa 3d
       0.11057009 0.051736508 -0.012634578 0.0833587
0002c0 53 53 bc 3c 7c 13 21 bd a1 b7 5c 3c bc f6 11 bd
       0.02298895 -0.039325222 0.013471515 -0.035635695
0002d0 65 e2 73 be 3f 39 3a 3e cd fc ee bc 73 ba a6 3b
       -0.23816831 0.181859 -0.02917328 0.0050881444
0002e0 46 2b 28 bd cd de cb 3d 5d ce 81 bd 50 b2 c1 bd
       -0.041056894 0.09954605 -0.06338189 -0.094578385
0002f0 d2 bf 47 3e 8e 2e 3d 3e 06 81 80 3c e9 2a fa bd
       0.19506767 0.1847479 0.015686523 -0.12215216
000300 5a 0b 56 3e ec f5 ce 3c 98 fa 5b 3d b4 8d b6 bd
       0.20902768 0.025263749 0.05370578 -0.089137465
000310 f6 a7 95 3d 7e 4a 8b bd bb 43 6e be 1a c4 fe bc
       0.07307427 -0.06801318 -0.23268025 -0.031099368
000320 d2 95 eb bd 53 a5 f0 3c ad cc e9 bc 8a 48 1a 3d
       -0.11503185 0.029375708 -0.02853998 0.037666835
000330 c5 ae a3 3e c4 ae 81 3e 5b b1 c9 3e e2 d8 87 bd
       0.31969276 0.25328648 0.39393124 -0.06633164
000340 a7 29 e5 3d f6 dc 77 be 71 02 c6 3d f7 a2 fb 3c
       0.11189585 -0.24205384 0.096684344 0.030717356
000350 91 85 3b be 2d ba c4 bd be bc ee bd 23 77 a0 3d
       -0.1831267 -0.09605823 -0.116570935 0.078352235
000360 8b 89 86 3e 0f 90 b1 3c 4e fa 8f 3d 78 eb 01 bc
       0.26276812 0.021675138 0.07030164 -0.007929675
000370 80 a9 b3 bb 06 6a 2e 3e 0f 1e 03 be 73 ef 87 bc
       -0.0054828525 0.17032632 -0.12804435 -0.01659367
000380 a5 68 6c bd ae fa 8e bd e9 28 80 bd 8a fd dc 3d
       -0.057716984 -0.06981407 -0.06257803 0.10790546
000390 6b 01 76 3d 52 33 ef 3d 66 76 15 be 8e 65 3f 3d
       0.060059946 0.116797104 -0.14595947 0.04672771
0003a0 4c 0a 59 3e 92 4e 1e 3e 1b f9 5f be 9d fe fa 3d
       0.21195334 0.1545966 -0.2187237 0.12255595
0003b0 19 02 8f 3d 93 9f 4c be b3 f6 39 be 0d b1 4a 3d
       0.06982822 -0.19982748 -0.18160515 0.049485255
0003c0 3b c0 0c bc c2 cd 3b bc 39 4b 10 3d fe 9f 96 bd
       -0.008590753 -0.011462631 0.035227988 -0.07354735
0003d0 73 47 f4 3d b0 0e 02 be 57 30 93 bd 5b 70 c3 bc
       0.1192769 -0.12700915 -0.071869545 -0.023857286
0003e0 ba 2e 22 bd 5a e8 28 3d 3b a7 19 3c ef 2c 82 3e
       -0.039595343 0.041237213 0.00937825 0.25424907
0003f0 fb 13 f4 3d d5 0f 2d be 20 45 a3 3e 8a a9 56 3e
       0.119178735 -0.1690057 0.31888676 0.20963112

advantage_stream.bias f4 [5]
000000 07 26 ac bd 7d 02 d3 3c d1 e6 81 3c 1b 4c d9 3d
       -0.08405691 0.025758022 0.015857132 0.10610219
000010 c3 03 11 be
       -0.14161591

hidden_nets.0.weight f4 [128, 11]
000000 e2 8e ff 3d 5b 43 d9 ba a7 ad 38 be 13 37 c5 bd
       0.124784246 -0.001657586 -0.18034993 -0.09629645
000010 69 43 e3 3c 41 c3 9f 3d 8f 43 cd 3c 6f 13 ab bd
       0.027742105 0.078009136 0.025056629 -0.08353316
000020 ea 00 e9 3d 5c e8 ce bd 54 89 ae ba b5 f3 6c 3e
       0.113771275 -0.10102913 -0.0013316073 0.23139842
000030 76 47 ed 3d 17 f0 33 bd be 82 4e bd 43 18 53 3d
       0.11585896 -0.04393014 -0.050417654 0.05153681
000040 b0 8a 3a bc 9d 44 2a be 26 5e 79 be 67 1c 34 be
       -0.011385605 -0.16627736 -0.24352321 -0.1758896
000050 45 b4 8b bd e1 ac bb bd 83 e4 bc bd 08 f6 2e be
       -0.06821493 -0.091638334 -0.09223273 -0.17086041
000060 f0 06 ab bd 62 48 c1 bc d0 26 5c 3e 1c e4 82 bd
       -0.083509326 -0.023594085 0.21499181 -0.06391165
000070 e0 ed ba 3d 94 a2 83 3d c3 b1 08 be 89 63 aa ba
       0.09127402 0.06427494 -0.1334906 -0.0012999634
000080 09 5b 3d 3c 0d 68 95 bd e8 15 d5 bd a5 89 12 bd
       0.011557349 -0.07295237 -0.10404569 -0.0357758
000090 8a 08 2f be 5c b2 40 3e 9a c3 40 be 59 5d 12 3e
       -0.17093101 0.18818039 -0.18824616 0.14293422
0000a0 bd e7 8c bd 11 8d 8e 3d d0 5c e8 3d 3c 6f a6 3d
       -0.06880138 0.069605 0.113458276 0.08126685
0000b0 03 f4 fb 3d 68 a1 ab 3d 22 e1 3e be 04 68 04 bc
       0.12302401 0.08380395 -0.18640569 -0.00808144
0000c0 6e 10 80 be de 1a 29 be 0b 3d 68 39 18 26 eb bc
       -0.25012535 -0.16514155 0.00022147984 -0.028704688
0000d0 07 94 ea 3b e6 34 07 3d fe 31 00 be 8a fa 9d 3d
       0.0071587595 0.033009432 -0.1251907 0.07713802
0000e0 fa 9e 4b be 94 d7 3f be 3d 9c bc be eb 33 ca 3d
       -0.19884863 -0.1873458 -0.3683795 0.09873184
0000f0 c2 4e 2a be b2 a4 c8 bd 26 10 b7 bd a6 1e dc 3d
       -0.16631606 -0.09797038 -0.08938627 0.10748033
000100 74 6b d4 3c 3f a6 d2 3d d7 23 05 be 63 06 10 3d
       0.025930144 0.10285615 -0.13001953 0.03516234
000110 ee e6 68 be 32 0f b9 bc 6d a5 67 bc de ce 74 3c
       -0.22744343 -0.022590254 -0.014138562 0.014941899
000120 9d 1b f8 bd e7 2c c4 bc 03 a5 0d be b3 1e 31 be
       -0.12114642 -0.023947192 -0.13832478 -0.17296867
000130 81 dc 23 be 06 01 e0 bd 73 30 47 bd 57 36 2f bd
       -0.16002084 -0.10937695 -0.04863019 -0.042776432
000140 1d 9b 0d be a6 5a d5 bd 63 c4 dc 3d 63 bb ec 3d
       -0.13828702 -0.104176804 0.10779645 0.11559179
000150 dc 5a 32 bd 4d f7 09 3e 11 09 70 be de 00 5d 3d
       -0.04354368 0.13473244 -0.23440959 0.053955905
000160 16 a1 1d be a6 b8 2a 3c f2 7a 9d bd 73 4c a7 3d
       -0.1539348 0.01042 -0.076894656 0.081688784
000170 29 2f 23 bd 90 df ae be 91 47 25 be cd c8 a9 bd
       -0.039839897 -0.3415494 -0.16140582 -0.08290253
000180 87 25 f4 bd 93 5d 13 be f1 5b 12 3d da 0a 23 be
       -0.1192122 -0.14391164 0.035732213 -0.15922108
000190 f2 80 9b be 7f 79 ce 3d 4d ed be 3c f9 ae 5c 3e
       -0.30371815 0.10081767 0.023306513 0.21551122
0001a0 fa a5 27 3c 4a 6d 25 bc 02 cd f7 bb d4 d4 1e 3d
       0.010232443 -0.010096857 -0.0075622806 0.038777187
0001b0 1d 39 db bd 2f 4a 44 3c d7 ac cd bd df f6 07 3e
       -0.10704253 0.011980577 -0.10042732 0.13277768
0001c0 b5 b0 19 be 24 ee 7f 3d 3c 4f 7d be db fd 6f 3d
       -0.15008815 0.062482968 -0.24737257 0.058591705
0001d0 54 91 9c bd 0f 70 98 3d 52 a2 12 be 5c d4 8e 3d
       -0.07644907 0.074432485 -0.14319733 0.06974098
0001e0 db 89 f2 3d 42 6a 22 be 9e 72 42 be f9 20 3e 3e
       0.118427 -0.15860847 -0.18989035 0.18567266
0001f0 0e 90 1d be 39 ad a8 3b 6a d8 0d be b9 14 c9 bd
       -0.15386984 0.005147603 -0.13852087 -0.09818406
000200 18 3c 77 be bf 14 81 3d 2c 14 66 3d 07 3e df bd
       -0.24144018 0.06302785 0.05617158 -0.10900503
000210 87 ac a5 be 51 fc 8d bd 21 ed 85 3d fb 57 58 be
       -0.3235819 -0.06932891 0.065393694 -0.21127312
000220 6f 0d 92 3b 2d c8 31 3d 80 cd db 3d 0a c4 3e bb
       0.004457168 0.043403793 0.107325554 -0.0029108548
000230 eb bf a1 3d 52 3e a2 3d a9 2e 14 bd 50 20 d9 bd
       0.078979336 0.07922043 -0.03617731 -0.10601866
000240 70 ee 39 be 8b 5b 3c 3e fd 24 df 3d 1c b3 4a 3e
       -0.18157363 0.18394296 0.10895727 0.19794887
000250 8e b4 51 bb 3a 03 76 bd 54 30 6c be af 59 17 3e
       -0.0031998488 -0.06006167 -0.2306531 0.14780305
000260 40 7c b6 bc d5 ab d2 3d da 28 06 3e 6b ec 20 be
       -0.022276044 0.102866806 0.13101521 -0.15715186
000270 57 f5 00 be a7 09 8a bd 4a 4d f4 3d 8c 2f 16 bd
       -0.1259359 -0.06740122 0.11928804 -0.036666438
000280 db 12 0c bc 6f a8 dc bd dc 68 04 be 51 c5 a9 3d
       -0.008549417 -0.10774314 -0.12930626 0.08289588
000290 f1 e9 81 bd ca dc 2c bd 72 ad 18 3d 12 97 31 be
       -0.06343449 -0.04220275 0.037274785 -0.17342785
0002a0 a1 7b aa bd 72 a9 2d be 95 92 c6 3d f8 6f 47 3d
       -0.083243616 -0.1695917 0.09695927 0.048690766
0002b0 48 e0 d6 bd 1b 6e fa 3d c3 d2 33 be 0e 09 d8 3d
       -0.10491997 0.12228032 -0.17560868 0.10548602
0002c0 d0 31 9b 3c 00 79 3a be 2b 34 15 ba 61 f7 a2 3d
       0.01894465 -0.1821022 -0.00056916726 0.0795734
0002d0 c8 f5 a0 be 43 27 36 3c 17 2c 29 3d 53 6e 8c 3d
       -0.31437516 0.011117759 0.041301813 0.0685698
0002e0 4a d2 cf 3b 1f fb 04 3e a9 0b f5 3d ac 33 a6 3d
       0.006342207 0.1298642 0.119651146 0.081153244
0002f0 55 59 73 bd 2d 24 67 be 66 b6 6c 3d a0 36 b3 bc
       -0.059411366 -0.22572394 0.057791136 -0.021876633
000300 f5 41 00 be cb 07 1f be 11 46 32 be 35 c0 f5 bd
       -0.1252516 -0.15530317 -0.1740954 -0.11999551
000310 5a 60 68 bd e6 46 ab bd 1a 0f 54 bd fa 2a 43 be
       -0.056732513 -0.08363132 -0.051772214 -0.19059363
000320 f6 32 16 3c bb dc 0f bd 07 9a 27 3e 96 2d a8 3b
       0.0091674235 -0.035122614 0.1636735 0.0051323874
000330 45 7b 8c 3c 0e d4 e8 bc d1 5e 0e 3e 30 3b 22 3d
       0.017148623 -0.028421428 0.13903357 0.039607227
000340 a1 89 c3 3c 58 33 3d 3e 08 c1 0b 3d b3 52 c3 bd
       0.023869338 0.18476617 0.034119636 -0.09537258
000350 d3 2a 07 bf 35 34 51 be 7b 7b c3 3d 6d 89 f7 bc
       -0.5279972 -0.20430072 0.095450364 -0.030216897
000360 bb be 12 be 93 3e 49 39 cf a8 f0 3d ed d1 14 be
       -0.1433057 0.00019192164 0.11750948 -0.14533205
000370 b7 42 ed 3d b5 2f 55 bd 29 11 22 3d 1d 6b f4 ba
       0.115849905 -0.05204745 0.039567146 -0.0018647645
000380 d1 f9 03 3e 86 f2 75 bd e7 f9 c2 ba 07 02 8f be
       0.12888266 -0.06004574 -0.0014875502 -0.27931234
000390 d2 17 c2 3d df d5 ff bb c5 63 30 bd f9 c5 a3 3d
       0.094771996 -0.007807478 -0.043063898 0.07996745
0003a0 86 ff 5c bd e0 3f 93 bd d1 98 ef bd fb e5 07 3e
       -0.053954624 -0.071899176 -0.11699069 0.13271324
0003b0 d9 d1 38 bc 1c 12 84 bc 2f 31 bc bd d8 2d 33 be
       -0.0112805 -0.016121916 -0.091890685 -0.17497957
0003c0 f9 84 60 3d ea c0 78 bc 55 8d 94 be 55 0b 4c 3d
       0.054814313 -0.015182713 -0.29014078 0.049815495
0003d0 fe 47 a0 bd b2 59 2b 3e de 37 88 3d 46 18 6f be
       -0.078262314 0.16733435 0.06651281 -0.23349103
0003e0 d8 a6 c5 bc a4 90 42 3d 33 72 19 be e8 2c d9 bc
       -0.024127409 0.04750122 -0.1498497 -0.02651067
0003f0 5c 29 dc 3c cb fe 1b be b6 22 92 bd e4 97 b7 3d
       0.02687519 -0.15233915 -0.07135527 0.08964518

hidden_nets.0.bias f4 [128]
000000 a7 3c 7d bd d6 6c 9f bd 96 02 00 be 48 81 c9 bd
       -0.06182542 -0.07784431 -0.12500986 -0.098391116
000010 00 b8 59 3d 2d f9 65 bd 46 f9 8f bc 2f 9a 25 bd
       0.05315399 -0.056145836 -0.017574918 -0.040430244
000020 a7 02 94 bc 17 42 45 be cf 86 42 ba a9 a1 4a bd
       -0.018067671 -0.19263493 -0.0007420601 -0.049470577
000030 ce 2c 0f be bc f2 8c bd f7 44 c7 bd ee d6 58 bc
       -0.13981935 -0.068822354 -0.09729951 -0.013234837
000040 45 bd bd bd b9 8f d7 bc 7c b9 14 be 36 6c b3 bc
       -0.09264616 -0.02631365 -0.14523882 -0.021902185
000050 61 06 b3 bd d2 b3 1f be d2 1f 00 be ad 4d 11 be
       -0.08741451 -0.1559594 -0.12512138 -0.14189787
000060 2c 9e 09 bd 58 12 dc 3b 54 41 cb bd 5d 63 ab bd
       -0.03359811 0.006716054 -0.0992457 -0.083685614
000070 fd c4 56 bd 16 93 d8 bc b8 a6 cf bd 52 73 83 bc
       -0.052433956 -0.026437324 -0.10139221 -0.0160462
000080 64 58 d2 bc eb 26 45 bd 19 20 1c be 6e c1 8f bd
       -0.025676914 -0.04813282 -0.1524662 -0.07019316
000090 90 18 86 bd 5d 7d 49 bd f3 4b f1 bc 60 34 2a be
       -0.06547654 -0.04919182 -0.02945516 -0.16621542
0000a0 f7 6b be bd fe b9 0c be 42 02 cd bd 38 9f eb bd
       -0.092979364 -0.13742825 -0.10010196 -0.11504978
0000b0 14 d1 36 3d 3b 69 00 bc 14 9e 2e be ec b9 f0 3c
       0.044632986 -0.007837589 -0.1705249 0.02938553
0000c0 b4 4c 4d 3d 88 bd f3 bd 02 ea df 3d 69 d9 1e be
       0.050121978 -0.119013846 0.10933305 -0.15512623
0000d0 81 34 dc bc a7 9a 94 bd 4b 6c 0d 3c 7b 40 9b bd
       -0.026880505 -0.0725606 0.008631776 -0.07580658
0000e0 93 72 0e be a2 e2 f8 bd f7 b0 8c 3a a9 5a 35 3d
       -0.13910894 -0.12152602 0.0010733892 0.044275913
0000f0 19 dc 49 bd d4 65 06 be b1 1e ca bd 9b d4 21 be
       -0.049282167 -0.13124782 -0.09869135 -0.15803759
000100 06 77 48 bc 0e 91 64 bd 68 04 28 3c 66 70 1a be
       -0.012235409 -0.055802397 0.010254957 -0.15081939
000110 d6 df a0 bc b7 7e 39 bd e6 61 bd ba 07 17 d8 3c
       -0.019637983 -0.04528686 -0.0014448732 0.026378168
000120 b2 10 1e 3c 67 03 01 be 8d 6e cf bd b6 a2 00 3c
       0.009647535 -0.12598954 -0.10128508 0.007851293
000130 59 6c 8c bc 93 45 8c bd 00 00 00 00 13 2e 0f be
       -0.017141508 -0.06849208 0.0 -0.1398242
000140 24 db fe bd 1d fa 00 bd c5 52 65 bb cf c4 e0 bd
       -0.124441415 -0.031488527 -0.0034991961 -0.10975038
000150 56 fc b0 bd 00 00 00 00 8d 74 74 bc 68 55 24 be
       -0.08641879 0.0 -0.014920366 -0.16048205
000160 07 d9 17 3d 45 1c b4 bd 95 ad 06 3d 10 52 d3 3d
       0.037072208 -0.087944545 0.032880384 0.103183866
000170 cb 20 c6 bd 3c 63 4e bd d4 af 48 3a 2a a5 00 be
       -0.096742235 -0.050387606 0.0007655595 -0.12563005
000180 a1 e1 af bc 09 da e6 bc c2 38 cb bd f4 99 4d 3a
       -0.021469893 -0.02818014 -0.09922935 0.000784307
000190 8e 60 11 bd ec ac 1a bd 0f 76 8a bc e1 56 df ba
       -0.035492472 -0.037762567 -0.016901998 -0.0017039442
0001a0 4f d1 63 3d 35 6c f7 3c 0b 67 d2 bd bc ec b8 3a
       0.055619534 0.030202964 -0.1027356 0.0014108638
0001b0 d1 58 0c be 91 67 70 bd f2 b9 96 bd 5c fc 34 be
       -0.13705756 -0.05869252 -0.07359685 -0.17674392
0001c0 a3 26 db bc 3c 4f 6b 3d a2 7b aa bc bf 6f ea bd
       -0.026751822 0.05744861 -0.020810906 -0.11447095
0001d0 ed 8a e7 bd c7 2a 9d bd 3e f5 49 3d 68 5f c6 bd
       -0.11305795 -0.07674175 0.049306147 -0.09686166
0001e0 97 1c 30 bd 59 26 f1 bd 1e 5c 0f bd 0d d9 7a bd
       -0.042996015 -0.11774892 -0.03499996 -0.061242152
0001f0 2d ad d8 bc c0 30 fe bc 92 37 e5 bc c4 8d 1b 3a
       -0.026449764 -0.031029105 -0.0279806 0.00059339055
