hyperopt_results/lr_experiments/lr_0.0005/dqn_racing_episode_250.pth (torch, 454997 bytes, 36 tensors)

hidden_nets.0.weight f4 [128, 11]
000000 aa 92 e4 3d 80 57 e1 bb f0 25 46 be ef 56 bb bd
       0.111607864 -0.006876886 -0.1935041 -0.09147441
000010 38 a5 a9 3c 10 2b 96 3d 3f b2 e4 3c fd 09 bc bd
       0.020708665 0.07332432 0.027917026 -0.091815926
000020 ea 00 e9 3d 34 59 f1 bd 51 df e7 3b c6 9c 80 3e
       0.113771275 -0.11784592 0.007076182 0.2511961
000030 6a 16 82 3d 56 82 79 bd 05 e3 d4 bd 36 8b b6 3b
       0.063519314 -0.060915314 -0.10394863 0.0055707945
000040 38 f7 99 bc 8f d7 fb bd a5 01 9c be 67 1c 34 be
       -0.01879464 -0.12296974 -0.30470005 -0.1758896
000050 59 ef 67 bd b7 b2 4a bd f1 72 f6 bd ab ac 5b be
       -0.056624744 -0.049486842 -0.12033642 -0.21452586
000060 92 a4 f5 bd 80 9c ab bd 8c 46 2e 3e e6 68 db bd
       -0.1199428 -0.083794594 0.17019099 -0.10713367
000070 57 31 8b 3d b2 45 99 3c c3 b1 08 be 41 d5 8a bd
       0.0679652 0.018709991 -0.1334906 -0.06778956
000080 39 a5 5d 3d 44 e9 1c be 1f 63 25 be 7c 54 77 bd
       0.054112647 -0.15323359 -0.16151093 -0.060383305
000090 18 b3 86 be d1 ff 0b 3e 17 63 3b be 58 b7 aa 3d
       -0.26308513 0.13671805 -0.18299519 0.08335751
0000a0 99 46 ff bd 11 8d 8e 3d 05 9d 50 3c 4b 5f aa 3d
       -0.12464637 0.069605 0.012732749 0.08318957
0000b0 05 44 da 3d 21 f7 1a 3d 49 ea 5a be 28 90 69 bd
       0.10657505 0.037833337 -0.21378435 -0.057022244
0000c0 b5 3c 9b be f4 41 1f be 91 8b f2 bc 77 cd 9d bd
       -0.30319753 -0.15552503 -0.029607566 -0.07705205
0000d0 07 94 ea 3b fc f4 f0 bc c0 e0 aa bd f5 21 8b 3d
       0.0071587595 -0.029413693 -0.08343649 0.06793586
0000e0 eb c5 57 be 48 37 44 be 3d 9c bc be d7 8d b0 3d
       -0.21071593 -0.19161713 -0.3683795 0.08620804
0000f0 fa 7e 40 be 0f ff ae bd c8 b5 d0 bd a6 1e dc 3d
       -0.18798438 -0.08544742 -0.10190922 0.10748033
000100 1b 14 5d 3c 3f a6 d2 3d 21 da 10 be 3f 49 ea bb
       0.013493563 0.10285615 -0.1414571 -0.007149845
000110 08 ac 76 be ee 34 63 bd a5 3e 4f bd bf c3 93 bc
       -0.24089062 -0.0554704 -0.05059685 -0.018037675
000120 bc d0 9e bd 88 2d 88 bd 03 a5 0d be d6 6c 40 be
       -0.07754657 -0.066493094 -0.13832478 -0.18791518
000130 ed 1f f0 bd 41 63 fd bd 21 88 80 bd 13 85 60 bd
       -0.11724839 -0.12372447 -0.062759645 -0.05481441
000140 1d 9b 0d be 5f 54 f0 bd fe 80 bf 3d a5 59 cf 3d
       -0.13828702 -0.117348425 0.09350775 0.1012452
000150 62 1e 6d bd 4d f7 09 3e dd da 72 be e6 43 22 3d
       -0.057890303 0.13473244 -0.23716302 0.039615534
000160 e4 3d 2c be 03 cb 42 bc 3b 98 e5 bd d3 7a 8a 3d
       -0.16820484 -0.011889222 -0.11210676 0.06761708
000170 08 49 5b bd 5a d1 9c be a7 a5 0e be e1 0c d7 bd
       -0.053536445 -0.30628473 -0.13930379 -0.10500503
000180 87 25 f4 bd b2 58 21 be 7e ee d9 3c 09 cc 23 be
       -0.1192122 -0.15756491 0.02660298 -0.15995802
000190 47 1e 9f be d0 67 bd 3d 4a 91 83 3c 3d e2 54 3e
       -0.31077787 0.09248316 0.01606049 0.20789428
0001a0 2e fc cf 3b fe 9a f2 ba b0 c3 76 bc d4 d4 1e 3d
       0.006347201 -0.0018509326 -0.015061304 0.038777187
0001b0 2a 93 dc bd 2b da a2 3c 69 dd 74 be ca d0 fa 3d
       -0.10770257 0.019879421 -0.23912586 0.122468546
0001c0 05 53 12 be d0 bd cc 3c 34 73 9a be 6b de e1 3d
       -0.14289482 0.024992853 -0.30166018 0.11028751
0001d0 10 11 f2 bc 70 03 a1 3d 52 a2 12 be ca a1 e0 3d
       -0.029549152 0.07861984 -0.14319733 0.10968359
0001e0 56 6d bc 3d 42 6a 22 be 9e 72 42 be f9 20 3e 3e
       0.09200542 -0.15860847 -0.18989035 0.18567266
0001f0 0e 90 1d be 39 ad a8 3b 6a d8 0d be b9 14 c9 bd
       -0.15386984 0.005147603 -0.13852087 -0.09818406
000200 18 3c 77 be bf 14 81 3d 2c 14 66 3d 07 3e df bd
       -0.24144018 0.06302785 0.05617158 -0.10900503
000210 87 ac a5 be 51 fc 8d bd 21 ed 85 3d fb 57 58 be
       -0.3235819 -0.06932891 0.065393694 -0.21127312
000220 6f 0d 92 3b 2d c8 31 3d 80 cd db 3d 0a c4 3e bb
       0.004457168 0.043403793 0.107325554 -0.0029108548
000230 eb bf a1 3d 52 3e a2 3d a9 2e 14 bd 36 4e 01 be
       0.078979336 0.07922043 -0.03617731 -0.12627491
000240 43 04 60 be b8 79 15 3e da 07 98 3d 8f e3 22 3e
       -0.21876626 0.14597213 0.074233726 0.15907119
000250 1b 40 1e bd 26 66 fe bc fc 70 89 be af 59 17 3e
       -0.038635354 -0.031054568 -0.26844013 0.14780305
000260 fc 1c 3b bd 1c d2 89 3d bd 3a 39 3e e4 e2 34 be
       -0.04568194 0.06729528 0.18088813 -0.17664677
000270 11 27 cb bd 00 3a 85 bc d9 3e cc 3d 5c 0b 90 bd
       -0.09919561 -0.016263008 0.09972925 -0.07033417
000280 9e d1 4b bd d7 8d 1f be dc 68 04 be a3 c4 0c 3e
       -0.049760453 -0.15581451 -0.12930626 0.13746886
000290 9f 5d 9f 3b b7 d2 6d bd 0c 5d af 3c cf be 41 be
       0.0048634554 -0.05806228 0.021406673 -0.18920444
0002a0 a1 7b aa bd 79 e7 3d be f4 11 a6 3d c1 6c 06 3d
       -0.083243616 -0.18545331 0.08108893 0.03281856
0002b0 e2 61 f7 bd 1b 6e fa 3d 89 ff 43 be 74 87 b7 3d
       -0.120792165 0.12228032 -0.19140448 0.089613825
0002c0 d0 31 9b 3c 00 79 3a be 2b 34 15 ba 61 f7 a2 3d
       0.01894465 -0.1821022 -0.00056916726 0.0795734
0002d0 c8 f5 a0 be 43 27 36 3c 17 2c 29 3d 53 6e 8c 3d
       -0.31437516 0.011117759 0.041301813 0.0685698
0002e0 4a d2 cf 3b 1f fb 04 3e a9 0b f5 3d a9 2e 8f 3d
       0.006342207 0.1298642 0.119651146 0.069913216
0002f0 f1 a9 90 bd 80 f9 71 be ff ef 45 3d af d5 be bb
       -0.07063664 -0.23630333 0.04832458 -0.005823813
000300 d9 19 0a be af 33 14 be 2d 1a 3d be 35 c0 f5 bd
       -0.13486423 -0.1447284 -0.18467017 -0.11999551
000310 af 9a 82 bd b2 9e 95 bd 1a 0f 54 bd fa 2a 43 be
       -0.0637716 -0.07305659 -0.051772214 -0.19059363
000320 e4 32 16 3c bb dc 0f bd 07 9a 27 3e 6d 2d a8 3b
       0.009167407 -0.035122614 0.1636735 0.0051323683
000330 45 7b 8c 3c 13 d4 e8 bc d1 5e 0e 3e 30 3b 22 3d
       0.017148623 -0.028421437 0.13903357 0.039607227
000340 9b 89 c3 3c af 31 3a 3e 7f 18 ef 3b 05 6c 29 be
       0.023869326 0.18183015 0.0072966213 -0.16545112
000350 61 1c e3 be 3f 4e 6c be 97 a2 d2 3d a0 8d 8c 3c
       -0.4435759 -0.23076724 0.10284918 0.017157376
000360 21 85 2f be 93 3e 49 39 6d 60 1f 3e 77 50 e4 bd
       -0.17140628 0.00019192164 0.15564127 -0.1114816
000370 b7 42 ed 3d b5 2f 55 bd 29 11 22 3d 1d 6b f4 ba
       0.115849905 -0.05204745 0.039567146 -0.0018647645
000380 d1 f9 03 3e 86 f2 75 bd e7 f9 c2 ba 07 02 8f be
       0.12888266 -0.06004574 -0.0014875502 -0.27931234
000390 d2 17 c2 3d df d5 ff bb c5 63 30 bd 67 be 8e 3d
       0.094771996 -0.007807478 -0.043063898 0.0696991
0003a0 f2 b3 80 bd d4 f7 a4 bd 28 d4 f4 bd 8b 17 fd 3d
       -0.06284322 -0.08055082 -0.11954528 0.12358006
0003b0 31 80 2d bc 32 10 17 bc 89 e1 ce bd d8 2d 33 be
       -0.010589645 -0.00922017 -0.10101611 -0.17497957
0003c0 f4 14 36 3d b4 00 96 bc b9 09 a1 be cd b3 85 3c
       0.044453576 -0.018310882 -0.3145273 0.016321087
0003d0 d0 6d 04 be 12 29 02 3e d4 77 2d 3d 8d 56 83 be
       -0.12932515 0.1271098 0.042350605 -0.2565197
0003e0 e3 6e 7b 3c 14 8e 89 3c 33 72 19 be 52 7e 84 bd
       0.015346262 0.016791381 -0.1498497 -0.06469406
0003f0 3a 9c 6e 3c fb cb 33 be eb 49 b3 bd e1 48 94 3d
       0.0145636145 -0.17558281 -0.08754333 0.07240463

hidden_nets.0.bias f4 [128]
000000 e7 94 8f bd ba 5b 0e be 4f ab 2e be 0b f0 1d be
       -0.07010823 -0.13902178 -0.17057537 -0.154236
000010 ed 81 9d 3b 27 a2 8c bd 2d 41 76 bd b5 5d 60 bd
       0.004806748 -0.068668656 -0.06012075 -0.054776866
000020 5e 89 24 bd e4 ef 4c be 17 d0 61 3b a9 a1 4a bd
       -0.040170066 -0.20013386 0.0034456307 -0.049470577
000030 ce 2c 0f be e9 56 da bd 0f dc 14 be eb 71 ee bc
       -0.13981935 -0.10661108 -0.1453707 -0.029107055
000040 45 bd bd bd 50 18 17 bd 7c b9 14 be fa cf 4c bd
       -0.09264616 -0.03688842 -0.14523882 -0.05000303
000050 61 06 b3 bd e5 0b 29 be 32 92 1f be e2 e6 22 be
       -0.08741451 -0.16508444 -0.15583113 -0.15908387
000060 46 5c 1d bd 4e 19 8e 3c 06 f7 02 be c5 9f e3 bd
       -0.038418077 0.01734605 -0.12789544 -0.11114458
000070 55 eb 46 bd 7d 32 00 bd 99 a7 28 be 53 54 a8 bc
       -0.048564274 -0.03129815 -0.16470183 -0.020548021
000080 cf 5c 76 bd 0a b0 97 bd 99 0f 4b be 3c b9 b2 bd
       -0.060147103 -0.07406624 -0.19830169 -0.08726737
000090 16 2c 33 bd a8 70 8b bd 1a 21 09 bd ad 5f 82 be
       -0.043743216 -0.06808597 -0.033478834 -0.2546362
0000a0 f7 6b be bd 5b 54 18 be 09 5b eb bd 68 1c 06 be
       -0.092979364 -0.14875929 -0.11491973 -0.13096774
0000b0 77 78 86 3d b8 3d 6b bc 82 0b 5a be 45 fc 94 3d
       0.065659456 -0.014357977 -0.21293452 0.07274679
0000c0 1a 0a aa 3d e0 91 01 be ef a3 21 3e 54 4d 28 be
       0.08302708 -0.12653303 0.15785192 -0.16435748
0000d0 81 34 dc bc a7 9a 94 bd 37 22 55 3d 7b 40 9b bd
       -0.026880505 -0.0725606 0.052034583 -0.07580658
0000e0 fa 79 3e be 30 79 35 be f7 b0 8c 3a 85 5e ce 3d
       -0.18601218 -0.1772201 0.0010733892 0.10076622
0000f0 6d e5 9d bd 41 fe 1d be f3 c8 d5 bd ce e4 41 be
       -0.07709775 -0.15429021 -0.10438719 -0.18934938
000100 06 77 48 bc 0e 91 64 bd e7 7d 3c 3d ae 08 24 be
       -0.012235409 -0.055802397 0.046018507 -0.16018936
000110 57 8e b5 bb b7 7e 39 bd eb a2 01 bd b4 77 86 3d
       -0.00554065 -0.04528686 -0.03164951 0.065658
000120 41 14 46 bc dc d2 1c be ff 85 ee bd fd 9d 22 3b
       -0.01208979 -0.15314811 -0.116466515 0.0024813407
000130 93 74 8b bc f3 a6 f4 bd 00 00 00 00 a9 0e 22 be
       -0.01702336 -0.119459055 0.0 -0.15825905
000140 db cf 07 be 62 55 6f bd 2b 8d ee bc d7 ad 0f be
       -0.13262884 -0.058431037 -0.029120049 -0.14031158
000150 70 95 c5 bd 00 00 00 00 8d 74 74 bc 8f ef 42 be
       -0.096476436 0.0 -0.014920366 -0.19036697
000160 ab c1 48 3d 1b fd 0a be 95 93 01 3d 45 53 11 3e
       0.04901282 -0.13573115 0.031634886 0.14191921
000170 97 da e3 bd 2f 73 99 bd 75 bf a3 3c da 03 09 be
       -0.11125677 -0.07492673 0.019988755 -0.13380376
000180 ca bc 7e 3d 13 9c 6b bd ec c7 e4 bd a5 4d 0c bd
       0.062191762 -0.05752189 -0.111709446 -0.034253735
000190 fd ee 76 bd f3 06 38 bd 0f 76 8a bc a0 31 40 bd
       -0.06028651 -0.044928502 -0.016901998 -0.046922326
0001a0 e7 8f fb 3d 76 22 79 3d 6d 62 10 be 4e a5 6b bd
       0.122833066 0.06082388 -0.14100046 -0.057530694
0001b0 5a a9 25 be 1c 36 00 be 87 9f 46 bd 3c c4 55 be
       -0.16177884 -0.12520641 -0.04849198 -0.20875639
0001c0 86 6c 78 bd d9 49 87 3d 0a 4e a7 bc ac ea 05 be
       -0.06065037 0.06605882 -0.020422954 -0.13077801
0001d0 a5 20 23 be 3f 5c a9 bd 92 70 48 bc b3 82 fa bd
       -0.15930422 -0.08269548 -0.01223387 -0.1223196
0001e0 97 1c 30 bd bc 95 03 be 49 34 25 bd 01 d7 9d bd
       -0.042996015 -0.12850088 -0.040333066 -0.07707024
0001f0 a8 30 bb bc d9 64 ea bc 68 c4 83 bd 07 a1 3a 3d
       -0.02285035 -0.028612541 -0.06433946 0.045563724

hidden_nets.1.weight f4 [128, 128]
000000 82 70 57 bd d1 a9 13 bd 4d ac 68 3d 45 e2 cf bd
       -0.05259753 -0.03605062 0.056804944 -0.10150579
000010 55 04 d0 3c f7 6f 1c be ab db 77 3d 9d ef 20 be
       0.02539269 -0.15277086 0.060512226 -0.15716405
000020 fd 6a 98 3e 54 9e 89 3d 4f eb 86 3d d1 49 2e be
       0.29769126 0.06719652 0.0658785 -0.17020346
000030 27 de 10 3c a1 e7 98 be af e3 46 3e c3 0b ad bc
       0.008842028 -0.2986422 0.19422792 -0.021123772
000040 99 ea 19 be 60 af 36 bd 55 91 0a be 7e 25 12 3e
       -0.15030898 -0.044600844 -0.13532002 0.14272115
000050 20 6c d0 bd 6f 61 0e bd 61 a7 05 3d f6 2a e9 bd
       -0.10176873 -0.03476089 0.032630328 -0.11385147
000060 79 a8 2a be 44 84 d6 bd d8 d4 bd bd 9b f7 94 bc
       -0.1666583 -0.104744464 -0.09269112 -0.018184474
000070 8c 37 bc bc 6b a5 ab bd 78 d3 85 3e 2e f3 d9 39
       -0.022975706 -0.0838116 0.261379 0.00041570648
000080 fe 7a 12 bd 5a a5 17 be ea 5e b3 3d bf 2a e8 bd
       -0.035761826 -0.1480917 0.08758338 -0.11336278
000090 ae 2a e4 3d 49 2f c0 bd 01 d5 c9 3d ea 77 62 bd
       0.11140953 -0.09384019 0.098550804 -0.05529014
0000a0 2e dc 20 be 67 b1 2b bd af a3 c2 3d 88 12 dc 3d
       -0.15708992 -0.04191723 0.095038764 0.10745722
0000b0 a0 c1 7f be 55 c2 38 be b8 4f 1f 3c b6 0f 8e bd
       -0.24976206 -0.18042882 0.009723596 -0.069365904
0000c0 1d 4f 20 3d 47 bc 5b bd e6 57 07 3e ab 49 22 3e
       0.03913795 -0.053646352 0.13217124 0.15848415
0000d0 ce 13 02 3e 02 33 2d be 85 c4 c9 bc 6e 77 f9 bd
       0.12702867 -0.16913989 -0.02462984 -0.121809825
0000e0 56 4b 9b bd 1c c6 c3 bd 37 3b 1a 3e c6 26 97 bd
       -0.075827286 -0.09559271 0.15061651 -0.07380442
0000f0 ab dd 61 3d f8 09 90 3d 30 61 7c 3c 93 a8 1c be
       0.05514304 0.070331514 0.015404031 -0.15298681
000100 43 ff 15 3e f1 ae 89 3d 3f a6 3c bc 09 8a 2c be
       0.14648156 0.067228206 -0.0115142455 -0.16849531
000110 94 ff 05 3d 71 3b ac bd 32 c2 66 3c b0 ba 39 be
       0.03271444 -0.08409775 0.014084386 -0.18137622
000120 b4 b8 09 be 82 54 61 3e a6 ff 8c bd 31 07 4d 3d
       -0.13449365 0.22004893 -0.068846986 0.050055686
000130 13 79 fd 3d 0f df d3 3b bd 65 f4 3d 99 4f 02 be
       0.12376609 0.0064657996 0.119334675 -0.12725677
000140 2f a8 37 be b6 5a cc bd f4 bd 46 3d 53 43 e8 bd
       -0.1793525 -0.09978239 0.048520997 -0.11340966
000150 dc b0 01 be e4 46 43 bd bb 98 b4 3d 71 ce 3f 3e
       -0.12665123 -0.04767503 0.088181935 0.18731095
000160 4d 04 33 be 71 7b 86 3c 16 4a ac bd 14 48 2e bd
       -0.1748211 0.016416283 -0.08412568 -0.042549208
000170 8f 4f 88 3d 58 7f cf bd d6 75 2a 3d 23 0f d6 bd
       0.066557996 -0.10131711 0.041616283 -0.10452106
000180 53 44 bb bd 56 08 e1 3d df d4 52 be c5 8d ad bd
       -0.09143891 0.10987918 -0.20589016 -0.08474306
000190 2c 25 16 bd 0f 59 02 3c e8 af 17 bd b7 48 35 be
       -0.036656544 0.007955804 -0.03703299 -0.1770352
0001a0 b3 2c c7 3d 71 02 7b bd 82 da 2e be 56 5c 07 3b
       0.097253226 -0.061281625 -0.17075542 0.0020654402
0001b0 17 c5 b9 3c fd 74 fb bd 9b 95 dc 3d b3 c3 57 be
       0.022676988 -0.12278173 0.107707225 -0.21070747
0001c0 f3 dd ce bd 11 b4 66 be db 8d 36 bd e7 28 21 3d
       -0.10100927 -0.22529627 -0.044568878 0.03934565
0001d0 bf 25 80 bd 57 1a 79 bc 7f 95 12 3e ba 4c b0 bc
       -0.062571995 -0.015204034 0.1431484 -0.021520961
0001e0 fb 57 2d 3d 4e 94 00 be 0b 1a 9a 3c c8 8b ce bd
       0.042320233 -0.12556574 0.018811246 -0.10085255
0001f0 f1 b8 2b 3e 81 9e ad bb d7 0c c1 bd 2f c3 09 3e
       0.16769768 -0.005298436 -0.09426277 0.13453363
000200 9b 9e 07 3d a4 41 7a 3e 15 90 c7 3d 98 60 99 bd
       0.033110242 0.24439102 0.09744278 -0.07489127
000210 cb 18 8a be c5 a9 9e 3c 87 36 3f ba c0 ea 2a 3e
       -0.2697204 0.019368062 -0.0007294197 0.16691113
000220 a3 f8 e8 bd 54 bd ac bd 39 3b b5 bd dd 79 61 bc
       -0.11375549 -0.08434549 -0.088491865 -0.013761965
000230 76 7d 2c be b1 3d 0a 3e 06 f7 33 bd 07 75 11 3e
       -0.16844735 0.13500096 -0.04393675 0.14204799
000240 d3 a1 48 be 17 9c e1 bd 53 a5 ad 3b 19 8b 80 bd
       -0.19592981 -0.110161 0.005299249 -0.06276531
000250 28 c6 6b 3c d0 71 ef 3d cb 59 bc 3d 91 d8 0d bc
       0.014390506 0.1169163 0.09196814 -0.0086575905
000260 15 52 81 be fe e9 b1 bd 57 d7 5c bd e0 8c a4 bd
       -0.25257936 -0.086872086 -0.0539163 -0.08034682
000270 f9 12 f7 3d 97 bb 38 be 60 a1 da bd 96 97 3b bd
       0.120641656 -0.1804031 -0.10675311 -0.04579886
000280 57 e7 ba bd ad 9b c9 bd 54 33 a9 3d ae 4f f9 3c
       -0.09126156 -0.09844146 0.08261743 0.030433502
000290 83 33 c2 bc b7 16 cf bd e7 69 01 be 7c b4 ae bd
       -0.023706203 -0.101117544 -0.12638055 -0.085305184
0002a0 b7 db bc bd d0 52 a9 3c 22 da 4c 3e a5 73 2c 3c
       -0.09221595 0.02066937 0.20005086 0.010525619
0002b0 78 53 87 be a2 52 a9 be 8c 05 a2 3b fa 21 b1 be
       -0.2643087 -0.33070856 0.004944509 -0.34596235
0002c0 09 a1 95 be 94 88 6f bd 24 81 a0 be 88 1a 20 bd
       -0.29224423 -0.05847986 -0.31348526 -0.039087802
0002d0 d3 fc 83 bd 2a f8 d0 3c 94 f9 f1 be 19 33 b2 bc
       -0.06444707 0.025508959 -0.47260725 -0.02175288
0002e0 a4 48 1e be 2d 83 6e bc 92 2e 1c 3e b2 e5 e9 bd
       -0.15457398 -0.014557642 0.1525214 -0.11420764
0002f0 0d 2c 99 3d ed 76 1a be b6 6d 28 3e 16 c3 77 bd
       0.07479105 -0.15084429 0.16448101 -0.060488783
000300 6d 5d 14 3e d4 ff 0a be ca 7d 14 bf ea 34 e8 bd
       0.14488764 -0.13574153 -0.5800444 -0.113382176
000310 3d 43 58 be 69 d8 94 bd 2a 24 59 bd 93 6b de 3b
       -0.211194 -0.072678395 -0.053013004 0.006787726
000320 25 03 5e bd 98 84 7d bd 4b ea a6 3d 2b ba 32 3c
       -0.054202218 -0.06189403 0.081501566 0.010908644
000330 53 68 5e 3d 13 38 80 bc 16 96 6e 3d 30 89 04 3e
       0.05429871 -0.015651738 0.0582486 0.12942958
000340 b2 2a 22 bd 37 1e da bd ce 5f 8d bd 53 70 e8 bd
       -0.0395915 -0.10650294 -0.06903039 -0.11349549
000350 fc 56 f2 bd e0 cd 0e 3e 1f 1f 29 bd bb 50 4a bd
       -0.11832997 0.13945723 -0.041289445 -0.049393397
000360 8c 66 8e 3e 3c 1c ca bd b8 cb b1 bd 6f 2b e3 be
       0.27812612 -0.098686665 -0.086814344 -0.44369075
000370 45 03 a1 3c 25 be 17 be da 80 06 3d 0d dc 7d 3d
       0.01965488 -0.14818628 0.032837726 0.061977435
000380 ca 4f 0b 3e 89 97 46 bc a1 32 d1 bc 5d dc 9c be
       0.13604656 -0.01212109 -0.025536837 -0.30636874
000390 97 d3 8b be 13 6b 8b 3d 02 73 eb bb 4b 91 77 be
       -0.27309868 0.06807532 -0.007185341 -0.24176519
0003a0 b6 ff c8 bd 51 5a ed be dd 11 af bb 06 00 1b bd
       -0.09814398 -0.46357968 -0.0053427056 -0.03784182
0003b0 ca 5b d5 bd fe c3 f2 bd f5 f3 4a 3d 71 a3 ae 3d
       -0.10417898 -0.11853789 0.04954906 0.08527268
0003c0 5f 2e de bd 5e 87 21 bf 91 8e e3 3c 49 d7 f4 bd
       -0.10848688 -0.6309718 0.027777942 -0.11955125
0003d0 69 d5 04 3e 64 e3 77 be 6d cd 07 be e0 13 1b 3d
       0.12972035 -0.24207836 -0.13261957 0.03786075
0003e0 5c d3 e0 bd ad 12 1c be 5c 7e 35 3d 54 98 82 bd
       -0.109778136 -0.15241499 0.04430996 -0.063767105
0003f0 c4 a5 fa bc f3 28 1d be 38 51 a2 3d 05 25 11 3a
       -0.030596621 -0.15347652 0.079256475 0.00055368274

hidden_nets.1.bias f4 [128]
000000 f3 06 f4 bd fd ff ed 3d 98 63 0b 3e 0e 85 17 3e
       -0.11915388 0.116210915 0.13612211 0.1479685
000010 da 54 97 3d f6 67 bb 3d f9 f4 50 3d 64 71 d9 bd
       0.07389231 0.09150688 0.051014874 -0.10617331
000020 d8 08 f5 3d 4f 4e 00 3e ad 71 07 3e 3b d0 89 3d
       0.119645774 0.12529872 0.13226958 0.0672917
000030 5f b9 ce 3d 3e 73 bc 3d 5f 5c eb 3d 5e 46 fe 3d
       0.100939505 0.09201668 0.11492228 0.12415765
000040 1f fc 14 3d 71 06 b3 3d b9 b1 c9 bd 50 0b ef 3d
       0.036373254 0.08741463 -0.09848351 0.116720796
000050 a5 84 dd 3d b6 00 e4 3d 32 8d e6 3d 4f 4c d7 3d
       0.108163156 0.11132948 0.112573996 0.105126016
000060 1f be e3 3d 9f a5 8c bd c4 49 95 3d 15 a4 a7 3d
       0.11120247 -0.06867527 0.0728946 0.08185593
000070 fd 10 c7 3d 50 59 3d 3d c2 cf a7 3d 5c e6 e9 bd
       0.09720037 0.046227753 0.081939235 -0.11420891
000080 d3 7b ed bd d6 62 45 3d 95 f3 3d 3d ac 35 c4 bd
       -0.11595883 0.04818996 0.046374876 -0.095805496
000090 db 6c f8 3d 29 5a 24 3d 9b e9 da 3d 08 8c b2 3d
       0.121301375 0.040125046 0.10689088 0.08718115
0000a0 78 a7 d0 3d 29 94 85 bd 24 af e3 3d 5a 04 ba 3d
       0.10188192 -0.065224 0.1111739 0.09082861
0000b0 68 8b 0f 3e 5b 97 f4 3d ed 2d ee 3d 93 a6 ba 3d
       0.14018023 0.11942931 0.116298534 0.09113803
0000c0 29 53 dc 3d f1 0f 09 be 78 b5 96 3d 20 c7 de 3d
       0.10758049 -0.13384987 0.07358831 0.10877824
0000d0 8f d8 19 3e 01 79 97 3d 97 ab 22 3d d4 86 1e 3d
       0.15024017 0.073961265 0.039714422 0.0387028
0000e0 af 11 07 3e 45 35 da 3d b6 7c e5 3d 85 f5 03 3e
       0.1319034 0.106546916 0.11205427 0.12886627
0000f0 e5 85 77 3d 4d 59 a3 3d 05 3d e6 3d f7 3b 15 3d
       0.060430426 0.07976017 0.11242107 0.03643414
000100 ff cd f3 bd 19 1c 01 3e b8 c2 c6 bd 48 28 81 3c
       -0.11904525 0.12608375 -0.097051084 0.015766278
000110 36 40 68 bd fd c5 09 3e 84 a2 fc 3d 7b cf 1f be
       -0.05670186 0.13454433 0.12335685 -0.15606491
000120 41 39 9d 3c a0 db 11 3e 57 99 f8 3d 16 77 75 3d
       0.01919234 0.14243937 0.12138622 0.059928022
000130 02 bc 93 3d 2c e8 c8 3d 46 e6 10 bb 69 29 37 bd
       0.07213594 0.09809908 -0.002210991 -0.044717226
000140 70 36 e5 3d 7c e7 e0 3d 91 b6 17 3e 01 3e 02 be
       0.11192024 0.10981652 0.14815737 -0.12718965
000150 e0 2b b2 3d 26 b0 8e 3d a4 4a 8f 3d f4 81 0a be
       0.08699775 0.069671914 0.069966584 -0.13526136
000160 64 ce c4 3d 5b d3 b0 3d dc 9b c9 3d 8a 9b c6 3d
       0.096096784 0.08634063 0.09844181 0.096976355
000170 98 d6 e0 3d 75 a2 c2 bd 8e 11 bd 3d 61 57 bd 3d
       0.109784305 -0.095036425 0.09231864 0.09245182
000180 5d 13 be 3d 0c fd e1 3d df ae 0c bd 51 da 55 3d
       0.09281037 0.11034593 -0.034346458 0.052210156
000190 ae a3 ca 3d ce 3f b2 3d 72 96 0a 3e 22 c0 d5 3d
       0.09894501 0.08703576 0.13533953 0.10437037
0001a0 10 e3 c8 3d fa b4 4f 3d 7b 9b e5 3d df 02 a1 3d
       0.09808934 0.050709702 0.11211296 0.07861876
0001b0 05 77 ad bd d7 2c b5 3d 8f 05 c9 3d 98 b8 55 bd
       -0.08469967 0.08846443 0.09815513 -0.052177995
0001c0 0f 49 db 3d 92 7a fb bd 14 01 03 3e 12 a2 c4 bd
       0.10707294 -0.12279238 0.1279338 -0.09601225
0001d0 0a a8 cb 3d eb e7 09 3e 52 12 9d bd cc a6 89 3d
       0.0994416 0.13467376 -0.0766951 0.06721267
0001e0 fb 8e d9 3d 21 7e 3b 3d c3 a4 1e 3c 33 8c fb 3d
       0.106229745 0.045774583 0.009682837 0.122826
0001f0 b0 6f 9b 3d 8c bf f9 3d 06 e6 de 3d 1d 9f a9 3c
       0.07589662 0.12194738 0.10883717 0.020705754

hidden_nets.2.weight f4 [64, 128]
000000 01 4c f2 bd f8 76 3f 3e 14 eb a8 bd 92 26 9e 3d
       -0.11830903 0.18697727 -0.082479626 0.077222005
000010 af 0f 0c 3e 1b 75 9c bd f0 07 98 3d f6 35 8e 3e
       0.13677858 -0.076395236 0.07423389 0.27775544
000020 dd a2 ca bd 3d d2 27 3e 8d 6b 5e 3e 28 1f 31 3d
       -0.09894345 0.16388793 0.21720715 0.043242604
000030 75 a1 be bd ee 0e ce 3d b3 72 be bc 91 da 95 3d
       -0.09308139 0.10061441 -0.023248052 0.07317079
000040 cb 0e c5 bd 61 d3 5b bc 06 2b 1e bd bd 9b 49 3e
       -0.09621962 -0.013417096 -0.03861525 0.19688316
000050 f3 11 02 3e 0c 30 f5 3d 0c 84 a4 bc da 36 ec 3d
       0.1270216 0.11972055 -0.020082496 0.115338996
000060 d9 bf d4 3d 4d 6b 7e 3e c4 98 3b 3e 04 a0 9f 3c
       0.103881545 0.2484562 0.18319994 0.019485481
000070 29 17 9c 3d a3 46 8e 3e b0 8d a2 3d 18 90 8d bd
       0.07621605 0.27788267 0.07937181 -0.06912249
000080 e1 a6 e5 3b 99 64 7b 3d 23 a1 30 bd 15 85 ed 3d
       0.007008419 0.061375234 -0.043122422 0.11597649
000090 90 f9 23 3e 99 0c db 3d da 54 df bd e4 d2 3f be
       0.1601317 0.10695762 -0.10904856 -0.18732792
0000a0 e1 71 14 3e 12 69 1d 3e 6d fa 4e 3e 18 45 03 be
       0.14496566 0.15372112 0.20212717 -0.12819326
0000b0 16 75 be 3e b3 0e 8f 3e 23 4b cb 3d 06 a4 a4 bd
       0.37198704 0.27940902 0.099264406 -0.080390975
0000c0 16 4a bf bd 58 9c 40 3e 03 26 8b be f6 5c 32 3e
       -0.09340303 0.1880964 -0.27177438 0.17418274
0000d0 41 c9 cb 3e 42 68 5b 3e a1 2c e4 3e 33 bc 81 3c
       0.39801982 0.2142649 0.445653 0.01583681
0000e0 7b e2 fb 3d db 45 7b 3c f5 d0 c8 3b 34 7f bf 3b
       0.12299057 0.015336479 0.0061284252 0.005844021
0000f0 16 d5 8b 3e 3d a1 62 bd 25 25 56 3e d6 e9 f6 3d
       0.2731101 -0.05532955 0.20912607 0.120563194
000100 2b bc cf bc 1c 56 92 3e 44 ae 67 bd 62 db b8 3e
       -0.02535828 0.2858132 -0.056562677 0.36104876
000110 9e c6 0e 3d 0a ef d5 3d 33 9e 45 be 31 2f 95 bd
       0.034857385 0.10445984 -0.1929863 -0.07284392
000120 34 31 bf bd d0 7f 9f 3e 52 3f 08 be 40 f0 86 3e
       -0.093355566 0.311522 -0.13305405 0.2635517
000130 64 52 01 3e b2 19 01 3e 48 8d 54 3e 36 12 f3 3e
       0.12629086 0.12607458 0.2075702 0.4747483
000140 b4 33 c2 3d 49 70 81 3d af 4e 86 3e 04 ed 3c bd
       0.09482518 0.06320245 0.26231906 -0.046124473
000150 9f 3a 12 be 38 24 d5 3b e7 04 13 be 23 fc eb 3d
       -0.14280175 0.0065045618 -0.14357339 0.11522701
000160 eb 0c b1 3e ed 79 0a be a4 f6 86 3e f0 30 03 3d
       0.34580168 -0.13523073 0.26360047 0.032029092
000170 e7 41 f6 bd 32 f6 8f bd 62 93 30 3c 9e 69 80 3d
       -0.120242886 -0.0702938 0.010777326 0.06270145
000180 91 fb a3 3e eb 52 21 bd 42 3f 08 3c 98 4b 42 be
       0.32027867 -0.039385717 0.008315863 -0.18974149
000190 32 e1 01 3d dd 84 5f be 67 a7 d8 3d bf 94 92 3d
       0.031708904 -0.21828027 0.105788045 0.07157277
0001a0 e5 17 ab 3d 6f 4c b6 bd 0d e9 b8 bd b1 6c fa 3d
       0.08354167 -0.08901297 -0.09028826 0.122277625
0001b0 56 c1 be 3d 91 6b 2c 3e 6e 8a 77 bd d6 f2 d9 bc
       0.0931422 0.16837908 -0.06043475 -0.026605051
0001c0 26 0d 9d 3d 0a 78 36 3e 7b 31 eb bd dc fe a7 3d
       0.076685235 0.17819229 -0.11484047 0.082029074
0001d0 ff 59 af bd 24 43 4f 3e f3 98 68 3c 57 a6 2f be
       -0.08562087 0.20240456 0.014196622 -0.17153297
0001e0 c1 76 8e bd 95 d8 2d 3e 1c 78 84 bd 11 87 3f 3e
       -0.06956244 0.1697715 -0.064682215 0.18703867
0001f0 8c 7b 7f 3e a4 b1 56 be d7 74 9b 3c 14 99 d5 3e
       0.24949473 -0.20966202 0.018976612 0.41718352
000200 ed de 62 bd 07 2e 9e 3e 8e e3 e9 3d 6a 09 00 3e
       -0.05538838 0.3089449 0.11420356 0.12503591
000210 f1 ac b4 3e c9 0a 8a 3d 1a e0 cb 3e 3a 5d e9 3d
       0.35288194 0.06740338 0.39819413 0.11394735
000220 1d 4b 8c 3e 1d b9 fc bb fa 9f 04 3e 53 f0 f4 3d
       0.27401057 -0.007712497 0.12951651 0.11959901
000230 1f 71 e1 3d 63 cb fc 3b 4a 21 a2 3d 87 eb 33 3e
       0.11007904 0.0077146753 0.07916506 0.17570315
000240 a4 17 17 be bd fe a4 bd 05 3e 34 3e c3 46 04 3e
       -0.14755112 -0.080564 0.17601784 0.12917618
000250 9b 24 84 3d 62 e3 24 3e 76 de 32 3d ee 61 69 be
       0.064522944 0.16102365 0.043669187 -0.22791263
000260 df de 73 3d b0 7a 53 3e cd 2b 29 bc c0 88 22 be
       0.05953872 0.2065227 -0.010325384 -0.15872478
000270 e8 35 2a 3e fc b1 28 3e ec ec a4 3e ae b7 d6 3d
       0.16622126 0.16474146 0.32212007 0.10484253
000280 9d 80 3a 3e d5 c6 e9 3d 77 1b 2a 3d 85 53 cd 3d
       0.18213125 0.11414877 0.0415301 0.10025696
000290 14 dd 60 3e a7 cc 4a bd 29 0c f6 3d c7 ba 46 3d
       0.21959335 -0.049511578 0.12014038 0.04851797
0002a0 62 58 67 3d 9c cd 06 bb 80 90 3e 3e ca 5d d2 bd
       0.056480773 -0.002056933 0.1860981 -0.10271795
0002b0 b6 a2 2e 3e 6d 87 57 3e 38 45 6e 3e 30 ce 8d bd
       0.17054257 0.21047755 0.23268592 -0.06924093
0002c0 b6 1f 0e 3e c9 e6 bd 3c 1e 20 5e 3e 23 73 df 3b
       0.13879284 0.023181336 0.21691939 0.0068191453
0002d0 57 99 39 3e c7 25 cb bc 6e b4 b2 3e 94 8a 98 bd
       0.18124901 -0.024798287 0.34903282 -0.07448307
0002e0 b1 93 51 3e 1e 77 e1 3d 83 1a 25 3d c2 8d 4e 3e
       0.20466496 0.11009048 0.040308487 0.20171264
0002f0 fa 38 14 3e f4 99 ff 3c 47 7b e4 3c 50 cf 92 ba
       0.1447486 0.03120134 0.027890814 -0.00112007
000300 2e aa c6 3d 1b 26 8a 3d e7 b7 02 3e 3a 48 bb 3e
       0.09700428 0.06745549 0.12765466 0.36578542
000310 5f bc 6f 3e a4 4f 2f 3e 8e b2 1e 3e 98 0f fe bb
       0.23411702 0.17120224 0.154978 -0.0077533238
000320 46 82 d9 3d 7e b1 47 3e 1c e3 54 3e d9 bf 68 3d
       0.10620551 0.19501302 0.2078976 0.056823585
000330 7a a9 78 3e a2 a3 f8 3d 08 87 5e 3e e9 3b d0 3e
       0.242834 0.121405855 0.21731198 0.40670708
000340 d4 da 5e 3e a6 b3 91 3e 15 be f9 3d 31 ba 95 3d
       0.21763164 0.28457373 0.121944584 0.07310904
000350 72 d2 2e 3e cf 23 8b bd d0 59 a7 bc aa 15 71 3d
       0.17072466 -0.06793939 -0.020428568 0.05885855
000360 b9 a7 c4 3e 2c f2 a1 3d 3a 64 10 3e 74 8d 65 3e
       0.38409212 0.07907519 0.14100733 0.22417241
000370 0e 60 10 3e a9 f3 55 3e 09 90 45 3b 6a 83 0e 3d
       0.14099142 0.2089373 0.0030145666 0.034793295
000380 04 0b 5b 3e 49 f5 8d 3d db 3a e1 3d b5 80 cd 3c
       0.21390921 0.0693155 0.10997554 0.025085786
000390 46 07 13 3e 54 2f 16 3d 76 5f 88 3e 11 ad 1a 3d
       0.14358243 0.03666623 0.2663533 0.037762705
0003a0 f1 fd 0b bd 68 e1 44 3d 70 16 6f 3e f3 97 0f bd
       -0.034177724 0.048066527 0.23348403 -0.03505702
0003b0 6f 4a a5 bd 7b 12 37 3e 93 5f be 3d 27 0a 06 3e
       -0.08070838 0.17878143 0.09295573 0.1308981
0003c0 ec 34 c0 3d 0b fe ba 3c 7a 9d a5 3d b0 29 67 3d
       0.09385094 0.022826215 0.08086677 0.05643624
0003d0 19 fd 6e 3d ea e4 29 bc fc 94 8b 3e 00 56 de 3d
       0.05834684 -0.010369519 0.27262104 0.10856247
0003e0 37 d8 f2 bb f4 20 af 3e 99 d9 6f bd 7d a8 00 3e
       -0.0074110287 0.3420483 -0.058557127 0.12564273
0003f0 f1 cd f3 ba 8f 9a 09 3d 0a c0 3b bd ae ab 23 3e
       -0.0018600804 0.033594664 -0.04583744 0.1598346

hidden_nets.2.bias f4 [64]
000000 19 3e c0 3e c0 19 91 3e 83 97 8b 3f b2 94 82 3f
       0.37547377 0.28339958 1.0905613 1.0201628
000010 f5 08 88 3f d9 fb 85 3f ee 90 e1 bc 40 7c 82 3f
       1.0627733 1.0467483 -0.027534928 1.0194168
000020 5f c1 ac bd c3 45 74 3f c4 1a 61 bc 37 dd 80 3f
       -0.0843532 0.9541895 -0.013739292 1.006751
000030 6a d9 10 3f c3 6e 72 3c 90 d8 1e 3f c5 3f 84 3f
       0.5658175 0.014796915 0.620492 1.0331961
000040 1c 39 77 3f 45 66 9b bd 4f cb 78 3f bd e9 47 3f
       0.96571517 -0.07587866 0.97185224 0.7809103
000050 9c 88 cf bd fa 67 01 bd 6d d0 7f 3f 80 dc 66 bc
       -0.10133478 -0.0315933 0.9992741 -0.014090657
000060 3f de 13 bd a7 8f 80 3f b8 b9 84 3f 8a db 88 3f
       -0.036100622 1.0043839 1.0369177 1.0691998
000070 b0 e6 87 3f a8 4b 9c bd 51 e6 81 3f f6 df 85 3f
       1.0617275 -0.07631618 1.0148412 1.0458972
000080 08 bf 88 3f d9 3e 83 bd 79 9a 6c 3f ad 98 7b 3f
       1.0683298 -0.064084716 0.92423207 0.9827984
000090 c5 47 90 3f 5f b1 84 3f d1 e4 85 bd 0c 5e 81 3f
       1.1271902 1.0366629 -0.06537784 1.0106826
0000a0 1d fb 34 3f ba c2 7f 3f 43 7b 3a bd 4b 4e 84 3f
       0.7069567 0.99906504 -0.045527708 1.0336393
0000b0 78 ce 88 3f 09 b8 c9 bd a4 61 14 bd 76 46 82 3f
       1.0688009 -0.09849555 -0.03622593 1.0177753
0000c0 64 e7 6c 3f eb 9c 82 3f 33 9d 84 3f df e2 89 3f
       0.92540574 1.0204138 1.0360473 1.077236
0000d0 52 f1 1c bd e1 6e fe bc 76 b8 8a 3f 53 4a 87 3f
       -0.03831608 -0.03105873 1.0837543 1.0569557
0000e0 6c 26 85 3f 73 a7 59 bd e6 27 7b 3f 09 e3 bf 3e
       1.040235 -0.053138208 0.98107755 0.37477902
0000f0 0e bb a3 bd 87 9f 8a bd e7 bb 34 3e 71 11 a6 bd
       -0.07994662 -0.06768709 0.17649804 -0.081087954

value_stream.weight f4 [1, 64]
000000 a4 28 0a 3f 37 e3 d3 3e d9 ec 04 3f c4 1d 22 3f
       0.5396826 0.4138429 0.519239 0.6332667
000010 e4 2d 0b 3f e8 2f 33 3f b5 a3 80 be f6 26 32 3f
       0.543669 0.69994974 -0.251249 0.695907
000020 0f 2a 6c bd 80 8c 38 3f a7 da 24 be a5 d2 47 3f
       -0.057657298 0.72089386 -0.16099034 0.78055793
000030 74 6a 06 3f 8c eb 0a be 0f 93 0d 3f bc 30 2e 3f
       0.52506185 -0.13566417 0.5530252 0.6804311
000040 f3 b3 10 3f 54 2e 9d bd 58 39 11 3f 60 d3 07 3f
       0.5652458 -0.07674852 0.56728125 0.5305691
000050 51 3a e6 bd f1 89 3f be 93 86 44 3f 0e 2f 1f be
       -0.11241592 -0.18704964 0.76767844 -0.15545294
000060 a3 2f 2c be b3 6c 3a 3f 31 aa 3b 3f ed b0 2f 3f
       -0.16815047 0.7282211 0.73306566 0.6862934
000070 20 3e 23 3f e8 ad 3d be 69 32 10 3f be 5a 2e 3f
       0.6376667 -0.18523371 0.5632692 0.6810721
000080 6b c8 18 3f 85 a6 f9 bd e3 c9 36 3f 99 ae 2c 3f
       0.59680814 -0.12189964 0.71401805 0.67453915
000090 ef b1 06 3f 1a 97 34 3f 34 b4 2a be 72 ad 3f 3f
       0.52615255 0.7054306 -0.16670305 0.7487403
0000a0 73 4b 03 3f 41 15 3c 3f 0e 05 5e be 2c b4 45 3f
       0.51287 0.7346993 -0.21681616 0.77228045
0000b0 d6 66 29 3f 82 6b 77 be 55 bc aa be c8 12 2f 3f
       0.6617254 -0.24162105 -0.3334681 0.6838803
0000c0 e8 d1 26 3f 28 da 23 3f 96 e6 1a 3f 29 f1 24 3f
       0.6516404 0.64004755 0.60508096 0.6443048
0000d0 f1 48 b9 3d f0 dc 64 be e5 d5 12 3f a7 fe 1c 3f
       0.090471156 -0.22349906 0.5735763 0.6132607
0000e0 c4 4b 16 3f a1 a4 50 be b4 31 0f 3f f3 f8 fb 3e
       0.5870936 -0.20375301 0.55935216 0.4921337
0000f0 7c e9 0a be 30 98 95 3d f5 99 a0 3e a6 80 01 be
       -0.1356563 0.07304418 0.3136746 -0.12646732

advantage_stream.weight f4 [5, 64]
000000 51 54 00 be 8d 49 5f be 48 a3 a1 3d bd 4a 67 bd
       -0.12532164 -0.21805401 0.078924716 -0.05646776
000010 b6 75 af 3d 5b 2e 0d bd 83 75 9a be 1e f4 56 3d
       0.085673735 -0.034468036 -0.3016778 0.052478902
000020 cd 7e db 3d 57 07 01 3e ad be 4e be 56 a3 e2 3d
       0.10717545 0.12600456 -0.20189925 0.1106631
000030 df 25 03 bd 3b 5c 8f bd 84 13 26 3d 88 0b 97 3b
       -0.03201854 -0.070000134 0.040545955 0.004609529
000040 bc 3a 01 3e a1 b4 05 3d 3b 26 06 3e 97 dd 41 bb
       0.12620062 0.032642964 0.13100521 -0.002958154
000050 e0 a4 8d 3d e7 4b 16 3e 08 c3 1a bd 43 f0 3c be
       0.06916213 0.14677392 -0.037783653 -0.18451028
000060 42 1b 52 3e e4 8c 81 3d 15 3b f4 3d 9d 1a 28 3c
       0.2051821 0.06325701 0.119253315 0.010260251
000070 17 49 44 3c 8d ae b0 bd b8 d6 ee bd 4b 13 56 3d
       0.011980317 -0.08627043 -0.11662048 0.052264493
000080 fc 53 8f 3c 39 b4 1f 3e 67 41 e0 3b ad a8 02 3e
       0.017496102 0.15596093 0.006843734 0.12759657
000090 ad 4d a5 3d 58 c9 e3 3d ea 22 50 be 50 51 df 3d
       0.08071456 0.11122388 -0.20325819 0.10904181
0000a0 b1 16 12 3d 10 85 37 3e 8b 3b 36 be 9f f7 21 3e
       0.03566617 0.17921853 -0.17796151 0.15817116
0000b0 ec df e2 3d 4c 0b e4 3d 93 d1 8b 3d 3c 89 07 3e
       0.11077866 0.11134967 0.068270825 0.13235945
0000c0 5a 71 dd 3c ee f4 cc bb af d4 a4 3d c6 23 6a bd
       0.02703159 -0.006254784 0.08048379 -0.057163022
0000d0 41 03 78 bd 92 9e af 3d 24 9f 1a bd e6 c0 13 3d
       -0.06054998 0.08575167 -0.037749425 0.036072634
0000e0 66 f8 10 3c 03 91 09 3d 6c e5 3a 3c 1c 8b 52 bb
       0.008848285 0.03358556 0.0114072375 -0.0032126373
0000f0 6a 67 10 bd d9 c2 83 be 1f b8 3b be 1a 25 b8 3d
       -0.035254873 -0.25734594 -0.18331955 0.089914516
000100 08 b2 48 3d 95 cb cf bd 80 75 44 3d 78 f1 f3 bd
       0.04899791 -0.10146252 0.04796362 -0.11911291
000110 4e 9b 77 3d de 12 1b bd f5 5d b7 bd 82 78 10 bd
       0.060450844 -0.03785979 -0.08953468 -0.035271175
000120 50 f7 88 3e 68 ae b3 3d 2d f9 b7 3e 2d 92 7d 3d
       0.26751184 0.087735 0.35932294 0.061906982
000130 ff 9f 30 3b 70 91 c1 3d b6 ec f1 3c 80 44 24 bd
       0.0026950834 0.09451568 0.029531818 -0.04010439
000140 07 f8 fd 3d 6b dc 03 bd 56 2c c6 3d b7 55 cd bc
       0.12400823 -0.03219263 0.09676425 -0.025065286
000150 40 97 25 3e 7e fb 48 bd 1f 14 90 bd 77 9c eb bd
       0.16170979 -0.049067967 -0.07035088 -0.11504453
000160 24 9b 4f 3e 92 fa 82 3c ca 31 71 3d f8 6d 95 bc
       0.20274025 0.015988622 0.058885373 -0.018240914
000170 17 5d c8 bc 3f 77 60 3c cd 9e 12 be 41 dd 37 3d
       -0.024458451 0.0137003055 -0.1431839 0.04488874
000180 a1 a3 1b bd 1d 28 8f 3d 03 6f 8d bb 64 11 ea 3d
       -0.037997846 0.06990073 -0.004316212 0.11429098
000190 c4 ee af 3d 8c dc f0 3d 83 0e 9a bd 17 f7 b3 3d
       0.08590463 0.11760816 -0.07522299 0.08787363
0001a0 a0 50 fb 3c 47 74 14 3e fc 82 fe 3c dd bc 06 3e
       0.030678093 0.14497481 0.031068318 0.13157983
0001b0 d5 7b e5 3d e0 ac 46 be 58 9b 50 be d3 ad 66 3d
       0.1120526 -0.19401884 -0.20371759 0.056318115
0001c0 3a 54 49 bd 8c b5 af bc e2 3b 82 3d 0e fb 88 bd
       -0.04915259 -0.021448873 0.06359078 -0.0668851
0001d0 db 11 c1 bb 6c de cf bc 5e 64 57 bd 4e 9b 9e ba
       -0.005892021 -0.025374614 -0.052585952 -0.0012100728
0001e0 8c 05 23 bd 7d 67 af bd 67 1e b1 bc b4 59 23 3d
       -0.03980021 -0.08564661 -0.021620942 0.03988047
0001f0 73 de 0c be 7d ca 52 be 8f 36 08 bd 5f 5c d2 bd
       -0.13756733 -0.20585056 -0.033255156 -0.10271525
000200 dc 75 3e 3d 45 e7 ff bd 7f 23 6c 3d 07 c1 a8 bd
       0.04649912 -0.12495283 0.05765104 -0.08239942
000210 71 c9 92 3d 63 ce 1e bd 11 c1 5d bd 02 e3 58 3c
       0.07167328 -0.038771044 -0.0541392 0.013237717
000220 01 7b a6 bd 76 77 c2 3d 34 2b 42 bb 0b 0c f8 3d
       -0.0812893 0.094954416 -0.0029627802 0.12111672
000230 ca db 01 bd 2e c8 44 be 21 33 9f 3d df d6 00 bd
       -0.031703748 -0.19216987 0.07773424 -0.031454917
000240 86 7b 34 3e f5 fb 83 bd 7b b9 fd 3d fc 00 b5 bc
       0.17625245 -0.06444541 0.12388893 -0.022095196
000250 5b 86 9b be 0d 08 ea bd 68 4e 7f bd 0d 4d df 3d
       -0.30375943 -0.11427317 -0.062330633 0.10903368
000260 02 84 8c bc 13 75 fe bb 5e 22 c3 3d 5d 45 8d bc
       -0.01715279 -0.007765421 0.095280394 -0.017244989
000270 14 0e 4f bc a1 ed 80 be 26 0c f5 bd f8 d7 89 3d
       -0.012637634 -0.25181296 -0.11965208 0.06730646
000280 b8 bb a8 bc 58 ea 0e 3e 84 bb f4 bc 9f 86 d6 3d
       -0.020597324 0.13956583 -0.02987457 0.10474896
000290 56 7c 91 3d ab 35 c0 3d f4 4b a1 3c a9 f4 af 3d
       0.07103793 0.09385236 0.019689538 0.08591587
0002a0 b8 b0 bc b9 e5 4d e3 3d 21 76 02 be 2a ff 0b 3e
       -0.0003598982 0.110988416 -0.12740375 0.13671556
0002b0 52 e6 e2 3d 65 3c cf bc 55 b7 66 3c 1e 5d b5 3d
       0.11079086 -0.025297353 0.014081796 0.08855651
0002c0 0b e1 a0 bc 1b a8 de bc b5 35 07 3d 6a 3e 86 bc
       -0.019638559 -0.027179768 0.033010203 -0.016387183
0002d0 8a 47 64 be d4 b0 00 3e 24 cd c1 bc 84 6d 1d bc
       -0.22292915 0.12567455 -0.023657389 -0.00960863
0002e0 e1 2d 6f bd a2 3c 02 3e 08 ec c2 bc 87 65 bb bd
       -0.058393363 0.12718442 -0.02379419 -0.09150224
0002f0 88 3f 3f 3e fb 0c 35 3e 95 9f ae 3d bf 29 d2 bd
       0.18676579 0.17680733 0.085265316 -0.10261869
000300 fb ad 87 3d 56 86 96 3e 2c f0 1d 3d 3f 79 ed bd
       0.06624981 0.29399365 0.038559124 -0.115953915
000310 d5 77 b3 3c a2 92 a6 bd 25 56 89 be 0d 7a 46 bd
       0.021907726 -0.08133437 -0.26823536 -0.04845624
000320 46 c9 b2 bd 25 67 f2 3c 46 9a 3a be bf 8c 42 3c
       -0.08729796 0.029590199 -0.18222913 0.011874377
000330 89 d3 49 bd 10 c6 df 3e 6c c2 7a 3d 45 6e 8c bd
       -0.049274 0.43705797 0.06122057 -0.0685697
000340 1a 0b a6 3d 9b 9d 6a be e9 9e 6d 3d a0 ec a0 bd
       0.08107586 -0.22911684 0.058012877 -0.07857633
000350 80 49 9f bc f9 87 dc bd 20 02 d0 bd 91 98 e4 3d
       -0.019444227 -0.10768122 -0.10156655 0.11161912
000360 ea b9 8b 3e a0 d3 bb bb 8d d8 28 3d 2e 6e 88 bd
       0.2729028 -0.005732015 0.041222144 -0.0666164
000370 3d 99 28 bd 7f 98 54 3e 83 c5 06 be 43 dc c3 bc
       -0.041161764 0.20761298 -0.13161282 -0.02390874
000380 8d 10 82 bd 14 96 60 bd 13 f6 7a bd 9f e5 41 3d
       -0.06350813 -0.054830626 -0.06126983 0.047338124
000390 2d 00 5b 3d 93 0b 89 3d de 50 52 bd f9 63 37 3d
       0.053466965 0.06691661 -0.051346652 0.044773076
0003a0 cc b7 e7 3c 5e a3 f4 3d 65 d1 9b bd 1c 96 da 3d
       0.028285883 0.11945222 -0.07608298 0.10673162
0003b0 85 79 73 3d cf 28 20 be 72 43 47 be d4 2e 03 3d
       0.059442062 -0.15640567 -0.19459322 0.03202708
0003c0 79 00 a7 bd 8d c8 9d bc be b2 8a 3c 4e b9 ce bd
       -0.08154387 -0.01926067 0.016930934 -0.10093938
0003d0 95 be 09 3e 0c 53 09 be a3 bc aa bd e4 d5 fa bc
       0.13451608 -0.13410586 -0.08336761 -0.03061957
0003e0 f9 e3 8a bd 8c 34 67 3e 9a a1 69 bd d9 66 5c 3d
       -0.067817636 0.22578639 -0.05703888 0.05380902
0003f0 35 9a f4 3d 2f d7 1e be d1 56 bc 3e 35 18 1a 3e
       0.11943475 -0.15511774 0.36784986 0.15048297

advantage_stream.bias f4 [5]
000000 b9 ad 17 bf 41 72 a4 3c a8 63 45 bd 1e d1 49 3f
       -0.59249455 0.020074012 -0.048190743 0.7883471
000010 c6 2a 24 bf
       -0.6412777

hidden_nets.0.weight f4 [128, 11]
000000 aa 92 e4 3d 80 57 e1 bb f0 25 46 be ef 56 bb bd
       0.111607864 -0.006876886 -0.1935041 -0.09147441
000010 38 a5 a9 3c 10 2b 96 3d 3f b2 e4 3c fd 09 bc bd
       0.020708665 0.07332432 0.027917026 -0.091815926
000020 ea 00 e9 3d 34 59 f1 bd 51 df e7 3b c6 9c 80 3e
       0.113771275 -0.11784592 0.007076182 0.2511961
000030 6a 16 82 3d 56 82 79 bd 05 e3 d4 bd 36 8b b6 3b
       0.063519314 -0.060915314 -0.10394863 0.0055707945
000040 38 f7 99 bc 8f d7 fb bd a5 01 9c be 67 1c 34 be
       -0.01879464 -0.12296974 -0.30470005 -0.1758896
000050 59 ef 67 bd b7 b2 4a bd f1 72 f6 bd ab ac 5b be
       -0.056624744 -0.049486842 -0.12033642 -0.21452586
000060 92 a4 f5 bd 80 9c ab bd 8c 46 2e 3e e6 68 db bd
       -0.1199428 -0.083794594 0.17019099 -0.10713367
000070 57 31 8b 3d b2 45 99 3c c3 b1 08 be 41 d5 8a bd
       0.0679652 0.018709991 -0.1334906 -0.06778956
000080 39 a5 5d 3d 44 e9 1c be 1f 63 25 be 7c 54 77 bd
       0.054112647 -0.15323359 -0.16151093 -0.060383305
000090 18 b3 86 be d1 ff 0b 3e 17 63 3b be 58 b7 aa 3d
       -0.26308513 0.13671805 -0.18299519 0.08335751
0000a0 99 46 ff bd 11 8d 8e 3d 05 9d 50 3c 4b 5f aa 3d
       -0.12464637 0.069605 0.012732749 0.08318957
0000b0 05 44 da 3d 21 f7 1a 3d 49 ea 5a be 28 90 69 bd
       0.10657505 0.037833337 -0.21378435 -0.057022244
0000c0 b5 3c 9b be f4 41 1f be 91 8b f2 bc 77 cd 9d bd
       -0.30319753 -0.15552503 -0.029607566 -0.07705205
0000d0 07 94 ea 3b fc f4 f0 bc c0 e0 aa bd f5 21 8b 3d
       0.0071587595 -0.029413693 -0.08343649 0.06793586
0000e0 eb c5 57 be 48 37 44 be 3d 9c bc be d7 8d b0 3d
       -0.21071593 -0.19161713 -0.3683795 0.08620804
0000f0 fa 7e 40 be 0f ff ae bd c8 b5 d0 bd a6 1e dc 3d
       -0.18798438 -0.08544742 -0.10190922 0.10748033
000100 1b 14 5d 3c 3f a6 d2 3d 21 da 10 be 3f 49 ea bb
       0.013493563 0.10285615 -0.1414571 -0.007149845
000110 08 ac 76 be ee 34 63 bd a5 3e 4f bd bf c3 93 bc
       -0.24089062 -0.0554704 -0.05059685 -0.018037675
000120 bc d0 9e bd 88 2d 88 bd 03 a5 0d be d6 6c 40 be
       -0.07754657 -0.066493094 -0.13832478 -0.18791518
000130 ed 1f f0 bd 41 63 fd bd 21 88 80 bd 13 85 60 bd
       -0.11724839 -0.12372447 -0.062759645 -0.05481441
000140 1d 9b 0d be 5f 54 f0 bd fe 80 bf 3d a5 59 cf 3d
       -0.13828702 -0.117348425 0.09350775 0.1012452
000150 62 1e 6d bd 4d f7 09 3e dd da 72 be e6 43 22 3d
       -0.057890303 0.13473244 -0.23716302 0.039615534
000160 9f bb 2b be 1e 6c 1b bc 9d ad e0 bd bc 66 8f 3d
       -0.1677079 -0.009486226 -0.10970614 0.07002017
000170 40 73 51 bd f0 27 9c be 99 1b 11 be ff 20 d2 bd
       -0.0511353 -0.3049922 -0.14170684 -0.102602
000180 87 25 f4 bd f7 e2 1e be f6 3e c6 3c 09 cc 23 be
       -0.1192122 -0.15516268 0.024199944 -0.15995802
000190 47 1e 9f be d0 67 bd 3d 4a 91 83 3c 3d e2 54 3e
       -0.31077787 0.09248316 0.01606049 0.20789428
0001a0 2e fc cf 3b fe 9a f2 ba b0 c3 76 bc d4 d4 1e 3d
       0.006347201 -0.0018509326 -0.015061304 0.038777187
0001b0 2a 93 dc bd 2b da a2 3c a5 86 75 be f5 da f6 3d
       -0.10770257 0.019879421 -0.23977144 0.120534815
0001c0 09 b2 15 be ee ce be 3c b5 1f 9b be 54 6d dc 3d
       -0.14618696 0.023292031 -0.30297628 0.1076304
0001d0 05 d3 eb bc 33 97 9b 3d 52 a2 12 be 28 30 de 3d
       -0.028787145 0.07597198 -0.14319733 0.10849029
0001e0 87 62 af 3d 42 6a 22 be 9e 72 42 be f9 20 3e 3e
       0.085637145 -0.15860847 -0.18989035 0.18567266
0001f0 0e 90 1d be 39 ad a8 3b 6a d8 0d be b9 14 c9 bd
       -0.15386984 0.005147603 -0.13852087 -0.09818406
000200 18 3c 77 be bf 14 81 3d 2c 14 66 3d 07 3e df bd
       -0.24144018 0.06302785 0.05617158 -0.10900503
000210 87 ac a5 be 51 fc 8d bd 21 ed 85 3d fb 57 58 be
       -0.3235819 -0.06932891 0.065393694 -0.21127312
000220 6f 0d 92 3b 2d c8 31 3d 80 cd db 3d 0a c4 3e bb
       0.004457168 0.043403793 0.107325554 -0.0029108548
000230 eb bf a1 3d 52 3e a2 3d a9 2e 14 bd 36 4e 01 be
       0.078979336 0.07922043 -0.03617731 -0.12627491
000240 43 04 60 be b8 79 15 3e da 07 98 3d 8f e3 22 3e
       -0.21876626 0.14597213 0.074233726 0.15907119
000250 1b 40 1e bd 26 66 fe bc fc 70 89 be af 59 17 3e
       -0.038635354 -0.031054568 -0.26844013 0.14780305
000260 fc 1c 3b bd 1c d2 89 3d c1 20 39 3e d5 fb 34 be
       -0.04568194 0.06729528 0.18078901 -0.17674191
000270 6d 30 cb bd f6 f2 85 bc 1d 0e cc 3d b6 1c 90 bd
       -0.09921346 -0.016351204 0.099636294 -0.07036726
000280 e9 6d 4b bd 0f a6 1f be dc 68 04 be f1 ab 0c 3e
       -0.049665365 -0.1559069 -0.12930626 0.13737465
000290 9f 5d 9f 3b b7 d2 6d bd 0c 5d af 3c cf be 41 be
       0.0048634554 -0.05806228 0.021406673 -0.18920444
0002a0 a1 7b aa bd 79 e7 3d be f4 11 a6 3d c1 6c 06 3d
       -0.083243616 -0.18545331 0.08108893 0.03281856
0002b0 e2 61 f7 bd 1b 6e fa 3d 89 ff 43 be 74 87 b7 3d
       -0.120792165 0.12228032 -0.19140448 0.089613825
0002c0 d0 31 9b 3c 00 79 3a be 2b 34 15 ba 61 f7 a2 3d
       0.01894465 -0.1821022 -0.00056916726 0.0795734
0002d0 c8 f5 a0 be 43 27 36 3c 17 2c 29 3d 53 6e 8c 3d
       -0.31437516 0.011117759 0.041301813 0.0685698
0002e0 4a d2 cf 3b 1f fb 04 3e a9 0b f5 3d a9 2e 8f 3d
       0.006342207 0.1298642 0.119651146 0.069913216
0002f0 f1 a9 90 bd 80 f9 71 be ff ef 45 3d af d5 be bb
       -0.07063664 -0.23630333 0.04832458 -0.005823813
000300 d9 19 0a be af 33 14 be 2d 1a 3d be 35 c0 f5 bd
       -0.13486423 -0.1447284 -0.18467017 -0.11999551
000310 af 9a 82 bd b2 9e 95 bd 1a 0f 54 bd fa 2a 43 be
       -0.0637716 -0.07305659 -0.051772214 -0.19059363
000320 e4 32 16 3c bb dc 0f bd 07 9a 27 3e 6d 2d a8 3b
       0.009167407 -0.035122614 0.1636735 0.0051323683
000330 45 7b 8c 3c 13 d4 e8 bc d1 5e 0e 3e 30 3b 22 3d
       0.017148623 -0.028421437 0.13903357 0.039607227
000340 9b 89 c3 3c c6 dd 3c 3e ee ac 20 3c d9 22 26 be
       0.023869326 0.18443975 0.009806855 -0.16224231
000350 61 1c e3 be 45 7d 6a be 79 db d8 3d 18 48 a0 3c
       -0.4435759 -0.22899349 0.10588736 0.019565627
000360 c1 ee 2c be 93 3e 49 39 03 d8 21 3e 93 08 ea bd
       -0.16887952 0.00019192164 0.15805058 -0.11427417
000370 b7 42 ed 3d b5 2f 55 bd 29 11 22 3d 1d 6b f4 ba
       0.115849905 -0.05204745 0.039567146 -0.0018647645
000380 d1 f9 03 3e 86 f2 75 bd e7 f9 c2 ba 07 02 8f be
       0.12888266 -0.06004574 -0.0014875502 -0.27931234
000390 d2 17 c2 3d df d5 ff bb c5 63 30 bd 67 be 8e 3d
       0.094771996 -0.007807478 -0.043063898 0.0696991
0003a0 f2 b3 80 bd d4 f7 a4 bd 28 d4 f4 bd 8b 17 fd 3d
       -0.06284322 -0.08055082 -0.11954528 0.12358006
0003b0 31 80 2d bc 32 10 17 bc 89 e1 ce bd d8 2d 33 be
       -0.010589645 -0.00922017 -0.10101611 -0.17497957
0003c0 f4 14 36 3d b4 00 96 bc b9 09 a1 be cd b3 85 3c
       0.044453576 -0.018310882 -0.3145273 0.016321087
0003d0 d0 6d 04 be 12 29 02 3e d4 77 2d 3d 8d 56 83 be
       -0.12932515 0.1271098 0.042350605 -0.2565197
0003e0 e3 6e 7b 3c 14 8e 89 3c 33 72 19 be 52 7e 84 bd
       0.015346262 0.016791381 -0.1498497 -0.06469406
0003f0 3a 9c 6e 3c fb cb 33 be eb 49 b3 bd e1 48 94 3d
       0.0145636145 -0.17558281 -0.08754333 0.07240463

hidden_nets.0.bias f4 [128]
000000 e7 94 8f bd ba 5b 0e be 4f ab 2e be 0b f0 1d be
       -0.07010823 -0.13902178 -0.17057537 -0.154236
000010 ed 81 9d 3b 27 a2 8c bd 2d 41 76 bd b5 5d 60 bd
       0.004806748 -0.068668656 -0.06012075 -0.054776866
000020 a8 b1 1a bd e4 ef 4c be 07 21 51 3a a9 a1 4a bd
       -0.037767082 -0.20013386 0.0007977639 -0.049470577
000030 ce 2c 0f be e9 56 da bd 47 f4 14 be eb 71 ee bc
       -0.13981935 -0.10661108 -0.1454631 -0.029107055
000040 45 bd bd bd 50 18 17 bd 7c b9 14 be 75 76 42 bd
       -0.09264616 -0.03688842 -0.14523882 -0.04747625
000050 61 06 b3 bd e5 0b 29 be 32 92 1f be e2 e6 22 be
       -0.08741451 -0.16508444 -0.15583113 -0.15908387
000060 46 5c 1d bd c0 d9 78 3c 06 f7 02 be c5 9f e3 bd
       -0.038418077 0.015188634 -0.12789544 -0.11114458
000070 91 e1 46 bd 68 51 fd bc 99 a7 28 be 53 54 a8 bc
       -0.04855496 -0.030922607 -0.16470183 -0.020548021
000080 cf 5c 76 bd 0a b0 97 bd 99 0f 4b be 3c b9 b2 bd
       -0.060147103 -0.07406624 -0.19830169 -0.08726737
000090 d2 87 2b bd a8 70 8b bd 1a 21 09 bd ad 5f 82 be
       -0.041877575 -0.06808597 -0.033478834 -0.2546362
0000a0 f7 6b be bd 5b 54 18 be 09 5b eb bd e2 08 02 be
       -0.092979364 -0.14875929 -0.11491973 -0.12698701
0000b0 ac be 8c 3d 25 a6 8d bc 82 0b 5a be 02 56 93 3d
       0.06872305 -0.017291138 -0.21293452 0.07194139
0000c0 9b 47 b2 3d e0 91 01 be d3 55 23 3e 54 4d 28 be
       0.08705064 -0.12653303 0.15950708 -0.16435748
0000d0 81 34 dc bc a7 9a 94 bd da c3 51 3d 7b 40 9b bd
       -0.026880505 -0.0725606 0.05121217 -0.07580658
0000e0 4b 42 3e be 30 79 35 be f7 b0 8c 3a b2 4a cf 3d
       -0.18579976 -0.1772201 0.0010733892 0.10121669
0000f0 6d e5 9d bd 41 fe 1d be f3 c8 d5 bd ce e4 41 be
       -0.07709775 -0.15429021 -0.10438719 -0.18934938
000100 06 77 48 bc 0e 91 64 bd 8e 35 4b 3d ae 08 24 be
       -0.012235409 -0.055802397 0.04961162 -0.16018936
000110 42 23 ef bb b7 7e 39 bd ec dc 08 bd 54 87 87 3d
       -0.007297904 -0.04528686 -0.033413813 0.06617609
000120 41 14 46 bc dc d2 1c be ff 85 ee bd fd 9d 22 3b
       -0.01208979 -0.15314811 -0.116466515 0.0024813407
000130 02 a2 96 bc ed c0 f6 bd 00 00 00 00 a9 0e 22 be
       -0.018387798 -0.120485164 0.0 -0.15825905
000140 db cf 07 be 62 55 6f bd 2b 8d ee bc d7 ad 0f be
       -0.13262884 -0.058431037 -0.029120049 -0.14031158
000150 70 95 c5 bd 00 00 00 00 8d 74 74 bc f1 f4 43 be
       -0.096476436 0.0 -0.014920366 -0.19136406
000160 69 e2 4c 3d 1b fd 0a be a7 cd 05 3d 46 cf 12 3e
       0.05002061 -0.13573115 0.03266683 0.14336881
000170 97 da e3 bd 2f 73 99 bd 57 b9 ab 3c da 03 09 be
       -0.11125677 -0.07492673 0.0209624 -0.13380376
000180 de a9 78 3d b9 7d 76 bd ec c7 e4 bd a5 4d 0c bd
       0.060708873 -0.060178492 -0.111709446 -0.034253735
000190 fd ee 76 bd 98 83 2b bd 0f 76 8a bc a0 31 40 bd
       -0.06028651 -0.041873544 -0.016901998 -0.046922326
0001a0 7f a8 f2 3d 97 89 82 3d 6d 62 10 be 4e a5 6b bd
       0.11848544 0.063738994 -0.14100046 -0.057530694
0001b0 5a a9 25 be 29 51 00 be 60 55 4c bd 3c c4 55 be
       -0.16177884 -0.1253096 -0.049886107 -0.20875639
0001c0 86 6c 78 bd 19 00 91 3d a0 27 ca bc ac ea 05 be
       -0.06065037 0.07080097 -0.024677098 -0.13077801
0001d0 a5 20 23 be 3f 5c a9 bd 92 70 48 bc b3 82 fa bd
       -0.15930422 -0.08269548 -0.01223387 -0.1223196
0001e0 97 1c 30 bd bc 95 03 be 49 34 25 bd 01 d7 9d bd
       -0.042996015 -0.12850088 -0.040333066 -0.07707024
0001f0 fc 9e d9 bc 06 03 d5 bc 68 c4 83 bd 6d 2c 3d 3d
       -0.026565067 -0.026002418 -0.06433946 0.046184946
