hyperopt_results/lr_experiments/lr_0.0005/dqn_racing_episode_300.pth (torch, 455445 bytes, 36 tensors)

hidden_nets.0.weight f4 [128, 11]
0.111607864 -0.006876886 -0.1935041 -0.09147441 0.020708665 0.07332432 0.027917026 -0.091815926
0.113771275 -0.11784592 0.007076182 0.2511961 0.063519314 -0.060915314 -0.10394863 0.0055707945
-0.01879464 -0.12296974 -0.30470005 -0.1758896 -0.056624744 -0.049486842 -0.12033642 -0.21452586
-0.1199428 -0.083794594 0.17019099 -0.10713367 0.0679652 0.018709991 -0.1334906 -0.06778956
0.054112647 -0.15323359 -0.16151093 -0.060383305 -0.26308513 0.13671805 -0.18299519 0.08335751
-0.12464637 0.069605 0.012732749 0.08318957 0.10657505 0.037833337 -0.21378435 -0.057022244
-0.30319753 -0.15552503 -0.029607566 -0.07705205 0.0071587595 -0.029413693 -0.08343649 0.06793586
-0.21071593 -0.19161713 -0.3683795 0.08620804 -0.18798438 -0.08544742 -0.10190922 0.10748033
0.013493563 0.10285615 -0.1414571 -0.007149845 -0.24089062 -0.0554704 -0.05059685 -0.018037675
-0.07754657 -0.066493094 -0.13832478 -0.18791518 -0.11724839 -0.12372447 -0.062759645 -0.05481441
-0.13828702 -0.117348425 0.09350775 0.1012452 -0.057890303 0.13473244 -0.23716302 0.039615534
-0.16820519 -0.011891142 -0.11210867 0.067615174 -0.05353836 -0.30628565 -0.13930191 -0.10500694
-0.1192122 -0.15756679 0.026604893 -0.15995802 -0.31077787 0.09248316 0.01606049 0.20789428
0.006347201 -0.0018509326 -0.015061304 0.038777187 -0.10770257 0.019879421 -0.22952336 0.14179432
-0.1464329 0.03401991 -0.31077963 0.12811479 0.057059903 0.10200114 -0.14319733 0.1419736
0.018485554 -0.15860847 -0.18989035 0.18567266 -0.15386984 0.005147603 -0.13852087 -0.09818406
-0.24144018 0.06302785 0.05617158 -0.10900503 -0.3235819 -0.06932891 0.065393694 -0.21127312
0.004457168 0.043403793 0.107325554 -0.0029108548 0.078979336 0.07922043 -0.03617731 -0.12627491
-0.21876626 0.14597213 0.074233726 0.15907119 -0.038635354 -0.031054568 -0.26844013 0.14780305
-0.04568194 0.06729528 0.17089024 -0.18524112 -0.10193986 -0.021218423 0.09038509 -0.07143039
-0.04022447 -0.16510755 -0.12930626 0.12801678 0.0048634554 -0.05806228 0.021406673 -0.18920444
-0.083243616 -0.18545331 0.08108893 0.03281856 -0.120792165 0.12228032 -0.19140448 0.089613825
0.01894465 -0.1821022 -0.00056916726 0.0795734 -0.31437516 0.011117759 0.041301813 0.0685698
0.006342207 0.1298642 0.119651146 0.069913216 -0.07063664 -0.23630333 0.04832458 -0.005823813
-0.13486423 -0.1447284 -0.18467017 -0.11999551 -0.0637716 -0.07305659 -0.051772214 -0.19059363
0.009167407 -0.035122614 0.1636735 0.0051323683 0.017148623 -0.028421437 0.13903357 0.039607227
0.023869326 0.14668538 -0.021702435 -0.18851617 -0.4435759 -0.2582488 0.0840764 0.0052272556
-0.199302 0.00019192164 0.12550433 -0.088011116 0.115849905 -0.05204745 0.039567146 -0.0018647645
0.12888266 -0.06004574 -0.0014875502 -0.27931234 0.094771996 -0.007807478 -0.043063898 0.0696991
-0.06284322 -0.08055082 -0.11954528 0.12358006 -0.010589645 -0.00922017 -0.10101611 -0.17497957
0.044453576 -0.018310882 -0.3145273 0.016321087 -0.12932515 0.1271098 0.042350605 -0.2565197
0.015346262 0.016791381 -0.1498497 -0.06469406 0.0145636145 -0.17558281 -0.08754333 0.07240463
00000000: aa92 e43d 8057 e1bb f025 46be ef56 bbbd
00000010: 38a5 a93c 102b 963d 3fb2 e43c fd09 bcbd
00000020: ea00 e93d 3459 f1bd 51df e73b c69c 803e
00000030: 6a16 823d 5682 79bd 05e3 d4bd 368b b63b
00000040: 38f7 99bc 8fd7 fbbd a501 9cbe 671c 34be
00000050: 59ef 67bd b7b2 4abd f172 f6bd abac 5bbe
00000060: 92a4 f5bd 809c abbd 8c46 2e3e e668 dbbd
00000070: 5731 8b3d b245 993c c3b1 08be 41d5 8abd
00000080: 39a5 5d3d 44e9 1cbe 1f63 25be 7c54 77bd
00000090: 18b3 86be d1ff 0b3e 1763 3bbe 58b7 aa3d
000000a0: 9946 ffbd 118d 8e3d 059d 503c 4b5f aa3d
000000b0: 0544 da3d 21f7 1a3d 49ea 5abe 2890 69bd
000000c0: b53c 9bbe f441 1fbe 918b f2bc 77cd 9dbd
000000d0: 0794 ea3b fcf4 f0bc c0e0 aabd f521 8b3d
000000e0: ebc5 57be 4837 44be 3d9c bcbe d78d b03d
000000f0: fa7e 40be 0fff aebd c8b5 d0bd a61e dc3d
00000100: 1b14 5d3c 3fa6 d23d 21da 10be 3f49 eabb
00000110: 08ac 76be ee34 63bd a53e 4fbd bfc3 93bc
00000120: bcd0 9ebd 882d 88bd 03a5 0dbe d66c 40be
00000130: ed1f f0bd 4163 fdbd 2188 80bd 1385 60bd
00000140: 1d9b 0dbe 5f54 f0bd fe80 bf3d a559 cf3d
00000150: 621e 6dbd 4df7 093e ddda 72be e643 223d
00000160: fb3d 2cbe 11d3 42bc 3b99 e5bd d379 8a3d
00000170: 0a4b 5bbd 79d1 9cbe 29a5 0ebe e10d d7bd
00000180: 8725 f4bd 3059 21be 81f2 d93c 09cc 23be
00000190: 471e 9fbe d067 bd3d 4a91 833c 3de2 543e
000001a0: 2efc cf3b fe9a f2ba b0c3 76bc d4d4 1e3d
000001b0: 2a93 dcbd 2bda a23c 2c08 6bbe 8832 113e
000001c0: 82f2 15be 7658 0b3d 821e 9fbe 8630 033e
000001d0: a5b7 693d f9e5 d03d 52a2 12be 8761 113e
000001e0: 046f 973c 426a 22be 9e72 42be f920 3e3e
000001f0: 0e90 1dbe 39ad a83b 6ad8 0dbe b914 c9bd
00000200: 183c 77be bf14 813d 2c14 663d 073e dfbd
00000210: 87ac a5be 51fc 8dbd 21ed 853d fb57 58be
00000220: 6f0d 923b 2dc8 313d 80cd db3d 0ac4 3ebb
00000230: ebbf a13d 523e a23d a92e 14bd 364e 01be
00000240: 4304 60be b879 153e da07 983d 8fe3 223e
00000250: 1b40 1ebd 2666 febc fc70 89be af59 173e
00000260: fc1c 3bbd 1cd2 893d dafd 2e3e d9af 3dbe
00000270: d8c5 d0bd 42d2 adbc d11b b93d 194a 92bd
00000280: 6ac2 24bd f411 29be dc68 04be d516 033e
00000290: 9f5d 9f3b b7d2 6dbd 0c5d af3c cfbe 41be
000002a0: a17b aabd 79e7 3dbe f411 a63d c16c 063d
000002b0: e261 f7bd 1b6e fa3d 89ff 43be 7487 b73d
000002c0: d031 9b3c 0079 3abe 2b34 15ba 61f7 a23d
000002d0: c8f5 a0be 4327 363c 172c 293d 536e 8c3d
000002e0: 4ad2 cf3b 1ffb 043e a90b f53d a92e 8f3d
000002f0: f1a9 90bd 80f9 71be ffef 453d afd5 bebb
00000300: d919 0abe af33 14be 2d1a 3dbe 35c0 f5bd
00000310: af9a 82bd b29e 95bd 1a0f 54bd fa2a 43be
00000320: e432 163c bbdc 0fbd 079a 273e 6d2d a83b
00000330: 457b 8c3c 13d4 e8bc d15e 0e3e 303b 223d
00000340: 9b89 c33c b134 163e 4ec9 b1bc 620a 41be
00000350: 611c e3be 3039 84be 3f30 ac3d 6649 ab3b
00000360: d315 4cbe 933e 4939 3584 003e 2c3f b4bd
00000370: b742 ed3d b52f 55bd 2911 223d 1d6b f4ba
00000380: d1f9 033e 86f2 75bd e7f9 c2ba 0702 8fbe
00000390: d217 c23d dfd5 ffbb c563 30bd 67be 8e3d
000003a0: f2b3 80bd d4f7 a4bd 28d4 f4bd 8b17 fd3d
000003b0: 3180 2dbc 3210 17bc 89e1 cebd d82d 33be
000003c0: f414 363d b400 96bc b909 a1be cdb3 853c
000003d0: d06d 04be 1229 023e d477 2d3d 8d56 83be
000003e0: e36e 7b3c 148e 893c 3372 19be 527e 84bd
000003f0: 3a9c 6e3c fbcb 33be eb49 b3bd e148 943d

hidden_nets.0.bias f4 [128]
-0.07010823 -0.13902178 -0.17057537 -0.154236 0.004806748 -0.068668656 -0.06012075 -0.054776866
-0.04017198 -0.20013386 0.026826948 -0.049470577 -0.13981935 -0.10661108 -0.15466374 -0.029107055
-0.09264616 -0.03688842 -0.14523882 -0.07789856 -0.08741451 -0.16508444 -0.15583113 -0.15908387
-0.038418077 0.06319176 -0.12789544 -0.11114458 -0.06480674 -0.047484968 -0.16470183 -0.020548021
-0.060147103 -0.07406624 -0.19830169 -0.08726737 -0.08168469 -0.06808597 -0.033478834 -0.2546362
-0.092979364 -0.14875929 -0.11491973 -0.13965866 0.06843397 0.004395353 -0.21293452 0.058971625
0.096385375 -0.12653303 0.1561781 -0.16435748 -0.026880505 -0.0725606 0.061747264 -0.07580658
-0.19398227 -0.1772201 0.0010733892 0.11677149 -0.07709775 -0.15429021 -0.10438719 -0.18934938
-0.012235409 -0.055802397 0.054240786 -0.16018936 -0.042272884 -0.04528686 -0.03980709 0.0642232
-0.01208979 -0.16403477 -0.116466515 0.0024813407 -0.049641535 -0.12871811 0.0 -0.15825905
-0.13262884 -0.058431037 -0.029120049 -0.14031158 -0.096476436 0.0 -0.014920366 -0.20275925
0.06968272 -0.13573115 0.050559375 0.12941468 -0.11125677 -0.07492673 -0.0094985925 -0.13380376
0.059580564 -0.054071043 -0.111709446 -0.034253735 -0.06028651 -0.03623922 -0.016901998 -0.046922326
0.13181783 0.07117279 -0.14100046 -0.057530694 -0.16177884 -0.13674514 -0.057195544 -0.20875639
-0.06065037 0.077810034 -0.06379335 -0.13077801 -0.15930422 -0.08269548 -0.01223387 -0.1223196
-0.042996015 -0.12850088 -0.040333066 -0.07707024 -0.017116256 -0.047201645 -0.07102778 0.02739196
00000000: e794 8fbd ba5b 0ebe 4fab 2ebe 0bf0 1dbe
00000010: ed81 9d3b 27a2 8cbd 2d41 76bd b55d 60bd
00000020: 608b 24bd e4ef 4cbe 30c4 db3c a9a1 4abd
00000030: ce2c 0fbe e956 dabd 2c60 1ebe eb71 eebc
00000040: 45bd bdbd 5018 17bd 7cb9 14be 4889 9fbd
00000050: 6106 b3bd e50b 29be 3292 1fbe e2e6 22be
00000060: 465c 1dbd ae6a 813d 06f7 02be c59f e3bd
00000070: 65b9 84bd 997f 42bd 99a7 28be 5354 a8bc
00000080: cf5c 76bd 0ab0 97bd 990f 4bbe 3cb9 b2bd
00000090: 4e4a a7bd a870 8bbd 1a21 09bd ad5f 82be
000000a0: f76b bebd 5b54 18be 095b ebbd ae02 0fbe
000000b0: 1c27 8c3d e506 903b 820b 5abe 3b8c 713d
000000c0: b265 c53d e091 01be 27ed 1f3e 544d 28be
000000d0: 8134 dcbc a79a 94bd b3ea 7c3d 7b40 9bbd
000000e0: 4aa3 46be 3079 35be f7b0 8c3a e425 ef3d
000000f0: 6de5 9dbd 41fe 1dbe f3c8 d5bd cee4 41be
00000100: 0677 48bc 0e91 64bd 962b 5e3d ae08 24be
00000110: 5526 2dbd b77e 39bd c20c 23bd 7487 833d
00000120: 4114 46bc bbf8 27be ff85 eebd fd9d 223b
00000130: ec54 4bbd aece 03be 0000 0000 a90e 22be
00000140: dbcf 07be 6255 6fbd 2b8d eebc d7ad 0fbe
00000150: 7095 c5bd 0000 0000 8d74 74bc 1fa0 4fbe
00000160: d0b5 8e3d 1bfd 0abe 5917 4f3d 4885 043e
00000170: 97da e3bd 2f73 99bd fc9f 1bbc da03 09be
00000180: c00a 743d 9979 5dbd ecc7 e4bd a54d 0cbd
00000190: fdee 76bd 946f 14bd 0f76 8abc a031 40bd
000001a0: 41fb 063e 0ac3 913d 6d62 10be 4ea5 6bbd
000001b0: 5aa9 25be eb06 0cbe e045 6abd 3cc4 55be
000001c0: 866c 78bd de5a 9f3d 16a6 82bd acea 05be
000001d0: a520 23be 3f5c a9bd 9270 48bc b382 fabd
000001e0: 971c 30bd bc95 03be 4934 25bd 01d7 9dbd
000001f0: 6437 8cbc 8356 41bd 0377 91bd 1b65 e03c

hidden_nets.1.weight f4 [128, 128]
-0.05259753 -0.03605062 0.056804944 -0.10150579 0.02539269 -0.15277086 0.060512226 -0.15716405
0.29769126 0.06719652 0.05013791 -0.17020346 0.008842028 -0.2986422 0.19422792 -0.021123772
-0.15030898 -0.044600844 -0.13532002 0.14272115 -0.10176873 -0.03476089 0.032630328 -0.11385147
-0.1666583 -0.104744464 -0.09269112 -0.018184474 -0.022975706 -0.0838116 0.261379 0.00041570648
-0.035761826 -0.1480917 0.08758338 -0.11336278 0.11140953 -0.09384019 0.098550804 -0.05529014
-0.15708992 -0.04191723 0.095038764 0.10745722 -0.26545808 -0.18042882 0.009723596 -0.07987841
0.023284039 -0.053646352 0.11640737 0.15848415 0.12702867 -0.16913989 -0.040472835 -0.121809825
-0.075827286 -0.09559271 0.15061651 -0.07380442 0.05514304 0.070331514 0.015404031 -0.15298681
0.14648156 0.067228206 -0.02738402 -0.16849531 0.016994864 -0.08409775 0.014084386 -0.18137622
-0.13449365 0.22004893 -0.068846986 0.050055686 0.12376609 0.0064657996 0.119334675 -0.12725677
-0.1793525 -0.09978239 0.048520997 -0.11340966 -0.12665123 -0.04767503 0.088181935 0.18731095
-0.1748211 0.016416283 -0.08412568 -0.042549208 0.066557996 -0.10131711 0.041616283 -0.10452106
-0.09143891 0.10987918 -0.20589016 -0.08474306 -0.036656544 0.007955804 -0.03703299 -0.1770352
0.0815448 -0.07715111 -0.17075542 0.0020654402 0.022676988 -0.12278173 0.09185022 -0.21070747
-0.10100927 -0.22529627 -0.044568878 0.03934565 -0.062571995 -0.015204034 0.1431484 -0.021520961
0.042320233 -0.12556574 0.018811246 -0.10085255 0.16769768 -0.005298436 -0.09426277 0.11875118
0.033110242 0.24439102 0.09744278 -0.07489127 -0.2697204 0.019368062 -0.0007294197 0.16691113
-0.11375549 -0.08434549 -0.063133 -0.013761965 -0.16844735 0.13500096 -0.04607052 0.14204799
-0.19592981 -0.110161 0.005299249 -0.05075145 0.014390506 0.1169163 0.09196814 -0.0086575905
-0.25257936 -0.03507537 -0.0539163 -0.08034682 0.120641656 -0.1804031 -0.10675311 -0.04579886
-0.09126156 -0.09844146 0.08261743 0.030433502 -0.0071631903 -0.101117544 -0.12638055 -0.085305184
-0.09221595 0.02066937 0.20005086 0.025495606 -0.22306332 -0.29882604 0.004944509 -0.3026273
-0.2612069 -0.05847986 -0.38381258 -0.039087802 -0.06444707 0.025508959 -0.4321079 -0.02175288
-0.14993623 -0.014557642 0.1525214 -0.14653614 0.07479105 -0.15084429 0.16448101 -0.060488783
0.14488764 -0.13574153 -0.5656099 -0.113382176 -0.16113156 -0.072678395 -0.04789337 -0.04525104
-0.054202218 -0.055963244 0.081501566 0.010908644 0.059676003 -0.029359287 0.0582486 0.12942958
-0.0395915 -0.10650294 -0.06903039 -0.11349549 -0.11832997 0.13945723 -0.041289445 -0.053202745
0.28410697 -0.098686665 -0.12674953 -0.41693458 0.01965488 -0.14818628 0.0304814 0.061977435
0.08049684 0.05050323 -0.025536837 -0.30636874 -0.27309868 0.04274881 -0.007185341 -0.24176519
-0.20823792 -0.43688917 -0.0053427056 -0.03784182 -0.10417898 -0.1142512 0.04358108 0.08527268
-0.10848688 -0.6419304 0.04065681 -0.11955125 0.12972035 -0.24207836 -0.13261957 0.03786075
-0.109778136 -0.15241499 0.04430996 -0.063767105 -0.031475686 -0.15347652 0.05854821 -0.041475184
00000000: 8270 57bd d1a9 13bd 4dac 683d 45e2 cfbd
00000010: 5504 d03c f76f 1cbe abdb 773d 9def 20be
00000020: fd6a 983e 549e 893d 695d 4d3d d149 2ebe
00000030: 27de 103c a1e7 98be afe3 463e c30b adbc
00000040: 99ea 19be 60af 36bd 5591 0abe 7e25 123e
00000050: 206c d0bd 6f61 0ebd 61a7 053d f62a e9bd
00000060: 79a8 2abe 4484 d6bd d8d4 bdbd 9bf7 94bc
00000070: 8c37 bcbc 6ba5 abbd 78d3 853e 2ef3 d939
00000080: fe7a 12bd 5aa5 17be ea5e b33d bf2a e8bd
00000090: ae2a e43d 492f c0bd 01d5 c93d ea77 62bd
000000a0: 2edc 20be 67b1 2bbd afa3 c23d 8812 dc3d
000000b0: 1fea 87be 55c2 38be b84f 1f3c 4b97 a3bd
000000c0: 2bbe be3c 47bc 5bbd fd66 ee3d ab49 223e
000000d0: ce13 023e 0233 2dbe d8c6 25bd 6e77 f9bd
000000e0: 564b 9bbd 1cc6 c3bd 373b 1a3e c626 97bd
000000f0: abdd 613d f809 903d 3061 7c3c 93a8 1cbe
00000100: 43ff 153e f1ae 893d 7454 e0bc 098a 2cbe
00000110: d038 8b3c 713b acbd 32c2 663c b0ba 39be
00000120: b4b8 09be 8254 613e a6ff 8cbd 3107 4d3d
00000130: 1379 fd3d 0fdf d33b bd65 f43d 994f 02be
00000140: 2fa8 37be b65a ccbd f4bd 463d 5343 e8bd
00000150: dcb0 01be e446 43bd bb98 b43d 71ce 3f3e
00000160: 4d04 33be 717b 863c 164a acbd 1448 2ebd
00000170: 8f4f 883d 587f cfbd d675 2a3d 230f d6bd
00000180: 5344 bbbd 5608 e13d dfd4 52be c58d adbd
00000190: 2c25 16bd 0f59 023c e8af 17bd b748 35be
000001a0: f600 a73d 6701 9ebd 82da 2ebe 565c 073b
000001b0: 17c5 b93c fd74 fbbd f81b bc3d b3c3 57be
000001c0: f3dd cebd 11b4 66be db8d 36bd e728 213d
000001d0: bf25 80bd 571a 79bc 7f95 123e ba4c b0bc
000001e0: fb57 2d3d 4e94 00be 0b1a 9a3c c88b cebd
000001f0: f1b8 2b3e 819e adbb d70c c1bd d233 f33d
00000200: 9b9e 073d a441 7a3e 1590 c73d 9860 99bd
00000210: cb18 8abe c5a9 9e3c 8736 3fba c0ea 2a3e
00000220: a3f8 e8bd 54bd acbd e04b 81bd dd79 61bc
00000230: 767d 2cbe b13d 0a3e 71b4 3cbd 0775 113e
00000240: d3a1 48be 179c e1bd 53a5 ad3b c1e0 4fbd
00000250: 28c6 6b3c d071 ef3d cb59 bc3d 91d8 0dbc
00000260: 1552 81be 31ab 0fbd 57d7 5cbd e08c a4bd
00000270: f912 f73d 97bb 38be 60a1 dabd 9697 3bbd
00000280: 57e7 babd ad9b c9bd 5433 a93d ae4f f93c
00000290: 32b9 eabb b716 cfbd e769 01be 7cb4 aebd
000002a0: b7db bcbd d052 a93c 22da 4c3e 29dc d03c
000002b0: b66a 64be baff 98be 8c05 a23b f7f1 9abe
000002c0: e9bc 85be 9488 6fbd 1583 c4be 881a 20bd
000002d0: d3fc 83bd 2af8 d03c 3f3d ddbe 1933 b2bc
000002e0: e288 19be 2d83 6ebc 922e 1c3e 920d 16be
000002f0: 0d2c 993d ed76 1abe b66d 283e 16c3 77bd
00000300: 6d5d 143e d4ff 0abe cfcb 10bf ea34 e8bd
00000310: acff 24be 69d8 94bd d72b 44bd 2859 39bd
00000320: 2503 5ebd b739 65bd 4bea a63d 2bba 323c
00000330: d36e 743d e382 f0bc 1696 6e3d 3089 043e
00000340: b22a 22bd 371e dabd ce5f 8dbd 5370 e8bd
00000350: fc56 f2bd e0cd 0e3e 1f1f 29bd 1feb 59bd
00000360: 7876 913e 3c1c cabd a1ca 01be 7378 d5be
00000370: 4503 a13c 25be 17be 21b4 f93c 0ddc 7d3d
00000380: 87db a43d 7adc 4e3d a132 d1bc 5ddc 9cbe
00000390: 97d3 8bbe 6019 2f3d 0273 ebbb 4b91 77be
000003a0: 523c 55be f0af dfbe dd11 afbb 0600 1bbd
000003b0: ca5b d5bd 88fc e9bd 1382 323d 71a3 ae3d
000003c0: 5f2e debd 8d55 24bf c187 263d 49d7 f4bd
000003d0: 69d5 043e 64e3 77be 6dcd 07be e013 1b3d
000003e0: 5cd3 e0bd ad12 1cbe 5c7e 353d 5498 82bd
000003f0: a6ec 00bd f328 1dbe 3fd0 6f3d e2e1 29bd

hidden_nets.1.bias f4 [128]
-0.13352542 0.09266312 0.123094685 0.15079972 0.079895936 0.086802475 0.04474376 -0.11917765
0.10843906 0.0883336 0.11050275 0.061164677 0.096226364 0.051192 0.09943383 0.09381311
0.03721703 0.06339846 -0.11434931 0.09678184 0.03579412 0.115955934 0.09928933 0.07630464
0.040474918 -0.06867527 0.062953375 0.05455923 0.07097275 0.06845672 0.066415824 -0.11420891
-0.14069471 0.070719525 0.05907131 -0.11155742 0.098555446 0.071070865 0.10089034 0.050919577
0.089415796 -0.065224 0.07832137 0.059956055 0.12478227 0.07548682 0.10935918 0.08467191
0.10419574 -0.13384987 0.07542203 0.099702284 0.1242149 0.069193766 0.11047501 0.042709276
0.10617416 0.100031644 0.08881142 0.11501251 0.08717465 0.07696208 0.1013548 0.03997566
-0.11904525 0.124583565 -0.08438418 0.04068728 -0.0592821 0.113837846 0.101716444 -0.15606491
0.043174874 0.10849243 0.10934314 0.04825777 0.0872873 0.07597308 0.009882738 -0.0038919416
0.09596122 0.09927985 0.12172792 -0.13701572 0.09144776 0.06149174 0.049898777 -0.15801358
0.0971098 0.038434792 0.07777745 0.10135896 0.106662676 -0.095036425 0.058971334 0.07303142
0.082538284 0.11248523 -0.032788478 0.049775373 0.11610243 0.08882266 0.13344295 0.074258
0.08961896 0.07229508 0.096286446 0.088960916 -0.08469967 0.08216045 0.12066621 -0.09191568
0.10689875 -0.12279238 0.07871985 -0.09601225 0.078311205 0.13839936 -0.081675164 0.09054393
0.090156324 0.061123807 0.04908023 0.108848535 0.06447681 0.10700227 0.1087064 0.057132233
00000000: e3ba 08be 29c6 bd3d 1119 fc3d 3e6b 1a3e
00000010: 7ba0 a33d 7fc5 b13d 3c45 373d 6913 f4bd
00000020: 4c15 de3d 3fe8 b43d 444f e23d d087 7a3d
00000030: 5412 c53d b4ae 513d f7a3 cb3d 1621 c03d
00000040: e270 183d 0dd7 813d f92f eabd 8f35 c63d
00000050: db9c 123d 4e7a ed3d 3458 cb3d 9b45 9c3d
00000060: 07c9 253d 9fa5 8cbd b3ed 803d 8079 5f3d
00000070: 295a 913d 0933 8c3d 0505 883d 5ce6 e9bd
00000080: 4612 10be 66d5 903d c2f4 713d 3778 e4bd
00000090: 70d7 c93d 9a8d 913d 989f ce3d 0c91 503d
000000a0: a11f b73d 2994 85bd f466 a03d 7b94 753d
000000b0: d98d ff3d d598 9a3d b5f7 df3d 7768 ad3d
000000c0: 9364 d53d f10f 09be de76 9a3d b630 cc3d
000000d0: 6264 fe3d 76b5 8d3d b940 e23d ecef 2e3d
000000e0: d771 d93d 64dd cc3d c3e2 b53d ae8b eb3d
000000f0: 9f88 b23d 4c9e 9d3d 1b93 cf3d 85bd 233d
00000100: ffcd f3bd ab25 ff3d 9dd1 acbd b5a7 263d
00000110: cad1 72bd d123 e93d b650 d03d 7bcf 1fbe
00000120: 23d8 303d 4731 de3d 4cef df3d f0a9 453d
00000130: afc3 b23d c697 9b3d 35eb 213c f20f 7fbb
00000140: 5187 c43d 3c53 cb3d 7d4c f93d d94d 0cbe
00000150: f748 bb3d c3de 7b3d a962 4c3d 50ce 21be
00000160: 81e1 c63d cd6d 1d3d c949 9f3d 4995 cf3d
00000170: f671 da3d 75a2 c2bd ed8b 713d 7f91 953d
00000180: d509 a93d a85e e63d 364d 06bd 43e1 4b3d
00000190: 1cc7 ed3d a8e8 b53d 45a5 083e 9414 983d
000001a0: 258a b73d 710f 943d d431 c53d 2431 b63d
000001b0: 0577 adbd bd43 a83d d91f f73d 4a3e bcbd
000001c0: bbed da3d 927a fbbd df37 a13d 12a2 c4bd
000001d0: a061 a03d 90b8 0d3e 4f45 a7bd 196f b93d
000001e0: e1a3 b83d f55c 7a3d 5a08 493d fbeb de3d
000001f0: 6b0c 843d 0224 db3d 76a1 de3d 7d03 6a3d

hidden_nets.2.weight f4 [64, 128]
-0.1118227 0.17559038 -0.0570619 0.09058285 0.15316266 -0.056009836 0.08419768 0.27255476
-0.088128924 0.19750962 0.20290826 0.055701908 -0.07663712 0.092391 -0.023003407 0.06222245
-0.07224368 0.023898417 -0.054145556 0.2077255 0.10872837 0.12668465 -0.007549054 0.12780592
0.11274919 0.2484562 0.23091587 0.024893763 0.10102889 0.3075052 0.08426081 -0.06912249
-0.011326802 0.11591916 -0.032318868 0.13049021 0.17628045 0.14872882 -0.07803417 -0.16683127
0.16903442 0.15372112 0.18866909 -0.11448001 0.38229024 0.2750257 0.12048135 -0.053994194
-0.07463202 0.1880964 -0.25241566 0.19748753 0.37621883 0.23357004 0.4485982 0.05428335
0.11133884 0.05661335 -0.0039092028 0.011065029 0.2867711 -0.051771026 0.20898448 0.12558155
-0.02535828 0.30279213 -0.06407229 0.36348128 0.038171034 0.0940597 -0.17170984 -0.07284392
-0.07581332 0.3232872 -0.13348942 0.2806821 0.15300395 0.14036421 0.16990907 0.3817455
0.08678198 0.0813148 0.25968245 -0.05671843 -0.13112175 0.06610793 -0.09825606 0.12000389
0.3291056 -0.14955704 0.25893646 0.04787498 -0.09659308 -0.0702938 0.011670626 0.0737689
0.32577643 -0.021266527 -0.016779037 -0.15567185 0.06394229 -0.18937658 0.12898058 0.06521512
0.09803397 -0.05985142 -0.10543364 0.14151011 0.0931422 0.19212572 -0.048617765 -0.019742219
0.08468762 0.17819229 -0.09916631 0.082029074 -0.064675 0.2213756 0.0057566427 -0.13437206
-0.057610396 0.19659425 -0.028199397 0.19107787 0.28484318 -0.20375596 0.04117611 0.39722538
-0.04071045 0.29242644 0.13182649 0.16234614 0.36113277 0.07607127 0.4102803 0.12036712
0.26552483 0.019643473 0.11018324 0.11691118 0.11422102 -0.0011453446 0.06531621 0.15038995
-0.13780485 -0.055985436 0.16065022 0.14633794 0.045463033 0.15635064 0.03900114 -0.2254596
0.060998812 0.2065227 0.016884113 -0.13997504 0.19457829 0.20450568 0.33294073 0.10484253
0.15928796 0.15903784 0.04881657 0.11414274 0.23832095 -0.030137377 0.14064549 0.0685909
0.09163819 -0.002056933 0.17132753 -0.10225538 0.17642826 0.21894369 0.2463688 -0.06806484
0.14943096 0.023181336 0.21099497 0.01459626 0.18813092 -0.00026174856 0.3727706 -0.029024309
0.17832983 0.12899631 0.0129796285 0.20129539 0.16572925 0.02580266 0.027223654 0.018770963
0.09700428 0.087486975 0.14399979 0.42235145 0.26040345 0.15386817 0.15379573 -0.0077533238
0.13272853 0.20455243 0.19710259 0.07797247 0.24620777 0.14149643 0.24117719 0.3914914
0.21171407 0.28148276 0.13426246 0.076941356 0.16523947 -0.038922437 0.004261974 0.059562344
0.3707037 0.07630719 0.11807299 0.24678129 0.1416049 0.2089373 -0.012559161 0.045839045
0.24183986 0.07479888 0.1596648 0.04789564 0.17046702 0.046164617 0.28460428 0.025386684
-0.04274516 0.06460765 0.21547116 -0.02427418 -0.08070838 0.18611753 0.114594705 0.15349208
0.10452333 0.022826215 0.08846937 0.05643624 0.07905813 0.022789327 0.28397804 0.13628337
0.001033969 0.3728794 -0.022471594 0.118491195 0.010471717 0.026508283 -0.016792808 0.22193316
00000000: 4d03 e5bd f7cd 333e bdb9 69bd 8083 b93d
00000010: acd6 1c3e 926a 65bd d56f ac3d 4c8c 8b3e
00000020: f07c b4bd f63f 4a3e 2fc7 4f3e af27 643d
00000030: ecf3 9cbd 7e37 bd3d a471 bcbc f8dc 7e3d
00000040: 7ff4 93bd 9dc6 c33c bbc7 5dbd feb5 543e
00000050: fbac de3d 9fb9 013e 0e5e f7bb 8edf 023e
00000060: 0ce9 e63d 4d6b 7e3e 3675 6c3e 01ee cb3c
00000070: 3ce8 ce3d 5271 9d3e ee90 ac3d 1890 8dbd
00000080: 0d94 39bc 0667 ed3d ca60 04bd 3a9f 053e
00000090: dd82 343e 5e4c 183e 61d0 9fbd d1d5 2abe
000000a0: 5c17 2d3e 1269 1d3e 7832 413e 7f74 eabd
000000b0: 8cbb c33e 2bd0 8c3e edbe f63d 0429 5dbd
000000c0: acd8 98bd 589c 403e a03c 81be 2c3a 4a3e
000000d0: c19f c03e fc2c 6f3e aaae e53e 3858 5e3d
000000e0: 9e05 e43d 66e3 673d c518 80bb 184a 353c
000000f0: a9d3 923e db0d 54bd 0700 563e 7398 003e
00000100: 2bbc cfbc 9207 9b3e 5538 83bd 381a ba3e
00000110: 3b59 1c3d 5fa2 c03d b4d4 2fbe 312f 95bd
00000120: 0444 9bbd e685 a53e 73b1 08be 90b5 8f3e
00000130: 11ad 1c3e a3bb 0f3e a5fc 2d3e 2574 c33e
00000140: c0ba b13d 6088 a63d 19f5 843e 9651 68bd
00000150: c844 06be 9863 873d 793a c9bd 99c4 f53d
00000160: 8780 a83e 7b25 19be 5293 843e 8e18 443d
00000170: 98d2 c5bd 32f6 8fbd 2736 3f3c 2614 973d
00000180: 2bcc a63e 2437 aebc 3174 89bc 7168 1fbe
00000190: 2df4 823d efeb 41be 7c13 043e 818f 853d
000001a0: 09c6 c83d c326 75bd 98ed d7bd 07e8 103e
000001b0: 56c1 be3d 9bbc 443e 6c23 47bd 6fba a1bc
000001c0: b470 ad3d 0a78 363e b517 cbbd dcfe a73d
000001d0: 5474 84bd 49b0 623e 38a2 bc3b d498 09be
000001e0: e1f8 6bbd 0150 493e 6c02 e7bc eba9 433e
000001f0: f7d6 913e 67a5 50be 48a8 283d 2061 cb3e
00000200: 00c0 26bd ebb8 953e 86fd 063e 113e 263e
00000210: 65e6 b83e 41cb 9b3d 4210 d23e 0983 f63d
00000220: dff2 873e 59eb a03c c0a7 e13d 216f ef3d
00000230: b6ec e93d 631f 96ba 81c4 853d d3ff 193e
00000240: b71c 0dbe fc50 65bd 7e81 243e 9dd9 153e
00000250: 7237 3a3d 621a 203e a9bf 1f3d e2de 66be
00000260: e4d9 793d b07a 533e 8d50 8a3c 9e55 0fbe
00000270: 883f 473e f069 513e 3577 aa3e aeb7 d63d
00000280: 621c 233e d1da 223e e2f3 473d abc3 e93d
00000290: 680a 743e a9e2 f6bc 5f05 103e 6379 8c3d
000002a0: ceac bb3d 9ccd 06bb 7c70 2f3e 456b d1bd
000002b0: 9ca9 343e c632 603e 1a48 7c3e 9465 8bbd
000002c0: 6e04 193e c9e6 bd3c 110f 583e 2725 6f3c
000002d0: 64a5 403e 4c3b 89b9 cadb be3e 63c4 edbc
000002e0: 189c 363e 9c17 043e 82a8 543c 6120 4e3e
000002f0: eeb4 293e 1a60 d33c 2404 df3c 90c5 993c
00000300: 2eaa c63d 5f2c b33d ae74 133e 733e d83e
00000310: 9a53 853e 9e8f 1d3e a17c 1d3e 980f febb
00000320: fde9 073e 3176 513e 43d5 493e 08b0 9f3d
00000330: e41d 7c3e 71e4 103e 27f7 763e 9071 c83e
00000340: 93cb 583e 821e 903e 197c 093e 6e93 9d3d
00000350: 8934 293e 226d 1fbd 07a8 8b3b a5f7 733d
00000360: e0cc bd3e f246 9c3d 40d0 f13d 3cb4 7c3e
00000370: e000 113e a9f3 553e f0c4 4dbc b9c1 3b3d
00000380: dea4 773e 2830 993d 2b7f 233e 382e 443d
00000390: e88e 2e3e 1c17 3d3d a7b7 913e bcf7 cf3c
000003a0: 8d15 2fbd 0451 843d 79a4 5c3e a5da c6bc
000003b0: 6f4a a5bd 9895 3e3e a1b0 ea3d 072d 1d3e
000003c0: 5410 d63d 0bfe ba3c 6e2f b53d b029 673d
000003d0: 3be9 a13d afb0 ba3c 9265 913e de8d 0b3e
000003e0: 3e86 873a 0cea be3e 5916 b8bc 83ab f23d
000003f0: 9191 2b3c e627 d93c 1291 89bc 7242 633e

hidden_nets.2.bias f4 [64]
0.43649957 0.36156678 1.1468806 1.0511338 1.1103886 1.0749086 -0.03491609 1.0508126
-0.0843532 1.0096242 -0.030870741 1.0288805 0.6368376 0.18343179 0.66583097 1.0662311
1.0060054 -0.07607703 1.0174916 0.8295018 -0.10133478 -0.0315933 1.0454471 -0.031793013
-0.037196033 1.0377431 1.0631883 1.0855619 1.0863271 -0.07631618 1.0598694 1.0744672
1.088776 -0.064084716 0.95115364 1.022764 1.1615039 1.0627124 -0.03906412 1.0442888
0.751581 1.0350238 -0.082438655 1.0404341 1.1031575 -0.12393446 -0.03622593 1.0506142
0.97592604 1.0582613 1.0796316 1.1155988 -0.05143569 0.004649138 1.1169243 1.0981269
1.0723491 0.024981566 1.0195605 0.4576459 -0.09582142 -0.06768709 0.32431555 -0.081087954
00000000: df7c df3e 481f b93e fccc 923f 8d8b 863f
00000010: 3721 8e3f 9b96 893f 2d04 0fbd 0781 863f
00000020: 5fc1 acbd 5e3b 813f a3e4 fcbc 5bb2 833f
00000030: ca07 233f 8bd5 3b3e e673 2a3f 437a 883f
00000040: c9c4 803f 46ce 9bbd 2a3d 823f 3b5a 543f
00000050: 9c88 cfbd fa67 01bd 36d1 853f 6439 02bd
00000060: de5a 18bd c4d4 843f 8e16 883f b1f3 8a3f
00000070: c40c 8b3f a84b 9cbd cda9 873f 2488 893f
00000080: 035d 8b3f d93e 83bd ce7e 733f eee9 823f
00000090: 29ac 943f f606 883f b301 20bd 41ab 853f
000000a0: 9d67 403f a97b 843f 99d5 a8bd f22c 853f
000000b0: 4434 8d3f 5ad1 fdbd a461 14bd 877a 863f
000000c0: 4ad6 793f 1b75 873f 5e31 8a3f f1cb 8e3f
000000d0: 3bae 52bd cc57 983b 60f7 8e3f 6c8f 8c3f
000000e0: bc42 893f 24a6 cc3c f580 823f 9050 ea3e
000000f0: 053e c4bd 879f 8abd b00c a63e 7111 a6bd

value_stream.weight f4 [1, 64]
0.6016656 0.5112345 0.56012595 0.65702915 0.58540666 0.7278116 -0.23732693 0.72044265
-0.057657298 0.77070725 -0.1366793 0.8004166 0.55950344 0.26452383 0.5673208 0.7071314
0.591426 -0.07991352 0.5987047 0.55431396 -0.11241592 -0.18704964 0.8057734 -0.14644599
-0.18018056 0.7553324 0.75931823 0.6972049 0.6540686 -0.18523371 0.5961797 0.7037831
0.61077833 -0.12189964 0.731988 0.70623016 0.55170286 0.7256888 -0.21088634 0.7755775
0.5254537 0.7633652 -0.18268609 0.7777837 0.69550693 -0.2232765 -0.3334681 0.71416473
0.6898718 0.6716417 0.64176464 0.67787206 0.095138825 -0.29014334 0.59901214 0.64120626
0.61108935 -0.19390367 0.5802855 0.5356103 -0.119842276 0.07304418 0.5497448 -0.12646732
00000000: c206 1a3f 44e0 023f 6a64 0f3f 1033 283f
00000010: 36dd 153f dc51 3a3f d505 73be ee6e 383f
00000020: 0f2a 6cbd 124d 453f a9f5 0bbe 1ae8 4c3f
00000030: 9e3b 0f3f ab6f 873e f03b 113f 9006 353f
00000040: b267 173f b3a9 a3bd b644 193f 85e7 0d3f
00000050: 513a e6bd f189 3fbe 2a47 4e3f f0f5 15be
00000060: 4181 38be 775d 413f ae62 423f 057c 323f
00000070: 0a71 273f e8ad 3dbe 3c9f 183f 212b 343f
00000080: f85b 1c3f 85a6 f9bd 9163 3b3f 80cb 343f
00000090: 663c 0d3f bec6 393f 97f2 57be 3f8c 463f
000000a0: 2284 063f e76b 433f 1012 3bbe d51c 473f
000000b0: be0c 323f 98a2 64be 55bc aabe 80d3 363f
000000c0: 709b 303f b6f0 2b3f b04a 243f 0689 2d3f
000000d0: 25d8 c23d ab8d 94be dc58 193f 1826 243f
000000e0: 5a70 1c3f af8e 46be 978d 143f c21d 093f
000000f0: de6f f5bd 3098 953d 13bc 0c3f a680 01be

advantage_stream.weight f4 [5, 64]
-0.057169475 -0.12767678 0.08871839 -0.050637472 0.09028754 -0.03441335 -0.31065404 0.031227114
0.10717545 0.10063318 -0.20597285 0.1056234 -0.02654101 -0.09586667 0.05627103 -0.016711334
0.15455025 0.035503216 0.12313636 -0.01600117 0.06916213 0.14677392 -0.048820533 -0.19344461
0.21716562 0.051652107 0.11820432 0.007252301 0.0038351617 -0.08627043 -0.13538817 0.042867716
-0.015763 0.15596093 0.003080888 0.13080817 0.10027591 0.112507306 -0.14675471 0.11064515
0.031710148 0.16854769 -0.21095653 0.17383066 0.1244603 0.09374421 0.068270825 0.108922146
0.0011261145 -0.0022274586 0.063388824 -0.0536262 -0.05923821 0.14524682 -0.022839384 0.023584627
0.0129039595 0.059166305 0.009452359 -0.008901231 -0.05079949 -0.25734594 -0.09270798 0.089914516
0.015096098 -0.080221795 0.04233017 -0.11216188 0.06779211 -0.033760544 -0.105420634 -0.04336602
0.26751184 0.10030331 0.35332796 0.07242892 -0.006770424 0.2213337 0.05607289 -0.0465311
0.1336043 -0.0377366 0.094970234 -0.03134037 0.16170979 -0.049067967 -0.07927756 -0.12379993
0.19439071 0.012378666 0.06627428 -0.027955182 -0.044586405 0.0137003055 -0.13588019 0.054820284
-0.028001007 0.06990073 0.0035071715 0.12308692 0.06786529 0.12039728 -0.06145292 0.08494695
0.030442087 0.1337506 0.02718454 0.14703707 0.10500191 -0.21162322 -0.20371759 0.06622956
-0.03371407 -0.014556417 0.061487507 -0.0415998 0.04279751 -0.05068606 -0.024565522 0.022675298
-0.015453771 -0.18813425 0.002774951 0.0152691165 -0.15311188 -0.20585056 -0.017476952 -0.10271525
0.012702088 -0.079067975 0.06975769 -0.08394117 0.05827945 -0.04414763 -0.043982543 0.0030133736
-0.0812893 0.08577137 -0.008372109 0.099572435 -0.032776807 -0.23057678 0.09569537 -0.036519416
0.14298113 -0.087669924 0.11873551 -0.013000856 -0.30375943 -0.11427317 -0.034521222 0.10010126
-0.0047443192 0.01788276 0.085081756 -0.015852472 -0.0005935794 -0.25181296 -0.0872643 0.048759982
-0.029672142 0.13956583 -0.048671335 0.100140534 0.07991739 0.11627475 -0.028843291 0.090041906
0.021557871 0.12491795 -0.14223495 0.13065101 0.105266124 -0.010400775 0.014081796 0.111179404
-0.02920227 -0.015866417 0.046430934 -0.04488139 -0.2505827 0.112868 -0.031167235 -0.0031039342
-0.059598476 0.17549284 -0.012144032 -0.067485295 0.17122124 0.17680733 0.05835759 -0.10261869
-0.036841914 0.12874788 0.027810613 -0.12505677 0.043218046 -0.07513253 -0.2375928 -0.0249418
-0.08729796 0.06760339 -0.16478643 0.04412541 -0.02862743 0.44253385 0.03557514 -0.030289844
0.07988982 -0.22625665 0.07268752 -0.06920843 -0.019444227 -0.10768122 -0.1015357 0.10360637
0.29842094 -0.013763297 0.061128538 -0.07449049 -0.026136031 0.20761298 -0.14183816 -0.02091216
-0.036970977 -0.054830626 -0.053955577 0.056597847 0.026768323 0.0583136 -0.026990743 0.06493018
0.017085627 0.10567966 -0.06814735 0.0977574 0.0567241 -0.1602877 -0.19459322 0.0622097
-0.060487997 -0.029747786 0.024662374 -0.07383052 0.0871519 -0.13472126 -0.0846654 -0.04049434
-0.08587774 0.32101622 -0.06842205 0.00029243945 0.10389015 -0.15511774 0.20489329 0.15048297
00000000: 8a2a 6abd b4bd 02be fdb1 b53d 3d69 4fbd
00000010: ace8 b83d 03f5 0cbd 0c0e 9fbe 01d0 ff3c
00000020: cd7e db3d c518 ce3d 8cea 52be 1551 d83d
00000030: 886c d9bc bf55 c4bd 747c 663d 35e6 88bc
00000040: 6c42 1e3e d26b 113d ea2e fc3d e314 83bc
00000050: e0a4 8d3d e74b 163e 0af8 47bd 5816 46be
00000060: aa60 5e3e 2991 533d 1b15 f23d b6a4 ed3b
00000070: 5657 7b3b 8dae b0bd 32a3 0abe 0f96 2f3d
00000080: 6821 81bc 39b4 1f3e b9e8 493b 94f2 053e
00000090: 755d cd3d 3b6a e63d de46 16be ed99 e23d
000000a0: 80e2 013d c497 2c3e fd04 58be aa00 323e
000000b0: 0be5 fe3d f7fc bf3d 93d1 8b3d 9312 df3d
000000c0: 229a 933a 8efa 11bb 00d2 813d 25a7 5bbd
000000d0: c4a3 72bd 95bb 143e a919 bbbc 8c34 c13c
000000e0: 216b 533c 5e58 723d 11de 1a3c 78d6 11bc
000000f0: 2013 50bd d9c2 83be aedd bdbd 1a25 b83d
00000100: a055 773c 534b a4bd 6662 2d3d 21b5 e5bd
00000110: 97d6 8a3d 7f48 0abd c6e6 d7bd 91a0 31bd
00000120: 50f7 883e d26b cd3d 67e7 b43e 9d55 943d
00000130: 6fda ddbb 4da5 623e b0ac 653d 6597 3ebd
00000140: 91cf 083e b191 1abd c17f c23d c35e 00bd
00000150: 4097 253e 7efb 48bd 465c a2bd d18a fdbd
00000160: 5c0e 473e e3cf 4a3c cfba 873d 4402 e5bc
00000170: 3ca0 36bd 3f77 603c 2d24 0bbe 3c8b 603d
00000180: 5e62 e5bc 1d28 8f3d 93d8 653b ff14 fc3d
00000190: f5fc 8a3d d992 f63d 0fb6 7bbd abf8 ad3d
000001a0: af61 f93c ebf5 083e 1db2 de3c e390 163e
000001b0: 3e0b d73d c2b3 58be 589b 50be 5da3 873d
000001c0: c417 0abd 0a7e 6ebc 53da 7b3d 8d64 2abd
000001d0: 714c 2f3d 309c 4fbd a23d c9bc 8cc1 b93c
000001e0: d031 7dbc 44a6 40be f4db 353b 512b 7a3c
000001f0: 5cc9 1cbe 7dca 52be d32b 8fbc 5f5c d2bd
00000200: 6b1c 503c 64ee a1bd 1fdd 8e3d 59e9 abbd
00000210: 6fb6 6e3d 25d4 34bd 0a27 34bd 057c 453b
00000220: 017b a6bd e6a8 af3d 2c2b 09bc a2ec cb3d
00000230: f940 06bd 521c 6cbe effb c33d 6295 15bd
00000240: a569 123e 4a8c b3bd 9a2b f33d 8b01 55bc
00000250: 5b86 9bbe 0d08 eabd 2066 0dbd e401 cd3d
00000260: 3c76 9bbb de7e 923c 583f ae3d 0bdd 81bc
00000270: 709a 1bba a1ed 80be a0b7 b2bd 8cb8 473d
00000280: fe12 f3bc 58ea 0e3e 985b 47bd 7b16 cd3d
00000290: bbab a33d 7521 ee3d c448 ecbc e467 b83d
000002a0: 229a b03c fbd4 ff3d 0aa6 11be 61c9 053e
000002b0: c495 d73d 0368 2abc 55b7 663c 07b2 e33d
000002c0: 9939 efbc 4afa 81bc 5d2e 3e3d 8cd5 37bd
000002d0: 604c 80be 5727 e73d 6e52 ffbc 606b 4bbb
000002e0: 881d 74bd 65b4 333e c3f7 46bc bb35 8abd
000002f0: 9f54 2f3e fb0c 353e 5e08 6f3d bf29 d2bd
00000300: 8ce7 16bd 7cd6 033e 15d3 e33c e20e 00be
00000310: 6805 313d 15df 99bd 874b 73be bf52 ccbc
00000320: 46c9 b2bd a573 8a3d c6bd 28be d9bc 343d
00000330: 1284 eabc cc93 e23e 3db7 113d 6822 f8bc
00000340: 469d a33d d3af 67be 32dd 943d 26bd 8dbd
00000350: 8049 9fbc f987 dcbd f3f1 cfbd 942f d43d
00000360: a1ca 983e 747f 61bc eb61 7a3d 788e 98bd
00000370: 3b1b d6bc 7f98 543e 063e 11be fa4f abbc
00000380: e16e 17bd 1496 60bd 8600 5dbd 25d3 673d
00000390: 3e49 db3c 3eda 6e3d b11b ddbc 1dfa 843d
000003a0: 28f7 8b3c 946e d83d d690 8bbd 0835 c83d
000003b0: 8857 683d 7522 24be 7243 47be 99cf 7e3d
000003c0: 43c2 77bd a1b1 f3bc bf08 ca3c 7534 97bd
000003d0: b27c b23d 5ff4 09be 0e65 adbd 65dd 25bd
000003e0: abe0 afbd 3d5c a43e dc20 8cbd 8f52 9939
000003f0: 5cc4 d43d 2fd7 1ebe 8ccf 513e 3518 1a3e

advantage_stream.bias f4 [5]
-0.64615434 -0.09596508 -0.11965203 1.0662748 -0.8080743
00000000: 5f6a 25bf 5789 c4bd 200c f5bd b17b 883f
00000010: f5dd 4ebf

hidden_nets.0.weight f4 [128, 11]
0.111607864 -0.006876886 -0.1935041 -0.09147441 0.020708665 0.07332432 0.027917026 -0.091815926
0.113771275 -0.11784592 0.007076182 0.2511961 0.063519314 -0.060915314 -0.10394863 0.0055707945
-0.01879464 -0.12296974 -0.30470005 -0.1758896 -0.056624744 -0.049486842 -0.12033642 -0.21452586
-0.1199428 -0.083794594 0.17019099 -0.10713367 0.0679652 0.018709991 -0.1334906 -0.06778956
0.054112647 -0.15323359 -0.16151093 -0.060383305 -0.26308513 0.13671805 -0.18299519 0.08335751
-0.12464637 0.069605 0.012732749 0.08318957 0.10657505 0.037833337 -0.21378435 -0.057022244
-0.30319753 -0.15552503 -0.029607566 -0.07705205 0.0071587595 -0.029413693 -0.08343649 0.06793586
-0.21071593 -0.19161713 -0.3683795 0.08620804 -0.18798438 -0.08544742 -0.10190922 0.10748033
0.013493563 0.10285615 -0.1414571 -0.007149845 -0.24089062 -0.0554704 -0.05059685 -0.018037675
-0.07754657 -0.066493094 -0.13832478 -0.18791518 -0.11724839 -0.12372447 -0.062759645 -0.05481441
-0.13828702 -0.117348425 0.09350775 0.1012452 -0.057890303 0.13473244 -0.23716302 0.039615534
-0.16820519 -0.011891142 -0.11210867 0.067615174 -0.05353836 -0.30628565 -0.13930191 -0.10500694
-0.1192122 -0.15756679 0.026604893 -0.15995802 -0.31077787 0.09248316 0.01606049 0.20789428
0.006347201 -0.0018509326 -0.015061304 0.038777187 -0.10770257 0.019879421 -0.2258604 0.14483055
-0.14073506 0.036082704 -0.3096211 0.13117188 0.050622605 0.10468501 -0.14319733 0.1486088
0.015725367 -0.15860847 -0.18989035 0.18567266 -0.15386984 0.005147603 -0.13852087 -0.09818406
-0.24144018 0.06302785 0.05617158 -0.10900503 -0.3235819 -0.06932891 0.065393694 -0.21127312
0.004457168 0.043403793 0.107325554 -0.0029108548 0.078979336 0.07922043 -0.03617731 -0.12627491
-0.21876626 0.14597213 0.074233726 0.15907119 -0.038635354 -0.031054568 -0.26844013 0.14780305
-0.04568194 0.06729528 0.17089024 -0.18524112 -0.10193986 -0.021218423 0.09038509 -0.07143039
-0.04022447 -0.16510755 -0.12930626 0.12801678 0.0048634554 -0.05806228 0.021406673 -0.18920444
-0.083243616 -0.18545331 0.08108893 0.03281856 -0.120792165 0.12228032 -0.19140448 0.089613825
0.01894465 -0.1821022 -0.00056916726 0.0795734 -0.31437516 0.011117759 0.041301813 0.0685698
0.006342207 0.1298642 0.119651146 0.069913216 -0.07063664 -0.23630333 0.04832458 -0.005823813
-0.13486423 -0.1447284 -0.18467017 -0.11999551 -0.0637716 -0.07305659 -0.051772214 -0.19059363
0.009167407 -0.035122614 0.1636735 0.0051323683 0.017148623 -0.028421437 0.13903357 0.039607227
0.023869326 0.14668538 -0.021702435 -0.18851617 -0.4435759 -0.2582488 0.0840764 0.0052272556
-0.199302 0.00019192164 0.12550433 -0.088011116 0.115849905 -0.05204745 0.039567146 -0.0018647645
0.12888266 -0.06004574 -0.0014875502 -0.27931234 0.094771996 -0.007807478 -0.043063898 0.0696991
-0.06284322 -0.08055082 -0.11954528 0.12358006 -0.010589645 -0.00922017 -0.10101611 -0.17497957
0.044453576 -0.018310882 -0.3145273 0.016321087 -0.12932515 0.1271098 0.042350605 -0.2565197
0.015346262 0.016791381 -0.1498497 -0.06469406 0.0145636145 -0.17558281 -0.08754333 0.07240463
00000000: aa92 e43d 8057 e1bb f025 46be ef56 bbbd
00000010: 38a5 a93c 102b 963d 3fb2 e43c fd09 bcbd
00000020: ea00 e93d 3459 f1bd 51df e73b c69c 803e
00000030: 6a16 823d 5682 79bd 05e3 d4bd 368b b63b
00000040: 38f7 99bc 8fd7 fbbd a501 9cbe 671c 34be
00000050: 59ef 67bd b7b2 4abd f172 f6bd abac 5bbe
00000060: 92a4 f5bd 809c abbd 8c46 2e3e e668 dbbd
00000070: 5731 8b3d b245 993c c3b1 08be 41d5 8abd
00000080: 39a5 5d3d 44e9 1cbe 1f63 25be 7c54 77bd
00000090: 18b3 86be d1ff 0b3e 1763 3bbe 58b7 aa3d
000000a0: 9946 ffbd 118d 8e3d 059d 503c 4b5f aa3d
000000b0: 0544 da3d 21f7 1a3d 49ea 5abe 2890 69bd
000000c0: b53c 9bbe f441 1fbe 918b f2bc 77cd 9dbd
000000d0: 0794 ea3b fcf4 f0bc c0e0 aabd f521 8b3d
000000e0: ebc5 57be 4837 44be 3d9c bcbe d78d b03d
000000f0: fa7e 40be 0fff aebd c8b5 d0bd a61e dc3d
00000100: 1b14 5d3c 3fa6 d23d 21da 10be 3f49 eabb
00000110: 08ac 76be ee34 63bd a53e 4fbd bfc3 93bc
00000120: bcd0 9ebd 882d 88bd 03a5 0dbe d66c 40be
00000130: ed1f f0bd 4163 fdbd 2188 80bd 1385 60bd
00000140: 1d9b 0dbe 5f54 f0bd fe80 bf3d a559 cf3d
00000150: 621e 6dbd 4df7 093e ddda 72be e643 223d
00000160: fb3d 2cbe 11d3 42bc 3b99 e5bd d379 8a3d
00000170: 0a4b 5bbd 79d1 9cbe 29a5 0ebe e10d d7bd
00000180: 8725 f4bd 3059 21be 81f2 d93c 09cc 23be
00000190: 471e 9fbe d067 bd3d 4a91 833c 3de2 543e
000001a0: 2efc cf3b fe9a f2ba b0c3 76bc d4d4 1e3d
000001b0: 2a93 dcbd 2bda a23c f347 67be 764e 143e
000001c0: da1c 10be 75cb 133d a886 9ebe ec51 063e
000001d0: a659 4f3d 1865 d63d 52a2 12be e82c 183e
000001e0: 7cd2 803c 426a 22be 9e72 42be f920 3e3e
000001f0: 0e90 1dbe 39ad a83b 6ad8 0dbe b914 c9bd
00000200: 183c 77be bf14 813d 2c14 663d 073e dfbd
00000210: 87ac a5be 51fc 8dbd 21ed 853d fb57 58be
00000220: 6f0d 923b 2dc8 313d 80cd db3d 0ac4 3ebb
00000230: ebbf a13d 523e a23d a92e 14bd 364e 01be
00000240: 4304 60be b879 153e da07 983d 8fe3 223e
00000250: 1b40 1ebd 2666 febc fc70 89be af59 173e
00000260: fc1c 3bbd 1cd2 893d dafd 2e3e d9af 3dbe
00000270: d8c5 d0bd 42d2 adbc d11b b93d 194a 92bd
00000280: 6ac2 24bd f411 29be dc68 04be d516 033e
00000290: 9f5d 9f3b b7d2 6dbd 0c5d af3c cfbe 41be
000002a0: a17b aabd 79e7 3dbe f411 a63d c16c 063d
000002b0: e261 f7bd 1b6e fa3d 89ff 43be 7487 b73d
000002c0: d031 9b3c 0079 3abe 2b34 15ba 61f7 a23d
000002d0: c8f5 a0be 4327 363c 172c 293d 536e 8c3d
000002e0: 4ad2 cf3b 1ffb 043e a90b f53d a92e 8f3d
000002f0: f1a9 90bd 80f9 71be ffef 453d afd5 bebb
00000300: d919 0abe af33 14be 2d1a 3dbe 35c0 f5bd
00000310: af9a 82bd b29e 95bd 1a0f 54bd fa2a 43be
00000320: e432 163c bbdc 0fbd 079a 273e 6d2d a83b
00000330: 457b 8c3c 13d4 e8bc d15e 0e3e 303b 223d
00000340: 9b89 c33c b134 163e 4ec9 b1bc 620a 41be
00000350: 611c e3be 3039 84be 3f30 ac3d 6649 ab3b
00000360: d315 4cbe 933e 4939 3584 003e 2c3f b4bd
00000370: b742 ed3d b52f 55bd 2911 223d 1d6b f4ba
00000380: d1f9 033e 86f2 75bd e7f9 c2ba 0702 8fbe
00000390: d217 c23d dfd5 ffbb c563 30bd 67be 8e3d
000003a0: f2b3 80bd d4f7 a4bd 28d4 f4bd 8b17 fd3d
000003b0: 3180 2dbc 3210 17bc 89e1 cebd d82d 33be
000003c0: f414 363d b400 96bc b909 a1be cdb3 853c
000003d0: d06d 04be 1229 023e d477 2d3d 8d56 83be
000003e0: e36e 7b3c 148e 893c 3372 19be 527e 84bd
000003f0: 3a9c 6e3c fbcb 33be eb49 b3bd e148 943d

hidden_nets.0.bias f4 [128]
-0.07010823 -0.13902178 -0.17057537 -0.154236 0.004806748 -0.068668656 -0.06012075 -0.054776866
-0.04017198 -0.20013386 0.029510785 -0.049470577 -0.13981935 -0.10661108 -0.15466374 -0.029107055
-0.09264616 -0.03688842 -0.14523882 -0.07789856 -0.08741451 -0.16508444 -0.15583113 -0.15908387
-0.038418077 0.06252398 -0.12789544 -0.11114458 -0.06480674 -0.047484968 -0.16470183 -0.020548021
-0.060147103 -0.07406624 -0.19830169 -0.08726737 -0.080497876 -0.06808597 -0.033478834 -0.2546362
-0.092979364 -0.14875929 -0.11491973 -0.14045967 0.060623802 0.009598524 -0.21293452 0.06075874
0.09636202 -0.12653303 0.15412052 -0.16435748 -0.026880505 -0.0725606 0.06545025 -0.07580658
-0.19398227 -0.1772201 0.0010733892 0.110312834 -0.07709775 -0.15429021 -0.10438719 -0.18934938
-0.012235409 -0.055802397 0.05836673 -0.16018936 -0.042272884 -0.04528686 -0.03980709 0.067922145
-0.01208979 -0.16403477 -0.116466515 0.0024813407 -0.05236311 -0.13658218 0.0 -0.15825905
-0.13262884 -0.058431037 -0.029120049 -0.14031158 -0.096476436 0.0 -0.014920366 -0.2065301
0.07228371 -0.13573115 0.0406207 0.13167918 -0.11125677 -0.07492673 -0.0094985925 -0.13380376
0.07229969 -0.053320512 -0.111709446 -0.034253735 -0.06028651 -0.033824608 -0.016901998 -0.046922326
0.12922528 0.06832586 -0.14100046 -0.057530694 -0.16177884 -0.13674514 -0.0558348 -0.20875639
-0.06065037 0.07913768 -0.055005785 -0.13077801 -0.15930422 -0.08269548 -0.01223387 -0.1223196
-0.042996015 -0.12850088 -0.040333066 -0.07707024 -0.01329185 -0.047201645 -0.07102778 0.029895814
00000000: e794 8fbd ba5b 0ebe 4fab 2ebe 0bf0 1dbe
00000010: ed81 9d3b 27a2 8cbd 2d41 76bd b55d 60bd
00000020: 608b 24bd e4ef 4cbe 9ac0 f13c a9a1 4abd
00000030: ce2c 0fbe e956 dabd 2c60 1ebe eb71 eebc
00000040: 45bd bdbd 5018 17bd 7cb9 14be 4889 9fbd
00000050: 6106 b3bd e50b 29be 3292 1fbe e2e6 22be
00000060: 465c 1dbd 930c 803d 06f7 02be c59f e3bd
00000070: 65b9 84bd 997f 42bd 99a7 28be 5354 a8bc
00000080: cf5c 76bd 0ab0 97bd 990f 4bbe 3cb9 b2bd
00000090: 12dc a4bd a870 8bbd 1a21 09bd ad5f 82be
000000a0: f76b bebd 5b54 18be 095b ebbd a9d4 0fbe
000000b0: aa50 783d 2143 1d3c 820b 5abe 28de 783d
000000c0: 7359 c53d e091 01be c5d1 1d3e 544d 28be
000000d0: 8134 dcbc a79a 94bd c80a 863d 7b40 9bbd
000000e0: 4aa3 46be 3079 35be f7b0 8c3a b2eb e13d
000000f0: 6de5 9dbd 41fe 1dbe f3c8 d5bd cee4 41be
00000100: 0677 48bc 0e91 64bd f411 6f3d ae08 24be
00000110: 5526 2dbd b77e 39bd c20c 23bd c41a 8b3d
00000120: 4114 46bc bbf8 27be ff85 eebd fd9d 223b
00000130: b37a 56bd 33dc 0bbe 0000 0000 a90e 22be
00000140: dbcf 07be 6255 6fbd 2b8d eebc d7ad 0fbe
00000150: 7095 c5bd 0000 0000 8d74 74bc a07c 53be
00000160: 7b09 943d 1bfd 0abe e461 263d e8d6 063e
00000170: 97da e3bd 2f73 99bd fc9f 1bbc da03 09be
00000180: dc11 943d 9c66 5abd ecc7 e4bd a54d 0cbd
00000190: fdee 76bd ac8b 0abd 0f76 8abc a031 40bd
000001a0: a253 043e 6eee 8b3d 6d62 10be 4ea5 6bbd
000001b0: 5aa9 25be eb06 0cbe 08b3 64bd 3cc4 55be
000001c0: 866c 78bd f012 a23d bf4d 61bd acea 05be
000001d0: a520 23be 3f5c a9bd 9270 48bc b382 fabd
000001e0: 971c 30bd bc95 03be 4934 25bd 01d7 9dbd
000001f0: 0fc6 59bc 8356 41bd 0377 91bd 11e8 f43c

hidden_nets.1.weight f4 [128, 128]
-0.05259753 -0.03605062 0.056804944 -0.10150579 0.02539269 -0.15277086 0.060512226 -0.15716405
0.29769126 0.06719652 0.05013791 -0.17020346 0.008842028 -0.2986422 0.19422792 -0.021123772
-0.15030898 -0.044600844 -0.13532002 0.14272115 -0.10176873 -0.03476089 0.032630328 -0.11385147
-0.1666583 -0.104744464 -0.09269112 -0.018184474 -0.022975706 -0.0838116 0.261379 0.00041570648
-0.035761826 -0.1480917 0.08758338 -0.11336278 0.11140953 -0.09384019 0.098550804 -0.05529014
-0.15708992 -0.04191723 0.095038764 0.10745722 -0.26545808 -0.18042882 0.009723596 -0.07987841
0.023284039 -0.053646352 0.11640737 0.15848415 0.12702867 -0.16913989 -0.040472835 -0.121809825
-0.075827286 -0.09559271 0.15061651 -0.07380442 0.05514304 0.070331514 0.015404031 -0.15298681
0.14648156 0.067228206 -0.02738402 -0.16849531 0.016994864 -0.08409775 0.014084386 -0.18137622
-0.13449365 0.22004893 -0.068846986 0.050055686 0.12376609 0.0064657996 0.119334675 -0.12725677
-0.1793525 -0.09978239 0.048520997 -0.11340966 -0.12665123 -0.04767503 0.088181935 0.18731095
-0.1748211 0.016416283 -0.08412568 -0.042549208 0.066557996 -0.10131711 0.041616283 -0.10452106
-0.09143891 0.10987918 -0.20589016 -0.08474306 -0.036656544 0.007955804 -0.03703299 -0.1770352
0.0815448 -0.07715111 -0.17075542 0.0020654402 0.022676988 -0.12278173 0.09185022 -0.21070747
-0.10100927 -0.22529627 -0.044568878 0.03934565 -0.062571995 -0.015204034 0.1431484 -0.021520961
0.042320233 -0.12556574 0.018811246 -0.10085255 0.16769768 -0.005298436 -0.09426277 0.11875118
0.033110242 0.24439102 0.09744278 -0.07489127 -0.2697204 0.019368062 -0.0007294197 0.16691113
-0.11375549 -0.08434549 -0.06325598 -0.013761965 -0.16844735 0.13500096 -0.04607052 0.14204799
-0.19592981 -0.110161 0.005299249 -0.05075145 0.014390506 0.1169163 0.09196814 -0.0086575905
-0.25257936 -0.03423746 -0.0539163 -0.08034682 0.120641656 -0.1804031 -0.10675311 -0.04579886
-0.09126156 -0.09844146 0.08261743 0.030433502 -0.0071631903 -0.101117544 -0.12638055 -0.085305184
-0.09221595 0.02066937 0.20005086 0.028463183 -0.22306332 -0.30368432 0.004944509 -0.30200195
-0.2664086 -0.05847986 -0.38357577 -0.039087802 -0.06444707 0.025508959 -0.43193296 -0.02175288
-0.14993623 -0.014557642 0.1525214 -0.14653614 0.07479105 -0.15084429 0.16448101 -0.060488783
0.14488764 -0.13574153 -0.57032233 -0.113382176 -0.16113156 -0.072678395 -0.04789337 -0.04533585
-0.054202218 -0.055963244 0.081501566 0.010908644 0.05755073 -0.02854281 0.0582486 0.12942958
-0.0395915 -0.10650294 -0.06903039 -0.11349549 -0.11832997 0.13945723 -0.041289445 -0.04506342
0.28349215 -0.098686665 -0.12674953 -0.4285426 0.01965488 -0.14818628 0.0304814 0.061977435
0.07964123 0.05074656 -0.025536837 -0.30636874 -0.27309868 0.040803615 -0.007185341 -0.24176519
-0.20866998 -0.4379425 -0.0053427056 -0.03784182 -0.10417898 -0.1142512 0.041687746 0.08527268
-0.10848688 -0.6519857 0.04065681 -0.11955125 0.12972035 -0.24207836 -0.13261957 0.03786075
-0.109778136 -0.15241499 0.04430996 -0.063767105 -0.03173789 -0.15347652 0.05854821 -0.03987241
00000000: 8270 57bd d1a9 13bd 4dac 683d 45e2 cfbd
00000010: 5504 d03c f76f 1cbe abdb 773d 9def 20be
00000020: fd6a 983e 549e 893d 695d 4d3d d149 2ebe
00000030: 27de 103c a1e7 98be afe3 463e c30b adbc
00000040: 99ea 19be 60af 36bd 5591 0abe 7e25 123e
00000050: 206c d0bd 6f61 0ebd 61a7 053d f62a e9bd
00000060: 79a8 2abe 4484 d6bd d8d4 bdbd 9bf7 94bc
00000070: 8c37 bcbc 6ba5 abbd 78d3 853e 2ef3 d939
00000080: fe7a 12bd 5aa5 17be ea5e b33d bf2a e8bd
00000090: ae2a e43d 492f c0bd 01d5 c93d ea77 62bd
000000a0: 2edc 20be 67b1 2bbd afa3 c23d 8812 dc3d
000000b0: 1fea 87be 55c2 38be b84f 1f3c 4b97 a3bd
000000c0: 2bbe be3c 47bc 5bbd fd66 ee3d ab49 223e
000000d0: ce13 023e 0233 2dbe d8c6 25bd 6e77 f9bd
000000e0: 564b 9bbd 1cc6 c3bd 373b 1a3e c626 97bd
000000f0: abdd 613d f809 903d 3061 7c3c 93a8 1cbe
00000100: 43ff 153e f1ae 893d 7454 e0bc 098a 2cbe
00000110: d038 8b3c 713b acbd 32c2 663c b0ba 39be
00000120: b4b8 09be 8254 613e a6ff 8cbd 3107 4d3d
00000130: 1379 fd3d 0fdf d33b bd65 f43d 994f 02be
00000140: 2fa8 37be b65a ccbd f4bd 463d 5343 e8bd
00000150: dcb0 01be e446 43bd bb98 b43d 71ce 3f3e
00000160: 4d04 33be 717b 863c 164a acbd 1448 2ebd
00000170: 8f4f 883d 587f cfbd d675 2a3d 230f d6bd
00000180: 5344 bbbd 5608 e13d dfd4 52be c58d adbd
00000190: 2c25 16bd 0f59 023c e8af 17bd b748 35be
000001a0: f600 a73d 6701 9ebd 82da 2ebe 565c 073b
000001b0: 17c5 b93c fd74 fbbd f81b bc3d b3c3 57be
000001c0: f3dd cebd 11b4 66be db8d 36bd e728 213d
000001d0: bf25 80bd 571a 79bc 7f95 123e ba4c b0bc
000001e0: fb57 2d3d 4e94 00be 0b1a 9a3c c88b cebd
000001f0: f1b8 2b3e 819e adbb d70c c1bd d233 f33d
00000200: 9b9e 073d a441 7a3e 1590 c73d 9860 99bd
00000210: cb18 8abe c5a9 9e3c 8736 3fba c0ea 2a3e
00000220: a3f8 e8bd 54bd acbd 5a8c 81bd dd79 61bc
00000230: 767d 2cbe b13d 0a3e 71b4 3cbd 0775 113e
00000240: d3a1 48be 179c e1bd 53a5 ad3b c1e0 4fbd
00000250: 28c6 6b3c d071 ef3d cb59 bc3d 91d8 0dbc
00000260: 1552 81be 943c 0cbd 57d7 5cbd e08c a4bd
00000270: f912 f73d 97bb 38be 60a1 dabd 9697 3bbd
00000280: 57e7 babd ad9b c9bd 5433 a93d ae4f f93c
00000290: 32b9 eabb b716 cfbd e769 01be 7cb4 aebd
000002a0: b7db bcbd d052 a93c 22da 4c3e 9f2b e93c
000002b0: b66a 64be 837c 9bbe 8c05 a23b 00a0 9abe
000002c0: b566 88be 9488 6fbd 0b64 c4be 881a 20bd
000002d0: d3fc 83bd 2af8 d03c 5126 ddbe 1933 b2bc
000002e0: e288 19be 2d83 6ebc 922e 1c3e 920d 16be
000002f0: 0d2c 993d ed76 1abe b66d 283e 16c3 77bd
00000300: 6d5d 143e d4ff 0abe a500 12bf ea34 e8bd
00000310: acff 24be 69d8 94bd d72b 44bd 16b2 39bd
00000320: 2503 5ebd b739 65bd 4bea a63d 2bba 323c
00000330: 50ba 6b3d 9cd2 e9bc 1696 6e3d 3089 043e
00000340: b22a 22bd 371e dabd ce5f 8dbd 5370 e8bd
00000350: fc56 f2bd e0cd 0e3e 1f1f 29bd 6c94 38bd
00000360: e225 913e 3c1c cabd a1ca 01be f069 dbbe
00000370: 4503 a13c 25be 17be 21b4 f93c 0ddc 7d3d
00000380: f11a a33d a0db 4f3d a132 d1bc 5ddc 9cbe
00000390: 97d3 8bbe b121 273d 0273 ebbb 4b91 77be
000003a0: 95ad 55be 003a e0be dd11 afbb 0600 1bbd
000003b0: ca5b d5bd 88fc e9bd c5c0 2a3d 71a3 ae3d
000003c0: 5f2e debd 89e8 26bf c187 263d 49d7 f4bd
000003d0: 69d5 043e 64e3 77be 6dcd 07be e013 1b3d
000003e0: 5cd3 e0bd ad12 1cbe 5c7e 353d 5498 82bd
000003f0: 97ff 01bd f328 1dbe 3fd0 6f3d 4151 23bd
