hyperopt_results/models/arch_simpler_20250906_230524/dqn_racing_episode_100.pth (torch, 186461 bytes, 28 tensors)

hidden_nets.0.weight f4 [128, 11]
000000 f6 ea c7 3c 9f be 1b 3e 36 f0 83 3d 13 de ad bd
       0.02440403 0.15209435 0.06442301 -0.08489623
000010 91 4b 11 bd ea 91 1d bf 38 f2 4c 3e cc 59 e4 bd
       -0.035472456 -0.6155077 0.20014274 -0.1114994
000020 ee 30 29 be 38 a2 ae bb ed 72 1c be b9 56 99 bd
       -0.16522571 -0.0053293966 -0.15278216 -0.07487244
000030 2e 41 2c be af a1 9e 3d 5d c5 09 3e c0 c0 d1 3c
       -0.16821739 0.077456824 0.13454194 0.025604606
000040 fb 03 19 be 77 06 0c 3e 60 4f 2a 3e aa 92 66 bd
       -0.14942925 0.13674341 0.16631842 -0.056292213
000050 0b 4e 9e 3e 61 ff d2 3d 82 bf 9a 3c 49 52 3e bd
       0.30918917 0.10302616 0.018890146 -0.046465192
000060 fb 7f 95 be ee 17 22 bd 0b c8 7a 3e d2 84 c7 bd
       -0.29199204 -0.039573602 0.24490373 -0.0974213
000070 48 1f 0b be f9 fd c3 3b 65 5b 2a 3e 04 12 a7 bd
       -0.13586152 0.0059812036 0.16636427 -0.08157733
000080 db 7e 95 3c 71 e0 a1 bc fc de ef bd c5 54 0e be
       0.018248966 -0.019760342 -0.11712453 -0.13899525
000090 85 fb 73 be c1 86 8c bd 2f 14 61 bd 78 e5 a5 3d
       -0.23826416 -0.0686164 -0.05495089 0.08100408
0000a0 1c 5f a5 bc 64 14 cf bd 33 08 2a 3e 1f 06 43 3e
       -0.020186953 -0.10111311 0.1660469 0.19045304
0000b0 60 14 0d bd 6b 54 53 bd a8 6d 20 be fe 08 7c be
       -0.03444326 -0.05159418 -0.1566683 -0.24612805
0000c0 72 ce b0 bc 7c 44 40 bd ca 8f 1e 3e c2 3c e8 bd
       -0.021582816 -0.04694031 0.15484539 -0.11339714
0000d0 55 42 30 bd d1 23 18 3e af 36 73 3e 0a b3 91 3e
       -0.04303201 0.14857413 0.23751329 0.28456908
0000e0 7e f0 d9 bd 49 60 0d bd 2e 83 b7 3c cc 7a 09 3e
       -0.10641573 -0.034515653 0.022401419 0.1342575
0000f0 f7 e2 9d 3d d3 0c b8 bc 5e 51 d7 bc f3 bf 52 be
       0.07709306 -0.022467053 -0.026283916 -0.20581035
000100 97 98 ea bc d3 64 5a bd 61 80 ca 3d 8a b4 1d be
       -0.028637214 -0.05331881 0.098877676 -0.15400901
000110 46 0f a2 3d d3 ff f0 3c 7f 19 24 3e 37 ad f2 be
       0.079130694 0.029418861 0.16025351 -0.47397777
000120 d2 f2 47 3e 98 fb ec bd ff 0f 21 3e ed 40 3c 3c
       0.19526222 -0.11571425 0.15728758 0.011490089
000130 6a 7b 90 bd 31 ec 38 3e 85 26 24 be 9a 26 c5 be
       -0.07054789 0.1805885 -0.16030319 -0.38506013
000140 ce d7 98 bb 8d 65 59 bd 18 5a ea bc 05 34 7b 3e
       -0.004664398 -0.053075362 -0.028607413 0.24531563
000150 8f a4 3b be f0 af 99 bd 2c ca 1d bd f0 ec 52 bd
       -0.18324493 -0.075042605 -0.038522884 -0.051495492
000160 64 98 60 3d 4f c0 d9 bd 9e 4a 30 be a8 22 76 3e
       0.05483283 -0.10632383 -0.17215964 0.24036658
000170 12 1c 85 be 5a 49 99 3d 5a 84 0e bd ba 94 05 3e
       -0.25997978 0.07484694 -0.03479419 0.13045016
000180 8b c0 c9 3d 60 48 48 3d e6 8e 22 bd df b5 87 3c
       0.09851178 0.048897147 -0.03968706 0.016566215
000190 e0 84 b6 bd b1 54 4e be f4 02 33 3e c0 64 4b be
       -0.08912063 -0.20149495 0.17481595 -0.19862652
0001a0 8f 14 06 be 7e a6 97 bd b4 9b 42 be 8d 19 25 be
       -0.1309378 -0.07404803 -0.19004709 -0.16123028
0001b0 4a 91 de bd 17 67 c9 3c 02 59 42 be 0d 54 a0 bd
       -0.108675554 0.02458529 -0.18979266 -0.078285314
0001c0 6a 1d 3c be 7c 0a b2 be 49 94 96 bd 14 99 ba 3d
       -0.18370596 -0.34773624 -0.07352502 0.091112286
0001d0 f3 b4 e1 3d 1a a4 83 3e 70 4d ba bd fc 6b 00 bc
       0.110208414 0.25711137 -0.09096801 -0.0078382455
0001e0 41 58 d6 bc 26 97 3a 3e 34 ce 87 3d 7d e6 91 bc
       -0.02616513 0.18221721 0.06631127 -0.0178101
0001f0 60 37 8a 3d ba 8e 51 be 07 87 11 be fd ea b2 bd
       0.06748843 -0.20464602 -0.14211665 -0.08736227
000200 01 97 40 be d4 ac 20 be cb 9e 23 be e6 4c 74 3d
       -0.18807603 -0.15690929 -0.15978543 0.05964365
000210 f5 2d 26 3e 5e c9 05 bd af 0b 4b bd e6 06 c9 bc
       0.16228469 -0.03266274 -0.04957169 -0.024539422
000220 50 6e 53 3e f5 86 06 be 77 b6 f7 3c f1 8f 22 3d
       0.2064755 -0.1313742 0.030238373 0.039688054
000230 7c 87 94 bd 46 9f 10 3e 84 70 94 38 74 c7 1f bd
       -0.07252404 0.14123258 7.0781476e-05 -0.039008573
000240 19 35 42 3e 4f ce 54 3e 84 37 30 3d 18 78 c5 bd
       0.18965568 0.20781825 0.043021694 -0.09642047
000250 ba 45 b4 be a6 80 06 3e 84 57 62 3d a6 12 ca 3d
       -0.35209447 0.13135013 0.055259243 0.09866838
000260 c4 95 03 3d 00 54 ba bc 4d b3 29 bd 94 8e 3b bd
       0.03212525 -0.022745132 -0.04143076 -0.04579027
000270 8a 3a ce 3d c7 2a a8 bc f6 88 72 3e c6 66 10 3d
       0.10069759 -0.02052821 0.23685059 0.035254262
000280 4f 7b 30 3d 95 37 1d 3e 78 0e 4f bd 1b 74 8e bb
       0.043086346 0.15353234 -0.050550908 -0.004347337
000290 b0 50 03 3d 98 c2 2f 3e e7 86 b4 bd d1 17 0b 3d
       0.03205937 0.17164075 -0.08814793 0.03395826
0002a0 f7 a2 0d be d0 7b e8 bc 80 bb b6 3d d4 d3 e1 bc
       -0.13831697 -0.02837935 0.089224815 -0.027566828
0002b0 c3 83 81 bd 29 4b 57 bd fd 2a 85 3e 01 87 e0 bd
       -0.0632396 -0.052561913 0.2600936 -0.1096325
0002c0 1f d4 26 bd 02 67 06 bd 30 11 e4 bd 09 28 9e be
       -0.04072964 -0.03281308 -0.11136091 -0.3088992
0002d0 09 b6 82 be ea b2 26 3e 9a a5 c9 bd 39 e8 24 be
       -0.25529507 0.16279188 -0.09846039 -0.16104211
0002e0 57 ca 84 bc d8 58 49 3e e9 0c 7b 3a 6f 60 96 3e
       -0.016209764 0.19662797 0.0009576814 0.29370448
0002f0 88 1d 52 3e 6e 24 89 3e e7 07 29 3b 84 2a 80 be
       0.20519078 0.26785606 0.0025792064 -0.25032437
000300 49 ee 0b be 35 2a ed 3c bf d6 38 be 2e 3a c6 3d
       -0.13665117 0.02895079 -0.18050669 0.09679066
000310 f7 0c 7d bc c2 38 aa 3b 1d 8b fa bd 36 24 03 be
       -0.015444986 0.0051947543 -0.12233565 -0.12806782
000320 45 43 6c 3e d3 8d d1 3c ed 91 6f 3e ef 26 94 bd
       0.23072536 0.025580322 0.2339551 -0.072339885
000330 d9 2f 9f 3d bc 9f f9 3a 5b 43 f0 bc e7 23 f5 3d
       0.07772798 0.0019044797 -0.029328993 0.119697385
000340 c6 51 04 ba e2 9d 10 be 64 4c 47 be 72 49 09 be
       -0.00050475856 -0.14122728 -0.19462734 -0.13406923
000350 4c b4 1b be c1 26 74 be f9 fd 79 3d 4f ee 63 be
       -0.15205497 -0.23842908 0.061033223 -0.22258876
000360 a0 7f fb bc 8d 35 2d be 1b e2 3a 3e c1 b5 09 be
       -0.030700505 -0.16914959 0.18250315 -0.1344824
000370 bb 6d 33 3e 3a cd 21 be 94 14 94 3d ce 53 9f bd
       0.17522328 -0.15800944 0.072304875 -0.07779656
000380 ff bc 58 3e ac ed 83 3d 5c e2 5e bc 46 ef 63 3d
       0.21165846 0.06441817 -0.013603773 0.05564811
000390 a1 af d8 3c 9d 57 aa bd a6 ba f4 bc 3f 0a 53 3e
       0.026450934 -0.08317492 -0.029874157 0.20609377
0003a0 8c db 08 be a5 d0 3b 3e 30 32 94 3c 79 b4 63 3e
       -0.13365 0.1834131 0.018090338 0.22236814
0003b0 73 90 71 bd 21 c6 2a bd 8c 81 96 3c 68 ad 29 3e
       -0.058975648 -0.041692857 0.01837232 0.16570055
0003c0 a2 3b d1 bd ac d7 08 bc 44 55 45 3d 7b f8 db bd
       -0.10216452 -0.008352201 0.04817702 -0.10740753
0003d0 00 c5 63 3e a8 60 ba 3d 4e 67 55 3e e0 08 fb bd
       0.22243118 0.09100467 0.20840189 -0.12257552
0003e0 c8 fe cc bc 9f f8 b5 bd 83 40 04 3e cc e6 73 3c
       -0.025023833 -0.08885311 0.12915234 0.014886569
0003f0 7d a7 e8 bd 89 a5 fc 3d 21 e8 69 bc 96 c3 dd ba
       -0.11360071 0.12336261 -0.014276535 -0.0016919251

hidden_nets.0.bias f4 [128]
000000 13 5f e4 3c d9 4e d9 bc 70 d2 c1 3a 2d b1 38 bb
       0.027877366 -0.026526855 0.0014787447 -0.0028181777
000010 1c 8f 24 bc 30 7a 93 3c 0c 66 4c bc 15 78 96 bc
       -0.010043886 0.0180026 -0.012475502 -0.018367806
000020 9b f6 f8 bc 00 00 00 00 89 b4 8e 3d 00 00 00 00
       -0.030391028 0.0 0.06968028 0.0
000030 59 8f 4f bd 85 1c 31 3d 55 05 54 bd bf 6f 80 3d
       -0.050673816 0.04324009 -0.051762898 0.06271314
000040 7a 39 7c 3b 80 27 39 bd ac 2d 6e 3d 7a e4 81 3c
       0.0038486407 -0.045203686 0.058149025 0.015856016
000050 69 26 0f bd c2 f7 d7 bc 98 44 7f 3d 94 59 f7 3c
       -0.03494874 -0.026363257 0.062321275 0.030194081
000060 bb 0e 29 bd b6 1d 39 3d 33 9a 96 3c a0 08 61 bd
       -0.041273814 0.04519435 0.018384075 -0.054939866
000070 ca be 9d bb 46 3f 9a 3b ca 39 4a bd b8 f5 30 bd
       -0.0048140036 0.00470725 -0.04937152 -0.043203086
000080 4d b3 f5 bc fe 5c 23 3d 34 40 41 bd a5 dd 9d bc
       -0.029992724 0.039883606 -0.04718037 -0.019270727
000090 00 00 00 00 45 21 ba bc e5 b3 5d bd ca 17 84 bb
       0.0 -0.022720942 -0.05412664 -0.004031156
0000a0 76 ae 4b bb e0 8d c9 bc 95 5c 96 3d e7 1c c4 3d
       -0.0031079329 -0.024603784 0.07341877 0.09575825
0000b0 8b 2a 7e bd 0b bc 36 3d be c8 5f bd db c7 88 bd
       -0.06205229 0.044612925 -0.054634802 -0.066787444
0000c0 ec 48 1b 3d 64 10 16 bd e5 4a c5 3c ed ba 19 bd
       0.03791134 -0.036636725 0.024083564 -0.037531782
0000d0 00 00 00 00 cd 62 2d bd ee ba 36 bd 58 33 a2 bc
       0.0 -0.042330552 -0.044611864 -0.019799873
0000e0 a8 79 07 bd 88 1a 29 bd 13 d2 27 bd 7e ec ba bc
       -0.033075005 -0.041285068 -0.040971827 -0.022817846
0000f0 9b 7b 14 3d ec dc e0 bc 1e 08 85 bc b9 04 8b bd
       0.03625069 -0.027449094 -0.016239222 -0.0678801
000100 c5 72 b5 bc bb f5 05 3d 50 cb 31 bd 02 e4 73 bb
       -0.022149453 0.03270505 -0.043406785 -0.003721476
000110 26 93 6a bc a7 bc 29 bd b4 fe ce ba 96 ee 9c bd
       -0.0143173095 -0.04143968 -0.001579246 -0.07662694
000120 46 56 06 3d 82 94 8e bc 60 ea 04 bd bc 1f 2a bd
       0.03279712 -0.017404798 -0.03245008 -0.04153417
000130 7c fc 2b bd 30 26 b7 bb 5f 19 0e bd 0d 74 ab bd
       -0.041988835 -0.005589269 -0.034692165 -0.08371744
000140 3c cb 72 bd 35 11 05 bd de b7 5f bc d2 00 98 bb
       -0.05927585 -0.032487113 -0.013654677 -0.0046387697
000150 22 0e 0e bd ba 94 09 bd 00 00 00 00 ab 1c 4a bc
       -0.034681447 -0.033589102 0.0 -0.012335937
000160 c8 ae 7a bc 8e ca 21 bd c7 46 35 bd 7c 9d 75 bd
       -0.01530046 -0.03949981 -0.04425695 -0.059964642
000170 5e 48 e7 3b 55 6b 8d b8 83 c1 51 bd 4a 94 85 3b
       0.0070581874 -6.743396e-05 -0.051209938 0.0040765153
000180 81 bf b9 bc 70 2e 90 bb 75 39 e1 bd e2 c4 32 bd
       -0.022674324 -0.004400067 -0.10997287 -0.043644793
000190 ea f2 50 bd ed b3 19 bd 75 e1 aa 3c 1d 70 fd bc
       -0.05101291 -0.037525106 0.02085946 -0.030937249
0001a0 36 06 6b bc 76 60 70 bc a2 d1 4d bd 45 94 56 3d
       -0.0143447425 -0.014671436 -0.05024875 0.052387495
0001b0 00 d8 76 bd ac cd 58 bc a9 fa bf bd 00 00 00 00
       -0.060264587 -0.01323263 -0.093739815 0.0
0001c0 c3 7a 81 bc 53 16 64 bc f8 ad ab bd c4 8d 90 bd
       -0.015805608 -0.013921338 -0.08382791 -0.0705829
0001d0 70 36 50 bc 0b 4d b4 bc 34 83 b1 bc 94 7b 3d bd
       -0.012708291 -0.022009393 -0.021669008 -0.04626043
0001e0 18 2b 47 bd 42 57 3d bc d1 84 b1 bd 65 16 26 bd
       -0.04862508 -0.011556448 -0.08667911 -0.0405487
0001f0 00 00 00 00 49 fa cb bd 1f 34 17 3d e5 31 95 bd
       0.0 -0.099598475 0.03691494 -0.07284907

hidden_nets.1.weight f4 [64, 128]
000000 40 ea a9 3d d8 2c 93 bd fc 4a 06 3e d0 1d 77 be
       0.08296633 -0.07186288 0.13114542 -0.24132466
000010 1a 91 2e be 55 94 63 bd 20 ce 2b 3e ed 79 07 3e
       -0.1704754 -0.055561382 0.16777849 0.13230105
000020 17 9b 63 3d 92 b4 32 3e 44 2a d5 3d 97 a7 b8 3c
       0.055567827 0.17451695 0.10408452 0.02254085
000030 a5 2e 88 3d 34 84 32 bd ca 54 d2 3c 4b 16 c2 bd
       0.06649522 -0.04358311 0.025675196 -0.09476908
000040 f1 8b 31 3e e5 fe a2 bd c9 a0 16 3e e6 9a 9f 3d
       0.1733854 -0.079587735 0.14709772 0.077932164
000050 3a ed d3 3d 67 b6 8b 3d e4 41 81 3d 90 ae 3f 3d
       0.10347982 0.068219 0.06311396 0.046797335
000060 d0 cb 45 bd 92 b6 5b be 3f 9a 3a be 47 3f 08 3e
       -0.048290074 -0.21456364 -0.18222903 0.13305388
000070 8c cc 57 bc f1 1b 8f 3d 14 5f cc 3d cc a3 28 3e
       -0.013171326 0.06987751 0.09979072 0.16468734
000080 cf ad 0c bd 16 79 be 3c 97 63 c9 bc 69 05 dc 3d
       -0.034345444 0.023251098 -0.024583621 0.107432194
000090 cd f3 1f be b2 75 83 bc 5e 63 3e 3e 89 04 7b 3d
       -0.15620346 -0.016047332 0.18592593 0.061283622
0000a0 6c 1d b7 3c a2 49 e2 3c 79 92 d1 3d 16 b9 c6 bc
       0.022352897 0.027623001 0.102330156 -0.024258178
0000b0 d2 80 b4 3d 8c c7 16 be f6 1d 52 bc 42 57 b1 3c
       0.08813633 -0.14724559 -0.012824526 0.021648053
0000c0 bd 11 23 be 9d 2f af 3b ac 4f d6 3c 67 bd ec 3d
       -0.15924735 0.005346252 0.026161037 0.11559563
0000d0 dc 9d ff bd 6b c4 19 bd 66 ef 3b bd a1 f7 bb bc
       -0.12481281 -0.037540834 -0.045882605 -0.022945227
0000e0 d0 eb 40 3d b0 7a 1b 3e 31 72 bb 3d 87 8f 98 bd
       0.04709989 0.1518352 0.0915264 -0.07449251
0000f0 da b2 cf bd 0a f4 d4 3d 58 e2 33 bd 41 54 8b bd
       -0.10141535 0.10398109 -0.04391703 -0.068031795
000100 cd d6 ce bd b4 8f 37 bc 0d ca 65 3d 1c 0d df bd
       -0.10099564 -0.011203695 0.056100894 -0.10891172
000110 e9 78 3b 3e 4d ad 0b 3e 0a 8f 39 be 32 10 0b 3e
       0.18307842 0.13640328 -0.18120971 0.13580397
000120 32 80 9c bd 2e 99 f9 3c 15 8e 46 3e 66 27 1c 3e
       -0.07641639 0.03046855 0.19390137 0.15249404
000130 9e 30 c3 3d 58 aa d2 bd cf 2d 43 3e 05 b9 13 3e
       0.09530757 -0.10286397 0.19060443 0.14426048
000140 00 89 ff ba 9f 94 34 bd 2b 97 29 3e 98 17 2e bd
       -0.0019495785 -0.04408705 0.16561572 -0.04250297
000150 1d b7 95 bd d6 b3 00 be b5 36 92 3d b0 eb 93 3d
       -0.07310317 -0.12568602 0.07139341 0.07222688
000160 d6 43 30 be 0f 62 23 be 1e a5 15 3d da 90 c1 3d
       -0.17213377 -0.15955375 0.03653442 0.09451456
000170 a2 4e dc 3d 46 08 1d bd 61 ce 38 3e 8b 0c 97 bd
       0.107571855 -0.03833797 0.18047477 -0.07375439
000180 25 21 c0 bd 86 84 4f 3e 15 e5 a0 3d 27 37 31 3e
       -0.09381322 0.20265397 0.07856194 0.17306195
000190 ad f2 96 3d b9 84 b2 bd 14 d1 de bd f7 45 12 be
       0.073705055 -0.08716721 -0.10879722 -0.14284502
0001a0 26 cd a9 bc 2a df be bd ec 92 1b 3e 56 c9 e8 bd
       -0.020727705 -0.09319909 0.15192765 -0.11366527
0001b0 0c d6 2d bd 15 9e 38 3e 70 64 99 3d a5 16 14 3c
       -0.04244046 0.18029054 0.0748986 0.009038602
0001c0 0e 0c a3 3d 2a 9b c9 bd 47 bb cc bd 10 fd e9 3d
       0.079612836 -0.09844048 -0.09996658 0.11425221
0001d0 1e b8 3d bd 93 f9 ef bd 13 18 ed bd 9c 20 36 3e
       -0.046318166 -0.117175244 -0.115768574 0.17785877
0001e0 13 5e b7 bd ef 44 1a 3e b5 ad 2c 3e c2 e4 1b 3d
       -0.0895349 0.15065359 0.16863139 0.038059957
0001f0 ea 8a d4 bd c6 82 4f bc cf 22 e7 bd 7f f3 f6 3d
       -0.10378058 -0.012665456 -0.11285936 0.12058162
000200 6c 3d c9 bd 8a 47 ad 3c d6 79 25 3c 60 69 36 3d
       -0.098261684 0.021152277 0.010099849 0.044534087
000210 28 6f 05 3e 41 c6 ed bd 99 72 5e 3e f8 5a d7 bd
       0.13030684 -0.116100796 0.21723403 -0.10515398
000220 15 74 60 be 2b cc 16 be 6a 4f 6b 3d e0 42 b3 bd
       -0.21919282 -0.14726321 0.057448782 -0.0875299
000230 ed 6a 95 3c 67 a5 1f 3e 2e da a1 3b 2e 7d 19 3e
       0.018239463 0.1559044 0.004939339 0.14989159
000240 4d 4e ae 3c df 75 d5 3d 3c e2 b6 bd 90 e9 b0 bd
       0.021277571 0.10422873 -0.089298695 -0.086382985
000250 51 cd 40 3d dc 78 f4 3c 9c 64 4a 3e 63 11 bd bd
       0.047070805 0.029842786 0.19764942 -0.09231832
000260 cf c6 c1 3d 5b f0 dc 3d b1 e4 9d bd 61 85 ac 3d
       0.09461748 0.10788032 -0.07709635 0.084238775
000270 b0 e1 10 3d 06 78 91 bd 8a 9d 28 3d 5d 5e e3 3d
       0.035371482 -0.07102971 0.041165866 0.11101983
000280 a7 0a 13 be 26 78 a2 bd 6f 8d 10 3e 8c a7 b0 bd
       -0.14359532 -0.07933073 0.14116453 -0.08625707
000290 87 4d 72 bd d7 1f 9b bd d2 59 0b 3e f0 ae 02 bc
       -0.059155967 -0.07574432 0.13608482 -0.007976279
0002a0 79 e8 13 3e 5a 9c 06 3e b8 89 01 3d 7b 78 07 3d
       0.1444415 0.13145581 0.03162548 0.033073884
0002b0 8b 13 e7 39 b4 d0 37 be 55 2d b4 3d 83 20 e0 3d
       0.00044074314 -0.17950708 0.08797709 0.10943701
0002c0 17 b2 e0 3d e6 30 df 3d 4b 18 5b 3e d9 db 13 be
       0.10971468 0.108979985 0.21395986 -0.14439334
0002d0 e6 0d 24 bd 6f d5 6e bd 64 57 b8 3d 32 14 af bb
       -0.040052317 -0.058309015 0.090010434 -0.0053429836
0002e0 c7 57 c1 3d 0c f7 1f 3d f0 c0 08 be 79 92 4d 3d
       0.0944057 0.03905396 -0.1335485 0.050188515
0002f0 90 3b e8 3c f3 8f 16 bd e6 09 26 3e d2 08 06 be
       0.028348714 -0.036758374 0.16214713 -0.13089302
000300 03 56 0f be c9 93 4c be b0 73 fd bd 99 6d af bc
       -0.13997655 -0.1997825 -0.12375581 -0.021414565
000310 80 93 cb 3d 18 15 38 3e c2 c2 4c 3d eb 3f 0f 3e
       0.09940243 0.17976797 0.049990423 0.13989227
000320 71 f6 55 3e 7e 55 9c bd 28 72 b6 bd ff 35 37 3e
       0.20894791 -0.07633494 -0.08908492 0.17891692
000330 3f ae 2d 3e 07 4d 99 3d c6 34 1d 3d ac 6a 88 3d
       0.16961001 0.07485395 0.038380407 0.06660971
000340 d3 4b 92 bd 86 68 b7 3d bc f2 7d 3d 60 13 39 be
       -0.071433686 0.08955483 0.061999068 -0.18073797
000350 83 55 1f 3e 27 9d f7 bd cf 0d 09 be ea 5d 1f 3e
       0.15559964 -0.12090521 -0.13384174 0.15563169
000360 32 90 e4 bd 1e f3 d5 bb 7b 0f 04 be cf 5a ed bd
       -0.111603156 -0.006529226 -0.1289653 -0.11589586
000370 36 09 54 bd 8b d8 ba 3b 64 c0 98 3c f7 0b 66 3c
       -0.051766597 0.0057020835 0.018646426 0.014040939
000380 d0 2d f3 bd 8f 32 cc 3c 9c 90 f6 3d 3a e2 ad bd
       -0.118739724 0.024926452 0.12039301 -0.08490415
000390 c5 20 98 bd 4d aa 32 3e 4a 09 47 be cc b3 8d bd
       -0.07428125 0.17447777 -0.19437137 -0.06919059
0003a0 5a e4 cf bd 6d 3d 40 3e 93 c2 fe 3d b1 65 79 bc
       -0.101509765 0.18773432 0.12439456 -0.015221999
0003b0 57 2e e0 bd a0 c7 14 be bb d9 12 3d 1d 6b dd 3d
       -0.109463386 -0.14529276 0.035852175 0.10811446
0003c0 4c 87 a9 3c ab fd c5 bd d1 b3 c9 bd 21 1f 1d 3e
       0.020694397 -0.09667524 -0.098487504 0.15343906
0003d0 d8 1c 9f 3d 37 6a e0 3d 54 99 93 bd d1 c2 31 bb
       0.077691734 0.10957759 -0.072069794 -0.0027124176
0003e0 15 5b 8d 3e 3a 98 1e be 82 61 0e be 48 8a 83 bd
       0.27608553 -0.15487757 -0.13904384 -0.064228594
0003f0 d5 fc b1 bd e4 fe 9d 3d ba c5 d3 3d b8 67 ac bc
       -0.08690802 0.07714632 0.10340448 -0.02104555

hidden_nets.1.bias f4 [64]
000000 ae d4 5a 3f f3 52 59 3f 69 c9 47 3f e0 69 1a bd
       0.85480773 0.84892195 0.780417 -0.037698627
000010 92 8c 18 bd e3 21 6b 3f 0f 96 57 3f 0e cc c1 bc
       -0.037243433 0.9184858 0.84213346 -0.023656871
000020 73 1e 54 3f 21 a3 d7 bc 9e 80 64 3f 2d 67 58 3f
       0.8285896 -0.026322903 0.89258754 0.84532434
000030 a2 7f 90 bd 8e 1a 37 3f 28 57 58 3f 38 88 60 3f
       -0.07055594 0.71524894 0.8450799 0.87707853
000040 ed 1c 58 3f 7e da 47 bd 23 70 51 3f 7f cb a8 bd
       0.8441914 -0.048792355 0.8181173 -0.08241939
000050 84 1f 50 3f 62 ec 25 3f 66 a6 16 bd 94 e1 16 bc
       0.8129809 0.64813817 -0.036779784 -0.009209055
000060 fb a6 52 3f 40 46 39 bd 4d 82 52 3f f8 5e 56 3f
       0.8228604 -0.04523301 0.82230073 0.8373866
000070 04 9d ca bc a9 73 5c 3f 96 c6 4a bd 94 31 aa bd
       -0.024733074 0.86113983 -0.049505793 -0.083102375
000080 a9 a2 e6 3b af 15 3a 3f 26 57 3a bd cf cb 61 3f
       0.0070384336 0.72689337 -0.045493267 0.8820161
000090 57 08 5e 3f c3 61 5b 3f 0c 80 9b bc 35 30 5a 3f
       0.86731476 0.8569605 -0.018981956 0.8522981
0000a0 19 35 4f 3f 25 e9 5b 3f 45 47 51 3f ec 0c 57 bd
       0.80940396 0.85902625 0.81749374 -0.052502558
0000b0 e6 fd 80 bd 1c 4a 63 3f 8b 8e 6a 3f a0 e6 48 3f
       -0.06298427 0.88784957 0.91623753 0.78476906
0000c0 8d 94 8f 3d a3 ac 53 3f 85 a2 32 bd f0 9f 5c 3f
       0.07010756 0.826853 -0.043612022 0.86181545
0000d0 06 94 2b bd d7 ee 5a 3f 16 97 57 3f 06 91 7f bd
       -0.041889213 0.8552069 0.84214914 -0.062394165
0000e0 b6 3a 0d bd a9 16 56 3f 61 d3 1c bb ac 08 12 bd
       -0.03447982 0.83628327 -0.0023929703 -0.0356528
0000f0 90 59 55 3f 30 84 52 bd f2 1a 56 3f a1 fa 5b 3f
       0.83339787 -0.051395595 0.83634865 0.85929304

value_stream.weight f4 [1, 64]
000000 bb 0c f1 3e 94 84 17 3f c9 b4 3b 3f 0e 64 90 be
       0.47080025 0.59186673 0.7332273 -0.28201336
000010 36 64 cc be 0b 65 09 3f af 14 00 3f ce ae ba bd
       -0.39920205 0.53669804 0.5003156 -0.091153726
000020 83 b3 18 3f 0b 3b 81 be 0b 0b 00 3f 85 01 0c 3f
       0.59648913 -0.2524036 0.5001685 0.5468982
000030 75 28 ce be ba 1b f4 3e 72 c0 fd 3e 37 e0 0a 3f
       -0.4026524 0.47677404 0.49560887 0.54248375
000040 eb 90 f4 3e 3c f5 74 be 4e 3a 1a 3f 9a 7c 4c be
       0.47766814 -0.23921674 0.60245216 -0.19969407
000050 7d 7c f7 3e 4b 73 06 3f 64 61 4e be 38 3c a8 be
       0.48337165 0.52519673 -0.20154339 -0.32858443
000060 4c 9a 2b 3f 0f ac 7e be 9e c8 1e 3f 31 a0 24 3f
       0.67032313 -0.24870323 0.6202487 0.6430693
000070 cc 36 77 be be 68 ff 3e 47 ae b7 bd d0 37 c1 be
       -0.24141997 0.498846 -0.08968788 -0.37737894
000080 b6 fc c1 be 05 d9 f1 3e 41 a6 ae be 1b c8 dd 3e
       -0.37888116 0.47235885 -0.34111217 0.4331673
000090 2b 2d 03 3f e7 06 00 3f e2 cf 99 be 29 45 04 3f
       0.51240796 0.5001053 -0.30041414 0.5166803
0000a0 5c 08 00 3f fd 4a fa 3e 41 b3 04 3f ff 66 25 be
       0.50012755 0.48885337 0.5183602 -0.16152571
0000b0 ce 53 01 be 78 48 1f 3f e5 ba dc 3e 68 86 0e 3f
       -0.12629625 0.62219954 0.4311134 0.5567384
0000c0 2d 8c cf bc 1b ae 09 3f 4e 64 a1 bd 00 34 b4 3e
       -0.025335396 0.5378129 -0.0788046 0.35195923
0000d0 dd 85 c4 bd 81 8b 50 3f b5 6f ee 3e 31 90 02 bd
       -0.09595845 0.81462866 0.465696 -0.031875793
0000e0 c8 d8 63 be a4 f5 28 3f 52 5e 7b be 6f ca 62 be
       -0.22250664 0.6599982 -0.24547699 -0.22147535
0000f0 99 0e 07 3f 48 09 11 be 69 1c 1c 3f ea 28 08 3f
       0.5275665 -0.14163697 0.6098085 0.5318743

advantage_stream.weight f4 [5, 64]
000000 53 91 45 bc 71 8e 85 bd be 16 fd bc 45 7a 85 3e
       -0.012058574 -0.06521309 -0.030894633 0.26069847
000010 39 ef 99 3b 5b 62 c3 bd 8c 67 ab 3d 5e b7 d8 3d
       0.004697707 -0.09540244 0.083693594 0.105818495
000020 cc 57 5e 3c 67 29 4f 3e 67 41 98 3d 12 9c ef 3b
       0.013570737 0.20230637 0.074343495 0.007312306
000030 b0 9c 3d 3d 18 90 00 3d 29 d7 32 3e d6 2c b3 bc
       0.046292007 0.03138742 0.1746489 -0.021871965
000040 c4 c2 f4 bc ba 48 b1 bd 87 0d 8c bc 10 5c 45 3e
       -0.029878028 -0.086564496 -0.017096294 0.192734
000050 ff e4 95 3d 44 70 d0 bb e7 c0 8e 3d 3a 4b 2d 3e
       0.07319068 -0.0063610394 0.06970387 0.16923228
000060 81 a8 2d 3c f1 74 0c bb 9e 9a 2d 3d 26 9f f0 3d
       0.0105992565 -0.0021432007 0.042383783 0.11749105
000070 6a 70 07 be 4f 08 fe bd b5 48 40 3e 73 76 73 3e
       -0.13226476 -0.124039285 0.18777736 0.23775654
000080 2c f0 16 3e 7f cc 0d bd 22 15 e0 bd 94 5c 13 3e
       0.14740056 -0.03461885 -0.10941531 0.14390785
000090 08 6d 06 3e c3 12 19 be 6b 19 60 be 29 6b 5b 3d
       0.1312753 -0.14948563 -0.21884696 0.053568993
0000a0 a2 1a e2 3c 23 a5 86 bd 6f 43 0d be 1b d0 0f be
       0.02760059 -0.06574466 -0.13795255 -0.1404423
0000b0 e0 92 73 3e be 1b b0 bc 1c 89 a7 3d 36 d7 73 bc
       0.23786497 -0.021497604 0.081804484 -0.014882853
0000c0 25 cc 61 be c4 ba 05 3e e5 b0 25 3e 03 1a 01 be
       -0.22050531 0.13059527 0.16180761 -0.12607579
0000d0 37 99 cb 3d f6 ff 2e bc ec 05 a7 3c 9a 50 7e 3d
       0.09941333 -0.010681143 0.020388566 0.062088586
0000e0 7c e5 46 be d3 cb f9 3c 1c 98 cc bd 7e 35 bb 3c
       -0.19423479 0.030492699 -0.0998995 0.022852656
0000f0 90 0a e5 3c 40 31 ad bd ab bc 44 3d 43 0f d1 bc
       0.027959138 -0.08456659 0.04803149 -0.025519973
000100 09 6a 14 bd e7 15 13 bd d0 2b 73 3b 69 9c 60 be
       -0.036233936 -0.03590956 0.0037104972 -0.21934666
000110 b3 39 13 bd 7f 9d f1 bd 85 fe 9d 3d a7 4a b8 3d
       -0.0359437 -0.11797618 0.077145614 0.08998614
000120 f9 57 64 bc 9e 11 11 be f8 5e 3d 3d 4b ab 55 bd
       -0.01393699 -0.14166877 0.046233147 -0.05216531
000130 6c ea 66 be 93 e3 1c bb d3 c8 39 3e 76 4f 3d bd
       -0.22550362 -0.0023939356 0.18143015 -0.046218358
000140 91 bd 1b bc c2 0e 8e be 4a 2f ee 3b 5e 7b a1 3d
       -0.009505645 -0.27745634 0.007268821 0.078848585
000150 d3 46 8f 3c 36 ae 08 3d 98 26 6f be 5e d4 2e 3d
       0.017489826 0.033369265 -0.23354566 0.042682998
000160 54 51 58 bd b1 e0 79 bd 0e 13 d0 3d f0 f4 99 3d
       -0.052811936 -0.061005298 0.101598844 0.07517421
000170 f4 74 65 3d 90 09 09 be 15 4d 7d be be 17 49 be
       0.05601974 -0.13382554 -0.24736436 -0.19637963
000180 28 56 7e 3e e2 05 95 bc 57 2f 16 3e b3 c2 f4 3d
       0.24837554 -0.018191282 0.14666496 0.119511984
000190 f2 2e ab 3d 7f 07 24 be 1c 66 88 bd 64 93 88 3d
       0.083585635 -0.16018485 -0.06660101 0.066687375
0001a0 9b 14 27 3d 0a ff 7a bd 76 e4 0c be 60 c2 3f 3e
       0.040791135 -0.06127838 -0.13759026 0.18726492
0001b0 65 d7 58 3c d7 2a 5b bc 23 32 2d 3d be 6f 23 bd
       0.013234948 -0.013376913 0.042284142 -0.039901488
0001c0 fd 89 1b bd 79 07 06 3e 0e ed 06 3e 96 8f 29 be
       -0.037973393 0.13088788 0.13176367 -0.1655868
0001d0 ee 60 33 bd 2d 95 6d bd 03 d1 49 3d 9f 4a f3 bd
       -0.04379361 -0.058003593 0.049271595 -0.11879467
0001e0 84 65 70 3e 74 e5 e2 bc 24 06 9b bd d5 05 87 3d
       0.23476225 -0.027697302 -0.075695306 0.06592909
0001f0 35 13 ef 3b 0d f4 46 be 98 6a f8 bc 6c 0a 6f bd
       0.007295991 -0.19429035 -0.030324265 -0.05835955
000200 66 f0 a5 bd 8a 76 af 3c 10 69 94 3c 55 3e 50 3e
       -0.08102493 0.021418829 0.018116504 0.20336278
000210 49 b6 75 3d 55 76 f5 bd 5b ac 1c 3d c4 7b 80 bd
       0.059988294 -0.11985461 0.03825031 -0.062736064
000220 a3 4f d1 bc b9 bd d1 3d 3f cd 8e 3d 90 8d 75 bd
       -0.025550669 0.10241265 0.06972741 -0.059949458
000230 5a 3c c8 3d d0 07 30 3d 56 a0 38 3e 2a c1 cc ba
       0.09777136 0.0429762 0.18029913 -0.0015621532
000240 02 a3 57 bb 49 6e 84 3c c1 17 2f bc ef c5 17 be
       -0.0032903557 0.01616587 -0.010686816 -0.148216
000250 fd 78 a2 3b de 0b 42 3d 8e d0 1e 3e 0d f1 42 be
       0.0049582706 0.0473746 0.15509245 -0.19037266
000260 b4 d4 64 bb a9 25 fb 3d 44 1b 99 3d 5c 73 97 3d
       -0.003491682 0.122630425 0.07475904 0.0739505
000270 ee 1a 29 be da d7 2f be c5 47 75 be f3 8a 85 be
       -0.16514179 -0.17172185 -0.23953159 -0.26082572
000280 4f 7f cc bc e2 83 3b bd a0 76 8a be e9 2c 0b 3e
       -0.02496305 -0.04578007 -0.2704363 0.1359135
000290 f8 9a b4 3d d7 a1 16 be 98 e8 0a be 8e 20 50 3d
       0.088186204 -0.14710175 -0.1356529 0.050812297
0002a0 87 d5 ef 3d 2e f5 9a bd 65 16 02 be 4b 3e 38 3e
       0.11710649 -0.075662956 -0.12703855 0.17992513
0002b0 62 d8 39 bd 2c 58 11 3c a8 0f 83 3d e6 54 9b bd
       -0.045372374 0.0088711195 0.063994706 -0.075845525
0002c0 cc 31 94 3c 38 d6 24 3d e7 ac 5c bd 79 13 0d be
       0.018090151 0.040243357 -0.05387583 -0.1377696
0002d0 b9 03 30 be b4 fb ac bd 06 d2 7a 3d 93 e2 79 3e
       -0.1718892 -0.08446446 0.06123545 0.24402837
0002e0 6e 58 91 3d df ef 52 3c 2a 2d 93 3c a7 de 9c bc
       0.07096945 0.012874573 0.017965872 -0.019149138
0002f0 db 4c ea bc e0 a3 2b 3d ca ae 06 3d 0b 8b 66 bd
       -0.0286011 0.04190433 0.032881536 -0.056284945
000300 f3 ee 89 bb 68 91 a2 bc 13 4c ab bc b3 af 56 3e
       -0.004209393 -0.019844726 -0.020910298 0.20965461
000310 eb 2b 57 3e d1 df cd bd fd 90 73 3d f9 a3 38 bd
       0.21012847 -0.10052455 0.059464443 -0.04507825
000320 30 bd 98 bd f6 ee 72 be 73 a7 43 3d 92 34 2f bd
       -0.0745796 -0.23723969 0.047767114 -0.042774744
000330 00 ea 8f 3e 23 39 12 3d 06 e5 2d 3e 72 0d 4d bd
       0.28108215 0.03569902 0.16981897 -0.05006165
000340 b0 96 0c bd 07 3a 03 bd db 85 b9 bc 32 ba b6 3e
       -0.034323394 -0.03203776 -0.022646835 0.3568893
000350 91 42 c7 ba ce 93 45 bd a6 bb 3f bd f2 a2 40 be
       -0.0015202333 -0.04823666 -0.046809815 -0.18812159
000360 b8 d0 55 bd a4 89 82 3e ec bf cf 3d 9d 40 cf 3d
       -0.052201003 0.25495636 0.10144028 0.10119746
000370 b4 59 b4 bd 1f 9e ec bd cf f4 25 3e be 8a 60 3e
       -0.08806172 -0.11553597 0.16206668 0.21927926
000380 17 6d d2 bd 83 19 bd bd 68 25 7d 3e b5 24 d5 3d
       -0.102747135 -0.092333816 0.247213 0.10407392
000390 2a 36 b0 3d 19 9a 22 be 03 89 26 be 6a e4 86 3d
       0.08604081 -0.15879096 -0.16263203 0.06586535
0003a0 a6 73 0c 3d ff 7c ee bc d3 5c 27 be c4 76 0e be
       0.03428998 -0.029112337 -0.16344003 -0.13912493
0003b0 9f de 83 be 56 af 0f bc 63 30 85 3d c1 c6 88 bc
       -0.25755784 -0.008769831 0.0650337 -0.016696336
0003c0 59 37 c3 3e ef 6e 96 3d 73 c4 3c 3e 01 a3 05 be
       0.38128164 0.07345378 0.18434314 -0.13050462
0003d0 7e fd d6 3b d2 c0 88 bc de 50 c4 3c 5b ba 60 be
       0.0065609803 -0.016693506 0.023964342 -0.21946089
0003e0 73 27 32 be 90 25 14 3c 4d 51 eb 3e 8c 07 69 3d
       -0.17397861 0.009042159 0.45960465 0.056891963
0003f0 88 6f 8e bc 86 4d 64 3e e1 09 2e 3c 41 44 6a bd
       -0.017387167 0.22295198 0.0106224725 -0.057194

advantage_stream.bias f4 [5]
000000 5c 1d d7 be f3 b3 56 3e 59 2c 74 bb d9 07 82 3e
       -0.42014587 0.20967083 -0.0037257879 0.25396612
000010 ef 51 13 be
       -0.14386724

hidden_nets.0.weight f4 [128, 11]
000000 e3 25 b6 3c 34 5c 1e 3e 41 4f 88 3d dd e4 a2 bd
       0.022234863 0.1546486 0.066557415 -0.079538085
000010 b1 9a 0d bd 60 88 1d bf f9 12 4f 3e e4 b4 e0 bd
       -0.034571353 -0.61536217 0.20222081 -0.10972002
000020 ee 30 29 be f8 67 63 bb b8 37 1f be e3 cd 98 bd
       -0.16522571 -0.0034699421 -0.15548599 -0.07461145
000030 5d 4a 2b be a5 4e a4 3d eb 16 0a 3e 7e 28 c1 3c
       -0.16727586 0.08022813 0.13485305 0.023578878
000040 33 61 17 be 3c 05 11 3e 21 5c 2b 3e aa 92 66 bd
       -0.14783172 0.14162153 0.16734363 -0.056292213
000050 b0 f4 9d 3e 24 d1 dd 3d 0f 23 cd 3c 32 94 2e bd
       0.30850744 0.10830906 0.025041131 -0.0426218
000060 f3 86 94 be 8e 6e 15 bd 05 89 7d 3e c9 13 c0 bd
       -0.29009208 -0.036482386 0.247593 -0.09378774
000070 0d b8 0f be cd ef 23 3c 65 5b 2a 3e 20 3d a2 bd
       -0.14035054 0.010005903 0.16636427 -0.07921815
000080 50 6d 8e 3c d3 55 ac bc 4a 80 f1 bd 82 77 0e be
       0.017386109 -0.021037018 -0.11792047 -0.13912776
000090 3c 77 73 be d3 57 92 bd 95 4a 5d bd b7 14 a2 3d
       -0.23775953 -0.071456574 -0.054026205 0.07914107
0000a0 a3 16 a8 bc 64 14 cf bd e4 ec 2a 3e 1d ad 42 3e
       -0.020518607 -0.10111311 0.16691929 0.1901135
0000b0 2b bd 02 bd 4d a7 49 bd ec 9d 1f be fe 43 79 be
       -0.031918686 -0.049231816 -0.15587586 -0.24342343
0000c0 ca 47 93 bc d7 2b 31 bd f4 27 20 3e 98 7d e2 bd
       -0.017978568 -0.0432547 0.15640241 -0.11059111
0000d0 55 42 30 bd ea bb 1a 3e 8b 17 76 3e 3e 01 93 3e
       -0.04303201 0.15110746 0.24032418 0.28711885
0000e0 22 84 d4 bd bb d5 00 bd bc f3 d3 3c ac f6 09 3e
       -0.10376765 -0.03145383 0.025873058 0.13473004
0000f0 7f da a7 3d 88 25 94 bc 9b f0 c3 bc f3 bf 52 be
       0.08195972 -0.018084303 -0.02391844 -0.20581035
000100 68 7c ec bc 77 89 63 bd f4 0b b6 3d 20 a7 1d be
       -0.028867915 -0.05555102 0.08888999 -0.15395784
000110 34 25 a1 3d 75 7e 0d 3d 6f 08 25 3e a3 6b f3 be
       0.07868424 0.034544427 0.16116498 -0.47543058
000120 f3 ae 46 3e 57 83 ef bd ff 0f 21 3e 10 ea 2d 3c
       0.19402675 -0.11694973 0.15728758 0.010614887
000130 21 94 94 bd 25 12 44 3e 08 be 1a be be 0c c3 be
       -0.07254816 0.19147547 -0.15111554 -0.3809566
000140 33 8c b9 3a 4c ad 2d bd e1 09 b7 bc 2c 79 82 3e
       0.0014156163 -0.042401597 -0.022343578 0.25483072
000150 97 e6 31 be f0 af 99 bd bd 68 ee bc c5 36 7a bd
       -0.1737312 -0.075042605 -0.029102677 -0.06108739
000160 27 61 6d 3d 90 75 dc bd d4 ba 32 be 7b db 74 3e
       0.05795398 -0.10764611 -0.17454082 0.2391185
000170 0c 53 84 be bd a2 96 3d 33 8f 0d bd f5 32 05 3e
       -0.2584461 0.073552586 -0.034560394 0.1300772
000180 8b c0 c9 3d d5 4d 4b 3d 0c 2a 34 bd df b5 87 3c
       0.09851178 0.049634773 -0.04398541 0.016566215
000190 e0 84 b6 bd b1 54 4e be f4 02 33 3e c0 64 4b be
       -0.08912063 -0.20149495 0.17481595 -0.19862652
0001a0 8f 14 06 be 7e a6 97 bd b4 9b 42 be 8d 19 25 be
       -0.1309378 -0.07404803 -0.19004709 -0.16123028
0001b0 4a 91 de bd 17 67 c9 3c 40 3e 3e be 85 fa 9f bd
       -0.108675554 0.02458529 -0.18578434 -0.07811455
0001c0 a9 44 38 be 8b 3f b4 be 5f cd 8e bd 94 9c be 3d
       -0.17994942 -0.3520473 -0.06972765 0.09307209
0001d0 08 ae db 3d 5e e4 83 3e 70 4d ba bd 98 0f 50 bc
       0.10726553 0.25760168 -0.09096801 -0.01269903
0001e0 37 8f 25 bd 26 97 3a 3e 34 ce 87 3d 7d e6 91 bc
       -0.040419783 0.18221721 0.06631127 -0.0178101
0001f0 60 37 8a 3d ba 8e 51 be 07 87 11 be fd ea b2 bd
       0.06748843 -0.20464602 -0.14211665 -0.08736227
000200 01 97 40 be d4 ac 20 be cb 9e 23 be e6 4c 74 3d
       -0.18807603 -0.15690929 -0.15978543 0.05964365
000210 9d 2c 24 3e 51 d3 fa bc 76 f7 4d bd ce 6e be bc
       0.16032644 -0.030618342 -0.050284825 -0.023246195
000220 c4 e8 55 3e da 16 05 be fc 4e 06 3d cd 16 2b 3d
       0.20889574 -0.12996998 0.03279017 0.04176979
000230 7c 87 94 bd 79 39 12 3e 97 01 64 ba c9 24 32 bd
       -0.07252404 0.14279737 -0.00086977467 -0.043492112
000240 8d 53 3f 3e 15 0c 50 3e 9f 8d 28 3d 75 1d ca bd
       0.18684216 0.20317109 0.041150685 -0.098689
000250 f9 f9 b7 be c2 c6 0b 3e 9d 13 54 3d a6 12 ca 3d
       -0.35932902 0.13650039 0.051776517 0.09866838
000260 70 b1 d9 3c a2 8c ad bc 64 c1 34 bd 33 6a 36 bd
       0.026573867 -0.021185223 -0.044129744 -0.044534873
000270 fa df ce 3d d3 93 8c bc b6 47 72 3e 6e fd 1d 3d
       0.10101314 -0.017160332 0.23660168 0.038571768
000280 f0 1f 41 3d 46 13 1e 3e 78 0e 4f bd ce 54 7b bb
       0.0471496 0.1543704 -0.050550908 -0.0038350108
000290 b0 59 06 3d a0 14 31 3e c5 18 b0 bd e0 eb 0c 3d
       0.032800376 0.17293024 -0.085984744 0.034404635
0002a0 31 cf 09 be 5d e8 ee bc a9 b2 c0 3d 59 73 00 bd
       -0.13457943 -0.029163534 0.09409077 -0.031360004
0002b0 f5 f1 7b bd 29 4b 57 bd 34 57 86 3e 0f e2 d1 bd
       -0.061510045 -0.052561913 0.26238406 -0.102481954
0002c0 40 3c 21 bd 5d ec fa bc df e4 e3 bd 09 28 9e be
       -0.0393641 -0.030630285 -0.11127638 -0.3088992
0002d0 6f 97 81 be e3 ce 28 3e 9e 49 cf bd 61 92 22 be
       -0.25310847 0.16485171 -0.10121463 -0.15876152
0002e0 57 ca 84 bc 9c 58 4b 3e e6 58 87 3a fa 3b 94 3e
       -0.016209764 0.1985802 0.0010326176 0.28952008
0002f0 2c a6 54 3e 41 33 8a 3e 32 86 2e 3b 83 3a 81 be
       0.20766515 0.2699223 0.002663028 -0.25239953
000300 08 28 07 be 95 2c e4 3c 1a 3c 36 be 2e 3a c6 3d
       -0.13198864 0.02785329 -0.17796364 0.09679066
000310 aa e3 80 bc 3f a5 09 3c 79 c6 f4 bd bd 00 fe bd
       -0.015733559 0.008401214 -0.11951918 -0.124024846
000320 9b 9e 6e 3e 29 48 f5 3c 37 67 72 3e 60 41 8b bd
       0.2330269 0.029941635 0.23672186 -0.06799579
000330 a0 74 ab 3d 47 d0 b3 3b 5b 43 f0 bc 68 99 f6 3d
       0.08371854 0.005487475 -0.029328993 0.12040979
000340 f6 e8 ed 3a 33 f3 0a be 00 86 45 be 6d 79 07 be
       0.0018151093 -0.13569336 -0.19289398 -0.13229914
000350 a9 5a 1a be ae e7 71 be 6e be 80 3d 8a f1 65 be
       -0.15073647 -0.23623535 0.062863216 -0.22455421
000360 b6 56 eb bc 8d 35 2d be dd 67 3c 3e 9c b8 0c be
       -0.02872787 -0.16914959 0.18398996 -0.13742298
000370 34 96 36 3e b1 79 1f be 7c b1 9a 3d 97 31 99 bd
       0.17830735 -0.15573765 0.07553384 -0.07480162
000380 f8 77 59 3e 93 16 90 3d 54 00 5b bc 51 69 6c 3d
       0.2123717 0.07035556 -0.013366777 0.057717625
000390 a1 af d8 3c 0e 07 a9 bd 24 2b 0e bd 1e 5a 4e 3e
       0.026450934 -0.08253299 -0.03470911 0.20151564
0003a0 f6 96 0c be 83 29 39 3e 60 b7 94 3c dc 08 5f 3e
       -0.13729462 0.18082242 0.018153846 0.21780723
0003b0 93 b2 7d bd fe f7 27 bd fe 5f 69 3c 68 ad 29 3e
       -0.06193788 -0.04100799 0.014244078 0.16570055
0003c0 b9 a4 d7 bd f5 dd b0 ba 00 cc 3a 3d 98 9f e1 bd
       -0.10529465 -0.0013493883 0.045604706 -0.11016768
0003d0 67 43 62 3e 0b 7b b6 3d 6b 0d 51 3e cc 33 00 be
       0.22096024 0.08910187 0.20415275 -0.12519759
0003e0 a3 95 be bc 3b fb bb bd 83 40 04 3e 97 be 6c 3c
       -0.023264712 -0.09178778 0.12915234 0.014449737
0003f0 d7 20 eb bd 45 14 fa 3d 71 fa 75 bc e6 95 81 bb
       -0.11480873 0.12210897 -0.015013323 -0.003954637

hidden_nets.0.bias f4 [128]
000000 af f2 f2 3c d8 e8 d0 bc 3e 56 b4 3b 8e 6d 4e bb
       0.029656736 -0.025501654 0.005503445 -0.0031498405
000010 b5 2b ed bb f2 da a6 3c 08 a4 60 bc b1 10 11 bc
       -0.0072378763 0.020368073 -0.013710983 -0.008854077
000020 ab 04 fc bc 00 00 00 00 9f b5 8f 3d 00 00 00 00
       -0.030763945 0.0 0.07017063 0.0
000030 7b 08 47 bd 9e d8 22 3d 89 96 50 bd 8a fa 83 3d
       -0.048592072 0.039757363 -0.05092481 0.06444271
000040 49 d7 c8 3b df bc 2e bd b8 da 7c 3d 66 0d 92 3c
       0.0061291796 -0.04266059 0.061732024 0.017828654
000050 5e ac 06 bd 50 c9 f9 bc 5e 3f 73 3d 35 c7 ef 3c
       -0.032879226 -0.030491501 0.059386604 0.029269794
000060 40 8d 33 bd 93 02 52 3d a1 1a 6d 3c 26 02 4f bd
       -0.04383588 0.051271986 0.014471681 -0.05053916
000070 ca be 9d bb 62 23 63 3b 4e d7 40 bd e8 0f 2f bd
       -0.0048140036 0.003465854 -0.04708033 -0.04273978
000080 e3 37 ee bc 84 cb 1b 3d a5 93 3b bd 4e 05 9d bc
       -0.029079383 0.038035884 -0.0457951 -0.019167569
000090 00 00 00 00 cf 23 45 bc e5 b3 5d bd 99 f0 94 bb
       0.0 -0.012032463 -0.05412664 -0.004545283
0000a0 c3 89 1a 3a 22 9a d7 bc b6 11 96 3d 26 9d c3 3d
       0.0005895162 -0.026318613 0.07327597 0.09551458
0000b0 a6 fe 6d bd 8b b8 3c 3d 1e 03 41 bd c5 c9 8a bd
       -0.05810418 0.04607443 -0.047122113 -0.06776766
0000c0 4f 52 f0 3c 39 bb 03 bd 6e 74 b6 3c f2 a0 17 bd
       0.029336123 -0.03216097 0.022272315 -0.037018724
0000d0 00 00 00 00 d8 82 19 bd ba 35 3d bd f2 68 9f bc
       0.0 -0.037478298 -0.046193816 -0.019459222
0000e0 9a 25 fe bc 16 3f 30 bd 13 d2 27 bd 7e ec ba bc
       -0.03102379 -0.043028913 -0.040971827 -0.022817846
0000f0 0d 04 04 3d 65 b3 da bc 8a 89 26 bc 2f 25 8d bd
       0.032230426 -0.02669687 -0.010164628 -0.06891858
000100 91 f2 83 bc 1a 6a 08 3d 1f b5 32 bd 55 78 b8 bb
       -0.016106876 0.03330431 -0.04362976 -0.005629579
000110 d6 2a 82 bc 0f f1 2b bd b4 fe ce ba 56 30 9b bd
       -0.015889566 -0.04197794 -0.001579246 -0.07577579
000120 a4 ad 02 3d eb 16 55 bc 1f 17 18 bd 28 74 1c bd
       0.031903878 -0.013005952 -0.037131425 -0.038196713
000130 82 70 34 bd 45 c3 5c bb be a9 10 bd 00 15 a8 bd
       -0.04405261 -0.0033685726 -0.03531813 -0.082071304
000140 4d 5f 62 bd 7e a0 13 bd de b7 5f bc 7b 42 d0 bb
       -0.055266667 -0.03604173 -0.013654677 -0.0063555813
000150 3c 16 17 bd 2f cd 03 bd 00 00 00 00 eb 75 50 bc
       -0.03688644 -0.0321781 0.0 -0.012723426
000160 f2 9d 2c bc de fc 1b bd 2d b0 5a bd 28 26 5a bd
       -0.010535704 -0.03808295 -0.05339067 -0.053259045
000170 f5 ee 8d b9 bd fd 94 ba 38 b0 4d bd a2 6c c8 3b
       -0.00027071653 -0.0011367124 -0.050216883 0.0061164657
000180 81 bf b9 bc 82 a4 a5 bb 44 97 e8 bd 90 9c 24 bd
       -0.022674324 -0.0050550113 -0.11356977 -0.040188372
000190 4c 28 4e bd 5e 93 1c bd c2 0b bd 3c 1d 70 fd bc
       -0.0503314 -0.038226478 0.023076896 -0.030937249
0001a0 36 06 6b bc 72 6c 33 bc 42 3b 55 bd 63 de 6f 3d
       -0.0143447425 -0.010951148 -0.052058466 0.058561694
0001b0 b4 70 79 bd fb d1 82 bc 30 b7 c1 bd 00 00 00 00
       -0.060898498 -0.015969267 -0.09458768 0.0
0001c0 c3 7a 81 bc 53 16 64 bc f7 ad ae bd 58 3d 89 bd
       -0.015805608 -0.013921338 -0.08529275 -0.067011535
0001d0 9d 24 33 bc bf 5c 9b bc 56 07 c1 bc cd be 44 bd
       -0.010934022 -0.018965123 -0.023563068 -0.048033524
0001e0 8a 6f 45 bd 42 57 3d bc aa 41 b8 bd 83 3e fe bc
       -0.048202075 -0.011556448 -0.089968994 -0.031035667
0001f0 00 00 00 00 4a 21 cb bd 5d 4b 23 3d d6 af 98 bd
       0.0 -0.09918459 0.039866794 -0.07455413

hidden_nets.1.weight f4 [64, 128]
000000 9e b0 a8 3d a6 3f 8a bd 67 ec 09 3e 3b a9 78 be
       0.08236812 -0.06750421 0.13469087 -0.24283306
000010 67 2b 2c be 48 86 4f bd 6c 20 2e 3e 10 8c 04 3e
       -0.16813432 -0.05066517 0.17004555 0.12944055
000020 5e 49 55 3d 92 b4 32 3e 55 40 d4 3d 97 a7 b8 3c
       0.05207192 0.17451695 0.10363833 0.02254085
000030 e0 d4 90 3d ba 59 30 bd 67 e5 01 3d 5f db bb bd
       0.07071853 -0.04305432 0.031712916 -0.09172701
000040 8d 90 2e 3e e0 2b a5 bd 05 45 19 3e 60 af a0 3d
       0.17047329 -0.08065009 0.14967735 0.0784595
000050 8d 6f da 3d 61 dd 8a 3d 83 47 74 3d da 3a 4d 3d
       0.10665808 0.06780506 0.05963851 0.050104953
000060 dc b5 44 bd 30 b7 54 be 7a b4 3c be 78 a7 0c 3e
       -0.048024997 -0.20773005 -0.18428221 0.1373576
000070 8c cc 57 bc c5 0a 91 3d c6 db d1 3d c3 c9 2c 3e
       -0.013171326 0.07082132 0.102469966 0.16873841
000080 79 0d 12 bd b9 30 c5 3c a3 b4 9e bc f1 18 e5 3d
       -0.03565738 0.024071084 -0.019373244 0.11186398
000090 cd f3 1f be 54 20 68 bc 5e 63 3e 3e fe de 66 3d
       -0.15620346 -0.014167864 0.18592593 0.056365006
0000a0 7d da b9 3c a1 4c f7 3c 31 c5 dc 3d a0 58 b9 bc
       0.022687191 0.030187907 0.10779799 -0.022625268
0000b0 fc f0 c2 3d 57 74 18 be 7d a0 84 bc a4 3c c0 3c
       0.0951862 -0.1488813 -0.016189808 0.023466416
0000c0 ad aa 1c be ab b0 1b 3c 95 65 e8 3c f2 b2 f9 3d
       -0.15299483 0.00950257 0.02836875 0.12192334
0000d0 dc 9d ff bd 46 c8 08 bd b0 43 35 bd ba b7 8f bc
       -0.12481281 -0.03339412 -0.044254005 -0.017543662
0000e0 14 97 54 3d 91 ec 1c 3e 31 72 bb 3d 87 8f 98 bd
       0.05190189 0.15324618 0.0915264 -0.07449251
0000f0 d8 d9 cc bd db f1 dd 3d 62 ee 27 bd 22 9f 86 bd
       -0.10002488 0.10837146 -0.040998824 -0.06573321
000100 c8 95 c7 bd 83 b1 07 bc 2c ad 6a 3d f4 c1 de bd
       -0.097453654 -0.008282068 0.057294056 -0.108768374
000110 63 be 40 3e 27 7c 0f 3e 0a 8f 39 be 97 22 0e 3e
       0.18822627 0.14012204 -0.18120971 0.13880382
000120 ec 2d 9f bd 0d b1 1e 3d 1b e2 48 3e d7 b6 22 3e
       -0.07772431 0.038743068 0.19617502 0.1589006
000130 54 35 c5 3d 01 70 c1 bd 4a b3 46 3e 75 20 17 3e
       0.09629312 -0.09445191 0.19404331 0.14758475
000140 bf ac 33 bb c9 5c 2e bd 2b 97 29 3e ff f4 2b bd
       -0.0027416197 -0.042568956 0.16561572 -0.041981693
000150 c1 31 93 bd f1 3c ff bd b5 36 92 3d f9 a7 a1 3d
       -0.07187224 -0.124627955 0.07139341 0.07893366
000160 76 98 30 be 9d 96 1f be 23 bf 30 3d fa 28 c9 3d
       -0.17245659 -0.15584798 0.043151032 0.09822269
000170 fc 53 eb 3d 8c ca 33 bd ea 36 3e 3e f0 10 95 bd
       0.11490628 -0.043894336 0.18575636 -0.07278621
000180 25 21 c0 bd 73 70 50 3e 56 aa a2 3d 7a da 35 3e
       -0.09381322 0.20355396 0.07942645 0.17759123
000190 cb 32 95 3d 91 47 b2 bd d7 2e cc bd f7 45 12 be
       0.072850786 -0.087050565 -0.099698715 -0.14284502
0001a0 26 cd a9 bc 93 a0 c0 bd 3e 49 1a 3e e6 54 ea bd
       -0.020727705 -0.09405627 0.15067002 -0.11441974
0001b0 de 4e 38 bd 11 01 3a 3e 88 bf 96 3d a5 16 14 3c
       -0.04499709 0.1816447 0.073607504 0.009038602
0001c0 0e 0c a3 3d 2a 9b c9 bd ef 5c c7 bd 94 83 f0 3d
       0.079612836 -0.09844048 -0.097345226 0.117438465
0001d0 98 9e 26 bd cc e3 ed bd 78 65 eb bd 6c 0f 37 3e
       -0.04067859 -0.116157144 -0.11493963 0.17876977
0001e0 8e 06 b3 bd ef 44 1a 3e af f8 2d 3e a6 8d 2b 3d
       -0.087414846 0.15065359 0.16989397 0.041883133
0001f0 ea 8a d4 bd e7 c3 34 bc 4c ee e3 bd 07 8f f4 3d
       -0.10378058 -0.011033035 -0.11129436 0.11941343
000200 96 14 c9 bd 54 a3 dd 3c 11 4f 29 3c d8 7f 28 3d
       -0.098183796 0.02705542 0.010333792 0.041137546
000210 91 0e 01 3e 5a f6 e8 bd 9a 0d 62 3e c3 dd dc bd
       0.12603213 -0.11375113 0.22075501 -0.10784485
000220 73 2a 64 be 2b cc 16 be f1 06 60 3d e0 42 b3 bd
       -0.22281818 -0.14726321 0.05469412 -0.0875299
000230 1f c8 a3 3c f4 28 21 3e a7 fd 02 3c 1a b5 18 3e
       0.019992886 0.15738279 0.007995046 0.14912835
000240 b0 f1 8e 3c f9 65 d1 3d 05 c2 b4 bd 9b 24 af bd
       0.01744923 0.10224528 -0.08826069 -0.08551904
000250 cd d5 47 3d 63 e1 dd 3c c8 89 47 3e 2b 8a ba bd
       0.04878788 0.027085012 0.19486153 -0.09108385
000260 c9 cb bc 3d 45 7f dd 3d 18 d6 a1 bd 7b c5 b5 3d
       0.092185564 0.1081529 -0.07902163 0.08875557
000270 b0 e1 10 3d f8 0f 99 bd 81 39 27 3d a3 3a e7 3d
       0.035371482 -0.07473749 0.040826324 0.11290481
000280 9c 4b 15 be a8 f0 a2 bd b5 a5 13 3e 5d d3 b0 bd
       -0.14579624 -0.07956058 0.14418681 -0.08634064
000290 87 4d 72 bd b7 26 a0 bd d2 59 0b 3e 65 5f 23 bc
       -0.059155967 -0.07819884 0.13608482 -0.009971474
0002a0 e1 1f 14 3e 0d 42 05 3e 28 b1 04 3d c6 03 0d 3d
       0.14465286 0.13013478 0.032395512 0.034427427
0002b0 7c d2 59 3b e3 ab 3a be 0e 63 a5 3d 75 69 e0 3d
       0.003323703 -0.18229632 0.08075534 0.10957614
0002c0 0b c2 d9 3d 8e 9e e4 3d 86 08 58 3e 82 fc 12 be
       0.10632714 0.111630544 0.21097001 -0.14354137
0002d0 e6 0d 24 bd 52 a3 5e bd 8e 95 ba 3d 54 6c fe ba
       -0.040052317 -0.054354973 0.091105565 -0.0019410946
0002e0 5e 43 c6 3d d0 dc 21 3d f0 c0 08 be 79 92 4d 3d
       0.09680818 0.039517224 -0.1335485 0.050188515
0002f0 0d 9c de 3c 34 5e 0e bd 5d 62 29 3e 22 77 05 be
       0.02717402 -0.034757808 0.16541429 -0.13033727
000300 56 fa 0c be 2b 42 4c be 4e 24 00 be 55 ef af bc
       -0.1376737 -0.19947116 -0.12513849 -0.021476427
000310 06 8e ce 3d 02 51 38 3e c2 c2 4c 3d ee fb 0f 3e
       0.100856826 0.17999652 0.049990423 0.14060947
000320 d0 62 4f 3e 01 63 91 bd 70 73 b8 bd 2a 27 3b 3e
       0.20252538 -0.070989616 -0.09006393 0.18276659
000330 b5 15 2e 3e 98 4a a8 3d c7 0e 1c 3d a1 f3 8a 3d
       0.17000468 0.08217353 0.03810003 0.0678475
000340 42 e2 92 bd 2f 28 b5 3d bc f2 7d 3d 56 60 39 be
       -0.071720615 0.08845555 0.061999068 -0.18103155
000350 8f d3 1e 3e a1 ef fa bd cf 0d 09 be ab b2 2a 3e
       0.1551039 -0.12252737 -0.13384174 0.16669719
000360 76 25 e5 bd df bb 88 bb f2 ba f8 bd 51 c6 e6 bd
       -0.11188786 -0.0041727866 -0.12145032 -0.112682946
000370 34 46 48 bd c4 4a 4f ba 9f 7a a1 3c 9d 45 4e 3c
       -0.048895076 -0.0007907564 0.01971179 0.012589839
000380 d0 2d f3 bd fc 91 b3 3c 0f 39 f1 3d fd 19 ae bd
       -0.118739724 0.021920197 0.11778461 -0.085010506
000390 47 88 98 bd f7 7f 30 3e bc 53 3e be cc b3 8d bd
       -0.07447868 0.17236315 -0.1858663 -0.06919059
0003a0 5a e4 cf bd 9f ba 3b 3e 97 d9 fd 3d 51 1a 8f bc
       -0.101509765 0.18332909 0.123950176 -0.017468603
0003b0 7b 13 e3 bd e4 2b 11 be fe 73 06 3d 1d 6b dd 3d
       -0.110877 -0.14176899 0.032825463 0.10811446
0003c0 4c 87 a9 3c ab fd c5 bd a4 d1 cc bd 0b 06 1f 3e
       0.020694397 -0.09667524 -0.10000923 0.15529649
0003d0 5f 01 a1 3d 13 7d e6 3d 59 13 91 bd 4f e4 8c bb
       0.0786159 0.11254325 -0.070837684 -0.0042996774
0003e0 c8 09 8d 3e 3a 98 1e be 32 91 0f be 17 d4 81 bd
       0.27546525 -0.15487757 -0.14020231 -0.06339281
0003f0 d5 fc b1 bd fe fa a0 3d ec d6 d8 3d 0d 85 c1 bc
       -0.08690802 0.07860373 0.10587868 -0.023623014

hidden_nets.1.bias f4 [64]
000000 7b 19 5a 3f 7e ef 57 3f c6 23 46 3f e0 69 1a bd
       0.8519513 0.8434981 0.77398336 -0.037698627
000010 92 8c 18 bd a5 19 6b 3f 34 5f 56 3f 0e cc c1 bc
       -0.037243433 0.91836005 0.8373902 -0.023656871
000020 80 db 52 3f 21 a3 d7 bc b2 c6 62 3f 5f 53 57 3f
       0.8236618 -0.026322903 0.88584435 0.8411159
000030 a2 7f 90 bd 6c 73 35 3f 3b 6e 57 3f 00 ff 5f 3f
       -0.07055594 0.70879245 0.84152573 0.87498474
000040 1a e1 55 3f 5f 66 63 bd 5e 8c 4f 3f 7e 29 ad bd
       0.835466 -0.05551755 0.8107356 -0.0845518
000050 8c 5c 4e 3f 38 ed 23 3f 66 a6 16 bd 94 e1 16 bc
       0.80609965 0.6403384 -0.036779784 -0.009209055
000060 8c d1 51 3f 40 46 39 bd b6 ec 50 3f 0b d4 53 3f
       0.8196037 -0.04523301 0.8161119 0.82745427
000070 07 7d 1f bc ee bc 5a 3f 96 c6 4a bd 94 31 aa bd
       -0.009734399 0.85444534 -0.049505793 -0.083102375
000080 a9 a2 e6 3b 35 d7 38 3f 26 57 3a bd 20 28 60 3f
       0.0070384336 0.7220338 -0.045493267 0.87561226
000090 da f2 5d 3f b2 0a 59 3f 2b f7 9d bc 7a 3a 5a 3f
       0.8669869 0.84781945 -0.019282898 0.8524548
0000a0 f1 b6 4d 3f 8c b3 59 3f 86 a0 4f 3f ec 0c 57 bd
       0.8035727 0.8503959 0.81104314 -0.052502558
0000b0 e6 fd 80 bd a7 2b 62 3f 1d d1 68 3f e9 f3 46 3f
       -0.06298427 0.8834786 0.9094408 0.7771593
0000c0 51 1e 81 3d 64 8c 52 3f 0a a9 1b bd 88 22 5b 3f
       0.063046105 0.8224547 -0.038003005 0.85599566
0000d0 06 94 2b bd 24 2e 5a 3f c2 86 56 3f 06 91 7f bd
       -0.041889213 0.85226655 0.83799374 -0.062394165
0000e0 b6 3a 0d bd dd 27 54 3f 72 b7 d1 ba ac 08 12 bd
       -0.03447982 0.82873327 -0.0016000106 -0.0356528
0000f0 52 1f 54 3f 6b 60 6d bd 6c 0a 54 3f a9 ba 59 3f
       0.8286029 -0.05795328 0.828284 0.85050446

value_stream.weight f4 [1, 64]
000000 5d 3f f1 3e 8d cd 16 3f df 9a 3a 3f 0e 64 90 be
       0.47118655 0.58907396 0.72892565 -0.28201336
000010 36 64 cc be 1e e4 09 3f a3 e2 fe 3e ce ae ba bd
       -0.39920205 0.53863704 0.49782285 -0.091153726
000020 8a f5 17 3f 0b 3b 81 be 1f 68 fe 3e 96 c9 0b 3f
       0.5935904 -0.2524036 0.49688813 0.5460447
000030 75 28 ce be be bd f2 3e 66 a1 fd 3e a6 1d 0b 3f
       -0.4026524 0.47410387 0.495372 0.54342115
000040 70 a1 f1 3e 2a 72 78 be 00 04 19 3f b7 cd 49 be
       0.4719348 -0.242623 0.5977173 -0.1970738
000050 a8 e0 f5 3e 7f 71 05 3f 64 61 4e be 38 3c a8 be
       0.48022962 0.52126306 -0.20154339 -0.32858443
000060 4d 74 2b 3f 0f ac 7e be eb d1 1d 3f cd 97 22 3f
       0.66974336 -0.24870323 0.61648434 0.6351288
000070 c1 7a 83 be 0c 7a fd 3e 47 ae b7 bd d0 37 c1 be
       -0.2567959 0.49507177 -0.08968788 -0.37737894
000080 b6 fc c1 be 0f 2d f1 3e 41 a6 ae be 05 45 dc 3e
       -0.37888116 0.4710469 -0.34111217 0.43021408
000090 b6 a8 03 3f 57 fc fc 3e bd b3 99 be 20 00 05 3f
       0.5142931 0.4941127 -0.30019942 0.51953316
0000a0 65 06 ff 3e ad 08 f7 3e df c1 03 3f ff 66 25 be
       0.49809566 0.48248807 0.514677 -0.16152571
0000b0 ce 53 01 be 22 0a 1f 3f c6 08 db 3e 1c 3c 0d 3f
       -0.12629625 0.62124836 0.4278013 0.55169845
0000c0 0a e1 ea bc ee 99 09 3f 2f a4 c5 bd 65 45 b3 3e
       -0.02867176 0.53750503 -0.09650456 0.3501388
0000d0 dd 85 c4 bd dd 40 50 3f 69 04 ee 3e 31 90 02 bd
       -0.09595845 0.81348974 0.4648774 -0.031875793
0000e0 c8 d8 63 be e1 aa 27 3f 0c 02 7e be 6f ca 62 be
       -0.22250664 0.65495116 -0.24805468 -0.22147535
0000f0 2c 89 06 3f 5a 03 0f be 52 e8 1a 3f 5d 8c 06 3f
       0.5255306 -0.13966122 0.6051074 0.5255793
