hyperopt_results/models/arch_simpler_20250906_230524/dqn_racing_final.pth (torch, 187913 bytes, 28 tensors)

hidden_nets.0.weight f4 [128, 11]
000000 11 39 b2 bc 54 b7 b4 3d 91 67 8b 3b f3 6a 0a be
       -0.021755727 0.088240296 0.0042542894 -0.1351736
000010 5d d9 01 be 29 fd 1f bf a1 26 05 3e 0d 4d 3b be
       -0.12680574 -0.62495667 0.13003017 -0.18291111
000020 ee 30 29 be f3 07 89 bb c7 a3 c5 bd 54 31 f1 bd
       -0.16522571 -0.004181856 -0.09650379 -0.11776987
000030 60 68 36 be ef df 4b 3d 03 7a 87 3d c6 22 18 3e
       -0.17813253 0.049774107 0.06615069 0.14857015
000040 6c 9c 7b bd ad 56 ce 3d 22 f8 db 3d aa 92 66 bd
       -0.061428472 0.10075126 0.10740687 -0.056292213
000050 41 4c 3d 3e b4 5a d4 bb 89 ba 27 3d fb ff de bd
       0.1848612 -0.006480539 0.04094938 -0.10888668
000060 db cb f9 be 42 0d 94 bd a5 e6 38 3e f7 30 b6 bd
       -0.48788342 -0.07229091 0.18056734 -0.08896058
000070 5e 7d ec bb 81 b5 a0 bd 65 5b 2a 3e 8e 5a 0e be
       -0.0072170934 -0.07847119 0.16636427 -0.13901731
000080 49 af 9a 3d 26 4d 45 bd 1e 87 12 be 24 19 28 be
       0.07552964 -0.048169278 -0.14309356 -0.1641584
000090 f0 48 77 be 40 3a c0 bd a5 bb b2 bd aa 3e 5b 3d
       -0.24148917 -0.0938611 -0.087271966 0.053526558
0000a0 a1 c1 40 bd 64 14 cf bd bf 48 0a 3e 01 2c 27 3e
       -0.04705966 -0.10111311 0.13504313 0.1632538
0000b0 a4 ae 98 bd 35 d5 bd bd 92 d7 33 be 34 1b 81 be
       -0.07455185 -0.09269182 -0.17562702 -0.25216067
0000c0 1d 01 5d bd 93 ae 9b bd 17 8d e7 3d c2 08 1f be
       -0.05395614 -0.07601657 0.113062076 -0.15530685
0000d0 55 42 30 bd 7d 9e e4 3d c9 49 48 3e c3 a5 7f 3e
       -0.04303201 0.11163042 0.19559397 0.24965577
0000e0 96 7f d2 bd 92 d9 a6 bc 15 96 6d 3d 53 06 3c 3e
       -0.10278241 -0.020367417 0.058004458 0.18361787
0000f0 31 09 59 3c 0f 79 0f bc 1d 44 cc bd f3 bf 52 be
       0.01324682 -0.00875689 -0.09973929 -0.20581035
000100 46 1d f1 bc c4 af 1d bb 82 16 c7 3d 15 d9 69 be
       -0.029432904 -0.0024061063 0.0972109 -0.22836716
000110 d5 85 16 bc 14 de a3 bd aa 9d 28 3e f9 4f ff be
       -0.0091871815 -0.080013424 0.16466394 -0.49865702
000120 71 c4 01 3e d9 92 40 be ff 0f 21 3e 5c 91 4f bd
       0.12672593 -0.18806018 0.15728758 -0.050675735
000130 63 48 2e 3c 8d a7 31 3e 01 00 33 be f4 81 cc be
       0.0106373755 0.17349072 -0.1748047 -0.39942896
000140 a6 98 dc bc 5d 1c 9a bd 16 81 5e bc 2f ce 6d 3e
       -0.026928257 -0.07524941 -0.013580581 0.23223184
000150 a9 0a 49 be f0 af 99 bd a1 04 7f bd 06 86 1d bd
       -0.19632973 -0.075042605 -0.062260274 -0.038457893
000160 90 e1 43 bd f3 aa 9a bd 81 e2 14 be a9 ba aa 3e
       -0.047822535 -0.07552137 -0.1453953 0.33345535
000170 f1 2d ae be df 5f 86 3d 3a 22 ed 3c 75 8d 3f 3e
       -0.34019426 0.06561255 0.028946985 0.18706305
000180 8b c0 c9 3d e0 02 99 bc 0c f3 21 3c df b5 87 3c
       0.09851178 -0.018678129 0.009884607 0.016566215
000190 e0 84 b6 bd b1 54 4e be f4 02 33 3e c0 64 4b be
       -0.08912063 -0.20149495 0.17481595 -0.19862652
0001a0 8f 14 06 be 7e a6 97 bd b4 9b 42 be 8d 19 25 be
       -0.1309378 -0.07404803 -0.19004709 -0.16123028
0001b0 4a 91 de bd 17 67 c9 3c 5d a5 6c be b0 72 15 bd
       -0.108675554 0.02458529 -0.23109956 -0.036486328
0001c0 a4 dd 31 be 1d 0b 36 be 3f 2d 9d be 0f 73 3c 3d
       -0.17369705 -0.17777677 -0.30698583 0.046008166
0001d0 20 11 39 3c e3 60 af 3e 70 4d ba bd 6e 30 13 3d
       0.011295587 0.34253606 -0.09096801 0.035934858
0001e0 7e bf 3a 3d 26 97 3a 3e 34 ce 87 3d 7d e6 91 bc
       0.045592777 0.18221721 0.06631127 -0.0178101
0001f0 60 37 8a 3d ba 8e 51 be 07 87 11 be fd ea b2 bd
       0.06748843 -0.20464602 -0.14211665 -0.08736227
000200 01 97 40 be d4 ac 20 be cb 9e 23 be e6 4c 74 3d
       -0.18807603 -0.15690929 -0.15978543 0.05964365
000210 b7 f7 18 3e 2d fd 90 bd 32 5c 71 bc 31 e6 d8 3c
       0.14938246 -0.070795394 -0.014731454 0.026476951
000220 24 4a 51 3e 73 64 ea bc 9b ee 5a 3d 1b de 7b bd
       0.20438439 -0.028612351 0.05345021 -0.061491113
000230 7c 87 94 bd d2 d9 ca 3d 4a c9 37 bc d3 ae 43 bd
       -0.07252404 0.09904827 -0.011217425 -0.047774147
000240 06 1b 1e 3e 5d 72 a0 3d 71 96 98 bd f2 15 8e be
       0.15439996 0.07834313 -0.074505694 -0.27751118
000250 cb 95 83 be 73 61 46 bd 4d cf e9 3c a6 12 ca 3d
       -0.2570022 -0.04843278 0.028541232 0.09866838
000260 05 80 8e 3d bd bc 19 3e de a4 cb bd 71 91 cd bd
       0.069580115 0.15013404 -0.09943555 -0.10037506
000270 05 06 3b bc f1 af 21 bc 3f 83 86 3e 80 0d de bc
       -0.011415009 -0.009868608 0.26272008 -0.027106047
000280 2e 6e 15 3b 93 d0 2c 3d 78 0e 4f bd ab 9a 0c 3d
       0.0022801268 0.0421911 -0.050550908 0.03432719
000290 94 bf 3b 3d 01 ef 3d 3e 8e 8f 2f be 3c 8c 54 bd
       0.045837 0.18548204 -0.17144606 -0.05189155
0002a0 f4 99 eb bb 64 4c 7f bc fd a4 82 3d 7e c5 20 be
       -0.0071899835 -0.015582178 0.06379125 -0.15700337
0002b0 86 29 71 be 29 4b 57 bd bf 0f 2f 3d b8 ec a0 bd
       -0.23550996 -0.052561913 0.042739626 -0.078576505
0002c0 ca bf 9f bd 4b 9e 7d bd d2 ff 0d be 09 28 9e be
       -0.07800253 -0.061918538 -0.13867119 -0.3088992
0002d0 37 06 91 be de 3b 0f 3e 9e e7 87 bd 81 e3 41 be
       -0.28325054 0.13987681 -0.06635974 -0.18934442
0002e0 57 ca 84 bc a3 66 2c 3e 9e ec de ba 3f 1a ce 3e
       -0.016209764 0.16836028 -0.0017007773 0.402544
0002f0 0c 9d 14 3e 38 fa 33 3e 86 8b 8e bd 37 d2 3a be
       0.14513034 0.1757592 -0.06960206 -0.18244253
000300 34 3e a9 bd 95 e7 64 bd 1e c3 8f be 2e 3a c6 3d
       -0.082638174 -0.055884916 -0.2807855 0.09679066
000310 04 d7 0c be 38 6a 41 bd 44 46 aa 3c c4 56 39 be
       -0.13753897 -0.04722044 0.020785458 -0.18099505
000320 c9 7d 0b 3d d6 79 22 3d b0 ac 78 3e e8 33 60 bd
       0.034055505 0.039666973 0.24284625 -0.054737
000330 24 8c f5 3c de 6b de bd 5b 43 f0 bc 0b d8 1c 3e
       0.02997405 -0.10860418 -0.029328993 0.15316789
000340 dc bd 69 3b eb f6 1f be 24 cd 2e be 85 4a 39 be
       0.0035666144 -0.15621535 -0.17070442 -0.18094833
000350 5f 38 7b be d4 b9 90 be d9 18 8e bd 38 3f 8a be
       -0.24533223 -0.28266776 -0.06938333 -0.27001357
000360 14 7b 19 3d 8d 35 2d be 33 7f 4d 3e 7b f2 96 bc
       0.037470892 -0.16914959 0.20068054 -0.01842617
000370 23 8f 45 3e ce 05 1f be f5 0d 77 3d ca 0b 93 3c
       0.19292884 -0.15529558 0.060316045 0.017949957
000380 81 04 65 3e 02 93 ba 3c 58 0a b3 bc 45 7e b3 bc
       0.22365 0.022775177 -0.021855518 -0.021910796
000390 a1 af d8 3c e2 a3 dd bc 08 92 ac bc 4a 7b 63 3e
       0.026450934 -0.027055684 -0.021065727 0.22215
0003a0 cc 51 10 be 90 9f 82 3d f4 31 69 3d 31 08 6d 3e
       -0.14093703 0.063780904 0.056932405 0.23147656
0003b0 c5 4a 7e 3c db 4f 5e bc 0d 3b 8d bd 68 ad 29 3e
       0.015520756 -0.013568844 -0.06896029 0.16570055
0003c0 8a dc 93 bc 2b 2e 37 3b e9 78 23 3e 61 18 f7 bd
       -0.018049497 0.0027951102 0.15964092 -0.12065197
0003d0 1c 73 95 3d 5d b7 8b 3d 37 3c 5d 3e 39 07 43 bc
       0.07297346 0.06822083 0.21605001 -0.0119035775
0003e0 ce de a5 3c e5 59 29 be 83 40 04 3e b2 9e 8a 3c
       0.020247843 -0.16538198 0.12915234 0.016921375
0003f0 5b 14 6a 3c be d5 45 3e db 55 52 bd f4 cd 26 3d
       0.01428708 0.19319817 -0.05135141 0.040723756

hidden_nets.0.bias f4 [128]
000000 81 50 32 bd 77 fa ae bd 13 ee a9 bd 46 3a f3 bc
       -0.043533806 -0.08543866 -0.08297362 -0.029690873
000010 8c cd 54 bd ea 21 63 bd a6 b6 ad bd 1e d4 00 bd
       -0.051953837 -0.055452265 -0.08482103 -0.03145229
000020 05 ce d6 3c 00 00 00 00 c7 d3 1e 3e 00 00 00 00
       0.026221285 0.0 0.15510474 0.0
000030 a1 7f 1b be 12 59 87 3c 01 05 27 be 1a 5f e0 bd
       -0.15185405 0.016521964 -0.16310503 -0.10955639
000040 8c 53 c8 bc ac f9 14 be ef 76 56 bd ed 16 ac 3d
       -0.0244539 -0.14548367 -0.052359518 0.0840281
000050 af 6a e6 bd 66 d9 e8 bd 15 ce 68 bc 7a 03 90 bd
       -0.11250817 -0.113695905 -0.01420929 -0.07031913
000060 37 fd 02 be 63 15 83 bc f4 66 e4 3c ad 18 2b be
       -0.12791906 -0.016001409 0.027881123 -0.16708632
000070 0d fe 8a bc a6 1e e0 bd 5c c4 11 be e9 9f ef bd
       -0.016966844 -0.10943346 -0.14235061 -0.11700422
000080 da 98 1b 3e ed 9a ca bd 5e f4 a2 bd f9 23 ec 3d
       0.15195027 -0.09892831 -0.079567656 0.11530299
000090 00 00 00 00 bf fc 75 bd e5 b3 5d bd 2f df 0e 3d
       0.0 -0.06005549 -0.05412664 0.034880813
0000a0 b2 98 7e 3d b0 9e ad bd 17 4d 02 3d 59 04 ad 3b
       0.06215734 -0.08477533 0.0318118 0.0052800593
0000b0 2d 26 fa bd ae 9f d4 3d 62 e7 20 bd be 87 2a be
       -0.12214313 0.10382019 -0.039283164 -0.16653344
0000c0 59 90 0f 3e 29 f0 09 be d3 a8 2c bd 31 0d 8b bd
       0.14019908 -0.1347052 -0.04215319 -0.067896254
0000d0 00 00 00 00 51 e2 f3 bd d3 5c b7 bd 28 4a e7 bd
       0.0 -0.11908401 -0.08953252 -0.11293441
0000e0 62 6b 13 be 3b ed 78 bd 13 d2 27 bd d8 e5 d9 bc
       -0.14396432 -0.060773116 -0.040971827 -0.026598856
0000f0 ea f1 3f bc c1 52 06 be e2 c8 e6 bd 8e d6 33 be
       -0.011715392 -0.13117506 -0.11268784 -0.17562315
000100 98 cc d4 bd 3b 82 d4 3d 43 4a 2c be b9 6d d0 bd
       -0.10390586 0.10376402 -0.16825204 -0.10177178
000110 63 f8 3e bd ee 19 c6 bd 15 47 85 bc 5a a6 29 be
       -0.0466236 -0.096729144 -0.016269246 -0.16567364
000120 32 e5 e0 3d 27 c6 8b bd 12 1a 04 be 2c 75 18 be
       0.109812155 -0.06824904 -0.1290057 -0.14888448
000130 0f 86 42 be 34 48 18 bd 4a 3d 0a be 17 d7 28 be
       -0.18996452 -0.037178233 -0.13499942 -0.164883
000140 a9 7b 88 bd dc 56 be bd de b7 5f bc f0 3e aa bd
       -0.06664211 -0.09293911 -0.013654677 -0.083127856
000150 b7 b7 eb bd 92 49 f6 bd 00 00 00 00 46 3d 40 3d
       -0.1150965 -0.12025751 0.0 0.046933435
000160 43 b7 7a bc 7e 70 02 be ab b8 21 3d af 26 0f be
       -0.015302482 -0.12738225 0.039482754 -0.139796
000170 b0 2c 8d 3d 79 2c d5 3d c7 77 15 be 86 4c f4 bb
       0.06893289 0.10408873 -0.14596473 -0.0074554114
000180 81 bf b9 bc a0 1a 14 be f1 f3 17 be 71 87 1e be
       -0.022674324 -0.14463282 -0.1483915 -0.15481354
000190 b0 58 06 be 68 7f 0a be 15 78 c9 bc b5 ed 02 bd
       -0.13119769 -0.13525164 -0.024593392 -0.031964976
0001a0 36 06 6b bc 86 bd 4a bd b2 50 1a 3c f8 92 66 3d
       -0.0143447425 -0.04949715 0.009418653 0.056292504
0001b0 73 be 18 bd d8 83 ce bd f3 7d 40 be 00 00 00 00
       -0.037291 -0.10083741 -0.18798046 0.0
0001c0 c3 7a 81 bc 53 16 64 bc 83 a4 2a be c8 15 1b be
       -0.015805608 -0.013921338 -0.16664319 -0.15145028
0001d0 64 3b 02 be 06 9a 3c be 31 6e 06 3e 62 38 11 be
       -0.12717968 -0.1841813 0.13127972 -0.14181665
0001e0 b4 e2 9d bd 42 57 3d bc e1 ec 38 be f9 ac 1f be
       -0.07709256 -0.011556448 -0.18059112 -0.15593328
0001f0 00 00 00 00 68 aa ce bd 09 f7 75 3d f2 9b 20 be
       0.0 -0.10091096 0.060050044 -0.15684488

hidden_nets.1.weight f4 [64, 128]
000000 2e ff f1 3c 58 2f cd bd bc 38 46 3d 7b f6 63 be
       0.029540624 -0.10018796 0.04839395 -0.22261994
000010 12 ce 19 be 67 9c 6a bd da 93 25 3e 9c 88 02 3e
       -0.15020016 -0.057278063 0.16169682 0.12747425
000020 3b de f0 3d 92 b4 32 3e a3 41 74 bd 97 a7 b8 3c
       0.11761137 0.17451695 -0.05963291 0.02254085
000030 05 d7 68 3c 08 1a bf bd 56 75 4d bc 0f a4 c3 bc
       0.014211421 -0.09331137 -0.012540182 -0.02388194
000040 9f ef 32 3e 4d 07 03 bd 8a af 04 3e 67 e2 30 bc
       0.1747422 -0.031989384 0.12957588 -0.010796166
000050 a2 03 b1 3d a4 21 8c 3d e3 05 8c 3d 4b aa 86 3b
       0.08643271 0.06842354 0.0683706 0.004109656
000060 e4 ef ef bc df e8 5d be 98 1a 13 be d6 65 ce 3c
       -0.029289193 -0.21670865 -0.14365613 0.025195044
000070 10 10 bb bc de c0 2b 3d 6d 0f bd 3d 59 02 11 3e
       -0.022834808 0.04193198 0.09231458 0.14161052
000080 09 34 3c be 9d 8d af 3c 27 f2 a2 3b 1c 7c 0f 3d
       -0.18379225 0.021429831 0.0049727145 0.03503047
000090 cd f3 1f be 25 e5 3b 3d 5e 63 3e 3e c5 b4 45 3d
       -0.15620346 0.045872826 0.18592593 0.0482681
0000a0 cc aa 87 bd 83 7f a9 bc 91 63 ab 3c 93 55 a3 bc
       -0.06624374 -0.020690685 0.0209215 -0.019938266
0000b0 f0 4a 9c 3d 2d 9d af bd bf bd 3a 3d 4a a3 5a bb
       0.07631481 -0.08574901 0.045591112 -0.0033361488
0000c0 6f 32 66 be d6 e2 a4 bc 28 e0 c2 bc 9f 6e cd 3d
       -0.22480176 -0.020127695 -0.023788527 0.10030865
0000d0 dc 9d ff bd 7a 9b b0 3c bd c6 91 bc 32 bb 41 bd
       -0.12481281 0.021558512 -0.017794961 -0.047297664
0000e0 46 ef 7d bb 65 6d c1 3d 31 72 bb 3d 19 6b ae bd
       -0.0038747354 0.094446935 0.0915264 -0.08516521
0000f0 07 17 c0 bd 6a 63 8c 3d a7 c3 4a bd 58 f9 bf bd
       -0.09379392 0.06854899 -0.049502995 -0.093737304
000100 7b ae db bd e5 43 0a bd 79 1e b0 3c af d7 c6 bd
       -0.10726639 -0.033756156 0.021498905 -0.09709107
000110 57 bf 70 3d e3 01 cb 3d 27 87 2f be b0 30 e2 3d
       0.058776226 0.09912469 -0.171414 0.11044443
000120 94 b1 ca bd 72 ea e0 bb cb ec fd 3d 34 13 d2 3d
       -0.098971516 -0.0068638856 0.1239868 0.10257569
000130 3f 0f 99 3d d5 3d 11 be ae 6e 0a 3e c6 0c d0 3d
       0.07473611 -0.14183743 0.13518783 0.10158686
000140 f6 87 42 3a 51 7f f5 bd 2b 97 29 3e 68 5f ac bd
       0.00074207725 -0.11987174 0.16561572 -0.08416635
000150 a8 62 b8 bd bd c6 f1 bd b5 36 92 3d 42 c2 0b bd
       -0.09003192 -0.118054844 0.07139341 -0.034120806
000160 d0 43 30 be 5d 31 4c be 50 71 4f ba ab 88 8e 3d
       -0.17213368 -0.19940706 -0.0007913308 0.06959661
000170 16 db 53 3d 03 7d ab bd 21 5c f8 3d 32 88 10 be
       0.05172261 -0.083734535 0.12126947 -0.14114454
000180 25 21 c0 bd 01 f2 f6 3d 6d 92 5d 3d 7d 1b e0 3d
       -0.09381322 0.12057877 0.05409472 0.10942743
000190 ca f4 39 3d 3e 0f f6 bd 3f 02 aa bd 92 0e 00 be
       0.045399465 -0.12014626 -0.0830121 -0.12505558
0001a0 26 cd a9 bc 79 a4 a2 bd d7 8e 2e 3c b5 14 e9 bd
       -0.020727705 -0.07941527 0.010654173 -0.11380903
0001b0 72 3a 26 bb b8 dd 1f 3e a8 dd b6 3c a5 16 14 3c
       -0.0025364426 0.15611923 0.02232249 0.009038602
0001c0 0e 0c a3 3d 2a 9b c9 bd c4 e2 ba bd 99 64 a8 3d
       0.079612836 -0.09844048 -0.09125283 0.082223125
0001d0 7b e8 d6 bd 73 89 e4 bd 41 32 3a be 22 d1 03 3e
       -0.10493561 -0.11159029 -0.18183233 0.12872747
0001e0 6c 94 f9 bd ef 44 1a 3e 06 50 ff 3d 6f 5e f0 3b
       -0.12186512 0.15065359 0.12466435 0.007335476
0001f0 ea 8a d4 bd 38 46 fb bd dc 85 0c be b3 2c e5 3d
       -0.10378058 -0.122692525 -0.13722938 0.11190166
000200 75 e3 29 be 53 de 33 bd ab 4f 55 bd 7e 9e 85 3d
       -0.16590674 -0.043913197 -0.05207793 0.065243706
000210 c7 45 1c 3e 5f ce d4 bd 49 4d 65 3e a7 1d dd bd
       0.15260993 -0.10390925 0.22392763 -0.10796671
000220 1a 80 21 be 2b cc 16 be 32 26 c8 bd e0 42 b3 bd
       -0.15771523 -0.14726321 -0.0977291 -0.0875299
000230 54 e4 a3 bc 95 af 7a 3c 0b 52 5d bc d6 b0 2b 3e
       -0.020006336 0.015300651 -0.01350833 0.16766676
000240 19 c1 b8 3c 03 b9 02 3e 4e 3e 81 bd 0b 22 1d be
       0.022553014 0.12765889 -0.06310712 -0.15345018
000250 72 a5 17 3d 9c 42 01 3d 30 4f 2d 3e 23 9a f6 bd
       0.037023015 0.031557664 0.16924739 -0.12041118
000260 ad 7c 69 3d 19 d0 8f 3d da 2b 55 bd 38 82 c9 3c
       0.057003666 0.07022113 -0.052043773 0.024598226
000270 e4 a9 d8 3c e0 cf cb bd 14 44 5e 3d 0f ae 08 3e
       0.026448198 -0.099517584 0.054264143 0.13347648
000280 e8 a6 9a be a1 55 a8 bd 5f bb 03 3e aa cd 59 be
       -0.30205464 -0.082194574 0.12864445 -0.21269861
000290 87 4d 72 bd ef 9b 94 bc d2 59 0b 3e fd 3f c8 bb
       -0.059155967 -0.018140761 0.13608482 -0.0061111436
0002a0 7f 71 00 3d 34 5d bf 3d 18 ff 64 bd d1 03 79 3b
       0.03135824 0.09343949 -0.05590734 0.003799666
0002b0 cb eb 36 bc e1 e7 32 be 0a c6 47 3d e8 83 ab 3d
       -0.011164616 -0.17471267 0.04877285 0.083747685
0002c0 35 2c a6 bb b0 bb dc 3d 17 7b 27 3e 14 b3 27 be
       -0.005071188 0.10777986 0.16355549 -0.16376907
0002d0 e6 0d 24 bd 9f 2d f8 bc 64 aa b6 3d c1 9d 94 bd
       -0.040052317 -0.030295191 0.08919218 -0.07256652
0002e0 b3 4d 2c 3d 4d 7d 3e bb f0 c0 08 be 60 57 40 3d
       0.042066287 -0.0029066384 -0.1335485 0.046958327
0002f0 ba 39 3d 3d 8d 12 d8 bc 2e 69 03 3e 3d e8 f4 bd
       0.04619763 -0.026376033 0.12833092 -0.119583584
000300 0e 6d ee bd 22 5b 6e be 7e 01 0a be 82 45 12 3c
       -0.11641894 -0.23276952 -0.13477132 0.008927705
000310 05 36 08 3d 52 74 19 3e d9 c1 74 3d f3 c7 ef 3d
       0.033254642 0.14985779 0.05975518 0.11708059
000320 b0 6c 42 3e d6 81 c2 bd 9f 5b d0 bd 48 cc 11 3e
       0.18986773 -0.094974205 -0.10173725 0.14238083
000330 71 42 ed 3d 72 e0 25 bd cc e9 1d 3d 4d 05 ec 3c
       0.11584938 -0.04049725 0.038553044 0.028811121
000340 c7 bf 92 bd ae 0c 05 3d bc f2 7d 3d da 8b 54 be
       -0.07165485 0.032482795 0.061999068 -0.20756474
000350 a6 fa 0f 3e 85 2a fd bd cf 0d 09 be b0 e0 90 3d
       0.14060459 -0.123616256 -0.13384174 0.07074106
000360 25 90 e4 bd 6d a9 9b bd a3 a1 f6 bd 9a 01 fe bd
       -0.11160306 -0.07600675 -0.120425485 -0.12402649
000370 fd 62 b3 bd 90 0c 61 bd ca 99 69 bc 64 3a 11 bd
       -0.08759115 -0.05494362 -0.014257858 -0.035456076
000380 d0 2d f3 bd 57 3e 87 bd a9 35 97 3d 14 e5 e0 bd
       -0.118739724 -0.06603687 0.07383282 -0.10981193
000390 d5 c5 b5 bd 23 3b f1 3d 02 d9 23 be e3 d1 52 bd
       -0.08875624 0.117788576 -0.1600075 -0.051469695
0003a0 5a e4 cf bd da dc 47 3e fb 2a bc 3b 5f ef 11 bd
       -0.101509765 0.19517842 0.0057424284 -0.035628673
0003b0 39 d8 a7 bd 8b 29 36 be 54 3c 2c 3c 1d 6b dd 3d
       -0.08195538 -0.17789285 0.01051243 0.10811446
0003c0 4c 87 a9 3c ab fd c5 bd b0 06 b2 bd 7f e8 e8 3d
       0.020694397 -0.09667524 -0.08692682 0.1137247
0003d0 73 d1 98 3c 64 1e 59 3d ce 93 20 be 2f 7d 02 bd
       0.01865456 0.0530075 -0.15681383 -0.031857666
0003e0 a1 33 80 3e 3a 98 1e be cf 3e 0a be 20 c9 c0 bd
       0.2503939 -0.15487757 -0.13500522 -0.094133615
0003f0 d5 fc b1 bd 0b 24 11 bd b6 2c 14 3d 3d 1d 7d bc
       -0.08690802 -0.035434764 0.036175452 -0.0154488655

hidden_nets.1.bias f4 [64]
000000 d2 43 89 3f 11 32 85 3f 78 45 71 3f 6d 87 0e be
       1.0723822 1.0405904 0.94246626 -0.13918848
000010 f7 23 16 3e ab 28 8e 3f 43 bb 88 3f 7e b9 d8 3e
       0.14662157 1.1106161 1.0682148 0.4232902
000020 32 81 81 3f 10 d4 cf 3d f6 04 8c 3f 2a 58 84 3f
       1.0117552 0.101478696 1.0939014 1.0339406
000030 05 09 33 3c 2d 93 7c 3f 81 72 89 3f 4a 5b 89 3f
       0.010927443 0.9866207 1.0738069 1.0730984
000040 bf 29 89 3f 43 8d 36 be 76 d3 82 3f 95 90 e3 bd
       1.0715865 -0.17827325 1.0220783 -0.11111561
000050 76 d3 86 3f 3a 0d 62 3f 72 4b 8c bd b3 bb 0b bd
       1.0533283 0.8830143 -0.068503276 -0.03411455
000060 fd 72 80 3f 28 1f 2a 3e 0d ff 82 3f 6f 56 80 3f
       1.0035092 0.16613448 1.0234085 1.0026377
000070 a7 e9 06 3e 59 17 88 3f 95 30 6e bd 08 9c 07 3e
       0.13175069 1.0632125 -0.0581518 0.13243115
000080 e6 f0 cd 3a f5 a9 7c 3f 68 dc 2c 3d f6 5c 8c 3f
       0.0015712052 0.98696834 0.042202383 1.096587
000090 05 22 89 3f a4 6b 89 3f d9 ea 23 bd 9c d5 88 3f
       1.0713507 1.0735974 -0.04001889 1.0690188
0000a0 17 8a 81 3f 06 9d 8b 3f e7 e2 82 3f 29 47 da 3e
       1.0120267 1.0907295 1.0225495 0.42632416
0000b0 78 75 e0 bd c3 a7 84 3f de 76 8f 3f fc 95 7b 3f
       -0.109599054 1.0363697 1.120815 0.98275733
0000c0 cf 92 05 3f b9 8c 83 3f 22 7b dc 3e ab c6 93 3f
       0.5217714 1.027732 0.43062693 1.1545004
0000d0 7a 63 fe 3e 74 57 7d 3f 19 c3 88 3f 13 12 e2 3e
       0.4968527 0.9896157 1.0684539 0.44154415
0000e0 07 5f a4 bd b8 6f 80 3f 8c 42 bf 3e 3a 05 8a bd
       -0.080259375 1.0034094 0.3735546 -0.06739278
0000f0 c2 a6 88 3f 20 88 de 3e e0 4b 80 3f ac de 85 3f
       1.067589 0.4346323 1.0023155 1.0458579

value_stream.weight f4 [1, 64]
000000 21 78 14 3f 08 59 33 3f e3 e2 4e 3f d8 fe 72 be
       0.579958 0.70057726 0.8081495 -0.23730028
000010 ce 9c 42 bf 00 66 26 3f e5 d0 1f 3f b2 37 08 3f
       -0.76020515 0.6499939 0.6242812 0.53209984
000020 1e 09 30 3f 4f 4c 4a bf a9 f2 1a 3f e0 36 27 3f
       0.6876391 -0.7902269 0.6052652 0.6531811
000030 70 74 e8 be 79 2c 1b 3f 4a 42 1b 3f 7b 99 25 3f
       -0.45401335 0.60614735 0.60648024 0.6468732
000040 35 dc 16 3f f7 64 20 be 0a a0 34 3f 8a 64 bc be
       0.5892976 -0.15663515 0.705567 -0.36795455
000050 92 31 1b 3f d2 9c 1f 3f 61 51 2f be f9 c7 de be
       0.60622513 0.62348664 -0.17120887 -0.43511942
000060 ce eb 44 3f db 88 4f bf c0 84 3c 3f 0a 6a 3b 3f
       0.7692231 -0.810682 0.7364006 0.7320868
000070 6d 5f 6d bf 34 36 1a 3f 65 b4 22 bc e5 46 85 bf
       -0.92723733 0.6023896 -0.009930705 -1.041226
000080 fc 70 01 bf 33 0b 18 3f 37 52 1a bf ed b8 08 3f
       -0.50563025 0.5939209 -0.602817 0.53407174
000090 8e 79 1e 3f ff 5b 1b 3f d6 d9 b4 be 27 2b 22 3f
       0.6190423 0.6068725 -0.35322446 0.63347095
0000a0 71 eb 15 3f a4 8c 1e 3f dc 50 1d 3f da 51 17 3f
       0.5856238 0.6193335 0.61451507 0.5910927
0000b0 b7 79 df bd 67 7f 32 3f 2a b2 09 3f 87 18 28 3f
       -0.10911887 0.6972565 0.5378748 0.65662426
0000c0 9b 3d 17 3f 36 52 23 3f e1 22 fc 3e 71 b3 fd 3e
       0.5907838 0.6379732 0.4924536 0.49550965
0000d0 07 eb 0a 3f 12 ee 61 3f 5b 65 11 3f ab e4 31 3f
       0.54264873 0.8825389 0.5679528 0.69489545
0000e0 9a a4 69 be c7 84 3a 3f 07 21 22 3f df 0d 43 be
       -0.22816697 0.7285885 0.63331646 -0.1904826
0000f0 30 22 27 3f d4 93 15 3f 6f 3c 30 3f 28 27 22 3f
       0.6528654 0.5842869 0.68842214 0.63341

advantage_stream.weight f4 [5, 64]
000000 30 45 c1 ba 2a c5 03 bc 2e 3f 9b bb cc a3 93 3e
       -0.0014745351 -0.008042613 -0.004737756 0.28835905
000010 1b da f7 3d d7 8f a3 bd 7f 8c b6 3d 33 df 3c bd
       0.12102147 -0.0798642 0.08913516 -0.046111297
000020 78 0f 2d bc 5f 5a 58 3e f9 09 91 3d f4 8c cd bc
       -0.01056277 0.21128224 0.0708198 -0.025091626
000030 bc f4 69 3e 38 23 9c 3c e7 de 35 3e 31 93 d5 bc
       0.22847265 0.019059762 0.17760812 -0.026071163
000040 57 86 dc 3a 0c 79 17 be 13 2f d7 3b cb c2 7b 3e
       0.0016824704 -0.1479227 0.006566891 0.24586026
000050 67 45 28 3d ce 24 fc bc 7e 26 32 3d d9 bf 8b 3e
       0.041081812 -0.030779269 0.04349374 0.27294806
000060 49 02 ac 3b a9 f5 8f 3e 54 12 c8 3d bd bb e5 3d
       0.005249296 0.2811711 0.09769121 0.11217449
000070 6c 50 c2 bd 68 37 03 be d8 c0 ea 3d 4f 4a df 3e
       -0.094879955 -0.12814105 0.11462563 0.4361138
000080 84 26 84 3e 9b e9 7a bd e8 d3 91 bd e2 28 0d 3e
       0.25810635 -0.06125794 -0.07120496 0.13785127
000090 b4 22 f3 3d ba 8c 20 be 5a 79 8b be ca 36 71 3d
       0.118718535 -0.15678683 -0.2724102 0.05889014
0000a0 2c ab 9a 3d b8 a5 e3 bc c3 37 02 be cf d3 88 bd
       0.0755218 -0.027788982 -0.12716584 -0.06681024
0000b0 5b 3f 62 3e 44 05 0f bc c4 43 81 3d 23 78 5a bd
       0.2209448 -0.008729283 0.063117534 -0.053337228
0000c0 56 82 a5 bd d4 7a bb 3d 62 3b 4d 3d d3 36 01 be
       -0.080815 0.09154287 0.05010546 -0.1261857
0000d0 11 be cc bd 41 20 25 bd a7 32 61 3d fa 2f e9 3d
       -0.0999719 -0.040313963 0.054979946 0.11386104
0000e0 7f 4c 41 be 7e a6 63 3d ad 38 18 3d 8c f4 b6 bb
       -0.18876837 0.0555787 0.037163425 -0.0055833515
0000f0 5c 28 f8 3c 54 90 e3 bd 85 d1 fc 3c ac df 83 bd
       0.030292682 -0.11111513 0.030861625 -0.064391464
000100 ad dd 02 bd 4f c0 1d bd 50 2f bb bc cf 69 30 be
       -0.031949688 -0.038513478 -0.022849709 -0.17227863
000110 0e c7 32 bd 13 61 00 be d4 89 a6 3d c4 0a 32 bc
       -0.043646865 -0.12537031 0.081317574 -0.010866825
000120 44 6d 1a bd 43 a9 af bd f2 2d bf 3c 76 65 34 bd
       -0.03770186 -0.08577206 0.023337338 -0.044042073
000130 09 0c 90 be 15 84 49 3c 20 a4 17 3e 4f ed 50 bd
       -0.28134182 0.012299557 0.14808702 -0.051007565
000140 58 38 d8 bc 3f a7 b8 be 3d 37 0e bc df f9 72 3e
       -0.026394054 -0.360651 -0.008680162 0.23728131
000150 cf 0d c4 3c c1 c5 24 bc ea 0d 6f be fb a6 2f be
       0.023932366 -0.010056914 -0.23345152 -0.17153542
000160 9c 8d dd bc 17 c3 00 be 93 d3 ab 3d f5 73 ad 3d
       -0.027045064 -0.12574421 0.08389964 0.08469383
000170 05 ed 32 3d 58 e5 fe bd 5d d8 95 be 3c 46 0f bd
       0.04368307 -0.124460876 -0.29266635 -0.03497909
000180 9c 88 86 3d 52 56 3c bd 64 65 2c 3e 15 c8 f8 3d
       0.06569025 -0.04598076 0.16835552 0.121475376
000190 cb 9f c4 3d 26 88 09 be 61 ae 84 bd 12 77 61 3d
       0.096007906 -0.13430843 -0.06478573 0.055045195
0001a0 ef 45 22 3d 5f 48 b1 bd 8c 96 2a be 06 99 ea bc
       0.039617475 -0.08656382 -0.16658992 -0.02863742
0001b0 7e 7f 86 bb 02 13 5b bc 4e ac 6e 3d 22 ac 9e bd
       -0.0041045537 -0.013371231 0.05826979 -0.077476755
0001c0 af a9 86 bd a2 47 c4 3d d6 17 6b 3d ea d5 20 be
       -0.06575333 0.095839754 0.05739578 -0.15706602
0001d0 8a f7 bc bd ed 38 7d bd bf 47 5a 3d 3c e8 32 bd
       -0.09226902 -0.061821867 0.05329108 -0.043678507
0001e0 c6 28 48 3e d5 87 47 bd b0 62 e1 3c dd 51 8c 3d
       0.19546804 -0.048713524 0.027512878 0.06851552
0001f0 6a 04 31 bb 5c 48 ce bd 91 5c 56 bc a7 d4 86 bd
       -0.0027010688 -0.10072395 -0.013083593 -0.06583529
000200 74 6b c9 bc 50 34 67 39 5a 93 a4 3c d0 29 56 3e
       -0.02458737 0.00022049365 0.020089794 0.20914388
000210 c9 c3 65 3f fb 4c df bd 5a 97 8f 3d 7b 4f 07 be
       0.8975187 -0.10903355 0.0701129 -0.13213913
000220 96 2b 9f bc 1d 54 d2 3e 2a ca 9f 3d ac 92 6b bd
       -0.019429963 0.41079798 0.078022316 -0.057512924
000230 61 b4 a2 3e 0e 02 93 bb 8b 5c 5f 3e 5c 20 47 bd
       0.31778243 -0.004486329 0.21812646 -0.048614845
000240 df 8c 27 bb 52 f1 9f bc 20 e4 80 bb cb 0c 53 3e
       -0.0025566143 -0.01952425 -0.0039334446 0.20610349
000250 c5 0a 7c 3c 89 c0 64 3b bd 08 04 3e 6a 54 73 bd
       0.015383427 0.00349048 0.12893958 -0.059406675
000260 26 7a 16 ba f5 9a c4 3e 01 ab f3 3d cd 65 c7 3d
       -0.00057402474 0.38399473 0.11897851 0.09736214
000270 fc 3d 8c 3e 13 56 13 be a0 5d 61 be 80 e0 4e 3e
       0.2739104 -0.14388303 -0.22008371 0.20202827
000280 a4 59 fa 3c 49 24 59 bd b3 0f 93 be 91 1a 10 3e
       0.030560322 -0.05301312 -0.28722915 0.14072634
000290 26 ae ee 3d a4 e5 1d be 9a a6 69 3d 2e 3c 96 3d
       0.1165431 -0.15419632 0.05704365 0.07335697
0002a0 2b 97 96 3d 1e 79 89 bd 86 b0 d4 bd 70 0f 5e bc
       0.07353052 -0.067125544 -0.10385232 -0.013553485
0002b0 86 25 f5 bc e0 ed 8f 3c c1 26 7a 3d 4f 9d f0 bc
       -0.02992512 0.017569482 0.061072115 -0.029371886
0002c0 05 2b 8f bd 73 bb ca 3d 1a f3 01 3d e6 82 ec bd
       -0.06990627 0.09899034 0.03172598 -0.115484044
0002d0 bc af ca bd 6a e7 14 3a f5 fb 28 3d 21 71 7e 3e
       -0.098968 0.00056802353 0.04125591 0.24847843
0002e0 8b 8a 9c 3d 18 9b 08 3d 6e 8f 55 3d ef 5d 9e bc
       0.076436125 0.033351034 0.05213874 -0.0193319
0002f0 01 1b ad 3b 6c dd 33 bd 81 58 f1 3c 7d 3e e7 bc
       0.00528276 -0.043912336 0.029461147 -0.028228039
000300 ca 74 30 bd 8b 61 ab bd 91 e2 22 bd 24 27 0a 3e
       -0.04308013 -0.08368214 -0.03976685 0.13491493
000310 84 f5 2c bd 7f 76 0c be 6d d8 24 3d 0f 2a 8b 3c
       -0.04222633 -0.13717078 0.040245462 0.016987829
000320 d2 43 33 bd b0 a4 04 bf dd 59 6c 3d ab 75 57 bd
       -0.04376585 -0.51813793 0.057702888 -0.05260245
000330 41 70 cd 3d 8f 6f c6 3a 8f 6e 1a 3e fd a5 0a bd
       0.10031176 0.0015139448 0.15081237 -0.033849705
000340 a4 43 7b bd a6 9c ad 3d 00 ff 0e bd 63 75 d9 bb
       -0.061343804 0.08477144 -0.034911156 -0.006636308
000350 cc 8c 43 bb be 2e 7c bd f9 e0 2f bd 10 ff 99 bd
       -0.002983856 -0.061568014 -0.04293916 -0.075193524
000360 89 e8 24 bd c0 06 2c 3e 3f 6a 56 3d 60 b9 6b 3d
       -0.040260825 0.1679945 0.052347418 0.057549834
000370 28 2c b8 be b8 be 05 be 5e f5 28 3e 88 b6 fb bd
       -0.3597119 -0.13061035 0.1649985 -0.122906744
000380 e8 68 ed bd 0f 75 ac bd 56 d8 65 3e b1 86 cb 3d
       -0.11592275 -0.08420765 0.22445807 0.099378
000390 84 32 9a 3d cb b7 3a be da 0a 9e be 1b f3 14 3d
       0.07529166 -0.18234174 -0.30867654 0.036364656
0003a0 78 54 ee 3c 95 1a 91 bd b7 7d 1c be 90 2a 86 bd
       0.029093012 -0.07085148 -0.15282331 -0.06551087
0003b0 06 d8 63 be be ea 4c bd 61 cb a6 3d 12 18 89 bd
       -0.22250375 -0.050028555 0.0814426 -0.06694044
0003c0 63 61 9d bd fa 24 5d 3d da 23 e3 3d 0b 9a 1e be
       -0.07684591 0.05399034 0.110908225 -0.1548845
0003d0 04 94 87 bd 1f c7 af bd 40 0d ae 3b c8 19 86 bd
       -0.066200286 -0.08582901 0.005311638 -0.06547886
0003e0 bf 88 13 be 67 75 e0 bb 68 81 0a 3e 87 ea e9 3c
       -0.14407633 -0.006849933 0.13525927 0.028554214
0003f0 22 03 02 bd 2b 62 d6 bd 7d 81 96 bb 13 54 98 bd
       -0.03174127 -0.10467943 -0.004593073 -0.07437911

advantage_stream.bias f4 [5]
000000 d3 42 f0 be 87 64 4b 3e 3e 7d 19 bf 91 b6 6c 3f
       -0.46925983 0.19862567 -0.5995673 0.92466074
000010 7e 14 cd be
       -0.40054697

hidden_nets.0.weight f4 [128, 11]
000000 11 39 b2 bc 54 b7 b4 3d 91 67 8b 3b f3 6a 0a be
       -0.021755727 0.088240296 0.0042542894 -0.1351736
000010 5d d9 01 be 29 fd 1f bf a1 26 05 3e 0d 4d 3b be
       -0.12680574 -0.62495667 0.13003017 -0.18291111
000020 ee 30 29 be f3 07 89 bb c7 a3 c5 bd 70 b9 fa bd
       -0.16522571 -0.004181856 -0.09650379 -0.12242401
000030 a5 e0 36 be 25 00 53 3d f9 12 87 3d 78 fb 18 3e
       -0.17859133 0.05151381 0.065954156 0.14939678
000040 e5 e4 71 bd d9 60 c6 3d 40 a3 da 3d aa 92 66 bd
       -0.05905618 0.09686441 0.10675669 -0.056292213
000050 a4 0a 3d 3e 47 88 de bb ee 57 26 3d e4 eb de bd
       0.1846109 -0.006791148 0.0406112 -0.10884836
000060 b7 df f9 be 10 f6 93 bd af af 38 3e 80 5a b5 bd
       -0.48803493 -0.07224667 0.18035768 -0.08855152
000070 b6 c7 07 bc 4e 23 a1 bd 65 5b 2a 3e e8 b9 0e be
       -0.008287361 -0.07868062 0.16636427 -0.13938105
000080 05 40 9a 3d 26 4d 45 bd 1e 87 12 be 24 19 28 be
       0.07531742 -0.048169278 -0.14309356 -0.1641584
000090 f0 48 77 be 40 3a c0 bd a5 bb b2 bd aa 3e 5b 3d
       -0.24148917 -0.0938611 -0.087271966 0.053526558
0000a0 a1 c1 40 bd 64 14 cf bd bf 48 0a 3e 01 2c 27 3e
       -0.04705966 -0.10111311 0.13504313 0.1632538
0000b0 a4 ae 98 bd 35 d5 bd bd 92 d7 33 be 34 1b 81 be
       -0.07455185 -0.09269182 -0.17562702 -0.25216067
0000c0 1d 01 5d bd 93 ae 9b bd 17 8d e7 3d c2 08 1f be
       -0.05395614 -0.07601657 0.113062076 -0.15530685
0000d0 55 42 30 bd 7d 9e e4 3d c9 49 48 3e dc 4f 7f 3e
       -0.04303201 0.11163042 0.19559397 0.24932808
0000e0 d3 18 d3 bd 2f 82 b0 bc f6 21 6d 3d 25 4c 3b 3e
       -0.10307469 -0.021546451 0.057893716 0.18290766
0000f0 19 94 4e 3c 20 2a 2c bc ac df cc bd f3 bf 52 be
       0.012608551 -0.01050809 -0.100035995 -0.20581035
000100 f5 c2 06 bd 48 26 29 bc 82 16 c7 3d 15 d9 69 be
       -0.03290077 -0.010324068 0.0972109 -0.22836716
000110 d5 85 16 bc 14 de a3 bd aa 9d 28 3e f9 4f ff be
       -0.0091871815 -0.080013424 0.16466394 -0.49865702
000120 71 c4 01 3e d9 92 40 be ff 0f 21 3e 5c 91 4f bd
       0.12672593 -0.18806018 0.15728758 -0.050675735
000130 63 48 2e 3c 8d a7 31 3e 01 00 33 be f4 81 cc be
       0.0106373755 0.17349072 -0.1748047 -0.39942896
000140 a6 98 dc bc 5d 1c 9a bd 16 81 5e bc 2f ce 6d 3e
       -0.026928257 -0.07524941 -0.013580581 0.23223184
000150 a9 0a 49 be f0 af 99 bd a1 04 7f bd 06 86 1d bd
       -0.19632973 -0.075042605 -0.062260274 -0.038457893
000160 49 59 48 bd 26 37 97 bd 21 a8 17 be 6f d3 ab 3e
       -0.048913274 -0.073835656 -0.1481023 0.3355975
000170 31 ca aa be 9c c7 8e 3d 52 4b e3 3c 5d ca 40 3e
       -0.33357385 0.06971666 0.027745876 0.18827195
000180 8b c0 c9 3d 93 63 95 bc 09 f0 54 3c df b5 87 3c
       0.09851178 -0.018235957 0.012996682 0.016566215
000190 e0 84 b6 bd b1 54 4e be f4 02 33 3e c0 64 4b be
       -0.08912063 -0.20149495 0.17481595 -0.19862652
0001a0 8f 14 06 be 7e a6 97 bd b4 9b 42 be 8d 19 25 be
       -0.1309378 -0.07404803 -0.19004709 -0.16123028
0001b0 4a 91 de bd 17 67 c9 3c 03 d4 6c be e9 6c 0a bd
       -0.108675554 0.02458529 -0.23127751 -0.03379527
0001c0 19 37 2e be 0b e7 31 be cc 94 9c be 12 9d 47 3d
       -0.17013206 -0.17373292 -0.30582273 0.04873378
0001d0 37 78 dd 3b 85 c7 b0 3e 70 4d ba bd 1c ed 27 3d
       0.0067587155 0.3452722 -0.09096801 0.04099761
0001e0 df c7 38 3d 26 97 3a 3e 34 ce 87 3d 7d e6 91 bc
       0.045112487 0.18221721 0.06631127 -0.0178101
0001f0 60 37 8a 3d ba 8e 51 be 07 87 11 be fd ea b2 bd
       0.06748843 -0.20464602 -0.14211665 -0.08736227
000200 01 97 40 be d4 ac 20 be cb 9e 23 be e6 4c 74 3d
       -0.18807603 -0.15690929 -0.15978543 0.05964365
000210 27 37 1a 3e 4a 85 8b bd 98 44 87 bc 69 3c ea 3c
       0.15060101 -0.06812532 -0.0165122 0.028593259
000220 49 f2 54 3e 97 4b ed bc 0b df 59 3d 58 20 71 bd
       0.2079555 -0.028966708 0.053191226 -0.058868736
000230 7c 87 94 bd b8 c5 ce 3d 18 13 7e bc 92 18 42 bd
       -0.07252404 0.100963056 -0.015507482 -0.047386713
000240 ca 0f 22 3e ef c4 a7 3d dc 29 92 bd 83 2c 8c be
       0.15826336 0.08191859 -0.0713689 -0.2737771
000250 a4 c1 82 be 21 e4 49 bd c8 6e 04 3d a6 12 ca 3d
       -0.2553836 -0.049289826 0.03233221 0.09866838
000260 b7 7b 96 3d 17 03 1b 3e 18 40 c6 bd 7a 37 c6 bd
       0.073478155 0.15137897 -0.09680194 -0.0967855
000270 ee 3c 58 bc 65 ca 9a bb 39 1c 88 3e 40 f6 dc bc
       -0.0131981205 -0.0047238343 0.26584032 -0.02697289
000280 0e 97 be 3b 44 77 39 3d 78 0e 4f bd 51 f5 0f 3d
       0.005816347 0.045279756 -0.050550908 0.03514606
000290 a1 c3 1a 3d 74 fc 3d 3e 65 75 2f be 52 c8 54 bd
       0.037784223 0.18553334 -0.17134626 -0.051948853
0002a0 a4 76 d1 bb 51 a5 72 bc 80 03 83 3d 1c d4 20 be
       -0.006392317 -0.014809922 0.06397152 -0.15705913
0002b0 f0 1a 71 be 29 4b 57 bd 00 f9 2f 3d 2c 0d a1 bd
       -0.23545432 -0.052561913 0.042962074 -0.078638405
0002c0 ca bf 9f bd 4b 9e 7d bd d2 ff 0d be 09 28 9e be
       -0.07800253 -0.061918538 -0.13867119 -0.3088992
0002d0 37 06 91 be de 3b 0f 3e 9e e7 87 bd 81 e3 41 be
       -0.28325054 0.13987681 -0.06635974 -0.18934442
0002e0 57 ca 84 bc a3 66 2c 3e 9e ec de ba 20 66 d0 3e
       -0.016209764 0.16836028 -0.0017007773 0.40702915
0002f0 2b 7e 19 3e cd ac 38 3e 7c e6 83 bd 60 e5 37 be
       0.14989536 0.18034668 -0.06440446 -0.17958593
000300 63 d8 9f bd 88 71 71 bd 4c 6a 8d be 2e 3a c6 3d
       -0.07804944 -0.058946162 -0.2762016 0.09679066
000310 79 ef 09 be 2a cc 54 bd 45 a5 a4 3c 7a 4b 3b be
       -0.13470258 -0.05195252 0.020098338 -0.18290511
000320 23 dd e9 3c 1b 21 20 3d 67 79 77 3e bf d8 66 bd
       0.028547829 0.03909407 0.24167405 -0.05635905
000330 09 d3 07 3d fa b1 e2 bd 5b 43 f0 bc 02 37 1c 3e
       0.033160243 -0.110691026 -0.029328993 0.15255359
000340 40 19 8c 3a 38 c5 1d be 0a fe 27 be 99 cf 33 be
       0.0010688677 -0.15407264 -0.16405502 -0.17559661
000350 61 ac 76 be c9 96 8d be 27 6b 85 bd 74 e8 8d be
       -0.24089195 -0.27654102 -0.06514578 -0.2771641
000360 15 c5 36 3d 8d 35 2d be 90 3c 53 3e 11 1d db bc
       0.044621546 -0.16914959 0.20628572 -0.026747258
000370 0f 2c 41 3e 6e 25 23 be 23 01 6b 3d e3 ad 8c 3c
       0.18864463 -0.15932247 0.05737413 0.01717276
000380 87 b6 60 3e 24 03 84 3c 7d 52 9e bc de dc d5 bc
       0.21944629 0.016114779 -0.019326443 -0.026106294
000390 a1 af d8 3c 96 89 09 bd c4 d3 b9 bc 52 ea 62 3e
       0.026450934 -0.033578478 -0.022683986 0.22159699
0003a0 06 4a 10 be 95 ab 80 3d 69 8a 6f 3d 5e c7 6d 3e
       -0.14090738 0.06282727 0.058481608 0.23220584
0003b0 87 d1 60 3c b0 eb 8b bc 5b f1 8d bd 68 ad 29 3e
       0.01372183 -0.017080158 -0.069308005 0.16570055
0003c0 9a f2 a4 bc 08 f9 5d 3b 16 9f 1f 3e 99 79 fc bd
       -0.020135213 0.0033870358 0.1558803 -0.123278804
0003d0 b0 ea 8e 3d 93 53 84 3d c4 a9 5d 3e 11 29 7c bc
       0.06978357 0.06461253 0.21646792 -0.01539065
0003e0 cc 39 82 3c ee bc 2b be 83 40 04 3e e2 08 65 3c
       0.0158967 -0.1677129 0.12915234 0.013979169
0003f0 28 b1 08 3c e9 e2 44 3e ca 3e 50 bd 68 ad 25 3d
       0.008343019 0.19227184 -0.05084113 0.040448576

hidden_nets.0.bias f4 [128]
000000 81 50 32 bd 59 4f b0 bd e0 5b aa bd 46 3a f3 bc
       -0.043533806 -0.08608884 -0.08318305 -0.029690873
000010 8c cd 54 bd fe 58 64 bd a6 b6 ad bd 1e d4 00 bd
       -0.051953837 -0.055748932 -0.08482103 -0.03145229
000020 4a b5 e0 3c 00 00 00 00 13 a1 21 3e 00 00 00 00
       0.027430195 0.0 0.15784101 0.0
000030 30 d0 18 be 4e 67 a6 3c 53 db 23 be fd 41 e0 bd
       -0.14923167 0.020312931 -0.16001634 -0.10950086
000040 8c 53 c8 bc 05 48 10 be 20 03 5f bd ef bb ba 3d
       -0.0244539 -0.14089973 -0.05444634 0.09117877
000050 59 02 ef bd b4 8f e9 bd 63 7f 87 bc cc 59 8e bd
       -0.1167037 -0.11404362 -0.016540235 -0.06950721
000060 b3 b2 02 be 6a c1 89 bc 03 42 e9 3c 99 67 2c be
       -0.12763481 -0.01681586 0.02847386 -0.16836394
000070 0d fe 8a bc ea 63 ea bd 7a bf 11 be 5e bd ec bd
       -0.016966844 -0.11444838 -0.14233199 -0.115595564
000080 d8 c6 19 3e 06 cc d1 bd 9c 4e ad bd fa 5a ee 3d
       0.15017259 -0.102439925 -0.08462259 0.11638446
000090 00 00 00 00 bf fc 75 bd e5 b3 5d bd 10 1a 07 3d
       0.0 -0.06005549 -0.05412664 0.03298384
0000a0 c3 41 7e 3d d6 d5 b0 bd 35 b0 f3 3c 1d 5b 30 3b
       0.062074434 -0.08634536 0.029747108 0.0026909776
0000b0 a3 98 ff bd 29 3c c7 3d e0 cf 1d bd ed ac 2a be
       -0.12480285 0.097282715 -0.038528323 -0.16667528
0000c0 c5 af 10 3e ba 9b 07 be d3 a8 2c bd 31 0d 8b bd
       0.14129551 -0.13242999 -0.04215319 -0.067896254
0000d0 00 00 00 00 1c 05 eb bd d3 5c b7 bd 28 4a e7 bd
       0.0 -0.11475584 -0.08953252 -0.11293441
0000e0 d4 cc 14 be 58 8b 76 bd 13 d2 27 bd d8 e5 d9 bc
       -0.1453126 -0.060191482 -0.040971827 -0.026598856
0000f0 ea f1 3f bc e8 a7 08 be b2 0c ee bd e0 de 31 be
       -0.011715392 -0.13345301 -0.11623515 -0.17370176
000100 99 7a d8 bd 1d 46 d7 3d 73 b3 2b be b7 c0 d4 bd
       -0.10570259 0.1051142 -0.16767673 -0.1038832
000110 df ad 2f bd ce 70 c8 bd 15 47 85 bc f5 a7 27 be
       -0.042890426 -0.09787141 -0.016269246 -0.16372664
000120 15 e9 df 3d 3b f4 8e bd c8 3d 02 be 4a 5c 14 be
       0.10933129 -0.06980177 -0.1271888 -0.1448833
000130 62 0d 3f be 34 48 18 bd a7 b1 07 be 5c 30 2a be
       -0.18657449 -0.037178233 -0.13251363 -0.1662001
000140 a9 7b 88 bd a2 4e b7 bd de b7 5f bc 42 24 b2 bd
       -0.06664211 -0.08950545 -0.013654677 -0.08698322
000150 13 00 ee bd 3d 84 f4 bd 00 00 00 00 b6 3c 4a 3d
       -0.11621108 -0.11939285 0.0 0.049374305
000160 43 b7 7a bc 7e 70 02 be 83 9e 18 3d 81 d6 10 be
       -0.015302482 -0.12738225 0.037260544 -0.14144327
000170 d4 54 90 3d cf 00 e8 3d 30 d4 14 be 56 de b2 bb
       0.0704743 0.11328279 -0.14534068 -0.0054586334
000180 81 bf b9 bc 4b 25 14 be 06 97 1b be 71 87 1e be
       -0.022674324 -0.14467351 -0.1519433 -0.15481354
000190 41 9e 0a be a4 a6 07 be 15 78 c9 bc b5 ed 02 bd
       -0.13536932 -0.13247162 -0.024593392 -0.031964976
0001a0 36 06 6b bc 86 bd 4a bd 9b 51 8c 3b 63 2b 7d 3d
       -0.0143447425 -0.04949715 0.004282189 0.061808955
0001b0 c3 10 08 bd d8 83 ce bd 9e 42 41 be 00 00 00 00
       -0.03321911 -0.10083741 -0.18873069 0.0
0001c0 c3 7a 81 bc 53 16 64 bc 84 27 2a be 21 a5 23 be
       -0.015805608 -0.013921338 -0.16616637 -0.1598096
0001d0 e0 36 07 be 0c 34 3e be 32 dd 06 3e 0b 53 10 be
       -0.13204527 -0.18574542 0.13170317 -0.14094178
0001e0 dd c7 a9 bd 42 57 3d bc ba 11 37 be 3f c0 1d be
       -0.08290074 -0.011556448 -0.17877856 -0.15405367
0001f0 00 00 00 00 4b 2a d9 bd 72 dd 6b 3d a9 d7 20 be
       0.0 -0.1060377 0.057584234 -0.15707268

hidden_nets.1.weight f4 [64, 128]
000000 2e ff f1 3c 2c 5f d0 bd 56 37 43 3d 7b f6 63 be
       0.029540624 -0.101744026 0.047660194 -0.22261994
000010 12 ce 19 be 58 1a 60 bd da 93 25 3e 9c 88 02 3e
       -0.15020016 -0.054712623 0.16169682 0.12747425
000020 94 48 e0 3d 92 b4 32 3e b9 5b 79 bd 97 a7 b8 3c
       0.10951343 0.17451695 -0.06087849 0.02254085
000030 1b 80 9b 3c f9 c1 b8 bd cd 24 5b bc 9c c1 c3 bc
       0.018981984 -0.09021372 -0.013375473 -0.023896031
000040 9f ef 32 3e 2a 81 ef bc 10 3a 05 3e cc e1 63 bc
       0.1747422 -0.029236395 0.1301043 -0.013908815
000050 f9 db af 3d a9 5b 90 3d 9f e1 8f 3d 9e 55 d4 3b
       0.08586878 0.07048733 0.07025456 0.006479933
000060 f7 30 e6 bc b5 33 5c be 1c 21 13 be 44 be da 3c
       -0.02809952 -0.215041 -0.14368099 0.026702054
000070 10 10 bb bc 6f 7b 2a 3d 4b fe c2 3d 02 7d 13 3e
       -0.022834808 0.04162162 0.09521159 0.14403155
000080 18 90 38 be fb 83 a1 3c 0b 1b 98 3b 47 aa fe 3c
       -0.18023717 0.019716254 0.0046418956 0.031087054
000090 cd f3 1f be 25 e5 3b 3d 5e 63 3e 3e f2 0b 43 3d
       -0.15620346 0.045872826 0.18592593 0.047618814
0000a0 dd d7 8e bd 05 e6 bb bc 41 92 a0 3c 0d fc ad bc
       -0.069747664 -0.02293683 0.01960099 -0.021238351
0000b0 2e b4 9d 3d 5d 65 ac bd 07 20 31 3d 90 d1 8f bb
       0.07700382 -0.08417771 0.043243434 -0.0043889955
0000c0 ee b6 64 be ce d5 9b bc 28 e0 c2 bc 9f 6e cd 3d
       -0.22335407 -0.019022848 -0.023788527 0.10030865
0000d0 dc 9d ff bd f9 96 e7 3c bd c6 91 bc 32 bb 41 bd
       -0.12481281 0.028270232 -0.017794961 -0.047297664
0000e0 51 fe 6d ba 2b 01 cd 3d 31 72 bb 3d 19 6b ae bd
       -0.00090787286 0.100099884 0.0915264 -0.08516521
0000f0 07 17 c0 bd b6 6c 8e 3d fc c6 59 bd 06 be bc bd
       -0.09379392 0.06954329 -0.053168282 -0.092159316
000100 67 1d e2 bd 24 6a 06 bd 6b 8c ae 3c ee e2 c2 bd
       -0.11040764 -0.032816067 0.02130719 -0.0951594
000110 a5 bf 83 3d 79 40 ce 3d 27 87 2f be 26 c9 ec 3d
       0.06433038 0.10070891 -0.171414 0.115618035
000120 55 43 c9 bd 8e b2 ae bb 06 dd fb 3d 4d 1b dc 3d
       -0.09827296 -0.005331344 0.12298016 0.10747395
000130 17 ed a5 3d d5 3d 11 be ea 85 09 3e 65 b5 d7 3d
       0.08101862 -0.14183743 0.1342999 0.10532645
000140 f6 87 42 3a f5 8c f0 bd 2b 97 29 3e 1a be b0 bd
       0.00074207725 -0.117456354 0.16561572 -0.08630009
000150 7d b6 b8 bd f9 0a ef bd b5 36 92 3d e2 a2 10 bd
       -0.09019182 -0.11672015 0.07139341 -0.035311587
000160 d0 43 30 be 5d 31 4c be 5e 75 8b 3a 4a a7 8a 3d
       -0.17213368 -0.19940706 0.0010639837 0.06770189
000170 4e c2 57 3d cb 4d b6 bd 2a 23 00 3e a1 88 0e be
       0.052675538 -0.089015566 0.12513414 -0.13919307
000180 25 21 c0 bd d6 c9 fe 3d 8b ef 49 3d 7d 1b e0 3d
       -0.09381322 0.12440841 0.04930071 0.10942743
000190 41 28 3f 3d a4 c1 f2 bd 3f 02 aa bd 92 0e 00 be
       0.04666925 -0.1185334 -0.0830121 -0.12505558
0001a0 26 cd a9 bc 79 a4 a2 bd e8 f0 05 3c b1 ce e6 bd
       -0.020727705 -0.07941527 0.008175112 -0.11269892
0001b0 79 21 ee bb b8 dd 1f 3e f9 73 a2 3c a5 16 14 3c
       -0.007267174 0.15611923 0.01983069 0.009038602
0001c0 0e 0c a3 3d 2a 9b c9 bd 7d 97 b1 bd d0 2c a4 3d
       0.079612836 -0.09844048 -0.08671472 0.0801636
0001d0 bd 75 e0 bd c3 49 e3 bd 21 a7 3c be c5 b7 02 3e
       -0.10959957 -0.11098053 -0.1842313 0.12765415
0001e0 6c fe f7 bd ef 44 1a 3e af e3 fd 3d a8 e0 44 3c
       -0.12109074 0.15065359 0.12396943 0.012016453
0001f0 ea 8a d4 bd b8 2f f6 bd d2 7e 0f be 23 25 e0 3d
       -0.10378058 -0.120208204 -0.14013222 0.10944583
000200 75 e3 29 be 66 b5 40 bd 23 bd 56 bd 7e 9e 85 3d
       -0.16590674 -0.047047995 -0.05242647 0.065243706
000210 c7 45 1c 3e a7 38 d1 bd 49 4d 65 3e a7 1d dd bd
       0.15260993 -0.10215884 0.22392763 -0.10796671
000220 8c 7f 27 be 2b cc 16 be 0e 06 d7 bd e0 42 b3 bd
       -0.16357249 -0.14726321 -0.10499202 -0.0875299
000230 ad 2e 83 bc 2a ee 82 3c c4 42 51 bc 21 af 2b 3e
       -0.016013468 0.015982706 -0.012772266 0.16766025
000240 19 c1 b8 3c b1 ba 04 3e 88 52 83 bd 25 36 25 be
       0.022553014 0.12961842 -0.06412226 -0.16133936
000250 81 1a 13 3d 4b 7f 08 3d 57 e8 2f 3e 34 07 f1 bd
       0.035913948 0.03332452 0.17178474 -0.11768952
000260 6f 29 68 3d 50 d2 95 3d e9 1f 56 bd 06 87 e7 3c
       0.05668014 0.073155046 -0.052276526 0.028262626
000270 e4 a9 d8 3c f9 da c8 bd 32 98 68 3d cc ba 0a 3e
       0.026448198 -0.09807391 0.05678577 0.1354782
000280 a8 f2 9b be 7c 0b a7 bd 74 41 02 3e aa 6c 60 be
       -0.3045857 -0.08156487 0.12720281 -0.21916452
000290 87 4d 72 bd ef 9b 94 bc d2 59 0b 3e b3 fd 0e bc
       -0.059155967 -0.018140761 0.13608482 -0.008727479
0002a0 e9 e2 e1 3c e2 1a bd 3d 6f 53 71 bd 24 31 8b 3b
       0.02757402 0.09233643 -0.05891746 0.0042478014
0002b0 17 5c 40 bc 6a 8a 34 be 4b 35 45 3d 54 fc a9 3d
       -0.011740706 -0.17630926 0.048146527 0.08300081
0002c0 e4 bd 0c bc ad cb e0 3d 17 7b 27 3e 14 b3 27 be
       -0.008590195 0.10976348 0.16355549 -0.16376907
0002d0 e6 0d 24 bd c6 fc c1 bc 64 aa b6 3d c1 9d 94 bd
       -0.040052317 -0.023680102 0.08919218 -0.07256652
0002e0 47 64 32 3d 04 5d 53 3a f0 c0 08 be 60 57 40 3d
       0.043552663 0.00080628716 -0.1335485 0.046958327
0002f0 ba 39 3d 3d 03 c9 ce bc 73 80 ff 3d a2 c9 f2 bd
       0.04619763 -0.025242334 0.124756716 -0.11854865
000300 03 7c f0 bd 59 18 70 be 34 20 09 be d4 97 20 3c
       -0.11742403 -0.23446788 -0.13391191 0.009801824
000310 38 55 1d 3d 59 9b 1c 3e d9 c1 74 3d c4 3a f8 3d
       0.03841135 0.15293635 0.05975518 0.12120584
000320 68 54 3c 3e 5b 56 bf bd 46 f6 cf bd 2a 49 17 3e
       0.18391573 -0.09342643 -0.10154395 0.14774004
000330 62 81 f8 3d 72 e0 25 bd cf bd 19 3d e8 fb 01 3d
       0.12134053 -0.04049725 0.03753453 0.031734377
000340 c7 bf 92 bd 9c 05 0a 3d bc f2 7d 3d 03 92 55 be
       -0.07165485 0.033696756 0.061999068 -0.2085648
000350 ed 50 0f 3e ac 11 fa bd cf 0d 09 be 6f e9 84 3d
       0.13995714 -0.12210402 -0.13384174 0.064898364
000360 25 90 e4 bd 6d a9 9b bd 12 bb f8 bd 4d e1 02 be
       -0.11160306 -0.07600675 -0.12145056 -0.12781258
000370 46 a3 b8 bd e2 8d 73 bd 59 b0 39 bc 86 da 0a bd
       -0.09015517 -0.059461482 -0.011333548 -0.033899806
000380 d0 2d f3 bd ac 3f 80 bd ef c7 8d 3d 14 e5 e0 bd
       -0.118739724 -0.062621444 0.069229 -0.10981193
000390 d4 4e b3 bd 29 a8 f3 3d 02 d9 23 be e3 d1 52 bd
       -0.0875527 0.118973084 -0.1600075 -0.051469695
0003a0 5a e4 cf bd da dc 47 3e 62 ca be 3b 77 5e 15 bd
       -0.101509765 0.19517842 0.0058224658 -0.03646704
0003b0 67 1e b0 bd 8b 29 36 be 39 ee 17 3c 1d 6b dd 3d
       -0.08599549 -0.17789285 0.009273105 0.10811446
0003c0 4c 87 a9 3c ab fd c5 bd 3a 12 aa bd 18 2b e5 3d
       0.020694397 -0.09667524 -0.08304258 0.1118986
0003d0 0a a0 85 3c 4b b4 5d 3d 6a c4 23 be 93 98 04 bd
       0.016311664 0.05412702 -0.15992895 -0.03237207
0003e0 f5 74 81 3e 3a 98 1e be 36 a1 0a be 48 bf b4 bd
       0.25284544 -0.15487757 -0.1353806 -0.088255465
0003f0 d5 fc b1 bd b1 77 0a bd 6f 9c 05 3d a3 49 92 bc
       -0.08690802 -0.033805553 0.03261989 -0.017857378

hidden_nets.1.bias f4 [64]
000000 3e 1d 89 3f c8 db 84 3f 0f fe 70 3f 6d 87 0e be
       1.0712049 1.0379572 0.9413766 -0.13918848
000010 19 84 12 3e 9e 1a 8e 3f c8 6a 88 3f 0d ed d6 3e
       0.14308204 1.1101873 1.0657587 0.4197773
000020 ca 49 81 3f f7 d7 d2 3d 74 08 8c 3f e4 3d 84 3f
       1.0100644 0.10295098 1.094008 1.0331388
000030 45 49 28 3c fc 33 7c 3f 51 ea 88 3f 1c e1 88 3f
       0.010271375 0.9851682 1.0696508 1.0693698
000040 1d 60 88 3f 43 8d 36 be fc e3 82 3f c9 52 e4 bd
       1.0654331 -0.17827325 1.0225825 -0.111486025
000050 e8 9f 86 3f 6c 4f 61 3f 72 4b 8c bd f5 7f 16 bd
       1.051755 0.88011813 -0.068503276 -0.036743123
000060 84 e5 7f 3f 89 8d 25 3e b8 8f 82 3f 73 39 80 3f
       0.9995959 0.16167273 1.020011 1.0017532
000070 fe 12 0a 3e ac 16 88 3f 95 30 6e bd f3 f5 0e 3e
       0.13483807 1.0631919 -0.0581518 0.1396101
000080 94 d3 84 bb 64 5e 7c 3f 57 af 42 3d 89 18 8c 3f
       -0.0040535424 0.9858153 0.0475305 1.0944988
000090 a1 01 89 3f 5c 75 89 3f c9 c2 22 bd 65 e2 88 3f
       1.0703622 1.073894 -0.039736543 1.069409
0000a0 3c 00 81 3f c3 64 8b 3f 52 83 82 3f 91 53 d9 3e
       1.0078197 1.0890125 1.0196326 0.4244657
0000b0 78 75 e0 bd 3a 57 84 3f f6 5f 8f 3f 7c fc 7a 3f
       -0.109599054 1.033912 1.120116 0.9804151
0000c0 75 3e 05 3f bf 95 83 3f 65 49 d9 3e 72 3a 93 3f
       0.52048427 1.0280074 0.42438808 1.1502211
0000d0 31 43 fc 3e 7b ab 7c 3f 1b 5c 88 3f 6a 4b e2 3e
       0.49270013 0.9869916 1.0653108 0.4419816
0000e0 07 5f a4 bd 2c 5e 80 3f 22 5e bd 3e 3a 05 8a bd
       -0.080259375 1.0028739 0.3698588 -0.06739278
0000f0 29 62 88 3f 47 5d dd 3e 51 8d 7e 3f 2d 95 85 3f
       1.0654956 0.43235227 0.9943438 1.043615

value_stream.weight f4 [1, 64]
000000 78 52 14 3f 3e e6 32 3f bc aa 4e 3f d8 fe 72 be
       0.5793834 0.6988257 0.8072927 -0.23730028
000010 77 3e 44 bf 35 54 26 3f 55 47 1f 3f 04 9f 07 3f
       -0.76657814 0.6497224 0.6221822 0.52977014
000020 16 cc 2f 3f aa 4f 4b bf e4 ed 1a 3f f3 1e 27 3f
       0.68670785 -0.7941843 0.6051924 0.652816
000030 c9 3c e9 be 57 cb 1a 3f 29 68 1a 3f 21 e2 24 3f
       -0.45554188 0.6046652 0.60315186 0.64407545
000040 ff 73 15 3f f7 64 20 be f8 f2 34 3f fb 21 bb be
       0.5838012 -0.15663515 0.7068324 -0.36549363
000050 16 b2 1a 3f b7 15 1f 3f 61 51 2f be 8c 4b dd be
       0.6042799 0.6214251 -0.17120887 -0.432217
000060 7d 1c 44 3f ce 43 50 bf 81 b5 3b 3f 2f 6a 3b 3f
       0.7660597 -0.8135346 0.7332383 0.732089
000070 c4 f2 6e bf 51 3a 1a 3f 65 b4 22 bc 47 55 86 bf
       -0.9333918 0.60245234 -0.009930705 -1.0494775
000080 cb 28 00 bf 41 d9 17 3f cb 2f 1c bf 9c 51 08 3f
       -0.50062245 0.5931588 -0.61010426 0.53249526
000090 a0 60 1e 3f c1 76 1b 3f f8 03 b6 be 99 63 22 3f
       0.6186619 0.6072808 -0.35549903 0.63433224
0000a0 34 10 15 3f be 3c 1e 3f 31 b8 1c 3f 5c f8 16 3f
       0.5822785 0.61811435 0.61218554 0.58972716
0000b0 b7 79 df bd 80 f6 31 3f 9f 7e 09 3f 86 c4 27 3f
       -0.10911887 0.69516754 0.53708833 0.65534246
0000c0 b6 0e 17 3f ad 57 23 3f fd 0c f9 3e 54 a4 fb 3e
       0.5900682 0.6380566 0.48642722 0.4914881
0000d0 31 e4 09 3f 8a 78 61 3f 65 b1 10 3f 81 90 31 3f
       0.5386382 0.88074553 0.5652068 0.6936112
0000e0 9a a4 69 be 20 95 3a 3f 80 64 21 3f df 0d 43 be
       -0.22816697 0.72883797 0.63043976 -0.1904826
0000f0 12 a5 26 3f bb 2a 15 3f a0 69 2e 3f 8b a7 21 3f
       0.6509563 0.58268327 0.6812992 0.63146275
