hyperopt_results/models/arch_simpler_20250906_230524/dqn_racing_episode_200.pth (torch, 187357 bytes, 28 tensors)

hidden_nets.0.weight f4 [128, 11]
00000000: 1139 b2bc 54b7 b43d 9167 8b3b f36a 0abe
00000010: 5dd9 01be 29fd 1fbf a126 053e 0d4d 3bbe
00000020: ee30 29be f307 89bb c7a3 c5bd a45a c9bd
00000030: 6b81 25be a2d9 fe3d 2b2e c43d 5340 c43d
00000040: 23ed cbbd 8987 033e 0ed7 0b3e aa92 66bd
00000050: 6bea 723e 8d2f b13d d435 b63d 9617 86bd
00000060: 63ce c5be ba06 ab3c 331d 5e3e 14c1 d4bd
00000070: b52f 6ebb 7714 1cbd 655b 2a3e 7dba 01be
00000080: cbd7 45bd 264d 45bd 1e87 12be 2419 28be
00000090: f048 77be 403a c0bd a5bb b2bd aa3e 5b3d
000000a0: a1c1 40bd 6414 cfbd bf48 0a3e 012c 273e
000000b0: a4ae 98bd 35d5 bdbd 92d7 33be 341b 81be
000000c0: 1d01 5dbd 93ae 9bbd 178d e73d c208 1fbe
000000d0: 5542 30bd 7d9e e43d c949 483e 4129 8b3e
000000e0: 8d99 d3bd 904f 74bc 4e16 513d 01e5 193e
000000f0: 8430 b03c 5272 3cbd 0b73 adbd f3bf 52be
00000100: d1b8 e2bc e889 8eba 6b3d 273e d160 3bbe
00000110: 5208 9b3c 04fd 09bd a72c 523e 5b89 eabe
00000120: ba83 2e3e 90d3 13be ff0f 213e 562a 99bc
00000130: 06d9 b23c 8da7 313e 0100 33be f481 ccbe
00000140: a698 dcbc 5d1c 9abd 1681 5ebc 2fce 6d3e
00000150: a90a 49be f0af 99bd a104 7fbd 0686 1dbd
00000160: b4e4 06bd 1463 c5bd 4b64 28be 5b84 a13e
00000170: 229f 8ebe bc7f 2b3d add1 243d 8b3a 203e
00000180: 8bc0 c93d d994 fb3b 05c0 83bc dfb5 873c
00000190: e084 b6bd b154 4ebe f402 333e c064 4bbe
000001a0: 8f14 06be 7ea6 97bd b49b 42be 8d19 25be
000001b0: 4a91 debd 1767 c93c ea3a 90be 980f cdbc
000001c0: 9ad8 00be 202e 10be 1709 6ebe c25c 5a3d
000001d0: 06f8 1a3d f926 a93e 704d babd 0510 243d
000001e0: cc7d c43b 2697 3a3e 34ce 873d 7de6 91bc
000001f0: 6037 8a3d ba8e 51be 0787 11be fdea b2bd
00000200: 0197 40be d4ac 20be cb9e 23be e64c 743d
00000210: b3fb 193e 7fc3 86bd 75af 88bc e55e 2f3b
00000220: fcfa 563e c617 aabd ae95 f43c 061f 23bd
00000230: 7c87 94bd a072 c03d 063a c6bc 8a3d dfbd
00000240: cc5a 1b3e 6bdb 0b3e 3af1 40bd c7b0 42be
00000250: 517a c2be 0299 b73c f8e8 563c a612 ca3d
00000260: 6b2c 853d e663 e33d e1ce 8abd 0be8 babd
00000270: 72ad 5b3c fcbc 6b3c faca 873e ab16 0a3b
00000280: 0e40 0e3d 2ca4 823d 780e 4fbd 3a8c 85bb
00000290: 79d3 e23b 392d 583e d306 dabd 3096 8a3a
000002a0: a3ce 9dbc 0ad1 383d 07ce b13d 1e54 5fbd
000002b0: 144b 1abe 294b 57bd bd24 373e 5e27 eabd
000002c0: cabf 9fbd 4b9e 7dbd d2ff 0dbe 0928 9ebe
000002d0: 3706 91be de3b 0f3e 9ee7 87bd 81e3 41be
000002e0: 57ca 84bc a366 2c3e 9eec deba 592b b03e
000002f0: c4ff 293e 5f3b 5d3e 2d16 a13c 27df 50be
00000300: a96b dabd 016b 5cbd a038 89be 2e3a c63d
00000310: 94cf 61bd b8ef 13bc 0b57 bfbc ead1 42be
00000320: f2c9 a13d 2197 143d 1aa4 713e 5432 6ebd
00000330: 49aa 313d 6de7 d3bd 5b43 f0bc fc69 ec3d
00000340: 8ad2 48bc 9e4f 30be 1810 0dbe a336 0ebe
00000350: 272e 32be ea3a 80be c691 ebba 6be7 8ebe
00000360: af63 353d 8d35 2dbe 6628 703e fe22 8cbd
00000370: e9c3 4d3e 0622 22be 2f8e 863d b365 fabb
00000380: 5ea3 5b3e c369 4a3d d0e3 19bd 5f70 b1bb
00000390: a1af d83c 8ba2 fabc 5ab7 f93b c21b 613e
000003a0: 5145 22be 4628 be3d 4272 0d3d 3695 663e
000003b0: 35b0 6dba fbed 47bd 80e7 7cbd 68ad 293e
000003c0: e2ca 1bbd da76 033c 680a d93d e6ad 10be
000003d0: 5e14 c53d c746 123d c9b1 703e ce4d 4ebd
000003e0: fbd8 eabc 823b 28be 8340 043e 1811 b03b
000003f0: c9ce d0bc bf18 213e 66b0 1abd 1301 513d
-0.021755727 0.088240296 0.0042542894 -0.1351736 -0.12680574 -0.62495667 0.13003017 -0.18291111
-0.16522571 -0.004181856 -0.09650379 -0.098317415 -0.1616265 0.12443854 0.09579118 0.09582581
-0.099573396 0.12844671 0.13656256 -0.056292213 0.23722236 0.08651648 0.08896986 -0.065474674
-0.38634023 0.02087723 0.21690826 -0.10388389 -0.0036344354 -0.038105454 0.16636427 -0.12668796
-0.0483015 -0.048169278 -0.14309356 -0.1641584 -0.24148917 -0.0938611 -0.087271966 0.053526558
-0.04705966 -0.10111311 0.13504313 0.1632538 -0.07455185 -0.09269182 -0.17562702 -0.25216067
-0.05395614 -0.07601657 0.113062076 -0.15530685 -0.04303201 0.11163042 0.19559397 0.27179912
-0.10332022 -0.014911547 0.051046662 0.15028764 0.021507509 -0.04600746 -0.08469208 -0.20581035
-0.027676018 -0.001087484 0.16332023 -0.18298651 0.018924866 -0.03368856 0.20524846 -0.4580792
0.17042437 -0.14436173 0.15728758 -0.018696945 0.021832 0.17349072 -0.1748047 -0.39942896
-0.026928257 -0.07524941 -0.013580581 0.23223184 -0.19632973 -0.075042605 -0.062260274 -0.038457893
-0.032932952 -0.09638038 -0.16444509 0.31546292 -0.27855784 0.041869864 0.040239025 0.15647332
0.09851178 0.007677656 -0.016082773 0.016566215 -0.08912063 -0.20149495 0.17481595 -0.19862652
-0.1309378 -0.07404803 -0.19004709 -0.16123028 -0.108675554 0.02458529 -0.28169948 -0.02503185
-0.12582627 -0.14080095 -0.23245655 0.053311117 0.03783419 0.33037546 -0.09096801 0.04005434
0.0059964415 0.18221721 0.06631127 -0.0178101 0.06748843 -0.20464602 -0.14211665 -0.08736227
-0.18807603 -0.15690929 -0.15978543 0.05964365 0.15037422 -0.06580257 -0.016685227 0.0026759442
0.2099418 -0.08305316 0.02985653 -0.039824508 -0.07252404 0.09396863 -0.02419759 -0.109004095
0.15171355 0.1365792 -0.04710505 -0.19012748 -0.37983945 0.022411827 0.0131170675 0.09866838
0.06502613 0.111030385 -0.0677774 -0.0912629 0.013408052 0.014388319 0.26522046 0.002107064
0.034729056 0.063789696 -0.050550908 -0.004075554 0.006922182 0.21111001 -0.10645833 0.0010573324
-0.019263571 0.04512123 0.08681875 -0.05452358 -0.15067703 -0.052561913 0.17885108 -0.1143329
-0.07800253 -0.061918538 -0.13867119 -0.3088992 -0.28325054 0.13987681 -0.06635974 -0.18934442
-0.016209764 0.16836028 -0.0017007773 0.34408072 0.16601473 0.2160468 0.019663895 -0.20397626
-0.10665066 -0.053812984 -0.26801014 0.09679066 -0.055129603 -0.009029321 -0.023356935 -0.19025388
0.07899846 0.03627694 0.23597756 -0.058153465 0.043375287 -0.10346875 -0.029328993 0.115436524
-0.012257228 -0.17217872 -0.1377567 -0.1388803 -0.17400418 -0.25044948 -0.0017972521 -0.27910933
0.04428452 -0.16914959 0.23452911 -0.06842612 0.20094265 -0.15833291 0.06570088 -0.007641518
0.21449038 0.04941727 -0.037570775 -0.005415007 0.026450934 -0.030595085 0.007620734 0.21983245
-0.15846755 0.09285025 0.034532793 0.22517857 -0.00090670894 -0.04881094 -0.061744213 0.16570055
-0.03803528 0.008023942 0.10597688 -0.14128837 0.09623025 0.03571203 0.2350532 -0.05036717
-0.028667917 -0.1642895 0.12915234 0.0053731315 -0.025489228 0.15732096 -0.037765883 0.051026415

hidden_nets.0.bias f4 [128]
00000000: 8150 32bd 1089 66bd 8f85 2ebd 463a f3bc
00000010: 8ccd 54bd b37f 25bd c970 28bd 1ed4 00bd
00000020: b317 8fbb 0000 0000 0d60 123e 0000 0000
00000030: cd4f 05be 5ce6 8f3a dde6 10be 6a89 cabc
00000040: 8c53 c8bc 94e4 07be 096e 41bd 270b ba3d
00000050: 2ea2 c4bd 2b12 dabd 7de9 56bc 4afc 2abd
00000060: bb6d d9bd 58cc ab3c 85bf 0a3d f9f4 0ebe
00000070: 0dfe 8abc 9fc9 86bd 97b3 09be 7203 e6bd
00000080: 9c8b ee3d afeb b7bd 747f c4bd f90b 393d
00000090: 0000 0000 bffc 75bd e5b3 5dbd b551 adbc
000000a0: 95d4 f03c 5529 8abd 2637 2b3d fa9b 623c
000000b0: 57a4 dfbd cb93 c43d 9fc3 50bd a46a 18be
000000c0: 8701 db3d 8973 f7bd d3a8 2cbd 310d 8bbd
000000d0: 0000 0000 b6fe a1bd 5cde b0bd d710 d8bd
000000e0: f8f9 efbd 6532 81bd 13d2 27bd 7eec babc
000000f0: eaf1 3fbc a96f f3bd b71d c4bd 10dd 13be
00000100: 8554 cbbd 8b73 9a3d 9434 25be c9b7 adbd
00000110: 9131 13bd 490e 93bd 1547 85bc 8d10 19be
00000120: 7233 973d 48fa 58bd 5608 d5bd cee4 fcbd
00000130: bcfa 30be ab10 b03c d550 f8bd 7783 29be
00000140: a97b 88bd 149d 81bd deb7 5fbc bfb8 4fbd
00000150: ed11 bfbd 5a0e e2bd 0000 0000 2bd0 323d
00000160: 43b7 7abc 7e70 02be e279 78bc 100f fbbd
00000170: 8dd2 203d a3b1 963d ac53 e4bd fd5c 10b9
00000180: 81bf b9bc 2589 02be 2470 11be 51f2 05be
00000190: f8a2 f4bd 9fea f3bd 60c4 28bc 1d70 fdbc
000001a0: 3606 6bbc 86bd 4abd 9dd9 87bb 51f9 813d
000001b0: d87e 5abd d883 cebd 36c1 33be 0000 0000
000001c0: c37a 81bc 5316 64bc 394b 0bbe eecf 10be
000001d0: b7cc d7bd 5efa 06be 0530 983d 53da 03be
000001e0: cb0a abbd 4257 3dbc ae0c 1cbe 9121 efbd
000001f0: 0000 0000 24cb b9bd f603 1439 c6f4 0bbe
-0.043533806 -0.056283057 -0.04260784 -0.029690873 -0.051953837 -0.040404987 -0.041123185 -0.03145229
-0.004366839 0.0 0.14294453 0.0 -0.13018723 0.0010978687 -0.14150567 -0.024723727
-0.0244539 -0.1327079 -0.04722408 0.090841584 -0.09601246 -0.106479965 -0.013117191 -0.041744508
-0.106166326 0.020971462 0.033874054 -0.13960637 -0.016966844 -0.06581425 -0.13447414 -0.11231126
0.11647722 -0.089805 -0.09594622 0.045177434 0.0 -0.06005549 -0.05412664 -0.021157125
0.029398242 -0.06746165 0.04180064 0.013831133 -0.10920017 0.09598502 -0.05096781 -0.1488443
0.10693651 -0.120825835 -0.04215319 -0.067896254 0.0 -0.079099104 -0.08636162 -0.10550087
-0.117176 -0.0630844 -0.040971827 -0.022817846 -0.011715392 -0.11886532 -0.0957598 -0.14439797
-0.0992823 0.07541569 -0.16133338 -0.0848232 -0.035935942 -0.07180459 -0.016269246 -0.1494772
0.07382859 -0.05297306 -0.104019806 -0.123483285 -0.17283148 0.021492323 -0.121247925 -0.16554056
-0.06664211 -0.063287884 -0.013654677 -0.050713297 -0.09329591 -0.110378936 0.0 0.043655556
-0.015302482 -0.12738225 -0.015165778 -0.12258732 0.039263297 0.073581 -0.11148772 -0.00013767551
-0.022674324 -0.12747629 -0.14202935 -0.13080718 -0.11945146 -0.11909985 -0.010300726 -0.030937249
-0.0143447425 -0.04949715 -0.0041458146 0.063463815 -0.053343624 -0.10083741 -0.17554173 0.0
-0.015805608 -0.013921338 -0.13602914 -0.14141819 -0.10537093 -0.13181445 0.07431034 -0.12876253
-0.08351668 -0.011556448 -0.15239212 -0.11676324 0.0 -0.09071949 0.00014115855 -0.13667592

hidden_nets.1.weight f4 [64, 128]
00000000: 2eff f13c 1d49 cabd d848 e13d 7bf6 63be
00000010: 12ce 19be 1144 0ebd 16c6 4c3e 9c88 023e
00000020: 6190 f23d 92b4 323e a43b 2cbd 97a7 b83c
00000030: 605d 753d fd74 d1bd 0b0f 923c 2e00 9fbd
00000040: 9fef 323e 5e7d 81bd 63bd 1b3e bfe8 0e3d
00000050: bef9 d73d 0c8b 8c3d 7a2c ac3d 0823 f43c
00000060: 15eb 32bd 5e1b 51be bef0 2abe 3d56 d03d
00000070: 1010 bbbc 7dce 1a3d af67 bb3d 009a 283e
00000080: 3ecc f5bd 678d dd3c 4340 413b d6d3 e33c
00000090: cdf3 1fbe 25e5 3b3d 5e63 3e3e d595 f93c
000000a0: af09 6a3c 6716 9c3b 274a 5e3d a106 51bc
000000b0: 1150 b23d 9099 f1bd 522e 70bd 9bd6 733c
000000c0: 45c4 2cbe a2fc abba 28e0 c2bc 9f6e cd3d
000000d0: dc9d ffbd 861d eabc e4d4 cebc 7282 45bd
000000e0: 4e52 0c3d 0064 003e 3172 bb3d 878f 98bd
000000f0: 0717 c0bd f0a8 b83d 7f27 32bd 6c3d a1bd
00000100: f7c2 c8bd 446e 9dbc a33d 313d 9861 b3bd
00000110: e3ad 053e 1ce9 003e 2787 2fbe 3f32 f93d
00000120: 7509 05be d773 1a3c dac9 203e 7399 053e
00000130: 9bb9 a63d 4220 2abe 8cd2 183e 76b1 f53d
00000140: f687 423a 5a48 cebd 2b97 293e 759e 73bd
00000150: b9a6 87bd 070a 04be b536 923d c44b fabc
00000160: d043 30be 5d31 4cbe cf29 72bb 414b a13d
00000170: f686 8b3d f714 91bd 6de7 233e 6f54 94bd
00000180: 2521 c0bd 243a 623e 5ab3 943d e456 fd3d
00000190: 21b8 383d 0d62 debd b721 bcbd f745 12be
000001a0: 26cd a9bc 79a4 a2bd eaae ca3c 4252 afbd
000001b0: fa46 44bc b8dd 1f3e 2fb7 6f3d a516 143c
000001c0: 0e0c a33d 2a9b c9bd dd63 b0bd 11d7 b63d
000001d0: 063e 82bd 4c9c f8bd 9cb3 37be 5c1d 213e
000001e0: a3ea c7bd ef44 1a3e b1fc 083e 6ae5 0e3d
000001f0: ea8a d4bd ac4a e5bd 9447 03be 1186 f73d
00000200: 75e3 29be 1b36 45bd 2cd3 15bd 7e9e 853d
00000210: c745 1c3e f258 acbd ece7 813e a71d ddbd
00000220: 0075 29be 2bcc 16be 1cc4 9fbd e042 b3bd
00000230: 5368 ddba b805 243d c889 043c 0fc1 1e3e
00000240: 19c1 b83c 6fc2 0f3e 2692 81bd 9ab3 e6bd
00000250: 4493 703d 2c49 563d d58c 4c3e 5633 c6bd
00000260: 2c42 883d 5f8b f23d 3c75 c2bd d9a6 533d
00000270: e4a9 d83c 88f0 a7bd 118c 333d 743c 133e
00000280: 0b9f 86be 3a72 a8bd 1109 203e 0cf6 63be
00000290: 874d 72bd ef9b 94bc d259 0b3e 9087 c8bc
000002a0: b659 903d a2a8 d73d 496f e5bc 070f 513c
000002b0: e90d 4d39 86c5 28be 950a e7bb 63f8 f13d
000002c0: 9c86 963d b87d e23d 177b 273e 14b3 27be
000002d0: e60d 24bd 41f0 7cbd 332e aa3d 62e1 96bd
000002e0: 33a7 5a3d 6d9f 4dbb f0c0 08be 7992 4d3d
000002f0: ba39 3d3d da16 6abc c90f 1c3e 7116 e7bd
00000300: 9671 dfbd 4ccf 68be 7402 02be af4c 753c
00000310: 5253 143d ded6 3a3e d9c1 743d 1d4e 113e
00000320: 7679 013e 44e2 afbd 7479 a8bd 0edd 383e
00000330: ca4d 0a3e 97a3 41bd 1269 e43c acc9 2b3d
00000340: c7bf 92bd 7ac6 3c3d bcf2 7d3d a95f 46be
00000350: c200 333e 7125 febd cf0d 09be cd11 323d
00000360: 2590 e4bd 6da9 9bbd 4f17 1abe 7ea3 00be
00000370: 561a 09bd 24f9 09bd b74c b43c d67d 903a
00000380: d02d f3bd 785a 273c 123d d63d d8ad c8bd
00000390: 8e2d a4bd 3bd2 093e e36f 22be ccb3 8dbd
000003a0: 5ae4 cfbd dadc 473e 5ec0 2e3c 65c2 8fbc
000003b0: b642 b4bd 8b29 36be 6188 0c3d 1d6b dd3d
000003c0: 4c87 a93c abfd c5bd 976f 9fbd 3e7a fe3d
000003d0: 30fa 263d 977c 9d3d 7d5f 13be fb71 e2bc
000003e0: 28ca 7e3e 3a98 1ebe cf5f 13be 2723 95bd
000003f0: d5fc b1bd 9087 dcbc 9ec1 823d dad4 bdbb
0.029540624 -0.098772265 0.11000222 -0.22261994 -0.15020016 -0.034732882 0.19997439 0.12747425
0.11843944 0.17451695 -0.042049065 0.02254085 0.059903502 -0.10227392 0.017829439 -0.07763706
0.1747422 -0.0632274 0.15208964 0.034889933 0.105456814 0.068624586 0.08406921 0.02980186
-0.043681223 -0.20420596 -0.16693398 0.10172699 -0.022834808 0.03779458 0.091506355 0.16464996
-0.12001847 0.027044965 0.0029487766 0.027810972 -0.15620346 0.045872826 0.18592593 0.030466953
0.014284535 0.0047634128 0.054269936 -0.012757928 0.08706678 -0.11796868 -0.058637924 0.014882709
-0.16871746 -0.0013121555 -0.023788527 0.10030865 -0.12481281 -0.028578531 -0.025247999 -0.048220105
0.03425818 0.12538147 0.0915264 -0.07449251 -0.09379392 0.09016597 -0.043494698 -0.078730434
-0.098028116 -0.019217618 0.043271672 -0.08758849 0.13054614 0.12588924 -0.171414 0.12167787
-0.12991889 0.009427032 0.15702 0.13046817 0.0814087 -0.16613868 0.14924067 0.119967386
0.00074207725 -0.10072394 0.16561572 -0.05947729 -0.06623597 -0.1289445 0.07139341 -0.030553706
-0.17213368 -0.19940706 -0.003695119 0.07875682 0.06812851 -0.07084077 0.1600625 -0.07242667
-0.09381322 0.22092491 0.07260771 0.12370089 0.045097474 -0.108585455 -0.09186118 -0.14284502
-0.020727705 -0.07941527 0.024741609 -0.08560611 -0.011979813 0.15611923 0.058524307 0.009038602
0.079612836 -0.09844048 -0.086127974 0.089277394 -0.06359486 -0.12139186 -0.1793961 0.15733856
-0.0976155 0.15065359 0.13377644 0.034886755 -0.10378058 -0.11195883 -0.12820274 0.12086118
-0.16590674 -0.048147302 -0.036578342 0.065243706 0.15260993 -0.084154025 0.25372255 -0.10796671
-0.16548538 -0.14726321 -0.07801077 -0.0875299 -0.0016892053 0.040044516 0.00808949 0.15503334
0.022553014 0.14039014 -0.06326704 -0.11264725 0.058734193 0.052315876 0.19975598 -0.0967776
0.06653246 0.11842989 -0.09495017 0.05167279 0.026448198 -0.082001746 0.04383475 0.1437853
-0.26293215 -0.08224912 0.15628459 -0.22261828 -0.059155967 -0.018140761 0.13608482 -0.024478704
0.07048361 0.10530211 -0.028007166 0.01275993 0.00019555505 -0.16481599 -0.007050822 0.11814954
0.073498935 0.11059135 0.16355549 -0.16376907 -0.040052317 -0.06175256 0.08309593 -0.07367207
0.05338211 -0.0031375543 -0.1335485 0.050188515 0.04619763 -0.014287675 0.15240397 -0.11283577
-0.10910337 -0.22735327 -0.12696248 0.014971896 0.036212273 0.18246028 0.05975518 0.14189954
0.1264399 -0.085880786 -0.0822629 0.18053076 0.13506237 -0.047275152 0.027882133 0.041940376
-0.07165485 0.04608772 0.061999068 -0.19372429 0.17480758 -0.12409485 -0.13384174 0.043474007
-0.11160306 -0.07600675 -0.15047954 -0.12562367 -0.03347238 -0.033684865 0.022009237 0.001102383
-0.118739724 0.0102144405 0.10460867 -0.09798783 -0.08016501 0.13459103 -0.15862994 -0.06919059
-0.101509765 0.19517842 0.010665981 -0.01754875 -0.088017866 -0.17789285 0.03430975 0.10811446
0.020694397 -0.09667524 -0.07784956 0.124256596 0.04076594 0.07689779 -0.14391895 -0.02764224
0.24881804 -0.15487757 -0.14392017 -0.072820954 -0.08690802 -0.02692011 0.06384586 -0.005793196

hidden_nets.1.bias f4 [64]
00000000: 9edc 853f 3d63 823f 703c 6c3f c7c5 82bd
00000010: 0cfa ec3c c070 893f 7c70 823f c9b2 7abd
00000020: e077 7a3f af71 6f3c adb0 883f 20c8 823f
00000030: b5c8 6cbd 0f3f 6e3f 5907 863f 8c96 833f
00000040: bfda 843f 4b22 0bbe ac7a 7b3f 7e8a 2fbe
00000050: 55c6 803f 813d 563f 724b 8cbd 415c 89bd
00000060: 7d98 7a3f a3ec 6a3d 547a 7a3f 997b 7b3f
00000070: de3d 2e3d bdb2 843f 96c6 4abd d4ef f63c
00000080: d10c f2bc cba0 6f3f 6ef3 3ebd 88df 863f
00000090: 36db 833f 47d3 823f 8ac8 e1bd 848c 843f
000000a0: fffa 7b3f 1826 873f bae0 7d3f b202 a43e
000000b0: 7875 e0bd 86d2 803f 1f3d 8b3f 26bb 713f
000000c0: 9d98 df3e b7d9 7e3f bba1 903e c972 8d3f
000000d0: 6f1d b83e e70b 773f ce0f 833f 7274 963d
000000e0: e7dd 83bd 7dfc 7a3f a408 783e 3a05 8abd
000000f0: ce56 843f 946d 9a3e 870d 763f 5000 813f
1.0457952 1.0186535 0.9227972 -0.06385379 0.028927825 1.0737534 1.0190578 -0.06120566
0.97839165 0.014614507 1.0678917 1.0217323 -0.057808597 0.9306497 1.0470992 1.0280318
1.0379256 -0.135873 0.9823406 -0.17142674 1.0060526 0.836876 -0.068503276 -0.06707049
0.9788893 0.05735458 0.9784291 0.9823547 0.04253947 1.0367047 -0.049505793 0.030143656
-0.029547127 0.93604726 -0.04661887 1.0536966 1.0301273 1.0220727 -0.11024578 1.0355382
0.98429865 1.05585 0.9917103 0.32033306 -0.109599054 1.0064247 1.0878028 0.9442619
0.43671122 0.99550956 0.2824839 1.1050655 0.35959956 0.96502537 1.0239198 0.07346429
-0.06438809 0.98041517 0.24222046 -0.06739278 1.0338991 0.30161726 0.9611439 1.007822

value_stream.weight f4 [1, 64]
00000000: a963 123f 8d8e 323f 9773 503f 31ee 97be
00000010: db70 09bf a4d6 203f 930c 183f 59c8 8fbd
00000020: e9fb 2c3f 85ff 87be 114e 173f 20ba 273f
00000030: 1241 bfbe a8fb 123f cd50 183f 40f1 1d3f
00000040: e2d3 123f 78fe 3ebe f856 303f 34c1 2dbe
00000050: cfaa 133f f5ba 1b3f 6151 2fbe 2764 8cbe
00000060: 2bca 433f c29c d7be 877d 363f 9b41 3a3f
00000070: 02fb a2be 3edb 163f 47ae b7bd 9849 24bf
00000080: 2672 c1be 4b58 113f 92f1 afbe 2ce8 013f
00000090: 93b4 183f bd7b 133f 4136 79be 7f20 1e3f
000000a0: 2dd8 133f 50e8 183f da42 1b3f 4994 0a3f
000000b0: b779 dfbd 3c91 2f3f a1b8 043f b7be 233f
000000c0: 16c9 113f 36cc 1f3f 4868 e33e 7d89 ed3e
000000d0: a1b0 ff3e 37dc 633f c791 0b3f 32ef 13be
000000e0: 63a0 79be db52 3c3f 8635 dc3e df0d 43be
000000f0: 591b 223f a7cf 083f 2c29 2b3f 7cb5 1c3f
0.5718332 0.69748765 0.81426376 -0.29673913 -0.5368783 0.62827516 0.59394187 -0.07020635
0.67571884 -0.26562133 0.59103495 0.6551838 -0.37354332 0.57415247 0.5949829 0.61696243
0.5735456 -0.1865176 0.68882704 -0.16968232 0.5768251 0.6083215 -0.17120887 -0.2742016
0.7648036 -0.42111784 0.7128529 0.72756356 -0.3183213 0.5892829 -0.08968788 -0.64174795
-0.377824 0.5677535 -0.3436399 0.5074489 0.59650534 0.57610685 -0.24337102 0.61768335
0.57751733 0.5972948 0.6064888 0.54132515 -0.10911887 0.68580985 0.5184422 0.6396288
0.5694746 0.62420976 0.44415498 0.46393958 0.49939445 0.89007896 0.54519314 -0.14446715
-0.24377589 0.7356393 0.43009585 -0.1904826 0.6332298 0.5344185 0.668597 0.61214423

advantage_stream.weight f4 [5, 64]
00000000: fb9c dabb 0758 f0bc b996 7d3c 2740 a43e
00000010: 2935 9b3e a61b b5bd 5b7c a73d e147 c33d
00000020: 5e3d 6f3c 33c3 593e 385f af3d a89a 34bc
00000030: babe da3d 2eae 8c3c e068 383e 4b8b 33bb
00000040: c9ea a53c e019 03be b9c2 3a3c 788f 4a3e
00000050: d04b 9e3d f989 29bc 7e26 323d 3b8b ef3d
00000060: ac77 c53c 3154 b13e 5dc5 aa3d c110 f63d
00000070: 340f 89bd d0c2 a5bd b548 403e af81 ea3e
00000080: 9ced ee3d 183c ecbc 67b1 b4bd 7fc1 273e
00000090: 7554 da3d 3339 15be f3dc 7ebe ce82 923d
000000a0: ca2b b03d c9e2 cebc 4353 d8bd 4d18 efbd
000000b0: 5b3f 623e 73cd a63c 77b1 943d 77fe 3bbb
000000c0: e66d f9bd 7c2e ff3d 34cc 663d 6046 22be
000000d0: a903 ccbd b422 97ba a99c 8c3d ece2 af3e
000000e0: bc58 32be 1fd4 493d b7c2 d0bc 8cf4 b6bb
000000f0: 21ed 013d 6b49 08be e404 033d dbf2 cebc
00000100: e4ef 18bd b03a 75bd 7610 35bc 2793 20be
00000110: 53c1 7cbd 28c2 04be d684 923d 9a20 fd3c
00000120: f26a 61bd 0ceb d9bd faee 2d3d 0db1 59bd
00000130: 6ac4 8dbe 3f1e a83c 6d95 3e3e 5787 e5bc
00000140: 5e5a 38bd c46d b1be c88e b8bc 70b0 353e
00000150: 902e 073c 9ff9 06bc ea0d 6fbe ec7d f43c
00000160: d525 5ebd 1ee4 e8bd 74f4 af3d bdf5 903d
00000170: 7de5 223c fd56 1dbe 154d 7dbe e350 dfbd
00000180: 8ada 273e 6d58 2abd 5f9f 603e 6ea1 d43d
00000190: 60e2 c43d c3d4 2ebe 5458 4abd f96d 4f3d
000001a0: 0e4b 2f3d 4240 88bd 1481 17be 54e8 a53d
000001b0: 7e7f 86bb d876 18bd fa4e 373d 6433 68bd
000001c0: fac2 52bd 5dbe ad3d 1bb4 a43d 3b39 f6bd
000001d0: 8d62 85bd 038a b8bd fbcc 2b3d 1f2b 70bd
000001e0: 831c 573e fe7b 5fbc 0cc0 d73a dd51 8c3d
000001f0: 008e b1bb f7f3 88bd 0b85 b5bc 8035 9ebd
00000200: aead 4dbd 525c 893c 5e1a a8bb 4f6f 553e
00000210: 7c86 a43e b415 11be 5f8f 803d 20d7 96bd
00000220: dba6 61bc c5c3 433e b915 bd3d 0e93 0abd
00000230: 147e 043e 3d13 09bb 69ed 433e f6a2 7fbd
00000240: 9357 08bd aabc 713c 1f0f 85bc 2d17 d2bd
00000250: f890 40bc 2631 a23b bd08 043e cb5c 5bbe
00000260: bd5d ad3a ffe3 113e bfff c33d 8fc2 d83d
00000270: 23bf 5e3d 8602 22be c547 75be ad5d 69bd
00000280: 59c8 28bd db3b c9bd 1495 c1be acf2 0a3e
00000290: 3fa2 e83d 2569 19be 882a 31be 97de 2e3d
000002a0: a5d5 563d 88d2 8cbd d920 f7bd 33ba 003e
000002b0: 8625 f5bc d7f4 ba3c 5bf1 8e3d 3a3f 9ebd
000002c0: 2ff6 15bd 1a42 b83d ea57 0dbd 5ea9 17be
000002d0: 1750 02be 7968 f5bc 4e5b 233d c732 c63e
000002e0: 0b72 ba3d 1338 89bb a78b e73d ef5d 9ebc
000002f0: 5aea 8abc 271e 9cbc a364 d53c 8f5c 3cbd
00000300: 7939 d9bc 91d6 7abd c788 7fbd 1a73 df3d
00000310: 91e9 e13d e04d e6bd a87a 993d f528 c4bc
00000320: 80d9 8abd 70b8 b3be b52e 6d3c 2a19 97bd
00000330: 8196 8c3e be5f e1bb 56e1 0c3e fec0 54bd
00000340: a308 88bc ba5a 1b3d 8976 00bd 069f 813e
00000350: 09ff 27bc 58a5 99bd f9e0 2fbd 0fc2 18be
00000360: e9f4 45bd c74e 2f3e 0b48 973d b3ed 7e3d
00000370: 765c 16be 68ac 13be cff4 253e 64c0 2f3d
00000380: eec8 53bd f3e8 8cbd 4616 463e 9839 a23d
00000390: 591e 6f3d d590 38be ac6d 0ebe 3a05 f63c
000003a0: 335a 173d d639 8abd e3d0 33be 883a 96bd
000003b0: 06d8 63be 6d25 8bbd f231 753d 8d50 80bd
000003c0: a86b a2bd ebb2 873d aa7d 3c3e 781e 26be
000003d0: b507 2f3c dde5 96bd 9769 ce3b 4a4a 91be
000003e0: f872 23be d840 4abc e7f1 ed3e 87ea e93c
000003f0: 59ec 57bc b6c2 2abc 473e c23c 3756 bfbd
-0.0066715456 -0.02933885 0.01547783 0.32080194 0.30313995 -0.08843164 0.08178016 0.09535194
0.014602033 0.21265869 0.085630834 -0.011023201 0.106809095 0.0171729 0.18008757 -0.0027396258
0.020253556 -0.1280284 0.011398965 0.19781291 0.07729304 -0.010347837 0.04349374 0.11696478
0.024104916 0.34634545 0.08338425 0.12014914 -0.06692353 -0.08093798 0.18777736 0.45802066
0.11666414 -0.028837249 -0.08822899 0.16382407 0.1066064 -0.14572601 -0.24888973 0.07153855
0.08602102 -0.025254624 -0.10562756 -0.11674557 0.2209448 0.020361638 0.07260411 -0.0028685608
-0.121791646 0.12460038 0.056347087 -0.15847158 -0.099616356 -0.0011530728 0.06865818 0.34352815
-0.17416662 0.04927456 -0.025483472 -0.0055833515 0.031720284 -0.13309257 0.031987086 -0.025262287
-0.037338153 -0.059870422 -0.011051288 -0.15681134 -0.061707806 -0.1296469 0.07154243 0.030899335
-0.05503363 -0.10640535 0.042464234 -0.053147364 -0.27688915 0.020522235 0.18611689 -0.028018637
-0.045008056 -0.34654057 -0.02252902 0.17743087 0.008250847 -0.008238225 -0.23345152 0.0298452
-0.0542353 -0.11371635 0.085915476 0.07078121 0.00994241 -0.15365215 -0.24736436 -0.109041
0.1639196 -0.041588236 0.21935795 0.10382353 0.0961349 -0.1707335 -0.049400643 0.050641987
0.042796187 -0.06652881 -0.14795333 0.08100954 -0.0041045537 -0.037222713 0.044753052 -0.056689635
-0.051455475 0.084835745 0.08042165 -0.120226346 -0.06512938 -0.09010699 0.04194353 -0.058634873
0.2100697 -0.013640402 0.0016460433 0.06851552 -0.005418539 -0.066871576 -0.022158166 -0.07725048
-0.050214462 0.016767655 -0.0051300963 0.20843242 0.32133853 -0.14168435 0.06277346 -0.073652506
-0.013772692 0.19117649 0.09232659 -0.03383165 0.1293872 -0.0020916008 0.19133534 -0.06241127
-0.033286642 0.014754454 -0.016242562 -0.10258327 -0.011753313 0.0049497066 0.12893958 -0.21422116
0.0013226789 0.1424713 0.09570264 0.10583984 0.0543815 -0.15821275 -0.23953159 -0.0569741
-0.04120669 -0.0982587 -0.3780905 0.13569134 0.11359071 -0.14981516 -0.1730138 0.042692747
0.05244984 -0.06876093 -0.12066812 0.1257103 -0.02992512 0.022821827 0.06979629 -0.07726903
-0.036611732 0.08996983 -0.03450767 -0.14810702 -0.12725864 -0.029957043 0.039881997 0.38710615
0.09103783 -0.004187593 0.113059334 -0.0193319 -0.01695745 -0.019057347 0.026048964 -0.04598671
-0.026516663 -0.061239783 -0.0623863 0.10910626 0.110308774 -0.11245322 0.07494098 -0.023945311
-0.06779766 -0.35101652 0.014476468 -0.073778465 0.27458575 -0.0068778684 0.13757834 -0.051941864
-0.01660568 0.03792832 -0.031363044 0.25316638 -0.010253676 -0.0750224 -0.04293916 -0.14917777
-0.048329268 0.17119895 0.07386788 0.062238406 -0.14683709 -0.14421237 0.16206668 0.042908087
-0.051705293 -0.06880369 0.19344434 0.079211414 0.05837855 -0.18023999 -0.13909024 0.03003179
0.036951255 -0.067493126 -0.17560153 -0.07335383 -0.22250375 -0.06794248 0.059862085 -0.06265364
-0.0793069 0.06625923 0.18407312 -0.1622256 0.01068299 -0.07368062 0.0062992084 -0.2837699
-0.15961826 -0.0123445615 0.4647362 0.028554214 -0.013178908 -0.010422399 0.023711337 -0.09342616

advantage_stream.bias f4 [5]
00000000: 3dd8 26bf fb84 c73e 010e 53be 982e e03e
00000010: 5aaf 12be
-0.65173703 0.38968644 -0.20610811 0.43785548 -0.14324704

hidden_nets.0.weight f4 [128, 11]
00000000: 1139 b2bc 54b7 b43d 9167 8b3b f36a 0abe
00000010: 5dd9 01be 29fd 1fbf a126 053e 0d4d 3bbe
00000020: ee30 29be f307 89bb c7a3 c5bd a4e4 c7bd
00000030: e348 24be 1c57 013e bb3d c53d 3935 c63d
00000040: 4579 c9bd 642d 033e bd19 0d3e aa92 66bd
00000050: 55f9 733e 2a1f ae3d 9097 b33d 7d80 88bd
00000060: 120a c6be b8e3 a33c 93d1 5c3e dac3 d7bd
00000070: f046 12bb 2b41 21bd 655b 2a3e 3d1f 03be
00000080: 2b73 41bd 264d 45bd 1e87 12be 2419 28be
00000090: f048 77be 403a c0bd a5bb b2bd aa3e 5b3d
000000a0: a1c1 40bd 6414 cfbd bf48 0a3e 012c 273e
000000b0: a4ae 98bd 35d5 bdbd 92d7 33be 341b 81be
000000c0: 1d01 5dbd 93ae 9bbd 178d e73d c208 1fbe
000000d0: 5542 30bd 7d9e e43d c949 483e f1b2 8a3e
000000e0: 551b d6bd 51cc 6dbc 9d21 4b3d 9b8b 183e
000000f0: d127 b53c 6de9 35bd 76e8 afbd f3bf 52be
00000100: 3728 e6bc ab51 ccba cc5a 253e 71e9 3cbe
00000110: 5514 8d3c df28 11bd 76be 503e 4797 ebbe
00000120: b000 2d3e 9a56 15be ff0f 213e 649f a3bc
00000130: 5d0f b13c 8da7 313e 0100 33be f481 ccbe
00000140: a698 dcbc 5d1c 9abd 1681 5ebc 2fce 6d3e
00000150: a90a 49be f0af 99bd a104 7fbd 0686 1dbd
00000160: 2867 06bd de1d c5bd 39ce 27be 85ad a13e
00000170: 6ec4 8ebe 729e 2b3d 8fa2 233d d448 203e
00000180: 8bc0 c93d 008b f13b 3219 79bc dfb5 873c
00000190: e084 b6bd b154 4ebe f402 333e c064 4bbe
000001a0: 8f14 06be 7ea6 97bd b49b 42be 8d19 25be
000001b0: 4a91 debd 1767 c93c b2dc 8fbe 7465 d2bc
000001c0: 9958 01be 8254 11be 7a9f 6ebe 6de5 593d
000001d0: da96 1e3d 4fda a83e 704d babd 622f 203d
000001e0: fb9b cf3b 2697 3a3e 34ce 873d 7de6 91bc
000001f0: 6037 8a3d ba8e 51be 0787 11be fdea b2bd
00000200: 0197 40be d4ac 20be cb9e 23be e64c 743d
00000210: 4856 193e ba7f 89bd 14c9 84bc f739 963a
00000220: cde8 553e 5a20 a9bd 3b12 fd3c 343b 28bd
00000230: 7c87 94bd 868d be3d ce7f c6bc 3cdd d9bd
00000240: 4c0d 1d3e 60bf 0d3e 7be2 34bd 7c87 41be
00000250: 1a79 c1be eec2 bd3c f6fb 6f3c a612 ca3d
00000260: 9d66 863d 30ca e53d 26aa 8fbd 9ceb bfbd
00000270: 34d6 5a3c 2a1c 3e3c 739b 863e f663 7e3a
00000280: 70ae 0d3d 987d 7b3d 780e 4fbd f807 c3bb
00000290: f8d5 ea3b 8a15 583e f341 d7bd f440 873b
000002a0: 466b 90bc 301d 3a3d 04c3 b63d 931d 61bd
000002b0: 5de8 18be 294b 57bd d827 393e 45e7 e9bd
000002c0: cabf 9fbd 4b9e 7dbd d2ff 0dbe 0928 9ebe
000002d0: 3706 91be de3b 0f3e 9ee7 87bd 81e3 41be
000002e0: 57ca 84bc a366 2c3e 9eec deba 462e b03e
000002f0: 2726 2a3e 0599 5d3e 32ec a33c d1d3 50be
00000300: fb18 d9bd 6c15 5abd 552d 89be 2e3a c63d
00000310: da03 61bd d02e 17bc 5443 cabc ab61 44be
00000320: f741 a13d 846e 0d3d 1034 703e d91f 6ebd
00000330: 7ada 343d 7401 d7bd 5b43 f0bc f56b e93d
00000340: 51b0 46bc 044b 2ebe bff5 0cbe a670 0fbe
00000350: fc83 33be f8c1 7fbe a4a5 08bb ecfa 8ebe
00000360: eafd 353d 8d35 2dbe 9409 703e ca70 89bd
00000370: 954c 4d3e 2ad8 22be 2f29 873d 43aa 06bc
00000380: 2a9a 5a3e a33b 4e3d 6d4d 1cbd 2f79 c9bb
00000390: a1af d83c b046 f6bc 46f3 d53b 9e6d 603e
000003a0: 4f5a 23be 0001 bf3d 6c5d 0a3d 90a3 653e
000003b0: c516 05ba dbc0 41bd 33aa 80bd 68ad 293e
000003c0: c973 1ebd 5e07 ef3b 5ae5 d53d 1617 12be
000003d0: 7757 c63d f8c7 0c3d 1231 6f3e 425a 4fbd
000003e0: dc3b e5bc 79a9 29be 8340 043e b55e 993b
000003f0: 01fd ccbc 336a 203e ecd4 1cbd dd19 523d
-0.021755727 0.088240296 0.0042542894 -0.1351736 -0.12680574 -0.62495667 0.13003017 -0.18291111
-0.16522571 -0.004181856 -0.09650379 -0.097604066 -0.16043429 0.12630886 0.09630915 0.0967812
-0.098375835 0.12810284 0.1377935 -0.056292213 0.23825581 0.08502038 0.08769143 -0.06665132
-0.38679558 0.020006046 0.21564321 -0.105354026 -0.0022320114 -0.03936879 0.16636427 -0.12804885
-0.047228973 -0.048169278 -0.14309356 -0.1641584 -0.24148917 -0.0938611 -0.087271966 0.053526558
-0.04705966 -0.10111311 0.13504313 0.1632538 -0.07455185 -0.09269182 -0.17562702 -0.25216067
-0.05395614 -0.07601657 0.113062076 -0.15530685 -0.04303201 0.11163042 0.19559397 0.27089646
-0.10454432 -0.014514045 0.049592603 0.14897005 0.022113713 -0.044412065 -0.0858926 -0.20581035
-0.028095348 -0.0015588304 0.16147918 -0.18448426 0.01722161 -0.03543937 0.20385155 -0.46013853
0.16894794 -0.14583817 0.15728758 -0.019973464 0.021613771 0.17349072 -0.1748047 -0.39942896
-0.026928257 -0.07524941 -0.013580581 0.23223184 -0.19632973 -0.075042605 -0.062260274 -0.038457893
-0.03281322 -0.09624837 -0.16387261 0.31577697 -0.2788424 0.041899152 0.03994995 0.15652782
0.09851178 0.0073713064 -0.015203761 0.016566215 -0.08912063 -0.20149495 0.17481595 -0.19862652
-0.1309378 -0.07404803 -0.19004709 -0.16123028 -0.108675554 0.02458529 -0.28098065 -0.025683142
-0.12631454 -0.14192393 -0.23303023 0.053197313 0.038718082 0.32979056 -0.09096801 0.039107688
0.006335733 0.18221721 0.06631127 -0.0178101 0.06748843 -0.20464602 -0.14211665 -0.08736227
-0.18807603 -0.15690929 -0.15978543 0.05964365 0.1497432 -0.06713815 -0.016209163 0.0011461367
0.20889588 -0.08258124 0.030892482 -0.041072085 -0.07252404 0.09304337 -0.024230864 -0.106379
0.15337104 0.13842535 -0.0441613 -0.1889934 -0.37787706 0.023164239 0.0146474745 0.09866838
0.06562541 0.11220205 -0.07014875 -0.09371111 0.013356734 0.0116033945 0.26290473 0.00097042264
0.034590185 0.061399072 -0.050550908 -0.0059518777 0.0071666203 0.21101967 -0.10510626 0.004127616
-0.017629277 0.04543799 0.08923915 -0.054959845 -0.1493239 -0.052561913 0.18081605 -0.11421064
-0.07800253 -0.061918538 -0.13867119 -0.3088992 -0.28325054 0.13987681 -0.06635974 -0.18934442
-0.016209764 0.16836028 -0.0017007773 0.34410304 0.16616116 0.21640404 0.020010088 -0.20393302
-0.10600468 -0.053243086 -0.26792398 0.09679066 -0.054935314 -0.00922747 -0.024690308 -0.19177882
0.0787391 0.034529224 0.2345736 -0.05813584 0.044153668 -0.10498324 -0.029328993 0.11397544
-0.012126998 -0.17020804 -0.1376562 -0.14007816 -0.17530817 -0.24976337 -0.0020850683 -0.27925813
0.044431604 -0.16914959 0.23441154 -0.06710966 0.20048745 -0.15902773 0.06599652 -0.0082193045
0.21347871 0.050349843 -0.038159776 -0.0061484794 0.026450934 -0.030063003 0.0065292446 0.21916816
-0.15952419 0.093263626 0.0337805 0.22425675 -0.000507694 -0.047303062 -0.06282463 0.16570055
-0.03868464 0.0072945794 0.10444136 -0.14266619 0.09684651 0.034370393 0.23358563 -0.050623186
-0.027982645 -0.16568555 0.12915234 0.0046804794 -0.025022985 0.15665512 -0.038288996 0.051294196

hidden_nets.0.bias f4 [128]
00000000: 8150 32bd 557e 61bd 43b2 33bd 463a f3bc
00000010: 8ccd 54bd 8b6a 2abd ed7c 2ebd 1ed4 00bd
00000020: 984e 8dbb 0000 0000 b9c6 113e 0000 0000
00000030: d996 06be 2b3f 2c3b 8c59 13be ac73 bfbc
00000040: 8c53 c8bc fdcd 07be 18a2 47bd 4658 ba3d
00000050: bd22 c6bd 9f48 dcbd 0ec9 6dbc 4ce4 2cbd
00000060: c735 debd dfd1 9e3c 419b 073d 2def 0fbe
00000070: 0dfe 8abc 201c 87bd 3b47 0abe b7c2 e7bd
00000080: fb74 ef3d 7205 b9bd b851 c6bd 9aa7 393d
00000090: 0000 0000 bffc 75bd e5b3 5dbd 6d31 b5bc
000000a0: 6467 063d 3e4d 8cbd 740f 2a3d 9156 4a3c
000000b0: 60d8 e1bd af7a c23d 55ca 4bbd a3d7 19be
000000c0: 7ecd da3d 03e5 fabd d3a8 2cbd 310d 8bbd
000000d0: 0000 0000 bd49 a3bd 5cde b0bd 754d d7bd
000000e0: c6c3 f4bd efb7 81bd 13d2 27bd 7eec babc
000000f0: eaf1 3fbc ac7b f6bd 69dd c5bd b808 14be
00000100: 1e32 cdbd bf0a 9b3d 0e7c 26be ca42 b0bd
00000110: f1cc 1ebd 6668 97bd 1547 85bc b37d 1abe
00000120: 724e 923d a948 5bbd 59bd d5bd 2922 ffbd
00000130: c6f9 32be c21d a33c 90bc fabd 8f30 2abe
00000140: a97b 88bd 6e87 83bd deb7 5fbc 8c41 52bd
00000150: d76f c1bd 839c e2bd 0000 0000 7545 343d
00000160: 43b7 7abc 7e70 02be bc1a 6cbc c195 fabd
00000170: 69a2 233d ba71 973d f6ce e6bd 600f e139
00000180: 81bf b9bc 6d9b 05be 0f1b 12be b1af 06be
00000190: b59b f5bd c068 f6bd 5002 28bc 1d70 fdbc
000001a0: 3606 6bbc 86bd 4abd 71c1 4fbb ebec 843d
000001b0: bfa2 59bd d883 cebd 5a0f 35be 0000 0000
000001c0: c37a 81bc 5316 64bc de1a 0dbe cd5e 12be
000001d0: c297 d9bd 3ecb 08be b7b1 993d 61ab 04be
000001e0: 8032 aebd 4257 3dbc e007 1dbe 13b2 f0bd
000001f0: 0000 0000 52be b9bd 82f1 d23a 8d4e 0dbe
-0.043533806 -0.05505212 -0.043871175 -0.029690873 -0.051953837 -0.041605514 -0.042599607 -0.03145229
-0.0043123476 0.0 0.14235963 0.0 -0.13143481 0.0026282768 -0.14389628 -0.023370586
-0.0244539 -0.13262172 -0.04873857 0.09098868 -0.096745946 -0.10756039 -0.014513267 -0.04220991
-0.10850101 0.019387184 0.033107046 -0.14056082 -0.016966844 -0.06597161 -0.13503735 -0.11316436
0.11692234 -0.09034242 -0.09683555 0.045325853 0.0 -0.06005549 -0.05412664 -0.022118295
0.032813445 -0.0685067 0.041518643 0.012349741 -0.110275984 0.09496056 -0.049753506 -0.15023665
0.10683726 -0.12250712 -0.04215319 -0.067896254 0.0 -0.07973049 -0.08636162 -0.10512821
-0.11951403 -0.06333911 -0.040971827 -0.022817846 -0.011715392 -0.12035307 -0.09661371 -0.14456451
-0.10019325 0.07570409 -0.1625826 -0.08606489 -0.038769666 -0.07392959 -0.016269246 -0.15087013
0.071438685 -0.05353609 -0.10436506 -0.124576874 -0.17478094 0.01991165 -0.12242997 -0.16620086
-0.06664211 -0.064223155 -0.013654677 -0.05133204 -0.0944516 -0.110650085 0.0 0.044011552
-0.015302482 -0.12738225 -0.014410671 -0.122355945 0.03994981 0.073947385 -0.112699434 0.000429268
-0.022674324 -0.13047571 -0.14268135 -0.13152958 -0.119925894 -0.12031698 -0.010254458 -0.030937249
-0.0143447425 -0.04949715 -0.0031700993 0.06490501 -0.053133722 -0.10083741 -0.17681637 0.0
-0.015805608 -0.013921338 -0.1377978 -0.14293976 -0.10624649 -0.1335878 0.075045995 -0.12956001
-0.08505726 -0.011556448 -0.15335035 -0.11752715 0.0 -0.09069504 0.0016093703 -0.13799496

hidden_nets.1.weight f4 [64, 128]
00000000: 2eff f13c cfce cbbd a361 de3d 7bf6 63be
00000010: 12ce 19be 1835 13bd f831 4c3e 9c88 023e
00000020: b3ad f23d 92b4 323e 229b 27bd 97a7 b83c
00000030: bc5a 6f3d 8fb4 d1bd 725b 813c db2b 9ebd
00000040: 9fef 323e 5e7f 81bd 1d63 1b3e 3433 123d
00000050: 48cb d73d f3bf 8b3d 76a6 aa3d f575 ea3c
00000060: 80e9 36bd 1902 52be 174d 2abe 76c4 ce3d
00000070: 1010 bbbc 1ad6 133d d875 bb3d cdb7 283e
00000080: 00ad f5bd 68b2 d83c 8a51 463b e996 da3c
00000090: cdf3 1fbe 25e5 3b3d 5e63 3e3e 5160 013d
000000a0: 6512 fe3b 9565 7a3b 0f93 5a3d d446 65bc
000000b0: 6bbe b03d b276 f1bd 71d6 71bd 8425 703c
000000c0: bb7e 2dbe 2837 ddba 28e0 c2bc 9f6e cd3d
000000d0: dc9d ffbd 3208 e8bc e4d4 cebc a486 47bd
000000e0: 4bed fa3c 9fa0 fe3d 3172 bb3d 878f 98bd
000000f0: 0717 c0bd 70d3 b63d 2b5f 33bd a243 a2bd
00000100: a152 c7bd 6e84 98bc 046b 2c3d 623a b5bd
00000110: 9b4d 023e b301 ff3d 2787 2fbe df21 f83d
00000120: 7878 05be 5238 163c e4e5 1f3e 2aa3 053e
00000130: 1441 a23d 7eff 28be c2c1 173e 3ac5 f33d
00000140: f687 423a bd63 cfbd 2b97 293e 2ffc 79bd
00000150: 62ce 87bd 9138 04be b536 923d af6a e5bc
00000160: d043 30be 5d31 4cbe d222 51bb 07d3 a03d
00000170: 0ccd 873d 1d7c 91bd 052a 233e 75e0 95bd
00000180: 2521 c0bd 4479 5f3e 6a14 943d 1295 fc3d
00000190: 9da8 373d 8594 e0bd 4152 bcbd f745 12be
000001a0: 26cd a9bc 79a4 a2bd a63c cb3c b610 b3bd
000001b0: 178a 4ebc b8dd 1f3e b8f2 6c3d a516 143c
000001c0: 0e0c a33d 2a9b c9bd 912c b1bd 0c18 b43d
000001d0: 0f4f 84bd ca68 fcbd ffd5 36be 8526 203e
000001e0: 9241 c9bd ef44 1a3e f835 083e a784 0a3d
000001f0: ea8a d4bd 62e3 e8bd cf23 03be 651e f73d
00000200: 75e3 29be 9edd 4abd 1013 1bbd 7e9e 853d
00000210: c745 1c3e de28 b1bd 7884 813e a71d ddbd
00000220: 682b 2abe 2bcc 16be 4d5e 9cbd e042 b3bd
00000230: 6f6e 6abb 73e1 213d 7a22 b13b 7787 1e3e
00000240: 19c1 b83c bdb0 0f3e eee3 82bd 4bc1 e1bd
00000250: 333b 6b3d 824d 4e3d c884 4a3e 6974 cbbd
00000260: 12ff 833d c7b2 ef3d a65e bfbd 3ca0 4c3d
00000270: e4a9 d83c 7c40 aebd 5a57 303d 7272 123e
00000280: 0944 86be 8a94 abbd fc33 1f3e 867c 64be
00000290: 874d 72bd ef9b 94bc d259 0b3e a4bf c1bc
000002a0: bae0 833d d709 d43d 40ce f6bc 389d 2c3c
000002b0: 1cac b1ba 8c82 27be 8422 f6bb cd66 ee3d
000002c0: c992 953d 968d df3d 177b 273e 14b3 27be
000002d0: e60d 24bd 5731 7fbd 332e aa3d d5c6 97bd
000002e0: 687a 483d aaf5 a9bb f0c0 08be 7992 4d3d
000002f0: ba39 3d3d a912 84bc 4cde 1a3e 5538 ebbd
00000300: 3418 e0bd 61a0 68be b7fa 03be 0c1a 553c
00000310: 3ec8 073d a0bd 383e d9c1 743d 0a8a 0f3e
00000320: 0e64 033e bc8e b2bd a557 acbd d7af 373e
00000330: 0b06 083e 64c6 3dbd 79ea d43c 070d 253d
00000340: c7bf 92bd 9443 373d bcf2 7d3d 35e3 48be
00000350: c1f8 313e c006 00be cf0d 09be 6392 3f3d
00000360: 2590 e4bd 6da9 9bbd c872 19be 81cf 01be
00000370: 0bbb 0cbd 27ab 0bbd 9ddb a63c f309 573a
00000380: d02d f3bd 96a7 fe3b dd96 d53d 4fd2 cabd
00000390: f717 a7bd caf4 073e e36f 22be ccb3 8dbd
000003a0: 5ae4 cfbd dadc 473e 0b1e 2a3c fe12 9ebc
000003b0: 547f b6bd 8b29 36be 480b 073d 1d6b dd3d
000003c0: 4c87 a93c abfd c5bd fc67 a1bd dd04 fa3d
000003d0: ef2c 203d 5050 993d bd93 12be 2dda eebc
000003e0: 5813 7d3e 3a98 1ebe 333a 15be 9ff9 98bd
000003f0: d5fc b1bd 8d98 f3bc 00a5 813d 965e f4bb
0.029540624 -0.09951555 0.108584665 -0.22261994 -0.15020016 -0.035939306 0.19940937 0.12747425
0.11849537 0.17451695 -0.04091943 0.02254085 0.05843614 -0.10239517 0.015790675 -0.077232085
0.1747422 -0.063231215 0.15174527 0.035693362 0.1053682 0.06823721 0.08332531 0.0286207
-0.044656277 -0.20508613 -0.1663097 0.10096066 -0.022834808 0.036092855 0.09153336 0.16476364
-0.11995888 0.026452258 0.0030261003 0.026683288 -0.15620346 0.045872826 0.18592593 0.031585995
0.0077536576 0.003820752 0.053362902 -0.0139939375 0.08630069 -0.117902175 -0.059042398 0.014657382
-0.16942875 -0.00168774 -0.023788527 0.10030865 -0.12481281 -0.02832422 -0.025247999 -0.048712388
0.030630728 0.1243298 0.0915264 -0.07449251 -0.09379392 0.08927047 -0.04379193 -0.07923056
-0.09732557 -0.018617835 0.042094246 -0.08849026 0.12724917 0.12451496 -0.171414 0.121158354
-0.13034236 0.009168701 0.1561504 0.13050523 0.07922569 -0.16503713 0.14820006 0.11902852
0.00074207725 -0.101264454 0.16561572 -0.061031517 -0.06631161 -0.12912203 0.07139341 -0.028004972
-0.17213368 -0.19940706 -0.0031911624 0.0785275 0.066309065 -0.07103751 0.15933998 -0.073182024
-0.09381322 0.21823603 0.07230456 0.123331204 0.044838537 -0.10965828 -0.09195376 -0.14284502
-0.020727705 -0.07941527 0.024809193 -0.08743422 -0.012606165 0.15611923 0.057848662 0.009038602
0.079612836 -0.09844048 -0.086510785 0.08793649 -0.06460392 -0.123246744 -0.1785507 0.15639694
-0.0982696 0.15065359 0.13301837 0.033817913 -0.10378058 -0.11371495 -0.12806629 0.12066344
-0.16590674 -0.049527757 -0.037859976 0.065243706 0.15260993 -0.08650373 0.25296378 -0.10796671
-0.1661812 -0.14726321 -0.07635174 -0.0875299 -0.003577139 0.039521646 0.0054057213 0.15481363
0.022553014 0.14032264 -0.063911304 -0.11023196 0.057429504 0.050366886 0.19777215 -0.09934313
0.06445135 0.11704021 -0.09344225 0.0499575 0.026448198 -0.08508393 0.043052055 0.1430147
-0.26223782 -0.08377941 0.15547174 -0.22313127 -0.059155967 -0.018140761 0.13608482 -0.023650952
0.064393476 0.10353439 -0.030127645 0.010535531 -0.0013555321 -0.16358393 -0.007511439 0.116407014
0.07303388 0.10915677 0.16355549 -0.16376907 -0.040052317 -0.062302914 0.08309593 -0.07410971
0.04894486 -0.005186756 -0.1335485 0.050188515 0.04619763 -0.01612218 0.15123862 -0.11485354
-0.109421164 -0.2271743 -0.12888609 0.013006698 0.03314995 0.18041086 0.05975518 0.14017501
0.12831137 -0.08718631 -0.08415154 0.17938171 0.13283555 -0.04633178 0.025990712 0.040295627
-0.07165485 0.044742182 0.061999068 -0.19617923 0.17380048 -0.12502575 -0.13384174 0.046770465
-0.11160306 -0.07600675 -0.14985192 -0.12676813 -0.034358066 -0.03409877 0.020368392 0.00082030817
-0.118739724 0.0077714426 0.104291655 -0.099033944 -0.08158868 0.13276973 -0.15862994 -0.06919059
-0.101509765 0.19517842 0.010383139 -0.019296166 -0.08911005 -0.17789285 0.032969743 0.10811446
0.020694397 -0.09667524 -0.078811616 0.12207959 0.039105352 0.074860215 -0.1431417 -0.029156769
0.2471441 -0.15487757 -0.14572982 -0.074694864 -0.08690802 -0.029735828 0.063302994 -0.0074575646

hidden_nets.1.bias f4 [64]
00000000: b5b8 853f 712b 823f 66c4 6b3f b844 83bd
00000010: d3ea e73c 3456 893f 9f3c 823f c9b2 7abd
00000020: 075a 7a3f b304 5e3c d98c 883f 8a92 823f
00000030: 26de 6cbd 26cb 6d3f a8ca 853f 7665 833f
00000040: 99b3 843f 4b22 0bbe 1846 7b3f 038a 2fbe
00000050: 0e7c 803f edf1 553f 724b 8cbd 415c 89bd
00000060: d673 7a3f 91ff 693d 9728 7a3f e514 7b3f
00000070: 8cd8 2d3d ed8b 843f 96c6 4abd 73d0 ed3c
00000080: d10c f2bc 4407 6f3f 384a 43bd fbaf 863f
00000090: 96d6 833f 3bb9 823f 8ac8 e1bd 345e 843f
000000a0: a9cd 7b3f f2f4 863f 4f67 7d3f 1734 a33e
000000b0: 7875 e0bd a4c3 803f 341b 8b3f b661 713f
000000c0: 92db de3e dab5 7e3f 8579 903e 2865 8d3f
000000d0: f413 b83e 67a4 763f e9ce 823f f009 953d
000000e0: e7dd 83bd c4cf 7a3f 5662 773e 3a05 8abd
000000f0: 7a2a 843f 2d17 9a3e 25e9 753f 20cc 803f
1.0446993 1.0169507 0.92096555 -0.064095914 0.028310215 1.0729432 1.017475 -0.06120566
0.9779362 0.013550925 1.0667983 1.020097 -0.057829045 0.92888105 1.0452471 1.0265338
1.0367309 -0.135873 0.9815383 -0.17142491 1.0037858 0.83572274 -0.068503276 -0.06707049
0.97833 0.057128493 0.97718185 0.9807876 0.042442843 1.0355202 -0.049505793 0.02903006
-0.029547127 0.9337046 -0.047678202 1.0522455 1.0299861 1.0212778 -0.11024578 1.0341249
0.9836069 1.0543501 0.9898576 0.3187568 -0.109599054 1.0059705 1.0867677 0.9428972
0.43526894 0.99496233 0.28217712 1.1046495 0.35952723 0.9634461 1.0219394 0.07277286
-0.06438809 0.97973275 0.24158606 -0.06739278 1.0325463 0.30095807 0.96058875 1.0062294

value_stream.weight f4 [1, 64]
00000000: c312 123f b018 323f 1fee 4f3f 723e 98be
00000010: f351 09bf 1695 203f 2b9e 173f 59c8 8fbd
00000020: 87dd 2c3f a7cf 87be 3f0d 173f ed4f 273f
00000030: 8342 bfbe 638e 123f 3cdc 173f 6490 1d3f
00000040: 4386 123f 78fe 3ebe 3e28 303f 62bf 2dbe
00000050: 361d 133f d474 1b3f 6151 2fbe 2764 8cbe
00000060: caa2 433f 8f37 d8be b737 363f c5d8 393f
00000070: a987 a3be af92 163f 47ae b7bd 18be 23bf
00000080: 2672 c1be 4dbe 103f f6f7 afbe 9393 013f
00000090: 3da7 183f 853f 133f 4136 79be b1c4 1d3f
000000a0: 5cac 133f 7282 183f 73cf 1a3f 881e 0a3f
000000b0: b779 dfbd 9b75 2f3f ad74 043f 256c 233f
000000c0: 7e5c 113f ecac 1f3f 6e02 e33e c73b ed3e
000000d0: e070 ff3e bc75 633f 7112 0b3f 946f 15be
000000e0: 63a0 79be 8c20 3c3f 01d5 da3e df0d 43be
000000f0: 39cd 213f b483 083f 78fc 2a3f 6f55 1c3f
0.5705988 0.6956892 0.8122272 -0.29735142 -0.5364067 0.6272749 0.5922572 -0.07020635
0.67525524 -0.26525614 0.59004587 0.6535633 -0.37355432 0.57248515 0.59320426 0.6154845
0.5723612 -0.1865176 0.68811405 -0.16967538 0.5746645 0.6072514 -0.17120887 -0.2742016
0.7642027 -0.42229888 0.71178764 0.7259639 -0.31939438 0.5881757 -0.08968788 -0.63961935
-0.377824 0.56540376 -0.34368867 0.50615805 0.59630185 0.575188 -0.24337102 0.6162825
0.57684875 0.59574044 0.6047279 0.53952837 -0.10911887 0.68538827 0.51740533 0.6383689
0.56781757 0.6237323 0.4433779 0.4633467 0.49890804 0.88851523 0.54325014 -0.14593345
-0.24377589 0.7348716 0.42740634 -0.1904826 0.6320377 0.53325963 0.66791487 0.6106786

advantage_stream.weight f4 [5, 64]
00000000: 63ba 0ebc 1c6e f7bc edd3 573c 175d a43e
00000010: 9069 9a3e e232 b8bd 7294 a33d e147 c33d
00000020: 553f 633c 3feb 583e 6f3b ad3d f7e4 4cbc
00000030: abc6 da3d 6166 7a3c 1d55 363e 10bd 9bbb
00000040: 3009 993c e019 03be 041b 2a3c c18d 4a3e
00000050: 059c 9a3d 5608 36bc 7e26 323d 3b8b ef3d
00000060: 2a7e bd3c e550 ae3e 1c87 a83d 407b f33d
00000070: fbbc 92bd ac62 a9bd b548 403e 24ee e93e
00000080: 9ced ee3d 95b3 f7bc 09a5 b5bd aa29 263e
00000090: 3312 d53d 4a8a 16be f3dc 7ebe 1144 8f3d
000000a0: 05ac ac3d 52de d9bc 63ad dcbd 5639 f3bd
000000b0: 5b3f 623e 3361 9f3c 7356 933d 06f9 78bb
000000c0: 4956 fbbd 3812 fc3d a0f6 5e3d 155e 24be
000000d0: b5a0 cebd e208 41bb c22b 8a3d 2e54 af3e
000000e0: bc58 32be 267c 423d 2941 e5bc 8cf4 b6bb
000000f0: 1b36 f53c 28ab 0abe e097 fc3c 74b7 dfbc
00000100: 4cae 1bbd e893 77bd c73a 32bc de59 20be
00000110: 65db 7bbd 792e 05be 2a6e 913d 9a20 fd3c
00000120: d392 61bd fdf0 d9bd bc94 2c3d ac19 59bd
00000130: 24c7 8dbe f8c4 a93c dabf 3e3e aa81 e7bc
00000140: 294d 34bd c46d b1be 8700 b9bc 74af 353e
00000150: f076 0a3c 8e52 13bc ea0d 6fbe ec7d f43c
00000160: d5e2 60bd 98cb eabd cf99 af3d eee2 8f3d
00000170: 7e8d 1a3c fef4 1cbe 154d 7dbe 57cd debd
00000180: 8ada 273e 5f57 2cbd 210e 613e 7d90 d33d
00000190: 0340 c63d 3701 30be 5458 4abd 2887 4e3d
000001a0: 5d90 2c3d b358 88bd 561e 16be d695 a43d
000001b0: 7e7f 86bb 170e 1abd d1ec 343d 6353 68bd
000001c0: 6050 55bd 26a5 ad3d a9f2 a43d f6cc f5bd
000001d0: e486 85bd 0520 b9bd 04fe 293d f2bc 73bd
000001e0: 831c 573e 4866 5bbc eefe 243b dd51 8c3d
000001f0: bdbf adbb 79cd 88bd 5fac b6bc 54d0 9fbd
00000200: adbe 4bbd 6482 853c 0813 a6bb 4dc8 553e
00000210: 3a2e a43e 1744 11be 872d 7f3d 20d7 96bd
00000220: 21a6 68bc dbcd 443e faf2 bb3d 5f65 0cbd
00000230: 3c80 043e 847d 0dbb fbf1 423e 16e1 81bd
00000240: 8379 0bbd aabc 713c 7d1e 8bbc 1519 d2bd
00000250: 4eb7 35bc 3122 9e3b bd08 043e cb5c 5bbe
00000260: 3ac9 7a3a 554c 143e a011 c33d 5609 d83d
00000270: 3d0c 663d ec3f 22be c547 75be 9aa4 6abd
00000280: 59c8 28bd 22d6 c9bd 334c c1be b5fa 093e
00000290: 76e7 e83d 8363 19be 882a 31be 6a1c 2d3d
000002a0: 0229 563d c24c 8dbd f519 f9bd 0cd0 013e
000002b0: 8625 f5bc c2a2 bb3c b6f0 8d3d 9676 9fbd
000002c0: 3bcd 18bd d171 b63d 7be0 0ebd dc3f 17be
000002d0: b9d9 02be 471d f6bc 2574 233d 2878 c63e
000002e0: 0b72 ba3d 5e7f 87bb 074a e63d ef5d 9ebc
000002f0: c078 87bc c975 99bc e05c ce3c c5c2 3fbd
00000300: 4a5c c7bc 5e93 73bd 350f 75bd 623f de3d
00000310: b563 e43d 774d e2bd 3bde 9e3d f528 c4bc
00000320: fd8c 87bd f7c0 b3be 1339 823c 2fda 92bd
00000330: 449a 8c3e 0d49 9dbb 6c4f 0f3e b754 49bd
00000340: 78ac 72bc ba5a 1b3d 10dd eebc 25a0 813e
00000350: 9392 0ebc f76e 96bd f9e0 2fbd 0fc2 18be
00000360: 902a 3bbd 6e00 303e efa0 9b3d d237 843d
00000370: 861a 15be d0e0 11be cff4 253e 1a3e 333d
00000380: eec8 53bd 2c3f 88bd 177f 453e 776b a83d
00000390: bee6 773d c950 35be ac6d 0ebe a899 033d
000003a0: a1cd 223d 6370 86bd b29b 31be 2c67 91bd
000003b0: 06d8 63be 5ec7 86bd 0cc9 7d3d a69e 7abd
000003c0: d668 9dbd dc29 8b3d ccb0 3e3e 4639 24be
000003d0: 83b8 523c c4d0 91bd c6e7 093c fb65 91be
000003e0: f872 23be 9a77 2fbc 135a ef3e 87ea e93c
000003f0: 1224 3fbc 7b39 01bc 8513 d63c 0882 b8bd
-0.00871143 -0.030203871 0.013173086 0.32102272 0.30158663 -0.0899408 0.07987298 0.09535194
0.01387008 0.2118349 0.08458602 -0.012505761 0.10682424 0.015283198 0.17805906 -0.0047527626
0.018681139 -0.1280284 0.010382418 0.19780637 0.075492896 -0.011110386 0.04349374 0.11696478
0.023131449 0.34046093 0.08228895 0.118887424 -0.071649514 -0.08270773 0.18777736 0.456895
0.11666414 -0.030236999 -0.088693686 0.16226831 0.10403862 -0.1470119 -0.24888973 0.069954045
0.084312476 -0.026595268 -0.107752584 -0.1187617 0.2209448 0.019455528 0.07194223 -0.0037990226
-0.12272317 0.123081625 0.05443442 -0.16051514 -0.10089246 -0.0029454757 0.067466274 0.34243912
-0.17416662 0.04748168 -0.027985172 -0.0055833515 0.029933026 -0.13541853 0.030834138 -0.027309157
-0.03800802 -0.06044379 -0.010878271 -0.15659282 -0.061488528 -0.13006009 0.0710109 0.030899335
-0.055071663 -0.10641668 0.04213403 -0.053003 -0.27690995 0.020723805 0.18627873 -0.02826007
-0.0440189 -0.34654057 -0.02258326 0.17742711 0.0084512085 -0.008991851 -0.23345152 0.0298452
-0.054903824 -0.11464614 0.085742585 0.07025705 0.009433148 -0.15327832 -0.24736436 -0.10879009
0.1639196 -0.04207551 0.21978046 0.10330293 0.09680178 -0.17187963 -0.049400643 0.050421864
0.042129863 -0.06657543 -0.1466001 0.080363914 -0.0041045537 -0.037611093 0.04417116 -0.05672015
-0.052078605 0.08478765 0.08054096 -0.12001984 -0.06519869 -0.0903931 0.041502014 -0.059506364
0.2100697 -0.013391085 0.0025176364 0.06851552 -0.005302398 -0.06679816 -0.02229899 -0.07803407
-0.04974239 0.016297527 -0.0050681867 0.2087719 0.32066518 -0.1418613 0.062299278 -0.073652506
-0.0141997645 0.19219153 0.091772035 -0.034276363 0.12939543 -0.0021589706 0.1903762 -0.0634176
-0.03405143 0.014754454 -0.016982311 -0.1025869 -0.0110910665 0.0048258533 0.12893958 -0.21422116
0.0009566728 0.14482243 0.09524846 0.10548656 0.056164015 -0.15844697 -0.23953159 -0.057285883
-0.04120669 -0.09855296 -0.37753448 0.13474543 0.11372273 -0.14979367 -0.1730138 0.042263426
0.0522852 -0.06899406 -0.12163154 0.1267702 -0.02992512 0.022904757 0.069306776 -0.0778629
-0.037305098 0.089084275 -0.03488205 -0.14770454 -0.12778367 -0.030043257 0.039905686 0.38763547
0.09103783 -0.0041350564 0.11244588 -0.0193319 -0.01653707 -0.018732922 0.02519077 -0.046816606
-0.024335999 -0.059466712 -0.059828956 0.10851933 0.1115183 -0.110499315 0.07757231 -0.023945311
-0.06618688 -0.35108158 0.015896356 -0.071705215 0.27461445 -0.004799968 0.13995141 -0.049153056
-0.014811628 0.03792832 -0.029158145 0.25317493 -0.008701938 -0.073453836 -0.04293916 -0.14917777
-0.045694888 0.17187664 0.07599055 0.064559594 -0.14560899 -0.14245915 0.16206668 0.043760397
-0.051705293 -0.06652674 0.19286762 0.08223622 0.060522787 -0.17706598 -0.13909024 0.03212896
0.039746884 -0.06564405 -0.1734455 -0.070997566 -0.22250375 -0.06580995 0.06195931 -0.061186455
-0.076860115 0.067950934 0.1862213 -0.16037473 0.012861374 -0.07119897 0.0084170755 -0.28398117
-0.15961826 -0.010709668 0.4674841 0.028554214 -0.011666315 -0.00788724 0.026132355 -0.090091765

advantage_stream.bias f4 [5]
00000000: 5455 27bf ca98 c73e 9043 53be 7532 e13e
00000010: 7def 12be
-0.65364575 0.38983756 -0.20631242 0.43983808 -0.1434917
