hyperopt_results/models/explore_conservative_20250906_230524/dqn_racing_episode_100.pth (torch, 453653 bytes, 36 tensors)

hidden_nets.0.weight f4 [128, 11]
0.093026474 -0.02122844 -0.12851678 -0.2289587 -0.02991108 0.04507913 0.0012084382 -0.074057125
0.113771275 -0.083110124 -0.07482806 0.22361904 0.11627243 -0.120785564 -0.12823687 0.04626807
0.0233605 -0.10969967 -0.23693992 -0.1758896 -0.07093932 -0.027344784 -0.030624686 -0.18578836
-0.18404198 0.032477967 0.15957133 -0.08877013 0.045022875 0.057871476 -0.1334906 -0.031324077
0.013549898 -0.006230761 -0.11136149 -0.06623507 -0.11340944 0.10623912 -0.14561963 0.096118584
-0.08681713 0.069605 0.20143618 0.010847406 0.2402969 0.08152305 -0.22507502 0.007954524
-0.21190298 -0.09677022 0.0020475325 -0.014184962 0.0071587595 -0.17456335 -0.07100635 0.11433381
-0.198683 -0.1779209 -0.2469839 0.10845696 -0.08419322 -0.11841418 -0.10653335 0.10748033
-0.053843983 0.14622413 -0.16496113 0.07662089 -0.34973878 0.028767703 -0.13530396 -0.05601598
-0.038916416 0.048675656 -0.13832478 0.05187906 -0.11649923 -0.094930954 -0.034407042 -0.07831928
-0.04559586 -0.08019879 -0.033785988 0.12293616 -0.03203854 0.13473244 -0.06882049 0.051125035
0.158091 -0.0488418 -0.18716031 0.084541045 0.056697898 -0.12130949 -0.11696794 -0.15521291
-0.1192122 -0.19933584 0.018374486 -0.067552485 -0.29559818 0.1466129 -0.011582785 0.21547943
0.03554571 -0.03313972 0.017594108 0.038777187 -0.059129708 -0.036350116 0.057995442 0.03594437
-0.16599505 -0.17103733 -0.2869014 0.08559087 -0.055381708 0.08645548 -0.14319733 0.11282974
0.121764675 -0.12661982 -0.15588129 0.17239083 -0.40362093 -0.055581216 -0.08988681 -0.14553887
-0.19689076 0.06302785 -0.0031557775 -0.16016205 -0.25506312 -0.061383214 0.048790105 -0.11681391
0.023651257 0.08543901 0.061511528 -0.0037068482 0.078979336 -0.00037215525 -0.058835752 -0.22524476
-0.20673993 0.16265775 0.16069674 0.110868916 -0.18101986 -0.12089154 -0.25657052 0.14780305
-0.057943124 0.028691519 0.23270185 -0.16276425 -0.14459601 -0.08479813 0.099073075 0.01821385
-0.0405178 -0.102149956 -0.12930626 0.036039636 -0.08245409 -0.038387377 0.04668664 -0.13340557
-0.050023764 -0.16118339 -0.0050409785 0.05406522 -0.09650045 0.12228032 -0.14444302 0.11390556
0.06793489 -0.13564815 0.02566725 0.1442915 -0.27277577 -0.015604783 0.04442631 0.13285902
0.006342207 0.116130896 0.040747188 0.21811973 -0.045705207 -0.25807366 0.124117315 -0.22216812
-0.12497957 -0.1994215 -0.13446324 -0.11999551 0.08717824 -0.011021228 -0.033627536 -0.17430957
-0.05916581 -0.01805956 0.12270103 0.04317629 0.0074005527 -0.019405585 0.13903357 0.058418617
-0.031253163 0.20516425 0.020822585 -0.14391269 -0.28007752 -0.1324981 0.07341767 0.090801924
-0.18136048 0.00019192164 0.1654125 -0.03289949 0.16870472 -0.033386234 0.042179372 0.02817862
0.12598197 -0.12472073 0.034599934 -0.25130233 0.094771996 0.026627824 -0.03611336 0.18735482
-0.028702212 -0.10675219 -0.040269006 0.15050252 0.0038197937 0.010865694 -0.098694876 -0.17497957
0.032577794 -0.039559957 -0.19599003 0.04773979 -0.08774442 0.046643987 0.027509691 -0.21875274
-0.011701533 0.05154285 -0.1498497 -0.043499358 0.018085074 -0.1246811 -0.0519374 0.14739767
00000000: aa84 be3d 44e7 adbc e799 03be 2674 6abe
00000010: 1508 f5bc e5a4 383d 7564 9e3a 43ab 97bd
00000020: ea00 e93d a435 aabd 743f 99bd 64fc 643e
00000030: 3d20 ee3d 6c5e f7bd 8750 03be 9683 3d3d
00000040: 855e bf3c 38aa e0bd 61a0 72be 671c 34be
00000050: a248 91bd 2b02 e0bc 9fe0 fabc 4e3f 3ebe
00000060: 8075 3cbe 9e07 053d ab66 233e 1dcd b5bd
00000070: e869 383d a40a 6d3d c3b1 08be ad4d 00bd
00000080: 6400 5e3c 692b ccbb 7e11 e4bd 41a6 87bd
00000090: 3543 e8bd e593 d93d 501d 15be d2d9 c43d
000000a0: 2ecd b1bd 118d 8e3d 4945 4e3e 52b9 313c
000000b0: 6410 763e 8ff5 a63d 117a 66be b153 023c
000000c0: 18fd 58be 772f c6bd e52f 063b 0b68 68bc
000000d0: 0794 ea3b bcc0 32be c76b 91bd d827 ea3d
000000e0: 8e73 4bbe e530 36be 59e9 7cbe af1e de3d
000000f0: 7f6d acbd 2283 f2bd 282e dabd a61e dc3d
00000100: 828b 5cbd c7bb 153e 92eb 28be 6aeb 9c3d
00000110: f610 b3be 3faa eb3c 1f8d 0abe 0371 65bd
00000120: d266 1fbd 2060 473d 03a5 0dbe 237f 543d
00000130: 2697 eebd 296b c2bd 66ee 0cbd dc65 a0bd
00000140: b9c2 3abd 433f a4bd 2d63 0abd f4c5 fb3d
00000150: d83a 03bd 4df7 093e c2f1 8cbd 7c68 513d
00000160: 9be2 213e 570e 48bd f4a6 3fbe db23 ad3d
00000170: 0e3c 683d 1c71 f8bd e38c efbd 22f0 1ebe
00000180: 8725 f4bd b21e 4cbe 1786 963c f558 8abd
00000190: a558 97be b121 163e b9c5 3dbc a4a6 5c3e
000001a0: 6198 113d 84bd 07bd 8521 903c d4d4 1e3d
000001b0: fe31 72bd dce3 14bd a18c 6d3d 673a 133d
000001c0: 9bfa 29be 6924 2fbe bee4 92be 444a af3d
000001d0: eed7 62bd 920f b13d 52a2 12be 4713 e73d
000001e0: c25f f93d a0a8 01be 589f 1fbe 3987 303e
000001f0: 67a7 cebe 21a9 63bd 9316 b8bd 2408 15be
00000200: bb9d 49be bf14 813d 29d1 4ebb 8501 24be
00000210: a297 82be f76c 7bbd 22d8 473d 223c efbd
00000220: 48c0 c13c a6fa ae3d 83f3 7b3d 98ee 72bb
00000230: ebbf a13d d51d c3b9 c2fd 70bd 90a6 66be
00000240: a2b3 53be c18f 263e b08d 243e 3e0f e33d
00000250: 455d 39be fc95 f7bd 365d 83be af59 173e
00000260: c555 6dbd 7a0a eb3c 6549 6e3e acab 26be
00000270: fa10 14be a4aa adbd d3e6 ca3d 3635 953c
00000280: fef5 25bd ff33 d1bd dc68 04be 4c9e 133d
00000290: b1dd a8bd 153c 1dbd 7d3a 3f3d 789b 08be
000002a0: b8e5 4cbd 420d 25be cb2e a5bb 7e73 5d3d
000002b0: 07a2 c5bd 1b6e fa3d dfe8 13be 5147 e93d
000002c0: 7321 8b3d 59e7 0abe 2044 d23c 27c1 133e
000002d0: 44a9 8bbe 34ab 7fbc 5df8 353d 320c 083e
000002e0: 4ad2 cf3b 09d6 ed3d 86e6 263d c75a 5f3e
000002f0: 6235 3bbd 3b22 84be 3831 fe3d 0a80 63be
00000300: 4af5 ffbd 2635 4cbe bbb0 09be 35c0 f5bd
00000310: 818a b23d 6192 34bc 07bd 09bd 357e 32be
00000320: d957 72bd a4f1 93bc ad4a fb3d 9fd9 303d
00000330: 5680 f23b 76f8 9ebc d15e 0e3e 5c48 6f3d
00000340: 5103 00bd 9416 523e 2094 aa3c d95d 13be
00000350: 5266 8fbe 95ad 07be 015c 963d 5cf6 b93d
00000360: 90b6 39be 933e 4939 e561 293e 9ec1 06bd
00000370: eec0 2c3e 01c0 08bd 47c4 2c3d d9d6 e63c
00000380: 6b01 013e 956d ffbd a9b8 0d3d b3aa 80be
00000390: d217 c23d 9822 da3c 9aeb 13bd f1d9 3f3e
000003a0: e720 ebbc e4a0 dabd 1df1 24bd 551d 1a3e
000003b0: 8155 7a3b 0606 323c 8a20 cabd d82d 33be
000003c0: 4b70 053d 9f09 22bd 9cb1 48be cc8a 433d
000003d0: 59b3 b3bd c40d 3f3d 015c e13c b800 60be
000003e0: c9b7 3fbc 981e 533d 3372 19be 622c 32bd
000003f0: 2627 943c ce58 ffbd 50bc 54bd 6aef 163e

hidden_nets.0.bias f4 [128]
-0.05234908 -0.07126271 -0.13141298 -0.116407275 0.06767387 -0.073293075 0.05504787 -0.0289251
-0.09037808 -0.16747965 0.011281032 -0.004921067 -0.1406156 -0.094739765 -0.091706365 -0.0048152977
-0.028357105 0.013318874 -0.13622288 -0.059955876 -0.059404634 -0.16276322 -0.1210793 -0.13924937
0.0064616133 -0.071173914 -0.08891395 -0.14056629 0.036733177 0.0548951 -0.11908902 -0.008931495
-0.034380477 0.08562069 -0.15590142 -0.04442837 -0.08175343 -0.087867014 0.04059392 -0.21707998
-0.07087438 -0.04714877 -0.0014151714 -0.11191557 0.006977892 0.005011451 -0.21251094 0.033347767
0.01157386 -0.1097124 0.04570766 -0.11797473 -0.05101371 -0.057932578 -0.0071868054 -0.07745656
-0.13608463 -0.13936295 -0.013451093 0.04683495 -0.06784083 -0.13128509 -0.078853734 -0.17430316
-0.015881 -0.050461665 0.023221036 -0.12227581 0.051885825 0.0014176823 -0.021606581 0.046076234
0.0075659207 0.022502873 -0.09563716 -0.02101991 -0.042305972 -0.041005395 0.0 -0.16575912
-0.07060439 -0.070709445 0.039101712 -0.095818065 -0.056006353 0.0 -0.0006458451 -0.16245005
-0.028777115 0.0007688266 0.109963015 0.04090304 -0.09339341 -0.059041902 -0.006023281 -0.11327841
0.0431777 -0.022807725 -0.12100747 -0.03676352 -0.045120183 -0.047591433 0.01348372 -0.014009738
0.009856074 0.019524464 -0.093530826 0.032318253 -0.1734349 -0.053771134 -0.03953953 -0.17413974
0.038478393 0.091670565 -0.053081222 -0.036518276 -0.13448004 -0.06559266 -0.021827271 -0.10296816
0.05221679 -0.14393236 -0.045076083 -0.020001633 -0.0190186 0.038317956 0.036155757 0.01955251
00000000: fd6b 56bd 2ff2 91bd 2091 06be f066 eebd
00000010: 9998 8a3d ae1a 96bd e079 613d 55f4 ecbc
00000020: 2518 b9bd c97f 2bbe 14d4 383c e740 a1bb
00000030: 89fd 0fbe ec06 c2bd 8cd0 bbbd a5c9 9dbb
00000040: 294d e8bc 6837 5a3c 037e 0bbe 4b94 75bd
00000050: 4652 73bd 67ab 26be 6df8 f7bd 6397 0ebe
00000060: f1bb d33b a1c3 91bd 8418 b6bd 9cf0 0fbe
00000070: 8775 163d afd9 603d f2e4 f3bd 6855 12bc
00000080: 8bd2 0cbd e659 af3d 9fa4 1fbe 86fa 35bd
00000090: 586e a7bd 9ff3 b3bd cf45 263d 374a 5ebe
000000a0: 9626 91bd 121f 41bd 467d b9ba fe33 e5bd
000000b0: cda6 e43b 1937 a43b 789c 59be ab97 083d
000000c0: 4aa0 3d3c e5b0 e0bd f537 3b3d bc9c f1bd
000000d0: c1f3 50bd b64a 6dbd 4b7f ebbb 8ca1 9ebd
000000e0: c559 0bbe 29b5 0ebe f961 5cbc 01d6 3f3d
000000f0: 22f0 8abd 996f 06be 117e a1bd 877c 32be
00000100: df18 82bc e4b0 4ebd 0b3a be3c bd6b fabd
00000110: 3b86 543d 86d1 b93a 4900 b1bc 6fba 3c3d
00000120: 8beb f73b f257 b83c 6add c3bd f231 acbc
00000130: 0749 2dbd 46f5 27bd 0000 0000 c2bc 29be
00000140: 0999 90bd 1dd0 90bd 1e29 203d 433c c4bd
00000150: eb66 65bd 0000 0000 ee4d 29ba 4e59 26be
00000160: fcbd ebbc 148b 493a 4a34 e13d f289 273d
00000170: 0b45 bfbd ecd5 71bd f15e c5bb 83fe e7bd
00000180: 1adb 303d 44d7 babc c4d2 f7bd 5895 16bd
00000190: f1cf 38bd 3cef 42bd d2ea 5c3c 1a89 65bc
000001a0: 5f7b 213c c5f1 9f3c 178d bfbd 2560 043d
000001b0: eb98 31be 1f3f 5cbd 34f4 21bd b051 32be
000001c0: 859b 1d3d c7bd bb3d b26b 59bd 3094 15bd
000001d0: 23b5 09be 7255 86bd 1bcf b2bc f8e0 d2bd
000001e0: 46e1 553d 0163 13be b3a1 38bd 77da a3bc
000001f0: e5cc 9bbc 4af3 1c3d 0f18 143d 962c a03c

hidden_nets.1.weight f4 [128, 128]
-0.036264822 -0.029740792 -0.119955994 -0.011855863 0.045534927 -0.12418948 -0.10514634 -0.09201527
0.102241 0.060470417 0.13372312 -0.13479769 -0.03396727 -0.1153742 0.09540147 0.016946461
-0.12875094 -0.07674712 -0.091503955 -0.028982338 -0.06636531 -0.09584781 0.023634728 -0.16419832
-0.07197521 0.07659105 -0.060910508 -0.01374017 -0.041902553 0.07518523 0.08254743 0.014608456
-0.14820592 -0.1283569 -0.05445109 0.017761894 0.13021281 -0.1328376 0.0511431 -0.06339138
-0.15910806 -0.058382906 0.100768164 -0.06749441 -0.057516687 -0.1342282 -0.06190582 -0.13110587
0.072159536 -0.04023579 0.07191399 0.11019686 0.12523559 -0.17020482 -0.03379156 -0.046783075
-0.17573805 -0.101793684 0.12790106 0.11218364 0.14074068 0.003627522 0.080168895 -0.084926434
0.14648156 0.08549045 0.05767595 -0.16962105 -0.028257377 -0.03444738 -0.0220725 -0.13281411
-0.125611 0.09917204 -0.1367199 0.03621753 -0.019253524 -0.02183096 0.119334675 -0.09724925
-0.12471237 -0.096482575 0.016670702 -0.16229431 -0.16789787 -0.04767503 0.09784129 0.06604919
-0.12002123 -0.04367632 -0.15132427 0.006965569 -0.043418583 -0.06003547 -0.0459833 -0.09668632
-0.1481874 0.08926435 -0.14347513 0.039789926 -0.11794568 0.043266866 -0.04739887 -0.16934815
0.038512144 -0.18898824 -0.028951563 -0.017687935 0.08015054 -0.14761125 -0.14018631 -0.15203014
0.07234454 -0.13908628 -0.14066511 0.02341705 -0.078133166 -0.021267988 -0.049497925 -0.06847146
-0.061595567 -0.1530749 0.10681028 -0.10932043 0.04193016 -0.10085192 -0.05520443 -0.07276624
0.0933764 0.1234428 0.109513916 -0.0646081 -0.22360511 -0.021863464 0.13417673 0.103465274
-0.060937632 -0.1382358 -0.31677267 -0.0283748 -0.13528615 0.16220748 -0.040191665 0.14211234
-0.31972876 -0.15941519 -0.050012596 0.087441355 0.05465635 0.16096239 0.10874044 0.0040023057
-0.04181039 0.10683481 -0.1178957 -0.019641083 0.12763588 -0.32849082 -0.027360193 -0.029970696
-0.055950638 -0.2896963 0.13696297 0.030942503 0.07725083 -0.04199024 -0.17251933 -0.102607265
-0.15746473 0.0078524975 0.07539138 0.09423903 -0.24170285 -0.24131806 0.07429279 0.01430954
-0.057265442 -0.13486567 0.104525805 -0.09041337 0.029914752 -0.055582214 -0.41012847 -0.05092528
-0.18819246 0.05264563 0.12219365 -0.10711405 0.08115542 -0.16474582 0.19496045 -0.06441136
0.14488764 -0.1128664 -0.3080347 -0.13697225 -0.10804299 -0.04535813 -0.04113989 0.036604077
0.016790263 -0.10380767 0.010599376 0.053459458 -0.055001304 -0.16931847 0.0582486 0.15551138
-0.10182146 -0.13521636 -0.25847223 -0.098354205 -0.23096775 0.13945723 -0.08456998 -0.016980248
0.13662921 -0.16400366 -0.08584483 -0.31631365 0.08860867 -0.12845328 0.10956089 0.105055384
0.062492043 -0.14564253 -0.11940436 -0.33997598 -0.16467248 0.12644625 0.056350455 -0.1324703
-0.04579821 -0.20322783 0.0028919464 -0.17098397 -0.1470106 0.066211835 -0.018671487 0.048526756
-0.12794423 -0.26532167 -0.12961404 -0.08979216 0.13295934 -0.2965341 0.0491634 -0.05247303
-0.06541996 -0.13561802 0.08138119 -0.092558414 -0.26130337 -0.14678364 0.0931373 -0.15611519
00000000: 6c8a 14bd f6a2 f3bc 7dab f5bd 183f 42bc
00000010: d582 3a3d 0e57 febd f756 d7bd 8072 bcbd
00000020: bb63 d13d d4af 773d b7ee 083e 6808 0abe
00000030: 4421 0bbd 4f49 ecbd d961 c33d 4ed3 8a3c
00000040: 49d7 03be 982d 9dbd 6d66 bbbd 5e6c edbc
00000050: 89ea 87bd db4b c4bd 9e9d c13c 9b23 28be
00000060: bd67 93bd c5db 9c3d 4c7d 79bd 731e 61bc
00000070: 03a2 2bbd b7fa 993d a10e a93d 4e58 6f3c
00000080: 4bc3 17be fe6f 03be 1b08 5fbd 6481 913c
00000090: 8256 053e 9406 08be 6d7b 513d 57d3 81bd
000000a0: 39ed 22be ea22 6fbd 8a5f ce3d 823a 8abd
000000b0: 9e96 6bbd 1e73 09be f590 7dbd 9e40 06be
000000c0: 61c8 933d 49ce 24bd a447 933d e4ae e13d
000000d0: c23d 003e 2c4a 2ebe 0569 0abd 9c9f 3fbd
000000e0: adf4 33be 3579 d0bd 7ff8 023e 89c0 e53d
000000f0: 531e 103e b8bb 6d3b 972f a43d e9ed adbd
00000100: 43ff 153e 9e15 af3d 9e3d 6c3d 24b1 2dbe
00000110: 047c e7bc b218 0dbd 63d1 b4bc 6c00 08be
00000120: 2ca0 00be b61a cb3d 4d00 0cbe d558 143d
00000130: 91b9 9dbc d7d6 b2bc bd65 f43d 9d2a c7bd
00000140: 3369 ffbd a898 c5bd ff90 883c 7b30 26be
00000150: 6bed 2bbe e446 43bd 0461 c83d cc44 873d
00000160: b1cd f5bd f1e5 32bd c0f4 1abe 6e3f e43b
00000170: afd7 31bd c1e7 75bd fc58 3cbd 7a03 c6bd
00000180: 70be 17be 3ad0 b63d 25eb 12be c3fa 223d
00000190: 818d f1bd 9938 313d 5125 42bd 9a69 2dbe
000001a0: e9be 1d3d 2286 41be d42b edbc 4ae6 90bc
000001b0: f725 a43d 6727 17be 008d 0fbe caad 1bbe
000001c0: 6029 943d a26c 0ebe 840a 10be 1dd5 bf3c
000001d0: 4804 a0bd 343a aebc 56be 4abd c43a 8cbd
000001e0: a24b 7cbd abbf 1cbe 59bf da3d 64e3 dfbd
000001f0: f6be 2b3d 748b cebd 0a1e 62bd 7706 95bd
00000200: 203c bf3d 94cf fc3d d548 e03d 4051 84bd
00000210: bdf8 64be 021b b3bc a065 093e 9ae5 d33d
00000220: bd99 79bd b08d 0dbe 0730 a2be 4572 e8bc
00000230: 7488 0abe b819 263e 04a0 24bd e685 113e
00000240: 7db3 a3be bc3d 23be 02da 4cbd 7414 b33d
00000250: 56df 5f3d 53d3 243e 4fb3 de3d c625 833b
00000260: 5f41 2bbd 35cc da3d 4d73 f1bd 56e6 a0bc
00000270: fbb2 023e f32f a8be 7c22 e0bc 1b85 f5bc
00000280: 7f2c 65bd 1353 94be 0540 0c3e 227b fd3c
00000290: af35 9e3d f5fd 2bbd e8a8 30be c223 d2bd
000002a0: 6f3e 21be c3a7 003c cc66 9a3d 6400 c13d
000002b0: f480 77be 151c 77be d126 983d 9072 6a3c
000002c0: 2b8f 6abd 3a1a 0abe a011 d63d a52a b9bd
000002d0: c80f f53c 2daa 63bd 5cfc d1be 0797 50bd
000002e0: 86b5 40be f2a2 573d aa40 fa3d 9c5e dbbd
000002f0: d034 a63d 21b3 28be b6a3 473e 1aea 83bd
00000300: 6d5d 143e 8026 e7bd b9b6 9dbe 7442 0cbe
00000310: a545 ddbd 72c9 39bd 4d82 28bd 28ee 153d
00000320: bc8b 893c 1e99 d4bd 01a9 2d3c 4ef8 5a3d
00000330: 0c49 61bd d261 2dbe 1696 6e3d 603e 1f3e
00000340: c587 d0bd 2876 0abe 7956 84be ee6d c9bd
00000350: cf82 6cbe e0cd 0e3e 0733 adbd 291a 8bbc
00000360: 87e8 0b3e 93f0 27be 6acf afbd ddf3 a1be
00000370: 7678 b53d 4289 03be 7661 e03d 4727 d73d
00000380: a8f7 7f3d 5123 15be 468a f4bd 5511 aebe
00000390: e79f 28be 207b 013e bccf 663d 4ba6 07be
000003a0: e796 3bbd f51a 50be cf86 3d3b 6c16 2fbe
000003b0: f289 16be 129a 873d f2f4 98bc fec3 463d
000003c0: d003 03be 3ed8 87be 8bb9 04be f4e4 b7bd
000003d0: 7e26 083e 51d3 97be 905f 493d f6ed 56bd
000003e0: e6fa 85bd 73df 0abe 2eab a63d 448f bdbd
000003f0: 8ec9 85be 734e 16be c5be be3d a9dc 1fbe

hidden_nets.1.bias f4 [128]
-0.068198405 0.13789985 0.0032895638 0.15339531 0.09572127 0.122120425 0.011044388 0.05686288
0.11655726 0.12877524 0.121881425 0.030637687 0.13459864 -0.043456096 0.15607719 0.14255145
-0.012674353 0.08812999 -0.026130991 0.14396472 0.14184654 0.04959723 0.13313162 0.15471144
0.1146077 -0.06457038 0.08087137 -0.015753064 0.09168562 0.056132447 0.10176316 0.017584492
0.118479975 0.10294502 0.15051991 0.13958855 0.07143771 0.13878283 0.12801601 0.078612566
0.11818329 0.06849287 0.124400966 0.11656746 0.16621971 -0.030499812 0.14837426 0.13300978
0.12804963 -0.013881353 -0.026198346 0.1504359 0.13303316 0.13140972 0.013824809 0.09044622
0.13286135 0.10925811 0.12803476 0.099460475 0.011352152 0.098554306 0.11893234 0.11727488
0.05490385 0.15400389 0.009586007 0.055915475 -0.014579273 0.14073299 0.13938774 -0.021802766
0.08411097 0.1053968 0.14026566 -0.03066703 0.1310523 0.118988656 0.047593936 -0.030783795
0.12437309 0.11661549 0.14530881 -0.03311401 0.11700339 0.13101405 0.14248203 0.0319477
0.027969267 0.09399346 0.13443282 0.1295517 0.14159617 0.13704345 0.14871186 0.076986335
-0.05790413 0.09380529 0.007179075 0.110885456 0.14075601 0.1324956 0.13465247 0.112081006
0.114074215 0.08725828 0.14124104 0.12444898 -0.06672951 0.078962766 0.029099489 0.029384946
-0.052334566 -0.039767753 0.1453994 -0.11666296 0.107396595 0.11533048 0.08921059 0.12989475
0.12022832 0.16101469 -0.039049935 0.10001463 0.15158223 0.10418104 0.11328265 0.11229333
00000000: 9bab 8bbd 9e35 0d3e b995 573b a913 1d3e
00000010: 8309 c43d 461a fa3d 85f3 343c 0de9 683d
00000020: 93b5 ee3d a8dd 033e f89c f93d e3fb fa3c
00000030: 3ad4 093e 05ff 31bd b3d2 1f3e 02f9 113e
00000040: 17a8 4fbc 7f7d b43d a910 d6bc 7d6b 133e
00000050: 3840 113e 7726 4b3d a853 083e ad6c 1e3e
00000060: 71b7 ea3d 7a3d 84bd e49f a53d 920c 81bc
00000070: acc5 bb3d 23eb 653d 3469 d03d 5a0d 903c
00000080: a1a5 f23d d7d4 d23d e421 1a3e 4df0 0e3e
00000090: ef4d 923d 161d 0e3e a116 033e a0ff a03d
000000a0: 150a f23d fd45 8c3d efc5 fe3d ecba ee3d
000000b0: 8035 2a3e beda f9bc 6cef 173e b733 083e
000000c0: 711f 033e 9d6e 63bc ea9d d6bc de0b 1a3e
000000d0: d839 083e 4590 063e 7481 623c de3b b93d
000000e0: ce0c 083e b7c2 df3d 8b1b 033e efb1 cb3d
000000f0: 60fe 393c d7d6 c93d cc92 f33d d02d f03d
00000100: dce2 603d 32b3 1d3e a10e 1d3c a007 653d
00000110: e7dd 6ebc 4f1c 103e a9bb 0e3e b79b b2bc
00000120: 5f42 ac3d 47da d73d cda1 0f3e 6c39 fbbc
00000130: 9332 063e 53b0 f33d dcf1 423d 4c2e fcbc
00000140: 52b7 fe3d 1ad4 ee3d d5cb 143e 8ea2 07bd
00000150: 799f ef3d 8c28 063e cfe6 113e 97db 023d
00000160: ce1f e53c a57f c03d c2a8 093e 33a9 043e
00000170: 96fe 103e 1e55 0c3e ec47 183e 03ab 9d3d
00000180: e22c 6dbd fd1c c03d 723e eb3b ea17 e33d
00000190: 5822 103e edac 073e 56e2 093e ba8a e53d
000001a0: be9f e93d 78b4 b23d 7ea1 103e 1bdf fe3d
000001b0: 7ba9 88bd 3bb7 a13d 0d62 ee3c b3b8 f03c
000001c0: c55c 56bd 83e3 22bd 95e3 143e fdec eebd
000001d0: bff2 db3d 6332 ec3d 0bb4 b63d 2103 053e
000001e0: 443a f63d 09e1 243e d3f2 1fbd 78d4 cc3d
000001f0: 5f38 1b3e de5c d53d bc00 e83d 0cfa e53d

hidden_nets.2.weight f4 [64, 128]
0.009260105 0.13457318 -0.16670232 -0.12074471 0.009088621 -0.17339966 -0.1896762 0.110347725
-0.20203376 -0.07484299 0.08770844 -0.019309444 0.016233275 -0.036609087 0.0067609614 -0.034069266
-0.097933225 -0.012717324 -0.09583409 0.0899312 0.05916 -0.044530965 0.09320851 -0.008741031
-0.0702657 0.17694594 0.020590805 0.11265891 -0.15746273 0.029267179 0.0056808516 -0.1836739
-0.00081650453 -0.0026377134 -0.048793823 0.025579762 -0.08078074 -0.06343033 -0.13026845 -0.14603604
0.10998879 0.15403484 0.060321733 -0.19501427 0.16927555 0.012308499 -0.060412254 -0.27519333
-0.13792957 0.09229738 -0.11587761 0.059745718 0.18228734 0.13813627 0.08276624 -0.15030837
-0.05000668 -0.11130606 -0.113736235 -0.14121014 0.12145974 -0.089890115 -0.042673126 0.08238205
0.010730761 0.096751824 -0.11917771 0.13149466 -0.11664527 0.013647168 -0.14142315 -0.16421787
-0.11337669 0.1668497 0.038569465 0.070640415 -0.0026365719 0.13345273 0.13685301 0.12402427
-0.097390585 -0.2139045 -0.06749504 -0.115957156 -0.18372504 0.012996352 -0.24109785 0.12084014
0.13441163 -0.22519416 0.019434083 -0.1312304 -0.27338758 -0.06672768 -0.114594676 -0.107315086
-0.014346037 -0.13038696 -0.06731907 -0.2151994 0.0050598546 -0.24244155 -0.049725346 0.08606325
0.2056668 -0.08435422 0.0038232454 0.0045224824 0.16946113 -0.13013932 -0.26216212 0.07415321
0.10620597 0.15122631 -0.25545606 -0.0670969 -0.2483326 -0.13643253 -0.22474717 -0.074218765
-0.18455604 0.043844707 -0.0014723433 0.06401651 0.25777838 -0.1629577 -0.012754093 -0.05638293
-0.15135701 0.072315045 0.019856745 -0.008756733 -0.007860668 0.029388703 0.03935936 -0.13139199
0.03176653 -0.15926024 0.030010235 -0.09296576 -0.034934957 -0.05881012 -0.029068723 0.043991286
-0.10152067 -0.06696953 0.134289 0.09748147 -0.059740297 -0.12633464 -0.12073543 -0.19253433
0.15132838 0.1037681 -0.15817039 -0.13127165 0.11410647 -0.012437791 0.14748605 -0.002824204
0.13119772 -0.01949412 0.011970873 0.071430884 0.10945214 -0.1831038 -0.0083434135 -0.019825064
0.039667338 -0.033138003 -0.054424096 -0.17513798 -0.17487024 0.09260951 0.080514304 -0.19078904
-0.009358162 -0.011685354 0.100451626 0.017722448 -0.1608098 -0.048291344 0.16430523 -0.20900634
-0.06668388 0.12113898 -0.15302129 0.028308805 -0.0007505669 0.09828022 -0.14390601 -0.04649282
0.08128962 0.0098531535 -0.008374015 -0.050003525 0.19835266 -0.11215896 0.018915704 -0.05078724
-0.12913485 -0.013393608 -0.02783493 -0.106400535 0.19215514 0.0741921 -0.16563225 0.026403025
-0.027949896 0.004736738 -0.12369007 -0.01936809 -0.074552864 -0.0781694 -0.018353261 -0.10183608
0.14607716 0.07498957 -0.028648794 -0.051125832 0.019853521 0.1757183 -0.13182382 -0.09516827
-0.0056756474 -0.01994178 -0.13431232 -0.031537857 -0.030094335 -0.16189764 0.09690871 0.012391952
-0.14129631 0.10266019 0.20595935 -0.18373767 -0.0052015292 0.06753433 0.06616638 -0.06893091
-0.0073046484 -0.08835362 0.04129096 0.0028636944 -0.08830557 -0.1897249 0.025586186 0.021229066
-0.21546465 0.16576764 -0.12391998 -0.122624055 -0.1707397 -0.09146086 -0.108042434 -0.13971321
00000000: b2b7 173c 8dcd 093e 03b4 2abe 0149 f7bd
00000010: 70e8 143c ae8f 31be 7a3a 42be fdfd e13d
00000020: f0e1 4ebe 4847 99bd 7ca0 b33d d72e 9ebc
00000030: a5fb 843c 69f3 15bd 0e8b dd3b 378c 0bbd
00000040: 3791 c8bd 535c 50bc aa44 c4bd d92d b83d
00000050: c251 723d 1a66 36bd 1ae4 be3d 8b36 0fbc
00000060: 77e7 8fbd 5131 353e 0cae a83c b7b9 e63d
00000070: e93d 21be b9c1 ef3c 7026 ba3b 0315 3cbe
00000080: b10a 56ba 7ddd 2cbb 08dc 47bd a68c d13c
00000090: 5f70 a5bd c3e7 81bd 1865 05be 798a 15be
000000a0: cd41 e13d 4fbb 1d3e ec13 773d d2b1 47be
000000b0: 9256 2d3e 96a9 493c d772 77bd 24e6 8cbe
000000c0: 693d 0dbe 6906 bd3d 3e51 edbd edb7 743d
000000d0: 88a9 3a3e 9873 0d3e 5981 a93d 70ea 19be
000000e0: ced3 4cbd 6ef4 e3bd 8bee e8bd 6499 10be
000000f0: e2bf f83d 4f18 b8bd 04ca 2ebd ecb7 a83d
00000100: 13d0 2f3c d225 c63d 7113 f4bd 89a6 063e
00000110: b7e3 eebd 5f98 5f3c 3bd1 10be bb28 28be
00000120: 0a32 e8bd a6da 2a3e 04fb 1d3d ecab 903d
00000130: 56ca 2cbb d5a7 083e 3223 0c3e 7000 fe3d
00000140: b774 c7bd c809 5bbe d73a 8abd f27a edbd
00000150: 6b22 3cbe a7ee 543c 5be2 76be 097b f73d
00000160: 34a3 093e 4c99 66be 3a34 9f3c 4361 06be
00000170: 75f9 8bbe 86a8 88bd 9db0 eabd 03c8 dbbd
00000180: a40b 6bbc 2984 05be 95de 89bd 3b5d 5cbe
00000190: 23cd a53b 9942 78be ceac 4bbd ee41 b03d
000001a0: 519a 523e e8c1 acbd 6a8f 7a3b 5531 943b
000001b0: 3887 2d3e 3e43 05be 1d3a 86be a3dd 973d
000001c0: 8482 d93d 12db 1a3e 23cb 82be 196a 89bd
000001d0: e74a 7ebe f8b4 0bbe 1f24 66be 0200 98bd
000001e0: 42fc 3cbe 8296 333d a5fb c0ba 171b 833d
000001f0: 87fb 833e 62de 26be 8bf6 50bc caf1 66bd
00000200: 55fd 1abe e919 943d 9daa a23c 6678 0fbc
00000210: 08ca 00bc 94c0 f03c 4837 213d 9f8b 06be
00000220: 9f1d 023d 1e15 23be 06d8 f53c d564 bebd
00000230: f517 0fbd e1e2 70bd 8821 eebc 3530 343d
00000240: 12ea cfbd 5227 89bd 0e83 093e 5da4 c73d
00000250: 3eb2 74bd de5d 01be 2344 f7bd b827 45be
00000260: d4f5 1a3e 5f84 d43d 6bf7 21be 136c 06be
00000270: a7b0 e93d e0c7 4bbc 9506 173e 4816 39bb
00000280: b258 063e 22b2 9fbc 7b21 443c 5b4a 923d
00000290: 7228 e03d 907f 3bbe d0b2 08bc 2c68 a2bc
000002a0: 387a 223d b7bb 07bd cdeb 5ebd 5f57 33be
000002b0: 2f11 33be 0eaa bd3d afe4 a43d 345e 43be
000002c0: fa52 19bc ed73 3fbc 95b9 cd3d ab2e 913c
000002d0: 53ab 24be 25cd 45bd a13f 283e c205 56be
000002e0: 8f91 88bd b717 f83d 9db1 1cbe dee7 e73c
000002f0: b1c1 44ba 2447 c93d 195c 13be 416f 3ebd
00000300: 2c7b a63d 1f6f 213c 2a33 09bc 7fd0 4cbd
00000310: f61c 4b3e 99b3 e5bd 1bf5 9a3c 4806 50bd
00000320: ed3b 04be dd70 5bbc 1406 e4bc 86e8 d9bd
00000330: 51c4 443e 07f2 973d 809b 29be 284b d83c
00000340: 2ef7 e4bc a336 9b3b 3851 fdbd d4a9 9ebc
00000350: 2caf 98bd 4717 a0bd 9459 96bc 6f8f d0bd
00000360: 4095 153e 2294 993d e0b0 eabc 5269 51bd
00000370: daa3 a23c 7fef 333e d3fc 06be 95e7 c2bd
00000380: c8fa b9bb f25c a3bc 2b89 09be d72d 01bd
00000390: 6588 f6bc 7fc8 25be 1378 c63d 9d07 4b3c
000003a0: fbaf 10be 813f d23d 02e7 523e ba25 3cbe
000003b0: 9771 aabb 704f 8a3d 3d82 873d a62b 8dbd
000003c0: d55b efbb bef2 b4bd b620 293d d2ac 3b3b
000003d0: 8dd9 b4bd 3f47 42be 1f9a d13c 94e8 ad3c
000003e0: c4a2 5cbe febe 293e c2c9 fdbd 5222 fbbd
000003f0: 63d6 2ebe d54f bbbd 5a45 ddbd fb10 0fbe

hidden_nets.2.bias f4 [64]
-0.0318343 -0.043328702 0.7519826 0.6715154 0.70502007 0.6291152 -0.03722613 0.6873117
-0.050207246 0.6784284 0.41901258 0.67839026 0.24654903 -0.021977331 0.06461271 0.6588514
0.4494867 0.70061624 0.52378863 0.51852506 -0.031512935 0.0073416927 0.6587756 -0.041266136
0.5029205 0.6708323 0.67089546 0.7316423 0.70078313 -0.05089927 0.69923997 0.646643
0.70731586 -0.037705254 0.6744796 0.67832613 0.734984 0.68357 -0.05831422 0.6543344
0.5426507 0.6657128 -0.029548194 0.6822385 0.68565005 -0.062467426 -0.04640798 0.6761065
0.6058483 0.6720408 0.6793977 0.6777298 0.7342093 -0.045818735 0.6718888 0.67403704
0.689219 -0.07456561 0.63457215 -0.037924837 0.39410275 0.7124127 0.57314265 0.38796198
00000000: af64 02bd 7079 31bd ef81 403f 6fe8 2b3f
00000010: 327c 343f b20d 213f 6d7a 18bd a9f3 2f3f
00000020: 1da6 4dbd 7cad 2d3f d188 d63e fcaa 2d3f
00000030: 5977 7c3e ce09 b4bc ab53 843d 7caa 283f
00000040: 1f23 e63e 965b 333f 0317 063f 0fbe 043f
00000050: b513 01bd 9592 f03b 85a5 283f ae06 29bd
00000060: 66bf 003f aabb 2b3f cebf 2b3f e94c 3b3f
00000070: 8666 333f c17b 50bd 6401 333f 658a 253f
00000080: a712 353f d370 1abd b2aa 2c3f c8a6 2d3f
00000090: e927 3c3f 72fe 2e3f e4da 6ebd 7682 273f
000000a0: 28eb 0a3f 276c 2a3f 0e0f f2bc 2fa7 2e3f
000000b0: c386 2f3f d8dd 7fbd 4b16 3ebd 5115 2d3f
000000c0: e018 1b3f de0a 2c3f 02ed 2d3f b37f 2d3f
000000d0: 24f5 3b3f 6dac 3bbd e800 2c3f b18d 2c3f
000000e0: a870 303f dbb5 98bd 5273 223f 1357 1bbd
000000f0: d6c7 c93e ae60 363f 7ab9 123f f4a2 c63e

value_stream.weight f4 [1, 64]
-0.39083335 -0.20418064 0.38792482 0.48416722 0.41147232 0.566246 -0.12569493 0.6288088
-0.100588545 0.55266786 0.47164953 0.62127537 0.3813565 -0.25667244 0.17759459 0.5570143
0.42187122 0.4633899 0.40274465 0.47257212 -0.09531944 -0.25670052 0.5905144 -0.19531105
0.500635 0.5777581 0.5307809 0.5797229 0.47922522 -0.31965822 0.46403605 0.50171965
0.44841662 -0.22907853 0.61039364 0.50662625 0.37884212 0.514753 -0.27990168 0.61726934
0.37949213 0.5855139 -0.12971704 0.5809772 0.5164794 -0.20485525 -0.35005984 0.5429013
0.47320923 0.49265411 0.45834136 0.46239954 0.4856171 -0.1559483 0.39666912 0.43244338
0.5014268 -0.31390336 0.4334193 -0.20993721 0.37155235 0.61054033 0.53270507 0.4087202
00000000: 4f1b c8be bb14 51be 159e c63e c4e4 f73e
00000010: 80ac d23e 7ff5 103f 2cb6 00be 9df9 203f
00000020: 5e01 cebd a47b 0d3f 0c7c f13e e70b 1f3f
00000030: 2941 c33e 926a 83be 5bdb 353e 7d98 0e3f
00000040: 81ff d73e 7141 ed3e 8c34 ce3e f9f4 f13e
00000050: d736 c3bd 406e 83be f42b 173f 9fff 47be
00000060: 9e29 003f f4e7 133f 42e1 073f b868 143f
00000070: 025d f53e 3eaa a3be 2296 ed3e b370 003f
00000080: dd96 e53e 9093 6abe c242 1c3f 42b2 013f
00000090: 98f7 c13e dac6 033f 464f 8fbe 5d05 1e3f
000000a0: cb4c c23e 3de4 153f 8bd4 04be ecba 143f
000000b0: fe37 043f 93c5 51be 0b3b b3be 94fb 0a3f
000000c0: 7b48 f23e 293d fc3e b8ab ea3e a2bf ec3e
000000d0: cea2 f83e e9b0 1fbe 3718 cb3e 3869 dd3e
000000e0: 825d 003f f1b7 a0be 22e9 dd3e c8f9 56be
000000f0: 1c3c be3e 5f4c 1c3f 5c5f 083f c643 d13e

advantage_stream.weight f4 [5, 64]
0.0902861 -0.07625551 0.057595685 -0.073371105 0.09130936 -0.0565269 -0.38425937 -0.06068309
0.11775967 0.15256032 -0.25983337 0.09580096 -0.15848736 -0.0035303582 0.19983822 -0.038731623
0.1494103 -0.07773986 0.113674216 -0.06284859 0.092202626 0.24954002 -0.05512649 -0.16760568
0.1708885 0.033171993 0.08431194 -0.018908944 0.009296112 0.13257684 -0.08953703 0.055139247
-0.036330637 0.13064195 0.026948698 0.08125741 0.0948208 0.11625262 -0.10746541 0.069659024
0.021300735 0.13256878 -0.14958659 0.16976014 0.0809309 0.28148323 0.2659291 0.07979571
-0.007682244 -0.045002967 0.055097785 -0.04724245 -0.007194972 0.11565684 -0.025667718 0.033220954
-0.009588989 0.14308843 -0.021425571 0.014449523 -0.020733552 -0.09362547 -0.0057615847 0.1260752
-0.1700153 0.033532992 0.05343703 -0.12867363 0.034880906 0.003473443 -0.34560132 -0.040488746
0.27583513 0.12310037 0.13740836 0.03458395 0.03665801 0.09474123 -0.20910005 -0.017306466
0.15335351 -0.0795696 0.15807028 -0.036727365 0.05948982 -0.004233975 -0.08214197 -0.07352314
0.07322281 0.04441902 0.070140846 -0.019588219 -0.050411597 -0.07949699 -0.15028012 0.063138805
-0.038468257 0.04255124 0.031242361 0.09855767 0.058251888 0.0916619 -0.103787325 0.10391485
0.03346637 0.17810325 0.05902456 0.084356554 0.10272251 -0.17720334 -0.2582816 0.06329629
-0.036035996 -0.011042819 0.0572995 -0.018307216 -0.0045246473 -0.08239556 -0.046556212 -0.0011471456
-0.050682668 0.105059944 -0.023018759 0.015099525 -0.016349541 -0.10069069 0.0006825743 -0.004250288
-0.19781418 -0.19019175 0.064314455 -0.029613506 0.06955543 -0.054939747 -0.03677787 0.04119533
-0.03394618 0.10573779 0.10246542 0.10470312 -0.083423845 -0.0542065 -0.058958232 -0.019202242
0.07209377 -0.08638575 0.052309047 -0.035118528 -0.29012653 -0.14727479 -0.057637326 0.0026371845
0.10392509 -0.03444698 0.08808911 -0.038895402 -0.049488544 -0.18840916 -0.12859558 0.027966421
-0.010362797 0.09787515 -0.03806851 0.111508764 0.076315306 0.030633885 0.07703992 0.09792792
-0.032689564 0.10629674 -0.18257801 0.14002651 0.11285735 0.035256546 -0.14721313 0.12567298
0.006903561 -0.022038737 0.02618266 -0.06872476 -0.044515222 0.18182628 -0.030928072 -0.016789645
-0.030240728 0.08508999 -0.034879114 -0.08530561 0.1013855 -0.03134015 0.11672008 -0.12165346
0.30879542 0.097970486 0.03941909 -0.11229623 0.07193549 -0.071804814 -0.17593698 -0.019286662
-0.09514506 0.09701377 -0.047280572 0.039264407 0.39683354 0.36211133 0.52761525 -0.07959239
0.058707226 -0.11061085 0.13646607 0.09391459 -0.12829451 -0.046978112 -0.1074677 0.21806182
0.04704428 0.0067319153 0.047352657 -0.047356986 -0.050336216 0.3133657 -0.1250417 -0.020993661
-0.023584614 0.04377171 -0.03576505 0.09845888 0.052796267 0.13462314 -0.13184305 0.069045655
0.022955706 0.14400496 -0.14646928 0.13313963 0.038378555 -0.2059623 -0.011309261 0.06140631
-0.004251942 -0.006984756 0.011350988 -0.08049062 -0.014397347 -0.13518208 -0.057270214 -0.023559786
-0.05106786 0.032133605 -0.033460755 0.26306486 0.040412817 -0.112226434 0.04697589 0.10061334
00000000: ebe7 b83d d92b 9cbd 74e9 6b3d 9743 96bd
00000010: 6700 bb3d c088 67bd a5bd c4be d58e 78bd
00000020: fb2b f13d c638 1c3e e108 85be 4b33 c43d
00000030: 834a 22be 955d 67bb 64a2 4c3e 0da5 1ebd
00000040: 04ff 183e 1336 9fbd 07ce e83d c3b6 80bd
00000050: bbd4 bc3d 6b87 7f3e 50cc 61bd d3a0 2bbe
00000060: 65fd 2e3e 5bdf 073d bdab ac3d eee6 9abc
00000070: b84e 183c 39c2 073e 315f b7bd b1d9 613d
00000080: 6fcf 14bd 01c7 053e 84c3 dc3c 496a a63d
00000090: 6831 c23d db15 ee3d d316 dcbd 64a9 8e3d
000000a0: e17e ae3c 1cc0 073e 3a2d 19be 9ad5 2d3e
000000b0: 1abf a53d 921e 903e dc27 883e ef6b a33d
000000c0: 55bb fbbb 0855 38bd 37ae 613d 4d81 41bd
000000d0: cdc3 ebbb 7edd ec3d 1b45 d2bc b212 083d
000000e0: 231b 1dbc c685 123e ae84 afbc b1bd 6c3c
000000f0: 69d9 a9bc b6be bfbd adcb bcbb db19 013e
00000100: 7e18 2ebe e459 093d cae0 5a3d 05c3 03be
00000110: 48df 0e3d b4a2 633b a8f2 b0be 87d7 25bd
00000120: 433a 8d3e 0c1c fc3d c7b4 0c3e e6a7 0d3d
00000130: b626 163d b107 c23d 531e 56be 4ac6 8dbc
00000140: b408 1d3e 63f5 a2bd 2ddd 213e 6f6f 16bd
00000150: 99ab 733d 28bd 8abb 0d3a a8bd 4d93 96bd
00000160: d7f5 953d b8f0 353d 01a6 8f3d 7977 a0bc
00000170: 647c 4ebd 51cf a2bd 08e3 19be eb4e 813d
00000180: e490 1dbd 364a 2e3d fbef ff3c 9bd8 c93d
00000190: 8899 6e3d 3cb9 bb3d 738e d4bd 4fd1 d43d
000001a0: 0814 093d b360 363e bdc3 713d 21c3 ac3d
000001b0: 2e60 d23d cb74 35be 7c3d 84be 7ca1 813d
000001c0: 7b9a 13bd f1ec 34bc e1b2 6a3d 04f9 95bc
000001d0: 7e43 94bb 01bf a8bd bab1 3ebd d25b 96ba
000001e0: a198 4fbd ab29 d73d d691 bcbc 0064 773c
000001f0: 79ef 85bc ec36 cebd c9ee 323a 0046 8bbb
00000200: cd8f 4abe a0c1 42be 4cb7 833d 0698 f2bc
00000210: 1473 8e3d 8008 61bd 64a4 16bd 6fbc 283d
00000220: 260b 0bbd 0e8d d83d 64d9 d13d 976e d63d
00000230: 1fda aabd a307 5ebd 307e 71bd 054e 9dbc
00000240: e6a5 933d 03eb b0bd 0342 563d 72d8 0fbd
00000250: 778b 94be 34cf 16be 1e15 6cbd 9dd4 2c3b
00000260: add6 d43d 4718 0dbd 1068 b43d c950 1fbd
00000270: 80b4 4abd 55ee 40be 8fae 03be d619 e53c
00000280: b9c8 29bc c472 c83d baed 1bbd b55e e43d
00000290: 334b 9c3d eaf3 fa3c 1bc7 9d3d 6f8e c83d
000002a0: 7ee5 05bd 1bb2 d93d bbf5 3abe 1c63 0f3e
000002b0: c121 e73d 2b69 103d 0abf 16be 6bb0 003e
000002c0: 4437 e23b 958a b4bc 057d d63c 91bf 8cbd
000002d0: 9855 36bd ab30 3a3e de5c fdbc 708a 89bc
000002e0: 67bb f7bc a943 ae3d 67dd 0ebd b5b4 aebd
000002f0: 33a3 cf3d 875e 00bd f00a ef3d 7325 f9bd
00000300: 6f1a 9e3e c0a4 c83d e975 213d 91fb e5bd
00000310: ea52 933d 670e 93bd d328 34be 10ff 9dbc
00000320: 6adb c2bd 28af c63d 46a9 41bd b7d3 203d
00000330: c42d cb3e a866 b93e cb11 073f 5601 a3bd
00000340: fd76 703d f187 e2bd c3bd 0b3e 4b56 c03d
00000350: a35f 03be 1f6c 40bd 0718 dcbd 994b 5f3e
00000360: 81b1 403d 6697 dc3b dcf4 413d 66f9 41bd
00000370: 592d 4ebd 7871 a03e ee0a 00be e6fa abbc
00000380: 8534 c1bc f749 333d 607e 12bd cfa4 c93d
00000390: e640 583d a6da 093e dd01 07be cf67 8d3d
000003a0: 9b0d bc3c 0976 133e 0bfc 15be c155 083e
000003b0: d532 1d3d c8e7 52be 7b4a 39bc 2f85 7b3d
000003c0: e053 8bbb 61e0 e4bb 7ff9 393c 44d8 a4bd
000003d0: dae2 6bbc 2c6d 0abe 2c94 6abd 7400 c1bc
000003e0: 882c 51bd 879e 033d 250e 09bd 70b0 863e
000003f0: e987 253d f9d6 e5bd ca69 403d 5e0e ce3d

advantage_stream.bias f4 [5]
-0.29382035 0.04917804 -0.018899754 0.20337915 0.010754145
00000000: 9f6f 96be ea6e 493d a8d3 9abc a042 503e
00000010: 2732 303c

hidden_nets.0.weight f4 [128, 11]
0.093026474 -0.02122844 -0.12851678 -0.2289587 -0.02991108 0.04507913 0.0012084382 -0.074057125
0.113771275 -0.083110124 -0.07482806 0.22330877 0.117357165 -0.1254544 -0.11144887 0.04649798
0.022733975 -0.10863294 -0.237331 -0.1758896 -0.072050765 -0.026990414 -0.028623288 -0.18152437
-0.18150741 0.031363986 0.16409647 -0.088821016 0.049594764 0.062394336 -0.1334906 -0.030497273
0.0146349715 -0.0050397837 -0.10898184 -0.061579928 -0.113892324 0.108881064 -0.14597315 0.09870923
-0.08426884 0.069605 0.20123088 0.0110237 0.24220467 0.082933605 -0.22916771 0.004080721
-0.20306668 -0.098850764 0.010534482 -0.012417055 0.0071587595 -0.1710925 -0.072873235 0.11526829
-0.19677952 -0.17619441 -0.2469839 0.110374846 -0.08182408 -0.12029692 -0.10464777 0.10748033
-0.053104505 0.14887273 -0.16507573 0.07682444 -0.3477462 0.025848102 -0.13260019 -0.058889676
-0.042633075 0.050160922 -0.13832478 0.056782965 -0.11447023 -0.094930954 -0.034407042 -0.07831928
-0.04559586 -0.08019879 -0.033785988 0.12293616 -0.03203854 0.13473244 -0.06882049 0.051125035
0.158091 -0.0488418 -0.18716031 0.084541045 0.056697898 -0.12130949 -0.11696794 -0.15521291
-0.1192122 -0.19933584 0.018374486 -0.06657793 -0.29905385 0.14254414 -0.017331192 0.21442556
0.0357285 -0.041111995 0.01613485 0.038777187 -0.06091098 -0.04276631 0.059422888 0.0380121
-0.16396189 -0.165391 -0.2861054 0.088359 -0.053441145 0.087846234 -0.14319733 0.11402904
0.12506498 -0.12010888 -0.14860195 0.18047309 -0.40362093 -0.04804512 -0.08261837 -0.15318634
-0.18924293 0.06302785 0.0021523729 -0.16717322 -0.25506312 -0.061383214 0.048790105 -0.11681391
0.023651257 0.08543901 0.061511528 -0.0037068482 0.078979336 -0.00037215525 -0.058835752 -0.22524476
-0.20673993 0.16265775 0.16069674 0.110868916 -0.18101986 -0.12089154 -0.25657052 0.14780305
-0.057943124 0.028691519 0.23437357 -0.16020766 -0.14339924 -0.07697468 0.100499265 0.022254642
-0.04464653 -0.10020612 -0.12930626 0.03821338 -0.08081791 -0.038387377 0.04668664 -0.13340557
-0.050023764 -0.16118339 -0.0050409785 0.05406522 -0.09650045 0.12228032 -0.14444302 0.11390556
0.057894457 -0.14005017 0.019462902 0.14051875 -0.27690297 -0.017086715 0.054523773 0.12802283
0.006342207 0.10694514 0.048980292 0.2181725 -0.043174244 -0.2554597 0.12870881 -0.21898298
-0.12852408 -0.20073307 -0.1331513 -0.11999551 0.09024982 -0.0008715901 -0.033627536 -0.17430957
-0.05916581 -0.01805956 0.12270103 0.04317629 0.0074005527 -0.019405585 0.13903357 0.058418617
-0.031253163 0.21116792 0.026098618 -0.13551487 -0.28142914 -0.12883948 0.0792577 0.09111887
-0.17532368 0.00019192164 0.17199169 -0.030992175 0.16401373 -0.036444504 0.04239747 0.021249924
0.12475747 -0.12050796 0.035261206 -0.25389796 0.094771996 0.020218594 -0.033765264 0.18964185
-0.027309932 -0.103564605 -0.045172706 0.15231925 0.0072576143 0.008045723 -0.096437074 -0.17497957
0.035439532 -0.037643712 -0.19599003 0.04773985 -0.08774442 0.046644025 0.027509738 -0.21875274
-0.0117016025 0.05154291 -0.1498497 -0.043499324 0.018084984 -0.1246811 -0.0519374 0.14739767
00000000: aa84 be3d 44e7 adbc e799 03be 2674 6abe
00000010: 1508 f5bc e5a4 383d 7564 9e3a 43ab 97bd
00000020: ea00 e93d a435 aabd 743f 99bd 0eab 643e
00000030: f458 f03d 1e77 00be 4e3f e4bd aa74 3e3d
00000040: 9a3c ba3c f27a debd e606 73be 671c 34be
00000050: 5a8f 93bd 001b ddbc 637b eabc 86e1 39be
00000060: 14dd 39be 8677 003d e808 283e cbe7 b5bd
00000070: e123 4b3d 3491 7f3d c3b1 08be 6bd5 f9bc
00000080: 85c7 6f3c c524 a5bb df31 dfbd 3c3b 7cbd
00000090: 6140 e9bd 09fd de3d fc79 15be 1128 ca3d
000000a0: 2495 acbd 118d 8e3d 780f 4e3e c09c 343c
000000b0: 8004 783e 18d9 a93d f1aa 6abe 92b7 853b
000000c0: b6f0 4fbe 4572 cabd d298 2c3c e770 4bbc
000000d0: 0794 ea3b df32 2fbe 903e 95bd c811 ec3d
000000e0: 9280 49be 4f6c 34be 59e9 7cbe 350c e23d
000000f0: 6293 a7bd 3b5e f6bd 9251 d6bd a61e dc3d
00000100: 1c84 59bd 1872 183e 9d09 29be 2256 9d3d
00000110: ca0b b2be 66bf d33c 58c8 07be 4d36 71bd
00000120: 05a0 2ebd 8a75 4d3d 03a5 0dbe 4195 683d
00000130: 5e6f eabd 296b c2bd 66ee 0cbd dc65 a0bd
00000140: b9c2 3abd 433f a4bd 2d63 0abd f4c5 fb3d
00000150: d83a 03bd 4df7 093e c2f1 8cbd 7c68 513d
00000160: 9be2 213e 570e 48bd f4a6 3fbe db23 ad3d
00000170: 0e3c 683d 1c71 f8bd e38c efbd 22f0 1ebe
00000180: 8725 f4bd b21e 4cbe 1786 963c 025a 88bd
00000190: 961d 99be 17f7 113e 25fa 8dbc 6092 5b3e
000001a0: 0c58 123d 0d65 28bd 3c2d 843c d4d4 1e3d
000001b0: cb7d 79bd ba2b 2fbd 6a65 733d 93b2 1b3d
000001c0: a0e5 27be 425c 29be 687c 92be 90f5 b43d
000001d0: 1ae5 5abd bae8 b33d 52a2 12be 0f88 e93d
000001e0: 0911 003e a5fb f5bd 1c2b 18be f0cd 383e
000001f0: 67a7 cebe f6ca 44bd d233 a9bd e1dc 1cbe
00000200: e6c8 41be bf14 813d d30e 0d3b 752f 2bbe
00000210: a297 82be f76c 7bbd 22d8 473d 223c efbd
00000220: 48c0 c13c a6fa ae3d 83f3 7b3d 98ee 72bb
00000230: ebbf a13d d51d c3b9 c2fd 70bd 90a6 66be
00000240: a2b3 53be c18f 263e b08d 243e 3e0f e33d
00000250: 455d 39be fc95 f7bd 365d 83be af59 173e
00000260: c555 6dbd 7a0a eb3c a0ff 6f3e 7a0d 24be
00000270: 40d7 12be e7a4 9dbd 8fd2 cd3d 5e4f b63c
00000280: 48df 36bd de38 cdbd dc68 04be a285 1c3d
00000290: dc83 a5bd 153c 1dbd 7d3a 3f3d 789b 08be
000002a0: b8e5 4cbd 420d 25be cb2e a5bb 7e73 5d3d
000002b0: 07a2 c5bd 1b6e fa3d dfe8 13be 5147 e93d
000002c0: bd22 6d3d 5069 0fbe aa70 9f3c 26e4 0f3e
000002d0: 3ac6 8dbe 70f9 8bbc 5254 5f3d 6b18 033e
000002e0: 4ad2 cf3b 0e06 db3d 8f9f 483d 9d68 5f3e
000002f0: 7ad7 30bd 9dcb 82be 3ecc 033e 133d 60be
00000300: d19b 03be f88c 4dbe d058 08be 35c0 f5bd
00000310: e6d4 b83d 6c7b 64ba 07bd 09bd 357e 32be
00000320: d957 72bd a4f1 93bc ad4a fb3d 9fd9 303d
00000330: 5680 f23b 76f8 9ebc d15e 0e3e 5c48 6f3d
00000340: 5103 00bd 673c 583e c5cc d53c 69c4 0abe
00000350: 7b17 90be 7fee 03be dc51 a23d 889c ba3d
00000360: 0d88 33be 933e 4939 971e 303e 4de3 fdbc
00000370: 37f3 273e d546 15bd f8a8 2d3d 5214 ae3c
00000380: d880 ff3d e1cc f6bd 0e6e 103d eafe 81be
00000390: d217 c23d 77a1 a53c 724d 0abd 7931 423e
000003a0: 14b9 dfbc ae19 d4bd 0407 39bd 94f9 1b3e
000003b0: 48d1 ed3b 35d2 033c cd80 c5bd d82d 33be
000003c0: 0b29 113d 4b30 1abd 9cb1 48be dc8a 433d
000003d0: 59b3 b3bd ce0d 3f3d 1a5c e13c b800 60be
000003e0: 14b8 3fbc a91e 533d 3372 19be 592c 32bd
000003f0: f626 943c ce58 ffbd 50bc 54bd 6aef 163e

hidden_nets.0.bias f4 [128]
-0.05234908 -0.0716537 -0.12689024 -0.11385898 0.069441766 -0.0714075 0.056533135 -0.0289251
-0.09037808 -0.16893886 0.012671757 0.002726642 -0.1406156 -0.094739765 -0.08976253 -0.0048152977
-0.03319338 0.014630877 -0.13622288 -0.053918976 -0.062000256 -0.16050549 -0.12107925 -0.13924937
0.008115539 -0.07097156 -0.08417949 -0.14056629 0.034980256 0.058534663 -0.11908902 -0.008931495
-0.035675246 0.08644976 -0.15050034 -0.049762737 -0.08260497 -0.087867014 0.04766681 -0.2170151
-0.06995895 -0.04137643 0.0015652752 -0.107610255 0.003849392 0.00870711 -0.21220188 0.03833786
0.015038264 -0.112070486 0.041389305 -0.1275505 -0.05101371 -0.060839955 -0.003084064 -0.07925828
-0.13489315 -0.13936295 -0.013451093 0.049746297 -0.06784083 -0.1378255 -0.08510474 -0.167948
-0.015881 -0.047713943 0.020126255 -0.1308038 0.051216032 0.0014176823 -0.028618285 0.042734522
0.0075659207 0.017563865 -0.09594355 -0.02101991 -0.04129772 -0.04109965 0.0 -0.1676088
-0.07580395 -0.070709445 0.033293907 -0.09578216 -0.05702412 0.0 -0.0022221108 -0.16331208
-0.028777115 -0.0005029776 0.111388944 0.038646113 -0.094738245 -0.062455945 -0.003404819 -0.11327841
0.041727606 -0.019437438 -0.120244965 -0.035126917 -0.03862565 -0.04525282 0.019509597 -0.018349795
0.0070086396 0.021419745 -0.09988768 0.03284314 -0.16759191 -0.060466226 -0.04326341 -0.17503272
0.034566868 0.082862474 -0.046881586 -0.04142217 -0.13448004 -0.061552636 -0.021827271 -0.10361314
0.04939578 -0.14301674 -0.045076083 -0.013302129 -0.01906171 0.03661971 0.038315848 0.019962948
00000000: fd6b 56bd 2dbf 92bd 84ef 01be e62e e9bd
00000010: 7c37 8e3d 183e 92bd 4a8f 673d 55f4 ecbc
00000020: 2518 b9bd 4ffe 2cbe 339d 4f3c 76b1 323b
00000030: 89fd 0fbe ec06 c2bd 6bd5 b7bd a5c9 9dbb
00000040: c8f5 07bd 59b6 6f3c 037e 0bbe 25da 5cbd
00000050: fbf3 7dbd 8d5b 24be 66f8 f7bd 6397 0ebe
00000060: 0af7 043c 8a59 91bd 4c66 acbd 9cf0 0fbe
00000070: 7547 0f3d 0bc2 6f3d f2e4 f3bd 6855 12bc
00000080: 3520 12bd 920c b13d c31c 1abe 03d4 4bbd
00000090: cb2c a9bd 9ff3 b3bd 463e 433d 3539 5ebe
000000a0: a346 8fbd 557a 29bd ec29 cd3a c462 dcbd
000000b0: 1546 7c3b 44a8 0e3c 734b 59be 2908 1d3d
000000c0: 0d63 763c 3685 e5bd d587 293d 999c 02be
000000d0: c1f3 50bd 5133 79bd 021e 4abb 2a52 a2bd
000000e0: 6e21 0abe 29b5 0ebe f961 5cbc c6c2 4b3d
000000f0: 22f0 8abd 2122 0dbe 654b aebd 8ffa 2bbe
00000100: df18 82bc b26f 43bd d1df a43c 6ef1 05be
00000110: e7c7 513d 86d1 b93a e570 eabc 650a 2f3d
00000120: 8beb f73b 18e2 8f3c 0d7e c4bd f231 acbc
00000130: cc27 29bd 1b58 28bd 0000 0000 a4a1 2bbe
00000140: 1a3f 9bbd 1dd0 90bd 315f 083d 7029 c4bd
00000150: 2092 69bd 0000 0000 d5a0 11bb 483b 27be
00000160: fcbd ebbc 41da 03ba e31f e43d 634b 1e3d
00000170: 2006 c2bd ced1 7fbd 6223 5fbb 83fe e7bd
00000180: 91ea 2a3d 433b 9fbc fe42 f6bd 3ee1 0fbd
00000190: ee35 1ebd 055b 39bd 97d2 9f3c 4f52 96bc
000001a0: bba8 e53b 7678 af3c e991 ccbd 8786 063d
000001b0: 379d 2bbe 6fab 77bd f934 31bd c73b 33be
000001c0: fd95 0d3d cdb3 a93d e806 40bd 4baa 29bd
000001d0: 23b5 09be 9e1e 7cbd 1bcf b2bc 2033 d4bd
000001e0: 3b53 4a3d fb72 12be b3a1 38bd 2cf1 59bc
000001f0: 4e27 9cbc 8dfe 153d 14f1 1c3d 5689 a33c

hidden_nets.1.weight f4 [128, 128]
-0.036264822 -0.029740792 -0.119955994 -0.011855863 0.045534927 -0.12418948 -0.10514634 -0.09201527
0.102241 0.060470417 0.13372312 -0.13479769 -0.03396727 -0.1153742 0.09540147 0.016946461
-0.12875094 -0.07674712 -0.091503955 -0.028982338 -0.06636531 -0.09584781 0.023634728 -0.16419832
-0.07197521 0.07659105 -0.060910508 -0.01374017 -0.041902553 0.07518523 0.08254743 0.014608456
-0.14820592 -0.1283569 -0.05445109 0.017761894 0.13021281 -0.1328376 0.0511431 -0.06339138
-0.15910806 -0.058382906 0.100768164 -0.06749441 -0.057516687 -0.1342282 -0.06190582 -0.13110587
0.072159536 -0.04023579 0.07191399 0.11019686 0.12523559 -0.17020482 -0.03379156 -0.046783075
-0.17573805 -0.101793684 0.12790106 0.11218364 0.14074068 0.003627522 0.080168895 -0.084926434
0.14648156 0.08549045 0.05767595 -0.16962105 -0.028257377 -0.03444738 -0.0220725 -0.13281411
-0.125611 0.09917204 -0.1367199 0.03621753 -0.019253524 -0.02183096 0.119334675 -0.09724925
-0.12471237 -0.096482575 0.016670702 -0.16229431 -0.16789787 -0.04767503 0.09784129 0.06604919
-0.12002123 -0.04367632 -0.15132427 0.006965569 -0.043418583 -0.06003547 -0.0459833 -0.09668632
-0.1481874 0.08926435 -0.14347513 0.039789926 -0.11794568 0.043266866 -0.04739887 -0.16934815
0.038512144 -0.18898824 -0.028951563 -0.017687935 0.08015054 -0.14761125 -0.14018631 -0.15203014
0.07234454 -0.13908628 -0.14066511 0.02341705 -0.078133166 -0.021267988 -0.049497925 -0.06847146
-0.061595567 -0.1530749 0.10681028 -0.10932043 0.04193016 -0.10085192 -0.05520443 -0.07276624
0.0933764 0.126284 0.109156355 -0.063520774 -0.23095722 -0.020526655 0.13836287 0.103465274
-0.060937632 -0.14985469 -0.31177288 -0.031233603 -0.13528615 0.16220748 -0.037047144 0.14211234
-0.31992334 -0.16734299 -0.050012596 0.08982852 0.052251402 0.16437759 0.10874044 0.0040023057
-0.051192228 0.10975613 -0.115607254 -0.019641083 0.13010664 -0.32452428 -0.027360193 -0.029970696
-0.055297174 -0.28418338 0.13886192 0.034408465 0.07764735 -0.04199024 -0.1817299 -0.10257173
-0.15777308 0.008029214 0.07818109 0.09648731 -0.22921434 -0.2474661 0.0742862 0.017033061
-0.048753913 -0.13420244 0.11126786 -0.09101883 0.029914752 -0.056682076 -0.40879488 -0.05092528
-0.18612167 0.05264563 0.12219365 -0.08800367 0.08115542 -0.16598892 0.20244633 -0.06389503
0.14488764 -0.10541167 -0.3069178 -0.13798727 -0.107860655 -0.04535813 -0.03837388 0.037418105
0.016790263 -0.11492768 0.010501606 0.053459458 -0.05202937 -0.17230941 0.0582486 0.15557161
-0.10145603 -0.13521636 -0.2626366 -0.098039314 -0.23067409 0.13945723 -0.08456998 -0.016498383
0.13662921 -0.16556549 -0.082490906 -0.31439605 0.08864148 -0.12995997 0.11087545 0.105055384
0.06762303 -0.14827502 -0.11940436 -0.341185 -0.16598469 0.12659958 0.055543672 -0.11649819
-0.045545325 -0.20665477 0.005154598 -0.15669143 -0.1432586 0.06759444 -0.024725458 0.049064543
-0.12174685 -0.2622021 -0.13020076 -0.08736773 0.13295934 -0.30640617 0.0491634 -0.05070859
-0.067415476 -0.13297507 0.08138119 -0.09783724 -0.262047 -0.14584182 0.09607789 -0.16011797
00000000: 6c8a 14bd f6a2 f3bc 7dab f5bd 183f 42bc
00000010: d582 3a3d 0e57 febd f756 d7bd 8072 bcbd
00000020: bb63 d13d d4af 773d b7ee 083e 6808 0abe
00000030: 4421 0bbd 4f49 ecbd d961 c33d 4ed3 8a3c
00000040: 49d7 03be 982d 9dbd 6d66 bbbd 5e6c edbc
00000050: 89ea 87bd db4b c4bd 9e9d c13c 9b23 28be
00000060: bd67 93bd c5db 9c3d 4c7d 79bd 731e 61bc
00000070: 03a2 2bbd b7fa 993d a10e a93d 4e58 6f3c
00000080: 4bc3 17be fe6f 03be 1b08 5fbd 6481 913c
00000090: 8256 053e 9406 08be 6d7b 513d 57d3 81bd
000000a0: 39ed 22be ea22 6fbd 8a5f ce3d 823a 8abd
000000b0: 9e96 6bbd 1e73 09be f590 7dbd 9e40 06be
000000c0: 61c8 933d 49ce 24bd a447 933d e4ae e13d
000000d0: c23d 003e 2c4a 2ebe 0569 0abd 9c9f 3fbd
000000e0: adf4 33be 3579 d0bd 7ff8 023e 89c0 e53d
000000f0: 531e 103e b8bb 6d3b 972f a43d e9ed adbd
00000100: 43ff 153e 9e15 af3d 9e3d 6c3d 24b1 2dbe
00000110: 047c e7bc b218 0dbd 63d1 b4bc 6c00 08be
00000120: 2ca0 00be b61a cb3d 4d00 0cbe d558 143d
00000130: 91b9 9dbc d7d6 b2bc bd65 f43d 9d2a c7bd
00000140: 3369 ffbd a898 c5bd ff90 883c 7b30 26be
00000150: 6bed 2bbe e446 43bd 0461 c83d cc44 873d
00000160: b1cd f5bd f1e5 32bd c0f4 1abe 6e3f e43b
00000170: afd7 31bd c1e7 75bd fc58 3cbd 7a03 c6bd
00000180: 70be 17be 3ad0 b63d 25eb 12be c3fa 223d
00000190: 818d f1bd 9938 313d 5125 42bd 9a69 2dbe
000001a0: e9be 1d3d 2286 41be d42b edbc 4ae6 90bc
000001b0: f725 a43d 6727 17be 008d 0fbe caad 1bbe
000001c0: 6029 943d a26c 0ebe 840a 10be 1dd5 bf3c
000001d0: 4804 a0bd 343a aebc 56be 4abd c43a 8cbd
000001e0: a24b 7cbd abbf 1cbe 59bf da3d 64e3 dfbd
000001f0: f6be 2b3d 748b cebd 0a1e 62bd 7706 95bd
00000200: 203c bf3d 9850 013e 5e8d df3d 2e17 82bd
00000210: 0d80 6cbe 8427 a8bc ffae 0d3e 9ae5 d33d
00000220: bd99 79bd 8273 19be b2a0 9fbe 9ddd ffbc
00000230: 7488 0abe b819 263e bfbe 17bd e685 113e
00000240: fecc a3be f65b 2bbe 02da 4cbd 04f8 b73d
00000250: 9105 563d 9952 283e 4fb3 de3d c625 833b
00000260: f1ae 51bd d2c7 e03d 7fc3 ecbd 56e6 a0bc
00000270: ad3a 053e 0c28 a6be 7c22 e0bc 1b85 f5bc
00000280: 4a7f 62bd 7c80 91be d231 0e3e e4ef 0c3d
00000290: 9305 9f3d f5fd 2bbd 6717 3abe 2111 d2bd
000002a0: 448f 21be f78c 033c 681d a03d 249b c53d
000002b0: 2ab7 6abe c167 7dbe 5d23 983d eb88 8b3c
000002c0: 2fb2 47bd 5d6c 09be 67e0 e33d 1568 babd
000002d0: c80f f53c 772b 68bd 904d d1be 0797 50bd
000002e0: ae96 3ebe f2a2 573d aa40 fa3d 453b b4bd
000002f0: d034 a63d 00f9 29be 174e 4f3e 66db 82bd
00000300: 6d5d 143e 13e2 d7bd 5424 9dbe 894c 0dbe
00000310: 0ce6 dcbd 72c9 39bd ee2d 1dbd ba43 193d
00000320: bc8b 893c 345f ebbd ee0e 2c3c 4ef8 5a3d
00000330: c01c 55bd e171 30be 1696 6e3d 2a4e 1f3e
00000340: 2ec8 cfbd 2876 0abe 4e78 86be d6c8 c8bd
00000350: d435 6cbe e0cd 0e3e 0733 adbd 9e27 87bc
00000360: 87e8 0b3e 008a 29be fef0 a8bd 85f8 a0be
00000370: aa89 b53d 3a14 05be ab12 e33d 4727 d73d
00000380: f17d 8a3d 68d5 17be 468a f4bd cdaf aebe
00000390: e4f7 29be 52a3 013e c381 633d 9a96 eebd
000003a0: bc8d 3abd 4f9d 53be e7e7 a83b b873 20be
000003b0: 62b2 12be f46e 8a3d 0b8d cabc e7f7 483d
000003c0: 6a56 f9bd 5b3f 86be 5953 05be daed b2bd
000003d0: 7e26 083e 45e1 9cbe 905f 493d cfb3 4fbd
000003e0: 2011 8abd 9e2a 08be 2eab a63d e45e c8bd
000003f0: 062b 86be 8f57 15be 7cc4 c43d f7f5 23be
