hyperopt_results/models/explore_conservative_20250906_230524/dqn_racing_episode_200.pth (torch, 454549 bytes, 36 tensors)

hidden_nets.0.weight f4 [128, 11]
000000 83 0f b5 3d 3b 5c ce bc 8d fa 04 be 26 74 6a be
       0.08840849 -0.025190463 -0.12986203 -0.2289587
000010 fb 61 00 bd 6e 16 2f 3d d0 88 4f bb 71 da 9f bd
       -0.03134344 0.042746 -0.003166724 -0.07805336
000020 ea 00 e9 3d f3 3e ac bd 8d 07 91 bd 12 8e 8f 3e
       0.113771275 -0.08410444 -0.07081518 0.2803808
000030 7a fa d1 3d d1 41 02 bd 9f 66 1c be ff 00 67 3c
       0.10252853 -0.03180105 -0.15273522 0.014099359
000040 49 38 74 ba 9d 32 c2 bd 4f 66 88 be 67 1c 34 be
       -0.00093162485 -0.0948231 -0.26640555 -0.1758896
000050 ea 6f 8b bd db 8d 99 bd 31 59 29 bd 90 dc 45 be
       -0.06808455 -0.0749776 -0.041344825 -0.19322419
000060 80 b5 4f be f4 42 00 3d 97 d2 19 3e ee 16 cd bd
       -0.2028408 0.03131385 0.1502174 -0.10014139
000070 ae f8 11 3d 29 b8 46 3d c3 b1 08 be 2a f1 36 bd
       0.03563755 0.048515473 -0.1334906 -0.044663586
000080 77 5b 04 3b 52 e2 7b bc 80 72 05 be 7c 37 61 bd
       0.002019612 -0.015373783 -0.1303196 -0.054984555
000090 87 da f3 bd 7a e4 b1 3d 0a 06 28 be 97 94 9c 3d
       -0.11906915 0.086861566 -0.16408554 0.07645529
0000a0 2c c7 d9 bd 11 8d 8e 3d fe 0f 41 3e f0 e5 ce 3c
       -0.10633692 0.069605 0.18853757 0.025256127
0000b0 e3 38 6a 3e 36 86 90 3d d6 3e 82 be 39 f5 ec 3c
       0.22873263 0.07056849 -0.25438565 0.028925525
0000c0 ad 2c 88 be 42 b8 c5 bd a6 23 c1 3c 56 62 da 3b
       -0.26596585 -0.09654285 0.023576569 0.0066645546
0000d0 07 94 ea 3b 2c 9b ff bd d8 0f 89 bd 02 07 46 3d
       0.0071587595 -0.124807686 -0.06692475 0.048346527
0000e0 89 63 63 be bb 94 63 be 55 dc 6c be 5f 92 94 3d
       -0.22205938 -0.22224705 -0.23130925 0.072544806
0000f0 b5 98 bb bd e3 bb e2 bd 8c 0c 07 be a6 1e dc 3d
       -0.09159986 -0.11070993 -0.1318838 0.10748033
000100 d3 47 1e be 21 e0 30 3e 1e 3c 56 be 47 d9 bc 3d
       -0.15457086 0.17272998 -0.2092137 0.0922113
000110 01 e1 91 be 61 44 85 3b 41 80 48 be d3 e2 b8 bc
       -0.28491977 0.0040669893 -0.19580175 -0.022569096
000120 49 e8 a3 bd 5b ce ca 3d 03 a5 0d be b6 19 bf 3d
       -0.08003289 0.099026404 -0.13832478 0.09331076
000130 6b 46 a5 bd 29 6b c2 bd 66 ee 0c bd dc 65 a0 bd
       -0.08070072 -0.094930954 -0.034407042 -0.07831928
000140 b9 c2 3a bd 43 3f a4 bd 2d 63 0a bd f4 c5 fb 3d
       -0.04559586 -0.08019879 -0.033785988 0.12293616
000150 d8 3a 03 bd 4d f7 09 3e c2 f1 8c bd 7c 68 51 3d
       -0.03203854 0.13473244 -0.06882049 0.051125035
000160 9b e2 21 3e 57 0e 48 bd f4 a6 3f be db 23 ad 3d
       0.158091 -0.0488418 -0.18716031 0.084541045
000170 0e 3c 68 3d 1c 71 f8 bd e3 8c ef bd 22 f0 1e be
       0.056697898 -0.12130949 -0.11696794 -0.15521291
000180 87 25 f4 bd b2 1e 4c be 17 86 96 3c 14 83 9c bd
       -0.1192122 -0.19933584 0.018374486 -0.07642189
000190 50 59 a7 be eb 68 0e 3e e8 66 ec bd 72 c8 4b 3e
       -0.32685328 0.1390721 -0.11543065 0.19900683
0001a0 92 b1 91 3d 50 b7 ef bc 05 ac 5e ba d4 d4 1e 3d
       0.07113947 -0.029262215 -0.0008494261 0.038777187
0001b0 a3 09 52 bd 98 f6 60 3d b2 a7 b9 3c cf b5 8e 3c
       -0.05127872 0.05492267 0.022662971 0.017420677
0001c0 7e 3d 20 be c2 a4 7b be 86 ca 9b be 4f fc ab 3d
       -0.15648457 -0.24574569 -0.3042795 0.083977334
0001d0 7c 6e a8 bd 35 90 f0 3d 52 a2 12 be e6 af 0c 3e
       -0.08224198 0.11746255 -0.14319733 0.13738975
0001e0 11 b1 56 3e ee 7e 59 be ad 45 f3 bd c5 6c 61 3e
       0.20965983 -0.21239826 -0.11878524 0.22014149
0001f0 51 b7 cc be cf 60 58 bd 68 81 a8 bc 32 80 33 be
       -0.3998361 -0.0528267 -0.020569518 -0.17529371
000200 7c 3f 28 be bf 14 81 3d c9 e9 3a bc a5 e2 02 be
       -0.16430467 0.06302785 -0.011408278 -0.1278177
000210 a2 97 82 be f7 6c 7b bd 22 d8 47 3d 22 3c ef bd
       -0.25506312 -0.061383214 0.048790105 -0.11681391
000220 48 c0 c1 3c a6 fa ae 3d 83 f3 7b 3d 98 ee 72 bb
       0.023651257 0.08543901 0.061511528 -0.0037068482
000230 eb bf a1 3d d5 1d c3 b9 c2 fd 70 bd bc 4c 67 be
       0.078979336 -0.00037215525 -0.058835752 -0.22587866
000240 00 a7 57 be 9d 57 22 3e e7 97 1f 3e 22 cf da 3d
       -0.21059799 0.15853734 0.1558529 0.10684039
000250 23 1a 3e be 56 78 ef bd a4 64 85 be af 59 17 3e
       -0.18564658 -0.11692874 -0.26053345 0.14780305
000260 05 a1 69 bd 24 9d 12 3d 17 70 8b 3e 43 f8 3c be
       -0.057038326 0.035794392 0.27233955 -0.1845408
000270 cb 03 6c bd bf 3b 74 be 0c c7 41 3d ef 4b 9d 3c
       -0.057620805 -0.23850916 0.047308967 0.019201247
000280 18 39 eb bd d0 f0 02 be dc 68 04 be 1c e3 f0 bc
       -0.11485499 -0.12787175 -0.12930626 -0.02940517
000290 63 83 ed bd 15 3c 1d bd 7d 3a 3f 3d 78 9b 08 be
       -0.11597326 -0.038387377 0.04668664 -0.13340557
0002a0 b8 e5 4c bd 42 0d 25 be cb 2e a5 bb 7e 73 5d 3d
       -0.050023764 -0.16118339 -0.0050409785 0.05406522
0002b0 07 a2 c5 bd 1b 6e fa 3d df e8 13 be 51 47 e9 3d
       -0.09650045 0.12228032 -0.14444302 0.11390556
0002c0 13 09 34 3d 62 22 ff bd 3d f2 c3 3b 74 66 33 3e
       0.043953966 -0.1245773 0.005979805 0.17519552
0002d0 22 23 93 be b6 5a 3c bd ed 79 ba 3d 0f 5c 20 3e
       -0.28737742 -0.045984946 0.09105287 0.15660118
0002e0 4a d2 cf 3b d3 48 10 3e d9 95 8f 3d 2b 7f 66 3e
       0.006342207 0.1409028 0.07011003 0.22509448
0002f0 1f b4 8f bd fe 96 93 be 9d d9 b8 3d f3 0e 70 be
       -0.07016777 -0.28826135 0.090258814 -0.23443203
000300 5f 6b 26 be 95 8b 4e be db c6 07 be 35 c0 f5 bd
       -0.16251896 -0.20170434 -0.13259451 -0.11999551
000310 1a 31 b5 3d 6b 1f 72 bd 89 46 0a bd 13 97 32 be
       0.08847256 -0.059111994 -0.033758674 -0.17440443
000320 aa 6b 72 bd a4 f1 93 bc 10 14 fb 3d 0f 4a 30 3d
       -0.059184708 -0.01805956 0.12259686 0.043039378
000330 56 80 f2 3b e7 d1 9f bc d1 5e 0e 3e f9 c1 6e 3d
       0.0074005527 -0.019509269 0.13903357 0.058290455
000340 5b 03 ff bc a4 49 53 3e 04 a5 ad 3c 2b b8 da bd
       -0.03112953 0.2063356 0.02119685 -0.106796585
000350 d6 81 b3 be fa 2e 15 be a0 69 9b 3d bf 20 96 3d
       -0.35059994 -0.14568701 0.07588506 0.073304646
000360 1d 5c 30 be 93 3e 49 39 f9 9e 50 3e a6 bd b5 3d
       -0.17222638 0.00019192164 0.20373143 0.08874063
000370 7a 7d 56 3e 94 90 75 bd fe 41 5e 3d f5 e1 1a 3c
       0.20946303 -0.059952334 0.054262154 0.009453286
000380 70 20 88 3d 86 e9 24 be 42 aa 99 3d c2 b0 92 be
       0.06646812 -0.16104707 0.07503177 -0.2865048
000390 d2 17 c2 3d 8b 0b c6 3d b8 85 d4 3b 6c c8 5e 3e
       0.094771996 0.096701704 0.006485667 0.21756142
0003a0 ce a3 ea bc 1a 72 5b bd 3f 0f 73 bc 0f d1 13 3e
       -0.028642561 -0.053575613 -0.014835178 0.14435218
0003b0 d2 2d 74 bc ff 1d ea bc 96 04 ee bd d8 2d 33 be
       -0.014903503 -0.028578756 -0.116219684 -0.17497957
0003c0 c0 78 3a 3b a8 44 65 bd 3a 0d ad be 3d 58 98 3d
       0.002845332 -0.05597368 -0.33799154 0.07438705
0003d0 42 2a 0c bd 11 3b 0e 3e 6b a7 96 3c fa b9 20 be
       -0.034219988 0.1388972 0.018390378 -0.15695944
0003e0 e6 6c 9f bd 24 a9 9a 3d 33 72 19 be 84 0f 1b 3d
       -0.077844426 0.07551792 -0.1498497 0.037856594
0003f0 b2 6a d0 3b 29 91 0f be c2 40 8a bd 7c d4 06 3e
       0.0063603753 -0.14020218 -0.06750633 0.13166994

hidden_nets.0.bias f4 [128]
000000 5b ca 66 bd 27 4b ce bd a5 25 10 be 8d 30 0b be
       -0.056345325 -0.10072928 -0.1407686 -0.1359274
000010 a4 4b b5 3d ac 05 ca bd 35 db d7 3d 55 f4 ec bc
       0.08852318 -0.09864363 0.10539857 -0.0289251
000020 25 18 b9 bd 9f 62 3e be 33 37 2d 3d a7 a1 e2 3c
       -0.09037808 -0.18592308 0.04228897 0.027664972
000030 89 fd 0f be 9f 24 ca bd 04 7e f0 bd a5 c9 9d bb
       -0.1406156 -0.09870266 -0.117427856 -0.0048152977
000040 58 3a 97 bb 9e d4 78 3c 2d 99 0b be 37 28 50 bd
       -0.0046151094 0.015187411 -0.1363265 -0.050819602
000050 a2 c1 c1 bd 36 9d 38 be 86 de c6 bd 6a c1 1e be
       -0.09460761 -0.18028721 -0.09710412 -0.15503469
000060 f9 9d 90 3c 29 ad 8c bd 65 b9 b0 bd 9c f0 0f be
       0.017653452 -0.06868965 -0.08629111 -0.14056629
000070 a5 f2 57 3d f5 bc 96 3d f2 e4 f3 bd b4 8a c2 bc
       0.05272164 0.073602594 -0.11908902 -0.02374778
000080 8f 80 32 bc 45 89 e1 3d 3c c5 2c be f6 a3 2e bd
       -0.010894909 0.1101251 -0.16872114 -0.042636834
000090 42 b7 bd bd 9f f3 b3 bd 88 e8 52 3d 60 87 61 be
       -0.09263469 -0.087867014 0.05149129 -0.22024298
0000a0 41 56 18 bd 1c 7c 41 bd ff d3 d5 bc 81 ed 27 be
       -0.037191633 -0.0472375 -0.026102064 -0.16399194
0000b0 18 af 39 3d e8 bb 32 bc a6 7c 5a be 33 c9 f3 3c
       0.045332998 -0.010909058 -0.21336612 0.029759025
0000c0 a4 6a f7 3c 8d db 0f be 30 ff 80 3d fc 6d 0b be
       0.030202217 -0.14048596 0.06298673 -0.13616174
0000d0 21 13 56 bd 97 dd 88 bd 03 f2 75 3b 43 65 b3 bd
       -0.052264336 -0.0668289 0.0037528283 -0.087595485
0000e0 60 25 18 be 29 b5 0e be f9 61 5c bc b0 93 b3 3d
       -0.14858007 -0.13936295 -0.013451093 0.087684035
0000f0 22 f0 8a bd 8f 9d 1c be 81 21 f3 bd bf 0f 26 be
       -0.06784083 -0.15294479 -0.11871625 -0.16216944
000100 df 18 82 bc cc 44 df bd 78 56 51 3d 9d 6f 06 be
       -0.015881 -0.10901794 0.051107854 -0.13128515
000110 02 5f aa 3d 7e 67 22 ba 8e 26 1f 3c bb 30 47 3d
       0.083189026 -0.0006195231 0.009713782 0.048630457
000120 8f 55 06 bc e8 d6 1c 3d 3b 7b dc bd f2 31 ac bc
       -0.00819911 0.038290888 -0.10765692 -0.02101991
000130 45 14 74 bd 6c 50 a7 bd 00 00 00 00 ee ca 35 be
       -0.059589643 -0.08169636 0.0 -0.17753193
000140 50 b0 bf bd 1d d0 90 bd 75 e9 1c 3d 21 0c f1 bd
       -0.09359801 -0.070709445 0.03830858 -0.117698915
000150 8e bd 9e bd 00 00 00 00 d7 4c ce bb cb f8 3a be
       -0.077509984 0.0 -0.006295781 -0.1825897
000160 fc bd eb bc 72 c3 f8 ba 62 2f 1a 3e ba 86 84 3d
       -0.028777115 -0.0018979146 0.15057138 0.064710096
000170 e8 d1 07 be bc a4 e1 bd f5 c6 fa 3c 83 fe e7 bd
       -0.13263667 -0.11017749 0.030612448 -0.11327841
000180 3b dd b9 3d 8e 2f ab bc 37 e2 fe bd c7 e8 52 bd
       0.090753995 -0.0208967 -0.12445491 -0.051491525
000190 0b ee 29 bd f0 f0 36 bd 5e 44 18 bc 56 f2 1b bd
       -0.04148678 -0.04466337 -0.009293644 -0.038072906
0001a0 b3 82 61 3d 5c 4d eb 3c 9f b1 d5 bd cf 90 4f 3d
       0.055056285 0.028723411 -0.10434269 0.05067521
0001b0 3b 27 38 be b9 f5 db bd 64 99 27 bd c1 ee 46 be
       -0.17983715 -0.10740227 -0.04091777 -0.19427015
0001c0 39 e0 da bb ac bc e9 3d 11 ba 5d bd b8 a6 8f bc
       -0.0066795615 0.114129394 -0.054132525 -0.017535552
0001d0 23 b5 09 be a6 25 83 bd 1b cf b2 bc 74 1d 14 be
       -0.13448004 -0.06403665 -0.021827271 -0.1446436
0001e0 e6 ad 9e 3d 83 bb 37 be b3 a1 38 bd 64 72 e9 ba
       0.07748012 -0.17942624 -0.045076083 -0.001781058
0001f0 c6 af 55 bd 66 6b 71 3d cd 2c 9d 3d 78 c5 e7 3c
       -0.052169584 0.058940314 0.07674561 0.028292403

hidden_nets.1.weight f4 [128, 128]
000000 6c 8a 14 bd f6 a2 f3 bc 7d ab f5 bd 18 3f 42 bc
       -0.036264822 -0.029740792 -0.119955994 -0.011855863
000010 d5 82 3a 3d 0e 57 fe bd f7 56 d7 bd 80 72 bc bd
       0.045534927 -0.12418948 -0.10514634 -0.09201527
000020 bb 63 d1 3d d4 af 77 3d b7 ee 08 3e 68 08 0a be
       0.102241 0.060470417 0.13372312 -0.13479769
000030 44 21 0b bd 4f 49 ec bd d9 61 c3 3d 4e d3 8a 3c
       -0.03396727 -0.1153742 0.09540147 0.016946461
000040 49 d7 03 be 98 2d 9d bd 6d 66 bb bd 5e 6c ed bc
       -0.12875094 -0.07674712 -0.091503955 -0.028982338
000050 89 ea 87 bd db 4b c4 bd 9e 9d c1 3c 9b 23 28 be
       -0.06636531 -0.09584781 0.023634728 -0.16419832
000060 bd 67 93 bd c5 db 9c 3d 4c 7d 79 bd 73 1e 61 bc
       -0.07197521 0.07659105 -0.060910508 -0.01374017
000070 03 a2 2b bd b7 fa 99 3d a1 0e a9 3d 4e 58 6f 3c
       -0.041902553 0.07518523 0.08254743 0.014608456
000080 4b c3 17 be fe 6f 03 be 1b 08 5f bd 64 81 91 3c
       -0.14820592 -0.1283569 -0.05445109 0.017761894
000090 82 56 05 3e 94 06 08 be 6d 7b 51 3d 57 d3 81 bd
       0.13021281 -0.1328376 0.0511431 -0.06339138
0000a0 39 ed 22 be ea 22 6f bd 8a 5f ce 3d 82 3a 8a bd
       -0.15910806 -0.058382906 0.100768164 -0.06749441
0000b0 9e 96 6b bd 1e 73 09 be f5 90 7d bd 9e 40 06 be
       -0.057516687 -0.1342282 -0.06190582 -0.13110587
0000c0 61 c8 93 3d 49 ce 24 bd a4 47 93 3d e4 ae e1 3d
       0.072159536 -0.04023579 0.07191399 0.11019686
0000d0 c2 3d 00 3e 2c 4a 2e be 05 69 0a bd 9c 9f 3f bd
       0.12523559 -0.17020482 -0.03379156 -0.046783075
0000e0 ad f4 33 be 35 79 d0 bd 7f f8 02 3e 89 c0 e5 3d
       -0.17573805 -0.101793684 0.12790106 0.11218364
0000f0 53 1e 10 3e b8 bb 6d 3b 97 2f a4 3d e9 ed ad bd
       0.14074068 0.003627522 0.080168895 -0.084926434
000100 43 ff 15 3e 9e 15 af 3d 9e 3d 6c 3d 24 b1 2d be
       0.14648156 0.08549045 0.05767595 -0.16962105
000110 04 7c e7 bc b2 18 0d bd 63 d1 b4 bc 6c 00 08 be
       -0.028257377 -0.03444738 -0.0220725 -0.13281411
000120 2c a0 00 be b6 1a cb 3d 4d 00 0c be d5 58 14 3d
       -0.125611 0.09917204 -0.1367199 0.03621753
000130 91 b9 9d bc d7 d6 b2 bc bd 65 f4 3d 9d 2a c7 bd
       -0.019253524 -0.02183096 0.119334675 -0.09724925
000140 33 69 ff bd a8 98 c5 bd ff 90 88 3c 7b 30 26 be
       -0.12471237 -0.096482575 0.016670702 -0.16229431
000150 6b ed 2b be e4 46 43 bd 04 61 c8 3d cc 44 87 3d
       -0.16789787 -0.04767503 0.09784129 0.06604919
000160 b1 cd f5 bd f1 e5 32 bd c0 f4 1a be 6e 3f e4 3b
       -0.12002123 -0.04367632 -0.15132427 0.006965569
000170 af d7 31 bd c1 e7 75 bd fc 58 3c bd 7a 03 c6 bd
       -0.043418583 -0.06003547 -0.0459833 -0.09668632
000180 70 be 17 be 3a d0 b6 3d 25 eb 12 be c3 fa 22 3d
       -0.1481874 0.08926435 -0.14347513 0.039789926
000190 81 8d f1 bd 99 38 31 3d 51 25 42 bd 9a 69 2d be
       -0.11794568 0.043266866 -0.04739887 -0.16934815
0001a0 e9 be 1d 3d 22 86 41 be d4 2b ed bc 4a e6 90 bc
       0.038512144 -0.18898824 -0.028951563 -0.017687935
0001b0 f7 25 a4 3d 67 27 17 be 00 8d 0f be ca ad 1b be
       0.08015054 -0.14761125 -0.14018631 -0.15203014
0001c0 60 29 94 3d a2 6c 0e be 84 0a 10 be 1d d5 bf 3c
       0.07234454 -0.13908628 -0.14066511 0.02341705
0001d0 48 04 a0 bd 34 3a ae bc 56 be 4a bd c4 3a 8c bd
       -0.078133166 -0.021267988 -0.049497925 -0.06847146
0001e0 a2 4b 7c bd ab bf 1c be 59 bf da 3d 64 e3 df bd
       -0.061595567 -0.1530749 0.10681028 -0.10932043
0001f0 f6 be 2b 3d 74 8b ce bd 0a 1e 62 bd 77 06 95 bd
       0.04193016 -0.10085192 -0.05520443 -0.07276624
000200 20 3c bf 3d 29 78 02 3e d1 f7 dd 3d 88 a2 5b bd
       0.0933764 0.1274115 0.10838283 -0.0536218
000210 f4 a2 3d be 6b a6 13 3d e0 d3 c3 3d 9a e5 d3 3d
       -0.18519193 0.03604738 0.09561896 0.103465274
000220 bd 99 79 bd 94 59 e8 bd 67 ed 61 be 8a be 6e bd
       -0.060937632 -0.11345211 -0.22063218 -0.05828718
000230 74 88 0a be b8 19 26 3e 60 78 6d bd e6 85 11 3e
       -0.13528615 0.16220748 -0.057976127 0.14211234
000240 98 03 be be 78 7c 16 be e3 e4 4c bd 2f c0 d5 3d
       -0.37112117 -0.14695919 -0.05002297 0.10437047
000250 96 b7 9b 3d e0 8c 0c 3e 94 c5 c4 3d 5d e4 7d 3c
       0.076033756 0.13725615 0.096079975 0.015496341
000260 1c 2e f9 3c 7d 2e e1 3d fd 1f 0e be 56 e6 a0 bc
       0.030417494 0.10995195 -0.1387939 -0.019641083
000270 15 60 8c 3d 2b d9 dd be 7c 22 e0 bc 1b 85 f5 bc
       0.06854264 -0.4332975 -0.027360193 -0.029970696
000280 10 98 95 bd e8 4b 7f be 88 f1 d7 3d 9a 39 60 3b
       -0.07304394 -0.249313 0.10544115 0.003421402
000290 88 1e 9a 3d f5 fd 2b bd 99 aa 86 be e9 a6 d7 bd
       0.075253546 -0.04199024 -0.2630203 -0.105298825
0002a0 59 05 02 be 0f 05 db bc 33 e5 30 3d 3f 51 0e 3e
       -0.12697352 -0.02673581 0.04318733 0.1389818
0002b0 e8 ae 88 be 76 46 85 be ec 56 9a 3d 5a 5c 49 bd
       -0.26695943 -0.2603032 0.0753611 -0.04916034
0002c0 16 f8 27 3d eb aa 00 be 37 99 f8 bb e7 ee d3 bd
       0.041008078 -0.125652 -0.007586624 -0.103483014
0002d0 c8 0f f5 3c 8b 7b 43 bd cb d5 14 bf ab 8c a8 bc
       0.029914752 -0.04772524 -0.5813872 -0.020574888
0002e0 c3 2a 5a be f2 a2 57 3d aa 40 fa 3d 0e 30 f8 bd
       -0.21305375 0.05264563 0.12219365 -0.12118541
0002f0 d0 34 a6 3d 56 90 39 be a8 c3 59 3e 56 cf ba bd
       0.08115542 -0.18121466 0.21266043 -0.091215774
000300 6d 5d 14 3e b7 7d e4 bd c0 7f d8 be dd 3f 25 be
       0.14488764 -0.11156791 -0.42284966 -0.16137643
000310 a5 36 0c be 72 c9 39 bd 7f b8 68 bc 65 e3 f7 3d
       -0.1369272 -0.04535813 -0.014204144 0.12103919
000320 bc 8b 89 3c 90 df 12 bd e7 a5 9d 3b 4e f8 5a 3d
       0.016790263 -0.035857737 0.004811037 0.053459458
000330 8b 20 a4 bd 96 e4 f0 bd 16 96 6e 3d 58 0a 18 3e
       -0.080140196 -0.11762349 0.0582486 0.14847696
000340 68 72 d1 bd 28 76 0a be 7a c9 ab be 9f 0a ab bd
       -0.102268994 -0.13521636 -0.33552152 -0.08351635
000350 1c 50 50 be e0 cd 0e 3e f5 f9 0c be c3 8d 10 bd
       -0.2034306 0.13945723 -0.13767226 -0.035291445
000360 87 e8 0b 3e 94 47 0c be 82 b3 45 be 0c 2a cb be
       0.13662921 -0.1369918 -0.19306758 -0.39680517
000370 90 4e 5f 3d d5 94 cb bd 4a 7a bc 3d 47 27 d7 3d
       0.054518282 -0.09940497 0.09203012 0.105055384
000380 ff 2d 06 3e 91 8b 30 be 46 8a f4 bd c5 b8 cd be
       0.13103484 -0.1724074 -0.11940436 -0.4018003
000390 c5 dd 20 be 01 e5 27 3e 2c e4 63 3d 1d f6 dc bd
       -0.15709598 0.16395952 0.055637524 -0.1078913
0003a0 54 72 b8 3b 3c 22 e2 bd 78 f5 80 3b e9 1a 34 be
       0.0056288633 -0.11041686 0.003935512 -0.1758839
0003b0 80 41 10 be ae 6c 43 3d 0e e7 09 3c ce bb 4e 3d
       -0.14087486 0.047711067 0.008416904 0.050472073
0003c0 26 f9 86 be e8 0e 9b be 15 02 08 bd 6c d9 34 bd
       -0.2636196 -0.3028481 -0.03320511 -0.044152662
0003d0 7e 26 08 3e 4e e7 9b be 90 5f 49 3d 45 22 31 bd
       0.13295934 -0.3044991 0.0491634 -0.043245573
0003e0 33 03 87 3d 0c c6 df bd 2e ab a6 3d 47 b8 1c bc
       0.06592407 -0.10926446 0.08138119 -0.0095654195
0003f0 50 fc 80 be 92 1f 04 be 1a 8a fa 3d ed 11 ea bd
       -0.251925 -0.12902668 0.12233372 -0.114292

hidden_nets.1.bias f4 [128]
000000 9b ab 8b bd 20 22 08 3e d6 bb 9c 3d 1f ee 0f 3e
       -0.068198405 0.13294268 0.07653014 0.1405568
000010 a4 82 93 3d 8c ad b7 3d 12 72 1f 3d d2 91 06 3d
       0.07202652 0.08968648 0.038927145 0.03285391
000020 3c 10 ae 3d 36 81 be 3d c1 a9 d7 3d c9 20 91 3d
       0.0849919 0.09301989 0.10530425 0.070863314
000030 d6 38 ba 3d 73 d7 1c bc 59 cf f1 3d 7b 8d 03 3e
       0.09092872 -0.0095728515 0.118071266 0.1284694
000040 0e 1e 71 bd 72 f2 81 3d 0d b3 8e 3d a2 42 ff 3d
       -0.058866553 0.06345071 0.06967745 0.12463881
000050 89 c6 dc 3d fb 22 89 3d 80 b5 d0 3d 57 8d 02 3e
       0.10780055 0.06696125 0.101908684 0.1274923
000060 7a 4c d3 3d 7a 3d 84 bd 39 1c 78 3d 8d 82 14 3c
       0.10317321 -0.06457038 0.06057379 0.009064329
000070 42 d8 9c 3d ce 74 84 3d bb 05 59 3d 55 39 12 3d
       0.076584354 0.06467591 0.05298398 0.035699207
000080 8d d6 e6 3d e4 5d bb 3d 4f b9 d2 3d 70 ec c1 3d
       0.11271391 0.091487676 0.10289251 0.09468925
000090 12 4c f5 3c fa f1 06 3e 05 19 bd 3d ba 38 d2 3d
       0.0299435 0.13178244 0.09233288 0.10264726
0000a0 83 35 bf 3d 59 c2 9b 3d 5a 0b d8 3d d3 0c a7 3d
       0.093363784 0.07605428 0.1054904 0.08156743
0000b0 19 33 09 3e 32 ff 2d bd 6f 7d c8 3d 7b a0 d1 3d
       0.13398398 -0.0424797 0.097895496 0.10235687
0000c0 29 46 b1 3d 1a 21 bb 3c 5f 55 68 bd 21 d2 02 3e
       0.0865596 0.022842932 -0.05672204 0.1277547
0000d0 35 8e f3 3d 1c 7e c4 3d 8d 74 d9 3c 8c 68 2d 3d
       0.11892358 0.09594366 0.026544834 0.04233603
0000e0 63 e5 75 3d 4c 95 a8 3d 2e f7 a7 3d c3 54 a5 3d
       0.060033213 0.08231601 0.08201443 0.08072808
0000f0 10 f0 90 3d 88 24 a6 3d d4 6b be 3d e2 fb b9 3d
       0.07077038 0.081124365 0.0929791 0.09081246
000100 3f a1 1d bd 36 7c cd 3d cd 90 a0 3d c9 23 c8 3d
       -0.038483854 0.10033457 0.078401186 0.097724505
000110 ce 92 0b 3d 77 1d 04 3e cd 2b f9 3d 7f c9 db 3c
       0.03407555 0.12901865 0.121665575 0.02682948
000120 af 54 a1 3d 66 89 a8 3d b6 f6 04 3e 6c 66 bd bd
       0.0787748 0.08229332 0.12984738 -0.09248051
000130 24 f2 f9 3d 41 e8 90 3d 0c b1 4a 3d 27 8c b9 bd
       0.12204388 0.07075549 0.04948525 -0.09059935
000140 b3 46 dc 3d ac 91 9d 3d 34 5c ce 3d f8 f7 b4 bc
       0.10755672 0.076938 0.1007618 -0.022090897
000150 a8 7a 84 3d af 82 aa 3d b1 c1 cd 3d c4 57 64 3d
       0.06468707 0.08325707 0.10046709 0.055747762
000160 56 12 82 3d de 38 6b 3d 86 12 f0 3d a3 4a b1 3d
       0.063511536 0.05742728 0.11722283 0.08656814
000170 91 28 96 3d 3e 56 bf 3d b0 68 e1 3d 37 cb 2b 3d
       0.07331956 0.09342621 0.11006296 0.041941848
000180 0a 93 9d bd ee 92 3f 3d 43 5d 04 3d 89 27 82 3d
       -0.07694061 0.046770982 0.032315504 0.06355197
000190 d0 67 fc 3d 69 2e c0 3d 1e 43 ce 3d d4 b1 9a 3d
       0.12324488 0.09383852 0.10071395 0.07553449
0001a0 9a 8d a0 3d ba eb a5 3d 6f 8a 1e 3e d6 2c 9b 3d
       0.07839508 0.08101602 0.15482496 0.07576911
0001b0 cc 8a b8 bd 64 50 73 3d cb 67 9b 3d 03 a6 32 3d
       -0.090108484 0.05940284 0.07588156 0.043615352
0001c0 b6 d8 5b bd 51 f7 85 bd ca b9 a6 3d ae f2 0c be
       -0.05367347 -0.065413125 0.08140905 -0.1376445
0001d0 d9 76 bc 3d 9e 37 ab 3d 73 05 6a 3d 2c 3e c1 3d
       0.09202356 0.083602175 0.057134103 0.094356865
0001e0 24 3b 86 3d c1 af 0c 3e f7 d3 6d bd f6 10 cd 3d
       0.06554249 0.1373892 -0.058063474 0.10013001
0001f0 60 d2 bf 3d be da a3 3d ca 22 a6 3d cb 3f ae 3d
       0.09366298 0.08000706 0.08112104 0.08508261

hidden_nets.2.weight f4 [64, 128]
000000 b2 b7 17 3c 35 cf 95 3d 59 b8 00 be 3b 8d aa bd
       0.009260105 0.07314912 -0.12570323 -0.08327719
000010 ee 88 9a bc 5c bc 41 be b0 f4 56 be 0e 16 97 3d
       -0.018864121 -0.1891951 -0.20991778 0.073772535
000020 29 4d 54 be e8 81 da bd d7 0e 91 3d d9 96 0a bd
       -0.2073256 -0.10669309 0.070829086 -0.033835266
000030 85 00 16 3d 87 67 58 bc 6b 7d e1 bd 85 70 fe bc
       0.03662159 -0.013208277 -0.1101025 -0.031059513
000040 1a 12 fb bd f8 bd 92 bb 00 67 f7 bd 1b 86 8f 3d
       -0.12259312 -0.0044782124 -0.120801926 0.070080005
000050 98 93 4c bd 35 9d 86 bd 8c 42 ce 3c 56 1b c5 bc
       -0.049945444 -0.065729536 0.025178216 -0.024060886
000060 a2 42 07 be 51 31 35 3e b7 20 b3 bc 6c 66 61 3d
       -0.13209012 0.17694594 -0.021866186 0.055029318
000070 ec 69 8d be e5 d6 c5 3b 67 d3 54 3d de d5 81 be
       -0.27619874 0.0060375803 0.05195942 -0.2535848
000080 c1 9f ec 3c 0d 3d db 3c 9e d8 64 bd a4 fb fd 3c
       0.02888477 0.02676251 -0.055870645 0.03100378
000090 04 2b c8 bd 1c 1c d2 bd 85 d6 86 be 2e a5 48 be
       -0.097738296 -0.10259268 -0.2633554 -0.19594261
0000a0 6a 3a 30 3d 87 79 19 3e 7e fe 6c 3d 8c d2 93 be
       0.043024458 0.14987765 0.05785989 -0.28871572
0000b0 81 45 20 3e 07 47 d4 bc 89 97 ae bd fa 33 8d be
       0.15651514 -0.025912775 -0.08524997 -0.27578717
0000c0 28 9f 09 be e5 f1 81 3c a1 a9 1f be ed 9c d5 bc
       -0.1343962 0.015862415 -0.15592052 -0.026075805
0000d0 d3 89 46 3e e7 e7 ff 3d fa 95 87 3c 85 48 ee bd
       0.19388513 0.12495404 0.016551007 -0.11634926
0000e0 56 a6 f6 3c a2 4d 6c be 27 f7 3d be 27 84 2b be
       0.030108612 -0.2307649 -0.18551312 -0.16749631
0000f0 1d d1 17 3d 4f 18 b8 bd 2a e4 3c bc 1d 4e 89 bb
       0.03706466 -0.089890115 -0.011529008 -0.00419022
000100 ac e3 cb bc 6e 56 db 3d af 92 06 be 31 30 f6 3d
       -0.024888836 0.107098445 -0.13141893 0.120209105
000110 6f 5c 1e be c8 0e b6 bc 5b 27 43 be 04 f2 3e be
       -0.15464948 -0.022223845 -0.19057982 -0.18647009
000120 0c 51 e4 bd 2e 20 36 3e b8 b3 84 bc aa 8e 89 3d
       -0.11148271 0.17785713 -0.016198978 0.06716664
000130 3e 09 bf 3c 33 46 7b 3d a4 62 a5 3d c2 2b f8 3d
       0.023319837 0.061346244 0.08075455 0.12117721
000140 a0 3c f2 bd 3a 80 35 be f5 26 7e bc 67 36 b2 bd
       -0.118279696 -0.17724696 -0.015512218 -0.08701783
000150 6b 81 57 be ca e5 c1 3c bf a0 37 be f6 e8 1f 3c
       -0.21045463 0.023669142 -0.17932414 0.009760132
000160 ca 45 b0 3d d2 8c 8a be 63 4b 93 bc 08 cb ce bd
       0.08607061 -0.27060562 -0.017980283 -0.10097319
000170 ce 6b 83 be 47 3d 18 be a7 e7 2e be df 59 1b be
       -0.25668186 -0.14867125 -0.17080556 -0.15171002
000180 a4 0b 6b bc 38 72 45 be 81 76 18 3d ee c2 68 be
       -0.014346037 -0.19281852 0.03722239 -0.2273061
000190 6c 59 1f bd c6 c4 9d be fd 18 d2 bc ad 0c 3e 3b
       -0.03890364 -0.3081419 -0.025646681 0.0028999255
0001a0 56 00 3a 3e dc 43 f7 bc f6 e6 88 bd c0 f6 20 bd
       0.1816419 -0.030183725 -0.06684677 -0.03929782
0001b0 38 87 2d 3e f6 75 a5 bd b0 fb 96 be 76 75 c2 bd
       0.16946113 -0.0807914 -0.29488897 -0.0949506
0001c0 09 98 3f 3e e5 42 67 3e 18 c6 94 be 1c 10 13 bd
       0.1871034 0.22584112 -0.29057384 -0.035904035
0001d0 fb 16 83 be 7a 04 02 be 59 40 a1 be 9a 27 71 bd
       -0.2560347 -0.1269702 -0.31494406 -0.058875658
0001e0 1e 04 8a be 3c 2e 62 bc 7e 0b 87 3c 82 70 cb 3c
       -0.26956266 -0.013804968 0.016484972 0.024833921
0001f0 58 73 9e 3e 0f 87 48 be 10 13 e2 bc bb b7 9b bd
       0.30947375 -0.19582771 -0.02759698 -0.07603403
000200 55 fd 1a be e9 19 94 3d 9d aa a2 3c 23 20 06 bd
       -0.15135701 0.072315045 0.019856745 -0.03274549
000210 f5 f8 88 bd df f3 c9 ba a9 40 88 bb eb 22 16 be
       -0.0668811 -0.0015407762 -0.0041580987 -0.14661758
000220 fe e4 07 3d 1e 15 23 be 26 e1 cc 3c 82 d2 f1 bd
       0.03317737 -0.15926024 0.025009703 -0.11807729
000230 f5 17 0f bd 6f f6 a3 bd 29 bb 45 bd 35 30 34 3d
       -0.034934957 -0.08005988 -0.048274193 0.043991286
000240 c9 70 bd bd ba f2 ce bd aa fc d1 3d 5d a4 c7 3d
       -0.09250028 -0.1010489 0.1025327 0.09748147
000250 90 8e 86 bd 84 d8 12 be 74 5c b6 bd 96 4a 56 be
       -0.065701604 -0.14340407 -0.08904353 -0.2092689
000260 d4 f5 1a 3e 5f 84 d4 3d 6b f7 21 be 66 8a 21 be
       0.15132838 0.1037681 -0.15817039 -0.15775451
000270 23 52 eb 3c e0 c7 4b bc 76 06 06 3e ce 04 84 bb
       0.02872569 -0.012437791 0.13088402 -0.004028893
000280 b2 58 06 3e 22 b2 9f bc 14 03 ab ba 0f bf 97 3d
       0.13119772 -0.01949412 -0.0013047182 0.074094884
000290 e4 7f a8 3d 90 7f 3b be 56 62 72 bc cb d7 2f 3c
       0.08227518 -0.1831038 -0.014793953 0.010732601
0002a0 2e c1 a5 3c 0f de cb bd cd eb 5e bd de 24 30 be
       0.020233717 -0.09954464 -0.054424096 -0.17201564
0002b0 2f 11 33 be 07 3e 83 3d 85 16 92 3d 06 a3 47 be
       -0.17487024 0.06408315 0.071332015 -0.19495782
0002c0 9d c7 c8 bc ed d1 49 bd 95 b9 cd 3d 3f b6 16 bc
       -0.024509246 -0.049272466 0.100451626 -0.009198724
0002d0 9a 05 27 be 17 73 4d bd 36 93 29 3e d5 bc 5a be
       -0.1631073 -0.050158586 0.16560063 -0.21361096
0002e0 bb 78 c0 bd b7 17 f8 3d 32 45 19 be de e7 e7 3c
       -0.093980275 0.12113898 -0.14967802 0.028308805
0002f0 cc 09 99 bd 24 47 c9 3d 31 1c 1f be 52 1c fe bc
       -0.07472572 0.09828022 -0.15538098 -0.031019364
000300 59 98 2e 3d 5d 35 ac 3c df 49 bb bc 6f 13 6c bd
       0.04262576 0.02102154 -0.022862373 -0.05763572
000310 ed 95 41 3e 99 b3 e5 bd 1b f5 9a 3c 79 92 8d bd
       0.18904848 -0.11215896 0.018915704 -0.06912703
000320 ed 3b 04 be ae 85 8d bc 14 06 e4 bc d5 9a 0c be
       -0.12913485 -0.017275658 -0.02783493 -0.13730939
000330 51 c4 44 3e fe 38 6e 3d 87 2f 1a be 28 4b d8 3c
       0.19215514 0.05815982 -0.15057193 0.026403025
000340 47 98 a1 bd f5 e3 b1 3b f9 3d 1b be 18 0b 89 bd
       -0.07890373 0.005428786 -0.1516036 -0.06691569
000350 2c af 98 bd eb d4 c7 bd d1 0f 18 bd b4 b0 ef bd
       -0.074552864 -0.09757408 -0.03712446 -0.11703625
000360 84 49 e4 3d 22 94 99 3d 56 2d 33 bd 71 e5 9f bd
       0.111468345 0.07498957 -0.043744408 -0.07807434
000370 47 cc 3c 3c 15 17 23 3e 39 cb 1e be d7 5e f4 bd
       0.011523313 0.15926774 -0.15507211 -0.11932152
000380 c8 fa b9 bb f2 5c a3 bc 89 f4 3f be 05 f4 3e bd
       -0.0056756474 -0.01994178 -0.18745627 -0.046619434
000390 65 88 f6 bc 98 67 1e be d6 4f 90 3d ca 87 02 3b
       -0.030094335 -0.15469205 0.070464775 0.0019917362
0003a0 fb af 10 be 43 b1 e1 3d 21 0e 38 3e ba 25 3c be
       -0.14129631 0.11020138 0.1797414 -0.18373767
0003b0 97 71 aa bb 09 e1 15 3d 2c f5 42 3d 0e d8 08 be
       -0.0052015292 0.036591563 0.047597095 -0.13363668
0003c0 2a 0c e6 3a 90 dd e9 bd b9 54 a2 bb d2 ac 3b 3b
       0.0017551233 -0.11419213 -0.0049539474 0.0028636944
0003d0 70 0b da bd 3f 47 42 be 11 51 11 bb 94 e8 ad 3c
       -0.10646713 -0.1897249 -0.0022173563 0.021229066
0003e0 19 de 5a be e0 8d f4 3d 6f 92 f4 bd 52 22 fb bd
       -0.21373786 0.11941123 -0.119419925 -0.122624055
0003f0 6f 07 38 be 05 77 ef bd 5a 45 dd bd 1a 31 0e be
       -0.17971586 -0.11692623 -0.108042434 -0.13885918

hidden_nets.2.bias f4 [64]
000000 65 3d 3e bd 60 2a 98 bd 42 1c 85 3f 31 75 6f 3f
       -0.04644527 -0.074299574 1.0399249 0.93538195
000010 46 dc 7f 3f 27 f0 66 3f 15 92 ac 3e 22 89 6e 3f
       0.99945486 0.90210193 0.33705202 0.93178
000020 73 56 87 bd f3 85 70 3f 21 d0 39 3f d5 06 70 3f
       -0.06608286 0.9395439 0.72583205 0.93760425
000030 1d 9d 0d 3f cf 7a c3 3e 1d 37 f4 3e 13 fe 6c 3f
       0.5531786 0.38179633 0.47698298 0.92575186
000040 8e 86 46 3f 1e 12 7c 3f 11 f6 54 3f e0 f0 4d 3f
       0.77549064 0.98465145 0.8318797 0.8044567
000050 7f ef 86 bd 04 56 b8 3c 7d f0 6b 3f 4e 57 86 bd
       -0.06588649 0.022501953 0.9216383 -0.06559621
000060 db 68 4d 3f f9 2c 71 3f 5b 94 71 3f 09 22 79 3f
       0.8023812 0.9420925 0.94367 0.9731756
000070 1f db 7c 3f 7a 9a 8f bd 42 19 77 3f 10 9f 6c 3f
       0.9877185 -0.07011886 0.96522915 0.9243021
000080 b1 0d 7e 3f 02 a1 50 bc d9 89 6d 3f 62 da 6f 3f
       0.9923964 -0.0127337 0.92788464 0.936926
000090 79 fb 84 3f 07 cc 71 3f e9 7e c0 bd a0 43 67 3f
       1.0389243 0.94451946 -0.09399206 0.9033756
0000a0 73 9d 61 3f 44 ab 6c 3f 5e 45 78 bd 81 c2 6e 3f
       0.88130873 0.9244883 -0.06061303 0.9326554
0000b0 80 28 77 3f 96 82 7f bd 70 1b 3e bd 37 0f 73 3f
       0.96546173 -0.062380396 -0.046412885 0.9494509
0000c0 68 06 68 3f 56 ae 70 3f c8 bf 73 3f e4 f7 74 3f
       0.90634775 0.94016016 0.9521451 0.9569075
0000d0 00 16 7d 3f 87 7d 18 bd 68 98 7b 3f 9b a2 76 3f
       0.98861694 -0.037229087 0.9827943 0.96341866
0000e0 45 b9 73 3f db b5 98 bd 62 aa 6d 3f 24 99 59 bd
       0.95204574 -0.07456561 0.9283811 -0.053124562
0000f0 95 01 3e 3f b4 47 7b 3f 6f 2a 5a 3f 9d 21 3c 3f
       0.74221164 0.98156285 0.85221 0.7348879

value_stream.weight f4 [1, 64]
000000 7b 3a c8 be ad 52 33 be de 81 0e 3f 8d 62 26 3f
       -0.39107117 -0.17512007 0.5566691 0.64994127
000010 03 1c 16 3f 25 f7 42 3f 39 41 02 3f 43 27 55 3f
       0.5863649 0.7615836 0.5088077 0.83263034
000020 3e ac ad bd 20 3e 3e 3f 4a 74 2c 3f 81 9a 54 3f
       -0.08480118 0.74313545 0.67364943 0.83048254
000030 6a cb 1b 3f fc 67 10 3f 6c b3 23 3f 58 c9 3e 3f
       0.6085726 0.5640867 0.6394565 0.74525976
000040 c4 c8 12 3f 68 c5 25 3f 3c 5a 0e 3f ad 16 20 3f
       0.57337594 0.64754343 0.55606437 0.625346
000050 cf 23 bb bd 3f 7c 97 be 26 6b 4b 3f 96 d4 16 be
       -0.09137689 -0.2958698 0.7946037 -0.14729533
000060 b7 40 28 3f b5 c7 4a 3f d7 7e 38 3f 9a 43 46 3f
       0.65723747 0.7921098 0.7206854 0.774469
000070 20 78 2b 3f 64 86 8c be 40 6d 21 3f 13 f3 2b 3f
       0.6698017 -0.27446282 0.6305733 0.67167777
000080 b0 fd 22 3f 7a 0e 68 be 1b 33 4f 3f e0 de 2c 3f
       0.63668346 -0.22661772 0.80937356 0.6752758
000090 8b 5f 10 3f 5c 18 32 3f 1a 85 89 be b2 53 4f 3f
       0.56395787 0.6956842 -0.2685936 0.80987084
0000a0 7c 0c 0b 3f 3a 07 47 3f 72 1c e3 bd eb 3a 46 3f
       0.54315925 0.777454 -0.1108941 0.7743365
0000b0 8a e7 35 3f 1b af 65 be fb 3a b3 be 3c 89 3c 3f
       0.71056426 -0.22430079 -0.35005936 0.73646903
0000c0 99 9b 27 3f d7 c5 2a 3f 38 d9 1f 3f 44 af 23 3f
       0.654718 0.6670813 0.62440825 0.6393931
0000d0 d7 fd 29 3f a6 ca 2b be a1 5c 12 3f e4 aa 1b 3f
       0.66402954 -0.16776523 0.5717259 0.60807633
0000e0 54 24 2b 3f f1 b7 a0 be e9 65 18 3f f0 e6 33 be
       0.6685231 -0.31390336 0.595305 -0.17568564
0000f0 8a 93 03 3f da f6 55 3f f1 a6 33 3f 1c 7e 11 3f
       0.51397 0.8357979 0.7017661 0.5683305

advantage_stream.weight f4 [5, 64]
000000 77 a1 1b 3e 7f 73 b8 bd 08 e7 74 3d a9 42 07 bd
       0.15198313 -0.09006404 0.05979064 -0.033022556
000010 e6 e7 b0 3d 9f 4d 85 bc 28 09 f5 be d8 ef 89 bb
       0.08637981 -0.016272364 -0.47858548 -0.0042095
000020 62 99 d1 3d 97 42 21 3e ff 5b ac bd 60 f5 0e 3e
       0.102343336 0.15748058 -0.08415984 0.1396079
000030 d0 cd 19 bd eb 32 14 bd 7a 83 b9 3d 80 e6 21 b6
       -0.037549794 -0.03618137 0.0905828 -2.4125038e-06
000040 3f 87 03 3e db f9 92 bd 87 0f 08 3e c7 a1 bb bb
       0.12844561 -0.071765624 0.13287173 -0.0057260725
000050 30 6a b4 3d be 1a b9 3e 35 b2 dd bb eb 26 57 be
       0.08809316 0.36153215 -0.0067656287 -0.2101094
000060 f1 79 0d 3e b6 26 c4 bb 98 4e c8 3d 44 53 aa 3c
       0.13816048 -0.00598606 0.097806156 0.020791657
000070 5b d7 4f b9 64 00 11 3e 4b bc 90 bd aa ef 34 3d
       -0.00019821285 0.14160305 -0.07067164 0.044173874
000080 0d fb 95 bc ab 7e 3f 3e e7 82 17 3d 4b 40 03 3e
       -0.018308187 0.18700664 0.036990073 0.12817495
000090 19 a7 a6 3d 4a 1f 0c 3e 8b ae e8 bd c0 30 de 3d
       0.0813734 0.13683811 -0.113614164 0.10849142
0000a0 be 4f c9 3c 6f 98 17 3e 19 8b 28 be 3a 9a 3c 3e
       0.024574157 0.14804243 -0.16459312 0.18418208
0000b0 63 52 bf 3d 7e 99 9a 3e d5 27 88 3e 98 ed de 3d
       0.09341886 0.3019523 0.2659289 0.10885161
0000c0 0f 59 f2 3c f0 10 17 bb bc da 6f 3d 9e 44 b7 bc
       0.029583482 -0.0023050867 0.05855821 -0.022371586
0000d0 b6 99 f1 3c c7 29 fa 3d 8e 54 95 bc c3 f8 ba 3c
       0.02949224 0.12215 -0.018228795 0.022823697
0000e0 27 bd 41 bc c6 85 12 3e 01 c9 25 bc 2e cb c7 bc
       -0.011824883 0.14308843 -0.010118724 -0.024388876
0000f0 2e d5 cb 3b c8 41 45 bd b2 c5 18 3d 5a 0f 5e 3d
       0.0062204814 -0.048158437 0.037297912 0.05421386
000100 c8 89 85 be f1 b5 d6 3c 1f a3 ef 3c 61 36 d9 bd
       -0.2608168 0.026209803 0.029252587 -0.10606075
000110 3b 1c 30 3d 41 3a 70 bd bb d0 63 be 13 42 90 bc
       0.042995673 -0.058649305 -0.22247593 -0.017609632
000120 9e 55 85 3e a0 b1 fe 3d 9d 9a 11 bd 1b f8 35 3d
       0.26041883 0.12436223 -0.03554784 0.044426065
000130 37 b0 4e 3c ad e5 10 3e 46 3c d4 bb 80 4f 01 bd
       0.012615255 0.14150114 -0.0064769117 -0.031569958
000140 1b 68 0e 3e da 47 ac bd 1f be 08 3e 20 6c b7 bc
       0.139069 -0.08412142 0.13353775 -0.022390425
000150 16 87 3f 3d 89 95 a5 3d 97 ba a3 bd ce 7d 52 bd
       0.046759687 0.08085162 -0.079945736 -0.051389508
000160 bb 23 47 3d 1a 6b 83 3a 5f 12 c5 3d e6 d0 9a bd
       0.04861806 0.0010026426 0.09622645 -0.075593755
000170 f2 4b ed bc 2c b3 32 be bc 30 21 be 50 f3 d0 3c
       -0.028966878 -0.17451161 -0.15741247 0.025506645
000180 e1 8d c9 bc e9 2c dd 3d 7b 34 55 3b 35 7d ae 3d
       -0.024603786 0.107995816 0.0032532502 0.08519975
000190 76 15 8a 3d ba a6 d6 3d 93 c4 dd bd d5 cd 46 3d
       0.067423746 0.10481019 -0.10828509 0.04853614
0001a0 4c 41 cb 3b fa 24 16 3e 10 2d 95 3d a2 a8 f7 3d
       0.0062028524 0.14662543 0.072839856 0.12092711
0001b0 38 c3 d1 3d 44 3d 88 be 83 3d 84 be 5b 58 a3 3d
       0.10242313 -0.26609242 -0.2582818 0.07975837
0001c0 83 9c 36 bd 7d 90 ee bc 60 10 5b 3d 74 0a 51 bd
       -0.044582855 -0.029121632 0.053482413 -0.05103536
0001d0 df e2 ea bc 82 08 c1 3c 90 fa 69 bd 73 2b 83 bc
       -0.028672634 0.023563627 -0.05712372 -0.01601193
0001e0 81 23 50 bd ab 29 d7 3d b8 2c 8e bc 14 07 c8 bb
       -0.05081511 0.105059944 -0.017355308 -0.0061043594
0001f0 66 7c 67 3c 8d af ad bd c4 2f 86 bb 35 45 09 3d
       0.01412878 -0.08480749 -0.0040950496 0.033513267
000200 8d c8 e7 bd 61 8a 72 be 87 8e 77 3d 3e d9 9d bd
       -0.11317549 -0.236856 0.06043866 -0.07707451
000210 c9 de a8 3d 63 52 97 bd f5 73 29 3d ac 98 ee 3c
       0.08245618 -0.07388761 0.04137035 0.029125534
000220 59 30 4a bd 66 bb c5 3d 48 db dc bc 8b 16 d4 3d
       -0.049362514 0.09654884 -0.02696003 0.10355862
000230 13 4a 18 bc 09 ae 03 3e 51 20 19 bc e5 3e 24 bd
       -0.009295004 0.12859358 -0.009346084 -0.040099043
000240 02 b2 af 3d d8 d7 c0 bd bf e2 d3 3d b8 3f 44 bc
       0.08578874 -0.09416169 0.10345983 -0.011978082
000250 7f 18 8f be 38 ed 95 bd 22 25 ad bd f8 c1 bc bc
       -0.27948377 -0.073206365 -0.08454348 -0.02304171
000260 1b c7 74 3d a4 5b c8 ba 54 7d b7 3d f2 8d d9 bc
       0.059760194 -0.00152861 0.08959451 -0.026556943
000270 0d 2c 28 bd 25 74 ae bd 5f 85 c5 bd c1 10 2f 3b
       -0.041057635 -0.085182466 -0.09644579 0.0026712867
000280 36 8f d9 bb d9 dd d2 3d 6f 97 98 3b 9e 26 cd 3d
       -0.0066393865 0.1029622 0.004656724 0.10017131
000290 d5 67 9b 3d a5 88 76 3d 8f 04 ed 3d 37 69 dc 3d
       0.07588164 0.060188908 0.11573135 0.10762256
0002a0 48 4f 73 3c be 0f 15 3e 17 d0 4b be 58 f0 13 3e
       0.014850445 0.14556786 -0.19903599 0.14447153
0002b0 8f 4e e2 3d b0 19 fc 3d d1 be 16 be b9 f7 9b 3d
       0.1105014 0.12309587 -0.14721228 0.07615609
0002c0 eb 45 f4 ba 4b 65 3f bc e1 7d 5c 3c a6 35 c0 bd
       -0.001863656 -0.011681865 0.013457746 -0.093852326
0002d0 60 e3 bc ba 43 cb 56 3e 4b ff f0 bc e5 0c 3d bc
       -0.0014411025 0.20975976 -0.029418608 -0.011538719
0002e0 0b a7 59 bc a9 43 ae 3d ec 18 f3 bc 4f 5c 71 bd
       -0.013284455 0.08508999 -0.02967497 -0.058925923
0002f0 36 cf 40 3c 63 dc 87 bd cb ea 8a 3d 5e c0 60 bc
       0.011768153 -0.06633832 0.067830645 -0.013717739
000300 1f e2 dd 3e 0e a3 ec 3d 00 9b 18 3d cc 70 05 be
       0.4333658 0.11554538 0.037257195 -0.1303131
000310 dd 3c 31 3d e7 ce 5a bd 20 a9 c1 bd 29 ed 42 bd
       0.043270934 -0.053419974 -0.09456086 -0.047589455
000320 03 6e e2 bd 24 6d ca 3d 00 c7 d2 bd 5d a0 2b 3d
       -0.11056139 0.09884098 -0.102918625 0.04190098
000330 cd cd 45 3d e7 74 48 3e 51 5a cb 3d 38 0f 90 bd
       0.04829197 0.19575845 0.09929336 -0.07034153
000340 3a 42 ff 3d 8e 7d f3 bd 85 3c 02 3e 65 c8 1d bd
       0.124638036 -0.11889182 0.12718399 -0.03852119
000350 79 39 8b bd e1 17 18 be 4f 0e dc bd 91 74 48 3e
       -0.067980714 -0.14852859 -0.10744917 0.19575717
000360 f1 30 09 3d 94 f0 65 3b 80 60 3a 3c 39 ca 4b bd
       0.03349394 0.0035086023 0.011375546 -0.0497534
000370 63 d7 45 bd 6a 96 f1 3e f3 0a 11 be 6b c3 94 3c
       -0.048301112 0.4718507 -0.14164333 0.018159589
000380 d8 ff 31 bd 5d ac f7 3d 44 3a 62 bd a0 0f a5 3d
       -0.043456882 0.120934226 -0.055231348 0.08059621
000390 97 fe 5f 3d 56 28 f1 3d 07 0c 19 be 7f c3 fa 3c
       0.054686155 0.117752716 -0.14945994 0.030610798
0003a0 fe 6b e8 3b 18 ea e7 3d 98 61 1e be 73 22 e4 3d
       0.007092952 0.11323947 -0.15466917 0.11139383
0003b0 85 9d 7c 3d 5e 34 6a be a2 4b 39 bc a8 85 9b 3d
       0.06167366 -0.22871539 -0.011309536 0.07593852
0003c0 78 96 13 bd ff c0 d5 bc 6e 9d 8a 3c 96 45 83 bd
       -0.03603217 -0.026093004 0.016920771 -0.06409757
0003d0 c6 19 eb bc bc 15 44 be e9 3c 00 bd 76 27 97 bc
       -0.028698813 -0.19148916 -0.03130809 -0.018451434
0003e0 6e bb 81 bd 87 9e 03 3d 93 7a c0 bc db 64 93 3e
       -0.063345775 0.032133605 -0.023495948 0.28787884
0003f0 b0 f1 a1 3c 04 f8 f7 bd 26 61 ec bc 83 a9 6b 3d
       0.019768566 -0.12107852 -0.028854918 0.057534706

advantage_stream.bias f4 [5]
000000 3b cf 44 bf 58 55 9e 3e 7c dd 7e be aa 9a 19 3f
       -0.7687871 0.30924487 -0.24889177 0.60001624
000010 cd 8a 00 be
       -0.12552948

hidden_nets.0.weight f4 [128, 11]
000000 83 0f b5 3d 3b 5c ce bc 8d fa 04 be 26 74 6a be
       0.08840849 -0.025190463 -0.12986203 -0.2289587
000010 fb 61 00 bd 6e 16 2f 3d d0 88 4f bb 71 da 9f bd
       -0.03134344 0.042746 -0.003166724 -0.07805336
000020 ea 00 e9 3d f3 3e ac bd 8d 07 91 bd c5 6f 90 3e
       0.113771275 -0.08410444 -0.07081518 0.28210273
000030 61 ba d8 3d 04 73 fa bc b6 d5 19 be e9 eb 88 3c
       0.10582424 -0.030572422 -0.1502293 0.016714053
000040 9b 90 81 3b 6e d1 c8 bd 80 b1 86 be 67 1c 34 be
       0.003954006 -0.098055705 -0.26307297 -0.1758896
000050 04 fd 82 bd ef 1e 9d bd 31 59 29 bd 90 dc 45 be
       -0.06395915 -0.07671916 -0.041344825 -0.19322419
000060 80 b5 4f be f4 42 00 3d 97 d2 19 3e ee 16 cd bd
       -0.2028408 0.03131385 0.1502174 -0.10014139
000070 ae f8 11 3d 29 b8 46 3d c3 b1 08 be 2a f1 36 bd
       0.03563755 0.048515473 -0.1334906 -0.044663586
000080 77 5b 04 3b 52 e2 7b bc 80 72 05 be 7c 37 61 bd
       0.002019612 -0.015373783 -0.1303196 -0.054984555
000090 87 da f3 bd 7a e4 b1 3d 0a 06 28 be 97 94 9c 3d
       -0.11906915 0.086861566 -0.16408554 0.07645529
0000a0 2c c7 d9 bd 11 8d 8e 3d fe 0f 41 3e f0 e5 ce 3c
       -0.10633692 0.069605 0.18853757 0.025256127
0000b0 4f 3b 69 3e 5f 63 8e 3d 2a 15 81 be 66 06 e2 3c
       0.2277653 0.06952547 -0.2521146 0.027590942
0000c0 a7 e6 89 be 3c ba c4 bd 6f 06 b7 3c 58 fa bc 3b
       -0.26933786 -0.09605834 0.022341935 0.005767148
0000d0 07 94 ea 3b 13 4c 01 be 6a d9 87 bd 02 07 46 3d
       0.0071587595 -0.12626676 -0.06633265 0.048346527
0000e0 89 63 63 be bb 94 63 be 55 dc 6c be 5f 92 94 3d
       -0.22205938 -0.22224705 -0.23130925 0.072544806
0000f0 b5 98 bb bd e3 bb e2 bd 8c 0c 07 be a6 1e dc 3d
       -0.09159986 -0.11070993 -0.1318838 0.10748033
000100 d3 47 1e be 21 e0 30 3e fa 35 54 be 02 31 bb 3d
       -0.15457086 0.17272998 -0.20723715 0.09140207
000110 15 74 92 be 2e 4f 96 3b 94 7a 49 be aa 6b c8 bc
       -0.2860419 0.0045870757 -0.19675666 -0.0244654
000120 81 c4 a1 bd f1 c4 c8 3d 03 a5 0d be c8 a3 bd 3d
       -0.07898808 0.098031886 -0.13832478 0.092597544
000130 7f 77 a0 bd 29 6b c2 bd 66 ee 0c bd dc 65 a0 bd
       -0.07835292 -0.094930954 -0.034407042 -0.07831928
000140 b9 c2 3a bd 43 3f a4 bd 2d 63 0a bd f4 c5 fb 3d
       -0.04559586 -0.08019879 -0.033785988 0.12293616
000150 d8 3a 03 bd 4d f7 09 3e c2 f1 8c bd 7c 68 51 3d
       -0.03203854 0.13473244 -0.06882049 0.051125035
000160 9b e2 21 3e 57 0e 48 bd f4 a6 3f be db 23 ad 3d
       0.158091 -0.0488418 -0.18716031 0.084541045
000170 0e 3c 68 3d 1c 71 f8 bd e3 8c ef bd 22 f0 1e be
       0.056697898 -0.12130949 -0.11696794 -0.15521291
000180 87 25 f4 bd b2 1e 4c be 17 86 96 3c 65 97 9a bd
       -0.1192122 -0.19933584 0.018374486 -0.075484075
000190 64 a7 a6 be 4c bb 0f 3e d4 71 ef bd 06 8b 4d 3e
       -0.32549584 0.14036292 -0.11691633 0.20072564
0001a0 79 d6 92 3d 87 55 ea bc aa 6e 3a 3a d4 d4 1e 3d
       0.07169814 -0.028605236 0.0007111827 0.038777187
0001b0 c7 28 4e bd 61 86 5b 3d e0 be ad 3c 1f 59 8a 3c
       -0.050331857 0.05359495 0.02120918 0.0168882
0001c0 47 52 1b be f5 07 76 be 46 ea 9c be 9f 62 a8 3d
       -0.15168105 -0.24026473 -0.30647486 0.082219355
0001d0 dd 2f b1 bd 52 cf ee 3d 52 a2 12 be 60 96 08 3e
       -0.08651707 0.11660637 -0.14319733 0.13338614
0001e0 5d a7 58 3e be 3a 5c be 98 cf f9 bd f3 64 5e 3e
       0.21157594 -0.21506783 -0.121977985 0.21718197
0001f0 3b 04 cd be 1c 3e 6e bd 24 39 a9 bc f2 54 2e be
       -0.4004229 -0.0581647 -0.02065713 -0.17024592
000200 2c 6b 2b be bf 14 81 3d 8c 5b 8a bc d2 1b 01 be
       -0.16740102 0.06302785 -0.016889356 -0.12608269
000210 a2 97 82 be f7 6c 7b bd 22 d8 47 3d 22 3c ef bd
       -0.25506312 -0.061383214 0.048790105 -0.11681391
000220 48 c0 c1 3c a6 fa ae 3d 83 f3 7b 3d 98 ee 72 bb
       0.023651257 0.08543901 0.061511528 -0.0037068482
000230 eb bf a1 3d d5 1d c3 b9 c2 fd 70 bd bc 4c 67 be
       0.078979336 -0.00037215525 -0.058835752 -0.22587866
000240 00 a7 57 be 9d 57 22 3e e7 97 1f 3e 22 cf da 3d
       -0.21059799 0.15853734 0.1558529 0.10684039
000250 23 1a 3e be 56 78 ef bd a4 64 85 be af 59 17 3e
       -0.18564658 -0.11692874 -0.26053345 0.14780305
000260 05 a1 69 bd 24 9d 12 3d e1 f1 89 3e c4 b0 3e be
       -0.057038326 0.035794392 0.2694235 -0.18622118
000270 78 2f 72 bd 8c 07 75 be 23 62 3b 3d 93 7b 8a 3c
       -0.0591273 -0.2392866 0.045747887 0.016904628
000280 1d 12 ea bd 77 92 04 be dc 68 04 be ff 4a 05 bd
       -0.11429236 -0.12946497 -0.12930626 -0.032542225
000290 ff d9 e9 bd 15 3c 1d bd 7d 3a 3f 3d 78 9b 08 be
       -0.114185326 -0.038387377 0.04668664 -0.13340557
0002a0 b8 e5 4c bd 42 0d 25 be cb 2e a5 bb 7e 73 5d 3d
       -0.050023764 -0.16118339 -0.0050409785 0.05406522
0002b0 07 a2 c5 bd 1b 6e fa 3d df e8 13 be 51 47 e9 3d
       -0.09650045 0.12228032 -0.14444302 0.11390556
0002c0 96 02 42 3d 06 b8 f5 bd 69 e4 20 3c 26 4e 38 3e
       0.047365747 -0.1199799 0.009820082 0.17998561
0002d0 4d b1 8f be 57 b2 36 bd fa 91 ca 3d ba f7 24 3e
       -0.28064957 -0.044603672 0.09891124 0.16110125
0002e0 4a d2 cf 3b 7c 61 13 3e 1c 04 98 3d fc e6 6a 3e
       0.006342207 0.14392656 0.07422659 0.22939676
0002f0 00 eb 87 bd 23 53 91 be 4d db c1 3d 2f c3 6d be
       -0.066366196 -0.2838374 0.094656564 -0.23218988
000300 88 db 1f be bc 7b 52 be a8 d7 03 be 35 c0 f5 bd
       -0.15611088 -0.20555013 -0.12875235 -0.11999551
000310 d2 9f b8 3d 54 cf 88 bd 89 46 0a bd 13 97 32 be
       0.09014858 -0.0668017 -0.033758674 -0.17440443
000320 aa 6b 72 bd a4 f1 93 bc 10 14 fb 3d 0f 4a 30 3d
       -0.059184708 -0.01805956 0.12259686 0.043039378
000330 56 80 f2 3b e7 d1 9f bc d1 5e 0e 3e f9 c1 6e 3d
       0.0074005527 -0.019509269 0.13903357 0.058290455
000340 5b 03 ff bc eb 12 4e 3e fb 3d 85 3c d2 8d e1 bd
       -0.03112953 0.20124404 0.016264906 -0.11013378
000350 d6 81 b3 be ce 6d 19 be e3 56 92 3d dc ec 8c 3d
       -0.35059994 -0.14983293 0.071454786 0.06881115
000360 3c 4e 35 be 93 3e 49 39 c4 f6 4b 3e a0 e6 b6 3d
       -0.17705625 0.00019192164 0.19918352 0.08930707
000370 2a ca 5a 3e ff bc 67 bd 3f 12 6c 3d 4f 67 1a 3c
       0.21366182 -0.056576725 0.05763459 0.009424045
000380 fa fe 8c 3d be 7d 21 be 0d 20 a1 3d 16 d2 90 be
       0.068845704 -0.15770623 0.07867441 -0.28285283
000390 d2 17 c2 3d 8b ff cf 3d 82 a9 98 3b 5a 49 59 3e
       0.094771996 0.10156163 0.004658879 0.21219388
0003a0 df f4 07 bd dc 34 69 bd 4f 06 ae bc d8 60 0f 3e
       -0.03319251 -0.056935176 -0.021243243 0.14001787
0003b0 4f 42 a3 bc 78 b8 cf bc bf 9c f6 bd d8 2d 33 be
       -0.01992908 -0.025356516 -0.12041616 -0.17497957
0003c0 f5 dc 31 bb 71 a6 5e bd 78 90 ab be 80 15 93 3d
       -0.0027139757 -0.05435795 -0.33508658 0.07181835
0003d0 6d 00 1e bd 47 04 0d 3e 13 fc 89 3c 75 4e 24 be
       -0.038574625 0.13771163 0.016843831 -0.16045554
0003e0 c2 95 99 bd b9 d4 94 3d 33 72 19 be eb d2 0f 3d
       -0.07499267 0.07267136 -0.1498497 0.035113256
0003f0 34 83 b6 3b 29 91 0f be c2 40 8a bd 7c d4 06 3e
       0.00556984 -0.14020218 -0.06750633 0.13166994

hidden_nets.0.bias f4 [128]
000000 5b ca 66 bd f8 77 c7 bd a5 25 10 be 8d 30 0b be
       -0.056345325 -0.09739679 -0.1407686 -0.1359274
000010 24 75 b3 3d ac 05 ca bd cb d1 d5 3d 55 f4 ec bc
       0.08762577 -0.09864363 0.104404055 -0.0289251
000020 25 18 b9 bd 85 c9 3c be 69 b5 29 3d 2d 44 c9 3c
       -0.09037808 -0.18436249 0.04143277 0.024568642
000030 89 fd 0f be 9f 24 ca bd 5d c1 f3 bd a5 c9 9d bb
       -0.1406156 -0.09870266 -0.119021155 -0.0048152977
000040 94 42 f1 b8 f2 e3 9b 3c 2d 99 0b be b2 f0 63 bd
       -0.00011504177 0.019029591 -0.1363265 -0.055649467
000050 ee 46 ba bd 4c e9 3c be f1 b2 cc bd 6a c1 1e be
       -0.0909556 -0.1844837 -0.09995068 -0.15503469
000060 f1 66 90 3c b3 38 80 bd 44 fc b1 bd 9c f0 0f be
       0.017627211 -0.062608145 -0.08690694 -0.14056629
000070 ef a9 51 3d 0d 3d 9d 3d f2 e4 f3 bd b4 8a c2 bc
       0.051187452 0.0767766 -0.11908902 -0.02374778
000080 25 78 2a bc 60 d5 d9 3d 84 6e 2f be 8a 96 45 bd
       -0.010404621 0.10636401 -0.17132002 -0.04823927
000090 42 b7 bd bd 9f f3 b3 bd 30 fb 44 3d 60 87 61 be
       -0.09263469 -0.087867014 0.048091114 -0.22024298
0000a0 23 5e 1f bd 97 4e 39 bd 9f 6a bb bc d5 3b 27 be
       -0.038908135 -0.045240965 -0.02287799 -0.16331418
0000b0 a4 1a 3f 3d 69 a7 2e bc a6 7c 5a be 8e ce e6 3c
       0.046656266 -0.010660031 -0.21336612 0.028174665
0000c0 d8 f4 06 3d 59 a1 12 be 22 6c 90 3d 42 e7 02 be
       0.032948345 -0.14319362 0.07051875 -0.1278353
0000d0 21 13 56 bd 0c b0 85 bd a3 71 14 ba 43 65 b3 bd
       -0.052264336 -0.06527719 -0.0005662685 -0.087595485
0000e0 18 d2 1c be 29 b5 0e be f9 61 5c bc b3 40 b8 3d
       -0.1531452 -0.13936295 -0.013451093 0.089967154
0000f0 22 f0 8a bd 18 35 20 be 81 21 f3 bd 58 1f 27 be
       -0.06784083 -0.15645254 -0.11871625 -0.1632055
000100 df 18 82 bc a5 65 dd bd 56 20 41 3d b5 24 06 be
       -0.015881 -0.10810403 0.04714998 -0.1309994
000110 e9 5c ad 3d 7e 67 22 ba 6a 17 15 3c 30 35 4c 3d
       0.08464987 -0.0006195231 0.009099821 0.04985541
000120 8f 55 06 bc 98 7f 13 3d 3b 7b dc bd f2 31 ac bc
       -0.00819911 0.036010355 -0.10765692 -0.02101991
000130 e7 fd 79 bd e9 76 a5 bd 00 00 00 00 ee ca 35 be
       -0.061033156 -0.08079321 0.0 -0.17753193
000140 50 b0 bf bd 1d d0 90 bd 86 69 25 3d 8b c3 f2 bd
       -0.09359801 -0.070709445 0.040383838 -0.11853703
000150 8e bd 9e bd 00 00 00 00 d7 4c ce bb cb f8 3a be
       -0.077509984 0.0 -0.006295781 -0.1825897
000160 fc bd eb bc 46 8c 2c bb ba 67 1a 3e 82 5b 87 3d
       -0.028777115 -0.0026328727 0.15078631 0.066092506
000170 61 73 07 be c9 9c d9 bd ab 51 0a 3d 83 fe e7 bd
       -0.13227607 -0.106256075 0.03376929 -0.11327841
000180 fc cf b4 3d d2 9c a5 bc 37 e2 fe bd b7 fd 55 bd
       0.08828732 -0.02021638 -0.12445491 -0.052243914
000190 39 af 2e bd 66 c4 47 bd 5e 44 18 bc 8f 44 15 bd
       -0.042647574 -0.048771285 -0.009293644 -0.036442336
0001a0 7d b0 5c 3d 12 e6 d4 3c 98 53 d6 bd 0d 81 46 3d
       0.05387925 0.025988612 -0.10465163 0.048462916
0001b0 3b 27 38 be c6 b2 d9 bd 52 c5 31 bd 9e 1c 46 be
       -0.17983715 -0.106298015 -0.04340107 -0.19346854
0001c0 16 6a 8a bb c3 aa e1 3d 51 f6 6c bd b9 5a 85 bc
       -0.004224072 0.11018898 -0.057852093 -0.016278611
0001d0 23 b5 09 be 12 25 7e bd 1b cf b2 bc 2c c3 15 be
       -0.13448004 -0.06204707 -0.021827271 -0.14625233
0001e0 48 0f 9e 3d 83 65 37 be b3 a1 38 bd fb 14 57 39
       0.077177584 -0.17909817 -0.045076083 0.00020511814
0001f0 c6 af 55 bd 5d 11 62 3d 45 c6 a7 3d 18 60 ff 3c
       -0.052169584 0.05519234 0.08192114 0.03117375
