hyperopt_results/models/explore_conservative_20250906_230524/dqn_racing_episode_300.pth (torch, 455445 bytes, 36 tensors)

hidden_nets.0.weight f4 [128, 11]
00000000: 830f b53d 3b5c cebc 8dfa 04be 2674 6abe
00000010: fb61 00bd 6e16 2f3d d088 4fbb 71da 9fbd
00000020: ea00 e93d f33e acbd 8d07 91bd 9b9d 9f3e
00000030: ae9e a83d d78b c63d 576a 70bc aafb 3cbc
00000040: 225c 463c 5f4a b7bd 8798 9fbe 671c 34be
00000050: 10f0 75bd b4f2 91bd fd67 40bd 1e83 4abe
00000060: f128 54be c520 063d 1bbf 133e f71e ccbd
00000070: 4e54 f33c a869 2e3d c3b1 08be 0a94 3fbd
00000080: 4d70 9e3c 52e2 7bbc 8072 05be 7c37 61bd
00000090: 87da f3bd 7ae4 b13d 0a06 28be 9794 9c3d
000000a0: 2cc7 d9bd 118d 8e3d fe0f 413e f0e5 ce3c
000000b0: 0742 833e dd5f 833d c5a9 b2be c889 843d
000000c0: 905e 9bbe 2188 97bd 5a9c d03b 31c9 1f3c
000000d0: 0794 ea3b 77c2 0f3c c3aa 483c 0207 463d
000000e0: 8963 63be bb94 63be 55dc 6cbe 5f92 943d
000000f0: b598 bbbd e3bb e2bd 8c0c 07be a61e dc3d
00000100: d347 1ebe 21e0 303e a6f8 7fbe c381 993d
00000110: 5b72 a1be ce01 ac3d 710f 7bbe aec2 1d3b
00000120: a3be c9bd 6acb a83d 03a5 0dbe 86c8 5a3d
00000130: 837e 813c 296b c2bd 66ee 0cbd dc65 a0bd
00000140: b9c2 3abd 433f a4bd 2d63 0abd f4c5 fb3d
00000150: d83a 03bd 4df7 093e c2f1 8cbd 7c68 513d
00000160: 9be2 213e 570e 48bd f4a6 3fbe db23 ad3d
00000170: 0e3c 683d 1c71 f8bd e38c efbd 22f0 1ebe
00000180: 8725 f4bd b21e 4cbe 1786 963c 1c73 26be
00000190: 9a48 b0be bfcc 023e 7eb2 43be a039 363e
000001a0: 0005 753d 345e 94bd f25d 89bc d4d4 1e3d
000001b0: c7a3 92bd 19e9 593c 622f 5f3d 3e1d 613c
000001c0: 2c69 06be 0f54 1ebe 57de bfbe c01e e83c
000001d0: c223 78bd dfaf e73d 52a2 12be c0e4 dd3d
000001e0: 2e6c 553e 87fc 57be 8d37 f5bd 2dd5 693e
000001f0: 2aff 8ebe d904 01be f606 b63d 3907 47be
00000200: 9e8b 2abe bf14 813d bf69 80bd 1f2c 14be
00000210: a297 82be f76c 7bbd 22d8 473d 223c efbd
00000220: 48c0 c13c a6fa ae3d 83f3 7b3d 98ee 72bb
00000230: ebbf a13d d51d c3b9 c2fd 70bd bc4c 67be
00000240: 00a7 57be 9d57 223e e797 1f3e 22cf da3d
00000250: 231a 3ebe 5678 efbd a464 85be af59 173e
00000260: 05a1 69bd 249d 123d edfa 813e 04e8 59be
00000270: 4652 3cbd 1791 88be 463d 643c 7d39 25bc
00000280: f8de c3bd 7532 1cbe dc68 04be 15e1 74bd
00000290: dea8 c6bd 153c 1dbd 7d3a 3f3d 789b 08be
000002a0: b8e5 4cbd 420d 25be cb2e a5bb 7e73 5d3d
000002b0: 07a2 c5bd 1b6e fa3d dfe8 13be 5147 e93d
000002c0: 533d 453c 5f9a fbbd f742 13bd a47d 5f3e
000002d0: 4a09 afbe 7c17 ccbc 2208 9f3d b09f 173e
000002e0: 4ad2 cf3b f7b9 813d 4d78 ab3d f627 723e
000002f0: 1c33 94bd 0ea9 86be dad8 503d b7a5 90be
00000300: 9cc4 3bbe 941d 53be e5fe 00be 35c0 f5bd
00000310: 7c0b f43d d7db 9bbd 8946 0abd 1397 32be
00000320: aa6b 72bd a4f1 93bc 1014 fb3d 0f4a 303d
00000330: 5680 f23b e7d1 9fbc d15e 0e3e f9c1 6e3d
00000340: 5b03 ffbc c1b6 473e 5578 193c a674 bcbd
00000350: e670 cabe 4d86 29be 966e 793d 16a1 d13d
00000360: 200b 38be 933e 4939 a53c 3c3e af07 fd3d
00000370: 9bbf 573e c989 b5bd e350 ff3d db9a 803c
00000380: 9407 1f3d 7194 8bbe a781 9b3d 7d5f a6be
00000390: d217 c23d 72bd f33d 4b26 e53c 9f40 703e
000003a0: 3dbe 28bd f24e 6bbd 522c afbb 6b5f 173e
000003b0: f0de 7f3b 00b7 81bd 2d03 07be d82d 33be
000003c0: d10f d3bc a8e1 bebd 9cbe e4be d7b4 ea3c
000003d0: 7279 ccbd 4375 c23d 1558 9ebc faf0 64be
000003e0: f80f 2abd 185a 1a3d 3372 19be 08ba 92bc
000003f0: 8781 b63c 2991 0fbe c240 8abd 7cd4 063e
0.08840849 -0.025190463 -0.12986203 -0.2289587 -0.03134344 0.042746 -0.003166724 -0.07805336
0.113771275 -0.08410444 -0.07081518 0.3117493 0.08233391 0.09694641 -0.014673791 -0.011534611
0.012106927 -0.08949732 -0.31171057 -0.1758896 -0.060043395 -0.0712637 -0.04697417 -0.1977658
-0.20718743 0.032746095 0.1442837 -0.099668436 0.029703286 0.04258123 -0.1334906 -0.04677204
0.019340659 -0.015373783 -0.1303196 -0.054984555 -0.11906915 0.086861566 -0.16408554 0.07645529
-0.10633692 0.069605 0.18853757 0.025256127 0.25636312 0.06414769 -0.3489515 0.06471592
-0.30345583 -0.073990114 0.006366295 0.009752558 0.0071587595 0.008774391 0.012247744 0.048346527
-0.22205938 -0.22224705 -0.23130925 0.072544806 -0.09159986 -0.11070993 -0.1318838 0.10748033
-0.15457086 0.17272998 -0.24997196 0.07495453 -0.3153256 0.08398782 -0.24517609 0.0024072337
-0.09850814 0.08241923 -0.13832478 0.05341389 0.015807396 -0.094930954 -0.034407042 -0.07831928
-0.04559586 -0.08019879 -0.033785988 0.12293616 -0.03203854 0.13473244 -0.06882049 0.051125035
0.158091 -0.0488418 -0.18716031 0.084541045 0.056697898 -0.12130949 -0.11696794 -0.15521291
-0.1192122 -0.19933584 0.018374486 -0.16254848 -0.3443039 0.12773417 -0.19111058 0.1779542
0.05981922 -0.0724453 -0.01676843 0.038777187 -0.07160144 0.013300204 0.054488547 0.013739882
-0.13126057 -0.15461753 -0.3747432 0.028334975 -0.060580976 0.113128416 -0.14319733 0.10834646
0.20842049 -0.21092425 -0.11973486 0.22835226 -0.2792905 -0.12599505 0.088880464 -0.19436349
-0.16654822 0.06302785 -0.062701695 -0.14469956 -0.25506312 -0.061383214 0.048790105 -0.11681391
0.023651257 0.08543901 0.061511528 -0.0037068482 0.078979336 -0.00037215525 -0.058835752 -0.22587866
-0.21059799 0.15853734 0.1558529 0.10684039 -0.18564658 -0.11692874 -0.26053345 0.14780305
-0.057038326 0.035794392 0.25386754 -0.21279913 -0.0459769 -0.26673195 0.013930624 -0.010084507
-0.09564012 -0.15253623 -0.12930626 -0.059784967 -0.097001776 -0.038387377 0.04668664 -0.13340557
-0.050023764 -0.16118339 -0.0050409785 0.05406522 -0.09650045 0.12228032 -0.14444302 0.11390556
0.012038547 -0.12285303 -0.035952535 0.21825272 -0.34186774 -0.024913542 0.07765223 0.1480701
0.006342207 0.06334298 0.08372555 0.23648056 -0.07236311 -0.26300853 0.050988056 -0.2825143
-0.1833672 -0.20616752 -0.12597235 -0.11999551 0.11916253 -0.076102905 -0.033758674 -0.17440443
-0.059184708 -0.01805956 0.12259686 0.043039378 0.0074005527 -0.019509269 0.13903357 0.058290455
-0.03112953 0.19503309 0.009367068 -0.092019364 -0.3953926 -0.16555138 0.06089648 0.10235803
-0.17972994 0.00019192164 0.18382509 0.12354981 0.21069185 -0.08864171 0.124666 0.01569884
0.038825586 -0.2726169 0.075930886 -0.32494727 0.094771996 0.11901368 0.027972361 0.23462151
-0.04119705 -0.057448335 -0.0053458596 0.14782493 0.0039042793 -0.063337326 -0.13184805 -0.17497957
-0.025764378 -0.09320384 -0.44676673 0.028650684 -0.09984101 0.09495022 -0.01932911 -0.2235755
-0.041519135 0.037683576 -0.1498497 -0.017910972 0.02227856 -0.14020218 -0.06750633 0.13166994

hidden_nets.0.bias f4 [128]
00000000: 5bca 66bd 988a 15be 4639 16be 8d30 0bbe
00000010: 859e bb3d ac05 cabd 3ed8 b53d 55f4 ecbc
00000020: 2518 b9bd 5caf 4ebe 8376 1b3d fe40 d03c
00000030: 89fd 0fbe 9f24 cabd dc80 11be a5c9 9dbb
00000040: b264 57bc 7baa b23c 2d99 0bbe eae3 6ebd
00000050: 663e 08be ed9d 48be 6d2d 0abe 6ac1 1ebe
00000060: 345b ffbc 2600 a4bd 32f8 dbbd 9cf0 0fbe
00000070: 2de3 793d 2abc e73d f2e4 f3bd b48a c2bc
00000080: 83a8 c1ba b249 033e e958 3abe 8dd9 9dbd
00000090: 42b7 bdbd 9ff3 b3bd d94b 0f3d 6087 61be
000000a0: f43e 1ebd 7b06 12bd 0aa5 96bc b323 4abe
000000b0: 1861 a53d 0ab5 5bbd a67c 5abe 0130 5c3d
000000c0: ddac 583d 2cb6 3cbe 3ddd 883d ca83 ffbd
000000d0: 2113 56bd fbf8 c0bd dc6c bebc 4365 b3bd
000000e0: 8790 10be 29b5 0ebe f961 5cbc cad0 e43d
000000f0: 22f0 8abd 808e 47be b901 f9bd 9fce 37be
00000100: df18 82bc 49eb f1bd 8430 263d 78b5 33be
00000110: 310b d23d 7e67 22ba e8a6 83bc 6d1b 483d
00000120: 8f55 06bc a682 2f3d 3b7b dcbd f231 acbc
00000130: e244 b7bd e45e debd 0000 0000 0d9f 3abe
00000140: 50b0 bfbd 1dd0 90bd eab4 3b3d 4565 1ebe
00000150: 8ebd 9ebd 0000 0000 93d7 13bc cbf8 3abe
00000160: fcbd ebbc 7ff3 ee3c 3173 1d3e 0c6b 9b3d
00000170: 6433 0abe be82 04be cb7d c8bb 83fe e7bd
00000180: 0b5d da3d 58c7 6abd 37e2 febd 06ef 8fbd
00000190: edb7 22bd 8d25 5cbd a507 cabc e0b1 dbbc
000001a0: 385d 693d e2fe 003d 1079 f2bd f489 9a3d
000001b0: 3b27 38be 1246 e8bd 18d3 6abc 9fd1 67be
000001c0: 8002 1cbd 2675 073e 3be9 78bd fa85 9ebc
000001d0: 3f32 0abe 4108 d7bd 1bcf b2bc 4526 30be
000001e0: 23ac 933d 4ca7 4ebe b3a1 38bd b764 bcbc
000001f0: c6af 55bd f0d2 b03c b5f5 b23d 8d6e 1d3d
-0.056345325 -0.1460365 -0.14670286 -0.1359274 0.091610946 -0.09864363 0.088791355 -0.0289251
-0.09037808 -0.20184082 0.03795482 0.025421616 -0.1406156 -0.09870266 -0.14209312 -0.0048152977
-0.013146566 0.021809807 -0.1363265 -0.058322825 -0.13305053 -0.19591494 -0.13493891 -0.15503469
-0.031171419 -0.08007841 -0.10740699 -0.14056629 0.061007667 0.11315186 -0.11908902 -0.02374778
-0.0014774952 0.12821081 -0.18197979 -0.0770751 -0.09263469 -0.087867014 0.034984443 -0.22024298
-0.038634256 -0.03565071 -0.018389244 -0.1974018 0.0807516 -0.05363945 -0.21336612 0.053756718
0.05289923 -0.18428868 0.06682823 -0.12476309 -0.052264336 -0.09422489 -0.023245268 -0.087595485
-0.14117633 -0.13936295 -0.013451093 0.11172636 -0.06784083 -0.19487953 -0.12158532 -0.17949913
-0.015881 -0.11812455 0.04057361 -0.17549694 0.10256041 -0.0006195231 -0.016070798 0.04885428
-0.00819911 0.042849205 -0.10765692 -0.02101991 -0.08948685 -0.10857943 0.0 -0.18224736
-0.09359801 -0.070709445 0.04582683 -0.15468319 -0.077509984 0.0 -0.009023565 -0.1825897
-0.028777115 0.029168842 0.15375973 0.07588777 -0.13496166 -0.12940499 -0.0061185113 -0.11327841
0.10662278 -0.057319015 -0.12445491 -0.07028012 -0.039726187 -0.05374675 -0.024661848 -0.026818216
0.056973666 0.031493075 -0.11839497 0.07545844 -0.17983715 -0.1134149 -0.014332555 -0.22638558
-0.03808832 0.13228282 -0.0607693 -0.019350994 -0.1349573 -0.10499621 -0.021827271 -0.17202099
0.07210567 -0.20181006 -0.045076083 -0.022997243 -0.052169584 0.021584958 0.08738271 0.038435508

hidden_nets.1.weight f4 [128, 128]
00000000: 6c8a 14bd f6a2 f3bc 7dab f5bd 183f 42bc
00000010: d582 3a3d 0e57 febd f756 d7bd 8072 bcbd
00000020: bb63 d13d d4af 773d b7ee 083e 6808 0abe
00000030: 4421 0bbd 4f49 ecbd d961 c33d 4ed3 8a3c
00000040: 49d7 03be 982d 9dbd 6d66 bbbd 5e6c edbc
00000050: 89ea 87bd db4b c4bd 9e9d c13c 9b23 28be
00000060: bd67 93bd c5db 9c3d 4c7d 79bd 731e 61bc
00000070: 03a2 2bbd b7fa 993d a10e a93d 4e58 6f3c
00000080: 4bc3 17be fe6f 03be 1b08 5fbd 6481 913c
00000090: 8256 053e 9406 08be 6d7b 513d 57d3 81bd
000000a0: 39ed 22be ea22 6fbd 8a5f ce3d 823a 8abd
000000b0: 9e96 6bbd 1e73 09be f590 7dbd 9e40 06be
000000c0: 61c8 933d 49ce 24bd a447 933d e4ae e13d
000000d0: c23d 003e 2c4a 2ebe 0569 0abd 9c9f 3fbd
000000e0: adf4 33be 3579 d0bd 7ff8 023e 89c0 e53d
000000f0: 531e 103e b8bb 6d3b 972f a43d e9ed adbd
00000100: 43ff 153e 9e15 af3d 9e3d 6c3d 24b1 2dbe
00000110: 047c e7bc b218 0dbd 63d1 b4bc 6c00 08be
00000120: 2ca0 00be b61a cb3d 4d00 0cbe d558 143d
00000130: 91b9 9dbc d7d6 b2bc bd65 f43d 9d2a c7bd
00000140: 3369 ffbd a898 c5bd ff90 883c 7b30 26be
00000150: 6bed 2bbe e446 43bd 0461 c83d cc44 873d
00000160: b1cd f5bd f1e5 32bd c0f4 1abe 6e3f e43b
00000170: afd7 31bd c1e7 75bd fc58 3cbd 7a03 c6bd
00000180: 70be 17be 3ad0 b63d 25eb 12be c3fa 223d
00000190: 818d f1bd 9938 313d 5125 42bd 9a69 2dbe
000001a0: e9be 1d3d 2286 41be d42b edbc 4ae6 90bc
000001b0: f725 a43d 6727 17be 008d 0fbe caad 1bbe
000001c0: 6029 943d a26c 0ebe 840a 10be 1dd5 bf3c
000001d0: 4804 a0bd 343a aebc 56be 4abd c43a 8cbd
000001e0: a24b 7cbd abbf 1cbe 59bf da3d 64e3 dfbd
000001f0: f6be 2b3d 748b cebd 0a1e 62bd 7706 95bd
00000200: 203c bf3d 5891 d23d 3257 003e 88a2 5bbd
00000210: 1996 4fbe 6ba6 133d 9d68 9b3c 9ae5 d33d
00000220: bd99 79bd 07f6 00be 5b90 0bbe 0828 a7bd
00000230: 7488 0abe b819 263e 3189 d0bd e685 113e
00000240: 4e2e e0be 9f10 5cbe e3e4 4cbd 14ea 003e
00000250: 7d7e c03d ec87 033e 6bec ce3d 5de4 7d3c
00000260: 13fa a13d 8846 d43d 688d 29be 56e6 a0bc
00000270: 16b5 fc3d 5864 a1be 7c22 e0bc 1b85 f5bc
00000280: 6c95 a1bd 2fae 8bbe 3b5e ce3d 6cb4 1aba
00000290: 881e 9a3d f5fd 2bbd 51e5 b0bd e9a6 d7bd
000002a0: 503b 35bd 36dd 94bd b9d6 d5bc 7197 2d3e
000002b0: b843 b9be a308 b5be ec56 9a3d 9121 65bd
000002c0: 9973 d83d 00b4 0dbe 3b90 023d 227e 74bd
000002d0: c80f f53c 70bd d1bd a9d2 25bf ab8c a8bc
000002e0: 9faa 68be f2a2 573d aa40 fa3d 19e1 12be
000002f0: d034 a63d 3c6d 44be 7dba 593e 5353 52be
00000300: 6d5d 143e 817a 02be fec1 d8be c033 6abe
00000310: 9b1f 7fbd 72c9 39bd 1bff b43c 875a 3a3e
00000320: bc8b 893c a543 aabc e7a5 9d3b 4ef8 5a3d
00000330: 9c04 04be 4479 05be 1696 6e3d 0e45 233e
00000340: 6872 d1bd 2876 0abe 5907 c8be 0df2 debd
00000350: 1c50 50be e0cd 0e3e f5f9 0cbe c38d 10bd
00000360: 87e8 0b3e 9355 0dbe f524 3fbe 88cd 66be
00000370: d89d 5d3d 7270 fdbd ec45 a93d 4727 d73d
00000380: 61b7 1e3e 6f58 52be 468a f4bd 882e f5be
00000390: f701 18bc 84c0 533e e51d 9b3d 514d c5bd
000003a0: 41d5 403c 26f7 61bd 2004 85bd 3532 29be
000003b0: 8041 10be 892b 3f3d e91a 14bd ae6b b23d
000003c0: f035 65be dcc9 67be 0e3e 7b3d a299 06bc
000003d0: 8597 f83d 4f39 96be 905f 493d 1d8b 87bd
000003e0: 4a6a 173c 69d3 00be 2eab a63d 6a8b 98bc
000003f0: 50fc 80be d2b1 78bd bd83 2b3e f0d8 04be
-0.036264822 -0.029740792 -0.119955994 -0.011855863 0.045534927 -0.12418948 -0.10514634 -0.09201527
0.102241 0.060470417 0.13372312 -0.13479769 -0.03396727 -0.1153742 0.09540147 0.016946461
-0.12875094 -0.07674712 -0.091503955 -0.028982338 -0.06636531 -0.09584781 0.023634728 -0.16419832
-0.07197521 0.07659105 -0.060910508 -0.01374017 -0.041902553 0.07518523 0.08254743 0.014608456
-0.14820592 -0.1283569 -0.05445109 0.017761894 0.13021281 -0.1328376 0.0511431 -0.06339138
-0.15910806 -0.058382906 0.100768164 -0.06749441 -0.057516687 -0.1342282 -0.06190582 -0.13110587
0.072159536 -0.04023579 0.07191399 0.11019686 0.12523559 -0.17020482 -0.03379156 -0.046783075
-0.17573805 -0.101793684 0.12790106 0.11218364 0.14074068 0.003627522 0.080168895 -0.084926434
0.14648156 0.08549045 0.05767595 -0.16962105 -0.028257377 -0.03444738 -0.0220725 -0.13281411
-0.125611 0.09917204 -0.1367199 0.03621753 -0.019253524 -0.02183096 0.119334675 -0.09724925
-0.12471237 -0.096482575 0.016670702 -0.16229431 -0.16789787 -0.04767503 0.09784129 0.06604919
-0.12002123 -0.04367632 -0.15132427 0.006965569 -0.043418583 -0.06003547 -0.0459833 -0.09668632
-0.1481874 0.08926435 -0.14347513 0.039789926 -0.11794568 0.043266866 -0.04739887 -0.16934815
0.038512144 -0.18898824 -0.028951563 -0.017687935 0.08015054 -0.14761125 -0.14018631 -0.15203014
0.07234454 -0.13908628 -0.14066511 0.02341705 -0.078133166 -0.021267988 -0.049497925 -0.06847146
-0.061595567 -0.1530749 0.10681028 -0.10932043 0.04193016 -0.10085192 -0.05520443 -0.07276624
0.0933764 0.10281628 0.12533262 -0.0536218 -0.20272101 0.03604738 0.018970782 0.103465274
-0.060937632 -0.12593852 -0.13629286 -0.08161932 -0.13528615 0.16220748 -0.10182417 0.14211234
-0.43785328 -0.21490715 -0.05002297 0.12589294 0.09399126 0.12844819 0.10103687 0.015496341
0.07909026 0.10365015 -0.16557848 -0.019641083 0.12339227 -0.3152187 -0.027360193 -0.029970696
-0.07889828 -0.2728133 0.10076567 -0.0005901519 0.075253546 -0.04199024 -0.08637489 -0.105298825
-0.044246018 -0.07268755 -0.026103364 0.16952302 -0.36184478 -0.35358152 0.0753611 -0.055940215
0.105689235 -0.13838196 0.03187583 -0.059690602 0.029914752 -0.102412105 -0.64774567 -0.020574888
-0.22721337 0.05264563 0.12219365 -0.1434368 0.08115542 -0.19182295 0.21262546 -0.20539598
0.14488764 -0.12742044 -0.42335504 -0.22871304 -0.062286 -0.04535813 0.0220943 0.18198596
0.016790263 -0.020784209 0.004811037 0.053459458 -0.12892383 -0.1303454 0.0582486 0.15944311
-0.102268994 -0.13521636 -0.39068106 -0.10886011 -0.2034306 0.13945723 -0.13767226 -0.035291445
0.13662921 -0.13802175 -0.18666442 -0.22539341 0.05410561 -0.12374963 0.0826529 0.105055384
0.15499641 -0.20541547 -0.11940436 -0.47887063 -0.009277812 0.20678908 0.07574061 -0.096338876
0.011769594 -0.05516734 -0.064949274 -0.16523059 -0.14087486 0.046672378 -0.036158476 0.087119445
-0.22383857 -0.22635597 0.061338477 -0.00821534 0.12138275 -0.29340598 0.0491634 -0.06618331
0.00924165 -0.12580647 0.08138119 -0.018621165 -0.251925 -0.060716458 0.16749473 -0.1297338

hidden_nets.1.bias f4 [128]
00000000: 9bab 8bbd 36dd f13d 93b1 933d 9c5a 8c3d
00000010: d358 bf3c 2334 283d 4e07 c73d 3728 7dbc
00000020: 53a5 003d a3de bc3d d1bf a73d ee58 b63d
00000030: 6618 ad3d 82b0 283c 5a77 da3d ef0a e03d
00000040: dcfc 0bbe f619 583d 2782 473d 42aa f33d
00000050: 60bd 6b3d e25e b93d 5a7d 4e3d 15a3 a13d
00000060: 4830 f23d ca64 8abd 8f79 083d f37a 2e3d
00000070: 5f13 803d 75f9 193d 7e76 7b3d ee2e 8c3d
00000080: 3314 b53d 705a 903d a635 c63d 362f a73d
00000090: a774 393d 1e4d f13d 8199 3d3d e95e 063e
000000a0: 72ca 5f3d 5568 503d a6d2 0d3e 801c 943d
000000b0: 4d91 003e 2580 22bd 61a8 a33d 7b88 ac3d
000000c0: 5e89 ad3d b2ce 323d f716 9dbd ee35 843d
000000d0: d0d9 b83d 877f a83d d40e 293d 171b 4ebd
000000e0: ff90 6d3d b6ab 5d3d 35ec 293d f426 b73d
000000f0: e9d1 c33d 2143 6a3d bfd4 923d a5a7 713d
00000100: 022c eebd cb4e 3a3d 1f09 153d d595 3e3d
00000110: ab3e 613d 6742 e83d 30dd e13d 088c 883d
00000120: 92a5 873d 1dcc cf3d ad2e d73d 6944 10bd
00000130: ae15 003e 8328 9b3d 57f2 4b3d 1412 dabd
00000140: 5698 7f3d b0be 8f3d 8d37 833d 75fb 68bb
00000150: 5b87 9b3d bac2 0d3d d82e a03d 3a6d 983d
00000160: 98c8 3e3d 8ef3 dd3c cbd1 cc3d 94a2 943d
00000170: e0a6 7a3d 0791 f53c 18af 853d 03c0 873c
00000180: 11f4 1cbd da53 8b3d 0d50 77bb 620a 2b3d
00000190: b4cc d73d 6283 143d b50e 883d 3754 423d
000001a0: be05 a43d 40cf 8e3d a4ae 053e a880 643d
000001b0: ad8d a3bd 427b 153d 6ff7 053c 971e 103d
000001c0: 1b43 e4bd dcfa 513c d578 973d 1736 1dbe
000001d0: 48e9 563d 83ab b13d 4303 433d 0b9a a43d
000001e0: 9685 ca3c 2c11 c53d 9da3 bfbd 9508 b13d
000001f0: 60cf 543d e73f 7d3d b561 9e3d 2e01 643d
-0.068198405 0.11809771 0.07211604 0.0685322 0.023357784 0.041065346 0.0971819 -0.0154514825
0.031407665 0.09222152 0.08190883 0.08903681 0.08451919 0.010295989 0.10667296 0.109395854
-0.13670677 0.052759133 0.048708107 0.118977085 0.05755365 0.090513006 0.050412513 0.078924336
0.11825615 -0.06757505 0.033319052 0.042597722 0.06253695 0.037591416 0.0613923 0.06844889
0.08841743 0.070484996 0.096782014 0.08163302 0.045277264 0.11782287 0.04628897 0.13122143
0.054636426 0.05088075 0.13849887 0.072319984 0.12555428 -0.03967299 0.079911 0.08424469
0.08473466 0.04365415 -0.07670396 0.06455599 0.090259194 0.08227449 0.041273907 -0.050318804
0.057999607 0.054118834 0.04148503 0.089429766 0.095615216 0.057192925 0.07169484 0.05899777
-0.116294876 0.0454853 0.03638565 0.04652961 0.054991405 0.1134079 0.11028516 0.06667334
0.06623377 0.101463534 0.105069496 -0.03522149 0.1250827 0.07576086 0.04979166 -0.106479794
0.06240114 0.07018793 0.0640708 -0.003555027 0.075941764 0.034609534 0.07821435 0.07442708
0.04657802 0.027093675 0.10000952 0.07257572 0.0611943 0.029976381 0.06527537 0.01657105
-0.038318697 0.06803103 -0.0037736923 0.04175795 0.10537091 0.03625811 0.0664343 0.047443595
0.08008908 0.069731236 0.13054901 0.05578676 -0.07986007 0.0364945 0.008176669 0.035185423
-0.11145612 0.012816157 0.07396094 -0.15352665 0.052468568 0.086752914 0.047610532 0.08037194
0.024721902 0.09622416 -0.09357379 0.08644215 0.05195558 0.06182852 0.0773348 0.055665188

hidden_nets.2.weight f4 [64, 128]
00000000: b2b7 173c ee6e 833e 0bd2 04be 92c9 caba
00000010: 60ce c2bd dc48 8bbe 095e 21be 92e9 a13d
00000020: 2606 85be d368 ddbd 2ee2 183e 74a1 63bc
00000030: 31b1 7e3d b9d2 28bd f55d b3bd 3c6e b63d
00000040: 1a12 fbbd 8913 7fbd 42e3 4cbe a68e 193e
00000050: 9a4b 6ebd a62d b5bd 47a7 123e 1a14 c8bc
00000060: 33d7 9dbc 7b14 253e 7b5d 293e 9ec4 c23c
00000070: 45b6 9fbe 8692 a83c af72 053d 009c afbe
00000080: 4ca7 0b3e 9b27 2b3e 836f d6bd f3f5 743d
00000090: c30f aebd 5f6c bf3d 2895 93be fc0f fbbd
000000a0: 9018 1cbd 6fe1 4d3e 1ada 423e 9bd3 9abe
000000b0: 108f 993e 801f 913c bc10 75bd 859e afbe
000000c0: a1ed afbd 3845 093d 160a 35be 9469 cbbd
000000d0: feab 353e 9ea2 373e 0175 bd3d 7c52 f3bd
000000e0: e868 2d3d 6320 46be 6808 2bbe cdf6 42bd
000000f0: 2d23 6f3c b5e8 86bd c8ea 61bc fc2a 3f3d
00000100: 5bb2 94bc 829b 913d 9f57 2dbd dc15 2f3e
00000110: f537 17be 9de5 1d3e 5ac2 adbd ca3a 3bbe
00000120: 7509 3ebd 1744 613e 7131 5f3d f005 263d
00000130: 8412 0f3e 539b 243e dbca df3d c22b f83d
00000140: bceb d6bd 6513 a7be 28e9 c4bd 3caa 9fbd
00000150: c0d1 0cbe 94f4 4b3d 22e7 81be d8fa ea3c
00000160: 1f64 2f3d 934f 9bbe c478 e53d d96f bfbc
00000170: c99c 5fbe 1759 05be d417 2bbe 8801 49be
00000180: 08b1 613c 128a 14be 5eda 3b3e a827 a6be
00000190: 68c9 29bc 5b8e 92be 57a1 d9bc f744 153c
000001a0: 45e3 863e e66c d53c 2030 f13c 53f4 9dbc
000001b0: 3887 2d3e 8109 40bd 5c86 42be 979c f7bd
000001c0: 329e 463e 3c41 9a3e 08cc 6ebe 1c10 13bd
000001d0: 9b92 93be f728 1ebe 372c 9ebe 3d88 273d
000001e0: 9d3a b6be 0350 80bd fbce 043d b592 ac3d
000001f0: 903f 993e 3342 49be 5579 8f3d 2fcf 91bd
00000200: 55fd 1abe 929d ce3d c389 a53a 2804 e2bc
00000210: c32a c6bd 4a0a 383d 47ec 543c 8ee1 c7bd
00000220: 782d 6b3c 59b5 04be 0a27 883c ae47 05be
00000230: fb10 d7ba a526 cebd 0e27 be3b 326c 463d
00000240: c970 bdbd b869 0ebe 471e fd3d 9138 0f3e
00000250: 42de c9bd ed0e 45be 745c b6bd 2778 6ebe
00000260: f8b6 123e 5f84 d43d f8da 44be 9e2a 07be
00000270: f5c5 113c 9dfa b1bd 13d6 093e fc8d bc3b
00000280: 359b e63d 428a efbc ee40 a1bd 8e23 d23d
00000290: ce6b 8f3d 8427 60be a84d 92bd 4add debb
000002a0: 93f0 df3c b8bc 4bbd 87db 90bc dfcf 43be
000002b0: 6260 2cbe 5b55 bc3d 12d2 aa3d fd8e 2ebe
000002c0: 3d22 f33c 509f 923d f4ad 1f3e 0712 11bd
000002d0: 8eba 09be d0b3 b7bb daf8 5a3e 08cc 68be
000002e0: 09f6 f3bd aa28 153e adff 89be 125b 513d
000002f0: 1f3f aabd 693b 053e 75dd eebd 512c 31bc
00000300: 5998 2e3d 885a 11bd 76b2 e5ba 69f7 febc
00000310: 51d8 803e 268b 12be 1353 203d d1d3 a1bd
00000320: 8701 13be 0947 d63c 5085 86bc fede 4bbe
00000330: e808 643e a4ac 9e3d e9bc 1abe 284b d83c
00000340: 2bb5 fabd 2026 59bc 03be 1bbe e937 e43c
00000350: 1c9b e4bd 998a a1bd eb5b 3abd 73c6 9dbd
00000360: 2b92 da3d fab4 703d 40e2 debc 6908 1abd
00000370: 4924 413d 564a 1e3e 7a4a 46be 002e ecbd
00000380: e1f5 493d b5e9 28bd 309f 59be 83df 11be
00000390: 38f0 ecbb 46c5 56be 7fb2 853c 66d4 fb3b
000003a0: 9e7d 00be 456b 983d 23b1 263e a630 46be
000003b0: 9771 aabb c9ce 213d f54d c63d 4d44 8ebc
000003c0: d122 81bc bb76 5cbe 9801 01bd d2ac 3b3b
000003d0: a1f5 2ebe 300d 1dbe c51f b6bc 8585 dcbb
000003e0: 075f 92be 8820 273e 9261 053c a7c8 d3bd
000003f0: 088c 7ebe 9e31 12be 3d36 dcbd 6bd8 0abe
0.009260105 0.2567057 -0.1297075 -0.001547145 -0.09512019 -0.27204025 -0.15758528 0.07905878
-0.25981253 -0.10811009 0.1493003 -0.013893474 0.0621807 -0.041216586 -0.08758155 0.08907744
-0.12259312 -0.06227449 -0.20008567 0.14995822 -0.058177568 -0.088465974 0.14321624 -0.024423648
-0.019267654 0.16121094 0.16539566 0.023775395 -0.31193748 0.02057768 0.032580074 -0.34298706
0.13638037 0.16714327 -0.10470488 0.059804868 -0.084991 0.09346842 -0.28824735 -0.12258908
-0.038109362 0.20105527 0.19028512 -0.30239567 0.2999196 0.017715216 -0.059830412 -0.34300628
-0.08590246 0.033513278 -0.17679629 -0.09932247 0.17741391 0.17933127 0.09250832 -0.11880967
0.042336375 -0.19348292 -0.16702425 -0.04759865 0.014595789 -0.06587354 -0.013788886 0.046671852
-0.018151453 0.07109739 -0.04231989 0.17098182 -0.1476744 0.15419622 -0.08484335 -0.18284145
-0.046395738 0.2199863 0.05449051 0.040533006 0.13971907 0.16074876 0.109273635 0.12117721
-0.104941815 -0.32631984 -0.096147835 -0.077961415 -0.13751888 0.049793795 -0.25371653 0.028684065
0.042820092 -0.30334148 0.11204675 -0.023368763 -0.21837153 -0.13022266 -0.16708308 -0.1962949
0.013775118 -0.14505795 0.18345019 -0.3245213 -0.01036296 -0.28624234 -0.02656619 0.009110681
0.26345268 0.026052903 0.029441893 -0.019281542 0.16946113 -0.046884064 -0.18996567 -0.12090414
0.19396284 0.30127895 -0.23320019 -0.035904035 -0.2882279 -0.15445314 -0.30893108 0.04090141
-0.35591593 -0.06265261 0.032423954 0.0842642 0.29931307 -0.19654159 0.07005564 -0.07119595
-0.15135701 0.10088648 0.0012629557 -0.027589872 -0.09676125 0.044931687 0.012995786 -0.09759818
0.014354102 -0.12959804 0.016620178 -0.13015625 -0.0016408259 -0.100659646 0.0058029955 0.048443027
-0.09250028 -0.13907516 0.123592906 0.13986422 -0.098568454 -0.19243975 -0.08904353 -0.23288022
0.1432761 0.1037681 -0.19224155 -0.13199851 0.008897294 -0.08690379 0.13460569 0.0057542305
0.11260072 -0.029240731 -0.078737125 0.10260688 0.07002984 -0.21890074 -0.07143718 -0.006801282
0.027336394 -0.049740523 -0.017682804 -0.19122265 -0.16833642 0.09195968 0.08340849 -0.17046733
0.029679412 0.07159293 0.15593702 -0.035417583 -0.13450071 -0.005606152 0.21383992 -0.22734082
-0.11912162 0.14566293 -0.26952878 0.051112242 -0.08312821 0.13010944 -0.11663333 -0.0108137885
0.04262576 -0.035486728 -0.0017524499 -0.031123834 0.25165036 -0.14310893 0.039141726 -0.07901729
-0.14356051 0.02615692 -0.01642099 -0.19909284 0.22269022 0.07747772 -0.15111126 0.026403025
-0.12241586 -0.013253719 -0.15209202 0.027858691 -0.11162397 -0.078877635 -0.045497816 -0.07703867
0.106724106 0.058766343 -0.027207494 -0.037605677 0.047153745 0.15458044 -0.19364348 -0.11532211
0.049306754 -0.041238505 -0.21252131 -0.14245419 -0.0072307847 -0.20973691 0.016320465 0.007685232
-0.12547919 0.07442335 0.1627851 -0.19354495 -0.0052015292 0.039503846 0.09682838 -0.017366553
-0.015763672 -0.21529667 -0.03149566 0.0028636944 -0.17085887 -0.15337062 -0.022231946 -0.006729784
-0.28588125 0.16321003 0.008140938 -0.10341006 -0.24858105 -0.1427674 -0.10752533 -0.1355912

hidden_nets.2.bias f4 [64]
00000000: 9be6 233d 347a 09bd 3538 793f 7619 623f
00000010: e729 733f 7f66 563f 0ed8 aa3e 60b5 5d3f
00000020: 7ae4 a1bd 48c9 623f b644 353f 82dd 593f
00000030: 674e 043f 81a5 b43e 1eef e93e c84a 5b3f
00000040: 441b 3f3f 9dbe 6e3f 1c72 4c3f cfe7 3e3f
00000050: 7d75 e6bd be4b c13d 8581 593f 51b5 a6bd
00000060: 9a72 403f 71c7 633f 74a8 643f 4a42 6a3f
00000070: 426b 6b3f 4d50 f8bc 4436 673f 46f9 5f3f
00000080: b169 6b3f 4b02 953e 80eb 5a3f b3c9 5c3f
00000090: af8b 7a3f 7644 5e3f ea42 bdbd 6041 583f
000000a0: 4547 533f 3621 5d3f 6ea6 6f3e d6e1 593f
000000b0: cb98 693f 0682 e2bd 701b 3ebd 4ec4 643f
000000c0: 66fe 563f f33b 633f e067 673f ae3e 663f
000000d0: f2c1 6b3f 92e1 a0bd e0a5 6e3f 7f7f 663f
000000e0: c823 623f dd10 a1bd 278e 5d3f 77fc 75bd
000000f0: 1765 373f fa27 6a3f 1f1a 4a3f 726b 313f
0.040014844 -0.033563808 0.9735139 0.883201 0.9498581 0.83750147 0.33367962 0.8660488
-0.079049066 0.8858838 0.7080797 0.8510362 0.5168213 0.3528252 0.45690244 0.8566098
0.7465098 0.932596 0.7986162 0.7457246 -0.11252878 0.09438275 0.84963256 -0.08140052
0.7517487 0.889762 0.8931954 0.915074 0.9196054 -0.030311728 0.9031718 0.87489736
0.9195815 0.29103312 0.85515594 0.8624527 0.9786939 0.86823213 -0.092412785 0.84474754
0.82530624 0.863788 0.23403332 0.85110223 0.9124877 -0.11059956 -0.046412885 0.8936204
0.8398193 0.8876335 0.90392876 0.8993939 0.9209281 -0.07855524 0.93221855 0.90038294
0.8833585 -0.078645445 0.8654503 -0.060055222 0.71638626 0.9146725 0.7894611 0.69304574

value_stream.weight f4 [1, 64]
00000000: b99f dfbe d642 7cbe acff fe3e 4d3b 173f
00000010: c9d3 083f 2e70 2c3f 666a 163f 879e 3b3f
00000020: 0ab3 a2bd ba4b 2b3f 1a5d 243f 59c2 373f
00000030: 8276 133f 50d5 103f 5008 1d3f c4da 273f
00000040: 44eb 0a3f e156 153f 73b6 053f f644 113f
00000050: 88a9 a4bd 80b8 f7be e6a5 333f c9fa 23be
00000060: 8a4c 1a3f 775a 363f a58d 263f ed0a 2f3f
00000070: 98d6 153f 99e1 b3be 64ee 103f 98a9 1b3f
00000080: c52a 0f3f 3a0d 143f fa0c 373f b2a8 173f
00000090: 4bcc 003f d99c 1b3f 2cf5 8cbe 70cf 393f
000000a0: b89c fb3e 3b1d 313f 0bad e63e a983 2c3f
000000b0: a74f 223f 967c 26be fb3a b3be a42d 293f
000000c0: 3a18 153f 9ef6 193f fc04 113f 48b3 123f
000000d0: d784 163f 95c9 3cbe 9d8f 043f 8799 093f
000000e0: 4283 173f c622 acbe 0b08 083f ad7d 34be
000000f0: 2270 fe3e ba49 3b3f 7a3f 213f 0242 083f
-0.43676546 -0.24634871 0.49804437 0.5907486 0.5344816 0.6735867 0.587561 0.7328877
-0.07944305 0.66912425 0.6420456 0.71780926 0.57602704 0.5657549 0.6134081 0.65568185
0.54265237 0.5833569 0.5223152 0.5674585 -0.08040148 -0.4838295 0.70175016 -0.16013636
0.6027304 0.7123179 0.6505988 0.68376046 0.5853057 -0.35133055 0.56613755 0.60805655
0.55924636 0.5783268 0.71504176 0.59241784 0.50311726 0.60786206 -0.275308 0.7258215
0.49143004 0.6918523 0.45053896 0.673884 0.6340279 -0.16258463 -0.35005936 0.6608527
0.5824009 0.6014193 0.5664823 0.5730481 0.5879645 -0.18436272 0.51781636 0.5374989
0.5918466 -0.3362028 0.5313727 -0.17626067 0.49694926 0.7315937 0.6298748 0.5322572

advantage_stream.weight f4 [5, 64]
00000000: 38d8 a03e 5363 a33c 7ca3 453d a639 45bd
00000010: d807 9d3d f153 07bc 76fe 96be fe75 0c3d
00000020: e63c e53d 5752 213e 86a6 2ebd 98d1 0b3e
00000030: 4159 a6bc afbe 9c3c f9f7 883d 6835 ec3b
00000040: 041b 073e 7b98 2cbd 597e d93d 42c5 98bb
00000050: b58f ba3d 6e33 203f d275 a6bc e6b4 4fbe
00000060: f221 7c3d 0a1e 103d 704f d63d 8682 bc3c
00000070: 17fa b33c fe35 8c3e 9e94 92bd adac 3f3d
00000080: 2f8a 6dbc 3b32 933d 42c2 d43c abc9 e63d
00000090: 176b a23d 0ad5 1b3e 8094 dcbd 8dd9 e83d
000000a0: ad83 513d 4820 3d3e 6e1c 2bbe 4264 2e3e
000000b0: 7258 023e 6535 843e d527 883e 6fad 103e
000000c0: a1af 393b 032a 0d3d 26bf 8d3d 0f57 88bc
000000d0: cb58 933c 1d4a 3f3e 5eb7 f3bc f15b 2f3d
000000e0: e9a1 3e3c 87fa 143e 9602 e8ba 068a 2fbd
000000f0: 1387 663c 875f 8bbc d016 433d 7f53 673d
00000100: c7e1 94be 3bc2 57bd 3244 293d 31ff dfbd
00000110: dcf7 6a3d de99 11bd 8ef1 75be 213d 5ebc
00000120: 5629 793e eda4 df3d c685 adbd 6209 253d
00000130: dfe1 243b ce14 9f3d 8553 1abc 4d0e 61bd
00000140: 32d8 f03d 7d2d bdbd a2ae eb3d ce07 d9bc
00000150: 3e11 09bd 45a5 83bc a491 a3bd bbb5 34bd
00000160: 3b2a 7a3d 9d2c 103c ec54 953d 2a0c 49bd
00000170: 8494 81bd e5d1 1abe fab6 18be d082 b73c
00000180: 3046 e4bc 95d6 a03d 861e 49bc ffe8 d13d
00000190: c628 aa3d 0d20 b43d 88aa d1bd d562 a03d
000001a0: 049b 493c f552 ff3d d262 213d d08e 093e
000001b0: ee5e b03d cfbf 9ebe 833d 84be 5289 653d
000001c0: 4e5c 71bd a333 21bd 06a3 cd3c a967 a5bd
000001d0: e244 1dbd e69f cb3b 93fa 18bd fa43 9dbc
000001e0: 3b26 31bd a04e 133e 130f 9cbc fb8b 9c3c
000001f0: f2db 123c 829b 90bd 3e15 513c d702 253d
00000200: b055 55be 1048 7cbe 00ea 153d 08a8 4bbd
00000210: 50ee da3d e259 76bd f722 4abe 8506 a03c
00000220: c35a 36bd 4c9b 073e 949b 48bd f629 ea3d
00000230: e982 013d cfac 973d dc5b a3bb 7082 e7bc
00000240: aede ff3d eee7 b2bd 97ce 153e 2a54 143a
00000250: 60f2 8abe ab12 223e f7d1 25bd a931 81bc
00000260: 6f77 cb3d 8e4f 6dbc 0eab a83d dd25 28bc
00000270: 7bf4 8a3a bd69 af3d 55c9 dcbd 3d9d b73c
00000280: 43bd 6ebc b1bc ab3d 343b 5d3c 7095 d13d
00000290: 9d11 c83d 5f78 ba3d d215 df3d ed21 e73d
000002a0: 3c32 b53c 8140 213e 19a9 5ebe 84f7 103e
000002b0: ed61 043e 11c3 fb3d d1be 16be 8b59 e13d
000002c0: 91f4 933c 83be a1bc 3296 593d 6d6f f8bc
000002d0: 0261 0a3d 25a5 6f3e 2ba8 b33b ac4b f13b
000002e0: d540 4abc 2409 3f3d bded cebc 7510 75bd
000002f0: ae93 633c 5ee8 a2bd 7e91 2d3d 565d 9f3c
00000300: 5063 ec3e 7d6e 4d3e fc03 373d 7721 1dbe
00000310: cd27 083d f18a b0bd 03c0 5ebe 1895 93bd
00000320: 2642 bdbd ed68 a03d 98ae 8cbd a410 2a3d
00000330: 1bbc c9bb 9cf1 063e ad0b e83d 0c48 98bd
00000340: 8796 be3d dfde 03be 03c4 053e d12e 29bd
00000350: 1360 40bd 20b9 83be e9a7 e9bd 35e8 3b3e
00000360: 8719 5f3d 6544 36bc 3730 e63c fd66 a5bd
00000370: 6dd9 a7bd 5cb1 af3e b5db 07be e76c dc3c
00000380: 50b9 8dbd 8f0c 023e f5f1 56bd 6233 ae3d
00000390: ae76 d63c 3220 523d 5547 14be 4e98 b03c
000003a0: 1b12 86bc 2001 ea3d f97e 6a3d 2c7a c13d
000003b0: ac7a e43c 0d82 60be a24b 39bc e8f8 023d
000003c0: f47b 33bd 8d37 1abd d5b8 b73c c0b2 92bd
000003d0: 4728 ffbc 48fc 85be 7218 97bd 7e23 57bd
000003e0: da1e b3bd 6597 7c3d ae7c 13bd e471 923e
000003f0: b0fa 883c 4f17 00be 0ee0 26bd 6f9e 493d
0.31414962 0.019944822 0.048251614 -0.04815068 0.07667512 -0.008259759 -0.29491013 0.034292214
0.11193256 0.15754066 -0.042639278 0.13654172 -0.020306231 0.019133894 0.06687922 0.007208515
0.131939 -0.042137604 0.10619802 -0.004662187 0.09109441 0.62578475 -0.020319853 -0.20283851
0.06155581 0.035184897 0.1046437 0.023011457 0.021969838 0.27384943 -0.07157253 0.046795536
-0.014498278 0.07187315 0.025971536 0.11268934 0.07930582 0.15217987 -0.107705116 0.113696195
0.051150966 0.18469346 -0.16710064 0.17030433 0.12729052 0.25821987 0.2659289 0.1412866
0.0028333443 0.034463894 0.06921224 -0.016643075 0.017986676 0.18680616 -0.029750522 0.04281229
0.011635282 0.14548694 -0.0017700966 -0.04285624 0.01407029 -0.017013324 0.047629178 0.056476112
-0.29078504 -0.052675467 0.0413248 -0.10937346 0.057365283 -0.03554713 -0.24017927 -0.013564379
0.24332175 0.10920129 -0.08472781 0.04029215 0.0025159044 0.0776764 -0.009419327 -0.05494528
0.11759986 -0.09237192 0.11507918 -0.02649298 -0.03346371 -0.016070018 -0.07986763 -0.044118624
0.06107543 0.008799699 0.07291588 -0.049083866 -0.06327155 -0.15119131 -0.1491355 0.022401243
-0.0278655 0.07853428 -0.012275344 0.102495186 0.08308558 0.08795176 -0.102376044 0.07831351
0.012305025 0.12466995 0.039400883 0.13433385 0.086118564 -0.31005713 -0.2582818 0.056039162
-0.05892592 -0.039355885 0.02510215 -0.08076412 -0.03839577 0.0062141297 -0.03734834 -0.019197453
-0.04324935 0.14385462 -0.019050157 0.019109717 0.008963572 -0.07060911 0.012761412 0.04028591
-0.20833468 -0.24636865 0.036600113 -0.049720794 0.10689986 -0.060144313 -0.197399 0.019534359
-0.04452015 0.13242835 -0.048976496 0.11433785 0.031618986 0.074060075 -0.0049853157 -0.02826044
0.12493645 -0.08735643 0.14629589 0.00056582934 -0.27138042 0.15827434 -0.04048344 -0.01577075
0.099348895 -0.014484299 0.08235751 -0.010262934 0.0010601425 0.0856509 -0.107805885 0.022413844
-0.014571491 0.083855994 0.013502885 0.10233581 0.097689845 0.0910499 0.10892834 0.11285768
0.02211868 0.15747263 -0.21744193 0.1415692 0.1292798 0.12293065 -0.14721228 0.11003407
0.018060954 -0.019744163 0.053121753 -0.03032657 0.03378392 0.23402841 0.0054826937 0.007363757
-0.012344559 0.046639577 -0.025259847 -0.059830148 0.01389019 -0.07954477 0.04237508 0.019453686
0.4616952 0.20061679 0.044681534 -0.15344797 0.033241082 -0.08620251 -0.21752934 -0.07206172
-0.092411324 0.07832513 -0.068692386 0.041519776 -0.006156457 0.13178104 0.11330352 -0.07435617
0.093060546 -0.12877987 0.13063054 -0.041304413 -0.046966624 -0.25727177 -0.114089794 0.18350299
0.054467704 -0.011124705 0.028099163 -0.08076284 -0.081957676 0.34315002 -0.13267405 0.026907397
-0.06920111 0.12700103 -0.052476842 0.08505894 0.026179638 0.051300235 -0.14480336 0.021557
-0.016366055 0.11425996 0.057249997 0.094471306 0.027890526 -0.2192461 -0.011309536 0.031975657
-0.043819383 -0.037650634 0.022427002 -0.07163 -0.031147135 -0.26169038 -0.073777094 -0.052524082
-0.08746119 0.06166782 -0.036007576 0.28602517 0.0167211 -0.12508892 -0.04074102 0.04922336

advantage_stream.bias f4 [5]
00000000: ae99 6abf 31c9 ca3e 1c42 cdbe e16a 7b3f
00000010: 75ad d4be
-0.91640747 0.39606622 -0.400895 0.9820996 -0.41538587

hidden_nets.0.weight f4 [128, 11]
00000000: 830f b53d 3b5c cebc 8dfa 04be 2674 6abe
00000010: fb61 00bd 6e16 2f3d d088 4fbb 71da 9fbd
00000020: ea00 e93d f33e acbd 8d07 91bd 50ae 9d3e
00000030: bd24 a23d 549e bc3d 96b6 87bc edde 7cbc
00000040: de53 fa3b 128a b1bd cd63 a1be 671c 34be
00000050: f798 81bd 6dc0 8abd fd67 40bd 1e83 4abe
00000060: f128 54be c520 063d 1bbf 133e f71e ccbd
00000070: 4e54 f33c a869 2e3d c3b1 08be 0a94 3fbd
00000080: 4d70 9e3c 52e2 7bbc 8072 05be 7c37 61bd
00000090: 87da f3bd 7ae4 b13d 0a06 28be 9794 9c3d
000000a0: 2cc7 d9bd 118d 8e3d fe0f 413e f0e5 ce3c
000000b0: c7d6 833e 25df 853d 5678 b2be 4c09 873d
000000c0: 59b6 9abe 932e 96bd 80e0 f83b 328a 333c
000000d0: 0794 ea3b 492f 1a3c e361 353c 0207 463d
000000e0: 8963 63be bb94 63be 55dc 6cbe 5f92 943d
000000f0: b598 bbbd e3bb e2bd 8c0c 07be a61e dc3d
00000100: d347 1ebe 21e0 303e b50e 7fbe a269 9a3d
00000110: ed66 a0be e4b1 ac3d a877 7bbe ceb0 903b
00000120: ed32 cabd 09b5 a93d 03a5 0dbe 1ec1 593d
00000130: cd17 8d3c 296b c2bd 66ee 0cbd dc65 a0bd
00000140: b9c2 3abd 433f a4bd 2d63 0abd f4c5 fb3d
00000150: d83a 03bd 4df7 093e c2f1 8cbd 7c68 513d
00000160: 9be2 213e 570e 48bd f4a6 3fbe db23 ad3d
00000170: 0e3c 683d 1c71 f8bd e38c efbd 22f0 1ebe
00000180: 8725 f4bd b21e 4cbe 1786 963c 1c73 26be
00000190: 9a48 b0be bfcc 023e 7eb2 43be a039 363e
000001a0: 0005 753d 345e 94bd f25d 89bc d4d4 1e3d
000001b0: c7a3 92bd 19e9 593c 5a9a 623d 1e59 5c3c
000001c0: 447e 06be fcbd 1ebe 3e05 c0be 5b89 f33c
000001d0: b14f 76bd 3e36 e73d 52a2 12be b2a3 dd3d
000001e0: 6db5 543e cb75 58be 2399 f3bd 43dd 6a3e
000001f0: b464 90be 1b4d fdbd 819e ba3d 6086 47be
00000200: fda4 29be bf14 813d bf23 7bbd 82d3 13be
00000210: a297 82be f76c 7bbd 22d8 473d 223c efbd
00000220: 48c0 c13c a6fa ae3d 83f3 7b3d 98ee 72bb
00000230: ebbf a13d d51d c3b9 c2fd 70bd bc4c 67be
00000240: 00a7 57be 9d57 223e e797 1f3e 22cf da3d
00000250: 231a 3ebe 5678 efbd a464 85be af59 173e
00000260: 05a1 69bd 249d 123d edfa 813e 04e8 59be
00000270: 4652 3cbd 1791 88be 463d 643c 7d39 25bc
00000280: f8de c3bd 7532 1cbe dc68 04be 15e1 74bd
00000290: dea8 c6bd 153c 1dbd 7d3a 3f3d 789b 08be
000002a0: b8e5 4cbd 420d 25be cb2e a5bb 7e73 5d3d
000002b0: 07a2 c5bd 1b6e fa3d dfe8 13be 5147 e93d
000002c0: fbac 353c 43bb fdbd e2e9 13bd 3375 5e3e
000002d0: e0ab afbe a778 d3bc 3a2d 9e3d 8f85 163e
000002e0: 4ad2 cf3b 97e1 813d 44fc a73d 550a 733e
000002f0: 372b 93bd 267a 86be 4b03 533d 6287 90be
00000300: 0878 3abe 82a5 53be 4a77 00be 35c0 f5bd
00000310: 857c f43d 7455 9ebd 8946 0abd 1397 32be
00000320: aa6b 72bd a4f1 93bc 1014 fb3d 0f4a 303d
00000330: 5680 f23b e7d1 9fbc d15e 0e3e f9c1 6e3d
00000340: 5b03 ffbc a3ed 483e 1410 2b3c d3c0 b9bd
00000350: e670 cabe 51bc 28be fb0b 7e3d 08c5 d23d
00000360: 17e1 36be 933e 4939 6051 3d3e 0823 fe3d
00000370: 9bbf 573e c989 b5bd e350 ff3d db9a 803c
00000380: 9407 1f3d 7194 8bbe a781 9b3d 7d5f a6be
00000390: d217 c23d 72bd f33d 4b26 e53c d8a6 6e3e
000003a0: c0ab 2dbd af7b 6ebd 0674 cfbb b34b 153e
000003b0: 5b8d 823b 23a6 83bd db38 08be d82d 33be
000003c0: 948d dfbc 193a bdbd 9cbe e4be d7b4 ea3c
000003d0: 7279 ccbd 4375 c23d 1558 9ebc faf0 64be
000003e0: f80f 2abd 185a 1a3d 3372 19be 08ba 92bc
000003f0: 8781 b63c 2991 0fbe c240 8abd 7cd4 063e
0.08840849 -0.025190463 -0.12986203 -0.2289587 -0.03134344 0.042746 -0.003166724 -0.07805336
0.113771275 -0.08410444 -0.07081518 0.30797052 0.079171635 0.09209886 -0.016566556 -0.015434009
0.0076393923 -0.08668913 -0.31521454 -0.1758896 -0.06328004 -0.067749836 -0.04697417 -0.1977658
-0.20718743 0.032746095 0.1442837 -0.099668436 0.029703286 0.04258123 -0.1334906 -0.04677204
0.019340659 -0.015373783 -0.1303196 -0.054984555 -0.11906915 0.086861566 -0.16408554 0.07645529
-0.10633692 0.069605 0.18853757 0.025256127 0.257498 0.06536702 -0.34857434 0.0659357
-0.30217245 -0.07333102 0.007595122 0.010958241 0.0071587595 0.009410688 0.011070701 0.048346527
-0.22205938 -0.22224705 -0.23130925 0.072544806 -0.09159986 -0.11070993 -0.1318838 0.10748033
-0.15457086 0.17272998 -0.24907954 0.07539679 -0.31328526 0.084323674 -0.24557364 0.004415608
-0.098729946 0.08286483 -0.13832478 0.053162687 0.017223263 -0.094930954 -0.034407042 -0.07831928
-0.04559586 -0.08019879 -0.033785988 0.12293616 -0.03203854 0.13473244 -0.06882049 0.051125035
0.158091 -0.0488418 -0.18716031 0.084541045 0.056697898 -0.12130949 -0.11696794 -0.15521291
-0.1192122 -0.19933584 0.018374486 -0.16254848 -0.3443039 0.12773417 -0.19111058 0.1779542
0.05981922 -0.0724453 -0.01676843 0.038777187 -0.07160144 0.013300204 0.055322982 0.013448982
-0.13134104 -0.15502161 -0.37504 0.029728582 -0.060134593 0.11289643 -0.14319733 0.10822238
0.20772333 -0.21138684 -0.11894443 0.22935967 -0.2820183 -0.12368222 0.091122635 -0.19484854
-0.16566844 0.06302785 -0.061313387 -0.14436153 -0.25506312 -0.061383214 0.048790105 -0.11681391
0.023651257 0.08543901 0.061511528 -0.0037068482 0.078979336 -0.00037215525 -0.058835752 -0.22587866
-0.21059799 0.15853734 0.1558529 0.10684039 -0.18564658 -0.11692874 -0.26053345 0.14780305
-0.057038326 0.035794392 0.25386754 -0.21279913 -0.0459769 -0.26673195 0.013930624 -0.010084507
-0.09564012 -0.15253623 -0.12930626 -0.059784967 -0.097001776 -0.038387377 0.04668664 -0.13340557
-0.050023764 -0.16118339 -0.0050409785 0.05406522 -0.09650045 0.12228032 -0.14444302 0.11390556
0.011088605 -0.12389233 -0.03611172 0.21724395 -0.34310818 -0.025814367 0.0772347 0.14699386
0.006342207 0.06341856 0.08202413 0.2373441 -0.07185977 -0.26265067 0.051516812 -0.2822829
-0.18209851 -0.20668605 -0.12545505 -0.11999551 0.11937813 -0.07731143 -0.033758674 -0.17440443
-0.059184708 -0.01805956 0.12259686 0.043039378 0.0074005527 -0.019509269 0.13903357 0.058290455
-0.03112953 0.19621901 0.010440845 -0.090699814 -0.3953926 -0.16478087 0.062023144 0.10291487
-0.17859302 0.00019192164 0.18488073 0.124090254 0.21069185 -0.08864171 0.124666 0.01569884
0.038825586 -0.2726169 0.075930886 -0.32494727 0.094771996 0.11901368 0.027972361 0.23305833
-0.04240012 -0.058223423 -0.0063309697 0.14579658 0.003984136 -0.064281724 -0.13302939 -0.17497957
-0.02728919 -0.09239597 -0.44676673 0.028650684 -0.09984101 0.09495022 -0.01932911 -0.2235755
-0.041519135 0.037683576 -0.1498497 -0.017910972 0.02227856 -0.14020218 -0.06750633 0.13166994

hidden_nets.0.bias f4 [128]
00000000: 5bca 66bd 2b21 19be 4639 16be 8d30 0bbe
00000010: a416 be3d ac05 cabd ddc1 b63d 55f4 ecbc
00000020: 2518 b9bd 5caf 4ebe 4283 1a3d 2176 d73c
00000030: 89fd 0fbe 9f24 cabd dc80 11be a5c9 9dbb
00000040: 9c06 69bc 5ae7 b63c 2d99 0bbe ca3b 6abd
00000050: 663e 08be 9bd3 49be 6d2d 0abe 6ac1 1ebe
00000060: c78b f8bc 3bd6 a3bd 027b dfbd 9cf0 0fbe
00000070: 3b4b 7f3d aaa0 e53d f2e4 f3bd b48a c2bc
00000080: 5e1f c6bb bdf0 013e 1ef9 35be 8dd9 9dbd
00000090: 42b7 bdbd 9ff3 b3bd b75a 143d 6087 61be
000000a0: b8ab 19bd a983 17bd 8c0c 69bc b323 4abe
000000b0: 2d55 a93d 0ab5 5bbd a67c 5abe d8f2 643d
000000c0: dc07 4d3d 2cb6 3cbe d2b0 8a3d 5da8 fcbd
000000d0: 2113 56bd c568 c7bd b463 b0bc 4365 b3bd
000000e0: a1e7 0fbe 29b5 0ebe f961 5cbc 6958 eb3d
000000f0: 22f0 8abd 808e 47be b901 f9bd 8c6f 38be
00000100: df18 82bc 49eb f1bd f38a 263d 165d 35be
00000110: 1023 cf3d 7e67 22ba 9f77 76bc c353 493d
00000120: 8f55 06bc e986 2b3d 3b7b dcbd f231 acbc
00000130: e244 b7bd 4469 e2bd 0000 0000 0d9f 3abe
00000140: 50b0 bfbd 1dd0 90bd af0d 3c3d 8602 24be
00000150: 8ebd 9ebd 0000 0000 93d7 13bc cbf8 3abe
00000160: fcbd ebbc 70b6 003d 15b8 1d3e 2aaf 993d
00000170: 6433 0abe be82 04be cb7d c8bb 83fe e7bd
00000180: 576e d93d 58c7 6abd 37e2 febd 8640 93bd
00000190: e422 23bd e30c 5abd a507 cabc ee08 efbc
000001a0: 786d 693d 3248 fb3c 4342 f0bd 7b8e 9c3d
000001b0: 3b27 38be 1246 e8bd 4ccb 62bc 9fd1 67be
000001c0: 8002 1cbd 6a20 083e e236 80bd 4e4c 69bc
000001d0: 3f32 0abe 4108 d7bd 1bcf b2bc 17de 34be
000001e0: fdf6 943d 4ca7 4ebe b3a1 38bd b764 bcbc
000001f0: c6af 55bd 2413 c23c 0bbc b43d a4dd 283d
-0.056345325 -0.14954059 -0.14670286 -0.1359274 0.09281662 -0.09864363 0.08923695 -0.0289251
-0.09037808 -0.20184082 0.037722833 0.026301445 -0.1406156 -0.09870266 -0.14209312 -0.0048152977
-0.014222767 0.022327114 -0.1363265 -0.057185926 -0.13305053 -0.19709627 -0.13493891 -0.15503469
-0.030340089 -0.079998456 -0.10912134 -0.14056629 0.062327605 0.11212285 -0.11908902 -0.02374778
-0.0060462197 0.1268949 -0.17770812 -0.0770751 -0.09263469 -0.087867014 0.036219325 -0.22024298
-0.03751728 -0.036990795 -0.014224183 -0.1974018 0.08268199 -0.05363945 -0.21336612 0.055895656
0.050056323 -0.18428868 0.06772007 -0.123368 -0.052264336 -0.0973678 -0.021531917 -0.087595485
-0.14053203 -0.13936295 -0.013451093 0.11491472 -0.06784083 -0.19487953 -0.12158532 -0.18011302
-0.015881 -0.11812455 0.040659856 -0.1771129 0.101141095 -0.0006195231 -0.015043168 0.049152147
-0.00819911 0.041876707 -0.10765692 -0.02101991 -0.08948685 -0.11055234 0.0 -0.18224736
-0.09359801 -0.070709445 0.045911487 -0.16016588 -0.077509984 0.0 -0.009023565 -0.1825897
-0.028777115 0.031423986 0.15402253 0.07504113 -0.13496166 -0.12940499 -0.0061185113 -0.11327841
0.10616749 -0.057319015 -0.12445491 -0.07190041 -0.039828196 -0.053234946 -0.024661848 -0.029179063
0.056989163 0.030674074 -0.117313884 0.076443635 -0.17983715 -0.1134149 -0.013842415 -0.22638558
-0.03808832 0.13293615 -0.06260468 -0.014239384 -0.1349573 -0.10499621 -0.021827271 -0.17662846
0.07273672 -0.20181006 -0.045076083 -0.022997243 -0.052169584 0.023690768 0.08824929 0.041226998

hidden_nets.1.weight f4 [128, 128]
00000000: 6c8a 14bd f6a2 f3bc 7dab f5bd 183f 42bc
00000010: d582 3a3d 0e57 febd f756 d7bd 8072 bcbd
00000020: bb63 d13d d4af 773d b7ee 083e 6808 0abe
00000030: 4421 0bbd 4f49 ecbd d961 c33d 4ed3 8a3c
00000040: 49d7 03be 982d 9dbd 6d66 bbbd 5e6c edbc
00000050: 89ea 87bd db4b c4bd 9e9d c13c 9b23 28be
00000060: bd67 93bd c5db 9c3d 4c7d 79bd 731e 61bc
00000070: 03a2 2bbd b7fa 993d a10e a93d 4e58 6f3c
00000080: 4bc3 17be fe6f 03be 1b08 5fbd 6481 913c
00000090: 8256 053e 9406 08be 6d7b 513d 57d3 81bd
000000a0: 39ed 22be ea22 6fbd 8a5f ce3d 823a 8abd
000000b0: 9e96 6bbd 1e73 09be f590 7dbd 9e40 06be
000000c0: 61c8 933d 49ce 24bd a447 933d e4ae e13d
000000d0: c23d 003e 2c4a 2ebe 0569 0abd 9c9f 3fbd
000000e0: adf4 33be 3579 d0bd 7ff8 023e 89c0 e53d
000000f0: 531e 103e b8bb 6d3b 972f a43d e9ed adbd
00000100: 43ff 153e 9e15 af3d 9e3d 6c3d 24b1 2dbe
00000110: 047c e7bc b218 0dbd 63d1 b4bc 6c00 08be
00000120: 2ca0 00be b61a cb3d 4d00 0cbe d558 143d
00000130: 91b9 9dbc d7d6 b2bc bd65 f43d 9d2a c7bd
00000140: 3369 ffbd a898 c5bd ff90 883c 7b30 26be
00000150: 6bed 2bbe e446 43bd 0461 c83d cc44 873d
00000160: b1cd f5bd f1e5 32bd c0f4 1abe 6e3f e43b
00000170: afd7 31bd c1e7 75bd fc58 3cbd 7a03 c6bd
00000180: 70be 17be 3ad0 b63d 25eb 12be c3fa 223d
00000190: 818d f1bd 9938 313d 5125 42bd 9a69 2dbe
000001a0: e9be 1d3d 2286 41be d42b edbc 4ae6 90bc
000001b0: f725 a43d 6727 17be 008d 0fbe caad 1bbe
000001c0: 6029 943d a26c 0ebe 840a 10be 1dd5 bf3c
000001d0: 4804 a0bd 343a aebc 56be 4abd c43a 8cbd
000001e0: a24b 7cbd abbf 1cbe 59bf da3d 64e3 dfbd
000001f0: f6be 2b3d 748b cebd 0a1e 62bd 7706 95bd
00000200: 203c bf3d 33a7 c43d 3257 003e 88a2 5bbd
00000210: 2bfa 4fbe 6ba6 133d 08c9 a93c 9ae5 d33d
00000220: bd99 79bd 07f6 00be d11a 0bbe 378d a8bd
00000230: 7488 0abe b819 263e 3189 d0bd e685 113e
00000240: 3ac3 dfbe 960b 5cbe e3e4 4cbd 4fd2 013e
00000250: 7d7e c03d ed82 003e 6bec ce3d 5de4 7d3c
00000260: 13fa a13d e1ca cf3d 0595 29be 56e6 a0bc
00000270: dc02 fd3d ded5 a0be 7c22 e0bc 1b85 f5bc
00000280: f02e a0bd e412 8bbe 964e cd3d 6cb4 1aba
00000290: 881e 9a3d f5fd 2bbd b08d b1bd e9a6 d7bd
000002a0: 9127 37bd 47ef 98bd bd4c ccbc 7197 2d3e
000002b0: bbf1 bcbe a308 b5be ec56 9a3d 8ac1 65bd
000002c0: 026e d73d 00b4 0dbe 4321 013d 2b81 76bd
000002d0: c80f f53c 36bc e0bd 12d3 25bf ab8c a8bc
000002e0: e44f 6bbe f2a2 573d aa40 fa3d 49d1 17be
000002f0: d034 a63d 3c6d 44be 7dba 593e b6ed 53be
00000300: 6d5d 143e 817a 02be d9b1 d8be 3756 6ebe
00000310: 9131 7bbd 72c9 39bd a2da b93c 7227 3a3e
00000320: bc8b 893c f854 aabc e7a5 9d3b 4ef8 5a3d
00000330: 9c04 04be 7c15 0abe 1696 6e3d 0e45 233e
00000340: 6872 d1bd 2876 0abe 3f08 c8be 036a f8bd
00000350: 1c50 50be e0cd 0e3e f5f9 0cbe c38d 10bd
00000360: 87e8 0b3e f90c 0ebe 49dd 41be e05b 68be
00000370: d89d 5d3d 7270 fdbd ec45 a93d 4727 d73d
00000380: 56a6 1e3e 6f58 52be 468a f4bd 5a9d f5be
00000390: d609 29bc 20c7 533e e51d 9b3d 514d c5bd
000003a0: 221c 483c 2153 61bd a99d 8abd 0e7f 29be
000003b0: 8041 10be 892b 3f3d 0c7f 12bd ae6b b23d
000003c0: f035 65be c1d8 6cbe 8d14 7b3d 243b 83bc
000003d0: 8597 f83d 4f39 96be 905f 493d cbf3 93bd
000003e0: 64f3 c33b 69d3 00be 2eab a63d 6a8b 98bc
000003f0: 50fc 80be 20d7 7bbd 3258 2a3e 43ec 08be
-0.036264822 -0.029740792 -0.119955994 -0.011855863 0.045534927 -0.12418948 -0.10514634 -0.09201527
0.102241 0.060470417 0.13372312 -0.13479769 -0.03396727 -0.1153742 0.09540147 0.016946461
-0.12875094 -0.07674712 -0.091503955 -0.028982338 -0.06636531 -0.09584781 0.023634728 -0.16419832
-0.07197521 0.07659105 -0.060910508 -0.01374017 -0.041902553 0.07518523 0.08254743 0.014608456
-0.14820592 -0.1283569 -0.05445109 0.017761894 0.13021281 -0.1328376 0.0511431 -0.06339138
-0.15910806 -0.058382906 0.100768164 -0.06749441 -0.057516687 -0.1342282 -0.06190582 -0.13110587
0.072159536 -0.04023579 0.07191399 0.11019686 0.12523559 -0.17020482 -0.03379156 -0.046783075
-0.17573805 -0.101793684 0.12790106 0.11218364 0.14074068 0.003627522 0.080168895 -0.084926434
0.14648156 0.08549045 0.05767595 -0.16962105 -0.028257377 -0.03444738 -0.0220725 -0.13281411
-0.125611 0.09917204 -0.1367199 0.03621753 -0.019253524 -0.02183096 0.119334675 -0.09724925
-0.12471237 -0.096482575 0.016670702 -0.16229431 -0.16789787 -0.04767503 0.09784129 0.06604919
-0.12002123 -0.04367632 -0.15132427 0.006965569 -0.043418583 -0.06003547 -0.0459833 -0.09668632
-0.1481874 0.08926435 -0.14347513 0.039789926 -0.11794568 0.043266866 -0.04739887 -0.16934815
0.038512144 -0.18898824 -0.028951563 -0.017687935 0.08015054 -0.14761125 -0.14018631 -0.15203014
0.07234454 -0.13908628 -0.14066511 0.02341705 -0.078133166 -0.021267988 -0.049497925 -0.06847146
-0.061595567 -0.1530749 0.10681028 -0.10932043 0.04193016 -0.10085192 -0.05520443 -0.07276624
0.0933764 0.09602203 0.12533262 -0.0536218 -0.20310275 0.03604738 0.020725742 0.103465274
-0.060937632 -0.12593852 -0.13584448 -0.082300596 -0.13528615 0.16220748 -0.10182417 0.14211234
-0.43703634 -0.21488795 -0.05002297 0.12677883 0.09399126 0.12549944 0.10103687 0.015496341
0.07909026 0.10146118 -0.16560753 -0.019641083 0.12354061 -0.31413168 -0.027360193 -0.029970696
-0.078214526 -0.2716285 0.10024755 -0.0005901519 0.075253546 -0.04199024 -0.08669603 -0.105298825
-0.044715468 -0.074675135 -0.024938935 0.16952302 -0.36903176 -0.35358152 0.0753611 -0.056092776
0.10519029 -0.13838196 0.03152586 -0.060181778 0.029914752 -0.109733984 -0.6477519 -0.020574888
-0.22979695 0.05264563 0.12219365 -0.1482593 0.08115542 -0.19182295 0.21262546 -0.20696148
0.14488764 -0.12742044 -0.42323187 -0.23275076 -0.061326567 -0.04535813 0.02268726 0.1817911
0.016790263 -0.02079247 0.004811037 0.053459458 -0.12892383 -0.13484758 0.0582486 0.15944311
-0.102268994 -0.13521636 -0.3906879 -0.12129595 -0.2034306 0.13945723 -0.13767226 -0.035291445
0.13662921 -0.13872136 -0.1893207 -0.22691298 0.05410561 -0.12374963 0.0826529 0.105055384
0.1549314 -0.20541547 -0.11940436 -0.47971612 -0.0103172865 0.20681429 0.07574061 -0.096338876
0.012213739 -0.05501092 -0.067683525 -0.16552374 -0.14087486 0.046672378 -0.035765693 0.087119445
-0.22383857 -0.2312956 0.061298896 -0.016019411 0.12138275 -0.29340598 0.0491634 -0.07224234
0.005979942 -0.12580647 0.08138119 -0.018621165 -0.251925 -0.061484456 0.16635206 -0.13371377
