hyperopt_results/models/gamma_short_term_20250906_230524/dqn_racing_episode_100.pth (torch, 453653 bytes, 36 tensors)

hidden_nets.0.weight f4 [128, 11]
00000000: de11 523e a2c2 35bb d7fa 61bd 2ab3 aebd
00000010: 83cb 863a 050a a63d 90f8 66bd 212b bdbd
00000020: ea00 e93d 3adc 6cbd a2a1 b4bd 9501 0d3e
00000030: 47e6 103e 1c19 08be bcef 99bd 8ad3 e03d
00000040: a53d 23bd dc67 bebc 37e9 60be 671c 34be
00000050: 8ca9 d3bd a2ca 293d 1c96 753c a4f6 35be
00000060: 8ce6 1cbe 9b89 e03c e2b6 463e a2f0 debc
00000070: 7400 793d df59 683d c3b1 08be a4b9 66bd
00000080: 1888 f03c c9e3 debd 06bf 94bd 94b5 30be
00000090: 9a20 6ebe 2bdb 073e ede5 61be 9d62 123e
000000a0: 0918 17bd 118d 8e3d 82b8 4e3e bc0c 323e
000000b0: c2bf 6e3e f788 6c3d c480 5abe 5dbf fc3d
000000c0: 4964 5ebe 8be4 6fbd 7d4d 1f3c d203 96bd
000000d0: 0794 ea3b 2508 2bbe 8c86 debd 5cf9 d13d
000000e0: 097e 1cbe 4841 31bd 3c6a 22be f1f6 483e
000000f0: 3065 dcbd 370e c0bc 567a 9abd a61e dc3d
00000100: 0bfd 83bc 5528 0f3e 9859 acbc 6fdc 093d
00000110: 2569 83be 858a 9d3d a897 9dbd fa12 3fbe
00000120: a00a 54bd 3832 423c 03a5 0dbe 6cfb 84bc
00000130: 188d 3fbe a4e3 a3bd 6806 333c 9aaf aa3d
00000140: aa5b 23be 4468 a5bd d2e3 aebd dd3b 353e
00000150: 6033 b63c 4df7 093e fc7d 1ebe 1274 31bb
00000160: 3493 f43a fd93 18bd e5ff eabd 81bf d63c
00000170: c9c3 523d 1f7e 49be 4d66 f2bd c53f fcbd
00000180: 8725 f4bd 1d56 91be d6c1 5b3d d455 25bd
00000190: 97cb 91be 36cf 773d d90f 443c d055 693e
000001a0: 6c38 19bc 7383 dabc 0698 a93c d4d4 1e3d
000001b0: 39f7 a0bc 330b 44bd d745 913d c817 b33d
000001c0: c7ef e9bd 8afb fd3d 60a5 2fbe 4f2b cbbc
000001d0: 806c b0bd 3eac 133d 52a2 12be 44af 763d
000001e0: 8522 db3d 01c0 e23d 3891 30be 993a 123e
000001f0: dfa6 1cbe bbeb e33b 3e1a 52bd 45d0 02be
00000200: c41c 7ebe bf14 813d efb9 81bc 4459 2ebe
00000210: 41d9 5dbe fa02 b0bd a87a b33d efaa 0cbe
00000220: c335 e3bb bc87 fb3d 457c 1c3c 84c8 8abc
00000230: ebbf a13d 34f0 133c b61c 68bd 45e0 97be
00000240: 9524 35be 26cc 41bb 2309 fe3d 6f92 193e
00000250: bc99 26be a789 dbbd 6b7f 67be af59 173e
00000260: 7b42 693c cc3a f63d b1f6 653e ca95 14be
00000270: 145e edbd e631 09bd 6449 e53d e17f 01bb
00000280: 2a86 08bd 7375 d0bd dc68 04be 3326 e7bb
00000290: e472 ebbd 981c 12bd 20e3 4a3d 2b93 07be
000002a0: 0c9f 55bd 244a 22be 754d c5bb 3673 683d
000002b0: 2c22 c0bd 1b6e fa3d da3a 12be 2ac7 ee3d
000002c0: 6c10 e03c 0b86 aebd a6d8 3d3d 6895 493e
000002d0: b5c9 91be cc36 063d dbce 6e3d d723 ec3d
000002e0: 4ad2 cf3b 9f02 ed3d a17a 0f3d 7a41 4e3d
000002f0: dced 01bd 5a9b 74be 0254 763e 29a5 72bd
00000300: c518 55be 1b1f 85be 7eed e5bd 35c0 f5bd
00000310: b8ce c8bc fc4b 9cbd 3cae adbc 2c9b 2abe
00000320: 435a 3bbd 9eeb a9bc b41b 163e 127a c53b
00000330: fbf4 e13c 03c9 77bc d15e 0e3e ce56 0e3d
00000340: 91f4 723b 228e 483e 06cc 8b3d 7fb3 53bb
00000350: 4e49 89be d0f9 8bbe c7b2 303d 06be 1dba
00000360: 2634 0fbe 933e 4939 bc5e 8b3e f6f7 12bd
00000370: 8cb4 403e 6a43 62bc d25f a83d daf7 823d
00000380: e7df a43d d294 6fbc e6b5 113b b803 8abe
00000390: d217 c23d 7f7c 833d d2fd a0bd ae43 3b3e
000003a0: d253 0bbd 2b58 4abd 5eab 9dbd 2797 093e
000003b0: ae00 adbc a294 acbc 8ac6 c0bd d82d 33be
000003c0: 2d1e 563b c393 66bd 89af c3be e494 e23d
000003d0: 44a3 5ebe f788 2c3e 514b 82bd 5fd3 cebd
000003e0: c6c4 893d 8935 253e 3372 19be f15c 12bd
000003f0: 6586 b3bd 8962 01be 52be 63bd be92 c63d
0.20514628 -0.0027734418 -0.05517086 -0.085302666 0.001028404 0.0810738 -0.05638939 -0.09236742
0.113771275 -0.057827212 -0.088198915 0.13770135 0.14150344 -0.13290828 -0.07516429 0.10977848
-0.03985371 -0.023242883 -0.21963964 -0.1758896 -0.10335073 0.04145301 0.014989402 -0.17769867
-0.15322322 0.027409365 0.19405702 -0.027214352 0.060791448 0.056726333 -0.1334906 -0.056329384
0.02936177 -0.1088329 -0.07262997 -0.17256767 -0.23254624 0.132672 -0.22060366 0.1429543
-0.036888156 0.069605 0.20187572 0.1738767 0.23315337 0.057747807 -0.21338183 0.12341187
-0.21717943 -0.058567565 0.0097230645 -0.073249474 0.0071587595 -0.16702326 -0.108655065 0.1025264
-0.15282454 -0.043275148 -0.15860838 0.1962545 -0.107614875 -0.023444278 -0.07542865 0.10748033
-0.016111871 0.13980229 -0.021038815 0.033657487 -0.25666156 0.07692436 -0.07694942 -0.18659583
-0.051767945 0.011852793 -0.13832478 -0.016233169 -0.18706167 -0.080024034 0.01092682 0.083342746
-0.15952936 -0.08076528 -0.08539547 0.17698617 0.022241294 0.13473244 -0.15477747 -0.002707724
0.0018659593 -0.037250508 -0.11474589 0.026214363 0.051456247 -0.19677018 -0.118359186 -0.123168506
-0.1192122 -0.28386012 0.053651653 -0.040365055 -0.2847564 0.060500346 0.011966669 0.22786641
-0.009351831 -0.026674008 0.020702373 0.038777187 -0.019649135 -0.047862243 0.07093399 0.0874477
-0.11422687 0.12401493 -0.1715293 -0.024800925 -0.08614445 0.036052935 -0.14319733 0.06022574
0.106999435 0.11071778 -0.17242897 0.14280166 -0.15298031 0.0069555915 -0.051294558 -0.12774761
-0.2481566 0.06302785 -0.01583573 -0.1702624 -0.21664907 -0.08594318 0.08763629 -0.13737081
-0.006933899 0.12281749 0.009551113 -0.016941316 0.078979336 0.009029437 -0.056668006 -0.29663292
-0.17689736 -0.0029571145 0.124040864 0.14997266 -0.16269583 -0.107196145 -0.226072 0.14780305
0.014237042 0.12022933 0.22457387 -0.14510265 -0.115902096 -0.033494852 0.11195639 -0.001976006
-0.033331074 -0.10178652 -0.12930626 -0.0070541142 -0.11496523 -0.0356718 0.04953301 -0.13239734
-0.052153632 -0.15848595 -0.0060211965 0.0567505 -0.09381518 0.12228032 -0.14280263 0.11659081
0.02735158 -0.085216604 0.04634919 0.196859 -0.28474203 0.032767102 0.05830274 0.115302734
0.006342207 0.115727656 0.035029057 0.050355412 -0.03172098 -0.23887387 0.24055484 -0.05923954
-0.2081023 -0.26000294 -0.11226939 -0.11999551 -0.024512634 -0.0763168 -0.021201245 -0.16660756
-0.045740377 -0.020742234 0.14659005 0.006026515 0.027582636 -0.0151236085 0.13903357 0.034750752
0.0037072042 0.1958547 0.06826024 -0.0032303033 -0.2681374 -0.2733903 0.043139245 -0.00060173904
-0.13984737 0.00019192164 0.27220714 -0.035881005 0.18818873 -0.013810018 0.08221401 0.0639493
0.080505185 -0.014622884 0.0022233664 -0.26955962 0.094771996 0.0642023 -0.078609124 0.18287537
-0.034015484 -0.04940049 -0.07698701 0.13436566 -0.021118488 -0.021066967 -0.09412868 -0.17497957
0.0032671795 -0.05629326 -0.3821986 0.11063555 -0.21741968 0.16849123 -0.06362022 -0.100989096
0.06726985 0.16133703 -0.1498497 -0.035733167 -0.08765868 -0.12635244 -0.055601425 0.096959576

hidden_nets.0.bias f4 [128]
00000000: e1b5 90bd b605 5dbd 88bd 07be 9225 88bd
00000010: 1a0e 0d3c c8cd 2cbd e04c 953c 9eb4 cf3c
00000020: 72ee 6ebd 8250 28be 003e 20bd c724 66bd
00000030: b08a 1dbe f990 83bd e911 bbbd fc97 0bbb
00000040: 0210 3cbd f976 113d 961b 07be ea13 97bc
00000050: ba0c 9fbd e6fe 21be f0e0 38bc 0fbe 0abe
00000060: 5fee 5ebd c68f ccbc 79a6 b2bd 8440 b6bd
00000070: 535c 0f3d b705 053d 679d 9abd e9e2 1a3d
00000080: 09bc 4bbd 2c4e 863d b1c9 1abe ac30 53bd
00000090: 5312 21bd b572 c5b9 e722 cd3d 0d32 09be
000000a0: a34a 72bd 189e d6bd 669f 6739 ca25 f9bd
000000b0: 7fd9 bdba 2a27 10bd 360e 37be 2ec5 4a3d
000000c0: 2355 053d b53b c5bd a085 c23c 1d4e f8bd
000000d0: e201 bb3d 723f 53bd 1a11 babc 0508 14bd
000000e0: 2758 cabd e54a f1bd 4b30 38bc 674c 7b3d
000000f0: d0a8 d0bc ee6d f9bd d569 b7bd f04c 26be
00000100: 0000 0000 bc5b 2bbd afd4 203d ad0c cbbd
00000110: 65bb 133d e2ea 99bc f965 52bd 43fd 42bc
00000120: 1604 733d 478d aabd edaf d1bd 477e d9bb
00000130: 6ac7 51bd 536d c8bd 0000 0000 1b31 f6bd
00000140: 8c44 7ebd 06d8 f6bb 50c2 db3c ea84 febd
00000150: f054 95bd 0000 0000 a5e5 ed3c f3c6 38be
00000160: 1657 733d a3de 92bd 3465 043c f10c d53d
00000170: 5b49 dcbd 52b6 4fbd 71f3 4abc 4489 03be
00000180: 4db9 d3bb 2963 b4bb 03c2 09be db44 ab3c
00000190: b369 73bc 11ad adbc 6adf 5f3c 8be7 50bc
000001a0: dc4e d4bc 19dc 9a3c 65f5 cebd 9271 423c
000001b0: 34b3 ffbd 1dd9 2bbd 5e51 aabd 22dd 2dbe
000001c0: b65b 4b3d 5cff 143d b9ad 6fbd 262d 4bbd
000001d0: 5bb8 9bbd d9c4 63bc c1b0 e0bc bdc5 bdbd
000001e0: 2c4b f53c d08f 0cbe 6c76 ddbc a1d3 bd3b
000001f0: 5d23 86bc 2352 ac3d f476 273d cc55 40bc
-0.07065941 -0.053960524 -0.13255894 -0.06647791 0.008609319 -0.042188436 0.018225133 0.02535468
-0.058332868 -0.16436961 -0.039121628 -0.056187417 -0.15384936 -0.06424136 -0.091342755 -0.0021300307
-0.045913704 0.03551385 -0.13194117 -0.018442113 -0.07766099 -0.15819892 -0.011284098 -0.13549064
-0.054426547 -0.0249709 -0.087231584 -0.08899024 0.035000157 0.032476153 -0.07549553 0.037814055
-0.04973987 0.06557879 -0.15116002 -0.05156009 -0.039324116 -0.00037660231 0.10016423 -0.13397999
-0.05915321 -0.10479373 0.00022089257 -0.12165411 -0.0014484375 -0.0351936 -0.17876515 0.04950445
0.032551896 -0.09630529 0.023745358 -0.12124274 0.091312185 -0.051574178 -0.022713233 -0.03614046
-0.09880095 -0.11781863 -0.011241983 0.06135216 -0.025471121 -0.121791705 -0.08955733 -0.16240287
0.0 -0.04183553 0.03926533 -0.09914527 0.036067385 -0.018788759 -0.05136678 -0.011901203
0.05933007 -0.08327728 -0.10238633 -0.006637368 -0.051215567 -0.09786477 0.0 -0.12021085
-0.06207709 -0.007533076 0.026826054 -0.12427695 -0.07291591 0.0 0.029040167 -0.18044643
0.059409223 -0.07171371 0.008080769 0.10402859 -0.10756179 -0.050710984 -0.0123871425 -0.12845331
-0.0064612986 -0.005504985 -0.13452916 0.020906856 -0.014856744 -0.021200689 0.013664106 -0.012750517
-0.02591651 0.018903779 -0.10105399 0.011867898 -0.12485352 -0.041955102 -0.08316301 -0.16978887
0.04964801 0.036376342 -0.058515284 -0.049603604 -0.076035224 -0.013901913 -0.027428033 -0.09266231
0.029943071 -0.13726735 -0.027034007 0.0057930504 -0.016374284 0.08414104 0.040884927 -0.011739206

hidden_nets.1.weight f4 [128, 128]
00000000: c228 02be 0c96 9abd ae2e 0bbd 07ae 51bd
00000010: 78d0 3bbe a927 5cbd 39c2 b0bd 9c87 4ebe
00000020: 02af fc3d a243 f83d e73e 6bbb 8300 41be
00000030: 8a79 7b3d e332 19be 18c1 5c3d 4ed3 8a3c
00000040: 2990 a9be bcbd e6bd ceab 11bd ebc6 e7bd
00000050: ccf2 aabd 8ad8 d1bd 650b 0cbe 91f7 1bbe
00000060: fe03 c7bc 60c1 063e 9da0 2abd bdb2 463b
00000070: 0404 4e3e 2432 803d d83e 6f3d 5444 37be
00000080: 2a61 95bd 0ebf 55be 0673 b83b 2aa4 b2bc
00000090: 8596 e83d 4a17 88be 4263 e4bd 2dcb 0abe
000000a0: cb9c 9cbe ce75 29bc 92bf dd3d ccec 9abd
000000b0: 9234 f3bc f071 aabd c93d eabd 8539 40be
000000c0: 6f66 ab3d 4843 02bc 2aef 91be fe93 c73d
000000d0: d0ee 8cbb b445 61be 3fd2 31be 4274 f9ba
000000e0: e5ef c7bd 2840 edbd 7ff8 023e 4ab8 b73e
000000f0: 3a67 233e f25b 1d3d 6912 e23c 3e6b 5abe
00000100: 43ff 153e 2a6c 173e 42bb 00bd ec12 38be
00000110: 08c9 d03d 13a2 e7bc e39e 04bc 49fa 143e
00000120: 5fbb 70be a929 283e d7f3 8dbd d558 143d
00000130: 9279 983d 80d6 d5bd bd65 f43d 19d3 11be
00000140: 9eeb 89be a1a4 95bd 5b20 71be f884 80be
00000150: a313 88be e446 43bd 015b 163e 6099 363d
00000160: 25a2 80bd f0fc 2abe e5f1 37be aaa5 e8bc
00000170: 2f9d 833c f580 00be d9e1 523d 6b4c 4a3d
00000180: cf59 443d 4678 083e 783e 91be d7c8 dd3c
00000190: cefa 3fb9 e752 053e 665f 25be 0bf2 f3bd
000001a0: 9d7b d2bc b765 84be 834f fcbd 34ec 1d3d
000001b0: 9c68 003e 30af 36be a851 76be 5790 20be
000001c0: 1b72 a03c a9e3 f2bd 032b afbd 3138 a0bd
000001d0: 737b 513d 9adf cabd 56be 4abd ee2b eebd
000001e0: 380a a4be 8ee1 28be 321f 82bd e011 43be
000001f0: 1674 7c3e 7126 57bd 9001 a4be 4218 8bbe
00000200: 7206 443d da29 ec3d 1e8c e43d 208a 2fbd
00000210: 1398 3dbe 206f e6bb 7160 733d 6edc 143e
00000220: ef67 c3bd 81ab 06be fdd1 ddbb 0abb d7bc
00000230: 5c53 33be a3db 8e3d 3d70 bebc 6fda 073e
00000240: 2591 71be cf9b a0bc df8b d53b c612 00be
00000250: acb5 7f3c 2bf3 253e d5c3 0d3e d33e 88bb
00000260: e509 abbd a345 b0bc 3d3a 7bbd 94d6 bd3b
00000270: 6ad0 8e3d 6dfb 20be 1e49 1ebd c187 4abe
00000280: cd54 cabc 43ff 00be b90c 173e 56d2 f23c
00000290: eafa 653c f62c a5bd c5c6 bbbe 4eab 8ebd
000002a0: 9571 c2bd 649c ab3d c77f 4e3c 063a 6d3d
000002b0: 4d62 89be dc0a bdbd c03e ce3d a0af 5fbe
000002c0: 0c1b 2abe 084f 0fbe aec2 24bd d1a6 4ebd
000002d0: b91b 853d be82 943d 9760 37be 3eef 40bd
000002e0: 2e2f 15be a69c 133d aa40 fa3d b77d 3abc
000002f0: c1f4 103e 80d1 d1bd 754a 653e 27dd 92bc
00000300: 6d5d 143e e1e1 86bd 6334 cabe a869 c2bd
00000310: 0dbb 41be 6201 e6bd 78e7 323d 51b0 bb3c
00000320: 5998 1c3d d0cb a0bc 4b2a b73d ad17 1a3d
00000330: 6041 6b3c 656f 923c 1696 6e3d 5c5d 573e
00000340: 3e58 b5bd 9bed 02be cbed 81be 14c2 7cbd
00000350: 4b8b 903c e0cd 0e3e 5558 1bbe 700b debc
00000360: 4b76 783e 1f08 d7bd 4a00 82bd 7ebc b7be
00000370: a09d 953d 3653 f3bd baba ffbc 8c64 a83d
00000380: a0c1 4e3d 6dde 1d3d 566e 15be a06e 74be
00000390: eb9b 81bd c8da b93d 7252 8a3d bc0d ddbe
000003a0: 2fc7 eebd 1653 94bd d648 ee3c bc63 13be
000003b0: 2d6c 6abd b087 8a3a 4af8 d1bc 7b5d a63d
000003c0: 9161 e7bd 1137 b9be b15c 00bd df68 b4bd
000003d0: 5d9a d23d 4bf8 c2be 905f 493d c1b4 6fbc
000003e0: 48cb 54be c232 8bbd ed88 993d 5c4a bdbc
000003f0: c00d 0bbe 81c3 c2bc e4bd 1e3d 1f51 aabd
-0.1271086 -0.075481504 -0.033980064 -0.051191356 -0.18341243 -0.05374876 -0.08630795 -0.20168918
0.123380676 0.12122275 -0.0035895647 -0.18847851 0.061395206 -0.14960818 0.053895086 0.016946461
-0.33117798 -0.11266658 -0.035564236 -0.113172375 -0.08347091 -0.1024638 -0.13676222 -0.15231158
-0.024293896 0.13159704 -0.04165708 0.0030318939 0.2011872 0.062595636 0.05840954 -0.17897159
-0.07293923 -0.20873663 0.0056289462 -0.021806795 0.11356834 -0.26580268 -0.111517444 -0.13554068
-0.30588374 -0.010343028 0.10827555 -0.07564697 -0.029688153 -0.08322513 -0.11437566 -0.18771942
0.08369147 -0.007950611 -0.2850278 0.09745024 -0.0043009296 -0.21999246 -0.17365359 -0.001903184
-0.09762553 -0.115845025 0.12790106 0.3588279 0.15957347 0.038417764 0.02759667 -0.21329972
0.14648156 0.14787355 -0.031428583 -0.17975968 0.10194594 -0.028275525 -0.008094522 0.14548601
-0.23508976 0.16422142 -0.069312744 0.03621753 0.07445063 -0.10441303 0.119334675 -0.14240684
-0.26937574 -0.07306791 -0.23547499 -0.25101447 -0.26577482 -0.04767503 0.14683153 0.044579864
-0.062809266 -0.1669805 -0.17963369 -0.028399307 0.016066162 -0.12549193 0.051484916 0.049389284
0.04793721 0.1332713 -0.28367972 0.027073307 -0.00018308611 0.13019906 -0.16149673 -0.119114004
-0.025693709 -0.25858852 -0.12319853 0.03855534 0.12539905 -0.17840266 -0.24054587 -0.15680061
0.01958566 -0.11859829 -0.08553126 -0.07823218 0.05114312 -0.0990593 -0.049497925 -0.11629473
-0.32039046 -0.16492292 -0.06353606 -0.19049788 0.24653658 -0.052526895 -0.32032442 -0.27166945
0.04785771 0.1153142 0.11159538 -0.042856336 -0.18515043 -0.00703229 0.059418146 0.14537212
-0.09541308 -0.13151361 -0.0067694173 -0.026334304 -0.17512268 0.06975486 -0.023246879 0.1326692
-0.23590524 -0.019605545 0.006516918 -0.12507161 0.015607279 0.16206042 0.13844235 -0.00415788
-0.083514966 -0.02151758 -0.061334837 0.005793402 0.069733456 -0.15720911 -0.03864395 -0.19778349
-0.02469864 -0.12597375 0.14750947 0.029641312 0.014036873 -0.08065216 -0.36675087 -0.069662675
-0.0949432 0.083794385 0.012603707 0.057916664 -0.2683281 -0.09230587 0.10070562 -0.2184434
-0.1661188 -0.13994992 -0.040224724 -0.050452057 0.06499428 0.072514996 -0.1790794 -0.04710316
-0.14568779 0.036038063 0.12219365 -0.011382512 0.14155866 -0.10245037 0.22391684 -0.01792772
0.14488764 -0.06586052 -0.39493093 -0.094928086 -0.1891901 -0.112307325 0.043677777 0.022911223
0.038231228 -0.019628435 0.089436136 0.037620235 0.014358848 0.017875383 0.0582486 0.21031708
-0.088547215 -0.12785952 -0.25376734 -0.061708525 0.017644545 0.13945723 -0.15170415 -0.027105063
0.24263875 -0.10499596 -0.063477114 -0.35885996 0.07305455 -0.118811056 -0.031216968 0.08222303
0.050477624 0.0385422 -0.14592871 -0.23870325 -0.06328567 0.09074932 0.067540064 -0.4317454
-0.11659085 -0.0724241 0.029087465 -0.14393514 -0.05723207 0.0010569002 -0.025631089 0.08123299
-0.11297906 -0.36174825 -0.031338397 -0.08809065 0.10283349 -0.38080058 0.0491634 -0.014630497
-0.2078067 -0.06796791 0.0749682 -0.023106746 -0.13579464 -0.023774864 0.038755313 -0.08316254

hidden_nets.1.bias f4 [128]
00000000: dff1 fcbc 16ad 113e f56d 6fbd 7a74 dc3d
00000010: 435b bf3c 79ee 9c3d 1473 5d3d 5fa3 913b
00000020: c901 013e 23be f03d b4d6 a03d c7dd 703d
00000030: 3cfe be3d a1d2 9fbc 2424 fb3d 2ee9 c73d
00000040: b31b d93c ef51 063e 607c 273b 7632 dc3d
00000050: 061f c73d 5707 943d e6b4 bd3d b6fa 003d
00000060: 0859 92bb bf4e 063d ed76 853d 0993 1e3d
00000070: 574d 733d d76c 9e3d b7ff 4a3d f7ae 2c3c
00000080: 2003 cd3d bb86 e03d 3ad9 973d e29d 793d
00000090: 7873 ee3c 073a f13d 5121 5d3d aea0 fbb9
000000a0: 9df2 8c3d 486a 8bbd 600f cc3d 0856 6a3d
000000b0: 445d a73c dc78 1c3d cb9e b23d 47b6 963d
000000c0: cc78 cd3d 2c00 273d 2535 0e3e 5481 993d
000000d0: 9a56 9d3d 14a4 a63d e164 ef3c d8df 023d
000000e0: 479e e93d 1ccb ce3d 01c7 6d3d ff44 ac3d
000000f0: 7c29 f63c 0fb1 ba3d 9ab8 8c3d 7f14 ae3d
00000100: caac 88bc 2726 c43d 056c b7bd 1cf9 e13b
00000110: 82c1 f4ba 8c98 ee3d cfed f43d 72dd fd3c
00000120: e58c 9e3d 990a b53d 6e96 053e 7f62 a13b
00000130: b09a f73d 9434 9f3d 32d3 983c becc 613d
00000140: 035a 8f3d a31f 883d dd0b b43d 378a f6bc
00000150: 3246 953d 030f 9e3d 4f1b 9f3d 130a 06bd
00000160: 2980 51bb ae64 0f3d e358 c93d 583d 8f3d
00000170: 3bef c73d 150e 693d 7bf4 c03d bd1f 043d
00000180: 7578 9bbb b4d1 933d 84df 043b 470f af3d
00000190: d652 0f3e 9c74 8e3d b1e5 a03d 6af9 a23d
000001a0: e7be f73d 4e9a 453d 7827 d23d d38c 9b3d
000001b0: 8925 cbbc 6ab7 debc 5984 683d 54f3 273d
000001c0: b911 293d 9da7 8d3d 1040 f13d 2428 69bc
000001d0: 1f05 5c3d 865c a03d af35 9abd 49c9 d93d
000001e0: b82e 8d3d abe4 a43d 2d9c 29bd 841d a83d
000001f0: b8b3 4cbc 220a c83d 16fc f43d ddeb 823d
-0.030877052 0.14226183 -0.058454473 0.10764404 0.023358947 0.076626725 0.054064825 0.004444524
0.12598337 0.11755016 0.07853451 0.058805253 0.09325835 -0.019509615 0.12262753 0.09761272
0.026502466 0.13117193 0.002555631 0.10751812 0.09722714 0.072279625 0.09263019 0.031489097
-0.0044661798 0.032789942 0.06516824 0.038714442 0.05939993 0.07735603 0.049560275 0.010539762
0.10010362 0.10963198 0.074144796 0.060941584 0.029107794 0.11778646 0.05398685 -0.00047994166
0.06882212 -0.06807381 0.0996387 0.057210952 0.020430215 0.038201198 0.087216936 0.073589854
0.10032806 0.04077165 0.1388746 0.074953705 0.076825336 0.08136764 0.029222907 0.031951755
0.11407142 0.10097334 0.058051113 0.084115975 0.030049078 0.091158025 0.068711475 0.08500003
-0.016683955 0.095775895 -0.0895615 0.006896151 -0.0018673392 0.1165019 0.11959421 0.030989382
0.07741717 0.08839912 0.13045666 0.0049250717 0.12090051 0.077737 0.018655393 0.055126898
0.0699959 0.06646659 0.08791325 -0.030095203 0.07288779 0.07717707 0.077688806 -0.03272445
-0.0031967259 0.035008125 0.09831407 0.06994122 0.097624265 0.056898195 0.09421631 0.03225683
-0.004744584 0.07217732 0.0020274827 0.08547836 0.13996443 0.06955835 0.0785631 0.07957728
0.120969586 0.04824286 0.10261434 0.075952195 -0.024798172 -0.027187068 0.05676684 0.04100354
0.041276667 0.06916735 0.11779797 -0.014230762 0.05371582 0.078301474 -0.075297706 0.10634095
0.068936765 0.080514275 -0.041408706 0.08208755 -0.01249402 0.09767558 0.11962144 0.063926436

hidden_nets.2.weight f4 [64, 128]
00000000: 74a9 9dbd ed71 583d c47d 6cbe 1675 a43d
00000010: 83e5 b43d 08ed 30bd 203a 93be 325b 0a3e
00000020: 0a6f 8bbe 0d00 98be 3e5d b33d 32c5 273d
00000030: 3fd6 b6bd 11b3 98bd c406 f13d 0e86 7e3d
00000040: 625d 91be ceb3 f4bd 6d1f 0dbd d94a 903e
00000050: 1d08 65bd 65f1 cabd 61f9 7c3c 058f 36be
00000060: 5622 203b e43a 333e 5af7 133e 8484 f13c
00000070: 727d 8cbc bd9b 6f3e d714 34bd 0bf6 d3bd
00000080: 1a7d 73bd 992b 033d c19a 7cbc 6e70 8c3e
00000090: 9021 b53d b505 e8bd bbba 193c 170c 3fbe
000000a0: d880 153e 1c7f d73d 35d7 133e eebe 30be
000000b0: 5a8c 5c3e 4286 943d af98 58bd 95a5 4cbd
000000c0: ebf7 e13b 5a93 073d 224e 5dbd f117 3abd
000000d0: e9f3 033e 6d47 203d 1be4 95bc 602e a9bd
000000e0: 82a5 3bbc ee57 1ebe c631 e3bc 3b49 25be
000000f0: af49 a13d e562 79be c8f7 d0bc 7e91 833c
00000100: 8cc6 c6bd 5c81 55bd 55a1 80be ba2f 193b
00000110: a79a 5dbd e01b 8cbd 1a04 69be f52c 24be
00000120: 89c5 183d a005 1a3e b47b 80be c183 433e
00000130: db15 d4bc 32ca 203e 8334 45be d7c9 c33c
00000140: 8a1f 50bc e230 4ebe 0de6 0f3e 1cba e5bd
00000150: 5425 a7be 3d68 12be 10f6 48be c9fb bc3d
00000160: f395 333e 87f1 3cbe e4d8 d93d 080c 4cbe
00000170: d9aa 46be 5cfb b6bd 2c8a b3bc f444 153c
00000180: 9255 3d3e baf6 aebd 7ae3 7bbd 946b 7fbe
00000190: 6622 d5bd 9c53 22be 16f1 19bc 9d4d b93d
000001a0: e3a8 dabd b947 cbbd 1aea 153d 7a7d 643e
000001b0: 315a 713e a7a6 04be 1986 0ebe f8ea 26bd
000001c0: 5107 3f3d dc1d 063e 4816 28be 2246 403e
000001d0: 72a8 a8bd 4095 4ebd 66c5 30be a853 963d
000001e0: bb9b 62be c38f b4bd e060 b43c 2825 143e
000001f0: cc9d 593d 4b79 53be 2089 45be cb3f 3b3b
00000200: 9980 bbbd 555e 1bbd bb71 023e c0a7 45bd
00000210: c793 0b3e c4f4 bcba 777b 8f3d b045 3ebd
00000220: 0db4 823d ef5d 78bd a102 353d 19a9 b7bd
00000230: 0aac debd 6f40 f6bd 28c9 ffbd 1755 08be
00000240: 0ede 32be 9918 17bd fb05 9d3e a180 b93c
00000250: 0be1 67bd d83c 9dbe fa74 d3bd 5bbb 0abe
00000260: a41e 34bd 58cb 333d 2465 42bc 5c91 9cbe
00000270: 68c4 d63d fccd a33c 8919 0e3e 98f9 453c
00000280: df6f a13e 3aa8 ad3d 04a6 d6bc 037e 923c
00000290: 91c1 433e 03a3 e5bd 008c 1dbe e93f 05be
000002a0: be16 023d 8560 6cbd 38df 7e3d 5537 0e3d
000002b0: 0c19 913d 169a 10bd 5f8a 813c edd9 e4bd
000002c0: 5ca4 96bd 5c20 cf3c bf64 ef3d 47d5 82bd
000002d0: 9e21 15ba 690b 35be 3e30 073e a24e a6be
000002e0: 57f1 e0bd 42f2 113d e829 57be 725c b73d
000002f0: 6f8f 383d d86c 433d 4304 70be f925 db3d
00000300: acb0 f73d 75d4 d13d 2c41 81bd 37d9 1fbd
00000310: 6939 9e3e 2cef ffbd 68e4 edbd 42aa 62bc
00000320: b00c a43e 95c5 4ebd fa17 f7bd 9ce6 4bbe
00000330: 33fb 053e a56b 763d 30b5 aebd b0ab bd3e
00000340: 2b14 c1bd 83a1 3cbd e1a7 eabd 3adf a5bd
00000350: b6e2 f23d ea8a c23c dfcd 1ebe 4a8d 0c3c
00000360: 2bb0 623c 0d38 b23d 73a0 25be 7fd8 cc3b
00000370: 1847 513d eadd 5f3d 1d3a 96bd 48b3 d3bb
00000380: 6316 78bc e7f9 04bc 0fa3 a0bd fef6 283d
00000390: c18e 95bd a516 aabd 3454 583c 201e 2fbc
000003a0: 9221 10be 3a60 b0bc 4be4 db3d 6a67 09be
000003b0: 0445 91ba 76cf c53c ed05 c3bd 8b6a e43c
000003c0: b5fb 99bd 952c c9bd a806 373b e6eb c73d
000003d0: ab41 33be 45d3 81bd 4bc1 2d3e 718f 91ba
000003e0: 1499 eabd 3916 393e e629 2bbc 82d4 6abd
000003f0: 8985 0ebe 5996 54be 9c52 3fbe 9a5d f4bd
-0.07698336 0.052843023 -0.23094851 0.08030145 0.088328384 -0.0431948 -0.28755283 0.13511351
-0.27233154 -0.2968754 0.08758019 0.040959544 -0.08927583 -0.07456029 0.117688686 0.062139563
-0.28391558 -0.119483575 -0.034453798 0.28182104 -0.05591594 -0.099093236 0.015440316 -0.17827995
0.0024434528 0.17502934 0.14449826 0.029482134 -0.01714966 0.23399253 -0.043965187 -0.10349663
-0.059445478 0.032024 -0.015417756 0.27429527 0.08844292 -0.113292135 0.009382899 -0.18656956
0.14599931 0.10522291 0.14437564 -0.17260334 0.21537915 0.0725217 -0.052879985 -0.0499626
0.006896009 0.03309951 -0.05402959 -0.04543299 0.12886013 0.039130617 -0.018297246 -0.082607985
-0.011453034 -0.1546323 -0.027733695 -0.16141216 0.07875382 -0.24354132 -0.025508776 0.016060587
-0.097058386 -0.05212532 -0.25123087 0.0023374395 -0.054102566 -0.06841254 -0.22755471 -0.16032775
0.03729776 0.15041208 -0.25094378 0.19093229 -0.025889328 0.15702131 -0.19258313 0.023899956
-0.012702832 -0.20135835 0.14052601 -0.11217138 -0.32645667 -0.14297576 -0.19625115 0.09227712
0.1753767 -0.1845151 0.10637072 -0.19926465 -0.1940111 -0.08934662 -0.021916471 0.009110678
0.18489674 -0.08543153 -0.061496235 -0.24943382 -0.104069516 -0.15852207 -0.009395858 0.09048007
-0.10676744 -0.099257894 0.03660021 0.2231349 0.23569562 -0.12954198 -0.13918342 -0.040751427
0.046637837 0.13097328 -0.1641475 0.18776754 -0.082352534 -0.050435305 -0.17262802 0.07340175
-0.22129719 -0.08816483 0.02201885 0.14467299 0.053129002 -0.20651738 -0.1929059 0.002857196
-0.091553874 -0.03793176 0.12738697 -0.048255682 0.13630591 -0.0014416208 0.07005971 -0.046453178
0.06381998 -0.060636457 0.04419196 -0.089678 -0.108726576 -0.120240085 -0.124895394 -0.13313709
-0.1746752 -0.036888693 0.30668625 0.022644343 -0.056611102 -0.30710483 -0.10325046 -0.13548033
-0.043974534 0.043895096 -0.011864934 -0.3057965 0.1048668 0.019995682 0.13876928 0.012083434
0.31530663 0.08479352 -0.02620221 0.017882353 0.19116808 -0.11212733 -0.15385437 -0.13012661
0.03175997 -0.057709236 0.062224597 0.034720737 0.070848554 -0.035303198 0.01581305 -0.111743785
-0.07355568 0.025283985 0.11689138 -0.06388336 -0.0005688908 -0.17680134 0.13201997 -0.32481867
-0.10983532 0.035631426 -0.2101208 0.089531794 0.045058664 0.047711223 -0.23439126 0.10700602
0.12094244 0.10245601 -0.06311259 -0.03902551 0.30903175 -0.1249679 -0.11615831 -0.013834538
0.3204093 -0.050481398 -0.1206512 -0.19912189 0.13084106 0.06016125 -0.085306525 0.3704505
-0.09427675 -0.046052467 -0.114578016 -0.08099218 0.11859648 0.02374788 -0.15508221 0.008578608
0.013835947 0.08702097 -0.16174488 0.0062513943 0.05109319 0.054654993 -0.07335303 -0.006460581
-0.015142056 -0.008116222 -0.07843601 0.041251175 -0.07302619 -0.083051 0.013203669 -0.010688335
-0.14075306 -0.02153026 0.10736903 -0.13418356 -0.001108319 0.024146777 -0.09522615 0.027882835
-0.075187124 -0.098229565 0.0027927551 0.09761791 -0.17505519 -0.063391246 0.16968267 -0.0011105371
-0.114549786 0.18074884 -0.010447001 -0.05733157 -0.13918127 -0.20760478 -0.18683857 -0.119319156

hidden_nets.2.bias f4 [64]
00000000: c28d f7bc d6a5 95bd 6fdb 0f3f 9caa ea3e
00000010: 4022 013f 1f0b e33e 8145 0abd af2c eb3e
00000020: f9f8 d2bb d8e6 c33e 24a6 533e d316 e83e
00000030: 122a cf3d 207c 4bbd de19 b4bd 3953 f43e
00000040: 4035 b33e f9b7 f53e 6357 d23c 9763 87bc
00000050: a04c abbd edf7 39bc 28ad ee3e aa00 923e
00000060: 5bb2 d43e 1038 eb3e 5899 f13e 35c9 073f
00000070: 5e0e f83e 90e3 39bd aa19 f53e fec3 ea3e
00000080: 3c42 043f cf78 ccbd 563c ea3e e1a1 dc3e
00000090: d387 0e3f 7c0a ed3e f5ac bfbd 2d29 ee3e
000000a0: 2b24 32bb 8471 ef3e d585 78bd 5304 ec3e
000000b0: 0e90 eb3e 13c5 39bd f066 28bd 2efb eb3e
000000c0: 1fed 41bd c849 f03e fbc2 f93e 38c7 ff3e
000000d0: ea7e 1ebd 6197 a9bd 93f5 fb3e 4e2b 063f
000000e0: 697e f73e 323b acbc 0839 ec3e 8376 4cbc
000000f0: 352b a2bd e212 fc3e fe1c 84bd 436b 6fbd
-0.030218963 -0.07307021 0.56194204 0.4583329 0.50442886 0.44344422 -0.03375769 0.45932528
-0.0064383713 0.38262057 0.20668846 0.45329913 0.10115446 -0.04967892 -0.08793996 0.47719744
0.35001564 0.47991922 0.025676435 -0.01652698 -0.083642244 -0.011350614 0.46616483 0.28516132
0.41542324 0.4594121 0.47187304 0.5304139 0.4844846 -0.045383036 0.47871143 0.45852655
0.51663566 -0.0998398 0.45749158 0.43092254 0.55676 0.4629706 -0.09359161 0.4651579
-0.0027182202 0.46766293 -0.060674507 0.4609705 0.46008343 -0.04535396 -0.041113794 0.46090072
-0.047345277 0.4693129 0.4878157 0.4995668 -0.038695253 -0.08280826 0.49210796 0.5240983
0.4833863 -0.02102432 0.4613726 -0.012479427 -0.07918397 0.49233156 -0.06450842 -0.058451902

value_stream.weight f4 [1, 64]
00000000: 9690 d5be 8703 79be e819 9a3e e05e bf3e
00000010: 287e a83e a9cc ee3e 937b 93be a36c f73e
00000020: 21de c3bd 2cd1 bf3e c856 123e f40b f13e
00000030: aa29 8f3e be97 a9be af2b 83be 0f6d e73e
00000040: dc40 b93e 20e5 bb3e 3ded 9d3d 26dd f43b
00000050: 2bdb 033e d66a 86be 27c4 fa3e 99f7 cb3e
00000060: a653 e73e c1af e33e 98a4 d83e df9b d63e
00000070: 75e3 cf3e 5a55 babe 8819 b43e 1e4c c63e
00000080: 3f11 b13e 1fda 03be 1e63 ec3e d8ae d63e
00000090: 2bc3 913e eed5 d03e 5d91 79be 5817 f83e
000000a0: 4f86 533e 2c36 ed3e 8c78 15be 874d ef3e
000000b0: a7ff cf3e 8cb9 afbe 11d4 8fbe ba64 d43e
000000c0: cdca 263a 1d62 c93e 89db bf3e 55bf ca3e
000000d0: abd7 d73d a01e 37be 8404 a93e 5aac bd3e
000000e0: e0b5 c53e 3462 96be 0e5c c33e 9a4f 3bbe
000000f0: 615c 72bd 86d3 e93e 4878 57bd c28f 603e
-0.41711873 -0.24317752 0.3009789 0.3737707 0.3290875 0.46640518 -0.28805217 0.4832507
-0.09563852 0.37464273 0.14290917 0.47079432 0.27961475 -0.33123583 -0.25619265 0.45200393
0.36182296 0.36698246 0.07711265 0.007472652 0.12876575 -0.26253384 0.48977777 0.3983734
0.45181006 0.44470027 0.42313075 0.41915795 0.40603223 -0.36393243 0.3517573 0.38729948
0.3458347 -0.12876175 0.4616937 0.4193027 0.28469214 0.40788215 -0.24371858 0.4845531
0.20656703 0.46330392 -0.14596766 0.46738836 0.40624735 -0.3432125 -0.2809148 0.41483098
0.0006362617 0.39332667 0.3747218 0.395991 0.10539182 -0.17882776 0.33011258 0.37045556
0.38615322 -0.29371798 0.3815617 -0.18292084 -0.05917013 0.45669192 -0.052604944 0.21929839

advantage_stream.weight f4 [5, 64]
00000000: a764 08bc c74a 62bd 0d92 873d 5126 c5bd
00000010: 2878 ad3d bc1a 6cbd df31 26be 3c11 dfbc
00000020: 63e6 973d 6f8f 1a3e efec 97be 1d1d db3d
00000030: 1d74 2abe 0b3b 8b3d 7bee 0c3e 54d6 17bd
00000040: 783c 073e f442 9fbd 57db e6bd 7166 333c
00000050: 47bb a23e 1e8b 153e e1eb 55bd 2e78 0bbe
00000060: bc47 fc3d c1a2 fb3c 5845 dc3d 2356 f4bb
00000070: 2e22 52bc ab65 09bd 8fb6 9cbd c416 0d3d
00000080: 6eb1 1bbd 0432 613e ec04 343c ef27 dd3d
00000090: 8c2e 923d 684d ed3d 5a1c c8bd e028 903d
000000a0: 7bf4 31bd 2d5b 283e e1be a5bb 3d4c 0f3e
000000b0: caa0 b83d bc9f 893e cd5d a43e 6735 a73d
000000c0: 9479 203d 49e6 d3bc fa13 833d b7ec 12bd
000000d0: 01cd 8fbd 9c2b 2f3e 434a 07bd f90a 273c
000000e0: 0c70 853b 1810 673e 98c6 20bd 007a 973c
000000f0: 376e 8bbd dbce c3bd 7bb2 bdbc 1d8d 9d3e
00000100: 0b8d 23be db9e a93e a046 0a3d e1d0 e7bd
00000110: 7283 1f3d 426f 2dbd 6791 d3be ae8a 98bd
00000120: df67 c03e b15c 023e fbb0 813e 08d8 933c
00000130: 0eb1 c93d 3cb9 8b3d 3cfb 7abd 574d 56bd
00000140: 66d9 353e d39a 91bd 6330 783e 3485 57be
00000150: 1f88 81bd 583c cd3c bf2d e3bd ab90 683b
00000160: 2316 f13d ff30 9b3c 8a8c 6d3d 44e7 efbc
00000170: 2d8c 32bd 6c73 73bd fecf fdbd 4b09 ed3c
00000180: 9878 55bd aa3a 19bd 478f e7bc cf66 df3d
00000190: 594d 893d f5ba c33d 22ff 34be 4668 cb3d
000001a0: 37ab 5a3e 03ff 1d3e 2aa2 953d 86ef ab3d
000001b0: 7cf8 bd3d 00aa d1bc 3997 00bf e53a a13d
000001c0: 8c87 bfbd 3697 203c 6d1b 833d 70f5 44bd
000001d0: 19eb 3e3d 1067 d6bd 46c9 48bd 7a1b af3a
000001e0: 37ef 13bd 6872 2d3d 9e6b 82bb fa74 e0bd
000001f0: e5ae a0be 8af6 ffbd 3ae2 fb3c ff8e e7bd
00000200: 677d 59bd e382 cbbe 7040 973d d59e 46bd
00000210: 3684 883d 6891 41bd 0e76 2cbe 97cf 123d
00000220: 00c9 32bc 0ba7 cf3d 1a2d c53e 9229 883d
00000230: b6a8 bebd f7d7 94bd 53a1 053d 88d6 67bc
00000240: 38ad 4e3d af2a 73bd 66eb 5bbd 0dd1 84bc
00000250: 56cb d1be 688e 43be 341e c4bd d45a 3f3d
00000260: ba3b 9f3d c207 f9bc 1650 3d3d 1462 c8bc
00000270: ecb6 90bd efd5 02be e290 1cbe 1a68 953c
00000280: 7fdc 813c bf95 463e 02a6 71bc 4f84 d53d
00000290: a2ad 9e3d aa8d ae3c e6f2 583d 2adb c53d
000002a0: b859 31be cfc7 013e 6a07 9bbd 00c2 293e
000002b0: f7bc be3d 6cb8 25bd 3fdd db3c 9e5f 003e
000002c0: 748c 043e c9a3 16bd 1145 cb3b 3969 92bd
000002d0: 2baa 69be 2466 b03d 03e1 e7bc de4e 9f3c
000002e0: ab6e f1bc d581 563c 20b1 29bd 6ef9 06be
000002f0: e0b9 8d3e dfcc c3bc 9598 0a3d bf7a 9abe
00000300: 782d 193e d35e 1a3c b37e 1b3d 174c d4bd
00000310: 5910 9a3d e87e 7fbd f719 ecbd 7e26 70bd
00000320: b1b9 2abe 743e 703d 6f65 78be 6e30 1d3d
00000330: a15a b93e 1fee c53e 16ff 553e 8ef3 68bd
00000340: 2486 d43d 0a86 f9bd c1f5 a33e c89f 9e3e
00000350: 33bb 59be 8e15 2fbd be2e dcbd 7778 d1bd
00000360: 65f5 aa3d 0552 713d 2055 8e3d 27c3 e8bc
00000370: bb31 2dbc 8e86 933e b300 ffbd 4e46 aebb
00000380: d44c 0fbd e921 54bb 2747 57bc 9192 173e
00000390: a40f 813d 399b 003e a1a4 66be e7e3 a03d
000003a0: 7578 643d 707b 0e3e 383d 9dbe 911a f73d
000003b0: c1be 223d 5058 8dbe ebfb cebd 8804 1d3d
000003c0: c668 1a3e 5591 b93b ca63 7e3d a9ac 3abd
000003d0: a4d9 a93d 21bb 18be e696 87bd b229 0cbd
000003e0: bb51 34bd 908d 2c3e 1008 83bc 8ae4 eb3e
000003f0: 5395 883e a4eb d7bd c83c 903e 1f69 5e3e
-0.008324779 -0.055247094 0.06619654 -0.09626449 0.084701836 -0.057642683 -0.16229962 -0.027229898
0.0741699 0.15093778 -0.29672953 0.10698912 -0.16645856 0.06798371 0.13762848 -0.037069634
0.13206661 -0.07776442 -0.112723045 0.010949717 0.31783506 0.1460385 -0.052226905 -0.13620064
0.1231837 0.030717256 0.10755414 -0.0074565574 -0.012825532 -0.033544224 -0.07652008 0.03444554
-0.038011007 0.21991736 0.010987502 0.10798632 0.07137784 0.1158703 -0.09771033 0.07039046
-0.043446045 0.16441031 -0.005058155 0.13993926 0.09015043 0.2687968 0.32102814 0.081644826
0.039178446 -0.025866644 0.064002946 -0.03587028 -0.07021523 0.1710648 -0.033029806 0.010195487
0.004072195 0.22564733 -0.039251894 0.018490791 -0.06808131 -0.09560939 -0.023156395 0.30771723
-0.15971772 0.3312901 0.03375876 -0.11319137 0.038943715 -0.04234243 -0.4132187 -0.07448326
0.37579247 0.12730671 0.25330338 0.018047348 0.098482236 0.0682244 -0.061274752 -0.05231985
0.17758712 -0.071096085 0.24237208 -0.21046907 -0.06324791 0.025053188 -0.1109271 0.003548662
0.117718 0.018944262 0.057995357 -0.02928508 -0.043590713 -0.059436247 -0.12393187 0.028935095
-0.05211696 -0.037409462 -0.028266562 0.10908281 0.06704206 0.095571436 -0.1767545 0.09931998
0.21354376 0.1542931 0.07306321 0.08395295 0.0927591 -0.025593758 -0.5023075 0.07872561
-0.093520254 0.0098016765 0.064017154 -0.04808563 0.046610925 -0.10468876 -0.049020074 0.0013359629
-0.036116805 0.042345434 -0.003980114 -0.109598115 -0.31383434 -0.124981955 0.030747522 -0.11306571
-0.05309811 -0.39748296 0.07385337 -0.048491318 0.06665842 -0.04725781 -0.1684191 0.035842504
-0.01091218 0.10139283 0.38510972 0.06648554 -0.09309523 -0.072677545 0.032624554 -0.014150269
0.050458163 -0.059366878 -0.05369129 -0.016212964 -0.40975446 -0.19097292 -0.09576073 0.04671748
0.07775064 -0.030399207 0.046218954 -0.02446083 -0.070661396 -0.12776922 -0.15289643 0.018238116
0.015852211 0.19393061 -0.014749052 0.104256265 0.077479616 0.021307785 0.05296602 0.09660943
-0.17319381 0.12673877 -0.075697735 0.16577911 0.09313386 -0.04045908 0.026838897 0.12536475
0.12944204 -0.03677729 0.0062033017 -0.07148976 -0.2281882 0.08613232 -0.028305536 0.019446786
-0.029471716 0.013092478 -0.041428685 -0.13181087 0.27680874 -0.023901401 0.03383692 -0.30171773
0.14958751 0.009422022 0.037962627 -0.103660755 0.07522649 -0.062376887 -0.1152839 -0.05863046
-0.16672398 0.05865331 -0.24257444 0.038376264 0.36201957 0.38658234 0.20898089 -0.056872897
0.10377148 -0.12183769 0.32023433 0.30981278 -0.21262817 -0.042745166 -0.10751103 -0.10228055
0.083475865 0.05891611 0.0694983 -0.028413368 -0.010570939 0.28813595 -0.12451305 -0.0053184396
-0.03498538 -0.0032368845 -0.013139523 0.14802004 0.06301811 0.12559213 -0.22523738 0.07855969
0.05577894 0.13914275 -0.3071077 0.12065614 0.0397327 -0.2760644 -0.10106643 0.0383344
0.1507903 0.005663077 0.062106885 -0.045574818 0.08293465 -0.14915134 -0.066205785 -0.03421945
-0.044023257 0.16850877 -0.015995055 0.460728 0.26676425 -0.10542992 0.28171372 0.21719788

advantage_stream.bias f4 [5]
00000000: addf d3bd 1b83 b93d 1497 b6bb 5973 313e
00000010: 0c96 65be
-0.10345397 0.090582095 -0.005572209 0.17329158 -0.2242052

hidden_nets.0.weight f4 [128, 11]
00000000: c7ea 493e e859 22bc 8ae0 80bd adc2 c2bd
00000010: 2884 95bb 2697 9b3d 0e9e 4abd 1fb9 cbbd
00000020: ea00 e93d 6c37 85bd 8f7d acbd 528e 0c3e
00000030: f283 0f3e c199 07be 1c08 9ebd 4be3 de3d
00000040: b019 28bd 5a39 c0bc 33e1 61be 671c 34be
00000050: d35d d2bd af2a 293d ec55 393c 2f50 3abe
00000060: b6ce 21be 62a9 e93c cb0a 423e c3a3 d5bc
00000070: 5e23 693d 69b4 553d c3b1 08be 8522 7dbd
00000080: 8890 163d dc31 d6bd f327 88bd 4d7c 28be
00000090: 9b24 6bbe 87e2 0e3e ac1a 58be ee6f 153e
000000a0: 4fe2 f8bc 118d 8e3d 942a 553e 9380 353e
000000b0: a6bf 6e3e b764 6e3d ade0 5bbe f25e fd3d
000000c0: 4ce0 5bbe d7d1 6fbd e645 8b3c efd1 95bd
000000d0: 0794 ea3b bb0b 2cbe 6eb8 debd 8ee0 cf3d
000000e0: 92e5 1ebe 01af 25bd b482 28be 15ca 473e
000000f0: edd7 e0bd 869f 98bc 14ea 9cbd a61e dc3d
00000100: 6d9a 87bc 5bb9 0c3e 97f2 a1bc 208d 1c3d
00000110: 5f39 81be 12c5 ae3d 4d0e 99bd b985 37be
00000120: 40dc 6abd d5ce 7b3c 03a5 0dbe c600 42bc
00000130: 00fa 42be 809a 98bd b7a6 693c ae37 ae3d
00000140: f5bf 23be 6283 a0bd 8142 a2bd 6ef0 383e
00000150: d8d3 d33c 4df7 093e 3922 17be 2c8b 8db9
00000160: 3493 f43a fd93 18bd e5ff eabd 81bf d63c
00000170: c9c3 523d 1f7e 49be 4d66 f2bd c53f fcbd
00000180: 8725 f4bd 1d56 91be d6c1 5b3d ef28 1ebd
00000190: 08ae 91be 5a43 7d3d d940 553c f69e 693e
000001a0: 7d2c dfbb cfbc c2bc b1d6 ac3c d4d4 1e3d
000001b0: 24f4 aebc fb3b 55bd 8989 923d 5486 ba3d
000001c0: f512 e8bd d074 f93d 959b 2cbe ec26 bdbc
000001d0: 292e bcbd 4a21 233d 52a2 12be 1735 813d
000001e0: 0728 d93d d852 dd3d 0c74 32be 9ce8 103e
000001f0: d7e0 1cbe d1d6 8e3b 88aa 59bd a7e6 00be
00000200: b502 80be bf14 813d fa9f a0bc 0670 2cbe
00000210: 41d9 5dbe fa02 b0bd a87a b33d efaa 0cbe
00000220: c335 e3bb bc87 fb3d 457c 1c3c 84c8 8abc
00000230: ebbf a13d 34f0 133c b61c 68bd 45e0 97be
00000240: 9524 35be 26cc 41bb 2309 fe3d 6f92 193e
00000250: bc99 26be a789 dbbd 6b7f 67be af59 173e
00000260: 7b42 693c cc3a f63d 3ca6 643e 41eb 14be
00000270: 1cbd efbd 6f0a 29bd 98f1 e73d abe6 a8ba
00000280: 8a57 0fbd b36c cebd dc68 04be 898f 26bb
00000290: 4d84 e7bd 981c 12bd 20e3 4a3d 2b93 07be
000002a0: 0c9f 55bd 244a 22be 754d c5bb 3673 683d
000002b0: 2c22 c0bd 1b6e fa3d da3a 12be 2ac7 ee3d
000002c0: e1e6 753c 8404 c1bd 542f 1b3d 4fe5 453e
000002d0: 3c18 96be 8ffb a73c 28b7 5e3d f345 d83d
000002e0: 4ad2 cf3b 9b99 d33d 1999 133d 78d5 5d3d
000002f0: bcf2 ecbc 43a1 72be a893 773e d2e9 66bd
00000300: 5274 4fbe fe96 86be f206 e0bd 35c0 f5bd
00000310: 9e19 b1bc 51e3 a3bd 3cae adbc 2c9b 2abe
00000320: 435a 3bbd 9eeb a9bc b41b 163e 127a c53b
00000330: fbf4 e13c 03c9 77bc d15e 0e3e ce56 0e3d
00000340: 91f4 723b e6ea 463e 864c 853d a000 b8bb
00000350: 5762 8bbe 39ce 8cbe eb60 2b3d 9033 5b3c
00000360: 7280 12be 933e 4939 8353 893e b654 0fbd
00000370: 9390 423e ac86 57bc 5b9e a83d d4f7 803d
00000380: 793b a63d 5b38 3abc 6735 7bba 169a 89be
00000390: d217 c23d a052 873d ec4d 97bd 2885 363e
000003a0: ebdc 1bbd 08ec 56bd 9f9b acbd 92f1 053e
000003b0: a5be c1bc c0ad b4bc 473e c7bd d82d 33be
000003c0: 1bfb c83a d431 53bd 1fa8 c2be 9272 e53d
000003d0: 5399 5dbe c679 2d3e 9a8c 7dbd aba9 d4bd
000003e0: 8d34 8a3d 6d36 263e 3372 19be 7fdd 0cbd
000003f0: 3af8 b8bd 8962 01be 52be 63bd be92 c63d
0.19718467 -0.009909131 -0.062928274 -0.09509788 -0.0045628734 0.07597189 -0.04946714 -0.099474184
0.113771275 -0.065047115 -0.08422386 0.13726166 0.14015177 -0.13242246 -0.077163905 0.108831964
-0.041040123 -0.023464847 -0.22058563 -0.1758896 -0.10271802 0.041300472 0.011311989 -0.1819465
-0.1580151 0.02852315 0.1894943 -0.026079064 0.056918494 0.052174006 -0.1334906 -0.0618005
0.03675893 -0.10458729 -0.06648245 -0.16453667 -0.22963183 0.13953601 -0.21103925 0.14593479
-0.03038135 0.069605 0.20817024 0.17724828 0.23315296 0.058201518 -0.21472426 0.12371625
-0.21472281 -0.05854973 0.017001104 -0.07315432 0.0071587595 -0.1680135 -0.10875021 0.10150252
-0.15517262 -0.0404501 -0.1645611 0.19510682 -0.109786846 -0.018630754 -0.07661834 0.10748033
-0.016553128 0.13742582 -0.019768996 0.038220525 -0.25239083 0.08533682 -0.07473431 -0.17922105
-0.057338953 0.015369137 -0.13832478 -0.011841005 -0.1904068 -0.074513435 0.014260939 0.08506714
-0.15991195 -0.07837559 -0.07922841 0.18060467 0.02585785 0.13473244 -0.14759149 -0.00026997307
0.0018659593 -0.037250508 -0.11474589 0.026214363 0.051456247 -0.19677018 -0.118359186 -0.123168506
-0.1192122 -0.28386012 0.053651653 -0.038613256 -0.28453088 0.06183181 0.013015949 0.22814545
-0.0068107233 -0.023771672 0.021098467 0.038777187 -0.02135665 -0.052059155 0.07155139 0.09107652
-0.11331741 0.12180483 -0.16856225 -0.023089848 -0.09188492 0.03982667 -0.14319733 0.06308954
0.10603338 0.10806817 -0.17427081 0.14151233 -0.15320145 0.004359104 -0.053141147 -0.12587987
-0.25002065 0.06302785 -0.019607533 -0.16839609 -0.21664907 -0.08594318 0.08763629 -0.13737081
-0.006933899 0.12281749 0.009551113 -0.016941316 0.078979336 0.009029437 -0.056668006 -0.29663292
-0.17689736 -0.0029571145 0.124040864 0.14997266 -0.16269583 -0.107196145 -0.226072 0.14780305
0.014237042 0.12022933 0.22329038 -0.14542867 -0.117059916 -0.041269716 0.11325377 -0.0012886127
-0.034995593 -0.100793265 -0.12930626 -0.0025415143 -0.11304531 -0.0356718 0.04953301 -0.13239734
-0.052153632 -0.15848595 -0.0060211965 0.0567505 -0.09381518 0.12228032 -0.14280263 0.11659081
0.015008659 -0.094246894 0.037886932 0.19325756 -0.29315364 0.020505695 0.05437389 0.10560217
0.006342207 0.10332032 0.036034677 0.054158658 -0.028924339 -0.23694329 0.2417742 -0.056375332
-0.20259216 -0.26287073 -0.10938825 -0.11999551 -0.02161866 -0.080023415 -0.021201245 -0.16660756
-0.045740377 -0.020742234 0.14659005 0.006026515 0.027582636 -0.0151236085 0.13903357 0.034750752
0.0037072042 0.19425544 0.06508736 -0.005615309 -0.27223465 -0.27501085 0.041840475 0.013378993
-0.1430681 0.00019192164 0.26821527 -0.034992896 0.19000463 -0.013154667 0.08233329 0.062972695
0.08116812 -0.011365975 -0.00095828477 -0.2687537 0.094771996 0.06607556 -0.07387909 0.17824233
-0.03805248 -0.05247119 -0.0842812 0.13080433 -0.023650477 -0.022055507 -0.09728675 -0.17497957
0.0015333624 -0.05156119 -0.3801889 0.11203493 -0.2164052 0.16940984 -0.061901666 -0.10383924
0.067483045 0.162317 -0.1498497 -0.034390923 -0.090317205 -0.12635244 -0.055601425 0.096959576

hidden_nets.0.bias f4 [128]
00000000: df43 9fbd 9be5 60bd e266 0cbe 4aa4 75bd
00000010: 559d 0e3c 42ad 31bd 2d1b b23c 1555 ed3c
00000020: 72ee 6ebd b1e8 27be f4c8 10bd 6ac7 6dbd
00000030: b08a 1dbe f990 83bd 2909 b9bd fc97 0bbb
00000040: b9cb 63bd 0e44 1d3d 961b 07be 6e76 b1bc
00000050: 2366 9dbd c13a 25be f5d2 28bc 0fbe 0abe
00000060: 5fee 5ebd 876a eabc 94d9 a5bd 57b8 b2bd
00000070: 39b1 0c3d 1eae 103d d220 91bd 4c65 223d
00000080: cee9 55bd 0daf 8d3d 3cae 15be ac30 53bd
00000090: a373 21bd 7ff4 e9ba fa53 cd3d 7e3e 0bbe
000000a0: 6eb1 7dbd 4602 d7bd 21d3 7aba 0ef1 fabd
000000b0: 153e 563b abb8 37bd 048f 3bbe 96aa 283d
000000c0: a160 1a3d b53b c5bd 3702 e43c 0aef 00be
000000d0: 6faa b73d 766a 52bd 2f17 d6bc cb30 2dbd
000000e0: a8c0 c9bd 84b3 f8bd 4b30 38bc 2624 823d
000000f0: 1c43 dabc bdd6 efbd 5919 c4bd b34c 23be
00000100: 0000 0000 e3f1 22bd e261 193d d456 cdbd
00000110: c876 1a3d e2ea 99bc f4a0 48bd acb8 31bc
00000120: d329 3a3d 8f2f abbd edaf d1bd 477e d9bb
00000130: f91d 48bd 51de c6bd 0000 0000 086a f9bd
00000140: 93c0 82bd 6977 27bc e3a8 1e3d 664b 03be
00000150: 7396 96bd 0000 0000 d202 033d 06cd 39be
00000160: 34be 6f3d 4504 9abd 8d5e fb3b a2cb d63d
00000170: 2b76 e4bd 34a0 3cbd 7e54 22bc 0560 ffbd
00000180: 4251 ddbb 04df d33a 03c2 09be 0040 983c
00000190: 49bd 44bc a5be ccbc 6adf 5f3c d7e8 2ebc
000001a0: 2e52 b4bc 0961 b13c 6b41 d1bd a0a1 543c
000001b0: a278 fcbd 1dd9 2bbd 475d b3bd 98cd 33be
000001c0: 0b47 1f3d 735c 193d 2360 6dbd 6260 51bd
000001d0: 2f38 9bbd 2190 6fbc c1b0 e0bc d4f6 b5bd
000001e0: b5ed 013d c656 0dbe b375 ddbc 5b3b 963b
000001f0: 671f b9bc 0b3a a93d 2337 153d 6794 21bc
-0.07776617 -0.05490647 -0.13711122 -0.05997113 0.008704503 -0.043378122 0.021741474 0.028971234
-0.058332868 -0.16397358 -0.035347894 -0.058051504 -0.15384936 -0.06424136 -0.0903495 -0.0021300307
-0.055614207 0.03839498 -0.13194117 -0.021662917 -0.07685497 -0.16135694 -0.010304202 -0.13549064
-0.054426547 -0.02861525 -0.0809814 -0.08726566 0.0343487 0.0353223 -0.07086338 0.039647385
-0.052224927 0.06918154 -0.14617246 -0.05156009 -0.03941692 -0.0017849355 0.10025783 -0.13598058
-0.06193679 -0.104984805 -0.0009568204 -0.12253009 0.0032690812 -0.044853847 -0.18316275 0.04117831
0.03768981 -0.09630529 0.027833087 -0.12591186 0.089680545 -0.05137106 -0.026134102 -0.04228286
-0.098511994 -0.12143615 -0.011241983 0.06354551 -0.026643328 -0.1171088 -0.09575147 -0.15947227
0.0 -0.039781462 0.037446864 -0.10026327 0.037710935 -0.018788759 -0.04898162 -0.010847252
0.045450043 -0.083586805 -0.10238633 -0.006637368 -0.04885671 -0.09710372 0.0 -0.12178427
-0.06384387 -0.010221341 0.03873528 -0.12821731 -0.07352915 0.0 0.03198511 -0.18144616
0.058531 -0.075203456 0.0076711834 0.104880586 -0.11155351 -0.04605122 -0.00990784 -0.12469486
-0.0067540715 0.0016164486 -0.13452916 0.018585205 -0.01200802 -0.02499325 0.013664106 -0.0106756305
-0.022011843 0.021652715 -0.102175556 0.0129779875 -0.123276964 -0.041955102 -0.087580256 -0.17558897
0.03888611 0.037441682 -0.05795301 -0.05111731 -0.075790755 -0.014621765 -0.027428033 -0.08884969
0.031720836 -0.13802633 -0.027033662 0.0045847124 -0.022597982 0.08263024 0.036429536 -0.009862042
