phase4_part3_doc_test/seed_111/dqn_racing_final.pth (torch, 452869 bytes, 36 tensors)

hidden_nets.0.weight f4 [128, 11]
000000 f1 37 15 be 56 2a 14 3e a5 8d 87 3d b9 6c ef 3d
       -0.14572121 0.14469275 0.066188134 0.11690659
000010 cb 7c 11 3e 7b b6 3e be 2f 26 28 bd 54 6d 50 be
       0.14207761 -0.18624298 -0.04105204 -0.20354205
000020 a1 6b fc 3d 81 7c 5c bd ab 2c e3 bd 36 ca 2c 3e
       0.12325216 -0.053829674 -0.11092504 0.16874012
000030 11 1b 13 be 02 cb 0d 3d 3e 2e fd bc dd c9 1e 3e
       -0.14365794 0.03461743 -0.030905839 0.15506692
000040 d0 e8 19 3c 6e 58 09 bd 01 58 88 3c 82 55 20 3e
       0.009393886 -0.0335316 0.016643526 0.15657619
000050 a7 77 84 bd cf 39 f5 3c 92 23 2e be 4f 77 47 bd
       -0.064681344 0.029934792 -0.17005756 -0.048697766
000060 6c 93 d6 bd 1e eb a2 bd 11 4a da bd f9 72 1b 3e
       -0.10477337 -0.07955001 -0.10658658 0.15180577
000070 58 48 99 bd a7 75 46 be c7 8c d3 bd f5 05 d0 bd
       -0.074845016 -0.19380818 -0.103295855 -0.10157386
000080 d8 ab f4 bd 25 07 bb 3d 76 89 7a bd d4 de b0 3d
       -0.11946839 0.09132222 -0.06116625 0.08636251
000090 26 a6 80 bc bf d1 46 3e b0 39 c3 bd 0a 85 e6 3c
       -0.015704226 0.1941595 -0.095324874 0.02813961
0000a0 79 7a cf 3d e0 ed de 3d 72 a5 29 be c6 bf 79 bd
       0.10130782 0.10885215 -0.16567019 -0.060973905
0000b0 bf 52 05 3d ed d3 99 3d d6 49 6e 3c 66 52 df bd
       0.032549616 0.07511125 0.014543971 -0.10904388
0000c0 6b 1d 9e bc 85 99 fd 3d cf 3d 1e 3e 39 ce 4c be
       -0.019301137 0.12382797 0.15453266 -0.20000543
0000d0 8b 3f ff bd 8b cd a6 bc 25 ed 93 3d d3 cd bb 3b
       -0.12463292 -0.020361682 0.07222966 0.0057313233
0000e0 99 69 10 be 10 03 73 3c 3c 88 d8 be f8 f7 29 bd
       -0.14102782 0.014832273 -0.4229144 -0.041496247
0000f0 ce 39 3f bc f2 91 30 be 48 06 f6 bd a5 b2 93 3d
       -0.011671497 -0.17243174 -0.12012917 0.07211808
000100 0c 35 62 be ee f0 36 be d4 ac 03 be c6 b9 b0 3d
       -0.22090548 -0.17865345 -0.12858897 0.086291835
000110 d4 a8 2b bc 62 6e fd 3b 01 c0 66 be c4 b4 15 3e
       -0.0104772635 0.007734106 -0.22534181 0.14619738
000120 dd 29 9d 3d f5 b5 98 3d bc e2 c0 3d c1 1a 62 bd
       0.076740004 0.074565805 0.09418246 -0.055201296
000130 1d 43 c4 3c 11 ec 88 bd 98 6a 0b 3e 2d 33 28 3e
       0.023957783 -0.06685651 0.13614881 0.16425772
000140 9e a6 06 be b0 4d 92 be 9f 88 47 be d4 b1 3b be
       -0.13149497 -0.28574896 -0.1948571 -0.18329555
000150 45 8b 19 3e 3e 17 fd 3d 40 eb 05 be c1 ef f0 3c
       0.14994533 0.12357949 -0.13078022 0.029411199
000160 9d d7 f6 3d ce 10 dc bc e2 06 c0 bd 7f 51 e7 bd
       0.12052844 -0.026863482 -0.09376313 -0.11294841
000170 f0 c0 81 3e 22 ec 8f bd 69 bf 24 bb f9 5a d5 bc
       0.25342512 -0.07027461 -0.0025138503 -0.026044356
000180 f2 08 44 3d 74 e2 d0 bb ae d2 0e 3c e9 eb b7 3c
       0.047860093 -0.0063746516 0.008717222 0.022451358
000190 c1 01 50 3d a9 03 c8 bd 10 6e 93 3d 59 f4 e2 3d
       0.050782923 -0.09766323 0.07198727 0.11081762
0001a0 e3 e6 c3 3b bd 9a bd bb f6 92 7b 3d ce de 9b 3d
       0.0059784516 -0.0057862685 0.06141945 0.07610856
0001b0 3a 73 16 bc 9e f7 0a 3d 26 16 2e 3e de 9c 4f be
       -0.009182746 0.033927552 0.17000636 -0.20274684
0001c0 6c 61 24 3e 26 6c d6 3d 05 85 5a 3d e0 ee 18 be
       0.16052788 0.104698464 0.053349514 -0.14934874
0001d0 56 2e ec bd 0d d4 dd bd 6b c2 30 3d 83 8d 7d ba
       -0.115322754 -0.10831461 0.04315416 -0.0009672271
0001e0 7e 4b 2b bd 4d 47 18 bd fe 44 d1 bd 89 ba f4 bc
       -0.04182004 -0.037177373 -0.10218237 -0.029874103
0001f0 43 e1 a7 be b7 3b 3b 3d c3 91 68 be 9b ee 40 3d
       -0.3278905 0.045711245 -0.22711854 0.047102552
000200 50 b9 05 3e dc 36 44 bb 4a 2f 17 be 59 ea 1e be
       0.13058972 -0.0029939925 -0.14764133 -0.15519084
000210 e3 49 20 be 1a 4b a9 3c 1d f0 21 be e6 e0 a4 bd
       -0.15653186 0.020665694 -0.15814252 -0.080507085
000220 d4 60 51 3d 4f 22 b3 bd f1 38 5b bd bf 26 1a be
       0.051117733 -0.08746778 -0.0535211 -0.15053843
000230 cb 41 82 3d 10 d2 b4 3c 41 6a a9 3d 2d 62 0a 3e
       0.06360205 0.022072822 0.082722194 0.13514014
000240 49 f3 8f 3d 56 5b e4 bc 50 46 36 be 25 88 83 3e
       0.07028825 -0.027875584 -0.1780026 0.25689808
000250 4a 70 34 3d 7a 91 b7 bd eb 27 86 bd db 88 7a bc
       0.0440524 -0.08963294 -0.065505825 -0.015291418
000260 43 b0 3e be a5 5c da 3d 27 bf 20 be 11 85 35 3e
       -0.18621926 0.10662202 -0.15697919 0.17726542
000270 36 af ba bd c9 91 2b be d9 e9 17 be ab 83 bc bd
       -0.0911545 -0.16754831 -0.148353 -0.09204801
000280 8d 5d e5 3d c3 a1 4e be f3 08 20 be 00 cd 98 bd
       0.11199484 -0.20178895 -0.15628414 -0.07460976
000290 b6 45 9c bd 59 cc b8 3d 00 f5 5e bd 89 2d 29 3d
       -0.07630484 0.09023351 -0.05443287 0.04130319
0002a0 3e 01 b8 3d 66 5c 57 3e 52 a3 47 3e cc df 0a 3c
       0.08984612 0.21031341 0.19495896 0.008476209
0002b0 5a fd 49 be c3 d8 33 3e 33 55 0e be 84 4e b0 3a
       -0.19725552 0.17563157 -0.13899688 0.0013451134
0002c0 46 7a b1 bb 83 1b 1b 3e 75 cb 0e be bc 6d 73 be
       -0.0054161875 0.15147214 -0.139448 -0.23772329
0002d0 8c 25 82 be b8 ff 38 bd f8 4f b6 3c 86 89 42 3e
       -0.2541927 -0.045165747 0.022254929 0.18997774
0002e0 a5 31 1e be 16 da b6 3d 2a 8c fc bc 8d 79 44 be
       -0.15448625 0.08928315 -0.030828554 -0.19186993
0002f0 24 93 00 3d 07 5b 2c be c5 a4 a3 3d 8e 3f 00 3e
       0.031390324 -0.16831599 0.07990412 0.12524244
000300 a4 de 79 bc f0 c7 1a 3e 7b db 68 be a3 b3 40 be
       -0.015250836 0.15115333 -0.22739975 -0.18818526
000310 72 55 3a 3e 7b 70 c7 3d c8 5b 1a be e2 82 74 be
       0.18196657 0.09738251 -0.15074074 -0.23878053
000320 3e 01 9a bb 22 5b d8 bd b6 b1 46 bb 68 fb 22 be
       -0.004699855 -0.10564257 -0.0030318326 -0.15916216
000330 19 ab 62 3d f7 75 09 3e 96 aa 01 3e b6 ad de bd
       0.055338953 0.13423906 0.1266273 -0.108729765
000340 78 66 fd 3d ff 22 53 3d 8c b8 ac bd 2b d1 04 be
       0.1237306 0.051547047 -0.08433637 -0.12970416
000350 20 f9 d0 3c 01 98 34 3e f0 aa 1f 3c 2b c7 46 3c
       0.025509417 0.1763611 0.0097453445 0.012132446
000360 a0 4b 8a 3d 1d 46 dd bd be 64 a3 3d 0b 27 1c bc
       0.067527056 -0.10804389 0.079781994 -0.009530793
000370 e5 52 89 3d b8 82 8b 3c f8 3a 6c 3d 8a 50 f7 bd
       0.06705264 0.017030105 0.057673424 -0.120759085
000380 b7 35 e4 3d c5 52 c7 3d 09 36 70 3d fa 44 8a 3d
       0.11143058 0.09732584 0.058645282 0.067514375
000390 7c aa b4 bc c0 dc c0 bd 49 47 bd bd 61 be 2d be
       -0.02205395 -0.09417105 -0.09242112 -0.16967155
0003a0 65 7d 34 bb 38 32 1f bc 74 a2 0f be f2 ab 50 be
       -0.0027540561 -0.009716563 -0.14026815 -0.20378092
0003b0 08 ce 3c be aa d4 0a 3e 3c 91 2e be fd c4 1e bd
       -0.1843797 0.13557687 -0.1704759 -0.03876208
0003c0 60 bc 03 bd 25 f5 2f be 35 5d 65 3d 00 96 56 bc
       -0.03216207 -0.17183359 0.055997092 -0.013097286
0003d0 aa 60 2f be bf 07 73 3c 9d 04 f4 3d bc 79 b6 bd
       -0.17126718 0.01483339 0.119149424 -0.08909938
0003e0 55 e2 29 3e c9 aa ce bd 38 c5 2e bd e0 1f 36 be
       0.16590245 -0.100911684 -0.04266855 -0.17785597
0003f0 42 94 da bd 81 7d 4b be 99 d7 03 bd d9 43 8a bd
       -0.10672809 -0.19872095 -0.03218803 -0.06751222

hidden_nets.0.bias f4 [128]
000000 64 34 27 bd 56 88 80 bd c4 8a c4 bb f4 35 ae bd
       -0.040821448 -0.06276004 -0.0059979875 -0.085063845
000010 4d 6b 09 bd 5e aa 24 3d ea 48 02 3b 16 b0 ce 3b
       -0.033549596 0.040201537 0.0019879886 0.006307612
000020 ca 29 a3 bd 9a 9f b1 bd 5d 70 94 bd 41 1e c2 3c
       -0.07966955 -0.0867302 -0.07247994 0.023696067
000030 00 00 00 00 e6 41 e1 bd 19 8b f1 bb 89 88 60 3b
       0.0 -0.10998897 -0.007371318 0.0034261069
000040 74 b8 67 39 98 7f c9 bc 54 9e 63 bd 56 39 e4 bd
       0.00022098591 -0.024596974 -0.055570915 -0.111437485
000050 61 e5 cf bd a4 0f 82 bc 8a 1d 05 3d f7 c4 1c bc
       -0.101511724 -0.015876599 0.032498874 -0.009568444
000060 23 76 e7 bd 21 59 02 bd 08 62 94 bc 01 97 e0 bd
       -0.1130183 -0.03182328 -0.018113151 -0.10966302
000070 1c 33 63 bd 3d 9c 74 bd fe 29 c4 bc b4 c1 2f 3d
       -0.055468664 -0.059719313 -0.023945805 0.04290934
000080 0d e1 2f bd 05 75 41 3c 3e 2d e7 bc 44 51 f4 3b
       -0.042939235 0.011807685 -0.028219815 0.0074559767
000090 c4 ea 35 bd c5 1e 83 3d 17 eb 23 be 33 68 48 bd
       -0.044413343 0.06402353 -0.16007648 -0.048927497
0000a0 5c 50 85 bd e8 54 13 3d 66 4b 98 bd 00 00 00 00
       -0.06509468 0.035969645 -0.07436256 0.0
0000b0 53 17 82 bd 86 3d a2 bd e3 71 cb bd f2 be f7 bc
       -0.06352105 -0.07921891 -0.099338315 -0.030242417
0000c0 c9 70 57 3d 72 80 56 bd da d4 c1 bd b6 9f 4c 3c
       0.052597795 -0.05236859 -0.09464426 0.01248925
0000d0 68 a2 d8 bc e4 40 a6 bd 6a e8 27 3c 7b 04 33 bc
       -0.026444629 -0.08117846 0.010248283 -0.010926361
0000e0 ce 77 6e bc 64 6d 8e 3c 01 53 ce 3c 58 cd a2 bd
       -0.014554931 0.017386146 0.025186064 -0.079493225
0000f0 2d 56 f6 3c 56 55 61 bd 17 38 a6 bc 44 43 67 bd
       0.030070389 -0.055013023 -0.020290418 -0.056460634
000100 88 ac c1 bd aa 76 8d bd f8 fe e2 bd 55 1e e0 bd
       -0.09456736 -0.06907399 -0.11083788 -0.109432854
000110 00 00 00 00 3b f6 9e ba 68 1a 0d bd 87 7c c0 3c
       0.0 -0.0012127826 -0.03444901 0.02349688
000120 cc 2e e3 3b 6f ae 1d be c0 fc 5a bd c6 93 ad bd
       0.006933069 -0.15398572 -0.053463697 -0.08475451
000130 ac 43 d9 3b 05 d0 80 bc 64 fd f1 3c 4f eb e0 3c
       0.0066303816 -0.015724191 0.029539771 0.027455954
000140 02 cf aa bd 13 3b 0e bc 74 36 4e 3c d0 14 37 bd
       -0.08340265 -0.008681077 0.012586225 -0.044697583
000150 56 f5 9a bd 5a fa 01 be 38 b9 15 bd 2a 9f a1 bd
       -0.07566325 -0.12693158 -0.03655359 -0.07891686
000160 fc 86 bb bd b0 18 a1 bb 79 c8 96 bd d2 92 a7 bd
       -0.091566056 -0.004916273 -0.07362456 -0.081823006
000170 5c c5 b2 3b 3b 26 31 3d ed 92 a9 bd 1f 53 40 bc
       0.005455656 0.04324935 -0.08279977 -0.011738568
000180 90 6a 86 3c 37 b6 90 3b 00 00 00 00 cb ad 00 bd
       0.016408235 0.004416253 0.0 -0.031415742
000190 d8 57 1f 3c 00 00 00 00 5b cd 75 bd d5 44 d7 bd
       0.009725533 0.0 -0.060010295 -0.105111755
0001a0 8a f6 e7 bb 90 21 32 3d 68 52 0f 3d 47 62 5d bd
       -0.0070789503 0.04348904 0.034990698 -0.054048803
0001b0 48 17 54 bd 8b 90 99 bd 92 81 19 3c 9f d6 55 3c
       -0.051780015 -0.074982725 0.009369271 0.013051658
0001c0 67 e0 cb bd 83 7f 0f bd 15 80 fd bd 49 db 33 bd
       -0.09954911 -0.035033714 -0.12377945 -0.0439103
0001d0 92 c4 44 bb 6e 75 eb bd b6 9a 05 bc fb be 85 bc
       -0.0030024392 -0.11497007 -0.008154562 -0.016326418
0001e0 a0 62 65 bd 65 d6 96 bd 0c dd cc 3c 76 35 be bc
       -0.05600226 -0.07365111 0.025007747 -0.023218852
0001f0 d8 a4 0e bc 19 4b fc bc 00 00 00 00 d9 10 81 3c
       -0.008706294 -0.030797528 0.0 0.015755104

hidden_nets.1.weight f4 [128, 128]
000000 fc 99 46 3d e4 cc d9 3d 69 4c e0 bd a9 4b f7 3a
       0.048486695 0.10634783 -0.10952074 0.0018867153
000010 5d 61 37 bb 72 fa 32 3e 04 c4 cd bd e7 ab 83 bd
       -0.0027981617 0.1747835 -0.10047153 -0.06429272
000020 92 3e a3 3d e4 04 12 3d ed 61 37 3e ac 4c 2a 3e
       0.07970919 0.035649195 0.1790845 0.1663081
000030 c3 59 f5 3d e0 77 b6 3d 4c c6 64 3d 1e 37 e7 bc
       0.11980011 0.08909583 0.055853173 -0.028224524
000040 35 e9 13 be 3a 13 9f bd bb 96 af bd fe 42 01 bb
       -0.1444443 -0.07767339 -0.085736714 -0.0019723768
000050 ad c8 10 bd 4b 85 ec 3d aa 12 11 3d f9 24 97 3b
       -0.03534763 0.11548861 0.03541819 0.004612562
000060 82 eb ef bd be 8e 13 3e 4a 24 9f bd 01 aa b5 3d
       -0.117148414 0.1440992 -0.077705935 0.08870316
000070 f1 d9 b3 3d 9a 97 82 3d a7 9d 6a bc 41 83 39 bd
       0.087818034 0.06376572 -0.014319814 -0.04529119
000080 89 48 c5 bc 2f b5 8c be 26 c5 86 3d 31 6b c0 bc
       -0.024082439 -0.27481982 0.06580572 -0.023488613
000090 fb 8c 0e 3e a2 eb 49 be 95 a7 9e 3d c8 42 00 be
       0.13920967 -0.19718793 0.077468075 -0.12525475
0000a0 0e 23 2c 3e 62 7f 51 be fa 6b 56 3d 95 95 df 3d
       0.16810247 -0.20458749 0.05234907 0.109172024
0000b0 7e 89 c2 bc 6a 75 fb 3d 36 32 bb bd 5f 2e 84 bd
       -0.023747202 0.12278254 -0.09140436 -0.06454157
0000c0 f7 ec 33 3d 6d f7 8b 3d ed 4c e1 3d 72 ea 0d be
       0.04392716 0.06834302 0.110010006 -0.13858965
0000d0 ed 6b e0 3c 94 01 ac 3d d0 07 1c be f2 a4 f0 bd
       0.027395213 0.083987385 -0.15237355 -0.11750211
0000e0 1d 66 d4 3d 11 3c 56 3a 6c 13 e6 3d e0 6e 17 bc
       0.10371039 0.0008172403 0.11234173 -0.009242743
0000f0 33 bf 79 be d8 44 b4 bd 22 94 c1 bc 0b 64 a8 bd
       -0.24389343 -0.088021934 -0.023630206 -0.08222207
000100 23 14 c9 bc e5 4a aa bc 93 92 ce bd 0c 51 17 bd
       -0.024545735 -0.020787666 -0.100865506 -0.036942527
000110 3d cb ba 3d d8 04 82 bd 35 0d c8 3d 4a c1 58 be
       0.09120796 -0.0634858 0.09768144 -0.21167484
000120 e0 03 52 bb 08 04 6e 3d 52 fc 0e be ed c3 a9 bc
       -0.0032045767 0.058109313 -0.1396344 -0.020723308
000130 d6 57 4e bd a8 c1 67 be 12 bb 1e be 6e 42 21 be
       -0.050376736 -0.22632468 -0.15501049 -0.15747997
000140 a0 34 2f 3e 63 4c 60 3d 5f 0c 81 3b b2 79 43 bc
       0.17109919 0.054760348 0.0039382423 -0.01193087
000150 c9 b1 ec bc 96 66 f5 bd f9 e7 9d 3d 31 e4 fc 3d
       -0.028893368 -0.11982457 0.07710261 0.123482116
000160 e9 7f 8b 3d fb bb 00 be 21 19 93 3d be 56 97 3d
       0.06811506 -0.12571709 0.07182527 0.07389592
000170 07 7c b8 bc 94 04 10 bd ba ac eb bc 45 85 c9 bc
       -0.022520078 -0.035160616 -0.028768886 -0.02459968
000180 2a 57 e0 3d d8 bb 3c 3c f6 0e 18 3e 32 a6 d9 3d
       0.10954125 0.011519395 0.14849457 0.10627402
000190 80 80 ed bd 23 6a ea bd 4a 83 dc bd 77 e9 2b bc
       -0.11596775 -0.11446025 -0.10767229 -0.010492674
0001a0 f4 fa 87 bd d9 1a c8 bd 79 16 32 bd cb ad c9 3c
       -0.066396624 -0.09770746 -0.043478463 0.024619004
0001b0 fd 01 e4 3d 0c 9a 91 3d 23 35 c2 bd 82 08 7e 3d
       0.11133192 0.0710946 -0.09482791 0.062019832
0001c0 fa 9a 8e 3b 3d 99 8f 3d 9f 6a 20 bd 63 2a ff bc
       0.0043519707 0.0701165 -0.03916418 -0.031148141
0001d0 e4 47 1b bd 28 5e ac bd bf 6a fb 3b be 4e e9 bd
       -0.037910357 -0.084163964 0.0076726372 -0.11391972
0001e0 22 8b f5 3d f3 08 1d 3e 12 5f aa bc ee 62 5e bc
       0.11989428 0.15335445 -0.020797286 -0.013573391
0001f0 c2 33 89 bc ad 9b 8d 3c 26 05 48 3d 6d 84 a6 bd
       -0.016748313 0.017286146 0.048833035 -0.08130727
000200 71 f0 88 3d 7f b8 81 bc 9e 8d 0b 3e f7 62 73 3d
       0.066864856 -0.015835045 0.13628241 0.059420552
000210 ce bd 31 be 1d 47 19 3e 9e af 63 bd 35 1a 02 be
       -0.17357561 0.14968534 -0.055587403 -0.1270531
000220 4a 7a da bd 43 b4 9e bd 02 57 c6 bc 02 97 dd 3d
       -0.10667856 -0.07749226 -0.02421141 0.10819818
000230 10 ec 95 bd 2a c5 1f 3e 12 0d eb 3c 15 21 29 bd
       -0.07320416 0.15602556 0.028692756 -0.041291315
000240 aa 44 d6 bc 51 74 36 bd 4a 77 79 3d fe 2d b8 bd
       -0.026155788 -0.04454452 0.06090478 -0.08993147
000250 e2 be 7b bd 7c 48 cf bc f8 d0 c7 bc 34 36 8a 3d
       -0.061461337 -0.025303118 -0.024391636 0.0674862
000260 12 53 2d be d8 77 fe 3c 5e b8 4c be e7 8a 1a 3e
       -0.1692622 0.031063005 -0.19992206 0.1509205
000270 f5 82 13 3d 89 4d af 3d 6c 60 12 be 39 7e 82 3e
       0.036013562 0.085597105 -0.14294595 0.25486925
000280 18 1a 92 bd 5c 65 83 bd 87 af a6 bd 2b 75 84 3d
       -0.07133883 -0.06415817 -0.08138948 0.064676605
000290 2f 20 84 bd 54 a4 4d be 25 5b 25 bc 66 2a 09 3e
       -0.06451451 -0.20082217 -0.010092531 0.1339508
0002a0 07 55 19 3e 82 52 81 be ba a8 6a bd 94 75 c6 bd
       0.14973842 -0.2525826 -0.057289816 -0.09690395
0002b0 ad 3a 80 3d 2f 56 7c bc 24 1e 1f 3e 7b 0f 34 3e
       0.062611915 -0.015401407 0.15538841 0.1758403
0002c0 c8 86 c1 bd b6 c1 80 3d 6e c4 dc 3d d6 a8 ca 3d
       -0.094495356 0.062869474 0.107796535 0.09895484
0002d0 34 c2 3f 3c 7d 4f 2f bd 31 1b 93 be bf 56 9a bd
       0.0117040165 -0.042800415 -0.28731683 -0.07536077
0002e0 33 2f 51 bb 01 50 29 be e7 8b ca bd 43 1e 72 39
       -0.0031919002 -0.16534425 -0.098899655 0.00023090192
0002f0 25 d3 93 bd 33 c0 bb bd bc 86 cf 3d 26 06 d3 3c
       -0.07218007 -0.091675185 0.101331204 0.025759768
000300 a7 2b dd 3d f7 c3 78 bd 17 01 c9 3d 02 97 1f be
       0.10799342 -0.06073376 0.09814661 -0.15584949
000310 79 5f c0 bd 99 fa 98 3d 05 a0 93 3d ea 71 8a be
       -0.0939321 0.07469673 0.07208256 -0.27040035
000320 bb 64 28 be a7 87 f4 3d 50 cd 16 3e a0 76 23 be
       -0.16444676 0.11939936 0.14726758 -0.1596322
000330 3d 37 87 bc 02 0d 27 3d 2f 5a 09 3d a4 11 c9 bd
       -0.016505832 0.04078389 0.03353327 -0.09817818
000340 83 b7 c0 bd 2f 0e 1d 3e cf e2 99 3d 11 e3 65 bd
       -0.09410002 0.15337442 0.075139634 -0.05612475
000350 88 1d 84 bc ea 11 ac 3d 9b 84 c2 3d ee bd 79 3d
       -0.016127363 0.08401854 0.09497949 0.060972147
000360 16 ed e8 bd fc 89 f0 bd cb a9 d3 3b 14 93 3d 3d
       -0.113733456 -0.117450684 0.00645945 0.046282843
000370 92 85 27 3e 00 5e 98 bc 68 59 50 3d 49 a7 9d bd
       0.16359547 -0.01859951 0.050866514 -0.07697923
000380 cf ef de bd ee d7 6f bd 38 fa a4 3d 90 bb 9c bc
       -0.108855836 -0.058555536 0.08055538 -0.019132406
000390 1c c8 87 be d2 ba dc 3c 9c 9d b9 3d b3 68 29 3e
       -0.2651986 0.026944552 0.09063265 0.16543846
0003a0 e9 d6 5b bc 1f 1f 4d 3e d0 22 85 3d 96 00 a8 bd
       -0.013417938 0.20031403 0.065007806 -0.08203237
0003b0 de f8 09 3e 9f bb 6a bd a6 f0 5a bd b8 8e 2e 3d
       0.13473842 -0.057307836 -0.053452156 0.042616576
0003c0 08 7a c0 3d 14 a8 10 bd 85 f3 cf bd 2f 34 34 3b
       0.093982756 -0.03531654 -0.101538695 0.0027496924
0003d0 3a 6b 98 bd 32 5b 55 3e fd b4 44 3e 28 cf d9 bb
       -0.07442327 0.2083557 0.19209667 -0.0066470094
0003e0 5d 3c f2 bd d0 a0 c0 3c 09 42 38 be b9 50 a8 bd
       -0.1182792 0.023514181 -0.1799394 -0.082185216
0003f0 ca ab 41 bd ff 6b d7 bb 73 5b 4f bd d1 9d 33 bd
       -0.04728297 -0.0065741534 -0.050624322 -0.043851677

hidden_nets.1.bias f4 [128]
000000 85 0f 32 3e 78 44 1f 3e 8f 2b 70 bd 58 a8 06 3e
       0.17388733 0.15553463 -0.05863529 0.13150156
000010 c4 39 4c bd e9 c6 af 3c cd 70 0e 3e e7 eb 35 3e
       -0.049859777 0.021457152 0.13910218 0.17765771
000020 6b d6 2a 3e dd e0 3d 3e af 5e 26 3e b4 a4 16 3e
       0.16683356 0.1854281 0.16247056 0.14711267
000030 33 86 25 3e 3d ac b1 3c e4 73 d2 3d cf e5 38 3e
       0.16164474 0.021688575 0.10276011 0.18056415
000040 87 92 21 3e 22 d4 39 3c 0e 8a 4c bc 34 b9 13 3e
       0.15778552 0.01134208 -0.012484087 0.14426118
000050 df fe 27 3e c3 09 d6 bc 7b 6c 1e 3e 62 51 5a bb
       0.1640582 -0.026127702 0.1547107 -0.0033312668
000060 47 b3 c0 bc 9e 8b 32 3e ee f9 34 3e c7 47 17 3e
       -0.023522986 0.17436072 0.17673466 0.14773475
000070 d8 0d 0d 3e 28 9d 3d 3d 33 89 2f 3e 9f 8c 1d 3e
       0.13774812 0.046292454 0.17142181 0.15385674
000080 a9 3c 20 3e f9 d1 1e 3e 23 49 39 3d 77 9c fe 3c
       0.1564814 0.15509786 0.045235764 0.031080468
000090 f8 39 f3 3d 7f 2d 21 3e b6 f1 ea ba ab 7f 3b 3e
       0.11876291 0.15740012 -0.0017924819 0.1831042
0000a0 bf 23 29 3e 43 f6 26 3e 01 34 12 3e 34 77 2e 3e
       0.16517542 0.16304879 0.1427765 0.1703766
0000b0 98 74 2c 3e 73 a7 27 3e a0 e1 d7 3d 1a c5 3c 3e
       0.16841352 0.1637247 0.105410814 0.18434563
0000c0 f2 f2 1e bd 7f 4d 5b bc 51 af 1e 3e e4 cb 2d 3e
       -0.03880591 -0.013385176 0.15496565 0.1697231
0000d0 88 2b de 3d 54 c8 3f 3e 4b cd d1 3b d8 fb 0b 3e
       0.10848147 0.18728763 0.0064026467 0.1367029
0000e0 df cd 38 3e 74 00 36 3e db cf 43 bc d1 63 20 3e
       0.18047284 0.1777361 -0.011951412 0.15663077
0000f0 15 6e 37 3e 4c cf 8f 3d 46 e0 1d 3e 32 77 02 3e
       0.17913087 0.070219606 0.15417585 0.12740782
000100 af 33 15 3e 67 0f 5b 3c db 7d 23 3e d4 da d4 bb
       0.14570497 0.013370371 0.15965979 -0.006495813
000110 fb 5f 7e 3d 76 c4 20 3e 39 8e fa 3d 16 3f 07 3e
       0.062103253 0.15699944 0.12234158 0.13207659
000120 56 e0 2a 3e e1 47 26 3e 64 e1 06 3e 1a 2d de 3d
       0.1668714 0.16238357 0.13171917 0.10848446
000130 6a dc 24 3e 18 dd 1c 3e b9 72 0a 3d cb ef cd bc
       0.16099706 0.15318716 0.033800814 -0.025138756
000140 12 76 c5 3b 02 11 ae bd a4 43 16 3e 70 21 af 3c
       0.006026038 -0.08499338 0.1467424 0.021378249
000150 53 49 22 3e 7c 64 45 3e b7 d5 05 3e ab 9c e6 bb
       0.15848283 0.19276613 0.13069807 -0.0070377192
000160 82 64 46 ba b2 70 c2 3d ae 65 86 3c 7c ec 19 3e
       -0.00075680774 0.09494151 0.016405907 0.15031618
000170 d5 90 0b 3e e6 43 42 3e a8 9a 23 3e 26 3a 45 3e
       0.13629468 0.18971214 0.15976965 0.19260463
000180 6e 9c 20 3e a5 10 3c 3e e7 d0 19 3e f0 0a 22 3e
       0.15684673 0.18365724 0.15021096 0.15824485
000190 e2 29 30 3e 5d 7a 25 3e b4 c8 08 3e 94 1d a5 3d
       0.17203477 0.16159959 0.13357812 0.08062282
0001a0 ae 62 2a 3e 1c 89 22 bc 4a f5 e6 bb 66 64 54 3e
       0.16639206 -0.009920385 -0.0070482837 0.20741424
0001b0 08 f1 e5 3c 81 e0 16 3d c8 db 13 3e 38 4e 15 3e
       0.028069034 0.036835197 0.14439309 0.1458062
0001c0 c2 87 47 3e 3d 93 1e 3e 34 ed d8 3d 27 cb 3c 3e
       0.19485381 0.15485854 0.10592118 0.18436871
0001d0 aa 32 21 3e c8 f7 d8 3d 76 0f 18 3e 03 60 42 3c
       0.15741983 0.105941355 0.14849648 0.011863711
0001e0 c6 4d df 3c 16 a7 22 3e 37 7a 08 3e e9 af 35 3e
       0.027258765 0.1588405 0.13327871 0.17742886
0001f0 16 8d 0b 3e fd 81 2a 3e 4e db 41 bd 8b 19 27 3e
       0.13628039 0.16651149 -0.047328286 0.16318338

hidden_nets.2.weight f4 [64, 128]
000000 7e c6 57 3d 0f 7a 9c 3d 27 fd 34 3d de 07 7c bd
       0.05267953 0.07640468 0.044186737 -0.06153094
000010 ad 93 04 3e fc 3c 51 be c9 32 2a 3e 0c dc 7c 3c
       0.12946959 -0.2043342 0.16620935 0.015433323
000020 98 5f 93 bd 3f 62 c8 bc 12 3a 55 bd 73 52 10 3e
       -0.071959674 -0.02446091 -0.052057333 0.14093952
000030 c4 45 01 3e 80 7b fc bd 7a 64 8b 3e 5e c8 7d bb
       0.1262427 -0.12328243 0.27225095 -0.0038724164
000040 3f a7 6d 3e 56 a0 e0 bd c7 1e 84 3d 26 24 a9 3d
       0.2320833 -0.10968082 0.06451183 0.08258848
000050 93 55 af 3d a0 e3 b9 3d 85 af 68 bd 23 0a 35 bd
       0.08561244 0.09076619 -0.056808013 -0.04419912
000060 19 30 88 be ff d3 8f 3d 44 0d 72 3e 59 22 b1 3d
       -0.26599196 0.07022857 0.23637873 0.086491294
000070 60 eb 94 3d af 7b 02 be 00 e9 5e bd 87 4e 02 bc
       0.07271457 -0.12742494 -0.054421425 -0.007953293
000080 e2 e2 0a bd 79 56 d9 3c 9c d8 90 be a2 8d 13 be
       -0.03390778 0.026530491 -0.2829026 -0.14409497
000090 35 a2 21 3e 30 f7 07 3e 0e b5 2f 3c 8c fb 00 bc
       0.15784533 0.13277888 0.010724319 -0.007872473
0000a0 be c8 32 3e 19 7e 11 3d 70 79 9a bd 73 a0 91 3d
       0.1745939 0.035520647 -0.075426936 0.071106814
0000b0 b7 74 d5 39 ec 5c 9a 3c ad 96 f2 ba 36 0d ba 3d
       0.00040713485 0.018843137 -0.001850804 0.09084551
0000c0 e2 5b 0b 3e e0 02 ca 3c 2f 91 c2 bb fd 0a 08 3e
       0.1360927 0.024659574 -0.0059377174 0.13285442
0000d0 df 67 1e 3c 36 fc 0d 3d 65 c7 3e 3b 0e 32 72 3d
       0.0096683195 0.034664355 0.0029110548 0.059129767
0000e0 f2 8b 57 3e eb 1e bd 3b 06 4b 2a be 0f cd bc 3c
       0.21049479 0.005771508 -0.16630182 0.023046998
0000f0 b3 14 1d 3e 05 91 44 be 99 05 55 3d f5 20 ce 3c
       0.15339927 -0.19195946 0.05200729 0.0251622
000100 80 cf ab bd 9c 38 56 be dc ea a3 3d 44 99 fd bd
       -0.08389187 -0.20920032 0.0800378 -0.12382749
000110 2f 4d af be 8a fb 5d 3e 3d 17 12 3d ae 68 7d 3d
       -0.34238574 0.21677986 0.035666693 0.06186741
000120 52 df d7 bd fe aa 47 3e 96 29 da 3c d1 cf b6 3d
       -0.10540642 0.19498822 0.026631158 0.089263566
000130 67 bd ba bc 23 99 48 3e ea a4 35 be a9 85 09 bd
       -0.022795392 0.19589667 -0.17738691 -0.033574734
000140 bb 5d 72 3e ba 4a 8d 3d 89 7a 76 3e 1f c5 02 be
       0.23668568 0.068990186 0.24070181 -0.12770508
000150 76 c1 4d bd cc dd 31 3e 3a 10 47 3e f0 ee 91 be
       -0.050233327 0.17369765 0.19439784 -0.28502607
000160 2c 13 60 be 3e 48 ad 3d 30 33 05 3d 97 69 14 bd
       -0.21882313 0.08461045 0.03251952 -0.03623351
000170 1c 8a a9 bb 8e 58 ee 3d 58 bf 00 be ca 5a 90 bd
       -0.0051739346 0.11637984 -0.12572992 -0.07048567
000180 87 dc 0e 3e 89 22 29 bc 88 e0 75 3d 53 2a 87 3e
       0.13951312 -0.010323175 0.060028583 0.26399478
000190 a1 70 c7 3d 7d ae c2 3c c9 fb d9 bc c4 f7 9f 3d
       0.09738279 0.023764843 -0.026609318 0.078109294
0001a0 f7 54 42 3e af 6e 61 be 1b 96 f9 bb 3b 7f 5c 3e
       0.18977724 -0.22014879 -0.007616771 0.2153291
0001b0 a7 35 6f 3c 1e b7 b4 3d cc 28 d5 3d cd 07 22 3e
       0.014600194 0.08823989 0.10408172 0.15823288
0001c0 76 24 76 3e fc 8b f4 3d e1 c3 5b bc 26 40 2e 3d
       0.24037346 0.119407624 -0.0134134 0.042541645
0001d0 bf cd f0 bd 68 2a 76 3d 55 dd 47 3e 2a 7a a4 be
       -0.11757993 0.060099036 0.19518025 -0.32124454
0001e0 56 0e 91 be c1 56 59 3e 9f e8 e6 bd 39 b2 9c 3d
       -0.2833125 0.212245 -0.11274838 0.07651181
0001f0 fa a5 a9 3d 7c 62 b8 3b 5a 11 f4 3d b8 7d 18 3e
       0.08283611 0.0056269746 0.11917372 0.14891708
000200 60 2b e2 3d 49 ea 4b 3e 48 2c f4 bd 08 7b 4d 3d
       0.110434294 0.19913591 -0.119225085 0.05016616
000210 4d 58 26 3e 42 7a 4f be 56 9d 13 3e 0e 22 7c 3c
       0.16244622 -0.20261481 0.14415488 0.015388979
000220 27 94 0f 3e 17 e2 d5 3d f4 d9 d6 3b 05 d6 c6 bd
       0.1402136 0.10443514 0.0065567438 -0.0970879
000230 d4 23 75 bd 8d 07 a0 bb a9 75 85 3e 83 84 e6 3c
       -0.05984862 -0.0048837126 0.2606633 0.028139358
000240 f6 e5 94 3d 02 45 3f be 5a 7f 1a 3e 1e 7a 07 3e
       0.07270424 -0.18678668 0.15087643 0.13230178
000250 64 af 50 bd d5 26 9d 3d 98 86 d2 bd bf 38 61 be
       -0.050948516 0.07673422 -0.10279578 -0.21994303
000260 41 2f 62 be d6 f9 c0 3d 21 bd 2b bd b1 4a 4a 3c
       -0.22088338 0.094226524 -0.041928414 0.012346909
000270 92 c0 90 bd 4e b0 05 be 19 c9 3a 3e c9 7d 2d 3e
       -0.0706798 -0.13055536 0.18240775 0.16942514
000280 59 72 e7 bd 20 4f 7d 3e 3b 03 58 bc f7 94 4e be
       -0.11301107 0.24737215 -0.013184364 -0.20174013
000290 c5 69 00 3e 27 15 97 3e 5f d9 4f be 54 a1 69 bd
       0.12540348 0.29508325 -0.20297764 -0.05703862
0002a0 ab f2 2e bd 53 49 02 3d 2f e4 64 3d 24 4a fa 3d
       -0.042711895 0.03180821 0.055881675 0.122211725
0002b0 a2 02 ea 3c f2 a6 b7 3c fc 33 44 3e f5 21 ea 3d
       0.028565709 0.022418473 0.19160455 0.11432258
0002c0 93 38 fd 3c f7 3d 57 be f0 e7 b9 bd b7 31 bc 3c
       0.030910766 -0.21019731 -0.09077442 0.022972925
0002d0 86 8e a2 bd b6 20 12 bd 5e 8e 0e bc 3a 78 ab bd
       -0.079373404 -0.035675727 -0.008700935 -0.08372541
0002e0 ad aa 2d 3e d1 c0 0f 3e 7c 2f 4c 3d 3b 34 3f 3e
       0.16959639 0.14038397 0.049849972 0.18672268
0002f0 cb 3d 3c 3e 30 3b b7 3d 3f 6f de 3c da 0a 73 bc
       0.18382947 0.08946836 0.027152656 -0.01483413
000300 ac c8 24 3e 6a 39 fc 3d 91 65 4a bc 71 40 4b be
       0.16092175 0.12315638 -0.012353317 -0.19848801
000310 a0 e5 94 3c 6d 16 73 3d b8 25 13 3e 99 c1 37 3d
       0.0181759 0.05934756 0.14369857 0.044862363
000320 1a 13 a0 3d af 6b 15 3e 0d a0 3d 3e b4 66 07 bd
       0.07816143 0.1459186 0.18518086 -0.03305693
000330 23 01 c2 bc c7 d3 79 3e 30 29 42 be ed 1b 20 be
       -0.023682183 0.24397193 -0.18961024 -0.15635653
000340 f8 b5 5f bd f0 96 33 be 10 2f 15 3d c9 5c b5 3c
       -0.0546169 -0.17538047 0.036421835 0.02213897
000350 af ba 12 3e 94 80 a2 3d c3 f5 3d 3d 89 ef 80 3d
       0.14329027 0.079346806 0.046376955 0.06295688
000360 4e 97 00 be 77 f6 aa 3d 21 72 22 3d 00 ce f7 3d
       -0.12557718 0.08347791 0.039659623 0.12099838
000370 1e 8b ce bd dd d6 3f 3e 6a 86 f1 bd cb 15 d4 3c
       -0.10085128 0.18734308 -0.117932156 0.025889298
000380 86 2d 4d bc df b5 c4 bd e1 c1 2f 3e a2 2b 27 3c
       -0.012523061 -0.09605002 0.17163803 0.010203274
000390 fd 24 97 3e 18 b8 dc 3d 7e a0 71 3e fb 93 7e 3c
       0.29520407 0.107773006 0.23596379 0.015538211
0003a0 39 bc 55 3e 09 59 38 3d 69 6c 92 bd 56 4d 55 3e
       0.20872582 0.045006786 -0.07149584 0.20830283
0003b0 93 20 54 be 57 91 fd bd ad 9d 9b 3e 93 d9 7b bc
       -0.20715551 -0.12381237 0.30393735 -0.015371698
0003c0 10 a2 bd bd a9 0f 35 3e 9b 1c 33 3d 77 03 0a 3e
       -0.092594266 0.17681755 0.043728452 0.13477884
0003d0 25 39 46 bd 22 7a 1b 3d 94 ae 91 3e 9b 04 81 3d
       -0.04839434 0.03795827 0.28453505 0.062997065
0003e0 f8 6e e8 bd 25 85 42 3e 24 47 fe ba c8 60 fa 3b
       -0.113492906 0.18996103 -0.0019399864 0.0076409318
0003f0 21 c7 7d bd a2 f8 98 bd 5a 24 34 3e fd af 26 3e
       -0.061957482 -0.07469298 0.17591992 0.16278072

hidden_nets.2.bias f4 [64]
000000 e3 cb 0c 3f 6a 6b ff 3e 27 2b d7 bc 0d 9d f5 3e
       0.54998606 0.49886638 -0.026265694 0.47971383
000010 19 c2 02 3f 04 ce 0a 3f 75 d7 09 3f 31 09 02 3f
       0.5107742 0.54220605 0.53844386 0.50795275
000020 a7 21 e5 3e 62 dc f4 bc 12 76 fa 3e cb 01 3c bd
       0.44752237 -0.029890243 0.48918205 -0.045900147
000030 d2 e8 8a bc 57 d1 08 bd 68 56 e6 3e 57 a3 f5 3e
       -0.01695672 -0.033402767 0.44987798 0.4797618
000040 ea ef df 3e d3 94 ea 3e 74 2c 7d bb 13 46 f7 bc
       0.43737727 0.4581667 -0.0038631232 -0.030184781
000050 ad 9a 24 bd f1 86 a0 bc df c3 d7 bc d7 47 fb 3e
       -0.040186573 -0.019595595 -0.026338516 0.49078247
000060 db c2 fa ba 7c bf f5 3e 6d f8 11 bd 19 ec a4 bc
       -0.0019131558 0.47997653 -0.035637308 -0.020132111
000070 8c 38 9d bc dc de f2 3e 80 7e 41 bd 5c a2 01 3f
       -0.019192003 0.47435653 -0.04723978 0.50638366
000080 fe 27 34 bd a3 fd e4 bc a2 7f fc 3e d0 6f 09 3f
       -0.043983452 -0.027952975 0.49316126 0.5368624
000090 26 11 0a bc 81 de c2 3e 45 8f 93 39 b0 7f 1c 3c
       -0.00842694 0.38060382 0.0002814477 0.009551927
0000a0 26 17 00 3f 30 c2 f3 bc 69 49 f1 3e d8 43 47 bd
       0.5003532 -0.029755682 0.4712632 -0.048648685
0000b0 42 34 02 3f 5e 59 7c bc 61 8c e3 39 66 46 c2 3e
       0.5086099 -0.015402166 0.00043401404 0.37944335
0000c0 3d f1 51 3e d7 85 bb bc 9a ef f0 bc ed 1b 23 3c
       0.20502181 -0.022890968 -0.029411126 0.0099553885
0000d0 5a 6a fd 3e 45 f2 07 3f 3f 3e fc bc e9 7f 09 3f
       0.49495202 0.5310405 -0.0307914 0.537108
0000e0 0f cb 00 bd 2c 7f fa 3e f5 c0 f2 bc d7 cf 11 bd
       -0.03144365 0.4892515 -0.029633025 -0.035598602
0000f0 13 a0 43 bc 6f 18 b0 bc 3f 71 6f bb 58 52 e9 3e
       -0.01194002 -0.021496026 -0.0036536006 0.45570636

value_stream.weight f4 [1, 64]
000000 7b 52 bc 3e d4 e5 ce 3e 59 2c 01 be 25 b6 d6 3e
       0.36781678 0.4040972 -0.12614574 0.4193584
000010 c8 23 9b 3e 8d 34 b8 3e f6 59 a7 3e 0f f4 a1 3e
       0.30300736 0.35977593 0.32685822 0.31631514
000020 69 26 bf 3e 1d 49 22 be f8 fd 9f 3e 6a c3 4f be
       0.37333992 -0.15848203 0.3124845 -0.20289388
000030 3f ea 5c be 2e b6 ad be c3 db e4 3e 00 e1 b1 3e
       -0.21573733 -0.33928055 0.44698915 0.34741974
000040 0c f7 cb 3e 4b af b4 3e 7f 43 a1 be 17 fe 84 be
       0.3983692 0.35289988 -0.31496808 -0.25975105
000050 de 01 78 be fd 1b 8a be 84 77 45 be 7e 4a e8 3e
       -0.24219462 -0.26974478 -0.19283873 0.45369333
000060 69 50 1f be 9c 1a c5 3e 84 d4 8c be 39 bb 91 3d
       -0.15558018 0.38496864 -0.27505887 0.07115788
000070 a5 2d 44 be 0d 94 bc 3e a6 68 45 be 7d 9a a0 3e
       -0.19158037 0.36831704 -0.19278201 0.31367865
000080 4f ce 3c be cd d8 2b be b5 d5 a3 3e 86 16 d0 3e
       -0.18438075 -0.16781922 0.31998983 0.40642184
000090 96 fd 65 be 0b c0 b5 3e d6 71 17 be cc c1 39 be
       -0.22460017 0.3549808 -0.14789519 -0.18140334
0000a0 7f cc b8 3e 86 7c 34 be e4 13 e0 3e 9b 64 46 be
       0.36093518 -0.17625627 0.43765175 -0.19374315
0000b0 b5 2f ba 3e 17 01 ff bd e3 5f 5b bd 55 49 b3 3e
       0.36364523 -0.1245138 -0.05355824 0.35016885
0000c0 47 cd 9b 3e e1 b6 1c be 80 22 8f be 33 96 4d be
       0.30430052 -0.15304138 -0.2795601 -0.20076828
0000d0 91 3b ba 3e 1d 85 da 3e b6 3f 22 be bf aa 96 3e
       0.3637357 0.42679682 -0.15844616 0.29427144
0000e0 82 19 49 be c9 48 aa 3e cd ec 6a be ae d7 d5 bd
       -0.19638637 0.33258656 -0.22941895 -0.10441528
0000f0 eb 17 29 be b8 9f 61 be 7f 60 55 be b4 d5 e4 3e
       -0.1651303 -0.22033584 -0.20837592 0.44694293

advantage_stream.weight f4 [5, 64]
000000 8b 52 4d bd b2 bb 6f 3d c9 b2 32 be f2 12 a4 bd
       -0.050127547 0.05852861 -0.17451014 -0.08011426
000010 da 39 41 be 20 09 f4 36 be be 39 3e 2d 47 62 3d
       -0.18869725 7.272829e-06 0.18139169 0.05524366
000020 d7 61 36 bd e8 38 81 3d 2b 30 0e 3c 2b 2a 49 3d
       -0.0445269 0.06309682 0.008678476 0.04911248
000030 f3 22 77 be 14 6d 8f be 99 4f c6 bd fb e0 74 bd
       -0.24134426 -0.28012908 -0.09683151 -0.05978487
000040 e6 13 7d 3a 35 95 53 3d 0c 22 eb 3d 57 dd 8d 3e
       0.0009654149 0.051655967 0.11481103 0.2770793
000050 81 8a b4 bd 9b e6 0a 3e b0 31 32 3e a6 72 d8 3c
       -0.0881548 0.13564532 0.17401767 0.026421856
000060 d4 1b 99 bd 3d 15 0c bd fb 37 81 be 10 06 c3 3d
       -0.07476011 -0.034199942 -0.25238022 0.09522641
000070 37 fe 2c be 84 04 31 bc d1 f2 2e be 87 14 94 3d
       -0.1689385 -0.010804299 -0.17084815 0.07230478
000080 71 a0 1b 3e 1a 80 f2 3d 4d 5c 85 bc ec 93 33 3d
       0.15197922 0.1184084 -0.016279364 0.04384224
000090 93 3b 85 be 42 39 65 bd ad 16 d9 3d 7d 05 74 bd
       -0.26022014 -0.05596281 0.10600028 -0.059575547
0000a0 09 09 77 3d 0d ca d1 bd a7 4b 18 bd 73 d9 23 be
       0.06031135 -0.10243616 -0.037181523 -0.16000919
0000b0 d2 a9 ec 3d 23 ec 82 3d 09 74 a8 3d 5d bb a1 bd
       0.11555828 0.06392696 0.08225257 -0.07897065
0000c0 86 56 c1 bd 15 15 41 3c 3e 4e f7 3d 98 ef 15 bd
       -0.09440331 0.0117848115 0.120754704 -0.036605448
0000d0 d4 68 84 bd 81 42 86 bd fd a4 8c be ba d2 6d bd
       -0.06465307 -0.06555653 -0.27469626 -0.058062293
0000e0 9f 3e 0d be 1c 7e fc 3d f6 5d 0e be 17 8c 68 3e
       -0.1379342 0.12328741 -0.13903031 0.2270969
0000f0 0a ed 79 be 0d b5 32 3e 28 1c 2c 3d 1d 74 1e 3e
       -0.2440683 0.17451878 0.04201904 0.15473981
000100 9e 05 cd bd 3e d9 88 3c 4a 8d 77 be 68 eb ef bd
       -0.10010837 0.016705152 -0.24174991 -0.11714822
000110 57 0a 3a be 3d b1 4c bd 08 64 18 3e 05 8a 2c 3d
       -0.18168007 -0.049973715 0.14881909 0.042123813
000120 e0 75 6d bc 71 ed 85 be 36 0d 1b 3c e8 38 e4 3c
       -0.014493436 -0.26157716 0.009463599 0.027859166
000130 16 d3 23 3b 88 47 f2 bc 37 ba f3 bd ac 2e 08 be
       0.0024997643 -0.029575124 -0.11900752 -0.13299054
000140 ca e8 85 bd 1b 6f 35 3d fd e7 00 3e 20 ee da 3d
       -0.065385416 0.04429541 0.12588497 0.1068995
000150 e2 59 81 3d 94 fb 0e be 04 bf 6c bd 8c fd cc 3b
       0.06315972 -0.13963157 -0.057799354 0.006255811
000160 cd a5 99 3e 9b 82 ba bc ab dd 7a bd 47 42 93 3d
       0.30009308 -0.022767356 -0.061246555 0.07190376
000170 35 1e aa bd 62 28 67 3c 9d 8d 49 be d8 db 29 3d
       -0.08306543 0.014108749 -0.19682927 0.041469425
000180 a9 1c 24 be 57 02 0c 3e 80 96 f5 bc e7 89 d4 3c
       -0.16026558 0.13672768 -0.02997899 0.025944663
000190 87 12 d3 3d d3 a8 50 bd fb 06 55 3e 3b 38 83 be
       0.10306268 -0.050942253 0.20803444 -0.25628838
0001a0 48 93 84 bc 74 fd 00 be cd 1a 64 bd a7 d0 ce 3d
       -0.01618351 -0.12596685 -0.05568962 0.10098391
0001b0 0b d8 9a 3d 04 be 67 3e 6e ed d9 3d 07 ed 85 3d
       0.07560738 0.22631079 0.10640989 0.0653935
0001c0 fa 04 d8 3d 61 35 eb 3d d2 e4 17 be 11 fb c1 bd
       0.10547824 0.114847906 -0.14833382 -0.09471715
0001d0 f5 23 80 bb 01 9f 9d bd fa e0 93 3d 06 ca 31 bd
       -0.0039105364 -0.07696343 0.07220645 -0.043405555
0001e0 47 c4 3f be 65 72 ca 3d 4f ec 1d be 00 e1 36 be
       -0.18727218 0.098851 -0.15422176 -0.17859268
0001f0 ad 5f e2 3d 77 68 30 be 1f f1 da 3d 8f eb f2 3d
       0.11053405 -0.1722735 0.106905214 0.118613355
000200 85 ff 21 bd 90 a6 05 3d 1d 31 96 be 4a 2d 4f bd
       -0.039550323 0.03262955 -0.29334345 -0.0505803
000210 70 45 4e be 65 00 41 bd 21 c6 dd 3d 7e 7f b0 ba
       -0.20143676 -0.047119517 0.10828806 -0.001346573
000220 7f 52 91 3d a6 52 8d be c8 31 a1 bb f1 ee fd bd
       0.07095813 -0.27602118 -0.0049192645 -0.1239909
000230 d5 8d 1c 3e bc 24 06 3e 03 d0 fe bd 6e db 22 be
       0.1528848 0.1309995 -0.12442019 -0.15904018
000240 20 58 a5 bd 85 15 f4 3c b4 00 dc 3d 18 4d 2c 3d
       -0.08073449 0.029795418 0.107423216 0.04206571
000250 33 26 5e be 94 3d 45 bd 2e 93 3d 3e 9e 09 c0 3c
       -0.2169426 -0.04815443 0.18513176 0.023442086
000260 1b 8f 47 be 04 70 86 3d 7e 21 0b be 5d 04 7d be
       -0.19488184 0.06564334 -0.13586995 -0.24708696
000270 a3 da 0a be 64 8b 65 bb 45 39 0f 3e 8a b6 3e 3c
       -0.13559966 -0.003502571 0.1398669 0.0116402
000280 19 28 6b be 58 91 d7 bd 18 fe 0e bd a4 6e b7 3b
       -0.22964515 -0.10525769 -0.03491029 0.005597906
000290 b0 8c 9a bd 52 5b 67 3d e2 fc 6c bd ac a0 e2 bd
       -0.07546365 0.056483574 -0.057858355 -0.11065802
0002a0 68 d6 68 3d 93 2b 63 3e 11 db 1d bd a3 71 1a be
       0.0568451 0.22184591 -0.038538996 -0.15082411
0002b0 88 d9 1c 3e d4 34 71 be 69 c5 7a be d9 1f 63 3c
       0.15317357 -0.23555309 -0.24489368 0.013862574
0002c0 a7 b0 8b 3d b2 4f c9 3d 1a aa a5 bd 8e 93 44 3d
       0.06820803 0.09829654 -0.08089085 0.04799228
0002d0 9c 5e c8 3b 7b 61 e5 bc 34 d0 6a be e9 b7 71 bd
       0.006114794 -0.028000584 -0.22930986 -0.05901328
0002e0 c0 9c 0b be 94 d8 5b 3d 02 86 00 3e b5 a2 5f 3e
       -0.13634014 0.053673342 0.1255112 0.21839412
0002f0 3c b2 5b 3e 58 68 3c be 7e 33 3e 3e b3 24 1c bc
       0.2145471 -0.18399179 0.1857433 -0.009530234
000300 a8 52 a2 bd 4f 11 84 3d 9a 20 95 3e 15 07 e0 bd
       -0.07925922 0.06448614 0.29126436 -0.10938851
000310 91 ce 39 be 3a 4e 50 bd e1 96 2d 3e 8e 07 ea 3c
       -0.18145205 -0.050855853 0.16952087 0.028568055
000320 84 a8 e8 3c f1 7e aa 3e c6 99 84 3c 89 ac 7e 3e
       0.028400667 0.33299974 0.016186606 0.24870504
000330 ee 6b 9c 3e cd c4 f7 bc 97 1f fb bc 7a cb 06 be
       0.30551094 -0.03024521 -0.030654712 -0.13163558
000340 4b f4 f2 3b 07 e4 16 3c 18 03 a0 3e 6c f9 67 3d
       0.007414376 0.009209639 0.3125236 0.05663435
000350 6c 12 f8 bd f5 fc 73 be a6 19 a7 3d 74 66 03 bd
       -0.12112889 -0.23826964 0.08159189 -0.03208013
000360 f0 2a 49 3e 5b be 54 3d 2c 71 21 be 45 bc 8c 3e
       0.19645286 0.05193935 -0.15765828 0.27487388
000370 40 5d 97 be 89 55 58 bc 0f d0 03 bb cb 91 6a 3d
       -0.29563332 -0.013203987 -0.0020113026 0.057267945
000380 36 e5 de bd d7 6c 83 be 66 65 3b bc 61 7c b1 3c
       -0.10883562 -0.25668976 -0.0114377495 0.021665754
000390 7f 0b 5e be b0 a3 9c bd aa 80 59 be 24 69 99 3e
       -0.21684073 -0.076484084 -0.21240488 0.29963028
0003a0 d7 44 0d 3c 6a ec 17 bd 4b 7b f5 3c 6c ce 88 3e
       0.00862237 -0.037090696 0.029966017 0.26719987
0003b0 df ef fc 3d 45 9b 9c bc 90 df 82 3e c3 ff 58 3d
       0.12350439 -0.019117007 0.2556119 0.05297829
0003c0 b7 b6 c2 bd bc f6 bb 3d 5b c8 74 be ce cb c2 3d
       -0.09507506 0.0917792 -0.23904555 0.09511529
0003d0 67 98 fd bc 71 c4 fd bd ff 94 58 be 2e 4d 5d bd
       -0.03095646 -0.12390984 -0.21150587 -0.054028682
0003e0 16 98 8c bd 40 65 ea 3d 70 16 12 3e fd 07 73 bd
       -0.068649456 0.11445093 0.14266372 -0.05933379
0003f0 5d 67 8a bd 56 da b0 bd a2 fb a2 3e 44 80 af 3d
       -0.06757996 -0.08635394 0.31832606 0.085693866

advantage_stream.bias f4 [5]
000000 5a b5 e1 bd b9 a2 17 3e af 74 af bc fd db 57 3e
       -0.11020918 0.14808168 -0.021417944 0.21080013
000010 50 a8 95 be
       -0.29229975

hidden_nets.0.weight f4 [128, 11]
000000 4a c9 13 be dc a4 15 3e 66 ce 89 3d 03 f2 f0 3d
       -0.14432254 0.1461367 0.067288205 0.1176491
000010 ed 9e 13 3e f6 61 3e be d6 78 2f bd 4f 04 4f be
       0.14416094 -0.18592057 -0.042839848 -0.20216487
000020 a1 6b fc 3d f7 2a 59 bd c4 cc e2 bd 06 9e 2d 3e
       0.12325216 -0.05301949 -0.11074212 0.16954812
000030 8b dc 12 be 1c 24 10 3d 99 d2 04 bd 91 f9 1e 3e
       -0.14341943 0.035190687 -0.032427404 0.1552489
000040 a1 e3 18 3c 9f 15 01 bd 99 cc 8d 3c 82 55 20 3e
       0.009331615 -0.03151476 0.017309474 0.15657619
000050 9d 97 81 bd 8e 8b 06 3d 92 23 2e be 4f 77 47 bd
       -0.06327746 0.032847933 -0.17005756 -0.048697766
000060 6c 93 d6 bd 1e eb a2 bd 11 4a da bd f9 72 1b 3e
       -0.10477337 -0.07955001 -0.10658658 0.15180577
000070 58 48 99 bd a7 75 46 be c7 8c d3 bd f5 05 d0 bd
       -0.074845016 -0.19380818 -0.103295855 -0.10157386
000080 d8 ab f4 bd 66 a7 c0 3d cc 98 70 bd 29 6c b3 3d
       -0.11946839 0.09406929 -0.05873947 0.08760864
000090 71 79 61 bc 5d 6a 49 3e d5 1f bf bd 74 0c e5 3c
       -0.013761864 0.1966948 -0.09332243 0.02796004
0000a0 0f c3 d4 3d e0 ed de 3d 31 76 28 be 80 00 74 bd
       0.10388767 0.10885215 -0.16451336 -0.05957079
0000b0 53 90 f7 3c 5a 56 95 3d fd 17 3f 3c f9 e8 e3 bd
       0.030220186 0.07291861 0.011663434 -0.111284204
0000c0 c1 0b b0 bc 6f 1a f9 3d 56 48 1c 3e b4 aa 4e be
       -0.02148998 0.12163245 0.15261969 -0.20182306
0000d0 8b 3f ff bd 73 e3 b7 bc b9 d3 91 3d 4e d2 93 3b
       -0.12463292 -0.022447323 0.07120461 0.0045111543
0000e0 13 8c 0f be 7e 65 7d 3c 3c 88 d8 be f9 1b 21 bd
       -0.14018278 0.015466092 -0.4229144 -0.039333317
0000f0 86 40 2a bc 69 86 31 be f2 25 f4 bd a5 b2 93 3d
       -0.01039136 -0.1733643 -0.119213 0.07211808
000100 87 02 62 be 14 e1 37 be d9 54 00 be aa 72 b5 3d
       -0.22071277 -0.17956954 -0.12532367 0.08859761
000110 9e 24 fa bb 56 ac 12 3c 9d 31 65 be 9d f8 18 3e
       -0.0076337596 0.008952221 -0.22382207 0.14938588
000120 ba 30 a2 3d bd b4 9d 3d bc e2 c0 3d e0 47 55 bd
       0.0791945 0.07700489 0.09418246 -0.0520705
000130 d0 d2 ce 3c 7c 81 97 bd ac 88 08 3e 5b b2 24 3e
       0.025247008 -0.07397744 0.13333386 0.16083662
000140 52 b6 0a be 8e 61 93 be 54 c2 4a be 3f d4 37 be
       -0.13546112 -0.28785366 -0.19800693 -0.17952059
000150 25 c4 16 3e 3e 17 fd 3d f7 68 08 be bc f8 02 3d
       0.1472326 0.12357949 -0.13321291 0.031975493
000160 94 dd f5 3d ef f5 d6 bc 74 5a c0 bd df db e8 bd
       0.12005153 -0.026240317 -0.093922526 -0.11370062
000170 cf 35 82 3e 1f 95 8e bd 66 8b 1f ba b5 c7 cb bc
       0.25431678 -0.06962036 -0.00060861406 -0.024875501
000180 f2 08 44 3d cf 41 af bb 2a 71 22 3c cc ab b9 3c
       0.047860093 -0.005348421 0.009914676 0.022664927
000190 c4 12 54 3d 31 30 c8 bd 53 40 94 3d ec 43 e6 3d
       0.05177571 -0.09774817 0.07238831 0.11243424
0001a0 15 0c db 3b 99 87 9e bb be 5f 81 3d ce de 9b 3d
       0.00668479 -0.004837942 0.063170895 0.07610856
0001b0 5c 3d 1e bc cf fb 16 3d 5a 9d 2e 3e 6b 62 4f be
       -0.009658184 0.036861237 0.17052212 -0.20252387
0001c0 9d 2c 25 3e 86 c8 d5 3d e4 d8 5c 3d ea 44 18 be
       0.161303 0.104386374 0.05391778 -0.14870039
0001d0 fa be ee bd 9a fe dc bd 6b c2 30 3d b7 63 a9 b9
       -0.1165752 -0.10790749 0.04315416 -0.00032308485
0001e0 5f 65 2b bd 16 d2 1e bd 2c 58 d1 bd 56 bb 01 bd
       -0.041844722 -0.038774572 -0.102218956 -0.031672798
0001f0 76 91 a7 be 03 92 41 3d cf ba 68 be 65 d8 3b 3d
       -0.32728165 0.04725839 -0.22727512 0.045860667
000200 38 d2 05 3e dc 36 44 bb 28 12 18 be 5d 03 1f be
       0.13068473 -0.0029939925 -0.14850676 -0.15528627
000210 e3 49 20 be 1a 4b a9 3c 1d f0 21 be e6 e0 a4 bd
       -0.15653186 0.020665694 -0.15814252 -0.080507085
000220 d4 60 51 3d 4f 22 b3 bd f1 38 5b bd bf 26 1a be
       0.051117733 -0.08746778 -0.0535211 -0.15053843
000230 cb 41 82 3d 10 d2 b4 3c 41 6a a9 3d 25 08 09 3e
       0.06360205 0.022072822 0.082722194 0.13382013
000240 29 df 8e 3d 0a ee ea bc 83 1c 35 be e9 82 83 3e
       0.06976158 -0.028677959 -0.17686658 0.25685814
000250 61 61 31 3d e9 f5 b8 bd 30 95 86 bd db 88 7a bc
       0.04330576 -0.09031279 -0.06571424 -0.015291418
000260 44 e5 3e be 32 ac d4 3d 27 bf 20 be 11 85 35 3e
       -0.18642145 0.10384406 -0.15697919 0.17726542
000270 36 af ba bd c9 91 2b be d9 e9 17 be ab 83 bc bd
       -0.0911545 -0.16754831 -0.148353 -0.09204801
000280 8d 5d e5 3d c3 a1 4e be f3 08 20 be 00 cd 98 bd
       0.11199484 -0.20178895 -0.15628414 -0.07460976
000290 b6 45 9c bd ab ea be 3d 97 ed 56 bd c0 81 2d 3d
       -0.07630484 0.09322103 -0.052472677 0.042360067
0002a0 69 4b b7 3d e9 3c 5a 3e dd 7e 49 3e 3c 2b 22 3c
       0.0894993 0.21312298 0.19677301 0.009898003
0002b0 c4 6e 47 be c3 d8 33 3e fe 14 0c be fa fb a5 3b
       -0.19475847 0.17563157 -0.13679883 0.0050654383
0002c0 2b 27 09 bc c6 60 19 3e 69 49 11 be 5e c3 74 be
       -0.008371155 0.14978322 -0.1418816 -0.23902652
0002d0 55 7a 82 be 2e ce 45 bd 82 7a c3 3c 22 be 40 3e
       -0.25483957 -0.04829233 0.023862127 0.1882253
0002e0 a5 31 1e be c6 73 b4 3d 3b e5 f7 bc e9 a4 42 be
       -0.15448625 0.088111445 -0.030260673 -0.1900822
0002f0 d4 eb 04 3d c2 49 2f be 1f 11 a6 3d d2 e9 01 3e
       0.032451466 -0.1711798 0.08108734 0.12686852
000300 2a c5 70 bc 54 2a 1b 3e 0c 28 67 be a3 b3 40 be
       -0.014695445 0.15152866 -0.2257387 -0.18818526
000310 bf ac 3b 3e 00 7a ce 3d c8 5b 1a be e2 82 74 be
       0.18327616 0.100818634 -0.15074074 -0.23878053
000320 3e 01 9a bb 22 5b d8 bd b6 b1 46 bb 68 fb 22 be
       -0.004699855 -0.10564257 -0.0030318326 -0.15916216
000330 19 ab 62 3d f7 75 09 3e 96 aa 01 3e b6 ad de bd
       0.055338953 0.13423906 0.1266273 -0.108729765
000340 78 66 fd 3d 1a e9 4e 3d 74 31 af bd 5e ad 05 be
       0.1237306 0.05051527 -0.08554354 -0.13054416
000350 79 84 b9 3c 4d 00 34 3e 67 1e 17 3c 15 f6 4d 3c
       0.022646176 0.1757824 0.009223557 0.012570878
000360 69 86 88 3d 1d 46 dd bd 48 83 a3 3d 84 16 19 bc
       0.06666262 -0.10804389 0.07984024 -0.009343747
000370 f5 84 82 3d af 0b 65 3c ab b3 60 3d ad c4 fd bd
       0.06373016 0.013979836 0.054858845 -0.123910286
000380 14 55 dd 3d e6 ff c0 3d 1f 8f 70 3d 43 65 84 3d
       0.10807243 0.09423809 0.05873024 0.06464627
000390 7c aa b4 bc e8 d0 c6 bd 6b af bb bd 61 be 2d be
       -0.02205395 -0.097078145 -0.09164318 -0.16967155
0003a0 65 7d 34 bb 38 32 1f bc 74 a2 0f be f2 ab 50 be
       -0.0027540561 -0.009716563 -0.14026815 -0.20378092
0003b0 08 ce 3c be aa d4 0a 3e 3c 91 2e be fd c4 1e bd
       -0.1843797 0.13557687 -0.1704759 -0.03876208
0003c0 60 bc 03 bd 25 f5 2f be bb 98 4c 3d 8e 51 97 bc
       -0.03216207 -0.17183359 0.049950343 -0.018471505
0003d0 60 ab 32 be 35 d6 20 3c 08 5c e7 3d a8 a6 ba bd
       -0.17448187 0.009816696 0.112968504 -0.091138184
0003e0 46 bb 24 3e 7c ba da bd 38 c5 2e bd 32 47 3e be
       0.16087064 -0.106801 -0.04266855 -0.18581846
0003f0 81 93 e3 bd 81 7d 4b be 99 d7 03 bd d9 43 8a bd
       -0.111121185 -0.19872095 -0.03218803 -0.06751222

hidden_nets.0.bias f4 [128]
000000 4f 90 21 bd 61 56 7e bd c4 8a c4 bb 5d ed a8 bd
       -0.039444264 -0.062094096 -0.0059979875 -0.082483985
000010 3a dd 10 bd 09 6b 28 3d 02 11 91 3b e7 97 6b 3b
       -0.035367228 0.0411177 0.0044270763 0.0035948695
000020 fa c4 a0 bd 58 09 ae bd ea 9a 93 bd 89 e5 c2 3c
       -0.0785007 -0.08497876 -0.07207282 0.023791092
000030 00 00 00 00 2b af e1 bd 19 8b f1 bb e6 16 c2 3b
       0.0 -0.11019739 -0.007371318 0.00592314
000040 5a b9 c8 ba 23 e4 bb bc 54 9e 63 bd 8d fe e5 bd
       -0.0015314028 -0.022935933 -0.055570915 -0.11230192
000050 18 c5 d5 bd a4 0f 82 bc 4c fc d9 3c f7 c4 1c bc
       -0.10437983 -0.015876599 0.026609562 -0.009568444
000060 4b 84 ea bd 0a da 03 bd 9d 0c 9e bc 60 1e da bd
       -0.11451014 -0.03219036 -0.019293124 -0.10650325
000070 79 3c 5b bd 25 86 80 bd 25 53 be bc 9d 8d 20 3d
       -0.053524468 -0.06275586 -0.023233006 0.039197553
000080 e1 8c 36 bd 49 67 1d 3c 34 2f e9 bc 2c b8 e9 3b
       -0.044567946 0.009607145 -0.028464891 0.0071325507
000090 d8 bd 37 bd 7c cc 81 3d c5 86 26 be 2b c4 43 bd
       -0.044858783 0.063378304 -0.16262348 -0.047794502
0000a0 0f d3 84 bd b9 b8 19 3d bb 38 97 bd 00 00 00 00
       -0.06485569 0.03752968 -0.07383867 0.0
0000b0 7b 8d 79 bd 2a 1f a6 bd f8 a4 c9 bd 82 7a fc bc
       -0.060925942 -0.08111413 -0.098459184 -0.030820135
0000c0 1d 03 61 3d 4c 4e 5d bd 9b f1 bf bd 8f 71 58 3c
       0.05493461 -0.054029748 -0.093722545 0.013210668
0000d0 e4 ba ce bc d4 b2 a4 bd bb c4 5c 3c 7b 04 33 bc
       -0.0252356 -0.08041921 0.013474639 -0.010926361
0000e0 bd 00 61 bc ac 31 ae 3c 87 5e d8 3c 51 6f a2 bd
       -0.013733086 0.02126392 0.026412262 -0.07931388
0000f0 25 9c ec 3c ee 96 59 bd 82 b4 ac bc a6 6a 6f bd
       0.02888305 -0.053122453 -0.021082167 -0.058451317
000100 4d ef c0 bd 85 f9 8b bd 85 5b ea bd 61 5e e0 bd
       -0.09420643 -0.068347014 -0.11443237 -0.10955501
000110 00 00 00 00 58 a4 ca 39 c2 d3 0c bd 1e f4 de 3c
       0.0 0.00038650888 -0.034381635 0.027216014
000120 44 98 3a 3b 57 56 1c be a2 00 5e bd 67 20 a7 bd
       0.0028472105 -0.15267311 -0.054199822 -0.08160477
000130 25 33 aa 3b 23 be 80 bc fc 7d ed 3c dd 0e f0 3c
       0.005194085 -0.015715664 0.028990738 0.029303962
000140 f5 ae a6 bd e8 c8 82 bc 55 77 84 3c 88 7d 35 bd
       -0.08138839 -0.01596494 0.016170183 -0.04430917
000150 80 31 9c bd 2a d7 01 be 81 12 11 bd 2f d7 a2 bd
       -0.07626629 -0.12679735 -0.035418037 -0.07951199
000160 da ae b8 bd 69 2b 24 bc d5 0d 97 bd 4c 0c b1 bd
       -0.09017725 -0.010020115 -0.07375685 -0.086449236
000170 a2 0b c6 3b 6d cd 32 3d f4 01 a9 bd 1f 53 40 bc
       0.006043867 0.04365294 -0.08252326 -0.011738568
000180 1d 16 9a 3c 67 c1 2a 3b 00 00 00 00 70 bf fe bc
       0.018809373 0.0026055218 0.0 -0.031097144
000190 04 fa 4d 3c 00 00 00 00 91 08 76 bd 6f f7 d9 bd
       0.012571815 0.0 -0.060066763 -0.10642897
0001a0 0a cd e4 bb 3a 92 2c 3d 37 ed 0e 3d b9 9b 59 bd
       -0.0069824504 0.04213164 0.034894194 -0.053127024
0001b0 7d ce 5a bd ea 3a 96 bd 27 f0 29 3c 21 07 0c 3c
       -0.05341958 -0.07335456 0.010372198 0.008546622
0001c0 60 d6 c6 bd f7 a0 08 bd d8 41 fc bd a3 e8 2b bd
       -0.097088575 -0.033356633 -0.12317246 -0.041969907
0001d0 92 c4 44 bb c6 cc e6 bd 85 05 0b bc 7e df 39 bc
       -0.0030024392 -0.11269526 -0.008485203 -0.011344789
0001e0 a0 62 65 bd 15 45 94 bd 3d aa da 3c a1 d9 ba bc
       -0.05600226 -0.07239739 0.026692504 -0.022808852
0001f0 a4 19 fb bb 19 4b fc bc 00 00 00 00 75 60 5c 3c
       -0.0076629687 -0.030797528 0.0 0.0134507315
