hyperopt_results/models/lr_0.0001_20250906_232925/dqn_racing_episode_200.pth (torch, 454549 bytes, 36 tensors)

hidden_nets.0.weight f4 [128, 11]
0.1832467 0.0321141 -0.048472207 -0.111489505 0.040179048 0.089664064 0.035531018 -0.015688559
0.113771275 -0.11205473 -0.10405292 0.16535895 0.15041512 -0.10537713 -0.110501185 0.13270324
-0.0047868136 -0.074979976 -0.1800558 -0.1758896 -0.116397955 -0.028022878 -0.028046068 -0.132629
-0.16605552 0.049420647 0.20672631 -0.024084099 0.035850763 0.12450449 -0.1334906 -0.04685051
-0.06209529 -0.10434274 -0.036264367 -0.08183027 -0.18935643 0.21673077 -0.22139856 0.12620243
0.011197755 0.069605 0.15969042 0.11471706 0.17612022 0.06725596 -0.17158617 0.050762497
-0.13852371 -0.08967523 0.032797486 -0.080120735 0.0071587595 -0.093923 -0.09697709 0.08870534
-0.11736025 -0.045434903 -0.10379233 0.21317108 -0.07165277 -0.093723714 -0.016832473 0.10748033
0.04598426 0.11456851 0.0058774743 0.032027513 -0.2478773 0.006560267 0.026100032 -0.026712801
-0.0067523443 -0.04080106 -0.13832478 -0.06526727 -0.17212409 -0.06712763 -0.012004809 -0.03682881
-0.06508487 0.029537303 -0.031198995 0.16551721 0.0046206606 0.13473244 -0.10587019 0.034811195
0.071933046 -0.0057326374 -0.20483111 0.06456574 0.07339419 -0.16870204 -0.15334064 -0.09096809
-0.1192122 -0.14057043 0.01020962 -0.009222046 -0.19745663 0.20233622 0.01922883 0.28859103
0.07108653 -0.074115194 0.15170081 0.038777187 0.03500325 -0.12618649 0.014696275 0.1249488
-0.03567021 0.02130688 -0.11237216 0.06629937 -0.06271336 0.056911383 -0.14319733 0.007363337
0.14349045 0.09102283 -0.11247266 0.16498907 -0.10875785 0.12589699 -0.11120627 -0.105322465
-0.14471836 0.06302785 0.04410475 -0.17938843 -0.084333435 0.00026315602 0.13483424 -0.103881896
0.10913672 0.11201531 0.13339771 0.10021884 0.078979336 0.07464068 -0.15296932 -0.14610231
-0.17043711 0.13819742 0.12494016 0.19878723 -0.06406989 -0.13371487 -0.20125483 0.14780305
0.0191443 0.056452043 0.13317056 -0.13020064 -0.17368492 -0.056119133 0.14379156 0.023341898
-0.089241244 -0.052461855 -0.12930626 -0.027981834 -0.1263676 -0.03671314 0.048337538 -0.13069959
-0.050023764 -0.15948318 -0.0044000056 0.055746477 -0.094819225 0.12228032 -0.13552363 0.115586765
0.14036131 -0.09737565 0.0787268 0.15771776 -0.08252927 -0.0024385888 0.12530847 0.14651021
0.006342207 0.12268796 0.070300214 0.0408882 -0.03710053 -0.23965158 0.07422265 -0.07655339
-0.11481565 -0.1742609 -0.15513767 -0.11999551 -0.08641704 -0.10063654 -0.0076046907 -0.098249875
0.04177639 -0.008062275 0.22192712 0.051418345 -0.059165012 0.09517659 0.13903357 0.13288419
0.0036114284 0.26949728 0.059012484 -0.03317401 -0.18335758 -0.019297995 0.07242519 0.08848618
-0.13039793 0.00019192164 0.16016315 -0.13114074 0.14003254 0.009499283 0.062068578 0.019670257
0.1582002 -0.06928447 0.0091308905 -0.19487108 0.094771996 0.02023384 -0.02554352 0.1934194
0.046550594 -0.010985813 -0.08461842 0.2077337 0.06791254 -0.052622188 0.036965262 -0.17497957
0.114824265 -0.09661242 -0.084032014 0.11194667 -0.048129324 0.07970747 0.17004496 -0.15523502
0.022343801 0.14493696 -0.1498497 -0.01247512 -0.039395183 -0.061904065 0.014713001 0.17975111
00000000: 06a5 3b3e 138a 033d cb8a 46bd 9c54 e4bd
00000010: c992 243d cba1 b73d f988 113d 4b85 80bc
00000020: ea00 e93d f37c e5bd b319 d5bd db53 293e
00000030: 6c06 1a3e f7cf d7bd 724e e2bd 5ce3 073e
00000040: b4da 9cbb 1a8f 99bd 8c60 38be 671c 34be
00000050: 0d62 eebd 3c90 e5bc dec0 e5bc e6cf 07be
00000060: 750a 2abe 4e6d 4a3d 10b0 533e 044c c5bc
00000070: 40d8 123d 36fc fe3d c3b1 08be 52e6 3fbd
00000080: a157 7ebd a5b1 d5bd f289 14bd a196 a7bd
00000090: a7e6 41be acee 5d3e 4eb6 62be 363b 013e
000000a0: ca76 373c 118d 8e3d e385 233e c7f0 ea3d
000000b0: dc58 343e 7ebd 893d 49b4 2fbe 56ec 4f3d
000000c0: 29d9 0dbe a6a7 b7bd a856 063d 5716 a4bd
000000d0: 0794 ea3b b45a c0bd ed9b c6bd 25ab b53d
000000e0: 925a f0bd f319 3abd 1391 d4bd 8549 5a3e
000000f0: b0be 92bd 38f2 bfbd 41e4 89bc a61e dc3d
00000100: fe59 3c3d e5a2 ea3d d497 c03b 482f 033d
00000110: 8cd3 7dbe 82f7 d63b bccf d53c ced4 dabc
00000120: c542 ddbb 031f 27bd 03a5 0dbe d9aa 85bd
00000130: 4c41 30be 367a 89bd d2af 44bc ced9 16bd
00000140: 374b 85bd 37f8 f13c 0995 ffbc 587d 293e
00000150: e968 973b 4df7 093e 78d2 d8bd 2f96 0e3d
00000160: a251 933d d9d8 bbbb 3fbf 51be 0b3b 843d
00000170: b14f 963d 3ac0 2cbe 5405 1dbe 7a4d babd
00000180: 8725 f4bd b2f1 0fbe 4046 273c 1018 17bc
00000190: 1232 4abe 3a31 4f3e c785 9d3c 34c2 933e
000001a0: d195 913d b5c9 97bd 7557 1b3e d4d4 1e3d
000001b0: 915f 0f3d 0837 01be a5c8 703c 28e5 ff3d
000001c0: ed1a 12bd c48b ae3c 6023 e6bd f7c7 873d
000001d0: dd6f 80bd e91b 693d 52a2 12be 2648 f13b
000001e0: 29ef 123e 2d6a ba3d 1158 e6bd e5f2 283e
000001f0: 70bc debd 24eb 003e 1dc0 e3bd 4eb3 d7bd
00000200: 0d31 14be bf14 813d 2fa7 343d 9ab1 37be
00000210: 02b7 acbd 34f8 8939 fd11 0a3e 08c0 d4bd
00000220: 1383 df3d 4868 e53d 6999 083e 893f cd3d
00000230: ebbf a13d 36dd 983d fda3 1cbe d89b 15be
00000240: 1187 2ebe a083 0d3e a0e0 ff3d e18e 4b3e
00000250: 1337 83bd 8dec 08be bf15 4ebe af59 173e
00000260: 82d4 9c3c 423a 673d dd5d 083e 5153 05be
00000270: 76da 31be 2ddd 65bd 183e 133e 8237 bf3c
00000280: 1dc4 b6bd 3ee2 56bd dc68 04be 293a e5bc
00000290: 8266 01be 8460 16bd 95fd 453d 1dd6 05be
000002a0: b8e5 4cbd 8f4f 23be ec2d 90bb 6b56 643d
000002b0: 9530 c2bd 1b6e fa3d b5c6 0abe c1b8 ec3d
000002c0: e0ba 0f3e e36c c7bd 843b a13d c480 213e
000002d0: 1b05 a9bd bbd0 1fbb dd50 003e c606 163e
000002e0: 4ad2 cf3b d343 fb3d 8ff9 8f3d 637a 273d
000002f0: baf6 17bd 3967 75be 0b02 983d 06c8 9cbd
00000300: 7824 ebbd 7371 32be 69dc 1ebe 35c0 f5bd
00000310: 6bfb b0bd 881a cebd c530 f9bb 3b37 c9bd
00000320: b81d 2b3d a217 04bc dd40 633e 0b9c 523d
00000330: 0357 72bd f2eb c23d d15e 0e3e cb12 083e
00000340: b7ad 6c3b 8cfb 893e 13b7 713d 79e1 07bd
00000350: 17c2 3bbe d416 9ebc a853 943d 3e38 b53d
00000360: 0987 05be 933e 4939 cf01 243e c249 06be
00000370: b164 0f3e e1a2 1b3c 9f3b 7e3d 8523 a13c
00000380: 3cff 213e 04e5 8dbd bb99 153c 498c 47be
00000390: d217 c23d 70c1 a53c a540 d1bc bc0f 463e
000003a0: d6ab 3e3d d7fd 33bc 6c4c adbd 25b8 543e
000003b0: bb15 8b3d 5d8a 57bd e368 173d d82d 33be
000003c0: fc28 eb3d bcdc c5bd fa18 acbd 4c44 e53d
000003d0: 4123 45bd ac3d a33d 4420 2e3e eef5 1ebe
000003e0: 590a b73c 5b6a 143e 3372 19be 7264 4cbc
000003f0: d85c 21bd 1e8f 7dbd cd0e 713c ad10 383e

hidden_nets.0.bias f4 [128]
0.006019376 -0.014376608 -0.064781226 -0.018392278 0.0017379043 0.016408194 -0.03442895 0.007734057
-0.026131602 -0.033370703 -0.018263867 0.04725147 -0.036689673 -0.039421964 -0.04201803 -0.0031340513
-0.014707432 -0.007355841 -0.02163997 -0.008993851 -0.0029732606 -0.027103733 -0.02768615 -0.026930591
-0.01974093 -0.021829937 0.010849334 -0.006308518 -0.0077816076 -0.048599295 -0.03177131 0.027803455
-0.021680424 -0.016054453 -0.040258624 -0.02373694 0.008941649 -0.00882028 -0.00036580695 -0.06713668
-0.022896696 -0.0018855843 -0.014924482 -0.027361406 -0.058675293 0.0015910317 -0.04655687 0.025920505
-0.0011165314 -0.05191255 0.0037314189 -0.033599816 0.055768453 0.0042808186 -0.017809132 -0.040974386
-0.022715485 0.001332498 -0.0017299443 0.03488053 0.014655729 -0.027555928 -0.023810865 -0.018043635
0.011240416 0.020337531 -0.03150075 -0.0062824246 -0.012267604 -0.000436624 0.035460643 -0.007421337
0.02035037 -0.033040926 -0.0063136294 -0.0047871806 0.0049531874 0.0018237595 0.0 0.016489733
-0.04004883 0.031928577 0.013701559 -0.040747397 -0.0057438547 0.0 -0.012916867 -0.0032840231
0.04510397 0.0056576263 -0.0073794248 0.006965786 -0.008077685 0.037144236 -0.016235102 -0.032157753
-0.02883395 0.019454202 -0.014106487 -0.021098489 -0.005471531 0.0019480209 -7.812078e-05 -0.019043304
-0.02068452 -0.018390523 0.0015945277 -0.0072754347 0.007198291 -0.016978776 0.004314365 0.0350446
0.019734299 0.000971763 -0.022034481 -0.06388533 -0.04987292 0.0010470591 -0.009102828 -0.00888878
-0.01581029 -0.023275195 0.01875929 -0.010310748 -0.016554458 -0.0066797235 -0.0071948636 -0.026043901
00000000: 303e c53b dd8b 6bbc 05ac 84bd 67ab 96bc
00000010: 64ca e33a 7a6a 863c 5f05 0dbd f96d fd3b
00000020: f111 d6bc b8af 08bd 1b9e 95bc c28a 413d
00000030: e947 16bd ed78 21bd 191b 2cbd a864 4dbb
00000040: 71f7 70bc 4409 f1bb 4e46 b1bc f25a 13bc
00000050: 09db 42bb a608 debc 11ce e2bc 8b9d dcbc
00000060: bbb7 a1bc b2d4 b2bc 68c1 313c afb7 cebb
00000070: dbfc febb 0e10 47bd a222 02bd 12c4 e33c
00000080: 259b b1bc a184 83bc 3ae6 24bd f973 c2bc
00000090: ff7f 123c f082 10bc c7c9 bfb9 f57e 89bd
000000a0: da91 bbbc b625 f7ba d185 74bc 0725 e0bc
000000b0: 8155 70bd 2a8a d03a 6bb2 3ebd 3d57 d43c
000000c0: 9458 92ba 41a2 54bd d28a 743b f69f 09bd
000000d0: 766d 643d 1c46 8c3b 75e4 91bc c2d4 27bd
000000e0: d315 babc 37a7 ae3a 4cbf e2ba e3de 0e3d
000000f0: 951e 703c f8bc e1bc 010f c3bc 3fd0 93bc
00000100: b929 383c e59a a63c ee06 01bd ccdc cdbb
00000110: 0ffe 48bc aeea e4b9 2e3f 113d b02e f3bb
00000120: d2b5 a63c ec55 07bd 90e2 cebb c8dd 9cbb
00000130: 594e a23b 370b ef3a 0000 0000 7a15 873c
00000140: 3e0a 24bd 8ac7 023d 817c 603c bee6 26bd
00000150: f236 bcbb 0000 0000 44a1 53bc c438 57bb
00000160: f1be 383d 9c63 b93b 1acf f1bb 4041 e43b
00000170: 4458 04bc 8e24 183d 7aff 84bc d9b7 03bd
00000180: 2d35 ecbc 6b5e 9f3c e51e 67bc bdd6 acbc
00000190: 874a b3bb bc54 ff3a c6d4 a3b8 b400 9cbc
000001a0: 9572 a9bc b9a7 96bc 79ff d03a c566 eebb
000001b0: a4df eb3b 1317 8bbc 845f 8d3b ed8a 0f3d
000001c0: d3a9 a13c e9bd 7e3a a881 b4bc 50d6 82bd
000001d0: 8c47 4cbd 793d 893a 0724 15bc 3fa2 11bc
000001e0: 9584 81bc 9fab bebc 15ad 993c 69ee 28bc
000001f0: 379d 87bc 95e1 dabb e4c2 ebbb 055a d5bc

hidden_nets.1.weight f4 [128, 128]
-0.03096221 0.024020124 -0.10226762 -0.011855863 0.066477545 -0.12717703 -0.0887272 -0.09201527
0.12688974 0.11927372 0.13916768 -0.1212527 0.016529774 -0.11411515 0.1336853 0.016946461
-0.12600327 -0.06779937 -0.082954556 -0.027199892 -0.068200156 -0.10042357 0.0472152 -0.12098575
-0.07197521 0.071174994 -0.037810184 -0.0023853648 -0.048037015 0.08231535 0.094109856 0.019544715
-0.12688991 -0.11867327 -0.015284998 0.017761894 0.12444952 -0.12500827 0.048325058 -0.016712878
-0.13502376 -0.06561487 0.13619135 -0.014853296 -0.019549813 -0.1342282 -0.039393466 -0.09264721
0.11681468 0.006079943 0.08791529 0.13828391 0.12523559 -0.1306977 -0.019852655 -0.046783075
-0.1201897 -0.09821955 0.12790106 0.12242276 0.14074068 0.016765159 0.11780833 -0.04600894
0.14648156 0.08549045 0.10457453 -0.1368416 -0.014506732 -0.03444738 -0.018346857 -0.09042536
-0.125611 0.1327413 -0.12574644 0.042098347 0.008476439 0.021100814 0.119334675 -0.105937615
-0.09217755 -0.08368867 0.01156483 -0.1336035 -0.13851109 -0.04767503 0.09784129 0.1213348
-0.118955925 -0.01889481 -0.1372594 0.053883202 -0.0069547268 -0.06003547 -0.0459833 -0.049056035
-0.1191576 0.13649708 -0.14310676 0.05680691 -0.09855447 0.051881768 -0.04739887 -0.15070939
0.05719445 -0.14887507 -0.017054377 0.024798544 0.13577296 -0.15038574 -0.1347613 -0.1286676
0.10344336 -0.088981025 -0.11006368 0.029344194 -0.070873275 -0.0025366447 -0.049497925 -0.024587147
-0.061895892 -0.14879006 0.105831526 -0.10763586 0.07529954 -0.09844277 -0.057983946 -0.05194689
0.0770944 0.15494618 0.14042011 -0.033843677 -0.25154054 0.034497444 0.0008240989 0.14805679
-0.09092812 -0.07858985 -0.01314655 -0.032635327 -0.1736109 0.11291073 0.00046844056 0.13967676
-0.08928852 -0.09807378 0.015571266 0.031603068 0.043003164 0.16027366 0.10504994 0.0037927595
-0.15871109 -0.03533551 -0.056256067 0.009811666 0.009320864 -0.015830224 -0.015447769 -0.054371193
-0.06385749 -0.17180376 0.14067082 0.040253855 0.03593572 -0.088056006 -0.15672451 -0.07218967
-0.11377612 0.07339796 0.045933608 0.09117681 -0.11143673 -0.16498622 0.09365674 -0.1903408
-0.044964887 -0.11597722 -0.13281867 -0.021988485 -0.067880206 0.030895237 -0.006252286 -0.0048913015
-0.08772083 0.03592694 0.12072078 -0.15351368 0.1306429 -0.10407802 0.18036592 -0.02540775
0.12994188 -0.098041765 -0.15873344 -0.05672773 -0.11725547 -0.052977197 0.025158212 -0.015290407
0.048843104 0.0021668503 0.092008375 0.102631114 -0.057809405 -0.10996249 0.0582486 0.15176877
-0.11470551 -0.091752335 -0.07032386 -0.077044204 -0.047245864 0.13945723 -0.057234664 0.008044479
0.05236093 -0.07628575 -0.08943567 -0.09604415 0.05766779 -0.11686566 -0.029737825 0.09228897
0.07046816 0.060387805 -0.15887891 -0.19676612 -0.1349125 0.13477889 0.0039656484 -0.1376565
0.050701294 -0.037097268 0.046286624 0.058800705 -0.05625227 -0.030516367 -0.09103656 0.119655594
0.064822376 -0.16208462 -0.056736156 -0.08407818 0.13619561 -0.16570817 -0.01346767 -0.0072419504
-0.15567581 -0.15563098 0.100752525 -0.061484672 -0.12919192 -0.18029891 -0.0123439515 -0.08624676
00000000: 76a4 fdbc dac5 c43c b071 d1bd 183f 42bc
00000010: 6125 883d b23a 02be 9bb6 b5bd 8072 bcbd
00000020: 62ef 013e c845 f43d f981 0e3e 5653 f8bd
00000030: 7369 873c 34b5 e9bd cde4 083e 4ed3 8a3c
00000040: 0007 01be 65da 8abd 14e4 a9bd 4fd2 debc
00000050: 86ac 8bbd dfaa cdbd ba64 413d 60c7 f7bd
00000060: bd67 93bd 32c4 913d dade 1abd c853 1cbb
00000070: 76c2 44bd f394 a83d abbc c03d 3d1c a03c
00000080: 6eef 01be f90a f3bd ee6d 7abc 6481 913c
00000090: 64df fe3d 2b02 00be 7ff0 453d 72e9 88bc
000000a0: ab43 0abe 1761 86bd bf75 0b3e 3d5b 73bc
000000b0: ee26 a0bc 1e73 09be 0b5b 21bd d2bd bdbd
000000c0: 893c ef3d 423a c73b ee0c b43d 4c9a 0d3e
000000d0: c23d 003e 9ed5 05be 09a2 a2bc 9c9f 3fbd
000000e0: 0426 f6bd 5527 c9bd 7ff8 023e c9b8 fa3d
000000f0: 531e 103e 1657 893c 7e45 f13d df73 3cbd
00000100: 43ff 153e 9e15 af3d 2c2b d63d 3420 0cbe
00000110: a5ad 6dbc b218 0dbd 264c 96bc ee30 b9bd
00000120: 2ca0 00be 56ed 073e adc3 00be 516f 2c3d
00000130: c3e0 0a3c 9ddb ac3c bd65 f43d d2f5 d8bd
00000140: 95c7 bcbd f764 abbd 6a7a 3d3c 5bcf 08be
00000150: dad5 0dbe e446 43bd 0461 c83d 617e f83d
00000160: 2a9f f3bd 4ac9 9abc ba8d 0cbe a2b4 5c3d
00000170: 7ae4 e3bb c1e7 75bd fc58 3cbd fbee 48bd
00000180: e608 f4bd e4c5 0b3e 948a 12be 5dae 683d
00000190: edd6 c9bd fa81 543d 5125 42bd 9053 1abe
000001a0: ba44 6a3d b572 18be 9fb5 8bbc 5126 cb3c
000001b0: 1108 0b3e b8fe 19be defe 09be 70c1 03be
000001c0: 1dda d33d af3b b6bd 1169 e1bd 3c63 f03c
000001d0: 0226 91bd d63d 26bb 56be 4abd fc6a c9bc
000001e0: 8c86 7dbd 6c5c 18be 33be d83d 3170 dcbd
000001f0: a536 9a3d 5d9c c9bd 9380 6dbd 43c6 54bd
00000200: abe3 9d3d 36aa 1e3e 4aca 0f3e ab9f 0abd
00000210: ecc9 80be 314d 0d3d 5708 583a 339c 173e
00000220: 8638 babd b7f3 a0bd a164 57bc 9fac 05bd
00000230: 0ec7 31be be3d e73d 0799 f539 6d07 0f3e
00000240: e6dc b6bd e8da c8bd a01e 7f3c 3872 013d
00000250: 1624 303d c71e 243e 6c24 d73d f28f 783b
00000260: 2985 22be f8bb 10bd c36c 66bd 1cc1 203c
00000270: 8ab6 183c 63ae 81bc a418 7dbc 54b4 5ebd
00000280: b7c7 82bd 53ed 2fbe 030c 103e 3ae1 243d
00000290: 5531 133d b556 b4bd 647c 20be 2dd8 93bd
000002a0: 7403 e9bd ab51 963d e124 3c3d e8ba ba3d
000002b0: f138 e4bd 26f2 28be 1bcf bf3d b3e8 42be
000002c0: 1a2d 38bd 7785 edbd 9e01 08be 3221 b4bc
000002d0: c704 8bbd 0218 fd3c fadf ccbb 3647 a0bb
000002e0: fba6 b3bd 2128 133d 753c f73d b132 1dbe
000002f0: 41c7 053e db26 d5bd d8b1 383e ea23 d0bc
00000300: 7c0f 053e 1fca c8bd 058b 22be 565b 68bd
00000310: a323 f0bd 9efe 58bd 9818 ce3c 9e84 7abc
00000320: b50f 483d b701 0e3b e36e bc3d 4330 d23d
00000330: 8ec9 6cbd 0434 e1bd 1696 6e3d 4669 1b3e
00000340: b9ea eabd a6e8 bbbd f505 90bd 5ac9 9dbd
00000350: e184 41bd e0cd 0e3e e56e 6abd fecc 033c
00000360: 6a78 563d b43b 9cbd 0c2a b7bd ccb2 c4bd
00000370: 1035 6c3d 4357 efbd bd9c f3bc 0002 bd3d
00000380: 9c51 903d 3459 773d 27b1 22be 0f7d 49be
00000390: 8126 0abe 7a03 0a3e 45f2 813b d3f5 0cbe
000003a0: 29ac 4f3d 4ef3 17bd 0b97 3d3d 02d9 703d
000003b0: c868 66bd 76fd f9bc 6071 babd fe0d f53d
000003c0: 98c1 843d 83f9 25be 2c64 68bd 2e31 acbd
000003d0: dd76 0b3e 67af 29be 81a7 5cbc e24d edbb
000003e0: 7b69 1fbe ba5d 1fbe 5757 ce3d 5ad7 7bbd
000003f0: e34a 04be 47a0 38be 493e 4abc 24a2 b0bd

hidden_nets.1.bias f4 [128]
-0.0060394444 0.17605494 0.15404846 0.17479195 -0.0037516456 0.19162458 0.1248032 0.14308135
0.18814601 0.17322624 0.18062864 0.008300846 0.12027164 0.12455241 0.19198631 0.1365219
0.16527736 0.16837129 -0.040332485 0.203276 0.18019551 0.120577864 0.17866828 0.17649026
0.19537835 0.10354295 0.15360762 -0.027732573 0.19702621 0.16345608 0.1738134 -0.03838988
0.15146634 0.13801463 0.14676966 0.19438282 0.13868494 0.1907828 0.18137331 0.090835385
0.19319932 -0.0195833 0.18546474 0.18314633 0.11864671 0.16632867 0.20664959 0.17338586
0.17092386 0.045455348 0.19413297 0.18190719 0.19943373 0.17609 -0.03109587 -0.033832062
0.18241449 0.1846337 0.17697382 0.17450082 -0.050418507 0.1375767 0.17922494 -0.01826548
0.1137925 0.2062368 0.09161737 -0.043558516 0.15120307 0.17930208 0.16200505 0.14197184
0.18779318 0.18401918 0.18791991 -0.03064586 0.17113617 0.18416035 -0.023214458 0.14314573
0.1899253 0.18992959 0.20098966 -0.041439157 0.17885078 0.20910467 0.1946878 0.107844956
0.1403521 0.17514779 0.16792335 0.17016155 0.16533321 0.17190231 0.19026244 0.20422214
0.17125651 0.16895916 -0.032095127 0.185208 0.17664172 0.19060329 0.17408489 0.17565432
0.18825108 0.17255291 0.17167449 0.1967162 -0.016041616 0.16866973 0.117046915 -0.047070127
0.1371192 0.07315433 0.19532025 0.18681407 0.15969865 0.18547499 0.14772852 0.20617801
0.18699782 0.13359107 0.13758442 0.16795911 0.19463764 0.1474641 0.1897801 0.1813355
00000000: 88e6 c5bb bf47 343e e1be 1d3e a9fc 323e
00000010: 2bde 75bb 3c39 443e d298 ff3d eb83 123e
00000020: 59a9 403e 3862 313e b7f6 383e 4600 083c
00000030: fa50 f63d 5515 ff3d 0f98 443e 66cc 0b3e
00000040: 783e 293e 8669 2c3e ad33 25bd 9527 503e
00000050: 2c85 383e 87f1 f63d d1f4 363e ddb9 343e
00000060: 4311 483e 530e d43d 514b 1d3e 6c2f e3bc
00000070: 3dc1 493e 0861 273e 24fc 313e b53e 1dbd
00000080: fe19 1b3e b553 0d3e c94a 163e 4a0c 473e
00000090: 6d03 0e3e 915c 433e edb9 393e e707 ba3d
000000a0: 0bd6 453e 286d a0bc 78ea 3d3e b68a 3b3e
000000b0: 0cfd f23d 1052 2a3e f39b 533e 108c 313e
000000c0: aa06 2f3e 632f 3a3d cbca 463e e145 3a3e
000000d0: 5b38 4c3e f050 343e c4bc febc 7d93 0abd
000000e0: ddca 3a3e 9e10 3d3e a038 353e 58b0 323e
000000f0: a383 4ebd e8e0 0c3e be86 373e 7da1 95bc
00000100: 0b0c e93d bd2f 533e e3a1 bb3d 6a6a 32bd
00000110: fad4 1a3e f79a 373e a7e4 253e 1161 113e
00000120: db4c 403e 866f 3c3e 146e 403e 070d fbbc
00000130: 523e 2f3e 8894 3c3e 3f2c bebc cb94 123e
00000140: c77b 423e e77c 423e 3cd0 4d3e 1bbc 29bd
00000150: a924 373e 891f 563e 3d5c 473e d1dd dc3d
00000160: 76b8 0f3e f159 333e 19f4 2b3e d43e 2e3e
00000170: 1c4d 293e 2907 303e 28d4 423e 9c1f 513e
00000180: de5d 2f3e a103 2d3e 2e76 03bd 2aa7 3d3e
00000190: 91e1 343e 822d 433e 4f43 323e bade 333e
000001a0: e4c4 403e b6b1 303e 70cb 2f3e f96f 493e
000001b0: b569 83bc c2b7 2c3e 4bb6 ef3d 9bcc 40bd
000001c0: fa68 0c3e f0d1 953d 0802 483e 304c 3f3e
000001d0: 0b88 233e 28ed 3d3e 2546 173e 5420 533e
000001e0: 5b7c 3f3e 19cc 083e eee2 0c3e 79fd 2b3e
000001f0: 174f 473e d400 173e b755 423e 03b0 393e

hidden_nets.2.weight f4 [64, 128]
0.009260105 0.15887406 -0.14281897 -0.15674673 0.1093805 -0.15182051 -0.10815834 0.14667058
-0.1066046 -0.12577188 0.014713294 0.052040294 -0.07289741 0.04113418 -0.05546565 0.0016807745
-0.13287683 -0.041312534 -0.07378763 0.1215018 -0.010392933 -0.0045171333 -0.0059403824 -0.0112937
-0.067614384 0.13482726 0.110220276 0.09790076 -0.017407093 0.11858358 -0.05354915 -0.11948206
-0.11072691 0.07558816 -0.06110655 0.1302864 -0.046248153 -0.038829543 -0.1030818 -0.13315117
0.11712607 0.10139486 -0.037974067 -0.15394148 0.107277736 0.09659625 0.01889394 -0.14646737
-0.11291909 0.14433864 -0.095480256 0.05218732 0.13024311 0.11148801 0.034549057 -0.054120988
0.014511159 -0.127953 -0.0014993666 -0.10369175 0.14953496 -0.13055599 -0.013226672 0.08113274
-0.04220312 0.119503066 -0.12279956 0.07705616 -0.10451058 0.07042453 -0.103030264 -0.093069404
-0.0020287628 0.1299154 -0.057134192 0.13300008 -0.033104423 0.03799517 -0.028865417 0.11843314
-0.028833434 -0.1486337 0.091968015 -0.06261649 -0.15098521 -0.13082434 -0.1554976 0.102762565
0.14495791 -0.18501285 0.09368535 -0.1409189 -0.15607263 -0.13018104 -0.06622186 -0.026389277
0.03989995 -0.10666067 0.009958843 -0.12417892 0.016206186 -0.18021554 -0.016528422 0.072560094
0.07577384 -0.08094969 -0.11317064 0.018599432 0.17509578 -0.043636005 -0.12624183 0.05827856
0.09693847 0.16671035 -0.21590804 0.059320945 -0.195403 -0.10082927 -0.15842922 -0.008275097
-0.103087544 -0.027269319 0.005503641 0.13439192 0.10488015 -0.16550653 -0.04817345 0.041240986
-0.16545978 0.12854849 -0.023654683 -0.044725515 0.12926461 -0.08738442 0.0015773016 -0.1699501
0.033683445 -0.14596689 -0.03692174 -0.004963965 -0.018234633 -0.07131307 -0.08595741 -0.015796276
-0.1657613 -0.066512294 0.15111159 0.100195244 -0.11561245 -0.17716715 -0.16044499 -0.13380897
-0.053357303 0.087904215 -0.045838594 -0.1175299 0.121460356 0.07014581 0.102475725 0.079767555
0.15419477 0.01378118 -0.0069415304 0.07484599 0.012496271 -0.088349976 -0.019246133 -0.007980847
-0.045749344 -0.08054396 -0.09597288 -0.12830044 -0.04066109 0.026783166 0.017861264 -0.18065874
-0.020020781 0.068356805 0.07505416 -0.10056224 -0.07496716 -0.120601624 0.16550623 -0.17348523
-0.019975578 0.07560838 -0.15326631 0.11327942 0.0549617 0.042722024 -0.15363872 0.007732433
0.12909275 0.01915786 -0.013638183 7.018354e-05 0.20182003 -0.036024217 0.048731443 -0.012706861
0.103945106 -0.026199134 0.0499439 -0.025885073 0.15369233 -0.015507342 -0.18840986 0.15705784
0.002062996 0.13589567 -0.13577855 0.02065651 0.026939237 -0.12713405 -0.13865195 0.026700899
0.104360245 0.02421374 -0.14991955 0.010791326 -0.0038757217 0.13485968 -0.043605562 -0.05641432
-0.008828806 -0.029609945 -0.11714296 -0.07823453 -0.023640724 -0.086275265 0.10002222 -0.048526753
-0.104753055 0.0046147387 0.114783205 -0.13303931 0.006091124 0.034733206 0.0069639254 -0.092197664
-0.043420568 -0.052996516 -0.01325913 0.00024051382 -0.07658121 -0.12638316 0.14049491 -0.021645335
-0.17663147 0.11681032 -0.12097995 -0.0996082 -0.15772633 -0.13237618 -0.13051938 -0.118143395
00000000: b2b7 173c e2af 223e 233f 12be 3782 20be
00000010: e202 e03d d676 1bbe 1f82 ddbd d030 163e
00000020: 8353 dabd 58ca 00be 0710 713c 3428 553d
00000030: 3d4b 95bd 507c 283d f32f 63bd 6f4d dc3a
00000040: dd10 08be 5537 29bd f81d 97bd f0d5 f83d
00000050: 1f47 2abc 7604 94bb 8aa7 c2bb 3609 39bc
00000060: 6979 8abd 2810 0a3e 2bbb e13d 3280 c83d
00000070: 5299 8ebc f3db f23d 5a56 5bbd 03b3 f4bd
00000080: cac4 e2bd f7cd 9a3d dd4a 7abd cc69 053e
00000090: b46e 3dbd ba0b 1fbd 8d1c d3bd c858 08be
000000a0: cbdf ef3d 1ca8 cf3d b28a 1bbd d6a2 1dbe
000000b0: 6eb4 db3d 41d4 c53d 77c7 9a3c 8bfb 15be
000000c0: 2042 e7bd 82cd 133e 278b c3bd 5fc2 553d
000000d0: 735e 053e d353 e43d 5083 0d3d f8ad 5dbd
000000e0: 36c0 6d3c 1c06 03be 6586 c4ba 575c d4bd
000000f0: b11f 193e 78b0 05be afb4 58bc ec28 a63d
00000100: 2edd 2cbd 06be f43d 567e fbbd 9fcf 9d3d
00000110: a509 d6bd bc3a 903d 8801 d3bd 2c9b bebd
00000120: fef4 04bb 8b08 053e 8b05 6abd 2c31 083e
00000130: 8198 07bd d3a0 1b3d 2b77 ecbc 138d f23d
00000140: 1834 ecbc 6f33 18be ba59 bc3d 133d 80bd
00000150: de9b 1abe d1f6 05be c33a 1fbe 2e75 d23d
00000160: d96f 143e 0274 3dbe 1bde bf3d 0b4d 10be
00000170: 81d1 1fbe 2e4e 05be 549f 87bd 532e d8bc
00000180: 216e 233d e970 dabd 6a2a 233c 8551 febd
00000190: d6c2 843c 6c8a 38be 9d66 87bc 639a 943d
000001a0: 512f 9b3d f3c8 a5bd 02c6 e7bd d65d 983c
000001b0: 4f4c 333e abbb 32bd 8a45 01be 80b5 6e3d
000001c0: ad87 c63d 1eb6 2a3e ff16 5dbe 85fa 723d
000001d0: b917 48be 947f cebd 453b 22be 4694 07bc
000001e0: 901f d3bd e863 dfbc e357 b43b 099e 093e
000001f0: 67cb d63d 8b7a 29be 8651 45bd 4fec 283d
00000200: 4a6e 29be 37a2 033e 77c7 c1bc 1a32 37bd
00000210: f15d 043e 9af6 b2bd 76bd ce3a 6607 2ebe
00000220: a7f7 093d 5878 15be 403b 17bd c2a8 a2bb
00000230: cc60 95bc 960c 92bd 700a b0bd 3167 81bc
00000240: 55bd 29be 9937 88bd ffbc 1a3e 2a33 cd3d
00000250: 38c6 ecbd 4e6b 35be b14b 24be 3805 09be
00000260: 308d 5abd 2007 b43d 40c1 3bbd 84b3 f0bd
00000270: 35c0 f83d 9ba8 8f3d cbde d13d 2c5d a33d
00000280: 3ce5 1d3e 75ca 613c c775 e3bb db48 993d
00000290: 29bd 4c3c d5f0 b4bd 11aa 9dbc 19c2 02bc
000002a0: aa63 3bbd 3bf4 a4bd 6e8d c4bd 3161 03be
000002b0: 3e8c 26bd 5f68 db3c c951 923c 9bfe 38be
000002c0: 9f02 a4bc a7fe 8b3d ffb5 993d 93f3 cdbd
000002d0: 6288 99bd fcfd f6bd 777a 293e 1da6 31be
000002e0: d3a3 a3bc 91d8 9a3d d8f1 1cbe 0aff e73d
000002f0: 851f 613d 4afd 2e3d 7853 1dbe 5960 fd3b
00000300: e430 043e f2f0 9c3c af72 5fbc 802f 9338
00000310: e9a9 4e3e 218e 13bd 9f9a 473d 7030 50bc
00000320: 2ce1 d43d 919f d6bc fa91 4c3d ef0c d4bc
00000330: 8661 1d3e 8212 7ebc 84ee 40be c5d3 203e
00000340: 5433 073b 3c28 0b3e 8809 0bbe d737 a93c
00000350: adaf dc3c 6e2f 02be c7fa 0dbe d8bb da3c
00000360: d3ba d53d e55b c63c 8384 19be 1ace 303c
00000370: d2ff 7dbb a818 0a3e bf9b 32bd b412 67bd
00000380: b2a6 10bc 8e90 f2bc a6e8 efbd 6d39 a0bd
00000390: 31aa c1bc 16b1 b0bd 73d8 cc3d fdc3 46bd
000003a0: c588 d6bd 3c37 973b 7513 eb3d 753b 08be
000003b0: 0d98 c73b 6844 0e3d a431 e43b 21d2 bcbd
000003c0: c4d9 31bd e012 59bd d23c 59bc 7032 7c39
000003d0: 9cd6 9cbd 966a 01be e6dd 0f3e 8f51 b1bc
000003e0: e1de 34be 403a ef3d 56c4 f7bd 62ff cbbd
000003f0: 0383 21be 9f8d 07be dfa6 05be 2af5 f1bd

hidden_nets.2.bias f4 [64]
-0.025792353 -0.045857176 0.547115 0.47229123 0.49922448 0.49804616 -0.028779017 0.45990214
-0.02348119 0.5028141 -0.020860484 0.46885535 0.071916215 -0.011401574 -0.031299304 0.49135214
-0.034663245 0.4905619 -0.023987308 0.40342408 -0.021598069 0.0 0.44357133 -0.009928276
0.39522734 0.4676162 0.4985045 0.53041303 0.47950658 -0.0134667205 0.43370444 0.47090423
0.48380208 -0.022193253 0.47999492 0.45593703 0.5569757 0.44670707 -0.03328512 0.48159182
0.41374955 0.48120192 -0.032293536 0.45383406 0.5156398 -0.04284772 -0.0144236535 0.49534756
0.3814546 0.4800329 0.4766746 0.5071362 0.4306216 -0.04211264 0.4674658 0.50375855
0.46916386 -0.04390211 0.4504581 -0.024823882 -0.043944757 -0.00032610222 -0.022565635 -0.011713254
00000000: 7c4a d3bc bcd4 3bbd bb0f 0c3f 28d0 f13e
00000010: 5a9a ff3e e8ff fe3e f9c1 ebbc 4b78 eb3e
00000020: a05b c0bc 6db8 003f 9be3 aabc cf0d f03e
00000030: cf48 933d abcd 3abc b333 00bd 8292 fb3e
00000040: 0cfb 0dbd ee2a fb3e 0881 c4bc 9a8d ce3e
00000050: 6fee b0bc 0000 0000 c81b e33e 35aa 22bc
00000060: 3d5b ca3e 646b ef3e fb3b ff3e 26c9 073f
00000070: e381 f53e 85a3 5cbc 820e de3e 5c1a f13e
00000080: e8b4 f73e a0ce b5bc e5c1 f53e 9470 e93e
00000090: f695 0e3f cab6 e43e fa55 08bd 3493 f63e
000000a0: fbd6 d33e 1960 f63e 3a46 04bd f05c e83e
000000b0: f800 043f 1781 2fbd 3051 6cbc 329e fd3e
000000c0: 044e c33e dfc6 f53e b10e f43e aed3 013f
000000d0: 6f7a dc3e 4e7e 2cbd ad57 ef3e 52f6 003f
000000e0: 3f36 f03e b3d2 33bd 72a2 e63e 745b cbbc
000000f0: 6bff 33bd b3f8 aab9 91db b8bc f3e8 3fbc

value_stream.weight f4 [1, 64]
-0.19711988 -0.15951547 0.25416014 0.3597432 0.29659906 0.4154966 -0.1757855 0.4280823
-0.060511813 0.36899194 -0.102356255 0.44893008 0.17897268 -0.24599859 -0.18245558 0.3928615
0.014130989 0.28535384 -0.04690471 0.3018921 -0.11388359 -0.21747722 0.44794282 -0.12643068
0.3610459 0.4131647 0.42499977 0.35746777 0.361751 -0.23258945 0.32231754 0.3936052
0.32637325 -0.16934237 0.41272742 0.35480142 0.22571497 0.37581277 -0.1904692 0.45733094
0.31861654 0.42459786 -0.12708464 0.4347359 0.35021734 -0.23319899 -0.31538367 0.4093711
0.33172554 0.36868885 0.3549977 0.34257695 0.3403746 -0.175525 0.2813065 0.29531533
0.33992 -0.22514725 0.3306841 -0.18963389 -0.123106696 0.08663995 -0.06760796 -0.09256122
00000000: cbd9 49be 0658 23be 4721 823e 4330 b83e
00000010: d5db 973e f8bb d43e 1d01 34be 9a2d db3e
00000020: 3cdb 77bd 83ec bc3e 28a0 d1bd 2ada e53e
00000030: 9d44 373e 0ee7 7bbe a3d5 3abe 2425 c93e
00000040: aa85 673c e619 923e 271f 40bd 9a91 9a3e
00000050: cd3b e9bd 59b2 5ebe c358 e53e 0b77 01be
00000060: 02db b83e 538a d33e 9299 d93e 0406 b73e
00000070: 6d37 b93e ee2b 6ebe ce06 a53e 9f86 c93e
00000080: 651a a73e 1668 2dbe 0251 d33e 88a8 b53e
00000090: d321 673e 886a c03e 5c0a 43be 4827 ea3e
000000a0: b521 a33e e464 d93e 7a22 02be b495 de3e
000000b0: b04f b33e b7cb 6ebe f879 a1be 1799 d13e
000000c0: eed7 a93e c9c4 bc3e 42c2 b53e 3f66 af3e
000000d0: 9445 ae3e d3bc 33be 6807 903e 9233 973e
000000e0: ff09 ae3e 008d 66be 6d4f a93e 632f 42be
000000f0: 5d1f fcbd 4970 b13d 0b76 8abd bd90 bdbd

advantage_stream.weight f4 [5, 64]
-0.08976104 -0.15375078 0.067044385 -0.10708322 0.09339379 -0.060689934 -0.27954662 -0.07627781
0.13343565 0.13903703 -0.2005795 0.10354067 -0.2664479 -0.05573673 0.09780312 -0.06061935
0.23753287 -0.05970815 -0.017307155 -0.059938323 0.08944756 0.14279059 -0.079072036 -0.22451228
0.1495096 0.06745817 0.078796506 -0.0014472518 0.023797 0.012137638 -0.031079551 0.040126316
-0.037974935 0.17412904 0.0486285 0.0876678 0.07424909 0.13022445 -0.15019166 0.043215856
0.003885803 0.15270644 -0.12270971 0.14735718 0.052943103 0.24272686 0.2114194 0.06319141
0.007506719 -0.094521746 0.076516114 -0.039169822 -0.033887338 0.10727612 -0.06605447 -0.0029897566
0.054400384 0.09666401 -0.07520346 -0.024815535 -0.047075924 -0.24682613 0.021105882 0.19585875
-0.18232004 0.1039844 0.041450396 -0.12575892 0.0208696 0.013923941 -0.279309 -0.060420506
0.30033606 0.12294778 0.25753978 -0.0028702896 0.105970435 0.17266142 -0.21594442 -0.021019002
0.2060627 -0.064488105 0.23233035 -0.00060901797 0.07662371 -0.022177402 -0.13137093 0.052195486
0.14923835 0.043777622 0.089633584 -0.019592134 -0.08935998 -0.0042003803 -0.17442994 0.07135112
-0.078805715 0.08007063 0.0380895 0.17023554 0.06384254 0.04784436 -0.07405386 0.13201348
0.04095707 0.16301301 0.13140243 0.020427434 0.09688539 -0.141273 -0.20383139 0.09408719
-0.058836497 0.031107226 0.08962053 -0.0061498247 -0.0026846037 -0.064904526 -0.023198817 0.029960267
-0.09958968 0.10495783 -0.00227092 0.05973811 -0.120656066 -0.24710575 -0.0336385 -0.19175726
0.04721329 -0.19788386 0.06141562 -0.008848861 0.061007112 -0.07411061 -0.032180924 0.077324286
-0.04529187 0.10496203 -0.033664793 0.1021707 -0.048070457 -0.039681945 0.11572829 -0.03549596
0.01821542 -0.04825314 -0.08441115 0.009778107 -0.24942154 -0.11355533 -0.07556674 0.17506184
0.08077585 -0.07263503 0.06103033 -0.036785387 -0.06370785 -0.18878704 -0.15275644 0.02688228
0.02096038 0.15084897 -0.06749502 0.17369539 0.07976931 -0.012380024 0.1339584 0.122278556
-0.04404435 0.115869015 -0.043225344 0.16303733 0.111911274 0.0786598 -0.08066402 0.12755325
0.072257385 -0.035916477 -0.028210578 -0.051356398 -0.08956511 0.17151 0.0039081415 0.0014326784
-0.01743006 0.1065695 -0.07872877 -0.102033906 0.24086453 0.22450583 0.12182246 -0.18676844
0.19388321 0.102148466 0.046770796 -0.08531945 0.07737772 -0.06666558 -0.23956391 -0.05547384
-0.12272166 0.062232018 -0.05776841 0.0017458054 0.36101007 0.2389569 0.23647122 -0.070598006
-0.08242238 -0.12868941 0.17857522 0.025960676 -0.2073111 -0.08079068 -0.13342284 -0.022979438
0.10289803 0.059898313 0.06076304 -0.004788352 -0.0048661004 0.13321835 -0.14409935 -0.040480386
-0.011055238 -0.056032207 -0.043791823 0.1208369 0.057236053 0.13278297 -0.2075831 0.0747164
0.05129253 0.16124949 -0.25330308 0.1452048 0.069480844 -0.25560823 -0.16456129 0.042345684
0.03591831 0.006719995 0.04184881 -0.0576586 0.009555826 -0.14289662 -0.07364766 -0.015042956
-0.025219787 -0.0063571194 -0.011635461 0.2563426 0.14017607 -0.1646865 0.29250053 0.1923391
00000000: a3d4 b7bd d870 1dbe 914e 893d 724e dbbd
00000010: 3e45 bf3d 0296 78bd bc20 8fbe 8a37 9cbd
00000020: 5ba3 083e b95f 0e3e b664 4dbe 210d d43d
00000030: dc6b 88be 334c 64bd 014d c83d ff4b 78bd
00000040: d13b 733e 8890 74bd bcc7 8dbc e381 75bd
00000050: 4830 b73d b237 123e 85f0 a1bd 8ce6 65be
00000060: 0b19 193e 8227 8a3d 1060 a13d b6b1 bdba
00000070: edf1 c23c f2dc 463c 8b9a febc 7e5b 243d
00000080: 9b8b 1bbd e24e 323e ae2e 473d 2d8b b33d
00000090: e80f 983d 8f59 053e d8cb 19be 1c03 313d
000000a0: f5a8 7e3b 145f 1c3e 3a4f fbbd cde4 163e
000000b0: deda 583d 648d 783e 547e 583e 7f6a 813d
000000c0: ecfa f53b 9e94 c1bd 7bb4 9c3d 8970 20bd
000000d0: 73cd 0abd 95b3 db3d 9147 87bd cbef 43bb
000000e0: f0d2 5e3d c8f7 c53d 4604 9abd f349 cbbc
000000f0: afd2 40bd fdbf 7cbe 3ee6 ac3c 328f 483e
00000100: 1bb2 3abe c6f5 d43d e4c7 293d f2c6 00be
00000110: b9f6 aa3c 3e21 643c 9701 8fbe 7e7b 77bd
00000120: a6c5 993e 0ccc fb3d 41dc 833e 781b 3cbb
00000130: 0707 d93d 28ce 303e 8920 5dbe 0b30 acbc
00000140: 1a02 533e 5712 84bd 02e8 6d3e 81a6 1fba
00000150: e4ec 9c3d 62ad b5bc 1a86 06be efca 553d
00000160: f0d1 183e 2a50 333d d091 b73d af7f a0bc
00000170: 5d02 b7bd 58a3 89bb c39d 32be 8920 923d
00000180: e464 a1bd 12fc a33d bc03 1c3d 3a52 2e3e
00000190: e1bf 823d 73f8 433d 8da9 97bd 8b2e 073e
000001a0: 9ac2 273d e2ec 263e 5c8e 063e 6f57 a73c
000001b0: d96b c63d dfa9 10be 2db9 50be c9b0 c03d
000001c0: 8afe 70bd 95d4 fe3c f88a b73d 7884 c9bb
000001d0: 2df0 2fbb aaec 84bd 720b bebc 3c6f f53c
000001e0: adf5 cbbd 21f4 d63d b7d3 14bb f3af 743d
000001f0: 871a f7bd 4a09 7dbe 86c8 09bd 045c 44be
00000200: b962 413d 11a2 4abe f28e 7b3d d0fa 10bc
00000210: 98e2 793d 4ec7 97bd 25d0 03bd 325c 9e3d
00000220: f883 39bd 55f6 d63d 18e4 09bd df3e d13d
00000230: 87e5 44bd 8989 22bd f402 ed3d 3664 11bd
00000240: 8138 953c 16a5 45bd c1df acbd 5a34 203c
00000250: 5c68 7fbe b28f e8bd bcc2 9abd 6943 333e
00000260: cf6d a53d adc1 94bd f0fa 793d 46ac 16bd
00000270: 4379 82bd 6451 41be 2f6c 1cbe 3a38 dc3c
00000280: 1ab5 ab3c 2778 1a3e d43a 8abd 34dd 313e
00000290: 185e a33d 96d5 4abc 642c 093e 2e6d fa3d
000002a0: d967 34bd bc4c ed3d 0f0d 31bd 42f3 263e
000002b0: bd31 e53d 6418 a13d 2d33 a5bd 529d 023e
000002c0: aefb 933d 281d 13bd df19 e7bc 165b 52bd
000002d0: ea6d b7bd 51a0 2f3e de0f 803b b6c8 bb3a
000002e0: 7cc9 8ebc 1c41 da3d 8d3c a1bd 27f7 d0bd
000002f0: 31a5 763e dbe4 653e 0e7e f93d 3a40 3fbe
00000300: 5289 463e 3733 d13d bc92 3f3d f7bb aebd
00000310: 3678 9e3d f787 88bd 3e50 75be 8a38 63bd
00000320: 7e55 fbbd 00e7 7e3d 919e 6cbd 82d3 e43a
00000330: 50d6 b83e 1eb1 743e 8325 723e b095 90bd
00000340: 11cd a8bd 28c7 03be 6cdc 363e 7cab d43c
00000350: 5c49 54be 9675 a5bd ff9f 08be 603f bcbc
00000360: 34bc d23d ef57 753d aae2 783d 9ce7 9cbb
00000370: cf73 9fbb 646a 083e c88e 13be c3ce 25bd
00000380: 0721 35bc 0782 65bd 0e5f 33bd 5679 f73d
00000390: 5a70 6a3d 42f8 073e aa90 54be e904 993d
000003a0: 1e18 523d 961e 253e f1b0 81be 91b0 143e
000003b0: f94b 8e3d 15df 82be c182 28be ab72 2d3d
000003c0: 141f 133d 6733 dc3b a869 2b3d 6d2b 6cbd
000003d0: 0a90 1c3c 7e53 12be 96d4 96bd bb76 76bc
000003e0: ba99 cebc 624f d0bb a9a2 3ebc 563f 833e
000003f0: 518a 0f3e 94a3 28be a1c2 953e 8bf4 443e

advantage_stream.bias f4 [5]
-0.14742981 0.04005022 0.101980306 0.11418921 -0.15976243
00000000: d7f7 16be b30b 243d 0ddb d03d 08dc e93d
00000010: c398 23be

hidden_nets.0.weight f4 [128, 11]
0.18173799 0.030774765 -0.050657976 -0.11281859 0.039088104 0.08798061 0.036798198 -0.016759144
0.113771275 -0.1144533 -0.103292346 0.16478294 0.14991269 -0.106520906 -0.11207255 0.1319617
-0.004383096 -0.07614475 -0.18007144 -0.1758896 -0.11665053 -0.027748406 -0.027601523 -0.13181494
-0.16597062 0.049447488 0.20819709 -0.023717107 0.035099637 0.12565483 -0.1334906 -0.045745652
-0.0630712 -0.1034951 -0.03487064 -0.08130165 -0.1872757 0.2178677 -0.22009471 0.1280524
0.012807066 0.069605 0.16000912 0.11565568 0.17456543 0.06514327 -0.17414863 0.049489584
-0.14161785 -0.090714335 0.032167897 -0.08240663 0.0071587595 -0.09552078 -0.094691195 0.08901407
-0.116605856 -0.045668475 -0.103256606 0.21432666 -0.07147706 -0.09265256 -0.015984146 0.10748033
0.046746355 0.11471749 0.0057967226 0.032011848 -0.24766868 0.0064204624 0.026678056 -0.026445884
-0.0071514077 -0.04048019 -0.13832478 -0.06526728 -0.17244501 -0.06677956 -0.011268976 -0.036233574
-0.06391478 0.03003974 -0.030832067 0.1663022 0.005405765 0.13473244 -0.10510079 0.033996604
0.07235944 -0.0043440755 -0.20320566 0.06529265 0.07468768 -0.16783464 -0.15488146 -0.089427285
-0.1192122 -0.13989267 0.009158948 -0.0099976165 -0.19761378 0.20212063 0.020243987 0.2876852
0.070057996 -0.073125236 0.151715 0.038777187 0.035211183 -0.12620838 0.015200553 0.12393193
-0.036361326 0.02054334 -0.11253889 0.06497197 -0.060041543 0.055873428 -0.14319733 0.006094657
0.14364961 0.09227652 -0.11112285 0.16605045 -0.10729857 0.12749183 -0.11054166 -0.1054218
-0.1431649 0.06302785 0.045181256 -0.17956169 -0.08552282 -0.00056041015 0.13392182 -0.10512106
0.10823733 0.11206083 0.1348559 0.099614464 0.078979336 0.07349085 -0.15272957 -0.145777
-0.16956292 0.13867353 0.12537464 0.1996292 -0.0637092 -0.13479479 -0.20025547 0.14780305
0.020338053 0.058016215 0.13201943 -0.13038388 -0.17505275 -0.05748685 0.14374386 0.023076883
-0.08946233 -0.052251935 -0.12930626 -0.027613431 -0.12567338 -0.03671314 0.048337538 -0.13069959
-0.050023764 -0.15948318 -0.0044000056 0.055746477 -0.094819225 0.12228032 -0.13552363 0.115586765
0.13951977 -0.09815108 0.077239886 0.15763322 -0.08385565 -0.004809285 0.12425065 0.14571258
0.006342207 0.1227971 0.07174497 0.039064966 -0.039050613 -0.24127907 0.07223137 -0.078429595
-0.11659484 -0.17218685 -0.15721172 -0.11999551 -0.08771113 -0.09856254 -0.0062380824 -0.09654449
0.042857483 -0.0064023496 0.22321104 0.053470973 -0.06044227 0.09695902 0.13903357 0.13507567
0.004772866 0.27057377 0.059677586 -0.032501888 -0.18269147 -0.018915905 0.07290687 0.08934194
-0.12954617 0.00019192164 0.16081646 -0.13150607 0.14172639 0.011434512 0.064148396 0.021414414
0.15961187 -0.06863047 0.008844808 -0.19271143 0.094771996 0.021767499 -0.02631659 0.19356702
0.047234662 -0.010330873 -0.08436088 0.20784116 0.06937235 -0.053742867 0.03793431 -0.17497957
0.115773775 -0.09727433 -0.082803436 0.1136749 -0.04689118 0.082071744 0.17181827 -0.15520896
0.022958156 0.14690351 -0.1498497 -0.011345205 -0.040493265 -0.063492365 0.014052546 0.17782298
00000000: 8619 3a3e 5c1b fc3c bd7e 4fbd 6f0d e7bd
00000010: d91a 203d 2e2f b43d b5b9 163d 794a 89bc
00000020: ea00 e93d 7e66 eabd f08a d3bd dcbc 283e
00000030: b682 193e a227 dabd 4b86 e5bd f820 073e
00000040: 13a0 8fbb c7f1 9bbd a664 38be 671c 34be
00000050: 79e6 eebd a050 e3bc 971c e2bc 7ffa 06be
00000060: 34f4 29be 7389 4a3d 9e31 553e 614a c2bc
00000070: a3c4 0f3d a9ab 003e c3b1 08be cb5f 3bbd
00000080: 792b 81bd 3df5 d3bd 84d4 0ebd 7b81 a6bd
00000090: 33c5 3fbe b618 5f3e 8260 61be 2b20 033e
000000a0: bad4 513c 118d 8e3d 6ed9 233e e3dc ec3d
000000b0: 48c1 323e d669 853d 0554 32be 97b5 4a3d
000000c0: 4504 11be 70c8 b9bd 7cc2 033d cfc4 a8bd
000000d0: 0794 ea3b 66a0 c3bd 75ed c1bd 024d b63d
000000e0: 0dcf eebd de0e 3bbd 3378 d3bd 7378 5b3e
000000f0: 9162 92bd a0c0 bdbd 2ff1 82bc a61e dc3d
00000100: 1b79 3f3d 01f1 ea3d 6ff2 bd3b db1e 033d
00000110: dc9c 7dbe be62 d23b f08b da3c 0aa5 d8bc
00000120: 5b56 eabb 8ece 25bd 03a5 0dbe daaa 85bd
00000130: 6d95 30be b9c3 88bd 83a1 38bc a869 14bd
00000140: c1e5 82bd e715 f63c 8893 fcbc 204b 2a3e
00000150: d822 b13b 4df7 093e 153f d7bd 0640 0b3d
00000160: 3031 943d bf58 8ebb 2515 50be 27b8 853d
00000170: dbf5 983d d8dc 2bbe 3f99 1ebe a725 b7bd
00000180: 8725 f4bd 0640 0fbe 6a0f 163c 0bcd 23bc
00000190: 445b 4abe b6f8 4e3e b8d6 a53c 794b 933e
000001a0: 917a 8f3d afc2 95bd 2d5b 1b3e d4d4 1e3d
000001b0: 9a39 103d c53c 01be be0b 793c 06d0 fd3d
000001c0: 9def 14bd 824a a83c ca7a e6bd 0610 853d
000001d0: 1fee 75bd 89db 643d 52a2 12be b0b5 c73b
000001e0: e218 133e 79fb bc3d 6094 e3bd 2109 2a3e
000001f0: 5abf dbbd 388d 023e aa63 e2bd 62e7 d7bd
00000200: d299 12be bf14 813d fb0f 393d 05df 37be
00000210: 9726 afbd 7de8 12ba cd22 093e b649 d7bd
00000220: 89ab dd3d 2680 e53d aa17 0a3e ab02 cc3d
00000230: ebbf a13d 5f82 963d 2465 1cbe 9146 15be
00000240: e7a1 2dbe 6f00 0e3e 3662 003e 996b 4c3e
00000250: f879 82bd a507 0abe c50f 4dbe af59 173e
00000260: fd9b a63c 69a2 6d3d 1a30 073e 5a83 05be
00000270: 0741 33be 5577 6bbd 9731 133e bb0b bd3c
00000280: 0738 b7bd 2006 56bd dc68 04be 9035 e2bc
00000290: 86b0 00be 8460 16bd 95fd 453d 1dd6 05be
000002a0: b8e5 4cbd 8f4f 23be ec2d 90bb 6b56 643d
000002b0: 9530 c2bd 1b6e fa3d b5c6 0abe c1b8 ec3d
000002c0: 45de 0e3e 6f03 c9bd f22f 9e3d 9a6a 213e
000002d0: 83bc abbd 3597 9dbb 2077 fe3d ae35 153e
000002e0: 4ad2 cf3b 0c7d fb3d 07ef 923d 9602 203d
000002f0: 89f3 1fbd dc11 77be 0aee 933d b29f a0bd
00000300: 47c9 eebd c051 30be 1cfc 20be 35c0 f5bd
00000310: e5a1 b3bd 28db c9bd d468 ccbb 1eb9 c5bd
00000320: 548b 2f3d cdca d1bb 6f91 643e 6104 5b3d
00000330: 5092 77bd 7392 c63d d15e 0e3e 4751 0a3e
00000340: b465 9c3b a588 8a3e 7c70 743d b320 05bd
00000350: 7913 3bbe 87f5 9abc 3250 953d e8f8 b63d
00000360: c0a7 04be 933e 4939 12ad 243e 87a9 06be
00000370: b920 113e d257 3b3c 3c60 833d 486d af3c
00000380: 4b71 233e 228e 8cbd d0e9 103c 2556 45be
00000390: d217 c23d c151 b23c e495 d7bc 6f36 463e
000003a0: 2279 413d d242 29bc 66c5 acbd 50d4 543e
000003b0: 1713 8e3d 7b21 5cbd 0261 1b3d d82d 33be
000003c0: cd1a ed3d c437 c7bd d994 a9bd 63ce e83d
000003d0: f710 40bd 3b15 a83d 21f1 2f3e 19ef 1ebe
000003e0: be12 bc3c e06d 163e 3372 19be 3de1 39bc
000003f0: 44dc 25bd 4908 82bd a63c 663c 3a17 363e

hidden_nets.0.bias f4 [128]
0.0049487916 -0.0143923685 -0.06363091 -0.01678298 -0.00054799515 0.01725652 -0.03410808 0.008519157
-0.0245908 -0.033356514 -0.01930176 0.04880497 -0.03729406 -0.03842253 -0.041808106 -0.0031340513
-0.0155051295 -0.0094298115 -0.019857537 -0.008142039 -0.0008135607 -0.026134713 -0.025719697 -0.027441122
-0.020328984 -0.02182039 0.010647387 -0.0067815227 -0.008596404 -0.05193391 -0.031148652 0.02890763
-0.02218504 -0.017849555 -0.0401663 -0.023931704 0.008578215 -0.007474879 0.00042432718 -0.0667299
-0.022786211 -0.0028710107 -0.016790299 -0.026611948 -0.05863635 0.0016487618 -0.04589317 0.026434712
-0.0007578464 -0.05116263 0.005247237 -0.034174737 0.05678902 0.005078857 -0.018693201 -0.042154912
-0.022409188 0.0017561559 -0.0017299443 0.03438239 0.0155795915 -0.027175564 -0.023425357 -0.01834871
0.013529241 0.021975907 -0.031362448 -0.0059425267 -0.012445843 -0.00051322754 0.037045017 -0.007799485
0.020695753 -0.032497793 -0.0056971237 -0.004794744 0.0054573873 0.0031340276 0.0 0.017192855
-0.04103889 0.032573644 0.013334013 -0.040895015 -0.0059512644 0.0 -0.012916867 -0.0032090987
0.04378167 0.0061063888 -0.0073240073 0.0072278157 -0.008820138 0.037394866 -0.016015897 -0.032783937
-0.028938288 0.019477895 -0.0130741475 -0.020925695 -0.0044467435 0.0015726659 0.0007870576 -0.018503655
-0.019735567 -0.01785473 0.0013069931 -0.0066625294 0.00692766 -0.015884377 0.0051383884 0.035950284
0.020026773 -0.00016483683 -0.022400536 -0.06522114 -0.049150992 0.0014077751 -0.010083439 -0.007308832
-0.012675602 -0.023089778 0.01870897 -0.010112959 -0.016652618 -0.0054034498 -0.0067789196 -0.026428523
00000000: 7929 a23b f8cd 6bbc ec50 82bd 767c 89bc
00000010: 55a7 0fba 8c5d 8d3c eab4 0bbd ef93 0b3c
00000020: a572 c9bc d7a0 08bd b91e 9ebc b8e7 473d
00000030: a8c1 18bd f160 1dbd fa3e 2bbd a864 4dbb
00000040: 3a09 7ebc 7f7f 1abc 46ac a2bc 3066 05bc
00000050: 2245 55ba 7718 d6bc 1db2 d2bc 34cc e0bc
00000060: f888 a6bc adc0 b2bc 6172 2e3c 8937 debb
00000070: efd7 0cbc a7b8 54bd 752b ffbc b2cf ec3c
00000080: 67bd b5bc 3b39 92bc 6b85 24bd 6c0c c4bc
00000090: a48b 0c3c d4ef f4bb 3b78 de39 b0a9 88bd
000000a0: 26aa babc 9127 3cbb cf8b 89bc 4d01 dabc
000000b0: ab2c 70bd 441b d83a 7afa 3bbd 9c8d d83c
000000c0: 36aa 46ba e88f 51bd 04f1 ab3b cffa 0bbd
000000d0: 9a9b 683d 8a6c a63b 7c22 99bc a1aa 2cbd
000000e0: 7993 b7bc d02e e63a 4cbf e2ba 8dd4 0c3d
000000f0: 8b41 7f3c 4a9f debc 89e6 bfbc 0950 96bc
00000100: c0a9 5d3c d106 b43c e975 00bd 87b9 c2bb
00000110: a6e9 4bbc 1e8a 06ba 84bc 173d d392 ffbb
00000120: 248a a93c 681c 05bd f0ae babb 3a1d 9dbb
00000130: e2d3 b23b 4264 4d3b 0000 0000 08d8 8c3c
00000140: 6518 28bd f16b 053d e776 5a3c 8881 27bd
00000150: d302 c3bb 0000 0000 44a1 53bc be4f 52bb
00000160: 6954 333d 1a18 c83b 3afe efbb 50d7 ec3b
00000170: 5782 10bc 5c2b 193d c533 83bc 7348 06bd
00000180: fd0f edbc 1b90 9f3c f334 56bc 5d6c abbc
00000190: fdb5 91bb e921 ce3a 8b52 4e3a fa94 97bc
000001a0: 7cac a1bc 1544 92bc 694f ab3a 5951 dabb
000001b0: 6d01 e33b f41f 82bc ed5f a83b 9b40 133d
000001c0: 300f a43c 0dd8 2cb9 5481 b7bc a992 85bd
000001d0: 8d52 49bd 1885 b83a 0235 25bc ed7e efbb
000001e0: 54ad 4fbc c626 bdbc 8e43 993c d3b0 25bc
000001f0: 126b 88bc 6c0f b1bb b321 debb a180 d8bc
