hyperopt_results/models/lr_0.0005_20250906_232925/dqn_racing_episode_300.pth (torch, 455445 bytes, 36 tensors)

hidden_nets.0.weight f4 [128, 11]
00000000: 41a5 a03e c1e9 4dbd 27ba 97bd fc3e f53a
00000010: 3532 63bd 5a11 8d3c 0443 79bd ac0b 24be
00000020: ea00 e93d 4830 9fbd 73be 77bc fa78 ac3e
00000030: 29c9 1e3e a060 fcbc 08ab 3a3d b60b 343d
00000040: 7dcf 45bc 6d17 08bd d24c 79be 671c 34be
00000050: 3bc7 53bd fa58 52bd e0e9 b23d 991c 5ebe
00000060: fa89 19be 736b 753d 7398 233e 1688 55bd
00000070: a525 0e3c 03ef f63b c3b1 08be 7de6 83bc
00000080: 51e8 dd3b 72d4 91be 39b7 f5bd 8208 66bd
00000090: ab48 8cbe 6d06 c63d 428b 64be 117c d83d
000000a0: b221 8abd 118d 8e3d d5a6 0e3e 0988 e53d
000000b0: 6bbd 313e 9ffd 86b8 e25b 71be 33bd a93d
000000c0: 6497 55be 36d5 d2bd b9ef 78bd 86b0 e1bd
000000d0: 0794 ea3b 2a19 63be 0a64 efbd e73c aa3e
000000e0: 0d45 11be 9190 9dbd 570a 3b3d c3f2 503e
000000f0: 66f4 87bb 8a2b 68bc 452c 02be a61e dc3d
00000100: 9d3b 3dbd 5aab 1f3d 909b d9bd f51b 0c3d
00000110: 27d6 6dbe c769 72bd 0381 58be 7bd6 b4bd
00000120: cb75 33bd 602b 5b3d 03a5 0dbe ed29 03be
00000130: eb9d 85be 0325 43be 60d7 ffbc af18 28bd
00000140: a1e8 a6bc 1188 d6bc 48d3 70be 8e76 ed3d
00000150: 39d9 1fbd 4df7 093e 0731 e2bd 22d2 0f3c
00000160: e217 673e 4d20 66bd 428a 0abe ef8d 6ebd
00000170: 2e10 053d 6918 36be d7ef fdbd afb8 04be
00000180: 8725 f4bd 38c9 7dbe 888d 363d 3175 6d3d
00000190: fd3a a1be ecc3 a43d 1107 923c cc05 333e
000001a0: 2c04 243d a638 85bb a24f 54bc d4d4 1e3d
000001b0: e2ed dbbc 50f3 973c e0e5 bcbd 67ee 3a3d
000001c0: ac48 46be ffa8 6abd a8c6 92be d67a 863c
000001d0: 1ce5 1c3d 3118 333d 52a2 12be 8da0 ba3c
000001e0: 63a7 6b3e 3b60 05be d4fa 37be 24b3 b33d
000001f0: 3e40 97be 494f 8c3d 3dd7 60bd f01e f4bd
00000200: b6b2 67be bf14 813d 8dec 8abd 33c6 bebd
00000210: baa1 88be 3cb9 a0bd 6507 da3d 916a 02be
00000220: 6653 0abd 45a8 d53d 6183 633d ef4a c0bc
00000230: ebbf a13d a188 313d df32 8dbd ae04 babe
00000240: 149d 44be 4556 ae3d 6d56 5b3e 56e7 603d
00000250: 62c6 5ebe 0952 dcbd 9cd8 78be af59 173e
00000260: 1a70 78bc 8242 053e e97b a53e 5383 0bbe
00000270: 378a efbd 3a3b f13d 24e9 bc3d 1ace 7d3c
00000280: b14c 6cbd 6a7f 00be dc68 04be 8182 0f3d
00000290: a9c7 8abc a770 32bd 9065 253d a5f3 11be
000002a0: a70e 86bd 18d2 2abe f866 93bc 5967 473d
000002b0: 1ba8 d0bd 1b6e fa3d a876 06be 3d41 de3d
000002c0: e9e5 213e 0251 00be 2cad 813d 4017 bc3d
000002d0: 0df0 afbe fbf2 b33d 7137 263e d7ce d23d
000002e0: 4ad2 cf3b d9a5 063e 2053 aebc 70a8 96bd
000002f0: 1751 97bd 16d0 88be 7019 7e3e dd10 68be
00000300: 3a6d 90bd 32aa 3ebe e6ea 4bbe 35c0 f5bd
00000310: dbd2 91bd 1acc 52bd 1afd 34bc 6e00 3fbe
00000320: a78f cfbd 7904 e9ba d392 043e df18 683d
00000330: 8429 9d3c a4c1 fcbc d15e 0e3e 3546 713d
00000340: 2621 97bc 97ce 333e 809d 3dbc 4d05 7abd
00000350: 5d59 10be 7a23 70be e004 3abd 93e8 c03d
00000360: c55b 6fbe 933e 4939 7a0d 0b3e 7438 fa3b
00000370: 4fb9 bb3e 28f0 2a3c 2767 883d bf2e b03c
00000380: 5178 c53c 2eb6 04bc 759a d8bc 51b5 89be
00000390: d217 c23d 4504 893d cfde 0b3c 1542 aa3e
000003a0: 0457 35bc 1879 d8bd 2913 363d 6cf7 d93d
000003b0: 6409 e73c 04c6 8e3c c489 ecbd d82d 33be
000003c0: 3a96 bd3d b7b2 d6ba e5db 55be bb18 023e
000003d0: d1de 9dbe 415e 6f3e fddd 83be 1ce9 03be
000003e0: 3bfe a1bb 624a 363e 3372 19be c0ed 453c
000003f0: 796c 213c 0306 18be 5f10 a2bd e234 343d
0.3137608 -0.050271753 -0.074085526 0.0018710787 -0.055467803 0.017220188 -0.060854927 -0.16020077
0.113771275 -0.07772881 -0.01512109 0.33686048 0.15506424 -0.030807793 0.045573264 0.04395648
-0.012073395 -0.033225466 -0.24345711 -0.1758896 -0.051703673 -0.051354386 0.08736014 -0.21690597
-0.1499404 0.059916925 0.15976124 -0.052131735 0.008675967 0.0075358166 -0.1334906 -0.016101116
0.006772079 -0.28482395 -0.119978376 -0.056160457 -0.2739919 0.09669194 -0.22318748 0.10570539
-0.06744708 0.069605 0.13930829 0.11207587 0.17357413 -6.4368585e-05 -0.23570207 0.0828804
-0.20858532 -0.10294573 -0.060775492 -0.11019997 0.0071587595 -0.22177568 -0.11689003 0.3324959
-0.14186497 -0.076935895 0.045664158 0.20405106 -0.0041490076 -0.014170537 -0.127122 0.10748033
-0.04619943 0.038981773 -0.10625374 0.03420635 -0.23226224 -0.05918291 -0.21142964 -0.088299714
-0.043813508 0.053508162 -0.13832478 -0.12808962 -0.26097044 -0.19057088 -0.031230628 -0.041039165
-0.020374598 -0.026187928 -0.23518097 0.11594878 -0.03902552 0.13473244 -0.110445075 0.008778127
0.22567704 -0.05618315 -0.13529304 -0.058240827 0.032486133 -0.17782749 -0.123992614 -0.12961076
-0.1192122 -0.2478379 0.04456857 0.05797309 -0.31490317 0.08045182 0.017825635 0.1748268
0.04004304 -0.004065591 -0.012958439 0.038777187 -0.02684683 0.018548638 -0.09223533 0.045637514
-0.1936366 -0.057290073 -0.28667188 0.016415995 0.038304433 0.043724243 -0.14319733 0.022781635
0.23013072 -0.1302499 -0.17966777 0.08774403 -0.295412 0.0685106 -0.054892767 -0.11919963
-0.22626767 0.06302785 -0.067834 -0.09315147 -0.26685888 -0.07847831 0.10645942 -0.12735964
-0.03377094 0.104324855 0.055545215 -0.023473231 0.078979336 0.04334319 -0.068944685 -0.36331695
-0.19200546 0.08512548 0.21419688 0.05490812 -0.21755365 -0.107578345 -0.2430138 0.14780305
-0.015163446 0.13013652 0.32321098 -0.13624315 -0.11696284 0.11778875 0.092241555 0.015491033
-0.057690326 -0.12548605 -0.12930626 0.035036568 -0.016940909 -0.043564465 0.04038006 -0.142531
-0.065457635 -0.16681707 -0.017993435 0.048682544 -0.101883136 0.12228032 -0.13131201 0.10852287
0.1581036 -0.12530902 0.06331858 0.09184122 -0.34362832 0.08786579 0.16232087 0.10293358
0.006342207 0.13149203 -0.021279871 -0.07356346 -0.073885135 -0.26721257 0.24814391 -0.22662683
-0.07052083 -0.18619612 -0.19913825 -0.11999551 -0.071202956 -0.051464178 -0.011046672 -0.18652508
-0.101348214 -0.0017777822 0.12946634 0.056664344 0.019184835 -0.030854054 0.13903357 0.058904845
-0.018448424 0.17559277 -0.011573195 -0.06104021 -0.1409659 -0.23451033 -0.045414805 0.0941936
-0.23374851 0.00019192164 0.1357936 0.0076361243 0.36664817 0.010433234 0.066603 0.021506665
0.024105223 -0.008100076 -0.026440838 -0.26896146 0.094771996 0.066902675 0.008537008 0.33253542
-0.011068109 -0.10569972 0.044451866 0.10642895 0.02820272 0.017428406 -0.11549714 -0.17497957
0.09257169 -0.0016380165 -0.20884664 0.12704746 -0.30834058 0.23375799 -0.257553 -0.12881893
-0.0049436367 0.17801812 -0.1498497 0.01208061 0.009852522 -0.14846043 -0.07913279 0.043995745

hidden_nets.0.bias f4 [128]
00000000: e8d0 0dbe a149 9fbd 4f1c 3abe 84bb c6bd
00000010: f92c e8bc 1244 c0bd 5c45 753d 9a18 13bd
00000020: 8ea8 84bd e4c8 4abe 8dd1 00bd 237d 0cbd
00000030: 433b 24be 7643 a6bd 689b ebbd 6915 27bc
00000040: 35ba 6ebd 035c 52bd d636 17be 0e15 e6bd
00000050: 0dd3 9dbd c7df 37be a4cd b03b 9806 0dbe
00000060: 1443 cabc f13c e0bc 0b2a 8ebd 7f64 2ebe
00000070: db9a aa3c d4fa da3d cb66 cbbd ac0c 94bc
00000080: cb2e 20bd acf4 5b3d 99b2 50be 7e58 c1bd
00000090: e30b efbd ef46 9f3d 78da cf3d cde4 4dbe
000000a0: 186a 29bd 8f4b 0bbe c829 a53d 6d1e 16be
000000b0: 4d0c a63d acc6 9bbd cec3 75be 8166 523d
000000c0: fc79 083e 71f8 f1bb 64d1 783d 2629 e5bd
000000d0: 80c3 b4bc 6f60 ccbd 7eee c2bc babf 92bd
000000e0: e2d4 33be 96b0 72be 9c88 58bc 7218 043e
000000f0: b6cc bebd da23 40be 06ed 0dbe 65bd 43be
00000100: 04a1 22bc ec64 92bd af90 f5bc da5b 0ebe
00000110: ee87 be3d 8902 52ba 5ed7 85bd fff6 cf3d
00000120: 06e3 43bc c64e f1bd 30fe e0bd e5a9 31bc
00000130: 7fb7 b8bd 6206 a3bd 0000 0000 40f6 43be
00000140: 98b2 b1bd 966b 8dbd 5558 993c cf43 f9bd
00000150: 90eb 2dbe 0000 0000 c8f7 b6bc b423 62be
00000160: c9df febc fcd9 853d da5f 053e 2ba7 053e
00000170: 1407 1bbe 1c68 90bd 8716 8f3d 74a6 3fbe
00000180: fda0 953c 79a2 b3bd 33ec a6bd 6d8b 94bd
00000190: 23f4 34bd eca5 65bd 7ffe 123d 06e8 c2bd
000001a0: dba8 473d 0199 913d fd60 e3bd df71 ee3d
000001b0: f9bf 01be 3a6b c4bd 638d f7bd cb6a 4dbe
000001c0: 83a7 d3bd 1d14 0c3d f61d 18bd e578 c6bc
000001d0: 158a febd 8605 f4bd a4e3 703d 4978 1abe
000001e0: c51b 893b 5c74 44be c4d2 8cbd 8f9a dc3b
000001f0: aa9c a2bd 7878 873d 1f95 37bd 0277 a13d
-0.13849223 -0.077777155 -0.18174861 -0.097037345 -0.028341757 -0.093879834 0.0598806 -0.035912134
-0.06477462 -0.19803196 -0.031449843 -0.034299027 -0.16038232 -0.08118336 -0.11504251 -0.010197976
-0.05828305 -0.05135728 -0.14767012 -0.112344846 -0.0770627 -0.17956458 0.005395608 -0.13772047
-0.024690188 -0.02737281 -0.06941613 -0.17030524 0.020825794 0.10692373 -0.099317156 -0.018072449
-0.039107125 0.053700134 -0.2038063 -0.09440707 -0.11672189 0.077772014 0.101490915 -0.20106812
-0.041360945 -0.13603042 0.0806461 -0.14660044 0.08107815 -0.07606253 -0.24000475 0.051367287
0.13327783 -0.007384353 0.060746565 -0.11189489 -0.022065878 -0.09979331 -0.023795363 -0.07165475
-0.17561677 -0.23700175 -0.013216164 0.1289995 -0.09316389 -0.18763676 -0.13859949 -0.19115217
-0.009926084 -0.071481556 -0.029976217 -0.13902226 0.0930327 -0.0008011242 -0.06535219 0.10154533
-0.011955982 -0.11782603 -0.109859824 -0.010843729 -0.09019374 -0.07960202 0.0 -0.19136906
-0.08676642 -0.06905286 0.018718878 -0.121711366 -0.16984391 0.0 -0.022334948 -0.22083932
-0.031112568 0.06535718 0.13024846 0.13052051 -0.15139419 -0.07051107 0.069867186 -0.1871584
0.018265242 -0.087712236 -0.0815052 -0.07253156 -0.04417814 -0.05606644 0.035887238 -0.09516911
0.048745017 0.07109261 -0.111024834 0.11642813 -0.12670888 -0.09590764 -0.12087514 -0.2006027
-0.10334685 0.03419887 -0.037137948 -0.024227569 -0.12428681 -0.11915116 0.058810845 -0.15084948
0.0041842186 -0.19185013 -0.06876138 0.006732292 -0.079400375 0.066147745 -0.044819947 0.07884027

hidden_nets.1.weight f4 [128, 128]
00000000: b8fb 55bd 9797 d8bc 673a c9bd be52 2fbd
00000010: 3efe 883d ef54 42be 8dd3 cc3c 1577 a5bd
00000020: f963 033e 698a b23d 16b0 613d e85a dcbd
00000030: c229 1d3d 7b09 15be 8410 203e 4ed3 8a3c
00000040: 1984 f6bd 9c24 efbc 2a19 e1bd 0279 9fbd
00000050: 342d 50be aa8e 13be 6457 b63d f005 f6bd
00000060: 94e3 43be 443f 66bd 7d20 79bd 0f79 d3bd
00000070: 81b8 0cbe 9ff3 403c 8253 df3d 4e58 6f3c
00000080: e566 21be 6ac7 68be b84f debd 8c26 46bd
00000090: aad7 d03d 11d4 09be 66a3 2cbc de94 34bd
000000a0: 5eef 5fbe 131b 8fbc 55a1 ec3d c11a 20bd
000000b0: 5687 223c 7493 07be 9706 b7bd c51e 2ebe
000000c0: 2fec 913d 72e9 e7bc f762 97bc 2c86 c43d
000000d0: c23d 003e 15e5 5abe 852a bcbd aef1 92bd
000000e0: e704 37be 607b 12be 7ff8 023e c8a9 ea3d
000000f0: 01cb 073e e4d2 3b3c c6e6 fe3d 36a3 ebbd
00000100: 852b 163e 1a86 5f3d 5a98 193e 635f 0dbe
00000110: f1ed e9bd 02c5 c5bb a829 aabd 4edc 04be
00000120: 2ca0 00be 4155 493e c7ee 12be d558 143d
00000130: c3fa de3c a757 fb3c bd65 f43d 1a8f b8bd
00000140: fa86 65be 020d 0fbe 7318 2fbd 6071 31be
00000150: 3d43 dcbd e446 43bd dfcf c83d d464 953d
00000160: b1cd f5bd cb02 6ebd c8e4 2bbe 0812 29bc
00000170: 80bd b53c 7bdf b0bd d1c7 13be b5b3 0cbe
00000180: 31ad bebb 7f29 ec3d 520f 3dbe 56d8 083d
00000190: e1c5 eebd a208 cd3c 5a42 ccbd 3465 76bd
000001a0: 6bcb 993d 5c17 26be 3287 bdbd dad9 0dbd
000001b0: 7d52 2c3d b194 43be be62 27be 45e3 5fbe
000001c0: 05e1 8d3d 7303 0abe a31f 2fbe c4cf 26bd
000001d0: dfb6 dcbc f77b e2bd 2833 3abe ec0b 06bd
000001e0: 3e34 94bc 9a9c 3dbe aff5 023e fb7e 3dbe
000001f0: fbca bd3d 7e2e 11be fd3e 74bd dc55 0cbd
00000200: 41a4 353d fd05 953d de8a 803d 6425 b5bd
00000210: cb6a d0bd 1e53 e1bc 35b7 b8bd 9a48 f83d
00000220: dc43 f6bd 5797 1fbe 7d5c 2d3e 38da c7bd
00000230: 1b40 20be 5075 713d bf35 78bc 1650 073e
00000240: 7c0f 66be 670d 933d 21e6 f7bc 8787 35bc
00000250: 3239 57bd 7e03 c13d 5294 833e e4d2 553a
00000260: 5c22 ebbd 6203 003d 498c 33be d013 8abd
00000270: c7bf 183e 245f d63c 006b 66bd 1b85 f5bc
00000280: 4118 97bc 0f56 e1be 85a2 773d 095e 84bc
00000290: 605e 24bd ee75 0ebd 6a44 c3bd 55f9 67bd
000002a0: 008c 89bb 0e26 2f3d 91d7 ef3c da5a 79bc
000002b0: acdc 2cbe c925 e7bd 331a 933d 40fb 99be
000002c0: 6a93 3bbe 9cfc e7bd 1f78 8bbe d72f 42be
000002d0: d05c 0e3c c2a1 a6bd 8d79 8dbe 3639 f83c
000002e0: 289f 3ebe f758 013c aa40 fa3d 79ea 833d
000002f0: 06bc 2d3e 2f76 4dbe aa8c 6f3d f0b8 ffbc
00000300: 554b 143e 6942 04be bc6d d8be dbf1 f4bd
00000310: 0dc1 b7be 5537 16be 6c8a d13d c5bd 33be
00000320: d4ec 5ebc e86c b1bd 58ef ad3d ad17 1a3d
00000330: 5540 13bd 16e7 fcbd 1696 6e3d 1dcc 113e
00000340: 7457 babc a27c ffbd 4afb 01be e78b f9bd
00000350: cd6b 14bd e0cd 0e3e be13 4ebc 83d4 02bd
00000360: 87e8 0b3e 26d0 86bd d72c a2be 70ec edbe
00000370: 74ca 173d 1800 16be 3611 6f3e fe1d 583d
00000380: 2b83 6a3c e1bc 9dbe 2b0d ebbd 96cf 9ebe
00000390: a203 69bd 81bb 413c 30a8 cb3d 5946 49bd
000003a0: a3c8 793e da61 0fbe 4a14 72bc 02bb b5be
000003b0: 5920 65be 56c8 ffbc 03f9 b2bd 5083 8f3c
000003c0: a7f9 173e 1131 0dbf 8e31 09bf 9538 c9bc
000003d0: fe46 ef3d 398f f3be 1ae2 e33c 5974 07bd
000003e0: 73de 803d de28 f6bd 31d9 793d bfc6 193d
000003f0: 7040 a4bd 7eab 91be b73c 303e 625c 1cbd
-0.05224201 -0.026439471 -0.098255925 -0.04280352 0.06689118 -0.18977712 0.025003219 -0.08079354
0.12831105 0.08717806 0.05509957 -0.107595265 0.0383699 -0.14554398 0.156313 0.016946461
-0.120369144 -0.029192261 -0.10991128 -0.07786752 -0.20329744 -0.14409891 0.08903387 -0.12012851
-0.19129783 -0.05621268 -0.060822 -0.103258245 -0.13742258 0.011776834 0.109046 0.014608456
-0.15761907 -0.2273232 -0.10855049 -0.048376605 0.10197385 -0.13459803 -0.010537004 -0.044087283
-0.21868655 -0.017468965 0.11554209 -0.039088015 0.009919962 -0.13239843 -0.08936804 -0.17003925
0.071251266 -0.028309558 -0.018479807 0.09595904 0.12523559 -0.2137645 -0.091877975 -0.07175003
-0.17872964 -0.14304876 0.12790106 0.114581645 0.13261034 0.011463854 0.1244636 -0.115057394
0.14665039 0.05457125 0.14999524 -0.13805918 -0.11422337 -0.006035448 -0.083087265 -0.12974665
-0.125611 0.19661428 -0.14348899 0.03621753 0.027219182 0.030681444 0.119334675 -0.090116695
-0.2241477 -0.13969806 -0.042747926 -0.17328405 -0.10755012 -0.04767503 0.09805273 0.07294622
-0.12002123 -0.058108132 -0.16786492 -0.01031924 0.022185087 -0.086363755 -0.14431693 -0.13740428
-0.005818986 0.11531352 -0.18462875 0.03340944 -0.11658836 0.02502853 -0.09973593 -0.06015511
0.07509502 -0.16219848 -0.09254302 -0.034631588 0.042070854 -0.1909969 -0.16346261 -0.2186404
0.06927685 -0.13477878 -0.17101912 -0.040725484 -0.026942668 -0.11058801 -0.18183577 -0.032726213
-0.018091317 -0.1851677 0.12789033 -0.1850547 0.09267231 -0.14177892 -0.059630383 -0.03426157
0.044346098 0.07276533 0.06276487 -0.08845022 -0.10176619 -0.027505454 -0.09019319 0.12123223
-0.12024662 -0.15585075 0.16929813 -0.09758419 -0.15649454 0.05894977 -0.015149533 0.13214144
-0.22466844 0.07180291 -0.030261101 -0.0110796755 -0.05254478 0.09424494 0.25699097 0.00081567303
-0.11481163 0.031253226 -0.17533983 -0.0674206 0.14916907 0.026168413 -0.056254387 -0.029970696
-0.018444182 -0.4401097 0.060457725 -0.01615812 -0.040129066 -0.034780435 -0.09534533 -0.056634266
-0.0041975975 0.0427609 0.029277595 -0.015219415 -0.16881055 -0.11286504 0.071827315 -0.300745
-0.18317953 -0.11327478 -0.27240083 -0.18963562 0.00868912 -0.081363216 -0.27631798 0.030300718
-0.18615401 0.007894746 0.12219365 0.064412065 0.16966256 -0.20064615 0.058483757 -0.031216115
0.14481862 -0.12915958 -0.4227122 -0.11960193 -0.35889474 -0.14669545 0.1023148 -0.1755286
-0.013606269 -0.0866335 0.08492917 0.037620235 -0.035950024 -0.12348764 0.0582486 0.1423802
-0.022746779 -0.12474944 -0.12693515 -0.121848874 -0.03623562 0.13945723 -0.012577949 -0.03194095
0.13662921 -0.0658267 -0.31674835 -0.4646945 0.03705831 -0.14648473 0.23346409 0.052762978
0.014313499 -0.30808166 -0.11477121 -0.3101775 -0.05688823 0.01182449 0.099441886 -0.049139354
0.24392943 -0.14002171 -0.014775345 -0.35494238 -0.22375621 -0.031223457 -0.087389015 0.01751867
0.14841329 -0.55152994 -0.5359124 -0.024563113 0.116834626 -0.47570208 0.027817775 -0.033069942
0.06292429 -0.120195135 0.060998145 0.037543055 -0.08020103 -0.2845115 0.17210661 -0.03817404

hidden_nets.1.bias f4 [128]
00000000: 7239 dfbd c82d c33d 0e65 a13d 9fc4 a33d
00000010: 1a01 093d c758 603d b648 d43d 8d00 a1bc
00000020: aa1e 8f3d 230a 423d 644e a03d 16ad de3d
00000030: f8b9 cd3d 069d dcbd 038b 003e 4a64 6c3d
00000040: 594b 613d 2326 8c3d 6771 a9bd 63e3 e13d
00000050: 09f5 743d f791 f93d 596a 643d 89e8 863d
00000060: 5e71 833d 9cca 913d 4af7 ac3d c127 7a3d
00000070: 61f8 1d3d df13 ac3d 478f 02be c662 72bd
00000080: 468a 613d ecbc 243d 78bc 033e 10ab 1d3d
00000090: 9b29 d53c fe64 063e cb1f 1c3d ff7f 4c3d
000000a0: 997c 463d 0efc 323d df15 f93d 9cd1 573d
000000b0: 8ef5 adbd e9b3 b9bd a326 593d 37b2 533d
000000c0: 01d2 eb3d 0a2f a53d 3c44 c43d e83f da3d
000000d0: a1c5 cf3d dbf2 b03d 5153 923d 0c0b 8c3d
000000e0: f345 bb3d 6a66 883d 5892 563d 2e80 da3d
000000f0: 323b 153c 16f7 c63d ac5f 8b3d a654 d43d
00000100: 8db2 143e 54ac a33d b737 cdbd 673f 023d
00000110: 2d32 843d c604 ca3d 4b78 b73d 8eed ebbd
00000120: 108b 513d 4453 993d 342e ed3d 72ba f53d
00000130: 09d7 d93d 2a1f bd3d 3d1d f03d cb8d d73d
00000140: f06d 2c3d fd44 e23d e8de ac3d 78b7 3cbe
00000150: a5c2 aa3d ac58 223d 8064 633d fdd2 e53d
00000160: 0c74 ac3d 0033 6d3d 0ec1 f93d 92a8 b63b
00000170: 4371 663d 78ac 3b3d 2d8c d73d 26cf e33c
00000180: 45c9 283d 0f71 883d 5e70 913d 3a8e cc3c
00000190: 019c a93d 86ba 173d 7442 633d 0800 d03d
000001a0: cd60 bc3d dfae db3c fd02 da3d 7953 af3d
000001b0: f38f b03c 967c b03d 0733 b33d 263e f9bd
000001c0: 9288 cf3d a520 773d d877 cf3d 1bcb d2bd
000001d0: 4b0b 553d 488f ae3d 2c88 953d f799 9c3d
000001e0: b7d0 7d3d b5cf d93d 38aa 3e3d bee1 0d3d
000001f0: ddef 9c3d deac 5d3d 2cf3 433d 980d 4a3d
-0.10899629 0.095302165 0.07880603 0.07996487 0.033448316 0.054772165 0.10365431 -0.019653583
0.069882706 0.04737295 0.07827452 0.10872857 0.10045236 -0.10772137 0.12553029 0.05771283
0.055003498 0.068432115 -0.08273583 0.11029699 0.059803996 0.12186044 0.055765484 0.06587321
0.064181075 0.07118723 0.08445604 0.06107307 0.03856695 0.084022276 -0.12749968 -0.05917623
0.05506351 0.040219232 0.12864864 0.038493216 0.026020816 0.13124463 0.038116258 0.049926754
0.04845867 0.04369741 0.12162375 0.052690133 -0.084941015 -0.09067518 0.053015362 0.05168363
0.115146644 0.080656126 0.09583327 0.106567204 0.101451166 0.08640071 0.071447976 0.068380445
0.09144201 0.06660159 0.052385658 0.106689796 0.009108352 0.09715097 0.06805357 0.10367708
0.14521237 0.07991853 -0.100203924 0.031798746 0.06454883 0.09864192 0.08958491 -0.11519919
0.05115801 0.07486585 0.11581078 0.11998452 0.10636718 0.0923446 0.11724327 0.10525092
0.042097032 0.11048315 0.084409535 -0.18429363 0.08337907 0.039635345 0.055515766 0.112218834
0.08420572 0.057909966 0.121950254 0.0055742944 0.05626036 0.045818776 0.10524783 0.027808737
0.04120757 0.06662189 0.071015105 0.024970163 0.082817085 0.037043117 0.055483297 0.10156256
0.09198151 0.026816783 0.10645101 0.08560843 0.021553015 0.08617513 0.08749967 -0.12170057
0.101334706 0.060333867 0.1013028 -0.102926455 0.052012723 0.085234225 0.07301363 0.07646554
0.061966624 0.1063532 0.046549052 0.034639113 0.07662938 0.054119937 0.04783933 0.04932937

hidden_nets.2.weight f4 [64, 128]
00000000: 2e7d ae3d 288d 63bc 1bfd 25be dab6 12bd
00000010: 828a 24bd 2619 59bd 5a83 6dbe a3ac 0a3e
00000020: c9f1 c1bd d4df 21bc ee30 81bd 594a f8bd
00000030: affb adbd 9c15 883d 88a6 9c3d 0e09 0a3d
00000040: 383d 4ebe 067c 5bbd 556b 0cbd e681 4c3e
00000050: f651 983d d892 833d af21 2a3d 438c 89bd
00000060: 2eb6 67bd a277 b63d d164 a63d 5b09 973c
00000070: 0d30 03be d8f1 263e 0a7f 03bd b422 3abd
00000080: 235f 07bd 4c8f 373e f494 093d 9934 3d3d
00000090: 19cc 20be 6a62 533d 83fa 34bd 8964 75be
000000a0: 7cb5 c93d 9fb4 843c 5195 1d3e d915 17be
000000b0: c8eb ff3d f1d5 643d 4e1d a9bc e9c4 73be
000000c0: f4b6 1bbe fe7a 033d dc11 08be 9289 3abb
000000d0: 0282 bf3d 4807 823d aa67 2a3d ece0 91be
000000e0: 9d1e c6bd 22df 72be 65ea 0cbd 1310 15be
000000f0: ea02 7d3e 05a1 26be 81d1 31bc 9d21 ccbd
00000100: 8f7e 95bd d471 fb3c 3ea0 18be 1aac 7dbd
00000110: 7c0a 58be b66f 0ebd c1dd 2dbe 862b 52be
00000120: 3647 50bd 15f0 ea3d aded 19be 862b 00be
00000130: d317 abbd cd83 903d 90bb 13be f386 173e
00000140: fe06 ddbc ba5b 8abe 7e70 6f3c 3bda 65be
00000150: cf99 a3be b0ab f3bd d16e 7cbe 27ff 9f3d
00000160: 561c 203e 5ab6 33be b700 463e 2b8c 50be
00000170: 78d0 33be c4fa 6cbd 8442 02be f288 72bd
00000180: c237 c43d 9ffa 0cbe 88d8 56bc 12cb 8cbe
00000190: aa69 c0bc a663 59be 325a 65bd e05e 723d
000001a0: af6d a73c 247a f7bd 62db 87bd 5401 90bd
000001b0: edd3 a13e ac92 16be 2626 18be a34a 32bb
000001c0: 8998 a13d d718 d93d 71a3 6bbe 5281 403e
000001d0: e407 3bbe bf93 03be 57ea 17be cec1 f43c
000001e0: d866 4ebe c56b 61bd af5e 9838 868c cf3d
000001f0: 4fe6 103e b05e 1cbe 474c 28be fcaa b5bc
00000200: 1e84 33be bef5 9d3d 0790 5abd 266f 90bd
00000210: 4897 cb3d 7e3d 8bbc 04c2 c23c 45e6 c3bd
00000220: 348b 763d 2df3 dfbd f792 b5bd 0b43 d7bd
00000230: 5708 a43c aae0 b1bd e86b 62be fbfb 9ebd
00000240: d7d9 febd a9e3 ccbc 13ed f53d dd9b 093e
00000250: d6b3 b2bd 4263 3abe 7cb8 27be ea6c 20be
00000260: 5cb8 cebd 2843 cf3d 5b83 8bbc 3940 86be
00000270: ddb6 8f3d 1409 86bd 1817 123e cb32 26bc
00000280: f780 033e b326 52bd af2f 5cbe be69 e93d
00000290: c922 34bd 9377 07bd d5eb 5bbd 7b1e b4bd
000002a0: efbb 1b3d 0fa4 0bbe 9a08 05bd aaed f1bd
000002b0: 6688 c0bc 3fdf 6b3d 3eb3 aa3d c96c c2bd
000002c0: 03c3 603d 87be 4bbc e024 073d 1e39 2bbe
000002d0: 6819 09be a05e 8bbd 9e13 a53d e4ee 22be
000002e0: e0dc 94bc 1319 4d3d b09f 0abe 85a6 b6bc
000002f0: 963e bd3c 30b9 fcbb cccc 4cbe 3d81 473d
00000300: 064f a83d 9832 1bbd 4619 67bd f26d a63c
00000310: 41fe 173e 3637 0dbd 9abc 033d e048 c2bd
00000320: 8cec ee3d 0338 50bd 087e b23d 5fbb 3cbe
00000330: 8f42 773d 90d5 47bd 190f 1bbe 56d5 0a3e
00000340: 8151 693d ab83 3e3d ccb5 1bbe a5cb b6bb
00000350: b369 803b b01d 00be 22ba f1bd 1afb 68bc
00000360: db9d 143e 6856 5f3d acd3 11be a21e aa3c
00000370: e76f 9e3c 422c fb3d 66bd 14be fe12 b8bd
00000380: 5fb8 d1bd 4db4 c63b ecd2 3bbe d4d2 e1bc
00000390: 6d0d f33b ce2b 90bd bb8a 693d 3456 e2bd
000003a0: 4c70 0dbe 081c ccbb 4ca4 a63d f9e9 23be
000003b0: 6be3 50bc 7d84 643c a2ad 5b3d b7f6 afbd
000003c0: 6556 82bd 63b7 87bd fa2d 293d d456 313d
000003d0: e7ec 0bbe 6e7c 04be 5391 2f3e 3acb d2bb
000003e0: 006d 1ebe 6f62 9e3c 0241 adbd 8e1d 62bd
000003f0: 5b47 dcbd 921a 15be 4380 0fbe 8181 85bd
0.0851997 -0.013888635 -0.16209833 -0.035818912 -0.040171154 -0.0530025 -0.23194638 0.13542418
-0.09469945 -0.009880025 -0.06308161 -0.12123556 -0.084952705 0.06644747 0.07648951 0.03370004
-0.2014054 -0.053585075 -0.034282047 0.19971427 0.07437508 0.064244926 0.04153603 -0.06716206
-0.056570224 0.08909537 0.08124698 0.018437078 -0.12811299 0.16303194 -0.032103576 -0.04544325
-0.033049714 0.17925757 0.03358932 0.04619274 -0.15702857 0.051607527 -0.04418422 -0.23964132
0.098490685 0.016199408 0.15388991 -0.14754428 0.124961436 0.055868093 -0.020643856 -0.23805584
-0.1520651 0.032099716 -0.13288063 -0.0028463346 0.09350969 0.06349045 0.041602768 -0.28491914
-0.09673808 -0.23717931 -0.034403224 -0.14556913 0.24708143 -0.16272362 -0.010853172 -0.09967349
-0.0729953 0.030693926 -0.14904878 -0.061931707 -0.2109775 -0.034774505 -0.16979124 -0.20524415
-0.050849162 0.11471573 -0.15032072 -0.12516603 -0.083541535 0.07056389 -0.14427018 0.14797573
-0.026980873 -0.27023107 0.014614223 -0.2244653 -0.31953284 -0.11897981 -0.24651648 0.07812338
0.1563581 -0.1755003 0.1933621 -0.2036597 -0.17559993 -0.057856336 -0.12720686 -0.059212632
0.095809475 -0.1376748 -0.0131131485 -0.2749868 -0.023487885 -0.21229419 -0.05599422 0.05917251
0.020438043 -0.12083843 -0.06633641 -0.07031503 0.31607 -0.14704388 -0.14858302 -0.0027205131
0.07890422 0.10600441 -0.23011567 0.18799332 -0.18264729 -0.1284933 -0.14835487 0.02987757
-0.2015642 -0.055034418 7.265561e-05 0.101342246 0.14150356 -0.15270495 -0.16435347 -0.022176258
-0.17530867 0.07712887 -0.05336001 -0.0705245 0.09940964 -0.016997095 0.023774154 -0.09565405
0.06019135 -0.10935054 -0.08865922 -0.10510834 0.020023508 -0.086854294 -0.22111475 -0.07762905
-0.124438934 -0.0250109 0.12008109 0.13438363 -0.08725707 -0.18201926 -0.16378969 -0.15666547
-0.100937575 0.10120231 -0.017030409 -0.26220873 0.070173 -0.065447 0.14266622 -0.010143946
0.12842165 -0.051306438 -0.21502565 0.11397122 -0.043978486 -0.03307302 -0.053691704 -0.08794876
0.038021024 -0.13636802 -0.032478906 -0.11812909 -0.02350254 0.05758595 0.08334969 -0.09493405
0.054873478 -0.012435562 0.03299415 -0.16721007 -0.13388598 -0.06805158 0.08060382 -0.15911442
-0.018171728 0.05007274 -0.13537478 -0.0222962 0.023101132 -0.0077125058 -0.19999999 0.048707236
0.082181975 -0.037890047 -0.056420587 0.020316098 0.14843084 -0.03447648 0.032162286 -0.09486556
0.116662115 -0.050834667 0.08715445 -0.18430851 0.06036621 -0.048787653 -0.15142478 0.13557944
0.056962494 0.046512287 -0.15206069 -0.0055784755 0.0039188503 -0.12511325 -0.1180308 -0.0142200235
0.14513342 0.054525763 -0.14240903 0.02076656 0.019340469 0.12264301 -0.14525375 -0.089879975
-0.10240244 0.006063974 -0.18342179 -0.027566351 0.007417372 -0.07039605 0.05701707 -0.11051598
-0.13812369 -0.0062289275 0.08136806 -0.16007222 -0.012749533 0.013947603 0.053632386 -0.08591979
-0.06364135 -0.06626775 0.041303612 0.043295696 -0.1366459 -0.12938091 0.1714528 -0.006432918
-0.15471268 0.019334046 -0.08459665 -0.055203967 -0.107557975 -0.14560917 -0.14013772 -0.065188415

hidden_nets.2.bias f4 [64]
00000000: 75f9 8fbd 7ae0 c2bd e8ad 8e3f 9749 813f
00000010: 04a6 863f 233a 7f3f 4c4e 063f 30f5 7b3f
00000020: c6da 693f 8ed5 df3e 16d2 393f 0f6b 7b3f
00000030: d0c7 d03e fc8f c9bd 3e7b d8bd 6c09 823f
00000040: 6fff 713f 4c1c 893f 6906 673f d22f 443f
00000050: b1e2 febd 8469 4ebd 8236 7c3f 0af0 593f
00000060: ff3c 733f d619 7c3f 8d8c 803f 9d7a 853f
00000070: 08eb 803f ee95 1fbe 5642 823f 2918 853f
00000080: 5820 863f 471f b4bd 1eac 7a3f f3cb 763f
00000090: 04b1 8e3f aa72 7d3f 8777 f3bd 30a3 7c3f
000000a0: efa8 653f 6bf9 7b3f a491 10be e9b6 7f3f
000000b0: a9b1 7e3f b313 c1bd 95a5 1f3d 272e 7b3f
000000c0: 00ac 823f 5438 833f 364f 823f c7ba 833f
000000d0: 448b 823f 9440 e8bd 08ed 873f 4849 853f
000000e0: de3a 7f3f ce26 e3bd 8b39 7c3f 7c20 1c3f
000000f0: ff1e 0e3f 8263 5cbd 96c4 9abd eebc eabd
-0.07030002 -0.09515472 1.1146822 1.0100583 1.0519414 0.99698085 0.5246322 0.98421
0.91349447 0.43717617 0.7258619 0.98210233 0.40777445 -0.09841916 -0.105703816 1.0159125
0.94530386 1.071176 0.90244156 0.7663547 -0.12445582 -0.050393596 0.9852067 0.85131896
0.9501495 0.9847692 1.0042893 1.0428044 1.0071726 -0.15584537 1.0176494 1.0397998
1.047862 -0.08795028 0.9791888 0.9640495 1.1147771 0.9900309 -0.118880324 0.98686504
0.897109 0.98427457 -0.14118057 0.99888474 0.9948984 -0.094275855 0.03897627 0.981173
1.020874 1.0251565 1.0180423 1.0291375 1.019875 -0.11340442 1.0619211 1.0412989
0.996992 -0.11091386 0.98525304 0.6098707 0.55516046 -0.053805836 -0.07557027 -0.11461817

value_stream.weight f4 [1, 64]
00000000: 112e 66be afe4 2abe 529f 183f 3efe 293f
00000010: 3348 1d3f d70c 483f cd71 1f3f 379c 503f
00000020: 158a 263f 4bf8 1a3f bf17 303f 38b6 573f
00000030: d593 223f 1adf b0be 04f7 53be 0c21 443f
00000040: ba60 193f 0138 213f 3c21 143f 4bc9 1c3f
00000050: b8de f9bd 7edf 3bbe e8d5 563f 4512 353f
00000060: 3d4b 3c3f 20ce 423f 0447 3f3f 6fd5 373f
00000070: b231 2d3f f65b 28be a39c 253f 0754 3b3f
00000080: a6f8 203f ae17 73be 1f49 533f 1bf6 2e3f
00000090: 5fd0 0e3f 0c43 333f 4a04 30be b2ce 5a3f
000000a0: d6ec 223f 09ce 493f 1576 fabd 1ae5 4c3f
000000b0: 3482 453f 6e3a 8cbe 1c53 e7be fc3a 3c3f
000000c0: c26d 343f ff5e 343f 3418 2d3f 6bcc 2b3f
000000d0: 6ea5 453f 18a6 34be d3cd 1c3f 7f02 203f
000000e0: 1825 2a3f 9d3b 83be ee22 283f 9e50 303f
000000f0: 461e 133f 086c d53d d9ae 9bbc df45 e3bd
-0.2247851 -0.16688798 0.59618104 0.6640357 0.6143829 0.7814459 0.6228302 0.81488365
0.65054446 0.60535115 0.68786234 0.8426242 0.63506824 -0.34545213 -0.20699698 0.76612926
0.5991322 0.6297608 0.5786321 0.6124465 -0.12200683 -0.18346974 0.83920145 0.70731
0.73552305 0.7609577 0.74717736 0.7181005 0.67653954 -0.1644133 0.64692134 0.7317509
0.6287941 -0.23739502 0.8253345 0.6834428 0.557867 0.7002418 -0.17189136 0.8547164
0.6364263 0.7883001 -0.122295536 0.8003708 0.771518 -0.27388328 -0.45180595 0.73527503
0.7047998 0.7045745 0.67615056 0.6710879 0.7720555 -0.17641485 0.6125156 0.6250381
0.6646285 -0.2563142 0.656783 0.6887301 0.5746807 0.10420996 -0.019004272 -0.11097311

advantage_stream.weight f4 [5, 64]
00000000: d2b2 78bd 5421 3abe 918e 533d 3fac b4bd
00000010: 5447 9b3d aa14 7ebd 931e 88be 15bb 443c
00000020: ffb7 fd3c ac8f 953d 2d7e 9bbd 2720 f03d
00000030: 2131 4ebd 817d 7dbc 3f02 af3d 4457 0dbd
00000040: 7094 003e 7c7e 97bd 8d4b e83d 8afd 73bd
00000050: 4166 b13c 9684 0b3e c0eb 32bd 6457 69bd
00000060: cb77 733d a1e1 b83c c7d1 893d 028a 23bd
00000070: 51f6 ebbb 041c 3fbd 15b6 eabd 0554 143d
00000080: 8e11 9bbc fbb2 4b3e 20d2 bc3c b011 e13d
00000090: b271 d93d a13c c73d c837 85be a73c 833d
000000a0: aed9 c8bb 0bed 213e edc9 2abe e81d 093e
000000b0: e1d0 9c3d 927f 3e3e 52df 973e 8751 a43d
000000c0: 5cfb 9f3b 6ad3 bd3b 8862 2d3d f2d6 18bd
000000d0: 52ff c5bc 3d8d 023d 1cea b4bc 45dd ebbb
000000e0: 5677 f8bc 9b89 1c3e c694 033b f05f 7bbc
000000f0: 273b 673d 84e0 7dbe b9b3 17bc bb7c 413e
00000100: 39d0 5bbd 65c8 fb3d 38dd 1c3d 36c4 88bd
00000110: 5e98 983d b155 07bd 1fb8 7abe 56a0 dcbc
00000120: cbf2 003d 97a0 923d e0f5 aebc 8cf3 7a3d
00000130: eb93 9bbc 1205 113e 20e7 19be 41e1 01bc
00000140: 15c5 1b3e 06c1 9cbd a2c6 043e 3bad 5abc
00000150: 32b1 9abd eaa1 7abd 5ccf 94bd e49d 8abd
00000160: b95f 7e3d 27d9 87bc a8c9 cd3d eb95 46bc
00000170: a7e6 a3bc 6ee4 9ebd 7621 bfbd cf8c 1e3d
00000180: a7e2 f7bc 5d1e 493d b81b 82bb d031 e73d
00000190: eadb 933d a168 d33d 5486 9e3c acb0 f03d
000001a0: d542 373d 7a91 0b3e 6433 2d3c 6d34 053e
000001b0: 5a97 9c3d 401d 95bc 81aa 7dbe a12e 863d
000001c0: a319 f2bc dfa8 cabc 3bac b23d 6f55 8dbd
000001d0: f0de 0bbd 7c29 bbbd 6441 4ebd 8a32 82bb
000001e0: 047c d5bc 50ec 303d aa11 05bd cc4f e3bc
000001f0: 9b22 d9bb aa10 6ebe d03c 163d cfc6 e7bd
00000200: b086 ecbb 2a6a d6bc 0594 1d3d 6300 b5bd
00000210: 10a4 543d 29d2 20bc f641 81be 434c c6bc
00000220: 431c 313d fa1a 82bc f0e1 31bd e892 b33d
00000230: 34b6 61bd 44aa 92bc fa7c 0c3c 7a4c 35bc
00000240: 6fe3 143e 791d 4bbd 1fd4 093e c802 fcbc
00000250: 2afd 27be 23f3 0cbe 4ba1 dfbc 8069 5cbd
00000260: 27c7 aa3d f8f3 e73b d5c3 cc3d 9b4b 26bc
00000270: 8e31 93bc 24d4 4bbe 18a5 bebd 44f1 f13c
00000280: d547 a1bc 59ff 023e a6ff 4fbc 9ecb ea3d
00000290: 5234 893d a2e6 a93d c63d 0d3e f5e3 ac3d
000002a0: dc09 483d 3be8 3f3e 3af7 e2bd c43f 2c3e
000002b0: 1f14 033e 43e4 70bd c3b3 32bc 74fa e73d
000002c0: e2b6 86bb 0e2f 243c a396 963d 42dc 1cbd
000002d0: 96e2 633c e481 153e 54ad 4cbd 9775 83bc
000002e0: 066a f4bc a7d6 d8bd 3438 21bd 0df7 a4bc
000002f0: 5118 f03b 287e 3c3e 1c4d 073e e7a3 46be
00000300: 5ee4 993d 5734 7abd 991b 753d 971f 20be
00000310: 1f41 513d 98fe a0bd 40b2 63be 58cd 06bd
00000320: 2847 673c 027a be3d 1c61 dbbd 140c 843d
00000330: 37a7 973d 5d79 663e acc6 8a3e 81dd 8dbd
00000340: f2cb f63d 1f35 e9bd e3c8 e23d 5fab 59bd
00000350: 3877 59be 83e7 c6bd f439 b1bd e525 03be
00000360: 3185 813d 5324 1bba d683 f43c c312 85bd
00000370: 54d5 57bd ca34 4c3e 1843 18be 2e26 363a
00000380: 42ec 81bd 28cc 08bd 8159 61bd c61e 373d
00000390: b41a 053d 00f4 bf3d d5d1 6fbe dfe2 003d
000003a0: e83f 77bc 66e5 d33d e82b 7abe 4797 063e
000003b0: 9ec8 f43c adff cdbd 48a4 a3bd dd20 4f3d
000003c0: 29fe 76bd 0332 94bd 694b b93c 3c9d 8fbd
000003d0: 769c 06bd ced3 babd b572 85bd 5a05 863a
000003e0: 36f3 6ebd b06f 143e 758f 29bd c8e0 223c
000003f0: b274 3d3c 156b 0dbe a261 6e3e d2f5 273e
-0.06071741 -0.18176776 0.051649634 -0.08821916 0.07581964 -0.062031426 -0.26585826 0.012007494
0.030971525 0.07302794 -0.075924255 0.117248826 -0.05033982 -0.015471817 0.0854535 -0.03450705
0.12556624 -0.07397172 0.11342535 -0.059567966 0.021655204 0.13624796 -0.04368186 -0.056968108
0.059440415 0.022568526 0.06729465 -0.039926536 -0.007200994 -0.046657577 -0.11460511 0.03621294
-0.01892927 0.19892494 0.023049414 0.10989702 0.10617389 0.09728361 -0.2601912 0.06408053
-0.006129465 0.15813081 -0.16678591 0.13390315 0.07657028 0.18603352 0.29662567 0.080233626
0.0048822593 0.005793025 0.042330295 -0.037314363 -0.024169598 0.031872977 -0.022084288 -0.0071980082
-0.030330341 0.15286867 0.002007769 -0.0153426975 0.056452896 -0.24792677 -0.009259158 0.18895237
-0.053665373 0.122940816 0.03829691 -0.06678049 0.07450937 -0.033040706 -0.24484299 -0.026931923
0.031481545 0.07159536 -0.021357477 0.06126742 -0.018991431 0.1416209 -0.15029573 -0.00792724
0.152119 -0.07654004 0.12966397 -0.013346965 -0.075533286 -0.06118957 -0.07266113 -0.067683965
0.062103007 -0.016583038 0.100482285 -0.012120704 -0.020007445 -0.07758413 -0.09332554 0.038708504
-0.030259443 0.049101222 -0.0039705895 0.11288798 0.0721968 0.10322691 0.019351162 0.117524475
0.04474147 0.13629714 0.0105713345 0.1300828 0.076460555 -0.018202424 -0.24772073 0.065518625
-0.02955324 -0.024738727 0.087242566 -0.06901061 -0.034148157 -0.09138772 -0.05035533 -0.00397331
-0.026060112 0.043194115 -0.03248755 -0.027748011 -0.0066264397 -0.23248544 0.03667909 -0.113172166
-0.0072182044 -0.02617367 0.03847124 -0.088379644 0.051914275 -0.009815731 -0.25245637 -0.024206286
0.043239843 -0.015882004 -0.04342836 0.087682545 -0.055105403 -0.017903455 0.008574719 -0.011065597
0.14539884 -0.049588654 0.13459824 -0.030763045 -0.16405168 -0.13764624 -0.02729859 -0.05381155
0.083387665 0.007078644 0.099982895 -0.010149862 -0.017967965 -0.19905144 -0.09308833 0.02953399
-0.019687572 0.1279272 -0.012695229 0.11464618 0.066994324 0.08295943 0.13793096 0.08441917
0.048837528 0.18740933 -0.11082311 0.168212 0.12800644 -0.058811437 -0.010907116 0.11327067
-0.004111157 0.010020984 0.073529504 -0.03829599 0.013909003 0.1460033 -0.049969986 -0.016047282
-0.029835712 -0.10587817 -0.03936024 -0.020137334 0.0073271175 0.184075 0.13213009 -0.19398461
0.07514261 -0.06108507 0.059840772 -0.1563705 0.051087495 -0.0786106 -0.22235966 -0.032910675
0.014116086 0.09300615 -0.107118815 0.06447616 0.074049406 0.22507234 0.271047 -0.06927014
0.12050618 -0.11387085 0.11073472 -0.053141948 -0.21236885 -0.09712126 -0.08653632 -0.12807424
0.06324232 -0.00059181935 0.02984802 -0.06497719 -0.05269368 0.19942012 -0.14869344 0.0006948438
-0.06343891 -0.033397824 -0.055017 0.044707082 0.03249617 0.09372711 -0.23419888 0.03146636
-0.01509092 0.10346489 -0.24430811 0.13143645 0.029880818 -0.10058532 -0.079903185 0.05056845
-0.06030098 -0.072361015 0.022618966 -0.07012412 -0.032864057 -0.0912243 -0.06516019 0.0010224984
-0.058337413 0.1449573 -0.041396577 0.009941287 0.011563467 -0.1381038 0.23279431 0.16402367

advantage_stream.bias f4 [5]
00000000: ef16 4dbe 0a4e 05be 89bb e0be b8e7 873f
00000010: ac70 25bf
-0.2002828 -0.13018051 -0.43893078 1.061759 -0.6462505

hidden_nets.0.weight f4 [128, 11]
00000000: 41a5 a03e c1e9 4dbd 27ba 97bd fc3e f53a
00000010: 3532 63bd 5a11 8d3c 0443 79bd ac0b 24be
00000020: ea00 e93d 4830 9fbd 73be 77bc f25f ad3e
00000030: aa31 213e 13b5 ecbc 22a4 383d cc15 413d
00000040: 6106 26bc 347e 00bd bd7a 76be 671c 34be
00000050: c177 55bd b953 5fbd e0e9 b23d 991c 5ebe
00000060: fa89 19be 736b 753d 7398 233e 1688 55bd
00000070: a525 0e3c 03ef f63b c3b1 08be 7de6 83bc
00000080: 51e8 dd3b 72d4 91be 39b7 f5bd 8208 66bd
00000090: ab48 8cbe 6d06 c63d 428b 64be 117c d83d
000000a0: b221 8abd 118d 8e3d d5a6 0e3e 0988 e53d
000000b0: 6bbd 313e 9ffd 86b8 e25b 71be 33bd a93d
000000c0: 6497 55be 36d5 d2bd b9ef 78bd 86b0 e1bd
000000d0: 0794 ea3b 2a19 63be 0a64 efbd 0b84 aa3e
000000e0: 95b3 10be 8773 96bd 22b1 393d 9fe1 513e
000000f0: 550a 83bb ff72 36bc 2eea 00be a61e dc3d
00000100: ee05 37bd f627 253d feee dcbd 6d15 183d
00000110: d739 6abe 01da 6dbd c2d6 55be 2865 b3bd
00000120: 0b01 42bd 4b5d 673d 03a5 0dbe 96e4 00be
00000130: 2a24 87be 0325 43be 60d7 ffbc af18 28bd
00000140: a1e8 a6bc 1188 d6bc 48d3 70be 8e76 ed3d
00000150: 39d9 1fbd 4df7 093e 0731 e2bd 22d2 0f3c
00000160: e217 673e 4d20 66bd 428a 0abe ef8d 6ebd
00000170: 2e10 053d 6918 36be d7ef fdbd afb8 04be
00000180: 8725 f4bd 38c9 7dbe 888d 363d 3175 6d3d
00000190: fd3a a1be ecc3 a43d 1107 923c cc05 333e
000001a0: 2c04 243d a638 85bb a24f 54bc d4d4 1e3d
000001b0: e2ed dbbc 50f3 973c 10d2 b2bd c210 4a3d
000001c0: af3a 42be 3ad5 6bbd 7c26 91be 641e 973c
000001d0: 3cc9 303d 83d9 443d 52a2 12be 2ea7 e23c
000001e0: 4b29 703e 3b60 05be d4fa 37be 24b3 b33d
000001f0: 3e40 97be 494f 8c3d 3dd7 60bd f01e f4bd
00000200: b6b2 67be bf14 813d 8dec 8abd 33c6 bebd
00000210: baa1 88be 3cb9 a0bd 6507 da3d 916a 02be
00000220: 6653 0abd 45a8 d53d 6183 633d ef4a c0bc
00000230: ebbf a13d a188 313d df32 8dbd ae04 babe
00000240: 149d 44be 4556 ae3d 6d56 5b3e 56e7 603d
00000250: 62c6 5ebe 0952 dcbd 9cd8 78be af59 173e
00000260: 1a70 78bc 8242 053e d1d2 a53e 9c4a 0cbe
00000270: 3ebf ecbd ebc0 e93d b230 bd3d 517a 593c
00000280: 2189 86bd 3787 00be dc68 04be 5ccf 0f3d
00000290: b250 a5bc a770 32bd 9065 253d a5f3 11be
000002a0: a70e 86bd 18d2 2abe f866 93bc 5967 473d
000002b0: 1ba8 d0bd 1b6e fa3d a876 06be 3d41 de3d
000002c0: 1428 1b3e 216b 06be 5bc0 5e3d e241 bb3d
000002d0: 30a2 b4be e65a ac3d 0969 1f3e 17b4 c43d
000002e0: 4ad2 cf3b 1b92 fe3d 4982 86bc 70a8 96bd
000002f0: 1751 97bd 16d0 88be 7019 7e3e dd10 68be
00000300: 3a6d 90bd 32aa 3ebe e6ea 4bbe 35c0 f5bd
00000310: dbd2 91bd 1acc 52bd 1afd 34bc 6e00 3fbe
00000320: a78f cfbd 7904 e9ba d392 043e df18 683d
00000330: 8429 9d3c a4c1 fcbc d15e 0e3e 3546 713d
00000340: 2621 97bc 97ce 333e 809d 3dbc 4d05 7abd
00000350: 5d59 10be 7a23 70be e004 3abd 93e8 c03d
00000360: c55b 6fbe 933e 4939 7a0d 0b3e 7438 fa3b
00000370: d1e0 bc3e 72b3 3c3c 5260 8c3d 8011 aa3c
00000380: c2c2 db3c a9d1 c8bb c06a eabc d6f8 88be
00000390: d217 c23d 9b61 873d 0dfc a53b 9f4e ab3e
000003a0: e8c8 04bc 4b66 d6bd 0ae2 3c3d 4763 e23d
000003b0: 087e e73c ee7f a83c 1f8f e5bd d82d 33be
000003c0: 22c3 c13d f767 16bc 25b2 57be 874c 003e
000003d0: 5acb 9dbe 28f3 6d3e 2920 85be d25a 03be
000003e0: b7f7 ebbb c499 343e 3372 19be 736a 3c3c
000003f0: 6377 033c 0306 18be 5f10 a2bd e234 343d
0.3137608 -0.050271753 -0.074085526 0.0018710787 -0.055467803 0.017220188 -0.060854927 -0.16020077
0.113771275 -0.07772881 -0.01512109 0.33862263 0.15741602 -0.028894937 0.045078404 0.047139928
-0.010133357 -0.031370357 -0.24070258 -0.1758896 -0.05211616 -0.054523204 0.08736014 -0.21690597
-0.1499404 0.059916925 0.15976124 -0.052131735 0.008675967 0.0075358166 -0.1334906 -0.016101116
0.006772079 -0.28482395 -0.119978376 -0.056160457 -0.2739919 0.09669194 -0.22318748 0.10570539
-0.06744708 0.069605 0.13930829 0.11207587 0.17357413 -6.4368585e-05 -0.23570207 0.0828804
-0.20858532 -0.10294573 -0.060775492 -0.11019997 0.0071587595 -0.22177568 -0.11689003 0.33303866
-0.14131005 -0.07346254 0.045334943 0.20496224 -0.0039990344 -0.011135816 -0.12589332 0.10748033
-0.04468339 0.040321313 -0.10787772 0.03712981 -0.22873627 -0.058069233 -0.20882705 -0.087595284
-0.047364276 0.056485455 -0.13832478 -0.12587199 -0.26394778 -0.19057088 -0.031230628 -0.041039165
-0.020374598 -0.026187928 -0.23518097 0.11594878 -0.03902552 0.13473244 -0.110445075 0.008778127
0.22567704 -0.05618315 -0.13529304 -0.058240827 0.032486133 -0.17782749 -0.123992614 -0.12961076
-0.1192122 -0.2478379 0.04456857 0.05797309 -0.31490317 0.08045182 0.017825635 0.1748268
0.04004304 -0.004065591 -0.012958439 0.038777187 -0.02684683 0.018548638 -0.087314725 0.049332388
-0.18967699 -0.057576396 -0.28349674 0.018447109 0.043160662 0.048058998 -0.14319733 0.027667608
0.23453252 -0.1302499 -0.17966777 0.08774403 -0.295412 0.0685106 -0.054892767 -0.11919963
-0.22626767 0.06302785 -0.067834 -0.09315147 -0.26685888 -0.07847831 0.10645942 -0.12735964
-0.03377094 0.104324855 0.055545215 -0.023473231 0.078979336 0.04334319 -0.068944685 -0.36331695
-0.19200546 0.08512548 0.21419688 0.05490812 -0.21755365 -0.107578345 -0.2430138 0.14780305
-0.015163446 0.13013652 0.32387403 -0.13700336 -0.11559914 0.11413749 0.092378035 0.013273791
-0.06569124 -0.1255158 -0.12930626 0.035109863 -0.02018008 -0.043564465 0.04038006 -0.142531
-0.065457635 -0.16681707 -0.017993435 0.048682544 -0.101883136 0.12228032 -0.13131201 0.10852287
0.15152007 -0.13126804 0.054382663 0.091434255 -0.3527999 0.08415775 0.15567411 0.09604662
0.006342207 0.12430211 -0.016419547 -0.07356346 -0.073885135 -0.26721257 0.24814391 -0.22662683
-0.07052083 -0.18619612 -0.19913825 -0.11999551 -0.071202956 -0.051464178 -0.011046672 -0.18652508
-0.101348214 -0.0017777822 0.12946634 0.056664344 0.019184835 -0.030854054 0.13903357 0.058904845
-0.018448424 0.17559277 -0.011573195 -0.06104021 -0.1409659 -0.23451033 -0.045414805 0.0941936
-0.23374851 0.00019192164 0.1357936 0.0076361243 0.3689027 0.0115173925 0.06854309 0.020760298
0.026826266 -0.006128509 -0.028615355 -0.26752347 0.094771996 0.06610414 0.005065447 0.3345842
-0.00810454 -0.104687296 0.046114005 0.11054092 0.028258339 0.020568814 -0.11208939 -0.17497957
0.09461047 -0.009180061 -0.2106405 0.12529193 -0.30819207 0.23237288 -0.260011 -0.12827614
-0.007201161 0.17636782 -0.1498497 0.011499989 0.0080240695 -0.14846043 -0.07913279 0.043995745

hidden_nets.0.bias f4 [128]
00000000: e8d0 0dbe 77a5 99bd 4f1c 3abe 84bb c6bd
00000010: f92c e8bc e2bf bdbd a5bb 803d 9a18 13bd
00000020: 8ea8 84bd e4c8 4abe 7520 debc 237d 0cbd
00000030: 433b 24be 7643 a6bd 0dab ebbd 6915 27bc
00000040: db77 85bd 035c 52bd d636 17be 0e15 e6bd
00000050: 23e1 9abd 7562 34be 5f74 753b 9806 0dbe
00000060: 1443 cabc 8c81 ddbc ebf3 99bd ee90 2dbe
00000070: ef93 c63c c146 e23d fdbc d1bd ac0c 94bc
00000080: 69ec 15bd d3c2 503d e711 51be 7e58 c1bd
00000090: e30b efbd 5c12 8e3d 3797 cc3d cde4 4dbe
000000a0: 4545 19bd 8f4b 0bbe de82 a93d 8ff1 16be
000000b0: cf63 9e3d 44c7 9bbd cec3 75be ff69 493d
000000c0: cdb1 083e ffd4 45bc ed74 7d3d 0b96 ebbd
000000d0: 80c3 b4bc 5d70 c3bd 0ccb c9bc babf 92bd
000000e0: e2d4 33be d27a 72be 9c88 58bc 8927 043e
000000f0: b6cc bebd da23 40be 1184 0fbe 65bd 43be
00000100: 04a1 22bc ec64 92bd af90 f5bc da5b 0ebe
00000110: 15c2 bf3d 8902 52ba 43d1 81bd 3151 da3d
00000120: 06e3 43bc c64e f1bd 30fe e0bd e5a9 31bc
00000130: 7fb7 b8bd 51d1 a5bd 0000 0000 40f6 43be
00000140: 8f5d b1bd c736 90bd ec91 a63c 4a29 fbbd
00000150: 90eb 2dbe 0000 0000 c8f7 b6bc b423 62be
00000160: c9df febc 88e5 863d b5cf 053e cb33 083e
00000170: 1407 1bbe 1c68 90bd d35d 933d 74a6 3fbe
00000180: 6087 c23c 4e62 b6bd bf1b 9fbd bf62 96bd
00000190: 23f4 34bd f0e3 4bbd a4be 113d 06e8 c2bd
000001a0: 1ee1 523d dd62 8a3d 2a87 dfbd 6f11 ef3d
000001b0: 8062 00be f42c cfbd 638d f7bd 6b6d 4dbe
000001c0: 680b d0bd 4e9a 033d 94f0 1bbd 3bd8 a2bc
000001d0: 158a febd 1d4f f1bd 5aab 6d3d 8d7c 19be
000001e0: c51b 893b 5c74 44be 06b2 89bd e8ed b43b
000001f0: aa9c a2bd 6742 8b3d 1f95 37bd 40c1 a23d
-0.13849223 -0.07502263 -0.18174861 -0.097037345 -0.028341757 -0.09265114 0.0628579 -0.035912134
-0.06477462 -0.19803196 -0.027115086 -0.034299027 -0.16038232 -0.08118336 -0.11507235 -0.010197976
-0.06517001 -0.05135728 -0.14767012 -0.112344846 -0.07562473 -0.17615683 0.0037453396 -0.13772047
-0.024690188 -0.027039312 -0.07517227 -0.16949818 0.024240462 0.110486515 -0.10241125 -0.018072449
-0.03660241 0.05096705 -0.20416985 -0.09440707 -0.11672189 0.069370955 0.099897794 -0.20106812
-0.037419576 -0.13603042 0.08276914 -0.14740585 0.07733881 -0.07606366 -0.24000475 0.04917335
0.13349076 -0.012074708 0.061879087 -0.11503228 -0.022065878 -0.09542916 -0.024632953 -0.07165475
-0.17561677 -0.23679665 -0.013216164 0.12905706 -0.09316389 -0.18763676 -0.14015223 -0.19115217
-0.009926084 -0.071481556 -0.029976217 -0.13902226 0.0936319 -0.0008011242 -0.06338742 0.10660017
-0.011955982 -0.11782603 -0.109859824 -0.010843729 -0.09019374 -0.080965646 0.0 -0.19136906
-0.08660423 -0.07041698 0.020333253 -0.12263735 -0.16984391 0.0 -0.022334948 -0.22083932
-0.031112568 0.06586748 0.13067515 0.13301007 -0.15139419 -0.07051107 0.0719563 -0.1871584
0.023746192 -0.08905469 -0.07768964 -0.07343053 -0.04417814 -0.049777925 0.0355822 -0.09516911
0.05148422 0.06757138 -0.109144524 0.11673247 -0.12537575 -0.10115996 -0.12087514 -0.20061271
-0.101584256 0.03212958 -0.03807123 -0.019878497 -0.12428681 -0.11782668 0.05802474 -0.14988919
0.0041842186 -0.19185013 -0.067234084 0.0055215247 -0.079400375 0.067997746 -0.044819947 0.07947016

hidden_nets.1.weight f4 [128, 128]
00000000: b8fb 55bd 9797 d8bc 673a c9bd be52 2fbd
00000010: 3efe 883d ef54 42be 8dd3 cc3c 1577 a5bd
00000020: f963 033e 698a b23d 16b0 613d e85a dcbd
00000030: c229 1d3d 7b09 15be 8410 203e 4ed3 8a3c
00000040: 1984 f6bd 9c24 efbc 2a19 e1bd 0279 9fbd
00000050: 342d 50be aa8e 13be 6457 b63d f005 f6bd
00000060: 94e3 43be 443f 66bd 7d20 79bd 0f79 d3bd
00000070: 81b8 0cbe 9ff3 403c 8253 df3d 4e58 6f3c
00000080: e566 21be 6ac7 68be b84f debd 8c26 46bd
00000090: aad7 d03d 11d4 09be 66a3 2cbc de94 34bd
000000a0: 5eef 5fbe 131b 8fbc 55a1 ec3d c11a 20bd
000000b0: 5687 223c 7493 07be 9706 b7bd c51e 2ebe
000000c0: 2fec 913d 72e9 e7bc f762 97bc 2c86 c43d
000000d0: c23d 003e 15e5 5abe 852a bcbd aef1 92bd
000000e0: e704 37be 607b 12be 7ff8 023e c8a9 ea3d
000000f0: 01cb 073e e4d2 3b3c c6e6 fe3d 36a3 ebbd
00000100: 852b 163e 1a86 5f3d 5a98 193e 635f 0dbe
00000110: f1ed e9bd 02c5 c5bb a829 aabd 4edc 04be
00000120: 2ca0 00be 4155 493e c7ee 12be d558 143d
00000130: c3fa de3c a757 fb3c bd65 f43d 1a8f b8bd
00000140: fa86 65be 020d 0fbe 7318 2fbd 6071 31be
00000150: 3d43 dcbd e446 43bd dfcf c83d d464 953d
00000160: b1cd f5bd cb02 6ebd c8e4 2bbe 0812 29bc
00000170: 80bd b53c 7bdf b0bd d1c7 13be b5b3 0cbe
00000180: 31ad bebb 7f29 ec3d 520f 3dbe 56d8 083d
00000190: e1c5 eebd a208 cd3c 5a42 ccbd 3465 76bd
000001a0: 6bcb 993d 5c17 26be 3287 bdbd dad9 0dbd
000001b0: 7d52 2c3d b194 43be be62 27be 45e3 5fbe
000001c0: 05e1 8d3d 7303 0abe a31f 2fbe c4cf 26bd
000001d0: dfb6 dcbc f77b e2bd 2833 3abe ec0b 06bd
000001e0: 3e34 94bc 9a9c 3dbe aff5 023e fb7e 3dbe
000001f0: fbca bd3d 7e2e 11be fd3e 74bd dc55 0cbd
00000200: 41a4 353d 1646 973d de8a 803d 6425 b5bd
00000210: cb6a d0bd 03c9 d1bc 5807 babd 9a48 f83d
00000220: dc43 f6bd 5797 1fbe 7d5c 2d3e 38da c7bd
00000230: 1b40 20be 5075 713d 9ada 46bc 1650 073e
00000240: e1f8 6dbe 670d 933d 21e6 f7bc 8787 35bc
00000250: a9e8 32bd 7dbf c93d 5f30 853e e4d2 553a
00000260: 5c22 ebbd bfe0 033d 8f37 33be d3ba 6ebd
00000270: 7a3d 183e b865 b63c 9d77 78bd 1b85 f5bc
00000280: ecde b0bc 0f56 e1be c053 823d 095e 84bc
00000290: 605e 24bd f493 ffbc 6e94 c2bd 55f9 67bd
000002a0: 4fec 60bb 0e26 2f3d efe6 ef3c b9e9 3ebc
000002b0: 2fba 26be c925 e7bd 331a 933d 40fb 99be
000002c0: 89bc 39be ecfe ecbd 6c48 8cbe cd20 43be
000002d0: d05c 0e3c fd05 a2bd ecd7 8cbe 3639 f83c
000002e0: 289f 3ebe 8dca e33b aa40 fa3d ccf1 843d
000002f0: 06bc 2d3e 2f76 4dbe 6322 6b3d f0b8 ffbc
00000300: 554b 143e 6942 04be bc6d d8be dbf1 f4bd
00000310: fedf b7be 5537 16be 8413 d53d ef8d 35be
00000320: d4ec 5ebc e86c b1bd 58ef ad3d ad17 1a3d
00000330: 5540 13bd 0caf f8bd 1696 6e3d 1dcc 113e
00000340: fabc b6bc 4ee9 febd 4afb 01be 4566 f6bd
00000350: cd6b 14bd e0cd 0e3e be13 4ebc 83d4 02bd
00000360: 87e8 0b3e 1bc2 92bd ace3 a1be fc99 ecbe
00000370: 74ca 173d 1800 16be 601e 6f3e fe1d 583d
00000380: 2b83 6a3c e1bc 9dbe 2b0d ebbd 96ac 9fbe
00000390: a203 69bd 81bb 413c 30a8 cb3d 5946 49bd
000003a0: 719d 793e 921b 0fbe a904 6ebc 2e0f b5be
000003b0: c67d 65be 05f3 f2bc 03f9 b2bd 3262 be3c
000003c0: ae24 1b3e 0d4f 0cbf 8e31 09bf 8f69 ebbc
000003d0: fe46 ef3d a6d4 f0be 1ae2 e33c a38a e8bc
000003e0: 73de 803d de28 f6bd 7249 713d bfc6 193d
000003f0: 7040 a4bd 72a5 90be b73c 303e 7e70 26bd
-0.05224201 -0.026439471 -0.098255925 -0.04280352 0.06689118 -0.18977712 0.025003219 -0.08079354
0.12831105 0.08717806 0.05509957 -0.107595265 0.0383699 -0.14554398 0.156313 0.016946461
-0.120369144 -0.029192261 -0.10991128 -0.07786752 -0.20329744 -0.14409891 0.08903387 -0.12012851
-0.19129783 -0.05621268 -0.060822 -0.103258245 -0.13742258 0.011776834 0.109046 0.014608456
-0.15761907 -0.2273232 -0.10855049 -0.048376605 0.10197385 -0.13459803 -0.010537004 -0.044087283
-0.21868655 -0.017468965 0.11554209 -0.039088015 0.009919962 -0.13239843 -0.08936804 -0.17003925
0.071251266 -0.028309558 -0.018479807 0.09595904 0.12523559 -0.2137645 -0.091877975 -0.07175003
-0.17872964 -0.14304876 0.12790106 0.114581645 0.13261034 0.011463854 0.1244636 -0.115057394
0.14665039 0.05457125 0.14999524 -0.13805918 -0.11422337 -0.006035448 -0.083087265 -0.12974665
-0.125611 0.19661428 -0.14348899 0.03621753 0.027219182 0.030681444 0.119334675 -0.090116695
-0.2241477 -0.13969806 -0.042747926 -0.17328405 -0.10755012 -0.04767503 0.09805273 0.07294622
-0.12002123 -0.058108132 -0.16786492 -0.01031924 0.022185087 -0.086363755 -0.14431693 -0.13740428
-0.005818986 0.11531352 -0.18462875 0.03340944 -0.11658836 0.02502853 -0.09973593 -0.06015511
0.07509502 -0.16219848 -0.09254302 -0.034631588 0.042070854 -0.1909969 -0.16346261 -0.2186404
0.06927685 -0.13477878 -0.17101912 -0.040725484 -0.026942668 -0.11058801 -0.18183577 -0.032726213
-0.018091317 -0.1851677 0.12789033 -0.1850547 0.09267231 -0.14177892 -0.059630383 -0.03426157
0.044346098 0.07386415 0.06276487 -0.08845022 -0.10176619 -0.025608545 -0.09083432 0.12123223
-0.12024662 -0.15585075 0.16929813 -0.09758419 -0.15649454 0.05894977 -0.01213708 0.13214144
-0.23239471 0.07180291 -0.030261101 -0.0110796755 -0.043678913 0.098509766 0.26013467 0.00081567303
-0.11481163 0.032196756 -0.17501663 -0.05828364 0.14867201 0.0222653 -0.060660947 -0.029970696
-0.021590672 -0.4401097 0.0636363 -0.01615812 -0.040129066 -0.03119848 -0.09500967 -0.056634266
-0.0034320538 0.0427609 0.029284922 -0.0116524035 -0.16281961 -0.11286504 0.071827315 -0.300745
-0.18138327 -0.1157206 -0.27399004 -0.19055481 0.00868912 -0.079112984 -0.27508485 0.030300718
-0.18615401 0.006951636 0.12219365 0.064914316 0.16966256 -0.20064615 0.05740584 -0.031216115
0.14481862 -0.12915958 -0.4227122 -0.11960193 -0.3591308 -0.14669545 0.10404113 -0.17729925
-0.013606269 -0.0866335 0.08492917 0.037620235 -0.035950024 -0.121427625 0.0582486 0.1423802
-0.022306908 -0.12446843 -0.12693515 -0.12031225 -0.03623562 0.13945723 -0.012577949 -0.03194095
0.13662921 -0.07165929 -0.31619012 -0.4621123 0.03705831 -0.14648473 0.23351431 0.052762978
0.014313499 -0.30808166 -0.11477121 -0.3118636 -0.05688823 0.01182449 0.099441886 -0.049139354
0.24376465 -0.13975361 -0.014527478 -0.35363144 -0.2241126 -0.029656896 -0.087389015 0.023240183
0.15150711 -0.5480812 -0.5359124 -0.028736858 0.116834626 -0.47037238 0.027817775 -0.02838642
0.06292429 -0.120195135 0.058907934 0.037543055 -0.08020103 -0.28251225 0.17210661 -0.040634625
