hyperopt_results/models/explore_aggressive_20250906_230524/dqn_racing_episode_100.pth (torch, 453653 bytes, 36 tensors)

hidden_nets.0.weight f4 [128, 11]
00000000: 6f72 99bc 4760 1c3d 0744 0dbd 5744 63be
00000010: 628d 2bbd ff2c 593d 5d1d 3d3d 5489 abbc
00000020: ea00 e93d 19b5 b8be f50b 08be 0f87 803e
00000030: 0629 053e 3307 e8bd 8cf5 26be 91ed df3d
00000040: dd30 933d 703d 95bd c242 4fbe 671c 34be
00000050: 7dee dfbd 3401 243d 141a 1bbd d6af 18be
00000060: 5574 edbd 0819 0d39 0eb8 523e dafc 07bd
00000070: 35b6 ab3c 6d55 963d c3b1 08be c8aa c33b
00000080: 1f03 cd3b 18bd 71bd ca69 92bd 1831 f9bc
00000090: 3fa7 d7bd c42d 3a3e 10bd 19be 1821 5e3d
000000a0: 62cd 72bd 118d 8e3d 3578 6c3e afec a03d
000000b0: 79bd 8a3e 4f3d f53c a481 0cbe 2c06 2b3e
000000c0: bb97 31be beb3 11be dd9b 94bd d82e cabd
000000d0: 0794 ea3b e829 cbbd 3e83 bd3d f873 243e
000000e0: a09b 3bbe 6239 4fbe 81bb d8bd c4cb 253e
000000f0: 8870 8bbd 2868 b5bd 64cd c0bd a61e dc3d
00000100: 92d6 1b3b 137a 063e 4e17 babd 3bbb 463d
00000110: b49e 9bbe 54ad 863d bca9 7bbc 6c1b 73bd
00000120: 49b6 f1bd 5f73 f0bb 03a5 0dbe 61a2 2abd
00000130: 353a 4cbe ad0d 2abe 52ff 33bd aea2 edbc
00000140: 51e8 acbd 611b f3bd 4c7e 003e ba66 ec3d
00000150: 995b 1cbd 4df7 093e 4ae8 fcbd 3c4b 483c
00000160: 6ccd 863e b9bd 4ebc 198d a9bd 72cd f6bc
00000170: 5486 f73d e447 cabc 0711 b1bd e75d ddbd
00000180: 8725 f4bd 4af4 51be 97f4 60bd c38c ddbd
00000190: 0ba9 92be e55d c73d 4481 0bbd a8cd 613e
000001a0: 40f4 0f3d fb51 e8bc d5d4 f53c d4d4 1e3d
000001b0: 9720 38bd ed32 ffbc e33a fdbd 6454 d73c
000001c0: 4185 35be 6798 39be b398 55be 2cdc 913d
000001d0: 6320 8abd 5181 05bc 52a2 12be bfb2 9cbd
000001e0: 0ed9 543e b2cb 763e a7d0 1ebe 10e0 dc3d
000001f0: 9b85 68bc c616 003d e40b fabd adef ccbc
00000200: 9fbc 78be bf14 813d 09ab 70bc b4f6 5dbe
00000210: 9910 afbe 53eb 95bd 3092 e63d 1ff0 1cbe
00000220: 1cb3 b43c 036f 5a3b 3b37 f43d d788 0ebc
00000230: ebbf a13d 1628 083d d7e6 9bbc 59bf 88be
00000240: 2175 52be afa4 483e 4e11 a23d 766a 4c3e
00000250: 41d8 62bd fb24 d9bd c5d0 7dbe af59 173e
00000260: f8a1 8cbd f1ed 7d3d ca77 163e 2637 3dbe
00000270: d061 43be f43c 39be bcd6 4b3d 202a 1dbc
00000280: ace6 b5bd 02f5 ebbd dc68 04be 489a 06bd
00000290: 7ba7 a3bd 0234 eabc 656e c73d 3d3b dabd
000002a0: db76 77bd e004 47be cc8c d13d 0d0a 9c3c
000002b0: 06a1 e1bc 1b6e fa3d 4f5b 7cbc 70d2 3c3e
000002c0: 9dd4 233e 5003 17be 6a5b 0fbd 14cd ab3d
000002d0: adb0 97be a1f5 19bd 00f6 4b3d 0a08 b73d
000002e0: 4ad2 cf3b 04b8 e23d 6e47 193e 7982 b93e
000002f0: 2f6e 9dbd 206b 21be 0d7e 663d 42c5 3ebd
00000300: 78a8 213d f689 05be bc06 42be 35c0 f5bd
00000310: 4303 81bc e7e4 88bd 0853 12bd ad51 21be
00000320: f1ed 73bd f643 77bd ee1c 033e e98b 16bc
00000330: 5fee aa3c f42b b4bb d15e 0e3e 3865 923d
00000340: 37f1 733b 3701 6f3e 0411 0e3d 838a 89bd
00000350: d9c8 f1bd 07f2 74bd 3fce febd 566f a73d
00000360: ff24 41be 933e 4939 6708 203e 8339 3cbd
00000370: 7c90 473e f8f0 5d3b 2ed0 8c3d 6424 733c
00000380: d8eb bb3d f2af 86bd 851d 143c 35fa 7bbe
00000390: d217 c23d d837 603d 2261 52bd 334a 3c3e
000003a0: 13c3 1bbd 1994 c7bc c5c1 a3bd b3ff 213e
000003b0: 694d 8cbc 3890 8d3b a112 a7bd d82d 33be
000003c0: c6f4 d13c fd3a aabc 2403 adbe af14 813d
000003d0: 7246 b1bd c9e7 3a3e 388e 6a3d db26 e0bd
000003e0: 80e2 dc3d 6311 643d 3372 19be 1229 d83c
000003f0: 2441 4f3b e55b 6ebe 3ed9 b6bd 1b30 f53d
-0.018731324 0.038177755 -0.034488704 -0.22194038 -0.04188288 0.053021427 0.04617058 -0.020939507
0.113771275 -0.36075667 -0.13285811 0.25103042 0.1300393 -0.11329498 -0.16304606 0.10933984
0.07187054 -0.07287109 -0.2024031 -0.1758896 -0.1093416 0.04004021 -0.037866667 -0.14910826
-0.11594454 0.00013456133 0.20578024 -0.033200122 0.020960907 0.073405124 -0.1334906 0.0059712864
0.0062564756 -0.059018224 -0.07149084 -0.030418918 -0.105299465 0.1818152 -0.15013528 0.05423078
-0.0592779 0.069605 0.2309273 0.07857644 0.2709768 0.02993646 -0.13721329 0.16701573
-0.17343037 -0.14228722 -0.07256291 -0.09872216 0.0071587595 -0.09920102 0.09253548 0.16059864
-0.18321085 -0.20236734 -0.105826385 0.16191012 -0.06808573 -0.08857757 -0.09414175 0.10748033
0.0023779017 0.13132505 -0.09086476 0.0485184 -0.30394518 0.065760285 -0.015360292 -0.059352323
-0.11802346 -0.007337972 -0.13832478 -0.041658763 -0.19944079 -0.1660678 -0.043944664 -0.029008236
-0.08442748 -0.118704565 0.12548178 0.11543031 -0.03817329 0.13473244 -0.12348993 0.0122249685
0.263286 -0.012618476 -0.08278865 -0.03012726 0.12086168 -0.024692483 -0.08645826 -0.10808926
-0.1192122 -0.20503345 -0.05492076 -0.10817864 -0.28644595 0.09734706 -0.034058824 0.22051108
0.035145044 -0.028359404 0.030008713 0.038777187 -0.044952955 -0.031152213 -0.123647474 0.026285358
-0.17726614 -0.18124543 -0.20859031 0.071220726 -0.067444585 -0.008148507 -0.14319733 -0.076512806
0.20785925 0.24101141 -0.15509282 0.10784924 -0.01419201 0.03127172 -0.12209299 -0.02501663
-0.24290703 0.06302785 -0.014689215 -0.21676141 -0.3419235 -0.07320275 0.11258352 -0.15325974
0.022058062 0.0033330328 0.11924597 -0.008699617 0.078979336 0.033241354 -0.019030971 -0.26708487
-0.20552494 0.19594072 0.07913457 0.19962487 -0.055382017 -0.106027566 -0.2478667 0.14780305
-0.068668306 0.061994497 0.14694133 -0.18478069 -0.19080281 -0.18089658 0.049765334 -0.009592563
-0.08881888 -0.11521341 -0.12930626 -0.032861978 -0.07990929 -0.028589252 0.09737853 -0.1065583
-0.060416084 -0.19435453 0.10231933 0.019047761 -0.027542602 0.12228032 -0.015402629 0.1843965
0.15999074 -0.14747357 -0.03499929 0.08388725 -0.2962698 -0.037587766 0.04979515 0.0893708
0.006342207 0.110702544 0.14968655 0.36232355 -0.076870315 -0.15763521 0.056272555 -0.04657484
0.039467305 -0.13040909 -0.18947881 -0.11999551 -0.015748626 -0.06684285 -0.035723716 -0.15753813
-0.05955309 -0.060367547 0.12804005 -0.009188631 0.020865617 -0.0054984037 0.13903357 0.07148212
0.0037222633 0.23340307 0.034684196 -0.06715872 -0.11805887 -0.059801128 -0.12441682 0.081755325
-0.18861769 0.00019192164 0.15628205 -0.045953285 0.1948871 0.0033865552 0.068756446 0.014840219
0.09175843 -0.06576528 0.009040241 -0.24607165 0.094771996 0.054740757 -0.051362164 0.1838768
-0.038027834 -0.02436261 -0.07995943 0.15820198 -0.017126756 0.0043201707 -0.0815785 -0.17497957
0.025629412 -0.02078008 -0.3379146 0.06302773 -0.086560145 0.18252482 0.057264537 -0.10944911
0.10785389 0.055680644 -0.1498497 0.026386771 0.003162452 -0.23277242 -0.089281544 0.11972066

hidden_nets.0.bias f4 [128]
00000000: e479 493a 536d 16bd 7752 edbd 4c00 b6bd
00000010: c026 8abc 4773 79bd ab2b 7dba 069b 0fbd
00000020: 3a2b 31bd 25c9 1ebe 67a5 aabd baa2 50bd
00000030: 3e1a 15be 2633 b0bd 9091 d6bd 1c5d 833d
00000040: b523 93bd 5ec9 2abd 3180 fabd eea6 89bd
00000050: 31e4 5dbd 9424 15be 0a7f efbd 584f 12be
00000060: c3b7 9abd bc66 5bbd c7a7 a9bd 5ed6 e3bd
00000070: c166 b7bc 0d30 6f3c 944e a9bd ea12 843d
00000080: a32b d6bd 7a2e ff3b 4bbb 15be 30e3 79bd
00000090: 2e8d 90bd 4d6e 00bd 9cd9 a03c 2668 34be
000000a0: 3715 12be 6b27 d0bd b366 0b3d db18 0fbe
000000b0: 3e26 843c 3aea b2bd bfbd 71be 09c3 d73d
000000c0: 65a1 a73d da78 edbd 99b5 0a3d 4909 fcbd
000000d0: d64d 193d 257e 1bbd 44a3 993d 0f52 8cbd
000000e0: e219 d9bd fdd4 ecbd 7d6f 03bc 09fb a33d
000000f0: 40a6 8bbd 46b5 edbd c8d8 05bd 9b75 39be
00000100: 0000 0000 5a6f aabc 3296 0bbc 6d91 ddbd
00000110: 7d01 5d3d 7bd6 d7bc d8ba 5dbc 0349 903a
00000120: 5e1c 23bc 85a0 ecbd 6c04 09be 74e6 49bd
00000130: a360 47bd 89f1 91bd 0000 0000 74e8 15be
00000140: d1c7 8fbd 3a06 53bd 45ca 563c 8275 edbd
00000150: 7543 52bd 0000 0000 4b47 e33c 96ed 26be
00000160: 0a64 883d a03e d7bd d48d 053d a672 c83c
00000170: 5104 99bd 6f66 aabd 74d9 eebc 4a2e 01be
00000180: b0bd 1d3d 63f2 87bb e7b1 11be 03d7 b73c
00000190: f051 7dbd 2c14 adbd 5abf 623d be3d 143c
000001a0: 09f0 02bd 1584 213d b93b e0bd b757 07bd
000001b0: 1600 1ebe 532f a5bd 0cb2 bcbd dadf 24be
000001c0: 285c 33bd 9996 a13d 25e1 5bbd eb55 e9bd
000001d0: de99 cebd 54f1 a1bd dd57 6f3d f89a 89bd
000001e0: fd98 173c 68a1 f9bd 3608 10bc c25a 87bc
000001f0: a16e a13c 2a39 493c 028b 733d 65d1 2ebc
0.00076857046 -0.036725353 -0.115879945 -0.088867754 -0.01686418 -0.060900953 -0.0009657691 -0.03505995
-0.043254115 -0.15506418 -0.08332329 -0.05093644 -0.14560792 -0.08603506 -0.104769826 0.064142436
-0.07184545 -0.041695945 -0.12231482 -0.067212924 -0.0541727 -0.14564735 -0.11694153 -0.1428808
-0.07554581 -0.053564772 -0.08283954 -0.11124872 -0.022387864 0.014598859 -0.08266941 0.0644892
-0.10457542 0.007787523 -0.14622228 -0.06100768 -0.07058178 -0.03135519 0.019635014 -0.17617854
-0.14265905 -0.101637684 0.03403349 -0.13974325 0.016131517 -0.087360814 -0.23607539 0.10535247
0.081850804 -0.11595316 0.03386459 -0.123064585 0.037427746 -0.037962098 0.075018436 -0.06851589
-0.1060064 -0.11564062 -0.008022186 0.080068655 -0.06818819 -0.11606841 -0.03267744 -0.18111269
0.0 -0.02080505 -0.008519696 -0.108187534 0.053956497 -0.02634739 -0.013533317 0.0011008087
-0.009955494 -0.11554054 -0.13380593 -0.049292043 -0.048676144 -0.07126147 0.0 -0.14639455
-0.07020534 -0.05151961 0.013109748 -0.115946785 -0.051333863 0.0 0.027743956 -0.1630157
0.06659706 -0.10509992 0.03260596 0.024468731 -0.074715264 -0.08320319 -0.029156424 -0.12615314
0.03851098 -0.004148768 -0.1422802 0.022441393 -0.06184572 -0.08451113 0.05535827 0.009047924
-0.031967197 0.039432604 -0.10948891 -0.033042636 -0.1542972 -0.08065667 -0.09213647 -0.16101018
-0.04378906 0.07890052 -0.05368151 -0.11393341 -0.100879416 -0.07907358 0.058433402 -0.06719011
0.009252784 -0.12188989 -0.00879102 -0.016522769 0.019706072 0.012281695 0.05945874 -0.010670041

hidden_nets.1.weight f4 [128, 128]
00000000: dd7d f7bd aba1 833d 80fc 7bbd 6c1f 623d
00000010: c9b4 463d 7de9 00be daa9 a7bd 5225 a5bd
00000020: b31f 1c3e 2acc f33d df8d 9c3d 0fbb 0f3b
00000030: 4e8e 29bd 829b 1ebe 4cfe 3f3e 92a3 e1bd
00000040: ca8f c0be 0e9c 283d d614 ebbd c113 67bd
00000050: c0e8 ff3d 64e0 23bd 7aa1 e23d 92ad 53be
00000060: ecf7 10be 8f34 863d 0114 3abd 631f cf3d
00000070: 924d 18be 33c5 bebc 3ac8 df3d c9be d1bd
00000080: 4974 90be f6b8 c7bd f896 80bd b4b3 3bbd
00000090: 1d94 573d ed35 0fbd 3471 c4bd a596 cf3c
000000a0: 4802 73be 142d cbbd 9e40 4d3e 2a81 6a3d
000000b0: fd6d 20be 4a56 9cbe b98a 81bd 712a b63c
000000c0: 02d2 4c3e 8152 973d 5944 85be 2ab6 043e
000000d0: 7308 4d3c 0e66 f5bd 6650 6d3d 868e a4bd
000000e0: fbb3 1ebe 873f b1bd b589 083e d5ab 42bc
000000f0: 482b b73d beea cb3c b825 763d f611 2ebd
00000100: 43ff 153e 4a7d b93d 433b 303e f987 3dbe
00000110: b4e0 3fbe b218 0dbd aec1 c1bd 264a 2cbe
00000120: 2ca0 00be 6031 253e 1b68 d3bd 4fe3 e03d
00000130: 85ad 9e3d 4e4b b53d bd65 f43d 4a47 13be
00000140: 8fb0 4ebe c8f6 f1bd 9edd e1bd 8f94 f63c
00000150: aa6f 98be e446 43bd 8315 163d 23c2 3f3e
00000160: 91f9 92be 090e dbbd b829 86be 4fa6 453e
00000170: 36fb 0c3d 6e8c cebd 109d 52bd 46b2 823d
00000180: 64a5 90be 3c13 1f3e fbee 19be a668 493d
00000190: a6e7 9bbd a6ff 94bb 3fe1 1bbe 7935 4dbe
000001a0: 8009 a3bd 9efb c4bd 8026 9a3c 0178 91bd
000001b0: 97f4 993d 2d2b b8bd bc33 3bbe 5009 8ebd
000001c0: 14bb 023e beae 9bbd 3199 99be 8846 dbbd
000001d0: dee1 14be ee9c 32be d5d5 0bbe 5f99 193d
000001e0: cbc0 34be 105e 98be 9055 093e 3f7d 27be
000001f0: ee01 07bd 09bc 51bd ab74 ffbd 0239 a3be
00000200: cb26 f43d 858d bf3d 67b9 d23d 9995 96bd
00000210: 79b5 4abe de57 a53b 55d2 0f3d 15fc 6b3d
00000220: 4c9d 82bd ee92 17be bcb2 013c 799a e7bc
00000230: 1810 48be 122c cc3d f0fd c3bd d021 7f3d
00000240: 5916 52be be3e 63be 9fee 10bc f2b1 853d
00000250: eccd 223c 521d 2a3e 4e7b 663d f3cf 0a3c
00000260: 0af5 80be ea3f 243d de68 dabd ec08 8f3c
00000270: 1f15 023e 8bdd b8bd ced9 12bd 3c2a 16be
00000280: c5c7 acbd 2083 ccbd 1d54 ef3d 4a5d eebc
00000290: de4a 303d 8325 a5bc 4b21 28be e06b c6bd
000002a0: d914 a9bd ef04 c03c 3fbf d13b 4440 803d
000002b0: c76b 66be eb55 efbd 966e ea3d 2ac2 b6be
000002c0: 264e f8be 5601 1ebe b766 efbd c186 a3bd
000002d0: e829 88bd 7378 273d 1565 bebe f5ed debc
000002e0: 6a89 01be bfe6 4ebc d6e8 ab3c 001e 00be
000002f0: 533f 0d3e 9dc9 11be aa84 cb3c a8b0 0ebd
00000300: 6d5d 143e 27e3 eebd 9769 dabe e9ac b8bd
00000310: 6ae6 74be f394 20be cbd4 543d 7203 493d
00000320: d4ec 5ebc 680f 8fbc 050d b63d 34e5 ad3d
00000330: 72b5 28be 4d15 09be 1696 6e3d 113d 133e
00000340: b5ad 97bd 1ad1 fabd 9a3f 8dbe 0845 1dbe
00000350: 67c6 83be e0cd 0e3e cc79 a5bd 3ca3 6c3c
00000360: b8cb 9ebd 31ca 9fbd e1d3 26bd 962e b4be
00000370: 5c34 ab3c 5723 e4bd e2e5 42bc b0eb 103e
00000380: d75f 423d 4bd4 6dbd 1b65 ddbd 5872 babe
00000390: b26e 2cbe aeb0 323e 61cc 8cbd 8d15 5a3d
000003a0: 7029 e6bd 94a4 9ebe 4af1 553d 3b27 a13d
000003b0: 5bbd c8bd 90bc 4d3c f5a9 893d 7591 a83d
000003c0: c7a3 93bb 2b05 ebbe e79f 603b 62cc a9bd
000003d0: 6fb0 a83d 0d8b f8bd 85d0 883b b8f3 ebbd
000003e0: 3fa2 b9bd 8f2e d0bd 83aa 093d fe63 7fbd
000003f0: c72f edbd 560b 913d c3af 203e 747b 163c
-0.120845534 0.0642732 -0.0615201 0.055205747 0.048512254 -0.12589069 -0.081866935 -0.08063759
0.15246467 0.119041756 0.07644247 0.0021931564 -0.041395478 -0.15489009 0.1874935 -0.11017527
-0.37609702 0.04116445 -0.114785835 -0.056415323 0.124955654 -0.040008917 0.110659555 -0.2067168
-0.14157075 0.065529935 -0.045429233 0.101134084 -0.1487334 -0.023287391 0.10926862 -0.102414675
-0.2821372 -0.097520754 -0.06278795 -0.045825675 0.052631486 -0.034963537 -0.09591904 0.025340388
-0.23731339 -0.09920707 0.20044181 0.057252087 -0.15666957 -0.30534583 -0.06325287 0.022237035
0.20001987 0.07388783 -0.26028708 0.12960115 0.0125142215 -0.11982356 0.057938002 -0.08034997
-0.15498345 -0.08654695 0.13333781 -0.011881788 0.08943802 0.024892207 0.060094565 -0.042497598
0.14648156 0.090571 0.17210107 -0.185089 -0.18738061 -0.03444738 -0.094607696 -0.1682516
-0.125611 0.16132116 -0.10322591 0.10980856 0.0774794 0.08852254 0.119334675 -0.14382663
-0.2018454 -0.11814648 -0.11028598 0.030100135 -0.29772693 -0.04767503 0.03664161 0.18726401
-0.2870603 -0.10696036 -0.26203704 0.19301723 0.03441926 -0.100853786 -0.051419318 0.06381659
-0.28251183 0.15534681 -0.1503257 0.049172066 -0.07612543 -0.004547077 -0.15222643 -0.2003993
-0.07960796 -0.09618305 0.018817186 -0.07102967 0.07517355 -0.0899261 -0.18281454 -0.0693537
0.12766677 -0.07601689 -0.29999688 -0.10706812 -0.14539286 -0.17442676 -0.13655789 0.03749978
-0.1765167 -0.29759264 0.13411546 -0.16356371 -0.032960825 -0.051204715 -0.124734245 -0.3187943
0.11921462 0.093531646 0.10289269 -0.07352752 -0.19795789 0.005045875 0.035112698 0.05761345
-0.06377658 -0.14802143 0.007916149 -0.0282719 -0.1953739 0.09969343 -0.09569919 0.062288105
-0.20516337 -0.22191903 -0.008845954 0.06528081 0.009936791 0.16612747 0.056269936 0.0084724305
-0.2518695 0.040100016 -0.10664533 0.017460309 0.1270337 -0.09026631 -0.035852246 -0.14664549
-0.084365405 -0.099859476 0.11685965 -0.029097218 0.04304015 -0.020159489 -0.1641895 -0.09688544
-0.082559295 0.023439853 0.006400972 0.06262258 -0.22502051 -0.116863094 0.11446874 -0.3569501
-0.48497123 -0.15430197 -0.11689513 -0.07984687 -0.06648618 0.040886354 -0.37186494 -0.027213076
-0.12650076 -0.012628256 0.020985048 -0.12511444 0.13793688 -0.14237066 0.024843533 -0.03483644
0.14488764 -0.116644196 -0.42658684 -0.09017355 -0.23916021 -0.1568182 0.051960748 0.04907555
-0.013606269 -0.017463401 0.08889202 0.08490983 -0.16475466 -0.13387032 0.0582486 0.14378764
-0.07406179 -0.12246914 -0.27587587 -0.15358365 -0.25737306 0.13945723 -0.080798715 0.014443215
-0.077537 -0.07802237 -0.040729407 -0.35191792 0.02089899 -0.11139553 -0.011895629 0.14152408
0.04745468 -0.058063786 -0.108103 -0.36415362 -0.16839102 0.1745021 -0.0687492 0.05324321
-0.11238372 -0.30984938 0.052232064 0.07868811 -0.09801742 0.012557164 0.0672187 0.08230869
-0.0045056078 -0.4590238 0.0034274997 -0.08290936 0.08236777 -0.12135897 0.004175248 -0.11521095
-0.09064149 -0.1016513 0.03360988 -0.06235122 -0.115813784 0.0708224 0.15692048 0.009184707

hidden_nets.1.bias f4 [128]
00000000: 5769 453d 341c 333e 0b59 e63d 5c6b 293e
00000010: 778f d13b 1104 173e c252 983d 12cc dabd
00000020: e63d 2f3e 913c 073e e94b 2b3e 3a30 9a3c
00000030: 5f12 183e b97f 37bd f484 2b3e f2d4 f43d
00000040: 0e71 0ebd 5608 053e 1f72 5abd f3f3 183e
00000050: 2f1c fb3d f9f5 1d3e aeb0 1e3e 5faa 083e
00000060: d134 213e b4c8 8f3d 4e7c 213e a6fd 57bd
00000070: 0786 bdbc 4e24 0f3e 6467 0a3e c146 de3d
00000080: d9f6 273e 8d82 283e 7296 353e 3ae9 4f3c
00000090: 4b8e 0c3e 6746 283e 9dab 213e 3ffe e33d
000000a0: c3bf 0b3e 60ae 05bd 0172 403e 68b6 043e
000000b0: 4fb8 363e 0afd 4fbb f00a 343e 2b26 113e
000000c0: f76a 293e 8362 bbbc 6136 213e c9ec 193e
000000d0: c663 963b 3e9b 243e 6507 893d 77d8 48bd
000000e0: 90ed 183e 0348 103e e88c 1e3e 6a91 f23d
000000f0: bb15 61bd 4687 ea3d c3da 163e 33c8 7ebd
00000100: e5aa 68bc 4f79 003e e731 96bc 1572 3a3d
00000110: 79be 143e eccb 313e 92f8 043e b30d fe3d
00000120: a7f9 af3c c90c 3a3e c0b7 0f3e c426 a73d
00000130: 5a7c 3d3e 6857 243e f4bd d83d 9c1e 333e
00000140: 24c3 123e e688 1b3e 14aa 333e 944b d0bd
00000150: 653b 173e cd7d 173e d954 e63d 1c8d 9e3c
00000160: 3816 903c 55a1 f63d 977e d2bc a21d 203e
00000170: 9d0a 113e 90e9 d73d 5503 093e ea93 043e
00000180: d5d3 debc 4ce0 f73d 583f 2c3c ca33 eb3d
00000190: a167 203e fad7 093e ef8c 303e 610b 1b3e
000001a0: 86c6 1d3e 4bd9 033e 3f43 123e bdcd 0d3e
000001b0: 53b8 4e3d d429 d03d 2196 c7bc f877 873d
000001c0: 41d4 7f3d 227e 733d 3739 173e e1ee 96bc
000001d0: 8857 0a3e 0e91 193e 86f1 073e 38a5 173e
000001e0: 21c2 233e 20ed 2bbd 81a3 a73d 21fa 2b3e
000001f0: 2188 2c3e 4f79 043e f794 183e df41 95bc
0.048196163 0.17491227 0.11247452 0.1654486 0.006395276 0.14747645 0.0743766 -0.106834546
0.17113456 0.13206698 0.16728176 0.018821824 0.14850758 -0.04479954 0.16749936 0.119546786
-0.034775786 0.12991461 -0.05333149 0.14936809 0.12261235 0.15425862 0.15497085 0.13346241
0.15742804 0.07020703 0.15770075 -0.052732132 -0.023135198 0.13978693 0.13516003 0.10853339
0.16402759 0.16456051 0.17733172 0.012689883 0.13726155 0.16433106 0.15788122 0.11132478
0.1364737 -0.032637 0.18793489 0.12960207 0.17843746 -0.0031736516 0.17582297 0.14174716
0.1654471 -0.022874122 0.157434 0.15031733 0.0045895306 0.16074845 0.066908635 -0.049034562
0.14934373 0.1408997 0.15483439 0.11844142 -0.054952364 0.114515826 0.14731888 -0.062202644
-0.014200901 0.12546276 -0.018334342 0.045518953 0.14525785 0.17362946 0.12985447 0.12404957
0.021481348 0.1816894 0.14034939 0.08161691 0.18504468 0.16048968 0.10583106 0.17492145
0.14332253 0.15188941 0.17545348 -0.101706654 0.14768751 0.14794083 0.11246652 0.019354396
0.01758872 0.120424904 -0.025695128 0.15636304 0.14164205 0.105425954 0.13380177 0.1294705
-0.027200619 0.12103328 0.010513149 0.11484487 0.15664531 0.13461295 0.17241262 0.1514106
0.15407762 0.1287586 0.14283465 0.13848014 0.050468754 0.10164228 -0.02436358 0.06614679
0.06245828 0.05944646 0.1476792 -0.018424453 0.13509953 0.1499674 0.13275728 0.1480912
0.15992023 -0.041974187 0.08185483 0.16794635 0.16848804 0.129369 0.14900576 -0.018219886

hidden_nets.2.weight f4 [64, 128]
00000000: a110 9c3d dd45 bf3d 7e54 43bd 7c51 a6bc
00000010: 692d 783e e134 0e3d 9475 ae3d ecf3 683e
00000020: e29c 21be 2a1f 7bbd b5fd 333e befc 4f3e
00000030: e393 1cbd f2b7 403e 4c22 803d d9bb 143d
00000040: 438a b1bc b661 5c3b d960 a03b 4410 553e
00000050: 489f e63d 2640 e3bc a495 45bd 66ea ca3d
00000060: e230 4fbd f8a6 a13e 95ed 7c3e 73bb c43c
00000070: 0afa 963d 5726 233e d496 3e3e 85a6 23be
00000080: 5ef3 993d 032f 873e aff2 113e 2705 c83d
00000090: b98e 7dbc f690 1d3e 591d 303d 5ecc 70bc
000000a0: 4cc3 323e 1744 8b3d a442 3f3c 18f2 1dbe
000000b0: be36 9b3e 4e17 333e 9b4f 8d3d 6e4b 80be
000000c0: 0ab2 6e3d 7f5a 6c3e b705 c23d 52c2 fd3c
000000d0: 323e eb3e e91a 203e 40f4 3d3e e5ba 943c
000000e0: 0619 963d c1d1 1abe 2ed6 0a3d 0eef 14be
000000f0: df9e 183e 3ab4 0abb 2405 f03d 0e65 ea3c
00000100: 7625 873b dac7 aa3d d9b4 f43b 4c76 043e
00000110: d1af 273d 5dc6 ac3d 34bc 9fbd 1ac5 39bc
00000120: b721 3c3e d721 a73e 807b a3bd dac9 443e
00000130: 3e43 1e3e 5343 fb3d e3ae aebd 4e80 313e
00000140: f737 373d 7cec 283d b926 863e bb56 2dbc
00000150: 67e6 dbbd b44e 3a3d 831c 76be 40cb 923e
00000160: a6c0 4a3e c119 2ebd db94 693e d7dd f1bc
00000170: 0697 68bd cb37 5fbd 188b b53d 5587 3a3d
00000180: e073 233e f068 0ebe 1d97 f73d b421 98bd
00000190: 5e32 4abc 1f97 0bbe 63cf 183d 6f93 3f3e
000001a0: d456 013e bac6 453d 15d8 1abd 795f 093d
000001b0: 3edd 9e3e 3f05 c63d 34ed b0bd 35f1 3b3e
000001c0: eb93 d93e 5298 993e 2c5b 1bbe c3d2 363e
000001d0: 399f 27bc 741b 83bc e583 0d3d 9165 a63d
000001e0: 5a08 d3bd 81bf 093d f7f8 493d 346f 3d3e
000001f0: 847f 083e 8ee4 273d f01d a0bc 0038 f73d
00000200: 128c 50be 94fa 493c 3c00 21bd b200 babd
00000210: 262a 283e 571a e33c 2b5b f739 f3ab c5bd
00000220: 55ae b9bc 3fdd 1fbe 59b2 bcbc 3ed0 a2bd
00000230: 749a 483d 6974 9cbd fb1d debd a075 44be
00000240: cc89 efbd 6b56 20bd 4ed5 003e 530c 883d
00000250: c7a6 18bc 105f 22be f0f2 17be 51ad 2ebe
00000260: af4b 3abc d0d3 163e e337 493b 4e8e 2abe
00000270: 544e d53d bc65 913d 041d 123e bbe6 c4bd
00000280: 8d01 143e 9623 d0ba e106 d0bb 4c8a 823d
00000290: 95fa 303c 4915 64bd d236 98bd d45f e83c
000002a0: 03c3 49bd 77f8 12bd 0990 3bbd 82f5 1abe
000002b0: 7f5d 6c3d 2171 7c3d 0501 b03d da3f 36be
000002c0: 3f7d 87bd 103d f5bb d5e2 a83d 3eb3 4fbe
000002d0: 5a4d 31bc a128 31bd 4763 b23d 3052 29be
000002e0: fb81 c9bc 32d8 9cbc 94c9 2ebe 4d2c 06bc
000002f0: eb39 4ebc 56db 7d3b 53dc 00be 62f9 443c
00000300: 9cbf c23d d776 4bbc 748d 0dbd a00c 9cbd
00000310: f3e5 103e 05bd 54bd 9058 57bc 9796 8abd
00000320: 5161 733d 8727 3b3d fa04 fdba d2a1 43be
00000330: 5ba6 013e 98ca a6bd bcec 70be 9cc5 303e
00000340: d067 833c 6636 6f3e 6ba4 c3bd c203 b73c
00000350: c5fa 9dbc ace0 bcbd 7895 20be 2664 cbbc
00000360: b57e 0b3e dd6b 313d dc8b 44bb f447 e3bd
00000370: 0b06 453d 8407 c4bc cdb1 98bd 1ddb aebd
00000380: 708a a0bc f675 52bc 9d61 62be d762 75bd
00000390: 052f 7cbc 5f95 30be 6aef 173e e39c 31bc
000003a0: 197f 5cbe 4544 89bb 1dbc 083e bb9e a5be
000003b0: 7c4c 183c f7f1 18ba 99fb 883b b17a ddbd
000003c0: 43f5 c83c 63ca a0bc 22b5 203c 2d8a 8a3d
000003d0: d739 63bd d84e 13be 6e16 013e 5133 093d
000003e0: 0224 4fbe 345c ae3d c46a 1cbd f97d 69bd
000003f0: bf33 62be 70d6 dcbd ea6a febd c5ad 04bd
0.07620359 0.09339497 -0.047688 -0.020302527 0.24236073 0.034718398 0.0851852 0.22749299
-0.15782502 -0.061309017 0.1757725 0.20311257 -0.038226973 0.1882017 0.062565416 0.036311958
-0.021672374 0.0033627576 0.0048943576 0.20806986 0.11260849 -0.02774055 -0.04823841 0.09907989
-0.050583728 0.315727 0.24700005 0.024015164 0.0737191 0.15932594 0.18612224 -0.15981491
0.07517122 0.26403055 0.14252733 0.09766608 -0.015475922 0.1538733 0.042996738 -0.014697162
0.17457312 0.068000965 0.011673603 -0.15424383 0.30315202 0.17489359 0.06899949 -0.25057548
0.05827526 0.23081397 0.09473746 0.030976448 0.4594589 0.15635265 0.18550205 0.018155525
0.073289916 -0.15119077 0.033895664 -0.14544317 0.14904355 -0.0021164552 0.117197305 0.02861264
0.0041243387 0.083389 0.007467848 0.12935752 0.040939156 0.08436272 -0.07799569 -0.011338497
0.18372236 0.32643005 -0.0798254 0.19217625 0.15455338 0.122687005 -0.08529451 0.173341
0.044731107 0.041241154 0.26201418 -0.01057976 -0.10737305 0.045485213 -0.24034314 0.28670692
0.19800052 -0.04250503 0.2281069 -0.029524727 -0.056784652 -0.054496568 0.08864421 0.04553922
0.15962172 -0.13907218 0.120893694 -0.07428303 -0.01234111 -0.13631867 0.037307154 0.18708585
0.12630779 0.048285224 -0.037803728 0.033538315 0.3102817 0.09668969 -0.08638993 0.18353732
0.42495665 0.29999024 -0.15171498 0.17853837 -0.010230833 -0.016004302 0.034549613 0.08124841
-0.10304327 0.033629898 0.049309697 0.18499452 0.13329893 0.04098945 -0.019545525 0.12071228
-0.20365933 0.012327809 -0.039306864 -0.09082164 0.16422328 0.02772252 0.00047179437 -0.09651937
-0.022666136 -0.15611742 -0.023034262 -0.07949875 0.048975423 -0.07639391 -0.10845562 -0.19185495
-0.116962045 -0.039144915 0.1258137 0.06642976 -0.009317107 -0.15856576 -0.14838767 -0.17058302
-0.011370583 0.14729238 0.0030703477 -0.16655847 0.104153305 0.070994824 0.14268881 -0.09614321
0.14453717 -0.0015879746 -0.0063484763 0.06374034 0.010801931 -0.05568436 -0.07432331 0.028366007
-0.049258243 -0.035881486 -0.04579166 -0.15132716 0.057706352 0.061631326 0.085939445 -0.17797795
-0.06615686 -0.007484086 0.0824639 -0.20283219 -0.010821665 -0.043251637 0.08710342 -0.16535258
-0.024598112 -0.019146059 -0.17069083 -0.008189273 -0.012587051 0.003873547 -0.12584047 0.012022348
0.09509203 -0.01241847 -0.03455873 -0.076195955 0.14150219 -0.051938076 -0.013143674 -0.06767004
0.05941898 0.045691993 -0.0019303851 -0.19104698 0.12661116 -0.081441104 -0.23527807 0.17262882
0.016040713 0.23360595 -0.095528446 0.022340659 -0.019284615 -0.0922254 -0.15682018 -0.024828028
0.13622554 0.043315757 -0.002999059 -0.11097708 0.048101466 -0.023929365 -0.07455788 -0.08537886
-0.019597262 -0.012845507 -0.22107549 -0.059908714 -0.01539207 -0.1724448 0.14837423 -0.010840627
-0.21532859 -0.0041890466 0.1335301 -0.32347664 0.009295579 -0.00058343954 0.0041803834 -0.10814417
0.024531012 -0.019627756 0.00980881 0.06764636 -0.055475082 -0.14385545 0.12606212 0.033496205
-0.2022858 0.0851368 -0.038187757 -0.057004903 -0.22090052 -0.10783088 -0.12422736 -0.032392282

hidden_nets.2.bias f4 [64]
00000000: 2080 3c3e 7300 e7bc 3913 533f 5f53 3f3f
00000010: f125 423f 2915 3d3f 6c8d 7e3c 7fd7 353f
00000020: 26b5 063f 6a72 4a3f 1e11 6a3c 54ec 393f
00000030: 8f48 e73e e5bd a0bc d5d3 05bd 6804 423f
00000040: 3afb 8c3e 3929 4a3f 5d74 1cbd 602c 0b3f
00000050: d2f6 54bd d4a9 a4ba ae49 363f 1823 62bc
00000060: 6f62 343f 5da1 3f3f aa41 3c3f 0e43 453f
00000070: f715 3b3f 4c20 97bc 9af1 333f b19f 393f
00000080: 5c70 463f 4717 42bd 2bec 3f3f 8610 353f
00000090: 6db0 503f 9ab1 3c3f d245 74bd 9278 373f
000000a0: 77f9 3ebd b484 3b3f 8b2e 16bd 1ef8 3a3f
000000b0: ada2 4d3f cfd2 103e 9486 13bd 791d 3c3f
000000c0: 1ec8 3b3f 0c18 433f ff3d 413f 8e95 403f
000000d0: b197 4f3f db44 63bd 0315 443f 7f8a 413f
000000e0: b311 3c3f fbb8 c4bc b59f 333f 1026 e13e
000000f0: bfa1 9d3e 6a14 343f 24e2 983d aaac 9cbc
0.18408251 -0.028198456 0.82451206 0.7473659 0.75839144 0.7386041 0.015536647 0.71031946
0.5262016 0.7908083 0.014286308 0.72626233 0.45172545 -0.019621799 -0.032672722 0.75787973
0.2753542 0.7896915 -0.03819691 0.54364586 -0.0519932 -0.001256282 0.71206176 -0.013802312
0.704627 0.74855596 0.73537695 0.7705544 0.7308039 -0.018448018 0.7029053 0.72509295
0.77515197 -0.04738548 0.7496974 0.7072834 0.81519204 0.737085 -0.0596369 0.7166835
-0.046624627 0.73249364 -0.03666548 0.73034847 0.8032635 0.14142917 -0.036017016 0.7348247
0.7335223 0.7620857 0.75485224 0.752282 0.8109084 -0.055485588 0.7659456 0.75601953
0.73464507 -0.024013987 0.7016557 0.43974352 0.30787465 0.7034365 0.07465008 -0.019125301

value_stream.weight f4 [1, 64]
00000000: 55ad a83e e0a3 2dbe d3e4 b93e 00fa ed3e
00000010: 1f20 d13e 2755 093f 555e 953d 4bf9 063f
00000020: 40be e83e b15f 013f 64d9 76be 7a3d 153f
00000030: f1b6 e73e 9354 90be 5377 c4bd bfad fc3e
00000040: e42f cb3e 1555 e13e 0114 b1bd 0323 c53e
00000050: a36f af3c 8d5f 5abe 6d48 113f 529b 1dbe
00000060: 97ff 0c3f 2b45 1a3f 56ba 083f 0981 073f
00000070: dd81 083f 117a 6ebe 65ed e03e 41d3 0b3f
00000080: 31e2 de3e e68a 0cbe 96d2 133f 7213 043f
00000090: 4119 b03e 5d5c 003f 0766 39be 389f 123f
000000a0: cd04 4bbd e0f6 133f 833d 44be 8f88 0e3f
000000b0: f4a6 003f 488d d33e 1691 88be 0cb0 0a3f
000000c0: eb84 083f 2529 073f bec4 f33e 0e0a f93e
000000d0: 385a 033f 0877 29be 9026 ca3e 5c23 f43e
000000e0: 6c1b 003f a3f5 7dbe 6307 e63e c914 f43e
000000f0: 25ba d93e caa2 f93e 56de 423d fca7 25bd
0.32944742 -0.16957045 0.36307392 0.46479797 0.4084482 0.5364556 0.07293383 0.5272414
0.4545765 0.5053664 -0.24106365 0.5829693 0.4525676 -0.28189525 -0.09593072 0.49351308
0.39684975 0.44010225 -0.086463936 0.38503274 0.021415537 -0.21325512 0.5675114 -0.15391281
0.550775 0.6026179 0.53409326 0.5293127 0.53323156 -0.23288752 0.43931118 0.5461922
0.43531945 -0.1372486 0.57743204 0.5159217 0.34394267 0.50140935 -0.18105327 0.572742
-0.049565125 0.57798576 -0.1916409 0.5567712 0.5025475 0.41318727 -0.26673192 0.54174876
0.53327817 0.52797157 0.4761104 0.48640484 0.5130954 -0.16549313 0.39482546 0.47683227
0.5004184 -0.24800734 0.4492751 0.47672108 0.4252483 0.4875701 0.047575317 -0.040443406

advantage_stream.weight f4 [5, 64]
00000000: 0376 24be 9253 debd 6195 943d 76af e5bd
00000010: 6360 853d b148 2abb df4e 9ebe d1eb 7bbd
00000020: ed14 933d 7dc3 173e a175 63be 389a c63d
00000030: 1e29 1cbe 3390 20bc d9e9 c23d 0981 97bc
00000040: ebae 003e a96f 97bd 338d 623c 6f64 2bbd
00000050: f050 1e3e d048 083e 1e0f 4cbd 281b 32be
00000060: 1721 d43d fbd5 803d 3aa0 e23d 84ac 363c
00000070: 1d24 243c df19 b4bd 998d 49bd 04e2 0c3d
00000080: 429d fcbc 5927 3e3e 40c7 503d bda0 ef3d
00000090: 563b ae3d 6c61 1b3e 4265 a7bd 7bf5 913d
000000a0: 519a 8d3b d703 093e d720 1bbd 0d0b 0a3e
000000b0: 8046 973d 419b 5c3d 3646 583e 2452 b93d
000000c0: 3f80 b93b 25a2 32bd 58ed ab3d 4124 04bd
000000d0: 60e2 e83b 353c d83d 9003 37bd f93e 383d
000000e0: 44c7 f63b f56b d63d f233 cfbc 9aaa a3bc
000000f0: e9d8 0abd 75d1 f3bd 29b8 203c 372c 263e
00000100: dd71 36be 7779 1e3a 4fe1 363d f200 eebd
00000110: fa65 333d 486b 0fbd 0be1 eabe bbce 88bd
00000120: 943a 043e 0f9c f73d a95e 893e ef6a 313c
00000130: 48b3 d33d 0da5 ac3d a09a c1be 20f2 35bd
00000140: 7f81 ad3c 245b eabd ed4a 603e f789 1bbd
00000150: 998a 93be 7cba b4bc c9de f5bd 870b 663d
00000160: 3171 143e cf43 333d 9a52 a53d 80b5 e3bc
00000170: f621 28bd 24cf 4dbe ab77 20be 5090 703d
00000180: d4d1 35bd 3ee3 c43d f022 6dbc 6259 db3d
00000190: 1216 7d3d 7d1a d23d ec86 abbe 981c 773d
000001a0: 7a52 e03d c874 333e bafc b0bd aa4b 913d
000001b0: 783d b13d e6fb 20bd 953f bcbe ece4 853d
000001c0: 3c84 25bd b63d 263c aa0e 883d 8676 40bd
000001d0: 73a0 873b e3e5 35bd 2198 33bd 1e3c 003c
000001e0: 368c 9ebd 474e d1bc ecdd d7ba d27e 763d
000001f0: bbe4 33bd b66b 02be 0959 853d 109f c1be
00000200: 1534 db3d c61c e6bd 8cea 8f3d 3c82 6fbd
00000210: ff7a 8c3d e317 14bd 785b 693c 6190 ef3c
00000220: 44a1 003d ef17 f93d ba9c a0bc fe00 d63d
00000230: 157e eb3c e67c 353d 41b8 b03b 773f babc
00000240: 1661 cc3d 7446 5dbd 976a 78bd ba74 eb3b
00000250: af5b 2ebe 474f dabd 1705 8ebd 0e4a b93d
00000260: f32f 043d 5a84 82bd e7ea 8c3d 7dbc 58bd
00000270: 2724 b6bd a0bb c5bd 9b4e 26be 38bc 583c
00000280: 633a d2bc b0fc 233e ba2d 16bd 626b 1f3e
00000290: ece9 b13d e025 e83a 8c82 143e f208 003e
000002a0: 5904 68be e77f e03d 1a98 e43c 0aba 153e
000002b0: 5b36 ca3d 7415 8b3e 8d61 573b 710f e73d
000002c0: 0028 1fbc 0328 cfbc fe42 803c 40fa 3fbd
000002d0: ceba 98bd 0692 293e f884 16bd 5b90 98bc
000002e0: f167 2ebd 3c55 dd3d 913c 95bd ee55 cebd
000002f0: ce90 ab3d 72fb 6dbd d7b5 c83e 89b1 fcbd
00000300: 9c68 813e d250 f53d d795 e43c 8850 edbd
00000310: b5a2 263d 2e10 65bd 9ab8 29bd 7d43 66bd
00000320: a003 a03c 04e6 db3d 8daf abbd dd38 5d3c
00000330: b5e0 c23d 185e 6b3e a802 ed3e fd1c 50bd
00000340: fe82 893d 9eee d1bd 3a34 033e 8ce7 01ba
00000350: cc4f 59bd 4b1a b9bd 2dab fbbd 0765 323c
00000360: e778 e23d d679 433d 232e 623d 5169 df3a
00000370: 53a6 31bd a5d0 9d3e 90e4 17be a2b5 123b
00000380: df8d 6bbd e30d aebd 637e 6abc 6ecf c03d
00000390: bc7a 753d 8482 c03d 3438 ccbd 142b c63d
000003a0: 2109 183e daba 1e3e d1c8 20be 7899 df3d
000003b0: 433b 893d a3a7 64be 35cb 27be 1410 3d3d
000003c0: acf1 8bbc f57f ca3c f9e3 3c3d c939 1ebd
000003d0: e503 373b bbb1 15be f6ac 6cbd d041 9f3c
000003e0: f34d 5fbd 53d0 633d 81e7 14bc 2261 d73d
000003f0: 748c 303e e192 0bbe 9f5d e63d cca5 b23e
-0.16060643 -0.108557835 0.07255054 -0.11215107 0.06512525 -0.002598327 -0.3091955 -0.06150419
0.07181726 0.14820667 -0.2221284 0.09697384 -0.1525006 -0.009800005 0.09517259 -0.018494146
0.12566726 -0.07394344 0.01382761 -0.041843828 0.15460563 0.13309026 -0.049819104 -0.17393172
0.10357874 0.062908135 0.11065717 0.011149529 0.010018376 -0.08793997 -0.049207304 0.034395233
-0.030836705 0.18569697 0.05097127 0.1170058 0.08507411 0.15173882 -0.0817361 0.071269
0.0043213745 0.13380371 -0.037873115 0.13480778 0.07386494 0.053859 0.21120533 0.0904887
0.00566104 -0.043611664 0.08394879 -0.032261137 0.007107064 0.105583586 -0.04468113 0.04498193
0.0075310785 0.1046981 -0.025293324 -0.01997881 -0.033898268 -0.11905185 0.009809532 0.16227804
-0.17816873 0.00060453214 0.044648465 -0.11621274 0.043798424 -0.03501442 -0.4587482 -0.06680056
0.12912971 0.12090313 0.26830032 0.010828718 0.103369296 0.084299184 -0.37813282 -0.04442036
0.021179913 -0.11443165 0.21903582 -0.03797337 -0.2881668 -0.022061579 -0.120053835 0.056163337
0.14496304 0.04376584 0.080723956 -0.027796507 -0.041048013 -0.20098549 -0.1567065 0.058731377
-0.04438956 0.096136555 -0.014473662 0.10710408 0.061788626 0.102589585 -0.33501375 0.060330003
0.10953231 0.17525017 -0.08641954 0.0709451 0.08654302 -0.03930273 -0.3676726 0.06537804
-0.04040931 0.010146549 0.06643422 -0.046988033 0.004139 -0.04440869 -0.043846253 0.007826833
-0.07741587 -0.02555002 -0.0016469336 0.06017954 -0.043919306 -0.12736401 0.06511123 -0.37816668
0.10703293 -0.11235957 0.07027158 -0.05847381 0.06859397 -0.036155593 0.014242999 0.02924365
0.031403795 0.12162768 -0.019605983 0.10449408 0.028746644 0.044308566 0.0053930585 -0.02273534
0.09979455 -0.054022267 -0.060648527 0.0071855457 -0.17027162 -0.10659652 -0.069345646 0.09047328
0.03227229 -0.063729 0.068807416 -0.05291413 -0.08893614 -0.09654927 -0.16240923 0.013228469
-0.025662607 0.16014361 -0.036664702 0.15568307 0.08687195 0.0017711483 0.14502925 0.12503412
-0.22657908 0.109618954 0.027904559 0.1462175 0.09873649 0.27164805 0.0032864541 0.11282242
-0.009714127 -0.025287634 0.015656944 -0.046869516 -0.07457505 0.1655961 -0.036747903 -0.018623522
-0.042579595 0.10807273 -0.07286943 -0.100749835 0.08377229 -0.058101125 0.39201233 -0.1233855
0.25275123 0.11978306 0.02790348 -0.11587626 0.040682513 -0.055923633 -0.041435815 -0.056216706
0.019532979 0.107372314 -0.08383093 0.013502327 0.09515516 0.22985113 0.4629109 -0.050808895
0.06714438 -0.10250591 0.12812892 -0.00049554626 -0.053054616 -0.09038218 -0.122885086 0.010888345
0.110582165 0.047723614 0.05521978 0.0017044937 -0.04337151 0.30823246 -0.14833283 0.0022386094
-0.057508346 -0.084987424 -0.0143123595 0.09414564 0.0599315 0.09399894 -0.099716574 0.09676185
0.14847232 0.15500966 -0.15701605 0.10917944 0.067007564 -0.22329573 -0.16386111 0.04615791
-0.017083012 0.024719218 0.04611585 -0.038629327 0.0027925905 -0.1461858 -0.057782136 0.019440562
-0.054517698 0.055618595 -0.009088398 0.105165735 0.17241079 -0.13630249 0.112483256 0.34892118

advantage_stream.bias f4 [5]
00000000: c46c c5be 540b 003f 3501 85be 4300 843e
00000010: 0880 c8be
-0.38559544 0.50017285 -0.25977483 0.2578145 -0.3916018

hidden_nets.0.weight f4 [128, 11]
00000000: 0e58 a4bc a087 113d e02e 06bd d9e0 66be
00000010: 0827 31bd adbe 563d 069c 363d 9a1d bdbc
00000020: ea00 e93d 620c b8be 6ad9 05be d9f7 763e
00000030: d0b2 f73d ffba fabd 788a 30be e272 cc3d
00000040: 4f44 833d 6d6c 8cbd 5549 58be 671c 34be
00000050: 72f8 f0bd 39b0 4a3d b47b 0abd 39c4 14be
00000060: 210f e5bd 747c a73b 597f 563e f62e fcbc
00000070: 6eae b83c a29b 9d3d c3b1 08be ac76 2b3c
00000080: c82c 293c 4704 6bbd 6e6b 94bd 1e25 09bd
00000090: eb0a d7bd e8d1 383e d721 1abe c79c 723d
000000a0: c4b8 77bd 118d 8e3d b2f7 693e c3cf a73d
000000b0: 9510 8b3e e502 fc3c df3f 0dbe 84e9 2a3e
000000c0: 25dc 30be 57f2 11be 56af 92bd 3237 c8bd
000000d0: 0794 ea3b b694 cbbd 11d4 c03d 01f0 233e
000000e0: b62d 3abe 848b 4dbe ae0a dbbd b173 273e
000000f0: 054c 8abd 2529 b7bd 9fa3 bdbd a61e dc3d
00000100: 4b46 973b 426c 073e b5f2 babd 3805 433d
00000110: 50f6 9bbe bf3d 853d 8f9e 88bc 9cbe 70bd
00000120: 88ec eebd a097 07bc 03a5 0dbe 6e6c 33bd
00000130: 8767 4cbe ad0d 2abe 52ff 33bd aea2 edbc
00000140: 51e8 acbd 611b f3bd 4c7e 003e ba66 ec3d
00000150: 995b 1cbd 4df7 093e 4ae8 fcbd 3c4b 483c
00000160: 90b7 873e 0f3d 43bc 55dc a6bd ce96 fabc
00000170: 0a7d f63d 6bbb cbbc 294b adbd 6d41 dbbd
00000180: 8725 f4bd 3fcb 52be f24d 69bd 591a e8bd
00000190: a496 93be 317a be3d f5c2 1fbd 4295 5f3e
000001a0: 4387 0d3d f6ea d5bc 8a7f e53c d4d4 1e3d
000001b0: 29d7 4ebd c668 f0bc 07b7 f8bd 87a4 e63c
000001c0: b55e 33be 6797 39be 9895 53be 8112 943d
000001d0: 1c3e 8ebd bf1b c8bb 52a2 12be 72dc 9cbd
000001e0: 45f0 563e 76bb 743e b02a 20be 4061 d63d
000001f0: e00a 7abc 38b0 f73c d91a febd e099 d7bc
00000200: b3fb 79be bf14 813d 708a 95bc a2b7 5cbe
00000210: 9910 afbe 53eb 95bd 3092 e63d 1ff0 1cbe
00000220: 1cb3 b43c 036f 5a3b 3b37 f43d d788 0ebc
00000230: ebbf a13d 1628 083d d7e6 9bbc 236a 87be
00000240: 5877 51be 608a 493e f8ae a43d 51a6 4d3e
00000250: 34d7 5fbd 1597 dbbd cd99 7cbe af59 173e
00000260: 70f9 8ebd b7e9 823d 1e0a 193e 51fc 3abe
00000270: 70a7 42be f43c 39be 2370 553d 4877 e4bb
00000280: 5697 babd 2756 e7bd dc68 04be 2388 f8bc
00000290: be79 a8bd c01d 03bd 4599 b73d f257 f0bd
000002a0: 9b2e 94bd 18e3 4cbe baaf ae3d 9ccc ab3c
000002b0: 545b 0fbd 1b6e fa3d 5e2d f2bc ba88 363e
000002c0: 931b 223e 1b6c 18be c44d 11bd 338c ac3d
000002d0: d34f 98be e362 13bd bc77 433d ef19 b43d
000002e0: 4ad2 cf3b b8b9 e23d cdfa 163e 5360 b93e
000002f0: 146e 9dbd 113b 20be 935a 533d e199 45bd
00000300: 9620 1d3d a205 07be 91b7 41be 35c0 f5bd
00000310: bc72 96bc 9df7 8abd 9b6c 12bd 2c92 21be
00000320: cf1f 74bd f643 77bd 5fd8 023e cac4 1cbc
00000330: 5fee aa3c 0ebc bcbb d15e 0e3e 34bf 913d
00000340: 37f1 733b 66ed 713e 151a 1c3d 88dc 8abd
00000350: f435 f0bd 3e40 68bd f310 fbbd f32c ac3d
00000360: 37c4 3dbe 933e 4939 bcaa 213e e1c7 4cbd
00000370: 022b 483e 4058 6a3b 38a4 893d bf24 483c
00000380: 80a5 bd3d 0e5b 86bd 1f3f 4a3c 9268 7bbe
00000390: d217 c23d 45eb 5f3d f4cc 4abd 43b8 393e
000003a0: 61ad 28bd 05c5 f7bc 7fe7 b1bd fab2 1f3e
000003b0: 7015 b7bc f852 263c 1234 acbd d82d 33be
000003c0: 0d6a af3c a3a2 9bbc 4c69 adbe c8fd 7a3d
000003d0: f299 b4bd d6ee 373e df88 673d 9fa2 e7bd
000003e0: a06a dd3d db14 5f3d 3372 19be 4e39 c03c
000003f0: 7977 643b f448 6ebe 1b1f b6bd 55e1 f53d
-0.020061519 0.035529733 -0.032759547 -0.2254671 -0.043250114 0.052427936 0.04458239 -0.023085404
0.113771275 -0.35946947 -0.13071218 0.24117984 0.12094653 -0.12242698 -0.17240322 0.0998285
0.06409513 -0.06856618 -0.21121724 -0.1758896 -0.11766137 0.049484465 -0.03380938 -0.14527978
-0.11184526 0.0051112715 0.20947017 -0.030784111 0.022544112 0.076957 -0.1334906 0.010465305
0.010325618 -0.057377126 -0.07247053 -0.033482663 -0.10500129 0.18048823 -0.15051971 0.059231546
-0.06047894 0.069605 0.22848395 0.08193924 0.2716109 0.030763099 -0.13793896 0.16690642
-0.17271478 -0.14252602 -0.07162349 -0.09776153 0.0071587595 -0.09940474 0.094154485 0.16009523
-0.181815 -0.20072752 -0.10695396 0.16352727 -0.06752781 -0.089433946 -0.09259724 0.10748033
0.004616534 0.13224891 -0.09128324 0.0476124 -0.3046136 0.06505918 -0.01667717 -0.05877553
-0.116662085 -0.008275896 -0.13832478 -0.04380458 -0.19961368 -0.1660678 -0.043944664 -0.029008236
-0.08442748 -0.118704565 0.12548178 0.11543031 -0.03817329 0.13473244 -0.12348993 0.0122249685
0.26507235 -0.011916413 -0.08147494 -0.030589487 0.12035568 -0.024869641 -0.08461601 -0.10705838
-0.1192122 -0.20585345 -0.0569591 -0.113331504 -0.28825867 0.0930065 -0.039004285 0.21834281
0.034552824 -0.026113015 0.028014917 0.038777187 -0.05049816 -0.029346835 -0.12144285 0.028154625
-0.17516597 -0.18124162 -0.20662534 0.07230092 -0.0694544 -0.006106823 -0.14319733 -0.07659234
0.20990093 0.23899636 -0.15641284 0.10467768 -0.015261382 0.030235395 -0.124074645 -0.02631849
-0.24412422 0.06302785 -0.018254489 -0.21554425 -0.3419235 -0.07320275 0.11258352 -0.15325974
0.022058062 0.0033330328 0.11924597 -0.008699617 0.078979336 0.033241354 -0.019030971 -0.26448163
-0.20455682 0.19681692 0.08041185 0.20082976 -0.054648593 -0.10722176 -0.24668045 0.14780305
-0.0698117 0.06392234 0.14945266 -0.18260314 -0.19009185 -0.18089658 0.052108895 -0.0069722272
-0.09110896 -0.11295729 -0.12930626 -0.030338353 -0.082263455 -0.032010794 0.08964781 -0.11735524
-0.07235452 -0.20008504 0.08529611 0.020971589 -0.034999207 0.12228032 -0.029562648 0.17825595
0.15830831 -0.14884989 -0.035474554 0.084251784 -0.297484 -0.035982978 0.04772161 0.08794009
0.006342207 0.11070579 0.1474411 0.36206302 -0.07687011 -0.15647532 0.05160005 -0.048242453
0.038361154 -0.13185742 -0.18917681 -0.11999551 -0.018365256 -0.0678551 -0.035748105 -0.15778416
-0.059600648 -0.060367547 0.12777852 -0.009568403 0.020865617 -0.0057597226 0.13903357 0.07116547
0.0037222633 0.23625717 0.03811081 -0.06780344 -0.11729041 -0.05670189 -0.12259092 0.08407011
-0.18531881 0.00019192164 0.15787786 -0.049995307 0.19547656 0.0035758168 0.06720775 0.012215792
0.09260082 -0.06560336 0.012344151 -0.24551609 0.094771996 0.05466773 -0.049511865 0.18136697
-0.041180972 -0.030245313 -0.086867325 0.15595618 -0.02234909 0.010151617 -0.08408369 -0.17497957
0.021412874 -0.01899845 -0.33869398 0.06127718 -0.08818425 0.17962202 0.056527015 -0.113103144
0.10811353 0.05446325 -0.1498497 0.023464825 0.003486125 -0.23270017 -0.08892652 0.12005869

hidden_nets.0.bias f4 [128]
00000000: 3b87 b4ba a387 3abd 420c e6bd 0376 b8bd
00000010: 2948 82bc b81f 73bd 5085 f9ba 069b 0fbd
00000020: 4ff2 2cbd d0d3 20be f776 a6bd 029f 55bd
00000030: 3e1a 15be 3cc5 adbd b5f2 d1bd 652f 683d
00000040: d011 96bd b38c 29bd 3509 fbbd 64e5 82bd
00000050: aa9d 5bbd 41b5 17be 4efd f1bd dff5 11be
00000060: 0307 9cbd 267d 63bd ea0f a9bd 1db4 e6bd
00000070: 1e07 b2bc a2c2 613c 526c a7bd 4ecc 853d
00000080: 7449 d3bd 7c64 643c 0ddd 14be 30e3 79bd
00000090: 3bc5 8ebd 82dc 0fbd ec3f aa3c 625a 34be
000000a0: 3715 12be 6b27 d0bd 022b 193d 96da 0ebe
000000b0: d50a 843c 1c11 b2bd bfbd 71be af36 da3d
000000c0: b268 ab3d da78 edbd 06e7 143d c042 01be
000000d0: 1549 0d3d 49d4 27bd 4413 933d 0e52 8cbd
000000e0: 52fb d5bd 0c61 eabd a2f3 7cbc e495 9b3d
000000f0: 40a6 8bbd 7516 eebd 6863 f6bc d439 33be
00000100: 0000 0000 c211 acbc ece2 01bc 5190 e1bd
00000110: ef2e 633d 7bd6 d7bc 5ecf 46bc 3e66 853b
00000120: 5e1c 23bc 1bf6 e6bd 6c04 09be b2ea 3ebd
00000130: 593f 57bd 2e59 8cbd 0000 0000 74e8 15be
00000140: f22a 99bd 1614 52bd e9b3 1e3c fdb3 ecbd
00000150: cab2 4bbd 0000 0000 a8d1 c43c 36d1 27be
00000160: b722 973d a03e d7bd 447d 2b3d a5ce ce3c
00000170: 0c3c 9ebd 6f66 aabd 7848 f3bc 4546 ffbd
00000180: fe97 223d fe56 a6bb e7b1 11be 6682 d53c
00000190: a291 7dbd 0109 a7bd 72ce 703d bd13 1b3c
000001a0: 24af 02bd 03f6 fb3c c1cb debd 4539 05bd
000001b0: b2b3 1ebe 2c2c a8bd a327 babd 9bd7 24be
000001c0: 0ed3 2fbd 7084 9f3d 8dea 6ebd 45b6 edbd
000001d0: ebdd c1bd c745 9bbd ef7f 6b3d fe52 85bd
000001e0: d0ba ac3b 6d3c f4bd c04e 73bc 4e9e 63bc
000001f0: 5510 a73c 4c86 363c c9fe 653d 7da3 3bbc
-0.0013773212 -0.04553951 -0.11232807 -0.09006884 -0.01590355 -0.05935642 -0.0019036923 -0.03505995
-0.04222327 -0.157058 -0.081281595 -0.052153595 -0.14560792 -0.08484885 -0.10251371 0.056685824
-0.07327616 -0.041393947 -0.122576155 -0.06391409 -0.053617157 -0.14815237 -0.11815892 -0.14253949
-0.07618525 -0.055539273 -0.082549885 -0.11264823 -0.02173191 0.013779314 -0.08174957 0.06533109
-0.103167444 0.013939973 -0.14537449 -0.06100768 -0.069712125 -0.035122402 0.020782433 -0.17612603
-0.14265905 -0.101637684 0.03739453 -0.13950571 0.016118446 -0.086946696 -0.23607539 0.10654961
0.083695784 -0.11595316 0.036353134 -0.1262312 0.034493525 -0.040973935 0.07181409 -0.06851588
-0.10448326 -0.114442915 -0.015438946 0.07596949 -0.06818819 -0.11625377 -0.030076697 -0.17502528
0.0 -0.021004561 -0.007927638 -0.11013854 0.05546468 -0.02634739 -0.012134401 0.004071026
-0.009955494 -0.1127741 -0.13380593 -0.04661054 -0.052550647 -0.06852947 0.0 -0.14639455
-0.07478894 -0.051288687 0.009686449 -0.115577675 -0.049731053 0.0 0.024025753 -0.16388401
0.07379668 -0.10509992 0.04186751 0.02524502 -0.07726297 -0.08320319 -0.029697642 -0.12464575
0.039695732 -0.0050762882 -0.1422802 0.026063155 -0.061906464 -0.08156014 0.05879063 0.009465155
-0.03190531 0.030756956 -0.10878707 -0.03252532 -0.15498236 -0.0821155 -0.09089591 -0.16097872
-0.042925887 0.07788932 -0.058329154 -0.11607031 -0.094661556 -0.07581668 0.057495054 -0.0650997
0.005271293 -0.11925588 -0.014850318 -0.013892723 0.02039353 0.011140417 0.056151185 -0.011452553

hidden_nets.1.weight f4 [128, 128]
00000000: ad15 f5bd e14f 803d 8f03 73bd bb25 493d
00000010: 5cad 513d 2061 02be 8194 aabd 5225 a5bd
00000020: 4030 1c3e aa41 ee3d df8d 9c3d 0c66 d6ba
00000030: 4e8e 29bd 870d 1bbe 8f33 403e 7adc d3bd
00000040: c57c bebe 4624 273d d614 ebbd fa54 67bd
00000050: a686 fa3d dd2c 22bd 1d7e e43d 83ba 53be
00000060: 5fac 0dbe a0ed 943d beaf 59bd 90ce c93d
00000070: 2efc 14be 5b76 8bbc 86ca e13d cd66 d5bd
00000080: f917 90be feb1 cdbd e01e 6ebd b4b3 3bbd
00000090: 0ed6 5c3d d52a 05bd bf3c c1bd 0b2f e73c
000000a0: 4802 73be 142d cbbd 70e4 4b3e a474 6a3d
000000b0: 7104 20be 75cb 9bbe b98a 81bd 9798 b83c
000000c0: e4db 4b3e 8152 973d 63d1 88be f419 053e
000000d0: 3933 523c 6295 f5bd dd31 763d 868e a4bd
000000e0: f5b6 1cbe 858b babd b88c 0c3e 9800 12bc
000000f0: 482b b73d 3dea d23c ec0a 693d 832b 27bd
00000100: 43ff 153e c9d8 bb3d fb00 323e 2401 46be
00000110: 0189 42be b218 0dbd e658 c0bd 37ce 2dbe
00000120: 2ca0 00be 13fc 253e 1b68 d3bd 914f e83d
00000130: 2b47 9e3d 334e b83d bd65 f43d 4a47 13be
00000140: 1fa8 4abe 27c3 f7bd b19a e2bd b375 f03c
00000150: 2495 9abe e446 43bd 576c 253d c02a 3f3e
00000160: 012f 94be 090e dbbd ddbb 8abe 3c6d 483e
00000170: b423 123d 6e8c cebd 70ec 4bbd b405 7c3d
00000180: ee72 91be 3327 233e fbee 19be e5e8 4a3d
00000190: 7705 99bd 9aa6 95bb 79fc 1cbe 6c5a 4cbe
000001a0: 1c66 a1bd c8e6 c0bd 6eb2 963c 97a7 8bbd
000001b0: fa01 9b3d 6195 b1bd 0472 3dbe c611 93bd
000001c0: b4b2 033e 2e2e 9bbd 5345 96be 2b54 d5bd
000001d0: 6e5b 16be 9180 32be 8dcb 0dbe 4d56 253d
000001e0: be67 33be 2469 97be 982b 063e 37a8 26be
000001f0: cefe 06bd e3db 3abd a09d e7bd 13e2 a3be
00000200: 801a f03d 87ea b93d 21ea da3d 9099 91bd
00000210: 7f1d 4bbe 7084 dd3b 4388 ff3c 15fc 6b3d
00000220: 8621 88bd 78de 19be bcb2 013c d0bc fbbc
00000230: 1810 48be fd15 d03d 05d3 c3bd 0608 833d
00000240: 5916 52be 09f5 67be df3e 11bc f1a7 883d
00000250: 039c 103c ca1f 2d3e 4112 633d 6b79 0a3c
00000260: 0af5 80be 3a2b 183d 510f ddbd 9502 803c
00000270: 59c0 013e 9a5e b4bd dcac 0cbd d5a2 1abe
00000280: feb9 acbd b4be d0bd 3042 f73d 4a5d eebc
00000290: b21d 333d c406 9abc e205 26be 6580 c4bd
000002a0: d914 a9bd ef04 c03c cd68 273b 3b41 803d
000002b0: 9c2e 61be eb55 efbd 966e ea3d 75dd b7be
000002c0: 7e0d f9be 5601 1ebe 2ddb f5bd 485b a0bd
000002d0: 673a 88bd 0477 2c3d 818b bbbe f5ed debc
000002e0: b3ac 00be 37e8 4fbc d385 123d fa32 f6bd
000002f0: 533f 0d3e 9a7c 0fbe a9c3 b33c e60a 0abd
00000300: 6d5d 143e fe69 ebbd bfaa dabe 18dc bebd
00000310: 950a 75be f394 20be 458a 793d 82bb 2e3d
00000320: d4ec 5ebc 50b2 9abc 050d b63d 6dc1 b13d
00000330: 309e 2cbe 099f 07be 1696 6e3d 113d 133e
00000340: 1569 99bd 0e41 f7bd 1d2e 8dbe b1ba 1ebe
00000350: 88b6 83be e0cd 0e3e a8e0 a4bd 0fc7 463c
00000360: 2181 a8bd 31ca 9fbd 6883 1bbd f0e2 b1be
00000370: 35d6 a53c 5723 e4bd fdcf 15bc 309d 0f3e
00000380: 2393 313d 67ff 5fbd 1b65 ddbd 0a60 bbbe
00000390: 9977 2ebe aad2 2e3e d5a6 8fbd a36d 583d
000003a0: 9035 e5bd f1e6 99be 4c44 533d 1891 9a3d
000003b0: f045 c8bd 4848 923c e452 893d 1050 a33d
000003c0: 2e0f 48bb 7619 ecbe 8298 ba3b d572 abbd
000003d0: 4ec8 a43d 1082 f9bd 4e36 0d3b c675 e6bd
000003e0: 866d 99bd a8a4 d1bd 48f4 0f3d 1f86 86bd
000003f0: ab5e f7bd 8d63 a23d 54ea 223e 8b46 063c
-0.11967025 0.06265236 -0.059329566 0.04910825 0.05119072 -0.12732363 -0.08329106 -0.08063759
0.15252781 0.11633618 0.07644247 -0.0016357317 -0.041395478 -0.15141879 0.18769668 -0.10344787
-0.37204567 0.040806077 -0.114785835 -0.056477524 0.122327134 -0.039593566 0.11156867 -0.20676617
-0.13835286 0.07271886 -0.053146116 0.09853852 -0.14549324 -0.01702421 0.110249564 -0.10419998
-0.2814329 -0.10043715 -0.058134913 -0.045825675 0.053915076 -0.03251155 -0.094354145 0.028220674
-0.23731339 -0.09920707 0.1991136 0.057240143 -0.15626694 -0.30428663 -0.06325287 0.022533698
0.199081 0.07388783 -0.2672225 0.12998182 0.012829595 -0.11991383 0.060106147 -0.08034997
-0.15304168 -0.091086425 0.13725555 -0.008911274 0.08943802 0.02574646 0.05689518 -0.04081298
0.14648156 0.09172208 0.17383187 -0.19336373 -0.18997575 -0.03444738 -0.09391956 -0.16973196
-0.125611 0.1620944 -0.10322591 0.11343301 0.07728418 0.0899929 0.119334675 -0.14382663
-0.19790696 -0.12097769 -0.11064661 0.029352998 -0.3019191 -0.04767503 0.040386524 0.18668652
-0.2894211 -0.10696036 -0.27096453 0.1957292 0.03567858 -0.100853786 -0.04978603 0.061528876
-0.28407997 0.15932922 -0.1503257 0.04953851 -0.074717455 -0.0045669796 -0.15330686 -0.19956368
-0.07880804 -0.09419018 0.018395629 -0.068190746 0.075687364 -0.0867107 -0.18500525 -0.071811244
0.12861139 -0.075771675 -0.29349765 -0.104164444 -0.14683315 -0.17431857 -0.1384718 0.040365506
-0.17520043 -0.29572403 0.13102567 -0.16275106 -0.032957844 -0.045619857 -0.113093615 -0.32008418
0.117238045 0.09077936 0.10689188 -0.07109368 -0.1983547 0.0067601725 0.031192904 0.05761345
-0.06647019 -0.15026271 0.007916149 -0.030729681 -0.1953739 0.10160444 -0.09561733 0.06398015
-0.20516337 -0.22652067 -0.008865087 0.06672657 0.008826259 0.16906658 0.05543733 0.0084518
-0.2518695 0.0371506 -0.10793937 0.015626231 0.12671031 -0.08807106 -0.03434454 -0.15101178
-0.08433913 -0.10192624 0.12073171 -0.029097218 0.04372949 -0.018802054 -0.16213182 -0.09594802
-0.082559295 0.023439853 0.0025544644 0.06262442 -0.21990436 -0.116863094 0.11446874 -0.35911146
-0.48643106 -0.15430197 -0.12004695 -0.078299105 -0.06651764 0.04210569 -0.3662987 -0.027213076
-0.1256588 -0.012689642 0.035772156 -0.12021442 0.13793688 -0.14012375 0.021943884 -0.0337018
0.14488764 -0.11494826 -0.42708394 -0.09319323 -0.23929818 -0.1568182 0.06092288 0.04265929
-0.013606269 -0.018883854 0.08889202 0.08679471 -0.16857219 -0.13244261 0.0582486 0.14378764
-0.07490746 -0.12072955 -0.27574244 -0.15500905 -0.25725198 0.13945723 -0.08050662 0.01213242
-0.082277544 -0.07802237 -0.037967116 -0.34743452 0.020243743 -0.11139553 -0.009143827 0.14024806
0.04335321 -0.05468693 -0.108103 -0.3659671 -0.1703781 0.1707255 -0.070142426 0.052838933
-0.11191857 -0.30059007 0.051578805 0.07547206 -0.097789645 0.017856732 0.06705263 0.07974255
-0.0030526626 -0.46113175 0.00569445 -0.08371512 0.080460176 -0.121830106 0.002154726 -0.11252932
-0.07491593 -0.10236484 0.035145074 -0.0656855 -0.12078603 0.07929144 0.15909702 0.00819553
