hyperopt_results/models/explore_aggressive_20250906_230524/dqn_racing_final.pth (torch, 455045 bytes, 36 tensors)

hidden_nets.0.weight f4 [128, 11]
000000 c0 cb ab bd 22 b3 37 3d 7e 58 11 bb de 17 87 be
       -0.083884716 0.04484857 -0.002217799 -0.26385397
000010 28 0f c0 bd 95 70 1e 3e 03 63 cb bc d6 73 e8 3b
       -0.09377891 0.15472634 -0.024827486 0.007093887
000020 ea 00 e9 3d 9c ce 81 be d3 b9 25 be c8 10 6b 3e
       0.113771275 -0.25352943 -0.16184168 0.2295562
000030 25 77 7d 3d 40 21 4c be a8 b3 f8 bd c1 8a 32 3d
       0.061881203 -0.19934559 -0.12143642 0.043589357
000040 10 b6 f9 3c 2d e0 3a bd 2f 0a 8f be 67 1c 34 be
       0.030482322 -0.045623947 -0.27937457 -0.1758896
000050 ea 30 a8 bd 63 ad 81 3d 0c 93 92 bd 21 9c 3c be
       -0.082124546 0.06331899 -0.07156953 -0.18418933
000060 aa be f6 bd 52 cf c6 bc 07 79 32 3e df c4 9a bd
       -0.12048085 -0.02426878 0.17428981 -0.075570814
000070 c1 65 dd 3c ef 8f 16 3d c3 b1 08 be f9 d5 7a bd
       0.02702606 0.03675836 -0.1334906 -0.061239216
000080 7a ec 81 bb f7 30 1e 3d 9a a0 f6 bd 11 b6 e7 bd
       -0.003964958 0.038620915 -0.12042351 -0.11314023
000090 06 97 7e bd 5d 0d 0b 3e 5b 3c e4 bd 5a 72 ad 3c
       -0.062155746 0.13579316 -0.111443244 0.021172691
0000a0 62 79 ff bd 11 8d 8e 3d 8c 09 7b 3e c0 ae 9c 3d
       -0.12474324 0.069605 0.2451536 0.076505184
0000b0 36 48 88 3e 51 06 fa bb 07 ee 5b bd 85 6b 55 3e
       0.26617593 -0.0076301475 -0.053693797 0.20841797
0000c0 09 79 84 be 29 98 74 be ab f3 ae bd 83 27 e6 bd
       -0.25873592 -0.2388617 -0.0854257 -0.11238005
0000d0 07 94 ea 3b e1 1d 4e bd d5 3c c5 3d a7 a0 09 3e
       0.0071587595 -0.050321463 0.096307434 0.1344019
0000e0 3b 99 5b be 85 b2 64 be 4a d8 14 be 5f fd 07 3e
       -0.21445172 -0.22333725 -0.14535633 0.13280247
0000f0 78 12 a2 bd b6 ea 88 bd 6b 51 fd bd a6 1e dc 3d
       -0.07913679 -0.066853926 -0.12369045 0.10748033
000100 30 12 6f bc 3c 17 dd 3d da 6a 0c be fe 69 9d bb
       -0.014591739 0.10795447 -0.13712636 -0.004803895
000110 bb ad a6 be 8f 61 f2 bc a5 6f b3 bd 84 2a cd bd
       -0.3255442 -0.029587535 -0.08761529 -0.10017875
000120 6e c4 a4 bd 14 ba 68 bd 03 a5 0d be 00 76 1f be
       -0.080452785 -0.056818083 -0.13832478 -0.15572357
000130 a3 f5 1c be ad 0d 2a be 52 ff 33 bd ae a2 ed bc
       -0.15328078 -0.1660678 -0.043944664 -0.029008236
000140 51 e8 ac bd 61 1b f3 bd 4c 7e 00 3e ba 66 ec 3d
       -0.08442748 -0.118704565 0.12548178 0.11543031
000150 99 5b 1c bd 4d f7 09 3e 4a e8 fc bd 3c 4b 48 3c
       -0.03817329 0.13473244 -0.12348993 0.0122249685
000160 e8 e7 b1 3e 74 de 7d bc c9 0b 93 3a 5f 2a b7 3c
       0.34747243 -0.0154949315 0.0011218722 0.022359071
000170 84 aa 0f 3d 7e 36 53 3c b9 a4 23 bd 3f 9f 27 be
       0.035074726 0.01289141 -0.039952014 -0.16369341
000180 87 25 f4 bd 80 70 31 be ba 80 c6 bc 0d 3f 17 be
       -0.1192122 -0.17328072 -0.024231303 -0.14770146
000190 32 63 a3 be ec 07 80 3d b7 bf a7 bd 39 e9 3f 3e
       -0.31911618 0.06251511 -0.081908636 0.18741311
0001a0 b4 ab 2a 3c cc 84 c6 bc 19 d9 1c bb d4 d4 1e 3d
       0.010416914 -0.024233244 -0.0023933111 0.038777187
0001b0 70 d1 96 bd af 98 d4 bc 19 71 57 bd 4e cb 3b 3b
       -0.07364166 -0.025951711 -0.052598093 0.0028655115
0001c0 5b d2 70 be fb c6 9c be 69 b1 6b be 9b fc 4f 3d
       -0.23517744 -0.3062056 -0.23016895 0.050778013
0001d0 ca a9 5e bd 59 f4 36 bc 52 a2 12 be 1e 39 41 bd
       -0.054361142 -0.011166655 -0.14319733 -0.04717361
0001e0 f1 57 4c 3e a7 2a ba 3e a7 f2 08 be 29 f7 9b 3d
       0.19955422 0.36360666 -0.13373815 0.076155014
0001f0 b2 1f 99 3d 55 35 a6 3c 35 84 92 bd ae bc b2 bc
       0.074767485 0.020289103 -0.07154123 -0.021818485
000200 89 82 93 be bf 14 81 3d ad 81 a5 3c 63 af 37 be
       -0.28810528 0.06302785 0.020203436 -0.17937998
000210 99 10 af be 53 eb 95 bd 30 92 e6 3d 1f f0 1c be
       -0.3419235 -0.07320275 0.11258352 -0.15325974
000220 1c b3 b4 3c 03 6f 5a 3b 3b 37 f4 3d d7 88 0e bc
       0.022058062 0.0033330328 0.11924597 -0.008699617
000230 eb bf a1 3d 16 28 08 3d d7 e6 9b bc 64 6e 90 be
       0.078979336 0.033241354 -0.019030971 -0.2820922
000240 5f 1d 63 be cd 28 34 3e 70 08 89 3d d0 02 39 3e
       -0.22179173 0.1759369 0.066910625 0.18067479
000250 cf 21 86 bd 07 8c b2 bd 52 84 88 be af 59 17 3e
       -0.06549417 -0.08718114 -0.26663452 0.14780305
000260 0d ee aa bd 43 2b 51 3d a5 5e 16 3e ee 4c 3d be
       -0.08346186 0.05106665 0.14684542 -0.18486378
000270 f0 68 43 be f4 3c 39 be e9 78 4b 3d 4d cc 1e bc
       -0.19082999 -0.18089658 0.049675856 -0.009692264
000280 d3 b8 b5 bd 2c 22 ec bd dc 68 04 be cb fe 06 bd
       -0.08873143 -0.11529955 -0.12930626 -0.032957833
000290 58 78 a3 bd 18 9f a0 3b 17 c7 99 3d 11 bb 5c be
       -0.07981938 0.004901778 0.075086765 -0.21555735
0002a0 b4 05 4f bd e8 d6 91 be f0 13 1a bd 78 3d cf 3c
       -0.05054255 -0.28484273 -0.03761667 0.025297865
0002b0 ad 8f 61 bc 1b 6e fa 3d 6f bc c4 3c 35 b6 48 3e
       -0.013767165 0.12228032 0.024015633 0.19600756
0002c0 3a 66 01 3e 17 82 39 be a5 f2 6a bd a1 b5 69 3d
       0.12636653 -0.18116032 -0.05736031 0.05705798
0002d0 a3 cf a7 be 44 ec 7c bd 4a db 63 3c b6 57 62 3d
       -0.32775602 -0.061748758 0.013907263 0.05525943
0002e0 4a d2 cf 3b 62 6e b1 3d 03 4f e8 3d 35 f3 d1 3e
       0.006342207 0.08663632 0.11343195 0.41005865
0002f0 6f 04 f4 bd fa 79 3e bd ca 01 a6 3d 63 91 24 bd
       -0.11914908 -0.046503045 0.0810581 -0.040177714
000300 9c 9f a0 3d be 0e 03 be 48 59 86 be 35 c0 f5 bd
       0.07842943 -0.12798592 -0.2623999 -0.11999551
000310 16 25 b7 bd 22 61 59 bd b5 84 12 bd 41 20 24 be
       -0.089426205 -0.05307115 -0.03577109 -0.16027929
000320 56 23 76 bd f6 43 77 bd d6 22 00 3e e0 31 5d bc
       -0.060092293 -0.060367547 0.12513289 -0.013500661
000330 25 75 ac 3c 59 ae 09 bc d1 5e 0e 3e 9c 40 8b 3d
       0.021051953 -0.008403384 0.13903357 0.06799433
000340 37 f1 73 3b 13 73 90 3e 5a 83 80 3d ec 74 cc 3c
       0.0037222633 0.28212795 0.06275053 0.024958096
000350 49 00 09 3d 43 11 d2 bd bb 4e 2b be 4e 3f ea 3d
       0.033447538 -0.10257199 -0.16729252 0.11437856
000360 47 49 44 be 93 3e 49 39 70 e3 66 3e 01 7e 13 3d
       -0.19168578 0.00019192164 0.22547698 0.03600884
000370 2b 51 a1 3e c6 76 c8 3c 66 de a2 3d ea 52 be 3b
       0.3150724 0.024470698 0.079525754 0.005808224
000380 89 3d 63 3c 35 d7 9e bc 54 16 64 bc 59 8a 92 be
       0.013869652 -0.019389728 -0.013921339 -0.28621176
000390 d2 17 c2 3d df 8f b0 3c be ae 00 bd 56 c2 a7 3e
       0.094771996 0.021552978 -0.031416647 0.32765454
0003a0 72 3b a1 bc 3d ce 46 bc 39 ee 9f bb eb e4 c0 3d
       -0.019681666 -0.012134132 -0.0048806933 0.09418663
0003b0 2d ae 09 3c 1e 43 ed bc ed 04 dc bd d8 2d 33 be
       0.008403343 -0.028962668 -0.10743127 -0.17497957
0003c0 8d 3b 93 3c 27 b7 24 bc dc a8 be be 55 e4 a4 3c
       0.017972732 -0.010053433 -0.37238204 0.020128408
0003d0 fc 66 e1 bd e1 f5 10 3e bb 9f ab 3c 64 6a 20 be
       -0.11005971 0.14156295 0.020950189 -0.15665585
0003e0 95 81 ab 3d 8e 13 81 3c 33 72 19 be 23 10 1e bc
       0.08374325 0.015756395 -0.1498497 -0.009647402
0003f0 63 6a ef 3c e5 5b 6e be 51 d9 b6 bd 09 30 f5 3d
       0.029225534 -0.23277242 -0.089281686 0.119720526

hidden_nets.0.bias f4 [128]
000000 31 f2 eb 3c d7 d9 e8 bd da 2f 1c be 9d 09 1e be
       0.02880201 -0.11369675 -0.15252629 -0.15433355
000010 3c 0a fa bc ab 3d b9 bd 5f a0 4e bd 06 9b 0f bd
       -0.030522458 -0.09044965 -0.05044591 -0.03505995
000020 db 75 ca bd 1f f7 3f be d2 d3 b0 bd 3c e3 c4 bd
       -0.098857604 -0.18746613 -0.086341515 -0.09613654
000030 3e 1a 15 be 0e a3 d6 bd ba be d6 bd 98 93 9f 3d
       -0.14560792 -0.10480319 -0.10485597 0.07791823
000040 e3 ff d8 bd b3 bb ea bd a0 39 00 be 46 f0 8f bd
       -0.105956815 -0.11461582 -0.12521982 -0.070282504
000050 1e 27 c1 bd cc 9d 2f be 5d a1 20 be 60 4f 12 be
       -0.09431289 -0.17150038 -0.15686555 -0.14288092
000060 7e 27 bb bd 66 f8 63 3c db 5a fc bd d5 20 10 be
       -0.09138392 0.013914203 -0.12322017 -0.14075024
000070 d1 93 79 bd 35 63 47 3c f8 96 d7 bd 14 3b d4 3d
       -0.060931984 0.012169649 -0.10526842 0.10362831
000080 2c c4 fa bd c8 99 2b bc 41 92 60 be 30 e3 79 bd
       -0.12244448 -0.010473676 -0.21930791 -0.06100768
000090 09 9e ca bd 04 2c c7 bc 5f 13 7c 3d 55 98 5c be
       -0.09893424 -0.02431298 0.06154191 -0.21542485
0000a0 37 15 12 be 6b 27 d0 bd b5 f6 1d 3d a0 9e 0f be
       -0.14265905 -0.101637684 0.038565356 -0.14025354
0000b0 bd a3 d3 3d b7 a7 c7 bd d1 fe 73 be 27 84 38 3e
       0.10333965 -0.09748786 -0.23827673 0.18019162
0000c0 c1 e5 28 3e da 78 ed bd a5 e7 9b 3d 5d c9 0a be
       0.16493894 -0.11595316 0.07612542 -0.13553376
0000d0 8e 4a e0 3d 1f 92 28 bd b2 bb b1 3d 49 e8 91 bd
       0.1095172 -0.041154977 0.08678378 -0.07124383
0000e0 7e 6d 29 be 20 22 27 be 46 3b b4 ba 71 12 27 3e
       -0.16545674 -0.16321611 -0.0013750575 0.16315629
0000f0 b2 4c a7 bd db 5c 21 be 27 a6 8c bd 80 31 45 be
       -0.08168925 -0.15758078 -0.068676285 -0.19257164
000100 ea 16 82 bc 5b bf cc bd 08 e3 7b 3c 71 41 0e be
       -0.015880067 -0.09997436 0.015373953 -0.13892151
000110 73 d2 c3 3d 7b d6 d7 bc 45 68 11 bd 8a 30 b8 3c
       0.095616244 -0.02634739 -0.03549983 0.022484083
000120 5e 1c 23 bc 78 fe 2b be 6c 04 09 be 76 66 f0 bd
       -0.009955494 -0.16796291 -0.13380593 -0.11738293
000130 ff cd d3 bd ce be b0 bd 00 00 00 00 96 39 1c be
       -0.10342025 -0.08630143 0.0 -0.15256342
000140 0e 48 e7 bd f9 c7 8c bd 45 52 3d 3c 72 18 0c be
       -0.1129304 -0.06874079 0.011555259 -0.136812
000150 cc 2d 3d bd 00 00 00 00 88 9a bd 3b 6c f0 29 be
       -0.046186253 0.0 0.005786244 -0.1659562
000160 be 08 95 3c 8d c4 f7 bd c5 dd 32 3d 15 3b 55 3b
       0.018192645 -0.12098036 0.043668527 0.0032536436
000170 2b 7b fa bd 6f 66 aa bd ad fd 11 bd 8d 36 1e be
       -0.12230524 -0.08320319 -0.035642315 -0.15450497
000180 1d 5c 0a 3e 21 68 d7 ba d9 5d 12 be f5 8b 70 3d
       0.13511701 -0.0016434231 -0.14293613 0.058727223
000190 07 e9 04 bd b0 05 e1 bd 4c d0 be 3d 88 57 53 3d
       -0.032448795 -0.10987413 0.09317073 0.05159715
0001a0 32 9a 07 3d ee e9 5e 3d a8 d3 0e be dc ce 18 bd
       0.033106036 0.05442231 -0.13947928 -0.03730665
0001b0 45 e1 27 be 3f 7f e9 bd 73 d7 89 bd 5d 25 39 be
       -0.16394527 -0.114012234 -0.06730547 -0.18080659
0001c0 3f 75 9a bd c7 94 b2 3d 10 5c 37 bd 22 79 14 be
       -0.07541894 0.08719783 -0.044765532 -0.14499334
0001d0 7b f1 f2 bd e6 7e 3e bd 50 1a 92 3d 1e 6b 07 be
       -0.11862465 -0.04650774 0.07133925 -0.13224456
0001e0 16 e6 81 3d 85 f3 24 be 7d 89 1f bd c3 57 cf bc
       0.063427135 -0.1610852 -0.03894948 -0.025310403
0001f0 c6 8e 01 3d fe 0a 47 bd 43 e1 2c 3e 57 75 ea 3c
       0.0316303 -0.048594467 0.16882806 0.028620405

hidden_nets.1.weight f4 [128, 128]
000000 84 10 b1 bd 35 9e 42 3d 1c 24 8c bc 9f fb 0a 3e
       -0.08645728 0.04751416 -0.017107062 0.13572548
000010 de 16 32 bc e1 cd 1e be bb b6 c8 bd 52 25 a5 bd
       -0.01086971 -0.15508224 -0.09800478 -0.08063759
000020 9b 48 e4 3d 40 80 f9 3d 6e 65 4b 3e 20 d9 78 3c
       0.11146661 0.12182665 0.19862911 0.015188485
000030 4e 8e 29 bd 5c ec 1e be c5 fc 3f 3e 1d e2 1d bd
       -0.041395478 -0.15519851 0.18748768 -0.038545717
000040 eb a6 c6 be 69 16 97 3d 3e 12 eb bd 92 4c 2b bc
       -0.38799223 0.07377321 -0.11478089 -0.0104552675
000050 ee c8 28 3e 66 34 2a bc 14 06 ff 3d 92 ad 53 be
       0.16482899 -0.010388469 0.12452331 -0.2067168
000060 bf 6b 20 be 8c a0 38 bd 7e 00 73 bd 24 d3 11 3e
       -0.15666102 -0.045074984 -0.05932664 0.142407
000070 00 e8 03 be 69 29 65 3c 91 71 cf 3d 7f 07 52 be
       -0.1288147 0.013986924 0.10129083 -0.20510672
000080 cf 7d 8f be 58 ba 72 bd 98 33 4c bc b4 b3 3b bd
       -0.28025672 -0.059259742 -0.012463473 -0.045825675
000090 ba 53 96 3c c5 0e df 3b 2b 4d ee bd bd 79 f5 3a
       0.01835047 0.0068071806 -0.11635812 0.0018728297
0000a0 48 02 73 be 14 2d cb bd 17 8e 45 3e 7f 75 6a 3d
       -0.23731339 -0.09920707 0.19292484 0.05724096
0000b0 7d bc ba bd b6 a6 87 be 38 46 80 bd c7 4b 38 be
       -0.091179825 -0.26494378 -0.06263393 -0.17997657
0000c0 8c 7d 6f bb 81 52 97 3d d3 de c5 be 17 37 1b 3e
       -0.0036543338 0.07388783 -0.38646564 0.15157734
0000d0 a8 37 10 3e 85 3b 74 bd c4 7d 28 3c d8 71 a5 bd
       0.14083731 -0.059627075 0.010283891 -0.080783546
0000e0 2b 8d b2 bd 40 50 aa bc 4e 2f 51 3d d1 d9 3b be
       -0.08718332 -0.02079022 0.051070504 -0.18344809
0000f0 28 8f c7 3d 2b 94 dc 3d e5 0b 80 3d 6c 87 82 bd
       0.09744102 0.10770448 0.06252269 -0.06373486
000100 43 ff 15 3e 95 92 1b 3e f4 6b 82 3d 8e 21 07 be
       0.14648156 0.15192635 0.06368247 -0.13196394
000110 f9 ef 77 be b2 18 0d bd c7 1d 92 bd 62 2f 07 bc
       -0.24212636 -0.03444738 -0.07134586 -0.008251043
000120 2c a0 00 be 90 25 f1 3d 1b 68 d3 bd 62 99 f8 3d
       -0.125611 0.117747426 -0.10322591 0.121386304
000130 71 fc 3e 3d 16 2c d1 3d bd 65 f4 3d 1f 70 23 be
       0.046627466 0.10213487 0.119334675 -0.1596074
000140 0a 04 93 be 5b 6e fe bd d4 5a d1 bd 6f c5 b7 3d
       -0.2871402 -0.124233924 -0.10222402 0.08973204
000150 7c 88 a9 be e4 46 43 bd 45 cc ae 3d 2f b2 39 3e
       -0.33111942 -0.04767503 0.08535055 0.18134378
000160 15 03 86 be 09 0e db bd 40 32 f5 bd 54 cf 3d 3e
       -0.26174226 -0.10696036 -0.11972475 0.1853612
000170 91 d5 36 3d 6e 8c ce bd f6 18 c6 bc ed f7 82 3d
       0.044637267 -0.100853786 -0.024181824 0.06394944
000180 1e 8f 83 be e2 a0 be 3d 82 2b 1a be 8f 82 2d bd
       -0.25695127 0.0930803 -0.1505566 -0.04236084
000190 f6 5b ef bd 1e ba 75 bc f7 2f 11 be 68 a2 07 bd
       -0.11687462 -0.014997987 -0.14178453 -0.033113867
0001a0 b3 ac 13 be 0e e1 ba bd 06 58 36 3c c2 31 35 be
       -0.14421348 -0.09124957 0.011129385 -0.17694762
0001b0 45 c7 a7 3d a4 89 72 bd 8e b9 12 bd ee 4e 05 bb
       0.081923045 -0.059213296 -0.03582149 -0.0020341235
0001c0 b0 22 e6 3d 50 69 16 bd 5c 1a 0b bf a2 d9 ea bd
       0.11237085 -0.036721528 -0.54337096 -0.114672914
0001d0 fe 05 22 be e2 31 9e be ce 64 c7 be 3f 6c d9 3d
       -0.15822598 -0.30897433 -0.38944095 0.106163494
0001e0 56 f3 20 be 5f 4a a0 be 1b 6a 26 3e 2f 15 39 be
       -0.15717825 -0.3130674 0.16251414 -0.18074487
0001f0 b2 cc 96 bd 1f f4 a4 bd 5f 34 47 bd ac 09 bd be
       -0.07363261 -0.08054375 -0.04863393 -0.36921442
000200 5f 70 01 3e af 16 b9 3d 4b ef 7b 3d c0 1f c4 bd
       0.12640522 0.0903753 0.061507504 -0.09576368
000210 35 bd 0a bd 3b 44 c0 bb 64 c4 9f 3c 15 fc 6b 3d
       -0.033871848 -0.0058675087 0.019502826 0.05761345
000220 a6 8f f7 bc cc a6 1b be a8 6d ba bb ec 4b be 3c
       -0.030219864 -0.15200347 -0.0056893416 0.023229562
000230 18 10 48 be 17 8b cc 3d 16 fe c3 bd 68 97 d2 bc
       -0.1953739 0.09987467 -0.095699474 -0.025706962
000240 14 13 52 be c1 ca 4c be 82 4a 16 bc c4 40 17 3e
       -0.2051509 -0.1999922 -0.0091730375 0.147708
000250 a0 67 95 3d de 94 16 3e fd 14 6d 3d fb cf 0a 3c
       0.072951555 0.14705226 0.057881344 0.008472438
000260 d7 af 85 be aa d0 7d 3d 95 a0 29 be 03 e2 87 3d
       -0.26110718 0.061966576 -0.16565163 0.06634905
000270 93 c7 c1 3d a8 95 8b be 0d b5 29 bd ca 4a 47 bc
       0.09461894 -0.27262616 -0.04143243 -0.012163827
000280 c4 11 77 bd ab 02 59 bd 27 80 40 3d 4a 5d ee bc
       -0.060319677 -0.05298106 0.046997216 -0.029097218
000290 5d 16 0b bc 8b 5c 4b bc 79 74 f9 bc 21 c5 86 bd
       -0.008489219 -0.012412201 -0.030451046 -0.06580568
0002a0 d9 14 a9 bd ef 04 c0 3c 86 96 b3 3d 34 39 80 3d
       -0.082559295 0.023439853 0.087689444 0.06260911
0002b0 b0 87 76 be b3 f1 e4 bd 72 d0 ea 3d 25 23 8f be
       -0.24075198 -0.11178913 0.11465539 -0.279565
0002c0 f0 84 af be 56 01 1e be 0e eb 57 be c6 53 69 be
       -0.3428111 -0.15430197 -0.2108576 -0.22785863
0002d0 26 c4 bb bd ee c3 65 3d c0 60 bd be f5 ed de bc
       -0.09168272 0.056095056 -0.36987877 -0.027213076
0002e0 6e 4e 03 be 4d ec 46 be b7 31 13 3e f8 1e 24 3b
       -0.12822887 -0.19426079 0.14374433 0.0025042873
0002f0 7b e4 11 3e c1 9a 40 be eb e7 0c 3d 62 1b 80 bd
       0.14247315 -0.18809034 0.03440086 -0.06255223
000300 6d 5d 14 3e 76 4c 1f be bb d3 e5 be 9a a0 4b be
       0.14488764 -0.15556511 -0.448881 -0.19885483
000310 c7 b4 ec bd f3 94 20 be 39 75 8c 3d 54 23 03 3e
       -0.11557918 -0.1568182 0.06858296 0.12806445
000320 d4 ec 5e bc e1 91 05 bd 05 0d b6 3d 3f 37 11 3e
       -0.013606269 -0.032609824 0.08889202 0.14181231
000330 4b d5 fa bd c7 dd 1c be 16 96 6e 3d f8 41 05 3e
       -0.12247714 -0.15318976 0.0582486 0.13013446
000340 c6 9b 8f bc 2d c0 ff bd 13 03 b4 be 01 12 fa bd
       -0.017530333 -0.124878265 -0.35158595 -0.12210465
000350 58 3e 39 be e0 cd 0e 3e c3 23 5b 3d 80 c5 2f bc
       -0.18090189 0.13945723 0.053500902 -0.01072824
000360 d4 62 25 bd 31 ca 9f bd 6e ea 4f bd cc 9a 97 be
       -0.040377453 -0.07802237 -0.05076068 -0.29610288
000370 d1 cd 8e bc 57 23 e4 bd da 2f a5 3a fc 81 1b 3e
       -0.017432125 -0.11139553 0.0012602762 0.15186304
000380 72 ad 92 3d 24 29 0d be ad b4 dd bd 19 bf e0 be
       0.07161988 -0.13785225 -0.10825477 -0.43895796
000390 ad a8 a6 3c 99 ad 42 3e cd 93 c3 3d 6a 97 c7 3d
       0.020344103 0.19011535 0.09549675 0.09745677
0003a0 8b 71 16 bd 43 2f d7 be 63 f1 32 3d 4d 13 01 3e
       -0.036729377 -0.42028245 0.043687236 0.12605019
0003b0 d9 c0 c9 bd ca 96 f4 bc 5a 44 ae 3d 01 f5 d1 3d
       -0.09851236 -0.029857058 0.08509131 0.10251809
0003c0 c4 b4 2d be bb f7 0b bf e6 03 07 3e e1 53 67 bd
       -0.16963488 -0.5467488 0.13185081 -0.056476478
0003d0 9c be a1 3d bf 64 df bc 02 9f db bc 45 22 e8 bd
       0.07897684 -0.02726972 -0.02680922 -0.113346614
0003e0 6f 34 7c 3d a4 b4 e0 bd b4 4b 4e 3c 71 46 26 bd
       0.061573442 -0.109719545 0.012591291 -0.040594522
0003f0 c4 06 5f bd 07 1f f1 3d b3 5c 2e 3e 7a 84 2a 3c
       -0.05444981 0.11773496 0.1702755 0.010407561

hidden_nets.1.bias f4 [128]
000000 74 63 32 3d e5 6d d2 3d 8a 21 3a 3d 2a 64 23 3e
       0.043551877 0.10274867 0.04544214 0.15956178
000010 8e 40 fb 3d bb 9c b2 3d 39 e6 9e 3d 94 cf 0c be
       0.12268172 0.087213 0.07758755 -0.1375106
000020 b4 b7 53 3d 10 c2 b1 3d 7a 17 81 3d 9e 00 be 3d
       0.051688865 0.086795926 0.06303306 0.092774615
000030 2f 8b e2 3d 6b 10 b6 bd a8 88 8e 3d e8 03 d2 3d
       0.110617034 -0.0888985 0.06959659 0.10254651
000040 cc 4d a7 bc 09 e5 b6 3d a3 84 e9 3b 69 da dd 3d
       -0.020422839 0.08930404 0.007126407 0.10832674
000050 b6 a3 b3 3d 58 3a 87 3d 98 4a a4 3d a1 03 b3 3d
       0.0877146 0.06602925 0.0802204 0.087409265
000060 80 14 95 3d 78 2c 97 3d 9c b2 af 3d 9b b5 04 bd
       0.07279301 0.073815286 0.08578989 -0.032399755
000070 92 21 fe bc 03 7a fe 3d 0b d7 6c 3d af 68 46 3d
       -0.031021867 0.12425616 0.05782227 0.048439678
000080 7f c2 df 3d 64 d9 e6 3d 23 22 ab 3d 08 be 94 3d
       0.10925769 0.11271933 0.083561204 0.07262808
000090 a8 b1 08 3d a0 1e d5 3d 3c 0d 5f 3d 4b ed 8a 3d
       0.03337255 0.10406232 0.05445598 0.06783541
0000a0 69 c3 09 3d 87 b4 93 3d c8 90 f5 3d 4e 6c 96 3d
       0.033633623 0.07212167 0.119905055 0.07344876
0000b0 ef af f9 3d a0 c7 bf 3d 2d 11 d6 3d a5 62 b3 3d
       0.1219176 0.09364247 0.10452495 0.08759049
0000c0 70 97 05 3d 5b b2 9c bd 37 87 71 3d 2c d6 56 3d
       0.032615125 -0.07651206 0.05896684 0.052450344
0000d0 b3 d2 de 3d 71 2e 33 3d f4 51 01 3e 7b a0 d1 bb
       0.108800314 0.04374546 0.12628919 -0.0063973046
0000e0 e2 30 35 3d 46 6d 84 3d 4c a6 8d 3d f9 f5 a8 3d
       0.04423607 0.06466155 0.06916484 0.082500406
0000f0 21 d2 62 bd 8c 9d a6 3d 1d 54 1e 3d 6a ea 9f bd
       -0.055376176 0.081355184 0.038654435 -0.07808383
000100 9b 9b 62 bd 6e 46 33 3d f4 36 fa bc 2f f8 8b 3d
       -0.05532418 0.04376834 -0.030543782 0.06834447
000110 5d ff a8 3c d0 84 0e 3e d0 76 b4 3d 8e 1c 8a 3c
       0.02062958 0.13917851 0.08811724 0.016859319
000120 47 6d af 3d c0 bb 7e 3d 27 27 cf 3d 6f 30 03 3d
       0.08565765 0.06219077 0.101148896 0.03202861
000130 ad 28 92 3d 93 bf 82 3d ad 63 1d 3d 6f 00 e4 3d
       0.071366645 0.06384196 0.038425136 0.11132895
000140 65 ec 4c 3d 8f b5 d5 3d 0e 77 02 3e 59 dd 26 be
       0.05003013 0.1043502 0.12740728 -0.16295375
000150 fe 1b 0f 3d ac 54 54 3d 8d 6d 47 3d 84 85 70 3c
       0.034938805 0.051838562 0.04868846 0.01468027
000160 50 fd 02 3c 0a 33 06 3d 10 6d c4 bd c0 6b 92 3d
       0.007994965 0.03276352 -0.095911145 0.07149458
000170 0a fe 45 3d 86 8a 5e 3d 22 36 80 3d 46 7b 02 3d
       0.048337974 0.054331325 0.06260325 0.031855844
000180 57 17 c5 bd 1b 63 31 3d ea a2 20 3d de 5d 2d 3d
       -0.09623592 0.043307405 0.039217867 0.042325847
000190 28 66 f2 3d e9 2f 0b 3c cc c0 0a 3e 5b 01 ab 3d
       0.11835891 0.008495309 0.13550109 0.08349868
0001a0 bc 79 27 3d 53 90 d7 3d 4d f9 18 3d 91 67 23 3d
       0.04088758 0.105255745 0.037347127 0.03989369
0001b0 32 1c a1 3d 72 92 75 3d b9 32 41 3d b3 87 07 3e
       0.07866706 0.059954114 0.047167514 0.13235359
0001c0 5d b6 fd 3d 73 d3 8a 3d 04 aa fb 3d f3 0c bc bd
       0.12388299 0.06778612 0.12288287 -0.09182157
0001d0 0e 5c 39 3d 3c 04 f2 3d c1 2d 64 3d 45 ea c8 3d
       0.045253806 0.11817214 0.055707697 0.09810308
0001e0 81 cd 7c 3d 78 47 af bd cd 7c b1 3d 70 87 c2 3d
       0.06171942 -0.085585535 0.08666382 0.09498489
0001f0 16 10 5f 3d 27 ee 62 3d 7b d8 8e 3d 0e 1c 65 bd
       0.0544587 0.0554029 0.06974884 -0.05593496

hidden_nets.2.weight f4 [64, 128]
000000 df 04 4f 3d ee 53 03 3e f4 0b cc bd d0 be 31 3d
       0.050541755 0.12824985 -0.099632174 0.043394864
000010 8a b2 84 3e 89 b8 12 3d 00 08 d2 3d 2d 36 69 3e
       0.25917464 0.035820518 0.10255432 0.22774573
000020 6b f8 b4 bd 6f c3 91 bc 9a d8 34 3e a9 65 2f 3e
       -0.088364445 -0.017793385 0.17660752 0.17128624
000030 71 61 3f 3c d8 f2 4c 3e 91 c5 a9 3d 3a c4 b8 3d
       0.011680947 0.20014513 0.08289636 0.09021802
000040 76 e8 77 bd 08 7b 07 3d b4 31 3e bb dd d3 63 3e
       -0.060524426 0.033076316 -0.0029021325 0.22248788
000050 ce 67 f5 3d 41 9e 8d bb b4 15 90 ba 67 10 0d 3e
       0.1198269 -0.004321844 -0.0010992796 0.13775788
000060 01 0d cd bc 2a 2b 9a 3e 4e 62 95 3e 02 60 02 bd
       -0.025030615 0.30111057 0.29176563 -0.03182984
000070 5e 07 dc 3d 2c 32 30 3e 97 01 38 3e 60 7c b9 bd
       0.10743593 0.17206639 0.17969356 -0.09056926
000080 d0 65 aa 3d bb 84 96 3e 97 06 36 3e 26 54 47 3e
       0.083202004 0.2939814 0.17775951 0.19465694
000090 38 b1 14 3d fb 45 42 3e 48 8c 73 3d 75 84 05 3c
       0.03630182 0.18972008 0.059459955 0.008149256
0000a0 fb f1 5d 3e 41 d2 e2 3d 3b 9a d1 3c 0b cc cb bd
       0.2167434 0.11075259 0.025586238 -0.099510275
0000b0 7e 2b 95 3e 67 a5 71 3e 4b e6 d7 3d 53 eb 4c be
       0.29134744 0.23598252 0.10541972 -0.20011644
0000c0 ea a0 e6 3d 8a b1 82 3e 67 da e7 3d d0 29 6c 3d
       0.11261161 0.25526077 0.11320954 0.057657063
0000d0 97 54 dd 3e 2e 40 3f 3e 25 43 83 3e e1 2a df bc
       0.432286 0.18676826 0.25637165 -0.027242126
0000e0 30 41 9f 3d 5d 20 a0 bd 36 67 7a 3d 19 54 0a be
       0.077761054 -0.07818673 0.061133586 -0.13508643
0000f0 a3 a1 7a 3e e1 a0 31 3c 5d c7 26 3e 41 06 52 3c
       0.24475722 0.010841579 0.16286989 0.012818874
000100 f0 3b 74 bd da a3 e9 3d ce 4d 33 3c cb 94 03 3e
       -0.059627473 0.11408205 0.010943843 0.12849729
000110 a8 38 a1 3d f0 f0 c5 3d 9c d7 36 bd 6c 9f ca 3c
       0.078721344 0.09665096 -0.044639215 0.024734221
000120 c4 46 58 3e 10 38 a5 3e bc b2 d2 bc 12 c9 40 3e
       0.21120745 0.32269335 -0.025719993 0.18826702
000130 67 4a 16 3e 92 7e 16 3e a2 e2 34 bd b7 25 18 3e
       0.1467682 0.1469672 -0.044161446 0.14858137
000140 43 bd 88 3d b5 49 1f 3d 56 2a 87 3e 9f 6f 1a bc
       0.06676724 0.038888652 0.26399487 -0.009426027
000150 8d 6b 93 bd 72 71 99 3d 71 e4 59 be 7c d2 6a 3e
       -0.07198248 0.07492341 -0.2127855 0.22931856
000160 e5 c2 3d 3e 98 8f a9 3c c3 4d 7a 3e 38 0f 80 3c
       0.18531378 0.020698354 0.24443726 0.015632257
000170 2b 6a 82 bc 08 fa 97 bc 62 e2 de 3d 3f 9d b0 3d
       -0.015919765 -0.018551841 0.10883023 0.08623742
000180 bb c0 2b 3e d6 80 d1 bd bb 31 ce 3d 3b cd 0d bd
       0.1677274 -0.10229652 0.10068079 -0.03461955
000190 76 47 41 3d 92 a0 75 bd f3 fa 9c 3d 4e 24 5b 3e
       0.04718729 -0.059967585 0.07665052 0.21400568
0001a0 fa 55 32 3e 85 b7 8b 3d 07 e9 21 bd 09 91 b6 3d
       0.1741561 0.06822113 -0.039528873 0.08914382
0001b0 6e 5a 98 3e e1 01 d1 3d bb 13 a3 bd 64 34 71 3e
       0.29756492 0.102054365 -0.07962748 0.23555142
0001c0 18 aa e2 3e cf ea 98 3e 80 b1 d5 bd 22 5e 5f 3e
       0.44270396 0.29866645 -0.10434246 0.21813253
0001d0 e9 68 a7 3c 56 2d 3d 3d 72 0c a5 3d 8b 15 ad 3d
       0.020435767 0.046185814 0.080590144 0.084513746
0001e0 95 9c a2 bc 73 ba 9f 3d 50 5b a7 3d ef 4c 42 3e
       -0.019850055 0.07799234 0.08171713 0.1897466
0001f0 cc cf 3c 3e 68 d9 4e 3d 6c dc f7 3c 7e 25 1a 3e
       0.18438643 0.050500304 0.030256473 0.15053365
000200 8d 84 a8 be 91 99 88 3d bb a9 98 3d 8f bb 3d be
       -0.32913628 0.066699155 0.074542485 -0.18528579
000210 f7 20 23 3e b4 78 20 3d 13 e3 70 bc a8 d5 9d bd
       0.15930544 0.03917761 -0.014702576 -0.07706767
000220 a1 43 ac bd 81 ca f0 bd 08 e6 e1 bd 32 c0 36 be
       -0.08411337 -0.117573746 -0.11030203 -0.17846754
000230 ce e7 da 3d 69 74 9c bd a4 9d 46 be df c5 c7 be
       0.106887445 -0.07639391 -0.19396073 -0.3901815
000240 c8 f8 b0 bd f4 7f cb bd 7f e1 0e 3e 71 83 09 3e
       -0.08641201 -0.099365145 0.13953207 0.13429047
000250 07 6f 0b bd 5c 7a 21 be 9c 7a 72 be 3e f0 32 be
       -0.03404143 -0.15769333 -0.23679584 -0.17474458
000260 2b 59 96 bd 10 aa 40 3e e5 11 1c bd cb c8 19 be
       -0.07341226 0.18814874 -0.038103003 -0.15018003
000270 72 4d 31 3d 01 cf 94 3d e6 1a 89 3c 4d 22 2a bc
       0.04328675 0.07266045 0.016736459 -0.0103841545
000280 b5 0f 5f 3d 54 a3 7c bc 30 77 83 3d b7 f4 d1 3b
       0.05445834 -0.0154198 0.064192176 0.006407346
000290 af 87 59 bd 0f ac e4 bd 27 a8 5e bd cc cd 0b 3d
       -0.053107914 -0.1116563 -0.05435958 0.03413181
0002a0 f3 61 65 be b6 99 ce bc fe 7b 1b bd 16 e3 5b be
       -0.22400646 -0.02521978 -0.037960045 -0.21473345
0002b0 8f 8e c8 3c 2c 4a ba 3d dc 0b 1a 3e cc 49 85 be
       0.02448204 0.090961784 0.15043586 -0.26032865
0002c0 3b 9a d9 bd 87 97 d8 bd 15 15 31 3d d0 61 8c be
       -0.1062512 -0.105757765 0.043232996 -0.27418375
0002d0 4c 3d 90 3b 70 d3 86 bd 4a f5 82 3d 09 a8 d4 bd
       0.0044018384 -0.06583297 0.063944414 -0.10383613
0002e0 46 77 9c bd e0 e6 a4 bc bc df 8f be c5 23 b0 bc
       -0.07639937 -0.020129621 -0.28100383 -0.021501431
0002f0 84 00 d4 bd 5b 43 8a bd 42 0f b1 be 62 f9 44 3c
       -0.10351661 -0.06751128 -0.34581953 0.012022348
000300 62 ba 41 3e cc 59 92 3a 0b ca 94 3d ff 4a 14 be
       0.18918756 0.0011165678 0.07265099 -0.14481734
000310 ce 58 80 3e 20 84 cd bb 4b 14 c3 bc 72 32 9b be
       0.25067753 -0.006271854 -0.023813387 -0.30311924
000320 97 6f c2 3d 6a 50 53 3d 69 36 e8 bd c0 3a 3f be
       0.0949394 0.05159036 -0.11338503 -0.18674755
000330 6c 37 3e 3e ff f4 12 be fb 5f 6d be ba b5 5b 3e
       0.1857583 -0.14351271 -0.23181145 0.21456042
000340 28 28 d4 3d 7b 65 ff 3d 54 93 43 be 69 11 d4 3c
       0.10359222 0.12470528 -0.1909917 0.025887208
000350 64 46 d9 bd c9 31 af bd ca 87 6b be 21 a7 00 bd
       -0.10609129 -0.08554418 -0.23001018 -0.031409387
000360 7b b9 01 3b 33 ac 0f 3d dc 8b 44 bb 03 28 d7 bc
       0.0019794393 0.03507633 -0.002999059 -0.026264196
000370 c9 1f 4e 3c 23 31 8c 3d 05 7e f4 bd 93 14 2c be
       0.01258082 0.068453096 -0.11938099 -0.16804723
000380 70 8a a0 bc 41 66 37 be 26 a2 71 be 9d b7 a8 bd
       -0.019597262 -0.179101 -0.23597011 -0.082381465
000390 fc 5f 4f 3d 4a 9b 88 be ef 76 46 3e e4 b5 f4 bd
       0.050628647 -0.26680976 0.19381307 -0.119487554
0003a0 d7 b3 6a be 67 53 e7 b9 5f 8d f8 3d 27 1e bb be
       -0.22920166 -0.00044121893 0.121363394 -0.36546442
0003b0 bd fc 4e 3c 4f 60 82 bc a4 f4 ff 3c 51 58 a4 bd
       0.0126335 -0.015915064 0.031244583 -0.080246575
0003c0 63 ca 2b bd 84 f3 83 3d 01 b3 80 3d 2d 8a 8a 3d
       -0.041941058 0.06442931 0.06284142 0.06764636
0003d0 1b 4d 06 be 43 11 78 bd 7f 66 f7 3d 3d a6 ac 3d
       -0.13115351 -0.060563337 0.120800965 0.08430145
0003e0 57 c3 3f be f9 ee 79 bd 37 44 c2 bd 19 a9 b2 bd
       -0.1872686 -0.061018918 -0.09485667 -0.08723659
0003f0 60 79 86 be 55 ef 36 be 91 e6 1d be e8 f5 92 bd
       -0.26264477 -0.17864735 -0.15419985 -0.07175809

hidden_nets.2.bias f4 [64]
000000 c9 39 1b 3f e6 e9 51 bd 44 05 95 3f 76 a4 87 3f
       0.6063505 -0.051248454 1.1642232 1.0597064
000010 6e df 8b 3f 73 0d 86 3f a3 56 1a 3f 21 eb 7f 3f
       1.092756 1.0472854 0.6028845 0.99968153
000020 cb f5 66 3f 66 81 8b 3f 67 a4 4a bd 07 66 83 3f
       0.902188 1.0898864 -0.049473193 1.0265511
000030 e5 76 52 3f a3 f7 a0 bd bd 3c dd 3e cb 82 88 3f
       0.8221267 -0.07859733 0.43210402 1.0664915
000040 bc d4 32 3f 16 f0 8a 3f b2 6e a7 bd 03 d7 69 3f
       0.69855857 1.0854518 -0.0817541 0.91343707
000050 7c 23 59 3e fc c8 95 bb a3 ab 81 3f 43 c4 d5 3d
       0.21204942 -0.0045710783 1.0130504 0.104378246
000060 85 30 7f 3f 98 c8 81 3f bc b1 85 3f 56 6e 87 3f
       0.9968341 1.0139341 1.0444865 1.0580547
000070 9b 27 82 3f 09 07 83 3d b8 30 84 3f 85 ca 82 3f
       1.0168337 0.06397826 1.0327368 1.0218054
000080 00 93 88 3f 9d b6 8c bd d4 88 82 3f 98 3f 82 3f
       1.0669861 -0.06870768 1.0198007 1.0175657
000090 33 a4 94 3f 8c a0 84 3f 2f 23 3d bd 7f 10 80 3f
       1.161261 1.0361495 -0.04617613 1.0005034
0000a0 ec 5c cf bd ce c4 81 3f 18 eb 04 bd 57 17 83 3f
       -0.10125145 1.0138185 -0.032450765 1.0241498
0000b0 37 21 8b 3f cd a4 1d 3f d2 cd 1c bd 8b 0e 83 3f
       1.0869511 0.6157959 -0.038282223 1.0238813
0000c0 0f 1f 84 3f 27 fa 85 3f 7b 7e 88 3f 3e 49 89 3f
       1.0321978 1.0466965 1.0663599 1.0725477
0000d0 23 cd 8a 3f 19 03 3e bb e7 3d 8e 3f 90 93 86 3f
       1.0843853 -0.0028993546 1.1112641 1.0513783
0000e0 95 80 83 3f 22 ed 92 bd 8f 3a 85 3f 8b c9 4d 3f
       1.0273615 -0.07174136 1.0408496 0.80385655
0000f0 4c f3 36 3f e2 fe 82 3f 6a 88 20 3f e3 7d e4 3e
       0.7146499 1.0234034 0.6270815 0.44627294

value_stream.weight f4 [1, 64]
000000 f1 64 14 3f 40 73 7e bd 87 ad 12 3f 48 e9 2a 3f
       0.57966524 -0.06212163 0.5729603 0.6676221
000010 63 08 1d 3f f1 2b 42 3f 15 9f 05 3f 55 8b 38 3f
       0.6134092 0.758483 0.52195865 0.72087604
000020 30 a2 26 3f 2d ce 38 3f e2 fe 6b be 8e 65 50 3f
       0.6509123 0.721896 -0.23046449 0.8140496
000030 97 3c 26 3f 40 cf 6c be 32 c7 11 3f 4b f2 33 3f
       0.649362 -0.23125935 0.5694457 0.70291585
000040 50 b6 11 3f 5d d4 20 3f 9e bd 95 bd 72 d5 0d 3f
       0.5691881 0.6282404 -0.07311557 0.55403817
000050 0d d1 20 3f 02 fc be bd be 71 48 3f 33 fd c3 be
       0.62818986 -0.093254104 0.78298557 -0.38279113
000060 4a 4b 44 3f c8 02 51 3f 55 49 41 3f 83 a5 3d 3f
       0.7667738 0.8164487 0.7550252 0.74080676
000070 cf 99 38 3f bc 56 4a bf 06 80 22 3f f4 d8 40 3f
       0.72109693 -0.79038596 0.634766 0.75331044
000080 4f 46 1c 3f 8b 09 e9 bd 45 2c 48 3f a2 91 3b 3f
       0.6104478 -0.11378773 0.7819255 0.73269093
000090 3a 83 0b 3f 28 b5 35 3f 04 31 a6 be 31 a3 48 3f
       0.5449711 0.7097955 -0.3245927 0.7837401
0000a0 2c 9b ef 3c 50 f2 4a 3f 46 dd 89 be 50 77 44 3f
       0.029248796 0.7927599 -0.2692663 0.76744556
0000b0 0d 95 33 3f 81 e2 29 3f 9e 8e 90 bd 53 c6 3e 3f
       0.7014931 0.6636124 -0.07058452 0.7452137
0000c0 b5 8c 3d 3f 84 7f 3b 3f 29 be 30 3f 6a d7 34 3f
       0.74042827 0.7324145 0.6904016 0.70641196
0000d0 0c 1c 3a 3f b7 96 a7 be 1c d4 1b 3f 4e b3 2b 3f
       0.72699046 -0.32732174 0.6087053 0.6707047
0000e0 bd 9a 2d 3f 22 f0 33 be 1b 09 2a 3f 9d a0 29 3f
       0.67814237 -0.17572072 0.66420144 0.662607
0000f0 7e 2f 14 3f 46 9c 31 3f ef 7d 16 3f 8d a2 15 3f
       0.5788497 0.6937908 0.5878591 0.5845116

advantage_stream.weight f4 [5, 64]
000000 f6 21 81 bd 71 6c 66 bd 97 7d 7f 3d 15 74 aa bd
       -0.06305306 -0.05625576 0.06237563 -0.08322922
000010 91 b1 99 3d 5f 3c 95 3c e5 1b 66 be b6 a7 3b bc
       0.07504571 0.018217264 -0.22471578 -0.01145356
000020 b7 6c 6b 3d 3b 35 12 3e 86 80 6d be 46 1f fe 3d
       0.057476725 0.14278118 -0.23193559 0.12408309
000030 fd 30 2e bd 57 23 64 bd c1 7e 8f 3d 1d ce 83 bc
       -0.042527188 -0.055697765 0.07006598 -0.016089493
000040 27 6c 04 3e 69 c8 89 bd b7 66 e3 3c 21 11 dc bc
       0.12931882 -0.06727678 0.02775894 -0.026863636
000050 ef 2c 43 3d ae 67 46 3e 53 5d 64 bd 5f be 93 3d
       0.047650274 0.19375488 -0.055753063 0.07214045
000060 e3 8c bf 3d fe 9c 0a 3d ba b4 e3 3d 2e f4 e5 3c
       0.09353044 0.033841126 0.11118455 0.028070536
000070 27 ec 73 bc 32 32 65 3e 46 97 c4 bd 72 26 2f 3d
       -0.014887846 0.22382429 -0.095991656 0.042761274
000080 7c 56 94 bc 79 1c 30 3e 01 81 14 3c 10 2a 06 3e
       -0.018107645 0.17198361 0.00906396 0.13101983
000090 b4 83 98 3d da 42 c6 3d 14 4f 8a 3c 93 1d ef 3d
       0.074469954 0.0968072 0.01688341 0.11675563
0000a0 cf 13 8a bd 63 c0 4d 3e 6e ea 15 bc 9b ad 1a 3e
       -0.067420594 0.20092921 -0.009150131 0.15105288
0000b0 f6 06 cd 3d ef be 9d bd 0b 09 69 3e 3d 0b df 3d
       0.10011093 -0.07702433 0.22757356 0.108908154
0000c0 8e 6e 09 3d fe de 75 3c 0d 9c 4d 3d fd 01 e5 bc
       0.0335527 0.015006779 0.05019765 -0.02795505
0000d0 fd 7f 33 bc aa 48 83 3e 8d a5 ef bc 05 62 06 3d
       -0.010955808 0.25641376 -0.029253745 0.032808322
0000e0 5f 04 da bb 45 94 79 3d 9b 9e c7 b9 3b c6 9a bc
       -0.006653353 0.060932416 -0.00038074408 -0.018893352
0000f0 c3 ee 80 3c 1a 07 90 bd 75 46 24 3d 54 4c c0 3c
       0.01573885 -0.070326045 0.040106256 0.023473896
000100 f8 92 37 bd e1 24 6c bd 55 ac ee 3c 92 c9 fd bd
       -0.044817895 -0.057652358 0.029134909 -0.12391962
000110 0a 84 87 3d 63 42 80 bd ca 7d 5a be dc c2 1f bd
       0.06616981 -0.06262662 -0.21337047 -0.03900419
000120 a0 34 4e 3d f6 49 cf 3d 52 99 6f 3e aa d3 90 3c
       0.050343156 0.10121529 0.23398331 0.017679054
000130 4c 6c 95 3c cd e7 f9 3d 61 c0 97 3d 33 ed 6e bd
       0.018240117 0.122024156 0.0740974 -0.05833168
000140 5f 73 00 3e 54 18 cd bd e3 99 5b 3e 57 28 44 bd
       0.1254401 -0.10014406 0.21445422 -0.047890034
000150 1b dd ca bd 0c cd 92 be 1b 8e e6 bd e0 17 68 be
       -0.09905454 -0.28672063 -0.11257573 -0.22665358
000160 9d 04 37 3d 9b e3 92 3b f5 a8 af 3d 6b 30 53 bd
       0.044682134 0.004482699 0.08577148 -0.051559847
000170 17 59 87 bd 67 87 c3 be a1 9b 17 be 67 c6 db 3c
       -0.066087894 -0.3818924 -0.14805461 0.026828004
000180 de 76 64 bd 1d 47 da 3d 80 3b 53 bc 3d c2 ce 3d
       -0.055777423 0.10658095 -0.012892604 0.10095642
000190 9d 29 65 3d 64 47 a6 3d 76 e3 e9 be bb 63 4b 3d
       0.05594789 0.081190854 -0.4568135 0.049655657
0001a0 60 ff 28 3e 13 56 d2 3d 77 8d 23 be 6f 97 ac 3d
       0.16503668 0.102703236 -0.15971933 0.08427321
0001b0 d8 2c a7 3d 70 d7 69 bd 63 5e e0 be f8 63 91 3d
       0.0816285 -0.057090223 -0.4382201 0.07099146
0001c0 63 c1 ac bd db 64 c8 bc 43 dd 53 3d 7f a7 67 bd
       -0.08435323 -0.024462154 0.051724683 -0.05655622
0001d0 bd 27 6d ba cc c8 23 be 76 89 e9 bc 09 c3 2f bb
       -0.0009046754 -0.15994567 -0.02850793 -0.002681913
0001e0 f7 9e ae bd 17 ba ed bd 50 ab 33 bc cd a3 1b 3b
       -0.08526414 -0.116077594 -0.010966137 0.0023748756
0001f0 6e bb 11 3d 63 f9 ff bd 7d 68 1c 3d 5e 5a 73 3c
       0.035579138 -0.124987386 0.038185585 0.014853088
000200 6d ec 45 bd ec 8d 2b be ea f9 c5 3d b4 ac bf bd
       -0.048321176 -0.16753358 0.09666808 -0.093591124
000210 5d 68 8e 3d 96 71 63 ba 9d 27 74 be 2c a4 da ba
       0.069534995 -0.00086762884 -0.23843236 -0.0016681007
000220 bd 4b 84 3d 18 70 04 3e fe c0 9d 3a 03 79 d1 3d
       0.064597584 0.12933385 0.0012035666 0.10228159
000230 4e c3 e1 3c c5 f8 b0 3c c6 34 2d 3d 1f 70 b6 3a
       0.027558949 0.021602998 0.042286657 0.0013918913
000240 dc 1f f4 3d cf b2 c9 bd 89 4e 8c bd 31 ab 6f bc
       0.11920139 -0.09848558 -0.06850917 -0.014628218
000250 52 b2 e9 bd b4 ba 7d 3d fe 7b 95 bc ee df 15 3f
       -0.11410965 0.061945632 -0.0182476 0.58544815
000260 70 2e c5 3d d5 a4 be 3b 12 d4 a3 3d ec ba 14 3d
       0.09627998 0.0058179894 0.079994336 0.036311075
000270 42 a8 bf 3c 34 d7 a8 3e 62 50 a0 bd 3e ab 57 3d
       0.023395661 0.32976687 -0.07827832 0.052653544
000280 d7 51 4f 3c 2c 4f 24 3e 0e 0d 20 3d 79 c4 f5 3d
       0.0126537895 0.16045827 0.03907495 0.12000365
000290 cf 96 b3 3d 96 d9 07 3e 35 00 cf 3e 6a 2c 07 3e
       0.08768999 0.13266596 0.40429845 0.13200536
0002a0 cf e7 63 be 6a e9 46 3e 13 0e 77 3d b4 c4 3f 3e
       -0.22256397 0.19424978 0.060316157 0.1872738
0002b0 f0 27 da 3d 21 d2 b8 bc c0 b1 03 be 7a 81 e3 3d
       0.10652149 -0.022561135 -0.12860775 0.1110868
0002c0 be 95 18 3d d5 45 43 3c 54 41 a0 3d d3 72 a3 3c
       0.03725218 0.011918505 0.0782496 0.019952213
0002d0 3d 9c b4 bc 64 9a 69 3e e8 a3 3d bd 4a 30 35 3d
       -0.022047156 0.22812802 -0.04629889 0.044235505
0002e0 a4 80 1d 3c c0 88 db 3d fb f2 47 3c 13 b2 05 bd
       0.00961319 0.10719442 0.012203927 -0.032640528
0002f0 c9 03 ab 3c 63 f1 29 bd 6d b7 92 3d 5d 0d 77 3c
       0.020875828 -0.04148997 0.07163892 0.01507887
000300 1c c3 ca bd 5e ab cd 3e 3f 66 50 3d 95 51 e5 bd
       -0.099004954 0.40169805 0.05087876 -0.11197201
000310 44 31 34 3d c7 dd 8a bd 89 fb 64 be 78 14 88 bd
       0.043992296 -0.06780582 -0.22361578 -0.06644529
000320 e1 e2 46 3d ab b7 ee 3d 4e c0 bf bd 85 f1 7c 3c
       0.048556212 0.11656126 -0.09362851 0.015438442
000330 98 f0 d4 bc e8 71 4d 3e 77 13 62 3d ad 77 56 bd
       -0.02599363 0.20062983 0.055194344 -0.052360225
000340 52 a4 d7 3d dd 07 d1 bd 12 34 40 3e ec 6a 35 bd
       0.105293885 -0.10206578 0.18769863 -0.04429142
000350 d4 08 fc 3d 1c 7e c4 3e 78 72 f7 bd d4 d0 7b 3e
       0.12306371 0.38377464 -0.1208238 0.2459138
000360 1a 1f 71 3d ab 7a 82 3b 28 8e 31 3d b5 b4 98 bd
       0.05886755 0.0039819083 0.04334846 -0.07456342
000370 b6 2b ad bd c2 68 4d 3e b1 7f 2f be 2f 33 07 3c
       -0.08455603 0.20059493 -0.17138554 0.008251949
000380 4e cf 9c bd bc 23 ca bd 7c 6f ed bc 77 3a 9d 3d
       -0.07656728 -0.09870097 -0.028983824 0.07677167
000390 d1 6d 9c 3d 6f 69 b1 3d e5 f9 00 be 7f b3 85 3d
       0.07638133 0.08662688 -0.12595327 0.06528377
0003a0 08 a5 e6 3d a4 5f f8 3d a5 a4 06 bd 92 52 bf 3d
       0.11261946 0.12127617 -0.03287186 0.09341921
0003b0 05 59 4e 3d 05 7f ad bd e6 7c 04 bd 78 d3 49 3d
       0.050377864 -0.08471493 -0.032345675 0.049273938
0003c0 cb cc 84 bd 1b 5a 9f bc f4 b2 61 3d bd dc 8d bd
       -0.06484374 -0.019452145 0.055102304 -0.06926868
0003d0 40 16 03 bc 78 17 d8 bd d9 aa 6d bd 74 1b c5 bc
       -0.00800091 -0.10551351 -0.05802426 -0.024060942
0003e0 3d 55 fc bd 0e c6 c0 3d cf 39 03 bd 41 9d 0d bd
       -0.123209454 0.09412776 -0.032037552 -0.034573797
0003f0 b8 1a d7 3c 56 c2 1d be ef 5d 5a 3c ca fa 9e 3d
       0.026257858 -0.15406165 0.01332806 0.07762678

advantage_stream.bias f4 [5]
000000 64 6a 22 bf 38 06 56 3f df e8 3d bf ce 4b 6a 3f
       -0.6344359 0.8360324 -0.7418346 0.9152192
000010 16 99 73 bf
       -0.95155466

hidden_nets.0.weight f4 [128, 11]
000000 c2 26 b7 bd e5 94 23 3d af cc be bb 3b 8d 89 be
       -0.08942939 0.03993692 -0.00582274 -0.26865563
000010 d3 8b c8 bd bc 56 1c 3e 62 43 08 bd 0f 30 38 3b
       -0.09792294 0.15267462 -0.033267386 0.0028104817
000020 ea 00 e9 3d a4 0c 85 be ee 56 21 be 12 51 7b 3e
       0.113771275 -0.25986207 -0.15755817 0.24542645
000030 ee 40 9f 3d 2f e5 3b be a8 b3 f8 bd a7 96 73 3d
       0.07776056 -0.18349145 -0.12143642 0.059469845
000040 14 df 3d 3d 73 eb 7b bd ce e8 86 be 67 1c 34 be
       0.046355322 -0.06150384 -0.2634949 -0.1758896
000050 33 98 a4 bd 2e 33 a2 3d 0c 93 92 bd 21 9c 3c be
       -0.08036842 0.07919918 -0.07156953 -0.18418933
000060 aa be f6 bd 52 cf c6 bc 07 79 32 3e df c4 9a bd
       -0.12048085 -0.02426878 0.17428981 -0.075570814
000070 c1 65 dd 3c ef 8f 16 3d c3 b1 08 be f9 d5 7a bd
       0.02702606 0.03675836 -0.1334906 -0.061239216
000080 7a ec 81 bb 32 09 24 3d fc dd f1 bd cf e6 e4 bd
       -0.003964958 0.04004783 -0.11809918 -0.11176836
000090 c9 6d 83 bd ef cd 0d 3e 73 66 e4 bd a5 03 72 3c
       -0.06417424 0.13848089 -0.11152353 0.014771377
0000a0 9e 08 fa bd 11 8d 8e 3d 4a b4 7e 3e 12 9c 93 3d
       -0.12208675 0.069605 0.24873462 0.072075024
0000b0 f8 e6 88 3e 24 c7 e0 bb 6a ae 58 bd 98 ee 54 3e
       0.26738715 -0.006859677 -0.05290071 0.20794141
0000c0 f9 ec 83 be 35 db 76 be f6 2f b1 bd 05 75 e3 bd
       -0.25766733 -0.24107058 -0.08651726 -0.11106304
0000d0 07 94 ea 3b d8 bf 49 bd d8 c3 c7 3d a7 a0 09 3e
       0.0071587595 -0.049255222 0.09754151 0.1344019
0000e0 3b 99 5b be 85 b2 64 be 4a d8 14 be 5f fd 07 3e
       -0.21445172 -0.22333725 -0.14535633 0.13280247
0000f0 78 12 a2 bd b6 ea 88 bd 6b 51 fd bd a6 1e dc 3d
       -0.07913679 -0.066853926 -0.12369045 0.10748033
000100 30 12 6f bc 3c 17 dd 3d da 6a 0c be fe 69 9d bb
       -0.014591739 0.10795447 -0.13712636 -0.004803895
000110 bb ad a6 be 8f 61 f2 bc a5 6f b3 bd 84 2a cd bd
       -0.3255442 -0.029587535 -0.08761529 -0.10017875
000120 6e c4 a4 bd 14 ba 68 bd 03 a5 0d be 00 76 1f be
       -0.080452785 -0.056818083 -0.13832478 -0.15572357
000130 a3 f5 1c be ad 0d 2a be 52 ff 33 bd ae a2 ed bc
       -0.15328078 -0.1660678 -0.043944664 -0.029008236
000140 51 e8 ac bd 61 1b f3 bd 4c 7e 00 3e ba 66 ec 3d
       -0.08442748 -0.118704565 0.12548178 0.11543031
000150 99 5b 1c bd 4d f7 09 3e 4a e8 fc bd 3c 4b 48 3c
       -0.03817329 0.13473244 -0.12348993 0.0122249685
000160 b2 99 b1 3e 4e d1 86 bc ab e1 89 3b f4 b7 b3 3c
       0.34687573 -0.016457226 0.00420781 0.021938302
000170 d0 52 0d 3d fa 19 76 3c 03 99 41 bd 07 1b 28 be
       0.034502804 0.015020842 -0.047265064 -0.1641656
000180 87 25 f4 bd e5 e0 31 be cd 65 c2 bc 0d 3f 17 be
       -0.1192122 -0.17370947 -0.023730183 -0.14770146
000190 32 63 a3 be ec 07 80 3d b7 bf a7 bd 39 e9 3f 3e
       -0.31911618 0.06251511 -0.081908636 0.18741311
0001a0 b4 ab 2a 3c cc 84 c6 bc 19 d9 1c bb d4 d4 1e 3d
       0.010416914 -0.024233244 -0.0023933111 0.038777187
0001b0 70 d1 96 bd af 98 d4 bc 3e c2 54 bd 94 29 65 3b
       -0.07364166 -0.025951711 -0.051943056 0.003496741
0001c0 cd 95 70 be fb c6 9c be b9 3f 6b be e4 0b 52 3d
       -0.23494644 -0.3062056 -0.22973527 0.05128087
0001d0 32 6f 61 bd 21 8a 2c bc 52 a2 12 be 98 cf 3f bd
       -0.055037685 -0.010530979 -0.14319733 -0.046828836
0001e0 9f fe 4c 3e ca aa b9 3e 9c 36 09 be a0 9a 9a 3d
       0.20019005 0.36263114 -0.13399738 0.07549024
0001f0 d6 06 a1 3d 5c 19 a8 3c 97 6f 8e bd 92 cd d3 bc
       0.07862632 0.020519905 -0.06954878 -0.02585486
000200 73 91 93 be bf 14 81 3d 32 e0 b0 3c 8a 51 37 be
       -0.28821906 0.06302785 0.02159128 -0.17902198
000210 99 10 af be 53 eb 95 bd 30 92 e6 3d 1f f0 1c be
       -0.3419235 -0.07320275 0.11258352 -0.15325974
000220 1c b3 b4 3c 03 6f 5a 3b 3b 37 f4 3d d7 88 0e bc
       0.022058062 0.0033330328 0.11924597 -0.008699617
000230 eb bf a1 3d 16 28 08 3d d7 e6 9b bc 64 6e 90 be
       0.078979336 0.033241354 -0.019030971 -0.2820922
000240 5f 1d 63 be cd 28 34 3e 70 08 89 3d d0 02 39 3e
       -0.22179173 0.1759369 0.066910625 0.18067479
000250 cf 21 86 bd 07 8c b2 bd 52 84 88 be af 59 17 3e
       -0.06549417 -0.08718114 -0.26663452 0.14780305
000260 0d ee aa bd 43 2b 51 3d a5 5e 16 3e ee 4c 3d be
       -0.08346186 0.05106665 0.14684542 -0.18486378
000270 f0 68 43 be f4 3c 39 be e9 78 4b 3d 4d cc 1e bc
       -0.19082999 -0.18089658 0.049675856 -0.009692264
000280 d3 b8 b5 bd 2c 22 ec bd dc 68 04 be cb fe 06 bd
       -0.08873143 -0.11529955 -0.12930626 -0.032957833
000290 58 78 a3 bd d8 15 3e 3b c3 d9 95 3d 91 15 5e be
       -0.07981938 0.002900472 0.073169254 -0.21687914
0002a0 2b 15 56 bd 10 62 92 be 97 13 18 bd 5c da c2 3c
       -0.05226628 -0.2859044 -0.037128057 0.023785762
0002b0 f7 63 80 bc 1b 6e fa 3d 40 2c bd 3c a9 ba 46 3e
       -0.015672667 0.12228032 0.02309239 0.19407143
0002c0 3a 66 01 3e 17 82 39 be a5 f2 6a bd a1 b5 69 3d
       0.12636653 -0.18116032 -0.05736031 0.05705798
0002d0 a3 cf a7 be 44 ec 7c bd 4a db 63 3c b6 57 62 3d
       -0.32775602 -0.061748758 0.013907263 0.05525943
0002e0 4a d2 cf 3b 62 6e b1 3d 03 4f e8 3d 16 f3 d3 3e
       0.006342207 0.08663632 0.11343195 0.41396397
0002f0 f7 4d eb bd 78 09 24 bd 3c 70 b2 3d 09 58 10 bd
       -0.1148948 -0.040048093 0.08712813 -0.035240207
000300 a2 c3 a6 3d b1 c9 06 be d2 32 84 be 35 c0 f5 bd
       0.08142783 -0.13162877 -0.25820023 -0.11999551
000310 54 71 b2 bd 11 9a 6a bd b5 84 12 bd 41 20 24 be
       -0.08713022 -0.057275835 -0.03577109 -0.16027929
000320 56 23 76 bd f6 43 77 bd d6 22 00 3e e0 31 5d bc
       -0.060092293 -0.060367547 0.12513289 -0.013500661
000330 25 75 ac 3c 59 ae 09 bc d1 5e 0e 3e 9c 40 8b 3d
       0.021051953 -0.008403384 0.13903357 0.06799433
000340 37 f1 73 3b 76 cf 8e 3e 65 05 7b 3d 1b cf be 3c
       0.0037222633 0.27892655 0.06128444 0.023292115
000350 fa 59 0c 3d a5 54 e5 bd 08 01 26 be ca bd d6 3d
       0.034265496 -0.11197785 -0.16211331 0.10485418
000360 8d 3a 47 be 93 3e 49 39 80 27 62 3e 32 b7 31 3d
       -0.19455929 0.00019192164 0.2208538 0.0433876
000370 35 82 a2 3e 10 8c e1 3c ef b4 a6 3d 3c 5c c2 3b
       0.31739965 0.027532607 0.08139979 0.0059314054
000380 20 56 88 3c d9 29 8a bc f6 ec cd bc 37 ca 90 be
       0.01664263 -0.016865658 -0.025137406 -0.28279278
000390 d2 17 c2 3d 48 cd df 3c 50 c0 f2 bc 90 f2 a8 3e
       0.094771996 0.027319565 -0.029632717 0.3299756
0003a0 f4 04 7f bc 1e 33 cb bb 48 bc 20 bb 6d 03 ca 3d
       -0.015565146 -0.006201162 -0.0024526287 0.09863935
0003b0 94 db 31 3c 61 fd 97 bc 2c 23 d4 bd d8 2d 33 be
       0.010855574 -0.018553438 -0.10358271 -0.17497957
0003c0 bb 41 9f 3c 53 ef 81 bc dc a8 be be 55 e4 a4 3c
       0.019440522 -0.015861189 -0.37238204 0.020128408
0003d0 fc 66 e1 bd e1 f5 10 3e bb 9f ab 3c 64 6a 20 be
       -0.11005971 0.14156295 0.020950189 -0.15665585
0003e0 95 81 ab 3d 8e 13 81 3c 33 72 19 be 23 10 1e bc
       0.08374325 0.015756395 -0.1498497 -0.009647402
0003f0 63 6a ef 3c e5 5b 6e be 51 d9 b6 bd 09 30 f5 3d
       0.029225534 -0.23277242 -0.089281686 0.119720526

hidden_nets.0.bias f4 [128]
000000 36 db c8 3c 41 54 c8 bd da 2f 1c be 3b 51 1b be
       0.02451859 -0.09781695 -0.15252629 -0.15167706
000010 20 40 ef bc ab 3d b9 bd 5f a0 4e bd 06 9b 0f bd
       -0.029205382 -0.09044965 -0.05044591 -0.03505995
000020 57 6d cb bd 1f f7 3f be 8d 86 af bd d5 1e c5 bd
       -0.09932964 -0.18746613 -0.085705854 -0.09625021
000030 3e 1a 15 be 0e a3 d6 bd ba be d6 bd 91 ac 9b 3d
       -0.14560792 -0.10480319 -0.10485597 0.07601274
000040 e3 ff d8 bd f0 21 e2 bd a0 39 00 be dd d2 95 bd
       -0.105956815 -0.11041629 -0.12521982 -0.073156096
000050 8a 26 ba bd ec ac 2b be 5d a1 20 be 60 4f 12 be
       -0.09089382 -0.16765183 -0.15686555 -0.14288092
000060 7e 27 bb bd 19 01 94 3b db 5a fc bd 12 80 11 be
       -0.09138392 0.0045167324 -0.12322017 -0.14209011
000070 d1 93 79 bd 4b 4a 26 3c f8 96 d7 bd 14 19 d4 3d
       -0.060931984 0.010149549 -0.10526842 0.10356346
000080 2c c4 fa bd a0 34 62 bb 41 92 60 be 30 e3 79 bd
       -0.12244448 -0.003451623 -0.21930791 -0.06100768
000090 09 9e ca bd 04 2c c7 bc 01 42 7f 3d 55 98 5c be
       -0.09893424 -0.02431298 0.062318806 -0.21542485
0000a0 37 15 12 be 6b 27 d0 bd a0 2f 29 3d a0 9e 0f be
       -0.14265905 -0.101637684 0.041305184 -0.14025354
0000b0 b2 33 c9 3d b7 a7 c7 bd d1 fe 73 be da fa 38 3e
       0.09824313 -0.09748786 -0.23827673 0.18064442
0000c0 2f 6f 2b 3e da 78 ed bd c7 43 aa 3d d7 0c 11 be
       0.16741632 -0.11595316 0.08313709 -0.14165054
0000d0 3d 1c e4 3d 58 c6 3a bd 8f 29 bd 3d 49 e8 91 bd
       0.111381985 -0.04559931 0.09236442 -0.07124383
0000e0 7e 6d 29 be 3d af 23 be 4e 54 09 3c 3a 2c 27 3e
       -0.16545674 -0.15984817 0.008381916 0.16325465
0000f0 b2 4c a7 bd db 5c 21 be 27 a6 8c bd 80 31 45 be
       -0.08168925 -0.15758078 -0.068676285 -0.19257164
000100 ea 16 82 bc 5b bf cc bd 59 d0 b2 3c df fb 06 be
       -0.015880067 -0.09997436 0.021827864 -0.13182019
000110 f9 23 c9 3d 7b d6 d7 bc 45 68 11 bd 59 55 54 3c
       0.09821314 -0.02634739 -0.03549983 0.012959802
000120 5e 1c 23 bc 78 fe 2b be 6c 04 09 be 76 66 f0 bd
       -0.009955494 -0.16796291 -0.13380593 -0.11738293
000130 ff cd d3 bd 28 fa b8 bd 00 00 00 00 96 39 1c be
       -0.10342025 -0.090320885 0.0 -0.15256342
000140 0e 48 e7 bd f9 c7 8c bd 73 15 4c 3c 92 a2 0f be
       -0.1129304 -0.06874079 0.012456286 -0.1402686
000150 09 ac 22 bd 00 00 00 00 88 9a bd 3b aa d4 2c be
       -0.039714847 0.0 0.005786244 -0.16878
000160 be 08 95 3c 8d c4 f7 bd 86 de 40 3d b8 a3 68 3b
       0.018192645 -0.12098036 0.047087215 0.0035497975
000170 2b 7b fa bd 6f 66 aa bd ad fd 11 bd 8d 36 1e be
       -0.12230524 -0.08320319 -0.035642315 -0.15450497
000180 88 2b 0a 3e 0b 10 1b 3b d9 5d 12 be fe 21 5e 3d
       0.13493168 0.0023660685 -0.14293613 0.054231636
000190 94 27 e9 bc b0 05 e1 bd c8 69 c9 3d 53 64 60 3d
       -0.028461255 -0.10987413 0.09834629 0.054783177
0001a0 c2 95 12 3d 80 7f 51 3d a8 d3 0e be dc ce 18 bd
       0.03578735 0.051146984 -0.13947928 -0.03730665
0001b0 45 e1 27 be 3a 82 ec bd ce 4b 8a bd fc b6 3a be
       -0.16394527 -0.11548276 -0.0675274 -0.18233865
0001c0 5d 0f 9c bd d7 7a b4 3d 8e df 40 bd 22 79 14 be
       -0.07620118 0.08812492 -0.0470882 -0.14499334
0001d0 7b f1 f2 bd 43 d6 37 bd 6e ee 93 3d cb b0 02 be
       -0.11862465 -0.04488207 0.07223211 -0.12762754
0001e0 f3 64 70 3d 85 f3 24 be 7d 89 1f bd c3 57 cf bc
       0.058690023 -0.1610852 -0.03894948 -0.025310403
0001f0 11 be 0a 3d fe 0a 47 bd 01 0d 34 3e 70 04 d1 3c
       0.033872668 -0.048594467 0.17583086 0.025514811
