hyperopt_results/models/lr_0.002_20250906_230524/dqn_racing_episode_200.pth (torch, 454549 bytes, 36 tensors)

hidden_nets.0.weight f4 [128, 11]
00000000: bb15 9b3c d769 d1bc 48d2 78be 38d1 23be
00000010: 7b2e 2abe eccf c73d 6676 60bd a4de 72bd
00000020: ea00 e93d 2815 aabe 47e0 d0bd b5c6 a63b
00000030: 9f89 a83d 4b90 1bbe 2a55 97bd 9c4e bf3a
00000040: bcb4 c2bd 2f97 c9bd fc92 7dbe 671c 34be
00000050: fe35 75be 524a 153e 6b0b 22bd 615e adbe
00000060: fe72 e4bc 3ac0 d83d c429 3f3f 1fac b43c
00000070: 46d1 d03c 13b1 70be c3b1 08be fb5e dd3c
00000080: cdd8 f4bc 7bb0 a4be b062 f9bd 3fd2 9f3d
00000090: 59dd edbe 70f4 1cbd 7141 b5be eff0 413e
000000a0: 3e89 46bd 118d 8e3d 36d2 663e f3d7 c6bc
000000b0: 70c5 083f 9490 b4bc 8d4e 49be 821b 923d
000000c0: 2276 f6be 79b3 7ebe 2ba1 7bbd 8639 35be
000000d0: 0794 ea3b c9ce b7bd 7a71 13bd 767f 8abd
000000e0: 19b0 70be e0bb 05be 26c4 95bd 7c5d 953d
000000f0: 25ef 4cbe 1ef9 8cbd 78a3 16be a61e dc3d
00000100: 9ff4 e5bd c943 4c3e e04a 85bf 0335 44bb
00000110: a3ab 08bf 7327 2ebc d830 debe 66e6 12be
00000120: 7df3 31be d3a4 87bd 03a5 0dbe 8b2d 68be
00000130: c9b8 e1bd 38b9 93bf 1da6 203d 1c1a e93d
00000140: 5ae3 a3be 4159 bebe 6061 ff3d afd9 a53e
00000150: 9ca8 173e 4df7 093e 54c6 9abe 86e5 e43c
00000160: 4715 90bd 735e 87bd b37e 5fbe eb40 993d
00000170: 4d34 8bbb 0719 9abe 76fb d8bd 18ae 0dbe
00000180: 8725 f4bd a10d 9ebe 52ab 943d 544b 1fbf
00000190: 59e5 ccbe 1a7a 863e b810 053e f2b3 503f
000001a0: 028f b73d fbdf cc3c c816 4abe d4d4 1e3d
000001b0: 69d9 423d 1c39 743d 1323 9cbd 231c 053d
000001c0: 8eae 2fbf 4212 13bc 18e9 33bf d539 333d
000001d0: 576a 9dbe c15e 4d3e 52a2 12be 92e1 703e
000001e0: 022a f03e 0922 dfbe b3f8 58be fbb3 b73d
000001f0: 74c1 eabe 763e 76bd d565 1fbe bf5a e9bd
00000200: 50ab 72be bf14 813d 43f1 253e 1e10 44be
00000210: ceb3 45bf 63b4 1bbe 22ac af3e da05 b1be
00000220: 8c51 94be a38e 043e 48b0 ae3e edb2 0dbd
00000230: ebbf a13d a777 05bf 404c a2ba d324 303d
00000240: 9d54 79be cdde cc3d 8e0f 033e 0667 0b3e
00000250: b2f4 94be da83 a4bd b192 9dbe af59 173e
00000260: 954a f2bd 767a 633e 2f84 363f de63 cbbe
00000270: 1787 b73d 57f0 05be f21f 5f3d bb84 83bd
00000280: e529 06be 37a5 c9be dc68 04be bad8 89bd
00000290: 9d18 f6bd f5ed 4cbd 1561 f23c 86d5 25be
000002a0: 7f02 e6bd 5118 32be 86c1 103c d339 293d
000002b0: e0be dfbd 1b6e fa3d 54ae 19be 752a cf3d
000002c0: 501b 343e 6501 73be 4136 17be f43c a13e
000002d0: 2a87 43bf f0ee 103e 79ed 2b3e f157 99bc
000002e0: 4ad2 cf3b 1861 f43c 5074 413d 1fb6 afbe
000002f0: 562a ed3c 9e1c 7cbf 4ca5 18bf eb55 e4be
00000300: c90a adbe f779 e1be 5368 40bc 35c0 f5bd
00000310: 0657 bf3e 7ddd d73e 7a9b 97be 0488 e5be
00000320: 4b2c 86be 1cf1 50bd 834d 4f3f fa06 f43c
00000330: 6a10 6dbe c8e8 83be d15e 0e3e d941 e1bc
00000340: 87a9 223d 231e c73e 1758 323d 1212 f5be
00000350: 4d1a 673c 8162 23bf f9a3 1e3e b8dc 513e
00000360: 580f 6ebe 933e 4939 86e4 47bd 2ed1 613d
00000370: 3fe6 693e 1024 60be 3281 b1be 127a 26bd
00000380: 674b bf3c ae06 37be 47b1 413e 0bc4 c8be
00000390: d217 c23d 9a29 aa3e 3c47 163e 36a5 1f3f
000003a0: df5e 76be 9959 1bbe 4101 383b 3893 103f
000003b0: 2fee 08be 6e09 2dbd 169a d3be d82d 33be
000003c0: 08b6 93b9 9a2a 28be a224 38bf 9d17 2f3e
000003d0: 920b f6be 3005 3bbf f5f9 1bbf 5c17 4ebd
000003e0: 8518 203e 237f 0f3f 3372 19be 1961 de3d
000003f0: ab8e f3bc faa2 4bbe 5fff e53c 54c1 1a3f
0.01893126 -0.025563164 -0.24298966 -0.1599778 -0.16619293 0.09756455 -0.054800414 -0.059294358
0.113771275 -0.33219266 -0.101990275 0.0050896057 0.08229374 -0.15191762 -0.07389291 0.0014595571
-0.095071286 -0.09843289 -0.24763101 -0.1758896 -0.23946378 0.14579132 -0.03956167 -0.33861068
-0.027886864 0.10583539 0.74673104 0.02205473 0.025490414 -0.23505048 -0.1334906 0.02702283
-0.029888535 -0.32165894 -0.12177026 0.07803773 -0.46457937 -0.03831905 -0.3540149 0.18939565
-0.048470728 0.069605 0.22541127 -0.024272894 0.53426266 -0.022041596 -0.19658871 0.07134153
-0.48137003 -0.24873151 -0.061433 -0.17697725 0.0071587595 -0.08974988 -0.03599689 -0.067625925
-0.23504676 -0.1305995 -0.07312803 0.07293221 -0.20013101 -0.06883453 -0.14710796 0.10748033
-0.112282984 0.19947733 -1.0413475 -0.0029938824 -0.53386897 -0.010629523 -0.4339664 -0.14345703
-0.1737804 -0.066232346 -0.13832478 -0.22673623 -0.11021573 -1.1540899 0.039220918 0.11381933
-0.32009393 -0.3717747 0.12469745 0.32392642 0.14810413 0.13473244 -0.30229437 0.027941477
-0.07035308 -0.06609812 -0.21825676 0.07483085 -0.004248178 -0.3009722 -0.10594837 -0.13835943
-0.1192122 -0.30869773 0.07259239 -0.62224317 -0.40018728 0.2626503 0.12994659 0.81524575
0.089628235 0.025009146 -0.19735253 0.038777187 0.04757062 0.059624776 -0.076238774 0.032497536
-0.68625724 -0.008976521 -0.7027755 0.043756325 -0.30745193 0.20055677 -0.14319733 0.23523548
0.4690705 -0.43580654 -0.21188621 0.089698754 -0.45850718 -0.06011816 -0.1556619 -0.113942616
-0.23698163 0.06302785 0.16205315 -0.19146773 -0.77227485 -0.15205531 0.34311014 -0.34574777
-0.28968465 0.12945037 0.34118867 -0.034594465 0.078979336 -0.521357 -0.0012382343 0.04300387
-0.24348684 0.100034334 0.12798902 0.13613519 -0.29092938 -0.08032961 -0.3077598 0.14780305
-0.11830632 0.22214684 0.71295446 -0.3972463 0.08961313 -0.13079964 0.054473825 -0.06421801
-0.13101919 -0.3938386 -0.12930626 -0.067307904 -0.12016413 -0.05003162 0.029587308 -0.16194734
-0.11230945 -0.17392088 0.008835202 0.04131491 -0.109250784 0.12228032 -0.15007907 0.1011552
0.17588544 -0.23731 -0.1476679 0.31491816 -0.7637812 0.14153647 0.16789807 -0.018718692
0.006342207 0.029831454 0.047230065 -0.34318635 0.028950851 -0.98481166 -0.59627223 -0.445968
-0.3379729 -0.44038364 -0.011743623 -0.11999551 0.3737108 0.4216117 -0.29610807 -0.44830334
-0.26205668 -0.05101119 0.8097765 0.029788483 -0.23150793 -0.25763535 0.13903357 -0.027497219
0.039712455 0.3889018 0.04354104 -0.4786535 0.014105392 -0.6382218 0.15492238 0.20494354
-0.2324804 0.00019192164 -0.04880192 0.05513113 0.22841738 -0.21888757 -0.3466888 -0.04064376
0.023351384 -0.17873642 0.18915282 -0.3921207 0.094771996 0.33234864 0.14675611 0.62361467
-0.24059628 -0.15170898 0.002807692 0.5647464 -0.1337211 -0.04224532 -0.41328496 -0.17497957
-0.0002817365 -0.16422501 -0.719309 0.17098852 -0.48055702 -0.7305479 -0.6092828 -0.050315246
0.15634353 0.5605337 -0.1498497 0.10858364 -0.029731115 -0.1988639 0.028075872 0.60451245

hidden_nets.0.bias f4 [128]
00000000: 30f4 19bd 15d7 a7bd 8942 d9be 67de 9fbd
00000010: f9cd c2bd 6b33 e9bd e52f 75bd c2d8 1a3e
00000020: ce93 96bd 44cd c3be 6964 003e 0c5f 38bd
00000030: 6e9e 2fbe 9a6e 15be 754c c4be bee5 8fbc
00000040: db40 38be a14d 0b3e 13b8 bfbe 3e7c e3bd
00000050: ed06 4dbe c967 f4be ea9b c63e bf8b 94be
00000060: f0cc 73bd de41 ce3b 3e4b 92be d543 37be
00000070: ee12 8b3e 6127 913e dd05 1dbe a467 e3bc
00000080: d7d7 b33c 8e1b aabc 0ef6 7cbe dac6 d3bd
00000090: 691a ba3c 1d0e 4abd 6976 d9bc 29a7 5fbe
000000a0: 0dca 8d3d 79a0 28be 3537 633e fba5 08be
000000b0: 404e ce3d cb47 1dbe e804 a9be 6473 3abd
000000c0: 4d48 8dbd fa51 84be c6f9 053f 6fc3 dbbe
000000d0: ceb0 38bd 3210 c2bd 0a60 ea3b 5694 f1bd
000000e0: e910 a7be 7f33 f43a 04a3 42bd daa9 df3d
000000f0: 0752 debd 5870 1cbe 27b4 26be b2dd 84be
00000100: 040c edbc eecd 08bd d802 af3e 2945 25be
00000110: ad35 493e d838 49bd a9a5 0fbe 68b3 373e
00000120: 94f6 05bd 9a8f b4be ddac d3bd 7840 39bd
00000130: 90bb d2bd d73a 2fbe 0000 0000 10ef 4f3e
00000140: 2b8a 29be c9d5 1cbe 49af 25be 1b25 ebbe
00000150: d025 69bd 0000 0000 9271 93bc f339 fbbd
00000160: 93f6 2abd 8ab2 f93d 97df c0bd 6107 a93e
00000170: b57e 8bbe 0c12 debd 5a48 893e 9137 40be
00000180: 8f32 e23e a6b8 98bd 68b0 4cbc 4822 27be
00000190: 6144 d7bd 7ef0 b4bd eecc 7ebc 4bc2 f33d
000001a0: 1fa1 113d f355 2f3e 25d9 6bbe c1e5 6b3e
000001b0: 22b6 3fbe d48c 983c 8c05 1dbe dc97 3fbe
000001c0: a629 4a3d ee26 7dbd f83d 7bbd de96 9b3d
000001d0: 8faa a63e 25ac a8bd b957 4cbd 99a0 653e
000001e0: 9ec3 af3e 8062 a3be a59e cdbd 2434 74bd
000001f0: 12e1 2fbe b756 30be c4b1 6f3e 5518 8e3e
-0.03758639 -0.081953205 -0.42433575 -0.07806092 -0.095119424 -0.1138676 -0.05986013 0.15121749
-0.0735241 -0.38242543 0.12538303 -0.04501252 -0.1715028 -0.14592972 -0.38339582 -0.017565604
-0.1799349 0.13603832 -0.37445125 -0.11107682 -0.20022173 -0.47735432 0.38790828 -0.29012868
-0.059521616 0.006294473 -0.2857303 -0.1789697 0.2716288 0.28350356 -0.15334268 -0.02775938
0.021953506 -0.020765092 -0.24703237 -0.10340662 0.022717671 -0.049329866 -0.02654572 -0.2184111
0.06923304 -0.16467465 0.22189029 -0.13344567 0.10073519 -0.15359418 -0.33011556 -0.0455202
-0.06898556 -0.25843793 0.5233425 -0.42922541 -0.04509049 -0.09475745 0.007152562 -0.11795871
-0.3263009 0.001863107 -0.047518745 0.109210685 -0.10855489 -0.1527723 -0.1627966 -0.2595039
-0.028936394 -0.033399515 0.34181857 -0.16139664 0.19649382 -0.049126476 -0.14028038 0.17939532
-0.03270586 -0.3526581 -0.103357054 -0.045227498 -0.10289681 -0.1711229 0.0 0.20306039
-0.16556613 -0.15315928 -0.16180147 -0.45926747 -0.056920826 0.0 -0.01799849 -0.12266912
-0.041739058 0.12192257 -0.094176464 0.33013442 -0.27245107 -0.10843286 0.26813012 -0.18771197
0.44179198 -0.07457094 -0.01249323 -0.16321671 -0.10511089 -0.08834933 -0.015551789 0.11902293
0.035554048 0.17122631 -0.23032053 0.23036863 -0.18721822 0.01862184 -0.15334147 -0.18710274
0.049356125 -0.061804704 -0.061338395 0.07597135 0.32552 -0.08235959 -0.049888346 0.22424544
0.34328932 -0.31911087 -0.10040025 -0.059620038 -0.17175701 -0.17220579 0.23407656 0.2775294

hidden_nets.1.weight f4 [128, 128]
00000000: 5f46 a4bd 6ccc 69bc 6b50 acbe 183f 42bc
00000010: 865e c3bc 0e57 febd ff1f 1dbe eadb 0fbd
00000020: c5d0 f13d 4e23 10be d5c1 7d3d aabb f3bd
00000030: ed17 253e 4f49 ecbd bb2a 2f3e 4ed3 8a3c
00000040: 5229 14be e2bd 36be 6d0d b3be 2bce a8bc
00000050: 89ea 87bd f504 b5be 96c3 7c3b 4b49 09be
00000060: bd67 93bd a57c 2d3e 2a10 4ebe 3cd8 35bd
00000070: 2e02 053d 9b48 aabd 0a55 a53d 4e58 6f3c
00000080: 506e 78be f90a f3bd 3323 e2bd 6481 913c
00000090: 3ae3 2d3e 2f3c 18be 6d7b 513d b354 cbbd
000000a0: 45d6 82bc 583f 01be 269d acbe 37d4 76bd
000000b0: 52fb 07be 1e73 09be 8959 48bd f9ad 5fbe
000000c0: d681 2abc 1984 173d 46ca 213d 77eb a7bd
000000d0: c23d 003e 09ad 08be b64f dabd 9c9f 3fbd
000000e0: eb93 adbe c9da b7be 7ff8 023e 90b0 3c3e
000000f0: 531e 103e 7179 b03b 9877 313c 6013 0e3e
00000100: 43ff 153e 9e15 af3d 8d6c 353c a47a 1ebe
00000110: 6668 91bd b218 0dbd 1d0e a03e 4ee5 a6be
00000120: 2ca0 00be 98e0 dabc 38c8 00be d558 143d
00000130: a333 14bd be1f 49bd bd65 f43d 3999 b4be
00000140: 5cfc 1dbe f248 a5bd ff90 883c 5afa 28be
00000150: b77b 8e3d e446 43bd 0461 c83d 8b63 ba3c
00000160: b1cd f5bd b7af 53be ba8d 0cbe b933 f5bd
00000170: 276a 3dbe 422a 99be 6427 5cbd a106 85bd
00000180: 4827 8bbe 4272 0b3e 8e9c 57be 8bf0 28bd
00000190: bf09 21be 7272 713d 5125 42bd 2255 b2be
000001a0: 4059 b0bd e388 8cbe 584a 8cbc 350a c8bc
000001b0: cf7e b13d 6727 17be 9d5f 1bbe e094 51be
000001c0: 3507 863d c28d b5bd 8de7 23be 6805 813c
000001d0: b579 26be 4f98 f4ba 56be 4abd 89c1 2bbe
000001e0: d4a9 ecbd c392 72bd 2065 143d 64e3 dfbd
000001f0: 96a0 c5be d667 e03b ccf8 d53d e97c a33d
00000200: 976c d53c bf61 d13d 2eca 4bbd edf0 57bd
00000210: b842 37be ac66 59be eea0 10be c10a b1bf
00000220: e969 abbe 6258 02bf 4ff7 e7be d306 2bbd
00000230: 977a 36be 16e1 73bd 76e8 1c3e e685 113e
00000240: 41bd aabe 5773 17bf d725 8ebd b213 d83e
00000250: fc45 933d a8a7 24bd dcd8 88be 7256 39bf
00000260: 1693 f7bd 27a2 72bd 0299 01bf dcb8 c23d
00000270: 813b 79bd e419 1cbe 19f9 b43c 1b85 f5bc
00000280: 5a11 fdbe 44d2 9dbe 8c8f 133e 4a44 f2bc
00000290: 3d29 a7be 34a6 093c 1c71 0dbd 513c 09be
000002a0: e0fc 0fbf 5d66 13bf d564 1d3c 956d 1f3c
000002b0: 21d0 f13d c4ac 5bbd 5e10 2dbe 7ee7 1ebe
000002c0: 9a80 32be ed9a febe 9812 58bc 2fb4 a9bd
000002d0: d05c 0e3c 8569 da3c 61ab 48be c027 84be
000002e0: e83f c9bd acd5 3cbf aa40 fa3d 454b b8be
000002f0: d0e7 5bbe b971 3bbd c599 c33c 08b3 e4be
00000300: 17aa f93d 7f39 95be d52d 96be 69ee 00be
00000310: 9827 193e ab64 a7be 333d 2b3e 8cc9 1abf
00000320: d4ec 5ebc c53d cd3d 3c24 1cbe ad17 1a3d
00000330: f041 1ebd 24e1 d13d 1696 6e3d 9ec0 95be
00000340: b865 7cbe 3e6e a73d e148 8cbd 5e71 02be
00000350: 15ab c3be e0cd 0e3e 4434 63bd f2d3 efbd
00000360: 87e8 0b3e 47a7 19be 33dc 033e 6b26 c23c
00000370: 95ad 493e cf58 de3d f319 2fbf 164f 273d
00000380: 674b bbbe 1b0a 8a3d d532 16bf f75f 95bd
00000390: 36fb e63c 176a fd3c e8d0 0cbc 1edc 62be
000003a0: f777 c5be 6df6 6fbe 1cd0 8ebe 2d7e 033f
000003b0: 03b7 c3bd 7ee9 a4be 6e3e 86bf 83d3 aa3d
000003c0: 3b6a 96bd 7309 0dbe e215 09bf bfb5 36bf
000003d0: 4e08 dcbe 458d 0fbe 905f 493d 62e3 303e
000003e0: 1639 ed3e de7c 223e c132 b8bc d1a0 a7bd
000003f0: cf81 b83e ce23 5d3e baca 033f 1e2e 6abf
-0.08021235 -0.014269929 -0.33655104 -0.011855863 -0.023848783 -0.12418948 -0.15344237 -0.035121836
0.11807398 -0.14075968 0.06195243 -0.119010285 0.16122408 -0.1153742 0.17106144 0.016946461
-0.14468887 -0.17845872 -0.3497118 -0.020606121 -0.06636531 -0.35355344 0.0038568727 -0.13406865
-0.07197521 0.1694208 -0.20123354 -0.04439567 0.03247278 -0.0831463 0.080728605 0.014608456
-0.24260831 -0.11867327 -0.1104187 0.017761894 0.16981211 -0.14866708 0.0511431 -0.099282645
-0.015971312 -0.1262182 -0.33713645 -0.060260978 -0.13279465 -0.1342282 -0.048913512 -0.21843709
-0.010406932 0.036991213 0.039499544 -0.08199208 0.12523559 -0.13347258 -0.10659735 -0.046783075
-0.33901915 -0.35909107 0.12790106 0.18426728 0.14074068 0.0053855707 0.010831736 0.13874578
0.14648156 0.08549045 0.011073244 -0.15476471 -0.070999905 -0.03444738 0.31260768 -0.3259682
-0.125611 -0.026718423 -0.12576377 0.03621753 -0.036182057 -0.049102537 0.119334675 -0.3527315
-0.15428299 -0.08070554 0.016670702 -0.16501752 0.069571905 -0.04767503 0.09784129 0.022752544
-0.12002123 -0.20672499 -0.1372594 -0.11972756 -0.18497525 -0.29915053 -0.053748503 -0.06495405
-0.27178407 0.13617805 -0.21055815 -0.041245025 -0.15726374 0.058947034 -0.04739887 -0.34830576
-0.08610773 -0.27448186 -0.017125294 -0.02441893 0.08666765 -0.14761125 -0.15173192 -0.20466948
0.065443434 -0.08864929 -0.16006298 0.015749648 -0.16257365 -0.0018661114 -0.049497925 -0.16773047
-0.1155583 -0.059221994 0.036229253 -0.10932043 -0.3859908 0.0068483157 0.10447845 0.07982809
0.026052756 0.10223722 -0.04975336 -0.05272 -0.17896545 -0.21230572 -0.1412389 -1.3831407
-0.3347924 -0.5091611 -0.4530587 -0.041754555 -0.17820202 -0.05954083 0.15323052 0.14211234
-0.33347514 -0.5916037 -0.06940811 0.42202526 0.07191083 -0.040198952 -0.2672795 -0.7239753
-0.12088601 -0.05923667 -0.50624096 0.095079154 -0.060847763 -0.15244251 0.022091435 -0.029970696
-0.494273 -0.30824482 0.14410228 -0.029573578 -0.3264865 0.008401442 -0.034531698 -0.13401915
-0.5624523 -0.5757807 0.00960656 0.009730716 0.118072756 -0.05363156 -0.16900775 -0.15517995
-0.1743187 -0.49727574 -0.013188027 -0.082863204 0.00868912 0.026661644 -0.19596626 -0.25811577
-0.09826642 -0.7376354 0.12219365 -0.35994926 -0.21475148 -0.04576275 0.023877034 -0.4466784
0.12190645 -0.2914543 -0.29331842 -0.12590946 0.1495651 -0.3269399 0.16722564 -0.60463786
-0.013606269 0.10021547 -0.15248197 0.037620235 -0.0386371 0.1024802 0.0582486 -0.29248518
-0.24648178 0.08175324 -0.06849838 -0.12738559 -0.38216463 0.13945723 -0.055469766 -0.11710347
0.13662921 -0.15005217 0.12876968 0.02369996 0.19695123 0.10856783 -0.6839897 0.040846907
-0.36580965 0.06740209 -0.58671314 -0.072936945 0.028195959 0.030934377 -0.008594729 -0.2215428
-0.38568088 -0.23433848 -0.2789315 0.51364404 -0.09556391 -0.3220939 -1.0487802 0.08341124
-0.073444806 -0.13773136 -0.53549016 -0.7137107 -0.42975086 -0.14018734 0.0491634 0.1727424
0.46332616 0.15867946 -0.022485139 -0.0818497 0.36036536 0.2159569 0.5148121 -0.9147662

hidden_nets.1.bias f4 [128]
00000000: 2fe1 72be bfbe b4bd 187e e2be feb7 9bbe
00000010: cd4f 32be 0f4a 90be ac7b 1bbe 1717 aabe
00000020: c7fe 06be 7a53 2ebe d33e 183e f54e 29bf
00000030: f660 df3d b123 1abe 8b7d 913d 9d26 d4bd
00000040: 0d96 3ebe 74a1 89be 9851 7dbe 709a 8ebe
00000050: 58c7 63be ea18 9d3d 0d54 9bbd f319 5ebe
00000060: ae23 fcbd 91ff 4cbe 9d43 58be b0ae a4bd
00000070: 6eaf c6be 13ab 20be 8d93 37bf b88f 31be
00000080: 68a5 b73c 6b85 d6be 6141 c8be d6c9 07be
00000090: 7783 55be 3c2c cfbd 96cc d1bd 4294 b6be
000000a0: 1bde 83be 4de4 e4be bb35 95be a13e 7dbe
000000b0: ac49 07be b6c6 523d 745d 40be 661a 083d
000000c0: b9fa 10be bd5c 50be bf02 80be ad0e 07be
000000d0: f4de b1bb 0b0d 40be d188 f8be 9117 a6be
000000e0: c4e5 263e dc59 a5be 3dc7 38bd 65af 12be
000000f0: 84a5 54bd 526d 77be 7a6d 1e3e 9e92 983d
00000100: cde8 58be 3b73 80be 5ef8 9bbe b2aa c73c
00000110: 105d 9bbe ec44 abbd 3aa9 dabc 8713 a53d
00000120: 606c 24be 992f 80be f85b 12be 2e1c 32bf
00000130: 8e2f 07bf b3b7 ba3d 07cf eebd 06b6 c9be
00000140: 7281 3dbe 837a f5be c050 cb3d f148 9abe
00000150: 615b 93be 6af5 403e b2b7 13bf d5ce 2f3d
00000160: 70aa eebe 90d4 05be fa98 97be be3e 6cbe
00000170: c209 b1bd e2ed 5ebe 6ab5 633d 29b1 d8be
00000180: 78d0 f8be da68 22be a9a7 f7bd 2da4 f2bd
00000190: 7adc 403e 13f7 85bd e39b e4bd 7308 0bbe
000001a0: eb96 66be fdd4 a2be a472 bd3d 646f f0bd
000001b0: 8604 46be 2368 363d 2927 5dbe 3018 5ebe
000001c0: c14f 66be 865c 62be 0a1b 103e 8f87 bdbd
000001d0: 9b19 8dbe f3f4 cdbd 262e e4be 79c0 5ebe
000001e0: cf3a 3a3e 00aa 74be efae 84be 399e 36be
000001f0: bee8 bdbd 0494 3ebd f789 513e b9ec 63be
-0.23718713 -0.088254444 -0.44236827 -0.30413812 -0.17413254 -0.28181502 -0.15183896 -0.3322074
-0.13183127 -0.17024031 0.14867716 -0.66136104 0.10907166 -0.15052678 0.071040235 -0.103589274
-0.18611927 -0.2688099 -0.24738157 -0.278522 -0.22244012 0.076707676 -0.07584391 -0.21689586
-0.12311493 -0.20019366 -0.21119542 -0.080411315 -0.38805717 -0.1569026 -0.7170952 -0.1733998
0.022417739 -0.41898665 -0.3911238 -0.13260588 -0.20850931 -0.10115859 -0.102441 -0.35659987
-0.2575539 -0.4470543 -0.29142556 -0.24730922 -0.13211697 0.051459037 -0.1878565 0.0332283
-0.14158143 -0.20347877 -0.25002095 -0.13189192 -0.0054281894 -0.18754975 -0.48541883 -0.32439855
0.16298586 -0.3229512 -0.045111883 -0.1432472 -0.05191566 -0.24162796 0.1547145 0.0744984
-0.21182556 -0.25087914 -0.30462927 0.024373386 -0.3034444 -0.08362755 -0.026692022 0.08060365
-0.16056967 -0.25036314 -0.14292896 -0.6957425 -0.5280694 0.09117069 -0.11660581 -0.39396685
-0.1850641 -0.47945032 0.09927511 -0.30133775 -0.28780654 0.18843618 -0.5770217 0.04292186
-0.46614408 -0.13069367 -0.296089 -0.23070809 -0.08644439 -0.21770433 0.05559293 -0.42322662
-0.4859655 -0.1586031 -0.120925255 -0.1184772 0.18834105 -0.06541266 -0.111625455 -0.13577442
-0.22518508 -0.31803122 0.092503816 -0.11739996 -0.19337663 0.044532906 -0.2159697 -0.21688914
-0.22491361 -0.22105607 0.14072815 -0.092543714 -0.27558598 -0.10056486 -0.44566458 -0.2175311
0.18186496 -0.23892975 -0.25914714 -0.17833795 -0.09272908 -0.046527877 0.20462786 -0.22258271

hidden_nets.2.weight f4 [64, 128]
00000000: 9995 8bbc 18e5 033e 22b9 853d e81c 5abd
00000010: ff65 df3d 7a82 0dbe 7074 05be 2b9d 923e
00000020: 3584 333c b86a 26bf be0e b63e fadb 073e
00000030: 91d4 8c3e a591 febc b14b c43d 5ff1 ce3b
00000040: cad7 7abd cd16 4dbe 028d 5ebd 681a 36bc
00000050: 3597 333d bdaf 19be 4222 10bf 8db3 373e
00000060: 541b e7bd 1e9f 013e acc7 2d3e b04d b6bd
00000070: 2d3f 03be ec0d 343e 5986 083e 72e1 acbd
00000080: 9ed3 dabd b753 7f3d fb2e 07bd a0a4 f13c
00000090: 488d 47bc 5b25 5fbc 9135 4ebe df9c 743c
000000a0: 066a bbbc c187 f5bd 3262 1ebe 9a17 2abc
000000b0: 7ebe 3e3e 5880 17be 59db 91bd 40bd 013d
000000c0: 56bb 49be 1aef 5c3d 9425 babe 4e2d 923e
000000d0: c581 3f3e 5bd3 c23e 59f1 b4bc 37bf aebe
000000e0: 3b82 dc3e c3dd 97be e2cf 57be 0b50 adbd
000000f0: 38cf 923d 2526 98be 64fb 01be 82d1 dabd
00000100: d108 493d 7f99 093e 0e00 50bc bc43 9c3d
00000110: 94d3 c9bd 97c7 ddbe 93b9 80bf c044 b5bc
00000120: c351 ef3d a134 5abe f9ca 383e fbd2 02be
00000130: 5265 ecbd 2f16 a8bd 72fb 52be 0b73 82be
00000140: a5b6 c2be 8ccc bcbe a3fb 393e 2291 50bd
00000150: cfac 52be 0365 73be c30d 56bd 294f 07be
00000160: 5acb ab3c 68c8 d7bd c411 9cbc 3b7e d8bd
00000170: 1fd1 a6bd 70ba 93be da4f 523d 4743 bcbd
00000180: 4fdc bb3e 4e7c c2be 326a ab3d 1d97 b0bd
00000190: e72e 493e b405 27be 3ec5 eabc 0d4e 79bd
000001a0: ef69 a83e 3503 9ebe a032 fdbd 7247 433d
000001b0: 0690 273e 01f3 98bd 805e 043e 3ba0 61bd
000001c0: cc25 acbd b528 023f c25b b93e ebe8 d03e
000001d0: 1c1f b6be bf63 c4bd f9f1 09bf f65e 7fbe
000001e0: 087b 713d 2e7e ecbd f835 3c3e 1d51 3f3e
000001f0: cd91 7b3e 4e9d 953e 4c86 b53e e1c0 dabe
00000200: 9675 31be 9702 a3be 0712 85be b0ba f6be
00000210: 1360 103e 8935 0ebc b437 9c3d 0458 8dbe
00000220: 35fb 343e 7a14 03be 0a4c 12be 2983 4abf
00000230: d7d7 8dbe e86f 95bd f3e0 60bf 9d4b febc
00000240: f366 b9bd 468b 33bd 63c7 70bf aee7 0f3e
00000250: 05e1 f53d 24aa e8bd a9c6 dabe 17c2 35be
00000260: 8a8a 8dbc c16b 093d afda 80bf 4b4d 30be
00000270: f9b5 163e 0600 92bb d279 03be 4948 073d
00000280: 7dc4 a13e 5f9c 80be db6a 85be 0952 b6bd
00000290: 9d99 1e3d 14fb d5be 802c 2dbe 0754 c63e
000002a0: 3f07 183e d7a7 65bf 50ca 12bf 2b09 d8be
000002b0: 1473 1abd 665f ff3e c9bc c4be b720 52bf
000002c0: f51a c6be 22b3 87be 9f5c 9fbc fdd8 20bf
000002d0: 4c89 f9be d6c9 a3be 0c94 98bc 71f5 0dbe
000002e0: 56b4 f8be 0b13 c93e 1375 b5bd 8aee 8b3d
000002f0: f5c3 82be 963c e9be 8d39 aabd 8ebf f03e
00000300: 7e98 f53d 887f b1be b05b 68bf bbb7 d8be
00000310: 470f be3e db5f 013d ba37 69bd bb44 8f3d
00000320: 8220 2e3e eace 56be 5706 c2bd 42a9 1dbf
00000330: a68c 23be c666 af3e 0e01 1a3d 87c0 1fbe
00000340: b0c0 043e 5853 4dbf 4d7d c8be 3f9c 3bbe
00000350: 1bf1 c4be ca13 2abf 01ef 13bd 1a32 0f3f
00000360: a8cf 333d 4bac 793d c0a9 dfbe 9473 84be
00000370: fae4 74be 30ce e6bd 0183 afbe 48e0 8ebf
00000380: 7302 ac3e 6272 0c3d 5256 eebd d539 d23e
00000390: 9d03 e4be eaf2 efbe c443 313d 1455 943b
000003a0: 2af2 28bf e5e0 1dbf 8e13 023e d989 01be
000003b0: d132 6bbc 85b8 9a3e 109b 9ebe 46d2 3ebe
000003c0: 5d92 8bbf 1b23 9abf f91a 153e f716 0fbd
000003d0: 13af 1d3e d08b 8fbf bf5e bfbe c8a8 80be
000003e0: e376 68be 0ce0 113e e46d 57be 34b6 d0be
000003f0: 4ca6 22be 3583 c3be 3885 1ebf dd65 d13d
-0.017039107 0.12880361 0.06529452 -0.053250223 0.10908126 -0.13819304 -0.13032699 0.28635535
0.010956814 -0.6500659 0.35558122 0.13267508 0.27505925 -0.031075308 0.095847495 0.006315395
-0.06124095 -0.20028229 -0.054333694 -0.011114694 0.043845374 -0.15008445 -0.56302273 0.17939587
-0.11284509 0.12658355 0.169707 -0.089015365 -0.12817068 0.17583436 0.133325 -0.08441438
-0.10684894 0.062335696 -0.03300379 0.029497445 -0.01217968 -0.013619746 -0.20137621 0.014929979
-0.022877704 -0.11988784 -0.15467146 -0.010381604 0.18627355 -0.14795053 -0.07121915 0.031674623
-0.19700369 0.053938963 -0.36356795 0.2855019 0.18701847 0.38051876 -0.02208774 -0.3413026
0.43068108 -0.29661378 -0.21075395 -0.084625326 0.0716843 -0.29716602 -0.12693554 -0.10684492
0.049080674 0.1343746 -0.012695326 0.07630107 -0.098548084 -0.43316337 -1.0056633 -0.02212751
0.11685517 -0.21309139 0.18046178 -0.12775795 -0.11542763 -0.08207356 -0.20603731 -0.25478396
-0.38029972 -0.36874807 0.18162398 -0.05091966 -0.20573734 -0.23769002 -0.052259218 -0.13213791
0.020970989 -0.10536271 -0.01905144 -0.105709516 -0.081453554 -0.28853178 0.051345684 -0.0919252
0.3669152 -0.37985462 0.083698645 -0.086225726 0.19646798 -0.1631077 -0.028658506 -0.06086545
0.3289332 -0.30861822 -0.123631716 0.047675557 0.16363534 -0.07468224 0.12926674 -0.05508445
-0.08405647 0.50843364 0.36202818 0.40802702 -0.3557061 -0.095893376 -0.53884846 -0.24938568
0.058955222 -0.11547504 0.18379962 0.18683286 0.24567337 0.29221576 0.35454023 -0.4272528
-0.17330012 -0.31837913 -0.25990316 -0.48189306 0.1409915 -0.008679756 0.07627812 -0.27606213
0.17673953 -0.1280078 -0.14286819 -0.79106385 -0.27703735 -0.07296735 -0.87843245 -0.031041915
-0.09052839 -0.043833993 -0.9405424 0.14053223 0.1200581 -0.11360577 -0.4272969 -0.1774982
-0.017277975 0.033550028 -1.0066737 -0.17216985 0.14717855 -0.004455569 -0.1283944 0.03302792
0.3159522 -0.25119302 -0.26058087 -0.08902366 0.038720716 -0.4179312 -0.16911507 0.38735983
0.14846514 -0.8970923 -0.57339954 -0.42194495 -0.037707403 0.4987747 -0.38425282 -0.8208117
-0.38692442 -0.26503855 -0.019453345 -0.628311 -0.48737562 -0.31989926 -0.018625282 -0.1386316
-0.48575085 0.3927234 -0.08860221 0.06832607 -0.25540128 -0.45554036 -0.08311758 0.47021145
0.11991976 -0.3466761 -0.90764904 -0.42327675 0.3712103 0.031585556 -0.05693791 0.06995531
0.17004588 -0.20977369 -0.094738655 -0.6158639 -0.15971622 0.34258097 0.037598662 -0.15600787
0.1296413 -0.802053 -0.39158097 -0.18321322 -0.384652 -0.66436446 -0.036116604 0.55935824
0.04389921 0.060955327 -0.43684196 -0.2586943 -0.23915473 -0.11269796 -0.34279636 -1.1162195
0.3359562 0.03428877 -0.11637558 0.41059747 -0.44534007 -0.46865016 0.043277517 0.0045267437
-0.65994513 -0.61671287 0.12702772 -0.12650241 -0.014355377 0.30218902 -0.30977678 -0.186349
-1.0904042 -1.2041963 0.1456107 -0.03493401 0.15398817 -1.1214542 -0.37376973 -0.2512877
-0.22701602 0.14245623 -0.21038014 -0.4076401 -0.1588375 -0.3818604 -0.61922026 0.10224507

hidden_nets.2.bias f4 [64]
00000000: 51e3 1d3f 7897 8fbe f52c 44bd 3896 313f
00000010: 5561 383f e0e4 6b3f d0ac e63d 5b9b 21be
00000020: 1681 bc3e e8ed 313f 3572 103f 22c5 4b3f
00000030: 4b66 0b3f 4675 5a3f 26d3 0b3f 09b5 3a3f
00000040: 7376 2fbe af4e d7be 643a 40be f0d9 69be
00000050: 387d bd3e a3b2 b2bd fec7 283f cbc1 0f3f
00000060: 0622 e33e 6b32 373f 1d95 333f bae9 3b3f
00000070: f7a6 06bf 1f14 1a3f fb32 793f aefa 3c3f
00000080: e317 453f 049d bf3e feb0 353f 685b 81be
00000090: 60e7 3b3f d170 6c3f 9e72 303f fb7a 3a3f
000000a0: 44e6 3bbe 13b6 3b3f aaef 853e c881 4a3f
000000b0: c0c1 3b3f 0fc0 0c3f b5e2 4dbe 4e7e 2d3f
000000c0: 79cd c53e d99c 283f d002 403f 6edc 3f3f
000000d0: fad0 66ba 906c 0f3f 2897 3d3f abe5 f13e
000000e0: ba19 263f 160f c93e e0bf 743f ecaa e8bd
000000f0: 163f 0e3f 97bd 313f f336 a63e 70af 08be
0.6167498 -0.2804525 -0.047894437 0.6936984 0.72023517 0.9214611 0.1126343 -0.1578192
0.36817235 0.6950364 0.56424266 0.79597676 0.5445296 0.85335195 0.5461906 0.7293249
-0.17135029 -0.42052218 -0.18772274 -0.22837043 0.37009597 -0.087254785 0.65930164 0.5615508
0.44361895 0.71561307 0.70149404 0.73403513 -0.5259852 0.6018695 0.97343415 0.73820007
0.76989573 0.3742448 0.70973194 -0.2526505 0.73399925 0.92359644 0.6892489 0.72843903
-0.18349558 0.733247 0.26159412 0.7910428 0.73342514 0.5498056 -0.20106013 0.6777085
0.38633326 0.6586433 0.7500429 0.74945724 -0.00088049436 0.5602503 0.7405877 0.47245535
0.64883006 0.39269322 0.9560528 -0.11360726 0.5556501 0.69429916 0.32463798 -0.13348174

value_stream.weight f4 [1, 64]
00000000: 90c8 c03e 4dcf da3e 9a03 f63e eddc ef3e
00000010: ba12 b63e 75ab 8d3f 43d5 37bf b034 0d3f
00000020: e749 2cbf b4c9 cc3e 90d4 ca3e 9c8d 2a3f
00000030: 5d2a 3ebf 7c3b cb3e 9389 ba3e e581 c63e
00000040: 9bdd 763d 112d b93e 47af 7cbe e7ee 15bd
00000050: b992 7ebf 143b b63c 61ed c03e bb75 cc3e
00000060: d252 b5bf 0706 bf3e 3b69 bb3e 9567 bb3e
00000070: 3cfa 0b3f bf1c ce3e 4605 763f 73a6 bf3e
00000080: a633 b53e f624 c83e 3828 dd3e e351 4c3c
00000090: ef67 ae3e df43 743f 87cc a43b 9cc1 c43e
000000a0: 318b 393d 1475 cb3e 99ab 96bf 6391 563f
000000b0: 5b4c ba3e a917 c93e 363a e03b dd06 b63e
000000c0: 31a6 95bf 2a39 cd3e cf85 b53e c042 b73e
000000d0: f45e f13e ed1f cb3e 41f7 b53e 4bfa b83e
000000e0: 901a c83e a055 6abf 03a4 853f 93e2 dcbd
000000f0: 3a32 c73e 3274 c73e 70ca d03e 3ac5 71be
0.37653017 0.42736283 0.48049623 0.4684824 0.35561162 1.106795 -0.71809787 0.5515852
-0.67300266 0.39997637 0.39615297 0.6662233 -0.7428339 0.3969382 0.36433086 0.38770977
0.060269933 0.36167195 -0.24676238 -0.03660479 -0.9944263 0.022244968 0.37681106 0.3993357
-1.41659 0.37309286 0.36603722 0.36602464 0.546787 0.40256307 0.96101797 0.37431678
0.35390967 0.390907 0.43194747 0.012470695 0.3406367 0.95416063 0.0050292644 0.38428962
0.04529876 0.3973776 -1.1771117 0.8381559 0.3638638 0.39275864 0.006842877 0.3555211
-1.1691343 0.40082675 0.3545365 0.35793114 0.47142756 0.39672795 0.35540202 0.36128458
0.39082766 -0.91536903 1.0440677 -0.10785403 0.38905507 0.38955837 0.40779448 -0.23610392

advantage_stream.weight f4 [5, 64]
00000000: d072 a4bd daec 14be 157a 17bc 0c37 dabd
00000010: ec13 d03d f638 43bd fc08 f2bd a051 85bd
00000020: d6d2 903d 15b7 f43d 0372 7ebd f65b 2e3d
00000030: 450d a8bd ee30 2f3d c551 36bb d12f 7fbc
00000040: 810b 0b3e 9dcb 4e3b 361a 893e c0cd 89be
00000050: 7095 83be 8999 993d 8805 d1bc bf3f 02bd
00000060: 840a 0c3e cf8a 133d 96ad f63d 86f8 383c
00000070: 70ff 98bd 72ca 273d 1e47 adbd 70bd a23d
00000080: 89f6 febb 052d ebbc 700c 8d3c ea7b d63c
00000090: 4cda 8c3d f29f 023d a615 19be d514 dd3d
000000a0: e004 30bd 374f 493e 8914 d73d 935f 163e
000000b0: d01d e63d d7d7 cdbc 0d98 43be 2784 f43d
000000c0: 92f0 933d 4ea9 79bd 84a8 b43d 9858 02bd
000000d0: 92d4 71bc 7d22 2ebd 9445 1bbc 86b4 4bbd
000000e0: 9f88 b9bd 31f2 90bd 4e5c 03bd d684 15bd
000000f0: 74ef 40bd be98 8cbd ab95 90bd f303 4d3e
00000100: 2042 8ebd 1686 073e e689 a53d 7563 5abc
00000110: 30c8 913b 2e89 d0bd fae5 89be b577 a6bc
00000120: a841 023e 2ca0 143e 376c a2bd 3266 123e
00000130: a959 5ebd d29a d9bd 0cd9 023c 1349 87bd
00000140: 7321 673e 287b 5fbe f77d 9e3e 1c8e 263d
00000150: 5bc3 d23d 79ab 05be 96f7 c2bd e045 073c
00000160: 3910 603e 3581 02bd 95d1 0c3d ae9a 8bbd
00000170: cfe5 a1be aacd 8c3d 4013 d4bd 803f 92bc
00000180: c062 2fbd b4e2 7d3d 4c34 b63d f6ed 823e
00000190: 1c33 adbc 01d4 c73d c58c 0fbe ed39 3b3d
000001a0: 668d 1e3e e1da aa3d 6d72 aebd 5ccd b93d
000001b0: c111 843d 6491 edbc e21f 2dbe 7ff9 043d
000001c0: 1ac5 abbe e0c0 fe3c a95a 223c bb0d 23be
000001d0: fff9 56bd a751 96bd 019b c4bd 7f34 bdbd
000001e0: ac01 e4bd 95cc 303e 3cec b2bd 8b16 1bbe
000001f0: 2b59 9ebd b74f d7bd 084c 493c c659 4c3d
00000200: 4f25 8bbb 97a9 e03d f051 4f3c 0d3b f6bd
00000210: 9ac8 2f3e d4c0 503c 3776 f9bd c53c fd39
00000220: 258a c03e 4ed4 323e 6aac 203d ad47 fb3d
00000230: e2e5 e63e b4b4 6a3e 7920 023e 71b0 1e3d
00000240: 66ba 1ebe 8044 c93e 597a a8be 51ff 92be
00000250: 89b5 48be adf1 0bbe 023a 91bc aa63 b8bb
00000260: b5b7 60be ab83 593d 210a 403e 93b8 c43b
00000270: 5ad9 8b3e a28f 213e 9c69 38be 0b78 173e
00000280: 7129 9c3d b1ec 213d 2dee b93b 4a83 413e
00000290: e7d9 353e cf3e e73d a654 e73e a72a 173e
000002a0: 4ee1 94be 54f4 743e a642 17bf 4efd 2abc
000002b0: 416b 423e 56cd 4c3c c144 16be 7a37 b13d
000002c0: 8cb3 8ebc 7267 643c 09aa e33d 5718 603d
000002d0: ddd2 06be 1cbe d13c 6ed0 2d3d 584d 43bd
000002e0: 9fb8 a83c 8ab3 053f 65dd e13d 2bad cebc
000002f0: 3de7 4a3d 4717 6ebd e140 2b3d 78a0 ff3c
00000300: af28 23bd 3493 bebe 2623 753d 0aff a9bd
00000310: 22c5 2a3d 32cb a8bd 03c2 96bd a8ad 023d
00000320: d680 02be a4b3 8f3d 3f2f 9fbc 8b0b ff3c
00000330: 14b0 41bd f5bc 4a3d c3e4 313d 49bb 2b3c
00000340: c731 5f3b ed55 6bbd bb39 bb3d 8ac3 7a3e
00000350: aee8 233d 2165 19be b2bb 5fbd 41ee bdbc
00000360: 117d a33b 21e3 3f3d 030b ca3c 6e41 0bbd
00000370: 157c 92bb 88a0 d43d ae8d 9fbb b719 4a3c
00000380: c002 b5bb a69d 493d bdcd 9dbd 026b d13d
00000390: c1c2 ce3d 7192 e93d 30b7 313d 9d53 e53d
000003a0: c394 3f3e a161 243e 464c 9b3d c7c2 003e
000003b0: 579b f03d 6b1a 84bd cf6e 16be 382f 9d3d
000003c0: 2d09 88be 68f9 ce3c 3e93 823d fa29 98bc
000003d0: fb54 81bd b656 59bd 3074 70bc 9d0c 4c3b
000003e0: 53af 9fbc 81af 02be 8d91 89bd 832c 2b3e
000003f0: 9abf 20bd 8510 b8bd e0f4 37bc 3971 6f3c
-0.08029711 -0.14543477 -0.009245415 -0.106550306 0.1016005 -0.047661744 -0.1181812 -0.06509709
0.07071464 0.119489826 -0.06212045 0.04256817 -0.08205656 0.042771272 -0.0027819735 -0.015575365
0.13578607 0.0031554468 0.2677781 -0.26914787 -0.2569995 0.07499988 -0.025515333 -0.031799074
0.13675886 0.03602105 0.12044828 0.011289721 -0.07470596 0.04096455 -0.0846083 0.079462886
-0.007780854 -0.02870799 0.017217845 0.026182134 0.06877574 0.031890817 -0.14949664 0.10794989
-0.0429734 0.19659124 0.10501964 0.14684896 0.11236155 -0.025127335 -0.19100972 0.119392686
0.072236195 -0.060952477 0.08821204 -0.03182277 -0.014760153 -0.04251336 -0.009477038 -0.049732707
-0.090592615 -0.07077444 -0.03207045 -0.036503635 -0.04710336 -0.06865071 -0.07059797 0.20021038
-0.06946206 0.13234743 0.08082943 -0.0133293765 0.004448913 -0.10182415 -0.2693327 -0.020320753
0.12720358 0.14514226 -0.079307966 0.14296797 -0.054284725 -0.10625233 0.007986318 -0.06605735
0.22571354 -0.21824324 0.3095548 0.04066287 0.10291167 -0.13053693 -0.095198795 0.008256406
0.21881188 -0.031861503 0.03437956 -0.06816612 -0.31620643 0.06875165 -0.10355234 -0.017852545
-0.042818785 0.06198378 0.088966936 0.25572175 -0.021142535 0.097572334 -0.14018543 0.04570954
0.15483627 0.08342529 -0.08517919 0.09072372 0.06448699 -0.028999992 -0.16906694 0.0324645
-0.33548814 0.03109783 0.00990931 -0.15923207 -0.05248451 -0.07339793 -0.09599877 -0.092385285
-0.111331314 0.17265542 -0.087364644 -0.15145318 -0.07731851 -0.10513251 0.012286194 0.049890302
-0.004246391 0.10969847 0.012653813 -0.12022982 0.17166367 0.012741286 -0.12180751 0.00048301197
0.37605396 0.174638 0.039226927 0.122695304 0.45097262 0.22920495 0.127077 0.038742486
-0.15500793 0.39310074 -0.32905844 -0.28710416 -0.196005 -0.1366641 -0.017727856 -0.0056271153
-0.21945079 0.053104084 0.18753864 0.0060034483 0.27314264 0.15777448 -0.18009037 0.14791887
0.07625092 0.039532367 0.0056741447 0.18897739 0.17758904 0.11291277 0.4518177 0.14762364
-0.29078144 0.23921329 -0.5908607 -0.010436369 0.18986227 0.012500128 -0.14674665 0.086531594
-0.017419599 0.013940679 0.11116416 0.054710712 -0.13166375 0.025603347 0.042435102 -0.047681183
0.020595847 0.5222708 0.11028556 -0.025229057 0.049536932 -0.058127668 0.04180992 0.031204447
-0.03983372 -0.37221682 0.059847973 -0.08300598 0.041691907 -0.082418814 -0.073612235 0.031903893
-0.1274446 0.070166856 -0.019431708 0.031133434 -0.04728706 0.04949661 0.043431055 0.010481664
0.003405677 -0.057454992 0.091418706 0.24488655 0.040016823 -0.14979984 -0.05462236 -0.023184897
0.0049892743 0.046847466 0.024663454 -0.033997945 -0.004470358 0.103821814 -0.0048691845 0.012335232
-0.0055240095 0.04922261 -0.07705257 0.10225488 0.1009574 0.114048846 0.04338759 0.111975886
0.18709092 0.16052867 0.075829074 0.12574302 0.11748379 -0.06450351 -0.14690708 0.07675022
-0.265695 0.02526541 0.063757405 -0.018574703 -0.06315037 -0.05306121 -0.014676139 0.0031135448
-0.01949278 -0.12762262 -0.06717215 0.16716199 -0.039245225 -0.08987526 -0.011227816 0.014614397

advantage_stream.bias f4 [5]
00000000: 962c a4be 861a af3e 7bb2 f2bf 1249 5dbe
00000010: 1f61 b23f
-0.32065266 0.34199923 -1.8960718 -0.21609905 1.3935889

hidden_nets.0.weight f4 [128, 11]
00000000: bb15 9b3c d769 d1bc 48d2 78be 38d1 23be
00000010: 7b2e 2abe eccf c73d 6676 60bd a4de 72bd
00000020: ea00 e93d 2815 aabe 47e0 d0bd b5c6 a63b
00000030: 9f89 a83d 4b90 1bbe 2a55 97bd 9c4e bf3a
00000040: bcb4 c2bd 2f97 c9bd fc92 7dbe 671c 34be
00000050: fe35 75be 524a 153e 1ae9 80bd c359 b5be
00000060: c8fb 4ebd 6c03 e53d c36f 3a3f 09fa 9f3c
00000070: e149 9bbb b962 81be c3b1 08be 6201 db3c
00000080: c11e 54bd 7bb0 a4be b062 f9bd 3fd2 9f3d
00000090: 59dd edbe 70f4 1cbd 7141 b5be eff0 413e
000000a0: 3e89 46bd 118d 8e3d 36d2 663e f3d7 c6bc
000000b0: 70c5 083f 9490 b4bc 8d4e 49be 821b 923d
000000c0: 2276 f6be 79b3 7ebe 2ba1 7bbd 8639 35be
000000d0: 0794 ea3b c9ce b7bd 7a71 13bd 767f 8abd
000000e0: 19b0 70be e0bb 05be 26c4 95bd 7c5d 953d
000000f0: 25ef 4cbe 1ef9 8cbd 78a3 16be a61e dc3d
00000100: 9ff4 e5bd c943 4c3e e04a 85bf 0335 44bb
00000110: a3ab 08bf 7327 2ebc d830 debe 66e6 12be
00000120: 7df3 31be d3a4 87bd 03a5 0dbe 8b2d 68be
00000130: c9b8 e1bd ec7d 94bf 7acc 0c3d 9400 da3d
00000140: 3142 a3be e540 c0be 6618 f73d f294 a23e
00000150: cabc 113e 4df7 093e a47b 9cbe 7b89 d43c
00000160: 4715 90bd 735e 87bd b37e 5fbe eb40 993d
00000170: 4d34 8bbb 0719 9abe 76fb d8bd 18ae 0dbe
00000180: 8725 f4bd a10d 9ebe 52ab 943d e52f 20bf
00000190: 47b5 d1be 431b 853e be7f e93d 5203 4f3f
000001a0: ee53 9a3d c400 eb3c 64a2 51be d4d4 1e3d
000001b0: ebba 363d 66f0 523d a806 7fbd 9409 253d
000001c0: 02ed 2cbf 2ab4 23ba 8fb1 33bf 012e 473d
000001d0: 7ff0 97be db5e 553e 52a2 12be 3fa7 7b3e
000001e0: 32f8 f53e 0922 dfbe b3f8 58be fbb3 b73d
000001f0: 74c1 eabe 763e 76bd d565 1fbe bf5a e9bd
00000200: 50ab 72be bf14 813d 43f1 253e 1e10 44be
00000210: ceb3 45bf 63b4 1bbe 22ac af3e da05 b1be
00000220: 8c51 94be a38e 043e 48b0 ae3e edb2 0dbd
00000230: ebbf a13d a777 05bf 404c a2ba d324 303d
00000240: 9d54 79be cdde cc3d 8e0f 033e 0667 0b3e
00000250: b2f4 94be da83 a4bd b192 9dbe af59 173e
00000260: 954a f2bd 767a 633e 2f84 363f de63 cbbe
00000270: 1787 b73d 57f0 05be f21f 5f3d bb84 83bd
00000280: e529 06be 37a5 c9be dc68 04be bad8 89bd
00000290: 9d18 f6bd f5ed 4cbd 1561 f23c 86d5 25be
000002a0: 7f02 e6bd 5118 32be 86c1 103c d339 293d
000002b0: e0be dfbd 1b6e fa3d 54ae 19be 752a cf3d
000002c0: 501b 343e 6501 73be 4136 17be f43c a13e
000002d0: 2a87 43bf f0ee 103e 79ed 2b3e f157 99bc
000002e0: 4ad2 cf3b 1861 f43c 5074 413d 3fc4 b5be
000002f0: 53f4 5ebc fae6 85bf 9b2f 1cbf ba14 f5be
00000300: bc83 c4be ce09 cbbe 56a1 63bd 35c0 f5bd
00000310: 5023 a63e 7862 d33e 32d7 98be 0069 e2be
00000320: c556 85be 52ed 32bd 0fe3 4f3f 77e9 f33c
00000330: acdf 79be 0774 81be d15e 0e3e 72b7 d6bc
00000340: 3b49 4a3c 231e c73e 1758 323d 1212 f5be
00000350: 4d1a 673c 8162 23bf f9a3 1e3e b8dc 513e
00000360: 580f 6ebe 933e 4939 86e4 47bd 2ed1 613d
00000370: 3fe6 693e 1024 60be 3281 b1be 127a 26bd
00000380: 674b bf3c ae06 37be 47b1 413e 0bc4 c8be
00000390: d217 c23d 9a29 aa3e 3c47 163e 3e54 1f3f
000003a0: e50f 70be 6086 2fbe f191 803c dba5 113f
000003b0: bb6a f9bd 8697 3bbd aad0 d0be d82d 33be
000003c0: 13d7 563c 0df5 2ebe 9991 3bbf 8cbd 243e
000003d0: 0979 febe 19d1 36bf e6b9 1ebf 1854 3dbd
000003e0: 7224 1d3e a251 0c3f 3372 19be 4542 c93d
000003f0: a53a babc efa0 4fbe 1959 c13c 8f28 193f
0.01893126 -0.025563164 -0.24298966 -0.1599778 -0.16619293 0.09756455 -0.054800414 -0.059294358
0.113771275 -0.33219266 -0.101990275 0.0050896057 0.08229374 -0.15191762 -0.07389291 0.0014595571
-0.095071286 -0.09843289 -0.24763101 -0.1758896 -0.23946378 0.14579132 -0.062944606 -0.35420045
-0.050533086 0.11182293 0.72826785 0.019528406 -0.0047390317 -0.25270632 -0.1334906 0.026734058
-0.05178714 -0.32165894 -0.12177026 0.07803773 -0.46457937 -0.03831905 -0.3540149 0.18939565
-0.048470728 0.069605 0.22541127 -0.024272894 0.53426266 -0.022041596 -0.19658871 0.07134153
-0.48137003 -0.24873151 -0.061433 -0.17697725 0.0071587595 -0.08974988 -0.03599689 -0.067625925
-0.23504676 -0.1305995 -0.07312803 0.07293221 -0.20013101 -0.06883453 -0.14710796 0.10748033
-0.112282984 0.19947733 -1.0413475 -0.0029938824 -0.53386897 -0.010629523 -0.4339664 -0.14345703
-0.1737804 -0.066232346 -0.13832478 -0.22673623 -0.11021573 -1.1600928 0.03437469 0.106446415
-0.31886438 -0.3754951 0.120652005 0.3175426 0.14232174 0.13473244 -0.3056308 0.025944462
-0.07035308 -0.06609812 -0.21825676 0.07483085 -0.004248178 -0.3009722 -0.10594837 -0.13835943
-0.1192122 -0.30869773 0.07259239 -0.6257308 -0.40958616 0.25997362 0.11401318 0.8086444
0.075355396 0.028686889 -0.20472103 0.038777187 0.044611853 0.051498793 -0.062262207 0.040292338
-0.67549145 -0.0006244803 -0.7019281 0.048627857 -0.2967567 0.20836966 -0.14319733 0.24575518
0.4804092 -0.43580654 -0.21188621 0.089698754 -0.45850718 -0.06011816 -0.1556619 -0.113942616
-0.23698163 0.06302785 0.16205315 -0.19146773 -0.77227485 -0.15205531 0.34311014 -0.34574777
-0.28968465 0.12945037 0.34118867 -0.034594465 0.078979336 -0.521357 -0.0012382343 0.04300387
-0.24348684 0.100034334 0.12798902 0.13613519 -0.29092938 -0.08032961 -0.3077598 0.14780305
-0.11830632 0.22214684 0.71295446 -0.3972463 0.08961313 -0.13079964 0.054473825 -0.06421801
-0.13101919 -0.3938386 -0.12930626 -0.067307904 -0.12016413 -0.05003162 0.029587308 -0.16194734
-0.11230945 -0.17392088 0.008835202 0.04131491 -0.109250784 0.12228032 -0.15007907 0.1011552
0.17588544 -0.23731 -0.1476679 0.31491816 -0.7637812 0.14153647 0.16789807 -0.018718692
0.006342207 0.029831454 0.047230065 -0.35501286 -0.013608056 -1.0461113 -0.6101014 -0.47867376
-0.38381755 -0.39655918 -0.055573784 -0.11999551 0.32448816 0.41286063 -0.2985168 -0.44220734
-0.26042762 -0.043683358 0.8120584 0.02977441 -0.2440173 -0.25283834 0.13903357 -0.02621052
0.012346561 0.3889018 0.04354104 -0.4786535 0.014105392 -0.6382218 0.15492238 0.20494354
-0.2324804 0.00019192164 -0.04880192 0.05513113 0.22841738 -0.21888757 -0.3466888 -0.04064376
0.023351384 -0.17873642 0.18915282 -0.3921207 0.094771996 0.33234864 0.14675611 0.6223792
-0.23443563 -0.17141104 0.01569459 0.568937 -0.1217856 -0.0457988 -0.40784198 -0.17497957
0.013112801 -0.17085667 -0.7326904 0.16087931 -0.49701717 -0.7141281 -0.6200241 -0.046222776
0.15345934 0.5481206 -0.1498497 0.09827093 -0.022733042 -0.20276235 0.023602055 0.5982751

hidden_nets.0.bias f4 [128]
00000000: 30f4 19bd 15d7 a7bd bd4c e2be 67de 9fbd
00000010: f9cd c2bd 6b33 e9bd e52f 75bd f0ec 143e
00000020: ce93 96bd 1493 c7be 8364 083e 0c5f 38bd
00000030: 6e9e 2fbe 9a6e 15be 754c c4be bee5 8fbc
00000040: db40 38be a8d7 bc3d 5843 bdbe 3e7c e3bd
00000050: ed06 4dbe 5d9e f1be e840 c03e 7984 96be
00000060: f0cc 73bd de41 ce3b 756b 90be d543 37be
00000070: 825f 843e 011d 963e dd05 1dbe a467 e3bc
00000080: 03be 873c 8e1b aabc 0ef6 7cbe dac6 d3bd
00000090: 2f8e 2b3d 1d0e 4abd 6976 d9bc 29a7 5fbe
000000a0: c5a1 5b3d 79a0 28be a74b 4b3e fba5 08be
000000b0: 762b c23d cb47 1dbe e804 a9be 6473 3abd
000000c0: 4d48 8dbd fa51 84be fd7a 043f 79be d6be
000000d0: ceb0 38bd 3210 c2bd 0404 8d3c 5694 f1bd
000000e0: 0d65 a1be b003 203a 04a3 42bd 8484 ea3d
000000f0: 0752 debd 5870 1cbe 27b4 26be 5643 82be
00000100: 040c edbc eecd 08bd 9dc7 b53e 2945 25be
00000110: 57da 453e d838 49bd a9a5 0fbe 3362 3d3e
00000120: 94f6 05bd 9a8f b4be ddac d3bd 7840 39bd
00000130: 90bb d2bd d73a 2fbe 0000 0000 215f 4b3e
00000140: 2b8a 29be c9d5 1cbe 49af 25be f864 e8be
00000150: d025 69bd 0000 0000 9271 93bc 5b48 00be
00000160: 93f6 2abd ee8a ff3d 97df c0bd 196e af3e
00000170: e8e3 89be 6589 cabd 9d9f 833e 9137 40be
00000180: fccd df3e a6b8 98bd a14d 6fbc 4822 27be
00000190: 6144 d7bd 7ef0 b4bd eecc 7ebc 6ae2 dc3d
000001a0: 1fa1 113d 2b80 1e3e 25d9 6bbe df31 723e
000001b0: 22b6 3fbe d48c 983c 8c05 1dbe dc97 3fbe
000001c0: a629 4a3d ee26 7dbd f83d 7bbd de96 9b3d
000001d0: 15a7 b53e 25ac a8bd b957 4cbd 6a22 5f3e
000001e0: bb5a b33e 45f8 a6be ef33 c6bd 2434 74bd
000001f0: b2e0 29be 39fd 2ebe 73c2 6b3e 062b 8f3e
-0.03758639 -0.081953205 -0.44199172 -0.07806092 -0.095119424 -0.1138676 -0.05986013 0.1454351
-0.0735241 -0.389794 0.13319592 -0.04501252 -0.1715028 -0.14592972 -0.38339582 -0.017565604
-0.1799349 0.09220821 -0.36965442 -0.11107682 -0.20022173 -0.47191134 0.3754952 -0.29397944
-0.059521616 0.006294473 -0.28206983 -0.1789697 0.25854117 0.29319003 -0.15334268 -0.02775938
0.016570097 -0.020765092 -0.24703237 -0.10340662 0.041883644 -0.049329866 -0.02654572 -0.2184111
0.053621072 -0.16467465 0.19853078 -0.13344567 0.09480946 -0.15359418 -0.33011556 -0.0455202
-0.06898556 -0.25843793 0.51750165 -0.41942194 -0.04509049 -0.09475745 0.017213829 -0.11795871
-0.31522408 0.0006104065 -0.047518745 0.114510566 -0.10855489 -0.1527723 -0.1627966 -0.25441998
-0.028936394 -0.033399515 0.35503855 -0.16139664 0.19321571 -0.049126476 -0.14028038 0.18494491
-0.03270586 -0.3526581 -0.103357054 -0.045227498 -0.10289681 -0.1711229 0.0 0.19860508
-0.16556613 -0.15315928 -0.16180147 -0.45389533 -0.056920826 0.0 -0.01799849 -0.12527601
-0.041739058 0.124776706 -0.094176464 0.34263685 -0.2693169 -0.09889487 0.25707713 -0.18771197
0.4371184 -0.07457094 -0.0146059105 -0.16321671 -0.10511089 -0.08834933 -0.015551789 0.107853726
0.035554048 0.1547858 -0.23032053 0.23651837 -0.18721822 0.01862184 -0.15334147 -0.18710274
0.049356125 -0.061804704 -0.061338395 0.07597135 0.35479036 -0.08235959 -0.049888346 0.21790472
0.3503016 -0.3261129 -0.09677874 -0.059620038 -0.1658962 -0.17088784 0.23023395 0.27962512

hidden_nets.1.weight f4 [128, 128]
00000000: 5f46 a4bd 6ccc 69bc 6b50 acbe 183f 42bc
00000010: 865e c3bc 0e57 febd ff1f 1dbe eadb 0fbd
00000020: c5d0 f13d 4e23 10be d5c1 7d3d aabb f3bd
00000030: ed17 253e 4f49 ecbd bb2a 2f3e 4ed3 8a3c
00000040: 5229 14be e2bd 36be 6d0d b3be 2bce a8bc
00000050: 89ea 87bd f504 b5be 96c3 7c3b 4b49 09be
00000060: bd67 93bd a57c 2d3e 2a10 4ebe 3cd8 35bd
00000070: 2e02 053d 9b48 aabd 0a55 a53d 4e58 6f3c
00000080: 506e 78be f90a f3bd 3323 e2bd 6481 913c
00000090: 3ae3 2d3e 2f3c 18be 6d7b 513d b354 cbbd
000000a0: 45d6 82bc 583f 01be 269d acbe 37d4 76bd
000000b0: 52fb 07be 1e73 09be 8959 48bd f9ad 5fbe
000000c0: d681 2abc 1984 173d 46ca 213d 77eb a7bd
000000d0: c23d 003e 09ad 08be b64f dabd 9c9f 3fbd
000000e0: eb93 adbe c9da b7be 7ff8 023e 90b0 3c3e
000000f0: 531e 103e 7179 b03b 9877 313c 6013 0e3e
00000100: 43ff 153e 9e15 af3d 8d6c 353c a47a 1ebe
00000110: 6668 91bd b218 0dbd 1d0e a03e 4ee5 a6be
00000120: 2ca0 00be 98e0 dabc 38c8 00be d558 143d
00000130: a333 14bd be1f 49bd bd65 f43d 3999 b4be
00000140: 5cfc 1dbe f248 a5bd ff90 883c 5afa 28be
00000150: b77b 8e3d e446 43bd 0461 c83d 8b63 ba3c
00000160: b1cd f5bd b7af 53be ba8d 0cbe b933 f5bd
00000170: 276a 3dbe 422a 99be 6427 5cbd a106 85bd
00000180: 4827 8bbe 4272 0b3e 8e9c 57be 8bf0 28bd
00000190: bf09 21be 7272 713d 5125 42bd 2255 b2be
000001a0: 4059 b0bd e388 8cbe 584a 8cbc 350a c8bc
000001b0: cf7e b13d 6727 17be 9d5f 1bbe e094 51be
000001c0: 3507 863d c28d b5bd 8de7 23be 6805 813c
000001d0: b579 26be 4f98 f4ba 56be 4abd 89c1 2bbe
000001e0: d4a9 ecbd c392 72bd 2065 143d 64e3 dfbd
000001f0: 96a0 c5be d667 e03b ccf8 d53d e97c a33d
00000200: 976c d53c bf61 d13d c3ce 44bd edf0 57bd
00000210: b842 37be ac66 59be eea0 10be c10a b1bf
00000220: e969 abbe 6258 02bf 4ff7 e7be d306 2bbd
00000230: 977a 36be 16e1 73bd 76e8 1c3e e685 113e
00000240: 41bd aabe 5773 17bf d725 8ebd b213 d83e
00000250: fc45 933d ab79 14bd 5c2c 88be 2410 37bf
00000260: 1693 f7bd 27a2 72bd 0299 01bf dcb8 c23d
00000270: 9c2f e0bd eaf9 31be 19f9 b43c 1b85 f5bc
00000280: 5a11 fdbe 44d2 9dbe 8c8f 133e 4a44 f2bc
00000290: 3d29 a7be 34a6 093c 1c71 0dbd 513c 09be
000002a0: e0fc 0fbf 5d66 13bf d564 1d3c 956d 1f3c
000002b0: f53f e23d c4ac 5bbd 5e10 2dbe 7ee7 1ebe
000002c0: 9a80 32be ed9a febe c12e 58bd e815 a6bd
000002d0: d05c 0e3c 8569 da3c 61ab 48be c027 84be
000002e0: 378e c0bd acd5 3cbf aa40 fa3d a23c cabe
000002f0: d0e7 5bbe b971 3bbd c599 c33c 08b3 e4be
00000300: 17aa f93d 7f39 95be 3870 9cbe 69ee 00be
00000310: dfa2 183e ab64 a7be 333d 2b3e 8cc9 1abf
00000320: d4ec 5ebc c53d cd3d 3c24 1cbe ad17 1a3d
00000330: f041 1ebd 24e1 d13d 1696 6e3d 9ec0 95be
00000340: b865 7cbe 3e6e a73d e148 8cbd 5e71 02be
00000350: 15ab c3be e0cd 0e3e 4434 63bd bca9 cdbd
00000360: 87e8 0b3e 29e1 0ebe 33dc 033e 46dd 0a3c
00000370: c1f9 4a3e f792 cb3d 7d32 2ebf 164f 273d
00000380: f4e1 d2be 1b0a 8a3d d532 16bf f75f 95bd
00000390: 36fb e63c 176a fd3c e8d0 0cbc 933a 66be
000003a0: f777 c5be f202 75be 1cd0 8ebe f1b9 023f
000003b0: 03b7 c3bd 7ee9 a4be 6e3e 86bf 83d3 aa3d
000003c0: 3b6a 96bd 7309 0dbe e215 09bf bfb5 36bf
000003d0: 4e08 dcbe 458d 0fbe 905f 493d 62e3 303e
000003e0: 7372 c83e bf3e 263e c132 b8bc d1a0 a7bd
000003f0: 6581 b83e b724 5d3e d780 f03e 412d 6abf
-0.08021235 -0.014269929 -0.33655104 -0.011855863 -0.023848783 -0.12418948 -0.15344237 -0.035121836
0.11807398 -0.14075968 0.06195243 -0.119010285 0.16122408 -0.1153742 0.17106144 0.016946461
-0.14468887 -0.17845872 -0.3497118 -0.020606121 -0.06636531 -0.35355344 0.0038568727 -0.13406865
-0.07197521 0.1694208 -0.20123354 -0.04439567 0.03247278 -0.0831463 0.080728605 0.014608456
-0.24260831 -0.11867327 -0.1104187 0.017761894 0.16981211 -0.14866708 0.0511431 -0.099282645
-0.015971312 -0.1262182 -0.33713645 -0.060260978 -0.13279465 -0.1342282 -0.048913512 -0.21843709
-0.010406932 0.036991213 0.039499544 -0.08199208 0.12523559 -0.13347258 -0.10659735 -0.046783075
-0.33901915 -0.35909107 0.12790106 0.18426728 0.14074068 0.0053855707 0.010831736 0.13874578
0.14648156 0.08549045 0.011073244 -0.15476471 -0.070999905 -0.03444738 0.31260768 -0.3259682
-0.125611 -0.026718423 -0.12576377 0.03621753 -0.036182057 -0.049102537 0.119334675 -0.3527315
-0.15428299 -0.08070554 0.016670702 -0.16501752 0.069571905 -0.04767503 0.09784129 0.022752544
-0.12002123 -0.20672499 -0.1372594 -0.11972756 -0.18497525 -0.29915053 -0.053748503 -0.06495405
-0.27178407 0.13617805 -0.21055815 -0.041245025 -0.15726374 0.058947034 -0.04739887 -0.34830576
-0.08610773 -0.27448186 -0.017125294 -0.02441893 0.08666765 -0.14761125 -0.15173192 -0.20466948
0.065443434 -0.08864929 -0.16006298 0.015749648 -0.16257365 -0.0018661114 -0.049497925 -0.16773047
-0.1155583 -0.059221994 0.036229253 -0.10932043 -0.3859908 0.0068483157 0.10447845 0.07982809
0.026052756 0.10223722 -0.048048746 -0.05272 -0.17896545 -0.21230572 -0.1412389 -1.3831407
-0.3347924 -0.5091611 -0.4530587 -0.041754555 -0.17820202 -0.05954083 0.15323052 0.14211234
-0.33347514 -0.5916037 -0.06940811 0.42202526 0.07191083 -0.036248844 -0.26596344 -0.71509004
-0.12088601 -0.05923667 -0.50624096 0.095079154 -0.10946581 -0.17380491 0.022091435 -0.029970696
-0.494273 -0.30824482 0.14410228 -0.029573578 -0.3264865 0.008401442 -0.034531698 -0.13401915
-0.5624523 -0.5757807 0.00960656 0.009730716 0.11047355 -0.05363156 -0.16900775 -0.15517995
-0.1743187 -0.49727574 -0.052778963 -0.08109647 0.00868912 0.026661644 -0.19596626 -0.25811577
-0.09402125 -0.7376354 0.12219365 -0.39499384 -0.21475148 -0.04576275 0.023877034 -0.4466784
0.12190645 -0.2914543 -0.30554366 -0.12590946 0.1490588 -0.3269399 0.16722564 -0.60463786
-0.013606269 0.10021547 -0.15248197 0.037620235 -0.0386371 0.1024802 0.0582486 -0.29248518
-0.24648178 0.08175324 -0.06849838 -0.12738559 -0.38216463 0.13945723 -0.055469766 -0.1004214
0.13662921 -0.1395308 0.12876968 0.008475607 0.19821836 0.09940141 -0.6804579 0.040846907
-0.41188014 0.06740209 -0.58671314 -0.072936945 0.028195959 0.030934377 -0.008594729 -0.22483282
-0.38568088 -0.23926905 -0.2789315 0.51064974 -0.09556391 -0.3220939 -1.0487802 0.08341124
-0.073444806 -0.13773136 -0.53549016 -0.7137107 -0.42975086 -0.14018734 0.0491634 0.1727424
0.39149818 0.16234873 -0.022485139 -0.0818497 0.3603622 0.21596037 0.46973297 -0.914753
