hyperopt_results/models/lr_0.002_20250906_230524/dqn_racing_episode_100.pth (torch, 453653 bytes, 36 tensors)

hidden_nets.0.weight f4 [128, 11]
0.01893126 -0.025563164 -0.24298966 -0.1599778 -0.16619293 0.09756455 -0.054800414 -0.059294358
0.113771275 -0.33219266 -0.101990275 0.0050896057 0.08229374 -0.15191762 -0.07389291 0.0014595571
-0.095071286 -0.09843289 -0.24763101 -0.1758896 -0.23946378 0.14579132 -0.08041907 -0.25700125
-0.08888146 0.049359947 0.5741966 -0.019417312 -0.0037065684 -0.09980695 -0.1334906 0.0008170659
0.03864237 -0.32165894 -0.12177026 0.07803773 -0.46457937 -0.03831905 -0.3540149 0.18939565
-0.048470728 0.069605 0.22541127 -0.024272894 0.53426266 -0.022041596 -0.19658871 0.07134153
-0.48137003 -0.24873151 -0.061433 -0.17697725 0.0071587595 -0.08974988 -0.03599689 -0.067625925
-0.23504676 -0.1305995 -0.07312803 0.07293221 -0.20013101 -0.06883453 -0.14710796 0.10748033
-0.112282984 0.19947733 -0.9157694 0.123874694 -0.43443033 0.078538395 -0.34998384 -0.103874385
-0.27602196 0.046025455 -0.13832478 -0.18054862 -0.23377967 -0.8143571 0.14461495 -0.07643582
-0.06302365 -0.21618995 -0.048301738 0.4038888 0.15424824 0.13473244 -0.14024131 -0.057802808
-0.07035308 -0.06609812 -0.21825676 0.07483085 -0.004248178 -0.3009722 -0.10594837 -0.13835943
-0.1192122 -0.30869773 0.07259239 -0.57532895 -0.2714341 0.2676825 0.17394894 0.5816104
-0.14822662 0.038342893 -0.010800578 0.038777187 -0.1450366 -0.062601 0.07445421 0.20788345
-0.37820113 0.2714172 -0.57855576 0.0697557 -0.18451793 0.26509175 -0.14319733 0.33870164
0.16434376 -0.43580654 -0.21188621 0.089698754 -0.45850718 -0.06011816 -0.1556619 -0.113942616
-0.23698163 0.06302785 0.16205315 -0.19146773 -0.65788424 -0.014963475 0.39892054 -0.13418914
-0.1765883 0.24442855 0.45600808 0.066027716 0.078979336 -0.4603959 0.04580254 0.04300387
-0.24348684 0.100034334 0.12798902 0.13613519 -0.29092938 -0.08032961 -0.3077598 0.14780305
-0.11830632 0.22214684 0.67479247 -0.29719192 0.049303003 -0.13781774 0.15784009 0.0039734202
0.07397228 -0.27136415 -0.12930626 -0.0755038 -0.17417485 -0.05003162 0.029587308 -0.16194734
-0.11230945 -0.17392088 0.008835202 0.04131491 -0.109250784 0.12228032 -0.15007907 0.1011552
0.17588544 -0.23731 -0.1476679 0.31491816 -0.7637812 0.14153647 0.16789807 -0.018718692
0.006342207 0.029831454 0.047230065 0.046153937 0.09335429 -0.9645915 0.025444672 -0.106371984
-0.6474704 -0.40798846 -0.008255829 -0.11999551 0.2864526 0.2911383 -0.124046385 -0.29115912
-0.17863733 0.16009636 0.606824 0.089065365 -0.091187686 -0.1644934 0.13903357 0.041989893
0.06320327 0.3889018 0.04354104 -0.4786535 0.014105392 -0.6382218 0.15492238 0.20494354
-0.2324804 0.00019192164 -0.04880192 0.05513113 0.22841738 -0.21888757 -0.3466888 -0.04064376
0.023351384 -0.17873642 0.18915282 -0.3921207 0.094771996 0.33234864 0.14675611 0.6202315
-0.22530378 -0.04989939 -0.22604884 0.2469029 0.09106203 0.050860558 -0.27400047 -0.17497957
-0.10310951 -0.1264113 -0.66295964 0.23708305 -0.40298516 0.13101031 -0.36503083 -0.13303035
0.17627268 0.3689439 -0.1498497 0.06865485 -0.07346844 -0.48544273 0.056325983 0.35159105
00000000: bb15 9b3c d769 d1bc 48d2 78be 38d1 23be
00000010: 7b2e 2abe eccf c73d 6676 60bd a4de 72bd
00000020: ea00 e93d 2815 aabe 47e0 d0bd b5c6 a63b
00000030: 9f89 a83d 4b90 1bbe 2a55 97bd 9c4e bf3a
00000040: bcb4 c2bd 2f97 c9bd fc92 7dbe 671c 34be
00000050: fe35 75be 524a 153e c1b2 a4bd ab95 83be
00000060: 7c07 b6bd a82d 4a3d 8cfe 123f 0e11 9fbc
00000070: e6e9 72bb 9667 ccbd c3b1 08be 5d30 563a
00000080: 7647 1e3d 7bb0 a4be b062 f9bd 3fd2 9f3d
00000090: 59dd edbe 70f4 1cbd 7141 b5be eff0 413e
000000a0: 3e89 46bd 118d 8e3d 36d2 663e f3d7 c6bc
000000b0: 70c5 083f 9490 b4bc 8d4e 49be 821b 923d
000000c0: 2276 f6be 79b3 7ebe 2ba1 7bbd 8639 35be
000000d0: 0794 ea3b c9ce b7bd 7a71 13bd 767f 8abd
000000e0: 19b0 70be e0bb 05be 26c4 95bd 7c5d 953d
000000f0: 25ef 4cbe 1ef9 8cbd 78a3 16be a61e dc3d
00000100: 9ff4 e5bd c943 4c3e dd6f 6abf 04b2 fd3d
00000110: a76d debe bdd8 a03d 1531 b3be 18bc d4bd
00000120: c052 8dbe 3085 3c3d 03a5 0dbe bde1 38be
00000130: f063 6fbe b579 50bf f115 143e 628a 9cbd
00000140: 8b12 81bd e660 5dbe 0bd8 45bd 83ca ce3e
00000150: 40f3 1d3e 4df7 093e 6b9b 0fbe a3c2 6cbd
00000160: 4715 90bd 735e 87bd b37e 5fbe eb40 993d
00000170: 4d34 8bbb 0719 9abe 76fb d8bd 18ae 0dbe
00000180: 8725 f4bd a10d 9ebe 52ab 943d c248 13bf
00000190: 69f9 8abe ae0d 893e ac1f 323e 6be4 143f
000001a0: b8c8 17be 700d 1d3d e8f4 30bc d4d4 1e3d
000001b0: 7984 14be f434 80bd 737b 983d 66df 543e
000001c0: 94a3 c1be 32f7 8a3e 3b1c 14bf 14dc 8e3d
000001d0: 45f2 3cbe 1bba 873e 52a2 12be 4d6a ad3e
000001e0: bb49 283e 0922 dfbe b3f8 58be fbb3 b73d
000001f0: 74c1 eabe 763e 76bd d565 1fbe bf5a e9bd
00000200: 50ab 72be bf14 813d 43f1 253e 1e10 44be
00000210: 1a6b 28bf 5d29 75bc 503f cc3e e168 09be
00000220: 90d3 34be 7a4b 7a3e e479 e93e 8a39 873d
00000230: ebbf a13d 03b9 ebbe 729b 3b3d d324 303d
00000240: 9d54 79be cdde cc3d 8e0f 033e 0667 0b3e
00000250: b2f4 94be da83 a4bd b192 9dbe af59 173e
00000260: 954a f2bd 767a 633e 33bf 2c3f 8a29 98be
00000270: f2f1 493d 1820 0dbe d5a0 213e 7733 823b
00000280: c77e 973d 3ef0 8abe dc68 04be bca1 9abd
00000290: e45a 32be f5ed 4cbd 1561 f23c 86d5 25be
000002a0: 7f02 e6bd 5118 32be 86c1 103c d339 293d
000002b0: e0be dfbd 1b6e fa3d 54ae 19be 752a cf3d
000002c0: 501b 343e 6501 73be 4136 17be f43c a13e
000002d0: 2a87 43bf f0ee 103e 79ed 2b3e f157 99bc
000002e0: 4ad2 cf3b 1861 f43c 5074 413d e90b 3d3d
000002f0: 8930 bf3d 78ef 76bf 5871 d03c 8ed9 d9bd
00000300: 9fc0 25bf dde3 d0be 7543 07bc 35c0 f5bd
00000310: eaa9 923e 1410 953e 080c febd cf12 95be
00000320: b4ec 36be 4df0 233e d158 1b3f e767 b63d
00000330: 9cc0 babd f570 28be d15e 0e3e 98fd 2b3d
00000340: b770 813d 231e c73e 1758 323d 1212 f5be
00000350: 4d1a 673c 8162 23bf f9a3 1e3e b8dc 513e
00000360: 580f 6ebe 933e 4939 86e4 47bd 2ed1 613d
00000370: 3fe6 693e 1024 60be 3281 b1be 127a 26bd
00000380: 674b bf3c ae06 37be 47b1 413e 0bc4 c8be
00000390: d217 c23d 9a29 aa3e 3c47 163e 7ec7 1e3f
000003a0: 09b6 66be 4e63 4cbd 5979 67be 1dd4 7c3e
000003b0: bb7e ba3d 2953 503d ca49 8cbe d82d 33be
000003c0: 142b d3bd f771 01be b9b7 29bf e6c5 723e
000003d0: 1254 cebe 9127 063e 52e5 babe 1c39 08be
000003e0: d380 343e 37e6 bc3e 3372 19be ea9a 8c3d
000003f0: 9f76 96bd f38b f8be 13b6 663d be03 b43e

hidden_nets.0.bias f4 [128]
-0.03758639 -0.081953205 -0.28909197 -0.07806092 -0.095119424 -0.1138676 0.05239764 0.15736172
-0.0735241 -0.19587335 0.18991733 -0.04501252 -0.0708805 -0.14592972 -0.2609212 -0.017565604
-0.1799349 0.13952634 -0.28130987 -0.11107682 -0.20022173 -0.33806977 0.19632076 -0.15794061
-0.059521616 0.096756175 -0.07681309 -0.1789697 0.172354 0.13680449 -0.15334268 -0.02775938
0.028577937 -0.020765092 -0.23330949 -0.055267315 -0.055522602 -0.049329866 -0.02654572 -0.2184111
0.06261771 -0.07866729 0.120948516 -0.13344567 -0.013669657 -0.15359418 -0.33011556 0.04776544
-0.037839375 -0.13633387 0.25339672 -0.28495684 -0.04509049 -0.09475745 -0.024905885 -0.11795871
-0.30460203 -0.02237395 -0.047518745 -0.021865092 -0.10855489 -0.1527723 -0.1627966 -0.098193966
-0.028936394 -0.033399515 0.22029838 -0.16139664 -0.08118634 -0.049126476 -0.0320917 0.078851506
-0.03270586 -0.28908148 -0.103357054 -0.045227498 -0.10289681 -0.058989797 0.0 0.1368964
-0.16556613 -0.11179201 -0.16180147 -0.20871411 0.036662344 0.0 -0.01799849 -0.19558024
-0.041739058 0.14474891 -0.028311282 0.17823808 -0.1802859 -0.07122758 0.15943912 -0.18771197
0.28422147 -0.07457094 0.0045103617 -0.16321671 0.018407533 -0.07684996 -0.015551789 0.07384646
0.09890438 0.07832267 -0.22292238 0.04633597 -0.18721822 0.01862184 -0.08350155 -0.18710274
0.1617654 -0.061804704 -0.061338395 0.17962784 0.1514 -0.08235959 -0.049888346 0.0920043
0.24605316 -0.27011046 -0.06585735 -0.059620038 -0.08351353 -0.10120793 0.09882989 0.114872776
00000000: 30f4 19bd 15d7 a7bd dd03 94be 67de 9fbd
00000010: f9cd c2bd 6b33 e9bd e89e 563d 6e23 213e
00000020: ce93 96bd 0693 48be b079 423e 0c5f 38bd
00000030: cc29 91bd 9a6e 15be 7797 85be bee5 8fbc
00000040: db40 38be fedf 0e3e d907 90be 3e7c e3bd
00000050: ed06 4dbe 7b17 adbe 4f08 493e 2fbb 21be
00000060: f0cc 73bd 1a28 c63d 2e50 9dbd d543 37be
00000070: 917d 303e 7a16 0c3e dd05 1dbe a467 e3bc
00000080: 471c ea3c 8e1b aabc afe8 6ebe fb5f 62bd
00000090: ab6b 63bd 1d0e 4abd 6976 d9bc 29a7 5fbe
000000a0: b73d 803d 511c a1bd dbb3 f73d fba5 08be
000000b0: b2f6 5fbc cb47 1dbe e804 a9be b2a5 433d
000000c0: 76fd 1abd 1b9b 0bbe 37bd 813e dde5 91be
000000d0: ceb0 38bd 3210 c2bd 6d07 ccbc 5694 f1bd
000000e0: ccf4 9bbe 9349 b7bc 04a3 42bd 6c1e b3bc
000000f0: 0752 debd 5870 1cbe 27b4 26be eb19 c9bd
00000100: 040c edbc eecd 08bd e695 613e 2945 25be
00000110: 0645 a6bd d838 49bd 9672 03bd e67c a13d
00000120: 94f6 05bd 7d02 94be ddac d3bd 7840 39bd
00000130: 90bb d2bd 499f 71bd 0000 0000 922e 0c3e
00000140: 2b8a 29be 36f3 e4bd 49af 25be 27b9 55be
00000150: 412b 163d 0000 0000 9271 93bc 3046 48be
00000160: 93f6 2abd 0f39 143e 10ed e7bc 0b84 363e
00000170: de9c 38be c4df 91bd 0244 233e 9137 40be
00000180: 7a85 913e a6b8 98bd a8cb 933b 4822 27be
00000190: 65cb 963c 8363 9dbd eecc 7ebc d03c 973d
000001a0: 618e ca3d a367 a03d c445 64be c9ca 3d3d
000001b0: 22b6 3fbe d48c 983c dc02 abbd dc97 3fbe
000001c0: d4a5 253e ee26 7dbd f83d 7bbd 5cf0 373e
000001d0: 9a08 1b3e 25ac a8bd b957 4cbd c06c bc3d
000001e0: 5cf5 7b3e eb4b 8abe 38e0 86bd 2434 74bd
000001f0: 2409 abbd 1a46 cfbd 5367 ca3d 6b42 eb3d

hidden_nets.1.weight f4 [128, 128]
-0.08021235 -0.014269929 -0.11049238 -0.011855863 -0.023848783 -0.12418948 -0.1870058 -0.09201527
0.11807398 0.032220747 0.09835496 -0.119010285 0.0031430302 -0.1153742 0.02998348 0.016946461
-0.14468887 -0.10289787 -0.13108525 -0.020606121 -0.06636531 -0.1760509 0.033269856 -0.12938806
-0.07197521 0.058553375 -0.10717066 -0.04439567 -0.062313624 0.06719031 0.080728605 0.014608456
-0.12697923 -0.11867327 -0.1104187 0.017761894 0.13021281 -0.14866708 0.0511431 -0.099282645
-0.15687333 -0.058382906 0.04534912 -0.060260978 -0.03987056 -0.1342282 -0.048913512 -0.17808679
0.015547717 -0.059032403 0.055358943 0.07467077 0.12523559 -0.13347258 -0.068404116 -0.046783075
-0.16754936 -0.101793684 0.12790106 0.11400217 0.14074068 0.0053855707 0.010831736 -0.09538587
0.14648156 0.08549045 0.002264558 -0.15476471 -0.0112129655 -0.03444738 -0.0220725 -0.12524813
-0.125611 0.08621992 -0.12576377 0.03621753 -0.036182057 -0.012412838 0.119334675 -0.15255174
-0.15428299 -0.08070554 0.016670702 -0.22571445 -0.23775528 -0.04767503 0.09784129 0.022752544
-0.12002123 -0.027843677 -0.1372594 -0.044014905 -0.049325544 -0.06003547 -0.0459833 -0.06495405
-0.19198252 0.13617805 -0.17571817 -0.041245025 -0.1652813 0.058947034 -0.04739887 -0.2311243
-0.027746512 -0.21839565 -0.017125294 -0.02422205 0.08666765 -0.14761125 -0.13192406 -0.20466948
0.10232452 -0.08864929 -0.16006298 0.014148574 -0.13434763 -0.0018661114 -0.049497925 -0.07525804
-0.07884525 -0.15943454 0.058570273 -0.10932043 0.009758918 -0.14869887 -0.05520443 -0.04931524
0.026052756 0.10223722 0.06779594 -0.05272 -0.17896545 -0.21230572 -0.1412389 -1.2085629
-0.3347924 -0.38215014 -0.78153425 -0.041754555 -0.19329217 -0.05954083 0.041191045 0.14211234
-0.33347514 -0.33529377 -0.18386757 0.42202526 0.07191083 0.04874334 -0.15126629 -0.36603177
-0.12088601 -0.09930891 -0.49198213 0.095079154 -0.2713327 -0.42190918 0.022091435 -0.029970696
-0.57898694 -0.30824482 0.14410228 0.026400475 -0.25704893 0.008401442 -0.034531698 -0.13401915
-0.53948 -0.06058649 -0.033172123 0.009730716 -0.3003265 -0.05363156 -0.16900775 -0.15517995
-0.17452939 -0.49727574 -0.2187749 -0.051103372 0.00868912 0.026661644 -0.21683066 -0.25811577
0.05390687 -0.7471845 0.12219365 -0.34863898 -0.21475148 -0.04576275 0.023877034 -0.64298475
0.12190645 -0.2914543 -0.3834283 -0.12590946 -0.5403384 -0.3269399 0.075493164 -0.51793396
-0.013606269 0.16380222 -0.15248197 0.037620235 -0.0386371 0.120422825 0.0582486 -0.19999634
-0.24648178 0.072560154 -0.06849838 -0.044476155 -0.39732644 0.13945723 -0.055469766 0.048079
0.13662921 0.018031383 0.065309174 -0.3701123 0.21609673 0.118835516 -0.5411339 0.040846907
-0.33600727 0.06740209 -0.22549556 -0.072936945 0.028195959 0.10444052 -0.008594729 -0.36768115
-0.27675918 -0.43267128 -0.2789315 -0.01381409 -0.09556391 -0.3220939 -1.1452607 0.08341124
-0.2979022 -0.13773136 -0.53549016 -0.77686197 -0.27083686 -0.14018734 0.0491634 0.23897946
0.20553772 0.10518567 -0.037084185 -0.0818497 0.26247156 0.104016565 0.18740909 -0.83077836
00000000: 5f46 a4bd 6ccc 69bc d449 e2bd 183f 42bc
00000010: 865e c3bc 0e57 febd 737e 3fbe 8072 bcbd
00000020: c5d0 f13d e7f9 033d 536e c93d aabb f3bd
00000030: 4cfb 4d3b 4f49 ecbd ea9f f53c 4ed3 8a3c
00000040: 5229 14be 1ebc d2bd 363b 06be 2bce a8bc
00000050: 89ea 87bd b046 34be f945 083d 4e7e 04be
00000060: bd67 93bd aad5 6f3d 4a7c dbbd 3cd8 35bd
00000070: 923c 7fbd 139b 893d 0a55 a53d 4e58 6f3c
00000080: d806 02be f90a f3bd 3323 e2bd 6481 913c
00000090: 8256 053e 2f3c 18be 6d7b 513d b354 cbbd
000000a0: 67a3 20be ea22 6fbd 00c0 393d 37d4 76bd
000000b0: 504f 23bd 1e73 09be 8959 48bd 625c 36be
000000c0: dabb 7e3c f6cb 71bd 0fc0 623d fdec 983d
000000d0: c23d 003e 09ad 08be 7517 8cbd 9c9f 3fbd
000000e0: 0f92 2bbe 3579 d0bd 7ff8 023e f879 e93d
000000f0: 531e 103e 7179 b03b 9877 313c ab59 c3bd
00000100: 43ff 153e 9e15 af3d fb68 143b a47a 1ebe
00000110: 96b6 37bc b218 0dbd 63d1 b4bc 0c41 00be
00000120: 2ca0 00be 1294 b03d 38c8 00be d558 143d
00000130: a333 14bd 375f 4bbc bd65 f43d 8636 1cbe
00000140: 5cfc 1dbe f248 a5bd ff90 883c b021 67be
00000150: 1f76 73be e446 43bd 0461 c83d 8b63 ba3c
00000160: b1cd f5bd 6c18 e4bc ba8d 0cbe f948 34bd
00000170: 9509 4abd c1e7 75bd fc58 3cbd a106 85bd
00000180: 1197 44be 4272 0b3e 77ef 33be 8bf0 28bd
00000190: 803f 29be 7272 713d 5125 42bd d9ab 6cbe
000001a0: a74c e3bc 1ca3 5fbe 584a 8cbc 526d c6bc
000001b0: cf7e b13d 6727 17be 1a17 07be e094 51be
000001c0: 858f d13d c28d b5bd 8de7 23be 6ccf 673c
000001d0: 6d92 09be 4f98 f4ba 56be 4abd e320 9abd
000001e0: 9e79 a1bd cf42 23be 62e7 6f3d 64e3 dfbd
000001f0: dee3 1f3c 8444 18be 0a1e 62bd c7fe 49bd
00000200: 976c d53c bf61 d13d 99d8 8a3d edf0 57bd
00000210: b842 37be ac66 59be eea0 10be 30b2 9abf
00000220: e969 abbe 2fa9 c3be a112 48bf d306 2bbd
00000230: 62ee 45be 16e1 73bd f1b7 283d e685 113e
00000240: 41bd aabe a0ab abbe c847 3cbe b213 d83e
00000250: fc45 933d 19a7 473d 8de5 1abe 8468 bbbe
00000260: 1693 f7bd 7862 cbbd 15e5 fbbe dcb8 c23d
00000270: 1fec 8abe 7b04 d8be 19f9 b43c 1b85 f5bc
00000280: 7d38 14bf 44d2 9dbe 8c8f 133e cf45 d83c
00000290: eb9b 83be 34a6 093c 1c71 0dbd 513c 09be
000002a0: 5c1b 0abf 8a29 78bd 7edf 07bd 956d 1f3c
000002b0: 65c4 99be c4ac 5bbd 5e10 2dbe 7ee7 1ebe
000002c0: d5b7 32be ed9a febe 8706 60be c551 51bd
000002d0: d05c 0e3c 8569 da3c db08 5ebe c027 84be
000002e0: 73cd 5c3d 7c47 3fbf aa40 fa3d cf80 b2be
000002f0: d0e7 5bbe b971 3bbd c599 c33c a69a 24bf
00000300: 17aa f93d 7f39 95be b750 c4be 69ee 00be
00000310: 9e53 0abf ab64 a7be 299c 9a3d 5297 04bf
00000320: d4ec 5ebc c5bb 273e 3c24 1cbe ad17 1a3d
00000330: f041 1ebd 3ea0 f63d 1696 6e3d d7cb 4cbe
00000340: b865 7cbe 6b9a 943d e148 8cbd a12c 36bd
00000350: 5f6e cbbe e0cd 0e3e 4434 63bd 7cee 443d
00000360: 87e8 0b3e 8db6 933c d1c0 853d 5c7f bdbe
00000370: 7648 5d3e 0960 f33d c087 0abf 164f 273d
00000380: 2509 acbe 1b0a 8a3d 4fe8 66be f75f 95bd
00000390: 36fb e63c e9e4 d53d e8d0 0cbc b440 bcbe
000003a0: 61b3 8dbe 1787 ddbe 1cd0 8ebe 7e54 62bc
000003b0: 03b7 c3bd 7ee9 a4be e797 92bf 83d3 aa3d
000003c0: a386 98be 7309 0dbe e215 09bf 6de0 46bf
000003d0: 21ab 8abe 458d 0fbe 905f 493d 08b7 743e
000003e0: 7b78 523e 966b d73d 96e5 17bd d1a0 a7bd
000003f0: ac62 863e a306 d53d 2be8 3f3e e4ad 54bf

hidden_nets.1.bias f4 [128]
-0.10503926 0.12187181 -0.13522041 -0.09192031 -0.17413254 -0.1555025 -0.15183896 -0.248398
-0.11277615 0.010994253 0.112686425 -0.39758024 0.1887102 -0.15052678 0.11013239 -0.103589274
-0.18611927 -0.24844642 -0.06242684 -0.15190808 -0.2566081 0.06721854 0.04356795 -0.21327975
-0.12311493 -0.1302404 -0.12756462 0.02750248 -0.14093424 -0.1569026 -0.3452448 -0.1733998
0.07284335 -0.3865316 -0.2002641 -0.08066116 -0.1449925 0.049469218 0.12071724 -0.18096898
-0.2575539 -0.18941176 -0.1317375 -0.0097774835 -0.13211697 0.06332106 -0.04320944 0.12808037
-0.03339331 -0.2089852 -0.22228491 0.15510395 -0.011624957 0.0772883 -0.28748825 -0.13318574
0.23717888 -0.26223984 0.0295762 -0.1432472 -0.08873789 -0.24162796 0.07348432 0.048476484
-0.149123 -0.18743001 -0.27218577 -0.09296267 -0.3034444 0.0712264 0.06794272 0.07461275
-0.16056967 0.07794758 0.07422617 -0.42328563 -0.40288666 0.081344 -0.11660581 -0.23305617
-0.122835316 -0.2759946 0.14532214 -0.29775447 -0.2716576 0.051187683 -0.4109734 -0.024091959
-0.2865842 -0.08411145 0.071812615 0.034085583 0.0695787 -0.21770433 0.089075245 -0.38257796
-0.3874752 -0.052337028 -0.120925255 0.016891794 0.19130985 0.10310625 0.074845254 -0.09771898
-0.08984483 -0.21419436 0.072323546 -0.11739996 -0.19337663 0.06626932 -0.13795307 -0.21688914
0.08059162 0.10716069 0.17012984 -0.08133571 -0.24727312 0.030747436 -0.2905928 -0.03989172
0.15403405 -0.20446369 -0.25914714 0.04873336 -0.05828556 0.09822022 0.15519382 -0.152398
00000000: d31e d7bd ed97 f93d 3877 0abe b740 bcbd
00000010: cd4f 32be 0c3c 1fbe ac7b 1bbe 0c5c 7ebe
00000020: 2ff7 e6bd 3d21 343c 24c8 e63d a38f cbbe
00000030: 3f3d 413e b123 1abe 178d e13d 9d26 d4bd
00000040: 0d96 3ebe bd68 7ebe 49b3 7fbd cb8d 1bbe
00000050: 2362 83be e0a9 893d 4f74 323d 0266 5abe
00000060: ae23 fcbd bd5d 05be 4da0 02be e24c e13c
00000070: 1151 10be 13ab 20be edc3 b0be b88f 31be
00000080: e52e 953d 78e7 c5be 0812 4dbe ae31 a5bd
00000090: ea78 14be 3ca0 4a3d 9a3a f73d ef4f 39be
000000a0: 1bde 83be 28f5 41be 32e6 06be bd31 20bc
000000b0: ac49 07be 79ae 813d 62fc 30bd 8027 033e
000000c0: 6cc7 08bd 3700 56be a89e 63be 92d3 1e3e
000000d0: 9b76 3ebc 5449 9e3d a931 93be d861 08be
000000e0: 05df 723e 4d44 86be c949 f23c 65af 12be
000000f0: 36bc b5bd 526d 77be f27e 963d 478f 463d
00000100: b3b3 18be a7ed 3fbe ef5b 8bbe 3663 bebd
00000110: 105d 9bbe 26df 913d 8e25 8b3d 92ce 983d
00000120: 606c 24be fba2 9f3d e403 983d e5b8 d8be
00000130: 2947 cebe af97 a63d 07cf eebd 47a6 6ebe
00000140: 1591 fbbd 2a4f 8dbe 54cf 143e 4673 98be
00000150: b416 8bbe 2daa 513d 1b6b d2be 805c c5bc
00000160: 2abb 92be a042 acbd 7e12 933d 539d 0b3d
00000170: 477f 8e3d e2ed 5ebe 156d b63d 42e1 c3be
00000180: 2663 c6be 5a5f 56bd a9a7 f7bd a960 8a3c
00000190: bbe6 433e 5f29 d33d 7848 993d e320 c8bd
000001a0: 9100 b8bd c455 5bbe 5e1e 943d 646f f0bd
000001b0: 8604 46be 36b8 873d 9243 0dbe 3018 5ebe
000001c0: 380d a53d 1077 db3d 8436 2e3e 5693 a6bd
000001d0: 2a35 7dbe 0ce2 fb3c 94c8 94be 8065 23bd
000001e0: 1abb 1d3e ee5e 51be efae 84be a29c 473d
000001f0: d7bc 6ebd af27 c93d 21eb 1e3e 390e 1cbe

hidden_nets.2.weight f4 [64, 128]
-0.042804234 0.20186917 0.07576039 -0.06402882 0.10908126 -0.2015868 -0.13032699 0.36988604
-0.063303664 -0.64702463 0.45239234 0.11731016 0.16383934 -0.031075308 0.14051443 0.006315395
-0.06124095 -0.0778696 -0.06967569 -0.091659114 0.051215712 -0.009168878 -0.7289665 0.17828219
-0.11284509 0.21136618 0.13757825 0.17063339 -0.021567466 0.17583436 0.03669295 -0.08441438
-0.09129537 0.03514658 0.08099989 -0.01581066 -0.07531585 0.031964622 -0.17394833 0.035485063
-0.022877704 -0.085655645 -0.2697866 -0.11050673 0.18627355 -0.07586272 -0.2443756 0.025769887
-0.3067876 0.012925186 -0.33275053 0.30080888 0.3003704 0.41739625 -0.19988073 -0.29515415
0.57400924 -0.29661378 -0.25907496 -0.084625326 0.1808308 -0.29716602 -0.3598665 0.003715206
0.0035472584 0.1343746 -0.1604645 0.12615488 -0.098548084 -0.43536696 -0.9624695 0.04497753
0.11685517 -0.29872122 0.2138418 0.047276143 -0.15441097 0.12531072 -0.20603731 -0.23697415
-0.19765933 -0.4900118 0.25787953 -0.040059783 -0.25584367 -0.33483475 -0.07387941 -0.045846377
0.017353127 -0.12675585 -0.08283549 -0.12740779 -0.10149166 -0.28853178 0.014302228 -0.097826
0.3961237 -0.5154736 0.083698645 -0.16730489 0.14336807 -0.34032282 0.08059399 -0.027218403
0.33060297 -0.31255955 -0.2033274 0.047675557 0.16363534 0.089736484 0.23676965 -0.05508445
-0.0073088254 0.44349843 0.3202865 0.38520393 -0.37597707 -0.13781007 -0.5929715 -0.13479987
-0.038482126 -0.24780244 0.18379962 0.20613317 0.1998476 0.40250635 0.5055789 -0.5075028
-0.16356161 -0.06827391 -0.36329392 -0.45999372 0.1409915 -0.071983345 0.07627812 -0.15711729
0.17673953 -0.1280078 -0.035003882 -0.7947003 0.01920377 -0.07296735 -0.82757 -0.031041915
-0.09052839 -0.0006816736 -0.24906564 0.13391 0.13377942 -0.5218893 -0.35735893 -0.1774982
-0.017277975 0.09620869 -0.7489148 -0.37231374 -0.034749277 -0.004455569 -0.09543614 0.03302792
0.23759347 -0.48738986 -0.2709674 -0.08902366 0.038720716 -0.48016644 -0.16911507 0.38056326
0.14846514 -0.82826364 -0.37264228 -0.1561989 -0.037707403 0.31107894 -0.38425282 -0.33636093
-0.27489156 -0.10767251 0.010982251 -0.5841853 -0.39502698 -0.30654192 0.21283065 0.025410326
-0.25623244 0.44421294 -0.15047362 0.06832607 -0.51458097 -0.45554036 -0.13197817 0.27640113
0.11991976 -0.40948775 -0.3019491 -0.3101355 0.3712103 0.033969212 0.029155772 0.06806272
0.17004588 -0.10690096 -0.14863092 -0.60692453 0.053964764 0.18698035 0.037598662 -0.24961787
0.1601829 -0.16814215 -0.24926113 -0.16957831 -0.384652 -0.3467023 -0.1005573 0.5650147
-0.10043476 0.060955327 -0.28117537 -0.37924898 0.01203883 -0.11269796 -0.31194517 -0.6349031
0.31503832 0.03428877 -0.11637558 0.28221145 -0.49106577 -0.4514217 0.043277517 -0.011143819
-0.73451036 -0.5492483 0.13591127 -0.12650241 -0.014355377 0.06171327 -0.24626917 -0.186349
-0.9979353 -0.98523486 0.24063058 -0.03493401 0.12808232 -1.0641996 -0.37376973 -0.117941275
-0.31030065 0.08523519 -0.21038014 -0.4351298 -0.1588375 -0.31148213 -0.38686496 0.13124616
00000000: 7e53 2fbd cbb6 4e3e 4328 9b3d 8b21 83bd
00000010: ff65 df3d c56c 4ebe 7074 05be b461 bd3e
00000020: 5aa5 81bd 68a3 25bf f89f e73e 4f40 f03d
00000030: 80c5 273e a591 febc 04e3 0f3e 5ff1 ce3b
00000040: cad7 7abd 197a 9fbd 21b2 8ebd c6b7 bbbd
00000050: 91c7 513d 1039 16bc 8c9d 3abf 9b8f 363e
00000060: 541b e7bd 6070 583e 50e1 0c3e 85ba 2e3e
00000070: 41ae b0bc ec0d 343e 594b 163d 72e1 acbd
00000080: 11f9 babd dcf5 0f3d 45e3 a53d 5b85 81bc
00000090: 323f 9abd 56ed 023d 831f 32be c958 113d
000000a0: 066a bbbc 3a6c afbd 7821 8abe 5a51 e2bd
000000b0: 7ebe 3e3e ea5d 9bbd 993d 7abe 5f1b d33c
000000c0: 4413 9dbe 29c4 533c 475e aabe 9f03 9a3e
000000d0: 26ca 993e f6b4 d53e 89ad 4cbe 721e 97be
000000e0: 45f2 123f c3dd 97be 79a5 84be 0b50 adbd
000000f0: b62b 393e 2526 98be 6c40 b8be d07a 733b
00000100: 1f79 683b 7f99 093e ce50 24be bf2e 013e
00000110: 94d3 c9bd 6be8 debe 6764 76bf 5c3a 383d
00000120: c351 ef3d fdf1 98be 58f9 5a3e a1a4 413d
00000130: e91d 1ebe 7451 003e 72fb 52be 5aa9 72be
00000140: 3567 4abe d4e2 fabe c908 843e ba15 24bd
00000150: f1fd 82be 766f abbe 174e 97bd 69c9 3bbd
00000160: 2528 8e3c 49cc 01be a7a5 a9bd 3077 02be
00000170: dcda cfbd 70ba 93be e453 6a3c ff58 c8bd
00000180: bad0 ca3e 14f6 03bf 326a ab3d f951 2bbe
00000190: 14cf 123e cb3e aebe 760e a53d 21f9 debc
000001a0: cb44 a93e ce07 a0be 0f35 50be 7247 433d
000001b0: 0690 273e c3c7 b73d be73 723e 3ba0 61bd
000001c0: df7e efbb 3a12 e33e 98fc a33e 7339 c53e
000001d0: 1180 c0be 151e 0dbe fbcc 17bf fa08 0abe
000001e0: 6f9f 1dbd ecbf 7dbe f835 3c3e 9314 533e
000001f0: d9a4 4c3e 5015 ce3e 9e6d 013f b4eb 01bf
00000200: b27c 27be 31d3 8bbd a901 babe 4c84 ebbe
00000210: 1360 103e 016c 93bd b437 9c3d 5be3 20be
00000220: 35fb 343e 7a14 03be 3b60 0fbd 7b71 4bbf
00000230: 3a51 9d3c e86f 95bd a1db 53bf 9d4b febc
00000240: f366 b9bd 57b2 32ba 100b 7fbe b41f 093e
00000250: 79fd 083e 8a9a 05bf c0f7 b6be 17c2 35be
00000260: 8a8a 8dbc 1009 c53d e1b8 3fbf e89f bebe
00000270: 4255 0ebd 0600 92bb 0674 c3bd 4948 073d
00000280: b44b 733e 2a8b f9be 3dbc 8abe 0952 b6bd
00000290: 9d99 1e3d 60d8 f5be 802c 2dbe 30d9 c23e
000002a0: 3f07 183e 1609 54bf f8ca bebe 9bf2 1fbe
000002b0: 1473 1abd bd45 9f3e c9bc c4be 8037 acbe
000002c0: 96be 8cbe 6883 dcbd e6ee 333c 2b8d 15bf
000002d0: fa40 cabe 10f3 9cbe 47f0 593e 5129 d03c
000002e0: e630 83be e16f e33e c215 1abe 8aee 8b3d
000002f0: 94bb 03bf 963c e9be 4925 07be 7384 8d3e
00000300: 7e98 f53d 61a8 d1be 1399 9abe 15ca 9ebe
00000310: 470f be3e 4d23 0b3d 16d8 ee3c 7864 8b3d
00000320: 8220 2e3e e4ee dabd b432 18be 685f 1bbf
00000330: 280a 5d3d c777 3f3e 0e01 1a3d d49b 7fbe
00000340: fc06 243e 752d 2cbe 4f3e 7fbe f0a5 2dbe
00000350: 1bf1 c4be f782 b1be fcf0 cdbd cea4 103f
00000360: bdb0 cdbd 4bac 793d 38f6 8fbe ec2c c2be
00000370: 833e 453c 30ce e6bd 47b7 9fbe 0289 22bf
00000380: b44c a13e 6272 0c3d 5256 eebd 057e 903e
00000390: f96c fbbe bf20 e7be c443 313d 9194 36bc
000003a0: df08 3cbf 899b 0cbf 532c 0b3e d989 01be
000003b0: d132 6bbc 0ec7 7c3d fc2d 7cbe 46d2 3ebe
000003c0: b078 7fbf 5a38 7cbf dd67 763e f716 0fbd
000003d0: 0328 033e b137 88bf bf5e bfbe 328b f1bd
000003e0: badf 9ebe ca8f ae3d e46d 57be 55c9 debe
000003f0: 4ca6 22be 967a 9fbe 2a13 c6be 6565 063e

hidden_nets.2.bias f4 [64]
0.75135696 -0.027573558 -0.35208356 0.84511876 0.909362 0.9243054 -0.027413825 -0.32380658
0.35683182 0.83962774 0.44506514 0.9205103 0.37871203 0.33604628 0.63031054 0.82063353
-0.17135029 -0.25087866 -0.18772274 -0.26312512 0.31993082 -0.087254785 0.8564148 0.593625
0.36673403 0.84436697 0.84181625 0.91133624 -0.34208572 0.14723888 1.0370692 0.8554361
0.89908576 0.4121808 0.83114254 -0.2526505 0.88948184 0.9589581 0.39411044 0.8693509
-0.11968975 0.8423065 0.22818497 0.91404665 0.87864435 0.6923596 -0.20106013 0.8270363
0.3241379 0.83420795 0.89369416 0.90765667 -0.25479826 0.64418757 0.90871435 0.5555611
0.7370422 0.38511312 0.94702446 -0.11360726 0.034865562 0.84010804 0.319049 -0.041826952
00000000: ee58 403f f1e1 e1bc 4c44 b4be b459 583f
00000010: f3cb 683f 479f 6c3f f592 e0bc fac9 a5be
00000020: a9b2 b63e d8f1 563f 94df e33e 90a6 6b3f
00000030: 8be6 c13e 420e ac3e 085c 213f 0a15 523f
00000040: 7376 2fbe 2b73 80be 643a 40be 56b8 86be
00000050: f9cd a33e a3b2 b2bd 003e 5b3f cff7 173f
00000060: 90c4 bb3e 6f28 583f 4581 573f 554d 693f
00000070: dc25 afbe cac5 163e afbe 843f dcfd 5a3f
00000080: 7c2a 663f 5d09 d33e c2c5 543f 685b 81be
00000090: 15b5 633f 477e 753f d8c8 c93e c88d 5e3f
000000a0: e61f f5bd 66a1 573f 52a9 693e f6fe 693f
000000b0: d6ee 603f 7b3e 313f b5e2 4dbe a7b8 533f
000000c0: 67f5 a53e a78e 553f 24c9 643f 305c 683f
000000d0: eb74 82be 7ae9 243f 81a1 683f 4139 0e3f
000000e0: ccae 3c3f 8c2d c53e 3270 723f ecaa e8bd
000000f0: 31cf 0e3d 5211 573f 645a a33e bd52 2bbd

value_stream.weight f4 [1, 64]
0.4896475 0.5121981 0.59477377 0.5346772 0.51988304 1.0063258 -0.12002107 0.62201124
-0.49256927 0.55244416 0.25431502 0.64926517 -1.0218711 -0.4146598 0.44530952 0.5254034
0.060269933 0.38555267 -0.24676238 -0.08756765 -0.73582125 0.022244968 0.5696784 0.433975
-0.86015475 0.55469507 0.55036664 0.5509237 0.5452222 -0.029531892 0.9308076 0.53996694
0.526538 0.46689525 0.61902726 0.012470695 0.50135666 0.93938005 -0.3794093 0.5930241
0.108254865 0.5671236 -0.3590848 0.8191294 0.55932534 0.536308 0.006842877 0.5530434
-0.67004734 0.53938085 0.5340039 0.5368475 0.5166602 0.52173895 0.54672456 0.45977786
0.50772756 -0.593059 0.93462384 -0.10785403 -0.13574615 0.6107598 0.501142 -0.1948236
00000000: 14b3 fa3e 6a1f 033f 1843 183f 9be0 083f
00000010: 0e17 053f 49cf 803f 9bcd f5bd 213c 1f3f
00000020: 0a32 fcbe fb6c 0d3f 9435 823e 3e36 263f
00000030: accc 82bf 4a4e d4be 9cff e33e d680 063f
00000040: 9bdd 763d 2967 c53e 47af 7cbe ab56 b3bd
00000050: c85e 3cbf 143b b63c 72d6 113f f931 de3e
00000060: 1a33 5cbf 7f00 0e3f d4e4 0c3f 5609 0d3f
00000070: af93 0b3f deec f1bc 6849 6e3f 463b 0a3f
00000080: 32cb 063f e50c ef3e 9278 1e3f e351 4c3c
00000090: e958 003f 367b 703f f041 c2be 6dd0 173f
000000a0: bab4 dd3d 032f 113f f7d9 b7be 77b2 513f
000000b0: f22f 0f3f 7b4b 093f 363a e03b 4194 0d3f
000000c0: 3988 2bbf dd14 0a3f 7bb4 083f d66e 093f
000000d0: d843 043f af90 053f 24f6 0b3f 0168 eb3e
000000e0: 6ffa 013f b7d2 17bf 8243 6f3f 93e2 dcbd
000000f0: 0a01 0bbe c15a 1c3f d84a 003f d67f 47be

advantage_stream.weight f4 [5, 64]
-0.113894574 -0.059555933 0.07612656 -0.12653774 0.076199755 -0.082307495 -0.32825086 -0.073938295
-0.07001448 0.11999594 -0.21683408 0.13019803 0.018307649 -0.04682928 0.03289014 -0.026990103
0.13578607 -0.06600273 0.2677781 -0.21844184 -0.16147342 0.07499988 -0.1307612 0.009169055
0.20696172 0.012720466 0.09820635 0.0057796454 -0.1650044 0.35214573 -0.09904416 -0.009648163
-0.015491888 0.030886987 -0.01415522 0.026182134 0.083666 0.10666953 -0.37711403 0.10573847
0.020034172 0.143937 -0.22232167 0.14603975 0.11254622 -0.03242782 -0.19100972 0.10719011
-0.07353642 -0.01811389 0.10923931 -0.022452509 -0.04934524 -0.048106592 -0.07297096 -0.044302847
-0.03271758 -0.061845962 -0.056758985 -0.036503635 0.10251336 -0.07509848 -0.061237358 0.27798003
-0.16311397 -0.017422128 -0.12967196 -0.1434844 0.018219918 0.0922034 -0.28486228 -0.056483805
0.026604956 0.11274003 0.11449428 0.10305636 -0.11676452 -0.021423073 0.07332958 -0.030428769
0.22571354 -0.0876678 0.3095548 0.06190344 0.12128565 -0.13053693 -0.10928 -0.17809707
0.06213769 0.018254953 0.036193147 -0.10118388 -0.18165837 -0.24475525 -0.008275093 -0.020923344
-0.07939384 0.03476662 -0.0549068 0.25572175 0.09954096 0.16237198 0.011371717 0.012993829
0.0924365 0.118594326 -0.076009266 0.1529777 0.022531873 -0.13236095 -0.16906694 0.016009314
-0.1384095 -0.05957649 0.004888152 -0.06823628 -0.14576226 -0.07022361 -0.070906065 -0.03513602
-0.09542998 0.23141336 0.14311863 -0.15145318 -0.16451024 -0.09263912 0.033006776 -0.00033964403
0.2394556 -0.07067406 0.15455577 -0.027684439 0.20019016 -0.11203884 -0.11209413 0.13607226
0.36444736 0.1302981 0.3709467 0.0884287 0.06692761 0.36343357 -0.043952104 -0.024255304
-0.15500793 0.16145553 -0.32905844 -0.110065944 -0.10752121 -0.1366641 0.04534377 0.24908794
0.35751253 0.05212416 0.10202763 -0.0023810763 0.023287518 0.15121889 -0.0428501 0.14882267
0.061409213 0.01484729 0.055785198 0.18897739 0.04135067 0.035941735 0.4910302 0.15273853
-0.35302362 0.16633117 0.14604963 0.12183521 0.181234 0.19573283 -0.14674665 0.10432211
0.12771575 0.06477918 0.079046905 0.01667245 0.09733672 0.040743977 0.009370182 -0.16575581
-0.06388447 0.47204262 -0.12366434 -0.025229057 0.2937798 -0.06841124 -0.008808258 0.07880066
0.062242646 -0.19554535 -0.013737276 -0.111865 0.068377756 -0.1177849 -0.18083045 -0.095466234
-0.0050663557 0.06328079 -0.10100065 0.035665408 -0.011682111 -0.030712651 0.022856515 -0.023396658
0.003405677 -0.05585883 0.091418706 0.2073785 -0.019498939 -0.14979984 -0.023950154 0.2248028
-0.20126134 0.013272134 0.111412 -0.011026559 -0.07437002 0.3651013 -0.06794427 0.06425301
-0.03929251 0.0025546495 0.005779089 0.10225488 0.06665816 0.12614152 -0.28225198 0.0625144
0.12513943 0.14732547 0.06757223 0.060328003 0.11899162 0.022359498 -0.14690708 0.012076394
-0.124268904 0.0240087 -0.0004437609 -0.08196026 -0.055788517 -0.066579245 -0.0060925805 -0.07924003
-0.05471817 -0.14891413 -0.038545545 0.16716199 -0.12877701 -0.0834168 0.028723441 -0.16110684
00000000: 8f41 e9bd ecf0 73bd 3ee8 9b3d 1c93 01be
00000010: 9e0e 9c3d d590 a8bd 7f10 a8be f66c 97bd
00000020: c063 8fbd 6ec0 f53d c109 5ebe a252 053e
00000030: ecf9 953c 0fd0 3fbd d0b7 063d 591a ddbc
00000040: 810b 0b3e 702c 87bd 361a 893e 38af 5fbe
00000050: 4a59 25be 8999 993d 44e6 05be ce39 163c
00000060: c6ed 533e 8069 503c 6920 c93d 2e63 bd3b
00000070: eaf6 28be 724c b43e aad7 cabd 5413 1ebc
00000080: b0d1 7dbc b506 fd3c 4ceb 67bc ea7b d63c
00000090: 1459 ab3d 8e75 da3d 1715 c1be 698d d83d
000000a0: b41e a43c 3964 133e 4ba8 63be 728b 153e
000000b0: a27e e63d 09d3 04bd 0d98 43be 7d86 db3d
000000c0: 439a 96bd 9563 94bc dcb8 df3d 53ee b7bc
000000d0: 3c1e 4abd 6b0b 45bd cc71 95bd e776 35bd
000000e0: df02 06bd 3152 7dbd 1c7c 68bd d684 15bd
000000f0: 86f2 d13d 3bcd 99bd 06d4 7abd 6653 8e3e
00000100: 5907 27be dab8 8ebc bac8 04be 93ed 12be
00000110: f041 953c 23d5 bc3d 78d9 91be 905b 67bd
00000120: a3f2 d93c 3fe4 e63d fa7b ea3d 360f d33d
00000130: 3d22 efbd 717f afbc d22d 963d c145 f9bc
00000140: 7321 673e 2d8b b3bd f77d 9e3e 768e 7d3d
00000150: 9c64 f83d 79ab 05be 31ce dfbd 145f 36be
00000160: 1784 7e3d 698b 953c 443f 143d 7e39 cfbd
00000170: a704 3abe 1fa1 7abe 4194 07bc 6f67 abbc
00000180: 3d99 a2bd 7167 0e3d f4e5 60bd f6ed 823e
00000190: 21dc cb3d d744 263e 7050 3a3c 12e4 543c
000001a0: 594f bd3d 95e1 f23d bfaa 9bbd 30a6 1c3e
000001b0: c394 b83c a189 07be e21f 2dbe f725 833c
000001c0: 38bb 0dbe 7a06 74bd ca2c a03b 76bf 8bbd
000001d0: b442 15be 65d1 8fbd 3337 91bd caea 0fbd
000001e0: cb70 c3bd a0f7 6c3e b18d 123e 8b16 1bbe
000001f0: 5f75 28be 94b9 bdbd 1d32 073d 4012 b2b9
00000200: d933 753e 90bd 90bd de43 1e3e 7aca e2bc
00000210: a6fe 4c3e 9f74 e5bd 9b91 e5bd 8756 0b3e
00000220: d898 ba3e dd6c 053e baec bd3e 1b1a b53d
00000230: 5811 893d f713 ba3e 1f07 34bd 0fb3 c6bc
00000240: 66ba 1ebe 9954 253e 597a a8be 416a e1bd
00000250: 1534 dcbd adf1 0bbe 64ba 393d e910 7f3e
00000260: e20b b73e 2580 553d ddf3 d03d d50b 1cbb
00000270: 77c5 be3c 20d9 1a3e 9683 2fbd f864 183e
00000280: 3a88 7b3d 0c42 733c 057f 643d 4a83 413e
00000290: 525f 293d a437 133d 4f68 fb3e 7d67 1c3e
000002a0: 83bf b4be b852 2a3e 098e 153e bd84 f93d
000002b0: 6895 393e 306e 483e c144 16be d5a6 d53d
000002c0: ebc7 023e f2aa 843d 58e3 a13d a994 883c
000002d0: 7958 c73d 28e3 263d 6485 193c e4bb 29be
000002e0: dcd5 82bd 92af f13e bb43 fdbd 2bad cebc
000002f0: 4e6a 963e 311b 8cbd 8350 10bc 3e62 a13d
00000300: 25f2 7e3d 0a3d 48be 5012 61bc 7a19 e5bd
00000310: a309 8c3d 3639 f1bd 9e2b 39be cd83 c3bd
00000320: ac03 a6bb 5c99 813d 6ed9 cebd e415 123d
00000330: 5366 3fbc 1999 fbbc 963d bb3c 59aa bfbc
00000340: c731 5f3b 3bcc 64bd bb39 bb3d 085b 543e
00000350: 3dbc 9fbc 2165 19be 1d33 c4bc b532 663e
00000360: 7417 4ebe 5d73 593c fa2b e43d bea8 34bc
00000370: 4f4f 98bd 8fee ba3e 5e26 8bbd 1597 833d
00000380: 2ff1 20bd e86b 273b 835e bd3b 026b d13d
00000390: 1384 883d 3e2b 013e 5583 90be 8d07 803d
000003a0: 8d24 003e 7ddc 163e 4f63 8a3d 7f1a 773d
000003b0: e1b1 f33d 442b b73c cf6e 16be 11dc 453c
000003c0: b280 febd e5ad c43c 94a8 e8b9 c8da a7bd
000003d0: 8082 64bd b35a 88bd 45a4 c7bb 9948 a2bd
000003e0: 2920 60bd f27c 18be efe1 1dbd 832c 2b3e
000003f0: 1fde 03be 6dd6 aabd 6c4d eb3c 31f9 24be

advantage_stream.bias f4 [5]
0.014598887 0.71084505 -2.0277267 -0.061267897 0.7874825
00000000: 2c30 6f3c f1f9 353f 46c6 01c0 0cf4 7abd
00000010: 7498 493f

hidden_nets.0.weight f4 [128, 11]
0.01893126 -0.025563164 -0.24298966 -0.1599778 -0.16619293 0.09756455 -0.054800414 -0.059294358
0.113771275 -0.33219266 -0.101990275 0.0050896057 0.08229374 -0.15191762 -0.07389291 0.0014595571
-0.095071286 -0.09843289 -0.24763101 -0.1758896 -0.23946378 0.14579132 -0.07412723 -0.25941905
-0.08430008 0.0349861 0.57429755 -0.00751993 -0.0033311443 -0.09984757 -0.1334906 -0.008036197
0.024817765 -0.32165894 -0.12177026 0.07803773 -0.46457937 -0.03831905 -0.3540149 0.18939565
-0.048470728 0.069605 0.22541127 -0.024272894 0.53426266 -0.022041596 -0.19658871 0.07134153
-0.48137003 -0.24873151 -0.061433 -0.17697725 0.0071587595 -0.08974988 -0.03599689 -0.067625925
-0.23504676 -0.1305995 -0.07312803 0.07293221 -0.20013101 -0.06883453 -0.14710796 0.10748033
-0.112282984 0.19947733 -0.9047662 0.12403523 -0.44226187 0.08455662 -0.34481704 -0.11055698
-0.275774 0.045777313 -0.13832478 -0.17150575 -0.2335883 -0.8006506 0.1577711 -0.068181425
-0.04820438 -0.20334852 -0.02606863 0.41412082 0.1668135 0.13473244 -0.11637432 -0.065300435
-0.07035308 -0.06609812 -0.21825676 0.07483085 -0.004248178 -0.3009722 -0.10594837 -0.13835943
-0.1192122 -0.30869773 0.07259239 -0.5949372 -0.29246688 0.26551262 0.15193865 0.56005037
-0.14722969 0.0038343507 -0.029457333 0.038777187 -0.15499736 -0.055953473 0.07436211 0.20744257
-0.36090168 0.2615007 -0.5763229 0.055297025 -0.16772814 0.26343027 -0.14319733 0.34518746
0.19979239 -0.43580654 -0.21188621 0.089698754 -0.45850718 -0.06011816 -0.1556619 -0.113942616
-0.23698163 0.06302785 0.16205315 -0.19146773 -0.66401184 -0.03787317 0.36855137 -0.14415632
-0.21197556 0.23192148 0.44702575 0.041385733 0.078979336 -0.46444988 0.01882962 0.04300387
-0.24348684 0.100034334 0.12798902 0.13613519 -0.29092938 -0.08032961 -0.3077598 0.14780305
-0.11830632 0.22214684 0.67769945 -0.29245436 0.038409386 -0.13329104 0.16593601 0.0030093642
0.086001955 -0.26607826 -0.12930626 -0.06480458 -0.18250674 -0.05003162 0.029587308 -0.16194734
-0.11230945 -0.17392088 0.008835202 0.04131491 -0.109250784 0.12228032 -0.15007907 0.1011552
0.17588544 -0.23731 -0.1476679 0.31491816 -0.7637812 0.14153647 0.16789807 -0.018718692
0.006342207 0.029831454 0.047230065 0.05840938 0.09838507 -0.9609918 0.030650482 -0.104242206
-0.64925456 -0.41045296 -0.0037972026 -0.11999551 0.29546684 0.28532442 -0.14070852 -0.30858383
-0.19092064 0.16395015 0.582456 0.07098031 -0.0978233 -0.18500485 0.13903357 0.030320635
0.085308276 0.3889018 0.04354104 -0.4786535 0.014105392 -0.6382218 0.15492238 0.20494354
-0.2324804 0.00019192164 -0.04880192 0.05513113 0.22841738 -0.21888757 -0.3466888 -0.04064376
0.023351384 -0.17873642 0.18915282 -0.3921207 0.094771996 0.33234864 0.14675611 0.6169009
-0.22430031 -0.053450912 -0.24073428 0.24753162 0.090013504 0.05365782 -0.27026498 -0.17497957
-0.103741564 -0.12947077 -0.66671497 0.23173775 -0.41313094 0.12421386 -0.36581734 -0.14447325
0.16874444 0.3639927 -0.1498497 0.057204194 -0.07311529 -0.4799035 0.062113475 0.35875502
00000000: bb15 9b3c d769 d1bc 48d2 78be 38d1 23be
00000010: 7b2e 2abe eccf c73d 6676 60bd a4de 72bd
00000020: ea00 e93d 2815 aabe 47e0 d0bd b5c6 a63b
00000030: 9f89 a83d 4b90 1bbe 2a55 97bd 9c4e bf3a
00000040: bcb4 c2bd 2f97 c9bd fc92 7dbe 671c 34be
00000050: fe35 75be 524a 153e 04d0 97bd 93d2 84be
00000060: 85a5 acbd 964d 0f3d 2a05 133f bf69 f6bb
00000070: 544f 5abb e27c ccbd c3b1 08be 41aa 03bc
00000080: a04e cb3c 7bb0 a4be b062 f9bd 3fd2 9f3d
00000090: 59dd edbe 70f4 1cbd 7141 b5be eff0 413e
000000a0: 3e89 46bd 118d 8e3d 36d2 663e f3d7 c6bc
000000b0: 70c5 083f 9490 b4bc 8d4e 49be 821b 923d
000000c0: 2276 f6be 79b3 7ebe 2ba1 7bbd 8639 35be
000000d0: 0794 ea3b c9ce b7bd 7a71 13bd 767f 8abd
000000e0: 19b0 70be e0bb 05be 26c4 95bd 7c5d 953d
000000f0: 25ef 4cbe 1ef9 8cbd 78a3 16be a61e dc3d
00000100: 9ff4 e5bd c943 4c3e c29e 67bf 2f06 fe3d
00000110: 2670 e2be 052c ad3d dc8b b0be b36b e2bd
00000120: 4032 8dbe fe80 3b3d 03a5 0dbe 349f 2fbe
00000130: c531 6fbe 70f7 4cbf bf8e 213e b4a2 8bbd
00000140: f571 45bd 983a 50be e18d d5bc a507 d43e
00000150: 28d1 2a3e 4df7 093e a955 eebd 3cbc 85bd
00000160: 4715 90bd 735e 87bd b37e 5fbe eb40 993d
00000170: 4d34 8bbb 0719 9abe 76fb d8bd 18ae 0dbe
00000180: 8725 f4bd a10d 9ebe 52ab 943d ce4d 18bf
00000190: 38be 95be 45f1 873e ce95 1b3e 765f 0f3f
000001a0: 61c3 16be bb49 7b3b 8150 f1bc d4d4 1e3d
000001b0: a1b7 1ebe 782f 65bd 294b 983d d36b 543e
000001c0: 1bc8 b8be 6be3 853e e689 13bf 227f 623d
000001d0: edc0 2bbe 55e0 863e 52a2 12be 69bc b03e
000001e0: 6096 4c3e 0922 dfbe b3f8 58be fbb3 b73d
000001f0: 74c1 eabe 763e 76bd d565 1fbe bf5a e9bd
00000200: 50ab 72be bf14 813d 43f1 253e 1e10 44be
00000210: aefc 29bf e620 1bbd c4b2 bc3e b79d 13be
00000220: 1f10 59be d37c 6d3e 8fe0 e43e 1684 293d
00000230: ebbf a13d 60cc edbe 9340 9a3c d324 303d
00000240: 9d54 79be cdde cc3d 8e0f 033e 0667 0b3e
00000250: b2f4 94be da83 a4bd b192 9dbe af59 173e
00000260: 954a f2bd 767a 633e b67d 2d3f 94bc 95be
00000270: 2953 1d3d 727d 08be 21eb 293e c138 453b
00000280: cb21 b03d 693b 88be dc68 04be 43b8 84bd
00000290: 0ce3 3abe f5ed 4cbd 1561 f23c 86d5 25be
000002a0: 7f02 e6bd 5118 32be 86c1 103c d339 293d
000002b0: e0be dfbd 1b6e fa3d 54ae 19be 752a cf3d
000002c0: 501b 343e 6501 73be 4136 17be f43c a13e
000002d0: 2a87 43bf f0ee 103e 79ed 2b3e f157 99bc
000002e0: 4ad2 cf3b 1861 f43c 5074 413d ad3e 6f3d
000002f0: 1d7e c93d 8f03 76bf b816 fb3c f07c d5bd
00000300: 8c35 26bf e426 d2be 7dda 78bb 35c0 f5bd
00000310: 6e47 973e 0b16 923e e515 10be b3fe 9dbe
00000320: b380 43be 8ce2 273e d61b 153f 205e 913d
00000330: 9557 c8bd e971 3dbe d15e 0e3e fb62 f83c
00000340: 1bb6 ae3d 231e c73e 1758 323d 1212 f5be
00000350: 4d1a 673c 8162 23bf f9a3 1e3e b8dc 513e
00000360: 580f 6ebe 933e 4939 86e4 47bd 2ed1 613d
00000370: 3fe6 693e 1024 60be 3281 b1be 127a 26bd
00000380: 674b bf3c ae06 37be 47b1 413e 0bc4 c8be
00000390: d217 c23d 9a29 aa3e 3c47 163e 38ed 1d3f
000003a0: fbae 65be 58ef 5abd 0c83 76be ee78 7d3e
000003b0: 0059 b83d 4dc8 5b3d 2c60 8abe d82d 33be
000003c0: 7576 d4bd fc93 04be d5ad 2abf a94c 6d3e
000003d0: e685 d3be d663 fe3d 694c bbbe ccf0 13be
000003e0: 58cb 2c3e 405d ba3e 3372 19be f24e 6a3d
000003f0: 78bd 95bd e9b5 f5be b36a 7e3d bdae b73e

hidden_nets.0.bias f4 [128]
-0.03758639 -0.081953205 -0.28913257 -0.07806092 -0.095119424 -0.1138676 0.052149497 0.16992696
-0.0735241 -0.21453007 0.18825577 -0.04501252 -0.09552251 -0.14592972 -0.25563532 -0.017565604
-0.1799349 0.14398497 -0.30182144 -0.11107682 -0.20022173 -0.33433428 0.19136971 -0.15183458
-0.059521616 0.08820259 -0.085450105 -0.1789697 0.16706121 0.12592329 -0.15334268 -0.02775938
0.027475879 -0.020765092 -0.23330949 -0.055267315 -0.059833787 -0.049329866 -0.02654572 -0.2184111
0.053054284 -0.079719506 0.11959413 -0.13344567 -0.005869219 -0.15359418 -0.33011556 0.05443468
-0.042428922 -0.0898361 0.24692379 -0.29461467 -0.04509049 -0.09475745 -0.03544713 -0.11795871
-0.29926875 -0.028299272 -0.047518745 -0.021420654 -0.10855489 -0.1527723 -0.1627966 -0.11486598
-0.028936394 -0.033399515 0.17427723 -0.16139664 -0.088559054 -0.049126476 -0.04251771 0.06557318
-0.03270586 -0.28938287 -0.103357054 -0.045227498 -0.10289681 -0.058384772 0.0 0.14272381
-0.16556613 -0.104706086 -0.16180147 -0.21601264 0.049866702 0.0 -0.01799849 -0.19558024
-0.041739058 0.15344381 -0.028311282 0.18801443 -0.17782786 -0.06719414 0.15832452 -0.18771197
0.27594653 -0.07457094 0.018547783 -0.16321671 0.03678975 -0.07684996 -0.015551789 0.060054746
0.10958512 0.08908587 -0.21610884 0.039827906 -0.18721822 0.01862184 -0.073137626 -0.18710274
0.16366717 -0.061804704 -0.061338395 0.16270356 0.13952596 -0.08235959 -0.049888346 0.1012859
0.24888209 -0.27283138 -0.0707666 -0.059620038 -0.07964767 -0.10122435 0.08497856 0.103761874
00000000: 30f4 19bd 15d7 a7bd 2f09 94be 67de 9fbd
00000010: f9cd c2bd 6b33 e9bd b69a 553d 5501 2e3e
00000020: ce93 96bd c5ad 5bbe 1fc6 403e 0c5f 38bd
00000030: 4ea1 c3bd 9a6e 15be a2e2 82be bee5 8fbc
00000040: db40 38be cc70 133e 5788 9abe 3e7c e3bd
00000050: ed06 4dbe dd2d abbe 6cf6 433e 867a 1bbe
00000060: f0cc 73bd 8fa3 b43d 7700 afbd d543 37be
00000070: 1812 2b3e 09f2 003e dd05 1dbe a467 e3bc
00000080: 1815 e13c 8e1b aabc afe8 6ebe fb5f 62bd
00000090: 4614 75bd 1d0e 4abd 6976 d9bc 29a7 5fbe
000000a0: 734f 593d fb43 a3bd c4ed f43d fba5 08be
000000b0: 9452 c0bb cb47 1dbe e804 a9be e6f6 5e3d
000000c0: f3c9 2dbd fdfb b7bd 97d9 7c3e bcd7 96be
000000d0: ceb0 38bd 3210 c2bd 0331 11bd 5694 f1bd
000000e0: c139 99be e0d3 e7bc 04a3 42bd 5e7a afbc
000000f0: 0752 debd 5870 1cbe 27b4 26be db3e ebbd
00000100: 040c edbc eecd 08bd bb75 323e 2945 25be
00000110: 735e b5bd d838 49bd 0d27 2ebd 3b4b 863d
00000120: 94f6 05bd fe29 94be ddac d3bd 7840 39bd
00000130: 90bb d2bd df24 6fbd 0000 0000 3126 123e
00000140: 2b8a 29be 2570 d6bd 49af 25be 6b32 5dbe
00000150: 0741 4c3d 0000 0000 9271 93bc 3046 48be
00000160: 93f6 2abd 6020 1d3e 10ed e7bc db86 403e
00000170: 8218 36be 159d 89bd d31f 223e 9137 40be
00000180: dd48 8d3e a6b8 98bd 85f1 973c 4822 27be
00000190: d9b0 163d 8363 9dbd eecc 7ebc f7fb 753d
000001a0: 2a6e e03d a772 b63d a34b 5dbe 9622 233d
000001b0: 22b6 3fbe d48c 983c 2ec9 95bd dc97 3fbe
000001c0: 5e98 273e ee26 7dbd f83d 7bbd c39b 263e
000001d0: e5df 0e3e 25ac a8bd b957 4cbd fb6e cf3d
000001e0: f2da 7e3e 8eb0 8bbe 14ee 90bd 2434 74bd
000001f0: 511e a3bd b64e cfbd 3d09 ae3d 1b81 d43d

hidden_nets.1.weight f4 [128, 128]
-0.08021235 -0.014269929 -0.11049238 -0.011855863 -0.023848783 -0.12418948 -0.1870058 -0.09201527
0.11807398 0.032220747 0.09835496 -0.119010285 0.0031430302 -0.1153742 0.02998348 0.016946461
-0.14468887 -0.10289787 -0.13108525 -0.020606121 -0.06636531 -0.1760509 0.033269856 -0.12938806
-0.07197521 0.058553375 -0.10717066 -0.04439567 -0.062313624 0.06719031 0.080728605 0.014608456
-0.12697923 -0.11867327 -0.1104187 0.017761894 0.13021281 -0.14866708 0.0511431 -0.099282645
-0.15687333 -0.058382906 0.04534912 -0.060260978 -0.03987056 -0.1342282 -0.048913512 -0.17808679
0.015547717 -0.059032403 0.055358943 0.07467077 0.12523559 -0.13347258 -0.068404116 -0.046783075
-0.16754936 -0.101793684 0.12790106 0.11400217 0.14074068 0.0053855707 0.010831736 -0.09538587
0.14648156 0.08549045 0.002264558 -0.15476471 -0.0112129655 -0.03444738 -0.0220725 -0.12524813
-0.125611 0.08621992 -0.12576377 0.03621753 -0.036182057 -0.012412838 0.119334675 -0.15255174
-0.15428299 -0.08070554 0.016670702 -0.22571445 -0.23775528 -0.04767503 0.09784129 0.022752544
-0.12002123 -0.027843677 -0.1372594 -0.044014905 -0.049325544 -0.06003547 -0.0459833 -0.06495405
-0.19198252 0.13617805 -0.17571817 -0.041245025 -0.1652813 0.058947034 -0.04739887 -0.2311243
-0.027746512 -0.21839565 -0.017125294 -0.02422205 0.08666765 -0.14761125 -0.13192406 -0.20466948
0.10232452 -0.08864929 -0.16006298 0.014148574 -0.13434763 -0.0018661114 -0.049497925 -0.07525804
-0.07884525 -0.15943454 0.058570273 -0.10932043 0.009758918 -0.14869887 -0.05520443 -0.04931524
0.026052756 0.10223722 0.075785585 -0.05272 -0.17896545 -0.21230572 -0.1412389 -1.2501186
-0.3347924 -0.37155658 -0.7797951 -0.041754555 -0.18984544 -0.05954083 0.043494396 0.14211234
-0.33347514 -0.32172766 -0.16243616 0.42202526 0.07191083 0.040648453 -0.14516406 -0.3682877
-0.12088601 -0.09921894 -0.48234382 0.095079154 -0.26651227 -0.42190918 0.022091435 -0.029970696
-0.5829151 -0.30824482 0.14410228 0.026400475 -0.25704893 0.008401442 -0.034531698 -0.13401915
-0.53948 -0.059456505 -0.03317338 0.009730716 -0.3003265 -0.05363156 -0.16900775 -0.15517995
-0.17452939 -0.49727574 -0.24221306 -0.035253774 0.00868912 0.026661644 -0.1789717 -0.25811577
0.049336653 -0.7415185 0.12219365 -0.35304388 -0.21475148 -0.04576275 0.023877034 -0.6205404
0.12190645 -0.2914543 -0.36654282 -0.12590946 -0.5403384 -0.3269399 0.099642135 -0.51793396
-0.013606269 0.1512523 -0.15248197 0.037620235 -0.0386371 0.09804962 0.0582486 -0.19062674
-0.24648178 0.072560154 -0.06849838 -0.055184577 -0.39732644 0.13945723 -0.055469766 0.048079
0.13662921 0.0036903396 0.065309174 -0.3701123 0.21306694 0.113065794 -0.5259208 0.040846907
-0.32438552 0.06740209 -0.21132655 -0.072936945 0.028195959 0.10444052 -0.008594729 -0.38999704
-0.27675918 -0.38210428 -0.2789315 -0.013830887 -0.09556391 -0.3220939 -1.1452607 0.08341124
-0.32280007 -0.13773136 -0.53549016 -0.7109944 -0.27083686 -0.14018734 0.0491634 0.23897946
0.20555952 0.10731122 -0.037084185 -0.0818497 0.26995373 0.104016565 0.17297527 -0.81447685
00000000: 5f46 a4bd 6ccc 69bc d449 e2bd 183f 42bc
00000010: 865e c3bc 0e57 febd 737e 3fbe 8072 bcbd
00000020: c5d0 f13d e7f9 033d 536e c93d aabb f3bd
00000030: 4cfb 4d3b 4f49 ecbd ea9f f53c 4ed3 8a3c
00000040: 5229 14be 1ebc d2bd 363b 06be 2bce a8bc
00000050: 89ea 87bd b046 34be f945 083d 4e7e 04be
00000060: bd67 93bd aad5 6f3d 4a7c dbbd 3cd8 35bd
00000070: 923c 7fbd 139b 893d 0a55 a53d 4e58 6f3c
00000080: d806 02be f90a f3bd 3323 e2bd 6481 913c
00000090: 8256 053e 2f3c 18be 6d7b 513d b354 cbbd
000000a0: 67a3 20be ea22 6fbd 00c0 393d 37d4 76bd
000000b0: 504f 23bd 1e73 09be 8959 48bd 625c 36be
000000c0: dabb 7e3c f6cb 71bd 0fc0 623d fdec 983d
000000d0: c23d 003e 09ad 08be 7517 8cbd 9c9f 3fbd
000000e0: 0f92 2bbe 3579 d0bd 7ff8 023e f879 e93d
000000f0: 531e 103e 7179 b03b 9877 313c ab59 c3bd
00000100: 43ff 153e 9e15 af3d fb68 143b a47a 1ebe
00000110: 96b6 37bc b218 0dbd 63d1 b4bc 0c41 00be
00000120: 2ca0 00be 1294 b03d 38c8 00be d558 143d
00000130: a333 14bd 375f 4bbc bd65 f43d 8636 1cbe
00000140: 5cfc 1dbe f248 a5bd ff90 883c b021 67be
00000150: 1f76 73be e446 43bd 0461 c83d 8b63 ba3c
00000160: b1cd f5bd 6c18 e4bc ba8d 0cbe f948 34bd
00000170: 9509 4abd c1e7 75bd fc58 3cbd a106 85bd
00000180: 1197 44be 4272 0b3e 77ef 33be 8bf0 28bd
00000190: 803f 29be 7272 713d 5125 42bd d9ab 6cbe
000001a0: a74c e3bc 1ca3 5fbe 584a 8cbc 526d c6bc
000001b0: cf7e b13d 6727 17be 1a17 07be e094 51be
000001c0: 858f d13d c28d b5bd 8de7 23be 6ccf 673c
000001d0: 6d92 09be 4f98 f4ba 56be 4abd e320 9abd
000001e0: 9e79 a1bd cf42 23be 62e7 6f3d 64e3 dfbd
000001f0: dee3 1f3c 8444 18be 0a1e 62bd c7fe 49bd
00000200: 976c d53c bf61 d13d 7935 9b3d edf0 57bd
00000210: b842 37be ac66 59be eea0 10be e303 a0bf
00000220: e969 abbe aa3c bebe a7a0 47bf d306 2bbd
00000230: d866 42be 16e1 73bd 2e27 323d e685 113e
00000240: 41bd aabe 7db9 a4be aa55 26be b213 d83e
00000250: fc45 933d fe7e 263d e3a5 14be 3590 bcbe
00000260: 1693 f7bd 4d33 cbbd c5f5 f6be dcb8 c23d
00000270: 4c74 88be 7b04 d8be 19f9 b43c 1b85 f5bc
00000280: ed39 15bf 44d2 9dbe 8c8f 133e cf45 d83c
00000290: eb9b 83be 34a6 093c 1c71 0dbd 513c 09be
000002a0: 5c1b 0abf aa88 73bd cfe0 07bd 956d 1f3c
000002b0: 65c4 99be c4ac 5bbd 5e10 2dbe 7ee7 1ebe
000002c0: d5b7 32be ed9a febe b306 78be 4366 10bd
000002d0: d05c 0e3c 8569 da3c 5b44 37be c027 84be
000002e0: 3b15 4a3d 28d4 3dbf aa40 fa3d 2bc2 b4be
000002f0: d0e7 5bbe b971 3bbd c599 c33c bcdb 1ebf
00000300: 17aa f93d 7f39 95be 80ab bbbe 69ee 00be
00000310: 9e53 0abf ab64 a7be 2d11 cc3d 5297 04bf
00000320: d4ec 5ebc e2e1 1a3e 3c24 1cbe ad17 1a3d
00000330: f041 1ebd 3dce c83d 1696 6e3d a833 43be
00000340: b865 7cbe 6b9a 943d e148 8cbd 3909 62bd
00000350: 5f6e cbbe e0cd 0e3e 4434 63bd 7cee 443d
00000360: 87e8 0b3e a0d9 713b d1c0 853d 5c7f bdbe
00000370: 382e 5a3e 0a8f e73d bfa2 06bf 164f 273d
00000380: dc15 a6be 1b0a 8a3d fd65 58be f75f 95bd
00000390: 36fb e63c e9e4 d53d e8d0 0cbc b1ad c7be
000003a0: 61b3 8dbe 2ca3 c3be 1cd0 8ebe f29a 62bc
000003b0: 03b7 c3bd 7ee9 a4be e797 92bf 83d3 aa3d
000003c0: 0d46 a5be 7309 0dbe e215 09bf bb03 36bf
000003d0: 21ab 8abe 458d 0fbe 905f 493d 08b7 743e
000003e0: 327e 523e fcc5 db3d 96e5 17bd d1a0 a7bd
000003f0: 6037 8a3e a306 d53d 6e20 313e 8e81 50bf
