phase4_part3_quickdoc/seed_777/dqn_racing_final.pth (torch, 453061 bytes, 36 tensors)

hidden_nets.0.weight f4 [128, 11]
000000 72 28 26 be 4c 03 49 be a4 3f d3 3d 5a 0d de 3d
       -0.16226366 -0.19630164 0.10314873 0.1084239
000010 de ad 44 3e b0 e4 f5 3c 52 22 e3 bb 05 f1 c4 bd
       0.1920695 0.030016273 -0.0069315815 -0.09616283
000020 9f e4 9e bd c0 fa a5 3d 43 32 39 3d 46 9b 8f be
       -0.0775845 0.081044674 0.04521395 -0.28048152
000030 70 7d 27 3c 92 d6 3e 3d 15 cb 8a 3d b8 33 4e 3e
       0.010222778 0.04659135 0.06777016 0.20136917
000040 6b d5 2f be bd 0d db 3d 34 40 05 be 8f b8 db 3d
       -0.17171256 0.1069598 -0.13012773 0.10728561
000050 d6 08 4c 3d bc 49 41 bd 49 9f 9d 3d bf cf 82 bc
       0.049813114 -0.04718946 0.07696397 -0.015968202
000060 04 65 7e 3e 82 7e 7e 3d 1a 05 af 3c 9d 9f 58 3c
       0.24843222 0.062132366 0.021364737 0.0132216485
000070 18 77 b3 bc 15 43 b2 bd 59 32 9f 3d 32 24 fc bd
       -0.021907374 -0.08704201 0.07773275 -0.12311591
000080 f5 2c cb 3a ce 84 d3 3d 0f 23 75 3d 01 e7 0f 3e
       0.0015501069 0.10328065 0.059847888 0.14052965
000090 17 b6 06 be 3f 88 0b be 50 26 45 be 33 f4 00 3e
       -0.131554 -0.13626193 -0.19252896 0.12593155
0000a0 69 83 14 bd d8 57 0c 3e 11 54 0b 3e cb fe 8b bd
       -0.036258135 0.13705385 0.13606288 -0.06835707
0000b0 3e 2a b5 bd 02 ee fc 3c 2f 64 9a 3d 54 bc 34 be
       -0.08845948 0.03087521 0.0753864 -0.17649966
0000c0 2a 1d 03 be 0b f0 52 be e5 23 bc 3c dd 1b 3d be
       -0.12804094 -0.20599382 0.022966335 -0.1846766
0000d0 a5 d2 25 3e 32 80 d4 3d 5b 5d 34 bd 24 40 0d be
       0.16193636 0.10376014 -0.044034343 -0.13793999
0000e0 95 bc 53 be 03 9c 37 bc 4c 50 fb bd 79 e8 fb 3d
       -0.20677407 -0.01120663 -0.12271175 0.123002
0000f0 28 22 d2 3d 52 75 07 be 3b 2b 53 bd b6 83 3c bc
       0.10260421 -0.13228348 -0.0515549 -0.011506012
000100 5c e9 58 be e2 98 84 3b 49 9a dd bd 10 03 52 bd
       -0.2118277 0.0040465454 -0.10820443 -0.051272452
000110 7c 79 30 be f9 92 28 bd 5a 25 bc 3d 44 f6 97 bc
       -0.17233843 -0.04115579 0.09186812 -0.018550046
000120 c5 3b 3f bd 48 55 b4 bd 5a e2 26 be 33 67 e3 bd
       -0.04668786 -0.088053286 -0.16297284 -0.11103668
000130 87 8a e9 3c 47 43 77 3c 37 9d a7 bd 3a 63 9f be
       0.028508438 0.015091724 -0.08184283 -0.3113039
000140 3b d6 a7 bc c9 db f2 3c 21 dc 26 be c1 31 7a bc
       -0.020487895 0.029645817 -0.1629491 -0.015270651
000150 15 c8 25 3e 83 f8 4b 3e ca cd de bd 36 10 71 be
       0.16189606 0.19919018 -0.10879095 -0.2354134
000160 e7 03 5a be 3f 0f 5d 3c fa 6b 0c be 03 7f 18 be
       -0.21290551 0.0134924045 -0.13713065 -0.14892201
000170 ce 15 23 be 65 77 0c bd 8e 1f 32 3e 04 3e cd 3d
       -0.15926287 -0.03429355 0.1739485 0.10021594
000180 cb 6d 41 bd ba 2f 86 3d d3 0f 23 3e 1c 66 f0 3c
       -0.047223847 0.06552072 0.15924005 0.029345565
000190 54 af 8a 3b 57 88 7c 3d 06 57 37 3e d2 65 54 be
       0.0042323265 0.06165346 0.1790429 -0.20741966
0001a0 d7 54 bf 3d c5 1b 25 3d 7b 4c 66 be ee 28 03 be
       0.09342354 0.040309686 -0.22490112 -0.12808582
0001b0 b0 eb 44 3d 37 96 f9 3d 7f d5 ba 3d ae d7 23 bd
       0.04807633 0.12186854 0.091227524 -0.04000061
0001c0 29 41 32 be 86 66 4c bd cc a5 66 be fd cd cf 3d
       -0.17407669 -0.04990246 -0.22524184 0.10146711
0001d0 0c 6a cd 3d 6d 0b 3b 3c a3 0b 01 be c1 93 f5 3d
       0.100299925 0.011416298 -0.12602095 0.119910724
0001e0 19 90 2d 3d b0 f5 fa 3c 69 20 fb bd 2b e2 6f 3e
       0.04237375 0.030634731 -0.12262041 0.2342612
0001f0 10 a4 ac 3d f4 27 51 be 1b 65 fc 3d f0 52 d7 bc
       0.0842973 -0.20425397 0.12323972 -0.026284665
000200 63 64 f3 bc 32 c1 c5 3c 48 4e 8c bd 76 01 8a bb
       -0.029710954 0.024139974 -0.068508685 -0.0042116
000210 47 83 2d be 24 f3 06 be 95 eb 09 be e5 5e e7 bc
       -0.1694461 -0.13178688 -0.13468774 -0.028243491
000220 4a a7 92 3d 42 4a fb 3d 12 4b 15 3e a5 5a 26 be
       0.07160814 0.12270023 0.14579418 -0.16245516
000230 32 bc ab 3d 15 8e 83 be 27 28 3c 3e 62 44 a2 bd
       0.08385505 -0.25694337 0.18374692 -0.07923199
000240 98 99 51 be 42 af 44 bc 9b 76 94 bc 67 a8 25 3d
       -0.20468748 -0.012004675 -0.018122962 0.040443804
000250 1b be 30 be f1 d3 30 3e 81 69 52 be a2 01 94 bd
       -0.1726002 0.17268349 -0.20548059 -0.07226874
000260 c7 42 85 bd 9a 36 16 be 9d 48 82 3e 74 2e 9d 3d
       -0.065068774 -0.14669266 0.25446025 0.07674876
000270 74 ce 07 3e 8e 86 01 3d 70 6d 95 be d1 32 00 bd
       0.1326235 0.031622462 -0.29185057 -0.031298462
000280 a7 ea 5f 3d 00 e5 f5 3c 06 4b 34 3e 9b 5f ed bd
       0.05466714 0.030016422 0.17606744 -0.11590501
000290 65 4c 1b bd a9 ff 5a 3e 85 11 c6 bd 32 21 d5 3c
       -0.037914652 0.21386589 -0.0967131 0.026016805
0002a0 8b d6 0b be 1e c2 95 bd 5d f8 b6 3d cf 42 39 be
       -0.1365606 -0.073124155 0.0893409 -0.18091892
0002b0 34 85 50 be c1 47 14 3c 2b fc 22 3e 56 96 93 bd
       -0.20363313 0.009050311 0.15916507 -0.07206409
0002c0 7d 6b 2d be 89 71 90 3d af 34 16 be b4 79 7c be
       -0.16935535 0.07052905 -0.14668535 -0.24655801
0002d0 3f 10 12 be 8a 04 9f bd 86 de 05 be aa 5c 61 bc
       -0.1426401 -0.07764538 -0.13073167 -0.013755003
0002e0 f3 7f ff 3a 86 7f 4d 3d 64 fd 55 be d4 88 f6 3d
       0.0019493088 0.050170444 -0.20897442 0.12037817
0002f0 ac 73 19 3d 4e 0d 7c be 81 7d 17 bd b8 85 58 3d
       0.03746383 -0.2461445 -0.036984924 0.0528619
000300 a2 73 67 bc 77 e3 bf bd ef c4 1b be 8c 79 e5 bd
       -0.01412669 -0.09369557 -0.15211843 -0.11204824
000310 00 91 95 be 56 9a ea bd d0 98 07 bf 36 85 1b 3e
       -0.2921219 -0.114552185 -0.5296755 0.15187535
000320 79 2f 1e be 98 02 3a 3d 24 38 02 be 13 fb 06 3c
       -0.15447797 0.04541263 -0.12716728 0.008238572
000330 ab 3e 02 bd 8d 3d 0e bd aa dd 92 3d bc ad 32 3d
       -0.031798046 -0.03472667 0.07171185 0.043622717
000340 d9 9b f1 bd 60 e5 de 3a 41 bc 6f bd d8 49 b3 bd
       -0.11797304 0.0017005615 -0.058529142 -0.08754319
000350 ac ca 4f 3e ff cb 22 bd 71 21 11 be dd 6e 25 3c
       0.20292157 -0.039745327 -0.14172913 0.010097233
000360 57 46 cb 3d 47 36 b7 3d cb bd ab bd 39 56 b2 bd
       0.09925526 0.089458995 -0.083858095 -0.08707852
000370 a8 3e f4 3d 02 10 e6 3c 55 ec c6 bd 9a 69 fc 3d
       0.11926013 0.028083805 -0.097130455 0.123248294
000380 4d 3e 90 be df 1a fb bc e9 45 91 3d 17 48 a9 3d
       -0.28172532 -0.030652462 0.070934124 0.08265703
000390 10 78 49 be e8 a7 aa be 4b 1b 2a 3e fb bd a3 3c
       -0.19674706 -0.33331227 0.16611974 0.01998805
0003a0 0d 42 1f bd a1 77 30 3d 40 95 07 bd be f6 8b 3e
       -0.03888135 0.043082837 -0.03310132 0.27336687
0003b0 86 68 c7 bd e7 9a e6 bc a3 e3 1f be e7 1c 55 3c
       -0.09736733 -0.028150035 -0.1561418 0.013007379
0003c0 9b d3 60 bd ec 31 58 3d 43 06 06 bf f0 5a bb bd
       -0.054889303 0.052781984 -0.52353305 -0.09148204
0003d0 28 13 dd 3d aa 70 22 ba 43 10 28 39 74 fc 3f be
       0.107946694 -0.0006196598 0.00016027786 -0.18748647
0003e0 80 5f bd bd 95 ae 9b bc 1d 53 82 3d 7b 2b 4a 3d
       -0.09246731 -0.019004146 0.06363509 0.049357872
0003f0 59 a1 d8 bc 2e b5 46 3e f8 4f e6 3b 36 b3 54 3e
       -0.026444124 0.19405052 0.007028576 0.20771489

hidden_nets.0.bias f4 [128]
000000 54 1f 29 bd 6c 3f ac bc 14 3e 76 bd a4 a1 21 bd
       -0.041289642 -0.021026336 -0.060117796 -0.039460793
000010 e9 86 d8 bc 97 32 04 be 36 cd e6 bb 95 1d f6 3c
       -0.026431518 -0.12909923 -0.007043506 0.030043403
000020 a3 5d c8 3c 62 e4 fb bc f2 f3 72 3d de b4 66 3c
       0.024458712 -0.03074855 0.059314676 0.014081208
000030 0c 24 7c 3b 00 00 00 00 6a f4 29 bd ea ee 87 bd
       0.0038473634 0.0 -0.041492857 -0.06637366
000040 52 12 3c 3d 11 85 f8 bb 02 84 20 3d 91 e5 c8 bd
       0.04591591 -0.007584222 0.039188392 -0.09809411
000050 4e 15 c8 bc f5 33 a0 bd 84 f8 69 bb d9 e6 a8 bd
       -0.024424221 -0.0782241 -0.0035701105 -0.08247156
000060 cb 82 8c bd ee a4 3f bd c1 45 1f bd 83 e1 ce bc
       -0.06860884 -0.04678815 -0.038884882 -0.025254017
000070 ea de 0c bc b9 95 cc bc 87 83 99 3d b9 de 00 be
       -0.008598069 -0.024973737 0.0749579 -0.12584962
000080 cb 60 77 bd c6 3a 13 3d f4 64 eb bd 61 49 c1 bd
       -0.060395043 0.035944723 -0.11493865 -0.09437824
000090 39 81 cc 3c f2 44 d6 bc f0 6c b5 3d 98 31 86 bd
       0.024963962 -0.026155923 0.08858669 -0.06552428
0000a0 cb bf 9e bc 5b f0 09 3d e8 39 87 3d 37 67 e4 bd
       -0.019378563 0.033676486 0.066028416 -0.11152499
0000b0 1f b3 df bc 01 da 01 be 53 b1 a9 bd 2c d6 00 be
       -0.027307091 -0.12680818 -0.08285775 -0.125817
0000c0 00 00 00 00 00 00 00 00 4c d5 1b bd 4b c3 fa bc
       0.0 0.0 -0.038045213 -0.030610701
0000d0 9d b5 9c bd de 98 44 bd 0b ec 73 3d c2 d8 82 3d
       -0.076518275 -0.047997348 0.05955128 0.063889995
0000e0 6c 6d c6 bd 38 7f 38 bd a4 a3 1f 3a 00 00 00 00
       -0.09688839 -0.0450432 0.0006089753 0.0
0000f0 64 6e bd 3a f7 99 65 bd 46 e3 9d bd 34 db 18 bc
       0.0014452455 -0.056055035 -0.077093646 -0.009329606
000100 2e 71 70 3d 79 0e 15 bd 4d 1f d6 bd 03 7d 8c bd
       0.058701687 -0.036390755 -0.10455189 -0.068597816
000110 ab 46 13 be ef 07 0e be b5 a9 d4 bd 60 cb b1 3c
       -0.14382426 -0.13870214 -0.103839315 0.021703422
000120 3e 02 05 bd 00 00 00 00 2e 08 d6 bb da b7 29 bc
       -0.03247284 0.0 -0.006531737 -0.010358775
000130 c5 19 33 3d 19 db b7 bd 2a fc e5 3b b3 d4 e4 bc
       0.043725748 -0.089773364 0.0070185857 -0.027933454
000140 01 76 ef 3c aa 91 f5 3b b9 44 3f bd a8 b7 17 3d
       0.029231073 0.007494171 -0.0466964 0.037040383
000150 9e a9 4c bd a0 bb 89 bd b1 92 ce 3c 08 d8 3d 3c
       -0.049966447 -0.0672524 0.025216432 0.01158715
000160 27 b2 3e 3d d3 04 dc bc 78 3d 82 3d 6f 68 5e bc
       0.046556618 -0.02685777 0.063593805 -0.013574704
000170 a6 b5 57 3d 07 ec e6 bc e8 59 55 3d 0a 8b d3 bc
       0.052663468 -0.028188718 0.052087694 -0.025823135
000180 0e b9 3e 3d b6 eb 58 bd 17 1b 12 be 93 11 82 bc
       0.0465632 -0.052959166 -0.14268146 -0.01587752
000190 c4 dc 2c bc 48 20 e9 3a 83 4a d1 bd 1c 71 33 3d
       -0.0105506815 0.001778611 -0.1021929 0.04380904
0001a0 04 e6 94 3c cd a8 61 bd cf 52 36 3d 9d 00 98 3d
       0.018176086 -0.05509262 0.044512566 0.07421992
0001b0 21 8f 06 be e1 cf 51 bc d0 6c 8f bd 07 82 c1 bb
       -0.13140537 -0.01280591 -0.07003176 -0.005905393
0001c0 00 bf f7 bd ab 1c 0b bd 0d 67 90 bb 5d bf 5f 3c
       -0.12096977 -0.033962887 -0.004406816 0.013656464
0001d0 22 38 b2 3c 50 33 17 be 13 7a e6 3c fc 9c ec 3c
       0.021755282 -0.14765668 0.028134381 0.02888345
0001e0 95 a1 cb bd 13 19 a8 bd 73 86 4e bd f3 df c1 bd
       -0.09942929 -0.082079075 -0.05042119 -0.09466543
0001f0 4e 80 a3 3d 3d d4 ef bc 09 48 21 3d cb 15 a1 3c
       0.079834566 -0.029276008 0.03937534 0.019663712

hidden_nets.1.weight f4 [128, 128]
000000 e8 44 11 3c 0c 73 61 be 28 3f 2a be e4 25 15 be
       0.008866526 -0.22016543 -0.16625655 -0.14565235
000010 61 2e 19 be 6e 54 0d bd a7 4d 17 be a5 02 0b be
       -0.14959098 -0.034504347 -0.14775716 -0.13575228
000020 55 2e 1e 3e 28 c3 2d bd 5b a7 bc be da 2c fd bd
       0.15447362 -0.042422444 -0.36846432 -0.123620704
000030 0c 2a b9 bd 77 59 dc 3d c3 93 44 be 1a 7c 00 be
       -0.09041223 0.107592516 -0.19196992 -0.12547341
000040 1d 5c 96 3e c9 46 c9 bd da 92 f4 bc b7 6f 30 3c
       0.29367152 -0.09827954 -0.02985518 0.010768822
000050 81 85 31 bc f4 50 58 be aa 50 ba 3d 10 bc 80 bd
       -0.0108350525 -0.21124631 0.09097417 -0.0628587
000060 89 d0 4f be 11 a8 e0 3b 33 cc 34 be 3a 18 3c be
       -0.20294394 0.0068559726 -0.17656021 -0.18368617
000070 4c a3 86 3b 16 ae ff 3d 65 bc 16 bd ba a6 db bc
       0.004108822 0.12484376 -0.03680076 -0.0268129
000080 9b 75 da bc 15 19 00 be de 11 16 be e4 4d a3 bb
       -0.026667407 -0.12509568 -0.14655253 -0.0049836505
000090 61 07 55 3d 40 f6 ff bd 82 e4 1f 3e 19 40 75 3d
       0.05200899 -0.1249814 0.15614513 0.05987558
0000a0 6e aa 1d 3d 08 e8 fd 3d cc 79 db 3d 0b 5a ea bd
       0.038492613 0.12397772 0.1071659 -0.114429556
0000b0 2e c5 4c be e3 22 02 3e af 16 1e be f3 d3 54 3d
       -0.19997093 0.1270862 -0.1543834 0.051959943
0000c0 2d ba 04 3c 97 73 87 bc 15 00 ba bd bd 91 b7 bd
       0.008101028 -0.01653461 -0.09082047 -0.08963344
0000d0 f5 e7 91 bc 9f d2 5b be 8c 42 a1 3d 3e 13 14 3e
       -0.017810801 -0.21467064 0.07874021 0.14460465
0000e0 99 35 85 be 37 24 74 bd ea de db bc c5 45 ec bd
       -0.26017454 -0.05960485 -0.026839692 -0.11536745
0000f0 be b2 1a 3e 45 6a 6c 3d 24 b9 49 be ba 75 9e 3d
       0.15107247 0.057718534 -0.19699532 0.07737298
000100 65 2d cc 3c 77 ab 94 bc d3 23 fd bd 54 9b b9 3d
       0.02492399 -0.018148167 -0.123603486 0.090628296
000110 96 a6 55 3d 99 05 e2 bd 8f 8e 99 bd fa 4a 01 be
       0.05216082 -0.11036224 -0.07497894 -0.12626258
000120 6b 2c e3 3d 6f 37 7f bd 09 a8 75 3b 54 b5 ac bd
       0.110924564 -0.062308725 0.003748419 -0.08433023
000130 ee 85 02 bd 7a c5 fa bd 30 39 ad 3d 65 7e 9a bd
       -0.031866007 -0.12244697 0.08458173 -0.07543639
000140 b0 01 5c 3e cc 9f 05 3e 0a 33 b0 3c 75 4b d3 3d
       0.21485019 0.13049239 0.021508712 0.10317127
000150 64 b6 29 be d9 9e da bd 36 51 4a bd 86 85 c3 be
       -0.16573483 -0.10674829 -0.049393855 -0.38187808
000160 b2 5f 57 be 13 db 3c be f5 3b 67 3c 6b 65 62 bb
       -0.21032599 -0.18442945 0.014113416 -0.0034545313
000170 02 33 07 bd bd 9d 08 be f6 e9 67 be 16 0c d1 bb
       -0.03300763 -0.13341422 -0.22647843 -0.0063796146
000180 57 d9 2c be a3 5d 0e 3d 17 4a 95 3c 52 29 89 3c
       -0.16879784 0.034757268 0.018223805 0.016743336
000190 8b e7 13 bd 9c 75 4e 3c a5 5a 08 bd 3a 48 32 bd
       -0.03610949 0.012601282 -0.03328957 -0.043525912
0001a0 29 2c 05 bd 14 ed c3 bd 95 43 ee 3c 0e d7 45 be
       -0.032512818 -0.095667034 0.02908496 -0.19320318
0001b0 c0 48 8a bd 52 8a c6 3d d9 18 cf 3d 0f ac ac 3c
       -0.06752157 0.09694351 0.10112161 0.021078138
0001c0 d5 5e e5 bd b8 52 f4 ba f1 32 5f bd 7b 44 06 3d
       -0.111997284 -0.0018640375 -0.05449194 0.03278015
0001d0 24 2d 15 3e 66 40 a2 be 5a 1e 12 3d 93 76 9f 3d
       0.14568001 -0.31689757 0.035673477 0.07786288
0001e0 e3 56 31 3d 93 10 45 3e fe d2 eb bd 91 9d 00 3e
       0.043295752 0.19244604 -0.11514853 0.12560107
0001f0 0a 53 39 3c 8a 6d 45 be 9c 51 1b bb 72 21 11 3d
       0.011311302 -0.19280067 -0.0023699766 0.035432287
000200 35 5d 80 3c 5a 2b bb bd 71 56 01 bd bc 0d 43 bc
       0.015669445 -0.09139128 -0.031576578 -0.01190513
000210 bd 10 1b bc c3 73 b4 3d d7 3e fb bd 84 8f b9 3d
       -0.00946444 0.08811142 -0.12267845 0.090605766
000220 76 31 24 be 67 fe f5 3d 6a 8f 89 bc 84 fd a9 3d
       -0.16034493 0.12011414 -0.016792018 0.083003074
000230 af c2 0f 3e d4 1a 93 3d 19 6c 17 be a6 3a e3 ba
       0.1403911 0.071828514 -0.1478733 -0.0017336204
000240 8b 18 5e 3e 43 4f 5c 3e ad ed 19 3d c5 68 a6 bd
       0.2168905 0.21514611 0.03758018 -0.08125452
000250 75 02 cb bd 42 f0 d3 3d 2d 5d 10 3e 39 22 94 bb
       -0.09912578 0.1034856 0.14098044 -0.004520681
000260 ee 1c 28 3e 7f a6 11 bd 7e 1d bc 3c 9e b7 da bc
       0.16417286 -0.035559174 0.022963282 -0.026698884
000270 65 3f 38 be 49 66 04 be a8 e3 9f bd ff 60 31 3d
       -0.17992933 -0.12929644 -0.07807094 0.043305393
000280 58 97 3b be 8a 0a d8 3b ff 75 f3 3d 9a eb c1 3c
       -0.18319452 0.006593053 0.1188774 0.023671914
000290 5c d6 80 3d f9 de 89 3d c3 52 14 be 42 47 77 be
       0.06290886 0.06731982 -0.14484696 -0.24148276
0002a0 00 e4 f1 3c de 99 08 3e b9 84 06 3e 1e 43 44 3d
       0.029527664 0.13339946 0.13136567 0.04791557
0002b0 b9 6f 3b 3e df c4 85 3c b9 44 3c 3e 6f 05 65 3e
       0.18304338 0.016329227 0.1838559 0.22365354
0002c0 7c 42 fb 3d 96 58 35 bd 18 65 0a be 6e 51 53 bd
       0.1226854 -0.044273935 -0.13515127 -0.05159133
0002d0 d8 b8 65 bd 51 c8 1c be cc a1 93 bc 48 8f 87 be
       -0.056084484 -0.1531079 -0.018021487 -0.26476502
0002e0 69 1f d8 3d 6c 5a b8 bd ed 8d 8e bd 00 3e b8 bd
       0.10552866 -0.090016216 -0.06960664 -0.089962006
0002f0 4f 88 d8 bc 0d ee 25 bd 47 7f 64 3a c8 b9 86 3e
       -0.026432185 -0.040510226 0.00087164756 0.26313615
000300 85 3b da 3d dc c7 ba 3d 28 40 9c 3d 0f 6f 75 3d
       0.10655884 0.091201514 0.07629424 0.059920367
000310 00 85 34 bb 3f 1c ba 3a c5 4d d5 3d 68 59 55 3d
       -0.0027545094 0.0014199092 0.10415224 0.052087218
000320 48 25 15 be 80 26 8e bc d3 f6 55 3b 9b d2 ff bd
       -0.14565003 -0.017352343 0.003264834 -0.12491342
000330 75 b9 6a bd 7a 55 b8 bc fe 57 33 3d 21 09 14 be
       -0.05730577 -0.022501696 0.043785088 -0.14456607
000340 94 ab 82 3d 1a 31 27 bd fc a4 e2 bd 18 c3 95 3c
       0.06380382 -0.04081831 -0.110666245 0.018281505
000350 9b 38 34 3e b7 9d 2e 3e d0 9e c9 3a d1 ad 0e 3e
       0.17599718 0.17052351 0.0015382413 0.13933493
000360 01 b6 02 be 32 85 8f be 3c aa e2 bd f5 cf ee 3d
       -0.12764741 -0.28031307 -0.11067626 0.116607584
000370 55 37 42 bd 96 92 87 bd 4b a0 66 bd 29 63 ee bc
       -0.04741605 -0.06619756 -0.05630521 -0.029100018
000380 fb 53 63 3e 31 ad e4 bd b1 e1 a3 bd bf 12 0c bc
       0.22200005 -0.11165846 -0.080020316 -0.008549391
000390 af e3 05 be 43 cc 1f be 20 fa 93 3d b3 7a 5f 3d
       -0.13075136 -0.15605263 0.07225442 0.054560374
0003a0 1a af fc bd 3d 47 4c 3d 88 f4 43 3d 78 85 b9 3d
       -0.123380855 0.049872626 0.047840625 0.0905866
0003b0 e2 a5 92 bd 56 39 b0 3d 30 8f 79 3d 19 7a 98 bd
       -0.07160546 0.08604686 0.06092757 -0.07445163
0003c0 f2 59 8a bc 06 8b f4 bd d3 81 bc 3d b1 2a e7 3d
       -0.016888592 -0.11940579 0.092044495 0.112874396
0003d0 0d ff 92 ba 62 c1 14 3e 8f 35 97 be 89 16 84 bd
       -0.0011214927 0.14526895 -0.2953305 -0.06449611
0003e0 bb a0 05 3d 61 86 a9 bd d6 e3 d7 bd 58 1b 01 3e
       0.032623988 -0.08277584 -0.10541503 0.12608087
0003f0 84 57 ea 3d 99 80 9a bd 65 f9 81 3b c0 9e 91 bd
       0.114424735 -0.07544059 0.0039664977 -0.07110357

hidden_nets.1.bias f4 [128]
000000 29 5f c3 bc d4 37 05 3e 3f db cd 3d 91 67 d0 3d
       -0.023849087 0.13009578 0.100515835 0.10176004
000010 08 b5 2d 3d 52 f0 05 3e b1 b9 18 3e 24 a3 1f 3e
       0.042408973 0.13079956 0.14914586 0.15589577
000020 35 a4 2d 3e 18 d1 b7 3c 8f 8b 22 3e 79 4a 2f 3e
       0.16957171 0.02243857 0.1587355 0.17118253
000030 c2 62 d9 bb 71 18 1e 3e 76 5e 26 3e 0c 0e 14 3e
       -0.0066340873 0.15439011 0.16246971 0.14458483
000040 9e 78 10 3d ff f5 8b 3d 99 66 19 3e f4 39 6e 3d
       0.03527128 0.068340294 0.14980544 0.058160737
000050 75 7e 12 3e 9c ca 74 bd 44 50 13 3e 5c 16 5b bb
       0.14306052 -0.059763536 0.14386088 -0.0033430075
000060 04 5a 22 bd f7 d2 1b 3c f2 49 f6 3d 00 28 22 3e
       -0.039636627 0.009510747 0.12025823 0.15835571
000070 2c 1a 23 3e ed 96 2b 3e 29 e3 4c 3b 9d cf 0c 3e
       0.15927953 0.16756792 0.0031263328 0.13751073
000080 7a 62 13 3e db 48 22 3e 91 63 47 bd 52 d6 29 bd
       0.14393035 0.15848105 -0.04867894 -0.041464157
000090 22 0d f2 3d 8d 74 14 3e d1 a1 17 3e ed c7 e9 3d
       0.11818911 0.14497586 0.14807822 0.11415086
0000a0 39 a8 93 bc 7b 91 bb 3d a4 10 6d bd a2 5c 13 3e
       -0.01802455 0.091586076 -0.057877198 0.14390805
0000b0 df 0f d2 3c 8c 22 10 3d 16 86 25 3e ad b6 da bc
       0.025642334 0.035189196 0.16164431 -0.026698435
0000c0 d7 37 26 3e db d8 b7 bd ca 2f 18 3e 46 68 94 bc
       0.16232239 -0.08976909 0.1486198 -0.018116128
0000d0 fa 8d d6 3c 1a f0 10 3e 56 d9 07 3e 8e a0 df 3d
       0.026190747 0.14154091 0.13266501 0.10919295
0000e0 6a 4c c5 bb dd 4b 09 3e 86 f0 21 bc 0a 12 1e 3b
       -0.006021072 0.13407846 -0.009884005 0.002411964
0000f0 b2 56 1d 3e 58 6a 2e 3e ac a6 16 3e 7c 68 ee bc
       0.15365103 0.17032754 0.14712018 -0.029102556
000100 cf 30 1a 3e 6a cf 7f bd 59 65 dd bb 36 fc 69 3c
       0.15057682 -0.062453665 -0.0067564663 0.014281323
000110 ee ea 29 3d af 4a 08 be 64 f1 25 3e 03 a8 51 bd
       0.041483812 -0.1330974 0.16205364 -0.05118562
000120 86 0c 45 3e e0 c5 2e 3e 15 9a 1c 3e 8e db 0d 3c
       0.19243059 0.17067671 0.15293153 0.008658303
000130 ed 86 9f bc 12 a8 08 3e be 1d 95 3d ea bd e1 3d
       -0.019473517 0.13345364 0.072810635 0.11022551
000140 c8 13 fe 3d fe 5a 1d 3e 66 c7 df 3d e8 8d df 3d
       0.12406117 0.15366742 0.10926704 0.10915738
000150 23 3e 40 3c 46 37 f6 bd bb 22 34 3e 29 13 6c bd
       0.011733565 -0.12022261 0.17591374 -0.05763546
000160 96 29 55 3d 92 ee 40 bd 63 37 55 3c 28 4f 79 3d
       0.052041613 -0.04710252 0.0130136935 0.060866505
000170 ee 70 e4 3d 46 60 81 3c 56 f8 d4 bb 87 56 43 3d
       0.11154352 0.015792977 -0.0064993305 0.04768994
000180 b5 0f 08 3e ac 88 78 bc b7 75 b9 3d 8c c8 00 3d
       0.13287242 -0.015169304 0.090556554 0.031441256
000190 61 63 26 3e 9c 7b 4c bc 3f 60 08 3e 01 47 a3 bc
       0.16248848 -0.012480643 0.13317965 -0.019931318
0001a0 13 9e dd 3c 34 61 16 3e 3f 80 3a bc 04 0f 36 3e
       0.027052915 0.14685518 -0.011383115 0.17779166
0001b0 84 21 11 3c c2 fd dd 3c a6 bc 3c 3e 35 c3 29 3e
       0.008858088 0.02709854 0.18431339 0.16578372
0001c0 d0 25 e6 3d 5b 56 fd 3c 8a 17 31 3e 3f 95 62 bd
       0.11237681 0.030924967 0.17294136 -0.055318113
0001d0 b5 4a 14 3e 1d 69 aa 3d 9e 7b 1e 3e 37 2e 22 3e
       0.14481623 0.0832083 0.15476844 0.15837942
0001e0 24 c6 32 3e 3d 36 0c 3e b2 2e 0c 3e 71 6f 4a 3c
       0.17458397 0.13692565 0.13689688 0.012355671
0001f0 57 b4 9a 3d 9a 71 06 3c f4 5c 1e 3c 7e a9 2c 3e
       0.07553928 0.008205796 0.009665716 0.16861531

hidden_nets.2.weight f4 [64, 128]
000000 d0 ac 1a be 66 34 6e 3d ca e7 02 3e 08 82 15 3c
       -0.15104985 0.05815544 0.12783733 0.00912524
000010 f1 64 67 be 19 59 95 3d 0d 49 ae bd df 41 e2 3d
       -0.225971 0.07292385 -0.08510027 0.1104772
000020 b9 46 9b 3d c4 f9 74 3d 0d 14 5c 3e 3c ad 33 bd
       0.07581849 0.059808508 0.21492024 -0.04386638
000030 d1 0c 86 be 8c 8f 30 3d d5 d0 10 3e c8 03 b0 bc
       -0.26181653 0.043105647 0.14142163 -0.021486178
000040 fc 18 d7 bd e8 af 3e be fd 43 f4 bd 1a ab 30 be
       -0.10502812 -0.1862179 -0.1192703 -0.1725277
000050 f0 55 bc 3d 3c a8 3e be b3 99 0c 3d 69 47 bc 3d
       0.09196079 -0.18618864 0.034326266 0.09193308
000060 d4 70 70 bc dd 84 9c 3d 1c 21 c1 3d 89 26 63 bd
       -0.014675338 0.07642529 0.09430143 -0.055456672
000070 a6 14 74 3e 99 2d 46 3d d9 4b 65 be 23 06 99 3d
       0.23836002 0.04838333 -0.22392215 0.074718736
000080 d6 b1 27 bd 8d ca 68 3e 57 2e f6 3b d6 98 ad bd
       -0.040941082 0.22733517 0.0075128484 -0.08476417
000090 8d 52 7e bc b5 52 67 3d 4e fb de 3d 8a 2a fa 3d
       -0.015522611 0.05647536 0.10887776 0.12215145
0000a0 cd 68 44 bd 61 2a 08 bc bc e8 0b 3e 67 19 2f 3d
       -0.04795151 -0.008310885 0.13663 0.042748835
0000b0 1a 51 ea 3c ca 40 54 3e 90 29 bc 3d 23 15 0e be
       0.028603125 0.2072784 0.09187615 -0.1387525
0000c0 5a a2 28 3e 73 d7 5d 3c 40 e9 c1 3d 85 76 33 3d
       0.16468182 0.013540137 0.09468317 0.0438142
0000d0 84 d5 50 bd 7d b2 6a bd 3a 92 95 3d fc d7 1d 3e
       -0.050984874 -0.057299126 0.07303281 0.15414423
0000e0 a1 50 74 3d ac 0b 6d 3d 89 1d 57 3c b8 aa 3b bd
       0.059647206 0.05787246 0.0131296 -0.045817107
0000f0 13 c6 42 3c 6e 70 11 3e 66 02 ec 3d a3 be bc 3d
       0.011888045 0.14203045 0.11523895 0.092160486
000100 cf 33 33 3e 6a 7d 49 bd 3a ea 0e bd ea 07 2a be
       0.17500232 -0.04919187 -0.034891345 -0.16604581
000110 26 62 5a be ef 35 5f be 57 41 11 3d 06 ea dd bc
       -0.21326503 -0.21797918 0.035462704 -0.02708913
000120 73 4c f1 3d 36 a1 fe bc e5 ce a2 3d 77 38 f0 bc
       0.1178216 -0.03108273 0.07949618 -0.0293238
000130 b3 a8 84 be 03 ee 10 3e d7 bc 7b be ff b6 4b 3e
       -0.25909957 0.14153294 -0.24583755 0.19894026
000140 8b 08 b8 bd a1 82 39 3d 03 da 07 3d b1 6f 79 bb
       -0.089860044 0.045290593 0.033166897 -0.0038060958
000150 b5 87 61 3c a9 ee e4 bd e6 fb 05 bd 53 fb 67 3e
       0.013765265 -0.11178333 -0.032710932 0.22654466
000160 d1 7c 1f bd 94 7f 06 3e c0 a8 2c be b1 58 01 3e
       -0.038937394 0.13134605 -0.16861248 0.1263149
000170 eb 9f 4f 3e f8 28 29 be cb 45 91 be 4e 4f 90 bd
       0.20275848 -0.16519535 -0.2837356 -0.07046376
000180 14 02 1b 3e 41 63 c7 3d 7c 81 55 be 23 16 63 bd
       0.15137511 0.09735728 -0.20850176 -0.055441033
000190 52 e7 63 3d b9 86 b3 bd 47 4a 9a bd bf a1 fd bd
       0.055640526 -0.08765931 -0.075336985 -0.12384366
0001a0 44 8d f8 bd 23 ff fe bd 2b 2c 6c bd 58 0c d3 3d
       -0.12136319 -0.12451007 -0.05765931 0.10305089
0001b0 5d b4 52 3c 32 68 04 be 37 e2 c3 bd 5a 0c ff 3d
       0.012860385 -0.12930372 -0.095646314 0.12453528
0001c0 68 90 c3 3d 43 c4 c7 bd 7b a5 45 3e 8f 10 0c be
       0.09549028 -0.09754231 0.19301407 -0.13678192
0001d0 b4 62 ac bd cf 8a d7 bc 73 29 97 3d 91 06 14 3e
       -0.084172636 -0.026311306 0.07380953 0.1445563
0001e0 89 f5 23 3e 86 32 84 3d a5 6c 06 be a8 9d 5e bd
       0.16011633 0.06454949 -0.13127382 -0.05434957
0001f0 6e 91 aa bd 28 21 6f 3c 84 b1 c6 bd 3e cb b6 3d
       -0.0832852 0.014595307 -0.09701827 0.08925484
000200 ab 26 b9 bd e9 9f 22 3e 3b e4 3c 3c 77 49 3b 3d
       -0.090405785 0.15881313 0.011529024 0.04572436
000210 26 32 b7 bc 8d 86 11 be d4 78 18 be c0 bf 28 bd
       -0.02236278 -0.14211483 -0.14889842 -0.041198492
000220 91 09 07 3e a1 f7 7f 3d 97 02 81 bd dd 89 23 3d
       0.13187243 0.062492017 -0.06299322 0.0399264
000230 00 87 26 3d ab 00 30 be 70 db 24 3d 13 f5 60 be
       0.04065609 -0.17187755 0.040248334 -0.21968488
000240 78 22 b5 bc 8a 70 68 bd fc 27 03 be 13 ba a1 bd
       -0.022111163 -0.05674795 -0.12808222 -0.07896819
000250 e6 71 26 3d c0 0f 87 3d a8 40 ab 3b b2 85 1c 3c
       0.040635966 0.06594801 0.0052262135 0.00955336
000260 97 71 83 3d 3d 1b e6 3d 3a 01 3e bd 5a 3b 47 3b
       0.0641815 0.11235664 -0.04638789 0.0030400367
000270 5b c7 99 bd 5a c6 01 be 94 8b f7 3d 92 1e 82 3d
       -0.07508727 -0.12673321 0.12087169 0.06353487
000280 ef 4e 30 be 53 8b 95 3c ff fc d8 3d 39 2c 13 be
       -0.17217611 0.018254912 0.1059513 -0.14372338
000290 40 66 3b 3e ec 60 ae bd b0 10 0d 3e ca c9 b7 bb
       0.18300724 -0.0851458 0.13775897 -0.005608772
0002a0 a4 61 c5 bc 07 b6 82 be a7 ea 7b be 60 3e 14 3e
       -0.02409441 -0.255295 -0.24601232 0.14476919
0002b0 b0 6c a9 3b 76 95 41 bd 63 d2 9f 3c ed 93 80 bd
       0.0051704273 -0.047261678 0.0195095 -0.062782146
0002c0 0e 9d cd bd 18 03 18 3e 19 56 92 bd c5 04 0c 3d
       -0.100397214 0.1484493 -0.07145328 0.034184236
0002d0 c8 62 5f be 43 4c 4c be 67 2e 94 3e f6 53 20 3e
       -0.21815026 -0.19950967 0.28941652 0.15657029
0002e0 83 40 14 be e7 e2 b3 3d b1 55 73 3d 8f bf 64 3b
       -0.14477734 0.087835126 0.059407894 0.0034904217
0002f0 90 a2 de 3c 56 c6 27 3e c3 00 df bd a8 95 9e 3d
       0.027177125 0.16384253 -0.10888817 0.077433884
000300 57 9c 66 be 9e 7a 49 bb 7f 29 81 bd 0a d8 05 3e
       -0.22520576 -0.0030743252 -0.06306743 0.13070694
000310 40 49 b5 3d ac 90 2e be f8 a9 33 be 53 ab cf bd
       0.08851862 -0.17047375 -0.17545307 -0.101400994
000320 1f 35 a6 3c 38 0d 07 3c 58 6d b6 bb 69 dc 2f 3d
       0.020289002 0.008242898 -0.005567234 0.04293481
000330 61 2a 06 3e 66 fd c3 bd 13 b9 7c 3d 84 c5 ae bd
       0.13102104 -0.09569816 0.061699938 -0.08533767
000340 3b 92 58 bc d6 16 69 be f3 8b eb bd 1e 36 34 be
       -0.013218458 -0.22762617 -0.115013026 -0.17598769
000350 ed 41 da bd 5b 51 15 bd f0 ac 42 3e 02 66 e5 bd
       -0.106571056 -0.03645454 0.19011283 -0.11201097
000360 b7 08 42 be 5c f7 31 be 2d c7 2c be 6e 00 1c be
       -0.18948637 -0.17379516 -0.16872855 -0.15234539
000370 28 f5 d8 bd c4 93 6f 3d 70 07 7a 3d df 41 df 3d
       -0.10593635 0.05849053 0.06104225 0.10901236
000380 62 d2 c7 bd 88 cd 8b bd c4 d8 07 bd 8c 99 a2 3d
       -0.09756924 -0.06826311 -0.03316571 0.07939443
000390 e4 7d a0 bd a8 0a 0f 3d 08 96 39 3e d6 bb bd bc
       -0.07836512 0.034922272 0.18123639 -0.023160856
0003a0 0d f5 63 bd 57 09 89 3d cc ed 84 bd d4 b3 1c be
       -0.05565362 0.066912346 -0.06490669 -0.15302974
0003b0 ae 32 cc 3c 08 73 4c be f3 2f 19 3d 3a 2e 0e 3e
       0.02492651 -0.19965756 0.037399244 0.13884822
0003c0 1e f3 50 be f9 e6 4a be eb 1a 29 3e 7b 72 f7 3d
       -0.20405242 -0.19814672 0.16514175 0.12082382
0003d0 f1 38 a6 bd ea db 32 be 49 36 18 bd 5c 72 ca 3d
       -0.081163295 -0.17466703 -0.037161145 0.098850936
0003e0 a8 69 0d bc 95 3f e5 bc 92 69 00 be 9c 11 99 bd
       -0.008631147 -0.02798442 -0.12540272 -0.07474062
0003f0 f6 e9 16 3c e3 66 9d bd c4 e2 9c 3c f1 e2 d9 ba
       0.009211054 -0.0768564 0.019151099 -0.001662342

hidden_nets.2.bias f4 [64]
000000 75 46 1b 3f 94 8d ba bb a6 30 2f bc 2b 40 8b 3e
       0.60654384 -0.005693147 -0.010692751 0.27197394
000010 a6 07 3e bd ef b4 4e bd 3c 5b 16 3d 1e 99 1f 3f
       -0.046394013 -0.05046552 0.0367081 0.62343013
000020 1c 6d 13 3f ef 2c e3 3e a7 ad 1b 3f f6 a1 1c 3f
       0.5758836 0.4437022 0.6081185 0.6118463
000030 28 30 97 bc 95 da c7 3b 8b c0 f2 bc 86 63 1e 3f
       -0.01845558 0.006099055 -0.029632827 0.6187061
000040 77 57 f9 3e 78 a0 9f bc 69 db 37 bd f3 1f d1 3e
       0.48699543 -0.019485697 -0.04488698 0.40844688
000050 a0 50 83 bd dd 56 f8 bc df b9 5e 3c ac ae 25 3f
       -0.064118624 -0.030314857 0.01359412 0.64719653
000060 cb e2 2a 3f 7f 65 19 3f c0 5f e3 bc 2d 02 dc 3b
       0.6675231 0.59920496 -0.027755618 0.0067141266
000070 eb 76 c1 3e 60 5e 86 bd 80 54 12 3f 92 6a 02 3f
       0.3778604 -0.06560969 0.57160187 0.50943863
000080 2a ba 20 3f 2b 0e b4 bb e9 0d 55 bc f7 24 ff 3e
       0.62784064 -0.005494853 -0.013003805 0.4983289
000090 93 7d 1c bc cf 23 23 bd 1d ee 18 3f 9b d0 16 3f
       -0.009551424 -0.03982907 0.5973833 0.58912057
0000a0 a1 31 30 3b c8 0e 17 3c c1 0a 7c bc 07 42 17 3f
       0.002688505 0.009219833 -0.015383423 0.59085125
0000b0 69 18 17 3f 48 9c 8a bd ba 8d 86 bd 53 0c 8d bd
       0.5902162 -0.067680895 -0.06570001 -0.06887116
0000c0 e0 4a ca bc ca d0 0a 3f 80 00 7e 3c 20 f3 11 3f
       -0.024693906 0.54224837 0.015503049 0.57011604
0000d0 49 51 b1 3e 41 fa 83 3d b3 ad 1c 3f df 57 19 3f
       0.34632328 0.064442165 0.61202544 0.59899706
0000e0 f2 4f 71 bc f9 ba 19 3f 11 27 a6 3e 13 34 1e 3f
       -0.014728533 0.6005092 0.3245168 0.6179821
0000f0 67 f6 b2 3d a9 87 b5 3a c0 29 6c bd cf a9 e6 3e
       0.08738404 0.0013849634 -0.057657003 0.4505143

value_stream.weight f4 [1, 64]
000000 ca d8 0a 3f f7 20 8f be 10 5f 0f bd 49 94 da 3e
       0.54237044 -0.27954838 -0.035002768 0.42691258
000010 45 5f f5 bd ae 1d bd bd 90 dc 2b be 89 6a d1 3e
       -0.11981062 -0.092341766 -0.16783357 0.40901592
000020 c0 f5 0a 3f 49 54 dd 3e a0 22 d3 3e 56 9c 14 3f
       0.54281235 0.43228367 0.41237354 0.5805105
000030 b1 0c 91 be 9b 14 4f be cd 0d 62 be b1 d7 02 3f
       -0.28329995 -0.20222704 -0.22075577 0.5111037
000040 7d c3 ea 3e b6 96 98 be b4 38 92 be 98 85 ea 3e
       0.4585227 -0.29802483 -0.28558886 0.4580505
000050 90 ae 0d be 64 3e 99 be ec ed c6 bd 5a 99 fb 3e
       -0.13836122 -0.29930413 -0.09713349 0.49140435
000060 27 d5 b5 3e b4 21 15 3f 14 45 62 be 99 bb 97 be
       0.35514185 0.5825455 -0.22096664 -0.29635313
000070 8b c9 d5 3e 49 26 71 bd f6 b6 11 3f bd 01 e5 3e
       0.41755328 -0.058874402 0.569198 0.4472789
000080 4d cb c3 3e c8 50 ac be 40 e8 39 be 4d 4f d7 3e
       0.38241044 -0.3365538 -0.18155003 0.4205269
000090 b8 df 94 be b2 97 1d be f4 27 01 3f 13 86 19 3f
       -0.29076934 -0.15389898 0.5045159 0.59970206
0000a0 88 09 7d be 0e 82 cb be 94 6d 46 be 46 b7 07 3f
       -0.24710667 -0.3974766 -0.19377738 0.5301403
0000b0 b1 50 fa 3e d5 7d 3e 3e 9f 57 34 bc 00 2c 84 be
       0.48889688 0.18602689 -0.011007219 -0.2581482
0000c0 2f d2 14 be 66 0c 1c 3f dd cd ae bc fc 9d 13 3f
       -0.14533304 0.6095642 -0.021338398 0.5766294
0000d0 01 f8 dd 3e d7 6b 53 bd 99 c4 0b 3f a5 6b 08 3f
       0.43353274 -0.051616516 0.5459686 0.5328925
0000e0 81 45 34 be b6 82 1d 3f a8 c4 a9 3e 32 76 d9 3e
       -0.17604639 0.61527574 0.3315785 0.42472988
0000f0 69 01 32 be f2 03 8a bd 1d 1c ae 3c 9f b1 f8 3e
       -0.1738335 -0.06739034 0.02125364 0.48573014

advantage_stream.weight f4 [5, 64]
000000 c7 03 f0 bd 1e 58 52 be 13 04 86 be e2 e1 0b 3e
       -0.117194705 -0.20541427 -0.26174983 0.13660386
000010 c7 2f 9b 3e da 59 14 3e ce 1c e6 bc 4f 9f 97 3d
       0.3030989 0.144874 -0.028089907 0.074034326
000020 31 69 eb bc dd cd a4 3d a0 e3 44 bc 4f db 0f bd
       -0.028736683 0.08047078 -0.012017161 -0.03512126
000030 a3 a5 7c bc 9d 63 60 3d b7 d8 5b be bb 81 fd 3c
       -0.01542035 0.0547825 -0.21469389 0.03094565
000040 94 97 3c 3d 7d e8 98 be 22 e7 eb bc 8a 98 f5 3d
       0.046042994 -0.29864874 -0.028796736 0.11991985
000050 6b 10 7d bd f2 96 2a 3e 99 de f8 3d 1b 11 6e bc
       -0.061783236 0.16659144 0.12151832 -0.014530445
000060 2a cd 64 be e3 82 ba bd ae f8 a7 3d 2b 93 55 be
       -0.22343889 -0.09106996 0.08201729 -0.20856921
000070 9c 92 90 3d f4 f7 80 be d0 de 1c bd 84 ec 34 3d
       0.070592135 -0.25189173 -0.038298428 0.04417087
000080 08 a8 8e bc a7 c4 e8 3c a8 ef ad be 5f a5 04 bc
       -0.017414108 0.028414084 -0.33971906 -0.008096068
000090 44 c1 d5 bd 3f 7b 9c bd 24 7a ca 3d b8 a0 8e 3d
       -0.10437253 -0.07640695 0.09886578 0.069642484
0000a0 a2 15 87 be 4b c2 56 3c 80 71 0d be ec 21 43 3a
       -0.26383692 0.0131078465 -0.13812828 0.00074437144
0000b0 23 23 80 bc 74 3c 7c 3e 83 8a 5e be 9b d0 43 3e
       -0.015641754 0.24632436 -0.21732526 0.19122545
0000c0 84 a0 ad be 05 88 a7 bd 7b e1 b0 be 91 3f 88 3d
       -0.33911526 -0.081802405 -0.34547028 0.06652749
0000d0 c4 91 a6 bd c5 7b 23 3e 2f 46 65 3d e4 6c c3 3d
       -0.08133271 0.15965183 0.055975135 0.095422536
0000e0 b1 58 b4 3d 75 d1 bf 3d 91 87 dc bd 11 16 ab bd
       0.08805979 0.09366123 -0.10768045 -0.08353818
0000f0 59 a9 b5 be 62 6c 61 3e ca a8 0e 3e f3 d1 52 bd
       -0.35480765 0.22014001 0.13931575 -0.051469754
000100 b1 28 bf bd ba f9 74 be 6e 3f 81 be 91 99 89 be
       -0.09333933 -0.23923388 -0.25243706 -0.26874974
000110 ca c3 c8 3c ee dc 10 3e f4 81 66 be 6c 62 b1 3d
       0.024507422 0.14146778 -0.2251051 0.086613506
000120 72 25 c9 3d ec 97 d1 3d 4c f7 b9 3c 42 17 30 bd
       0.09821595 0.10234055 0.022700928 -0.04299093
000130 52 4b bc 3c 61 03 bc bc 79 1e 06 3d 79 68 67 3d
       0.022985134 -0.02295083 0.032743905 0.056496117
000140 ec 22 35 3d 06 a8 21 be 15 94 e1 3d 3c 6e 0e be
       0.044222757 -0.15786752 0.110145725 -0.13909239
000150 b9 b7 2c be d3 57 13 3e f1 4c 2a 3d ad 51 88 bd
       -0.1686696 0.14388971 0.041577283 -0.066562034
000160 05 5c 5e be 17 fc 5b be da b5 f5 3d 9e 42 42 be
       -0.2171479 -0.21482883 0.11997576 -0.18970725
000170 ee 13 56 bd e6 f5 72 be 36 2e f0 3c 06 78 23 3d
       -0.0522651 -0.23726615 0.02931891 0.039909385
000180 9d 0e 03 3d 20 c0 6e 3d ee 14 99 bc b8 ae d6 3d
       0.03199636 0.058288693 -0.018686738 0.10482544
000190 75 74 0c be 09 d2 22 be 7f 6f a6 3b 94 c2 00 3e
       -0.137163 -0.15900435 0.0050792093 0.12574226
0001a0 a8 79 56 3d 09 e9 ef 3d 86 7a bf 3d 2b 2d 2e bd
       0.052362114 0.1171437 0.09349541 -0.042523544
0001b0 75 41 ff 3c f4 94 31 be db 0d 5d be 14 77 fe bd
       0.031159142 -0.17341977 -0.21587317 -0.12425056
0001c0 28 88 45 3e 7a e4 ee bd f6 80 30 be a0 49 27 3e
       0.1929022 -0.11664672 -0.17236695 0.1633668
0001d0 62 47 14 be 35 2e cb 3e 4b e3 e1 3d ae 3b 13 3e
       -0.14480355 0.3968369 0.11029681 0.14378235
0001e0 19 7b 85 3e 43 91 98 3d 24 ae 97 3e 7b 16 be bd
       0.2607048 0.074495815 0.29625046 -0.092816316
0001f0 26 87 bf bd 9d d6 8b 3e 1e 78 0e bd c3 14 f3 3d
       -0.093519494 0.27312174 -0.03478252 0.11869194
000200 58 f4 18 be 6b f5 4e be c5 ae 6d bd 6f 59 34 be
       -0.1493696 -0.20210807 -0.058028 -0.17612241
000210 07 37 15 be a1 67 2a be 2b 71 b4 bc b7 3b 7b 3d
       -0.14571773 -0.16641094 -0.022026619 0.061336245
000220 a2 18 26 bc bf f0 f7 3d 2a 32 b0 bc 54 12 a7 bd
       -0.010137709 0.121064655 -0.021508295 -0.08157793
000230 08 be 15 3e 87 55 36 bc 00 2c 8a 3e 40 7d e3 bb
       0.14623272 -0.01112879 0.26986694 -0.006942421
000240 8b 40 8b bd a6 af 6e 3e b5 d2 1a be 1d d1 c7 3d
       -0.0679942 0.23309192 -0.15119441 0.09756682
000250 04 1d 28 3e b9 13 0b 3e 61 de 2d be 19 ad 3c bd
       0.16417319 0.13581742 -0.16979362 -0.046063516
000260 c2 4e 70 be 75 73 14 be 2a fd 28 be ec 3d 45 be
       -0.23467544 -0.14497168 -0.16502824 -0.19261903
000270 0f db ba 3d 60 ef a8 3d c5 a1 cf 3b 2c df fd 3c
       0.09123813 0.08248782 0.006336423 0.030990206
000280 4d 53 62 bd 94 2e 59 3e 0e 2f 93 3a ac 0d 0c bd
       -0.055255223 0.21209174 0.0011229233 -0.034192726
000290 fa f9 36 be 12 e6 2e be cc 3d 92 3d 4e 72 bb 3d
       -0.17868796 -0.17079952 0.07140693 0.09152661
0002a0 28 31 36 3d ee 70 37 be 8c c9 97 3e af 4c 0a 3b
       0.044480473 -0.17914173 0.29645956 0.0021102836
0002b0 3f af 95 3c 0e 97 50 be 2f 63 76 bc c7 98 51 bd
       0.01827204 -0.20370123 -0.015038296 -0.05117109
0002c0 6c 51 29 3e 55 ad 22 bd 60 a5 37 be 36 68 3a bd
       0.16534966 -0.039716084 -0.1793418 -0.04550954
0002d0 25 95 25 3d 36 be 62 3e c8 61 a2 ba b2 d1 29 3e
       0.04042544 0.22142872 -0.001238876 0.16583899
0002e0 82 1f e6 3c 70 a2 fb 3d ce ec 19 3e 53 9d f8 bd
       0.028091196 0.12286842 0.1503174 -0.12139382
0002f0 54 1f 43 3e 09 6e 8d 3c 71 c6 11 bd ed 6b a3 3d
       0.1905492 0.017264383 -0.03558964 0.079795696
000300 f9 c1 49 be fd 6e 70 3e fa 17 26 be 59 dd 41 3e
       -0.19702901 0.23479839 -0.16220084 0.18932094
000310 eb 68 3a be 60 7b 09 be 1e 0c 46 3e fc b9 1a 3d
       -0.18204086 -0.1342597 0.1934056 0.037775025
000320 f9 ae 99 bd 9d ce 9e 3d 3d 3b 59 bd ab 92 32 bd
       -0.075040765 0.07754252 -0.05303501 -0.043596905
000330 f1 d2 98 3e 47 9b 88 3d fd 7f 8e be 0d ee 19 bd
       0.29848436 0.06670242 -0.27832022 -0.03758054
000340 7e 4a 85 3d 70 d0 1f be d1 f9 13 bb c8 36 1e ba
       0.06508349 -0.15606856 -0.0022579322 -0.0006035385
000350 b7 d7 0a be a7 86 9f 3e 35 40 aa 3e 58 c3 3d bc
       -0.13558851 0.3115742 0.3325211 -0.011582218
000360 85 f4 78 be ac 8c d7 bd 69 71 59 3d b1 8d 73 3d
       -0.24312027 -0.10524878 0.053086672 0.0594613
000370 6c 17 1d 3e d7 c1 cf 3d dc 83 1f bd e1 ec 8e 3b
       0.15340966 0.10144394 -0.03894411 0.0043617343
000380 42 7b 36 bc 78 f0 12 3e 9f e2 2e be 1d 50 a0 3c
       -0.011137785 0.14349544 -0.17078637 0.019569451
000390 ba e6 19 3e 1b bf 04 be 11 59 f6 bb b1 b1 fa 3d
       0.15029421 -0.12963526 -0.0075179418 0.12240923
0003a0 76 5b 50 be 1a 0a 8d 3d 9f 02 43 3e 29 d7 5e 3d
       -0.2034739 0.06886692 0.19043969 0.05440441
0003b0 07 f6 a6 3b 0c 33 28 be bc 17 8c 3d 6f d6 38 be
       0.0050952467 -0.16425723 0.068404645 -0.1805055
0003c0 65 9c 1c bd 5e ca 11 be f6 fb ae bd 26 61 2d 3d
       -0.038235087 -0.14237353 -0.085441515 0.042328976
0003d0 09 6a 2b 3e b2 95 3f 3e cc 34 75 bc ee ac c5 3d
       0.16739668 0.18709448 -0.014966201 0.09652124
0003e0 85 7b 04 3e d0 c3 4b 3d ee d9 af 3d cf 81 19 be
       0.12937744 0.04974729 0.08586489 -0.14990924
0003f0 cc 8c d5 3e 89 7e 15 be 2f 93 8d 3c 23 52 df bc
       0.41708982 -0.1459905 0.017282097 -0.027260846

advantage_stream.bias f4 [5]
000000 c4 01 5d bd b7 39 70 be d9 b8 f3 3d 90 51 e7 3d
       -0.053956762 -0.23459516 0.11900491 0.11294854
000010 b8 ac 8b bb
       -0.004262533

hidden_nets.0.weight f4 [128, 11]
000000 7c 20 26 be 57 8c 4a be a7 c1 ce 3d fb e5 da 3d
       -0.1622333 -0.19780098 0.1009553 0.106883965
000010 40 03 44 3e 0c 2e df 3c c1 5e 13 bc 7d be c7 bd
       0.19141865 0.027243637 -0.008994759 -0.0975313
000020 9f e4 9e bd 6e 28 a7 3d 79 85 43 3d 16 dc 90 be
       -0.0775845 0.08162008 0.04773471 -0.28292912
000030 b6 b0 09 3c eb 6f 38 3d 25 4c 86 3d cc e1 4c 3e
       0.008403948 0.04502861 0.06557492 0.2000801
000040 1c 25 31 be 17 2a d9 3d 2d e8 06 be 8f b8 db 3d
       -0.17299312 0.10603731 -0.13174506 0.10728561
000050 9f 9a 48 3d 62 f1 46 bd 3d 34 9f 3d f6 20 8b bc
       0.048975583 -0.048570044 0.077736355 -0.01698349
000060 ca f4 7c 3e 42 30 74 3d 3c ce ab 3c 79 3e 50 3c
       0.24702755 0.059616335 0.020972364 0.012710207
000070 d8 30 a9 bc 46 ed b3 bd 59 32 9f 3d 5f 30 fd bd
       -0.020653173 -0.08785491 0.07773275 -0.12362742
000080 82 e0 36 3b bc 00 d2 3d 19 b3 70 3d 8d e0 0e 3e
       0.0027904813 0.10254046 0.05876455 0.13952847
000090 2b 7b 06 be e7 ca 0d be 08 66 45 be 14 92 fd 3d
       -0.13132922 -0.13846932 -0.19277203 0.12381378
0000a0 38 f0 19 bd d8 57 0c 3e 31 43 0a 3e c8 d7 8e bd
       -0.037582606 0.13705385 0.13502194 -0.06974751
0000b0 3e 2a b5 bd 02 ee fc 3c 2f 64 9a 3d 54 bc 34 be
       -0.08845948 0.03087521 0.0753864 -0.17649966
0000c0 2a 1d 03 be 0b f0 52 be e5 23 bc 3c dd 1b 3d be
       -0.12804094 -0.20599382 0.022966335 -0.1846766
0000d0 a5 d2 25 3e 32 80 d4 3d 5b 5d 34 bd 24 40 0d be
       0.16193636 0.10376014 -0.044034343 -0.13793999
0000e0 95 bc 53 be 03 9c 37 bc 4c 50 fb bd 79 e8 fb 3d
       -0.20677407 -0.01120663 -0.12271175 0.123002
0000f0 28 22 d2 3d 52 75 07 be 3b 2b 53 bd b6 83 3c bc
       0.10260421 -0.13228348 -0.0515549 -0.011506012
000100 5c e9 58 be e2 98 84 3b 49 9a dd bd 10 03 52 bd
       -0.2118277 0.0040465454 -0.10820443 -0.051272452
000110 7c 79 30 be f9 92 28 bd 5a 25 bc 3d 44 f6 97 bc
       -0.17233843 -0.04115579 0.09186812 -0.018550046
000120 c5 3b 3f bd 48 55 b4 bd 5a e2 26 be 33 67 e3 bd
       -0.04668786 -0.088053286 -0.16297284 -0.11103668
000130 87 8a e9 3c 86 76 80 3c 5b 30 a6 bd c9 96 9e be
       0.028508438 0.015681516 -0.08114692 -0.30974415
000140 e4 ce 9c bc 71 57 fd 3c 5e 41 25 be c2 fa 75 bc
       -0.019141622 0.030925484 -0.16138217 -0.015013399
000150 54 73 26 3e 83 f8 4b 3e 58 98 de bd f1 13 72 be
       0.16254932 0.19919018 -0.10868901 -0.2364042
000160 c2 64 57 be c9 4b 85 3c 66 bd 08 be af e2 18 be
       -0.2103453 0.016271489 -0.133535 -0.14930223
000170 08 05 21 be 2d 98 f7 bc 36 17 35 3e e8 86 d3 3d
       -0.15724576 -0.03022393 0.17684636 0.10328466
000180 cb 6d 41 bd a2 07 89 3d 3e bb 25 3e 50 23 fe 3c
       -0.047223847 0.06690909 0.16184708 0.031022698
000190 75 24 6b 3b a5 28 79 3d 73 8f 37 3e 94 dd 53 be
       0.0035879884 0.060829777 0.17925815 -0.20689994
0001a0 9a 80 bd 3d 22 ab 0d 3d 16 28 67 be ee 28 03 be
       0.092530444 0.034587033 -0.22573885 -0.12808582
0001b0 9d c4 42 3d 9b 4e f9 3d 44 ee bd 3d 49 4e 17 bd
       0.047550786 0.12173196 0.09273961 -0.036939893
0001c0 0e 30 2e be 99 1b 40 bd f6 7a 64 be 36 a8 d4 3d
       -0.17010519 -0.04690132 -0.22312531 0.10383646
0001d0 12 f9 d5 3d 55 44 6a 3c a3 0b 01 be d8 81 f8 3d
       0.10447897 0.014298518 -0.12602095 0.12134141
0001e0 24 e0 42 3d b7 76 19 3d 1a 94 f5 bd 30 23 72 3e
       0.04757704 0.03746673 -0.11991139 0.23646235
0001f0 b9 02 b7 3d be c6 4c be a1 b1 01 3e dc ef f2 bc
       0.08936066 -0.19997689 0.12665416 -0.02965539
000200 17 a4 e1 bc 32 c1 c5 3c fa a6 89 bd cc 04 c9 39
       -0.027544064 0.024139974 -0.067213014 0.00038341281
000210 1a 1a 2f be b4 8a 08 be bd 11 0c be 82 ad f4 bc
       -0.170998 -0.13334161 -0.13678642 -0.029867891
000220 a1 a4 8f 3d 2a ba f8 3d 1e 32 13 3e ac f0 27 be
       0.07013822 0.12144883 0.14374587 -0.16400403
000230 32 bc ab 3d 5d d9 83 be 20 92 3a 3e 62 44 a2 bd
       0.08385505 -0.25751773 0.18219805 -0.07923199
000240 98 99 51 be 42 af 44 bc 9b 76 94 bc 67 a8 25 3d
       -0.20468748 -0.012004675 -0.018122962 0.040443804
000250 1b be 30 be f1 d3 30 3e 81 69 52 be a2 01 94 bd
       -0.1726002 0.17268349 -0.20548059 -0.07226874
000260 c7 42 85 bd 9a 36 16 be b0 1d 83 3e b3 9e 9f 3d
       -0.065068774 -0.14669266 0.25608587 0.07793941
000270 3d 83 08 3e fc 04 0b 3d a6 70 94 be 39 fa f7 bc
       0.13331313 0.0339403 -0.28992194 -0.030270683
000280 40 08 64 3d f4 b7 fd 3c 06 4b 34 3e 2f b1 ea bd
       0.05567193 0.030971505 0.17606744 -0.11459576
000290 13 a1 1f bd c3 8d 5b 3e 35 31 c2 bd 0b 2a dc 3c
       -0.03897197 0.21440797 -0.09482042 0.026875516
0002a0 81 2e 0a be 41 84 91 bd d4 65 b9 3d f8 25 3a be
       -0.13494302 -0.071053036 0.09052625 -0.18178546
0002b0 a2 1c 4f be c1 47 14 3c 55 29 24 3e 8f ec 94 bd
       -0.20225766 0.009050311 0.16031392 -0.072716825
0002c0 87 74 2e be 4f 56 8e 3d da ff 16 be b7 84 7f be
       -0.17036639 0.06950056 -0.14746037 -0.2495297
0002d0 a6 94 12 be ad 53 a0 bd 69 16 04 be e0 c1 6c bc
       -0.14314517 -0.0782846 -0.12899174 -0.01445052
0002e0 f3 7f ff 3a 63 2d 52 3d ca 60 54 be 86 ab f6 3d
       0.0019493088 0.051312815 -0.20740047 0.12044434
0002f0 9c 59 18 3d 2e 0e 7c be c2 c8 1b bd ed 50 57 3d
       0.037194833 -0.24614784 -0.038033254 0.05256741
000300 2b 08 71 bc 00 9c bf bd bd db 1b be 8c 79 e5 bd
       -0.01471142 -0.093559265 -0.15220542 -0.11204824
000310 d7 a7 95 be 80 6f ea bd 19 c9 07 bf 1c e6 1a 3e
       -0.29229614 -0.11447048 -0.53041226 0.15126842
000320 f9 88 1d be 3f 7d 37 3d 06 5b 03 be 09 75 0f 3c
       -0.15384282 0.04479718 -0.12827691 0.008755931
000330 f6 a9 ee bc 36 42 10 bd aa dd 92 3d b4 10 33 3d
       -0.029133778 -0.035219394 0.07171185 0.0437171
000340 d8 4a f0 bd 96 b3 9b 3a 9e ee 70 bd 1b 6a b4 bd
       -0.11733025 0.0011879082 -0.058821313 -0.088093005
000350 0f 5c 4f 3e 37 22 22 bd 62 20 11 be c9 c0 26 3c
       0.20249961 -0.03958341 -0.1417251 0.0101777995
000360 c6 a3 ca 3d 47 36 b7 3d b6 3c ac bd d5 9e b1 bd
       0.098945186 0.089458995 -0.08410017 -0.08672873
000370 d0 57 f7 3d f1 c0 ec 3c da 3f c5 bd dc 3c fd 3d
       0.12077296 0.028900595 -0.09631319 0.12365124
000380 75 49 90 be a3 fa fb bc 51 8a 8e 3d 9d ed aa 3d
       -0.28181043 -0.030759161 0.069599755 0.083461024
000390 10 78 49 be df b5 a9 be 0e ee 2a 3e 5e 88 a5 3c
       -0.19674706 -0.3314657 0.16692373 0.020206627
0003a0 7b d9 1e bd c8 36 34 3d 00 c5 0b bd 37 43 8c 3e
       -0.038781624 0.043997556 -0.03412342 0.2739503
0003b0 3b e0 c9 bd 75 a8 f8 bc 63 80 1f be e7 1c 55 3c
       -0.09857222 -0.030353764 -0.1557632 0.013007379
0003c0 ea 3e 60 bd 3d ca 5b 3d 7b 5b 06 bf 62 7d ba bd
       -0.0547475 0.053659666 -0.5248334 -0.09105946
0003d0 50 e2 de 3d 7a e5 e9 ba 5c ee 02 3b b2 99 3e be
       0.108830094 -0.0017844879 0.00199785 -0.18613318
0003e0 78 95 be bd d1 d6 96 bc 1d 53 82 3d 22 08 4c 3d
       -0.09305853 -0.01841298 0.06363509 0.049812444
0003f0 03 88 e7 bc 57 11 45 3e 9a c4 9c 3b 32 20 52 3e
       -0.028263098 0.19244896 0.004784179 0.20520094

hidden_nets.0.bias f4 [128]
000000 3d ba 2e bd 34 7f b9 bc 6f 92 79 bd 73 0e 27 bd
       -0.04265808 -0.022643663 -0.060930666 -0.040785264
000010 e9 86 d8 bc 97 32 04 be 36 cd e6 bb 8b 77 fb 3c
       -0.026431518 -0.12909923 -0.007043506 0.030696651
000020 36 81 e1 3c 90 60 01 bd 2a c2 7e 3d bb 1a 85 3c
       0.027527433 -0.03158623 0.062196888 0.016248098
000030 d7 a1 16 3b 00 00 00 00 f0 0a 26 bd cb 1d 85 bd
       0.0022984648 0.0 -0.040537775 -0.06499823
000040 04 39 39 3d 9e 5e fb bb 59 7f 1e 3d 22 88 c9 bd
       0.04522039 -0.0076711914 0.038695667 -0.098404184
000050 32 7f c1 bc 71 6d 9f bd 4d 3a 43 bb 15 9a ae bd
       -0.023620222 -0.07784546 -0.0029789389 -0.085254826
000060 86 cb 8f bd 9b fd 43 bd 7c 62 20 bd 5e a0 b1 bc
       -0.07021241 -0.04784928 -0.039156422 -0.021682914
000070 fd 92 01 bc bb cf bf bc 38 54 97 3d c1 03 01 be
       -0.00790858 -0.023414483 0.0738911 -0.12599088
000080 1a 5c 71 bd c8 be 01 3d fd cd e5 bd 54 4b bb bd
       -0.058925726 0.031676084 -0.1122093 -0.09145227
000090 a9 ed c1 3c ad 83 cc bc 0b 50 b4 3d 7c 29 7b bd
       0.023672896 -0.024965132 0.088043295 -0.06131886
0000a0 cb bf 9e bc 65 95 16 3d c6 1c 8e 3d 0d dd e2 bd
       -0.019378563 0.036763567 0.06939082 -0.11077318
0000b0 99 52 e9 bc 3e 1c 00 be 2e 73 a2 bd 6e 16 00 be
       -0.028481768 -0.12510774 -0.07932125 -0.12508556
0000c0 00 00 00 00 00 00 00 00 c3 e5 1e bd c5 60 f3 bc
       0.0 0.0 -0.038793337 -0.02970923
0000d0 79 29 98 bd c2 14 43 bd 15 42 6a 3d c0 65 7f 3d
       -0.07429785 -0.047627218 0.057191927 0.062352896
0000e0 f4 53 c5 bd b9 f4 40 bd 6a 44 c6 b8 00 00 00 00
       -0.096351534 -0.047108386 -9.454119e-05 0.0
0000f0 6e 79 25 3b 93 b0 72 bd 1a 8f 9c bd 6c f4 db bb
       0.002524938 -0.059250426 -0.07644482 -0.006712487
000100 63 cc 62 3d 39 52 0f bd 97 b1 cf bd 2b 1e 93 bd
       0.0553707 -0.034990523 -0.101412944 -0.071834885
000110 da ee 10 be b9 98 0d be 70 10 d7 bd f7 da a2 3c
       -0.14153615 -0.1382779 -0.10501182 0.019879801
000120 f9 37 0d bd 00 00 00 00 45 a2 d6 bb da b7 29 bc
       -0.034477208 0.0 -0.0065501058 -0.010358775
000130 fc 6d 25 3d 06 39 bf bd aa da c5 3b 54 55 de bc
       0.040388092 -0.09337048 0.0060380297 -0.027140297
000140 4c 95 e9 3c 5c 1b 01 ba e8 0a 39 bd 14 bf 27 3d
       0.028513573 -0.00049250363 -0.045176417 0.04095371
000150 e0 ba 44 bd c7 f2 88 bd 2a 44 d2 3c 7e 43 59 3c
       -0.04802978 -0.06686931 0.025667269 0.01326072
000160 9f 98 41 3d c9 a5 c0 bc bf 66 82 3d ae 22 64 bc
       0.04726469 -0.023516553 0.063672535 -0.013924284
000170 4d d3 5a 3d ee e4 e6 bc 5d 77 5c 3d 4c 72 e1 bc
       0.05342417 -0.028185334 0.05382477 -0.027520321
000180 f2 de 43 3d a0 28 54 bd 74 d5 11 be 93 11 82 bc
       0.04782004 -0.051796556 -0.14241582 -0.01587752
000190 c4 dc 2c bc 40 76 34 3a 2b 5e cd bd 3b 25 35 3d
       -0.0105506815 0.00068840757 -0.10027727 0.04422496
0001a0 30 ff 86 3c 96 a0 5f bd 82 bc 33 3d 85 fd 93 3d
       0.016479105 -0.054596506 0.043880947 0.072260894
0001b0 ae c2 04 be ba ea 5f bc 6d 96 8d bd 1e 8e e9 bb
       -0.1296489 -0.013666803 -0.06913457 -0.0071275374
0001c0 16 8e fb bd 30 98 0c bd 8e e5 02 bc 07 1f 3e 3c
       -0.1228296 -0.034324825 -0.0079893 0.011604077
0001d0 4c 1e bb 3c 63 78 17 be dc 7e fa 3c 1f 42 f6 3c
       0.022841595 -0.14792018 0.03057807 0.030060826
0001e0 14 03 cd bd d8 01 a9 bd af a7 66 bd a6 fc b5 bd
       -0.10010353 -0.08252305 -0.05631226 -0.088860795
0001f0 aa e5 9e 3d d8 66 ed bc 4f 02 22 3d 18 ce 9c 3c
       0.07758649 -0.028979704 0.039552983 0.019141242
