hyperopt_results/models/arch_smaller_fast_20250906_230524/dqn_racing_episode_100.pth (torch, 141845 bytes, 36 tensors)

hidden_nets.0.weight f4 [64, 11]
000000 b0 13 f3 3d 6b 71 a1 3c 54 2c 49 3e 83 dd 83 3d
       0.118689895 0.019707402 0.19645816 0.064387344
000010 8c 78 5c 3e ab 4f d4 bd d2 9f 6f bc 54 c4 7c be
       0.2153036 -0.10366758 -0.0146255065 -0.24684268
000020 1c e0 4f be b9 f3 a2 3c 28 2c 8a bd 20 1f 00 be
       -0.20300335 0.019891607 -0.067467034 -0.12511873
000030 22 81 a1 bd 93 0c 82 be b4 f9 46 be 80 52 b3 be
       -0.07885958 -0.25400218 -0.19431192 -0.3502388
000040 de 77 16 bd e4 c8 9e be 17 65 8d 3e f5 b4 fa 3d
       -0.036735408 -0.31012642 0.27616188 0.12241546
000050 00 7f 1d bd 3c 5e 8e bc f7 cf b4 be 66 29 51 3e
       -0.038451195 -0.017378919 -0.35314915 0.20425949
000060 22 f4 30 be 35 30 28 bd 81 f1 46 be 6d be 47 3e
       -0.1728063 -0.0410616 -0.19428064 0.19506235
000070 f8 b1 8f 3c 52 95 0c 3e f8 f5 14 3e 90 03 57 bd
       0.017540917 0.13728836 0.14546955 -0.05249363
000080 19 0f ae 3c 7c 66 42 be fc a1 9b be 74 c9 46 be
       0.021247433 -0.18984407 -0.30397022 -0.19412786
000090 69 71 df bd a0 09 ce 3d 8e 89 ae 3d 2c 42 8f bd
       -0.10910303 0.100604296 0.0852233 -0.06995043
0000a0 c4 c7 58 3b d2 fc 8a 3d 7a ea c4 3d 6c 16 0e bd
       0.0033078054 0.06786503 0.09615035 -0.034689352
0000b0 34 32 b9 3d 2e 8f 3d be c6 cb 19 be 5d b8 33 bc
       0.090427786 -0.1851165 -0.1501914 -0.010969249
0000c0 3f 99 97 3e c4 66 1a 3d 29 9c c1 3c 84 10 46 bc
       0.29609105 0.03769566 0.023634033 -0.012088899
0000d0 05 eb 5e 3d 63 5c 3c bd f3 54 1c bc c8 9e 1b 3e
       0.05442335 -0.045986544 -0.009541738 0.15197289
0000e0 17 32 02 3e fc a3 85 3d 8f 8b f8 bd 1a 37 73 3e
       0.1271442 0.06525418 -0.12135994 0.23751488
0000f0 d8 86 40 3e f7 cc d5 bd 45 81 cb be e0 40 10 be
       0.18801439 -0.104394846 -0.39747062 -0.14087248
000100 d5 0b b1 bd 96 45 15 3c 17 55 16 bd 31 a5 09 3e
       -0.08644835 0.009110829 -0.03670224 0.13441922
000110 4a 02 1b be 94 53 d5 3d e5 cf 52 be 02 9b 0a be
       -0.15137592 0.10416332 -0.20587118 -0.13535693
000120 9f 13 55 be dc 3d 92 3d f4 d5 86 3e 77 07 a6 be
       -0.20808266 0.07140705 0.26335108 -0.3242757
000130 c3 66 8e bd 01 41 77 be 59 20 95 3c 73 21 23 bb
       -0.06953194 -0.24145891 0.018203901 -0.0024891763
000140 9b 95 08 be 59 aa 74 3e 98 4b de bb 8c 36 b2 3d
       -0.1333832 0.23893107 -0.006783914 0.0870181
000150 38 0b 00 be 26 fa 36 3b e6 13 59 3c 9b f9 53 3d
       -0.1250428 0.0027920096 0.013249373 0.051751714
000160 d2 00 ad be 60 18 49 be cf 4f 1a 3e d4 9d 71 be
       -0.33789688 -0.19638205 0.15069507 -0.23595363
000170 4c 1e cc 3d 54 e7 f3 bd 21 73 54 3e d0 c2 7d be
       0.09966716 -0.11909357 0.20747043 -0.24781346
000180 b9 d6 4c 3e 92 2d ea bd ec 69 f6 3d ae 29 f6 bb
       0.20003785 -0.11434473 0.12031922 -0.007512293
000190 6f 20 d2 3d 0d 30 28 be 90 f7 18 3e e7 17 9e be
       0.102600925 -0.1642458 0.14938188 -0.3087761
0001a0 d6 8b 14 bd b8 d1 e1 3b 93 7b 62 be 20 b2 89 3c
       -0.03626617 0.0068914555 -0.22117452 0.01680857
0001b0 c9 2b b2 3d 43 f3 52 be ae 75 b8 3d a8 3a c6 3c
       0.086997576 -0.2060061 0.090068206 0.024197891
0001c0 ec 7c c6 be 51 74 d2 3d ba be 77 bc 27 6c 6a be
       -0.38767183 0.10276092 -0.015121156 -0.2289282
0001d0 34 21 a9 bd 08 6a 52 3d 98 d0 51 3e 26 bd 37 3d
       -0.08258286 0.05137065 0.20489728 0.04485812
0001e0 e1 11 33 3e 7d f2 14 be 84 29 8e be 6a c0 20 be
       0.17487289 -0.14545627 -0.2776605 -0.156984
0001f0 96 9c 55 be 61 a7 1c 3d 21 3d 17 3e 76 be 33 be
       -0.20860514 0.038245562 0.14769413 -0.17553124
000200 0a c3 83 be 6f f9 20 3e 93 a5 b5 bd 6f 7d 64 3e
       -0.2573474 0.15720151 -0.088694714 0.22313474
000210 de 55 46 3e d8 99 a6 be 4b 4a c0 3d ab 5d ee bd
       0.19368693 -0.32539248 0.0938917 -0.116389595
000220 15 7d 11 3e f5 11 84 be cd 76 d1 3b 45 02 08 3e
       0.14207871 -0.2579495 0.006392336 0.13282116
000230 b2 1c 1d 3d 9e 0f 4b be 6e ab 2a 3c f7 36 cd bd
       0.038357444 -0.19830176 0.010416849 -0.10020249
000240 f1 be 6d 3e d2 0e 6c be 48 e2 92 bd a0 b2 83 be
       0.2321737 -0.23052529 -0.07172066 -0.25722218
000250 e5 67 6e be 90 6b 7a bd a9 23 53 be 16 51 45 be
       -0.2328182 -0.061137736 -0.20619072 -0.19269213
000260 ea 3d 61 bd 82 61 11 be 5b 80 97 be ca 77 b5 bd
       -0.054990686 -0.14197353 -0.29590115 -0.088607386
000270 fe b3 a7 be 05 56 2c 3e 67 68 a3 bc c0 25 5d 3e
       -0.3275451 0.16829689 -0.019947244 0.21596432
000280 bc f5 3c 3d 24 8f 10 be 0f 6a 4a bd b0 2f 31 be
       0.046132788 -0.14117104 -0.04941755 -0.17303348
000290 6e ee e9 3d 83 ea 79 3e e0 98 51 3d c4 b1 31 be
       0.1142243 0.24405865 0.051171184 -0.17352968
0002a0 71 1c db bd f0 c0 9f 3d b6 ef 2c 3d b1 fd f7 bc
       -0.10698784 0.07800472 0.042220794 -0.030272337
0002b0 ee 15 41 3d 25 83 4c 3e 40 cb d5 3c cf df 12 bd
       0.047140054 0.19971903 0.026097894 -0.03585797
0002c0 9e 86 82 be a2 e9 82 3c d9 9c 88 3b d7 ae 89 3d
       -0.2549333 0.015980545 0.0041690883 0.06722801
0002d0 4b d4 2b be 77 a3 ce bd d4 fb 1a bd 81 b1 91 3e
       -0.16780202 -0.10089772 -0.03783782 0.28455737
0002e0 5f 57 ef 3d 2c 8f 92 be af d9 83 be a8 e6 64 be
       0.116865866 -0.28624856 -0.25752017 -0.22353613
0002f0 cd fd 8d 3e 96 c6 12 3e 86 94 b5 3d b1 36 e5 be
       0.27732697 0.14333567 0.08866219 -0.4476829
000300 83 02 12 3e 70 6e 52 3d dd 85 0a 3d 36 72 07 be
       0.1425877 0.051374853 0.03381907 -0.13227162
000310 c3 f5 c3 3c 1d a8 bb 3a 11 01 61 be 92 38 ae 3d
       0.0239209 0.001431707 -0.21973063 0.08506884
000320 0b 79 5e be a3 cb 7c bc ff d0 14 be 3c 2c 49 bc
       -0.21725862 -0.01542941 -0.1453285 -0.012278613
000330 32 06 dc 3c 82 f5 a2 3d 78 1d 2d be db 43 0e 3d
       0.026858423 0.07956983 -0.16905773 0.03473268
000340 5e 29 97 be 10 31 59 3e af bf 9e be 06 a1 11 3e
       -0.29523748 0.21210122 -0.31005618 0.14221582
000350 a6 13 67 3d e7 5c 22 3e a4 01 e1 3c 52 e8 79 3c
       0.056415223 0.15855752 0.027466603 0.015253143
000360 7e 66 41 be d8 e8 8c be 85 43 ed 3d 4e 72 ba 3c
       -0.18886754 -0.27521396 0.11585144 0.022759583
000370 2a f0 cc 3d ec 4a 49 bd 06 36 37 3d 2c 81 6c bc
       0.10006745 -0.049143717 0.044729255 -0.014435094
000380 b2 98 8c 3e d2 55 21 be 33 eb 84 bd 99 d4 f1 bd
       0.27460247 -0.15755394 -0.06490173 -0.11808128
000390 c6 dc 28 be d1 e7 33 be fa 1c 9d bc 05 d2 d7 3d
       -0.16490468 -0.175689 -0.019178856 0.10538105
0003a0 f4 a6 b5 ba e1 98 9f 3d ac 99 b9 bb f6 94 7b 3e
       -0.001385896 0.07792831 -0.005664071 0.24568543
0003b0 10 64 fc 3b 1d 86 1c bd 20 b8 4c be db d2 5b be
       0.007702358 -0.038213838 -0.19992113 -0.21467154
0003c0 e0 60 19 bd 58 6f e8 3b 41 3d e0 bc 0e 32 c9 3d
       -0.037445903 0.0070933513 -0.027372958 0.09824
0003d0 19 52 94 3d 0a b5 27 bb 4a 0d 61 3e ac 3d dc bd
       0.072422214 -0.0025590085 0.21977726 -0.107539505
0003e0 04 26 12 3d be c0 17 be 6f 27 ca 3d 9b e5 b9 3d
       0.035680786 -0.14819619 0.098708026 0.09076997
0003f0 0e d7 21 bc 0f dd b0 3e 73 4a c1 bd 58 a9 3f bc
       -0.009877933 0.34543654 -0.09438028 -0.01169809

hidden_nets.0.bias f4 [64]
000000 48 7c b1 bd bf 97 70 3d 27 5b b5 ba 93 98 14 be
       -0.08666283 0.058738466 -0.001383637 -0.14511327
000010 06 0f 00 be ae 9f f2 bd 07 c1 ee bc 42 02 1d be
       -0.12505731 -0.11846863 -0.029144777 -0.15332893
000020 6f 03 a7 bd 59 6a a8 bc 4d c2 ee 38 a1 fd 4d bd
       -0.08154952 -0.020558523 0.00011384916 -0.050290707
000030 6f 40 11 be b6 6a a0 bc 44 6c ea bd 16 a3 39 be
       -0.14184736 -0.019582134 -0.11446431 -0.18128619
000040 74 a9 89 3d d9 a1 68 3c 0f 4f 3a 3c c4 48 a5 bd
       0.06721774 0.014198744 0.011371388 -0.080705196
000050 f3 11 92 bd b6 78 43 be ef d6 e6 bd ca 32 c6 bd
       -0.0713233 -0.19089016 -0.11271464 -0.09677656
000060 17 7f 1a 3c 23 98 b7 3d fb a5 82 bc 8c dc 6a bc
       0.009429715 0.08964565 -0.015948286 -0.014334809
000070 22 b3 9c bd 8a 86 cd 3c 22 d2 12 be 99 fe a4 3c
       -0.07651354 0.025088567 -0.14337972 0.020140933
000080 da 89 7d bd b1 09 23 bd 2f d7 c1 bc b5 eb 37 bd
       -0.061899044 -0.039804164 -0.023662178 -0.044902522
000090 00 00 00 00 7e a1 f5 bd a6 d7 08 bd 80 8d 7f bd
       0.0 -0.11993693 -0.033408783 -0.062390804
0000a0 f1 96 75 bd ff 47 50 be 81 68 2d be 4f d5 a4 bd
       -0.059958402 -0.20339964 -0.16934396 -0.08048498
0000b0 bd 7c 9a bd 43 bf 30 3d 97 ef b7 3c 0f cb 0e 3d
       -0.07543323 0.04315115 0.022453113 0.03486162
0000c0 ab d6 f4 bd 9b b3 be 3d 8d bc bf bd 3a fb 1a be
       -0.11955007 0.09311601 -0.09362135 -0.15134898
0000d0 2c 47 99 3d 36 9e 11 bd 95 98 29 3d 85 8e 9c 3c
       0.07484278 -0.035551272 0.04140528 0.019110927
0000e0 0a 5c a4 3c 37 84 25 3c 01 8a 8a bd ff f7 9e bd
       0.020063419 0.010102323 -0.067646034 -0.07762145
0000f0 6a 61 bb bd 28 b4 e3 3d 67 7e 75 bc 78 ce 5a bd
       -0.0914944 0.111183465 -0.01498375 -0.05341956

hidden_nets.1.weight f4 [64, 64]
000000 58 8f 8e be a5 ca 8a bc 43 8b be be 81 b0 ba bd
       -0.27843738 -0.016942332 -0.37215623 -0.09115697
000010 a5 a7 8b 3d a7 cb 8a be e8 28 4e 3e 4e 62 f2 bb
       0.06819085 -0.271085 0.20132792 -0.0073969727
000020 7c 82 a1 be 87 f9 2a bd 05 b8 80 3e a9 1a 22 be
       -0.31544864 -0.041741874 0.25140396 -0.15830483
000030 28 cd ee bc 65 f3 81 3c 48 28 6f be 7e 2e ab 3c
       -0.02915056 0.01586313 -0.2335521 0.020896193
000040 7d da 18 be 1c 7a 44 bd 53 05 f6 3d 9c 9a c9 be
       -0.14927097 -0.047968015 0.12012734 -0.3937577
000050 fa e8 03 be 0c f9 23 be 17 20 26 be c1 36 86 3d
       -0.12881842 -0.16012973 -0.16223179 0.06553412
000060 e6 a4 bb 3d 80 76 9e bd 2e 93 a1 3d db 69 11 be
       0.09162311 -0.07737446 0.078894004 -0.14200537
000070 90 ab 02 3e eb 97 2f 3e f2 25 71 be f7 fb 1c bd
       0.12760758 0.17147796 -0.23549631 -0.03832623
000080 99 b2 8c 3e 90 17 a9 3e 14 36 3c bd 4c 0a 0c be
       0.2748001 0.3302579 -0.04595001 -0.13675803
000090 41 5c 4e 3d 45 66 33 bc cb e8 77 3e be 15 07 3d
       0.05038095 -0.010949676 0.24209897 0.03297972
0000a0 de 6c b2 bd 61 f1 55 3e d6 b1 f8 3d aa cd 4b 3e
       -0.08712171 0.2089286 0.121432945 0.19902673
0000b0 8f 2b 0c be f0 e1 04 3d 3a be b5 3d 92 74 56 3d
       -0.13688491 0.032442033 0.088741735 0.052357264
0000c0 81 b3 c6 be 89 d5 f9 be 70 71 24 be b3 d3 22 be
       -0.38808826 -0.48795727 -0.16058898 -0.1590107
0000d0 8d 5b 79 be 58 e6 cc 3c e0 43 ad 3d 4a 8d aa 3c
       -0.2435133 0.02501218 0.08460212 0.020819325
0000e0 cd e0 f1 3d f5 87 86 3e d9 6a 9f 3d 0d 52 c7 3b
       0.118104555 0.26275602 0.077840514 0.0060827793
0000f0 37 37 b8 be 6a 6f 70 be 9c dd bc bd 2b 1e ba be
       -0.35979626 -0.23480001 -0.09221956 -0.3635114
000100 33 08 fd bd f2 0d e1 3d 82 77 da bd 03 64 d2 bd
       -0.123550795 0.10988988 -0.106673256 -0.10272982
000110 0b e2 12 3e 03 99 e3 3b 2c 95 c2 bd 88 70 1e 3c
       0.14344041 0.0069457307 -0.095011085 0.009670384
000120 f1 16 20 be 9b 84 45 3e 95 8a 44 bb a5 46 73 3c
       -0.15633751 0.19288866 -0.0029989828 0.014848386
000130 74 6d 30 be 41 eb 2e 3e 4d 22 4a be cc b8 ea bd
       -0.17229253 0.1708193 -0.19739647 -0.114610285
000140 21 02 29 be 11 d2 0b be 30 f2 63 3c 3f 3b 75 be
       -0.16504718 -0.13654353 0.0139127225 -0.23948382
000150 b9 88 70 be 06 ef c2 3c 3a b1 20 3d a7 91 04 bd
       -0.23489656 0.023795616 0.039231516 -0.032365467
000160 58 a4 dd bd 22 0e ef bd af f5 9c bd ef a2 8f bd
       -0.10822362 -0.116726175 -0.07664048 -0.07013499
000170 f8 5f 16 be ea 98 ca 3d c5 82 41 bc f1 b4 30 be
       -0.14685047 0.09892447 -0.011810963 -0.17256524
000180 3a 3a 54 bd 0e 3e 2e be 88 55 11 be fe ed 04 3e
       -0.05181334 -0.1701586 -0.14192784 0.12981412
000190 57 5c 87 3d a3 1e b6 3d bb bf a5 bd 26 b2 d7 bd
       0.06609409 0.08892562 -0.0809321 -0.10532026
0001a0 f5 f9 1f 3a 03 ba 2c be 2a 5b 77 be 83 8b ec 3d
       0.0006102615 -0.16867833 -0.2415587 0.11550047
0001b0 f2 94 b9 bb 26 5a 41 3d eb f6 db 3d 2c 2f bf 3c
       -0.0056635076 0.047205113 0.10740455 0.023337923
0001c0 62 98 f8 bd d6 bd b7 bd 78 cd 0e bd de 37 86 bc
       -0.1213844 -0.08971755 -0.03486392 -0.016384061
0001d0 96 a3 29 bd 54 ee 46 be fb a5 21 be e0 a4 07 3e
       -0.041415773 -0.19426852 -0.15785973 0.13246489
0001e0 60 15 27 bd 2a c2 19 be 1c 1d ed 3d 98 d6 9f bd
       -0.04079187 -0.15015474 0.11577818 -0.078046024
0001f0 2e c1 a8 bd 28 fd bc 3d 38 7b 47 be ed e8 d2 bd
       -0.08239971 0.09227973 -0.19480598 -0.10298333
000200 94 fb ae 3d 78 d0 fd bd 05 65 8c bc 95 f8 bd 3d
       0.085440785 -0.12393278 -0.017138014 0.09275929
000210 ae a4 0e 3c 47 d3 86 be a3 c4 c7 bd 15 79 8e bd
       0.008706255 -0.26333067 -0.09754302 -0.06956688
000220 8b 16 93 3c 45 13 85 be 08 f7 eb bc 7c 2e 84 3d
       0.017955085 -0.25991264 -0.028804317 0.06454179
000230 3a 9f 22 be e7 bf 56 be 8e 32 81 3d b1 9e 84 3d
       -0.15881053 -0.20971642 0.06308471 0.064755805
000240 cd 36 1c bd 7b 41 dc be 13 72 05 3e 36 eb 14 3e
       -0.0381382 -0.43018708 0.13031797 0.14542851
000250 20 d8 c8 bd c9 e8 fa 3d 8d 13 db 3c 72 6a ff 3d
       -0.098068476 0.122514315 0.026742721 0.12471475
000260 22 af a2 be 7f 3c 0d bf be 98 15 be af 24 bb 3d
       -0.3177424 -0.55170435 -0.14609048 0.09137856
000270 7d 89 c9 bd c7 f5 8a 3d 04 4e 12 3e f9 ff 0e bf
       -0.09840677 0.067851596 0.14287573 -0.55859333
000280 7e 65 8a bd 66 66 25 be 58 9f d0 be 86 92 5c 3d
       -0.06757639 -0.16152343 -0.4074657 0.053850673
000290 b5 94 fa bd 17 ab 7e be a8 36 43 3e 1c 76 85 3e
       -0.12235395 -0.24869953 0.19063818 0.26066673
0002a0 8d 9d 29 3e 2c 0a 0f 3e 74 47 9c 3c 52 52 00 be
       0.16564007 0.13968724 0.01907704 -0.12531403
0002b0 72 09 27 be b1 2b 8e be 34 07 87 be c7 a7 91 bd
       -0.16312197 -0.2776771 -0.26372683 -0.07112079
0002c0 86 83 9e bd 95 0a ab be cf c3 ab bd ae 20 ad bd
       -0.0773993 -0.3340651 -0.08386957 -0.08453499
0002d0 3f bb ea be 48 f5 94 bd 4b 91 b1 3d b4 75 0f 3d
       -0.45845982 -0.07273346 0.086702906 0.03502436
0002e0 a4 44 e6 bd 74 18 2d be 38 a9 c7 3d d0 cb 76 be
       -0.11243561 -0.1690386 0.09749073 -0.24101186
0002f0 30 17 60 3d 6a f9 d9 be 2f 35 a8 be 16 51 24 3e
       0.054709613 -0.425731 -0.32853076 0.16046557
000300 3f 63 c2 bd 20 24 25 be c9 e5 83 3d c0 e5 4f be
       -0.09491586 -0.16127062 0.064403124 -0.20302486
000310 79 e0 f2 38 98 f3 6c bd 37 a7 71 bd 10 68 40 be
       0.000115812705 -0.057849497 -0.05899736 -0.18789697
000320 c0 49 99 be 25 63 36 be 23 c0 cd 3d cd 9f 69 3d
       -0.2993908 -0.17811258 0.10046413 0.057037164
000330 19 5a 83 be 17 81 76 3d 8f 5d 6f 3e 37 51 24 be
       -0.25654677 0.060181703 0.23375534 -0.16046606
000340 dd cd 8e 3d d9 51 f5 3d 8a 4f 6b bd c8 20 94 3d
       0.06972859 0.11978502 -0.0574489 0.07232815
000350 36 59 82 3d cd 86 89 3d f4 8b e3 3d ae 67 6c 3d
       0.06364672 0.06715164 0.11110678 0.057716064
000360 24 93 d2 3d 49 20 a5 bd c4 b9 e9 bc 48 24 9e 3e
       0.10281971 -0.080627985 -0.028530963 0.30887055
000370 fe c4 a7 3d 8e 26 ac 3d c0 b3 06 be 6e a8 91 3d
       0.0819187 0.08405791 -0.13154507 0.071122035
000380 13 df ca 3e ca 79 0b 3e dd df 60 be 03 6a 4e 3e
       0.39623317 0.13620678 -0.21960397 0.20157628
000390 c9 68 06 3e c4 48 d6 bd b4 d6 1a be 0f bd 26 3d
       0.1312591 -0.10463098 -0.15120965 0.040707644
0003a0 9c 47 d4 bd 30 90 d0 3c db f0 75 be 3d ea 2e 3e
       -0.10365221 0.025459379 -0.2401766 0.17081542
0003b0 07 53 93 be d7 4e f9 bc b1 69 e0 3c 3e 44 17 bd
       -0.28774282 -0.030433102 0.027394148 -0.036930315
0003c0 83 98 7d be bc ae a4 3d 64 83 83 bd 78 40 0b be
       -0.2476521 0.080411404 -0.06421545 -0.13598812
0003d0 5d 4e 16 3d 15 2a 50 3e ad 4c a6 3e 03 10 11 3d
       0.036695827 0.20328553 0.32480374 0.03541566
0003e0 24 9c 87 3e a4 36 80 3e 9d a7 27 be ab a2 6c 3d
       0.26486313 0.25041687 -0.16372533 0.05777232
0003f0 0a de 9e bd c8 4a a3 3d d4 04 98 be d4 8c 91 be
       -0.07757194 0.07973248 -0.29691184 -0.28427756

hidden_nets.1.bias f4 [64]
000000 fb 1e 00 bd 09 cf bc bd c7 4d 42 3e 2a ed bc bd
       -0.031279545 -0.09219176 0.18974982 -0.09224923
000010 ec 8e 2a bd a7 89 cd bc 79 ab 18 3e cf 7c 1e 3e
       -0.041640207 -0.025090052 0.14909162 0.15477298
000020 6b 51 41 3e 9a 45 1e 3e 1a 20 a4 3c f6 69 2c bc
       0.18878715 0.15456238 0.020034838 -0.01052331
000030 dd 1f e3 3d 7c 77 f7 3d ba 93 a9 3d 6f 50 ed 3d
       0.11090062 0.12083337 0.0828013 0.11587607
000040 6c 0e 06 3e 8d 69 0e 3e 8c 3f 20 3e aa a9 03 3e
       0.13091439 0.13907452 0.15649241 0.1285769
000050 ef e9 e9 3d cb be 17 3e bf 68 53 bd 9e 2f 2c 3e
       0.114215724 0.14818875 -0.051613566 0.1681504
000060 b2 65 fa 3d df a6 27 3e 70 8e 2e 3e 94 45 27 3e
       0.12226428 0.1637225 0.17046523 0.16335136
000070 99 a1 38 bd 19 07 c4 3d 0a e4 1c 3e d4 b9 58 3e
       -0.045075987 0.09571666 0.15321365 0.21164638
000080 2d a8 ac 3d e7 8e 3e 3e a8 20 b6 bd cb 49 51 bd
       0.084305145 0.186092 -0.088929474 -0.051095765
000090 81 85 21 3e 3c 93 22 3e f6 e1 26 3e 82 98 22 3e
       0.15773584 0.15876478 0.16297135 0.1587849
0000a0 75 a3 45 bd 25 3a a3 3d f7 2b 00 3e 11 ef 2b 3e
       -0.048251588 0.079700746 0.12516771 0.16790415
0000b0 d0 24 46 3e 87 8d 3d 3e e0 cf f2 3d f6 18 d7 bc
       0.1934998 0.1851102 0.11856055 -0.02625702
0000c0 b0 f6 64 3d 4e 1c 1d 3e da 35 19 3e 26 cb 08 3e
       0.055899322 0.15342829 0.14961949 0.13358745
0000d0 13 da ff 3d 07 e7 36 3e 17 69 ba 3d f9 56 af 3d
       0.12492766 0.17861567 0.091020755 0.085615106
0000e0 86 95 4d 3e b6 40 ac 3d d8 99 36 3e 38 75 fb bc
       0.2007657 0.0841078 0.17832124 -0.030695543
0000f0 4b 02 9f 3d 8b 63 fc 3d d3 d6 47 3e af 4f 2f 3e
       0.07764109 0.12323674 0.19515543 0.1712024

hidden_nets.2.weight f4 [32, 64]
000000 ed 80 92 bd 7a b7 28 3d f5 a7 b4 bd f3 27 1d bd
       -0.07153497 0.041190602 -0.08821098 -0.038368177
000010 4e 0f 47 be ce ab b8 bc 6a a4 0c 3e ef 10 d2 bd
       -0.19439432 -0.02254286 0.13734594 -0.10257136
000020 17 27 f0 3d 64 2e f6 3d 56 58 7d be f5 89 89 be
       0.11726206 0.12020567 -0.24740729 -0.26863065
000030 c1 43 2e 3e 9a ba 3b be 66 bd 63 3e c6 e4 8a 3d
       0.17018034 -0.18332902 0.22240219 0.06781916
000040 8e 24 bd bc 9c 40 96 bc 44 33 70 3d ad c0 93 bd
       -0.02308872 -0.018341355 0.05864264 -0.07214484
000050 c1 c6 b1 3c 9b fb 33 3e 5b a0 2f be 7f 81 0c be
       0.021701219 0.17576449 -0.17151015 -0.13721274
000060 0c 8c 63 3e 99 0d f5 3d 4e 85 67 3e ee 9b 20 bc
       0.22221392 0.11965484 0.22609445 -0.009802802
000070 40 46 84 be fa 23 b9 bd ba dd 2e 3e c4 cb 1a 3d
       -0.25834846 -0.09040065 0.1707677 0.037791982
000080 94 80 42 bd 11 3a 39 3e 01 5b a8 be e3 66 c4 be
       -0.047485903 0.18088557 -0.3288193 -0.38359746
000090 68 50 60 3d ba fd 7c bc 4b f0 08 be cc ce e8 3d
       0.05476418 -0.0154413525 -0.13372914 0.113675684
0000a0 ab 2c 6a be 30 02 45 bc 7e 50 eb bd ab 43 b0 3d
       -0.22868602 -0.012024447 -0.11489962 0.08606657
0000b0 98 9d f6 bd a1 89 7d bc 76 4e 91 3e a2 3f e4 bd
       -0.12041777 -0.015474708 0.28380173 -0.111449495
0000c0 ed a6 a0 3e 64 5f 28 be dd 57 7e bb 38 a9 1f be
       0.31377354 -0.16442639 -0.0038809695 -0.15591896
0000d0 d5 12 46 3e cf 01 8d 3e 27 03 8b 3c 90 20 b1 3e
       0.19343121 0.27540442 0.016969277 0.34595156
0000e0 ea 0d 30 be 79 88 c0 bd a1 4e 88 3e 0c 6e 9d be
       -0.17192808 -0.0940103 0.2662249 -0.30748022
0000f0 be 18 0b 3e ea af 42 3e cd 86 e9 3d 5e 31 fc bd
       0.13583657 0.19012418 0.11402664 -0.123141035
000100 b2 5a 37 be 63 b2 2c 3e 7c 1f eb 3d 9c 35 d7 bc
       -0.17905691 0.16864924 0.114806145 -0.02627068
000110 35 4b 17 bc d8 04 5f 3a f7 d7 b5 3b bf d0 20 3d
       -0.009234239 0.00085074967 0.0055494267 0.039261576
000120 47 ae 05 3e 8d c6 6d 3e fd 79 0b 3e ae fd 24 bd
       0.13054763 0.23220272 0.13620754 -0.04028099
000130 35 4e b7 3d fa 20 58 be 11 e3 99 3d 61 5f 01 3e
       0.08950464 -0.2110633 0.075140126 0.1263404
000140 c0 59 e5 bd c9 69 4f 3e 28 eb c7 bd 4b 63 01 be
       -0.11198759 0.20255198 -0.09761649 -0.12635534
000150 f9 10 26 bd 3c 43 90 bc 10 e4 4f be 33 c2 0a 3e
       -0.04054353 -0.017610185 -0.20301843 0.13550644
000160 d0 74 98 3d 60 26 16 be 6b c2 7c 3d 9c 4c f3 bd
       0.07444155 -0.14663076 0.06170885 -0.118798465
000170 8c cd 32 3d f0 c5 a3 3c a0 14 3f 3b 98 e0 c0 3a
       0.043653056 0.019991845 0.002915658 0.0014715372
000180 c4 b9 6c be f0 ae 5b 3e dc d9 69 be 34 97 48 bd
       -0.23117739 0.21453452 -0.22837013 -0.048972324
000190 80 ba 4d 3e 9b 8f 42 3e ff ed 1f be 9d 13 8d 3e
       0.20090675 0.19000094 -0.15618132 0.27554026
0001a0 69 05 c8 bd 83 46 4b be 14 11 84 3e ca 81 8e bd
       -0.09766657 -0.19851117 0.2579428 -0.06958349
0001b0 5a e3 f7 3c 5b d5 17 3e 10 d1 36 3e f6 a9 76 be
       0.030259777 0.14827482 0.17853189 -0.24088272
0001c0 e4 8f 9b 3e 88 9c 69 3e bf 5e 20 bd 58 4c 9d 3d
       0.30383217 0.22813618 -0.039152857 0.07680577
0001d0 d0 49 86 bc 70 21 47 3d e1 21 55 3e 94 07 9f 3e
       -0.016392618 0.048615873 0.20813705 0.3106047
0001e0 6f 6d 18 3c 5b 3e 5e 3e 28 bf 2e bd 96 8c 0f bd
       0.009303435 0.21703474 -0.04266277 -0.035046183
0001f0 dc fa c0 bd 8b 89 42 3e 79 10 6c 3d 78 d5 27 be
       -0.09422848 0.18997781 0.057632897 -0.16390026
000200 9d e4 00 3e e0 35 41 3e f2 fe fd bd 54 04 8f bc
       0.12587209 0.18868208 -0.124021426 -0.017458118
000210 3d 57 1c be 4d ca 06 3e 2f 53 6d be 65 eb 36 be
       -0.15267654 0.13163109 -0.23176263 -0.17863233
000220 9e fe 95 be b4 66 30 be c4 fe 3f be 4d 64 20 bd
       -0.2929582 -0.17226678 -0.18749529 -0.039158154
000230 9c 19 bf 3d 62 20 c1 bc 1e f8 88 bd c4 b2 b4 3c
       0.093310565 -0.023575012 -0.066879496 0.022057898
000240 19 cc ab be 58 59 af bb d3 a3 11 bc 6b 80 d1 bc
       -0.33554152 -0.005351227 -0.008889156 -0.02557393
000250 84 1a 37 be 68 93 15 be 5e b5 19 be 2c 6c ef 3d
       -0.17881209 -0.14607012 -0.15010592 0.11690554
000260 b4 63 32 bd 13 fd e2 bd ac 92 03 3d c2 20 9b be
       -0.043552116 -0.11083426 0.0321223 -0.3029843
000270 62 e0 a7 bd 75 5d 3f be b3 83 59 bd 5e a6 57 be
       -0.081970945 -0.18687995 -0.053104114 -0.21059558
000280 3e 2d 31 be 14 f2 88 be 96 70 11 bd 7b 05 20 be
       -0.17302415 -0.2674719 -0.03550776 -0.1562709
000290 3d 70 94 be c0 11 77 3e f8 a7 3a be b5 44 4a be
       -0.2899188 0.24127865 -0.18228137 -0.19752772
0002a0 30 f8 a3 bc c3 2f 26 3d 87 02 0c 3e 6a b3 c5 3e
       -0.020015806 0.040572893 0.13672839 0.38613445
0002b0 db 73 73 be 1a 29 67 3e dc 28 01 be bd 37 9e bd
       -0.23774664 0.22574273 -0.12613243 -0.07725475
0002c0 1b a6 03 3d 7a 8a 31 be 57 40 58 3d 18 a2 5c be
       0.032140832 -0.17337981 0.052795734 -0.21546209
0002d0 c7 14 1d be f6 a6 ab 3e 4e 9a 16 bd c1 aa 00 3e
       -0.15339957 0.3352582 -0.03676825 0.12565137
0002e0 df 8d 1a 3e 05 a3 c4 bd 0f e0 7c 3d 4a 67 8b bd
       0.15093182 -0.09601406 0.061737116 -0.0680681
0002f0 d9 95 52 be b9 83 0e be 1d 15 b2 3d 3c 5d 2e 3d
       -0.20564975 -0.13917436 0.08695433 0.042569384
000300 85 dc 20 3d b6 61 4d 3e 46 9d 43 ba 34 58 cf bd
       0.039272804 0.20056805 -0.0007462095 -0.10124245
000310 25 eb a7 be 65 ca 1a 3e 8d 45 6a 3e e1 77 c2 3b
       -0.3279659 0.1511627 0.22878094 0.005934701
000320 44 b8 3e 3e e3 b7 5b bd 93 dd 25 be bc 37 09 bd
       0.1862498 -0.053642165 -0.16197805 -0.033500418
000330 39 e2 c7 3d 13 e3 7c 3e 7c 52 2e 3c b7 1a 68 3e
       0.097599454 0.24695997 0.010639783 0.22666441
000340 de 42 82 3e 72 34 e6 3d d6 b4 f1 bd cc 9c 23 3e
       0.2544164 0.11240472 -0.1180207 0.15977782
000350 83 ba 05 3e 0b 2d 6c bd e3 43 2e 3e dd 25 ac bd
       0.1305943 -0.057660144 0.17018084 -0.08405659
000360 6e 68 ca 3c 08 81 05 bc 54 55 cd 3d ca dd 53 3e
       0.024708 -0.008148439 0.10026041 0.20690075
000370 53 67 90 bd 25 9b 03 3e a9 c5 11 be 47 44 25 be
       -0.070509575 0.12852152 -0.14235558 -0.16139327
000380 54 ce 3b bd c3 35 27 3d ec 10 69 3d e5 a9 85 be
       -0.045851067 0.040822756 0.056900904 -0.26106182
000390 4b 85 b9 bd db 0f 4d 3e 5d 37 03 3e 47 4f 02 3e
       -0.09058627 0.2002558 0.12814088 0.12725554
0003a0 8d 79 88 be e6 2a 99 be 0e 42 bc 3d 01 92 b1 3d
       -0.26655236 -0.2991554 0.091922864 0.08670426
0003b0 e9 8a 19 be 50 40 55 bd f3 ec c3 bd bd 2b 8f be
       -0.14994396 -0.052063286 -0.09566679 -0.27963057
0003c0 07 fd 27 3e 10 ff 40 bb b1 79 4e 3d 29 7e 7c 3c
       0.16405116 -0.0029448904 0.050409023 0.015410938
0003d0 6d d6 fd bc 89 01 f3 3d 7a 80 9a 3d d6 a8 8e bc
       -0.030986035 0.11865527 0.07544036 -0.017414492
0003e0 15 3e 30 3e 6d f0 54 3d 8c 4c 83 3e 9a 2e b7 bd
       0.17211182 0.0519871 0.25644338 -0.089444354
0003f0 8b 6d 00 3e 5c 3f e3 3d 62 ae 7d 3c 02 d9 ab bd
       0.12541787 0.11096069 0.015483471 -0.08391

hidden_nets.2.bias f4 [32]
000000 6e 2f 79 3f ad 11 73 3f d6 8e 78 bd 7a 2c 70 3f
       0.97337997 0.94948846 -0.060683094 0.93817866
000010 de 68 77 3f 03 f6 58 3f e6 11 87 3f d9 e1 cc bd
       0.9664439 0.84750384 1.0552337 -0.100040145
000020 73 d5 80 3f ba ae 54 3f 8a 43 71 3f 0a 99 7c 3f
       1.006514 0.8307911 0.9424368 0.9867102
000030 ca cc 9f bd ea e9 33 bd af a1 c8 bd e6 6b a4 bd
       -0.07802732 -0.04392425 -0.09796464 -0.080283925
000040 9a 52 a4 bd 54 a7 7c 3f f3 d6 6c 3f 4e 2e 9e bc
       -0.080235675 0.9869282 0.92515486 -0.01930919
000050 04 b4 78 3f 95 ff 12 bd 6f 61 86 3f 49 7c 75 3f
       0.9714968 -0.035888273 1.0498484 0.9589277
000060 07 05 6e 3f bd 58 c0 bd 11 be 77 3f a0 80 fe bc
       0.9297642 -0.093919255 0.96774393 -0.031067193
000070 ee bd 16 bc c9 b0 83 3f dd 7a 92 3e aa 47 84 3f
       -0.009200556 1.0288326 0.28609362 1.033437

value_stream.weight f4 [1, 32]
000000 71 69 6f 3f 7a 8e 53 3f 9f e6 b0 be 1b 41 5f 3f
       0.93520266 0.82639277 -0.3455095 0.8720872
000010 4a 29 80 3f 42 d3 3e 3f 4e c0 21 3f 2e 51 c9 be
       1.00126 0.74541104 0.6318406 -0.39319748
000020 70 82 54 3f 70 53 29 3f 58 be 51 3f 6f 13 4e 3f
       0.8301153 0.6614294 0.81931067 0.80498403
000030 52 26 3c be 0d 46 39 be a3 97 82 be d8 be 88 be
       -0.18373993 -0.18093129 -0.25506315 -0.26708102
000040 02 d6 bc be f1 62 3f 3f 31 37 4e 3f 03 80 a5 be
       -0.36882025 0.7476035 0.80552965 -0.32324228
000050 96 18 43 3f c3 6c 69 bd c2 c2 1f 3f ff e0 4a 3f
       0.7620939 -0.05698849 0.6240655 0.79249567
000060 08 12 7a 3f 2f 51 9e be 09 58 23 3f a7 9f 7f be
       0.97683764 -0.30921313 0.63806206 -0.24963246
000070 3f 7b b7 be 9a 5a 17 3f ac 59 06 3f 91 e9 31 3f
       -0.35836217 0.5912262 0.5248058 0.6949702

advantage_stream.weight f4 [5, 32]
000000 26 ec 05 3d f0 5a 16 3e 45 2d 16 3e 2e 4c 2c 3d
       0.03269591 0.14683127 0.14665706 0.042064838
000010 39 31 28 be 6e 3d 01 be 52 57 66 3c 8e b0 46 3e
       -0.16425027 -0.1262109 0.014058905 0.19403288
000020 6f 12 10 be 8d de 04 3e 3a 3d 29 3e 74 d4 ac 3d
       -0.14069532 0.12975521 0.16527262 0.0843896
000030 95 38 08 3e 06 de 01 be fb 93 11 3e 67 e0 ab be
       0.13302834 -0.12682351 0.14216606 -0.33569643
000040 01 ce 52 3e e3 9e f6 bc 62 b5 fd 3c f4 81 23 3e
       0.20586397 -0.03010506 0.03097028 0.15967542
000050 8c 91 5d 3e 13 1a be 3c e8 1c 44 bc be e8 93 bd
       0.21637553 0.023205793 -0.011969782 -0.072221264
000060 70 20 5a bc cc e1 82 be 39 2e ac 3d 30 9b 8d be
       -0.013313398 -0.25562894 0.08407254 -0.2765746
000070 5b 79 01 bf 90 39 9e 3d 81 98 c1 bd f7 5b b5 bd
       -0.505758 0.07725823 -0.09452916 -0.088554315
000080 32 7c cc bd 66 40 b4 3d 32 d7 df 3c cf be 69 3d
       -0.09984626 0.088013455 0.027324293 0.057066735
000090 b1 12 4a be 8f 5b 75 bd 26 e5 72 bd 91 ac 68 3e
       -0.19733693 -0.05990177 -0.059300564 0.22722079
0000a0 78 eb 4e be 86 28 65 3d 4b 55 f9 3d 6f a4 8a bc
       -0.20207012 0.05594685 0.121744715 -0.016924111
0000b0 8f 21 8f 3e 0c 08 9e bd 82 52 2b 3e de 8a d4 bd
       0.2795529 -0.077163786 0.16730693 -0.10378049
0000c0 d5 48 15 3c e0 26 c4 bd 28 f1 51 3d 87 2a 20 3e
       0.009111603 -0.09577727 0.051255375 0.15641223
0000d0 ee 77 4b 3e 37 55 92 3d ef 61 78 bd 18 59 09 be
       0.19869968 0.0714516 -0.06064027 -0.13412893
0000e0 bd a5 c2 bd 9d 83 a1 3e a3 2f 19 3c 99 e2 98 be
       -0.09504268 0.31545725 0.009349736 -0.2986038
0000f0 72 e1 9c be 71 61 fc 3c fb 8f 40 3e 5f d8 1d be
       -0.3064075 0.030808182 0.18804924 -0.1541457
000100 7b 0c 59 3d ac f5 4c 3e 68 77 ae 3e 13 92 bd 3d
       0.052990418 0.20015591 0.34075475 0.09256377
000110 0e 92 2d be ba df ba 3d de fd 09 3b d2 f0 1a be
       -0.16950247 0.09124704 0.0021055858 -0.15130928
000120 e0 21 4c be 35 9d e5 bb c5 df 49 3e 42 1a c9 3d
       -0.19934797 -0.007007266 0.19714268 0.098194614
000130 21 02 83 3e 7a bc a5 bd 34 62 45 3e b4 85 8d 3e
       0.25587562 -0.0809259 0.19275743 0.2764107
000140 f2 24 cd 3e cf 9a b1 bd 63 81 94 3d d7 6c 64 bd
       0.4006725 -0.086721055 0.07251241 -0.05576786
000150 e3 61 58 3e 2a b4 85 be ec 2e 3d bd 39 2a 0b be
       0.21131091 -0.26114017 -0.046187326 -0.13590325
000160 36 7d 6b 3c 32 2d cc 3d cc 1a da 3c 4a a0 91 3e
       0.014373114 0.09969558 0.026624106 0.28442603
000170 50 dc c4 3e ff c9 d3 3d 0f 52 7b be 00 98 be bd
       0.38449335 0.10341262 -0.24543022 -0.093063354
000180 6f 9e 45 bd b1 ec 9d 3d d3 d9 b9 3d 0a 2f 25 3d
       -0.048246797 0.07711161 0.0907475 0.040328063
000190 6b ee 3a be cd 7f f8 bd c9 7c 7d bd b6 7b a7 3c
       -0.18255012 -0.12133751 -0.061886583 0.020444732
0001a0 3c a1 29 be 2b 11 f9 3d 3f aa f6 3d 71 1e d7 3c
       -0.16565412 0.12161478 0.120441906 0.026259633
0001b0 a9 44 77 be f4 5a 82 3e e5 8b 94 3e f5 2a ed 3e
       -0.24147286 0.25460017 0.2901298 0.46321836
0001c0 0f a6 8c 3e cf 69 8d bd 45 8f 47 3d 92 be 1c be
       0.27470443 -0.06904947 0.048720617 -0.15307072
0001d0 a7 0c 33 3e 51 8d fc 3e dc 3d 5d bd c6 37 0e be
       0.17485295 0.49326566 -0.05401407 -0.13888463
0001e0 fd bf fe bd e0 c4 18 3f 07 93 29 3d ed 1c 38 bd
       -0.124389626 0.5967541 0.04139998 -0.04494946
0001f0 f3 2f e8 3d e5 ad 3f 3d ed 84 98 bd 12 e3 19 be
       0.113372706 0.046796698 -0.074472286 -0.15028027
000200 2e 50 8a 3c c2 35 97 3d 74 f8 00 3d ea 7f 51 3c
       0.016883936 0.073833 0.031486943 0.012786845
000210 f4 b3 03 be cb 99 27 be 10 56 d2 bc 84 38 64 be
       -0.12861615 -0.16367261 -0.025675803 -0.22287184
000220 28 81 5a be 80 d7 20 3e 8d 83 06 3e c3 25 dc 3c
       -0.21338332 0.15707207 0.1313612 0.026873475
000230 f0 c8 bb 3e b3 f7 8c bc bc b9 c5 3c 2b ae 35 bd
       0.3667674 -0.017207956 0.024136417 -0.044355553
000240 91 4d f3 bd c0 cf 09 bd c5 42 aa 3d 05 86 1b 3e
       -0.11880029 -0.03364539 0.083135165 0.15187843
000250 24 95 74 3e 2d 24 1e 3d 88 1f 80 bc 4c 7f dd bd
       0.23885018 0.03860872 -0.015640035 -0.108152956
000260 6a 49 49 bd 3c 2b 73 3e d4 3c f1 3c bc 80 b4 3e
       -0.04914228 0.23746961 0.02944795 0.35254467
000270 c6 d4 69 3d d2 96 f5 3d 41 66 f4 3d a3 49 e5 bd
       0.057087682 0.11991657 0.11933566 -0.11195686

advantage_stream.bias f4 [5]
000000 68 86 8e be c8 06 dc 3e 7c ce b6 be 56 ec 19 3f
       -0.2783692 0.42973924 -0.3570441 0.60126245
000010 91 88 24 bf
       -0.64270884

hidden_nets.0.weight f4 [64, 11]
000000 11 b0 e8 3d 1b 1e 69 3c 98 ae 46 3e 1e a4 77 3d
       0.11361707 0.014228369 0.1940254 0.06045925
000010 4c 85 57 3e 50 1c de bd c2 11 45 bc e3 db 80 be
       0.21046942 -0.10845244 -0.01202816 -0.2516776
000020 1c e0 4f be 48 5f 5a 3c 64 ea 6f bd 5f 86 fc bd
       -0.20300335 0.013328381 -0.05857314 -0.12330317
000030 c6 28 9d bd 45 db 81 be 79 2a 44 be be 0f b2 be
       -0.076737925 -0.25362602 -0.19156827 -0.34777635
000040 f8 78 02 bd 27 b1 9f be 83 5a 8e 3e f5 b4 fa 3d
       -0.031853646 -0.31189844 0.2780343 0.12241546
000050 31 ba 1f bd 05 46 92 bc 33 3b b7 be ae fd 4e 3e
       -0.038995925 -0.017855654 -0.35787353 0.20213959
000060 cb 57 32 be 85 dc 35 bd 21 08 47 be c2 8f 45 3e
       -0.17416303 -0.044399757 -0.19436695 0.1929312
000070 8b 68 44 3c 21 48 0a 3e f8 f5 14 3e 6c c7 58 bd
       0.011987816 0.13504077 0.14546955 -0.05292456
000080 b5 31 c2 3c 7c 66 42 be fc a1 9b be 74 c9 46 be
       0.023705343 -0.18984407 -0.30397022 -0.19412786
000090 69 71 df bd a0 09 ce 3d 8a 89 ae 3d 2c 42 8f bd
       -0.10910303 0.100604296 0.08522327 -0.06995043
0000a0 39 c7 58 3b d2 fc 8a 3d 7a ea c4 3d 6c 16 0e bd
       0.003307773 0.06786503 0.09615035 -0.034689352
0000b0 28 5e bb 3d a8 3a 3e be 9a ae 1c be a2 14 52 bc
       0.09148818 -0.18577063 -0.1530098 -0.012822302
0000c0 64 64 97 3e cf 00 22 3d 19 ec a4 3c d2 57 4d bc
       0.2956878 0.039551552 0.020132111 -0.012533145
0000d0 05 eb 5e 3d 86 97 39 bd f3 20 06 bc 60 84 17 3e
       0.05442335 -0.04531052 -0.008186567 0.14796591
0000e0 b7 da 01 3e ce f6 85 3d 26 75 fb bd 20 9c 74 3e
       0.1268109 0.06541215 -0.12278204 0.23887682
0000f0 ff bc 3e 3e 16 87 d8 bd 27 ad cb be e0 40 10 be
       0.18626784 -0.105726406 -0.39780542 -0.14087248
000100 2d f3 af bd f9 a3 22 3c ee af 18 bd 2b e6 0e 3e
       -0.08591304 0.009926789 -0.037277155 0.1395499
000110 be e0 13 be 21 72 d6 3d ff 01 4d be 38 85 06 be
       -0.14441201 0.10470987 -0.20020293 -0.13136756
000120 9b 5e 5a be 8d ff 9d 3d f4 d5 86 3e 38 fd a5 be
       -0.21325152 0.07714758 0.26335108 -0.32419753
000130 ea b2 9f bd 29 9b 7a be 42 b5 7a 3c 0b 4e 32 bb
       -0.07797797 -0.24473251 0.015302004 -0.0027207162
000140 7f 4a 09 be 80 93 71 3e 7b ff f1 bb ef c9 a8 3d
       -0.13407324 0.23591423 -0.007385192 0.08241641
000150 8b 17 03 be 26 fa 36 3b a1 2e 51 3c f0 48 5c 3d
       -0.1280195 0.0027920096 0.012767465 0.053780496
000160 d2 00 ad be 60 18 49 be cf 4f 1a 3e d4 9d 71 be
       -0.33789688 -0.19638205 0.15069507 -0.23595363
000170 4c 1e cc 3d 54 e7 f3 bd 21 73 54 3e d0 c2 7d be
       0.09966716 -0.11909357 0.20747043 -0.24781346
000180 b9 d6 4c 3e 92 2d ea bd ec 69 f6 3d 14 37 db ba
       0.20003785 -0.11434473 0.12031922 -0.0016724789
000190 1c 40 d8 3d 16 50 25 be 58 dd 1b 3e f9 63 9c be
       0.10559103 -0.16143832 0.15221155 -0.30545023
0001a0 60 d4 13 bd c5 5e 31 3c 18 11 5f be 20 b2 89 3c
       -0.03609121 0.0108258175 -0.21783864 0.01680857
0001b0 83 3a be 3d e8 5d 56 be fa 0c be 3d 4a 7c d3 3c
       0.09288504 -0.2093426 0.09279819 0.025816102
0001c0 66 90 c4 be 10 04 d3 3d e9 41 4b bc 10 98 68 be
       -0.38391417 0.10303509 -0.012405851 -0.22714257
0001d0 6d 6d b0 bd 2e a3 59 3d 98 d0 51 3e 61 79 49 3d
       -0.08614621 0.053134136 0.20489728 0.04918802
0001e0 30 db 31 3e 7d f2 14 be 84 29 8e be 6a c0 20 be
       0.1736877 -0.14545627 -0.2776605 -0.156984
0001f0 96 9c 55 be 61 a7 1c 3d 21 3d 17 3e 76 be 33 be
       -0.20860514 0.038245562 0.14769413 -0.17553124
000200 0a c3 83 be 6f f9 20 3e 93 a5 b5 bd 6f 7d 64 3e
       -0.2573474 0.15720151 -0.088694714 0.22313474
000210 5c 51 4a 3e 49 ae a4 be 13 e2 cd 3d a9 cc e4 bd
       0.19757599 -0.3216422 0.10052886 -0.11171848
000220 71 0b 15 3e 09 c6 82 be 50 1e 31 3c 60 ad 0b 3e
       0.14555146 -0.25541714 0.01081045 0.13640356
000230 b2 1c 1d 3d ae 7d 49 be 16 3d 39 3c f7 36 cd bd
       0.038357444 -0.19676849 0.011306068 -0.10020249
000240 f1 be 6d 3e d2 0e 6c be 48 e2 92 bd a0 b2 83 be
       0.2321737 -0.23052529 -0.07172066 -0.25722218
000250 e5 67 6e be 90 6b 7a bd a9 23 53 be 16 51 45 be
       -0.2328182 -0.061137736 -0.20619072 -0.19269213
000260 ea 3d 61 bd 82 61 11 be 5b 80 97 be ca 77 b5 bd
       -0.054990686 -0.14197353 -0.29590115 -0.088607386
000270 fe b3 a7 be 05 56 2c 3e 67 68 a3 bc c0 25 5d 3e
       -0.3275451 0.16829689 -0.019947244 0.21596432
000280 bc f5 3c 3d 24 8f 10 be 0f 6a 4a bd b0 2f 31 be
       0.046132788 -0.14117104 -0.04941755 -0.17303348
000290 6e ee e9 3d 74 0f 79 3e 31 76 42 3d a4 28 33 be
       0.1142243 0.24322301 0.047475997 -0.17495972
0002a0 ee c6 e4 bd 97 38 9a 3d 29 9d 2a 3d 6b 54 e1 bc
       -0.11170755 0.07530325 0.041653786 -0.027506074
0002b0 cb 48 34 3d 25 83 4c 3e 07 cb d8 3c 7e ff 0b bd
       0.044014733 0.19971903 0.026463998 -0.034179203
0002c0 42 4a 81 be dd e2 97 3c 7a a8 00 3c ff 79 90 3d
       -0.25251967 0.018540794 0.007852668 0.07054519
0002d0 97 00 29 be 85 9b cb bd ce 4a 30 bd 19 b9 92 3e
       -0.16504131 -0.09941772 -0.04304009 0.28656843
0002e0 5f 57 ef 3d 77 77 90 be 79 2a 85 be 42 2a 5f be
       0.116865866 -0.28216144 -0.26008967 -0.21793464
0002f0 a5 b8 8f 3e 8f 7d 16 3e 05 92 b6 3d ed 84 e3 be
       0.2807056 0.14696334 0.0891457 -0.44437352
000300 53 0c 15 3e cd 22 46 3d 20 42 18 3d 36 72 07 be
       0.14555483 0.048373032 0.037172437 -0.13227162
000310 75 e4 e7 3c 66 ed 17 bb 79 19 64 be 4f b1 a7 3d
       0.028307179 -0.0023182272 -0.22275342 0.08188116
000320 cf 3c 67 be c4 23 8e bc b6 10 13 be 53 89 a1 bc
       -0.2258179 -0.017351039 -0.14361843 -0.019718802
000330 a3 9a cb 3c 0d 46 9c 3d 78 1d 2d be 91 e7 0d 3d
       0.02485401 0.076305486 -0.16905773 0.034644667
000340 67 75 95 be 2b d4 56 3e a9 a7 9e be 19 b0 12 3e
       -0.29191133 0.20979373 -0.3098729 0.14324988
000350 31 79 5d 3d e3 3f 24 3e b0 05 bc 3c 2b 93 89 3c
       0.054070655 0.16039996 0.02295193 0.016793808
000360 32 7e 40 be d8 e8 8c be 4d b9 eb 3d c0 f5 e9 3c
       -0.1879814 -0.27521396 0.11509953 0.028559566
000370 49 79 d0 3d 3f a3 3d bd 2c 9d 4e 3d a4 24 53 bc
       0.10179383 -0.04629826 0.05044286 -0.012887154
000380 0e 61 8e 3e 96 4c 1d be 3f 01 96 bd d8 c3 ea bd
       0.27808422 -0.15361246 -0.073244564 -0.114631355
000390 c6 dc 28 be 7b 2a 2a be 98 b4 aa bc 44 90 dd 3d
       -0.16490468 -0.16617768 -0.020838067 0.10818532
0003a0 1e b6 12 3a ab e3 a2 3d 05 ee 26 bb 9c 5b 7d 3e
       0.00055965956 0.079535805 -0.002547146 0.24741977
0003b0 c3 21 fb 3b a1 81 21 bd a5 fc 4a be db d2 5b be
       0.007663937 -0.039430264 -0.19822939 -0.21467154
0003c0 d9 05 1e bd 47 65 15 3c a4 3e f4 bc 2c 98 c7 3d
       -0.038579796 0.009118385 -0.029815026 0.09745821
0003d0 1d 44 91 3d 0b 60 a5 39 13 62 61 3e 67 22 df bd
       0.0709307 0.0003154281 0.22010069 -0.108952336
0003e0 5a a2 e2 3c 95 34 18 be 6f 27 ca 3d 85 f2 be 3d
       0.027665306 -0.14863808 0.098708026 0.09323601
0003f0 9d d9 24 bc fe e7 af 3e b7 7b c7 bd 62 d6 32 bc
       -0.010061649 0.34356683 -0.097403936 -0.010915371

hidden_nets.0.bias f4 [64]
000000 28 63 bb bd 26 43 78 3d 4f f9 6d bb 93 98 14 be
       -0.09149772 0.060610913 -0.003631193 -0.14511327
000010 79 83 00 be 37 4f f3 bd 37 ba bf bc 95 0e 20 be
       -0.12550153 -0.118803434 -0.023404224 -0.15630563
000020 6f 03 a7 bd 81 16 8d bc 14 11 f6 3a a1 fd 4d bd
       -0.08154952 -0.017222645 0.00187734 -0.050290707
000030 54 95 0d be b6 6a a0 bc 44 6c ea bd 5b d6 3c be
       -0.13826495 -0.019582134 -0.11446431 -0.18441145
000040 dd c7 8d 3d 73 c9 8f 3c 83 d3 04 3c 31 78 a3 bd
       0.069228865 0.017552113 0.008107069 -0.07981909
000050 33 01 8b bd 3b bd 41 be a6 be e7 bd 5e 80 ca bd
       -0.06787338 -0.18919842 -0.1131566 -0.09887765
000060 94 e6 b0 3b 74 fc bd 3d f8 d2 9d bc c3 ec ba bc
       0.005398581 0.09276667 -0.019265637 -0.022817975
000070 f6 0c 96 bd 92 e2 b7 3c 95 38 11 be b7 51 95 3c
       -0.07326691 0.022446904 -0.1418174 0.018227441
000080 81 2a 7c bd 11 a1 35 bd 2b 2a ba bc b5 eb 37 bd
       -0.061563972 -0.044343058 -0.022725185 -0.044902522
000090 00 00 00 00 3c ed f1 bd 39 f5 fc bc 17 b3 83 bd
       0.0 -0.11812827 -0.03087865 -0.06430643
0000a0 80 eb 59 bd 51 ca 51 be 5d 49 2e be 10 06 9d bd
       -0.053203106 -0.20487334 -0.17020173 -0.07667172
0000b0 fb cc 96 bd 59 09 3d 3d 37 7a 9d 3c 4a cb 12 3d
       -0.07363316 0.046151493 0.019223316 0.035838403
0000c0 6e 8d 04 be 8c cb c6 3d 3c d6 b3 bd b5 e6 1c be
       -0.12944576 0.09706792 -0.08781096 -0.15322383
0000d0 09 b9 98 3d 36 9e 11 bd 47 f8 30 3d 75 32 99 3c
       0.07457168 -0.035551272 0.043205526 0.018700818
0000e0 1a 63 d0 3c 26 7c ff 3b 20 eb 90 bd 22 bb 9a bd
       0.02543788 0.007796782 -0.070760965 -0.07555224
0000f0 ff 7a ba bd 44 4c dd 3d 2a b1 1a bc 78 ce 5a bd
       -0.09105491 0.10805562 -0.009441653 -0.05341956

hidden_nets.1.weight f4 [64, 64]
000000 53 58 8b be b2 18 60 bc cc 09 be be 81 b0 ba bd
       -0.27215824 -0.013677763 -0.3711685 -0.09115697
000010 f6 a5 98 3d 7b b7 87 be bb 2a 50 3e de 39 a4 bb
       0.074535295 -0.26507172 0.203288 -0.005011781
000020 7c 82 a1 be 93 3a 31 bd 60 15 82 3e a9 1a 22 be
       -0.31544864 -0.04326875 0.25406933 -0.15830483
000030 5d ca d9 bc 65 f3 81 3c 48 28 6f be 99 6e e1 3c
       -0.026585752 0.01586313 -0.2335521 0.027518557
000040 5e 48 19 be df 55 2c bd 4d b3 f0 3d 4c e6 c6 be
       -0.14969012 -0.04207408 0.11752949 -0.38847578
000050 e1 14 ff bd 27 a7 21 be cb a9 1d be 64 8f 94 3d
       -0.12455154 -0.1578642 -0.15396802 0.07253912
000060 f2 76 ab 3d a7 f3 9f bd b2 f6 a3 3d 68 f0 14 be
       0.083722964 -0.07810145 0.08006038 -0.14544833
000070 7b 66 04 3e 2f 92 35 3e 71 5f 6b be de 2e 18 bd
       0.12929718 0.17731546 -0.22985627 -0.03715407
000080 91 83 8e 3e c2 c9 a6 3e 82 93 2d bd 4c 0a 0c be
       0.27834752 0.32575804 -0.042377003 -0.13675803
000090 41 5c 4e 3d 29 63 33 bc 51 11 7c 3e 76 87 12 3d
       0.05038095 -0.010948935 0.2461598 0.035773717
0000a0 16 94 ad bd a4 8f 59 3e 99 b7 02 3e 97 c3 52 3e
       -0.08475511 0.21246201 0.1276535 0.20582424
0000b0 0d 64 0d be a2 b1 1d 3d c3 e0 b8 3d b7 5c 4f 3d
       -0.13807698 0.038499482 0.09027245 0.05062553
0000c0 c8 b1 c4 be 17 52 fd be f4 2f 21 be 72 7e 1d be
       -0.38416886 -0.49476692 -0.15740949 -0.15380266
0000d0 dc 44 7f be 58 e6 cc 3c e0 e8 ae 3d 03 5c ac 3c
       -0.24928612 0.02501218 0.08540511 0.021039968
0000e0 14 6f ff 3d 24 b8 83 3e 47 15 a6 3d 75 1e 47 3c
       0.12472358 0.25726426 0.08109527 0.012153258
0000f0 db 48 b8 be ad 31 72 be 1c 73 ae bd 2b 1e ba be
       -0.35993084 -0.23651762 -0.08518049 -0.3635114
000100 33 08 fd bd f2 0d e1 3d 82 77 da bd 03 64 d2 bd
       -0.123550795 0.10988988 -0.106673256 -0.10272982
000110 0b e2 12 3e 03 99 e3 3b 2c 95 c2 bd 88 70 1e 3c
       0.14344041 0.0069457307 -0.095011085 0.009670384
000120 f1 16 20 be 9b 84 45 3e 95 8a 44 bb a5 46 73 3c
       -0.15633751 0.19288866 -0.0029989828 0.014848386
000130 74 6d 30 be 41 eb 2e 3e 4d 22 4a be cc b8 ea bd
       -0.17229253 0.1708193 -0.19739647 -0.114610285
000140 21 02 29 be 11 d2 0b be 30 f2 63 3c 3f 3b 75 be
       -0.16504718 -0.13654353 0.0139127225 -0.23948382
000150 b9 88 70 be 06 ef c2 3c 3a b1 20 3d a7 91 04 bd
       -0.23489656 0.023795616 0.039231516 -0.032365467
000160 58 a4 dd bd 22 0e ef bd af f5 9c bd ef a2 8f bd
       -0.10822362 -0.116726175 -0.07664048 -0.07013499
000170 f8 5f 16 be ea 98 ca 3d c5 82 41 bc f1 b4 30 be
       -0.14685047 0.09892447 -0.011810963 -0.17256524
000180 3a 3a 54 bd 0e 3e 2e be 88 55 11 be fe ed 04 3e
       -0.05181334 -0.1701586 -0.14192784 0.12981412
000190 57 5c 87 3d a3 1e b6 3d bb bf a5 bd 26 b2 d7 bd
       0.06609409 0.08892562 -0.0809321 -0.10532026
0001a0 f5 f9 1f 3a 03 ba 2c be 2a 5b 77 be 83 8b ec 3d
       0.0006102615 -0.16867833 -0.2415587 0.11550047
0001b0 f2 94 b9 bb 26 5a 41 3d eb f6 db 3d 2c 2f bf 3c
       -0.0056635076 0.047205113 0.10740455 0.023337923
0001c0 62 98 f8 bd d6 bd b7 bd 78 cd 0e bd de 37 86 bc
       -0.1213844 -0.08971755 -0.03486392 -0.016384061
0001d0 96 a3 29 bd 54 ee 46 be fb a5 21 be e0 a4 07 3e
       -0.041415773 -0.19426852 -0.15785973 0.13246489
0001e0 60 15 27 bd 2a c2 19 be 1c 1d ed 3d 98 d6 9f bd
       -0.04079187 -0.15015474 0.11577818 -0.078046024
0001f0 2e c1 a8 bd 28 fd bc 3d 38 7b 47 be ed e8 d2 bd
       -0.08239971 0.09227973 -0.19480598 -0.10298333
000200 af e7 af 3d f8 60 00 be f1 8b 96 bc 95 f8 bd 3d
       0.08589112 -0.1253699 -0.018377276 0.09275929
000210 62 65 92 3b 1a de 86 be 4c 4d d1 bd 31 8c 8f bd
       0.004467652 -0.26341325 -0.10219821 -0.07009161
000220 8b 16 93 3c 45 13 85 be c9 08 04 bd 7c 2e 84 3d
       0.017955085 -0.25991264 -0.03223494 0.06454179
000230 9c 17 1c be e7 bf 56 be 8e 32 81 3d 98 c3 88 3d
       -0.15243381 -0.20971642 0.06308471 0.066779315
000240 6e fc 33 bd 47 3a da be 8f dc 02 3e d9 7e 17 3e
       -0.043941908 -0.42622587 0.12779449 0.14794482
000250 15 bf c7 bd aa 60 fe 3d 9a 4c d1 3c 48 cc 03 3e
       -0.09753243 0.12420781 0.025549222 0.12870896
000260 e4 73 a1 be 24 e2 0b bf f1 96 10 be 5d 68 c1 3d
       -0.3153373 -0.5464194 -0.1412008 0.09443734
000270 c3 85 c1 bd 3c 40 81 3d 90 7c 13 3e 4a 93 0e bf
       -0.09449341 0.0631108 0.14402986 -0.55693495
000280 40 4b 90 bd 81 f8 26 be 7b 51 d0 be 86 92 5c 3d
       -0.07045603 -0.16305734 -0.40687165 0.053850673
000290 b5 94 fa bd a0 e8 7e be 9a ef 43 3e 61 c8 85 3e
       -0.12235395 -0.24893427 0.1913437 0.2612944
0002a0 5f 75 28 3e 9a 63 10 3e 0a 46 9f 3c 4d 6b f9 bd
       0.16451024 0.14100495 0.019442577 -0.12178669
0002b0 68 d8 23 be f1 ca 8d be d1 c0 88 be 84 83 9d bd
       -0.16000521 -0.27693895 -0.26709607 -0.076911
0002c0 9a ba 98 bd 63 c8 ac be 15 9e a0 bd f8 12 ad bd
       -0.074574664 -0.33746633 -0.07842652 -0.084508836
0002d0 f7 5b ec be 48 f5 94 bd b2 ec ac 3d 63 1a 0a 3d
       -0.46163914 -0.07273346 0.084435835 0.03371657
0002e0 81 20 e5 bd 39 03 32 be 75 5c c0 3d 0d d3 76 be
       -0.1118784 -0.17384042 0.09392635 -0.24103947
0002f0 c8 a7 5f 3d 5b 4f db be 95 f1 ac be 16 51 24 3e
       0.054603368 -0.4283398 -0.33778062 0.16046557
000300 ab f5 bd bd ab 5a 2c be dc 7e 8d 3d c0 e5 4f be
       -0.09275373 -0.16831462 0.06908962 -0.20302486
000310 8c ab ac b9 b2 c8 6c bd 50 83 65 bd 10 68 40 be
       -0.0003293421 -0.057808585 -0.056033432 -0.18789697
000320 c0 49 99 be ad 4d 35 be 3d d2 d5 3d cd 9f 69 3d
       -0.2993908 -0.17705412 0.104404904 0.057037164
000330 ab 8c 81 be 17 81 76 3d 8f 5d 6f 3e 32 16 1f be
       -0.25302634 0.060181703 0.23375534 -0.1553581
000340 36 5e 91 3d f0 35 f3 3d 64 e2 55 bd f2 de 86 3d
       0.070980474 0.11875522 -0.052217856 0.06585492
000350 52 1a 81 3d 6a 44 89 3d e8 85 da 3d b5 03 72 3d
       0.06303848 0.06702502 0.10670072 0.059085567
000360 91 9b e2 3d 75 2f b1 bd ed 42 fa bc 2f c8 9c 3e
       0.11064828 -0.0865163 -0.03054949 0.30621478
000370 8d 6c b1 3d 51 79 ab 3d 7c 2f 08 be b6 4f 95 3d
       0.086632825 0.08372749 -0.13299364 0.07290594
000380 99 6e cd 3e f7 6c 13 3e fa 54 5d be 03 6a 4e 3e
       0.40123442 0.14397036 -0.21614447 0.20157628
000390 c9 68 06 3e b4 94 d3 bd fc b0 1b be 78 04 27 3d
       0.1312591 -0.10331097 -0.15204233 0.040775746
0003a0 51 3f d9 bd 95 3a f8 3c 6e 93 75 be ff 58 2f 3e
       -0.1060778 0.030301372 -0.23982021 0.17123793
0003b0 fd a9 92 be c4 f0 0c bd 72 0f f6 3c ff 23 f5 bc
       -0.28645316 -0.0344093 0.030036662 -0.02992439
0003c0 06 8a 7b be 6b 79 9f 3d 76 34 82 bd 22 91 08 be
       -0.2456437 0.077868305 -0.063576624 -0.13336614
0003d0 17 94 22 3d 15 2a 50 3e ef c1 a5 3e fc 51 27 3d
       0.03969201 0.20328553 0.32374522 0.04084967
0003e0 33 c9 85 3e 66 55 7b 3e a4 d4 21 be f9 70 68 3d
       0.26130065 0.24544296 -0.15803772 0.056748364
0003f0 2c fa a0 bd 50 07 af 3d eb 71 91 be d4 8c 91 be
       -0.078602165 0.085463166 -0.28407225 -0.28427756

hidden_nets.1.bias f4 [64]
000000 ba f6 d0 bc 09 cf bc bd 59 9d 42 3e 73 ea b8 bd
       -0.025508273 -0.09219176 0.19005336 -0.09029093
000010 69 c9 43 bd a2 93 ab bc 3a 11 1c 3e 01 dc 1f 3e
       -0.0477995 -0.02094442 0.15240946 0.15611269
000020 ff 86 40 3e 3b 73 1e 3e ae 60 a7 3c 8a 3b b0 bb
       0.18801497 0.15473644 0.020431843 -0.0053781914
000030 57 5e e0 3d b1 4c f4 3d fb 91 ae 3d e0 88 f1 3d
       0.10955494 0.1192869 0.08523937 0.11793685
000040 48 dd 07 3e e4 f8 0e 3e 61 56 22 3e db 23 04 3e
       0.13268006 0.13962132 0.15853263 0.12904303
000050 3a 8a e9 3d 01 25 16 3e 2e 4b 3d bd 8c f7 2d 3e
       0.11403318 0.14662553 -0.046214275 0.16988963
000060 4e 31 f6 3d d0 e7 29 3e b7 90 2e 3e 73 3a 2b 3e
       0.12021123 0.16592336 0.17047392 0.16721515
000070 3b bc 1e bd fe 2f c4 3d d2 96 1b 3e 08 8e 57 3e
       -0.03875373 0.09579466 0.15194252 0.21050274
000080 17 9f 9d 3d 23 1d 3f 3e d7 75 c0 bd 0f 84 61 bd
       0.076963596 0.18663459 -0.09397476 -0.05505758
000090 03 1f 22 3e 33 8a 23 3e c7 41 27 3e cc 24 20 3e
       0.15832143 0.15970688 0.16333686 0.15639037
0000a0 7a f3 58 bd 5e d0 9b 3d da 2b fa 3d 9d dc 2b 3e
       -0.052966572 0.07608102 0.12215395 0.16783376
0000b0 e9 78 43 3e ed d1 40 3e 6d c2 f6 3d 24 20 e5 bc
       0.19089092 0.1883008 0.120488025 -0.027969427
0000c0 0d 6b 63 3d 47 c3 1e 3e 40 1d 19 3e 95 bc 0a 3e
       0.055522013 0.1550418 0.14952564 0.13548501
0000d0 c6 b6 00 3e 06 69 37 3e 4c e5 b8 3d 4b 61 ab 3d
       0.12569723 0.17911157 0.0902811 0.083681665
0000e0 10 6f 4f 3e 7c ec ad 3d 1b 1a 36 3e 8b c4 db bc
       0.2025721 0.084923714 0.17783396 -0.026827117
0000f0 e9 6c a4 3d 28 d0 02 3e ba 31 49 3e ca ad 31 3e
       0.080285855 0.12774718 0.19647875 0.17351452
