hyperopt_results/models/arch_smaller_fast_20250906_230524/dqn_racing_episode_200.pth (torch, 142741 bytes, 36 tensors)

hidden_nets.0.weight f4 [64, 11]
000000 b3 1c 86 3e 0d 4f 1a 3c d2 77 13 3e 72 fd 9d 3c
       0.2619377 0.009418261 0.14401177 0.019285891
000010 b4 8f 08 3e 3d 02 8f bd c5 58 ac bc bc 63 92 be
       0.13336068 -0.06982849 -0.021038422 -0.28591716
000020 1c e0 4f be 17 cd 17 3c 62 12 ad bc 1e fc f7 bd
       -0.20300335 0.009265206 -0.02112693 -0.121086344
000030 ac 7c 9f bd a5 b3 8c be 6f 4a 70 be 16 6c b8 be
       -0.07787451 -0.27480808 -0.23465894 -0.36019963
000040 10 81 1a bd 63 9a a1 be 4e 6e 93 3e f5 b4 fa 3d
       -0.03772074 -0.315631 0.28795093 0.12241546
000050 e2 e2 33 bc 68 d7 25 bc 68 f2 b6 be 50 cf 5a 3e
       -0.010979386 -0.010122158 -0.35731816 0.21368146
000060 c2 9a 7e be 96 39 8b bd f3 da 1f be ad 1f 08 3e
       -0.24863723 -0.06798093 -0.15610866 0.13293333
000070 e6 af 3f 3d 28 d8 48 3e f8 f5 14 3e 89 66 1d 3d
       0.04679861 0.19613707 0.14546955 0.038427863
000080 ec 7d f0 3c a8 1e 43 be c1 b0 9c be 9e b2 47 be
       0.02935692 -0.19054663 -0.30603603 -0.19501731
000090 69 71 df bd 3b 9f c9 3d 17 c6 a7 3d 86 cb 8a bd
       -0.10910303 0.09844824 0.081920795 -0.067771
0000a0 80 5c 97 3a d2 fc 8a 3d 4c 4d c0 3d 6c 16 0e bd
       0.0011547953 0.06786503 0.09389743 -0.034689352
0000b0 3b 6a 59 3e fd 6b 47 be 83 f8 cb bd 16 f8 84 3d
       0.2123193 -0.19474788 -0.09959509 0.06492631
0000c0 eb b4 84 3e 82 8f 10 3d a5 cc a2 3a 68 f8 5f bd
       0.2591928 0.03529311 0.0012420608 -0.054680258
0000d0 05 eb 5e 3d cb ba a9 bd 3c a7 80 3c c7 e8 4a 3e
       0.05442335 -0.08287581 0.015704744 0.1981536
0000e0 dc 23 b5 3d b0 1f 4a 3d a2 63 cf bd 06 12 2e 3e
       0.0884473 0.049346626 -0.10126425 0.16999063
0000f0 d7 a0 24 3e 86 1d a5 bd 07 c4 e5 be e0 40 10 be
       0.1607698 -0.08062272 -0.4487612 -0.14087248
000100 53 15 f5 bd 92 7d e1 bc 0b f0 7e bd d0 8f 0f 3e
       -0.11966958 -0.027525697 -0.06224064 0.14019704
000110 36 42 ab bd f9 a2 e1 3c a7 23 83 be 1a 1c f5 bd
       -0.08362238 0.027543532 -0.25613138 -0.119682506
000120 49 8d 6f be 5c b5 ca 3d f4 d5 86 3e 50 e6 d2 be
       -0.2339374 0.09897873 0.26335108 -0.4119134
000130 46 5c 9d bd 2c ad 9b be 2b 5d 86 3d dd f4 70 bc
       -0.076836154 -0.30405557 0.06560739 -0.014706817
000140 4c e2 27 bd 37 45 8d 3e a9 57 d5 3c cd 6d fd 3c
       -0.040987298 0.2759187 0.026042776 0.030936146
000150 54 df ac bd 26 fa 36 3b 3d df 3c 3d b7 a7 83 bb
       -0.08441034 0.0027920096 0.046111334 -0.004017796
000160 d2 00 ad be 60 18 49 be cf 4f 1a 3e d4 9d 71 be
       -0.33789688 -0.19638205 0.15069507 -0.23595363
000170 4c 1e cc 3d 54 e7 f3 bd 21 73 54 3e d0 c2 7d be
       0.09966716 -0.11909357 0.20747043 -0.24781346
000180 b9 d6 4c 3e 92 2d ea bd ec 69 f6 3d 1c bf 78 bd
       0.20003785 -0.11434473 0.12031922 -0.06072913
000190 51 f0 e7 3d 7a d7 24 be 8e a0 30 3e 89 3e a8 be
       0.113251336 -0.16097823 0.17248747 -0.3286021
0001a0 8c fb aa bc 21 b4 ad 3d 0d 78 47 be 20 b2 89 3c
       -0.0208719 0.084816225 -0.1947939 0.01680857
0001b0 cd 01 c1 bb 94 f0 6a be f6 a6 a5 3d 67 34 29 b8
       -0.0058901072 -0.22943336 0.08088486 -4.0341543e-05
0001c0 e7 99 f9 be d4 a8 bb bb df 3e 1d be b1 86 28 be
       -0.4875023 -0.005726913 -0.15356015 -0.1645763
0001d0 89 34 d4 bb 69 b8 41 3d 98 d0 51 3e 9e ce 1f 3d
       -0.0064759892 0.047295008 0.20489728 0.039015405
0001e0 d0 12 78 3e 7d f2 14 be 84 29 8e be 6a c0 20 be
       0.24225926 -0.14545627 -0.2776605 -0.156984
0001f0 96 9c 55 be 61 a7 1c 3d 21 3d 17 3e 76 be 33 be
       -0.20860514 0.038245562 0.14769413 -0.17553124
000200 0a c3 83 be 6f f9 20 3e 93 a5 b5 bd 6f 7d 64 3e
       -0.2573474 0.15720151 -0.088694714 0.22313474
000210 df 08 b2 3e cf d0 9f be a7 dc bc 3d a1 c0 42 bd
       0.34772393 -0.31213996 0.092217736 -0.047546986
000220 73 54 19 3e af 24 5e be 95 65 69 bb a1 e6 06 3e
       0.14973621 -0.21693681 -0.0035613526 0.13173915
000230 b2 1c 1d 3d e3 26 ef bd d5 a1 a0 3b f7 36 cd bd
       0.038357444 -0.11677339 0.0049021044 -0.10020249
000240 f1 be 6d 3e d2 0e 6c be 48 e2 92 bd a0 b2 83 be
       0.2321737 -0.23052529 -0.07172066 -0.25722218
000250 e5 67 6e be 90 6b 7a bd a9 23 53 be 16 51 45 be
       -0.2328182 -0.061137736 -0.20619072 -0.19269213
000260 ea 3d 61 bd 82 61 11 be 5b 80 97 be ca 77 b5 bd
       -0.054990686 -0.14197353 -0.29590115 -0.088607386
000270 fe b3 a7 be 05 56 2c 3e 67 68 a3 bc c0 25 5d 3e
       -0.3275451 0.16829689 -0.019947244 0.21596432
000280 bc f5 3c 3d 24 8f 10 be 0f 6a 4a bd b0 2f 31 be
       0.046132788 -0.14117104 -0.04941755 -0.17303348
000290 6e ee e9 3d b8 7d ae 3e 59 a9 41 3d 8e 0d 0f bd
       0.1142243 0.3408029 0.047280643 -0.034925036
0002a0 9e 94 39 bd 2c 19 17 3d 8b 6a 73 3b e8 a1 c6 bc
       -0.045307748 0.03688924 0.0037142362 -0.024247125
0002b0 70 6b cf 3b 25 83 4c 3e a4 9e a5 3c 22 9d 00 bd
       0.006329946 0.19971903 0.020217247 -0.031399854
0002c0 d7 cc a6 be 41 81 63 bc 34 45 e5 bc 7f be a9 bc
       -0.32578155 -0.013885797 -0.0279871 -0.020720718
0002d0 95 4c 48 be f5 68 29 be 5e 65 91 bd 6d f9 92 3e
       -0.19560464 -0.16543944 -0.070994124 0.28705922
0002e0 5f 57 ef 3d b9 52 66 be a5 43 82 be d3 ac 7f be
       0.116865866 -0.22492494 -0.25442234 -0.24968271
0002f0 08 7c 8f 3e 49 8a 36 3e b3 2f 7e 3d ea f4 f5 be
       0.28024316 0.17826189 0.06205721 -0.48038417
000300 8f 3c ad 3d 7a 35 c9 3d a1 bf 84 3d 36 72 07 be
       0.08458816 0.09824653 0.06481863 -0.13227162
000310 c1 bd 58 bd 00 41 56 bc b1 23 7b be ad 62 7f 3d
       -0.05291534 -0.013077021 -0.24525334 0.062349964
000320 7a 74 44 be 21 a6 4c bd 65 f7 44 be ca e0 00 bc
       -0.19185057 -0.04996312 -0.19234999 -0.007866094
000330 50 09 80 3c 57 e8 cd 3d 78 1d 2d be 71 6c 96 bc
       0.01562944 0.10054081 -0.16905773 -0.018362256
000340 e9 ce a1 be 98 e8 af 3e 57 e3 91 be 06 d3 ee 3d
       -0.31603172 0.34357142 -0.2849376 0.11661343
000350 b2 45 9a 3d ee 3f 03 3e 56 e2 95 3c 15 cf 25 3c
       0.075328246 0.12817356 0.018296402 0.010120173
000360 dd 8a 48 be d8 e8 8c be 17 43 d6 3d c0 85 20 bc
       -0.19584222 -0.27521396 0.10462015 -0.0097975135
000370 ad 7e 8e 3d cc 99 cd bd b8 6a 39 bc 8e 71 01 bd
       0.06957755 -0.100391 -0.011316948 -0.031602435
000380 d7 c6 64 3e 5e 68 53 be 05 ee 83 bd 56 e3 32 be
       0.22341476 -0.20645282 -0.06441883 -0.17469534
000390 c6 dc 28 be 2d 7b 4b be 32 d9 e2 bc e9 51 67 3e
       -0.16490468 -0.19871207 -0.027691457 0.2258984
0003a0 b9 4a e1 3b 69 cc 43 3d 7e 0a 51 bd d1 f2 6d 3e
       0.0068753627 0.047802363 -0.051035397 0.23237158
0003b0 1c 08 fb 3c 02 05 b4 bc fc a3 51 be db d2 5b be
       0.030643515 -0.021975044 -0.20472711 -0.21467154
0003c0 2e 9e 24 bd e4 c9 36 bc e1 ce 9e bd 5a 25 8f 3d
       -0.040189914 -0.011156533 -0.07754303 0.06989546
0003d0 a3 23 d1 3c 4d f8 5f bd f1 f2 5c 3e ec 8f e2 bd
       0.025529688 -0.054680157 0.2157705 -0.11062607
0003e0 65 02 6a 3d 54 fb 2e be 6f 27 ca 3d 96 45 84 3d
       0.05713119 -0.17088062 0.098708026 0.06458585
0003f0 1e a9 93 3b 55 be e7 3e 4e 99 bd bd e8 b8 9b 3c
       0.0045062443 0.452624 -0.09257756 0.019009069

hidden_nets.0.bias f4 [64]
000000 5a c1 00 be a1 70 90 3d 09 61 6b 3d f5 cc 16 be
       -0.12573758 0.07052732 0.057465587 -0.14726622
000010 14 ac 2b be c0 d5 2d be 38 3b ce ba 75 cd e6 bd
       -0.16764861 -0.1697607 -0.0015734201 -0.112696566
000020 6f 03 a7 bd 4b c9 be 3b 67 d2 81 bb a1 fd 4d bd
       -0.08154952 0.005822336 -0.0039618495 -0.050290707
000030 23 5c 12 be b6 6a a0 bc 44 6c ea bd 45 6d 63 be
       -0.1429296 -0.019582134 -0.11446431 -0.22209652
000040 52 ca 8e 3d bd 21 39 3d 49 79 04 3d 8b 91 b3 bd
       0.06972183 0.04519819 0.03234223 -0.087679945
000050 fc 01 03 be 94 64 48 be 31 a6 0a be 9b 74 e6 bd
       -0.12793726 -0.19569618 -0.1353996 -0.112527095
000060 57 5b 8a 3d b6 18 dd 3d 49 f2 91 3c 18 b5 ec bc
       0.06755703 0.10795729 0.017815726 -0.028894946
000070 9b 44 f5 bd 29 bc 98 3d 30 8b 28 be e2 c8 0f 3c
       -0.11975976 0.07457764 -0.16459346 0.008775922
000080 48 1d cd bd 09 4e 1d bc 69 60 ba bb b5 eb 37 bd
       -0.100153506 -0.009601125 -0.0056877625 -0.044902522
000090 00 00 00 00 d6 6a fd bd ce 2a 84 bd 80 ac 95 bd
       0.0 -0.12373893 -0.06453477 -0.073082924
0000a0 25 9e 63 bd 66 b1 56 be 65 7b 55 be b0 40 d3 bd
       -0.05557074 -0.2096611 -0.20847853 -0.103150725
0000b0 ba 4f 02 be 84 9e ba 3d af 91 10 3d d0 fa 6f 3d
       -0.12725726 0.09112266 0.035295185 0.058588803
0000c0 eb 3f 07 be 4f 8d ae 3d 3a 5e d3 bd 96 58 4b be
       -0.13207977 0.08523046 -0.10320707 -0.19858012
0000d0 2e 4d e9 3d 36 9e 11 bd 0f 25 a4 3d 47 e3 11 3c
       0.11391674 -0.035551272 0.08014881 0.008904285
0000e0 50 b7 62 3c f9 96 ff 3b 7c 95 d1 bd 7a c3 d8 bd
       0.01383765 0.0077999798 -0.1023359 -0.10584159
0000f0 4e 8e f1 bd 22 51 1e 3e ec 64 c4 3b ad 38 3e bd
       -0.117947206 0.15460637 0.005993476 -0.04644077

hidden_nets.1.weight f4 [64, 64]
000000 b0 d5 8a be 83 4d c2 bd 7a 61 55 be 81 b0 ba bd
       -0.27116156 -0.094874404 -0.20837966 -0.09115697
000010 fd 06 69 3d 11 71 9d be 6d 4e 83 3e 92 8e ad bc
       0.05689143 -0.30750325 0.25645772 -0.021186147
000020 7c 82 a1 be 9a e0 f9 bb 1e af a9 3e a9 1a 22 be
       -0.31544864 -0.0076256515 0.33141416 -0.15830483
000030 4e 3e e6 bd 65 f3 81 3c 48 28 6f be b7 bb 72 3d
       -0.112423524 0.01586313 -0.2335521 0.05926105
000040 8f 8e fe bd 97 8a c2 bd 16 3e cb 3d 1e b8 b5 be
       -0.12429535 -0.0949909 0.09923951 -0.35492033
000050 e4 6d 32 be 11 8d 27 be fd b6 32 be ec 74 87 3d
       -0.17424732 -0.16362406 -0.17452617 0.06614098
000060 c8 5b dd 3d 43 c3 c5 bd 7c e2 44 3d de 52 de bd
       0.108085215 -0.09656384 0.048067555 -0.108556494
000070 e9 2e e0 3d bd aa 16 3e a2 c9 4a be 21 5d a1 bd
       0.109464474 0.14713569 -0.1980348 -0.07879091
000080 32 00 74 3e 75 8a b2 3e fe a7 db bd 4c 0a 0c be
       0.238282 0.3487126 -0.10725401 -0.13675803
000090 41 5c 4e 3d 45 66 33 bc 20 8c 56 3e f4 07 81 3d
       0.05038095 -0.010949676 0.20951891 0.06300345
0000a0 01 d0 16 be 03 de 22 3e df 1c 07 3e e5 25 3e 3e
       -0.14727785 0.15905003 0.13194607 0.18569143
0000b0 24 40 fa bd 6b 13 8a 3d 92 73 f6 3c 5d f4 ef 3c
       -0.12219265 0.06741985 0.030084405 0.029291326
0000c0 19 3f c3 be c0 09 ce be 5a a2 29 be fa 8c 1b be
       -0.38134077 -0.40241814 -0.16565838 -0.15190497
0000d0 54 1a b5 be 58 e6 cc 3c 1d 86 60 3e db 60 bf 3d
       -0.3537165 0.02501218 0.2192616 0.093446456
0000e0 83 f2 de 3d 60 b4 88 3e 66 c6 01 3e e6 63 01 ba
       0.10886099 0.26700115 0.12673339 -0.00049358455
0000f0 ad 8e c4 be c5 97 86 be 16 e2 4a bd 2b 1e ba be
       -0.38390103 -0.26287666 -0.04953202 -0.3635114
000100 78 67 37 be a9 48 62 3e f3 72 13 bc 03 64 d2 bd
       -0.17910564 0.2209803 -0.008999574 -0.10272982
000110 b3 ce cf 3c 21 a4 66 bd bf db 18 3d 1f 83 14 be
       0.025367117 -0.05630887 0.03731894 -0.14503144
000120 f1 16 20 be 15 2a 56 3e 44 2e b8 bd a5 46 73 3c
       -0.15633751 0.2091449 -0.089931995 0.014848386
000130 cd a6 3a be 41 eb 2e 3e 4d 22 4a be 61 e9 8a be
       -0.18227692 0.1708193 -0.19739647 -0.2713118
000140 8b da 19 be 12 75 97 bd b4 2d 13 3e 70 7a bb be
       -0.15024774 -0.07395376 0.14372903 -0.3661685
000150 cc 2e 95 be ac 44 ab bc 9b 2d c2 bd f0 10 1c be
       -0.29137266 -0.020906769 -0.09481355 -0.15240836
000160 5c f4 77 3d a2 17 c2 bd e5 3b dd bd fa ea a6 bc
       0.060535774 -0.09477164 -0.108024396 -0.020375717
000170 19 cb fa bd 98 f7 bc 3d 2d 45 c8 bd 09 e1 38 be
       -0.12245769 0.09226912 -0.09778819 -0.18054594
000180 6a 9e 2a bd 4c a2 85 be f5 af 59 be fe ed 04 3e
       -0.04165498 -0.26100385 -0.21258529 0.12981412
000190 57 5c 87 3d a3 1e b6 3d 20 f1 0d be 12 49 16 be
       0.06609409 0.08892562 -0.13861513 -0.14676312
0001a0 06 53 72 bc 29 f6 a5 be 4c 9c c1 be 40 9d bd 3c
       -0.014790302 -0.32414368 -0.37814558 0.023146272
0001b0 f2 94 b9 bb 0e bd e7 bc d5 26 1e 3e 03 5e 32 3e
       -0.0056635076 -0.02828839 0.154445 0.17418675
0001c0 67 7d 58 be 7b 67 d9 bd 47 d9 3e be a9 da cc bd
       -0.21141587 -0.106154405 -0.18637572 -0.100026436
0001d0 8e 33 ed bb 54 ee 46 be 60 3f 56 be ce cc 31 3e
       -0.007238812 -0.19426852 -0.20922613 0.17363283
0001e0 c0 dc 87 bc ee 37 f5 bc 5e fa 7e 3c b5 f2 84 be
       -0.016584754 -0.029933896 0.015562622 -0.2596642
0001f0 52 9f 28 be 54 73 3e 3e 29 9d 8a be ab 64 d2 bd
       -0.16467026 0.18598682 -0.2707303 -0.10273107
000200 3f ef 0e 3d 3c 95 77 bd d7 99 38 3d f4 25 be 3d
       0.03489613 -0.060445055 0.045068588 0.09284583
000210 f0 83 61 3a 8b fa 80 be d0 f0 24 be 6b 4b 01 be
       0.0008602729 -0.2519115 -0.16107488 -0.12626426
000220 8b 16 93 3c d6 10 b6 be 2c cb 14 bc 7c 2e 84 3d
       0.017955085 -0.3555972 -0.009081643 0.06454179
000230 d4 9f 10 be e7 bf 56 be 8e 32 81 3d 29 c9 b4 3d
       -0.1412347 -0.20971642 0.06308471 0.08827431
000240 66 80 e1 3c e7 2b 23 bf d4 de 3a 3e c7 e5 e5 3d
       0.027527045 -0.63738865 0.18249065 0.11225467
000250 4d 75 07 be 9b 3f c2 3d 03 55 d9 bc 9f 21 fe 3d
       -0.1322834 0.09484788 -0.026529795 0.124087565
000260 87 13 c3 be 62 78 2a bf 69 a0 94 be 6d 56 7f 3d
       -0.38100836 -0.6658994 -0.29028633 0.06233828
000270 77 c8 86 bd ec 81 26 3e db f8 ce 3d ec f4 55 bf
       -0.065812044 0.16260499 0.10106059 -0.83576846
000280 98 cf e0 bc 10 e4 a2 bd c9 17 af be 86 92 5c 3d
       -0.027442738 -0.07953656 -0.34197834 0.053850673
000290 b5 94 fa bd f9 fa 7f be 2c f6 10 3e dc 69 8f 3e
       -0.12235395 -0.24998082 0.14156407 0.28010452
0002a0 d0 3c 04 3e dc 1d d4 3d 30 3e 06 3c 94 f3 b0 bd
       0.12913823 0.10357258 0.008193538 -0.08640209
0002b0 da 74 3b be 81 35 83 be d0 c1 95 be 2b d2 9b 3c
       -0.18306294 -0.25626758 -0.2924943 0.019021114
0002c0 b9 19 04 be 45 cd 92 be 40 b6 a6 bd 1f 03 ee bd
       -0.12900437 -0.28672233 -0.0814023 -0.11621689
0002d0 71 e4 fe be 48 f5 94 bd 5a 2a 80 3e b3 e0 38 b9
       -0.49783662 -0.07273346 0.25032312 -0.00017631314
0002e0 52 28 a9 bd 57 7e 6f be 22 11 d2 3c df ec 88 be
       -0.082596436 -0.23388039 0.025642935 -0.26743218
0002f0 7a 49 b6 3c 1f bc e6 be 25 08 99 be ab d2 26 3e
       0.022251833 -0.450654 -0.29889026 0.16291301
000300 27 f0 49 bd 12 53 37 be 5f 8f 88 3d c0 e5 4f be
       -0.049301293 -0.17902783 0.06667971 -0.20302486
000310 b6 bd 26 3b 0d e2 1b bd 63 07 5c bd 2b bc 3b be
       0.0025442666 -0.038057376 -0.053717982 -0.18333499
000320 c0 49 99 be 8b eb a2 be 08 8e 88 bc cd 9f 69 3d
       -0.2993908 -0.3182033 -0.016669288 0.057037164
000330 63 2c aa be 17 81 76 3d 8f 5d 6f 3e 26 a9 4b be
       -0.3323699 0.060181703 0.23375534 -0.19888744
000340 f9 35 01 3d 97 08 f0 3d 4a 79 bd bd ac 8d e1 bc
       0.031545613 0.117203884 -0.0925165 -0.027533375
000350 d5 3b 87 3d 87 cb a1 3d 4c 84 b3 3d 47 7f 1d 3c
       0.06603209 0.07900148 0.08765468 0.009612865
000360 e0 bb 18 3e a7 7f ce bd 70 eb 3c bc e8 a9 86 3e
       0.14915419 -0.100829415 -0.011530742 0.26301503
000370 70 97 da 3c a4 e0 bb 3d 21 c7 ec bd 07 7f 97 3d
       0.02668354 0.09173706 -0.11561418 0.073972754
000380 34 4f b7 3e cf f9 00 3e 9b 33 02 be 03 6a 4e 3e
       0.35802615 0.12595294 -0.12714998 0.20157628
000390 c9 68 06 3e ca 48 d6 bd bb 0c 7a be c3 bd 5a 3d
       0.1312591 -0.10463102 -0.24418919 0.053403627
0003a0 8d b7 38 be b9 ab f3 bc 7c f1 98 be 51 05 2d 3e
       -0.18038769 -0.02974497 -0.29871738 0.1689656
0003b0 50 3d 93 be 37 9b 23 bd 8e ae a0 3c e9 40 83 bd
       -0.28757715 -0.039942946 0.019614484 -0.06408865
0003c0 4b ce 77 be 83 9f af 3d 32 13 81 bd e7 07 07 be
       -0.24199788 0.08575346 -0.06302489 -0.13186608
0003d0 58 e1 06 bd 15 2a 50 3e 41 78 96 3e d4 e2 bf bc
       -0.03292975 0.20328553 0.2938862 -0.02342359
0003e0 91 78 8f 3e 93 b4 6a 3e 88 55 89 be a4 37 10 3d
       0.28021672 0.22920446 -0.26823068 0.035209313
0003f0 58 02 ad bd ae 5a f4 3d bd 42 b2 be df f4 98 be
       -0.08447713 0.11931358 -0.34816542 -0.29874322

hidden_nets.1.bias f4 [64]
000000 df 08 66 bd 47 76 8c bc 20 b1 35 3e 07 b1 09 be
       -0.056160804 -0.017146243 0.17743349 -0.13446437
000010 7e d8 73 3d 53 33 54 3e f1 e7 1f 3e 93 bd 07 3e
       0.059532635 0.20722704 0.15615822 0.1325591
000020 09 2c ce 3d 3a bd be 3d 9b eb db 3d 76 c1 e1 3c
       0.10066993 0.09313436 0.107382976 0.02755807
000030 fc 07 b0 3d 24 d1 f8 3d f7 9f 83 3c 7d 99 a7 3d
       0.08595273 0.121492654 0.016067488 0.081835724
000040 3e c9 74 3d ae 81 ee 3d 5e 7b e0 3d 64 77 b2 3d
       0.059762232 0.11645828 0.109610304 0.08714178
000050 d7 53 ba 3d bf 61 c7 3d 43 b8 b2 3c 73 e8 e6 3d
       0.090980224 0.097354405 0.021816378 0.11274805
000060 62 31 e4 3d 2c b0 e9 3d 7a 45 29 3e 63 2d 19 3e
       0.111422315 0.11410555 0.1653041 0.1495872
000070 fb bc 82 3d 9d b5 6a 3d 5d 08 f5 3d a1 bd 3c 3e
       0.063837014 0.057302106 0.11964486 0.18431713
000080 f1 ce 53 3e d1 6e 1d 3e c7 47 86 bd 5c 8c 32 bd
       0.2068441 0.15374304 -0.06556659 -0.04359089
000090 1f f9 a3 3d 68 fc 14 3e e6 6f ed 3d e0 c2 0e 3e
       0.080065005 0.1454941 0.115936086 0.13941526
0000a0 0f ae 89 3c 4f 9d 1a 3e f4 e5 4b 3d 95 9a 20 3e
       0.01680663 0.15099071 0.049779847 0.15683968
0000b0 8e bf 0d 3e 39 10 00 3e 53 fa d3 3d b1 f5 a7 b9
       0.13842604 0.12506188 0.1035048 -0.00032035777
0000c0 fa 44 8b 3c ce fb b8 3d 9e 34 15 3e 53 cf 01 3e
       0.017000664 0.09032403 0.14570853 0.12676744
0000d0 88 96 e8 3d 0a dd 14 3e 22 2e a2 3d 61 0b 5d 3d
       0.113568366 0.14537445 0.079189554 0.05396593
0000e0 cc 31 08 3e db 5c 8c 3c 01 ce 22 3e 62 55 4b bc
       0.13300246 0.01713412 0.15898897 -0.012410494
0000f0 50 09 d2 3c 56 ac e2 3d 66 1f 33 3e 05 47 ef 3d
       0.025639206 0.11068027 0.17492446 0.11683468

hidden_nets.2.weight f4 [32, 64]
000000 f3 e9 90 bc 69 f0 e8 bd 56 e3 0d be 21 cf 98 bd
       -0.01768968 -0.113739796 -0.13856253 -0.07461382
000010 29 02 33 be 67 f2 bd bd e6 78 02 3e 80 8a ed bd
       -0.17481293 -0.0927475 0.12741432 -0.115986824
000020 dc 8e be 3d 5d 58 87 3d bc 1a 87 be c8 8b 88 be
       0.09304592 0.06608651 -0.26387584 -0.26669145
000030 d0 ab b6 3d 22 d7 6b be 0e 80 84 3e ca 3a e0 3c
       0.089194894 -0.23031285 0.25878948 0.027371783
000040 a6 1a 05 bd 21 20 a5 bd a7 e0 2e 3d 68 3e b0 bd
       -0.032496117 -0.08062769 0.042694714 -0.08605653
000050 09 5b f9 bc 95 74 05 3e 97 7f 25 be 11 cf 21 be
       -0.030438917 0.13032754 -0.16161953 -0.15801646
000060 fc b1 2e 3e d6 b8 99 3d f1 d1 43 3e 88 96 49 bd
       0.17060083 0.07505958 0.19123055 -0.049215823
000070 aa 06 8f be f1 d3 ac bd 14 5f 0c 3e 70 19 03 bc
       -0.27934772 -0.08438862 0.13708144 -0.00800167
000080 af 48 cb bd d5 58 26 3e f6 a5 b7 be 87 e3 cf be
       -0.09925973 0.16244824 -0.35868806 -0.40603277
000090 79 a6 87 3c d9 b3 bc bd f2 2b 12 be 1e 14 79 3d
       0.016558873 -0.09213991 -0.14274576 0.0608102
0000a0 cc e7 89 be 16 06 2e bd a9 0b 33 be 94 9e ce bc
       -0.2693466 -0.042486273 -0.17484917 -0.0252221
0000b0 c9 12 21 be 04 e5 3c bd e2 11 94 3e 4d a3 01 be
       -0.15729822 -0.046116844 0.28919894 -0.1265995
0000c0 aa ae 85 3e 2b 72 39 be 76 53 6d bd 3b c0 7a be
       0.2610982 -0.18109958 -0.057940923 -0.24487393
0000d0 21 63 d8 3d be 10 6d 3e 4f 33 b8 bc 7b ea 85 3e
       0.10565782 0.23150918 -0.022485403 0.26155457
0000e0 02 50 45 be 8f 7b 05 be 77 bd 37 3e 6e 7d ab be
       -0.19268802 -0.13035415 0.17943369 -0.33494133
0000f0 dd 03 b4 3d 5d 5d 2d 3e 60 f8 62 3d 5e 70 29 be
       0.08789799 0.16930147 0.05541265 -0.16546771
000100 1b cd 2b be 3d 5c c6 3d df d6 87 3d 6a 21 c7 bd
       -0.1677746 0.09685562 0.0663278 -0.0972317
000110 94 ef a3 bc 68 46 6f bd dc ab 20 3d 3b c5 1b 3d
       -0.0200117 -0.058416754 0.039226398 0.03802989
000120 6b 31 0a 3e 65 18 53 3e f9 63 7f 3d 00 77 81 bc
       0.13495414 0.20614775 0.0623512 -0.015803814
000130 f1 44 cc 3b 31 11 80 be 18 ce fd 3d 25 c4 cf 3d
       0.0062338044 -0.25013116 0.12392825 0.101448335
000140 a0 03 de bd 58 9c ed 3d 43 36 cc bd 6a c8 0d be
       -0.10840535 0.11602086 -0.09971287 -0.13845983
000150 e0 bb a9 bd a1 b4 05 bd 21 6c 25 be cd 75 fb 3d
       -0.082877874 -0.032642964 -0.16154529 0.12278328
000160 77 3b 3a 3d e6 f8 28 be b7 72 9a 3c 96 3f 06 be
       0.045466866 -0.16501197 0.018853528 -0.13110194
000170 82 d8 39 bc 48 53 fa 3c 67 68 ab bc 06 bf bd bc
       -0.011343123 0.03055729 -0.020923806 -0.023162376
000180 2a 1f 7b be 71 98 53 3e 72 95 8d be 5d 07 ea bd
       -0.24523607 0.2066362 -0.2765308 -0.11427186
000190 fe 03 47 3e f6 e3 f7 3d 18 43 28 be 56 1b 71 3e
       0.19435117 0.12104027 -0.16431844 0.23545584
0001a0 5f e7 dc bd 33 2e 44 be ab 32 27 3e 47 d2 18 be
       -0.10786318 -0.19158249 0.16327922 -0.14923964
0001b0 72 c2 73 bb 51 1b ff 3d 69 b4 21 3e b4 c3 6d be
       -0.0037194756 0.12456382 0.15791477 -0.23219186
0001c0 09 02 92 3e f5 a4 2d 3e 6c b0 98 bd e9 5e 97 3a
       0.28517178 0.16957457 -0.07455525 0.0011548671
0001d0 fe 5c 69 bd de bf 28 bc a5 98 45 3e d9 bc 45 3e
       -0.05697345 -0.010299651 0.1929651 0.19310321
0001e0 46 8e 82 bc 11 25 4b 3e d4 44 e1 bd 06 79 d4 bd
       -0.015936982 0.19838358 -0.10999456 -0.10374646
0001f0 7b 27 c4 bd 06 18 43 3e 84 a8 3a 3c 1f fe 25 be
       -0.09577843 0.19052133 0.011392716 -0.16210221
000200 69 93 c9 3d 90 94 9c 3e f4 9c c2 bd dd 39 73 bd
       0.098425694 0.30582094 -0.09502593 -0.059381355
000210 ba 22 08 bd 6a 2e 38 3e af 57 7e be 2b 7b 64 be
       -0.033236243 0.17986456 -0.24838136 -0.2231261
000220 83 f1 8d be f6 4b 62 be b4 08 85 be 3d 8e 8e bd
       -0.2772332 -0.2209929 -0.25983202 -0.069607235
000230 4b 85 9a 3d 6c d6 11 bd f6 b7 75 bd a2 c1 33 3d
       0.07544955 -0.03560488 -0.059989892 0.043885835
000240 eb f4 ae be 37 d7 03 3c 7e d4 7d 3c 1d a7 57 bd
       -0.34171233 0.008046917 0.015492557 -0.052649606
000250 08 58 99 be b5 1e 4e be 9b 7b 20 be 14 12 40 3d
       -0.29949975 -0.20128901 -0.15672152 0.04689224
000260 f6 80 97 bd eb 99 a9 bd 63 e5 17 3d 04 42 c1 be
       -0.07397644 -0.08281311 0.037083995 -0.37745678
000270 15 ae 2a be aa fd 70 be 9d 18 12 be 6a 68 35 be
       -0.1666797 -0.23534265 -0.14267202 -0.17715612
000280 f1 d3 4e be 3e d6 65 be 9c 5d 0a ba fb 62 12 be
       -0.20198037 -0.22445008 -0.0005278231 -0.1429557
000290 b7 93 b0 be a9 b5 44 3e d0 1a 87 be a9 e8 34 be
       -0.34487697 0.19209923 -0.26387644 -0.17666878
0002a0 aa 09 9d bc b3 c0 66 3d 60 4a ec 3d 52 e6 ba 3e
       -0.019169647 0.056336116 0.115376234 0.36503845
0002b0 75 46 88 be 8b 1a 49 3e dd 8d f0 bd d6 89 29 bd
       -0.26616254 0.19639032 -0.11745808 -0.041391216
0002c0 49 de 99 bd bd ca 82 be a7 c0 4d 3d 07 17 3a be
       -0.07513101 -0.25545302 0.050232556 -0.18172847
0002d0 0f 49 ec bd 6d cf 97 3e 8c a2 ce bd cc 9d e7 3d
       -0.11537372 0.2965044 -0.10089597 0.11309394
0002e0 7a 37 23 3e ae 94 36 be 99 57 70 3b 49 75 07 be
       0.15939131 -0.17830154 0.0036673306 -0.13228334
0002f0 44 32 71 be b1 4c 48 be b6 8c 69 3d ea 06 fd 3c
       -0.23554331 -0.19560505 0.057018958 0.030887086
000300 99 6b c8 3d da f5 82 3d 3c b6 33 bd 70 8c 08 be
       0.097861476 0.06394549 -0.043874964 -0.13334823
000310 e1 0f a1 be f8 06 9c 3d 29 a0 6e 3e af 2b 7e bc
       -0.31457427 0.07618517 0.23303284 -0.015513345
000320 2f e0 21 3e 92 d8 c5 bd d4 82 3b be 56 08 4a bd
       0.15808176 -0.09660448 -0.18311626 -0.049324356
000330 75 55 94 3c 55 34 2a 3e 08 e8 3c 3d 35 58 39 3e
       0.018107155 0.16621526 0.04611972 0.18100055
000340 73 a2 62 3e cd 5c 55 3d 19 7c 00 be 94 92 d3 3d
       0.22132282 0.052090455 -0.1254734 0.10330692
000350 3a ea 8f 3d 55 74 aa bd 15 85 1f 3e 36 a3 fd bd
       0.07027097 -0.0832297 0.1557811 -0.12384646
000360 28 68 aa bb e2 a8 55 bd 7f 5f ab 3d 98 34 3f 3e
       -0.0052004047 -0.052163012 0.08367824 0.18672407
000370 75 27 ef bd 04 cc d4 3d 24 bb 2d be 2b 40 46 be
       -0.11677448 0.103904754 -0.1696592 -0.19360416
000380 44 13 7f bd 4f ec 09 3d 32 09 55 bc 3a 17 a8 be
       -0.062274233 0.033672627 -0.013002681 -0.3283022
000390 f5 43 cc bd 03 58 13 3e 4d ab e0 3d cc be a3 3d
       -0.09973899 0.14389043 0.10970173 0.07995376
0003a0 5d 67 9f be c6 90 97 be 49 ec 82 3c 0d 66 c4 39
       -0.31133547 -0.2960264 0.01598181 0.00037460067
0003b0 7e ae 3f be 1b 1f 84 bd ec 72 aa bd 3c 1d 86 be
       -0.18718907 -0.064512454 -0.08322701 -0.2619418
0003c0 1b 86 e3 3d 53 ff 83 bd e6 b6 31 3c 73 12 74 bd
       0.11109563 -0.064451836 0.010846829 -0.059587907
0003d0 37 30 d2 bd 59 40 a2 3d c6 2d 51 3d 17 c8 c4 bd
       -0.102631025 0.079224296 0.051069044 -0.096084766
0003e0 8c cd e7 3d 30 01 28 3c bb e0 2d 3e 1a 6c 17 be
       0.11318502 0.010254189 0.16980259 -0.14787331
0003f0 23 9b ee 3d 65 dc c7 3d 75 6f 54 3b ea d0 e2 bd
       0.11650684 0.09758834 0.0032415066 -0.110750034

hidden_nets.2.bias f4 [32]
000000 9e ea 9a 3f 3e 19 9a 3f c6 30 87 bd 7c 43 97 3f
       1.210285 1.2038953 -0.066011 1.181747
000010 ce 0d 9c 3f 4a 31 90 3f f7 68 aa 3f dc bc b6 bd
       1.2191713 1.1265042 1.3313283 -0.08922741
000020 b4 c0 9f 3f 4e 82 90 3f 31 1d 9c 3f 41 08 9d 3f
       1.2480683 1.1289766 1.2196409 1.2268144
000030 b7 9a e0 bd 5e 41 a9 bd 1e b2 0b be 6e 7f db 3e
       -0.109670095 -0.08264421 -0.13642165 0.4287066
000040 ba 76 e6 bd 1b 32 a0 3f 58 6c 97 3f 24 71 90 bc
       -0.11253114 1.2515291 1.1829939 -0.017632075
000050 c3 62 a2 3f 3e 39 0d 3f 91 05 aa 3f 5f a9 9d 3f
       1.268639 0.5516547 1.3282949 1.2317313
000060 f0 ae 95 3f a9 82 01 be e0 5f a0 3f 24 ce df bd
       1.1694012 -0.12647499 1.2529259 -0.1092799
000070 99 eb a6 bd 98 c3 aa 3f 93 4e 39 3f 0c 30 a7 3f
       -0.081504054 1.334094 0.7238552 1.3061538

value_stream.weight f4 [1, 32]
000000 7d 63 90 3f 7c 2c 82 3f 28 75 b4 be 2a ad 86 3f
       1.1280361 1.0169826 -0.35245633 1.0521595
000010 de f4 9c 3f e4 f5 69 3f 59 10 4d 3f ef a6 db be
       1.2262228 0.91390824 0.8010307 -0.42900798
000020 86 af 82 3f ca 25 52 3f 28 d5 81 3f 8f 60 7a 3f
       1.0209816 0.8208891 1.0143175 0.97803587
000030 c0 85 1c be 10 69 0c be 88 05 52 be cb 47 4a 3f
       -0.15285397 -0.13711953 -0.20509923 0.790158
000040 87 b9 a0 be 6e 41 6c 3f 7f 74 79 3f e5 db a0 be
       -0.31391546 0.9228734 0.97443384 -0.31417766
000050 32 ed 77 3f ee 20 38 3f ab a0 49 3f 57 48 7c 3f
       0.96846306 0.71925247 0.78760785 0.9854788
000060 06 bf 96 3f 0f a6 85 be 12 ce 4c 3f db ea b7 bd
       1.1777046 -0.26103255 0.8000194 -0.08980342
000070 8f ec 39 be 97 54 42 3f 67 6c 32 3f b1 e5 5f 3f
       -0.18156646 0.75910324 0.6969666 0.87459856

advantage_stream.weight f4 [5, 32]
000000 6a 01 25 3d 8f 7c 16 3e 3f 54 4c 3e 71 ac ce 3d
       0.04028455 0.14695953 0.19954012 0.10091484
000010 3e 54 0b be 15 90 8f bd e7 f8 ec 3c 9d a0 5a 3e
       -0.13606355 -0.07009903 0.02892728 0.21350332
000020 f4 2d 0b be ce 46 01 3e f7 d7 37 3e 7f 86 cc 3d
       -0.13591748 0.12624666 0.17953478 0.099865906
000030 47 ac d5 3d 05 4e 0c be 5d 44 c5 3d 65 43 22 be
       0.1043325 -0.13701637 0.0963218 -0.15846021
000040 0a 40 9a 3e 6d bd 03 bd 24 ac be 3d 30 39 1a 3e
       0.30126983 -0.032163072 0.09310177 0.15060878
000050 bd d5 6c 3e 7a 59 7a 3d 51 d0 f2 ba bb 9c c5 bd
       0.2312841 0.061120488 -0.0018525218 -0.096490346
000060 03 76 63 bc 22 84 99 be 03 62 95 3d 1d 56 bb be
       -0.013883117 -0.29983622 0.07294085 -0.36589137
000070 af 00 03 bf 15 83 bc 3d c5 02 31 bc 22 4d bd bd
       -0.5117292 0.092046894 -0.010803883 -0.092432275
000080 1c 9b cf bd ad 5e 5c 3d 73 59 72 3d 89 53 09 bc
       -0.10137007 0.053801227 0.059167337 -0.008381733
000090 18 4d 5f be a0 69 cd bd ad 73 b2 bd 2f 35 93 3e
       -0.21806753 -0.10029912 -0.0871347 0.28751513
0000a0 9b bf 65 be 7b 13 70 3d 38 a5 cc 3d fd e1 31 bc
       -0.22436373 0.058612328 0.099924505 -0.010857102
0000b0 d2 df 8e 3e c2 cc 90 bd 7b 48 c3 3d 03 c9 3c 3d
       0.27905136 -0.070703045 0.09535309 0.046090137
0000c0 9e b7 c8 3c 44 e6 c7 bd 06 93 67 3c 0d 37 1b 3e
       0.024501618 -0.097607166 0.014134174 0.15157719
0000d0 5b f3 2c 3e 98 a9 e0 3d ee 58 9c bd b2 01 0f be
       0.16889708 0.109698474 -0.076341495 -0.1396549
0000e0 92 8e fc bd cf a0 72 3e 06 2c b2 3a 41 95 8e be
       -0.12331881 0.23694156 0.0013593442 -0.27848247
0000f0 3a 1a a1 be ed e9 59 3d 32 69 1e 3d 4e 03 20 be
       -0.31465322 0.053201605 0.03867454 -0.1562626
000100 bc db 2e 3d bb 0e 28 3e ed 06 e8 3e 30 d9 d7 3d
       0.042690024 0.16411869 0.45317784 0.10539472
000110 a1 f7 24 be 6f 14 c6 3c e0 fc 60 3c 48 02 1c be
       -0.16110088 0.024179665 0.013732165 -0.15235245
000120 e2 f3 0b be ec 4c b5 3d 29 d0 2a 3e 3d 0c 68 3d
       -0.13667253 0.08852562 0.1668097 0.056652296
000130 b6 51 85 3e 49 0c a5 bd 85 32 22 3e de 02 09 3e
       0.26038903 -0.08058984 0.15839584 0.1338
000140 f4 cc f7 3e c9 c0 5b bd 81 92 d2 3d c6 d9 36 bd
       0.48398554 -0.05365065 0.1028185 -0.04464128
000150 90 19 66 3e b2 eb 9d bd f9 78 ef bb d9 fc f3 bd
       0.22470689 -0.07710971 -0.0073081222 -0.11913461
000160 e1 d0 ec 3b 23 45 2d 3e ab c0 04 3d 53 d9 70 3e
       0.0072270487 0.16920905 0.032410305 0.23520403
000170 57 d1 f0 3e f8 f9 d9 3d bf 63 ba bd df 76 dc bd
       0.47034714 0.10643381 -0.09101056 -0.1076486
000180 c1 51 c4 bd eb a0 55 3d 7d b6 99 bc 88 16 c7 bc
       -0.09585906 0.052155416 -0.018763775 -0.024302736
000190 b6 84 5a be 54 5a 2e be 77 54 aa bd 7d 3d 8b bb
       -0.21339688 -0.17026645 -0.08316892 -0.0042492733
0001a0 5b 3b 83 be 8f cb 65 3d 4c 88 a1 3d 3f 34 45 bd
       -0.25631222 0.05610233 0.07887325 -0.04814553
0001b0 7d 53 8a be 2e 69 89 3e 2c 44 b5 3e 08 e3 62 3e
       -0.27016822 0.26838058 0.35403574 0.22156918
0001c0 f2 b5 1c 3e 38 57 f0 bd 60 09 a7 bc e3 b3 2b be
       0.15303782 -0.11735386 -0.020390213 -0.1676784
0001d0 19 3f 2e 3e 6d fc 1c 3e db 42 bd bd 6e 3a 32 be
       0.17016257 0.15330668 -0.09241267 -0.17405102
0001e0 b1 8f 22 be e2 c4 1e 3f 2b fc 14 3c 76 16 08 3d
       -0.15875126 0.6201917 0.009093325 0.033224545
0001f0 79 e0 44 3e 80 a0 98 bb 43 f7 cb bc 1d a1 38 be
       0.19226255 -0.004657805 -0.024898177 -0.1803021
000200 72 23 94 3d 38 43 34 3e f2 3b 46 3d ba 20 b7 3d
       0.07233323 0.17603767 0.048397012 0.08941789
000210 0d 0e db bd e7 0d 60 bd 3f 2f 0c ba da fd 2a be
       -0.10696039 -0.05470076 -0.00053476164 -0.16698399
000220 0d a6 1a be f0 3c 0d 3e 9e aa 60 3e f6 fe 03 3e
       -0.15102406 0.13792777 0.21940085 0.12890229
000230 d2 17 ad 3e 29 84 56 bc 93 ca 71 bc 39 4f ba bd
       0.33807236 -0.013093033 -0.01475777 -0.09097142
000240 6c d3 22 be 63 e2 0f bc 51 c9 e9 3d 42 3d 12 3e
       -0.15900964 -0.008782002 0.11415351 0.1428118
000250 b3 00 7e 3e db 28 a8 3d 68 cd 81 bb 0f 6b 62 bd
       0.24804954 0.082109176 -0.003961254 -0.05527788
000260 c6 53 f7 3c ab ef 65 3e 9b 6b 9f 3d d0 3e 5c 3e
       0.030191313 0.22454707 0.07784196 0.21508336
000270 a2 37 0d be 76 c2 09 3e d6 f0 0d 3b 59 ea 75 bd
       -0.13790753 0.13453087 0.0021658442 -0.060037944

advantage_stream.bias f4 [5]
000000 86 f0 19 bf f7 ef 48 3f 08 65 13 bf e0 63 85 3f
       -0.60132635 0.7849116 -0.57576036 1.0421104
000010 3b 4a 8b bf
       -1.0882028

hidden_nets.0.weight f4 [64, 11]
000000 27 31 86 3e 6c 5a 18 3c 09 f3 12 3e c3 13 a0 3c
       0.26209375 0.009298902 0.14350523 0.019540673
000010 b8 a4 08 3e 0b 88 8e bd 77 bd a9 bc d4 83 92 be
       0.13344085 -0.06959542 -0.020720227 -0.28616202
000020 1c e0 4f be d2 ab 17 3c f9 15 ad bc dd c2 f8 bd
       -0.20300335 0.009257274 -0.021128641 -0.12146542
000030 7f db 9f bd 8a d0 8c be 46 05 71 be ef 6b b8 be
       -0.078055374 -0.27502853 -0.23537168 -0.36019847
000040 0f 52 1b bd a9 80 a1 be 02 55 93 3e f5 b4 fa 3d
       -0.037920054 -0.31543472 0.28775793 0.12241546
000050 9a 7e 31 bc 3e 8c 1d bc 94 b7 b6 be da b5 5a 3e
       -0.010833407 -0.009615956 -0.35686934 0.21358433
000060 fc 56 7e be 84 7a 8c bd a2 e3 1f be d6 62 08 3e
       -0.2483787 -0.068593055 -0.15614179 0.13318953
000070 09 64 3e 3d 42 cf 48 3e f8 f5 14 3e a8 d9 1c 3d
       0.04648212 0.19610313 0.14546955 0.03829351
000080 cf 4e f6 3c a8 1e 43 be c1 b0 9c be 9e b2 47 be
       0.030066876 -0.19054663 -0.30603603 -0.19501731
000090 69 71 df bd 3b 9f c9 3d 17 c6 a7 3d 86 cb 8a bd
       -0.10910303 0.09844824 0.081920795 -0.067771
0000a0 80 5c 97 3a d2 fc 8a 3d 4c 4d c0 3d 6c 16 0e bd
       0.0011547953 0.06786503 0.09389743 -0.034689352
0000b0 88 4e 59 3e e2 26 47 be 92 f1 cb bd b2 a2 85 3d
       0.21221364 -0.19448426 -0.09958185 0.06525172
0000c0 01 d7 84 3e 1f b4 10 3d 1b de 5a 3a ce f3 5e bd
       0.25945285 0.035328027 0.00083491363 -0.05443173
0000d0 05 eb 5e 3d d8 4d a9 bd 48 b6 82 3c c5 fe 4a 3e
       0.05442335 -0.08266801 0.01595606 0.1982375
0000e0 18 27 b5 3d fe 9b 49 3d 3d c0 ce bd 73 09 2e 3e
       0.08845347 0.04922103 -0.1009526 0.16995792
0000f0 f5 97 24 3e 84 2f a5 bd 11 c8 e5 be e0 40 10 be
       0.16073592 -0.080657035 -0.448792 -0.14087248
000100 b1 ef f4 bd ad dd e1 bc 36 fc 80 bd c0 27 0f 3e
       -0.1195978 -0.027571524 -0.062981054 0.13980007
000110 dc 23 ad bd a6 da e1 3c cc eb 82 be 4a f9 f6 bd
       -0.08454105 0.02757008 -0.25570524 -0.12059267
000120 a4 1f 6f be 09 da c9 3d f4 d5 86 3e 18 ff d2 be
       -0.23351914 0.0985604 0.26335108 -0.41210246
000130 f5 6c 9c bd d3 c1 9b be ef f3 85 3d b7 d6 70 bc
       -0.076379694 -0.30421314 0.06540667 -0.0146996295
000140 cd b4 29 bd 27 3d 8d 3e 90 d9 d2 3c 1d f3 fd 3c
       -0.04143219 0.27585718 0.025738508 0.030999715
000150 78 12 ad bd 26 fa 36 3b b0 65 3b 3d 17 d4 3b bb
       -0.08450788 0.0027920096 0.045751274 -0.002866035
000160 d2 00 ad be 60 18 49 be cf 4f 1a 3e d4 9d 71 be
       -0.33789688 -0.19638205 0.15069507 -0.23595363
000170 4c 1e cc 3d 54 e7 f3 bd 21 73 54 3e d0 c2 7d be
       0.09966716 -0.11909357 0.20747043 -0.24781346
000180 b9 d6 4c 3e 92 2d ea bd ec 69 f6 3d 81 0c 78 bd
       0.20003785 -0.11434473 0.12031922 -0.0605588
000190 53 26 e8 3d 14 ac 24 be c8 c8 30 3e 86 32 a8 be
       0.11335435 -0.16081268 0.17264092 -0.32851046
0001a0 9a f7 aa bc 8a 01 ae 3d 97 5d 47 be 20 b2 89 3c
       -0.020870019 0.08496387 -0.19469295 0.01680857
0001b0 61 93 ba bb 09 0b 6b be c4 93 a3 3d 05 d9 80 ba
       -0.0056938385 -0.22953428 0.079871684 -0.0009830302
0001c0 54 20 fa be 6c 8c dd bb d9 ff 1d be 9c fc 28 be
       -0.4885279 -0.0067611244 -0.1542963 -0.16502613
0001d0 cf 03 f3 bb 65 ee 3d 3d 98 d0 51 3e de be 1c 3d
       -0.0074162255 0.04636993 0.20489728 0.038267963
0001e0 13 14 77 3e 7d f2 14 be 84 29 8e be 6a c0 20 be
       0.24128751 -0.14545627 -0.2776605 -0.156984
0001f0 96 9c 55 be 61 a7 1c 3d 21 3d 17 3e 76 be 33 be
       -0.20860514 0.038245562 0.14769413 -0.17553124
000200 0a c3 83 be 6f f9 20 3e 93 a5 b5 bd 6f 7d 64 3e
       -0.2573474 0.15720151 -0.088694714 0.22313474
000210 84 f9 b1 3e 87 1e a0 be 5f 1b bb 3d c8 1a 44 bd
       0.34760678 -0.3127329 0.0913608 -0.047877103
000220 c5 74 18 3e 77 05 5e be 5e b3 90 bb 44 3f 06 3e
       0.14888294 -0.21681772 -0.0044159135 0.13110071
000230 b2 1c 1d 3d 82 be ee bd c7 0f 99 3b f7 36 cd bd
       0.038357444 -0.1165743 0.0046710703 -0.10020249
000240 f1 be 6d 3e d2 0e 6c be 48 e2 92 bd a0 b2 83 be
       0.2321737 -0.23052529 -0.07172066 -0.25722218
000250 e5 67 6e be 90 6b 7a bd a9 23 53 be 16 51 45 be
       -0.2328182 -0.061137736 -0.20619072 -0.19269213
000260 ea 3d 61 bd 82 61 11 be 5b 80 97 be ca 77 b5 bd
       -0.054990686 -0.14197353 -0.29590115 -0.088607386
000270 fe b3 a7 be 05 56 2c 3e 67 68 a3 bc c0 25 5d 3e
       -0.3275451 0.16829689 -0.019947244 0.21596432
000280 bc f5 3c 3d 24 8f 10 be 0f 6a 4a bd b0 2f 31 be
       0.046132788 -0.14117104 -0.04941755 -0.17303348
000290 6e ee e9 3d d5 86 ae 3e 3a 0e 42 3d 18 9a 0f bd
       0.1142243 0.34087244 0.04737685 -0.035059065
0002a0 53 ee 38 bd c9 d1 16 3d 8f 97 7e 3b b9 e0 c6 bc
       -0.04514916 0.03682116 0.003884766 -0.024277078
0002b0 00 02 d1 3b 25 83 4c 3e 3e 32 a8 3c c7 c1 fe bc
       0.0063784122 0.19971903 0.02053177 -0.03109826
0002c0 a8 8c a6 be 88 ab 5a bc 03 d6 e0 bc 65 d2 a8 bc
       -0.32529187 -0.01334656 -0.027445799 -0.020608136
0002d0 a3 3f 47 be b3 9b 29 be db 91 90 bd bf 4b 93 3e
       -0.19457869 -0.16563301 -0.0705907 0.28768727
0002e0 5f 57 ef 3d f8 9c 65 be bb 94 82 be 4f 38 7f be
       0.116865866 -0.2242316 -0.25504097 -0.24923824
0002f0 b2 94 8f 3e 5f a6 36 3e e0 16 80 3d 76 f5 f5 be
       0.28043133 0.17836903 0.06254363 -0.48038834
000300 a0 98 ad 3d 7a 3c c8 3d 70 06 85 3d 36 72 07 be
       0.084763765 0.0977716 0.064953685 -0.13227162
000310 b2 9e 57 bd 7a 20 5b bc 94 a8 7b be 57 5c 7c 3d
       -0.052641578 -0.013374442 -0.24576026 0.0616115
000320 1c 1b 45 be 32 f8 4f bd 5a 70 45 be 4b 45 0b bc
       -0.19248623 -0.050773807 -0.1928114 -0.008500407
000330 e1 2b 75 3c ad 71 cc 3d 78 1d 2d be fd c9 9b bc
       0.014964075 0.099826194 -0.16905773 -0.019017214
000340 40 71 a1 be 3f a2 af 3e 6d 2b 92 be b9 4e ed 3d
       -0.31531715 0.3430347 -0.28548756 0.11587281
000350 77 d7 99 3d 6c b1 02 3e c9 f7 90 3c 07 f6 31 3c
       0.075118 0.12762994 0.017696278 0.01086188
000360 d9 25 49 be d8 e8 8c be 3e bb d4 3d e0 a6 23 bc
       -0.19643344 -0.27521396 0.10387276 -0.009988517
000370 ad 7e 8e 3d cc 99 cd bd b8 6a 39 bc 8e 71 01 bd
       0.06957755 -0.100391 -0.011316948 -0.031602435
000380 d7 c6 64 3e 5e 68 53 be 05 ee 83 bd 56 e3 32 be
       0.22341476 -0.20645282 -0.06441883 -0.17469534
000390 c6 dc 28 be 2d 7b 4b be 32 d9 e2 bc 7c c0 66 3e
       -0.16490468 -0.19871207 -0.027691457 0.22534364
0003a0 41 d7 de 3b cc 12 41 3d eb 67 4e bd a7 e4 6d 3e
       0.0068005626 0.047137067 -0.050392073 0.23231755
0003b0 6c 29 fb 3c 0c 89 ad bc 2a dd 51 be db d2 5b be
       0.0306594 -0.021183513 -0.20494524 -0.21467154
0003c0 16 95 27 bd 41 5c 3f bc cc 05 9e bd 46 c6 8e 3d
       -0.040913664 -0.01167971 -0.077159494 0.069714114
0003d0 38 ad ce 3c d4 fe 62 bd b2 da 5c 3e fb 54 e2 bd
       0.025229082 -0.055418804 0.215678 -0.11051365
0003e0 d0 22 6e 3d 72 13 2f be 6f 27 ca 3d ca 43 83 3d
       0.05813867 -0.17097262 0.098708026 0.06409414
0003f0 df 65 8f 3b 58 06 e8 3e cc 58 bc bd 20 5a 9f 3c
       0.0043761577 0.4531734 -0.09196624 0.019452155

hidden_nets.0.bias f4 [64]
000000 8a 01 01 be 74 0b 90 3d 73 3d 6b 3d f5 cc 16 be
       -0.12598243 0.070334345 0.05743165 -0.14726622
000010 ed 6a 2b be d7 dd 2d be f5 87 02 bb 99 00 e7 bd
       -0.16740008 -0.16979156 -0.0019917462 -0.11279411
000020 6f 03 a7 bd 18 18 c2 3b 87 22 a0 bb a1 fd 4d bd
       -0.08154952 0.0059232824 -0.0048869285 -0.050290707
000030 80 03 13 be b6 6a a0 bc 44 6c ea bd 90 60 63 be
       -0.14356804 -0.019582134 -0.11446431 -0.22204804
000040 9c 13 90 3d 5c af 39 3d f4 8b 01 3d 84 c7 b4 bd
       0.0703499 0.04533325 0.03162761 -0.08827117
000050 fc 01 03 be c2 9d 48 be 4f be 0a be 43 6a e5 bd
       -0.12793726 -0.1959143 -0.1354916 -0.112019084
000060 ea dd 8a 3d ae ac dd 3d 3a 4b 8f 3c a3 2b ed bc
       0.06780608 0.10823952 0.017491926 -0.028951472
000070 9b 44 f5 bd d8 3e 98 3d 96 ae 28 be af 1a 0b 3c
       -0.11975976 0.074338615 -0.16472849 0.008490249
000080 48 1d cd bd 74 8f 24 bc 1f 24 b1 bb b5 eb 37 bd
       -0.100153506 -0.0100439675 -0.0054059173 -0.044902522
000090 00 00 00 00 d6 6a fd bd 67 f9 84 bd 54 83 95 bd
       0.0 -0.12373893 -0.06492882 -0.073004395
0000a0 cf a0 64 bd b8 67 56 be be 64 55 be f5 af d2 bd
       -0.05581742 -0.20938003 -0.20839211 -0.102874674
0000b0 ba 4f 02 be 99 5c ba 3d f3 ea 0f 3d d0 89 71 3d
       -0.12725726 0.09099693 0.035136174 0.05896932
0000c0 76 1e 07 be 4e ac ae 3d df 54 d2 bd fc d6 4a be
       -0.13195214 0.08528958 -0.10270094 -0.19808573
0000d0 db 5f ea 3d 36 9e 11 bd 19 3e a3 3d c5 fa fe 3b
       0.11444064 -0.035551272 0.079708286 0.007781359
0000e0 21 69 67 3c f3 83 e7 3b b8 b3 d3 bd 7d 50 d8 bd
       0.014124186 0.00706529 -0.10337013 -0.10562227
0000f0 86 10 f1 bd 80 53 1e 3e c3 a9 c8 3b 79 dd 3e bd
       -0.1177073 0.1546154 0.006123753 -0.04659793

hidden_nets.1.weight f4 [64, 64]
000000 a7 da 8a be 01 72 c3 bd cf 7f 55 be 81 b0 ba bd
       -0.27119943 -0.09543229 -0.20849536 -0.09115697
000010 3a 15 68 3d 11 71 9d be a3 da 82 3e 41 25 b0 bc
       0.05666087 -0.30750325 0.25557432 -0.021502139
000020 7c 82 a1 be 51 ab 19 bc e4 bd a9 3e a9 1a 22 be
       -0.31544864 -0.009379224 0.33152688 -0.15830483
000030 ee a2 e6 bd 65 f3 81 3c 48 28 6f be 4f 29 71 3d
       -0.11261545 0.01586313 -0.2335521 0.058877286
000040 cd f4 fe bd 13 74 c3 bd 8b fb c9 3d dd e9 b5 be
       -0.12449036 -0.09543624 0.09862431 -0.35529986
000050 e4 6d 32 be 70 93 27 be 46 35 33 be 05 96 86 3d
       -0.17424732 -0.16364837 -0.17500791 0.06571583
000060 4e 4a db 3d 95 ca c5 bd f6 e7 44 3d 16 c3 e0 bd
       0.10707532 -0.0965778 0.048072778 -0.1097471
000070 e9 2e e0 3d 42 d0 15 3e 6f 3c 4b be da 6b a3 bd
       0.109464474 0.14630225 -0.19847272 -0.079795554
000080 32 00 74 3e 7b 09 b2 3e 2f a6 db bd 4c 0a 0c be
       0.238282 0.34772858 -0.107250564 -0.13675803
000090 41 5c 4e 3d 45 66 33 bc 3a 17 56 3e 56 0e 7e 3d
       0.05038095 -0.010949676 0.20907298 0.06202539
0000a0 01 d0 16 be b5 2f 22 3e b9 1c 07 3e 41 d3 3d 3e
       -0.14727785 0.15838511 0.1319455 0.18537618
0000b0 24 40 fa bd 35 35 8a 3d db a1 f0 3c c3 a8 e9 3c
       -0.12219265 0.0674843 0.029374054 0.028522855
0000c0 f6 35 c3 be 91 20 ce be 0b eb 29 be fa 8c 1b be
       -0.38127106 -0.4025922 -0.16593568 -0.15190497
0000d0 dd 4d b5 be 58 e6 cc 3c 4c 9d 60 3e 34 d2 be 3d
       -0.35410967 0.02501218 0.21935004 0.09317437
0000e0 f8 ed de 3d 63 4b 88 3e 21 b9 01 3e 24 dc 67 ba
       0.10885233 0.26620016 0.12668277 -0.0008844754
0000f0 ad 8e c4 be 97 cb 86 be 30 e1 4a bd 2b 1e ba be
       -0.38390103 -0.26327202 -0.04953116 -0.3635114
000100 78 67 37 be f4 57 61 3e 12 5f 28 bc 03 64 d2 bd
       -0.17910564 0.22006208 -0.010276573 -0.10272982
000110 b3 ce cf 3c 21 a4 66 bd ad 47 13 3d 14 89 14 be
       0.025367117 -0.05630887 0.035957027 -0.14505416
000120 f1 16 20 be 4f 2d 56 3e 44 2e b8 bd a5 46 73 3c
       -0.15633751 0.20915721 -0.089931995 0.014848386
000130 dc ad 3a be 41 eb 2e 3e 4d 22 4a be 34 b8 8a be
       -0.18230385 0.1708193 -0.19739647 -0.2709366
000140 85 f6 1a be 04 30 98 bd 2a 48 12 3e 2d 6e bb be
       -0.15133102 -0.07431033 0.14285341 -0.36607495
000150 cc 2e 95 be ac 44 ab bc 9b 2d c2 bd bb b2 1b be
       -0.29137266 -0.020906769 -0.09481355 -0.15204899
000160 84 bd 75 3d 71 c2 c2 bd f1 80 dd bd d0 90 a8 bc
       0.05999519 -0.09509743 -0.10815609 -0.020576864
000170 19 cb fa bd 2f 02 bb 3d bc f0 c7 bd 88 e8 38 be
       -0.12245769 0.09131276 -0.09762713 -0.18057454
000180 6a 9e 2a bd 83 9d 85 be a6 60 5a be fe ed 04 3e
       -0.04165498 -0.26096734 -0.21325931 0.12981412
000190 57 5c 87 3d a3 1e b6 3d e5 2e 0e be 66 49 17 be
       0.06609409 0.08892562 -0.13885076 -0.14774093
0001a0 10 79 76 bc 2e ed a5 be 46 9c c1 be 16 7c be 3c
       -0.015043512 -0.32407516 -0.3781454 0.023252528
0001b0 f2 94 b9 bb c9 5b e9 bc f9 9c 1d 3e 28 bc 31 3e
       -0.0056635076 -0.02848615 0.15391912 0.17356932
0001c0 46 bc 58 be ee 61 da bd 5f e1 3e be 5c 0e cd bd
       -0.2116557 -0.1066321 -0.1864066 -0.100125045
0001d0 a3 61 ea bb 54 ee 46 be 8e 08 57 be 11 ed 30 3e
       -0.0071527525 -0.19426852 -0.20999357 0.17277934
0001e0 5a 48 88 bc 5a 4a f6 bc 52 fb 7e 3c 37 e2 84 be
       -0.016636062 -0.03006475 0.015562849 -0.25953838
0001f0 2c c6 28 be b2 f0 3d 3e f5 0f 8b be ab 64 d2 bd
       -0.16481847 0.18548849 -0.27160612 -0.10273107
000200 e2 fe 10 3d b8 1c 7a bd 9f 49 3a 3d f4 25 be 3d
       0.035399325 -0.061062545 0.045480367 0.09284583
000210 22 9d a4 3a ea f6 80 be a7 b2 23 be 4b 5b 01 be
       0.0012559036 -0.2518838 -0.15986119 -0.12632482
000220 8b 16 93 3c 22 00 b6 be c9 a3 1a bc 7c 2e 84 3d
       0.017955085 -0.35546976 -0.0094384635 0.06454179
000230 0b 69 11 be e7 bf 56 be 8e 32 81 3d 29 8d b5 3d
       -0.14200227 -0.20971642 0.06308471 0.08864815
000240 e2 d1 e7 3c c3 e4 22 bf e5 4f 3b 3e 96 b5 e6 3d
       0.028298322 -0.6363031 0.18292196 0.112651035
000250 4d 75 07 be 81 3d c2 3d 2f 94 e3 bc 37 0d fe 3d
       -0.1322834 0.09484387 -0.02778062 0.12404864
000260 0a 13 c3 be 43 38 2a bf 3b b0 94 be 4e dc 7f 3d
       -0.38100463 -0.664921 -0.29040703 0.06246596
000270 77 c8 86 bd 47 97 27 3e 2e 36 cf 3d a4 fe 55 bf
       -0.065812044 0.16366301 0.10117756 -0.83591676
000280 98 cf e0 bc 64 dc a2 bd 50 44 af be 86 92 5c 3d
       -0.027442738 -0.079521924 -0.34231806 0.053850673
000290 b5 94 fa bd f9 fa 7f be b3 6c 11 3e ab c4 8f 3e
       -0.12235395 -0.24998082 0.14201622 0.28079733
0002a0 b6 8a 04 3e 2d 9a d5 3d 7b 5f 0c 3c ec 8c af bd
       0.12943539 0.10429797 0.008567686 -0.085718006
0002b0 da 74 3b be 63 4d 83 be e8 b1 95 be 81 f2 9e 3c
       -0.18306294 -0.2564498 -0.29237294 0.019402744
0002c0 0d 83 04 be 45 cd 92 be 43 c9 a5 bd f6 3a ed bd
       -0.12940617 -0.28672233 -0.08095028 -0.115835115
0002d0 7a 6b ff be 48 f5 94 bd fb 05 80 3e bf 36 8c 3a
       -0.49886686 -0.07273346 0.25004563 0.0010697468
0002e0 41 28 a9 bd 57 7e 6f be 9e 57 d4 3c 8c f5 88 be
       -0.08259631 -0.23388039 0.025920685 -0.26749837
0002f0 4f e5 b8 3c e3 45 e6 be 46 15 99 be d6 6f 25 3e
       0.02257028 -0.44975194 -0.29899043 0.16155943
000300 27 f0 49 bd 12 53 37 be 28 99 88 3d c0 e5 4f be
       -0.049301293 -0.17902783 0.06669837 -0.20302486
000310 b6 bd 26 3b 0d e2 1b bd 63 07 5c bd 2b bc 3b be
       0.0025442666 -0.038057376 -0.053717982 -0.18333499
000320 c0 49 99 be 8b eb a2 be f7 4b 88 bc cd 9f 69 3d
       -0.2993908 -0.3182033 -0.016637785 0.057037164
000330 e4 27 aa be 17 81 76 3d 8f 5d 6f 3e 26 a9 4b be
       -0.3323356 0.060181703 0.23375534 -0.19888744
000340 f9 35 01 3d 48 01 f0 3d 4a 79 bd bd ac 8d e1 bc
       0.031545613 0.117189944 -0.0925165 -0.027533375
000350 d5 3b 87 3d 87 cb a1 3d 4c 84 b3 3d c5 c2 1e 3c
       0.06603209 0.07900148 0.08765468 0.009689991
000360 37 c5 18 3e ba 84 ce bd f7 47 3c bc 84 b9 86 3e
       0.14918981 -0.10083909 -0.011491767 0.26313412
000370 70 97 da 3c 08 f5 bb 3d 21 c7 ec bd 07 7f 97 3d
       0.02668354 0.091775954 -0.11561418 0.073972754
000380 34 4f b7 3e aa fe 00 3e 9b 33 02 be 03 6a 4e 3e
       0.35802615 0.12597147 -0.12714998 0.20157628
000390 c9 68 06 3e ca 48 d6 bd 57 0b 7a be c3 bd 5a 3d
       0.1312591 -0.10463102 -0.24418388 0.053403627
0003a0 8d b7 38 be b9 ab f3 bc 7c f1 98 be 51 05 2d 3e
       -0.18038769 -0.02974497 -0.29871738 0.1689656
0003b0 50 3d 93 be 44 99 23 bd 2d c2 a0 3c e9 40 83 bd
       -0.28757715 -0.039941087 0.01962384 -0.06408865
0003c0 4b ce 77 be fd a8 af 3d 32 13 81 bd e7 07 07 be
       -0.24199788 0.08577154 -0.06302489 -0.13186608
0003d0 f5 f2 06 bd 15 2a 50 3e 73 7d 96 3e d4 e2 bf bc
       -0.032946546 0.20328553 0.29392585 -0.02342359
0003e0 91 78 8f 3e 42 b7 6a 3e 5a 50 89 be a4 37 10 3d
       0.28021672 0.2292147 -0.26819116 0.035209313
0003f0 58 02 ad bd ae 5a f4 3d 02 47 b2 be df f4 98 be
       -0.08447713 0.11931358 -0.348198 -0.29874322

hidden_nets.1.bias f4 [64]
000000 8d 65 69 bd a5 bb 90 bc 54 c2 35 3e 5d ae 09 be
       -0.056981612 -0.0176676 0.17749912 -0.1344542
000010 f4 bd 73 3d 95 a9 53 3e e1 ca 1f 3e 33 e5 07 3e
       0.059507325 0.20670159 0.15604736 0.13271026
000020 c0 66 cd 3d e5 db bd 3d b3 7f db 3d d8 32 e3 3c
       0.10029364 0.09270457 0.10717716 0.027734205
000030 86 c2 af 3d 63 72 f8 3d 0a 0c 85 3c 49 0f a6 3d
       0.08582024 0.121311925 0.016241092 0.08108384
000040 93 c1 71 3d 43 a1 ed 3d 6e af e0 3d 2b d5 b2 3d
       0.059022497 0.11603024 0.109709606 0.08732065
000050 ec 2c ba 3d 3f 57 c7 3d 69 9b b1 3c bc 1e e7 3d
       0.090905994 0.09733438 0.02168055 0.11285159
000060 15 5e e4 3d 90 59 e9 3d c0 31 29 3e f0 74 19 3e
       0.11150757 0.11394036 0.16522884 0.14986014
000070 a6 cf 81 3d 3d 2c 6a 3d 82 59 f4 3d a9 ce 3c 3e
       0.06338434 0.057171095 0.11931135 0.1843821
000080 ce 3e 53 3e fb 57 1d 3e 68 9f 86 bd 36 5a 36 bd
       0.20629427 0.15365593 -0.06573373 -0.044519626
000090 e4 f9 a2 3d 5f 5a 14 3e 82 b3 eb 3d 53 78 0e 3e
       0.07957819 0.14487599 0.11508848 0.13913088
0000a0 cc 8f 85 3c 4a 74 1a 3e 37 7f 4c 3d b3 9e 20 3e
       0.01630392 0.15083423 0.04992601 0.15685539
0000b0 43 40 0e 3e 96 23 00 3e 6a 88 d4 3d 1f 9e 96 b9
       0.13891701 0.12513575 0.103775814 -0.0002872804
0000c0 ff 3b 8b 3c c0 e6 b7 3d 60 75 15 3e c8 b0 01 3e
       0.016996382 0.08979559 0.14595556 0.12665093
0000d0 aa 4a e7 3d 63 e4 14 3e 68 a6 a2 3d 3f f9 5b 3d
       0.11293538 0.14540248 0.07941896 0.053704496
0000e0 7d 0e 08 3e da 0b 90 3c cd 80 22 3e 4d 81 57 bc
       0.13286777 0.017583776 0.15869446 -0.013153386
0000f0 00 7c d1 3c eb 7c e2 3d c7 a6 32 3e d8 11 ef 3d
       0.025571823 0.110589825 0.17446433 0.11673325
