hyperopt_results/models/arch_smaller_fast_20250906_230524/dqn_racing_final.pth (torch, 143237 bytes, 36 tensors)

hidden_nets.0.weight f4 [64, 11]
0.3466804 -0.009311276 0.18353657 0.0061269538 0.045626897 -0.018317703 -0.0050261407 -0.31102777
-0.20300335 0.025299704 -0.07429313 -0.22315657 -0.08082385 -0.28207433 -0.27223727 -0.36304834
-0.07187495 -0.32073915 0.3012876 0.12241546 0.0055758287 0.043149304 -0.38714623 0.2075456
-0.26535383 -0.050950706 -0.2181019 0.08662313 -0.00069870055 0.23511836 0.14546955 0.032460745
0.03364795 -0.19054663 -0.30603603 -0.19501731 -0.10910303 0.09844824 0.081920795 -0.067771
0.0011547953 0.06786503 0.09389743 -0.034689352 0.25822362 -0.2147791 -0.10584644 0.03060186
0.24481758 -0.006489618 -0.040832274 -0.087919526 0.05442335 -0.07036409 -0.014075423 0.2950517
0.09660922 0.053250425 -0.0859373 0.12717985 0.15205242 -0.14544748 -0.4583985 -0.14087248
-0.057834063 -0.092078924 -0.15314178 0.1539745 -0.11074149 -0.014060245 -0.2736547 -0.117125176
-0.26423937 0.12908262 0.26335108 -0.3570595 -0.090901 -0.40579697 0.058128998 -0.015327968
-0.016121693 0.2885096 0.038427934 0.017356124 -0.097054236 0.0027920096 0.05121908 -0.030287042
-0.33789688 -0.19638205 0.15069507 -0.23595363 0.09966716 -0.11909357 0.20747043 -0.24781346
0.20003785 -0.11434473 0.12031922 -0.019205725 0.1282446 -0.25228617 0.16116223 -0.30476552
-0.021151945 0.106152296 -0.16962492 0.01680857 0.040726036 -0.2555561 0.073409654 0.0028897005
-0.48260546 -0.14628708 -0.16788794 -0.22726849 0.02646084 0.059426017 0.20489728 0.02225557
0.26346505 -0.14545627 -0.2776605 -0.156984 -0.20860514 0.038245562 0.14769413 -0.17553124
-0.2573474 0.15720151 -0.088694714 0.22313474 0.3618199 -0.35878465 0.09704842 -0.024943452
0.08429117 -0.15718658 -0.029746246 0.068251155 0.038357444 -0.09602225 0.009768868 -0.10020249
0.2321737 -0.23052529 -0.07172066 -0.25722218 -0.2328182 -0.061137736 -0.20619072 -0.19269213
-0.054990686 -0.14197353 -0.311783 -0.10448983 -0.34342358 0.1524144 -0.03582929 0.20008186
0.03025031 -0.15705353 -0.04941755 -0.18890977 0.098341815 0.31833455 0.010444157 -0.001018285
-0.074972376 -0.022315467 0.003999306 -0.004613937 -0.04722262 0.19971903 -0.0013719698 -4.6046738e-05
-0.34088573 0.0012696027 -0.050580256 -0.012557682 -0.16398609 -0.092847876 -0.097929195 0.3185258
0.116865866 -0.1882869 -0.24651296 -0.23362093 0.25824824 0.19110711 0.051160883 -0.51277816
0.112091795 0.060658388 0.06667103 -0.13227162 -0.07303464 -0.008961731 -0.1725442 0.05682799
-0.21589483 -0.050767425 -0.29879236 -0.005056009 -0.008641964 0.12181823 -0.16905773 -0.027043365
-0.33568102 0.3774372 -0.2737727 0.18511002 0.04703437 0.11628636 0.017316928 0.0076224264
-0.21335015 -0.27521396 0.09948117 -0.009895876 0.06957755 -0.100391 -0.011316948 -0.031602435
0.22341476 -0.20645282 -0.06441883 -0.17469534 -0.16490468 -0.19871207 -0.027691457 0.29853937
0.011966701 0.014428476 -0.057945967 0.24035136 0.013119382 -0.015939029 -0.20608251 -0.21467154
-0.06994118 -0.036681745 -0.13130677 0.06263431 -0.009732444 -0.0136246225 0.19786692 -0.101376764
0.029071013 -0.1924351 0.098708026 0.039091296 0.007532016 0.47977614 -0.11403728 0.056800246
00000000: 1880 b13e 528e 18bc 03f1 3b3e 9dc4 c83b
00000010: 45e3 3a3d 020f 96bc 53b2 a4bb 083f 9fbe
00000020: 1ce0 4fbe 5341 cf3c ff26 98bd 2883 64be
00000030: fa86 a5bd 0c6c 90be af62 8bbe 79e1 b9be
00000040: 2c33 93bd ec37 a4be 5e42 9a3e f5b4 fa3d
00000050: 71b5 b63b 53bd 303d 0838 c6be d586 543e
00000060: 75dc 87be b0b1 50bd 1b56 5fbe 7867 b13d
00000070: 0029 37ba dec2 703e f8f5 143e 8ff5 043d
00000080: 6fd2 093d a81e 43be c1b0 9cbe 9eb2 47be
00000090: 6971 dfbd 3b9f c93d 17c6 a73d 86cb 8abd
000000a0: 805c 973a d2fc 8a3d 4c4d c03d 6c16 0ebd
000000b0: e335 843e 0def 5bbe 05c6 d8bd c0b0 fa3c
000000c0: 76b1 7a3e dda6 d4bb be3f 27bd 270f b4bd
000000d0: 05eb 5e3d 0c1b 90bd 9a9c 66bc 0411 973e
000000e0: 0edb c53d 1e1d 5a3d e5ff afbd 6f3b 023e
000000f0: a1b3 1b3e 2ff0 14be 35b3 eabe e040 10be
00000100: 69e3 6cbd e093 bcbd 33d1 1cbe 7eab 1d3e
00000110: 6fcc e2bd f15c 66bc 781c 8cbe 53df efbd
00000120: 624a 87be 3c2e 043e f4d5 863e 81d0 b6be
00000130: 4e2a babd 9fc4 cfbe ac18 6e3d 2822 7bbc
00000140: a411 84bc 88b7 933e 9c66 1d3d 6e2e 8e3c
00000150: 5fc4 c6bd 26fa 363b 19cb 513d 881c f8bc
00000160: d200 adbe 6018 49be cf4f 1a3e d49d 71be
00000170: 4c1e cc3d 54e7 f3bd 2173 543e d0c2 7dbe
00000180: b9d6 4c3e 922d eabd ec69 f63d 5355 9dbc
00000190: 8d52 033e a72b 81be b607 253e 3a0a 9cbe
000001a0: d846 adbc 6066 d93d 28b2 2dbe 20b2 893c
000001b0: 58d0 263d 40d8 82be cd57 963d 2161 3d3b
000001c0: 1018 f7be 48cc 15be d1ea 2bbe 12b9 68be
000001d0: 67c4 d83c b268 733d 98d0 513e 5051 b63c
000001e0: e4e4 863e 7df2 14be 8429 8ebe 6ac0 20be
000001f0: 969c 55be 61a7 1c3d 213d 173e 76be 33be
00000200: 0ac3 83be 6ff9 203e 93a5 b5bd 6f7d 643e
00000210: 7540 b93e 9fb2 b7be 52c1 c63d 3656 ccbc
00000220: d9a0 ac3d 85f5 20be 66ae f3bc 43c7 8b3d
00000230: b21c 1d3d 50a7 c4bd 9a0d 203c f736 cdbd
00000240: f1be 6d3e d20e 6cbe 48e2 92bd a0b2 83be
00000250: e567 6ebe 906b 7abd a923 53be 1651 45be
00000260: ea3d 61bd 8261 11be 05a2 9fbe c4fe d5bd
00000270: 37d5 afbe 8512 1c3e bcc1 12bd 42e2 4c3e
00000280: 80cf f73c a4d2 20be 0f6a 4abd 9071 41be
00000290: 6f67 c93d bffc a23e f81d 2b3c fa77 85ba
000002a0: 1e8b 99bd edce b6bc 9c0c 833b 8230 97bb
000002b0: 826c 41bd 2583 4c3e abd3 b3ba 4f22 41b8
000002c0: 9388 aebe cc68 a63a 3e2d 4fbd bcbe 4dbc
000002d0: f8eb 27be 0727 bebd 1a8f c8bd d015 a33e
000002e0: 5f57 ef3d 48ce 40be e56d 7cbe 533a 6fbe
000002f0: 1d39 843e 95b1 433e 138e 513d 6e45 03bf
00000300: 6290 e53d ee74 783d d28a 883d 3672 07be
00000310: 2f93 95bd 39d4 12bc 6daf 30be 77c4 683d
00000320: 8913 5dbe 81f1 4fbd 50fb 98be e1ac a5bb
00000330: 0697 0dbc d67b f93d 781d 2dbe 0c8a ddbc
00000340: 62de abbe 733f c13e ef2b 8cbe 7b8d 3d3e
00000350: 1da7 403d 8b27 ee3d 3bdc 8d3c 8cc5 f93b
00000360: 7678 5abe d8e8 8cbe c9bc cb3d 5022 22bc
00000370: ad7e 8e3d cc99 cdbd b86a 39bc 8e71 01bd
00000380: d7c6 643e 5e68 53be 05ee 83bd 56e3 32be
00000390: c6dc 28be 2d7b 4bbe 32d9 e2bc 27da 983e
000003a0: fb0f 443c 6a65 6c3c c058 6dbd ab1e 763e
000003b0: adf2 563c 9192 82bc 4b07 53be dbd2 5bbe
000003c0: 523d 8fbd 993f 16bd 4875 06be 6b46 803d
000003d0: d474 1fbc cf39 5fbc a09d 4a3e 9f9e cfbd
000003e0: 5526 ee3c b50d 45be 6f27 ca3d 321e 203d
000003f0: 21cf f63b 38a5 f53e 618c e9bd 60a7 683d

hidden_nets.0.bias f4 [64]
-0.1508482 0.08386566 0.096446835 -0.14726622 -0.20088814 -0.17939764 0.028531058 -0.12533964
-0.08154952 0.030991247 0.008169381 -0.050290707 -0.2064177 -0.019582134 -0.1303468 -0.2756496
0.10118711 0.047050804 0.053619727 -0.105187945 -0.12793726 -0.19705166 -0.15695387 -0.15681887
0.09303547 0.12511086 0.01527272 -0.017035848 -0.11975976 0.08758523 -0.20367643 -0.007067351
-0.100153506 0.023948131 -0.022352198 -0.06077231 0.0 -0.13961907 -0.12873733 -0.1387716
-0.0205883 -0.25330585 -0.22703356 -0.11986126 -0.12725726 0.11823284 0.065305755 0.105375476
-0.14477971 0.096967645 -0.1433555 -0.23121147 0.13482434 -0.035551272 0.050647378 0.010020064
-0.0074280566 0.038093347 -0.13528495 -0.13066778 -0.11976992 0.18574142 0.01720107 -0.05954561
00000000: f377 1abe c2c1 ab3d eb85 c53d f5cc 16be
00000010: 9fb5 4dbe 04b4 37be f7b9 e93c 0959 00be
00000020: 6f03 a7bd 5be1 fd3c ded8 053c a1fd 4dbd
00000030: 295f 53be b66a a0bc a279 05be f221 8dbe
00000040: 303b cf3d 58b8 403d 5ca0 5b3d c76c d7bd
00000050: fc01 03be e9c7 49be 84b8 20be 2095 20be
00000060: 6189 be3d 101d 003e 6e3a 7a3c c38e 8bbc
00000070: 9b44 f5bd e35f b33d 8e90 50be 3d95 e7bb
00000080: 481d cdbd df2e c43c f51b b7bc 63ec 78bd
00000090: 0000 0000 4df8 0ebe b8d3 03be 241a 0ebe
000000a0: cba8 a8bc 4eb1 81be 7c7b 68be d279 f5bd
000000b0: ba4f 02be 0f24 f23d 06bf 853d 19cf d73d
000000c0: 2241 14be f996 c63d c9cb 12be b3c2 6cbe
000000d0: 640f 0a3e 369e 11bd a073 4f3d 322b 243c
000000e0: 0e67 f3bb c507 1c3d 2388 0abe c6cd 05be
000000f0: ef49 f5bd 0033 3e3e 42e9 8c3c 19e6 73bd

hidden_nets.1.weight f4 [64, 64]
-0.35390517 -0.22664781 -0.22198768 -0.09115697 0.046245918 -0.35362497 0.081025586 -0.15477058
-0.31544864 0.04613169 0.38269842 -0.15830483 -0.109836966 0.01586313 -0.217854 0.07406795
-0.09608662 -0.17165072 0.16802056 -0.3025709 -0.17424732 -0.2294194 -0.23897189 0.06747354
0.19070834 -0.20349763 0.105995804 -0.13175823 0.109464474 0.15090138 -0.32954887 -0.16916548
0.238282 0.49880388 -0.031010319 -0.13675803 0.05038095 -0.010949676 0.25937182 -0.023536026
-0.20145275 0.15614842 0.11236589 0.14346822 -0.12219265 0.06750087 0.080705516 0.13430005
-0.4347727 -0.41922748 -0.16546433 -0.1808551 -0.24527615 0.02501218 0.22487026 -0.02520445
0.22582929 0.32429925 0.1764794 -0.026880601 -0.39493704 -0.20855312 -0.03453618 -0.35623544
-0.33746424 0.24739747 0.1115007 -0.10272982 -0.1150744 -0.020145396 0.13627598 -0.12833792
-0.15633751 0.23665713 -0.058111522 0.014848386 -0.12057293 0.1708193 -0.18175593 -0.27326012
-0.12788066 -0.061395045 0.12366011 -0.337898 -0.29137266 -0.12906334 -0.1980025 -0.04242709
0.16663963 -0.011972133 -0.030281195 -0.00208037 -0.12245769 0.15358964 -0.1735395 -0.24417038
-0.04165498 -0.16570617 -0.123705275 0.11431767 0.06609409 0.08892562 -0.0098932255 -0.20845576
0.037392255 -0.41035867 -0.3358382 -0.07000781 -0.0056635076 0.053826075 0.19499579 0.18368065
-0.121198334 -0.04207566 -0.12620683 -0.009208212 0.037336905 -0.19426852 -0.115999475 0.21303746
-0.1387024 -0.06207759 0.032744907 -0.34646738 -0.15732862 0.19054756 -0.08392607 -0.1143116
0.05934674 -0.057402197 0.08196613 0.09284583 -0.037319846 -0.26415482 -0.11607373 -0.17850591
0.017955085 -0.4404193 -0.009374024 0.06454179 -0.1825875 -0.20971642 0.06308471 0.07664635
0.04431269 -0.6318405 0.126993 0.08426845 -0.1322834 0.058136005 -0.05975677 0.07511031
-0.3126674 -0.6706363 -0.31938797 0.08202828 -0.065812044 0.18034184 0.06526814 -1.0047208
-0.027442738 -0.139303 -0.32954937 0.053850673 -0.12235395 -0.25688258 0.10775535 0.32212922
0.11448792 0.15604603 -0.018133149 -0.1104005 -0.18306294 -0.25589147 -0.35897243 -0.038415205
-0.1930516 -0.20225525 -0.03708229 -0.13572477 -0.5091388 -0.07273346 0.30265123 0.006166617
-0.06517501 -0.4135762 0.08522344 -0.2910874 -0.0004776626 -0.39903876 -0.274322 0.13598609
-0.015977563 -0.17902783 0.028403727 -0.20302486 0.0025442666 -0.038057376 -0.09577418 -0.18333499
-0.2993908 -0.2779253 -0.05394486 0.057037164 -0.38401735 0.060181703 0.23375534 -0.23722999
-0.05904126 0.095680304 -0.22689074 0.020715173 0.06603209 0.07900148 0.08765468 -0.03223745
0.14069179 -0.1313701 -0.011477635 0.23735559 0.02668354 0.05814564 -0.11561418 0.06575244
0.35802615 0.09218024 -0.12563616 0.20157628 0.1312591 -0.10463102 -0.26996198 0.0347951
-0.20695417 0.015778948 -0.22715092 0.191095 -0.28757715 -0.050092492 -0.011798 -0.14458612
-0.24199788 0.042366985 -0.093140356 -0.13186608 -0.07153266 0.20328553 0.27574354 -0.04047088
0.28180322 0.18160419 -0.2761205 0.05365439 -0.08447713 0.07319154 -0.37840024 -0.31716284
00000000: 0f33 b5be 5d16 68be bd50 63be 81b0 babd
00000010: 5c6c 3d3d 550e b5be bef0 a53d 2e7c 1ebe
00000020: 7c82 a1be 95f4 3c3d 0cf1 c33e a91a 22be
00000030: 34f2 e0bd 65f3 813c 1e15 5fbe f0b0 973d
00000040: 10c9 c4bd 35c5 2fbe 950d 2c3e 93ea 9abe
00000050: e46d 32be ebec 6abe 0cb5 74be 912f 8a3d
00000060: 0c49 433e af61 50be 5414 d93d a1eb 06be
00000070: e92e e03d e485 1a3e a1ba a8be b739 2dbe
00000080: 3200 743e 3963 ff3e 5a09 febc 4c0a 0cbe
00000090: 415c 4e3d 4566 33bc 62cc 843e a0ce c0bc
000000a0: a149 4ebe 5fe5 1f3e 1620 e63d 55e9 123e
000000b0: 2440 fabd e53d 8a3d ef48 a53d f485 093e
000000c0: 879a debe fca4 d6be 7b6f 29be 1432 39be
000000d0: ac29 7bbe 58e6 cc3c 6444 663e 9079 cebc
000000e0: cb3f 673e 8d0a a63e 04b7 343e b534 dcbc
000000f0: 3035 cabe f38e 55be cf75 0dbd 7e64 b6be
00000100: 1dc8 acbe c355 7d3e 7b5a e43d 0364 d2bd
00000110: 21ac ebbd f507 a5bc ee8b 0b3e 046b 03be
00000120: f116 20be 3f56 723e 5906 6ebd a546 733c
00000130: f1ee f6bd 41eb 2e3e 3a1e 3abe c0e8 8bbe
00000140: 26f3 02be 5f79 7bbd 8341 fd3d f700 adbe
00000150: cc2e 95be 2e29 04be 2bc1 4abe 07c8 2dbd
00000160: 94a3 2a3e c426 44bc 4510 f8bc d156 08bb
00000170: 19cb fabd 9a46 1d3e 57b4 31be cd07 7abe
00000180: 6a9e 2abd e1ae 29be 3159 fdbd 621f ea3d
00000190: 575c 873d a31e b63d 3217 22bc 6d75 55be
000001a0: 9f28 193d 881a d2be fcf2 abbe 4160 8fbd
000001b0: f294 b9bb bb78 5c3d faac 473e c816 3c3e
000001c0: d536 f8bd 8757 2cbd 5d3c 01be 0ade 16bc
000001d0: 95ee 183d 54ee 46be 2291 edbd 7e26 5a3e
000001e0: 0008 0ebe 1245 7ebd 861f 063d 2c64 b1be
000001f0: c11a 21be e61e 433e 6ee1 abbd 331c eabd
00000200: 9115 733d 911e 6bbd dcdd a73d f425 be3d
00000210: b2dc 18bd 4d3f 87be 10b8 edbd 41ca 36be
00000220: 8b16 933c a37e e1be 8295 19bc 7c2e 843d
00000230: 38f8 3abe e7bf 56be 8e32 813d c3f8 9c3d
00000240: 3981 353d 4dc0 21bf 740a 023e f094 ac3d
00000250: 4d75 07be 0520 6e3d 84c3 74bd 6fd3 993d
00000260: f115 a0be d2ae 2bbf d286 a3be 71fe a73d
00000270: 77c8 86bd 88ab 383e 4dab 853d b19a 80bf
00000280: 98cf e0bc 72a5 0ebe b2ba a8be 8692 5c3d
00000290: b594 fabd 1d86 83be d6ae dc3d 1fee a43e
000002a0: a578 ea3d 88ca 1f3e f88b 94bc a819 e2bd
000002b0: da74 3bbe 3504 83be 3ccb b7be 4359 1dbd
000002c0: 52af 45be 001c 4fbe 99e3 17bd 6ffb 0abe
000002d0: ec56 02bf 48f5 94bd 1af5 9a3e 5511 ca3b
000002e0: 7a7a 85bd 42c0 d3be a089 ae3d 6809 95be
000002f0: ca6e fab9 cf4e ccbe ef73 8cbe f03f 0b3e
00000300: 61e3 82bc 1253 37be efae e83c c0e5 4fbe
00000310: b6bd 263b 0de2 1bbd 4125 c4bd 2bbc 3bbe
00000320: c049 99be 3a4c 8ebe 49f5 5cbd cd9f 693d
00000330: ec9d c4be 1781 763d 8f5d 6f3e 6bec 72be
00000340: 40d5 71bd 09f4 c33d 0c56 68be deb2 a93c
00000350: d53b 873d 87cb a13d 4c84 b33d 6b0b 04bd
00000360: 8211 103e e285 06be b10c 3cbc 580d 733e
00000370: 7097 da3c 1f2a 6e3d 21c7 ecbd 37a9 863d
00000380: 344f b73e fec8 bc3d c4a6 00be 036a 4e3e
00000390: c968 063e ca48 d6bd 7538 8abe 4f85 0e3d
000003a0: cbeb 53be da42 813c 409a 68be 68ae 433e
000003b0: 503d 93be c92d 4dbd 664c 41bc 620e 14be
000003c0: 4bce 77be 0189 2d3d 5fc0 bebd e707 07be
000003d0: b77f 92bd 152a 503e 422e 8d3e cbc4 25bd
000003e0: 8348 903e 73f6 393e ab5f 8dbe b5c4 5b3d
000003f0: 5802 adbd 72e5 953d adbd c1be 2b63 a2be

hidden_nets.1.bias f4 [64]
-0.057607643 0.06536426 0.1560152 -0.16990362 0.053920124 0.22388169 0.13474052 0.09743262
0.08866517 0.09355046 0.11411075 0.038443647 0.042669065 0.12039543 -0.003794204 0.07222977
0.064528376 0.07434082 0.111731716 0.0888726 0.0697923 0.10048445 0.07463004 0.09065932
0.10112446 0.09341778 0.15013482 0.12295357 0.13651869 0.060163096 0.091202274 0.12070404
0.2727967 0.14538504 0.05866125 -0.0021836052 0.05182164 0.11923388 0.08501032 0.14187987
0.040430937 0.15277322 0.060903434 0.20021151 0.0780572 0.11029101 0.084601395 0.04899309
-0.023584656 0.10356888 0.11313425 0.12914419 0.10999635 0.11671499 0.101918384 0.066149555
0.15072235 0.019793646 0.14621536 0.057454947 0.047142647 0.078297615 0.12975961 0.06403207
00000000: fef5 6bbd b2dd 853d 73c2 1f3e 37fb 2dbe
00000010: 59db 5c3d 3e41 653e 6bf9 093e c18a c73d
00000020: 1696 b53d 6297 bf3d e6b2 e93d 1677 1d3d
00000030: c2c5 2e3d e191 f63d 2ea8 78bb 34ed 933d
00000040: 7427 843d 0040 983d 99d3 e43d d602 b63d
00000050: 44ef 8e3d cbca cd3d a2d7 983d 98ab b93d
00000060: 571a cf3d d251 bf3d f1bc 193e 15cf fb3d
00000070: 8ecb 0b3e 946d 763d 42c8 ba3d ae33 f73d
00000080: 02ac 8b3e d1df 143e c746 703d d11a 0fbb
00000090: ee42 543d e430 f43d e419 ae3d f548 113e
000000a0: e99a 253d 9570 1c3e e175 793d 3f04 4d3e
000000b0: 74dc 9f3d 41e0 e13d 7f43 ad3d faac 483d
000000c0: 9c34 c1bc ec1b d43d eeb2 e73d 603e 043e
000000d0: c445 e13d 4508 ef3d 96ba d03d 6b79 873d
000000e0: f656 1a3e 4926 a23c 7bb9 153e e155 6b3d
000000f0: a618 413d 805a a03d b4df 043e 3f23 833d

hidden_nets.2.weight f4 [32, 64]
-0.06824868 -0.07607417 -0.15372448 -0.040821288 -0.17149408 -0.12855826 0.11008446 -0.086032726
0.10278039 0.043721467 -0.22095536 -0.24852672 0.09562176 -0.22410588 0.29208478 0.014223994
-0.05356479 -0.080156706 0.062190074 -0.07445859 -0.03935921 0.11265829 -0.13171381 -0.123604216
0.133348 0.04951816 0.17195782 -0.040438674 -0.31998715 -0.088436455 0.12344719 -0.009332464
-0.1133149 0.18032897 -0.30257446 -0.30350888 0.019773861 -0.153219 -0.09551221 0.06723498
-0.21750663 -0.04982721 -0.12581493 -0.06489008 -0.17075108 -0.08047983 0.28616548 -0.11123548
0.28579575 -0.18487579 -0.057473663 -0.22246297 0.08486383 0.20701203 -0.023906153 0.24012467
-0.17696501 -0.0974092 0.15499775 -0.22831151 0.12142869 0.14734781 0.045522276 -0.15137665
-0.2325045 0.11653325 0.07089848 -0.078401156 -0.05633972 -0.077770874 0.05024352 0.047270674
0.13419047 0.18478876 0.05723411 -0.034118783 0.010550656 -0.25332874 0.14847292 0.08012337
-0.11239498 0.11575471 -0.092456125 -0.13580643 -0.09861553 -0.04146233 -0.19376439 0.12926504
0.022661421 -0.15344696 -0.016032364 -0.10427333 -0.064586796 0.008695336 -0.054180954 -0.03368279
-0.2172957 0.21239509 -0.282302 -0.07571542 0.20083329 0.08137601 -0.15439178 0.2366929
-0.13446707 -0.22468588 0.19558617 -0.14479019 -0.012851102 0.10277126 0.12049101 -0.24532805
0.3492431 0.14258108 -0.08993377 0.012134908 -0.06468172 0.0040913387 0.16829802 0.14120536
-0.027890181 0.18790723 -0.121404156 -0.08624786 -0.100843064 0.17523439 -0.01684803 -0.15727329
0.0949369 0.40229127 -0.17768377 -0.05381463 -0.07244798 0.245138 -0.32021585 -0.31740183
-0.31508255 -0.2127342 -0.23253326 -0.12698343 -0.023015466 -0.039447095 -0.03828185 0.04211087
-0.4839784 -0.016533347 0.007161302 0.11945022 -0.32880378 -0.26907432 -0.18328302 0.121360466
-0.16424522 -0.12552044 0.013444063 -0.5801857 -0.05039346 -0.43553704 -0.13307807 -0.15981756
-0.32450458 -0.2474735 0.093167745 -0.12720464 -0.45312625 0.017587908 -0.38992187 -0.2637488
0.051516213 0.15103948 0.14580141 0.3392176 -0.22882968 0.13293378 -0.071253665 -0.027131462
0.016143952 -0.27256164 -0.034336247 -0.1931658 -0.18369095 0.24355948 -0.18311526 0.10725477
0.15483418 -0.3576967 -0.10536736 -0.10935111 -0.36740908 -0.2745162 0.036566075 0.021856233
-0.013018738 0.07625198 -0.052770633 -0.13434364 -0.3218346 0.023423059 0.23590827 0.023154564
0.15433738 -0.0923061 -0.17558685 -0.07601997 0.0127810575 0.14167157 0.106249705 0.16557395
0.20012 0.04865359 -0.10753888 0.121662006 0.05598925 -0.0720748 0.10876582 -0.076769605
-0.009318509 -0.08847233 0.08690478 0.19219573 -0.16144647 0.122331575 -0.16090493 -0.2038554
-0.11035412 0.060303356 0.006284674 -0.32241207 -0.08934803 0.09551903 0.11440567 0.09691353
-0.319718 -0.3032342 0.07361286 -0.035396375 -0.1830316 -0.079414666 -0.07746484 -0.2794505
0.16145648 -0.038586125 0.0133121405 -0.07350815 -0.12325441 0.08928724 0.07532165 -0.104519
0.09951883 0.015674353 0.16480702 -0.13119598 0.17440215 0.09027728 0.002879999 -0.081621386
00000000: f7c5 8bbd c6cc 9bbd f369 1dbe 3934 27bd
00000010: 259c 2fbe c7a4 03be f673 e13d ed31 b0bd
00000020: 867e d23d 4815 333d 1f42 62be ca7d 7ebe
00000030: 57d5 c33d 037c 65be 238c 953e c10b 693c
00000040: c166 5bbd 3329 a4bd 05bb 7e3d bf7d 98bd
00000050: 1f37 21bd 64b9 e63d fcdf 06be 3524 fdbd
00000060: 618c 083e 8ed3 4a3d b615 303e 06a3 25bd
00000070: 5bd5 a3be 2c1e b5bd e1d1 fc3d 31e7 18bc
00000080: a411 e8bd 28a8 383e 0aeb 9abe 8465 9bbe
00000090: cbfc a13c 71e5 1cbe e89b c3bd 7eb2 893d
000000a0: 0fba 5ebe 9e17 4cbd a1d5 00be 17e5 84bd
000000b0: 5fd9 2ebe 9cd2 a4bd 4884 923e 6dcf e3bd
000000c0: d253 923e 1450 3dbe 8169 6bbd 55cd 63be
000000d0: 16cd ad3d f6fa 533e d6d6 c3bc 3ee3 753e
000000e0: 5136 35be 7a7e c7bd bbb7 1e3e 7eca 69be
000000f0: 9baf f83d 58e2 163e 9175 3a3d 7b02 1bbe
00000100: a915 6ebe fca8 ee3d 3933 913d c990 a0bd
00000110: 7ac4 66bd 5646 9fbd 26cc 4d3d e59e 413d
00000120: 3a69 093e 4439 3d3e 506e 6a3d 23c0 0bbd
00000130: a9dc 2c3c 4eb4 81be 4909 183e b917 a43d
00000140: 572f e6bd ce10 ed3d a359 bdbd d710 0bbe
00000150: f0f6 c9bd 67d4 29bd 2c6a 46be 0e5e 043e
00000160: 72a4 b93c 3321 1dbe 4e56 83bc 418d d5bd
00000170: 1546 84bd e276 0e3c d9ec 5dbd f7f6 09bd
00000180: c482 5ebe 197e 593e e389 90be b010 9bbd
00000190: 3ea7 4d3e 77a8 a63d e118 1ebe a05f 723e
000001a0: bcb1 09be 0e14 66be be47 483e e143 14be
000001b0: 6e8d 52bc bd79 d23d fec3 f63d 4737 7bbe
000001c0: fecf b23e c600 123e 322f b8bd 7ed1 463c
000001d0: da77 84bd a310 863b 5156 2c3e 2398 103e
000001e0: f379 e4bc c16a 403e bea2 f8bd b8a2 b0bd
000001f0: cf86 cebd a570 333e e104 8abc 400c 21be
00000200: 476e c23d 1ff9 cd3e bcf2 35be bb6c 5cbd
00000210: 9b5f 94bd 7505 7b3e 55f3 a3be 7e82 a2be
00000220: 8052 a1be fed6 59be 331d 6ebe f207 02be
00000230: ee8a bcbc 4793 21bd 6ecd 1cbd 737c 2c3d
00000240: 04cc f7be f170 87bc 5ba9 ea3b 51a2 f43d
00000250: f858 a8be 1cc4 89be 8bae 3bbe d68b f83d
00000260: e62f 28be 6e88 00be 7d44 5c3c 0d87 14bf
00000270: 5f69 4ebd b6fe debe 9e45 08be 37a7 23be
00000280: 7725 a6be b169 7dbe bbce be3d ef41 02be
00000290: 2a00 e8be 8414 903c d7a3 c7be 150a 87be
000002a0: aa02 533d 18aa 1a3e f74c 153e eead ad3e
000002b0: 5452 6abe cb1f 083e 71ed 91bd cd42 debc
000002c0: 5240 843c 338d 8bbe 2aa4 0cbd 41cd 45be
000002d0: 7b19 3cbe a867 793e 9182 3bbe 64a8 db3d
000002e0: da8c 1e3e 0624 b7be d8ca d7bd 7af3 dfbd
000002f0: 0b1d bcbe 638d 8cbe 4fc6 153d d80b b33c
00000300: 8b4c 55bc 002a 9c3d 0526 58bd 6191 09be
00000310: 81c7 a4be b7e1 bf3c f091 713e a4ae bd3c
00000320: 9e0a 1e3e fb0a bdbd 0acd 33be 5cb0 9bbd
00000330: a467 513c 5a12 113e 7299 d93d 388c 293e
00000340: 42ec 4c3e fd48 473d 583d dcbd ee29 f93d
00000350: fc54 653d f49b 93bd 9dc0 de3d 6239 9dbd
00000360: a9ac 18bc fb30 b5bd 22fb b13d f5ce 443e
00000370: 3952 25be fa88 fa3d 43c4 24be 78bf 50be
00000380: 5701 e2bd a700 773d abef cd3b 3213 a5be
00000390: 1afc b6bd 7b9f c33d 854d ea3d 9a7a c63d
000003a0: 14b2 a3be 8341 9bbe 57c2 963d cafb 10bd
000003b0: a36c 3bbe 28a4 a2bd e3a5 9ebd 2314 8fbe
000003c0: d954 253e 7c0c 1ebd 2a1b 5a3c 718b 96bd
000003d0: cf6c fcbd 3adc b63d 3d42 9a3d 0f0e d6bd
000003e0: 87d0 cb3d 8067 803c 2cc3 283e 3d58 06be
000003f0: 7a96 323e 4be3 b83d 5ebe 3c3b 1d29 a7bd

hidden_nets.2.bias f4 [32]
1.2342238 1.2415149 0.02810481 1.2051055 1.2504463 1.1540787 1.3710068 -0.08675915
1.2830827 1.1794498 1.2347257 1.2466693 -0.110239446 -0.18841755 -0.14754346 0.5172326
0.39878666 1.2730143 1.2183592 0.019170005 1.3143233 0.6435756 1.3729479 1.2644488
1.1879154 -0.17048918 1.3023424 -0.14947246 -0.12788498 1.3911825 0.8325506 1.3323996
00000000: 0cfb 9d3f f6e9 9e3f 0f3c e63c e640 9a3f
00000010: a00e a03f dab8 933f 277d af3f c8ae b1bd
00000020: 0e3c a43f 36f8 963f 7e0b 9e3f dc92 9f3f
00000030: 38c5 e1bd 88f0 40be a215 17be 5b69 043f
00000040: c42d cc3e 22f2 a23f 32f3 9b3f 6a0a 9d3c
00000050: bf3b a83f 5fc1 243f c2bc af3f 75d9 a13f
00000060: 9d0d 983f b794 2ebe 28b3 a63f 4f0f 19be
00000070: 48f4 02be 4512 b23f 0922 553f 128c aa3f

value_stream.weight f4 [1, 32]
1.136597 1.0401614 -0.50637174 1.0664023 1.2326784 0.9265915 0.82908505 -0.34254578
1.0411155 0.8536683 1.016876 0.98302567 -0.15523049 -0.08639869 -0.2150364 0.83375525
0.85001564 0.93423736 0.99564 -0.4815766 0.99530756 0.75058585 0.81597555 1.001519
1.1818367 -0.25298205 0.8322762 -0.043283705 -0.13028039 0.79974866 0.744284 0.8861706
00000000: 037c 913f 0224 853f 94a1 01bf df7f 883f
00000010: 68c8 9d3f 1a35 6d3f eb3e 543f 2962 afbe
00000020: 4643 853f 018a 5a3f fe28 823f 92a7 7b3f
00000030: bef4 1ebe ccf1 b0bd 8132 5cbe fc70 553f
00000040: a09a 593f 2e2a 6f3f 43e2 7e3f 3591 f6be
00000050: 7acc 7e3f 6526 403f c6e3 503f c631 803f
00000060: 6d46 973f dd86 81be 0e10 553f 414a 31bd
00000070: 3968 05be 54bc 4c3f 6589 3e3f 14dc 623f

advantage_stream.weight f4 [5, 32]
0.01586028 0.16186945 0.3968463 0.0699248 -0.100315906 -0.045516964 0.008897056 0.16675287
-0.1580884 0.09745116 0.1591928 0.05421157 0.15904896 -0.2203454 0.09922555 0.0071995314
0.24402584 -0.047967736 0.083136246 0.21494153 0.23885414 0.034382306 0.002457985 -0.10176233
-0.020936918 -0.32048053 0.06262698 -0.4034768 -0.54887366 0.09324478 -0.034714878 -0.07783842
-0.047079246 0.074691266 -0.010018899 0.031505365 -0.21909149 -0.12477445 -0.07093197 0.29807287
-0.22430965 0.06739042 0.10455591 -0.016450658 0.2563278 -0.09419423 0.1440393 0.049130112
0.10514223 -0.11681869 0.044197734 0.27591622 0.17997184 0.109623015 -0.08724355 -0.16362777
-0.12365679 0.2680738 0.034275785 -0.26144683 -0.26873615 0.03215913 0.0007028645 -0.15457037
0.019458797 0.14323808 0.65723664 0.06285408 -0.15009716 -0.05791077 -0.02637088 -0.17117825
-0.15108927 0.091291025 0.1543091 0.09348696 0.28277895 0.0502075 0.16324411 0.013494802
0.43092006 -0.06809779 0.069622025 0.037868727 0.23924473 0.015703898 -0.011449036 -0.10147283
-0.019614145 0.16139998 0.050908573 0.23679543 0.39754847 0.08896126 -0.04083166 -0.12257614
-0.116170034 0.024181403 -0.2652912 -0.021713298 -0.29218987 -0.15581836 -0.07852692 -0.05745202
-0.2582692 0.040898666 0.103437506 -0.047577877 -0.2791444 0.25274238 0.33300516 0.09764383
0.079633705 -0.103859834 -0.017824179 -0.3521791 0.11153988 0.106425956 -0.09834945 -0.20653257
-0.13370493 0.5682413 -0.015589078 0.010919373 0.18262644 0.023277061 -0.032808833 -0.21114583
0.089783154 0.1904906 0.18069851 0.1235831 -0.062358223 0.015795564 0.04159749 -0.13833429
-0.10732377 0.17943268 0.21876238 0.14263347 0.357197 -0.019472886 -0.014262287 0.012039213
-0.14936894 0.030607387 0.12629807 0.2963497 0.28085348 0.07102163 0.012064492 -0.005060722
0.031254496 0.23263238 0.063401386 0.19768715 -0.18969432 0.13722731 0.026471319 -0.02489951
00000000: 6bed 813c 1bc1 253e 702f cb3e bc34 8f3d
00000010: 6d72 cdbd ff6f 3abd f5c4 113c 44c1 2a3e
00000020: ede1 21be 7994 c73d 7003 233e f40c 5e3d
00000030: bbdd 223e 39a2 61be c436 cb3d 0cea eb3b
00000040: e9e1 793e d179 44bd 5643 aa3d a219 5c3e
00000050: 2e96 743e 76d4 0c3d 2516 213b c568 d0bd
00000060: e683 abbc 0616 a4be 9342 803d 8394 cebe
00000070: fc82 0cbf 1ff7 be3d 3031 0ebd c069 9fbd
00000080: 2bd6 40bd bcf7 983d 4f26 24bc c50b 013d
00000090: 8559 60be bf89 ffbd c844 91bd 029d 983e
000000a0: 6eb1 65be fd03 8a3d 6921 d63d 88c3 86bc
000000b0: 663d 833e e8e8 c0bd 0a7f 133e a83c 493d
000000c0: cf54 d73d a33e efbd af08 353d e444 8d3e
000000d0: 8a4a 383e 0882 e03d bfac b2bd 0a8e 27be
000000e0: c53f fdbd f840 893e c464 0c3d 5cdc 85be
000000f0: c997 89be 4bb9 033d 7040 383a b247 1ebe
00000100: 0e68 9f3c 01ad 123e a940 283f a4b9 803d
00000110: 12b3 19be d833 6dbd be07 d8bc 5a49 2fbe
00000120: 25b7 1abe caf6 ba3d 3403 1e3e 1776 bf3d
00000130: 67c8 903e 61a6 4d3d 7729 273e 4d19 5d3c
00000140: 8ea1 dc3e db76 8bbd fe95 8e3d 3d1c 1b3d
00000150: 92fc 743e 76a5 803c bd94 3bbc fdd0 cfbd
00000160: d8ad a0bc 0946 253e 8285 503d 807a 723e
00000170: 798b cb3e 5231 b63d 193f 27bd 3309 fbbd
00000180: 8eea edbd 1418 c63c 40d4 87be 16e0 b1bc
00000190: e999 95be d98e 1fbe b9d2 a0bd cf52 6bbd
000001a0: dc3b 84be 5c85 273d 0bd7 d33d 05e1 42bd
000001b0: 04ec 8ebe 7367 813e a77f aa3e 7df9 c73d
000001c0: ff16 a33d 77b4 d4bd 0304 92bc d250 b4be
000001d0: 056f e43d daf5 d93d 706b c9bd 467d 53be
000001e0: f2e9 08be 4378 113f 5569 7fbc 2be7 323c
000001f0: 6d02 3b3e 89af be3c 8e62 06bd 9d36 58be
00000200: 3be0 b73d f80f 433e 0809 393e 2319 fd3d
00000210: 566b 7fbd b365 813c 2162 2a3d 81a7 0dbe
00000220: 91cc dbbd 33bd 373e 3f03 603e 820e 123e
00000230: 86e2 b63e 9a85 9fbc 5eac 69bc 1f40 453c
00000240: 2cf4 18be 58bc fa3c 4854 013e 26bb 973e
00000250: 07cc 8f3e ca73 913d 26aa 453c 6ad4 a5bb
00000260: b704 003d 2f37 6e3e 96d8 813d 806e 4a3e
00000270: 3a3f 42be 5185 0c3e 61da d83c 0ffa cbbc

advantage_stream.bias f4 [5]
-0.629528 0.7234773 -0.5277851 1.5572907 -1.7440579
00000000: bf28 21bf cf35 393f ed1c 07bf 4d55 c73f
00000010: 4a3d dfbf

hidden_nets.0.weight f4 [64, 11]
0.34595302 -0.008574876 0.18587098 0.0031043363 0.04730337 -0.019580603 0.0012366325 -0.30937937
-0.20300335 0.018195696 -0.07640416 -0.22349602 -0.08099955 -0.2913725 -0.27228716 -0.35786572
-0.069513075 -0.31985807 0.30039892 0.12241546 0.00091496325 0.043308284 -0.39226574 0.20615764
-0.2698723 -0.057593986 -0.21442232 0.08585083 -0.004803863 0.23414154 0.14546955 0.034156322
0.03223701 -0.19054663 -0.30603603 -0.19501731 -0.10910303 0.09844824 0.081920795 -0.067771
0.0011547953 0.06786503 0.09389743 -0.034689352 0.26084477 -0.21296094 -0.103997275 0.032266397
0.24653696 -0.0022474893 -0.039117236 -0.086123265 0.05442335 -0.068917654 -0.01816162 0.2933772
0.09352435 0.051241416 -0.09190651 0.12349429 0.14892437 -0.14609562 -0.46078435 -0.14087248
-0.0630863 -0.09116206 -0.14784451 0.15779473 -0.110216886 -0.0057062004 -0.26775354 -0.10890348
-0.26696357 0.1319184 0.26335108 -0.35933036 -0.09287245 -0.40549684 0.054247312 -0.02187239
-0.022400169 0.28555164 0.027520405 0.013030968 -0.09982899 0.0027920096 0.04782478 -0.024337057
-0.33789688 -0.19638205 0.15069507 -0.23595363 0.09966716 -0.11909357 0.20747043 -0.24781346
0.20003785 -0.11434473 0.12031922 -0.013385927 0.13171785 -0.2399706 0.16507022 -0.30405667
-0.016173664 0.10886782 -0.165499 0.01680857 0.044581316 -0.2596915 0.06255541 -0.0073562986
-0.4954772 -0.15191624 -0.17568912 -0.24354757 0.016507113 0.04947233 0.20489728 0.005376676
0.25351146 -0.14545627 -0.2776605 -0.156984 -0.20860514 0.038245562 0.14769413 -0.17553124
-0.2573474 0.15720151 -0.088694714 0.22313474 0.3624857 -0.3586278 0.09703794 -0.026778134
0.08476782 -0.15377071 -0.034608953 0.06867131 0.038357444 -0.09519134 0.009647298 -0.10020249
0.2321737 -0.23052529 -0.07172066 -0.25722218 -0.2328182 -0.061137736 -0.20619072 -0.19269213
-0.054990686 -0.14197353 -0.311783 -0.10448983 -0.34342358 0.1524144 -0.03582929 0.20008186
0.03025031 -0.15705353 -0.04941755 -0.18890977 0.098341815 0.31833455 0.010444157 -0.001018285
-0.074972376 -0.022315467 0.003999306 -0.004613937 -0.04722262 0.19971903 -0.0013719698 -4.6046738e-05
-0.34480798 0.0003514769 -0.05029152 -0.010053849 -0.16364038 -0.09616178 -0.09639815 0.3172366
0.116865866 -0.19247423 -0.24623601 -0.2393274 0.25155848 0.1838431 0.042379048 -0.5218287
0.10301699 0.060266707 0.059524626 -0.13227162 -0.07804199 -0.004031063 -0.17523137 0.054984763
-0.21533044 -0.048764993 -0.30250672 -0.007854664 -0.0031839523 0.11935993 -0.16905773 -0.03161844
-0.33325556 0.37740988 -0.27213287 0.18507384 0.04636273 0.12042674 0.018947188 0.0111306375
-0.21083641 -0.27521396 0.0980253 -0.008199091 0.06957755 -0.100391 -0.011316948 -0.031602435
0.22341476 -0.20645282 -0.06441883 -0.17469534 -0.16490468 -0.19871207 -0.027691457 0.2971821
0.010049541 0.017589763 -0.060142983 0.2385207 0.014064639 -0.012079244 -0.20774722 -0.21467154
-0.072659545 -0.03256246 -0.13130677 0.06263431 -0.009732444 -0.0136246225 0.19786692 -0.101376764
0.029071013 -0.1924351 0.098708026 0.039091296 0.007532016 0.477612 -0.11474732 0.058486063
00000000: c120 b13e a37d 0cbc f654 3e3e 1f72 4b3b
00000010: 2ec1 413d 8067 a0bc 8016 a23a f966 9ebe
00000020: 1ce0 4fbe 240f 953c c979 9cbd 24dc 64be
00000030: 18e3 a5bd c72e 95be 3969 8bbe 2d3a b7be
00000040: df5c 8ebd 70c4 a3be e3cd 993e f5b4 fa3d
00000050: 25da 6f3a 0764 313d 0ed7 c8be fd1a 533e
00000060: b42c 8abe ace7 6bbd 8691 5bbe 8fd2 af3d
00000070: b969 9dbb cdc2 6f3e f8f5 143e 80e7 0b3d
00000080: f40a 043d a81e 43be c1b0 9cbe 9eb2 47be
00000090: 6971 dfbd 3b9f c93d 17c6 a73d 86cb 8abd
000000a0: 805c 973a d2fc 8a3d 4c4d c03d 6c16 0ebd
000000b0: 728d 853e 6f12 5abe 86fc d4bd c529 043d
000000c0: 2f74 7c3e 9d4a 13bb 6539 20bd 6561 b0bd
000000d0: 05eb 5e3d b324 8dbd adc7 94bc 8935 963e
000000e0: b289 bf3d 85e2 513d 7b39 bcbd 93ea fc3d
000000f0: a17f 183e 179a 15be edeb ebbe e040 10be
00000100: 6433 81bd 2db3 babd 8d64 17be f194 213e
00000110: 64b9 e1bd 14fb babb fe16 89be ca08 dfbd
00000120: 73af 88be 9e15 073e f4d5 863e 26fa b7be
00000130: e933 bebd 489d cfbe 6e32 5e3d ba2d b3bc
00000140: 8f80 b7bc d333 923e 7972 e13c d77f 553c
00000150: 2473 ccbd 26fa 363b ebe3 433d 825e c7bc
00000160: d200 adbe 6018 49be cf4f 1a3e d49d 71be
00000170: 4c1e cc3d 54e7 f3bd 2173 543e d0c2 7dbe
00000180: b9d6 4c3e 922d eabd ec69 f63d a650 5bbc
00000190: 0be1 063e daba 75be 2b08 293e 51ad 9bbe
000001a0: a27e 84bc 17f6 de3d 9278 29be 20b2 893c
000001b0: e69a 363d 49f6 84be 0d1d 803d 1b0d f1bb
000001c0: 30af fdbe ee8f 1bbe d9e7 33be 8964 79be
000001d0: ed39 873c 7fa3 4a3d 98d0 513e d42e b03b
000001e0: 41cc 813e 7df2 14be 8429 8ebe 6ac0 20be
000001f0: 969c 55be 61a7 1c3d 213d 173e 76be 33be
00000200: 0ac3 83be 6ff9 203e 93a5 b5bd 6f7d 643e
00000210: ba97 b93e 109e b7be d4bb c63d d15d dbbc
00000220: c09a ad3d 1276 1dbe 1ec2 0dbd 8ba3 8c3d
00000230: b21c 1d3d adf3 c2bd b30f 1e3c f736 cdbd
00000240: f1be 6d3e d20e 6cbe 48e2 92bd a0b2 83be
00000250: e567 6ebe 906b 7abd a923 53be 1651 45be
00000260: ea3d 61bd 8261 11be 05a2 9fbe c4fe d5bd
00000270: 37d5 afbe 8512 1c3e bcc1 12bd 42e2 4c3e
00000280: 80cf f73c a4d2 20be 0f6a 4abd 9071 41be
00000290: 6f67 c93d bffc a23e f81d 2b3c fa77 85ba
000002a0: 1e8b 99bd edce b6bc 9c0c 833b 8230 97bb
000002b0: 826c 41bd 2583 4c3e abd3 b3ba 4f22 41b8
000002c0: ac8a b0be 6e46 b839 7bfe 4dbd e6b8 24bc
000002d0: 5891 27be 78f0 c4bd 656c c5bd d66c a23e
000002e0: 5f57 ef3d f717 45be 4b25 7cbe 3e12 75be
000002f0: 46cc 803e 5e41 3c3e a795 2d3d 9196 05bf
00000300: 92fa d23d 39da 763d 18d0 733d 3672 07be
00000310: 7bd4 9fbd 0217 84bb da6f 33be b437 613d
00000320: 957f 5cbe cdbd 47bd 29e2 9abe d9b0 00bc
00000330: dba9 50bb fb72 f43d 781d 2dbe 5682 01bd
00000340: 79a0 aabe de3b c13e 0055 8bbe ff83 3d3e
00000350: d9e6 3d3d 4ba2 f63d 2237 9b3c 475d 363c
00000360: 80e5 57be d8e8 8cbe 7dc1 c83d 7b55 06bc
00000370: ad7e 8e3d cc99 cdbd b86a 39bc 8e71 01bd
00000380: d7c6 643e 5e68 53be 05ee 83bd 56e3 32be
00000390: c6dc 28be 2d7b 4bbe 32d9 e2bc 4128 983e
000003a0: d4a6 243c 6818 903c 7d58 76bd c53e 743e
000003b0: 5f6f 663c 05e8 45bc b0bb 54be dbd2 5bbe
000003c0: 87ce 94bd 3760 05bd 4875 06be 6b46 803d
000003d0: d474 1fbc cf39 5fbc a09d 4a3e 9f9e cfbd
000003e0: 5526 ee3c b50d 45be 6f27 ca3d 321e 203d
000003f0: 21cf f63b 8f89 f43e a500 ebbd 158f 6f3d

hidden_nets.0.bias f4 [64]
-0.14919975 0.08297694 0.09546999 -0.14726622 -0.19909176 -0.18178354 0.031366818 -0.12811445
-0.08154952 0.035117164 -0.001784286 -0.050290707 -0.20599762 -0.019582134 -0.1303468 -0.2756496
0.09989799 0.039904393 0.051161412 -0.10267407 -0.12793726 -0.19871637 -0.15695387 -0.15777835
0.0921928 0.12675811 0.0140396375 -0.018162068 -0.11975976 0.088027544 -0.20731539 -0.004215332
-0.100153506 0.020875761 -0.019760706 -0.06077231 0.0 -0.13961907 -0.13088287 -0.13806903
-0.017896911 -0.25246802 -0.22971512 -0.11879692 -0.12725726 0.11308415 0.06657358 0.09907495
-0.15129116 0.09540906 -0.14358208 -0.23208106 0.13175684 -0.035551272 0.05523507 0.010193697
-0.007564501 0.039603252 -0.13528495 -0.13101123 -0.12209555 0.19065829 0.019422939 -0.05954561
00000000: d2c7 18be d0ef a93d c585 c33d f5cc 16be
00000010: b6de 4bbe 7725 3abe 7e7a 003d 6f30 03be
00000020: 6f03 a7bd 04d7 0f3d b4de e9ba a1fd 4dbd
00000030: 0af1 52be b66a a0bc a279 05be f221 8dbe
00000040: 5197 cc3d ca72 233d a18e 513d c846 d2bd
00000050: fc01 03be 4e7c 4bbe 84b8 20be a690 21be
00000060: 94cf bc3d e1cc 013e 8206 663c 9ec8 94bc
00000070: 9b44 f5bd c947 b43d 7c4a 54be c520 8abb
00000080: 481d cdbd a503 ab3c 34e1 a1bc 63ec 78bd
00000090: 0000 0000 4df8 0ebe 2906 06be f861 0dbe
000000a0: 8b9c 92bc 7d43 81be 713a 6bbe cd4b f3bd
000000b0: ba4f 02be aa98 e73d bb57 883d cfe7 ca3d
000000c0: 12ec 1abe d365 c33d 2e07 13be a8a6 6dbe
000000d0: 44eb 063e 369e 11bd 2b3e 623d 7703 273c
000000e0: a2df f7bb 0537 223d 2388 0abe cf27 06be
000000f0: 3b0d fabd ed3b 433e db1c 9f3c 19e6 73bd

hidden_nets.1.weight f4 [64, 64]
-0.35472903 -0.22401692 -0.22339495 -0.09115697 0.04624817 -0.35122767 0.08544087 -0.15477058
-0.31544864 0.04226673 0.36983836 -0.15830483 -0.109836966 0.01586313 -0.217854 0.07406795
-0.10282028 -0.17443343 0.16563083 -0.30241704 -0.17424732 -0.22696263 -0.23897189 0.06799546
0.19026098 -0.20422566 0.10501896 -0.13284439 0.109464474 0.15232022 -0.32954887 -0.16729389
0.238282 0.4926298 -0.03152379 -0.13675803 0.05038095 -0.010949676 0.25937182 -0.023535987
-0.22291888 0.15393914 0.10970155 0.14461452 -0.12219265 0.06340443 0.075860426 0.13378936
-0.4347727 -0.42058632 -0.16546358 -0.1808551 -0.25092706 0.02501218 0.22487026 -0.022375427
0.22582929 0.31965524 0.1764794 -0.02549983 -0.39493704 -0.20851801 -0.040219545 -0.35623544
-0.3257624 0.24115485 0.11198991 -0.10272982 -0.114476815 -0.018963205 0.13085353 -0.12353489
-0.15633751 0.23455782 -0.060116068 0.014848386 -0.12057293 0.1708193 -0.18175593 -0.27326012
-0.13153179 -0.06449168 0.12126948 -0.33228868 -0.29137266 -0.12786599 -0.1980025 -0.041086007
0.17095044 -0.013266189 -0.032900997 -0.0064406954 -0.12245769 0.15541391 -0.16661829 -0.24225286
-0.04165498 -0.17135976 -0.12120427 0.11431767 0.06609409 0.08892562 -0.011274667 -0.20481977
0.05087941 -0.4031474 -0.3347142 -0.06525147 -0.0056635076 0.053600848 0.19330636 0.18554172
-0.11873312 -0.04611527 -0.12611677 -0.006745525 0.03348286 -0.19426852 -0.115001 0.2149953
-0.13730459 -0.06544376 0.032744907 -0.34772384 -0.15592699 0.1917846 -0.08619149 -0.1143116
0.056989543 -0.05676682 0.0751658 0.09284583 -0.03683022 -0.26191863 -0.112924166 -0.17552023
0.017955085 -0.4455047 0.004080721 0.06454179 -0.18157789 -0.20971642 0.06308471 0.07664635
0.0456518 -0.62605107 0.12574247 0.08654825 -0.1322834 0.05929666 -0.05975677 0.07866931
-0.3143836 -0.6609063 -0.3203578 0.08376262 -0.065812044 0.17677137 0.06335482 -0.99588835
-0.027442738 -0.14609423 -0.32954937 0.053850673 -0.12235395 -0.25688258 0.10750714 0.32212922
0.10899753 0.16162556 -0.020313824 -0.11256291 -0.18306294 -0.25543156 -0.3607853 -0.038696524
-0.1893327 -0.20201083 -0.03577124 -0.1353261 -0.5080808 -0.07273346 0.30265123 0.006264874
-0.06517501 -0.41921332 0.08522344 -0.29135588 -0.0014590494 -0.40001437 -0.27947682 0.13598609
-0.015977563 -0.17902783 0.028403727 -0.20302486 0.0025442666 -0.038057376 -0.09577418 -0.18333499
-0.2993908 -0.2779253 -0.05394486 0.057037164 -0.38401735 0.060181703 0.23375534 -0.23722999
-0.05904126 0.095680304 -0.22689074 0.020715173 0.06603209 0.07900148 0.08765468 -0.03223745
0.14069179 -0.1313701 -0.011477635 0.23735559 0.02668354 0.05814564 -0.11561418 0.06575244
0.35802615 0.09218024 -0.12563616 0.20157628 0.1312591 -0.10463102 -0.26996198 0.0347951
-0.20695417 0.015778948 -0.22715092 0.191095 -0.28757715 -0.050092492 -0.011798 -0.14458612
-0.24199788 0.042366985 -0.093140356 -0.13186608 -0.07153266 0.20328553 0.27574354 -0.04047088
0.28180322 0.18160419 -0.2761205 0.05365439 -0.08447713 0.07319154 -0.37840024 -0.31716284
00000000: 0b9f b5be b164 65be a5c1 64be 81b0 babd
00000010: b96e 3d3d 1dd4 b3be 9ffb ae3d 2e7c 1ebe
00000020: 7c82 a1be e11f 2d3d 745b bd3e a91a 22be
00000030: 34f2 e0bd 65f3 813c 1e15 5fbe f0b0 973d
00000040: 7093 d2bd ad9e 32be 219b 293e 68d6 9abe
00000050: e46d 32be e468 68be 0cb5 74be 3441 8b3d
00000060: c6d3 423e 8820 51be 2e14 d73d 5c08 08be
00000070: e92e e03d d5f9 1b3e a1ba a8be 174f 2bbe
00000080: 3200 743e f939 fc3e 171f 01bd 4c0a 0cbe
00000090: 415c 4e3d 4566 33bc 62cc 843e 8bce c0bc
000000a0: d944 64be 39a2 1d3e 35ab e03d d415 143e
000000b0: 2440 fabd 2fda 813d b65c 9b3d 1400 093e
000000c0: 879a debe 1757 d7be 496f 29be 1432 39be
000000d0: 8379 80be 58e6 cc3c 6444 663e ac4c b7bc
000000e0: cb3f 673e daa9 a33e 04b7 343e 05e5 d0bc
000000f0: 3035 cabe bf85 55be 40bd 24bd 7e64 b6be
00000100: 54ca a6be 4cf1 763e f75a e53d 0364 d2bd
00000110: d272 eabd b958 9bbc 78fe 053e dcff fcbd
00000120: f116 20be ed2f 703e 443c 76bd a546 733c
00000130: f1ee f6bd 41eb 2e3e 3a1e 3abe c0e8 8bbe
00000140: 45b0 06be 3714 84bd 225c f83d be21 aabe
00000150: cc2e 95be 4def 02be 2bc1 4abe cd49 28bd
00000160: a20d 2f3e 6e5a 59bc 32c3 06bd 780c d3bb
00000170: 19cb fabd d324 1f3e fc9d 2abe 2211 78be
00000180: 6a9e 2abd ef78 2fbe f239 f8bd 621f ea3d
00000190: 575c 873d a31e b63d 62b9 38bc 46bc 51be
000001a0: ee66 503d 5669 cebe a95f abbe 90a2 85bd
000001b0: f294 b9bb 908c 5b3d 1af2 453e a6fe 3d3e
000001c0: 5a2a f3bd 5ee3 3cbd c124 01be 9109 ddbb
000001d0: 5325 093d 54ee 46be a585 ebbd ba27 5c3e
000001e0: 9399 0cbe 6107 86bd 861f 063d dc08 b2be
000001f0: 53ab 1fbe 2f63 443e 2a85 b0bd 331c eabd
00000200: de6d 693d 5384 68bd 87f0 993d f425 be3d
00000210: 49db 16bd 331a 86be c944 e7bd 93bb 33be
00000220: 8b16 933c 3119 e4be 92b7 853b 7c2e 843d
00000230: 8eef 39be e7bf 56be 8e32 813d c3f8 9c3d
00000240: 62fd 3a3d e244 20bf a2c2 003e 3540 b13d
00000250: 4d75 07be 0ee1 723d 84c3 74bd 601d a13d
00000260: e3f6 a0be 2831 29bf f005 a4be bd8b ab3d
00000270: 77c8 86bd 8e03 353e 2cc0 813d 8af2 7ebf
00000280: 98cf e0bc ba99 15be b2ba a8be 8692 5c3d
00000290: b594 fabd 1d86 83be b42c dc3d 1fee a43e
000002a0: 193a df3d 2c81 253e 2d69 a6bc 6287 e6bd
000002b0: da74 3bbe edc7 82be dab8 b8be 3f80 1ebd
000002c0: 6ee0 41be eddb 4ebe dd84 12bd ed92 0abe
000002d0: 9511 02bf 48f5 94bd 1af5 9a3e 9249 cd3b
000002e0: 7a7a 85bd 21a3 d6be a089 ae3d 992c 95be
000002f0: 933d bfba afce ccbe 9617 8fbe f03f 0b3e
00000300: 61e3 82bc 1253 37be efae e83c c0e5 4fbe
00000310: b6bd 263b 0de2 1bbd 4125 c4bd 2bbc 3bbe
00000320: c049 99be 3a4c 8ebe 49f5 5cbd cd9f 693d
00000330: ec9d c4be 1781 763d 8f5d 6f3e 6bec 72be
00000340: 40d5 71bd 09f4 c33d 0c56 68be deb2 a93c
00000350: d53b 873d 87cb a13d 4c84 b33d 6b0b 04bd
00000360: 8211 103e e285 06be b10c 3cbc 580d 733e
00000370: 7097 da3c 1f2a 6e3d 21c7 ecbd 37a9 863d
00000380: 344f b73e fec8 bc3d c4a6 00be 036a 4e3e
00000390: c968 063e ca48 d6bd 7538 8abe 4f85 0e3d
000003a0: cbeb 53be da42 813c 409a 68be 68ae 433e
000003b0: 503d 93be c92d 4dbd 664c 41bc 620e 14be
000003c0: 4bce 77be 0189 2d3d 5fc0 bebd e707 07be
000003d0: b77f 92bd 152a 503e 422e 8d3e cbc4 25bd
000003e0: 8348 903e 73f6 393e ab5f 8dbe b5c4 5b3d
000003f0: 5802 adbd 72e5 953d adbd c1be 2b63 a2be

hidden_nets.1.bias f4 [64]
-0.060852423 0.06336532 0.15796435 -0.16990362 0.053149406 0.220794 0.13524476 0.095325
0.08326041 0.092755005 0.116689384 0.036707982 0.0440403 0.11383933 -0.0041222717 0.07523916
0.06085757 0.0749689 0.1153239 0.092686415 0.066590086 0.09472563 0.0741834 0.09296098
0.10001418 0.09277115 0.15202704 0.1256899 0.13127854 0.059026785 0.08941646 0.124123484
0.2695177 0.15276247 0.05252047 -0.0058381604 0.04998042 0.11690479 0.085352644 0.14171718
0.042557005 0.15634736 0.06462357 0.19088165 0.0783577 0.10726021 0.08569142 0.044245016
-0.020964619 0.10267052 0.115756944 0.12975727 0.108399205 0.117710695 0.10079385 0.06366922
0.14343135 0.019717077 0.14588001 0.055025183 0.04752264 0.07857943 0.13210529 0.06827892
00000000: 6440 79bd adc5 813d 68c1 213e 37fb 2dbe
00000010: 31b3 593d d317 623e 9a7d 0a3e c139 c33d
00000020: 6f84 aa3d 56f6 bd3d d8fa ee3d 1c5b 163d
00000030: 9a63 343d 9824 e93d 1f14 87bb fd16 9a3d
00000040: ca45 793d 4b89 993d f02e ec3d 60d2 bd3d
00000050: 6260 883d 83ff c13d 77ed 973d 5462 be3d
00000060: 3cd4 cc3d cdfe bd3d faac 1b3e dab4 003e
00000070: e26d 063e 12c6 713d fa1f b73d 7434 fe3d
00000080: 39fe 893e c46d 1c3e b41f 573d 0a4e bfbb
00000090: 45b8 4c3d c76b ef3d 5ecd ae3d 4f1e 113e
000000a0: 4150 2e3d 8619 203e 5d59 843d 7b76 433e
000000b0: 007a a03d 3eab db3d fc7e af3d 433a 353d
000000c0: febd abbc ec44 d23d fa11 ed3d 17df 043e
000000d0: 6700 de3d 4e12 f13d 026d ce3d 0265 823d
000000e0: abdf 123e b585 a13c 9261 153e 1662 613d
000000f0: 1aa7 423d 41ee a03d 9c46 073e d2d5 8b3d

hidden_nets.2.weight f4 [32, 64]
-0.064013384 -0.07620959 -0.14813976 -0.040821288 -0.17115602 -0.12937218 0.11236172 -0.08545958
0.101636045 0.041777622 -0.22517866 -0.24299058 0.09526763 -0.2251017 0.28919935 0.015216431
-0.053337507 -0.07785456 0.0656973 -0.07528303 -0.039946176 0.111992 -0.12913413 -0.12229847
0.13245858 0.04752517 0.17276625 -0.037281845 -0.32462826 -0.08802933 0.12496693 -0.0056863017
-0.11431205 0.18540752 -0.31014755 -0.29901442 0.022070335 -0.15498005 -0.0962018 0.07123
-0.21879913 -0.05007208 -0.12530841 -0.066009276 -0.16831665 -0.08115912 0.28551263 -0.11286171
0.28045532 -0.18662107 -0.057090007 -0.21902312 0.0846147 0.2123351 -0.019780297 0.2361517
-0.18137088 -0.09772385 0.15579066 -0.22928517 0.12163769 0.15035242 0.047542993 -0.14877436
-0.23029828 0.11761177 0.074332975 -0.078401156 -0.055487026 -0.07695814 0.050133985 0.045066394
0.13058592 0.18148206 0.056320623 -0.02854185 0.008944337 -0.2555029 0.14542471 0.079701565
-0.11268221 0.118285045 -0.091265164 -0.13812408 -0.0987959 -0.04355325 -0.18962803 0.12774701
0.020063065 -0.15563175 -0.016133225 -0.10363624 -0.06632089 0.0082426295 -0.053236574 -0.030661091
-0.21728952 0.21548928 -0.28611997 -0.0676735 0.2002965 0.077360176 -0.15696411 0.23764624
-0.13190347 -0.22239102 0.1963367 -0.14689961 -0.010102583 0.10013182 0.11973096 -0.24781074
0.3471387 0.1422412 -0.09248046 0.011119385 -0.0660003 0.007071875 0.16793072 0.13632001
-0.033110633 0.18639155 -0.12227356 -0.08450283 -0.10258594 0.17762835 -0.017155953 -0.15578522
0.08780186 0.3985116 -0.17623553 -0.05381463 -0.07352618 0.23766854 -0.32127392 -0.3227977
-0.31248987 -0.21727772 -0.23904034 -0.1304519 -0.026183935 -0.049621034 -0.03828185 0.03699882
-0.48223144 -0.013471399 0.008420348 0.12987259 -0.3373551 -0.2703227 -0.1848302 0.11958639
-0.16424522 -0.12872078 0.012872049 -0.5738605 -0.05702406 -0.43750888 -0.1344568 -0.16326505
-0.32776877 -0.22969964 0.09162958 -0.13002211 -0.45973033 0.020988839 -0.3898351 -0.26277262
0.0451642 0.14642094 0.14580141 0.33140597 -0.22777592 0.1294691 -0.071253665 -0.031090455
0.015852327 -0.27498198 -0.026289992 -0.19392857 -0.19316253 0.23811768 -0.18980537 0.10725477
0.14796531 -0.35661548 -0.095710814 -0.11490477 -0.36722812 -0.2756373 0.041542403 0.021860998
-0.009877489 0.07775017 -0.05209061 -0.13434364 -0.32049876 0.02222321 0.23354743 0.019091804
0.14962332 -0.09554559 -0.17800495 -0.06859457 0.010443531 0.13865708 0.10477543 0.1637704
0.19751488 0.047916252 -0.10847642 0.12083458 0.055275474 -0.075915724 0.112039976 -0.076687254
-0.01289133 -0.09228263 0.08425895 0.19339715 -0.16560078 0.12025963 -0.16255814 -0.20216297
-0.11050751 0.06310095 -0.0004322083 -0.31535298 -0.09208373 0.09088113 0.11123508 0.09600025
-0.31840295 -0.30331868 0.07131152 -0.03796624 -0.1823822 -0.083672196 -0.080574505 -0.28035027
0.15525126 -0.041192606 0.010000878 -0.075327344 -0.12504032 0.08897851 0.07475416 -0.110383935
0.09331223 0.013571376 0.16339204 -0.12841743 0.17276546 0.09047042 0.0023452388 -0.08181697
00000000: 7319 83bd c613 9cbd f3b1 17be 3934 27bd
00000010: 8643 2fbe 247a 04be e71d e63d 6f05 afbd
00000020: 8f26 d03d 031f 2b3d 3c95 66be 86d2 78be
00000030: ad1b c33d 0f81 66be f011 943e 564e 793c
00000040: 6e78 5abd 3672 9fbd 4e8c 863d fd2d 9abd
00000050: 9a9e 23bd 105c e53d bd3b 04be 9f77 fabd
00000060: 39a3 073e c1a9 423d a3e9 303e d9b4 18bd
00000070: ad35 a6be b948 b4bd a9ee ff3d 2854 babb
00000080: 701c eabd 78db 3d3e a9cb 9ebe 6b18 99be
00000090: d9cc b43c 17b3 1ebe 7305 c5bd 09e1 913d
000000a0: e10c 60be 6218 4dbd d950 00be df2f 87bd
000000b0: 335b 2cbe c136 a6bd b62e 923e 0a24 e7bd
000000c0: d797 8f3e 9819 3fbe 36d7 69bd 9947 60be
000000d0: 794a ad3d 5f6e 593e 4a0a a2bc c0d1 713e
000000e0: 4ab9 39be 7123 c8bd 9687 1f3e bbc9 6abe
000000f0: 2e1d f93d fcf5 193e 71bc 423d 4e58 18be
00000100: 50d3 6bbe 71de f03d e33b 983d c990 a0bd
00000110: 5d46 63bd 3b9c 9dbd 4b59 4d3d 8a97 383d
00000120: 51b8 053e 6fd6 393e 74b0 663d 99d0 e9bc
00000130: 458b 123c 47d1 82be 37ea 143e 933a a33d
00000140: eec5 e6bd 6e3f f23d 3be9 babd 6670 0dbe
00000150: 8155 cabd e564 32bd da2d 42be 1dd0 023e
00000160: 4c5b a43c ee5d 1fbe d329 84bc 3d3f d4bd
00000170: 3fd3 87bd 180c 073c 980e 5abd f82c fbbc
00000180: 2581 5ebe 39a9 5c3e 517e 92be 6798 8abd
00000190: 871a 4d3e 036f 9e3d 33bb 20be 8959 733e
000001a0: b411 07be 79ba 63be 7d0c 493e da6c 16be
000001b0: 4e85 25bc e911 cd3d 8135 f53d 19c2 7dbe
000001c0: 2abc b13e ada7 113e 6566 bdbd 152e 363c
000001d0: 2a2b 87bd 30bb e73b 08f6 2b3e 7997 0b3e
000001e0: 049f 07bd 6ddd 3e3e 8f6a fabd d20f adbd
000001f0: 9418 d2bd 35e4 353e a48a 8cbc 2986 1fbe
00000200: 76d1 b33d b609 cc3e 1677 34be bb6c 5cbd
00000210: e594 96bd 625f 733e 047e a4be bd45 a5be
00000220: acfe 9fbe 0d7e 5ebe fec6 74be 2f95 05be
00000230: b17f d6bc 6d3f 4bbd 6ecd 1cbd 138c 173d
00000240: 0ae7 f6be 25b7 5cbc 80f5 093c 52fd 043e
00000250: cfb9 acbe bd67 8abe 2144 3dbe b6e9 f43d
00000260: e62f 28be 61cf 03be 49e5 523c 86e8 12bf
00000270: 1092 69bd 2a01 e0be 0baf 09be f42e 27be
00000280: 4fd1 a7be 6236 6bbe 4aa8 bb3d 8424 05be
00000290: c661 ebbe c9f0 ab3c 7798 c7be 228a 86be
000002a0: 19fe 383d 5fef 153e f74c 153e 0bae a93e
000002b0: 173e 69be 8c93 043e 71ed 91bd 69b1 febc
000002c0: bddc 813c 70ca 8cbe 1c5e d7bc 3695 46be
000002d0: 66cc 45be 1fd5 733e 575c 42be 64a8 db3d
000002e0: 3884 173e 4e96 b6be 0804 c4bd 3153 ebbd
000002f0: 5305 bcbe 5520 8dbe 5e28 2a3d d615 b33c
00000300: 31d5 21bc 7b3b 9f3d f75c 55bd 6191 09be
00000310: 6a18 a4be 730d b63c 0f27 6f3e 6a66 9c3c
00000320: db36 193e 68ad c3bd ee46 36be 4f7b 8cbd
00000330: 581b 2b3c 1ffc 0d3e 8094 d63d 6eb3 273e
00000340: 5741 4a3e d543 443d e328 debd 1f78 f73d
00000350: 8968 623d b479 9bbd 3775 e53d 350e 9dbd
00000360: 2836 53bc adfe bcbd f58f ac3d e709 463e
00000370: 4093 29be ae4a f63d a475 26be cf03 4fbe
00000380: c351 e2bd 123b 813d 049a e2b9 f275 a1be
00000390: 6596 bcbd e31f ba3d 38cf e33d c79b c43d
000003a0: b605 a3be 964c 9bbe c60b 923d 7d82 1bbd
000003b0: 66c2 3abe 545c abbd 3f04 a5bd 128a 8fbe
000003c0: 30fa 1e3e 94b9 28bd b9da 233c 3945 9abd
000003d0: 920a 00be 5d3a b63d b618 993d f910 e2bd
000003e0: 7c1a bf3d 7a5a 5e3c 3e50 273e dc7f 03be
000003f0: 6ee9 303e 8e48 b93d 94b2 193b a88f a7bd

hidden_nets.2.bias f4 [32]
1.2343962 1.241984 0.019824838 1.2037784 1.2524109 1.1539899 1.3728282 -0.07774297
1.2803751 1.1772069 1.2395039 1.2476864 -0.110239446 -0.18841755 -0.14754346 0.516359
0.39139158 1.2712406 1.2153033 0.018481327 1.313107 0.6492722 1.3712347 1.2657515
1.1891133 -0.17048918 1.3050628 -0.14947246 -0.12788498 1.3931309 0.83044565 1.3338362
00000000: b200 9e3f 55f9 9e3f b367 a23c 6915 9a3f
00000010: 004f a03f f1b5 933f d6b8 af3f b537 9fbd
00000020: 55e3 a33f b7ae 963f 10a8 9e3f 30b4 9f3f
00000030: 38c5 e1bd 88f0 40be a215 17be 1a30 043f
00000040: 7a64 c83e 03b8 a23f 0f8f 9b3f 2766 973c
00000050: e413 a83f b436 263f 9e84 af3f 2504 a23f
00000060: dd34 983f b794 2ebe 4c0c a73f 4f0f 19be
00000070: 48f4 02be 1d52 b23f 1698 543f 25bb aa3f
