phase4_part3/seed_101/dqn_racing_final.pth (torch, 453253 bytes, 36 tensors)

hidden_nets.0.weight f4 [128, 11]
0	0x3c22368f	0.009900703
1	0xbdbf0f77	-0.093291216
2	0xbca9c922	-0.02072579
3	0x3d684279	0.05670402
4	0xbe4fc1cd	-0.20288773
5	0x3e01f886	0.1269246
6	0xbdc7cda6	-0.09756021
7	0x3dcd2ff4	0.10018912
8	0xbe0a7edb	-0.13524954
9	0xbe4abca1	-0.19798519
10	0x3dd76277	0.105168276
11	0x3df3ce7f	0.119046204
12	0xbe3c9413	-0.18415861
13	0xbe3d9356	-0.18513235
14	0xbe16c62b	-0.14724033
15	0xbe018fd8	-0.12652528
16	0x3e2b3df4	0.16722852
17	0x3e82c16d	0.25538197
18	0xbd904c52	-0.07045807
19	0x3ce31809	0.027721422
20	0xbbc66e97	-0.006055664
21	0xbe3ae559	-0.18251552
22	0x3d9bc642	0.07606174
23	0x3e38df24	0.18053871
24	0x3de090a7	0.1096509
25	0x3d915a81	0.070973404
26	0xbeabc94a	-0.3355201
27	0x3d17a382	0.037021168
28	0xbcde759a	-0.027155686
29	0xbdbccea5	-0.09219102
30	0xbdf21f21	-0.118223436
31	0x3c61a0da	0.01377126
32	0xbc7004ad	-0.014649552
33	0xbe347a9d	-0.17624898
34	0xbe246fbb	-0.16058247
35	0x3dad57c9	0.08464009
36	0x3e3b4e02	0.18291476
37	0xbe32edbf	-0.17473505
38	0xbe05deb0	-0.1307323
39	0xbe24364b	-0.16036336
40	0xbe33773e	-0.17525956
41	0xbe1926dc	-0.1495623
42	0xbe1015a6	-0.14070758
43	0xbb85a0f0	-0.004078023
44	0xbe20d51f	-0.15706299
45	0xbe11df2d	-0.14245291
46	0xbcbf6e4c	-0.023368023
47	0x3cc45cda	0.023970056
48	0xbd4dc944	-0.05024077
49	0xbe120c4d	-0.14262505
50	0x3cb0ed38	0.02159749
51	0x3d565537	0.05232736
52	0xbdb9c086	-0.09069924
53	0x3e1d308b	0.15350549
54	0xbd39a85d	-0.04532658
55	0xbe4052f8	-0.1878165
56	0xbe6cf0af	-0.23138689
57	0xbe1ba0e2	-0.1519809
58	0x3baca124	0.005268233
59	0x3cf41270	0.029793948
60	0x3d820060	0.06347728
61	0x3e08c798	0.13357389
62	0xbd4e4401	-0.050357822
63	0x3e0878eb	0.13327377
64	0x3dadcfb5	0.084868826
65	0xbd79b25f	-0.060961124
66	0xbe9590eb	-0.29212126
67	0x3d81fb5b	0.063467704
68	0xbda0379f	-0.07823109
69	0x3e666238	0.22498405
70	0xbe86fbb4	-0.2636391
71	0x3d8e899e	0.06959842
72	0x3cc47fa1	0.02398664
73	0x3c5ac5a5	0.013352786
74	0xbdae6513	-0.08515372
75	0x3ca967ae	0.020679321
76	0x3c2c39b3	0.010511803
77	0xbd1dcbc9	-0.038524423
78	0x3e19d565	0.1502281
79	0xbe1dcd84	-0.15410429
80	0xbc6942a7	-0.014237083
81	0xbe852897	-0.2600753
82	0xbe7f275c	-0.24917358
83	0xbe5254ef	-0.20540212
84	0x3e01a1f4	0.12659436
85	0x3e112a1b	0.14176218
86	0xbde5c36c	-0.112189144
87	0x3c5653fb	0.013081546
88	0x3e4b1a0b	0.19834153
89	0x3d647f29	0.055785332
90	0x3ab75b60	0.0013989024
91	0xbac77dc2	-0.0015219974
92	0xbeb3536f	-0.35024592
93	0x3ccdcaf1	0.025121184
94	0x3b60f212	0.0034323973
95	0x3e34ad98	0.17644346
96	0x3dbe3328	0.09287101
97	0xbcca3270	-0.024682254
98	0xbc0f3cde	-0.008742539
99	0x3e8114ca	0.25211173
100	0xbcb50dba	-0.022101272
101	0x3d4082c0	0.046999693
102	0x3d94d155	0.072664894
103	0x3ddb5a77	0.10710614
104	0x38434662	4.6557172e-05
105	0x3cb06dd0	0.021536738
106	0xbe62b5f4	-0.22139722
107	0x3e215d12	0.1575816
108	0xbd51cb9f	-0.05121958
109	0x3a9f761f	0.001216594
110	0x3e735a5f	0.23764943
111	0xbe36608b	-0.17810266
112	0xbc4156a4	-0.011800442
113	0xbd752007	-0.059844997
114	0x3dfd5932	0.12370528
115	0x3daed6c4	0.08537057
116	0xbc5f1d8c	-0.013617884
117	0x3d776258	0.060396522
118	0xbe49de93	-0.19713812
119	0xbe171d13	-0.14757185
120	0x3cc9476a	0.024570186
121	0x3d1ed437	0.038776603
122	0xbe38058c	-0.17970866
123	0x3d5e93a1	0.05434001
124	0x3e03b25e	0.1286101
125	0xbe67ce17	-0.22637211
126	0xbe0c63c0	-0.13709927
127	0xbc32c623	-0.010911497
128	0x3cad406b	0.021148881
129	0x3e138abc	0.14408392
130	0x3e1ab059	0.15106334
131	0x3ddec6d4	0.10877767
132	0xbdc3ce65	-0.09560851
133	0xbe4564de	-0.19276759
134	0xbd920e76	-0.071316645
135	0xbe157e50	-0.14598966
136	0xbbe409ce	-0.0069591766
137	0xbe64f100	-0.22357559
138	0x3e28f821	0.16500904
139	0xbc8d3fc7	-0.017242325
140	0x3d95646e	0.07294546
141	0x3d7a9c38	0.061184138
142	0x3c059974	0.008154262
143	0xbd927876	-0.07151882
144	0x3e1ccb34	0.15311891
145	0x3e202e4a	0.15642658
146	0xbe35f9c2	-0.17771056
147	0xbea6c0ab	-0.3256887
148	0xbdba0dc7	-0.09084659
149	0x3db0a275	0.08624736
150	0x3df70d02	0.12063028
151	0x3e194f1a	0.14971581
152	0xbda66c9f	-0.081261866
153	0xbd424962	-0.047433265
154	0x3e23924a	0.15973774
155	0xbd26a9fd	-0.040689457
156	0xbe1087c7	-0.14114295
157	0x3da4b8ac	0.08043036
158	0x3e0ba0b3	0.1363552
159	0xbdc20b3a	-0.094747975
160	0xbc421054	-0.011844713
161	0x3d7088ba	0.058724143
162	0xbdbd7e38	-0.0925259
163	0xbd9e0d0b	-0.077173315
164	0x3c8ccff1	0.017188998
165	0x3cb07992	0.021542344
166	0x3bcd3f5d	0.006263657
167	0xbe464b11	-0.19364573
168	0x3cbd76e7	0.023127986
169	0xbe079e1a	-0.13243905
170	0x3dbecc1f	0.09316277
171	0xbd6903c6	-0.056888364
172	0xbe0520de	-0.13000819
173	0xbd8d171b	-0.06889173
174	0xbdd67453	-0.10471406
175	0x3e5df0cc	0.21673888
176	0x3c947f05	0.018126974
177	0xbd1597a8	-0.036521584
178	0xbca7d84c	-0.02048888
179	0xbc86e2c8	-0.01646556
180	0xbd212bf1	-0.039348546
181	0xbe1ab106	-0.15106592
182	0xbbd409d3	-0.0064708977
183	0xbe3ef038	-0.18646324
184	0xbdad5f66	-0.084654614
185	0xba71c21b	-0.00092223444
186	0xbe15368f	-0.14571594
187	0x3e1ca91e	0.15298888
188	0xbe33b452	-0.17549255
189	0xbe32e25c	-0.17469162
190	0x3b2047da	0.002445689
191	0x3d82e2b2	0.06390895
192	0x3cd139b1	0.025540205
193	0xbdf92757	-0.121657066
194	0xbe5c01b8	-0.2148503
195	0xbe2cf9c3	-0.16892152
196	0x3dd96792	0.106154576
197	0xbc12256b	-0.008920054
198	0xbe54dec5	-0.20788105
199	0xbd10dc1f	-0.035366174
200	0xbe1807c2	-0.1484671
201	0xbec05fbe	-0.37573045
202	0x3e243915	0.160374
203	0x3c02c298	0.007980965
204	0x3da6a877	0.08137601
205	0xbe187247	-0.14887343
206	0x3c8d1625	0.017222473
207	0xbce26d32	-0.027639959
208	0xbd020487	-0.0317426
209	0x3e2019a5	0.15634783
210	0xbe5ae413	-0.21376066
211	0xbe08cafc	-0.13358682
212	0x3d19719f	0.037461873
213	0x3e0c955c	0.13728851
214	0x3de1e4dc	0.110299796
215	0xbc88b008	-0.0166855
216	0x3b22cf87	0.0024842934
217	0xbe3d1fad	-0.18469115
218	0x3d338ac0	0.043833494
219	0x3ccb20c9	0.024795907
220	0xbe441f32	-0.19152525
221	0xbe31288a	-0.1730062
222	0xbd75e07a	-0.06002853
223	0xbcbf7a89	-0.023373859
224	0x3c04dcf8	0.008109324
225	0xbe354d47	-0.1770526
226	0xbe033ca0	-0.12816095
227	0xbe1bf345	-0.15229519
228	0x3c2067a1	0.009790332
229	0x3e0467cf	0.12930225
230	0xbcc22228	-0.023697928
231	0x3e78bd04	0.24290854
232	0x3d0ba25f	0.034090396
233	0x3d5f49a8	0.054513603
234	0x3ca56643	0.020190364
235	0x3dbe75a6	0.092997834
236	0xbd2ab715	-0.041678507
237	0x3c94a04e	0.018142845
238	0xbd6c6863	-0.05771674
239	0xbdaa73b2	-0.083228484
240	0x3d032d5c	0.03202568
241	0x3b2fed80	0.0026844442
242	0xbe0fd9b6	-0.14047894
243	0x3e28dc3e	0.16490266
244	0x3dd78023	0.10522487
245	0xbeb8f511	-0.3612447
246	0xbe9b94cc	-0.3038696
247	0x3d3d434d	0.04620676
248	0x3ca0c052	0.019622955
249	0xbd2dd821	-0.042442445
250	0x3e3ddef9	0.18542089
251	0x3d64d3ab	0.055865925
252	0xbdcdeca5	-0.10054902
253	0xbe24e78e	-0.16103956
254	0xbdff8617	-0.124767475
255	0xbd5392ae	-0.051653557

hidden_nets.0.bias f4 [128]
0	0xbd1c49f5	-0.03815647
1	0x3c1f7307	0.0097320145
2	0x3d157571	0.036488954
3	0xbc8e12c0	-0.017342925
4	0xbd70c12e	-0.05877798
5	0xbd2ac593	-0.041692328
6	0x3d94ebfa	0.072715715
7	0x3d6968e4	0.056984797
8	0x3cbc86a8	0.023013428
9	0xbda09091	-0.07840074
10	0xbe0bdad5	-0.13657697
11	0xbce00042	-0.027343873
12	0xbc62cba0	-0.013842493
13	0x3d12b597	0.03581771
14	0xbdbc3c38	-0.09191173
15	0xbca7de63	-0.020491784
16	0x00000000	0.0
17	0xbd7d7115	-0.06187542
18	0xbc85e283	-0.01634336
19	0xbe0c7e8b	-0.13720147
20	0xbc05fbda	-0.008177722
21	0xbe6b5b3d	-0.22984023
22	0x3c73b75f	0.014875262
23	0xbdf0dd86	-0.11761002
24	0xbdb98a93	-0.09059634
25	0xbe2d4ef1	-0.16924645
26	0xbe0cbf71	-0.13744904
27	0x3da3223e	0.079655156
28	0xbd7f9b75	-0.062404115
29	0x3bd4912a	0.0064870315
30	0xbd36e621	-0.04465306
31	0xbc485929	-0.012228289
32	0xbd5dd9da	-0.054162838
33	0x3cc11bb5	0.023572782
34	0x3d09f7f3	0.03368373
35	0xbdec20c8	-0.1152969
36	0xbdf3fb93	-0.11913218
37	0xbe2fc3cf	-0.17164539
38	0x3dce866d	0.100842334
39	0xbd955947	-0.07292419
40	0xbd1f1b16	-0.03884419
41	0xbe169a5e	-0.14707324
42	0xbc47c3e3	-0.012192699
43	0xbdd46458	-0.103707016
44	0xbd21053a	-0.039311625
45	0xbe057bc8	-0.130355
46	0xbd27ffff	-0.04101562
47	0xbd954009	-0.07287604
48	0xbce86908	-0.028370395
49	0xbcfb236a	-0.030656535
50	0xbc1d42b7	-0.009598426
51	0xbd780a27	-0.060556557
52	0xbd21b038	-0.039474696
53	0x3d3a2e77	0.04545447
54	0xbdb84050	-0.08996642
55	0x3d491fe2	0.04910267
56	0xbdfb7987	-0.12279039
57	0x3d2d7582	0.042348392
58	0x3c40472e	0.011735721
59	0xbdae97b4	-0.08525029
60	0xbe2f24cb	-0.17103879
61	0x3b28a937	0.0025735626
62	0x3d7b7a61	0.061396006
63	0xb94f2c89	-0.00019757649
64	0xbc2bd832	-0.010488557
65	0xbc6164b5	-0.013756921
66	0xbdc058d8	-0.093919456
67	0x3db06510	0.08613026
68	0xbdf5cb55	-0.12001673
69	0xbc229566	-0.009923315
70	0x3d52304f	0.051315602
71	0x3c347002	0.011013033
72	0x3d42a4cc	0.047520444
73	0xbd7010e2	-0.05860985
74	0xbd32e673	-0.043676805
75	0xbe2f196b	-0.1709954
76	0xbdb6db81	-0.08928586
77	0xbe1f841c	-0.1557774
78	0xbdc3b17b	-0.09555336
79	0xbc7a953a	-0.015294367
80	0xbdde7ca4	-0.10863617
81	0xbe188dac	-0.14897794
82	0xbd640bc5	-0.055675287
83	0xbe2a0b4a	-0.16605869
84	0xbd35dcab	-0.0443999
85	0x3cf3242b	0.029680332
86	0xbb8dfba2	-0.0043329755
87	0xbe3355b9	-0.1751317
88	0xbe2d9862	-0.1695266
89	0xbd1cdcdf	-0.038296577
90	0xbdfd256c	-0.12360653
91	0x3d52890f	0.05140024
92	0xbe0909e1	-0.13382675
93	0xbc314d0c	-0.010821592
94	0xbdb588f8	-0.08864015
95	0xbc5dc73d	-0.013536272
96	0xbe03178a	-0.12801948
97	0xbc5f0659	-0.013612353
98	0xbe152b3f	-0.14567278
99	0xbe023867	-0.12716828
100	0x00000000	0.0
101	0x3d38c676	0.045111142
102	0xbd1ca356	-0.038241707
103	0xbd1d0006	-0.0383301
104	0x3dd39bb5	0.10332433
105	0xbdceb016	-0.100921795
106	0x3d4e12dd	0.05031096
107	0x3d097094	0.03355463
108	0x3c3a8690	0.011384621
109	0x3c083e1a	0.008315587
110	0x3becabdb	0.007222635
111	0xbda17c35	-0.07885019
112	0xbdc5371d	-0.09629653
113	0xbd0b23d3	-0.03396971
114	0x3b8e45f6	0.004341836
115	0xbdf18634	-0.11793175
116	0x3c5b933b	0.013401802
117	0xbe561ceb	-0.20909469
118	0xbd591fef	-0.05300897
119	0xbddf198b	-0.10893544
120	0x3cc41be4	0.02393908
121	0x3cc4958b	0.023997089
122	0x39e6ce62	0.00044022786
123	0xbe10f94d	-0.141576
124	0xbe123a64	-0.14280087
125	0xbdf30044	-0.11865285
126	0xbe061628	-0.1309439
127	0xbda9d4f0	-0.08292568

hidden_nets.1.weight f4 [128, 128]
0	0x3d34583c	0.04402946
1	0x3e0185c3	0.12648682
2	0x3dd6484f	0.104630105
3	0x3df1876d	0.117934085
4	0xbc28fe8f	-0.010314598
5	0x3d28b00c	0.041183516
6	0xbcb1a7b3	-0.02168641
7	0xbd5ebb52	-0.05437786
8	0x3c1ccf5e	0.009570925
9	0x3e1c5de7	0.15270196
10	0x3d3f7206	0.0467396
11	0xbc7a8ea2	-0.015292795
12	0xbda2c6b3	-0.07948055
13	0x3d4c243c	0.049839243
14	0x3d98d590	0.07462609
15	0x3d06fac9	0.03295401
16	0x3d98745a	0.07444067
17	0xbcf2f6fc	-0.029658787
18	0x3d1923ec	0.037387773
19	0x3de1e95d	0.11030839
20	0xbde722f8	-0.11285967
21	0xbda1300e	-0.07870494
22	0xbe7724da	-0.24135152
23	0x3d5c1af0	0.053736627
24	0xbc21be42	-0.009872021
25	0x39721a68	0.00023088756
26	0xbdc603ad	-0.0966867
27	0xbdce0a25	-0.10060529
28	0x3dc4e485	0.09613899
29	0x3d3e32e3	0.046435248
30	0xbd9cb726	-0.0765212
31	0xbe46d820	-0.19418383
32	0x3d72813a	0.05920527
33	0xbe045db2	-0.12926367
34	0xbdeb47f6	-0.11488335
35	0x3d342187	0.043977287
36	0xbd51e8bd	-0.051247347
37	0x3e0b14d0	0.13582158
38	0xbdac8e7b	-0.084256135
39	0xbd51175c	-0.051047668
40	0xbd805b93	-0.062674664
41	0x3d81d141	0.0633874
42	0xbd85eb81	-0.065390594
43	0x3cc75788	0.02433373
44	0x3dd58b86	0.104270026
45	0x3e45422d	0.19263525
46	0xbe06864f	-0.13137172
47	0x3e27b972	0.16379336
48	0x3e12e79c	0.14346164
49	0xbdfb864f	-0.12281477
50	0x3de50bf4	0.111839205
51	0x3e431378	0.19050395
52	0x3dd4e0f6	0.103944704
53	0x3e27397e	0.16330525
54	0x3e430c5d	0.19047685
55	0x3e36951c	0.17830318
56	0x3bf4c16f	0.007469348
57	0x3ca206c5	0.019778619
58	0xbda6bd8e	-0.081416234
59	0x3da9bb43	0.082876705
60	0xbd839bdb	-0.064262114
61	0xbd803495	-0.06260029
62	0xbdd9a532	-0.10627212
63	0xbdd1ecf1	-0.10250271
64	0x3dbec289	0.093144484
65	0xbe5bb44a	-0.21455494
66	0xbda8af6f	-0.08236586
67	0x3e05bf39	0.13061227
68	0x3e1b917d	0.15192218
69	0x3e13708d	0.14398403
70	0xbe3fec9f	-0.18742608
71	0x3d1b61b9	0.037934992
72	0x3de217e4	0.11039713
73	0xbdf1a710	-0.11799443
74	0xbdca8708	-0.098890364
75	0x3dd1bae0	0.10240722
76	0x3ced633e	0.028977986
77	0x3c98e1cf	0.018662361
78	0xbe069f38	-0.13146675
79	0xbe39e159	-0.1815237
80	0xbe019f72	-0.1265848
81	0x3ceea0a8	0.029129341
82	0xbde619f3	-0.11235418
83	0xbdb7b06d	-0.089691974
84	0xbd524fee	-0.05134576
85	0xbd6f9b5e	-0.05849778
86	0x3dfc2dae	0.123134
87	0x3e0b82a3	0.13624053
88	0xbdd5c1a5	-0.104373254
89	0x3dd7aa56	0.10530536
90	0xbdf558eb	-0.119798504
91	0xbdbef0ec	-0.09323296
92	0xbcecc450	-0.028902203
93	0x3da0aaa5	0.07845048
94	0x3e5833bd	0.21113487
95	0xbdb831dc	-0.08993885
96	0x3b587415	0.0033028175
97	0x3d95aec9	0.07308728
98	0x3e1bb0b2	0.15204123
99	0x3d7cb5dd	0.061696876
100	0xbe05ade0	-0.1305461
101	0x3dc9c0f7	0.09851258
102	0xbcad1ecf	-0.021132855
103	0x3d4fdb22	0.05074609
104	0xbd79a3a1	-0.060947064
105	0x3dfbc807	0.122940116
106	0x3e266b52	0.16251877
107	0xbdf50e52	-0.11965622
108	0xbd675ad3	-0.0564831
109	0x3c43e3f7	0.0119562065
110	0x3c808f56	0.015693348
111	0x3db87888	0.090073645
112	0x3d5820da	0.052765705
113	0xbde028d1	-0.10945285
114	0xbe353232	-0.17694929
115	0x3c00ac79	0.007853621
116	0xbc1ea7f5	-0.009683599
117	0xbd864d34	-0.06557694
118	0x3de245d9	0.11048479
119	0xbce7d0fe	-0.028297897
120	0x3de8a883	0.11360266
121	0xbe751593	-0.23934011
122	0x3e005b6a	0.12534872
123	0xbd9d4330	-0.076788306
124	0xbcbb7999	-0.02288513
125	0x3e15fc69	0.14647068
126	0x3e13b69a	0.14425126
127	0x3db62853	0.0889441
128	0xbdb93035	-0.09042398
129	0xbe043648	-0.12911332
130	0x3d19eae3	0.03757752
131	0xbdcf1878	-0.10112089
132	0xbdcb5e45	-0.0993009
133	0x3d4a2ef6	0.04936119
134	0xbe40d37f	-0.1883068
135	0x3cd06ae9	0.025441604
136	0xbc78128f	-0.015141143
137	0x3e281a1d	0.16416211
138	0x3d8e1cc6	0.06939082
139	0xbda4ad44	-0.0804086
140	0x3e0ec12f	0.13940881
141	0x3dd32176	0.103091165
142	0xbd569790	-0.052390635
143	0xbdd9b63d	-0.10630462
144	0xbdc656c9	-0.09684522
145	0xbdb9d577	-0.09073918
146	0xbdbe2be8	-0.09285718
147	0xbdef6fd3	-0.11691251
148	0x3d95b583	0.07310011
149	0x3e1fc089	0.1560079
150	0xbd8174c5	-0.063211
151	0xbc2dc33a	-0.010605628
152	0xbcd50306	-0.026002418
153	0x3dab2b39	0.083578534
154	0x3e17a23b	0.1480798
155	0xbd8cce69	-0.06875307
156	0xbd8efb50	-0.06981528
157	0xbe20d075	-0.1570452
158	0x3dadfe40	0.0849576
159	0xbe93bb0d	-0.28853646
160	0xbc80042d	-0.015626991
161	0xbc97ec85	-0.018545398
162	0xbe3cdae0	-0.18442869
163	0x3c844925	0.01614816
164	0x3e050e9e	0.12993857
165	0xbd7d6da8	-0.061872154
166	0xbda347f7	-0.079727106
167	0x3e453354	0.19257861
168	0x3d766667	0.060156252
169	0x3dac2755	0.084059395
170	0xbe36e1fd	-0.17859645
171	0x3cc9b7b4	0.02462373
172	0x3b1e754a	0.0024178796
173	0x3e3101e1	0.17285873
174	0xbca29670	-0.019847125
175	0x3e19daea	0.15024915
176	0xbd1224cb	-0.03567962
177	0xbcd7bdfe	-0.026335713
178	0xbe17f610	-0.14839959
179	0xbdf7a022	-0.1209109
180	0x3ddc34cc	0.10752258
181	0x3c87c04f	0.016571192
182	0x3dc93ea2	0.098263994
183	0xbe3d7932	-0.18503264
184	0xbd1755c6	-0.036947034
185	0x3d28dd4b	0.041226666
186	0xbd6ed101	-0.05830479
187	0x3d9c07f2	0.07618703
188	0x3b42d71f	0.0029730273
189	0xbd025ec5	-0.03182866
190	0xbe0352c6	-0.12824544
191	0x3dd04e24	0.10171154
192	0x3d4c4354	0.049868897
193	0xbe39acb2	-0.18132284
194	0xbdb888ee	-0.09010492
195	0x3d64fe20	0.055906415
196	0xbdc5bfea	-0.09655745
197	0xbd52215f	-0.051301356
198	0xbd7bbad7	-0.06145748
199	0xbd8fd461	-0.0702293
200	0x3cebf481	0.028803112
201	0x3cc7abf9	0.024373995
202	0xbdc63eb7	-0.09679931
203	0xbda6b3da	-0.08139773
204	0x3db6226c	0.08893284
205	0xbd4d3872	-0.05010266
206	0xbc5c4e82	-0.013446452
207	0xbe0ba495	-0.13637002
208	0x3e457cc9	0.19285883
209	0x3e3b0f1b	0.18267481
210	0x3e264bf3	0.1623991
211	0x3dd510f8	0.10403627
212	0x3d9d6a64	0.07686308
213	0x3dbc0977	0.09181493
214	0x3e192a13	0.14957456
215	0x3de244c9	0.11048276
216	0x3d8d59e0	0.06901908
217	0xbdb19df0	-0.08672702
218	0x3db76f19	0.08956737
219	0xbd6fc360	-0.058535933
220	0x3e1e5bb8	0.15464675
221	0x3d804835	0.062637724
222	0x3df9be5a	0.1219451
223	0x3d5fe3f8	0.054660767
224	0xbdd4d577	-0.10392278
225	0x3db6d56c	0.08927426
226	0x3d9b8d49	0.075953074
227	0xbd86a556	-0.06574504
228	0xbda7b1dd	-0.081882216
229	0x3bcdc08b	0.0062790564
230	0xbdc4a00e	-0.096008405
231	0xbd9f6083	-0.0778208
232	0x3cd04992	0.025425706
233	0xbdcd182c	-0.10014376
234	0x3e502de0	0.2033
235	0xbe47c8d7	-0.19510208
236	0xbd4b7fe6	-0.04968252
237	0xbcd6fd3c	-0.026243798
238	0xbc841e0d	-0.01612761
239	0xbc4dd7d3	-0.012563664
240	0xbd7bccdd	-0.06147467
241	0xbd649b13	-0.055811953
242	0x3e21183c	0.15731901
243	0xbc960d04	-0.018316753
244	0xbcb35f6c	-0.021896087
245	0x3c95f9f6	0.018307667
246	0x3d7a7e34	0.061155513
247	0x3da56cc8	0.08077389
248	0xbcd0c36f	-0.025483815
249	0xbba44b59	-0.005013865
250	0x3e217a02	0.15769199
251	0xbd18604b	-0.037201207
252	0xbdbb2cfe	-0.09139441
253	0x3e1648b5	0.14676173
254	0xbd9c8f23	-0.07644489
255	0xbd9114d3	-0.0708405

hidden_nets.1.bias f4 [128]
0	0x3e1f5f45	0.15563686
1	0x3e0a49d2	0.13504723
2	0x3d057776	0.03258463
3	0x3e0e020e	0.13867971
4	0x3d2c7b4f	0.042109784
5	0x3e1f30c1	0.15545942
6	0x3e2aad71	0.16667725
7	0x3e163001	0.1466675
8	0x3e104541	0.14088918
9	0x3e2709de	0.16312358
10	0x3e20e66a	0.15712896
11	0x3e0409a5	0.12894304
12	0x3e01bef7	0.12670504
13	0x3dff67a2	0.12470938
14	0x3e269996	0.16269526
15	0xbd5f9aa6	-0.054590844
16	0x3dfaecc4	0.12252191
17	0x3a7ce265	0.00096467725
18	0x3e327573	0.17427616
19	0x3e47a34e	0.1949589
20	0x3d8bc038	0.06823772
21	0x3df8e0dc	0.121522635
22	0x3e1dc215	0.15406068
23	0x3e3f4ae1	0.18680908
24	0x3e107f19	0.14110984
25	0x3e191b91	0.14951922
26	0x3e200781	0.15627863
27	0x3cdcdc4c	0.026960514
28	0x3e243fec	0.1604001
29	0x3dcf1698	0.10111731
30	0x3e1ffbb9	0.15623368
31	0x3e101c8c	0.1407339
32	0x3e2e3b60	0.17014837
33	0x3db8c15a	0.09021254
34	0x3e211220	0.1572957
35	0x3e17c3dd	0.1482081
36	0xbd80d1a6	-0.06289987
37	0x3e0f5716	0.13998064
38	0x3e27f41f	0.16401719
39	0x3e27c45c	0.16383499
40	0x3e1c8730	0.15285945
41	0x3e44c87f	0.19217108
42	0xbd44c981	-0.04804373
43	0x3e190179	0.14941968
44	0x3e0e42ac	0.13892621
45	0x3e129d07	0.14317714
46	0x3e1c1014	0.15240508
47	0x3e0a0191	0.1347716
48	0x3e0a498b	0.13504617
49	0x3e1537cd	0.14572068
50	0xbd866a39	-0.06563229
51	0x3de9f838	0.11424297
52	0x3e0e5a6b	0.13901679
53	0x3e369c68	0.17833102
54	0x3e01e954	0.12686664
55	0x3e2122e7	0.1573597
56	0x3e23c219	0.15992011
57	0x3e02efb1	0.12786748
58	0x3e2a6872	0.16641405
59	0x3e38910d	0.18024082
60	0x3e0b45f4	0.13600904
61	0x3d38c90b	0.045113605
62	0x3e2c8a4c	0.16849631
63	0x3ab9644a	0.0014144268
64	0x3d2cf9c9	0.0422304
65	0x3e11f9a0	0.1425538
66	0x3c76ff16	0.015075466
67	0x3e175412	0.14778164
68	0x3e108f20	0.14117098
69	0x3e063f0b	0.13109986
70	0x3dcda9f7	0.10042184
71	0x3e1b8501	0.15187456
72	0x3d038fe1	0.032119635
73	0xbd519977	-0.051171746
74	0x3dfedc72	0.1244439
75	0xbd68caa5	-0.056833882
76	0x3e15cde5	0.14629324
77	0x3e24a884	0.16079909
78	0x3e134ec5	0.14385517
79	0x3c56a4d4	0.0131008215
80	0x3e1233ce	0.14277574
81	0x3d63d492	0.055622645
82	0x3e107f3d	0.14111038
83	0x3d054f2a	0.0325462
84	0x3dc5a162	0.09649922
85	0x3de35236	0.11099665
86	0xbd4601ba	-0.04834149
87	0x3e011113	0.1260417
88	0xbd5bcaa0	-0.053660035
89	0x3d764717	0.06012639
90	0xbd1f9637	-0.038961615
91	0x3dd000aa	0.10156377
92	0x3e1a9e90	0.1509955
93	0xbd13aee7	-0.03605547
94	0x3d551d5b	0.05202995
95	0x3df14f0e	0.117826566
96	0x3e1ff93a	0.15622416
97	0xbdba9383	-0.09110167
98	0x3e0d56ad	0.13802595
99	0x3e281fd4	0.16418391
100	0xbd8474bb	-0.06467577
101	0x3e1bd632	0.15218428
102	0x3e2e7528	0.17036879
103	0x3e17f310	0.14838815
104	0xbd36c03a	-0.044616915
105	0xbd480325	-0.048831124
106	0xbd9f4377	-0.0777654
107	0x3a0443b6	0.000504549
108	0x3e0f5c08	0.13999951
109	0x3e2ad6e2	0.16683534
110	0x3e1e01cb	0.15430371
111	0xbd40519b	-0.046952825
112	0x3e06bf6d	0.1315896
113	0x3e20f9b8	0.1572026
114	0x3e0cef84	0.13763243
115	0x3dc6c828	0.097061455
116	0xbd618e0a	-0.0550671
117	0x3dd09cf5	0.10186187
118	0x3db9ecc1	0.0907836
119	0x3d3e07c8	0.04639414
120	0x3dee81da	0.11645861
121	0x3e1a94ac	0.15095776
122	0x3e03e3ba	0.1287984
123	0x3c87a98a	0.016560335
124	0x3e1b81a8	0.15186179
125	0xbc8d16e8	-0.017222837
126	0x3d080346	0.033206247
127	0x3e33b96a	0.17551199

hidden_nets.2.weight f4 [64, 128]
0	0x3c51e50f	0.0128109595
1	0x3d8ee08a	0.06976421
2	0xbdae89ab	-0.08522352
3	0x3d4cd3a6	0.05000653
4	0x3e626720	0.22109652
5	0x3dfa9292	0.12234987
6	0x3d97a40c	0.07404336
7	0x3e003a89	0.1252233
8	0x3d2e50a4	0.042557374
9	0xbd65b87b	-0.056084137
10	0xbd9f8e47	-0.07790809
11	0x3d895252	0.067051545
12	0xbd2b3b3c	-0.041804537
13	0x3de86206	0.113468215
14	0x3d8d42f2	0.068975344
15	0xbe285b26	-0.1644102
16	0x3d247a64	0.040155783
17	0xbe8a262a	-0.26982242
18	0x3e0273f1	0.1273954
19	0xbd3ab006	-0.045578025
20	0xbd270243	-0.04077364
21	0x3e51884e	0.20462152
22	0xbd1fa264	-0.038973227
23	0x3d07969a	0.03310261
24	0xbddeffc5	-0.10888628
25	0xbdb372d1	-0.08762134
26	0x3dcb9e44	0.09942296
27	0xbe3d4adc	-0.18485588
28	0x390d78ef	0.00013491859
29	0x3e877d5b	0.26462826
30	0xbc7c55d1	-0.01540132
31	0xbd8ac566	-0.06775932
32	0x3dba3d15	0.09093682
33	0xbc02fc97	-0.007994792
34	0x3d225bad	0.03963821
35	0xbd858e67	-0.06521302
36	0xbd911d06	-0.07085614
37	0x3dc566c6	0.09638743
38	0xbd382137	-0.04495355
39	0x3e1961eb	0.14978759
40	0xbdab0dcb	-0.0835224
41	0xbd0c7842	-0.034294374
42	0xbe12054c	-0.14259833
43	0xbe0be560	-0.13661718
44	0xbd894280	-0.06702137
45	0xba9d1923	-0.0011985641
46	0xbd8f3a5e	-0.069935545
47	0x3e398004	0.1811524
48	0x3e0eabc6	0.13932714
49	0x3e5986d5	0.2124284
50	0x3c69c1a4	0.014267359
51	0x3da6a613	0.08137145
52	0x3ddeceb5	0.1087927
53	0x3dd95209	0.1061135
54	0x3ccd6119	0.025070714
55	0xbde63090	-0.11239731
56	0xbe07c63f	-0.13259219
57	0x3ccd4aa2	0.025060002
58	0xbdf890a8	-0.12136966
59	0xbcd8b120	-0.026451647
60	0xbcfef834	-0.031124212
61	0x3dd2b9a9	0.10289318
62	0x3d9624d0	0.0733124
63	0xbdfbf6d7	-0.1230294
64	0xbea4aa2f	-0.3216109
65	0xbdbb808d	-0.091553785
66	0xbe47405e	-0.19458148
67	0xbe0771be	-0.13226983
68	0xbc017d4e	-0.00790341
69	0x3e0f4eb5	0.13994868
70	0xbdaaea82	-0.0834551
71	0xbca8bf9c	-0.020599179
72	0xbd675425	-0.05647673
73	0xbdfb5713	-0.122724675
74	0x3e8d7dac	0.27634943
75	0x3e130010	0.14355493
76	0x3de02411	0.10944379
77	0x3e075a43	0.13218026
78	0x3d93da52	0.07219376
79	0xbdf0f623	-0.11765697
80	0x3d6d067a	0.057867505
81	0xbe855468	-0.2604096
82	0x3c94f7ea	0.01818462
83	0xbe83dac4	-0.25752842
84	0x3dc5a080	0.096497536
85	0xbcea2034	-0.028579809
86	0x3e1fc12e	0.15601036
87	0x3b955911	0.0045577367
88	0x3e0ce29a	0.13758317
89	0x3e113952	0.14182022
90	0xbd02f56b	-0.03197233
91	0xbdc23489	-0.094826765
92	0x3dae0bfc	0.084983796
93	0x3e21ebfa	0.15812674
94	0xbdead002	-0.114654556
95	0x3e3d2dbc	0.18474478
96	0x3cf3a0fa	0.029739846
97	0xbde1e120	-0.11029267
98	0x3dec63d0	0.11542475
99	0x3e28269d	0.1642098
100	0x3c474cdd	0.012164322
101	0x3ddea05b	0.10870429
102	0x3df3b5c5	0.11899904
103	0x3de2894a	0.11061342
104	0xbe094c44	-0.13408
105	0xbe0ee096	-0.1395286
106	0x3e2b058d	0.16701336
107	0xbe544154	-0.20728046
108	0x3e0c4035	0.13696368
109	0x3dbd803e	0.09252976
110	0x3e2520ae	0.16125748
111	0x3e1fb561	0.15596534
112	0x3b9b6124	0.0047418047
113	0x3db427f8	0.08796686
114	0x3e198fed	0.1499631
115	0x3e95e959	0.29279593
116	0xbd100c5f	-0.035168048
117	0x3d673f7b	0.056457024
118	0x3df15958	0.11784619
119	0x3cf2da81	0.029645206
120	0xbc971e21	-0.018446984
121	0xbd9ab6b1	-0.07554377
122	0x3e4662b3	0.19373588
123	0xbe0c293a	-0.13687602
124	0x3dd2786f	0.10276877
125	0xbd4e6d1a	-0.050397016
126	0xbe0ff56e	-0.14058468
127	0xbd8da8bc	-0.06916949
128	0x3dd36ed1	0.10323871
129	0xbd7a0b6f	-0.06104606
130	0x3e0c3b2a	0.13694444
131	0x3e44e3c9	0.19227518
132	0xbae43e3e	-0.0017413569
133	0xbd3130bf	-0.04325938
134	0xbb6f1f56	-0.0036487184
135	0x3e735648	0.23763382
136	0xbe1c40cc	-0.15259093
137	0xbd3e0eea	-0.046400942
138	0x3daca8b4	0.08430615
139	0x3d48094c	0.04883699
140	0x3e1cf372	0.15327242
141	0x3e194d60	0.14970922
142	0x3e2427d9	0.16030826
143	0xbdc5403f	-0.096313946
144	0x3cb2c0a4	0.021820374
145	0xbd746dba	-0.059674956
146	0x3e4009a9	0.18753685
147	0xbddca8ce	-0.107743844
148	0x3dce6dd1	0.100795396
149	0x3dd0559d	0.101725794
150	0x3d9b680f	0.07588207
151	0x3d744c1a	0.05964289
152	0x3dad531e	0.08463119
153	0xbd725c34	-0.059169963
154	0x3d78afd8	0.060714573
155	0x3e188beb	0.14897124
156	0x3d08045d	0.033207286
157	0x3d1ec4d7	0.03876194
158	0x3cfb6aec	0.030690633
159	0x3e1e5c58	0.15464914
160	0x3ba92ab4	0.0051625613
161	0x3e63ef6f	0.22259305
162	0xbc9f3ebf	-0.0194391
163	0x3d39e791	0.045386855
164	0x3e454a64	0.19266659
165	0x3e075b9d	0.13218541
166	0xbd7b01ac	-0.06128089
167	0x3df3b4e7	0.11899739
168	0x3e10923e	0.14118287
169	0xbd18cc93	-0.037304472
170	0xbda63793	-0.08116069
171	0x3d05ccee	0.03266614
172	0x3e0a7e9b	0.13524859
173	0x3cab84e4	0.02093739
174	0xbdf1db1b	-0.11809369
175	0x3de08306	0.10962491
176	0x3a6325df	0.0008665006
177	0xbe09a568	-0.13442004
178	0x3bf80b25	0.007569688
179	0xbcb782c9	-0.02240123
180	0x3d511d75	0.051053483
181	0xbccbc12c	-0.024872385
182	0x3e1c1582	0.1524258
183	0xba438ecc	-0.0007459938
184	0x3dc19bcf	0.09453546
185	0x3e06b89f	0.13156365
186	0x3e570f43	0.21001916
187	0x3e18942f	0.14900278
188	0xbcee3e00	-0.029082298
189	0x3e53a038	0.20666587
190	0xbde64eb3	-0.112454794
191	0xbd10b677	-0.035330262
192	0xbd5ca414	-0.053867415
193	0x3e08d38d	0.1336195
194	0x3e7ee5f7	0.24892412
195	0xbb535f9a	-0.0032253028
196	0x3e2c4292	0.1682227
197	0xbda3f904	-0.0800648
198	0xbaf60cdf	-0.0018772146
199	0x3e185308	0.14875424
200	0x3e43207a	0.19055358
201	0xbe0443be	-0.12916467
202	0x3e4f5229	0.20246185
203	0x3e2c0f7c	0.16802782
204	0xbda9cdcd	-0.082912065
205	0xbd297665	-0.041372675
206	0xbb7513cd	-0.0037395835
207	0xbdce9445	-0.10086874
208	0xbd2eaf68	-0.04264775
209	0xbe21c0bc	-0.15796179
210	0x3e3a5083	0.18194775
211	0xbda2d2fb	-0.079503976
212	0x3cf5b75a	0.029994655
213	0x3e4c6f9f	0.19964455
214	0xbe13d949	-0.14438356
215	0x3e009a52	0.12558869
216	0x3e0d7989	0.13815893
217	0x3e2a0f56	0.16607413
218	0xbdbf26df	-0.09333586
219	0x3dc324ab	0.09528478
220	0x3e1a62f1	0.15076806
221	0xbda9b214	-0.08285919
222	0xbd5b311d	-0.053513635
223	0x3e89c73e	0.26909822
224	0x3e0c4573	0.13698368
225	0xbe47010e	-0.19433996
226	0xbd9b5eef	-0.075864665
227	0x3beaebda	0.007169229
228	0xbdd711ae	-0.10501419
229	0xbd52556f	-0.051351007
230	0x3d7c1707	0.061545398
231	0x3e479033	0.19488601
232	0x3dd1a055	0.10235659
233	0xbd1dd7ba	-0.03853581
234	0x3e1d86c5	0.15383442
235	0xbe350f47	-0.17681609
236	0x3e16ee7c	0.14739412
237	0xbdabfc8c	-0.08397779
238	0xbd1fa8f6	-0.038979493
239	0x3e42c450	0.190202
240	0x3db1f019	0.08688373
241	0x3d620347	0.055178907
242	0xbc37a16d	-0.0112079205
243	0x3de96201	0.11395646
244	0x3ce74d13	0.028234994
245	0x3dce20b9	0.10064835
246	0xbdc2220e	-0.09479152
247	0xbd550d11	-0.052014414
248	0x3da3de76	0.080014154
249	0x3c3fe2fd	0.011711833
250	0x3da0c575	0.07850162
251	0x3e0fb6fd	0.14034648
252	0x3df5e2b2	0.12006129
253	0x3d53eae5	0.051737685
254	0x3c26d903	0.010183576
255	0xbdbb0979	-0.09132666

hidden_nets.2.bias f4 [64]
0	0x3f31edc5	0.6950343
1	0x3f441344	0.76591897
2	0x3f2c9700	0.6741791
3	0x3f3f5930	0.74745464
4	0x3f3a0615	0.7266553
5	0x3f378271	0.7168341
6	0xbc96a48e	-0.018389013
7	0x3f412c4f	0.75458235
8	0x3f3b32c8	0.7312436
9	0x3f3c8313	0.73637503
10	0xbdb7a2ea	-0.0896662
11	0x3f3d69e9	0.7398973
12	0x3f3cdaa3	0.73771113
13	0x3f4cf260	0.80057335
14	0x3efb7dfb	0.49119553
15	0x3f402abc	0.7506521
16	0xbd4ac358	-0.0495027
17	0x3f3657f0	0.7122793
18	0xbca58690	-0.020205766
19	0x3f3a16d4	0.7269108
20	0x3ecf4aa4	0.40486634
21	0x3f39569e	0.7239779
22	0xbd673f77	-0.05645701
23	0x3f4782fc	0.7793424
24	0xbd675a53	-0.056482624
25	0x3f3d3425	0.7390769
26	0xbcd1e682	-0.02562261
27	0x3f37ae62	0.7175046
28	0xbc812438	-0.01576434
29	0x3f416c42	0.75555813
30	0x3f3e55c8	0.7434964
31	0x3f3f920d	0.7483223
32	0x3f26c3dd	0.65142614
33	0xbcbd6502	-0.023119453
34	0xbd57cab2	-0.05268354
35	0x3f3dc190	0.7412348
36	0x3f3be640	0.7339821
37	0x3f39bec7	0.7255673
38	0x3f39b719	0.7254501
39	0x3f42be40	0.7607155
40	0xbd210320	-0.03930962
41	0xbd08878c	-0.033332393
42	0x3f3d15fe	0.7386168
43	0xbcc3de9a	-0.023909856
44	0x3f3873bc	0.72051597
45	0x3f3a3e9d	0.7275179
46	0xbd10fe6f	-0.035398897
47	0x3f327cab	0.6972148
48	0xbd37bc10	-0.044857085
49	0x3f45b81c	0.77234054
50	0xbd5dc0f4	-0.054139093
51	0x3f3d1a4f	0.7386827
52	0xbd791bab	-0.0608174
53	0x3f36333d	0.71171933
54	0x3f39dc76	0.7260202
55	0xbcdb2eb5	-0.02675567
56	0x3f3c0e58	0.73459387
57	0x3f3f0815	0.7462171
58	0x3f485d7c	0.78267646
59	0xbd4509bd	-0.04810499
60	0xbd139c4c	-0.03603773
61	0x3eb27fc7	0.3486311
62	0x3f3b82bc	0.7324636
63	0x3d937c8a	0.07201488

value_stream.weight f4 [1, 64]
0	0x3f0fe556	0.56209314
1	0x3edcf95e	0.43159002
2	0x3ef6da03	0.48213205
3	0x3eff9aec	0.49922884
4	0x3eedb9bb	0.46430764
5	0x3f08258b	0.53182286
6	0xbeaafb40	-0.33394814
7	0x3eb0bc4e	0.34518665
8	0x3ee2876b	0.4424394
9	0x3f0e8fd1	0.55688196
10	0xbcad0090	-0.021118432
11	0x3f047609	0.5174261
12	0x3f06e1a3	0.52688044
13	0x3ed7aabc	0.42122447
14	0x3ed0d3a2	0.40786463
15	0x3edf3083	0.435917
16	0xbdddb186	-0.108248755
17	0x3f044f18	0.5168319
18	0xbe1f6408	-0.15565503
19	0x3ef64f80	0.4810753
20	0x3eed6fc3	0.4637433
21	0x3efddd10	0.4958272
22	0xbb735105	-0.0037127149
23	0x3ee198c3	0.4406186
24	0xbddd22c4	-0.10797647
25	0x3f0046ec	0.5010822
26	0xbe9f6ec8	-0.31139207
27	0x3f04d550	0.5188799
28	0xbe4547d5	-0.19265683
29	0x3efd21a8	0.4943974
30	0x3ee44ad4	0.4458834
31	0x3ee4a4b8	0.4465692
32	0x3ef9b5b3	0.48771438
33	0xbe681893	-0.22665624
34	0xbe84599d	-0.2584962
35	0x3ef6cd8e	0.482037
36	0x3ef56119	0.47925642
37	0x3edacefd	0.42736045
38	0x3f0af9df	0.54287523
39	0x3ef97e8e	0.48729366
40	0xbe5a49e6	-0.21317253
41	0x3baf29e7	0.0053455713
42	0x3f073bf0	0.5282583
43	0xbe6bb1b3	-0.23017006
44	0x3ed632d8	0.41835666
45	0x3ef8b0d5	0.48572412
46	0x3d89fa86	0.06737237
47	0x3f01fd81	0.5077744
48	0xbc197acd	-0.009367657
49	0x3ed7fb38	0.42183852
50	0xbe256f2c	-0.1615569
51	0x3ecbc84f	0.3980126
52	0xbda4190b	-0.08012589
53	0x3f0459fd	0.5169981
54	0x3ef2e9f9	0.47444132
55	0xbe8a8ccf	-0.27060553
56	0x3eecd331	0.46254876
57	0x3edb90ac	0.42883813
58	0x3ed8337b	0.42226776
59	0xbe13218c	-0.14368266
60	0xbeaf4971	-0.3423572
61	0x3ed8395d	0.42231265
62	0x3ef9c1ce	0.48780674
63	0x3d0455a0	0.03230822

advantage_stream.weight f4 [5, 64]
0	0xbdbd1e7c	-0.0923433
1	0xb81c797f	-3.730645e-05
2	0x3d0c7a67	0.03429642
3	0x3d49ab4e	0.049235635
4	0x3d4d4673	0.050116014
5	0xbd987076	-0.07443325
6	0x3ea15ebf	0.31517598
7	0xbd9aa9f7	-0.075519495
8	0xbb894203	-0.0041887774
9	0x3c8e6f2c	0.017386995
10	0x3de123e1	0.109931715
11	0x3d07aca1	0.033123616
12	0xbdc80f90	-0.09768593
13	0xbe111cf0	-0.14171195
14	0xbd1be178	-0.03805682
15	0xbdff199d	-0.12456057
16	0x3e900156	0.2812602
17	0x3a230566	0.0006218761
18	0x3c1e3842	0.009656968
19	0x3d7def38	0.061995715
20	0xbde18d36	-0.11013262
21	0x3cf3b778	0.02975057
22	0x3d8bc745	0.06825117
23	0xbdc2538b	-0.09488591
24	0xbd8f8c2a	-0.07009156
25	0xbd4d7127	-0.05015674
26	0xbdfd5e79	-0.12371535
27	0x3ab2ab11	0.0013631304
28	0x3c6b8e9c	0.014377262
29	0xbd6b2bca	-0.057414807
30	0x3dec2115	0.115297474
31	0x3d4eed01	0.050518993
32	0xbd82f1f6	-0.06393807
33	0xbe6e0670	-0.23244643
34	0xbd1fcf6c	-0.039016172
35	0x3c40796a	0.011747697
36	0x3cb5cb36	0.022191625
37	0x3d997b36	0.07494204
38	0xbd8b8509	-0.06812484
39	0x3e0c64c2	0.13710311
40	0xbe3652f8	-0.17805088
41	0xbe842aac	-0.25813806
42	0x3dcaa6eb	0.09895118
43	0x3e2dc1d2	0.16968468
44	0xbc1524a6	-0.009102976
45	0x3e2c2e0b	0.16814439
46	0x3ea1f61e	0.31633085
47	0xbcef968f	-0.029246597
48	0xbd86fffc	-0.06591794
49	0x3d6fc204	0.058534637
50	0xbdc5b966	-0.096545026
51	0xbe1003a8	-0.14063895
52	0x3e2a13c4	0.16609102
53	0x3dc95d55	0.09832255
54	0x3dcbe771	0.09956253
55	0xbdccd29d	-0.10001109
56	0xbd7b07e7	-0.061286833
57	0x3ccb2b3b	0.024800887
58	0x3e36e9e0	0.17862654
59	0xbd2e8589	-0.042607818
60	0x3e113af8	0.14182651
61	0xbeb9ed45	-0.36313835
62	0x3c498f28	0.0123021975
63	0xbee69ff6	-0.45043916
64	0xbcbf5810	-0.023357421
65	0xbd4702a1	-0.04858649
66	0x39c2caea	0.00037153746
67	0x3c4da661	0.012551875
68	0x3d8776d8	0.066144645
69	0xbda5232c	-0.08063349
70	0xbe0457ee	-0.12924168
71	0xbdc12a05	-0.09431843
72	0xbc8f25e5	-0.017474124
73	0x3d8f77e9	0.07005293
74	0x3ca13314	0.019677676
75	0x3d562a6e	0.052286558
76	0xbdf3b07d	-0.11898897
77	0xbe178ec4	-0.14800555
78	0x3c04f90a	0.008116016
79	0xbdf21cb1	-0.11821879
80	0x3e59ad3e	0.21257493
81	0xbd088c4b	-0.03333692
82	0xbda2f283	-0.07956412
83	0x3d3fab99	0.046794508
84	0x3d839986	0.06425767
85	0x3c23ae66	0.00999031
86	0xbe7b5bde	-0.24546763
87	0xbde9e0ea	-0.11419852
88	0x3e8e3a23	0.2777873
89	0xbcb94ea0	-0.0226205
90	0x3da46927	0.08027869
91	0xbd5eb0f5	-0.054367978
92	0x3da601b8	0.081057966
93	0xbcab47f5	-0.020908335
94	0x3e056be2	0.13029435
95	0x3c27393c	0.010206517
96	0xbc9ccf06	-0.019141685
97	0x3e4b907e	0.19879338
98	0xbd5a3cb4	-0.053280547
99	0x3d6e95d1	0.058248345
100	0x3ab50f3e	0.0013813747
101	0x3d987b4d	0.07445393
102	0xbdc18eae	-0.09451042
103	0x3e1e6319	0.1546749
104	0x3de64945	0.11244444
105	0xbe744f1c	-0.23858303
106	0x3dd3d8e2	0.103441015
107	0xbdb18dec	-0.086696476
108	0xbcdd0de1	-0.026984157
109	0x3e1673ab	0.14692561
110	0xbd2a41d4	-0.041566685
111	0xbd93dfbf	-0.072204106
112	0x3c3910c4	0.011295501
113	0x3c6253ae	0.013813896
114	0xbdd927ce	-0.10603295
115	0xbe01faeb	-0.12693374
116	0xbd9d0841	-0.0766759
117	0x3c7dd75a	0.015493238
118	0x3dbc1f52	0.091856614
119	0xbea02f02	-0.31285864
120	0xbcee7bbb	-0.029111734
121	0xbd1d21b9	-0.03836224
122	0x3e3c436b	0.18385093
123	0xbe46725c	-0.19379562
124	0x3ea8ada2	0.3294497
125	0xbe928b4b	-0.28621897
126	0x3d6406d7	0.055670585
127	0x3d971a7b	0.073780976
128	0xbc22fc14	-0.009947795
129	0xbc23da78	-0.0100008175
130	0x3db70990	0.08937371
131	0x3baa592f	0.00519862
132	0x3cee0a36	0.029057603
133	0xbd0cdf66	-0.034392737
134	0xbd5585b9	-0.05212948
135	0xbe009235	-0.12555774
136	0xbd9e920c	-0.077427
137	0x3d572121	0.05252183
138	0x3d70e7bb	0.058814745
139	0x3dc19242	0.094517246
140	0xbe1e747f	-0.15474127
141	0xbe2d5b15	-0.16929276
142	0x3ce1f247	0.027581347
143	0xbe23d02f	-0.15997384
144	0xbd6cce02	-0.05781365
145	0xbd18bbfb	-0.037288647
146	0xbe017196	-0.12640986
147	0x3c934d4f	0.0179812
148	0x3e65d415	0.22444184
149	0x3c535502	0.012898685
150	0xbe311338	-0.17292488
151	0xbe12add4	-0.14324123
152	0xbe32c9d5	-0.17459805
153	0xbdf50b90	-0.11965096
154	0xbee589f5	-0.44831815
155	0xbd9d039b	-0.07666703
156	0xbedd51d5	-0.43226495
157	0xbd9d9d80	-0.07696056
158	0x3df0cfd0	0.11758387
159	0x3ca76883	0.020435577
160	0xbc443946	-0.011976546
161	0x3e758567	0.2397667
162	0x3e52b228	0.20575774
163	0x3be60f73	0.0070208847
164	0xbd561a8f	-0.052271422
165	0x3daa8258	0.08325642
166	0xbd9c4628	-0.07630569
167	0x3d912e13	0.07088866
168	0xbe5495bc	-0.20760244
169	0x3de00559	0.1093852
170	0x3db6af7d	0.089201905
171	0x3e35b210	0.17743707
172	0xbc368408	-0.011139877
173	0x3e068f6b	0.13140647
174	0xbd0a2291	-0.03372437
175	0xbe041317	-0.12897907
176	0x3e42cb20	0.19022799
177	0x3c313b73	0.010817396
178	0x3dbc2690	0.09187043
179	0xbdb3cfed	-0.08779893
180	0x3e083a6d	0.13303538
181	0x3d50676e	0.05087989
182	0x3db6f390	0.089331746
183	0x3e3772a4	0.17914826
184	0xbd2086d6	-0.03919109
185	0xbc602178	-0.013679855
186	0x3e2911d0	0.16510701
187	0x3d46d774	0.048545316
188	0xbe7824b9	-0.24232759
189	0xbcc3009b	-0.023804
190	0x3d282bf1	0.04105753
191	0xbe6d053b	-0.23146527
192	0xbdd16ad2	-0.102254525
193	0xbc17139a	-0.009220982
194	0x3ba91b35	0.005160714
195	0x3d4a044f	0.049320515
196	0x3cb1fbe5	0.021726558
197	0xbdc3e64e	-0.095654115
198	0x3ba2e058	0.0049705915
199	0xbddb2195	-0.10699765
200	0xbd2f935a	-0.042865135
201	0x3d351761	0.04421175
202	0xbe095eb0	-0.13415027
203	0x3dbc98a9	0.09208805
204	0xbdb86918	-0.0900442
205	0xbdf05cec	-0.117364734
206	0xbdc79bd4	-0.09746519
207	0xbdd484b0	-0.10376871
208	0xbe646a69	-0.22306217
209	0xbcddb0e6	-0.02706189
210	0x3e375b64	0.17905957
211	0xba202481	-0.0006108955
212	0xbd99fc88	-0.0751887
213	0x3cac91ba	0.021065582
214	0xbe185770	-0.14877105
215	0xbdd020cc	-0.101625055
216	0xbc127ca5	-0.00894085
217	0xbd5eb832	-0.05437488
218	0x3e8f5660	0.27995586
219	0xbd729522	-0.059224255
220	0x3e2c656f	0.16835569
221	0x3c4ee060	0.012626737
222	0x3e015fee	0.1263425
223	0x3cad835c	0.021180801
224	0xbd960a53	-0.07326188
225	0xbe5f90ce	-0.21832582
226	0xbe45a9ae	-0.19303009
227	0x3cfad0ec	0.0306172
228	0xbc9b7042	-0.018974427
229	0x3dc0ace0	0.09407973
230	0xbdbf56c2	-0.093427196
231	0x3e161732	0.14657286
232	0xbd9620bf	-0.073304646
233	0x3e13916c	0.14410943
234	0x3db49005	0.08816532
235	0x3dce5ece	0.10076676
236	0xbc79d202	-0.015247824
237	0x3e355be8	0.1771084
238	0xbe96a9e9	-0.29426506
239	0xbd9a713e	-0.075411305
240	0x3e832092	0.25610787
241	0x3d2c918d	0.042130996
242	0xbe2548be	-0.1614103
243	0xbdff45e0	-0.124644995
244	0xbdf92043	-0.121643566
245	0x3d396c2d	0.04526918
246	0x3d9a75fd	0.07542036
247	0xbe3c2b37	-0.1837586
248	0xbcd278ed	-0.025692428
249	0xbd22f630	-0.039785564
250	0x3e3ea0e6	0.18616065
251	0xbe271233	-0.16315536
252	0xbe232c68	-0.15934908
253	0xbe470bd7	-0.1943811
254	0x3d2931ff	0.041307446
255	0x3f2af181	0.66774756

advantage_stream.bias f4 [5]
0	0xbdacac7c	-0.08431336
1	0x3e43a2b7	0.1910504
2	0xbdca3ec0	-0.0987525
3	0x3ea6fc67	0.32614443
4	0xbee0b469	-0.43887642

hidden_nets.0.weight f4 [128, 11]
0	0x3c47c27b	0.012192364
1	0xbdbc0cf3	-0.09182157
2	0xbcae73da	-0.021295477
3	0x3d6b7e0f	0.057493266
4	0xbe4d9c48	-0.20079148
5	0x3e02a94c	0.12759894
6	0xbdc8d2f9	-0.09805865
7	0x3dd08717	0.10182016
8	0xbe0a7edb	-0.13524954
9	0xbe4c3f02	-0.1994591
10	0x3ddaca22	0.10683085
11	0x3df70c1c	0.120628566
12	0xbe3dbcef	-0.18529104
13	0xbe45eb13	-0.19327955
14	0xbe1669ab	-0.14688747
15	0xbdffad1d	-0.124841906
16	0x3e262aff	0.16227339
17	0x3e8248d6	0.25446194
18	0xbd9249ab	-0.07142957
19	0x3ce31809	0.027721422
20	0xbbc30294	-0.005951235
21	0xbe3a84ee	-0.18214771
22	0x3da2c2d7	0.07947319
23	0x3e389fe2	0.1802974
24	0x3ddad2a7	0.1068471
25	0x3d90cd32	0.07070388
26	0xbeab6c7c	-0.33481205
27	0x3d20ff04	0.0393057
28	0xbceb5095	-0.028724948
29	0xbdbd90b5	-0.09256116
30	0xbdf21f21	-0.118223436
31	0x3c85f9e7	0.016354514
32	0xbc393d5b	-0.011306132
33	0xbe347a9d	-0.17624898
34	0xbe246fbb	-0.16058247
35	0x3dad57c9	0.08464009
36	0x3e3b4e02	0.18291476
37	0xbe32edbf	-0.17473505
38	0xbe05deb0	-0.1307323
39	0xbe24364b	-0.16036336
40	0xbe33773e	-0.17525956
41	0xbe1926dc	-0.1495623
42	0xbe1015a6	-0.14070758
43	0xbb85a0f0	-0.004078023
44	0xbe20d51f	-0.15706299
45	0xbe11df2d	-0.14245291
46	0xbcbf6e4c	-0.023368023
47	0x3cc45cda	0.023970056
48	0xbd4dc944	-0.05024077
49	0xbe120c4d	-0.14262505
50	0x3cb0ed38	0.02159749
51	0x3d565537	0.05232736
52	0xbdb9c086	-0.09069924
53	0x3e1d308b	0.15350549
54	0xbd39a85d	-0.04532658
55	0xbe4052f8	-0.1878165
56	0xbe6cf0af	-0.23138689
57	0xbe1ba0e2	-0.1519809
58	0x3baca124	0.005268233
59	0x3cf41270	0.029793948
60	0x3d820060	0.06347728
61	0x3e08c798	0.13357389
62	0xbd4e4401	-0.050357822
63	0x3e0878eb	0.13327377
64	0x3dadcfb5	0.084868826
65	0xbd79b25f	-0.060961124
66	0xbe96b8ac	-0.29437768
67	0x3d7ef063	0.06224097
68	0xbda2f83b	-0.079575025
69	0x3e64226b	0.22278754
70	0xbe87537c	-0.2643088
71	0x3d8b9ddf	0.06817221
72	0x3cdf927f	0.027291534
73	0x3c3f2aa6	0.011667883
74	0xbdae6513	-0.08515372
75	0x3c976487	0.018480552
76	0x3c01cab7	0.007921866
77	0xbd1733ac	-0.036914513
78	0x3e1a13f6	0.15046677
79	0xbe200fbe	-0.15631005
80	0xbc94e079	-0.018173443
81	0xbe83e5a3	-0.25761136
82	0xbe7b781d	-0.24557538
83	0xbe52ec59	-0.20597972
84	0x3e02395e	0.12717196
85	0x3e112a1b	0.14176218
86	0xbdf59000	-0.119903564
87	0x3c8e6a61	0.01738471
88	0x3e4fdc56	0.20298895
89	0x3d7d28ee	0.06180661
90	0x3bfb4fc0	0.007669419
91	0x3bb52934	0.0055285934
92	0xbeb123af	-0.34597537
93	0x3ce86e15	0.028372804
94	0x3a1c42d6	0.0005960887
95	0x3e3a578f	0.18197463
96	0x3dbe3328	0.09287101
97	0xbcbc369a	-0.022975255
98	0xbc0ffec1	-0.008788765
99	0x3e79d2e3	0.24396853
100	0xbce7e543	-0.028307563
101	0x3d26f814	0.04076393
102	0x3d8cb828	0.068710625
103	0x3dccab12	0.099935666
104	0xbb91e12e	-0.0044518923
105	0x3ca7128d	0.020394588
106	0xbe68dc60	-0.22740316
107	0x3e215d12	0.1575816
108	0xbd719322	-0.058978207
109	0xbb0b5735	-0.0021261696
110	0x3e6ee33a	0.23328868
111	0xbe3c09c9	-0.18363108
112	0xbca35da2	-0.019942109
113	0xbd8a9ba5	-0.06767968
114	0x3df54a80	0.119771
115	0x3dab5717	0.083662204
116	0xbcb8dd0c	-0.02256634
117	0x3d66f5d4	0.056386784
118	0xbe49de93	-0.19713812
119	0xbe176bee	-0.14787266
120	0x3ca69972	0.02033684
121	0x3d074f50	0.033034623
122	0xbe3c5854	-0.1839307
123	0x3d497272	0.04918141
124	0x3dfd5adc	0.12370846
125	0xbe69f818	-0.22848547
126	0xbe0ee53a	-0.1395463
127	0xbc0217dd	-0.00794026
128	0x3c8a60c2	0.01689184
129	0x3e138abc	0.14408392
130	0x3e160456	0.14650092
131	0x3ddb5b67	0.10710793
132	0xbdc3ce65	-0.09560851
133	0xbe4564de	-0.19276759
134	0xbd920e76	-0.071316645
135	0xbe157e50	-0.14598966
136	0xbbe409ce	-0.0069591766
137	0xbe64f100	-0.22357559
138	0x3e28f821	0.16500904
139	0xbc8d3fc7	-0.017242325
140	0x3d95646e	0.07294546
141	0x3d7a9c38	0.061184138
142	0x3c059974	0.008154262
143	0xbd8b0120	-0.06787324
144	0x3e1e2223	0.1544271
145	0x3e23b70b	0.15987794
146	0xbe30d5d0	-0.17269063
147	0xbea710ab	-0.32629904
148	0xbdb2f056	-0.08737247
149	0x3da40ade	0.08009885
150	0x3df97665	0.12180785
151	0x3e194f1a	0.14971581
152	0xbda5922c	-0.08084521
153	0xbd476cd2	-0.048687764
154	0x3e267a34	0.16257554
155	0xbd131e75	-0.035917718
156	0xbe0de524	-0.13856941
157	0x3dacc40f	0.08435833
158	0x3e0fd6a8	0.14046729
159	0xbdbe4c17	-0.09291857
160	0xbc4530bb	-0.012035544
161	0x3d826d42	0.063684955
162	0xbdbd7e38	-0.0925259
163	0xbd93a6d3	-0.072095536
164	0x3ca7b000	0.020469666
165	0x3cb5bdd2	0.02218524
166	0x3bcc9c4a	0.006244217
167	0xbe4681a4	-0.19385391
168	0x3cb210e6	0.021736573
169	0xbe06a146	-0.13147458
170	0x3dbb9eee	0.09161173
171	0xbd68e120	-0.05685532
172	0xbe052fe4	-0.1300655
173	0xbd8d171b	-0.06889173
174	0xbddb34cc	-0.107034296
175	0x3e5de1c6	0.21668157
176	0x3c947f05	0.018126974
177	0xbd1597a8	-0.036521584
178	0xbca7d84c	-0.02048888
179	0xbc86e2c8	-0.01646556
180	0xbd212bf1	-0.039348546
181	0xbe1ab106	-0.15106592
182	0xbbd409d3	-0.0064708977
183	0xbe3ef038	-0.18646324
184	0xbdad5f66	-0.084654614
185	0xba71c21b	-0.00092223444
186	0xbe15368f	-0.14571594
187	0x3e1d79f1	0.15378548
188	0xbe334014	-0.17504913
189	0xbe32754e	-0.1742756
190	0x3ba0b745	0.00490466
191	0x3d83613c	0.0641503
192	0x3cda7d9d	0.026671225
193	0xbdf97467	-0.12180405
194	0xbe5bdc0d	-0.21470661
195	0xbe2cf9c3	-0.16892152
196	0x3dd93aa7	0.1060689
197	0xbc055598	-0.008138083
198	0xbe4f9aaa	-0.20273843
199	0xbce9a54b	-0.0285212
200	0xbe1069ae	-0.14102814
201	0xbec05fbe	-0.37573045
202	0x3e2b5615	0.16732056
203	0x3c5fb36c	0.013653617
204	0x3db86c80	0.0900507
205	0xbe115b29	-0.14194931
206	0x3c8d1625	0.017222473
207	0xbcbb2b4a	-0.02284779
208	0xbd050564	-0.032475844
209	0x3e21ab9e	0.15788123
210	0xbe59a724	-0.21255165
211	0xbe07eef9	-0.13274755
212	0x3d0a810f	0.033814486
213	0x3e0ee4e5	0.13954504
214	0x3ddd132a	0.10794671
215	0xbc613cc2	-0.013747396
216	0x3b9202f3	0.004455918
217	0xbe3d1fad	-0.18469115
218	0x3d35f4c2	0.044422872
219	0x3cef5863	0.02921695
220	0xbe441f32	-0.19152525
221	0xbe31288a	-0.1730062
222	0xbd75e07a	-0.06002853
223	0xbcbf7a89	-0.023373859
224	0x3c04dcf8	0.008109324
225	0xbe354d47	-0.1770526
226	0xbe033ca0	-0.12816095
227	0xbe1bf345	-0.15229519
228	0x3c2067a1	0.009790332
229	0x3e0467cf	0.12930225
230	0xbcc22228	-0.023697928
231	0x3e77a514	0.24184066
232	0x3d11f88b	0.03563742
233	0x3d6040c4	0.054749265
234	0x3cb72f3e	0.022361394
235	0x3dc1b7d8	0.094588935
236	0xbd2aa491	-0.04166085
237	0x3c695acf	0.014242842
238	0xbd65154a	-0.055928506
239	0xbdaa73b2	-0.083228484
240	0x3d157842	0.03649164
241	0xbb75175b	-0.0037397954
242	0xbe0f3420	-0.13984728
243	0x3e2951b7	0.16535078
244	0x3dd87570	0.105692744
245	0xbeb985b9	-0.36234835
246	0xbe9b28fc	-0.30304706
247	0x3d46d032	0.048538394
248	0x3c8ea333	0.017411804
249	0xbd2a5c33	-0.041591834
250	0x3e3ddef9	0.18542089
251	0x3d6cdf07	0.057829883
252	0xbdcc7047	-0.09982353
253	0xbe24e78e	-0.16103956
254	0xbdff8617	-0.124767475
255	0xbd5392ae	-0.051653557

hidden_nets.0.bias f4 [128]
0	0xbd159ba4	-0.036525384
1	0x3c0f888a	0.008760581
2	0x3d13f153	0.036118817
3	0xbc8e12c0	-0.017342925
4	0xbd70c12e	-0.05877798
5	0xbd2ac593	-0.041692328
6	0x3d917897	0.07103079
7	0x3d6bc687	0.057562377
8	0x3ce9d682	0.028544668
9	0xbdacdd6d	-0.08440671
10	0xbe0ff5f0	-0.14058661
11	0xbd016ff4	-0.031600907
12	0xbc62cba0	-0.013842493
13	0x3d178867	0.036995318
14	0xbdb2134f	-0.08695089
15	0xbca85697	-0.020549102
16	0x00000000	0.0
17	0xbd7cda5f	-0.061731692
18	0xbc1a5349	-0.009419271
19	0xbe0a79ad	-0.13522978
20	0xbc05fbda	-0.008177722
21	0xbe698672	-0.22805193
22	0x3c80d386	0.015725862
23	0xbdf0dd86	-0.11761002
24	0xbdb69e21	-0.089168794
25	0xbe2b0776	-0.16702065
26	0xbe0cbf71	-0.13744904
27	0x3d967e42	0.073483005
28	0xbd853184	-0.06503585
29	0x3bcae776	0.006192143
30	0xbd36e621	-0.04465306
31	0xbc602a2c	-0.01368193
32	0xbd4e3f54	-0.050353363
33	0x3cc50600	0.024050713
34	0x3d20603e	0.039154284
35	0xbdec20c8	-0.1152969
36	0xbdee2447	-0.11628013
37	0xbe2a5e74	-0.16637594
38	0x3dcd2bb5	0.10018102
39	0xbd94002f	-0.072265975
40	0xbd1f1b16	-0.03884419
41	0xbe123644	-0.14278513
42	0xbc58fd91	-0.013244049
43	0xbdd2b1f3	-0.10287847
44	0xbd21053a	-0.039311625
45	0xbe015dd0	-0.12633443
46	0xbd1796cd	-0.03700905
47	0xbd954009	-0.07287604
48	0xbccf65a5	-0.025317023
49	0xbd0b0bbc	-0.033946738
50	0xbc44cf27	-0.01201228
51	0xbd839ea0	-0.0642674
52	0xbd1e492b	-0.038643997
53	0x3d2d4e69	0.042311106
54	0xbdb0f158	-0.08639783
55	0x3d4ab6e3	0.04949082
56	0xbdfb7987	-0.12279039
57	0x3d2e0dbf	0.042493578
58	0x3c2bbae0	0.010481566
59	0xbdae97b4	-0.08525029
60	0xbe3150be	-0.17315957
61	0x3b2996ba	0.0025877194
62	0x3d7bd6ca	0.061484136
63	0xba879a80	-0.0010345727
64	0xbc2e11d3	-0.010624367
65	0xbc6ad278	-0.014332406
66	0xbdb87f30	-0.09008634
67	0x3da650af	0.08120858
68	0xbdf9491a	-0.12172146
69	0xbc229566	-0.009923315
70	0x3d445a86	0.047937892
71	0x3c4a7f86	0.0123595055
72	0x3d3a724c	0.04551916
73	0xbd7ddeac	-0.061979935
74	0xbd32bfdf	-0.043640014
75	0xbe2e57a1	-0.17025615
76	0xbdb7193d	-0.08940361
77	0xbe2018fa	-0.15634528
78	0xbdc54568	-0.09632379
79	0xbc9047ca	-0.017612357
80	0xbddfcb66	-0.10927467
81	0xbe15b483	-0.14619641
82	0xbd6a3a37	-0.057184424
83	0xbe289a63	-0.16465144
84	0xbd3cf619	-0.046133135
85	0x3cefd7c6	0.029277693
86	0xbb8dfba2	-0.0043329755
87	0xbe36bbbb	-0.17845051
88	0xbe2cb0c7	-0.1686431
89	0xbd1ebfa0	-0.038756967
90	0xbe004ca5	-0.12529238
91	0x3d560368	0.052249342
92	0xbe074612	-0.13210323
93	0xbc013c4b	-0.00788791
94	0xbdb85779	-0.09001059
95	0xbc1e7b78	-0.009672992
96	0xbe02fd67	-0.12791978
97	0xbc8506b7	-0.016238553
98	0xbe0fa8b8	-0.14029205
99	0xbe023867	-0.12716828
100	0x00000000	0.0
101	0x3d36f052	0.04466278
102	0xbd2d1775	-0.0422587
103	0xbd1f3fc1	-0.03887916
104	0x3ddcfcd6	0.10790412
105	0xbdceb016	-0.100921795
106	0x3d360bbc	0.044444785
107	0x3d00df44	0.031462923
108	0x3c1d1f56	0.009589991
109	0x3c083e1a	0.008315587
110	0x3bf078d5	0.007338623
111	0xbd9fd47c	-0.078042
112	0xbdc4c16b	-0.09607204
113	0xbcf9cb87	-0.030492557
114	0x3aa489dd	0.0012553293
115	0xbdf2e3e8	-0.11859876
116	0x3c560db5	0.013064791
117	0xbe545d3b	-0.2073869
118	0xbd591fef	-0.05300897
119	0xbdcf707d	-0.10128877
120	0x3cc7833a	0.024354566
121	0x3cad7332	0.021173093
122	0x3b37055c	0.0027926778
123	0xbe0b19a8	-0.13584006
124	0xbe10b36a	-0.14130941
125	0xbe021598	-0.1270355
126	0xbe04f46b	-0.12983863
127	0xbda9d4f0	-0.08292568
