models/dqn_racing_episode_400.pth (torch, 456021 bytes, 36 tensors)

fc1.weight f4 [128, 11]
000000 41 a5 a0 3e c1 e9 4d bd 27 ba 97 bd fc 3e f5 3a
       0.3137608 -0.050271753 -0.074085526 0.0018710787
000010 35 32 63 bd 5a 11 8d 3c 04 43 79 bd ac 0b 24 be
       -0.055467803 0.017220188 -0.060854927 -0.16020077
000020 ea 00 e9 3d 48 30 9f bd 73 be 77 bc 8e 73 b0 3e
       0.113771275 -0.07772881 -0.01512109 0.3446316
000030 db c0 1e 3e d9 0c 34 bd 1f 63 15 bd 64 d0 98 3d
       0.15503256 -0.043957565 -0.036471482 0.07461622
000040 a3 b7 10 bc 83 8b 5f bd c9 d9 7c be 67 1c 34 be
       -0.008832845 -0.054576408 -0.24692453 -0.1758896
000050 66 80 90 bd 78 04 c4 bc e0 e9 b2 3d 99 1c 5e be
       -0.0705574 -0.023927912 0.08736014 -0.21690597
000060 fa 89 19 be 73 6b 75 3d 73 98 23 3e 16 88 55 bd
       -0.1499404 0.059916925 0.15976124 -0.052131735
000070 a5 25 0e 3c 03 ef f6 3b c3 b1 08 be 7d e6 83 bc
       0.008675967 0.0075358166 -0.1334906 -0.016101116
000080 51 e8 dd 3b 72 d4 91 be 39 b7 f5 bd 82 08 66 bd
       0.006772079 -0.28482395 -0.119978376 -0.056160457
000090 ab 48 8c be 6d 06 c6 3d 42 8b 64 be 11 7c d8 3d
       -0.2739919 0.09669194 -0.22318748 0.10570539
0000a0 b2 21 8a bd 11 8d 8e 3d d5 a6 0e 3e 09 88 e5 3d
       -0.06744708 0.069605 0.13930829 0.11207587
0000b0 06 49 52 3e 09 10 d9 3b f4 76 58 be 87 bb c9 3d
       0.20535669 0.006624226 -0.21139127 0.09850221
0000c0 57 97 6f be b5 0a 32 bd 8c f7 63 3d 54 84 d1 bd
       -0.23397575 -0.043467242 0.055656 -0.10230318
0000d0 07 94 ea 3b f4 d4 82 be b6 61 00 be 8a 54 b7 3e
       0.0071587595 -0.25553095 -0.12537274 0.35806686
0000e0 3e 2e 1a be da 87 cf bd 1a 00 75 bc 92 d2 53 3e
       -0.15056702 -0.101333335 -0.0149536375 0.20685795
0000f0 c3 84 61 bc ca 94 0b bd 6d aa 10 be a6 1e dc 3d
       -0.013764563 -0.034077443 -0.14127512 0.10748033
000100 13 f0 75 bd 2b 69 8a bc a2 3d 6d bd 99 2d 62 3d
       -0.060043406 -0.016895851 -0.057920106 0.055219267
000110 bd c7 9d be 5a 88 a8 3d 5c 72 5c be 32 6c 50 bd
       -0.3081645 0.08229132 -0.21528 -0.050884433
000120 62 34 e1 bd 26 a6 75 3d 03 a5 0d be 3e 85 f3 bd
       -0.10996319 0.059972905 -0.13832478 -0.11890648
000130 11 88 89 be 03 25 43 be 60 d7 ff bc af 18 28 bd
       -0.26861623 -0.19057088 -0.031230628 -0.041039165
000140 a1 e8 a6 bc 11 88 d6 bc 48 d3 70 be 8e 76 ed 3d
       -0.020374598 -0.026187928 -0.23518097 0.11594878
000150 39 d9 1f bd 4d f7 09 3e 07 31 e2 bd 22 d2 0f 3c
       -0.03902552 0.13473244 -0.110445075 0.008778127
000160 e2 17 67 3e 4d 20 66 bd 42 8a 0a be ef 8d 6e bd
       0.22567704 -0.05618315 -0.13529304 -0.058240827
000170 2e 10 05 3d 69 18 36 be d7 ef fd bd af b8 04 be
       0.032486133 -0.17782749 -0.123992614 -0.12961076
000180 87 25 f4 bd 38 c9 7d be 88 8d 36 3d 31 75 6d 3d
       -0.1192122 -0.2478379 0.04456857 0.05797309
000190 fd 3a a1 be ec c3 a4 3d 11 07 92 3c cc 05 33 3e
       -0.31490317 0.08045182 0.017825635 0.1748268
0001a0 2c 04 24 3d a6 38 85 bb a2 4f 54 bc d4 d4 1e 3d
       0.04004304 -0.004065591 -0.012958439 0.038777187
0001b0 e2 ed db bc 50 f3 97 3c 90 bf 13 be 8d 96 b9 3c
       -0.02684683 0.018548638 -0.14428544 0.022654796
0001c0 76 05 51 be d9 65 2f be 75 42 9b be 8c 39 e2 3d
       -0.2041224 -0.17128696 -0.3032414 0.110461324
0001d0 c6 a5 04 bd 20 ee 06 3d 52 a2 12 be 59 b3 fc 3c
       -0.032384656 0.032941937 -0.14319733 0.030847238
0001e0 ec c8 60 3e 3b 60 05 be d4 fa 37 be 24 b3 b3 3d
       0.21951646 -0.1302499 -0.17966777 0.08774403
0001f0 3e 40 97 be 49 4f 8c 3d 3d d7 60 bd f0 1e f4 bd
       -0.295412 0.0685106 -0.054892767 -0.11919963
000200 b6 b2 67 be bf 14 81 3d 8d ec 8a bd 33 c6 be bd
       -0.22626767 0.06302785 -0.067834 -0.09315147
000210 ba a1 88 be 3c b9 a0 bd 65 07 da 3d 91 6a 02 be
       -0.26685888 -0.07847831 0.10645942 -0.12735964
000220 66 53 0a bd 45 a8 d5 3d 61 83 63 3d ef 4a c0 bc
       -0.03377094 0.104324855 0.055545215 -0.023473231
000230 eb bf a1 3d a1 88 31 3d df 32 8d bd ae 04 ba be
       0.078979336 0.04334319 -0.068944685 -0.36331695
000240 14 9d 44 be 45 56 ae 3d 6d 56 5b 3e 56 e7 60 3d
       -0.19200546 0.08512548 0.21419688 0.05490812
000250 62 c6 5e be 09 52 dc bd 9c d8 78 be af 59 17 3e
       -0.21755365 -0.107578345 -0.2430138 0.14780305
000260 1a 70 78 bc 82 42 05 3e 7a 79 8f 3e 79 be 2a be
       -0.015163446 0.13013652 0.28022367 -0.16674222
000270 0a 29 42 be 6d 3b a3 3d d0 ad 82 3d 58 ab 8d bb
       -0.18960968 0.07970319 0.06380808 -0.0043234043
000280 dd df 16 bd 8d e4 22 be dc 68 04 be 8c fe f2 bc
       -0.036834586 -0.15907498 -0.12930626 -0.029662393
000290 55 85 9d 3c a7 70 32 bd 90 65 25 3d a5 f3 11 be
       0.019228617 -0.043564465 0.04038006 -0.142531
0002a0 a7 0e 86 bd 18 d2 2a be f8 66 93 bc 59 67 47 3d
       -0.065457635 -0.16681707 -0.017993435 0.048682544
0002b0 1b a8 d0 bd 1b 6e fa 3d a8 76 06 be 3d 41 de 3d
       -0.101883136 0.12228032 -0.13131201 0.10852287
0002c0 aa b8 40 3e ff 4b fe bd 54 e4 d6 3c 07 cc 82 3d
       0.18820444 -0.12416839 0.026231922 0.063865714
0002d0 57 97 c1 be 49 80 b4 3d ab 60 43 3e 0a 94 cc 3d
       -0.37810776 0.08813531 0.19079845 0.09989174
0002e0 4a d2 cf 3b e6 4c dd 3d 3e 07 4f 3c 70 a8 96 bd
       0.006342207 0.10805683 0.012636004 -0.07356346
0002f0 17 51 97 bd 16 d0 88 be 70 19 7e 3e dd 10 68 be
       -0.073885135 -0.26721257 0.24814391 -0.22662683
000300 3a 6d 90 bd 32 aa 3e be e6 ea 4b be 35 c0 f5 bd
       -0.07052083 -0.18619612 -0.19913825 -0.11999551
000310 db d2 91 bd 1a cc 52 bd 1a fd 34 bc 6e 00 3f be
       -0.071202956 -0.051464178 -0.011046672 -0.18652508
000320 a7 8f cf bd 79 04 e9 ba d3 92 04 3e df 18 68 3d
       -0.101348214 -0.0017777822 0.12946634 0.056664344
000330 84 29 9d 3c a4 c1 fc bc d1 5e 0e 3e 35 46 71 3d
       0.019184835 -0.030854054 0.13903357 0.058904845
000340 26 21 97 bc 97 ce 33 3e 80 9d 3d bc 4d 05 7a bd
       -0.018448424 0.17559277 -0.011573195 -0.06104021
000350 5d 59 10 be 7a 23 70 be e0 04 3a bd 93 e8 c0 3d
       -0.1409659 -0.23451033 -0.045414805 0.0941936
000360 c5 5b 6f be 93 3e 49 39 7a 0d 0b 3e 74 38 fa 3b
       -0.23374851 0.00019192164 0.1357936 0.0076361243
000370 fd 53 b1 3e 1e 4a 82 bc 0e ae 12 3d 08 5d 17 bd
       0.3463439 -0.015904482 0.035810523 -0.036953956
000380 2b 39 31 3c aa df df 39 97 28 fe bc f4 57 9a be
       0.010816853 0.00042700517 -0.031025214 -0.30145228
000390 d2 17 c2 3d 84 f8 4f 3d 56 8a 2c 3d 67 df b1 3e
       0.094771996 0.050774112 0.042124115 0.34740755
0003a0 c3 de 2a 3b f3 53 01 be b5 b2 16 bd 91 50 0f 3e
       0.0026072718 -0.1262968 -0.036791522 0.13995577
0003b0 57 ab 1e bd c0 1a 17 3d 55 f3 d2 bd d8 2d 33 be
       -0.03873762 0.036890745 -0.10300318 -0.17497957
0003c0 93 30 58 3d c4 d9 d9 3b 2c 45 f5 bd 96 38 08 3e
       0.0527807 0.006648274 -0.11976084 0.13302836
0003d0 46 7d a9 be a8 31 83 3e 30 5a 97 be 80 8f e3 bd
       -0.3310339 0.25623822 -0.29560995 -0.11111355
0003e0 7b f1 b4 bd 9f 08 3f 3e 33 72 19 be a3 4e ee 3c
       -0.08835121 0.18655632 -0.1498497 0.029090231
0003f0 98 d8 c5 bc 03 06 18 be 5f 10 a2 bd e2 34 34 3d
       -0.024151132 -0.14846043 -0.07913279 0.043995745

fc1.bias f4 [128]
000000 e8 d0 0d be 96 63 a6 bd 4f 1c 3a be 84 bb c6 bd
       -0.13849223 -0.08124463 -0.18174861 -0.097037345
000010 ca 7a a7 bc 06 40 dd bd 2c e0 87 3d 9a 18 13 bd
       -0.020444293 -0.10803227 0.06634554 -0.035912134
000020 8e a8 84 bd e4 c8 4a be 6a fb 2c bd 23 7d 0c bd
       -0.06477462 -0.19803196 -0.042231955 -0.034299027
000030 43 3b 24 be 76 43 a6 bd b7 32 18 be 69 15 27 bc
       -0.16038232 -0.08118336 -0.14863096 -0.010197976
000040 2d 30 7b bd 03 5c 52 bd d6 36 17 be 0e 15 e6 bd
       -0.06132524 -0.05135728 -0.14767012 -0.112344846
000050 e8 5c e0 bd a7 14 2b be 36 47 64 3c 98 06 0d be
       -0.109552205 -0.16707097 0.013932994 -0.13772047
000060 14 43 ca bc 60 a8 98 bd 31 53 97 bd 39 93 44 be
       -0.024690188 -0.0745399 -0.073889144 -0.19196786
000070 ec 0c 86 3c 38 02 ea 3d 21 8e 18 be bf 43 0a bd
       0.016363584 0.114262044 -0.14897968 -0.033756014
000080 26 94 26 bd 05 cb 2d 3d 6b 26 45 be 7e 58 c1 bd
       -0.04066863 0.042429943 -0.19252937 -0.09440707
000090 e3 0b ef bd a3 4c a7 3d 2b f5 e4 3d cd e4 4d be
       -0.11672189 0.08168914 0.111795746 -0.20106812
0000a0 24 2a 14 bd 8f 4b 0b be 46 80 b9 3d fd 80 37 be
       -0.036173 -0.13603042 0.09057669 -0.17920299
0000b0 74 4a a0 3d c8 2b ab bd ce c3 75 be 58 58 90 3b
       0.07826701 -0.0835796 -0.24000475 0.0044050626
0000c0 f6 99 29 3e dc a3 23 bd 1e a5 a6 3d 8d b1 16 be
       0.16562638 -0.03995119 0.08136962 -0.14716168
0000d0 80 c3 b4 bc bc c2 f6 bd b4 f7 30 bd ba bf 92 bd
       -0.022065878 -0.120488614 -0.043204978 -0.07165475
0000e0 e2 d4 33 be ac f5 7d be 9c 88 58 bc 2c 28 21 3e
       -0.17561677 -0.24800748 -0.013216164 0.1573798
0000f0 b6 cc be bd da 23 40 be 6d 15 33 be 65 bd 43 be
       -0.09316389 -0.18763676 -0.17488642 -0.19115217
000100 04 a1 22 bc ec 64 92 bd af 90 f5 bc da 5b 0e be
       -0.009926084 -0.071481556 -0.029976217 -0.13902226
000110 94 ec b1 3d 8f f6 a9 ba c5 df d7 bd 6b ef e0 3d
       0.08687702 -0.0012967157 -0.105407275 0.10983165
000120 06 e3 43 bc c6 4e f1 bd 30 fe e0 bd e5 a9 31 bc
       -0.011955982 -0.11782603 -0.109859824 -0.010843729
000130 7f b7 b8 bd 6b da ee bd 00 00 00 00 40 f6 43 be
       -0.09019374 -0.11662754 0.0 -0.19136906
000140 99 a5 eb bd 7e f3 94 bd 89 45 1a 3d 92 bb 1c be
       -0.115061946 -0.07273005 0.03766397 -0.15305927
000150 90 eb 2d be 00 00 00 00 c8 f7 b6 bc b4 23 62 be
       -0.16984391 0.0 -0.022334948 -0.22083932
000160 c9 df fe bc a8 92 86 3d f1 2f 15 3e d8 b6 27 3e
       -0.031112568 0.06570941 0.1456907 0.16378343
000170 14 07 1b be 1c 68 90 bd 6b 7f ac 3d 74 a6 3f be
       -0.15139419 -0.07051107 0.084227405 -0.1871584
000180 db d0 18 3d 99 4f da bd a1 22 c4 bd dd a8 6e bd
       0.037308555 -0.10659713 -0.095769174 -0.05826651
000190 23 f4 34 bd fa 42 6d bd 09 05 d7 3c 06 e8 c2 bd
       -0.04417814 -0.057925202 0.026247518 -0.09516911
0001a0 36 45 73 3d 64 a6 bf 3d c5 74 10 be 56 4c 08 3e
       0.059392177 0.09357908 -0.14107044 0.1331037
0001b0 7c 75 ee bd 7e 22 1c be 63 8d f7 bd cf 69 79 be
       -0.11643502 -0.15247533 -0.12087514 -0.24356769
0001c0 55 8f 0c be 5d d2 75 3d 2d 34 2a bd e9 aa 48 bc
       -0.13726552 0.06001507 -0.041553665 -0.012247779
0001d0 15 8a fe bd dc 8f 1f be e5 92 a4 3d 89 55 3a be
       -0.12428681 -0.15582222 0.080358304 -0.18196692
0001e0 c5 1b 89 3b 5c 74 44 be 0d b9 b7 bd 47 47 96 bc
       0.0041842186 -0.19185013 -0.089708425 -0.018344535
0001f0 aa 9c a2 bd cb 0e 83 3d 1f 95 37 bd 59 b7 9c 3d
       -0.079400375 0.06399306 -0.044819947 0.07652158

fc2.weight f4 [128, 128]
000000 b8 fb 55 bd 97 97 d8 bc 67 3a c9 bd be 52 2f bd
       -0.05224201 -0.026439471 -0.098255925 -0.04280352
000010 3e fe 88 3d ef 54 42 be 8d d3 cc 3c 15 77 a5 bd
       0.06689118 -0.18977712 0.025003219 -0.08079354
000020 f9 63 03 3e 69 8a b2 3d 16 b0 61 3d e8 5a dc bd
       0.12831105 0.08717806 0.05509957 -0.107595265
000030 c2 29 1d 3d 7b 09 15 be 84 10 20 3e 4e d3 8a 3c
       0.0383699 -0.14554398 0.156313 0.016946461
000040 19 84 f6 bd 9c 24 ef bc 2a 19 e1 bd 02 79 9f bd
       -0.120369144 -0.029192261 -0.10991128 -0.07786752
000050 34 2d 50 be aa 8e 13 be 64 57 b6 3d f0 05 f6 bd
       -0.20329744 -0.14409891 0.08903387 -0.12012851
000060 94 e3 43 be 44 3f 66 bd 7d 20 79 bd 0f 79 d3 bd
       -0.19129783 -0.05621268 -0.060822 -0.103258245
000070 81 b8 0c be 9f f3 40 3c 82 53 df 3d 4e 58 6f 3c
       -0.13742258 0.011776834 0.109046 0.014608456
000080 e5 66 21 be 6a c7 68 be b8 4f de bd 8c 26 46 bd
       -0.15761907 -0.2273232 -0.10855049 -0.048376605
000090 aa d7 d0 3d 11 d4 09 be 66 a3 2c bc de 94 34 bd
       0.10197385 -0.13459803 -0.010537004 -0.044087283
0000a0 5e ef 5f be 13 1b 8f bc 55 a1 ec 3d c1 1a 20 bd
       -0.21868655 -0.017468965 0.11554209 -0.039088015
0000b0 56 87 22 3c 74 93 07 be 97 06 b7 bd c5 1e 2e be
       0.009919962 -0.13239843 -0.08936804 -0.17003925
0000c0 2f ec 91 3d 72 e9 e7 bc f7 62 97 bc 2c 86 c4 3d
       0.071251266 -0.028309558 -0.018479807 0.09595904
0000d0 c2 3d 00 3e 15 e5 5a be 85 2a bc bd ae f1 92 bd
       0.12523559 -0.2137645 -0.091877975 -0.07175003
0000e0 e7 04 37 be 60 7b 12 be 7f f8 02 3e c8 a9 ea 3d
       -0.17872964 -0.14304876 0.12790106 0.114581645
0000f0 01 cb 07 3e e4 d2 3b 3c c6 e6 fe 3d 36 a3 eb bd
       0.13261034 0.011463854 0.1244636 -0.115057394
000100 85 2b 16 3e 1a 86 5f 3d 5a 98 19 3e 63 5f 0d be
       0.14665039 0.05457125 0.14999524 -0.13805918
000110 f1 ed e9 bd 02 c5 c5 bb a8 29 aa bd 4e dc 04 be
       -0.11422337 -0.006035448 -0.083087265 -0.12974665
000120 2c a0 00 be 41 55 49 3e c7 ee 12 be d5 58 14 3d
       -0.125611 0.19661428 -0.14348899 0.03621753
000130 c3 fa de 3c a7 57 fb 3c bd 65 f4 3d 1a 8f b8 bd
       0.027219182 0.030681444 0.119334675 -0.090116695
000140 fa 86 65 be 02 0d 0f be 73 18 2f bd 60 71 31 be
       -0.2241477 -0.13969806 -0.042747926 -0.17328405
000150 3d 43 dc bd e4 46 43 bd df cf c8 3d d4 64 95 3d
       -0.10755012 -0.04767503 0.09805273 0.07294622
000160 b1 cd f5 bd cb 02 6e bd c8 e4 2b be 08 12 29 bc
       -0.12002123 -0.058108132 -0.16786492 -0.01031924
000170 80 bd b5 3c 7b df b0 bd d1 c7 13 be b5 b3 0c be
       0.022185087 -0.086363755 -0.14431693 -0.13740428
000180 31 ad be bb 7f 29 ec 3d 52 0f 3d be 56 d8 08 3d
       -0.005818986 0.11531352 -0.18462875 0.03340944
000190 e1 c5 ee bd a2 08 cd 3c 5a 42 cc bd 34 65 76 bd
       -0.11658836 0.02502853 -0.09973593 -0.06015511
0001a0 6b cb 99 3d 5c 17 26 be 32 87 bd bd da d9 0d bd
       0.07509502 -0.16219848 -0.09254302 -0.034631588
0001b0 7d 52 2c 3d b1 94 43 be be 62 27 be 45 e3 5f be
       0.042070854 -0.1909969 -0.16346261 -0.2186404
0001c0 05 e1 8d 3d 73 03 0a be a3 1f 2f be c4 cf 26 bd
       0.06927685 -0.13477878 -0.17101912 -0.040725484
0001d0 df b6 dc bc f7 7b e2 bd 28 33 3a be ec 0b 06 bd
       -0.026942668 -0.11058801 -0.18183577 -0.032726213
0001e0 3e 34 94 bc 9a 9c 3d be af f5 02 3e fb 7e 3d be
       -0.018091317 -0.1851677 0.12789033 -0.1850547
0001f0 fb ca bd 3d 7e 2e 11 be fd 3e 74 bd dc 55 0c bd
       0.09267231 -0.14177892 -0.059630383 -0.03426157
000200 41 a4 35 3d 31 a7 40 3d de 8a 80 3d 64 25 b5 bd
       0.044346098 0.047034446 0.06276487 -0.08845022
000210 5b d5 ef bb 65 51 98 bd 1f a5 57 bd 9a 48 f8 3d
       -0.007319135 -0.074374 -0.052647706 0.12123223
000220 dc 43 f6 bd 57 97 1f be 53 da 40 3e 38 da c7 bd
       -0.12024662 -0.15585075 0.18833284 -0.09758419
000230 1b 40 20 be 50 75 71 3d 1c 6c 37 bd 16 50 07 3e
       -0.15649454 0.05894977 -0.044780836 0.13214144
000240 10 a9 ae be 67 0d 93 3d 21 e6 f7 bc 87 87 35 bc
       -0.3411336 0.07180291 -0.030261101 -0.0110796755
000250 bd 52 63 bc d0 a3 81 3d 88 a9 29 3e e4 d2 55 3a
       -0.013874707 0.06330073 0.16568577 0.00081567303
000260 5c 22 eb bd a6 41 2c 3d 33 db 25 be d0 42 1a bd
       -0.11481163 0.042054795 -0.16196899 -0.037661374
000270 10 53 1d 3e 7f 4b 78 3c 96 69 19 be 1b 85 f5 bc
       0.15363717 0.015154718 -0.14981684 -0.029970696
000280 8d bc af bd 72 58 a1 be 66 26 a4 3c 09 5e 84 bc
       -0.08580885 -0.3151279 0.020037841 -0.01615812
000290 60 5e 24 bd 9a e6 ff bd 26 cc c8 bd 55 f9 67 bd
       -0.040129066 -0.12495156 -0.09804563 -0.056634266
0002a0 4b 57 c8 bc 0e 26 2f 3d 68 b0 43 3d 01 cc d9 bc
       -0.024455687 0.0427609 0.047775656 -0.026586534
0002b0 bb 2e d8 bc c9 25 e7 bd 33 1a 93 3d 37 45 97 be
       -0.02638947 -0.11286504 0.071827315 -0.29544994
0002c0 05 43 79 be 68 f3 35 be 85 cb 90 be c9 91 2f be
       -0.24341972 -0.17768633 -0.28280273 -0.17145456
0002d0 d0 5c 0e 3c 77 48 b4 bd e5 9c c9 be 36 39 f8 3c
       0.00868912 -0.08802884 -0.39377514 0.030300718
0002e0 28 9f 3e be cb f9 14 3b aa 40 fa 3d 7f 04 db bc
       -0.18615401 0.0022731896 0.12219365 -0.026735542
0002f0 06 bc 2d 3e 2f 76 4d be 7d 1c 45 3d f0 b8 ff bc
       0.16966256 -0.20064615 0.04812287 -0.031216115
000300 55 4b 14 3e 69 42 04 be bc 6d d8 be db f1 f4 bd
       0.14481862 -0.12915958 -0.4227122 -0.11960193
000310 7b e8 ee be af 68 10 be fc af bd 3c 44 93 5c be
       -0.46661744 -0.14102434 0.023155205 -0.21540552
000320 d4 ec 5e bc e8 6c b1 bd 58 ef ad 3d ad 17 1a 3d
       -0.013606269 -0.0866335 0.08492917 0.037620235
000330 55 40 13 bd d4 59 14 be 16 96 6e 3d 1d cc 11 3e
       -0.035950024 -0.14487392 0.0582486 0.1423802
000340 c3 e3 01 bc 11 65 29 be 8b ee b2 bd d5 7f 05 be
       -0.007927838 -0.1654246 -0.08736905 -0.13037045
000350 cd 6b 14 bd e0 cd 0e 3e be 13 4e bc 83 d4 02 bd
       -0.03623562 0.13945723 -0.012577949 -0.03194095
000360 87 e8 0b 3e e0 7e 7d be e5 2a bd be 8f 12 c5 be
       0.13662921 -0.2475543 -0.36946788 -0.38490722
000370 74 ca 17 3d 18 00 16 be d8 42 3f 3e fe 1d 58 3d
       0.03705831 -0.14648473 0.18677843 0.052762978
000380 6a 30 0f bb e1 bc 9d be 25 7c 50 be ee 81 b2 be
       -0.0021848925 -0.30808166 -0.20359857 -0.34864753
000390 a2 03 69 bd 81 bb 41 3c 30 a8 cb 3d 59 46 49 bd
       -0.05688823 0.01182449 0.099441886 -0.049139354
0003a0 9f 0d 46 3e b4 1f c2 bd 90 d2 82 bd bf d8 c7 be
       0.19341134 -0.09478703 -0.06387818 -0.39032552
0003b0 e3 5d ba be e8 48 84 bc 03 f9 b2 bd 1c bd 1c 3d
       -0.36399755 -0.016148046 -0.087389015 0.038266286
0003c0 9a ae 3b 3e 75 89 18 bf 00 71 10 bf df 8c c9 bc
       0.18328324 -0.5958474 -0.56422424 -0.024603305
0003d0 fe 46 ef 3d 2d c9 0c bf 18 fd 81 bd 4f 94 dc bc
       0.116834626 -0.5499447 -0.06347102 -0.026926188
0003e0 73 de 80 3d de 28 f6 bd 8d 6e 56 3d bf c6 19 3d
       0.06292429 -0.120195135 0.052351523 0.037543055
0003f0 70 40 a4 bd 09 a4 a7 be b7 3c 30 3e 94 d4 3c be
       -0.08020103 -0.32742336 0.17210661 -0.18440467

fc2.bias f4 [128]
000000 72 39 df bd 41 8c ac 3d 14 a3 a3 3d b8 33 90 3d
       -0.10899629 0.08425189 0.07990089 0.070411146
000010 2f 13 3a 3d b5 bf 66 3d 26 37 93 3d 66 36 0d bc
       0.04542845 0.05633517 0.07188253 -0.008618927
000020 68 26 ba 3d b1 51 88 3d bd 0e 92 3d 5f fb a2 3d
       0.09089357 0.066562064 0.07131717 0.079581015
000030 54 5e 65 3d 01 f9 fb bd a4 36 b6 3d ea ed 96 3d
       0.05599816 -0.12303353 0.088971406 0.07369597
000040 7c 9f 4a 3d bc a9 b3 3d c5 b8 fe bd 58 0e da 3d
       0.049468502 0.08772609 -0.12437586 0.10647267
000050 36 c8 24 3d 88 e2 a7 3d 69 8a 32 3d 4b 59 8b 3d
       0.04023 0.08197504 0.04358903 0.06804141
000060 8c 88 99 3d 51 b2 27 3d 18 f6 bb 3d 77 38 bd 3c
       0.074967474 0.04094154 0.09177798 0.023098214
000070 db 87 5f 3d 8b 93 4b 3d 47 8f 02 be 97 a1 ab bd
       0.05457292 0.049701255 -0.12749968 -0.0838043
000080 31 a4 af 3d 80 0d 34 3d c0 43 e8 3d ea 88 34 3d
       0.08576239 0.043958187 0.11341047 0.044075884
000090 3d 83 bc 3a b4 ea f1 3d 2f 65 4a 3d 50 a6 85 3d
       0.0014382374 0.11812344 0.049412902 0.06525862
0000a0 4c 6a dc 3c 62 88 72 3d f3 c4 0d 3e 96 ce 7b 3d
       0.026906155 0.059212096 0.13844661 0.061476313
0000b0 8e f5 ad bd e9 b3 b9 bd 8b 67 46 3d 05 f5 a0 3d
       -0.084941015 -0.09067518 0.04843859 0.07859234
0000c0 d2 2a eb 3d 3e 28 a9 3d cb 28 d4 3d c8 e1 e8 3d
       0.11482777 0.08259629 0.10359343 0.11371189
0000d0 c0 26 d2 3d 1e 04 82 3d 57 30 71 3d 72 8b 8a 3d
       0.10261297 0.063484415 0.05888399 0.06764878
0000e0 4d 82 a7 3d 2a 37 a1 3d 1e 4c 65 3d 29 24 b8 3d
       0.0817915 0.0787185 0.055980794 0.08991272
0000f0 4c a1 d5 3c ec c5 9a 3d 77 7d ad 3d 67 1d a8 3d
       0.026077889 0.07557282 0.08471196 0.08208733
000100 3d 24 ba 3d a3 32 71 3c 48 25 0d be c2 41 1b 3d
       0.09088943 0.014721545 -0.13783753 0.03790451
000110 a4 b3 82 3d 33 06 d4 3d 92 da aa 3d 19 a1 2e be
       0.0638192 0.10352745 0.0834247 -0.17053641
000120 ef c1 fd 3c 41 37 9f 3d 90 57 c6 3d fc 15 a5 3d
       0.030976264 0.07774211 0.0968467 0.08060834
000130 a7 bc b7 3d 47 2f 84 3d 55 44 a6 3d c5 78 d4 3d
       0.089715295 0.0645433 0.08118502 0.103745975
000140 f8 cb 58 3d 23 a2 c9 3d da 9c 5a 3d 78 b7 3c be
       0.052928895 0.09845378 0.05337224 -0.18429363
000150 14 dd a3 3d ea a8 f8 3c 1a 95 3f 3d fe 94 c8 3d
       0.08001152 0.030353982 0.046773054 0.09794043
000160 77 8c 9c 3d bc 3b 5c 3d a9 de fe 3d 26 35 0b bd
       0.07643979 0.053767905 0.12444813 -0.033986233
000170 73 d7 2a 3d cd 5c e7 3c 67 20 aa 3d 97 c7 eb 3c
       0.041709375 0.028242493 0.083069615 0.028781695
000180 21 9d 78 3c c0 a2 69 3d 2b 5a 95 3d 89 54 cd 3b
       0.015174181 0.057039976 0.07292589 0.006266181
000190 15 4e 90 3d 22 99 60 bd 25 53 39 3d 05 fe dd 3d
       0.07046143 -0.05483354 0.04524531 0.10839466
0001a0 3b 90 b6 3d 0f 67 df 3c 9c 25 88 3d c2 15 b9 3d
       0.089142285 0.027270822 0.066477984 0.09037353
0001b0 fc 6f 83 bc b6 74 83 3d f8 c4 a5 3d ab 84 42 be
       -0.01604461 0.06418745 0.080942094 -0.18995921
0001c0 da 68 b8 3d 9a 17 47 3d 8c e8 c7 3d 8d 1b 2a be
       0.09004374 0.048606493 0.09761152 -0.16612072
0001d0 2c 0e 6b 3d 60 83 95 3d a5 a7 85 3d 33 9b d1 3d
       0.057386562 0.073004484 0.06526116 0.1023468
0001e0 0a 71 46 3d 42 38 90 3d 4e e8 46 3d 31 81 1f 3d
       0.048447646 0.0704198 0.048561387 0.038941566
0001f0 ce 95 a7 3d d8 14 7a 3d ad d9 a4 3d 42 bf 7d 3c
       0.0818287 0.061055034 0.08049331 0.015487494

fc3.weight f4 [64, 128]
000000 2e 7d ae 3d 0c 92 3a 3d 59 ea c6 bd ff 6f 54 3d
       0.0851997 0.045549437 -0.09712667 0.05186462
000010 ee 61 e5 3c 07 35 6d bc 1f a8 8d be 5e 2e 10 3e
       0.028000798 -0.014477975 -0.2766733 0.14080188
000020 29 ef 10 be 66 33 9a 3d 16 52 7b bd e7 15 b9 bd
       -0.14153732 0.07529335 -0.06135758 -0.09037381
000030 7e 8b 05 bd 9c 15 88 3d 10 a6 b7 3d 61 bf 6d 3c
       -0.032603733 0.06644747 0.08967221 0.01451096
000040 7f db 28 be 30 64 d5 bd 36 a5 0c bd bc 3f 94 3e
       -0.16489981 -0.104195 -0.034337245 0.28954875
000050 c2 0e eb 3c 90 a5 1b 3e 09 9c 2c 3d 95 8c 27 be
       0.02869356 0.15199876 0.042140994 -0.16362222
000060 37 ce ef bc e0 9e 91 3d 2f d0 0f 3e ef 12 26 bd
       -0.029273136 0.07110381 0.1404426 -0.0405454
000070 fa eb 19 be bf 6c eb 3d 0a 7f 03 bd b4 22 3a bd
       -0.15031424 0.11495351 -0.032103576 -0.04544325
000080 1f 3e 56 bb e4 3b 2c 3e 91 86 1a 3e ee c7 84 3d
       -0.0032690836 0.16819721 0.15090396 0.06483446
000090 3e 3d c2 bd a8 aa 08 3e b4 e6 1c bd 39 4a 7b be
       -0.09484337 0.1334635 -0.038305953 -0.24540032
0000a0 4d f8 b7 3d 9e b9 c2 3b 3e 04 35 3e 9e 72 1d be
       0.089829065 0.0059425374 0.176774 -0.15375754
0000b0 c8 eb ff 3d f1 d5 64 3d 9c f4 6c bd ec aa a0 be
       0.124961436 0.055868093 -0.057850465 -0.31380403
0000c0 53 c3 10 be 80 cf 1e 3d 02 93 e6 bd 54 78 79 3d
       -0.1413701 0.038772106 -0.11258508 0.06090577
0000d0 f4 b8 ef 3d 4f 3f 05 3e 5d ef 19 3e b2 45 83 be
       0.11705199 0.13012432 0.15032716 -0.2563911
0000e0 69 6f 11 be 61 f6 8c be cb e7 96 bc 34 c9 62 be
       -0.14202656 -0.27531722 -0.018421074 -0.22147065
0000f0 d4 92 95 3e 6c 6c 3d be 0a d5 04 bd dc 80 d5 bd
       0.29213583 -0.18498391 -0.032429732 -0.104249686
000100 92 51 e2 3c 2e 8d 85 bd da a0 0e be 26 5a 8c bd
       0.027626786 -0.065210685 -0.13928548 -0.06853132
000110 06 52 9c be 02 63 41 bd 76 42 06 be de 0f 1c be
       -0.3053133 -0.04721356 -0.1311129 -0.15240428
000120 91 a4 d1 bc f6 89 aa 3d 15 65 11 be 7b 3d ea bc
       -0.025591167 0.08327095 -0.14198716 -0.02859377
000130 7f 7d 41 bd 73 3a 8f 3d 4f 0d 32 be c5 5c 2f 3e
       -0.047238823 0.0699357 -0.1738789 0.17125233
000140 ff cc 6e bd 3c 40 7e be 36 68 07 bc 3b da 65 be
       -0.05830097 -0.24829191 -0.008264592 -0.2244653
000150 c7 31 a1 be dd 9a ac bd dd 6f 85 be b0 1a ac 3d
       -0.3148329 -0.08427975 -0.26061907 0.08403528
000160 d5 c2 23 3e 8d d4 45 be 77 d4 49 3e 2b 8c 50 be
       0.15992291 -0.19319363 0.19709955 -0.2036597
000170 b1 73 7a bd e0 a1 4c b8 51 48 c2 bd 9a 97 6f bd
       -0.06114549 -4.8788148e-05 -0.094864495 -0.058494188
000180 6c 5a 22 3e 94 5b 38 be a3 2e fd bd 31 4e 70 be
       0.15854806 -0.18003684 -0.12362411 -0.23467328
000190 66 14 6e bd c6 ae 73 be d5 f9 46 bd a1 92 10 3d
       -0.058124922 -0.2379714 -0.048578102 0.035296086
0001a0 26 3a c5 bd ac 1b e0 bd 9c 84 41 3d 9c 1e fa bd
       -0.096302316 -0.10942778 0.047245607 -0.122128695
0001b0 4c c8 79 3e c2 89 57 be 55 fa 3c be d2 97 1f 3c
       0.24392813 -0.21048644 -0.18454869 0.009740787
0001c0 03 c2 99 3d 72 f8 e1 3d 56 de 44 be a9 12 2c 3e
       0.07507708 0.11033715 -0.1922544 0.16803993
0001d0 74 28 0d be bd 65 eb bd ef c1 38 be ea 33 59 bd
       -0.13784963 -0.114940144 -0.1804273 -0.053028025
0001e0 e9 49 60 be 2b 19 40 bd 1e e9 b3 3c 03 dc 50 3e
       -0.21903194 -0.046899002 0.021961745 0.20396428
0001f0 13 67 1c 3e ea 42 f4 bd a8 7a 2e be db ea 1c 3d
       0.15273695 -0.11926825 -0.17038977 0.038309913
000200 1e 84 33 be bb c1 9b 3d 98 e7 99 bd 6a 48 b9 bd
       -0.17530867 0.076053105 -0.07514876 -0.09047015
000210 3c 34 dc 3d 1c 26 85 bd 3c 40 64 3d 5d f0 db bd
       0.107521504 -0.065014094 0.05572532 -0.10739205
000220 f2 25 66 3d 76 48 05 be d7 72 a7 bd b4 a0 6a be
       0.05618853 -0.13015923 -0.08176201 -0.22912866
000230 26 6d db 3c aa e0 b1 bd 05 f4 0e be 4a 06 be bd
       0.026785444 -0.086854294 -0.13960274 -0.09278543
000240 94 49 a5 bd b6 d5 13 bd 13 ed f5 3d e2 32 c4 3d
       -0.080706745 -0.036092483 0.12008109 0.095800176
000250 63 58 03 be 7b d0 4d be 57 77 1b be 21 31 65 bd
       -0.12826686 -0.2009906 -0.15182243 -0.055955056
000260 9c 54 0e be 3e 80 a8 3d 60 31 2c bc 8d f1 6b be
       -0.13899463 0.08227585 -0.010509819 -0.23041363
000270 65 9d 82 3d 73 7e 86 bd 18 17 12 3e cb 32 26 bc
       0.06377677 -0.06567087 0.14266622 -0.010143946
000280 ab 7b 13 3e e9 83 81 bd f6 64 1e be be 69 e9 3d
       0.14402644 -0.06323988 -0.15468201 0.11397122
000290 66 12 0b bd 62 1c 64 bd d5 eb 5b bd e4 b1 a8 bd
       -0.033953093 -0.05569113 -0.053691704 -0.08237055
0002a0 3b f5 d2 bb 0f a4 0b be 97 4a 0f bd 96 d5 14 be
       -0.006437925 -0.13636802 -0.034983244 -0.14534602
0002b0 66 88 c0 bc 3f df 6b 3d b1 cb a6 3d c9 6c c2 bd
       -0.02350254 0.05758595 0.0814432 -0.09493405
0002c0 ef 24 ed 3c 6e 0c e9 bc 43 b9 7b 3d 72 2f 53 be
       0.028948275 -0.02844831 0.061455976 -0.20623568
0002d0 41 1c 06 be 3f 4d b1 bc cd b1 ba 3d a3 07 31 be
       -0.13096716 -0.02164328 0.09115944 -0.1728807
0002e0 ec 0e 21 bd 92 87 6b 3d c9 61 1b be a7 2c a2 bc
       -0.03932087 0.057502337 -0.15174021 -0.019796683
0002f0 80 69 22 3d 7c f4 7e bc cc cc 4c be 63 d9 c2 3c
       0.039651394 -0.015561219 -0.19999999 0.023785299
000300 cd 16 ef 3d e0 93 ea bc ba 28 2f bd ff 4c d8 bc
       0.11674271 -0.028634965 -0.04276345 -0.026403902
000310 ee 2a 4b 3e 40 68 6c bd 15 67 0b 3d 17 a1 87 bd
       0.19840595 -0.057716608 0.034033854 -0.06622522
000320 d9 04 a5 3d 03 38 50 bd 07 5d 27 3d 52 72 1b be
       0.08057565 -0.050834667 0.040860202 -0.15180328
000330 f2 f1 1c 3d 30 7b aa bc 46 9b c5 bd 0a 6e bd 3d
       0.038316675 -0.020810694 -0.09648757 0.09249504
000340 81 51 69 3d 5b 86 d0 3d cc de 43 be a5 cb b6 bb
       0.056962494 0.10181876 -0.19127959 -0.0055784755
000350 b3 69 80 3b dc ae 0c be 54 62 08 be 32 5f b2 3d
       0.0039188503 -0.13738579 -0.13318759 0.08709563
000360 78 00 26 3e 68 56 5f 3d 2b 80 18 be a2 1e aa 3c
       0.16211116 0.054525763 -0.14892642 0.02076656
000370 3d 7c 53 3a ce bf 17 3e a3 65 87 bd fe 12 b8 bd
       0.0008067524 0.14819261 -0.066111825 -0.089879975
000380 9e 17 2a be 4d b4 c6 3b 76 18 7b be 75 9f 64 bd
       -0.16610572 0.006063974 -0.2452105 -0.055816133
000390 da e1 9a bc ce 2b 90 bd fe 70 f5 3c 31 28 5b bd
       -0.018906523 -0.07039605 0.029961105 -0.053505126
0003a0 a4 9d 18 be 8c 96 af bc f0 6e 04 3e f9 e9 23 be
       -0.14903885 -0.021434091 0.12932944 -0.16007222
0003b0 35 a9 0e 3c 73 dd bc 39 2f 4d 51 3d b7 f6 af bd
       0.008707334 0.00036023147 0.051099 -0.08591979
0003c0 eb 6e 44 bc 9c 61 9f bd 9b ce a8 39 00 5f b7 3d
       -0.0119893355 -0.077822894 0.0003219739 0.08953667
0003d0 fb c2 1b be 08 b7 bb bd 2b 8a 9a 3d 6e 18 ae bc
       -0.15211098 -0.0916577 0.07545885 -0.021251883
0003e0 a0 89 33 be 15 24 7d bc 1f 52 f8 bd 8e 1d 62 bd
       -0.17532969 -0.015450497 -0.12125038 -0.055203967
0003f0 5b 47 dc bd 92 1a 15 be f4 f5 0d be 55 ac d7 bd
       -0.107557975 -0.14560917 -0.13863355 -0.105309166

fc3.bias f4 [64]
000000 03 ec 58 3c 1f 12 57 bd 15 3b 8c 3f c0 04 7e 3f
       0.013239863 -0.052507516 1.095553 0.99226
000010 07 42 84 3f d5 97 77 3f 3f ca 0f 3f f5 56 74 3f
       1.033265 0.9671605 0.5616798 0.95445186
000020 b3 d7 66 3f c8 d2 f2 3e 60 8c 3b 3f 85 40 74 3f
       0.9017288 0.47426438 0.7326107 0.9541095
000030 3f 97 e8 3e a7 b5 a2 bd 3e 7b d8 bd 8b 0c 7b 3f
       0.45427892 -0.07944804 -0.105703816 0.98066014
000040 1a 58 69 3f f7 2d 86 3f f5 ed 67 3f d9 f1 40 3f
       0.9115006 1.0482777 0.9059747 0.7536903
000050 f9 10 da bd 84 69 4e bd a4 22 74 3f 14 49 54 3f
       -0.106477685 -0.050393596 0.9536536 0.8292401
000060 11 d3 72 3f 78 bc 73 3f d0 5f 7b 3f 72 61 82 3f
       0.9485331 0.95209455 0.98193073 1.0185988
000070 5a 9e 7c 3f ee 95 1f be 8d 2a 7f 3f 2a d5 80 3f
       0.98679125 -0.15584537 0.996743 1.0065053
000080 31 1a 84 3f da cb 93 bd bd 01 70 3f ff b9 75 3f
       1.0320493 -0.07216616 0.9375265 0.9598693
000090 90 9e 8d 3f 50 68 77 3f 6d 3d 19 be 67 23 74 3f
       1.1064014 0.96643543 -0.14964838 0.9536652
0000a0 b9 76 63 3f 38 1d 73 3f 6e f9 bc bd cd 24 74 3f
       0.8885303 0.9496646 -0.092272624 0.95368654
0000b0 1c 87 73 3f dd 57 a7 bd ab ca 0c 3e 4a 35 76 3f
       0.95128036 -0.081710555 0.13749187 0.9617506
0000c0 0c 2e 80 3f 16 47 81 3f 3f 2a 7e 3f 5b c6 82 3f
       1.0014052 1.0099819 0.9928321 1.0216783
0000d0 27 c0 7a 3f 1a bf 02 be 35 ed 86 3f 18 63 83 3f
       0.9794945 -0.12768212 1.054114 1.0264616
0000e0 9c 7c 7e 3f ce 26 e3 bd 91 7c 77 3f aa 44 1a 3f
       0.9940889 -0.11091386 0.9667445 0.60261023
0000f0 be c9 16 3f 82 63 5c bd 96 c4 9a bd e6 46 da bd
       0.58901584 -0.053805836 -0.07557027 -0.10658054

value_stream.weight f4 [1, 64]
000000 67 03 8f be 18 68 60 be c8 d1 11 3f 6e 08 23 3f
       -0.27932283 -0.21914709 0.56960726 0.6368474
000010 5b 2e 18 3f bd 54 3b 3f b6 27 24 3f f6 a2 42 3f
       0.5944573 0.73176175 0.64123094 0.7602991
000020 ac 32 20 3f fc a7 1d 3f 9e 9b 2e 3f d0 2b 4a 3f
       0.6257732 0.6158445 0.68206203 0.789731
000030 7f 47 27 3f 48 eb a9 be 04 f7 53 be ed 4b 37 3f
       0.6534347 -0.33187318 -0.20699698 0.7160023
000040 4c 3b 10 3f dd 93 19 3f b5 f0 12 3f d3 2b 18 3f
       0.5634048 0.59991246 0.5739854 0.5944187
000050 4f 7b ec bd 7e df 3b be 72 b0 48 3f f4 2e 2b 3f
       -0.11546957 -0.18346974 0.78394234 0.6686852
000060 c4 8a 37 3f c5 cb 36 3f ca 41 35 3f ac 58 2e 3f
       0.71696115 0.7140468 0.7080351 0.6810405
000070 39 19 25 3f f6 5b 28 be 98 ec 1d 3f a6 fb 2d 3f
       0.6449161 -0.1644133 0.6168914 0.6796211
000080 cc 84 1a 3f 85 d9 84 be 04 84 43 3f 69 56 29 3f
       0.6035888 -0.25947204 0.76373315 0.66147476
000090 09 5a 0a 3f 03 1a 2b 3f c8 c9 db bd 4e 1f 4c 3f
       0.5404363 0.66836566 -0.10731846 0.7973527
0000a0 06 1d 1e 3f f6 fd 3b 3f 1a 11 6c be 52 49 3d 3f
       0.61763036 0.7343439 -0.23053399 0.7394
0000b0 4b 23 36 3f c8 49 a2 be 62 bb 3e bf 28 a4 32 3f
       0.711476 -0.31696916 -0.74504673 0.6978173
0000c0 2a 36 2c 3f 51 e2 2b 3f 06 cc 24 3f 08 7d 26 3f
       0.6727015 0.67142206 0.64373815 0.6503453
0000d0 cf a6 37 3f bf b0 27 be c6 ec 17 3f 3d bc 19 3f
       0.71738905 -0.16376017 0.5934566 0.60052854
0000e0 8b 7c 26 3f 9d 3b 83 be f3 c4 20 3f 88 ac 2b 3f
       0.6503379 -0.2563142 0.6280052 0.67060137
0000f0 5a 17 16 3f 08 6c d5 3d d9 ae 9b bc 1e d4 f2 bc
       0.5862938 0.10420996 -0.019004272 -0.029642161

advantage_stream.weight f4 [5, 64]
000000 91 cc fb bc ea e7 9c be ea 29 84 3d 39 59 df bd
       -0.030737193 -0.30645686 0.06453307 -0.1090569
000010 38 3a a1 3d 9a dd 62 bd 77 af 6c be 71 ad 0c bb
       0.078724325 -0.055387117 -0.2311381 -0.0021465684
000020 1c 02 5e 3d b6 d5 a3 3c df 1d 8d bd 3c 4f ae 3d
       0.05420123 0.019999366 -0.06890463 0.085112065
000030 6d 24 35 bd ce 2d a7 bb 3f 02 af 3d 5e 3c 30 bb
       -0.04422419 -0.005101896 0.0854535 -0.002689145
000040 6b 19 09 3e f5 c0 88 bd 8b aa d2 3d 7a 92 46 bd
       0.13388602 -0.06677429 0.10286435 -0.048479535
000050 8f 9d 5a bb 96 84 0b 3e 73 9d 2f bd 71 da 89 bd
       -0.0033358072 0.13624796 -0.042874765 -0.067311175
000060 24 85 c3 3d b8 9b e3 bb f6 90 be 3d ed 2a f6 bc
       0.09546879 -0.0069460534 0.09304993 -0.030049765
000070 71 68 a5 bc 04 1c 3f bd 29 41 ee bd 43 a9 46 3d
       -0.020191403 -0.046657577 -0.11633522 0.048501264
000080 90 73 04 bd 0f b7 4d 3e 60 a3 57 3c 6a 88 89 3d
       -0.03233677 0.20089363 0.01316151 0.06715472
000090 0d 29 96 3d 6e 42 dd 3d 49 36 84 be 46 fb b6 3d
       0.073320486 0.10803686 -0.25822666 0.08934645
0000a0 8b e7 4c 3d 22 22 27 3e a9 33 14 be 5b b2 11 3e
       0.050025504 0.16321614 -0.14472832 0.14228193
0000b0 a0 dd b4 3d 6e 31 74 3e 7c 22 90 3e b7 a7 bb 3d
       0.08831334 0.23846981 0.2815131 0.091628484
0000c0 52 eb aa b7 1c 9b 38 3c e0 6b 57 3d 35 9e 20 bd
       -2.0375159e-05 0.01126745 0.052593112 -0.039213378
0000d0 03 27 1e bc 32 d7 bb 3c ad c4 8d bc 9a b6 85 3b
       -0.009652856 0.022929762 -0.017305696 0.0040806057
0000e0 c1 e2 3c bd 9b 89 1c 3e 9e 32 55 3c e3 37 0f bd
       -0.046114687 0.15286867 0.013012556 -0.034965407
0000f0 3b cd 59 3c 84 e0 7d be b9 b3 17 bc ac 19 03 3e
       0.01329356 -0.24792677 -0.009259158 0.12802762
000100 f6 e7 e7 bd 53 50 d7 3d d0 c3 5a 3d a5 a1 be bd
       -0.1132354 0.105133675 0.053409398 -0.09308175
000110 76 32 81 3d 51 6d 62 bd 37 37 75 be 09 5e fb bc
       0.06308453 -0.055280033 -0.23946844 -0.030684488
000120 9b 21 fe 3c f2 81 9c 3d 5d 14 10 bd e8 01 90 3d
       0.031021884 0.076419726 -0.03517567 0.070316136
000130 46 37 f0 bc 5a 0e bf 3b 20 e7 19 be 71 67 ad bc
       -0.029323231 0.0058305683 -0.15029573 -0.021167489
000140 c9 cd 0e 3e d0 e4 c4 bd 18 5d 09 3e e7 a4 8d bd
       0.13945688 -0.09613955 0.13414419 -0.06916218
000150 27 3c 96 bd ea a1 7a bd a6 f8 7c bd be ba 9c bd
       -0.07335692 -0.06118957 -0.061760567 -0.07652806
000160 cb e1 77 3d 90 a5 84 bc 9c d9 b0 3d a8 d2 21 bd
       0.060518067 -0.016192228 0.08635256 -0.039507538
000170 c5 96 51 bd 6e e4 9e bd 22 1c c8 bd de 93 12 3a
       -0.051169176 -0.07758413 -0.09770991 0.0005591492
000180 73 11 1e bd 84 b8 e8 3b 65 49 63 bb 3a 2f 06 3e
       -0.03859086 0.007102074 -0.0034681198 0.13103953
000190 2e ed a3 3d df 1d c5 3d db 77 71 3c 41 53 d7 3d
       0.08004223 0.09624838 0.014738048 0.10513926
0001a0 6a ef ff 3b 0f d1 0d 3e dd be 82 bd 72 e8 09 3e
       0.007810523 0.13849281 -0.063840605 0.13467577
0001b0 43 5f 96 3d 21 fe fb 3c 80 54 d6 3c 6c 79 89 3d
       0.073423885 0.030760827 0.02616334 0.067126125
0001c0 cc 33 18 bd f5 3d ea bc 9d 5b 99 3d be a7 4d bd
       -0.037158772 -0.028593997 0.07488177 -0.0502088
0001d0 a8 5c c3 bc d3 7b cd bd f3 e1 79 bd 45 dd 87 bc
       -0.023847893 -0.10033383 -0.061006498 -0.016585002
0001e0 31 5a ea bb 50 ec 30 3d c2 fd c3 bc a1 9a c7 bc
       -0.007151865 0.043194115 -0.023924712 -0.024365725
0001f0 b3 69 33 3c aa 10 6e be d0 3c 16 3d 66 8a 31 be
       0.010950494 -0.23248544 0.03667909 -0.17337951
000200 12 98 11 bc 9e a7 0b 3e 79 66 60 3d 93 ac a8 bd
       -0.008886354 0.1363816 0.054785226 -0.08236041
000210 e9 c8 62 3d a2 6f a2 bc b2 e5 83 be 53 4b 5e bc
       0.055367384 -0.019828621 -0.2576118 -0.013567763
000220 3f d6 24 3d c7 62 8a 3c be b1 39 bd 5e a6 c6 3d
       0.040243383 0.016892804 -0.045335524 0.09699701
000230 4e 3a 23 bd 73 aa 13 bd fa 7c 0c 3c 4b a1 89 bc
       -0.039850526 -0.036051225 0.008574719 -0.016800543
000240 89 19 10 3e d8 c8 23 bd 65 01 25 3e c5 36 48 bd
       0.14072241 -0.03998646 0.16113813 -0.048880357
000250 a4 47 35 be 23 f3 0c be 16 fb e5 bc 6f 29 28 bd
       -0.1770311 -0.13764624 -0.028073829 -0.04105514
000260 14 35 a3 3d 11 35 c8 3c a9 b5 d5 3d 6e e4 99 bc
       0.07969108 0.024439367 0.104350396 -0.018785682
000270 6d b3 c8 bc 24 d4 4b be 38 77 da bd 2d 3e ef 3c
       -0.02449962 -0.19905144 -0.106672704 0.029204452
000280 ee f2 5c bc 3d ee 74 3e 01 72 42 bc 6a a4 f4 3d
       -0.013485653 0.23919006 -0.011868001 0.11945422
000290 24 9f c5 3d 64 a9 ad 3d da 91 f8 3d b3 bf a6 3d
       0.09649494 0.08479574 0.12137194 0.081420325
0002a0 08 28 03 3d 24 0e 27 3e 17 bb 22 bd 9a ab 2b 3e
       0.0320206 0.16313988 -0.039729204 0.1676468
0002b0 1a 73 f8 3d c1 07 f8 3c 88 ba 73 3e ca 85 94 3d
       0.12131329 0.030277135 0.23801625 0.07252081
0002c0 f5 c3 e1 b9 ce 93 11 3c ff 02 82 3d 8f e8 c9 bc
       -0.00043061344 0.008885337 0.06348228 -0.024647025
0002d0 c3 51 91 bc ba 58 0c 3e 66 c4 1d bd f0 11 50 bb
       -0.017739182 0.13705721 -0.03851738 -0.0031748973
0002e0 68 f7 22 bc a7 d6 d8 bd 91 15 d4 bc c2 60 96 bc
       -0.009946682 -0.10587817 -0.02588919 -0.018356685
0002f0 58 bb 22 3c 28 7e 3c 3e 1c 4d 07 3e 4b 26 3c be
       0.009932362 0.184075 0.13213009 -0.18373983
000300 90 99 0c 3e c3 27 80 3d 3a 27 01 3d 6f d5 e3 bd
       0.13730454 0.06257584 0.03153155 -0.111246936
000310 41 94 82 3d 6f b6 b8 bd 98 a5 82 be 6e 9b 61 bd
       0.063759334 -0.090191714 -0.25516963 -0.05507987
000320 bb 1a 1b 3c 31 65 fb 3d 9e fb f3 bd bf f4 41 3d
       0.009466822 0.1227516 -0.119132265 0.04735255
000330 54 93 95 3d 47 1d 81 3e ac c6 8a 3e 59 25 dc bd
       0.07303491 0.2521765 0.271047 -0.10749311
000340 9f 49 09 3e 56 c7 06 be cf 9c 92 3d 1a 30 d7 bc
       0.1340699 -0.13161978 0.07158815 -0.026268054
000350 33 ed 2f be 83 e7 c6 bd f4 54 ea bd ee 09 08 be
       -0.17180328 -0.09712126 -0.11441985 -0.13285038
000360 37 42 a6 3c ad 25 85 3c c6 c4 02 bb 9e b0 91 bd
       0.020295246 0.016253317 -0.0019953712 -0.07113765
000370 ad ca 7b bd ca 34 4c 3e c4 f2 0a be aa e2 21 ba
       -0.061472584 0.19942012 -0.1356917 -0.0006175438
000380 ae f1 4b bd a1 c4 94 3c 0a e4 7b bd 08 f3 2e 3d
       -0.04979103 0.018160166 -0.061496772 0.04271224
000390 d9 e2 42 b9 69 91 dd 3d b4 d7 83 be b8 39 3e 3c
       -0.00018585789 0.108187504 -0.25750506 0.011610441
0003a0 14 b9 f0 bc 9d 29 ad 3d be 47 6a be de 18 cc 3d
       -0.029385127 0.08455203 -0.2287893 0.099656805
0003b0 98 f0 97 3c d9 4d 46 be 7f db c9 be 75 fc 83 3d
       0.018547341 -0.19365634 -0.39425275 0.06444637
0003c0 a9 df a7 bd 9f 95 b6 bd 97 64 88 3c aa c6 da bd
       -0.08196957 -0.08915257 0.016649527 -0.106824234
0003d0 e6 4b 2d bd 71 90 a1 bd f5 f8 6d bd 6f 1d 14 bd
       -0.04230871 -0.07888878 -0.058098752 -0.036160883
0003e0 70 f2 c0 bd b0 6f 14 3e b8 cb 79 bd f7 bc 5b ba
       -0.09421241 0.1449573 -0.060985297 -0.0008382345
0003f0 32 25 ee 3c 15 6b 0d be a2 61 6e 3e 92 4b 36 3e
       0.02907047 -0.1381038 0.23279431 0.17802265

advantage_stream.bias f4 [5]
000000 68 e6 af be 89 61 06 3e d4 56 e8 be 04 ff a5 3f
       -0.34355474 0.13123144 -0.45378745 1.296845
000010 3b 87 90 bf
       -1.1291269

fc1.weight f4 [128, 11]
000000 41 a5 a0 3e c1 e9 4d bd 27 ba 97 bd fc 3e f5 3a
       0.3137608 -0.050271753 -0.074085526 0.0018710787
000010 35 32 63 bd 5a 11 8d 3c 04 43 79 bd ac 0b 24 be
       -0.055467803 0.017220188 -0.060854927 -0.16020077
000020 ea 00 e9 3d 48 30 9f bd 73 be 77 bc 2c b9 b1 3e
       0.113771275 -0.07772881 -0.01512109 0.34711587
000030 c6 35 21 3e 32 c0 22 bd cb cd 0d bd f6 6b a1 3d
       0.15743169 -0.039734073 -0.034620088 0.0788192
000040 92 b8 79 bb df 73 4a bd 53 36 7a be 67 1c 34 be
       -0.0038104397 -0.04942691 -0.24434786 -0.1758896
000050 4a 78 90 bd ca 72 df bc e0 e9 b2 3d 99 1c 5e be
       -0.07054193 -0.027276415 0.08736014 -0.21690597
000060 fa 89 19 be 73 6b 75 3d 73 98 23 3e 16 88 55 bd
       -0.1499404 0.059916925 0.15976124 -0.052131735
000070 a5 25 0e 3c 03 ef f6 3b c3 b1 08 be 7d e6 83 bc
       0.008675967 0.0075358166 -0.1334906 -0.016101116
000080 51 e8 dd 3b 72 d4 91 be 39 b7 f5 bd 82 08 66 bd
       0.006772079 -0.28482395 -0.119978376 -0.056160457
000090 ab 48 8c be 6d 06 c6 3d 42 8b 64 be 11 7c d8 3d
       -0.2739919 0.09669194 -0.22318748 0.10570539
0000a0 b2 21 8a bd 11 8d 8e 3d d5 a6 0e 3e 09 88 e5 3d
       -0.06744708 0.069605 0.13930829 0.11207587
0000b0 e5 7a 53 3e c2 03 e7 3b c2 41 57 be 38 00 c6 3d
       0.2065235 0.0070500085 -0.21021178 0.096680105
0000c0 83 fc 6f be b7 e4 36 bd cd 92 66 3d 06 38 d0 bd
       -0.2343617 -0.044651713 0.056292344 -0.101669356
0000d0 07 94 ea 3b bd c2 83 be 46 08 01 be 6f 3b b8 3e
       0.0071587595 -0.2573451 -0.12600812 0.35982844
0000e0 2b df 17 be da 74 cd bd a7 03 54 bc 79 44 56 3e
       -0.14831226 -0.10032053 -0.012940324 0.20924558
0000f0 3c 7a 35 bc 8b f9 03 bd 76 4b 0e be a6 1e dc 3d
       -0.011076506 -0.032220405 -0.13895974 0.10748033
000100 29 38 74 bd fd 33 78 bc 20 c3 6f bd d4 8d 61 3d
       -0.05962387 -0.015149114 -0.058535695 0.0550669
000110 39 80 9c be 8a fe aa 3d 54 9e 5b be 5b 7e 4d bd
       -0.30566576 0.08349331 -0.21447116 -0.05016933
000120 b2 ea e5 bd d7 00 73 3d 03 a5 0d be 7a ce f6 bd
       -0.11226405 0.059326973 -0.13832478 -0.12051101
000130 81 42 89 be 03 25 43 be 60 d7 ff bc af 18 28 bd
       -0.2680855 -0.19057088 -0.031230628 -0.041039165
000140 a1 e8 a6 bc 11 88 d6 bc 48 d3 70 be 8e 76 ed 3d
       -0.020374598 -0.026187928 -0.23518097 0.11594878
000150 39 d9 1f bd 4d f7 09 3e 07 31 e2 bd 22 d2 0f 3c
       -0.03902552 0.13473244 -0.110445075 0.008778127
000160 e2 17 67 3e 4d 20 66 bd 42 8a 0a be ef 8d 6e bd
       0.22567704 -0.05618315 -0.13529304 -0.058240827
000170 2e 10 05 3d 69 18 36 be d7 ef fd bd af b8 04 be
       0.032486133 -0.17782749 -0.123992614 -0.12961076
000180 87 25 f4 bd 38 c9 7d be 88 8d 36 3d 31 75 6d 3d
       -0.1192122 -0.2478379 0.04456857 0.05797309
000190 fd 3a a1 be ec c3 a4 3d 11 07 92 3c cc 05 33 3e
       -0.31490317 0.08045182 0.017825635 0.1748268
0001a0 2c 04 24 3d a6 38 85 bb a2 4f 54 bc d4 d4 1e 3d
       0.04004304 -0.004065591 -0.012958439 0.038777187
0001b0 e2 ed db bc 50 f3 97 3c d2 22 0f be 7c 1c e1 3c
       -0.02684683 0.018548638 -0.13978127 0.027479403
0001c0 0a 11 4b be ae 17 2f be c7 c0 98 be be 23 ee 3d
       -0.19830719 -0.17098877 -0.29834577 0.11627911
0001d0 b0 03 0f bd d9 5c 1b 3d 52 a2 12 be 9e b4 16 3d
       -0.034915626 0.037930343 -0.14319733 0.036793344
0001e0 97 e4 65 3e 3b 60 05 be d4 fa 37 be 24 b3 b3 3d
       0.22450481 -0.1302499 -0.17966777 0.08774403
0001f0 3e 40 97 be 49 4f 8c 3d 3d d7 60 bd f0 1e f4 bd
       -0.295412 0.0685106 -0.054892767 -0.11919963
000200 b6 b2 67 be bf 14 81 3d 8d ec 8a bd 33 c6 be bd
       -0.22626767 0.06302785 -0.067834 -0.09315147
000210 ba a1 88 be 3c b9 a0 bd 65 07 da 3d 91 6a 02 be
       -0.26685888 -0.07847831 0.10645942 -0.12735964
000220 66 53 0a bd 45 a8 d5 3d 61 83 63 3d ef 4a c0 bc
       -0.03377094 0.104324855 0.055545215 -0.023473231
000230 eb bf a1 3d a1 88 31 3d df 32 8d bd ae 04 ba be
       0.078979336 0.04334319 -0.068944685 -0.36331695
000240 14 9d 44 be 45 56 ae 3d 6d 56 5b 3e 56 e7 60 3d
       -0.19200546 0.08512548 0.21419688 0.05490812
000250 62 c6 5e be 09 52 dc bd 9c d8 78 be af 59 17 3e
       -0.21755365 -0.107578345 -0.2430138 0.14780305
000260 1a 70 78 bc 82 42 05 3e 7a 79 8f 3e 79 be 2a be
       -0.015163446 0.13013652 0.28022367 -0.16674222
000270 0a 29 42 be 6d 3b a3 3d d0 ad 82 3d 58 ab 8d bb
       -0.18960968 0.07970319 0.06380808 -0.0043234043
000280 dd df 16 bd 8d e4 22 be dc 68 04 be 8c fe f2 bc
       -0.036834586 -0.15907498 -0.12930626 -0.029662393
000290 55 85 9d 3c a7 70 32 bd 90 65 25 3d a5 f3 11 be
       0.019228617 -0.043564465 0.04038006 -0.142531
0002a0 a7 0e 86 bd 18 d2 2a be f8 66 93 bc 59 67 47 3d
       -0.065457635 -0.16681707 -0.017993435 0.048682544
0002b0 1b a8 d0 bd 1b 6e fa 3d a8 76 06 be 3d 41 de 3d
       -0.101883136 0.12228032 -0.13131201 0.10852287
0002c0 7d 2e 43 3e fc 1d fb bd d3 3e db 3c a5 c7 8d 3d
       0.19060703 -0.122615784 0.026763355 0.06922845
0002d0 e7 7f c0 be 95 87 b3 3d ce e4 45 3e 55 b6 cf 3d
       -0.37597582 0.087660946 0.19325563 0.10142199
0002e0 4a d2 cf 3b 8a d4 d3 3d a3 61 e2 3b 70 a8 96 bd
       0.006342207 0.10343273 0.006908612 -0.07356346
0002f0 17 51 97 bd 16 d0 88 be 70 19 7e 3e dd 10 68 be
       -0.073885135 -0.26721257 0.24814391 -0.22662683
000300 3a 6d 90 bd 32 aa 3e be e6 ea 4b be 35 c0 f5 bd
       -0.07052083 -0.18619612 -0.19913825 -0.11999551
000310 db d2 91 bd 1a cc 52 bd 1a fd 34 bc 6e 00 3f be
       -0.071202956 -0.051464178 -0.011046672 -0.18652508
000320 a7 8f cf bd 79 04 e9 ba d3 92 04 3e df 18 68 3d
       -0.101348214 -0.0017777822 0.12946634 0.056664344
000330 84 29 9d 3c a4 c1 fc bc d1 5e 0e 3e 35 46 71 3d
       0.019184835 -0.030854054 0.13903357 0.058904845
000340 26 21 97 bc 97 ce 33 3e 80 9d 3d bc 4d 05 7a bd
       -0.018448424 0.17559277 -0.011573195 -0.06104021
000350 5d 59 10 be 7a 23 70 be e0 04 3a bd 93 e8 c0 3d
       -0.1409659 -0.23451033 -0.045414805 0.0941936
000360 c5 5b 6f be 93 3e 49 39 7a 0d 0b 3e 74 38 fa 3b
       -0.23374851 0.00019192164 0.1357936 0.0076361243
000370 fd 53 b1 3e 1e 4a 82 bc 0e ae 12 3d 08 5d 17 bd
       0.3463439 -0.015904482 0.035810523 -0.036953956
000380 2b 39 31 3c aa df df 39 97 28 fe bc f4 57 9a be
       0.010816853 0.00042700517 -0.031025214 -0.30145228
000390 d2 17 c2 3d 84 f8 4f 3d 56 8a 2c 3d f8 7f b4 3e
       0.094771996 0.050774112 0.042124115 0.35253882
0003a0 56 4c f1 3b de d7 f9 bd 80 1b e7 bc 8b 9e 12 3e
       0.0073638363 -0.121993765 -0.028211355 0.14318292
0003b0 13 5d 12 bd 48 3f 12 3d bc 57 cb bd d8 2d 33 be
       -0.035733294 0.03570488 -0.099288434 -0.17497957
0003c0 23 d1 65 3d 39 e3 32 3c bc 72 f4 bd 8d 46 08 3e
       0.05610765 0.010918432 -0.11935946 0.13308163
0003d0 8b e6 a8 be 2a 36 83 3e 7c ea 97 be 67 89 e8 bd
       -0.3298839 0.2562726 -0.29671085 -0.113543324
0003e0 9d 7c b1 bd 4c ef 3e 3e 33 72 19 be be 35 04 3d
       -0.08666346 0.18645972 -0.1498497 0.032277815
0003f0 16 07 c6 bc 03 06 18 be 5f 10 a2 bd e2 34 34 3d
       -0.0241733 -0.14846043 -0.07913279 0.043995745

fc1.bias f4 [128]
000000 e8 d0 0d be a2 1c a1 bd 4f 1c 3a be 84 bb c6 bd
       -0.13849223 -0.078667894 -0.18174861 -0.097037345
000010 94 49 a2 bc 17 82 d8 bd 7e 8d 86 3d 9a 18 13 bd
       -0.019810475 -0.10571688 0.06569956 -0.035912134
000020 8e a8 84 bd e4 c8 4a be b2 8c 18 bd 23 7d 0c bd
       -0.06477462 -0.19803196 -0.037243553 -0.034299027
000030 43 3b 24 be 76 43 a6 bd b7 32 18 be 69 15 27 bc
       -0.16038232 -0.08118336 -0.14863096 -0.010197976
000040 9a eb 74 bd 03 5c 52 bd d6 36 17 be 0e 15 e6 bd
       -0.059795 -0.05135728 -0.14767012 -0.112344846
000050 e8 5c e0 bd d5 46 27 be 0a b2 62 3c 98 06 0d be
       -0.109552205 -0.16335614 0.013836393 -0.13772047
000060 14 43 ca bc 60 a8 98 bd b9 a1 a0 bd b5 82 4b be
       -0.024690188 -0.0745399 -0.07843346 -0.1987408
000070 fc 58 7d 3c 2d 78 e7 3d 1b 72 12 be bf 43 0a bd
       0.01546311 0.113022186 -0.1430134 -0.033756014
000080 a7 bf 23 bd 56 c1 3b 3d 3b d6 46 be 7e 58 c1 bd
       -0.039977696 0.045838676 -0.1941766 -0.09440707
000090 e3 0b ef bd 14 0a a4 3d 48 43 e2 3d cd e4 4d be
       -0.11672189 0.08009735 0.11047989 -0.20106812
0000a0 5b 2e 17 bd 8f 4b 0b be 3e b8 ce 3d dc fb 34 be
       -0.036909442 -0.13603042 0.10093735 -0.17674202
0000b0 ac 98 a0 3d c8 2b ab bd ce c3 75 be 58 58 90 3b
       0.0784162 -0.0835796 -0.24000475 0.0044050626
0000c0 42 ae 2c 3e 5e 2c 0c bd 19 83 ab 3d d6 fe 17 be
       0.16863349 -0.034222 0.08374614 -0.14843306
0000d0 80 c3 b4 bc bc c2 f6 bd 76 c5 27 bd ba bf 92 bd
       -0.022065878 -0.120488614 -0.040959798 -0.07165475
0000e0 e2 d4 33 be ac f5 7d be 9c 88 58 bc fb 25 21 3e
       -0.17561677 -0.24800748 -0.013216164 0.15737145
0000f0 b6 cc be bd da 23 40 be 6d 15 33 be 65 bd 43 be
       -0.09316389 -0.18763676 -0.17488642 -0.19115217
000100 04 a1 22 bc ec 64 92 bd af 90 f5 bc da 5b 0e be
       -0.009926084 -0.071481556 -0.029976217 -0.13902226
000110 a6 12 b0 3d 8f f6 a9 ba 8d 44 d4 bd a4 e1 d0 3d
       0.08597307 -0.0012967157 -0.103646375 0.101992875
000120 06 e3 43 bc c6 4e f1 bd 30 fe e0 bd e5 a9 31 bc
       -0.011955982 -0.11782603 -0.109859824 -0.010843729
000130 7f b7 b8 bd 6b da ee bd 00 00 00 00 40 f6 43 be
       -0.09019374 -0.11662754 0.0 -0.19136906
000140 86 17 e8 bd 7e d2 96 bd 5b 71 a6 3c 90 3a 1a be
       -0.11332612 -0.07364367 0.020317724 -0.15061402
000150 90 eb 2d be 00 00 00 00 c8 f7 b6 bc b4 23 62 be
       -0.16984391 0.0 -0.022334948 -0.22083932
000160 c9 df fe bc ab 5f 7a 3d dc 1c 12 3e 3b 89 28 3e
       -0.031112568 0.061126392 0.14268821 0.164586
000170 14 07 1b be 1c 68 90 bd 64 6a b2 3d 74 a6 3f be
       -0.15139419 -0.07051107 0.08711699 -0.1871584
000180 3a 48 ee 3c 99 4f da bd 7e 57 c3 bd d3 42 77 bd
       0.029087175 -0.10659713 -0.09538172 -0.060366463
000190 23 f4 34 bd fa 42 6d bd 09 05 d7 3c 06 e8 c2 bd
       -0.04417814 -0.057925202 0.026247518 -0.09516911
0001a0 0a f7 74 3d bc b9 c3 3d e8 34 0f be 4a b3 05 3e
       0.059805907 0.095569104 -0.13985026 0.13056675
0001b0 98 47 ed bd 7e 22 1c be 63 8d f7 bd a5 f0 77 be
       -0.11585921 -0.15247533 -0.12087514 -0.24212892
0001c0 35 b5 10 be 18 ca 73 3d 38 c1 37 bd 67 c3 31 bc
       -0.14131625 0.059518903 -0.044862002 -0.01084981
0001d0 15 8a fe bd 9e 7f 23 be 01 07 96 3d 6f b0 3a be
       -0.12428681 -0.15966651 0.07325555 -0.18231367
0001e0 c5 1b 89 3b 5c 74 44 be 0d b9 b7 bd 47 47 96 bc
       0.0041842186 -0.19185013 -0.089708425 -0.018344535
0001f0 aa 9c a2 bd b9 04 81 3d 1f 95 37 bd f1 b6 9d 3d
       -0.079400375 0.06299729 -0.044819947 0.07700909
