hyperopt_results/models/lr_0.001_20250906_232925/dqn_racing_episode_200.pth (torch, 454549 bytes, 36 tensors)

hidden_nets.0.weight f4 [128, 11]
0	0x3d25118a	0.04029993
1	0xbce3ca1a	-0.02780633
2	0xbe96754c	-0.29386365
3	0xbb936086	-0.0044975905
4	0xbea211c6	-0.31654185
5	0x3dafd91b	0.085863315
6	0x3de047f9	0.10951228
7	0xbd491dea	-0.049100794
8	0x3de900ea	0.113771275
9	0xbec5adcb	-0.38609156
10	0xbda4abd9	-0.0804059
11	0x3d83a21b	0.064274035
12	0x3db197ed	0.08671556
13	0xbe1525cc	-0.145652
14	0xbeaafb2a	-0.33394748
15	0x3dd135d6	0.102153465
16	0xbbb39908	-0.005480889
17	0xbd6439cd	-0.055719186
18	0xbe822b9d	-0.254239
19	0xbe341c67	-0.1758896
20	0xbe156dac	-0.14592618
21	0x3d85ce73	0.06533518
22	0x3db29bd1	0.08721126
23	0xbe86a652	-0.26298767
24	0xbea26f78	-0.3172567
25	0xbce4fab6	-0.02795158
26	0x3e31e78a	0.17373481
27	0xbe0f2a6a	-0.13981023
28	0x3a8b1c3f	0.0010613276
29	0xba05e797	-0.0005108057
30	0xbe08b1c3	-0.1334906
31	0xbc2bfbf4	-0.010497082
32	0x3db20868	0.086930096
33	0xbf20ce5d	-0.62814885
34	0xbe25f5ad	-0.16206999
35	0xbd92b5b6	-0.07163565
36	0xbf13bdd2	-0.5771152
37	0x3e89b99e	0.26899427
38	0x3d1d25c6	0.0383661
39	0x3c1e050b	0.009644757
40	0xbdb13524	-0.08652714
41	0x3d8e8d11	0.069605
42	0x3e3e1bcd	0.18565293
43	0x3dcea1c4	0.10089448
44	0x3d8b5d52	0.06804909
45	0x3e6dc590	0.23219895
46	0xbea45893	-0.32098827
47	0xbd48a6d1	-0.048987214
48	0xbedb1faa	-0.42797595
49	0xbd26bac4	-0.040705457
50	0xbd33b7bb	-0.04387639
51	0x3df988ea	0.121843174
52	0x3bea9407	0.0071587595
53	0xbd39c24c	-0.04535131
54	0xbe02cbfe	-0.1277313
55	0x3e06d2e3	0.13166384
56	0xbe534f0e	-0.20635626
57	0xbb56f9eb	-0.0032802771
58	0xbea2bc1e	-0.31784147
59	0x3dae5955	0.085131325
60	0xbe5ae209	-0.21375288
61	0xbdb08f1b	-0.08621045
62	0xbdf6fb5d	-0.120596625
63	0x3ddc1ea6	0.10748033
64	0x3c75dc38	0.0150061175
65	0x3e3656e6	0.17806587
66	0xbe06b1ce	-0.13153765
67	0x3cc16eb3	0.023612356
68	0xbe7a174f	-0.24422954
69	0xbe398990	-0.18118882
70	0xbe61a092	-0.22033909
71	0xbf02c0f0	-0.5107565
72	0xbde0728e	-0.109593496
73	0xbd5282b7	-0.05139419
74	0xbe0da503	-0.13832478
75	0xbe1f7205	-0.15570839
76	0xbe2cc34b	-0.16871373
77	0xbd95228e	-0.072819814
78	0x3d88bb0a	0.066763
79	0xbd97ef0b	-0.07418641
80	0xbf0fc67d	-0.56162244
81	0xbea889c8	-0.3291762
82	0x3e0813b6	0.13288769
83	0x3dfc4ab8	0.12318939
84	0x3e016e1d	0.12639661
85	0x3e09f74d	0.13473244
86	0x3c9a83dc	0.018861704
87	0x3ca056e2	0.019572679
88	0x3d949a21	0.0725596
89	0xbd5443d9	-0.051822517
90	0xbebb370c	-0.36565435
91	0x3e42a1a6	0.19006976
92	0xbda61b98	-0.08110732
93	0xbe759ff4	-0.23986799
94	0xbddfe4af	-0.1093229
95	0xbe07ea75	-0.13273032
96	0xbdf42587	-0.1192122
97	0xbe2c4b9b	-0.16825716
98	0x3d8daaa1	0.069173105
99	0xbe24331f	-0.16035126
100	0xbeafafcb	-0.34313807
101	0x3d9cdf22	0.07659747
102	0x3cbb17a2	0.022838417
103	0x3e1f3c3d	0.15550323
104	0x3d9d2cac	0.07674536
105	0xbd429625	-0.04750647
106	0xbc72054c	-0.014771771
107	0x3d1ed4d4	0.038777187
108	0xbd9c63af	-0.07636201
109	0xbd6ef74d	-0.058341313
110	0xbd34417f	-0.044007774
111	0x3d44a2c7	0.0480068
112	0xbe3d7871	-0.18502976
113	0x3d15741c	0.036487684
114	0xbed5b626	-0.4174053
115	0xbcdc51d6	-0.026894491
116	0x3dcf0802	0.10108949
117	0x3d62e262	0.055391677
118	0xbe12a252	-0.14319733
119	0x3ce9f510	0.028559238
120	0x3e99e558	0.30057788
121	0xbdf5779e	-0.11985706
122	0xbe1f55db	-0.15560095
123	0x3e23b385	0.1598645
124	0x3bc44243	0.0059893443
125	0xbe3e317a	-0.18573561
126	0xbafe66c1	-0.0019409285
127	0xbe89f2d6	-0.26943082
128	0xbe0592f4	-0.1304434
129	0x3d8114bf	0.06302785
130	0xbef5d02f	-0.48010394
131	0xbe81890d	-0.25299874
132	0xbeed8128	-0.463876
133	0xbd2d183d	-0.042259444
134	0x3eaaa17c	0.33326328
135	0xbf328d03	-0.69746417
136	0xbdad5bb1	-0.084647544
137	0x3d0a4182	0.03375388
138	0x3e0886f3	0.13332729
139	0x3d9ac7b1	0.07557619
140	0x3da1bfeb	0.078979336
141	0xba76d2b8	-0.0009415555
142	0x3ab05fb5	0.0013456257
143	0xbe54c6dd	-0.20778985
144	0xbe7f609a	-0.24939194
145	0x3d861233	0.0654644
146	0x3e7c316d	0.2462823
147	0x3da52f4a	0.0806566
148	0xbd95451e	-0.07288574
149	0xbbb3ee51	-0.005491056
150	0xbe9efce6	-0.3105232
151	0x3e1759af	0.14780305
152	0xbd98181a	-0.07426472
153	0x3d1b9f2c	0.037993595
154	0x3ed260e1	0.41089538
155	0xbe65e69c	-0.22451252
156	0xbcafa795	-0.021442214
157	0xbcc73147	-0.02431549
158	0x3e5bf633	0.21480636
159	0xbd1da9c2	-0.03849197
160	0xbd29176e	-0.04128211
161	0xbe0e62f7	-0.1390494
162	0xbe0468dc	-0.12930626
163	0xbd4682e5	-0.048464675
164	0xbd366f5a	-0.044539787
165	0xbd2ec6c7	-0.042670038
166	0x3d262ecc	0.040571973
167	0xbe15b257	-0.14618813
168	0xbda7f79f	-0.08201527
169	0xbe29ee2a	-0.16594759
170	0xbb9a8445	-0.004715475
171	0x3d49e270	0.049288213
172	0xbdcf6a92	-0.101277485
173	0x3dfa6e1b	0.12228032
174	0xbe1cc0d9	-0.1530794
175	0x3ddf7ec4	0.109128505
176	0x3d4e4501	0.050358776
177	0xbe2bf6cf	-0.16793369
178	0x3cd3a1c1	0.025833966
179	0x3e0496cd	0.12948151
180	0xbef49d8f	-0.47776458
181	0xbe0d07d6	-0.1377252
182	0xbc98f746	-0.018672597
183	0x3d90bf65	0.070677556
184	0x3bcfd24a	0.006342207
185	0x3d235537	0.03987619
186	0x3e71e476	0.23622307
187	0x3e9a903a	0.3018816
188	0xbe1e1e95	-0.15441354
189	0xbe75da52	-0.24009064
190	0xbcc17295	-0.023614207
191	0xbe12bdcb	-0.14330213
192	0xbd5f101a	-0.054458715
193	0xbe256473	-0.161516
194	0xbe69e2f4	-0.22840482
195	0xbdf5c035	-0.11999551
196	0xbdc3d5f7	-0.09562295
197	0xbe0934de	-0.13399073
198	0xbde613c1	-0.112342365
199	0xbe5815c7	-0.21102057
200	0xbe24b41e	-0.16084334
201	0x3ceb310b	0.028709909
202	0x3e0a685a	0.1351637
203	0x3cf59c7c	0.029981844
204	0x3d420819	0.047371004
205	0xbd10c463	-0.03534354
206	0x3e0e5ed1	0.13903357
207	0x3d2c7f7e	0.042113774
208	0x3dae5852	0.085129395
209	0x3e7aed2d	0.24504538
210	0x3ccc33cb	0.02492704
211	0xbe5cb7e9	-0.21554531
212	0xbf0d86f1	-0.5528403
213	0xbec0dc7b	-0.37668213
214	0x3e92eb24	0.28695023
215	0x3e170497	0.14747845
216	0xbe25146c	-0.16121072
217	0x39493e93	0.00019192164
218	0x3be12208	0.006870512
219	0xbd2c72a5	-0.04210152
220	0x3ec857e0	0.39129543
221	0xbe22779c	-0.1586594
222	0xbd54d237	-0.05195829
223	0x3d07aa9e	0.033121698
224	0x3d9eccc7	0.07753902
225	0xbd051e7e	-0.032499783
226	0xbd691883	-0.05690814
227	0xbeafdd9a	-0.34348756
228	0x3dc217d2	0.094771996
229	0xbd111749	-0.035422597
230	0xbd9f52f6	-0.077794954
231	0x3eb9fc12	0.36325127
232	0xbe0868af	-0.13321184
233	0xbda578a9	-0.08079655
234	0xbcdb3dc5	-0.026762852
235	0x3e0d70b7	0.13812529
236	0xbcd8ea8c	-0.026479028
237	0xbc8051f6	-0.015664082
238	0xbe38e3e7	-0.18055688
239	0xbe332dd8	-0.17497957
240	0xbd76c4e6	-0.06024637
241	0x3c5ebcf4	0.013594855
242	0xbe0a549f	-0.13508843
243	0x3c749ad2	0.01492949
244	0xbd948f0b	-0.07253846
245	0x3efc9fe3	0.49340734
246	0xbeacffb4	-0.33788836
247	0xbd93d9f9	-0.07219309
248	0x3c32e237	0.010918192
249	0x3de35c63	0.11101606
250	0xbe197233	-0.1498497
251	0xbcbc6da7	-0.023001505
252	0x3c8c0b55	0.017095247
253	0xbe701c23	-0.23448233
254	0xbdc9a95f	-0.09846758
255	0x3d85ec13	0.06539168

hidden_nets.0.bias f4 [128]
0	0xbce06722	-0.027392928
1	0xbdb5602d	-0.08856235
2	0xbe4259a2	-0.18979505
3	0xbdedcef7	-0.11611741
4	0x3e509711	0.20370127
5	0xbdb2e7cc	-0.08735618
6	0xbd3868c7	-0.0450218
7	0x3e049e40	0.12950993
8	0xbd8b0c93	-0.06789508
9	0xbe4ca40b	-0.19984452
10	0xbca21004	-0.019783027
11	0x3d7c050e	0.061528258
12	0xbd7b3809	-0.061332736
13	0xbe1842ce	-0.14869234
14	0xbe03b143	-0.12860589
15	0xbc1d291c	-0.009592321
16	0xbdb96d23	-0.09054019
17	0xbda51e30	-0.080623984
18	0xbe1bcffc	-0.15216058
19	0xbd230c69	-0.039806757
20	0xbe1b39c5	-0.15158756
21	0xbe7a7f25	-0.24462564
22	0xbd7c5592	-0.061605044
23	0xbe1c2a75	-0.15250571
24	0xbd913f27	-0.070921235
25	0x3c0d5730	0.008626744
26	0xbe13d8fb	-0.1443824
27	0xbe0ec98b	-0.1394407
28	0x3d1c30a8	0.03813234
29	0x3dc0e8a1	0.094193704
30	0xbdb13c0e	-0.08654033
31	0xbd454b95	-0.048167784
32	0xbdb13314	-0.086523205
33	0xbda2d210	-0.079502225
34	0xbe344215	-0.17603333
35	0xbd6bb733	-0.05754776
36	0xbdca4381	-0.098761566
37	0x3e1da2b0	0.15394092
38	0x3e0be0e9	0.13660015
39	0xbe4efb2d	-0.20213003
40	0xbe0e7c24	-0.13914543
41	0xbde292d3	-0.11063161
42	0xbe15a744	-0.14614588
43	0xbe19028f	-0.14942382
44	0x3ddeadb8	0.10872978
45	0xbe1f4f40	-0.15557575
46	0xbe7596fa	-0.23983374
47	0x3e047061	0.12933494
48	0x3dafa1da	0.085757926
49	0xbe47620d	-0.19470997
50	0x3dc10630	0.09425008
51	0xbe61727c	-0.22016329
52	0x3c6dfe4d	0.014525962
53	0xbe0c6097	-0.13708721
54	0xbcfa98f2	-0.030590508
55	0xbd950d60	-0.07277942
56	0xbe3634f3	-0.17793636
57	0xbde93b65	-0.11388282
58	0xbceb4001	-0.028717043
59	0x3e593f5c	0.21215576
60	0xbdd91070	-0.10598838
61	0xbe1940c8	-0.14966118
62	0xbe247da8	-0.16063559
63	0xbe4825ba	-0.19545642
64	0xbd013600	-0.03154564
65	0xbdb08e72	-0.08620919
66	0x3e18b160	0.14911413
67	0xbdfb1981	-0.12260724
68	0x3de3dae9	0.11125738
69	0xbcdb5243	-0.026772624
70	0xbcd3ab69	-0.02583857
71	0x3e0f7bc8	0.14012063
72	0xbd856af8	-0.06514543
73	0xbdd21eaf	-0.10259759
74	0xbd3f0bc4	-0.04664208
75	0xbce1a806	-0.02754594
76	0xbd25c5e1	-0.040471915
77	0xbdeaa305	-0.11456875
78	0x00000000	0.0
79	0xbc0007c5	-0.007814352
80	0xbe0a07d9	-0.13479556
81	0xbd220de0	-0.039564013
82	0x3b851467	0.00406127
83	0xbdf53d75	-0.119746126
84	0xbd83b574	-0.06431094
85	0x00000000	0.0
86	0xbd307a1b	-0.0430852
87	0xbe6b1403	-0.22956853
88	0xbceb16a5	-0.028697321
89	0xbd91119a	-0.07083435
90	0x3d84a626	0.06477003
91	0x3e653b48	0.22385895
92	0xbdbca4bc	-0.09211108
93	0xbe131bd5	-0.14366086
94	0x3cbe6cfd	0.023245329
95	0xbde3822a	-0.11108811
96	0x3da9925f	0.08279871
97	0xbdb1194c	-0.08647403
98	0x3d5e2b62	0.05424059
99	0xbd0f1ba7	-0.03493848
100	0xbdd8e9e3	-0.10591485
101	0xbc866381	-0.016404869
102	0xbc8d1a3d	-0.017224425
103	0x3cfb6530	0.030687898
104	0x3dc0d255	0.09415118
105	0x3e15c723	0.14626746
106	0xbe4c63f7	-0.19960009
107	0x3db3cd5b	0.08779403
108	0xbe1893bf	-0.1490011
109	0xbd71c94a	-0.059029855
110	0xbe00950b	-0.12556855
111	0xbe95e1bd	-0.29273787
112	0xbd0a1cb6	-0.033718787
113	0x3df51119	0.11966152
114	0xbde85670	-0.11344612
115	0xbdfa127c	-0.12210557
116	0x38c0ed15	9.1994334e-05
117	0xbbcf51d1	-0.006326892
118	0xbcf30b06	-0.029668342
119	0xbe2b4277	-0.16724573
120	0xbd82656e	-0.063670024
121	0xbe6fcd51	-0.23418166
122	0xbca0a440	-0.01960957
123	0x3cc4d744	0.024028428
124	0xbd38d52d	-0.045125175
125	0x3da2401a	0.07922383
126	0x3cf711b4	0.030159809
127	0x3d16d7d7	0.036826935

hidden_nets.1.weight f4 [128, 128]
0	0x3db3258a	0.087473944
1	0x3df9e21d	0.12201331
2	0xbcf9fc57	-0.030515833
3	0xbf0efbd9	-0.5585304
4	0xbeb503bc	-0.35354412
5	0xbf1f2ea2	-0.6218053
6	0x3e27c248	0.16382706
7	0xbecb733a	-0.39736348
8	0xbda73aea	-0.08165534
9	0x3d78daa6	0.060755394
10	0xbbeea3b8	-0.0072827004
11	0xbe05b0ad	-0.13055678
12	0xbe9a9839	-0.30194262
13	0xbe6621e6	-0.22473869
14	0x3c354c36	0.011065533
15	0x3c8ad34e	0.016946461
16	0xbdd04ed2	-0.10171284
17	0xbce63353	-0.028100645
18	0xbc9873e1	-0.018609943
19	0xbe89f75b	-0.2694653
20	0xbeddf8bd	-0.43353835
21	0xbe06c2c2	-0.13160232
22	0xbe05f5e8	-0.13082087
23	0xbe48e036	-0.1961678
24	0xbd9367bd	-0.07197521
25	0x3dfdcc0e	0.12392436
26	0xbd71f522	-0.059071667
27	0xbc904f3d	-0.017615909
28	0xbe2284b2	-0.15870932
29	0xbe69976e	-0.22811672
30	0xbddf84b6	-0.109139845
31	0x3c6f584e	0.014608456
32	0xbe679fe0	-0.22619581
33	0xbf0f023e	-0.55862796
34	0xbd4f1f92	-0.050567217
35	0xbe771483	-0.24128918
36	0xbd59c791	-0.053168837
37	0x3da6621e	0.08124183
38	0xbc7f0d6b	-0.015567164
39	0xbe24d506	-0.16096887
40	0xbe1c2f9f	-0.15252541
41	0xbe826954	-0.25470984
42	0x3d786187	0.060639884
43	0xbe879408	-0.26480126
44	0xbe1dc4c4	-0.15407091
45	0xbeab0cd9	-0.3340824
46	0xbeb3a3f4	-0.35086024
47	0xbd6cb8c0	-0.05779338
48	0x3e4253b4	0.18977243
49	0xbedeae35	-0.43492284
50	0xbc9a9f0b	-0.018874666
51	0x3d6e7082	0.058212765
52	0xbe4630bb	-0.19354527
53	0xbe27017f	-0.16309164
54	0xbcae908e	-0.021309163
55	0xbe2ece43	-0.1707087
56	0xbe165fb0	-0.1468494
57	0xbe5dfa44	-0.216775
58	0x3dac7e6d	0.08422551
59	0x3d76bd87	0.06023934
60	0xbd06b4db	-0.03288732
61	0x3be3f65f	0.00695686
62	0xbd5adafa	-0.05343149
63	0xbeb627be	-0.35577196
64	0x3e15ff43	0.14648156
65	0xbdf667db	-0.120315276
66	0x3d35ad58	0.044354767
67	0xbe2825b3	-0.16420631
68	0xbed68a71	-0.41902497
69	0xbd0d18b2	-0.03444738
70	0xbf0e1631	-0.5550261
71	0xbd3670af	-0.044541057
72	0xbe9e4328	-0.3091061
73	0x3e4d462b	0.20046298
74	0x3d525f9b	0.051360708
75	0x3d1458d5	0.03621753
76	0x3dc382df	0.09546446
77	0xbee1e38c	-0.44118917
78	0x3df465bd	0.119334675
79	0xbddcf7d5	-0.10789458
80	0xbec393ca	-0.38198692
81	0xbdab8232	-0.08374442
82	0xbbd2df97	-0.0064353454
83	0xbea158be	-0.31513017
84	0xbd49a7e8	-0.049232394
85	0xbd4346e4	-0.04767503
86	0x3dc86104	0.09784129
87	0xb8f83cab	-0.00011836862
88	0xbdcb1517	-0.09916132
89	0x3e1713f2	0.14753702
90	0xbe390aab	-0.18070476
91	0xbd7599b7	-0.059961047
92	0x3e42053e	0.18947312
93	0xbd10afbf	-0.035323855
94	0x3ccdf411	0.025140794
95	0xbba54b49	-0.005044375
96	0xbde43654	-0.11143175
97	0xbef71f44	-0.4826604
98	0xbe59fff1	-0.2128904
99	0x3dd0768e	0.101788625
100	0x3c660c69	0.014041045
101	0xbc02a382	-0.007973554
102	0xbc806b03	-0.015676027
103	0xbe5a9c1e	-0.21348616
104	0x3e48dab0	0.19614673
105	0xbe7d21ca	-0.24719921
106	0xbede3cb3	-0.43405685
107	0xbd693968	-0.056939512
108	0x3cbe4f4d	0.023231173
109	0xbe6fe70e	-0.23427984
110	0xbee428c9	-0.44562367
111	0xbe7d8d27	-0.24760877
112	0xbd4ac206	-0.04950144
113	0xbd3059d9	-0.043054435
114	0xbe4d9e2e	-0.20079872
115	0xbe086e46	-0.13323316
116	0xbd8f2352	-0.06989159
117	0xbdf246db	-0.11829921
118	0xbd98885c	-0.074478835
119	0xbe8a6b22	-0.2703486
120	0xbdd12181	-0.102114685
121	0xbeab3be1	-0.3344412
122	0xbc479cf2	-0.012183415
123	0xbee6e9fc	-0.4510039
124	0x3d71b28a	0.05900816
125	0xbe54b195	-0.20770867
126	0xbe77e422	-0.2420812
127	0xbbe364b2	-0.006939494
128	0x3e48ee12	0.19622067
129	0xbe0848de	-0.13309047
130	0x3e0f7269	0.14008488
131	0xbee86f4d	-0.45397416
132	0xbe204fc8	-0.15655434
133	0xbce496e6	-0.027903985
134	0x3e4023f1	0.1876371
135	0x3e72cb20	0.23710299
136	0xbdb53edf	-0.08849882
137	0xbdd3772f	-0.10325467
138	0x3d595f36	0.053069316
139	0x3d5a714e	0.053330712
140	0x3d9ce93a	0.07661672
141	0x3cf6a61e	0.030108508
142	0x3d7b4b0b	0.061350863
143	0x3e1185e6	0.14211234
144	0xbd482159	-0.048859928
145	0x3dd356ef	0.10319316
146	0xbc03e02d	-0.008049053
147	0x3db7f7de	0.08982824
148	0x3dabc3d7	0.08386963
149	0x3e121aca	0.14268032
150	0x3e179894	0.14804298
151	0x3c5b5bb5	0.013388564
152	0xbdf68022	-0.12036158
153	0x3cc753bd	0.024331922
154	0xbe0a4fd2	-0.13507012
155	0xbd4f2fb4	-0.050582603
156	0x3c86f782	0.016475443
157	0xbe404696	-0.18776926
158	0xbd2f2b31	-0.0427658
159	0xbcf5851b	-0.029970696
160	0x3d9b2c2b	0.07576784
161	0xbe285a7b	-0.16440766
162	0x3dd4b854	0.1038672
163	0x3de92486	0.113839194
164	0x3de1ae4d	0.11019573
165	0x3ddba782	0.10725309
166	0xbdd01e0b	-0.1016198
167	0xbe0bdf93	-0.13659506
168	0xbc738c2f	-0.014864965
169	0x3e39aeca	0.18133083
170	0x3e971cb8	0.29514098
171	0x3d230033	0.039795112
172	0x3e28eee8	0.16497386
173	0xbe36c113	-0.1784709
174	0x3dc658a2	0.09684874
175	0xbdfea909	-0.12434585
176	0xbd4e1f16	-0.050322615
177	0xbe5a4b79	-0.21317853
178	0xbd882e65	-0.06649474
179	0x3cc9ac96	0.024618428
180	0x3db03e30	0.08605611
181	0x3d189188	0.037248164
182	0xbf3ac50b	-0.72956914
183	0x3dc66292	0.096867695
184	0xbe7e066d	-0.24807139
185	0x3d8da0f3	0.06915464
186	0x3cc66265	0.02421684
187	0xbd1765a6	-0.036962174
188	0x3dc5ead3	0.0966393
189	0xbd96b047	-0.07357841
190	0x3e4db1ab	0.20087306
191	0xbc94493b	-0.018101325
192	0x3e145d6d	0.14488764
193	0xbd5d7078	-0.054062337
194	0xbf396cd0	-0.7243166
195	0xbe4de449	-0.20106615
196	0xbe24158d	-0.16023846
197	0xbda565b3	-0.08076038
198	0x3dcc9b76	0.09990589
199	0x3c53f701	0.012937308
200	0xbec52c00	-0.38510132
201	0xbdad1362	-0.084509626
202	0xbe0e7930	-0.13913417
203	0x3d1a17ad	0.037620235
204	0xbe248137	-0.16064917
205	0xbc3cbdae	-0.011519833
206	0x3d6e9616	0.0582486
207	0x3ea08d02	0.3135758
208	0xbdb60d32	-0.088892356
209	0xbe74c44a	-0.23903003
210	0xbe0448d8	-0.12918413
211	0xbe03f9ef	-0.12888311
212	0xbf22b5fc	-0.63558936
213	0x3e0ecde0	0.13945723
214	0xbd1af05e	-0.03782689
215	0x3e046cfe	0.12932202
216	0x3e0be887	0.13662921
217	0xbeb0c387	-0.34524176
218	0x3d8f6c53	0.07003083
219	0xbce959c8	-0.028485194
220	0x3c76132c	0.015019219
221	0xbda5af4b	-0.08090075
222	0x3c464dea	0.012103537
223	0xba3ba2cd	-0.0007157743
224	0xbce63f85	-0.02810646
225	0xbe94a5d6	-0.29032773
226	0x3de3d133	0.11123886
227	0xbe29cba8	-0.16581595
228	0xbe17d1ad	-0.14826079
229	0xbddef253	-0.108860634
230	0x3c01055e	0.007874815
231	0x3e132c72	0.14372423
232	0xbece2d43	-0.40268907
233	0xbe9bb694	-0.30412734
234	0x3e3c6524	0.18397957
235	0xbdf17671	-0.11790169
236	0xbe18e94b	-0.14932744
237	0xbe15215e	-0.1456351
238	0xbee1e607	-0.4412081
239	0x3e23424b	0.15943258
240	0x3d99aedf	0.07504057
241	0xbf57a073	-0.842292
242	0xbe86571d	-0.26238337
243	0xbdb0fa3b	-0.08641478
244	0x3b7638fa	0.0037570582
245	0xbe8f3939	-0.27973345
246	0x3d495f90	0.0491634
247	0x3dca70e8	0.098848164
248	0x3d826b91	0.06368173
249	0xbdc7be61	-0.09753109
250	0x39b8890f	0.0003519733
251	0xbe9521ad	-0.29127255
252	0xbe292277	-0.16517054
253	0xbcc2869a	-0.023745824
254	0x3cf79445	0.030222068
255	0xbf037e2a	-0.51364386

hidden_nets.1.bias f4 [128]
0	0xbdd26c20	-0.102745295
1	0x3d96efe9	0.07369978
2	0x3dbb54be	0.09147023
3	0x3d17bd65	0.037045855
4	0x3d185bfd	0.0371971
5	0x3ca32338	0.019914255
6	0xbd76ebe4	-0.060283557
7	0xbe01b0ea	-0.12665144
8	0xbe39ff12	-0.18163708
9	0xbe1fa4de	-0.15590236
10	0xbdd8925d	-0.105747916
11	0xbe523d56	-0.2053121
12	0x3d3c8571	0.046025697
13	0x3c4b21c8	0.012398191
14	0x3daf77d8	0.0856778
15	0x3d1424f3	0.03616805
16	0xbe1f37ad	-0.15548582
17	0x3ddbef9b	0.107390605
18	0xbe0cee52	-0.13762787
19	0x3daf393b	0.08555838
20	0x3d81f041	0.06344653
21	0xbe37a3cd	-0.17933579
22	0xbdbee5f6	-0.09321205
23	0x3d9516fb	0.07279774
24	0xbdca7f48	-0.09887558
25	0x3d073c1f	0.03301632
26	0x3d58f8a6	0.052971505
27	0xbcdc06cf	-0.026858715
28	0x3d92c02d	0.07165561
29	0x3d7c2cc1	0.06156612
30	0xbdfe3e8e	-0.12414275
31	0xbded46e4	-0.11585787
32	0x3dd91f41	0.10601664
33	0xbdceda5f	-0.10100245
34	0xbdb40ea8	-0.08791858
35	0x3d621560	0.055196166
36	0xbdb26d5e	-0.087122664
37	0xbe0370ba	-0.1283597
38	0x3d9b2227	0.075748734
39	0xbe1a0c6d	-0.15043803
40	0x3d624754	0.055243805
41	0xbdc7edde	-0.097621664
42	0x3da4b0a6	0.080415055
43	0x3d900fc6	0.070342585
44	0x3dcbb7a9	0.0994714
45	0xbd80ef09	-0.06295592
46	0x3d951cd2	0.07280888
47	0x3da14437	0.07874339
48	0x3dd21db3	0.10259571
49	0xbe26e70d	-0.16299076
50	0xbd888cd6	-0.06667487
51	0x3d68dd78	0.056851834
52	0xbd412b6d	-0.047160555
53	0x3de88132	0.11352767
54	0x3d36ec8e	0.04465919
55	0xbe5795fa	-0.21053305
56	0x3d81c1e9	0.063358136
57	0x3d527ef9	0.05139062
58	0x3d957dbf	0.07299375
59	0x3d14af69	0.036300097
60	0xbd5a8d74	-0.053357556
61	0xbdf73907	-0.12071424
62	0x3dc77b8c	0.097403616
63	0xbd7b118f	-0.061296042
64	0x3d8465ca	0.06464727
65	0x3dc23114	0.09482017
66	0x3b44e24c	0.003004211
67	0x3d0efa70	0.034906805
68	0xbe4ceaee	-0.20011494
69	0x3d896ddd	0.06710408
70	0x3da6a2e1	0.081365354
71	0x3ca6bfac	0.020355068
72	0xbe1c99c9	-0.1529304
73	0x3d5ade30	0.05343455
74	0x3dc5c510	0.09656727
75	0xbe12f848	-0.14352524
76	0xbd5fdc7c	-0.05465363
77	0x3da5a407	0.08087926
78	0x3c9af3cd	0.018915081
79	0x3da94e15	0.08266846
80	0x3d7d957c	0.061910138
81	0x3dafc408	0.08582312
82	0x3d94af0a	0.072599486
83	0x3d078d30	0.03309363
84	0xbd8c0ea2	-0.068387285
85	0x3d678fe6	0.056533717
86	0xbdc03033	-0.09384193
87	0xbd3b7d95	-0.04577406
88	0xbde23829	-0.11045868
89	0xbdfa83c8	-0.122321665
90	0x3bbcbd51	0.005759873
91	0x3d8a54bf	0.06754445
92	0x3da7b530	0.08188856
93	0xbdba3276	-0.09091656
94	0xbd926e82	-0.07149984
95	0xbe26597d	-0.16245075
96	0x3da3b5e1	0.07993675
97	0x3db28ed1	0.08718646
98	0xbdd6fdf9	-0.1049766
99	0x3dac2798	0.084059894
100	0x3daa792a	0.083238915
101	0x3d73a4f6	0.05948349
102	0x3dbfc3a6	0.09363489
103	0x3dcb5e53	0.099301
104	0x3d995e13	0.07488646
105	0xbda588e9	-0.08082754
106	0x3d8cd257	0.06876057
107	0xbe0f0409	-0.13966383
108	0xbdbb0c39	-0.09133191
109	0x3c85f9d3	0.016354477
110	0x3cf3ac23	0.029745167
111	0x3c9a95b6	0.018870216
112	0xbd40a8b7	-0.0470359
113	0x3d6d516c	0.057938978
114	0x3daea278	0.08527082
115	0xbe7224ff	-0.23646925
116	0xbdb041af	-0.08606278
117	0x3dc584a5	0.096444406
118	0xbe18d855	-0.14926274
119	0xbe3ff826	-0.18747005
120	0x3d8e33c6	0.06943469
121	0x3d5a8927	0.053353455
122	0x3d44bb20	0.04803002
123	0x3db92ddd	0.09041951
124	0xbc525371	-0.012837277
125	0x3d8621d4	0.06549421
126	0x3d6df527	0.058095124
127	0x3d8fe05e	0.070252165

hidden_nets.2.weight f4 [64, 128]
0	0x3c809f06	0.015700828
1	0xbbde4223	-0.0067827865
2	0xbe46cca0	-0.19413996
3	0xbd89215e	-0.066958174
4	0x3d96fa52	0.073719636
5	0xbe8bd8ed	-0.2731394
6	0xbd92edf5	-0.07174293
7	0x3e00e4f5	0.1258734
8	0xbe0f2500	-0.13978958
9	0xbed88364	-0.42287743
10	0xbe5b565e	-0.21419665
11	0x3ca2d59e	0.019877251
12	0xbe7dd2d5	-0.24787457
13	0xbeb4f510	-0.35343218
14	0xbe0e7453	-0.13911562
15	0xbd709a3d	-0.058740843
16	0x3cb2d214	0.021828689
17	0x3e5291bb	0.20563404
18	0xbe4284fa	-0.18996039
19	0x3e86285a	0.2620266
20	0xbe42c135	-0.19019015
21	0xbea6e8cf	-0.32599494
22	0x3da840b9	0.0821547
23	0x3e4e59d3	0.20151453
24	0xbd370047	-0.044678
25	0xbde9648e	-0.113961324
26	0xb9d3b5ed	-0.000403806
27	0x3db57760	0.088606596
28	0x3dd919fe	0.10600661
29	0xbe014d33	-0.12627105
30	0xbe5663a8	-0.20936453
31	0xbe0c45ad	-0.13698454
32	0xbe974db3	-0.29551467
33	0x3e107b15	0.14109452
34	0xbd9736d9	-0.07383508
35	0xbdcd58f2	-0.100267306
36	0xbc7469ee	-0.014917834
37	0x3e03701d	0.12835737
38	0xbebc3f8c	-0.36767232
39	0xbea7745f	-0.32705972
40	0xbe3ab6b8	-0.18233764
41	0x3e4c6451	0.19960143
42	0x3d4b0645	0.049566526
43	0xbe918349	-0.28420475
44	0x3d902451	0.07038177
45	0x3c41b214	0.011822242
46	0xbe62a099	-0.22131576
47	0xbea8bf64	-0.3295852
48	0xbdc19eb5	-0.09454099
49	0xbd84b9b4	-0.064807326
50	0xbe8ed2e5	-0.27895275
51	0xbe906eac	-0.28209436
52	0x3ca73ce3	0.020414775
53	0xbe08cfd1	-0.13360526
54	0x3b41d170	0.0029574297
55	0xbdf8e6b2	-0.12153377
56	0x3d517ef0	0.051146448
57	0xbeadd7f4	-0.33953822
58	0xbdb6aabe	-0.08919285
59	0xbde632b9	-0.11240143
60	0xbdb79e74	-0.089657694
61	0xbee3dbfe	-0.44503778
62	0xbe232031	-0.15930249
63	0xbde287a6	-0.11061029
64	0x3dd04d24	0.101709634
65	0x3e780700	0.2422142
66	0xbe3a4efb	-0.18194191
67	0xb9f1a969	-0.00046093322
68	0x3dd73b85	0.10509399
69	0xbdddf7ac	-0.10838255
70	0xbec7f36a	-0.39052898
71	0xbe1bc0ce	-0.15210268
72	0xbdec7c00	-0.115470886
73	0xbe0cfcca	-0.13768306
74	0xbe50b751	-0.2038243
75	0x3e16d1ac	0.14728421
76	0xbe8548d3	-0.26032123
77	0xbe7c342a	-0.24629274
78	0xbdab3b93	-0.08360972
79	0x3d11064f	0.035406407
80	0xbdb4d47a	-0.08829589
81	0xbd9eae95	-0.07748143
82	0x3e2debca	0.16984478
83	0x3d0d2f46	0.03446891
84	0xbe811db7	-0.25217983
85	0xbea036c5	-0.31291786
86	0xbe8ba72b	-0.27275977
87	0x3dcdb0c8	0.10043484
88	0x3e958a45	0.29207054
89	0xbe8f821f	-0.28028962
90	0x3eaabf0d	0.33348885
91	0xbe928ee1	-0.28624633
92	0xbe9d9385	-0.3077661
93	0xbe05e98c	-0.13077372
94	0xbdd44c03	-0.103660606
95	0xbea9ea5d	-0.33186617
96	0xbe74cce1	-0.2390628
97	0xbe31fd31	-0.17381741
98	0xbd13063c	-0.035894617
99	0xbe56759d	-0.20943303
100	0xbe8c01c2	-0.2734509
101	0xbeb5548c	-0.35416067
102	0x3d7a1164	0.06105174
103	0xbdcbb4a5	-0.099465646
104	0xbea2c17e	-0.31788248
105	0xbeca4963	-0.39509115
106	0xbea9490c	-0.33063543
107	0x3cf610b4	0.030037262
108	0x3de6359e	0.112406954
109	0x3c9f13ac	0.01941856
110	0xbe926c8a	-0.28598434
111	0xbe19bd0d	-0.15013523
112	0xbe14412d	-0.14477988
113	0x3e8bf1f2	0.27333027
114	0xbeaaef0b	-0.333855
115	0x3df85570	0.12125671
116	0xbdfc6822	-0.12324549
117	0xbe73f8ae	-0.23825333
118	0xbee3867d	-0.44438544
119	0xbd8fbedc	-0.070188254
120	0xbea58a10	-0.32331896
121	0x3cd33834	0.025783636
122	0x3cb7032f	0.022340385
123	0xb9b9805d	-0.00035381588
124	0xbdb510c9	-0.08841092
125	0x3d276bc6	0.040874265
126	0xbcb9dc4a	-0.02268805
127	0xbcc99f05	-0.02461196
128	0xbe393a59	-0.18088664
129	0x3e677d3e	0.2260637
130	0x3e3999db	0.18125097
131	0x3d36c8d2	0.04462511
132	0x3d593e8d	0.05303817
133	0xbdd72b2b	-0.105062805
134	0xbb958d01	-0.004563928
135	0xbe468d5b	-0.1938986
136	0xbe8640c1	-0.26221278
137	0xbe83e421	-0.25759986
138	0xbd87e6e5	-0.066358365
139	0xbe36e36a	-0.17860189
140	0x3d364ece	0.044508748
141	0xbea9c267	-0.3315613
142	0xbe9df22b	-0.30848822
143	0xbe0ed83d	-0.13949676
144	0xbe121649	-0.14266314
145	0x3be53a9f	0.0069955136
146	0x3d9e83e7	0.07740002
147	0x3e7402a1	0.23829128
148	0xbe7bdb57	-0.2459539
149	0x3daeaed2	0.08529438
150	0xbe437851	-0.19088866
151	0x3bdd45f4	0.006752724
152	0xbdc8b81c	-0.09800741
153	0xbdd53b88	-0.10411745
154	0x3da9ff10	0.083006024
155	0xbe1282b7	-0.14307676
156	0x3d482792	0.048865862
157	0xbd9b175e	-0.07572816
158	0x3dd946a0	0.10609174
159	0xbbb7b338	-0.0056060813
160	0xbd5bfac5	-0.05370595
161	0x3e097859	0.13424815
162	0xbd76648f	-0.060154494
163	0xbd859520	-0.06522584
164	0x3c65c20e	0.014023317
165	0xbeaef7be	-0.34173387
166	0xbeb6ed77	-0.35728046
167	0xbeb32b7e	-0.3499412
168	0xbd50dbb8	-0.05099079
169	0xbe390ea4	-0.18071991
170	0xbc916dcb	-0.017752549
171	0xbdd91481	-0.10599614
172	0xbdc2d8eb	-0.0951403
173	0xbdb1545b	-0.08658668
174	0xbe3c63e4	-0.1839748
175	0xbed2631d	-0.41091242
176	0xbda8e195	-0.08246151
177	0xbbd41355	-0.006472031
178	0xbda65497	-0.08121603
179	0xbe6c0a7c	-0.23050874
180	0xbdd2d2a9	-0.102940865
181	0xbc621574	-0.01379906
182	0x3de6dea8	0.11272937
183	0xbe943dd2	-0.28953415
184	0xbe8dd8c3	-0.2770444
185	0xbdb3c6de	-0.08778165
186	0xbe26d75d	-0.16293092
187	0xbcb5d5c1	-0.022196652
188	0xbe1354a1	-0.14387752
189	0xbe151a99	-0.14560927
190	0xbe096040	-0.13415623
191	0x3e13050d	0.14357395
192	0xb9af7395	-0.00033464716
193	0x3db3efe4	0.0878599
194	0xbe39ff52	-0.18163803
195	0xbe24a413	-0.16078214
196	0x3db0e1ed	0.08636842
197	0xbe856885	-0.26056305
198	0xbec3c768	-0.38238072
199	0xbcbcbcbb	-0.023039212
200	0x3c816647	0.01579584
201	0xbd95a307	-0.073064856
202	0xbe5ff84f	-0.21872066
203	0xbe10b689	-0.14132132
204	0xbe3665dd	-0.17812295
205	0x3e43605a	0.19079724
206	0xb984e137	-0.000253448
207	0x3eb51462	0.35367113
208	0x3c2a25e6	0.010385012
209	0x3e1cfd1f	0.15330933
210	0xbe1b508a	-0.15167442
211	0xbe32e2b2	-0.1746929
212	0xbe04a0e1	-0.12951995
213	0xbe313e62	-0.17308953
214	0xbe370677	-0.1787356
215	0x3d604552	0.05475361
216	0x3ddac88e	0.10682784
217	0x3d698bf7	0.057018247
218	0xbe7b1947	-0.24521361
219	0xbda365ce	-0.07978402
220	0x3dc81a9f	0.097707026
221	0x3dc60bf2	0.09670247
222	0xbdf5d9f4	-0.12004462
223	0xbe569802	-0.20956424
224	0xbe849a4a	-0.25898963
225	0xbdcae25a	-0.099064544
226	0xbe6ac93a	-0.22928324
227	0xbe48bf47	-0.19604217
228	0xbe6aa35e	-0.22913882
229	0xbeba51d5	-0.36390558
230	0x39c55b07	0.0003764259
231	0xbd6050a8	-0.05476442
232	0xbf04b620	-0.518404
233	0xbde22dcd	-0.11043892
234	0xbe0856ae	-0.13314316
235	0xbdeeb8b3	-0.11656322
236	0x3e2fbdf5	0.17162307
237	0x3c774271	0.015091524
238	0x3daaa22c	0.08331713
239	0xbdd9cb5f	-0.10634493
240	0xbd7eb6a8	-0.062185913
241	0x3d9b4520	0.07581544
242	0xbdda7099	-0.106660075
243	0x3c15d071	0.009143935
244	0xbdfe66cf	-0.12421953
245	0xbe98e6df	-0.2986364
246	0xbd8b6cc0	-0.06807852
247	0xbe1cbdd5	-0.1530679
248	0xbea612fe	-0.32436365
249	0x3c867056	0.016410988
250	0xbdbe2e3d	-0.09286163
251	0xbd28c799	-0.041205976
252	0xbdba7434	-0.09104195
253	0xbe0e1edc	-0.1387896
254	0x3c1e315a	0.009655321
255	0x3e23a336	0.15980229

hidden_nets.2.bias f4 [64]
0	0xbdbcb436	-0.0921406
1	0xbe0c1665	-0.13680418
2	0x3f7fa21d	0.9985674
3	0x3f5da34d	0.865773
4	0x3f770f1e	0.9650744
5	0x3f80ed34	1.0072389
6	0xbdb267dc	-0.08711216
7	0x3f4d45d6	0.80184686
8	0x3e03ecbe	0.12883279
9	0x3de9d427	0.11417418
10	0x3ee6be48	0.45067048
11	0x3f60fc02	0.87884533
12	0x3f28dddd	0.65963537
13	0x3edc1d1b	0.42990956
14	0x3f20edb0	0.6286268
15	0x3f56c0d9	0.8388801
16	0x3f65c932	0.89760125
17	0x3e626332	0.22108153
18	0x3f323330	0.69609356
19	0x3f4f87dc	0.8106668
20	0xbdee7344	-0.11643079
21	0x3e1f3c93	0.15550451
22	0x3f68cc80	0.9093704
23	0x3f049b06	0.51799047
24	0x3f5af131	0.8552428
25	0x3f6a31e7	0.91482395
26	0x3f6b5833	0.91931456
27	0x3f77df3c	0.96825004
28	0x3f6dd355	0.9290059
29	0xbde2da6f	-0.11076819
30	0x3f7c81d6	0.98635614
31	0x3f67c71f	0.9053821
32	0x3f78a333	0.9712402
33	0xbd8f9561	-0.07010914
34	0x3f607f03	0.87693805
35	0x3f608eda	0.87717974
36	0x3f7ee5b3	0.99569243
37	0x3f6e5f2f	0.9311399
38	0x3f1910c1	0.5979119
39	0x3f596293	0.8491604
40	0x3f5b8d55	0.8576253
41	0x3f6caa62	0.92447484
42	0x3f4c998e	0.79921806
43	0x3f6b5821	0.9193135
44	0x3f6530dd	0.89527684
45	0xbe0708d4	-0.13186961
46	0xbdd7e238	-0.10541195
47	0x3f5f931b	0.8733384
48	0x3f4155a7	0.7552132
49	0x3f66863b	0.9004857
50	0x3f44bae5	0.7684768
51	0x3f748edb	0.9553048
52	0x3f70069f	0.93760103
53	0x3f234cc0	0.63788986
54	0x3f73a924	0.95179963
55	0x3f6a0fd5	0.9143041
56	0x3f51eae3	0.81999034
57	0x3e8fb9b1	0.2807136
58	0x3f6c363c	0.92270255
59	0x3e50f026	0.2040411
60	0x3f537a0d	0.8260811
61	0xbd998aa8	-0.0749715
62	0x3f3621c2	0.7114526
63	0xbe08458d	-0.13307782

value_stream.weight f4 [1, 64]
0	0xbe93d772	-0.2887531
1	0xbda14ef5	-0.07876388
2	0x3f1a8580	0.60359955
3	0x3f23df34	0.64012456
4	0x3f1cb714	0.61216855
5	0x3f609005	0.87719756
6	0xbe463afd	-0.1935844
7	0x3f455384	0.7708056
8	0xbf37faa7	-0.7186684
9	0x3f3fdb96	0.74944437
10	0x3f30500f	0.6887216
11	0x3f47c376	0.78032625
12	0x3f32e77d	0.69884473
13	0x3f2c7093	0.67359275
14	0x3f17f173	0.593528
15	0x3f32b5a4	0.6980841
16	0x3f25ba05	0.6473697
17	0x3f0a788f	0.5409021
18	0x3f249bf4	0.64300466
19	0x3f25caa0	0.64762306
20	0xbdb39adb	-0.08769771
21	0xbf193dfc	-0.59860206
22	0x3f437483	0.7634966
23	0x3f329c96	0.6977018
24	0x3f2f6c4f	0.6852464
25	0x3f431a6e	0.76212204
26	0x3f356f08	0.70872545
27	0x3f3642b3	0.71195525
28	0x3f33bdfa	0.70211756
29	0xbdb1ec33	-0.086876296
30	0x3f2b8014	0.66992307
31	0x3f2df2b2	0.6794845
32	0x3f254e5c	0.6457269
33	0xbdf1f5e3	-0.11814477
34	0x3f2d2c61	0.6764584
35	0x3f2b7cc0	0.6698723
36	0x3f17c473	0.5928413
37	0x3f370b91	0.71502024
38	0x3f226839	0.6344028
39	0x3f3b3ec3	0.7314264
40	0x3f24d65a	0.64389575
41	0x3f454429	0.7705713
42	0x3f22d0ba	0.6359974
43	0x3f3927cf	0.7232637
44	0x3f2c37a2	0.6727239
45	0xbe795fff	-0.24353026
46	0xbdcdbce3	-0.10045793
47	0x3f2c3d44	0.67280984
48	0x3f2dddab	0.67916363
49	0x3f254e5b	0.64572686
50	0x3f2f93cf	0.68584913
51	0x3f2d089e	0.67591274
52	0x3f2dabfd	0.6784056
53	0x3f1fc69a	0.62412417
54	0x3f2023c2	0.6255456
55	0x3f253c70	0.64545345
56	0x3f15e904	0.5855868
57	0xbf0098b4	-0.50233006
58	0x3f332012	0.6997081
59	0x3e1e4b7c	0.15458483
60	0x3f1f0b98	0.62127066
61	0x3da0b2d5	0.078466095
62	0x3f2c134e	0.67216957
63	0xbe66e107	-0.22546779

advantage_stream.weight f4 [5, 64]
0	0x3d5de889	0.05417684
1	0xbe99ff32	-0.3007751
2	0x3da3d05a	0.07998724
3	0xbd90cea1	-0.07070661
4	0x3d8b7999	0.06810302
5	0xbd5b1f20	-0.05349648
6	0xbdc3b9fe	-0.095569596
7	0xbbe71052	-0.007051506
8	0x3ecc7644	0.3993398
9	0x3d886a12	0.06660856
10	0xbd540ce4	-0.051770106
11	0x3dda45c4	0.10657838
12	0xbd4ab37c	-0.049487576
13	0x3dc870f1	0.09787167
14	0x3d3f610f	0.04672342
15	0xbd05001a	-0.0324708
16	0x3e14c40e	0.14527914
17	0xbd51c467	-0.051212694
18	0x3d9ba0f9	0.075990625
19	0xbd85e201	-0.065372474
20	0x3e81c2ae	0.2534384
21	0x3edc45f8	0.43022132
22	0xbd3bd458	-0.045856804
23	0xbdc84772	-0.09779252
24	0x3dcc75e4	0.09983423
25	0x3c387091	0.011257307
26	0x3e0aca01	0.13553621
27	0x3c4203d4	0.011841733
28	0x3c9d6199	0.019211577
29	0xbc9e6452	-0.019334946
30	0xbdd22756	-0.10261409
31	0x3cda76fb	0.026668062
32	0xbce18a34	-0.02753172
33	0x3e3030f0	0.17206168
34	0x3c3a1844	0.011358324
35	0x3e227667	0.1586548
36	0x3dcc3466	0.09970932
37	0x3e32b024	0.17450005
38	0xbe37641f	-0.17909287
39	0x3dd8a85f	0.10578989
40	0x3d4c215b	0.049836498
41	0x3e5aa604	0.21352392
42	0xbc7a649b	-0.015282775
43	0x3e2e06eb	0.16994826
44	0x3dcc7d87	0.0998488
45	0x3eac67b2	0.33672863
46	0xbd31f529	-0.043446694
47	0x3de18782	0.11012174
48	0xbc7e241c	-0.015511539
49	0xbca3c05b	-0.019989183
50	0x3d1a8bd9	0.037731025
51	0xbc1d2262	-0.009590717
52	0x3d5b1b57	0.05349287
53	0xbdea55ae	-0.11442123
54	0xbcf18bbe	-0.02948558
55	0x3c849de2	0.016188566
56	0xbceaf72e	-0.028682318
57	0x3d623de9	0.055234823
58	0x3cbcaa59	0.023030447
59	0x3dcafcb6	0.09911482
60	0x3c894fd2	0.016761694
61	0xbe49fd4c	-0.19725531
62	0x3d3a71a2	0.045518525
63	0x3ead2ce2	0.33823305
64	0xbe4de5df	-0.2010722
65	0x3e0ed2f9	0.13947667
66	0x3c840564	0.016115852
67	0xbe1d7461	-0.15376426
68	0x3d6f9381	0.05849028
69	0x3cefe4fd	0.029283995
70	0xbeb5360f	-0.35392806
71	0xbcc7bb70	-0.02438137
72	0xbc4f3a12	-0.012648122
73	0x3e1634c8	0.14668572
74	0xbd2112a6	-0.039324425
75	0x3d3a4549	0.04547623
76	0xbd9b968e	-0.075970754
77	0x3e17c6eb	0.14821975
78	0x3db09bd1	0.086234696
79	0xbcb2304f	-0.021751551
80	0x3e010a74	0.12601644
81	0xbc9c9695	-0.019114772
82	0x3d8e75a9	0.06956036
83	0xbdb8d1f5	-0.09024421
84	0x3d702959	0.058633182
85	0xbed0ca7e	-0.4077949
86	0xbdc8db71	-0.0980748
87	0xbd445bc6	-0.047939084
88	0x3d30d8c2	0.043175466
89	0xbcddcd1b	-0.027075341
90	0x3d310d6a	0.043225683
91	0xbd4502ae	-0.04809826
92	0xbd952b99	-0.07283706
93	0x3dc0022e	0.09375416
94	0xbe20922f	-0.15680765
95	0x3c2fd4c7	0.010731882
96	0xbd57b2f8	-0.052660912
97	0x3dbb305e	0.09140085
98	0xbc17f772	-0.009275304
99	0x3dd12ebc	0.10213992
100	0x3d705184	0.05867149
101	0x3dc94873	0.09828272
102	0xbe09b08d	-0.13446255
103	0x3d830275	0.06396953
104	0x3c4cbab1	0.012495683
105	0x3e1bfc22	0.152329
106	0xbcb2dc49	-0.021833556
107	0x3dcacde3	0.09902551
108	0x3d9694c9	0.07352597
109	0xbe839e9f	-0.25706956
110	0xbecb9d0d	-0.39768258
111	0x3d88b18d	0.0667449
112	0xbcc1af58	-0.02364318
113	0xba41089b	-0.0007363648
114	0x3d1e3dbd	0.038633097
115	0xbdb3bb7e	-0.08775996
116	0xbc95efb2	-0.018302772
117	0xbc820307	-0.015870584
118	0xbd439681	-0.047750954
119	0x3b836bee	0.004010669
120	0xbd8786a0	-0.066174746
121	0x3e639eac	0.22228497
122	0xbce6fb3c	-0.02819597
123	0xbe42247d	-0.18959232
124	0x3b443535	0.002993894
125	0xbe8536b0	-0.26018286
126	0x3d3ec72a	0.046576656
127	0xbda63e61	-0.081173666
128	0xbd246dd9	-0.04014382
129	0xbe49f8cd	-0.19723816
130	0x3dcd7745	0.100325145
131	0xbda0cffe	-0.07852171
132	0x3d98e74b	0.07465991
133	0x3c22245e	0.009896366
134	0xbde93fb0	-0.113891006
135	0x3d713933	0.05889244
136	0x3e15e86b	0.14639442
137	0x3ebe39e5	0.37153545
138	0x3cc4807c	0.023987047
139	0x3d8bfdfa	0.068355516
140	0xbcb9075e	-0.02258652
141	0xbc691337	-0.014225773
142	0x3da0b65e	0.07847284
143	0xbc0dde6f	-0.008658989
144	0x3e123d41	0.14281179
145	0x3e5087a0	0.20364237
146	0x3d804707	0.062635474
147	0x3c455955	0.012045224
148	0xbe413f03	-0.18871693
149	0xbe4aa396	-0.19788966
150	0xbd87b9a0	-0.06627202
151	0x3d2b61c3	0.04184128
152	0x3df040b5	0.11731092
153	0x3d3e6ec3	0.04649235
154	0x3ddfc91a	0.10927029
155	0x3c3cd1a2	0.01152459
156	0xbb252674	-0.0025199922
157	0xbe8a6ae8	-0.27034688
158	0xbdc1b441	-0.09458209
159	0x3d794230	0.060854137
160	0xbc86d547	-0.01645912
161	0x3e1ca16e	0.15295956
162	0xbc147cda	-0.00906297
163	0x3e0a3c1f	0.13499497
164	0x3d887320	0.06662583
165	0x3e07da2f	0.13266824
166	0xbd34bc05	-0.044124622
167	0x3daca883	0.084305786
168	0x3da3e7af	0.080031745
169	0x3e1dcbc1	0.15409757
170	0xbcae8cd2	-0.021307383
171	0x3e10fb6f	0.14158414
172	0x3dc95a60	0.09831691
173	0xbe002117	-0.12512623
174	0x3d668d23	0.056286942
175	0x3dd771fb	0.10519787
176	0x3cae8086	0.02130152
177	0x3d08418c	0.033265635
178	0x3d79cb60	0.06098497
179	0xbc3dc1e7	-0.011581874
180	0x3cd8359a	0.026392747
181	0xbd6ff8dc	-0.05858694
182	0xbcc42333	-0.023942566
183	0x3c87b898	0.016567513
184	0xbd81dcc9	-0.063409396
185	0x3ebff12e	0.37488693
186	0xbb88e130	-0.004177235
187	0x3e283f9f	0.1643052
188	0x3d331b0d	0.04372697
189	0x3e04b78e	0.12960646
190	0x3d75387a	0.059868313
191	0xbdaae3e2	-0.083442464
192	0x3e11f3ab	0.14253108
193	0x3d0cae54	0.03434594
194	0x3d81a9a4	0.063311845
195	0xbdce2f9c	-0.100676745
196	0x3d822dc5	0.06356386
197	0xbe1f75ef	-0.15572332
198	0xbe113147	-0.14178954
199	0xbd566752	-0.052344628
200	0xbe36e824	-0.17861992
201	0x3c17082c	0.009218257
202	0xbd576506	-0.052586578
203	0x3d5603e7	0.052249815
204	0xbd980571	-0.07422913
205	0x3e504b8e	0.20341322
206	0x3cdffa48	0.027341023
207	0xbd33d455	-0.043903667
208	0x3de74356	0.1129214
209	0xbe3d3216	-0.18476138
210	0x3d13fdec	0.03613083
211	0xbdca21c0	-0.098697186
212	0xbe8c0a10	-0.27351427
213	0x3e3ecbd7	0.18632446
214	0xbdd18dcd	-0.102321245
215	0xbda7a03a	-0.08184858
216	0x3d7b3806	0.061332725
217	0x3cd9ea2d	0.026600922
218	0x3d8cf9f5	0.06883613
219	0xbd720711	-0.05908877
220	0xbd374f40	-0.044753313
221	0x3e2765a2	0.16347364
222	0xbe136c8b	-0.14396875
223	0x3ce1ad0a	0.027548332
224	0xbc0dc268	-0.008652307
225	0xbd7790d0	-0.06044084
226	0xbb3a1329	-0.0028392768
227	0x3d87e0d6	0.06634681
228	0x3da61e8c	0.08111295
229	0x3d14f4ac	0.03636615
230	0xbe0ab5d3	-0.13545923
231	0x3dab71bd	0.08371303
232	0x3d0b3d66	0.0339941
233	0x3d81c91b	0.06337186
234	0xbd9df230	-0.07712209
235	0x3df01f9c	0.11724779
236	0x3d80ca60	0.062886
237	0xbdf3a4c7	-0.11896663
238	0xbd069617	-0.03285798
239	0x3d2b570c	0.04183106
240	0xbbc0c5b8	-0.005882945
241	0xbd003416	-0.031299673
242	0x3cd46285	0.025925884
243	0xbd8bd282	-0.068272606
244	0xbd74390a	-0.05962471
245	0xbe0c3714	-0.13692886
246	0xbdc506c1	-0.09620429
247	0xbc7324e1	-0.014840336
248	0xbcf21580	-0.029551268
249	0xbe1885cd	-0.14894791
250	0xbd2244ce	-0.0396164
251	0x3ea6c5b3	0.32572708
252	0x3c61ea1f	0.013788729
253	0xbe055f39	-0.13024606
254	0x3c2e67f9	0.010644906
255	0xbd0f97d5	-0.035056908

advantage_stream.bias f4 [5]
0	0xbf095df3	-0.5365898
1	0x3ebc3ee4	0.36766732
2	0xbf87beee	-1.0605142
3	0x3f51e935	0.8199647
4	0x3e24fbb3	0.1611164

hidden_nets.0.weight f4 [128, 11]
0	0x3d25118a	0.04029993
1	0xbce3ca1a	-0.02780633
2	0xbe96754c	-0.29386365
3	0xbb936086	-0.0044975905
4	0xbea211c6	-0.31654185
5	0x3dafd91b	0.085863315
6	0x3de047f9	0.10951228
7	0xbd491dea	-0.049100794
8	0x3de900ea	0.113771275
9	0xbec5adcb	-0.38609156
10	0xbda4abd9	-0.0804059
11	0x3d83a21b	0.064274035
12	0x3db197ed	0.08671556
13	0xbe1525cc	-0.145652
14	0xbeaafb2a	-0.33394748
15	0x3dd135d6	0.102153465
16	0xbbb39908	-0.005480889
17	0xbd6439cd	-0.055719186
18	0xbe822b9d	-0.254239
19	0xbe341c67	-0.1758896
20	0xbe156dac	-0.14592618
21	0x3d85ce73	0.06533518
22	0x3db29bd1	0.08721126
23	0xbe86a652	-0.26298767
24	0xbea26f78	-0.3172567
25	0xbce4fab6	-0.02795158
26	0x3e31e78a	0.17373481
27	0xbe0f2a6a	-0.13981023
28	0x3a8b1c3f	0.0010613276
29	0xba05e797	-0.0005108057
30	0xbe08b1c3	-0.1334906
31	0xbc2bfbf4	-0.010497082
32	0x3db20868	0.086930096
33	0xbf23b3b3	-0.63946074
34	0xbe31d374	-0.17365819
35	0xbdb163db	-0.08661624
36	0xbf1394bc	-0.57648826
37	0x3e83b5e8	0.2572472
38	0x3cdaf723	0.026729172
39	0x3ca56ddc	0.020193987
40	0xbdc9af45	-0.09847883
41	0x3d8e8d11	0.069605
42	0x3e343d74	0.17601568
43	0x3db8ff7e	0.09033106
44	0x3d427b14	0.047480658
45	0x3e699da0	0.22814035
46	0xbea2c8ab	-0.31793723
47	0xbd5c3540	-0.05376172
48	0xbedcb05f	-0.4310331
49	0xbd29f2b0	-0.04149121
50	0xbcfed0ef	-0.031105487
51	0x3dee765e	0.116436705
52	0x3bea9407	0.0071587595
53	0xbd72738e	-0.059192233
54	0xbe0c36e2	-0.13692811
55	0x3e06d2e3	0.13166384
56	0xbe534f0e	-0.20635626
57	0xbb56f9eb	-0.0032802771
58	0xbea2bc1e	-0.31784147
59	0x3dae5955	0.085131325
60	0xbe5ae209	-0.21375288
61	0xbdb08f1b	-0.08621045
62	0xbdf6fb5d	-0.120596625
63	0x3ddc1ea6	0.10748033
64	0x3c75dc38	0.0150061175
65	0x3e3656e6	0.17806587
66	0xbe06b1ce	-0.13153765
67	0x3cc16eb3	0.023612356
68	0xbe7a174f	-0.24422954
69	0xbe398990	-0.18118882
70	0xbe61a092	-0.22033909
71	0xbf02c0f0	-0.5107565
72	0xbde0728e	-0.109593496
73	0xbd5282b7	-0.05139419
74	0xbe0da503	-0.13832478
75	0xbe1f7205	-0.15570839
76	0xbe2cc34b	-0.16871373
77	0xbda16cdf	-0.07882094
78	0x3d70b076	0.058762036
79	0xbda4ec82	-0.08052923
80	0xbf0f1cb9	-0.559032
81	0xbeabf7bf	-0.33587453
82	0x3e037521	0.1283765
83	0x3e0591eb	0.13043945
84	0x3df0f611	0.117656834
85	0x3e09f74d	0.13473244
86	0x3bbb4451	0.005714931
87	0x3c9b8b86	0.018987428
88	0x3d949a21	0.0725596
89	0xbd5443d9	-0.051822517
90	0xbebb370c	-0.36565435
91	0x3e42a1a6	0.19006976
92	0xbda61b98	-0.08110732
93	0xbe759ff4	-0.23986799
94	0xbddfe4af	-0.1093229
95	0xbe07ea75	-0.13273032
96	0xbdf42587	-0.1192122
97	0xbe2c4b9b	-0.16825716
98	0x3d8daaa1	0.069173105
99	0xbe24331f	-0.16035126
100	0xbeafafcb	-0.34313807
101	0x3d9cdf22	0.07659747
102	0x3cbb17a2	0.022838417
103	0x3e1f3c3d	0.15550323
104	0x3d9d2cac	0.07674536
105	0xbd429625	-0.04750647
106	0xbc72054c	-0.014771771
107	0x3d1ed4d4	0.038777187
108	0xbd9c63af	-0.07636201
109	0xbd6ef74d	-0.058341313
110	0xbd0779fd	-0.03307532
111	0x3d66ca99	0.056345556
112	0xbe30dd26	-0.17271861
113	0x3cff8481	0.031191112
114	0xbed1a492	-0.4094587
115	0xbc95bc88	-0.018278375
116	0x3ddfd04b	0.109284006
117	0x3d86af9b	0.06576463
118	0xbe12a252	-0.14319733
119	0x3d209d87	0.03921273
120	0x3e9f3957	0.31098434
121	0xbdf976b9	-0.12180848
122	0xbe1613c2	-0.14655975
123	0x3e1c4e5e	0.1526427
124	0x3c907195	0.017632285
125	0xbe26cf6c	-0.16290063
126	0xbba015f3	-0.004885429
127	0xbe921cf6	-0.2853772
128	0xbdfb3988	-0.122668326
129	0x3d8114bf	0.06302785
130	0xbeef3562	-0.46720415
131	0xbe85842e	-0.26077408
132	0xbef0490f	-0.4693074
133	0xbd250c4a	-0.040294923
134	0x3ea9c068	0.33154607
135	0xbf328d03	-0.69746417
136	0xbda776b7	-0.0817694
137	0x3d1bfb4d	0.038081456
138	0x3e02e2ee	0.1278188
139	0x3d9e24f0	0.07721889
140	0x3da1bfeb	0.078979336
141	0x3b130ff8	0.0022439938
142	0x3b76b008	0.0037641544
143	0xbe54c6dd	-0.20778985
144	0xbe7f609a	-0.24939194
145	0x3d861233	0.0654644
146	0x3e7c316d	0.2462823
147	0x3da52f4a	0.0806566
148	0xbd95451e	-0.07288574
149	0xbbb3ee51	-0.005491056
150	0xbe9efce6	-0.3105232
151	0x3e1759af	0.14780305
152	0xbd98181a	-0.07426472
153	0x3d1b9f2c	0.037993595
154	0x3ed4bf54	0.41552222
155	0xbe63f797	-0.22262417
156	0xbc4d0964	-0.012514446
157	0xbc80b4c2	-0.015711192
158	0x3e5ba1b7	0.21448408
159	0xbd17fea0	-0.037108064
160	0xbd0a925c	-0.033830985
161	0xbe0d392f	-0.13791345
162	0xbe0468dc	-0.12930626
163	0xbd2c1283	-0.04200984
164	0xbd404d59	-0.046948764
165	0xbd2ec6c7	-0.042670038
166	0x3d262ecc	0.040571973
167	0xbe15b257	-0.14618813
168	0xbda7f79f	-0.08201527
169	0xbe29ee2a	-0.16594759
170	0xbb9a8445	-0.004715475
171	0x3d49e270	0.049288213
172	0xbdcf6a92	-0.101277485
173	0x3dfa6e1b	0.12228032
174	0xbe1cc0d9	-0.1530794
175	0x3ddf7ec4	0.109128505
176	0x3d4e4501	0.050358776
177	0xbe2bf6cf	-0.16793369
178	0x3cd3a1c1	0.025833966
179	0x3e0496cd	0.12948151
180	0xbef49d8f	-0.47776458
181	0xbe0d07d6	-0.1377252
182	0xbc98f746	-0.018672597
183	0x3d90bf65	0.070677556
184	0x3bcfd24a	0.006342207
185	0x3d235537	0.03987619
186	0x3e71e476	0.23622307
187	0x3e9a903a	0.3018816
188	0xbe1e1e95	-0.15441354
189	0xbe75da52	-0.24009064
190	0xbcc17295	-0.023614207
191	0xbe12bdcb	-0.14330213
192	0xbd5f101a	-0.054458715
193	0xbe256473	-0.161516
194	0xbe69e2f4	-0.22840482
195	0xbdf5c035	-0.11999551
196	0xbdc3d5f7	-0.09562295
197	0xbe0934de	-0.13399073
198	0xbde613c1	-0.112342365
199	0xbe5815c7	-0.21102057
200	0xbe24b41e	-0.16084334
201	0x3ceb310b	0.028709909
202	0x3e0a685a	0.1351637
203	0x3cf59c7c	0.029981844
204	0x3d420819	0.047371004
205	0xbd10c463	-0.03534354
206	0x3e0e5ed1	0.13903357
207	0x3d2c7f7e	0.042113774
208	0x3dae5852	0.085129395
209	0x3e795383	0.24348263
210	0x3cc49a30	0.023999304
211	0xbe5dbeef	-0.21654867
212	0xbf0c774d	-0.5486954
213	0xbec160ce	-0.3776917
214	0x3e92d43a	0.2867754
215	0x3e18db44	0.14927393
216	0xbe266848	-0.16250718
217	0x39493e93	0.00019192164
218	0x3bba6135	0.0056878575
219	0xbd2b4964	-0.041818038
220	0x3ec857e0	0.39129543
221	0xbe22779c	-0.1586594
222	0xbd54d237	-0.05195829
223	0x3d07aa9e	0.033121698
224	0x3d9eccc7	0.07753902
225	0xbd051e7e	-0.032499783
226	0xbd691883	-0.05690814
227	0xbeafdd9a	-0.34348756
228	0x3dc217d2	0.094771996
229	0xbd111749	-0.035422597
230	0xbd9f52f6	-0.077794954
231	0x3eb9fc12	0.36325127
232	0xbe0868af	-0.13321184
233	0xbda578a9	-0.08079655
234	0xbcdb3dc5	-0.026762852
235	0x3e0d70b7	0.13812529
236	0xbcd8ea8c	-0.026479028
237	0xbc8051f6	-0.015664082
238	0xbe38e3e7	-0.18055688
239	0xbe332dd8	-0.17497957
240	0xbd76c4e6	-0.06024637
241	0x3c5ebcf4	0.013594855
242	0xbe0a06eb	-0.13479201
243	0x3c988eb7	0.01862274
244	0xbd88b1a7	-0.066745095
245	0x3efe17a9	0.49627426
246	0xbeac3199	-0.3363159
247	0xbd7b362f	-0.06133097
248	0x3bebac30	0.007192157
249	0x3dec536c	0.11539349
250	0xbe197233	-0.1498497
251	0xbca0306b	-0.019554337
252	0x3cac8a8d	0.02106216
253	0xbe701c23	-0.23448233
254	0xbdc9a95f	-0.09846758
255	0x3d85ec13	0.06539168

hidden_nets.0.bias f4 [128]
0	0xbce06722	-0.027392928
1	0xbdb5602d	-0.08856235
2	0xbe4259a2	-0.18979505
3	0xbe03248b	-0.12806909
4	0x3e4b0dca	0.19829479
5	0xbdb2e7cc	-0.08735618
6	0xbd3868c7	-0.0450218
7	0x3df75654	0.12077013
8	0xbd8b0c93	-0.06789508
9	0xbe4ca40b	-0.19984452
10	0xbc1a2ca5	-0.009410058
11	0x3d8deeea	0.06930335
12	0xbd747d7c	-0.059689984
13	0xbe1842ce	-0.14869234
14	0xbe02877b	-0.12746994
15	0xbc1d291c	-0.009592321
16	0xbdb96d23	-0.09054019
17	0xbda51e30	-0.080623984
18	0xbe1bcffc	-0.15216058
19	0xbd285bc2	-0.041103132
20	0xbe1b39c5	-0.15158756
21	0xbe7a7f25	-0.24462564
22	0xbd6a6777	-0.057227578
23	0xbe1c2a75	-0.15250571
24	0xbd913f27	-0.070921235
25	0x3c1d74d5	0.009610374
26	0xbe13d8fb	-0.1443824
27	0xbe0ec98b	-0.1394407
28	0x3d3c0ac4	0.045908704
29	0x3da28dc2	0.079371944
30	0xbdb13c0e	-0.08654033
31	0xbd454b95	-0.048167784
32	0xbdb13314	-0.086523205
33	0xbda2d210	-0.079502225
34	0xbe344215	-0.17603333
35	0xbd6bb733	-0.05754776
36	0xbdca4381	-0.098761566
37	0x3e139cbb	0.14415257
38	0x3e0808d3	0.13284616
39	0xbe4efb2d	-0.20213003
40	0xbe0e7c24	-0.13914543
41	0xbdcd5dc7	-0.10027652
42	0xbe0c2964	-0.13687664
43	0xbe1ea8d8	-0.15494096
44	0x3dd9376a	0.106062725
45	0xbe1b1222	-0.15143636
46	0xbe7596fa	-0.23983374
47	0x3d946d65	0.07247428
48	0x3dbb6af1	0.09151257
49	0xbe3b0eae	-0.18267319
50	0x3dc60422	0.09668757
51	0xbe61727c	-0.22016329
52	0x3c6dfe4d	0.014525962
53	0xbe080041	-0.13281347
54	0xbd010c70	-0.031506002
55	0xbd950d60	-0.07277942
56	0xbe3634f3	-0.17793636
57	0xbde93b65	-0.11388282
58	0xbceb4001	-0.028717043
59	0x3e5dc3c5	0.21656711
60	0xbdd91070	-0.10598838
61	0xbe1940c8	-0.14966118
62	0xbe247da8	-0.16063559
63	0xbe4825ba	-0.19545642
64	0xbd013600	-0.03154564
65	0xbdb08e72	-0.08620919
66	0x3e16f630	0.1474235
67	0xbdfb1981	-0.12260724
68	0x3de4fbce	0.111808404
69	0xbcdb5243	-0.026772624
70	0xbcc55074	-0.024086215
71	0x3e10ed3d	0.14152999
72	0xbd856af8	-0.06514543
73	0xbdd21eaf	-0.10259759
74	0xbd3f0bc4	-0.04664208
75	0xbce1a806	-0.02754594
76	0xbd25c5e1	-0.040471915
77	0xbdf022c2	-0.117253795
78	0x00000000	0.0
79	0xbc5b6507	-0.013390786
80	0xbe0a07d9	-0.13479556
81	0xbd220de0	-0.039564013
82	0x3b851467	0.00406127
83	0xbddd2b6b	-0.10799297
84	0xbd8a2349	-0.06745011
85	0x00000000	0.0
86	0xbd307a1b	-0.0430852
87	0xbe6b1403	-0.22956853
88	0xbceb16a5	-0.028697321
89	0xbd91119a	-0.07083435
90	0x3d6eeff3	0.058334302
91	0x3e5b80a4	0.21435791
92	0xbdbca4bc	-0.09211108
93	0xbe131bd5	-0.14366086
94	0x3d255d0f	0.04037195
95	0xbde3822a	-0.11108811
96	0x3db6ca98	0.089253604
97	0xbda7c30e	-0.081915006
98	0x3d90b7a0	0.07066274
99	0xbd0f1ba7	-0.03493848
100	0xbdd8e9e3	-0.10591485
101	0xbc93d8e6	-0.018047761
102	0xbc8d1a3d	-0.017224425
103	0x3ce61ac1	0.02808893
104	0x3dc9d3b5	0.09854833
105	0x3e1329fd	0.14371486
106	0xbe4cd195	-0.20001824
107	0x3dae1830	0.08500707
108	0xbe1893bf	-0.1490011
109	0xbd71c94a	-0.059029855
110	0xbe00950b	-0.12556855
111	0xbe93773f	-0.28801915
112	0xbd0a1cb6	-0.033718787
113	0x3e00724c	0.12543601
114	0xbde85670	-0.11344612
115	0xbdfa127c	-0.12210557
116	0x3c184403	0.009293559
117	0x3b81f657	0.0039661336
118	0xbcf30b06	-0.029668342
119	0xbe30a533	-0.17250519
120	0xbd82656e	-0.063670024
121	0xbe6fcd51	-0.23418166
122	0xbca0a440	-0.01960957
123	0x3ce1cd52	0.027563725
124	0xbd38d52d	-0.045125175
125	0x3d9b5fde	0.075866446
126	0x3c60b8d7	0.013715944
127	0x3d1291ad	0.03578346
